…
I0227 13:00:38.546977 19127 net.cpp:276] The NetState phase (0) differed from the phase (1) specified by a rule in layer accuracy
I0227 13:00:38.547170 19127 net.cpp:39] Initializing net from parameters: 
name: "model1_full"
layers {
  top: "data"
  top: "label"
  name: "data"
  type: DATA
  data_param {
    source: "/home/jaehyun/kaggle/nationalDataScienceBowl/data/typeD/train_lmdb"
    batch_size: 256
    backend: LMDB
    shuffle: true
  }
  include {
    phase: TRAIN
  }
  transform_param {
    mirror: true
    mean_file: "/home/jaehyun/kaggle/nationalDataScienceBowl/data/typeD/train_mean.binaryproto"
  }
}
layers {
  bottom: "data"
  top: "conv1"
  name: "conv1"
  type: CONVOLUTION
  blobs_lr: 1
  blobs_lr: 2
  weight_decay: 1
  weight_decay: 0
  convolution_param {
    num_output: 128
    kernel_size: 4
    stride: 2
    weight_filler {
      type: "gaussian"
      std: 0.01
    }
    bias_filler {
      type: "constant"
      value: 0
    }
  }
}
layers {
  bottom: "conv1"
  top: "conv1"
  name: "relu1"
  type: RELU
  relu_param {
    negative_slope: 0.1
  }
}
layers {
  bottom: "conv1"
  top: "cccp1"
  name: "cccp1"
  type: CONVOLUTION
  blobs_lr: 1
  blobs_lr: 2
  weight_decay: 1
  weight_decay: 0
  convolution_param {
    num_output: 128
    kernel_size: 1
    group: 1
    stride: 1
    weight_filler {
      type: "gaussian"
      std: 0.01
    }
    bias_filler {
      type: "constant"
      value: 0
    }
  }
}
layers {
  bottom: "cccp1"
  top: "cccp1"
  name: "relu_cccp1"
  type: RELU
  relu_param {
    negative_slope: 0.1
  }
}
layers {
  bottom: "cccp1"
  top: "pool1"
  name: "pool1"
  type: POOLING
  pooling_param {
    pool: MAX
    kernel_size: 3
    stride: 2
  }
}
layers {
  bottom: "pool1"
  top: "conv2"
  name: "conv2"
  type: CONVOLUTION
  blobs_lr: 1
  blobs_lr: 2
  weight_decay: 1
  weight_decay: 0
  convolution_param {
    num_output: 128
    kernel_size: 3
    weight_filler {
      type: "gaussian"
      std: 0.01
    }
    bias_filler {
      type: "constant"
      value: 1
    }
  }
}
layers {
  bottom: "conv2"
  top: "conv2"
  name: "relu2"
  type: RELU
  relu_param {
    negative_slope: 0.1
  }
}
layers {
  bottom: "conv2"
  top: "conv3"
  name: "conv3"
  type: CONVOLUTION
  blobs_lr: 1
  blobs_lr: 2
  weight_decay: 1
  weight_decay: 0
  convolution_param {
    num_output: 128
    kernel_size: 3
    weight_filler {
      type: "gaussian"
      std: 0.01
    }
    bias_filler {
      type: "constant"
      value: 0
    }
  }
}
layers {
  bottom: "conv3"
  top: "conv3"
  name: "relu3"
  type: RELU
  relu_param {
    negative_slope: 0.1
  }
}
layers {
  bottom: "conv3"
  top: "pool3"
  name: "pool3"
  type: POOLING
  pooling_param {
    pool: MAX
    kernel_size: 3
    stride: 2
  }
}
layers {
  bottom: "pool3"
  top: "fc4"
  name: "fc4"
  type: INNER_PRODUCT
  blobs_lr: 1
  blobs_lr: 2
  weight_decay: 1
  weight_decay: 0
  inner_product_param {
    num_output: 512
    weight_filler {
      type: "gaussian"
      std: 0.005
    }
    bias_filler {
      type: "constant"
      value: 1
    }
  }
}
layers {
  bottom: "fc4"
  top: "fc4"
  name: "relu4"
  type: RELU
  relu_param {
    negative_slope: 0.1
  }
}
layers {
  bottom: "fc4"
  top: "fc4"
  name: "drop4"
  type: DROPOUT
  dropout_param {
    dropout_ratio: 0.5
  }
}
layers {
  bottom: "fc4"
  top: "fc5"
  name: "fc5"
  type: INNER_PRODUCT
  blobs_lr: 1
  blobs_lr: 2
  weight_decay: 1
  weight_decay: 0
  inner_product_param {
    num_output: 512
    weight_filler {
      type: "gaussian"
      std: 0.005
    }
    bias_filler {
      type: "constant"
      value: 1
    }
  }
}
layers {
  bottom: "fc5"
  top: "fc5"
  name: "relu5"
  type: RELU
  relu_param {
    negative_slope: 0.1
  }
}
layers {
  bottom: "fc5"
  top: "fc5"
  name: "drop5"
  type: DROPOUT
  dropout_param {
    dropout_ratio: 0.5
  }
}
layers {
  bottom: "fc5"
  top: "fc6"
  name: "fc6"
  type: INNER_PRODUCT
  blobs_lr: 1
  blobs_lr: 2
  weight_decay: 1
  weight_decay: 0
  inner_product_param {
    num_output: 121
    weight_filler {
      type: "gaussian"
      std: 0.01
    }
    bias_filler {
      type: "constant"
      value: 0
    }
  }
}
layers {
  bottom: "fc6"
  bottom: "label"
  top: "loss"
  name: "loss"
  type: SOFTMAX_LOSS
}
state {
  phase: TRAIN
}
I0227 13:00:38.548173 19127 layer_factory.hpp:78] Creating layer data
I0227 13:00:38.548205 19127 data_transformer.cpp:24] Loading mean file from/home/jaehyun/kaggle/nationalDataScienceBowl/data/typeD/train_mean.binaryproto
I0227 13:00:38.548311 19127 net.cpp:68] Creating Layer data
I0227 13:00:38.548334 19127 net.cpp:357] data -> data
I0227 13:00:38.548365 19127 net.cpp:357] data -> label
I0227 13:00:38.548389 19127 net.cpp:97] Setting up data
I0227 13:00:38.548410 19127 data_layer.cpp:34] Opening dataset /home/jaehyun/kaggle/nationalDataScienceBowl/data/typeD/train_lmdb
I0227 13:00:38.548540 19127 lmdb_dataset.cpp:73] what the fuck!!
I0227 13:00:38.548621 19127 data_layer.cpp:73] output data size: 256,1,48,48
I0227 13:00:38.550225 19127 net.cpp:104] Top shape: 256 1 48 48 (589824)
I0227 13:00:38.550253 19127 net.cpp:104] Top shape: 256 1 1 1 (256)
I0227 13:00:38.550267 19127 layer_factory.hpp:78] Creating layer conv1
I0227 13:00:38.550290 19127 net.cpp:68] Creating Layer conv1
I0227 13:00:38.550303 19127 net.cpp:395] conv1 <- data
I0227 13:00:38.550333 19127 net.cpp:357] conv1 -> conv1
I0227 13:00:38.550354 19127 net.cpp:97] Setting up conv1
I0227 13:00:38.583997 19127 net.cpp:104] Top shape: 256 128 23 23 (17334272)
I0227 13:00:38.584094 19127 layer_factory.hpp:78] Creating layer relu1
I0227 13:00:38.584127 19127 net.cpp:68] Creating Layer relu1
I0227 13:00:38.584152 19127 net.cpp:395] relu1 <- conv1
I0227 13:00:38.584170 19127 net.cpp:346] relu1 -> conv1 (in-place)
I0227 13:00:38.584193 19127 net.cpp:97] Setting up relu1
I0227 13:00:38.584214 19127 net.cpp:104] Top shape: 256 128 23 23 (17334272)
I0227 13:00:38.584228 19127 layer_factory.hpp:78] Creating layer cccp1
I0227 13:00:38.584245 19127 net.cpp:68] Creating Layer cccp1
I0227 13:00:38.584257 19127 net.cpp:395] cccp1 <- conv1
I0227 13:00:38.584272 19127 net.cpp:357] cccp1 -> cccp1
I0227 13:00:38.584290 19127 net.cpp:97] Setting up cccp1
I0227 13:00:38.585057 19127 net.cpp:104] Top shape: 256 128 23 23 (17334272)
I0227 13:00:38.585084 19127 layer_factory.hpp:78] Creating layer relu_cccp1
I0227 13:00:38.585101 19127 net.cpp:68] Creating Layer relu_cccp1
I0227 13:00:38.585114 19127 net.cpp:395] relu_cccp1 <- cccp1
I0227 13:00:38.585127 19127 net.cpp:346] relu_cccp1 -> cccp1 (in-place)
I0227 13:00:38.585142 19127 net.cpp:97] Setting up relu_cccp1
I0227 13:00:38.585158 19127 net.cpp:104] Top shape: 256 128 23 23 (17334272)
I0227 13:00:38.585171 19127 layer_factory.hpp:78] Creating layer pool1
I0227 13:00:38.585191 19127 net.cpp:68] Creating Layer pool1
I0227 13:00:38.585204 19127 net.cpp:395] pool1 <- cccp1
I0227 13:00:38.585219 19127 net.cpp:357] pool1 -> pool1
I0227 13:00:38.585234 19127 net.cpp:97] Setting up pool1
I0227 13:00:38.585269 19127 net.cpp:104] Top shape: 256 128 11 11 (3964928)
I0227 13:00:38.585285 19127 layer_factory.hpp:78] Creating layer conv2
I0227 13:00:38.585305 19127 net.cpp:68] Creating Layer conv2
I0227 13:00:38.585319 19127 net.cpp:395] conv2 <- pool1
I0227 13:00:38.585335 19127 net.cpp:357] conv2 -> conv2
I0227 13:00:38.585350 19127 net.cpp:97] Setting up conv2
I0227 13:00:38.591539 19127 net.cpp:104] Top shape: 256 128 9 9 (2654208)
I0227 13:00:38.591639 19127 layer_factory.hpp:78] Creating layer relu2
I0227 13:00:38.591660 19127 net.cpp:68] Creating Layer relu2
I0227 13:00:38.591681 19127 net.cpp:395] relu2 <- conv2
I0227 13:00:38.591694 19127 net.cpp:346] relu2 -> conv2 (in-place)
I0227 13:00:38.591711 19127 net.cpp:97] Setting up relu2
I0227 13:00:38.591725 19127 net.cpp:104] Top shape: 256 128 9 9 (2654208)
I0227 13:00:38.591737 19127 layer_factory.hpp:78] Creating layer conv3
I0227 13:00:38.591759 19127 net.cpp:68] Creating Layer conv3
I0227 13:00:38.591773 19127 net.cpp:395] conv3 <- conv2
I0227 13:00:38.591789 19127 net.cpp:357] conv3 -> conv3
I0227 13:00:38.591806 19127 net.cpp:97] Setting up conv3
I0227 13:00:38.597954 19127 net.cpp:104] Top shape: 256 128 7 7 (1605632)
I0227 13:00:38.597982 19127 layer_factory.hpp:78] Creating layer relu3
I0227 13:00:38.597998 19127 net.cpp:68] Creating Layer relu3
I0227 13:00:38.598012 19127 net.cpp:395] relu3 <- conv3
I0227 13:00:38.598032 19127 net.cpp:346] relu3 -> conv3 (in-place)
I0227 13:00:38.598047 19127 net.cpp:97] Setting up relu3
I0227 13:00:38.598062 19127 net.cpp:104] Top shape: 256 128 7 7 (1605632)
I0227 13:00:38.598074 19127 layer_factory.hpp:78] Creating layer pool3
I0227 13:00:38.598091 19127 net.cpp:68] Creating Layer pool3
I0227 13:00:38.598104 19127 net.cpp:395] pool3 <- conv3
I0227 13:00:38.598119 19127 net.cpp:357] pool3 -> pool3
I0227 13:00:38.598132 19127 net.cpp:97] Setting up pool3
I0227 13:00:38.598150 19127 net.cpp:104] Top shape: 256 128 3 3 (294912)
I0227 13:00:38.598161 19127 layer_factory.hpp:78] Creating layer fc4
I0227 13:00:38.598183 19127 net.cpp:68] Creating Layer fc4
I0227 13:00:38.598196 19127 net.cpp:395] fc4 <- pool3
I0227 13:00:38.598211 19127 net.cpp:357] fc4 -> fc4
I0227 13:00:38.598227 19127 net.cpp:97] Setting up fc4
I0227 13:00:38.622668 19127 net.cpp:104] Top shape: 256 512 1 1 (131072)
I0227 13:00:38.622726 19127 layer_factory.hpp:78] Creating layer relu4
I0227 13:00:38.622756 19127 net.cpp:68] Creating Layer relu4
I0227 13:00:38.622771 19127 net.cpp:395] relu4 <- fc4
I0227 13:00:38.622797 19127 net.cpp:346] relu4 -> fc4 (in-place)
I0227 13:00:38.622815 19127 net.cpp:97] Setting up relu4
I0227 13:00:38.622843 19127 net.cpp:104] Top shape: 256 512 1 1 (131072)
I0227 13:00:38.622855 19127 layer_factory.hpp:78] Creating layer drop4
I0227 13:00:38.622874 19127 net.cpp:68] Creating Layer drop4
I0227 13:00:38.622886 19127 net.cpp:395] drop4 <- fc4
I0227 13:00:38.622903 19127 net.cpp:346] drop4 -> fc4 (in-place)
I0227 13:00:38.622917 19127 net.cpp:97] Setting up drop4
I0227 13:00:38.622932 19127 net.cpp:104] Top shape: 256 512 1 1 (131072)
I0227 13:00:38.622944 19127 layer_factory.hpp:78] Creating layer fc5
I0227 13:00:38.622961 19127 net.cpp:68] Creating Layer fc5
I0227 13:00:38.622972 19127 net.cpp:395] fc5 <- fc4
I0227 13:00:38.622987 19127 net.cpp:357] fc5 -> fc5
I0227 13:00:38.623003 19127 net.cpp:97] Setting up fc5
I0227 13:00:38.633839 19127 net.cpp:104] Top shape: 256 512 1 1 (131072)
I0227 13:00:38.633872 19127 layer_factory.hpp:78] Creating layer relu5
I0227 13:00:38.633888 19127 net.cpp:68] Creating Layer relu5
I0227 13:00:38.633901 19127 net.cpp:395] relu5 <- fc5
I0227 13:00:38.633919 19127 net.cpp:346] relu5 -> fc5 (in-place)
I0227 13:00:38.633935 19127 net.cpp:97] Setting up relu5
I0227 13:00:38.633957 19127 net.cpp:104] Top shape: 256 512 1 1 (131072)
I0227 13:00:38.633970 19127 layer_factory.hpp:78] Creating layer drop5
I0227 13:00:38.633987 19127 net.cpp:68] Creating Layer drop5
I0227 13:00:38.633999 19127 net.cpp:395] drop5 <- fc5
I0227 13:00:38.634016 19127 net.cpp:346] drop5 -> fc5 (in-place)
I0227 13:00:38.634030 19127 net.cpp:97] Setting up drop5
I0227 13:00:38.634042 19127 net.cpp:104] Top shape: 256 512 1 1 (131072)
I0227 13:00:38.634054 19127 layer_factory.hpp:78] Creating layer fc6
I0227 13:00:38.634069 19127 net.cpp:68] Creating Layer fc6
I0227 13:00:38.634081 19127 net.cpp:395] fc6 <- fc5
I0227 13:00:38.634094 19127 net.cpp:357] fc6 -> fc6
I0227 13:00:38.634110 19127 net.cpp:97] Setting up fc6
I0227 13:00:38.636749 19127 net.cpp:104] Top shape: 256 121 1 1 (30976)
I0227 13:00:38.636773 19127 layer_factory.hpp:78] Creating layer loss
I0227 13:00:38.636795 19127 net.cpp:68] Creating Layer loss
I0227 13:00:38.636807 19127 net.cpp:395] loss <- fc6
I0227 13:00:38.636821 19127 net.cpp:395] loss <- label
I0227 13:00:38.636836 19127 net.cpp:357] loss -> loss
I0227 13:00:38.636852 19127 net.cpp:97] Setting up loss
I0227 13:00:38.636868 19127 layer_factory.hpp:78] Creating layer loss
I0227 13:00:38.636976 19127 net.cpp:104] Top shape: 1 1 1 1 (1)
I0227 13:00:38.636994 19127 net.cpp:110]     with loss weight 1
I0227 13:00:38.637047 19127 net.cpp:171] loss needs backward computation.
I0227 13:00:38.637059 19127 net.cpp:171] fc6 needs backward computation.
I0227 13:00:38.637070 19127 net.cpp:171] drop5 needs backward computation.
I0227 13:00:38.637081 19127 net.cpp:171] relu5 needs backward computation.
I0227 13:00:38.637092 19127 net.cpp:171] fc5 needs backward computation.
…
I0227 13:00:38.638036 19127 net.cpp:276] The NetState phase (1) differed from the phase (0) specified by a rule in layer data
I0227 13:00:38.638262 19127 net.cpp:39] Initializing net from parameters: 
name: "model1_full"
layers {
  top: "data"
  top: "label"
  name: "data"
  type: DATA
  data_param {
    source: "/home/jaehyun/kaggle/nationalDataScienceBowl/data/typeD/val_lmdb"
    batch_size: 256
    backend: LMDB
  }
  include {
    phase: TEST
  }
  transform_param {
    mirror: false
    mean_file: "/home/jaehyun/kaggle/nationalDataScienceBowl/data/typeD/train_mean.binaryproto"
  }
}
layers {
  bottom: "data"
  top: "conv1"
  name: "conv1"
  type: CONVOLUTION
  blobs_lr: 1
  blobs_lr: 2
  weight_decay: 1
  weight_decay: 0
  convolution_param {
    num_output: 128
    kernel_size: 4
    stride: 2
    weight_filler {
      type: "gaussian"
      std: 0.01
    }
    bias_filler {
      type: "constant"
      value: 0
    }
  }
}
layers {
  bottom: "conv1"
  top: "conv1"
  name: "relu1"
  type: RELU
  relu_param {
    negative_slope: 0.1
  }
}
layers {
  bottom: "conv1"
  top: "cccp1"
  name: "cccp1"
  type: CONVOLUTION
  blobs_lr: 1
  blobs_lr: 2
  weight_decay: 1
  weight_decay: 0
  convolution_param {
    num_output: 128
    kernel_size: 1
    group: 1
    stride: 1
    weight_filler {
      type: "gaussian"
      std: 0.01
    }
    bias_filler {
      type: "constant"
      value: 0
    }
  }
}
layers {
  bottom: "cccp1"
  top: "cccp1"
  name: "relu_cccp1"
  type: RELU
  relu_param {
    negative_slope: 0.1
  }
}
layers {
  bottom: "cccp1"
  top: "pool1"
  name: "pool1"
  type: POOLING
  pooling_param {
    pool: MAX
    kernel_size: 3
    stride: 2
  }
}
layers {
  bottom: "pool1"
  top: "conv2"
  name: "conv2"
  type: CONVOLUTION
  blobs_lr: 1
  blobs_lr: 2
  weight_decay: 1
  weight_decay: 0
  convolution_param {
    num_output: 128
    kernel_size: 3
    weight_filler {
      type: "gaussian"
      std: 0.01
    }
    bias_filler {
      type: "constant"
      value: 1
    }
  }
}
layers {
  bottom: "conv2"
  top: "conv2"
  name: "relu2"
  type: RELU
  relu_param {
    negative_slope: 0.1
  }
}
layers {
  bottom: "conv2"
  top: "conv3"
  name: "conv3"
  type: CONVOLUTION
  blobs_lr: 1
  blobs_lr: 2
  weight_decay: 1
  weight_decay: 0
  convolution_param {
    num_output: 128
    kernel_size: 3
    weight_filler {
      type: "gaussian"
      std: 0.01
    }
    bias_filler {
      type: "constant"
      value: 0
    }
  }
}
layers {
  bottom: "conv3"
  top: "conv3"
  name: "relu3"
  type: RELU
  relu_param {
    negative_slope: 0.1
  }
}
layers {
  bottom: "conv3"
  top: "pool3"
  name: "pool3"
  type: POOLING
  pooling_param {
    pool: MAX
    kernel_size: 3
    stride: 2
  }
}
layers {
  bottom: "pool3"
  top: "fc4"
  name: "fc4"
  type: INNER_PRODUCT
  blobs_lr: 1
  blobs_lr: 2
  weight_decay: 1
  weight_decay: 0
  inner_product_param {
    num_output: 512
    weight_filler {
      type: "gaussian"
      std: 0.005
    }
    bias_filler {
      type: "constant"
      value: 1
    }
  }
}
layers {
  bottom: "fc4"
  top: "fc4"
  name: "relu4"
  type: RELU
  relu_param {
    negative_slope: 0.1
  }
}
layers {
  bottom: "fc4"
  top: "fc4"
  name: "drop4"
  type: DROPOUT
  dropout_param {
    dropout_ratio: 0.5
  }
}
layers {
  bottom: "fc4"
  top: "fc5"
  name: "fc5"
  type: INNER_PRODUCT
  blobs_lr: 1
  blobs_lr: 2
  weight_decay: 1
  weight_decay: 0
  inner_product_param {
    num_output: 512
    weight_filler {
      type: "gaussian"
      std: 0.005
    }
    bias_filler {
      type: "constant"
      value: 1
    }
  }
}
layers {
  bottom: "fc5"
  top: "fc5"
  name: "relu5"
  type: RELU
  relu_param {
    negative_slope: 0.1
  }
}
layers {
  bottom: "fc5"
  top: "fc5"
  name: "drop5"
  type: DROPOUT
  dropout_param {
    dropout_ratio: 0.5
  }
}
layers {
  bottom: "fc5"
  top: "fc6"
  name: "fc6"
  type: INNER_PRODUCT
  blobs_lr: 1
  blobs_lr: 2
  weight_decay: 1
  weight_decay: 0
  inner_product_param {
    num_output: 121
    weight_filler {
      type: "gaussian"
      std: 0.01
    }
    bias_filler {
      type: "constant"
      value: 0
    }
  }
}
layers {
  bottom: "fc6"
  top: "prob"
  name: "prob"
  type: SOFTMAX
  include {
    phase: TEST
  }
}
layers {
  bottom: "prob"
  bottom: "label"
  top: "accuracy"
  name: "accuracy"
  type: ACCURACY
  accuracy_param {
    top_k: 1
  }
  include {
    phase: TEST
  }
}
layers {
  bottom: "fc6"
  bottom: "label"
  top: "loss"
  name: "loss"
  type: SOFTMAX_LOSS
}
state {
  phase: TEST
}
I0227 13:00:38.639343 19127 layer_factory.hpp:78] Creating layer data
I0227 13:00:38.639367 19127 data_transformer.cpp:24] Loading mean file from/home/jaehyun/kaggle/nationalDataScienceBowl/data/typeD/train_mean.binaryproto
I0227 13:00:38.639435 19127 net.cpp:68] Creating Layer data
I0227 13:00:38.639452 19127 net.cpp:357] data -> data
I0227 13:00:38.639472 19127 net.cpp:357] data -> label
I0227 13:00:38.639488 19127 net.cpp:97] Setting up data
I0227 13:00:38.639502 19127 data_layer.cpp:34] Opening dataset /home/jaehyun/kaggle/nationalDataScienceBowl/data/typeD/val_lmdb
I0227 13:00:38.639580 19127 lmdb_dataset.cpp:73] what the fuck!!
I0227 13:00:38.639618 19127 data_layer.cpp:73] output data size: 256,1,48,48
I0227 13:00:38.640807 19127 net.cpp:104] Top shape: 256 1 48 48 (589824)
I0227 13:00:38.640836 19127 net.cpp:104] Top shape: 256 1 1 1 (256)
I0227 13:00:38.640849 19127 layer_factory.hpp:78] Creating layer label_data_1_split
I0227 13:00:38.640879 19127 net.cpp:68] Creating Layer label_data_1_split
I0227 13:00:38.640893 19127 net.cpp:395] label_data_1_split <- label
I0227 13:00:38.640908 19127 net.cpp:357] label_data_1_split -> label_data_1_split_0
I0227 13:00:38.641049 19127 net.cpp:357] label_data_1_split -> label_data_1_split_1
I0227 13:00:38.641065 19127 net.cpp:97] Setting up label_data_1_split
I0227 13:00:38.641083 19127 net.cpp:104] Top shape: 256 1 1 1 (256)
I0227 13:00:38.641091 19127 net.cpp:104] Top shape: 256 1 1 1 (256)
I0227 13:00:38.641098 19127 layer_factory.hpp:78] Creating layer conv1
I0227 13:00:38.641115 19127 net.cpp:68] Creating Layer conv1
I0227 13:00:38.641122 19127 net.cpp:395] conv1 <- data
I0227 13:00:38.641135 19127 net.cpp:357] conv1 -> conv1
I0227 13:00:38.641147 19127 net.cpp:97] Setting up conv1
I0227 13:00:38.641386 19127 net.cpp:104] Top shape: 256 128 23 23 (17334272)
I0227 13:00:38.641415 19127 layer_factory.hpp:78] Creating layer relu1
I0227 13:00:38.641428 19127 net.cpp:68] Creating Layer relu1
I0227 13:00:38.641435 19127 net.cpp:395] relu1 <- conv1
I0227 13:00:38.641448 19127 net.cpp:346] relu1 -> conv1 (in-place)
I0227 13:00:38.641458 19127 net.cpp:97] Setting up relu1
I0227 13:00:38.641469 19127 net.cpp:104] Top shape: 256 128 23 23 (17334272)
I0227 13:00:38.641476 19127 layer_factory.hpp:78] Creating layer cccp1
I0227 13:00:38.641489 19127 net.cpp:68] Creating Layer cccp1
I0227 13:00:38.641495 19127 net.cpp:395] cccp1 <- conv1
I0227 13:00:38.641506 19127 net.cpp:357] cccp1 -> cccp1
I0227 13:00:38.641516 19127 net.cpp:97] Setting up cccp1
I0227 13:00:38.642477 19127 net.cpp:104] Top shape: 256 128 23 23 (17334272)
I0227 13:00:38.642500 19127 layer_factory.hpp:78] Creating layer relu_cccp1
I0227 13:00:38.642511 19127 net.cpp:68] Creating Layer relu_cccp1
I0227 13:00:38.642518 19127 net.cpp:395] relu_cccp1 <- cccp1
I0227 13:00:38.642530 19127 net.cpp:346] relu_cccp1 -> cccp1 (in-place)
I0227 13:00:38.642540 19127 net.cpp:97] Setting up relu_cccp1
I0227 13:00:38.642550 19127 net.cpp:104] Top shape: 256 128 23 23 (17334272)
I0227 13:00:38.642557 19127 layer_factory.hpp:78] Creating layer pool1
I0227 13:00:38.642570 19127 net.cpp:68] Creating Layer pool1
I0227 13:00:38.642576 19127 net.cpp:395] pool1 <- cccp1
I0227 13:00:38.642588 19127 net.cpp:357] pool1 -> pool1
I0227 13:00:38.642597 19127 net.cpp:97] Setting up pool1
I0227 13:00:38.642613 19127 net.cpp:104] Top shape: 256 128 11 11 (3964928)
I0227 13:00:38.642621 19127 layer_factory.hpp:78] Creating layer conv2
I0227 13:00:38.642632 19127 net.cpp:68] Creating Layer conv2
I0227 13:00:38.642638 19127 net.cpp:395] conv2 <- pool1
I0227 13:00:38.642650 19127 net.cpp:357] conv2 -> conv2
I0227 13:00:38.642662 19127 net.cpp:97] Setting up conv2
I0227 13:00:38.648840 19127 net.cpp:104] Top shape: 256 128 9 9 (2654208)
I0227 13:00:38.648879 19127 layer_factory.hpp:78] Creating layer relu2
I0227 13:00:38.648898 19127 net.cpp:68] Creating Layer relu2
I0227 13:00:38.648911 19127 net.cpp:395] relu2 <- conv2
I0227 13:00:38.648929 19127 net.cpp:346] relu2 -> conv2 (in-place)
I0227 13:00:38.648955 19127 net.cpp:97] Setting up relu2
I0227 13:00:38.648970 19127 net.cpp:104] Top shape: 256 128 9 9 (2654208)
I0227 13:00:38.648983 19127 layer_factory.hpp:78] Creating layer conv3
I0227 13:00:38.649008 19127 net.cpp:68] Creating Layer conv3
I0227 13:00:38.649019 19127 net.cpp:395] conv3 <- conv2
I0227 13:00:38.649035 19127 net.cpp:357] conv3 -> conv3
I0227 13:00:38.649054 19127 net.cpp:97] Setting up conv3
I0227 13:00:38.655189 19127 net.cpp:104] Top shape: 256 128 7 7 (1605632)
I0227 13:00:38.655225 19127 layer_factory.hpp:78] Creating layer relu3
I0227 13:00:38.655252 19127 net.cpp:68] Creating Layer relu3
I0227 13:00:38.655267 19127 net.cpp:395] relu3 <- conv3
I0227 13:00:38.655279 19127 net.cpp:346] relu3 -> conv3 (in-place)
I0227 13:00:38.655294 19127 net.cpp:97] Setting up relu3
I0227 13:00:38.655309 19127 net.cpp:104] Top shape: 256 128 7 7 (1605632)
I0227 13:00:38.655323 19127 layer_factory.hpp:78] Creating layer pool3
I0227 13:00:38.655338 19127 net.cpp:68] Creating Layer pool3
I0227 13:00:38.655349 19127 net.cpp:395] pool3 <- conv3
I0227 13:00:38.655364 19127 net.cpp:357] pool3 -> pool3
I0227 13:00:38.655380 19127 net.cpp:97] Setting up pool3
I0227 13:00:38.655397 19127 net.cpp:104] Top shape: 256 128 3 3 (294912)
I0227 13:00:38.655447 19127 layer_factory.hpp:78] Creating layer fc4
I0227 13:00:38.655467 19127 net.cpp:68] Creating Layer fc4
I0227 13:00:38.655478 19127 net.cpp:395] fc4 <- pool3
I0227 13:00:38.655496 19127 net.cpp:357] fc4 -> fc4
I0227 13:00:38.655514 19127 net.cpp:97] Setting up fc4
I0227 13:00:38.679539 19127 net.cpp:104] Top shape: 256 512 1 1 (131072)
I0227 13:00:38.679604 19127 layer_factory.hpp:78] Creating layer relu4
I0227 13:00:38.679626 19127 net.cpp:68] Creating Layer relu4
I0227 13:00:38.679641 19127 net.cpp:395] relu4 <- fc4
I0227 13:00:38.679658 19127 net.cpp:346] relu4 -> fc4 (in-place)
I0227 13:00:38.679677 19127 net.cpp:97] Setting up relu4
I0227 13:00:38.679708 19127 net.cpp:104] Top shape: 256 512 1 1 (131072)
I0227 13:00:38.679720 19127 layer_factory.hpp:78] Creating layer drop4
I0227 13:00:38.679739 19127 net.cpp:68] Creating Layer drop4
I0227 13:00:38.679751 19127 net.cpp:395] drop4 <- fc4
I0227 13:00:38.679765 19127 net.cpp:346] drop4 -> fc4 (in-place)
I0227 13:00:38.679780 19127 net.cpp:97] Setting up drop4
I0227 13:00:38.679792 19127 net.cpp:104] Top shape: 256 512 1 1 (131072)
I0227 13:00:38.679803 19127 layer_factory.hpp:78] Creating layer fc5
I0227 13:00:38.679824 19127 net.cpp:68] Creating Layer fc5
I0227 13:00:38.679836 19127 net.cpp:395] fc5 <- fc4
I0227 13:00:38.679850 19127 net.cpp:357] fc5 -> fc5
I0227 13:00:38.679867 19127 net.cpp:97] Setting up fc5
I0227 13:00:38.690664 19127 net.cpp:104] Top shape: 256 512 1 1 (131072)
I0227 13:00:38.690690 19127 layer_factory.hpp:78] Creating layer relu5
I0227 13:00:38.690711 19127 net.cpp:68] Creating Layer relu5
I0227 13:00:38.690723 19127 net.cpp:395] relu5 <- fc5
I0227 13:00:38.690737 19127 net.cpp:346] relu5 -> fc5 (in-place)
I0227 13:00:38.690750 19127 net.cpp:97] Setting up relu5
I0227 13:00:38.690768 19127 net.cpp:104] Top shape: 256 512 1 1 (131072)
I0227 13:00:38.690779 19127 layer_factory.hpp:78] Creating layer drop5
I0227 13:00:38.690796 19127 net.cpp:68] Creating Layer drop5
I0227 13:00:38.690809 19127 net.cpp:395] drop5 <- fc5
I0227 13:00:38.690822 19127 net.cpp:346] drop5 -> fc5 (in-place)
I0227 13:00:38.690836 19127 net.cpp:97] Setting up drop5
I0227 13:00:38.690848 19127 net.cpp:104] Top shape: 256 512 1 1 (131072)
I0227 13:00:38.690866 19127 layer_factory.hpp:78] Creating layer fc6
I0227 13:00:38.690883 19127 net.cpp:68] Creating Layer fc6
I0227 13:00:38.690896 19127 net.cpp:395] fc6 <- fc5
I0227 13:00:38.690909 19127 net.cpp:357] fc6 -> fc6
I0227 13:00:38.690923 19127 net.cpp:97] Setting up fc6
I0227 13:00:38.693505 19127 net.cpp:104] Top shape: 256 121 1 1 (30976)
I0227 13:00:38.693536 19127 layer_factory.hpp:78] Creating layer fc6_fc6_0_split
I0227 13:00:38.693562 19127 net.cpp:68] Creating Layer fc6_fc6_0_split
I0227 13:00:38.693573 19127 net.cpp:395] fc6_fc6_0_split <- fc6
I0227 13:00:38.693591 19127 net.cpp:357] fc6_fc6_0_split -> fc6_fc6_0_split_0
I0227 13:00:38.693608 19127 net.cpp:357] fc6_fc6_0_split -> fc6_fc6_0_split_1
I0227 13:00:38.693625 19127 net.cpp:97] Setting up fc6_fc6_0_split
I0227 13:00:38.693639 19127 net.cpp:104] Top shape: 256 121 1 1 (30976)
I0227 13:00:38.693650 19127 net.cpp:104] Top shape: 256 121 1 1 (30976)
I0227 13:00:38.693661 19127 layer_factory.hpp:78] Creating layer prob
I0227 13:00:38.693680 19127 net.cpp:68] Creating Layer prob
I0227 13:00:38.693692 19127 net.cpp:395] prob <- fc6_fc6_0_split_0
I0227 13:00:38.693717 19127 net.cpp:357] prob -> prob
I0227 13:00:38.693733 19127 net.cpp:97] Setting up prob
I0227 13:00:38.693753 19127 net.cpp:104] Top shape: 256 121 1 1 (30976)
I0227 13:00:38.693766 19127 layer_factory.hpp:78] Creating layer accuracy
I0227 13:00:38.693788 19127 net.cpp:68] Creating Layer accuracy
I0227 13:00:38.693799 19127 net.cpp:395] accuracy <- prob
I0227 13:00:38.693812 19127 net.cpp:395] accuracy <- label_data_1_split_0
I0227 13:00:38.693830 19127 net.cpp:357] accuracy -> accuracy
I0227 13:00:38.693851 19127 net.cpp:97] Setting up accuracy
I0227 13:00:38.693876 19127 net.cpp:104] Top shape: 1 1 1 1 (1)
I0227 13:00:38.693888 19127 layer_factory.hpp:78] Creating layer loss
I0227 13:00:38.693951 19127 net.cpp:68] Creating Layer loss
I0227 13:00:38.693965 19127 net.cpp:395] loss <- fc6_fc6_0_split_1
I0227 13:00:38.693979 19127 net.cpp:395] loss <- label_data_1_split_1
I0227 13:00:38.693992 19127 net.cpp:357] loss -> loss
I0227 13:00:38.694008 19127 net.cpp:97] Setting up loss
I0227 13:00:38.694022 19127 layer_factory.hpp:78] Creating layer loss
I0227 13:00:38.694124 19127 net.cpp:104] Top shape: 1 1 1 1 (1)
I0227 13:00:38.694141 19127 net.cpp:110]     with loss weight 1
I0227 13:00:38.694165 19127 net.cpp:171] loss needs backward computation.
I0227 13:00:38.694178 19127 net.cpp:173] accuracy does not need backward computation.
I0227 13:00:38.694190 19127 net.cpp:173] prob does not need backward computation.
I0227 13:00:38.694200 19127 net.cpp:171] fc6_fc6_0_split needs backward computation.
…
