…
  transform_param {
    mirror: true
    mean_file: "/media/data/kaggle/nationalDataScienceBowl/data/typeF/train_mean.binaryproto"
    affine_param {
      x_stretch_unirnd_range: 0.01
      y_stretch_unirnd_range: 0.01
      rotation_unirnd_range: 180
      max_translation: 5
      background_color: 255
    }
  }
  image_data_affine_param {
    source: "/media/data/kaggle/nationalDataScienceBowl/data/typeF/train.txt"
    scale: 0.00390625
    batch_size: 96
    shuffle: true
    new_size: 96
    is_color: false
    root_folder: "/media/data/kaggle/nationalDataScienceBowl/data/typeF/"
  }
}
layers {
  bottom: "data"
  top: "conv1/7x7_s2"
  name: "conv1/7x7_s2"
  type: CONVOLUTION
  blobs_lr: 1
  blobs_lr: 2
  weight_decay: 1
  weight_decay: 0
  convolution_param {
    num_output: 256
    kernel_size: 4
    stride: 2
    weight_filler {
      type: "xavier"
    }
    bias_filler {
      type: "constant"
    }
  }
}
layers {
  bottom: "conv1/7x7_s2"
  top: "conv1/7x7_s2/bn"
  name: "conv1/7x7_s2/bn"
  type: BN
  blobs_lr: 1
  blobs_lr: 1
  weight_decay: 0
  weight_decay: 0
  bn_param {
    scale_filler {
      type: "constant"
      value: 1
    }
    shift_filler {
      type: "constant"
      value: 0
    }
  }
}
layers {
  bottom: "conv1/7x7_s2/bn"
  top: "conv1/7x7_s2/bn"
  name: "conv1/relu_7x7"
  type: RELU
  relu_param {
    negative_slope: 0.1
  }
}
layers {
  bottom: "conv1/7x7_s2/bn"
  top: "cccp1/7x7_s2"
  name: "cccp1/7x7_s2"
  type: CONVOLUTION
  blobs_lr: 1
  blobs_lr: 2
  weight_decay: 1
  weight_decay: 0
  convolution_param {
    num_output: 256
    kernel_size: 1
    group: 1
    stride: 1
    weight_filler {
      type: "xavier"
    }
    bias_filler {
      type: "constant"
    }
  }
}
layers {
  bottom: "cccp1/7x7_s2"
  top: "cccp1/7x7_s2/bn"
  name: "cccp1/7x7_s2/bn"
  type: BN
  blobs_lr: 1
  blobs_lr: 1
  weight_decay: 0
  weight_decay: 0
  bn_param {
    scale_filler {
      type: "constant"
      value: 1
    }
    shift_filler {
      type: "constant"
      value: 0
    }
  }
}
layers {
  bottom: "cccp1/7x7_s2/bn"
  top: "cccp1/7x7_s2/bn"
  name: "cccp1/7x7_s2/bn/relu"
  type: RELU
  relu_param {
    negative_slope: 0.1
  }
}
layers {
  bottom: "cccp1/7x7_s2/bn"
  top: "pool1/3x3_s2"
  name: "pool1/3x3_s2"
  type: POOLING
  pooling_param {
    pool: MAX
    kernel_size: 3
    stride: 2
  }
}
layers {
  bottom: "pool1/3x3_s2"
  top: "conv2/3x3_reduce"
  name: "conv2/3x3_reduce"
  type: CONVOLUTION
  blobs_lr: 1
  blobs_lr: 2
  weight_decay: 1
  weight_decay: 0
  convolution_param {
    num_output: 64
    kernel_size: 1
    weight_filler {
      type: "xavier"
    }
    bias_filler {
      type: "constant"
    }
  }
}
layers {
  bottom: "conv2/3x3_reduce"
  top: "conv2/3x3_reduce/bn"
  name: "conv2/3x3_reduce/bn"
  type: BN
  blobs_lr: 1
  blobs_lr: 1
  weight_decay: 0
  weight_decay: 0
  bn_param {
    scale_filler {
      type: "constant"
      value: 1
    }
    shift_filler {
      type: "constant"
      value: 0
    }
  }
}
layers {
  bottom: "conv2/3x3_reduce/bn"
  top: "conv2/3x3_reduce/bn"
  name: "conv2/relu_3x3_reduce"
  type: RELU
  relu_param {
    negative_slope: 0.1
  }
}
layers {
  bottom: "conv2/3x3_reduce/bn"
  top: "conv2/3x3"
  name: "conv2/3x3"
  type: CONVOLUTION
  blobs_lr: 1
  blobs_lr: 2
  weight_decay: 1
  weight_decay: 0
  convolution_param {
    num_output: 192
    pad: 1
    kernel_size: 3
    weight_filler {
      type: "xavier"
    }
    bias_filler {
      type: "constant"
    }
  }
}
layers {
  bottom: "conv2/3x3"
  top: "conv2/3x3/bn"
  name: "conv2/3x3/bn"
  type: BN
  blobs_lr: 1
  blobs_lr: 1
  weight_decay: 0
  weight_decay: 0
  bn_param {
    scale_filler {
      type: "constant"
      value: 1
    }
    shift_filler {
      type: "constant"
      value: 0
    }
  }
}
layers {
  bottom: "conv2/3x3/bn"
  top: "conv2/3x3/bn"
  name: "conv2/relu_3x3"
  type: RELU
  relu_param {
    negative_slope: 0.1
  }
}
layers {
  bottom: "conv2/3x3/bn"
  top: "pool2/3x3_s2"
  name: "pool2/3x3_s2"
  type: POOLING
  pooling_param {
    pool: MAX
    kernel_size: 3
    stride: 2
  }
}
layers {
  bottom: "pool2/3x3_s2"
  top: "inception_3a/1x1"
  name: "inception_3a/1x1"
  type: CONVOLUTION
  blobs_lr: 1
  blobs_lr: 2
  weight_decay: 1
  weight_decay: 0
  convolution_param {
    num_output: 64
    kernel_size: 1
    weight_filler {
      type: "xavier"
    }
    bias_filler {
      type: "constant"
    }
  }
}
layers {
  bottom: "inception_3a/1x1"
  top: "inception_3a/1x1/bn"
  name: "inception_3a/1x1/bn"
  type: BN
  blobs_lr: 1
  blobs_lr: 1
  weight_decay: 0
  weight_decay: 0
  bn_param {
    scale_filler {
      type: "constant"
      value: 1
    }
    shift_filler {
      type: "constant"
      value: 0
    }
  }
}
layers {
  bottom: "inception_3a/1x1/bn"
  top: "inception_3a/1x1/bn"
  name: "inception_3a/relu_1x1"
  type: RELU
  relu_param {
    negative_slope: 0.1
  }
}
layers {
  bottom: "pool2/3x3_s2"
  top: "inception_3a/3x3_reduce"
  name: "inception_3a/3x3_reduce"
  type: CONVOLUTION
  blobs_lr: 1
  blobs_lr: 2
  weight_decay: 1
  weight_decay: 0
  convolution_param {
    num_output: 96
    kernel_size: 1
    weight_filler {
      type: "xavier"
    }
    bias_filler {
      type: "constant"
    }
  }
}
layers {
  bottom: "inception_3a/3x3_reduce"
  top: "inception_3a/3x3_reduce/bn"
  name: "inception_3a/3x3_reduce/bn"
  type: BN
  blobs_lr: 1
  blobs_lr: 1
  weight_decay: 0
  weight_decay: 0
  bn_param {
    scale_filler {
      type: "constant"
      value: 1
    }
    shift_filler {
      type: "constant"
      value: 0
    }
  }
}
layers {
  bottom: "inception_3a/3x3_reduce/bn"
  top: "inception_3a/3x3_reduce/bn"
  name: "inception_3a/relu_3x3_reduce"
  type: RELU
  relu_param {
    negative_slope: 0.1
  }
}
layers {
  bottom: "inception_3a/3x3_reduce/bn"
  top: "inception_3a/3x3"
  name: "inception_3a/3x3"
  type: CONVOLUTION
  blobs_lr: 1
  blobs_lr: 2
  weight_decay: 1
  weight_decay: 0
  convolution_param {
    num_output: 128
    pad: 1
    kernel_size: 3
    weight_filler {
      type: "xavier"
    }
    bias_filler {
      type: "constant"
    }
  }
}
layers {
  bottom: "inception_3a/3x3"
  top: "inception_3a/3x3/bn"
  name: "inception_3a/3x3/bn"
  type: BN
  blobs_lr: 1
  blobs_lr: 1
  weight_decay: 0
  weight_decay: 0
  bn_param {
    scale_filler {
      type: "constant"
      value: 1
    }
    shift_filler {
      type: "constant"
      value: 0
    }
  }
}
layers {
  bottom: "inception_3a/3x3/bn"
  top: "inception_3a/3x3/bn"
  name: "inception_3a/relu_3x3"
  type: RELU
  relu_param {
    negative_slope: 0.1
  }
}
layers {
  bottom: "pool2/3x3_s2"
  top: "inception_3a/5x5_reduce"
  name: "inception_3a/5x5_reduce"
  type: CONVOLUTION
  blobs_lr: 1
  blobs_lr: 2
  weight_decay: 1
  weight_decay: 0
  convolution_param {
    num_output: 16
    kernel_size: 1
    weight_filler {
      type: "xavier"
    }
    bias_filler {
      type: "constant"
    }
  }
}
layers {
  bottom: "inception_3a/5x5_reduce"
  top: "inception_3a/5x5_reduce/bn"
  name: "inception_3a/5x5_reduce/bn"
  type: BN
  blobs_lr: 1
  blobs_lr: 1
  weight_decay: 0
  weight_decay: 0
  bn_param {
    scale_filler {
      type: "constant"
      value: 1
    }
    shift_filler {
      type: "constant"
      value: 0
    }
  }
}
layers {
  bottom: "inception_3a/5x5_reduce/bn"
  top: "inception_3a/5x5_reduce/bn"
  name: "inception_3a/relu_5x5_reduce"
  type: RELU
  relu_param {
    negative_slope: 0.1
  }
}
layers {
  bottom: "inception_3a/5x5_reduce/bn"
  top: "inception_3a/5x5"
  name: "inception_3a/5x5"
  type: CONVOLUTION
  blobs_lr: 1
  blobs_lr: 2
  weight_decay: 1
  weight_decay: 0
  convolution_param {
    num_output: 32
    pad: 2
    kernel_size: 5
    weight_filler {
      type: "xavier"
    }
    bias_filler {
      type: "constant"
    }
  }
}
layers {
  bottom: "inception_3a/5x5"
  top: "inception_3a/5x5/bn"
  name: "inception_3a/5x5/bn"
  type: BN
  blobs_lr: 1
  blobs_lr: 1
  weight_decay: 0
  weight_decay: 0
  bn_param {
    scale_filler {
      type: "constant"
      value: 1
    }
    shift_filler {
      type: "constant"
      value: 0
    }
  }
}
layers {
  bottom: "inception_3a/5x5/bn"
  top: "inception_3a/5x5/bn"
  name: "inception_3a/relu_5x5"
  type: RELU
  relu_param {
    negative_slope: 0.1
  }
}
layers {
  bottom: "pool2/3x3_s2"
  top: "inception_3a/pool"
  name: "inception_3a/pool"
  type: POOLING
  pooling_param {
    pool: MAX
    kernel_size: 3
    stride: 1
    pad: 1
  }
}
layers {
  bottom: "inception_3a/pool"
  top: "inception_3a/pool_proj"
  name: "inception_3a/pool_proj"
  type: CONVOLUTION
  blobs_lr: 1
  blobs_lr: 2
  weight_decay: 1
  weight_decay: 0
  convolution_param {
    num_output: 32
    kernel_size: 1
    weight_filler {
      type: "xavier"
    }
    bias_filler {
      type: "constant"
    }
  }
}
layers {
  bottom: "inception_3a/pool_proj"
  top: "inception_3a/pool_proj/bn"
  name: "inception_3a/pool_proj/bn"
  type: BN
  blobs_lr: 1
  blobs_lr: 1
  weight_decay: 0
  weight_decay: 0
  bn_param {
    scale_filler {
      type: "constant"
      value: 1
    }
    shift_filler {
      type: "constant"
      value: 0
    }
  }
}
layers {
  bottom: "inception_3a/pool_proj/bn"
  top: "inception_3a/pool_proj/bn"
  name: "inception_3a/relu_pool_proj"
  type: RELU
  relu_param {
    negative_slope: 0.1
  }
}
layers {
  bottom: "inception_3a/1x1/bn"
  bottom: "inception_3a/3x3/bn"
  bottom: "inception_3a/5x5/bn"
  bottom: "inception_3a/pool_proj/bn"
  top: "inception_3a/output"
  name: "inception_3a/output"
  type: CONCAT
}
layers {
  bottom: "inception_3a/output"
  top: "inception_3b/1x1"
  name: "inception_3b/1x1"
  type: CONVOLUTION
  blobs_lr: 1
  blobs_lr: 2
  weight_decay: 1
  weight_decay: 0
  convolution_param {
    num_output: 128
    kernel_size: 1
    weight_filler {
      type: "xavier"
    }
    bias_filler {
      type: "constant"
    }
  }
}
layers {
  bottom: "inception_3b/1x1"
  top: "inception_3b/1x1/bn"
  name: "inception_3b/1x1/bn"
  type: BN
  blobs_lr: 1
  blobs_lr: 1
  weight_decay: 0
  weight_decay: 0
  bn_param {
    scale_filler {
      type: "constant"
      value: 1
    }
    shift_filler {
      type: "constant"
      value: 0
    }
  }
}
layers {
  bottom: "inception_3b/1x1/bn"
  top: "inception_3b/1x1/bn"
  name: "inception_3b/relu_1x1"
  type: RELU
  relu_param {
    negative_slope: 0.1
  }
}
layers {
  bottom: "inception_3a/output"
  top: "inception_3b/3x3_reduce"
  name: "inception_3b/3x3_reduce"
  type: CONVOLUTION
  blobs_lr: 1
  blobs_lr: 2
  weight_decay: 1
  weight_decay: 0
  convolution_param {
    num_output: 128
    kernel_size: 1
    weight_filler {
      type: "xavier"
    }
    bias_filler {
      type: "constant"
    }
  }
}
layers {
  bottom: "inception_3b/3x3_reduce"
  top: "inception_3b/3x3_reduce/bn"
  name: "inception_3b/3x3_reduce/bn"
  type: BN
  blobs_lr: 1
  blobs_lr: 1
  weight_decay: 0
  weight_decay: 0
  bn_param {
    scale_filler {
      type: "constant"
      value: 1
    }
    shift_filler {
      type: "constant"
      value: 0
    }
  }
}
layers {
  bottom: "inception_3b/3x3_reduce/bn"
  top: "inception_3b/3x3_reduce/bn"
  name: "inception_3b/relu_3x3_reduce"
  type: RELU
  relu_param {
    negative_slope: 0.1
  }
}
layers {
  bottom: "inception_3b/3x3_reduce/bn"
  top: "inception_3b/3x3"
  name: "inception_3b/3x3"
  type: CONVOLUTION
  blobs_lr: 1
  blobs_lr: 2
  weight_decay: 1
  weight_decay: 0
  convolution_param {
    num_output: 192
    pad: 1
    kernel_size: 3
    weight_filler {
      type: "xavier"
    }
    bias_filler {
      type: "constant"
    }
  }
}
layers {
  bottom: "inception_3b/3x3"
  top: "inception_3b/3x3/bn"
  name: "inception_3b/3x3/bn"
  type: BN
  blobs_lr: 1
  blobs_lr: 1
  weight_decay: 0
  weight_decay: 0
  bn_param {
    scale_filler {
      type: "constant"
      value: 1
    }
    shift_filler {
      type: "constant"
      value: 0
    }
  }
}
layers {
  bottom: "inception_3b/3x3/bn"
  top: "inception_3b/3x3/bn"
  name: "inception_3b/relu_3x3"
  type: RELU
  relu_param {
    negative_slope: 0.1
  }
}
layers {
  bottom: "inception_3a/output"
  top: "inception_3b/5x5_reduce"
  name: "inception_3b/5x5_reduce"
  type: CONVOLUTION
  blobs_lr: 1
  blobs_lr: 2
  weight_decay: 1
  weight_decay: 0
  convolution_param {
    num_output: 32
    kernel_size: 1
    weight_filler {
      type: "xavier"
    }
    bias_filler {
      type: "constant"
    }
  }
}
layers {
  bottom: "inception_3b/5x5_reduce"
  top: "inception_3b/5x5_reduce/bn"
  name: "inception_3b/5x5_reduce/bn"
  type: BN
  blobs_lr: 1
  blobs_lr: 1
  weight_decay: 0
  weight_decay: 0
  bn_param {
    scale_filler {
      type: "constant"
      value: 1
    }
    shift_filler {
      type: "constant"
      value: 0
    }
  }
}
layers {
  bottom: "inception_3b/5x5_reduce/bn"
  top: "inception_3b/5x5_reduce/bn"
  name: "inception_3b/relu_5x5_reduce"
  type: RELU
  relu_param {
    negative_slope: 0.1
  }
}
layers {
  bottom: "inception_3b/5x5_reduce/bn"
  top: "inception_3b/5x5"
  name: "inception_3b/5x5"
  type: CONVOLUTION
  blobs_lr: 1
  blobs_lr: 2
  weight_decay: 1
  weight_decay: 0
  convolution_param {
    num_output: 96
    pad: 2
    kernel_size: 5
    weight_filler {
      type: "xavier"
    }
    bias_filler {
      type: "constant"
    }
  }
}
layers {
  bottom: "inception_3b/5x5"
  top: "inception_3b/5x5/bn"
  name: "inception_3b/5x5/bn"
  type: BN
  blobs_lr: 1
  blobs_lr: 1
  weight_decay: 0
  weight_decay: 0
  bn_param {
    scale_filler {
      type: "constant"
      value: 1
    }
    shift_filler {
      type: "constant"
      value: 0
    }
  }
}
layers {
  bottom: "inception_3b/5x5/bn"
  top: "inception_3b/5x5/bn"
  name: "inception_3b/relu_5x5"
  type: RELU
  relu_param {
    negative_slope: 0.1
  }
}
layers {
  bottom: "inception_3a/output"
  top: "inception_3b/pool"
  name: "inception_3b/pool"
  type: POOLING
  pooling_param {
    pool: MAX
    kernel_size: 3
    stride: 1
    pad: 1
  }
}
layers {
  bottom: "inception_3b/pool"
  top: "inception_3b/pool_proj"
  name: "inception_3b/pool_proj"
  type: CONVOLUTION
  blobs_lr: 1
  blobs_lr: 2
  weight_decay: 1
  weight_decay: 0
  convolution_param {
    num_output: 64
    kernel_size: 1
    weight_filler {
      type: "xavier"
    }
    bias_filler {
      type: "constant"
    }
  }
}
layers {
  bottom: "inception_3b/pool_proj"
  top: "inception_3b/pool_proj/bn"
  name: "inception_3b/pool_proj/bn"
  type: BN
  blobs_lr: 1
  blobs_lr: 1
  weight_decay: 0
  weight_decay: 0
  bn_param {
    scale_filler {
      type: "constant"
      value: 1
    }
    shift_filler {
      type: "constant"
      value: 0
    }
  }
}
layers {
  bottom: "inception_3b/pool_proj/bn"
  top: "inception_3b/pool_proj/bn"
  name: "inception_3b/relu_pool_proj"
  type: RELU
  relu_param {
    negative_slope: 0.1
  }
}
layers {
  bottom: "inception_3b/1x1/bn"
  bottom: "inception_3b/3x3/bn"
  bottom: "inception_3b/5x5/bn"
  bottom: "inception_3b/pool_proj/bn"
  top: "inception_3b/output"
  name: "inception_3b/output"
  type: CONCAT
}
layers {
  bottom: "inception_3b/output"
  top: "pool3/3x3_s2"
  name: "pool3/3x3_s2"
  type: POOLING
  pooling_param {
    pool: MAX
    kernel_size: 3
    stride: 2
  }
}
layers {
  bottom: "pool3/3x3_s2"
  top: "inception_4a/1x1"
  name: "inception_4a/1x1"
  type: CONVOLUTION
  blobs_lr: 1
  blobs_lr: 2
  weight_decay: 1
  weight_decay: 0
  convolution_param {
    num_output: 192
    kernel_size: 1
    weight_filler {
      type: "xavier"
    }
    bias_filler {
      type: "constant"
    }
  }
}
layers {
  bottom: "inception_4a/1x1"
  top: "inception_4a/1x1/bn"
  name: "inception_4a/1x1/bn"
  type: BN
  blobs_lr: 1
  blobs_lr: 1
  weight_decay: 0
  weight_decay: 0
  bn_param {
    scale_filler {
      type: "constant"
      value: 1
    }
    shift_filler {
      type: "constant"
      value: 0
    }
  }
}
layers {
  bottom: "inception_4a/1x1/bn"
  top: "inception_4a/1x1/bn"
  name: "inception_4a/relu_1x1"
  type: RELU
  relu_param {
    negative_slope: 0.1
  }
}
layers {
  bottom: "pool3/3x3_s2"
  top: "inception_4a/3x3_reduce"
  name: "inception_4a/3x3_reduce"
  type: CONVOLUTION
  blobs_lr: 1
  blobs_lr: 2
  weight_decay: 1
  weight_decay: 0
  convolution_param {
    num_output: 96
    kernel_size: 1
    weight_filler {
      type: "xavier"
    }
    bias_filler {
      type: "constant"
    }
  }
}
layers {
  bottom: "inception_4a/3x3_reduce"
  top: "inception_4a/3x3_reduce/bn"
  name: "inception_4a/3x3_reduce/bn"
  type: BN
  blobs_lr: 1
  blobs_lr: 1
  weight_decay: 0
  weight_decay: 0
  bn_param {
    scale_filler {
      type: "constant"
      value: 1
    }
    shift_filler {
      type: "constant"
      value: 0
    }
  }
}
layers {
  bottom: "inception_4a/3x3_reduce/bn"
  top: "inception_4a/3x3_reduce/bn"
  name: "inception_4a/relu_3x3_reduce"
  type: RELU
  relu_param {
    negative_slope: 0.1
  }
}
layers {
  bottom: "inception_4a/3x3_reduce/bn"
  top: "inception_4a/3x3"
  name: "inception_4a/3x3"
  type: CONVOLUTION
  blobs_lr: 1
  blobs_lr: 2
  weight_decay: 1
  weight_decay: 0
  convolution_param {
    num_output: 208
    pad: 1
    kernel_size: 3
    weight_filler {
      type: "xavier"
    }
    bias_filler {
      type: "constant"
    }
  }
}
layers {
  bottom: "inception_4a/3x3"
  top: "inception_4a/3x3/bn"
  name: "inception_4a/3x3/bn"
  type: BN
  blobs_lr: 1
  blobs_lr: 1
  weight_decay: 0
  weight_decay: 0
  bn_param {
    scale_filler {
      type: "constant"
      value: 1
    }
    shift_filler {
      type: "constant"
      value: 0
    }
  }
}
layers {
  bottom: "inception_4a/3x3/bn"
  top: "inception_4a/3x3/bn"
  name: "inception_4a/relu_3x3"
  type: RELU
  relu_param {
    negative_slope: 0.1
  }
}
layers {
  bottom: "pool3/3x3_s2"
  top: "inception_4a/5x5_reduce"
  name: "inception_4a/5x5_reduce"
  type: CONVOLUTION
  blobs_lr: 1
  blobs_lr: 2
  weight_decay: 1
  weight_decay: 0
  convolution_param {
    num_output: 16
    kernel_size: 1
    weight_filler {
      type: "xavier"
    }
    bias_filler {
      type: "constant"
    }
  }
}
layers {
  bottom: "inception_4a/5x5_reduce"
  top: "inception_4a/5x5_reduce/bn"
  name: "inception_4a/5x5_reduce/bn"
  type: BN
  blobs_lr: 1
  blobs_lr: 1
  weight_decay: 0
  weight_decay: 0
  bn_param {
    scale_filler {
      type: "constant"
      value: 1
    }
    shift_filler {
      type: "constant"
      value: 0
    }
  }
}
layers {
  bottom: "inception_4a/5x5_reduce/bn"
  top: "inception_4a/5x5_reduce/bn"
  name: "inception_4a/relu_5x5_reduce"
  type: RELU
  relu_param {
    negative_slope: 0.1
  }
}
layers {
  bottom: "inception_4a/5x5_reduce/bn"
  top: "inception_4a/5x5"
  name: "inception_4a/5x5"
  type: CONVOLUTION
  blobs_lr: 1
  blobs_lr: 2
  weight_decay: 1
  weight_decay: 0
  convolution_param {
    num_output: 48
    pad: 2
    kernel_size: 5
    weight_filler {
      type: "xavier"
    }
    bias_filler {
      type: "constant"
    }
  }
}
layers {
  bottom: "inception_4a/5x5"
  top: "inception_4a/5x5/bn"
  name: "inception_4a/5x5/bn"
  type: BN
  blobs_lr: 1
  blobs_lr: 1
  weight_decay: 0
  weight_decay: 0
  bn_param {
    scale_filler {
      type: "constant"
      value: 1
    }
    shift_filler {
      type: "constant"
      value: 0
    }
  }
}
layers {
  bottom: "inception_4a/5x5/bn"
  top: "inception_4a/5x5/bn"
  name: "inception_4a/relu_5x5"
  type: RELU
  relu_param {
    negative_slope: 0.1
  }
}
layers {
  bottom: "pool3/3x3_s2"
  top: "inception_4a/pool"
  name: "inception_4a/pool"
  type: POOLING
  pooling_param {
    pool: MAX
    kernel_size: 3
    stride: 1
    pad: 1
  }
}
layers {
  bottom: "inception_4a/pool"
  top: "inception_4a/pool_proj"
  name: "inception_4a/pool_proj"
  type: CONVOLUTION
  blobs_lr: 1
  blobs_lr: 2
  weight_decay: 1
  weight_decay: 0
  convolution_param {
    num_output: 64
    kernel_size: 1
    weight_filler {
      type: "xavier"
    }
    bias_filler {
      type: "constant"
    }
  }
}
layers {
  bottom: "inception_4a/pool_proj"
  top: "inception_4a/pool_proj/bn"
  name: "inception_4a/pool_proj/bn"
  type: BN
  blobs_lr: 1
  blobs_lr: 1
  weight_decay: 0
  weight_decay: 0
  bn_param {
    scale_filler {
      type: "constant"
      value: 1
    }
    shift_filler {
      type: "constant"
      value: 0
    }
  }
}
layers {
  bottom: "inception_4a/pool_proj/bn"
  top: "inception_4a/pool_proj/bn"
  name: "inception_4a/relu_pool_proj"
  type: RELU
  relu_param {
    negative_slope: 0.1
  }
}
layers {
  bottom: "inception_4a/1x1/bn"
  bottom: "inception_4a/3x3/bn"
  bottom: "inception_4a/5x5/bn"
  bottom: "inception_4a/pool_proj/bn"
  top: "inception_4a/output"
  name: "inception_4a/output"
  type: CONCAT
}
layers {
  bottom: "inception_4a/output"
  top: "loss1/ave_pool"
  name: "loss1/ave_pool"
  type: POOLING
  pooling_param {
    pool: AVE
    kernel_size: 5
    stride: 3
  }
}
layers {
  bottom: "loss1/ave_pool"
  top: "loss1/conv"
  name: "loss1/conv"
  type: CONVOLUTION
  blobs_lr: 1
  blobs_lr: 2
  weight_decay: 1
  weight_decay: 0
  convolution_param {
    num_output: 128
    kernel_size: 1
    weight_filler {
      type: "xavier"
    }
    bias_filler {
      type: "constant"
    }
  }
}
layers {
  bottom: "loss1/conv"
  top: "loss1/conv/bn"
  name: "loss1/conv/bn"
  type: BN
  blobs_lr: 1
  blobs_lr: 1
  weight_decay: 0
  weight_decay: 0
  bn_param {
    scale_filler {
      type: "constant"
      value: 1
    }
    shift_filler {
      type: "constant"
      value: 0
    }
  }
}
layers {
  bottom: "loss1/conv/bn"
  top: "loss1/conv/bn"
  name: "loss1/relu_conv"
  type: RELU
  relu_param {
    negative_slope: 0.1
  }
}
layers {
  bottom: "loss1/conv/bn"
  top: "loss1/fc"
  name: "loss1/fc"
  type: INNER_PRODUCT
  blobs_lr: 1
  blobs_lr: 2
  weight_decay: 1
  weight_decay: 0
  inner_product_param {
    num_output: 1024
    weight_filler {
      type: "xavier"
    }
    bias_filler {
      type: "constant"
    }
  }
}
layers {
  bottom: "loss1/fc"
  top: "loss1/fc/bn"
  name: "loss1/fc/bn"
  type: BN
  blobs_lr: 1
  blobs_lr: 1
  weight_decay: 0
  weight_decay: 0
  bn_param {
    scale_filler {
      type: "constant"
      value: 1
    }
    shift_filler {
      type: "constant"
      value: 0
    }
  }
}
layers {
  bottom: "loss1/fc/bn"
  top: "loss1/fc/bn"
  name: "loss1/relu_fc"
  type: RELU
  relu_param {
    negative_slope: 0.1
  }
}
layers {
  bottom: "loss1/fc/bn"
  top: "loss1/fc/bn"
  name: "loss1/drop_fc"
  type: DROPOUT
  dropout_param {
    dropout_ratio: 0.7
  }
}
layers {
  bottom: "loss1/fc/bn"
  top: "loss1/classifier"
  name: "loss1/classifier"
  type: INNER_PRODUCT
  blobs_lr: 1
  blobs_lr: 2
  weight_decay: 1
  weight_decay: 0
  inner_product_param {
    num_output: 121
    weight_filler {
      type: "xavier"
    }
    bias_filler {
      type: "constant"
    }
  }
}
layers {
  bottom: "loss1/classifier"
  bottom: "label"
  top: "loss1/loss"
  name: "loss1/loss"
  type: SOFTMAX_LOSS
  loss_weight: 0.05
}
layers {
  bottom: "inception_4a/output"
  top: "inception_4b/1x1"
  name: "inception_4b/1x1"
  type: CONVOLUTION
  blobs_lr: 1
  blobs_lr: 2
  weight_decay: 1
  weight_decay: 0
  convolution_param {
    num_output: 160
    kernel_size: 1
    weight_filler {
      type: "xavier"
    }
    bias_filler {
      type: "constant"
    }
  }
}
layers {
  bottom: "inception_4b/1x1"
  top: "inception_4b/1x1/bn"
  name: "inception_4b/1x1/bn"
  type: BN
  blobs_lr: 1
  blobs_lr: 1
  weight_decay: 0
  weight_decay: 0
  bn_param {
    scale_filler {
      type: "constant"
      value: 1
    }
    shift_filler {
      type: "constant"
      value: 0
    }
  }
}
layers {
  bottom: "inception_4b/1x1/bn"
  top: "inception_4b/1x1/bn"
  name: "inception_4b/relu_1x1"
  type: RELU
  relu_param {
    negative_slope: 0.1
  }
}
layers {
  bottom: "inception_4a/output"
  top: "inception_4b/3x3_reduce"
  name: "inception_4b/3x3_reduce"
  type: CONVOLUTION
  blobs_lr: 1
  blobs_lr: 2
  weight_decay: 1
  weight_decay: 0
  convolution_param {
    num_output: 112
    kernel_size: 1
    weight_filler {
      type: "xavier"
    }
    bias_filler {
      type: "constant"
    }
  }
}
layers {
  bottom: "inception_4b/3x3_reduce"
  top: "inception_4b/3x3_reduce/bn"
  name: "inception_4b/3x3_reduce/bn"
  type: BN
  blobs_lr: 1
  blobs_lr: 1
  weight_decay: 0
  weight_decay: 0
  bn_param {
    scale_filler {
      type: "constant"
      value: 1
    }
    shift_filler {
      type: "constant"
      value: 0
    }
  }
}
layers {
  bottom: "inception_4b/3x3_reduce/bn"
  top: "inception_4b/3x3_reduce/bn"
  name: "inception_4b/relu_3x3_reduce"
  type: RELU
  relu_param {
    negative_slope: 0.1
  }
}
layers {
  bottom: "inception_4b/3x3_reduce/bn"
  top: "inception_4b/3x3"
  name: "inception_4b/3x3"
  type: CONVOLUTION
  blobs_lr: 1
  blobs_lr: 2
  weight_decay: 1
  weight_decay: 0
  convolution_param {
    num_output: 224
    pad: 1
    kernel_size: 3
    weight_filler {
      type: "xavier"
    }
    bias_filler {
      type: "constant"
    }
  }
}
layers {
  bottom: "inception_4b/3x3"
  top: "inception_4b/3x3/bn"
  name: "inception_4b/3x3/bn"
  type: BN
  blobs_lr: 1
  blobs_lr: 1
  weight_decay: 0
  weight_decay: 0
  bn_param {
    scale_filler {
      type: "constant"
      value: 1
    }
    shift_filler {
      type: "constant"
      value: 0
    }
  }
}
layers {
  bottom: "inception_4b/3x3/bn"
  top: "inception_4b/3x3/bn"
  name: "inception_4b/relu_3x3"
  type: RELU
  relu_param {
    negative_slope: 0.1
  }
}
layers {
  bottom: "inception_4a/output"
  top: "inception_4b/5x5_reduce"
  name: "inception_4b/5x5_reduce"
  type: CONVOLUTION
  blobs_lr: 1
  blobs_lr: 2
  weight_decay: 1
  weight_decay: 0
  convolution_param {
    num_output: 24
    kernel_size: 1
    weight_filler {
      type: "xavier"
    }
    bias_filler {
      type: "constant"
    }
  }
}
layers {
  bottom: "inception_4b/5x5_reduce"
  top: "inception_4b/5x5_reduce/bn"
  name: "inception_4b/5x5_reduce/bn"
  type: BN
  blobs_lr: 1
  blobs_lr: 1
  weight_decay: 0
  weight_decay: 0
  bn_param {
    scale_filler {
      type: "constant"
      value: 1
    }
    shift_filler {
      type: "constant"
      value: 0
    }
  }
}
layers {
  bottom: "inception_4b/5x5_reduce/bn"
  top: "inception_4b/5x5_reduce/bn"
  name: "inception_4b/relu_5x5_reduce"
  type: RELU
  relu_param {
    negative_slope: 0.1
  }
}
layers {
  bottom: "inception_4b/5x5_reduce/bn"
  top: "inception_4b/5x5"
  name: "inception_4b/5x5"
  type: CONVOLUTION
  blobs_lr: 1
  blobs_lr: 2
  weight_decay: 1
  weight_decay: 0
  convolution_param {
    num_output: 64
    pad: 2
    kernel_size: 5
    weight_filler {
      type: "xavier"
    }
    bias_filler {
      type: "constant"
    }
  }
}
layers {
  bottom: "inception_4b/5x5"
  top: "inception_4b/5x5/bn"
  name: "inception_4b/5x5/bn"
  type: BN
  blobs_lr: 1
  blobs_lr: 1
  weight_decay: 0
  weight_decay: 0
  bn_param {
    scale_filler {
      type: "constant"
      value: 1
    }
    shift_filler {
      type: "constant"
      value: 0
    }
  }
}
layers {
  bottom: "inception_4b/5x5/bn"
  top: "inception_4b/5x5/bn"
  name: "inception_4b/relu_5x5"
  type: RELU
  relu_param {
    negative_slope: 0.1
  }
}
layers {
  bottom: "inception_4a/output"
  top: "inception_4b/pool"
  name: "inception_4b/pool"
  type: POOLING
  pooling_param {
    pool: MAX
    kernel_size: 3
    stride: 1
    pad: 1
  }
}
layers {
  bottom: "inception_4b/pool"
  top: "inception_4b/pool_proj"
  name: "inception_4b/pool_proj"
  type: CONVOLUTION
  blobs_lr: 1
  blobs_lr: 2
  weight_decay: 1
  weight_decay: 0
  convolution_param {
    num_output: 64
    kernel_size: 1
    weight_filler {
      type: "xavier"
    }
    bias_filler {
      type: "constant"
    }
  }
}
layers {
  bottom: "inception_4b/pool_proj"
  top: "inception_4b/pool_proj/bn"
  name: "inception_4b/pool_proj/bn"
  type: BN
  blobs_lr: 1
  blobs_lr: 1
  weight_decay: 0
  weight_decay: 0
  bn_param {
    scale_filler {
      type: "constant"
      value: 1
    }
    shift_filler {
      type: "constant"
      value: 0
    }
  }
}
layers {
  bottom: "inception_4b/pool_proj/bn"
  top: "inception_4b/pool_proj/bn"
  name: "inception_4b/relu_pool_proj"
  type: RELU
  relu_param {
    negative_slope: 0.1
  }
}
layers {
  bottom: "inception_4b/1x1/bn"
  bottom: "inception_4b/3x3/bn"
  bottom: "inception_4b/5x5/bn"
  bottom: "inception_4b/pool_proj/bn"
  top: "inception_4b/output"
  name: "inception_4b/output"
  type: CONCAT
}
layers {
  bottom: "inception_4b/output"
  top: "inception_4c/1x1"
  name: "inception_4c/1x1"
  type: CONVOLUTION
  blobs_lr: 1
  blobs_lr: 2
  weight_decay: 1
  weight_decay: 0
  convolution_param {
    num_output: 128
    kernel_size: 1
    weight_filler {
      type: "xavier"
    }
    bias_filler {
      type: "constant"
    }
  }
}
layers {
  bottom: "inception_4c/1x1"
  top: "inception_4c/1x1/bn"
  name: "inception_4c/1x1/bn"
  type: BN
  blobs_lr: 1
  blobs_lr: 1
  weight_decay: 0
  weight_decay: 0
  bn_param {
    scale_filler {
      type: "constant"
      value: 1
    }
    shift_filler {
      type: "constant"
      value: 0
    }
  }
}
layers {
  bottom: "inception_4c/1x1/bn"
  top: "inception_4c/1x1/bn"
  name: "inception_4c/relu_1x1"
  type: RELU
  relu_param {
    negative_slope: 0.1
  }
}
layers {
  bottom: "inception_4b/output"
  top: "inception_4c/3x3_reduce"
  name: "inception_4c/3x3_reduce"
  type: CONVOLUTION
  blobs_lr: 1
  blobs_lr: 2
  weight_decay: 1
  weight_decay: 0
  convolution_param {
    num_output: 128
    kernel_size: 1
    weight_filler {
      type: "xavier"
    }
    bias_filler {
      type: "constant"
    }
  }
}
layers {
  bottom: "inception_4c/3x3_reduce"
  top: "inception_4c/3x3_reduce/bn"
  name: "inception_4c/3x3_reduce/bn"
  type: BN
  
I0313 00:15:11.613320 28832 layer_factory.hpp:78] Creating layer data
I0313 00:15:11.613358 28832 data_transformer.cpp:24] Loading mean file from/media/data/kaggle/nationalDataScienceBowl/data/typeF/train_mean.binaryproto
I0313 00:15:11.613554 28832 net.cpp:68] Creating Layer data
I0313 00:15:11.613582 28832 net.cpp:357] data -> data
I0313 00:15:11.613613 28832 net.cpp:357] data -> label
I0313 00:15:11.613634 28832 net.cpp:97] Setting up data
I0313 00:15:11.613651 28832 image_data_affine_layer.cpp:37] Opening file /media/data/kaggle/nationalDataScienceBowl/data/typeF/train.txt
I0313 00:15:11.627261 28832 image_data_affine_layer.cpp:47] Shuffling data
I0313 00:15:11.629933 28832 image_data_affine_layer.cpp:52] A total of 27302 images.
I0313 00:15:11.631997 28832 image_data_affine_layer.cpp:81] output data size: 96,1,96,96
I0313 00:15:11.633780 28832 net.cpp:104] Top shape: 96 1 96 96 (884736)
I0313 00:15:11.633810 28832 net.cpp:104] Top shape: 96 1 1 1 (96)
I0313 00:15:11.633826 28832 layer_factory.hpp:78] Creating layer label_data_1_split
I0313 00:15:11.633854 28832 net.cpp:68] Creating Layer label_data_1_split
I0313 00:15:11.633868 28832 net.cpp:395] label_data_1_split <- label
I0313 00:15:11.633893 28832 net.cpp:357] label_data_1_split -> label_data_1_split_0
I0313 00:15:11.633916 28832 net.cpp:357] label_data_1_split -> label_data_1_split_1
I0313 00:15:11.633932 28832 net.cpp:357] label_data_1_split -> label_data_1_split_2
I0313 00:15:11.633949 28832 net.cpp:97] Setting up label_data_1_split
I0313 00:15:11.634071 28832 net.cpp:104] Top shape: 96 1 1 1 (96)
I0313 00:15:11.634163 28832 net.cpp:104] Top shape: 96 1 1 1 (96)
I0313 00:15:11.634274 28832 net.cpp:104] Top shape: 96 1 1 1 (96)
I0313 00:15:11.634292 28832 layer_factory.hpp:78] Creating layer conv1/7x7_s2
I0313 00:15:11.634335 28832 net.cpp:68] Creating Layer conv1/7x7_s2
I0313 00:15:11.634353 28832 net.cpp:395] conv1/7x7_s2 <- data
I0313 00:15:11.634382 28832 net.cpp:357] conv1/7x7_s2 -> conv1/7x7_s2
I0313 00:15:11.634413 28832 net.cpp:97] Setting up conv1/7x7_s2
I0313 00:15:11.668251 28832 net.cpp:104] Top shape: 96 256 47 47 (54288384)
I0313 00:15:11.668334 28832 layer_factory.hpp:78] Creating layer conv1/7x7_s2/bn
I0313 00:15:11.668380 28832 net.cpp:68] Creating Layer conv1/7x7_s2/bn
I0313 00:15:11.668401 28832 net.cpp:395] conv1/7x7_s2/bn <- conv1/7x7_s2
I0313 00:15:11.668419 28832 net.cpp:357] conv1/7x7_s2/bn -> conv1/7x7_s2/bn
I0313 00:15:11.668450 28832 net.cpp:97] Setting up conv1/7x7_s2/bn
I0313 00:15:11.668493 28832 net.cpp:104] Top shape: 96 256 47 47 (54288384)
I0313 00:15:11.668514 28832 layer_factory.hpp:78] Creating layer conv1/relu_7x7
I0313 00:15:11.668536 28832 net.cpp:68] Creating Layer conv1/relu_7x7
I0313 00:15:11.668550 28832 net.cpp:395] conv1/relu_7x7 <- conv1/7x7_s2/bn
I0313 00:15:11.668563 28832 net.cpp:346] conv1/relu_7x7 -> conv1/7x7_s2/bn (in-place)
I0313 00:15:11.668579 28832 net.cpp:97] Setting up conv1/relu_7x7
I0313 00:15:11.668599 28832 net.cpp:104] Top shape: 96 256 47 47 (54288384)
I0313 00:15:11.668612 28832 layer_factory.hpp:78] Creating layer cccp1/7x7_s2
I0313 00:15:11.668633 28832 net.cpp:68] Creating Layer cccp1/7x7_s2
I0313 00:15:11.668647 28832 net.cpp:395] cccp1/7x7_s2 <- conv1/7x7_s2/bn
I0313 00:15:11.668660 28832 net.cpp:357] cccp1/7x7_s2 -> cccp1/7x7_s2
I0313 00:15:11.668676 28832 net.cpp:97] Setting up cccp1/7x7_s2
I0313 00:15:11.669491 28832 net.cpp:104] Top shape: 96 256 47 47 (54288384)
I0313 00:15:11.669518 28832 layer_factory.hpp:78] Creating layer cccp1/7x7_s2/bn
I0313 00:15:11.669538 28832 net.cpp:68] Creating Layer cccp1/7x7_s2/bn
I0313 00:15:11.669551 28832 net.cpp:395] cccp1/7x7_s2/bn <- cccp1/7x7_s2
I0313 00:15:11.669572 28832 net.cpp:357] cccp1/7x7_s2/bn -> cccp1/7x7_s2/bn
I0313 00:15:11.669589 28832 net.cpp:97] Setting up cccp1/7x7_s2/bn
I0313 00:15:11.669618 28832 net.cpp:104] Top shape: 96 256 47 47 (54288384)
I0313 00:15:11.669636 28832 layer_factory.hpp:78] Creating layer cccp1/7x7_s2/bn/relu
I0313 00:15:11.669651 28832 net.cpp:68] Creating Layer cccp1/7x7_s2/bn/relu
I0313 00:15:11.669662 28832 net.cpp:395] cccp1/7x7_s2/bn/relu <- cccp1/7x7_s2/bn
I0313 00:15:11.669678 28832 net.cpp:346] cccp1/7x7_s2/bn/relu -> cccp1/7x7_s2/bn (in-place)
I0313 00:15:11.669692 28832 net.cpp:97] Setting up cccp1/7x7_s2/bn/relu
I0313 00:15:11.669708 28832 net.cpp:104] Top shape: 96 256 47 47 (54288384)
I0313 00:15:11.669720 28832 layer_factory.hpp:78] Creating layer pool1/3x3_s2
I0313 00:15:11.669740 28832 net.cpp:68] Creating Layer pool1/3x3_s2
I0313 00:15:11.669752 28832 net.cpp:395] pool1/3x3_s2 <- cccp1/7x7_s2/bn
I0313 00:15:11.669770 28832 net.cpp:357] pool1/3x3_s2 -> pool1/3x3_s2
I0313 00:15:11.669785 28832 net.cpp:97] Setting up pool1/3x3_s2
I0313 00:15:11.669823 28832 net.cpp:104] Top shape: 96 256 23 23 (13000704)
I0313 00:15:11.669838 28832 layer_factory.hpp:78] Creating layer conv2/3x3_reduce
I0313 00:15:11.669854 28832 net.cpp:68] Creating Layer conv2/3x3_reduce
I0313 00:15:11.669867 28832 net.cpp:395] conv2/3x3_reduce <- pool1/3x3_s2
I0313 00:15:11.669883 28832 net.cpp:357] conv2/3x3_reduce -> conv2/3x3_reduce
I0313 00:15:11.669899 28832 net.cpp:97] Setting up conv2/3x3_reduce
I0313 00:15:11.670156 28832 net.cpp:104] Top shape: 96 64 23 23 (3250176)
I0313 00:15:11.670179 28832 layer_factory.hpp:78] Creating layer conv2/3x3_reduce/bn
I0313 00:15:11.670198 28832 net.cpp:68] Creating Layer conv2/3x3_reduce/bn
I0313 00:15:11.670212 28832 net.cpp:395] conv2/3x3_reduce/bn <- conv2/3x3_reduce
I0313 00:15:11.670228 28832 net.cpp:357] conv2/3x3_reduce/bn -> conv2/3x3_reduce/bn
I0313 00:15:11.670243 28832 net.cpp:97] Setting up conv2/3x3_reduce/bn
I0313 00:15:11.670269 28832 net.cpp:104] Top shape: 96 64 23 23 (3250176)
I0313 00:15:11.670284 28832 layer_factory.hpp:78] Creating layer conv2/relu_3x3_reduce
I0313 00:15:11.670358 28832 net.cpp:68] Creating Layer conv2/relu_3x3_reduce
I0313 00:15:11.670372 28832 net.cpp:395] conv2/relu_3x3_reduce <- conv2/3x3_reduce/bn
I0313 00:15:11.670389 28832 net.cpp:346] conv2/relu_3x3_reduce -> conv2/3x3_reduce/bn (in-place)
I0313 00:15:11.670404 28832 net.cpp:97] Setting up conv2/relu_3x3_reduce
I0313 00:15:11.670419 28832 net.cpp:104] Top shape: 96 64 23 23 (3250176)
I0313 00:15:11.670431 28832 layer_factory.hpp:78] Creating layer conv2/3x3
I0313 00:15:11.670447 28832 net.cpp:68] Creating Layer conv2/3x3
I0313 00:15:11.670459 28832 net.cpp:395] conv2/3x3 <- conv2/3x3_reduce/bn
I0313 00:15:11.670476 28832 net.cpp:357] conv2/3x3 -> conv2/3x3
I0313 00:15:11.670491 28832 net.cpp:97] Setting up conv2/3x3
I0313 00:15:11.671819 28832 net.cpp:104] Top shape: 96 192 23 23 (9750528)
I0313 00:15:11.671844 28832 layer_factory.hpp:78] Creating layer conv2/3x3/bn
I0313 00:15:11.671870 28832 net.cpp:68] Creating Layer conv2/3x3/bn
I0313 00:15:11.671885 28832 net.cpp:395] conv2/3x3/bn <- conv2/3x3
I0313 00:15:11.671898 28832 net.cpp:357] conv2/3x3/bn -> conv2/3x3/bn
I0313 00:15:11.671915 28832 net.cpp:97] Setting up conv2/3x3/bn
I0313 00:15:11.671937 28832 net.cpp:104] Top shape: 96 192 23 23 (9750528)
I0313 00:15:11.671952 28832 layer_factory.hpp:78] Creating layer conv2/relu_3x3
I0313 00:15:11.671967 28832 net.cpp:68] Creating Layer conv2/relu_3x3
I0313 00:15:11.671982 28832 net.cpp:395] conv2/relu_3x3 <- conv2/3x3/bn
I0313 00:15:11.671998 28832 net.cpp:346] conv2/relu_3x3 -> conv2/3x3/bn (in-place)
I0313 00:15:11.672011 28832 net.cpp:97] Setting up conv2/relu_3x3
I0313 00:15:11.672026 28832 net.cpp:104] Top shape: 96 192 23 23 (9750528)
I0313 00:15:11.672039 28832 layer_factory.hpp:78] Creating layer pool2/3x3_s2
I0313 00:15:11.672054 28832 net.cpp:68] Creating Layer pool2/3x3_s2
I0313 00:15:11.672065 28832 net.cpp:395] pool2/3x3_s2 <- conv2/3x3/bn
I0313 00:15:11.672078 28832 net.cpp:357] pool2/3x3_s2 -> pool2/3x3_s2
I0313 00:15:11.672092 28832 net.cpp:97] Setting up pool2/3x3_s2
I0313 00:15:11.672108 28832 net.cpp:104] Top shape: 96 192 11 11 (2230272)
I0313 00:15:11.672121 28832 layer_factory.hpp:78] Creating layer pool2/3x3_s2_pool2/3x3_s2_0_split
I0313 00:15:11.672142 28832 net.cpp:68] Creating Layer pool2/3x3_s2_pool2/3x3_s2_0_split
I0313 00:15:11.672153 28832 net.cpp:395] pool2/3x3_s2_pool2/3x3_s2_0_split <- pool2/3x3_s2
I0313 00:15:11.672178 28832 net.cpp:357] pool2/3x3_s2_pool2/3x3_s2_0_split -> pool2/3x3_s2_pool2/3x3_s2_0_split_0
I0313 00:15:11.672194 28832 net.cpp:357] pool2/3x3_s2_pool2/3x3_s2_0_split -> pool2/3x3_s2_pool2/3x3_s2_0_split_1
I0313 00:15:11.672210 28832 net.cpp:357] pool2/3x3_s2_pool2/3x3_s2_0_split -> pool2/3x3_s2_pool2/3x3_s2_0_split_2
I0313 00:15:11.672225 28832 net.cpp:357] pool2/3x3_s2_pool2/3x3_s2_0_split -> pool2/3x3_s2_pool2/3x3_s2_0_split_3
I0313 00:15:11.672240 28832 net.cpp:97] Setting up pool2/3x3_s2_pool2/3x3_s2_0_split
I0313 00:15:11.672252 28832 net.cpp:104] Top shape: 96 192 11 11 (2230272)
I0313 00:15:11.672265 28832 net.cpp:104] Top shape: 96 192 11 11 (2230272)
I0313 00:15:11.672276 28832 net.cpp:104] Top shape: 96 192 11 11 (2230272)
I0313 00:15:11.672286 28832 net.cpp:104] Top shape: 96 192 11 11 (2230272)
I0313 00:15:11.672298 28832 layer_factory.hpp:78] Creating layer inception_3a/1x1
I0313 00:15:11.672324 28832 net.cpp:68] Creating Layer inception_3a/1x1
I0313 00:15:11.672336 28832 net.cpp:395] inception_3a/1x1 <- pool2/3x3_s2_pool2/3x3_s2_0_split_0
I0313 00:15:11.672350 28832 net.cpp:357] inception_3a/1x1 -> inception_3a/1x1
I0313 00:15:11.672366 28832 net.cpp:97] Setting up inception_3a/1x1
I0313 00:15:11.672579 28832 net.cpp:104] Top shape: 96 64 11 11 (743424)
I0313 00:15:11.672602 28832 layer_factory.hpp:78] Creating layer inception_3a/1x1/bn
I0313 00:15:11.672621 28832 net.cpp:68] Creating Layer inception_3a/1x1/bn
I0313 00:15:11.672634 28832 net.cpp:395] inception_3a/1x1/bn <- inception_3a/1x1
I0313 00:15:11.672651 28832 net.cpp:357] inception_3a/1x1/bn -> inception_3a/1x1/bn
I0313 00:15:11.672683 28832 net.cpp:97] Setting up inception_3a/1x1/bn
I0313 00:15:11.672708 28832 net.cpp:104] Top shape: 96 64 11 11 (743424)
I0313 00:15:11.672724 28832 layer_factory.hpp:78] Creating layer inception_3a/relu_1x1
I0313 00:15:11.672740 28832 net.cpp:68] Creating Layer inception_3a/relu_1x1
I0313 00:15:11.672755 28832 net.cpp:395] inception_3a/relu_1x1 <- inception_3a/1x1/bn
I0313 00:15:11.672767 28832 net.cpp:346] inception_3a/relu_1x1 -> inception_3a/1x1/bn (in-place)
I0313 00:15:11.672781 28832 net.cpp:97] Setting up inception_3a/relu_1x1
I0313 00:15:11.672796 28832 net.cpp:104] Top shape: 96 64 11 11 (743424)
I0313 00:15:11.672808 28832 layer_factory.hpp:78] Creating layer inception_3a/3x3_reduce
I0313 00:15:11.672823 28832 net.cpp:68] Creating Layer inception_3a/3x3_reduce
I0313 00:15:11.672835 28832 net.cpp:395] inception_3a/3x3_reduce <- pool2/3x3_s2_pool2/3x3_s2_0_split_1
I0313 00:15:11.672852 28832 net.cpp:357] inception_3a/3x3_reduce -> inception_3a/3x3_reduce
I0313 00:15:11.672886 28832 net.cpp:97] Setting up inception_3a/3x3_reduce
I0313 00:15:11.673357 28832 net.cpp:104] Top shape: 96 96 11 11 (1115136)
I0313 00:15:11.673382 28832 layer_factory.hpp:78] Creating layer inception_3a/3x3_reduce/bn
I0313 00:15:11.673403 28832 net.cpp:68] Creating Layer inception_3a/3x3_reduce/bn
I0313 00:15:11.673415 28832 net.cpp:395] inception_3a/3x3_reduce/bn <- inception_3a/3x3_reduce
I0313 00:15:11.673430 28832 net.cpp:357] inception_3a/3x3_reduce/bn -> inception_3a/3x3_reduce/bn
I0313 00:15:11.673446 28832 net.cpp:97] Setting up inception_3a/3x3_reduce/bn
I0313 00:15:11.673470 28832 net.cpp:104] Top shape: 96 96 11 11 (1115136)
I0313 00:15:11.673486 28832 layer_factory.hpp:78] Creating layer inception_3a/relu_3x3_reduce
I0313 00:15:11.673501 28832 net.cpp:68] Creating Layer inception_3a/relu_3x3_reduce
I0313 00:15:11.673517 28832 net.cpp:395] inception_3a/relu_3x3_reduce <- inception_3a/3x3_reduce/bn
I0313 00:15:11.673530 28832 net.cpp:346] inception_3a/relu_3x3_reduce -> inception_3a/3x3_reduce/bn (in-place)
I0313 00:15:11.673545 28832 net.cpp:97] Setting up inception_3a/relu_3x3_reduce
I0313 00:15:11.673560 28832 net.cpp:104] Top shape: 96 96 11 11 (1115136)
I0313 00:15:11.673573 28832 layer_factory.hpp:78] Creating layer inception_3a/3x3
I0313 00:15:11.673586 28832 net.cpp:68] Creating Layer inception_3a/3x3
I0313 00:15:11.673599 28832 net.cpp:395] inception_3a/3x3 <- inception_3a/3x3_reduce/bn
I0313 00:15:11.673615 28832 net.cpp:357] inception_3a/3x3 -> inception_3a/3x3
I0313 00:15:11.673631 28832 net.cpp:97] Setting up inception_3a/3x3
I0313 00:15:11.674881 28832 net.cpp:104] Top shape: 96 128 11 11 (1486848)
I0313 00:15:11.674907 28832 layer_factory.hpp:78] Creating layer inception_3a/3x3/bn
I0313 00:15:11.674927 28832 net.cpp:68] Creating Layer inception_3a/3x3/bn
I0313 00:15:11.674950 28832 net.cpp:395] inception_3a/3x3/bn <- inception_3a/3x3
I0313 00:15:11.674965 28832 net.cpp:357] inception_3a/3x3/bn -> inception_3a/3x3/bn
I0313 00:15:11.674983 28832 net.cpp:97] Setting up inception_3a/3x3/bn
I0313 00:15:11.675005 28832 net.cpp:104] Top shape: 96 128 11 11 (1486848)
I0313 00:15:11.675020 28832 layer_factory.hpp:78] Creating layer inception_3a/relu_3x3
I0313 00:15:11.675035 28832 net.cpp:68] Creating Layer inception_3a/relu_3x3
I0313 00:15:11.675046 28832 net.cpp:395] inception_3a/relu_3x3 <- inception_3a/3x3/bn
I0313 00:15:11.675062 28832 net.cpp:346] inception_3a/relu_3x3 -> inception_3a/3x3/bn (in-place)
I0313 00:15:11.675076 28832 net.cpp:97] Setting up inception_3a/relu_3x3
I0313 00:15:11.675091 28832 net.cpp:104] Top shape: 96 128 11 11 (1486848)
I0313 00:15:11.675104 28832 layer_factory.hpp:78] Creating layer inception_3a/5x5_reduce
I0313 00:15:11.675119 28832 net.cpp:68] Creating Layer inception_3a/5x5_reduce
I0313 00:15:11.675132 28832 net.cpp:395] inception_3a/5x5_reduce <- pool2/3x3_s2_pool2/3x3_s2_0_split_2
I0313 00:15:11.675153 28832 net.cpp:357] inception_3a/5x5_reduce -> inception_3a/5x5_reduce
I0313 00:15:11.675170 28832 net.cpp:97] Setting up inception_3a/5x5_reduce
I0313 00:15:11.675276 28832 net.cpp:104] Top shape: 96 16 11 11 (185856)
I0313 00:15:11.675314 28832 layer_factory.hpp:78] Creating layer inception_3a/5x5_reduce/bn
I0313 00:15:11.675335 28832 net.cpp:68] Creating Layer inception_3a/5x5_reduce/bn
I0313 00:15:11.675349 28832 net.cpp:395] inception_3a/5x5_reduce/bn <- inception_3a/5x5_reduce
I0313 00:15:11.675364 28832 net.cpp:357] inception_3a/5x5_reduce/bn -> inception_3a/5x5_reduce/bn
I0313 00:15:11.675379 28832 net.cpp:97] Setting up inception_3a/5x5_reduce/bn
I0313 00:15:11.675400 28832 net.cpp:104] Top shape: 96 16 11 11 (185856)
I0313 00:15:11.675415 28832 layer_factory.hpp:78] Creating layer inception_3a/relu_5x5_reduce
I0313 00:15:11.675431 28832 net.cpp:68] Creating Layer inception_3a/relu_5x5_reduce
I0313 00:15:11.675442 28832 net.cpp:395] inception_3a/relu_5x5_reduce <- inception_3a/5x5_reduce/bn
I0313 00:15:11.675456 28832 net.cpp:346] inception_3a/relu_5x5_reduce -> inception_3a/5x5_reduce/bn (in-place)
I0313 00:15:11.675469 28832 net.cpp:97] Setting up inception_3a/relu_5x5_reduce
I0313 00:15:11.675484 28832 net.cpp:104] Top shape: 96 16 11 11 (185856)
I0313 00:15:11.675496 28832 layer_factory.hpp:78] Creating layer inception_3a/5x5
I0313 00:15:11.675511 28832 net.cpp:68] Creating Layer inception_3a/5x5
I0313 00:15:11.675523 28832 net.cpp:395] inception_3a/5x5 <- inception_3a/5x5_reduce/bn
I0313 00:15:11.675540 28832 net.cpp:357] inception_3a/5x5 -> inception_3a/5x5
I0313 00:15:11.675556 28832 net.cpp:97] Setting up inception_3a/5x5
I0313 00:15:11.675771 28832 net.cpp:104] Top shape: 96 32 11 11 (371712)
I0313 00:15:11.675801 28832 layer_factory.hpp:78] Creating layer inception_3a/5x5/bn
I0313 00:15:11.675819 28832 net.cpp:68] Creating Layer inception_3a/5x5/bn
I0313 00:15:11.675840 28832 net.cpp:395] inception_3a/5x5/bn <- inception_3a/5x5
I0313 00:15:11.675855 28832 net.cpp:357] inception_3a/5x5/bn -> inception_3a/5x5/bn
I0313 00:15:11.675871 28832 net.cpp:97] Setting up inception_3a/5x5/bn
I0313 00:15:11.675891 28832 net.cpp:104] Top shape: 96 32 11 11 (371712)
I0313 00:15:11.675909 28832 layer_factory.hpp:78] Creating layer inception_3a/relu_5x5
I0313 00:15:11.675923 28832 net.cpp:68] Creating Layer inception_3a/relu_5x5
I0313 00:15:11.675943 28832 net.cpp:395] inception_3a/relu_5x5 <- inception_3a/5x5/bn
I0313 00:15:11.675958 28832 net.cpp:346] inception_3a/relu_5x5 -> inception_3a/5x5/bn (in-place)
I0313 00:15:11.675981 28832 net.cpp:97] Setting up inception_3a/relu_5x5
I0313 00:15:11.675994 28832 net.cpp:104] Top shape: 96 32 11 11 (371712)
I0313 00:15:11.676007 28832 layer_factory.hpp:78] Creating layer inception_3a/pool
I0313 00:15:11.676018 28832 layer_factory.cpp:51] CUDNN does not support padding or multiple tops. Using Caffe's own pooling layer.
I0313 00:15:11.676041 28832 net.cpp:68] Creating Layer inception_3a/pool
I0313 00:15:11.676055 28832 net.cpp:395] inception_3a/pool <- pool2/3x3_s2_pool2/3x3_s2_0_split_3
I0313 00:15:11.676077 28832 net.cpp:357] inception_3a/pool -> inception_3a/pool
I0313 00:15:11.676092 28832 net.cpp:97] Setting up inception_3a/pool
I0313 00:15:11.676105 28832 net.cpp:104] Top shape: 96 192 11 11 (2230272)
I0313 00:15:11.676116 28832 layer_factory.hpp:78] Creating layer inception_3a/pool_proj
I0313 00:15:11.676133 28832 net.cpp:68] Creating Layer inception_3a/pool_proj
I0313 00:15:11.676144 28832 net.cpp:395] inception_3a/pool_proj <- inception_3a/pool
I0313 00:15:11.676158 28832 net.cpp:357] inception_3a/pool_proj -> inception_3a/pool_proj
I0313 00:15:11.676173 28832 net.cpp:97] Setting up inception_3a/pool_proj
I0313 00:15:11.676309 28832 net.cpp:104] Top shape: 96 32 11 11 (371712)
I0313 00:15:11.676331 28832 layer_factory.hpp:78] Creating layer inception_3a/pool_proj/bn
I0313 00:15:11.676350 28832 net.cpp:68] Creating Layer inception_3a/pool_proj/bn
I0313 00:15:11.676363 28832 net.cpp:395] inception_3a/pool_proj/bn <- inception_3a/pool_proj
I0313 00:15:11.676378 28832 net.cpp:357] inception_3a/pool_proj/bn -> inception_3a/pool_proj/bn
I0313 00:15:11.676393 28832 net.cpp:97] Setting up inception_3a/pool_proj/bn
I0313 00:15:11.676414 28832 net.cpp:104] Top shape: 96 32 11 11 (371712)
I0313 00:15:11.676445 28832 layer_factory.hpp:78] Creating layer inception_3a/relu_pool_proj
I0313 00:15:11.676461 28832 net.cpp:68] Creating Layer inception_3a/relu_pool_proj
I0313 00:15:11.676473 28832 net.cpp:395] inception_3a/relu_pool_proj <- inception_3a/pool_proj/bn
I0313 00:15:11.676486 28832 net.cpp:346] inception_3a/relu_pool_proj -> inception_3a/pool_proj/bn (in-place)
I0313 00:15:11.676501 28832 net.cpp:97] Setting up inception_3a/relu_pool_proj
I0313 00:15:11.676515 28832 net.cpp:104] Top shape: 96 32 11 11 (371712)
I0313 00:15:11.676527 28832 layer_factory.hpp:78] Creating layer inception_3a/output
I0313 00:15:11.676547 28832 net.cpp:68] Creating Layer inception_3a/output
I0313 00:15:11.676558 28832 net.cpp:395] inception_3a/output <- inception_3a/1x1/bn
I0313 00:15:11.676571 28832 net.cpp:395] inception_3a/output <- inception_3a/3x3/bn
I0313 00:15:11.676584 28832 net.cpp:395] inception_3a/output <- inception_3a/5x5/bn
I0313 00:15:11.676596 28832 net.cpp:395] inception_3a/output <- inception_3a/pool_proj/bn
I0313 00:15:11.676610 28832 net.cpp:357] inception_3a/output -> inception_3a/output
I0313 00:15:11.676626 28832 net.cpp:97] Setting up inception_3a/output
I0313 00:15:11.676645 28832 net.cpp:104] Top shape: 96 256 11 11 (2973696)
I0313 00:15:11.676657 28832 layer_factory.hpp:78] Creating layer inception_3a/output_inception_3a/output_0_split
I0313 00:15:11.676671 28832 net.cpp:68] Creating Layer inception_3a/output_inception_3a/output_0_split
I0313 00:15:11.676682 28832 net.cpp:395] inception_3a/output_inception_3a/output_0_split <- inception_3a/output
I0313 00:15:11.676697 28832 net.cpp:357] inception_3a/output_inception_3a/output_0_split -> inception_3a/output_inception_3a/output_0_split_0
I0313 00:15:11.676712 28832 net.cpp:357] inception_3a/output_inception_3a/output_0_split -> inception_3a/output_inception_3a/output_0_split_1
I0313 00:15:11.676728 28832 net.cpp:357] inception_3a/output_inception_3a/output_0_split -> inception_3a/output_inception_3a/output_0_split_2
I0313 00:15:11.676743 28832 net.cpp:357] inception_3a/output_inception_3a/output_0_split -> inception_3a/output_inception_3a/output_0_split_3
I0313 00:15:11.676758 28832 net.cpp:97] Setting up inception_3a/output_inception_3a/output_0_split
I0313 00:15:11.676770 28832 net.cpp:104] Top shape: 96 256 11 11 (2973696)
I0313 00:15:11.676782 28832 net.cpp:104] Top shape: 96 256 11 11 (2973696)
I0313 00:15:11.676792 28832 net.cpp:104] Top shape: 96 256 11 11 (2973696)
I0313 00:15:11.676803 28832 net.cpp:104] Top shape: 96 256 11 11 (2973696)
I0313 00:15:11.676815 28832 layer_factory.hpp:78] Creating layer inception_3b/1x1
I0313 00:15:11.676831 28832 net.cpp:68] Creating Layer inception_3b/1x1
I0313 00:15:11.676852 28832 net.cpp:395] inception_3b/1x1 <- inception_3a/output_inception_3a/output_0_split_0
I0313 00:15:11.676884 28832 net.cpp:357] inception_3b/1x1 -> inception_3b/1x1
I0313 00:15:11.676903 28832 net.cpp:97] Setting up inception_3b/1x1
I0313 00:15:11.677448 28832 net.cpp:104] Top shape: 96 128 11 11 (1486848)
I0313 00:15:11.677474 28832 layer_factory.hpp:78] Creating layer inception_3b/1x1/bn
I0313 00:15:11.677495 28832 net.cpp:68] Creating Layer inception_3b/1x1/bn
I0313 00:15:11.677513 28832 net.cpp:395] inception_3b/1x1/bn <- inception_3b/1x1
I0313 00:15:11.677527 28832 net.cpp:357] inception_3b/1x1/bn -> inception_3b/1x1/bn
I0313 00:15:11.677543 28832 net.cpp:97] Setting up inception_3b/1x1/bn
I0313 00:15:11.677570 28832 net.cpp:104] Top shape: 96 128 11 11 (1486848)
I0313 00:15:11.677587 28832 layer_factory.hpp:78] Creating layer inception_3b/relu_1x1
I0313 00:15:11.677608 28832 net.cpp:68] Creating Layer inception_3b/relu_1x1
I0313 00:15:11.677623 28832 net.cpp:395] inception_3b/relu_1x1 <- inception_3b/1x1/bn
I0313 00:15:11.677639 28832 net.cpp:346] inception_3b/relu_1x1 -> inception_3b/1x1/bn (in-place)
I0313 00:15:11.677654 28832 net.cpp:97] Setting up inception_3b/relu_1x1
I0313 00:15:11.677671 28832 net.cpp:104] Top shape: 96 128 11 11 (1486848)
I0313 00:15:11.677683 28832 layer_factory.hpp:78] Creating layer inception_3b/3x3_reduce
I0313 00:15:11.677717 28832 net.cpp:68] Creating Layer inception_3b/3x3_reduce
I0313 00:15:11.677734 28832 net.cpp:395] inception_3b/3x3_reduce <- inception_3a/output_inception_3a/output_0_split_1
I0313 00:15:11.677750 28832 net.cpp:357] inception_3b/3x3_reduce -> inception_3b/3x3_reduce
I0313 00:15:11.677773 28832 net.cpp:97] Setting up inception_3b/3x3_reduce
I0313 00:15:11.678207 28832 net.cpp:104] Top shape: 96 128 11 11 (1486848)
I0313 00:15:11.678231 28832 layer_factory.hpp:78] Creating layer inception_3b/3x3_reduce/bn
I0313 00:15:11.678248 28832 net.cpp:68] Creating Layer inception_3b/3x3_reduce/bn
I0313 00:15:11.678261 28832 net.cpp:395] inception_3b/3x3_reduce/bn <- inception_3b/3x3_reduce
I0313 00:15:11.678284 28832 net.cpp:357] inception_3b/3x3_reduce/bn -> inception_3b/3x3_reduce/bn
I0313 00:15:11.678299 28832 net.cpp:97] Setting up inception_3b/3x3_reduce/bn
I0313 00:15:11.678331 28832 net.cpp:104] Top shape: 96 128 11 11 (1486848)
I0313 00:15:11.678346 28832 layer_factory.hpp:78] Creating layer inception_3b/relu_3x3_reduce
I0313 00:15:11.678366 28832 net.cpp:68] Creating Layer inception_3b/relu_3x3_reduce
I0313 00:15:11.678380 28832 net.cpp:395] inception_3b/relu_3x3_reduce <- inception_3b/3x3_reduce/bn
I0313 00:15:11.678392 28832 net.cpp:346] inception_3b/relu_3x3_reduce -> inception_3b/3x3_reduce/bn (in-place)
I0313 00:15:11.678406 28832 net.cpp:97] Setting up inception_3b/relu_3x3_reduce
I0313 00:15:11.678422 28832 net.cpp:104] Top shape: 96 128 11 11 (1486848)
I0313 00:15:11.678433 28832 layer_factory.hpp:78] Creating layer inception_3b/3x3
I0313 00:15:11.678449 28832 net.cpp:68] Creating Layer inception_3b/3x3
I0313 00:15:11.678462 28832 net.cpp:395] inception_3b/3x3 <- inception_3b/3x3_reduce/bn
I0313 00:15:11.678478 28832 net.cpp:357] inception_3b/3x3 -> inception_3b/3x3
I0313 00:15:11.678493 28832 net.cpp:97] Setting up inception_3b/3x3
I0313 00:15:11.680908 28832 net.cpp:104] Top shape: 96 192 11 11 (2230272)
I0313 00:15:11.680946 28832 layer_factory.hpp:78] Creating layer inception_3b/3x3/bn
I0313 00:15:11.680963 28832 net.cpp:68] Creating Layer inception_3b/3x3/bn
I0313 00:15:11.680974 28832 net.cpp:395] inception_3b/3x3/bn <- inception_3b/3x3
I0313 00:15:11.680991 28832 net.cpp:357] inception_3b/3x3/bn -> inception_3b/3x3/bn
I0313 00:15:11.681010 28832 net.cpp:97] Setting up inception_3b/3x3/bn
I0313 00:15:11.681033 28832 net.cpp:104] Top shape: 96 192 11 11 (2230272)
I0313 00:15:11.681049 28832 layer_factory.hpp:78] Creating layer inception_3b/relu_3x3
I0313 00:15:11.681063 28832 net.cpp:68] Creating Layer inception_3b/relu_3x3
I0313 00:15:11.681077 28832 net.cpp:395] inception_3b/relu_3x3 <- inception_3b/3x3/bn
I0313 00:15:11.681090 28832 net.cpp:346] inception_3b/relu_3x3 -> inception_3b/3x3/bn (in-place)
I0313 00:15:11.681104 28832 net.cpp:97] Setting up inception_3b/relu_3x3
I0313 00:15:11.681118 28832 net.cpp:104] Top shape: 96 192 11 11 (2230272)
I0313 00:15:11.681130 28832 layer_factory.hpp:78] Creating layer inception_3b/5x5_reduce
I0313 00:15:11.681145 28832 net.cpp:68] Creating Layer inception_3b/5x5_reduce
I0313 00:15:11.681159 28832 net.cpp:395] inception_3b/5x5_reduce <- inception_3a/output_inception_3a/output_0_split_2
I0313 00:15:11.681180 28832 net.cpp:357] inception_3b/5x5_reduce -> inception_3b/5x5_reduce
I0313 00:15:11.681197 28832 net.cpp:97] Setting up inception_3b/5x5_reduce
I0313 00:15:11.681352 28832 net.cpp:104] Top shape: 96 32 11 11 (371712)
I0313 00:15:11.681372 28832 layer_factory.hpp:78] Creating layer inception_3b/5x5_reduce/bn
I0313 00:15:11.681391 28832 net.cpp:68] Creating Layer inception_3b/5x5_reduce/bn
I0313 00:15:11.681403 28832 net.cpp:395] inception_3b/5x5_reduce/bn <- inception_3b/5x5_reduce
I0313 00:15:11.681418 28832 net.cpp:357] inception_3b/5x5_reduce/bn -> inception_3b/5x5_reduce/bn
I0313 00:15:11.681433 28832 net.cpp:97] Setting up inception_3b/5x5_reduce/bn
I0313 00:15:11.681454 28832 net.cpp:104] Top shape: 96 32 11 11 (371712)
I0313 00:15:11.681470 28832 layer_factory.hpp:78] Creating layer inception_3b/relu_5x5_reduce
I0313 00:15:11.681507 28832 net.cpp:68] Creating Layer inception_3b/relu_5x5_reduce
I0313 00:15:11.681520 28832 net.cpp:395] inception_3b/relu_5x5_reduce <- inception_3b/5x5_reduce/bn
I0313 00:15:11.681536 28832 net.cpp:346] inception_3b/relu_5x5_reduce -> inception_3b/5x5_reduce/bn (in-place)
I0313 00:15:11.681551 28832 net.cpp:97] Setting up inception_3b/relu_5x5_reduce
I0313 00:15:11.681567 28832 net.cpp:104] Top shape: 96 32 11 11 (371712)
I0313 00:15:11.681579 28832 layer_factory.hpp:78] Creating layer inception_3b/5x5
I0313 00:15:11.681593 28832 net.cpp:68] Creating Layer inception_3b/5x5
I0313 00:15:11.681607 28832 net.cpp:395] inception_3b/5x5 <- inception_3b/5x5_reduce/bn
I0313 00:15:11.681624 28832 net.cpp:357] inception_3b/5x5 -> inception_3b/5x5
I0313 00:15:11.681639 28832 net.cpp:97] Setting up inception_3b/5x5
I0313 00:15:11.682512 28832 net.cpp:104] Top shape: 96 96 11 11 (1115136)
I0313 00:15:11.682535 28832 layer_factory.hpp:78] Creating layer inception_3b/5x5/bn
I0313 00:15:11.682556 28832 net.cpp:68] Creating Layer inception_3b/5x5/bn
I0313 00:15:11.682570 28832 net.cpp:395] inception_3b/5x5/bn <- inception_3b/5x5
I0313 00:15:11.682585 28832 net.cpp:357] inception_3b/5x5/bn -> inception_3b/5x5/bn
I0313 00:15:11.682600 28832 net.cpp:97] Setting up inception_3b/5x5/bn
I0313 00:15:11.682622 28832 net.cpp:104] Top shape: 96 96 11 11 (1115136)
I0313 00:15:11.682637 28832 layer_factory.hpp:78] Creating layer inception_3b/relu_5x5
I0313 00:15:11.682652 28832 net.cpp:68] Creating Layer inception_3b/relu_5x5
I0313 00:15:11.682664 28832 net.cpp:395] inception_3b/relu_5x5 <- inception_3b/5x5/bn
I0313 00:15:11.682679 28832 net.cpp:346] inception_3b/relu_5x5 -> inception_3b/5x5/bn (in-place)
I0313 00:15:11.682694 28832 net.cpp:97] Setting up inception_3b/relu_5x5
I0313 00:15:11.682708 28832 net.cpp:104] Top shape: 96 96 11 11 (1115136)
I0313 00:15:11.682720 28832 layer_factory.hpp:78] Creating layer inception_3b/pool
I0313 00:15:11.682732 28832 layer_factory.cpp:51] CUDNN does not support padding or multiple tops. Using Caffe's own pooling layer.
I0313 00:15:11.682745 28832 net.cpp:68] Creating Layer inception_3b/pool
I0313 00:15:11.682757 28832 net.cpp:395] inception_3b/pool <- inception_3a/output_inception_3a/output_0_split_3
I0313 00:15:11.682771 28832 net.cpp:357] inception_3b/pool -> inception_3b/pool
I0313 00:15:11.682786 28832 net.cpp:97] Setting up inception_3b/pool
I0313 00:15:11.682800 28832 net.cpp:104] Top shape: 96 256 11 11 (2973696)
I0313 00:15:11.682811 28832 layer_factory.hpp:78] Creating layer inception_3b/pool_proj
I0313 00:15:11.682828 28832 net.cpp:68] Creating Layer inception_3b/pool_proj
I0313 00:15:11.682840 28832 net.cpp:395] inception_3b/pool_proj <- inception_3b/pool
I0313 00:15:11.682855 28832 net.cpp:357] inception_3b/pool_proj -> inception_3b/pool_proj
I0313 00:15:11.682881 28832 net.cpp:97] Setting up inception_3b/pool_proj
I0313 00:15:11.683287 28832 net.cpp:104] Top shape: 96 64 11 11 (743424)
I0313 00:15:11.683312 28832 layer_factory.hpp:78] Creating layer inception_3b/pool_proj/bn
I0313 00:15:11.683331 28832 net.cpp:68] Creating Layer inception_3b/pool_proj/bn
I0313 00:15:11.683344 28832 net.cpp:395] inception_3b/pool_proj/bn <- inception_3b/pool_proj
I0313 00:15:11.683362 28832 net.cpp:357] inception_3b/pool_proj/bn -> inception_3b/pool_proj/bn
I0313 00:15:11.683378 28832 net.cpp:97] Setting up inception_3b/pool_proj/bn
I0313 00:15:11.683403 28832 net.cpp:104] Top shape: 96 64 11 11 (743424)
I0313 00:15:11.683420 28832 layer_factory.hpp:78] Creating layer inception_3b/relu_pool_proj
I0313 00:15:11.683435 28832 net.cpp:68] Creating Layer inception_3b/relu_pool_proj
I0313 00:15:11.683447 28832 net.cpp:395] inception_3b/relu_pool_proj <- inception_3b/pool_proj/bn
I0313 00:15:11.683460 28832 net.cpp:346] inception_3b/relu_pool_proj -> inception_3b/pool_proj/bn (in-place)
I0313 00:15:11.683475 28832 net.cpp:97] Setting up inception_3b/relu_pool_proj
I0313 00:15:11.683491 28832 net.cpp:104] Top shape: 96 64 11 11 (743424)
I0313 00:15:11.683504 28832 layer_factory.hpp:78] Creating layer inception_3b/output
I0313 00:15:11.683537 28832 net.cpp:68] Creating Layer inception_3b/output
I0313 00:15:11.683552 28832 net.cpp:395] inception_3b/output <- inception_3b/1x1/bn
I0313 00:15:11.683564 28832 net.cpp:395] inception_3b/output <- inception_3b/3x3/bn
I0313 00:15:11.683578 28832 net.cpp:395] inception_3b/output <- inception_3b/5x5/bn
I0313 00:15:11.683598 28832 net.cpp:395] inception_3b/output <- inception_3b/pool_proj/bn
I0313 00:15:11.683615 28832 net.cpp:357] inception_3b/output -> inception_3b/output
I0313 00:15:11.683631 28832 net.cpp:97] Setting up inception_3b/output
I0313 00:15:11.683643 28832 net.cpp:104] Top shape: 96 480 11 11 (5575680)
I0313 00:15:11.683655 28832 layer_factory.hpp:78] Creating layer pool3/3x3_s2
I0313 00:15:11.683670 28832 net.cpp:68] Creating Layer pool3/3x3_s2
I0313 00:15:11.683681 28832 net.cpp:395] pool3/3x3_s2 <- inception_3b/output
I0313 00:15:11.683697 28832 net.cpp:357] pool3/3x3_s2 -> pool3/3x3_s2
I0313 00:15:11.683712 28832 net.cpp:97] Setting up pool3/3x3_s2
I0313 00:15:11.683729 28832 net.cpp:104] Top shape: 96 480 5 5 (1152000)
I0313 00:15:11.683743 28832 layer_factory.hpp:78] Creating layer pool3/3x3_s2_pool3/3x3_s2_0_split
I0313 00:15:11.683756 28832 net.cpp:68] Creating Layer pool3/3x3_s2_pool3/3x3_s2_0_split
I0313 00:15:11.683768 28832 net.cpp:395] pool3/3x3_s2_pool3/3x3_s2_0_split <- pool3/3x3_s2
I0313 00:15:11.683780 28832 net.cpp:357] pool3/3x3_s2_pool3/3x3_s2_0_split -> pool3/3x3_s2_pool3/3x3_s2_0_split_0
I0313 00:15:11.683795 28832 net.cpp:357] pool3/3x3_s2_pool3/3x3_s2_0_split -> pool3/3x3_s2_pool3/3x3_s2_0_split_1
I0313 00:15:11.683815 28832 net.cpp:357] pool3/3x3_s2_pool3/3x3_s2_0_split -> pool3/3x3_s2_pool3/3x3_s2_0_split_2
I0313 00:15:11.683832 28832 net.cpp:357] pool3/3x3_s2_pool3/3x3_s2_0_split -> pool3/3x3_s2_pool3/3x3_s2_0_split_3
I0313 00:15:11.683846 28832 net.cpp:97] Setting up pool3/3x3_s2_pool3/3x3_s2_0_split
I0313 00:15:11.683859 28832 net.cpp:104] Top shape: 96 480 5 5 (1152000)
I0313 00:15:11.683871 28832 net.cpp:104] Top shape: 96 480 5 5 (1152000)
I0313 00:15:11.683881 28832 net.cpp:104] Top shape: 96 480 5 5 (1152000)
I0313 00:15:11.683892 28832 net.cpp:104] Top shape: 96 480 5 5 (1152000)
I0313 00:15:11.683903 28832 layer_factory.hpp:78] Creating layer inception_4a/1x1
I0313 00:15:11.683920 28832 net.cpp:68] Creating Layer inception_4a/1x1
I0313 00:15:11.683933 28832 net.cpp:395] inception_4a/1x1 <- pool3/3x3_s2_pool3/3x3_s2_0_split_0
I0313 00:15:11.683948 28832 net.cpp:357] inception_4a/1x1 -> inception_4a/1x1
I0313 00:15:11.683962 28832 net.cpp:97] Setting up inception_4a/1x1
I0313 00:15:11.685024 28832 net.cpp:104] Top shape: 96 192 5 5 (460800)
I0313 00:15:11.685058 28832 layer_factory.hpp:78] Creating layer inception_4a/1x1/bn
I0313 00:15:11.685075 28832 net.cpp:68] Creating Layer inception_4a/1x1/bn
I0313 00:15:11.685088 28832 net.cpp:395] inception_4a/1x1/bn <- inception_4a/1x1
I0313 00:15:11.685109 28832 net.cpp:357] inception_4a/1x1/bn -> inception_4a/1x1/bn
I0313 00:15:11.685125 28832 net.cpp:97] Setting up inception_4a/1x1/bn
I0313 00:15:11.685149 28832 net.cpp:104] Top shape: 96 192 5 5 (460800)
I0313 00:15:11.685164 28832 layer_factory.hpp:78] Creating layer inception_4a/relu_1x1
I0313 00:15:11.685183 28832 net.cpp:68] Creating Layer inception_4a/relu_1x1
I0313 00:15:11.685194 28832 net.cpp:395] inception_4a/relu_1x1 <- inception_4a/1x1/bn
I0313 00:15:11.685207 28832 net.cpp:346] inception_4a/relu_1x1 -> inception_4a/1x1/bn (in-place)
I0313 00:15:11.685221 28832 net.cpp:97] Setting up inception_4a/relu_1x1
I0313 00:15:11.685236 28832 net.cpp:104] Top shape: 96 192 5 5 (460800)
I0313 00:15:11.685250 28832 layer_factory.hpp:78] Creating layer inception_4a/3x3_reduce
I0313 00:15:11.685267 28832 net.cpp:68] Creating Layer inception_4a/3x3_reduce
I0313 00:15:11.685281 28832 net.cpp:395] inception_4a/3x3_reduce <- pool3/3x3_s2_pool3/3x3_s2_0_split_1
I0313 00:15:11.685295 28832 net.cpp:357] inception_4a/3x3_reduce -> inception_4a/3x3_reduce
I0313 00:15:11.685310 28832 net.cpp:97] Setting up inception_4a/3x3_reduce
I0313 00:15:11.685883 28832 net.cpp:104] Top shape: 96 96 5 5 (230400)
I0313 00:15:11.685906 28832 layer_factory.hpp:78] Creating layer inception_4a/3x3_reduce/bn
I0313 00:15:11.685931 28832 net.cpp:68] Creating Layer inception_4a/3x3_reduce/bn
I0313 00:15:11.685945 28832 net.cpp:395] inception_4a/3x3_reduce/bn <- inception_4a/3x3_reduce
I0313 00:15:11.685962 28832 net.cpp:357] inception_4a/3x3_reduce/bn -> inception_4a/3x3_reduce/bn
I0313 00:15:11.685979 28832 net.cpp:97] Setting up inception_4a/3x3_reduce/bn
I0313 00:15:11.685999 28832 net.cpp:104] Top shape: 96 96 5 5 (230400)
I0313 00:15:11.686015 28832 layer_factory.hpp:78] Creating layer inception_4a/relu_3x3_reduce
I0313 00:15:11.686031 28832 net.cpp:68] Creating Layer inception_4a/relu_3x3_reduce
I0313 00:15:11.686043 28832 net.cpp:395] inception_4a/relu_3x3_reduce <- inception_4a/3x3_reduce/bn
I0313 00:15:11.686063 28832 net.cpp:346] inception_4a/relu_3x3_reduce -> inception_4a/3x3_reduce/bn (in-place)
I0313 00:15:11.686077 28832 net.cpp:97] Setting up inception_4a/relu_3x3_reduce
I0313 00:15:11.686092 28832 net.cpp:104] Top shape: 96 96 5 5 (230400)
I0313 00:15:11.686105 28832 layer_factory.hpp:78] Creating layer inception_4a/3x3
I0313 00:15:11.686120 28832 net.cpp:68] Creating Layer inception_4a/3x3
I0313 00:15:11.686135 28832 net.cpp:395] inception_4a/3x3 <- inception_4a/3x3_reduce/bn
I0313 00:15:11.686149 28832 net.cpp:357] inception_4a/3x3 -> inception_4a/3x3
I0313 00:15:11.686164 28832 net.cpp:97] Setting up inception_4a/3x3
I0313 00:15:11.688081 28832 net.cpp:104] Top shape: 96 208 5 5 (499200)
I0313 00:15:11.688104 28832 layer_factory.hpp:78] Creating layer inception_4a/3x3/bn
I0313 00:15:11.688122 28832 net.cpp:68] Creating Layer inception_4a/3x3/bn
I0313 00:15:11.688133 28832 net.cpp:395] inception_4a/3x3/bn <- inception_4a/3x3
I0313 00:15:11.688150 28832 net.cpp:357] inception_4a/3x3/bn -> inception_4a/3x3/bn
I0313 00:15:11.688168 28832 net.cpp:97] Setting up inception_4a/3x3/bn
I0313 00:15:11.688190 28832 net.cpp:104] Top shape: 96 208 5 5 (499200)
I0313 00:15:11.688205 28832 layer_factory.hpp:78] Creating layer inception_4a/relu_3x3
I0313 00:15:11.688220 28832 net.cpp:68] Creating Layer inception_4a/relu_3x3
I0313 00:15:11.688231 28832 net.cpp:395] inception_4a/relu_3x3 <- inception_4a/3x3/bn
I0313 00:15:11.688247 28832 net.cpp:346] inception_4a/relu_3x3 -> inception_4a/3x3/bn (in-place)
I0313 00:15:11.688262 28832 net.cpp:97] Setting up inception_4a/relu_3x3
I0313 00:15:11.688277 28832 net.cpp:104] Top shape: 96 208 5 5 (499200)
I0313 00:15:11.688288 28832 layer_factory.hpp:78] Creating layer inception_4a/5x5_reduce
I0313 00:15:11.688303 28832 net.cpp:68] Creating Layer inception_4a/5x5_reduce
I0313 00:15:11.688315 28832 net.cpp:395] inception_4a/5x5_reduce <- pool3/3x3_s2_pool3/3x3_s2_0_split_2
I0313 00:15:11.688329 28832 net.cpp:357] inception_4a/5x5_reduce -> inception_4a/5x5_reduce
I0313 00:15:11.688344 28832 net.cpp:97] Setting up inception_4a/5x5_reduce
I0313 00:15:11.688519 28832 net.cpp:104] Top shape: 96 16 5 5 (38400)
I0313 00:15:11.688540 28832 layer_factory.hpp:78] Creating layer inception_4a/5x5_reduce/bn
I0313 00:15:11.688560 28832 net.cpp:68] Creating Layer inception_4a/5x5_reduce/bn
I0313 00:15:11.688573 28832 net.cpp:395] inception_4a/5x5_reduce/bn <- inception_4a/5x5_reduce
I0313 00:15:11.688591 28832 net.cpp:357] inception_4a/5x5_reduce/bn -> inception_4a/5x5_reduce/bn
I0313 00:15:11.688606 28832 net.cpp:97] Setting up inception_4a/5x5_reduce/bn
I0313 00:15:11.688627 28832 net.cpp:104] Top shape: 96 16 5 5 (38400)
I0313 00:15:11.688642 28832 layer_factory.hpp:78] Creating layer inception_4a/relu_5x5_reduce
I0313 00:15:11.688655 28832 net.cpp:68] Creating Layer inception_4a/relu_5x5_reduce
I0313 00:15:11.688668 28832 net.cpp:395] inception_4a/relu_5x5_reduce <- inception_4a/5x5_reduce/bn
I0313 00:15:11.688683 28832 net.cpp:346] inception_4a/relu_5x5_reduce -> inception_4a/5x5_reduce/bn (in-place)
I0313 00:15:11.688698 28832 net.cpp:97] Setting up inception_4a/relu_5x5_reduce
I0313 00:15:11.688712 28832 net.cpp:104] Top shape: 96 16 5 5 (38400)
I0313 00:15:11.688742 28832 layer_factory.hpp:78] Creating layer inception_4a/5x5
I0313 00:15:11.688760 28832 net.cpp:68] Creating Layer inception_4a/5x5
I0313 00:15:11.688771 28832 net.cpp:395] inception_4a/5x5 <- inception_4a/5x5_reduce/bn
I0313 00:15:11.688786 28832 net.cpp:357] inception_4a/5x5 -> inception_4a/5x5
I0313 00:15:11.688812 28832 net.cpp:97] Setting up inception_4a/5x5
I0313 00:15:11.689232 28832 net.cpp:104] Top shape: 96 48 5 5 (115200)
I0313 00:15:11.689257 28832 layer_factory.hpp:78] Creating layer inception_4a/5x5/bn
I0313 00:15:11.689278 28832 net.cpp:68] Creating Layer inception_4a/5x5/bn
I0313 00:15:11.689292 28832 net.cpp:395] inception_4a/5x5/bn <- inception_4a/5x5
I0313 00:15:11.689306 28832 net.cpp:357] inception_4a/5x5/bn -> inception_4a/5x5/bn
I0313 00:15:11.689322 28832 net.cpp:97] Setting up inception_4a/5x5/bn
I0313 00:15:11.689347 28832 net.cpp:104] Top shape: 96 48 5 5 (115200)
I0313 00:15:11.689363 28832 layer_factory.hpp:78] Creating layer inception_4a/relu_5x5
I0313 00:15:11.689383 28832 net.cpp:68] Creating Layer inception_4a/relu_5x5
I0313 00:15:11.689395 28832 net.cpp:395] inception_4a/relu_5x5 <- inception_4a/5x5/bn
I0313 00:15:11.689407 28832 net.cpp:346] inception_4a/relu_5x5 -> inception_4a/5x5/bn (in-place)
I0313 00:15:11.689421 28832 net.cpp:97] Setting up inception_4a/relu_5x5
I0313 00:15:11.689436 28832 net.cpp:104] Top shape: 96 48 5 5 (115200)
I0313 00:15:11.689447 28832 layer_factory.hpp:78] Creating layer inception_4a/pool
I0313 00:15:11.689460 28832 layer_factory.cpp:51] CUDNN does not support padding or multiple tops. Using Caffe's own pooling layer.
I0313 00:15:11.689477 28832 net.cpp:68] Creating Layer inception_4a/pool
I0313 00:15:11.689491 28832 net.cpp:395] inception_4a/pool <- pool3/3x3_s2_pool3/3x3_s2_0_split_3
I0313 00:15:11.689504 28832 net.cpp:357] inception_4a/pool -> inception_4a/pool
I0313 00:15:11.689518 28832 net.cpp:97] Setting up inception_4a/pool
I0313 00:15:11.689532 28832 net.cpp:104] Top shape: 96 480 5 5 (1152000)
I0313 00:15:11.689544 28832 layer_factory.hpp:78] Creating layer inception_4a/pool_proj
I0313 00:15:11.689559 28832 net.cpp:68] Creating Layer inception_4a/pool_proj
I0313 00:15:11.689571 28832 net.cpp:395] inception_4a/pool_proj <- inception_4a/pool
I0313 00:15:11.689587 28832 net.cpp:357] inception_4a/pool_proj -> inception_4a/pool_proj
I0313 00:15:11.689604 28832 net.cpp:97] Setting up inception_4a/pool_proj
I0313 00:15:11.690026 28832 net.cpp:104] Top shape: 96 64 5 5 (153600)
I0313 00:15:11.690052 28832 layer_factory.hpp:78] Creating layer inception_4a/pool_proj/bn
I0313 00:15:11.690068 28832 net.cpp:68] Creating Layer inception_4a/pool_proj/bn
I0313 00:15:11.690080 28832 net.cpp:395] inception_4a/pool_proj/bn <- inception_4a/pool_proj
I0313 00:15:11.690098 28832 net.cpp:357] inception_4a/pool_proj/bn -> inception_4a/pool_proj/bn
I0313 00:15:11.690114 28832 net.cpp:97] Setting up inception_4a/pool_proj/bn
I0313 00:15:11.690135 28832 net.cpp:104] Top shape: 96 64 5 5 (153600)
I0313 00:15:11.690148 28832 layer_factory.hpp:78] Creating layer inception_4a/relu_pool_proj
I0313 00:15:11.690163 28832 net.cpp:68] Creating Layer inception_4a/relu_pool_proj
I0313 00:15:11.690176 28832 net.cpp:395] inception_4a/relu_pool_proj <- inception_4a/pool_proj/bn
I0313 00:15:11.690191 28832 net.cpp:346] inception_4a/relu_pool_proj -> inception_4a/pool_proj/bn (in-place)
I0313 00:15:11.690204 28832 net.cpp:97] Setting up inception_4a/relu_pool_proj
I0313 00:15:11.690223 28832 net.cpp:104] Top shape: 96 64 5 5 (153600)
I0313 00:15:11.690237 28832 layer_factory.hpp:78] Creating layer inception_4a/output
I0313 00:15:11.690250 28832 net.cpp:68] Creating Layer inception_4a/output
I0313 00:15:11.690263 28832 net.cpp:395] inception_4a/output <- inception_4a/1x1/bn
I0313 00:15:11.690275 28832 net.cpp:395] inception_4a/output <- inception_4a/3x3/bn
I0313 00:15:11.690289 28832 net.cpp:395] inception_4a/output <- inception_4a/5x5/bn
I0313 00:15:11.690300 28832 net.cpp:395] inception_4a/output <- inception_4a/pool_proj/bn
I0313 00:15:11.690338 28832 net.cpp:357] inception_4a/output -> inception_4a/output
I0313 00:15:11.690356 28832 net.cpp:97] Setting up inception_4a/output
I0313 00:15:11.690367 28832 net.cpp:104] Top shape: 96 512 5 5 (1228800)
I0313 00:15:11.690379 28832 layer_factory.hpp:78] Creating layer inception_4a/output_inception_4a/output_0_split
I0313 00:15:11.690392 28832 net.cpp:68] Creating Layer inception_4a/output_inception_4a/output_0_split
I0313 00:15:11.690404 28832 net.cpp:395] inception_4a/output_inception_4a/output_0_split <- inception_4a/output
I0313 00:15:11.690418 28832 net.cpp:357] inception_4a/output_inception_4a/output_0_split -> inception_4a/output_inception_4a/output_0_split_0
I0313 00:15:11.690433 28832 net.cpp:357] inception_4a/output_inception_4a/output_0_split -> inception_4a/output_inception_4a/output_0_split_1
I0313 00:15:11.690450 28832 net.cpp:357] inception_4a/output_inception_4a/output_0_split -> inception_4a/output_inception_4a/output_0_split_2
I0313 00:15:11.690465 28832 net.cpp:357] inception_4a/output_inception_4a/output_0_split -> inception_4a/output_inception_4a/output_0_split_3
I0313 00:15:11.690484 28832 net.cpp:357] inception_4a/output_inception_4a/output_0_split -> inception_4a/output_inception_4a/output_0_split_4
I0313 00:15:11.690498 28832 net.cpp:97] Setting up inception_4a/output_inception_4a/output_0_split
I0313 00:15:11.690511 28832 net.cpp:104] Top shape: 96 512 5 5 (1228800)
I0313 00:15:11.690522 28832 net.cpp:104] Top shape: 96 512 5 5 (1228800)
I0313 00:15:11.690533 28832 net.cpp:104] Top shape: 96 512 5 5 (1228800)
I0313 00:15:11.690544 28832 net.cpp:104] Top shape: 96 512 5 5 (1228800)
I0313 00:15:11.690554 28832 net.cpp:104] Top shape: 96 512 5 5 (1228800)
I0313 00:15:11.690565 28832 layer_factory.hpp:78] Creating layer loss1/ave_pool
I0313 00:15:11.690579 28832 net.cpp:68] Creating Layer loss1/ave_pool
I0313 00:15:11.690590 28832 net.cpp:395] loss1/ave_pool <- inception_4a/output_inception_4a/output_0_split_0
I0313 00:15:11.690608 28832 net.cpp:357] loss1/ave_pool -> loss1/ave_pool
I0313 00:15:11.690621 28832 net.cpp:97] Setting up loss1/ave_pool
I0313 00:15:11.690637 28832 net.cpp:104] Top shape: 96 512 1 1 (49152)
I0313 00:15:11.690650 28832 layer_factory.hpp:78] Creating layer loss1/conv
I0313 00:15:11.690665 28832 net.cpp:68] Creating Layer loss1/conv
I0313 00:15:11.690677 28832 net.cpp:395] loss1/conv <- loss1/ave_pool
I0313 00:15:11.690693 28832 net.cpp:357] loss1/conv -> loss1/conv
I0313 00:15:11.690709 28832 net.cpp:97] Setting up loss1/conv
I0313 00:15:11.691467 28832 net.cpp:104] Top shape: 96 128 1 1 (12288)
I0313 00:15:11.691489 28832 layer_factory.hpp:78] Creating layer loss1/conv/bn
I0313 00:15:11.691509 28832 net.cpp:68] Creating Layer loss1/conv/bn
I0313 00:15:11.691521 28832 net.cpp:395] loss1/conv/bn <- loss1/conv
I0313 00:15:11.691535 28832 net.cpp:357] loss1/conv/bn -> loss1/conv/bn
I0313 00:15:11.691550 28832 net.cpp:97] Setting up loss1/conv/bn
I0313 00:15:11.691573 28832 net.cpp:104] Top shape: 96 128 1 1 (12288)
I0313 00:15:11.691588 28832 layer_factory.hpp:78] Creating layer loss1/relu_conv
I0313 00:15:11.691601 28832 net.cpp:68] Creating Layer loss1/relu_conv
I0313 00:15:11.691613 28832 net.cpp:395] loss1/relu_conv <- loss1/conv/bn
I0313 00:15:11.691627 28832 net.cpp:346] loss1/relu_conv -> loss1/conv/bn (in-place)
I0313 00:15:11.691640 28832 net.cpp:97] Setting up loss1/relu_conv
I0313 00:15:11.691654 28832 net.cpp:104] Top shape: 96 128 1 1 (12288)
I0313 00:15:11.691666 28832 layer_factory.hpp:78] Creating layer loss1/fc
I0313 00:15:11.691689 28832 net.cpp:68] Creating Layer loss1/fc
I0313 00:15:11.691701 28832 net.cpp:395] loss1/fc <- loss1/conv/bn
I0313 00:15:11.691715 28832 net.cpp:357] loss1/fc -> loss1/fc
I0313 00:15:11.691730 28832 net.cpp:97] Setting up loss1/fc
I0313 00:15:11.693194 28832 net.cpp:104] Top shape: 96 1024 1 1 (98304)
I0313 00:15:11.693218 28832 layer_factory.hpp:78] Creating layer loss1/fc/bn
I0313 00:15:11.693234 28832 net.cpp:68] Creating Layer loss1/fc/bn
I0313 00:15:11.693245 28832 net.cpp:395] loss1/fc/bn <- loss1/fc
I0313 00:15:11.693282 28832 net.cpp:357] loss1/fc/bn -> loss1/fc/bn
I0313 00:15:11.693300 28832 net.cpp:97] Setting up loss1/fc/bn
I0313 00:15:11.693328 28832 net.cpp:104] Top shape: 96 1024 1 1 (98304)
I0313 00:15:11.693346 28832 layer_factory.hpp:78] Creating layer loss1/relu_fc
I0313 00:15:11.693359 28832 net.cpp:68] Creating Layer loss1/relu_fc
I0313 00:15:11.693370 28832 net.cpp:395] loss1/relu_fc <- loss1/fc/bn
I0313 00:15:11.693387 28832 net.cpp:346] loss1/relu_fc -> loss1/fc/bn (in-place)
I0313 00:15:11.693400 28832 net.cpp:97] Setting up loss1/relu_fc
I0313 00:15:11.693416 28832 net.cpp:104] Top shape: 96 1024 1 1 (98304)
I0313 00:15:11.693428 28832 layer_factory.hpp:78] Creating layer loss1/drop_fc
I0313 00:15:11.693445 28832 net.cpp:68] Creating Layer loss1/drop_fc
I0313 00:15:11.693456 28832 net.cpp:395] loss1/drop_fc <- loss1/fc/bn
I0313 00:15:11.693470 28832 net.cpp:346] loss1/drop_fc -> loss1/fc/bn (in-place)
I0313 00:15:11.693485 28832 net.cpp:97] Setting up loss1/drop_fc
I0313 00:15:11.693500 28832 net.cpp:104] Top shape: 96 1024 1 1 (98304)
I0313 00:15:11.693511 28832 layer_factory.hpp:78] Creating layer loss1/classifier
I0313 00:15:11.693528 28832 net.cpp:68] Creating Layer loss1/classifier
I0313 00:15:11.693539 28832 net.cpp:395] loss1/classifier <- loss1/fc/bn
I0313 00:15:11.693553 28832 net.cpp:357] loss1/classifier -> loss1/classifier
I0313 00:15:11.693568 28832 net.cpp:97] Setting up loss1/classifier
I0313 00:15:11.694957 28832 net.cpp:104] Top shape: 96 121 1 1 (11616)
I0313 00:15:11.694979 28832 layer_factory.hpp:78] Creating layer loss1/loss
I0313 00:15:11.694996 28832 net.cpp:68] Creating Layer loss1/loss
I0313 00:15:11.695008 28832 net.cpp:395] loss1/loss <- loss1/classifier
I0313 00:15:11.695021 28832 net.cpp:395] loss1/loss <- label_data_1_split_0
I0313 00:15:11.695039 28832 net.cpp:357] loss1/loss -> loss1/loss
I0313 00:15:11.695055 28832 net.cpp:97] Setting up loss1/loss
I0313 00:15:11.695070 28832 layer_factory.hpp:78] Creating layer loss1/loss
I0313 00:15:11.695132 28832 net.cpp:104] Top shape: 1 1 1 1 (1)
I0313 00:15:11.695147 28832 net.cpp:110]     with loss weight 0.05
I0313 00:15:11.695199 28832 layer_factory.hpp:78] Creating layer inception_4b/1x1
I0313 00:15:11.695220 28832 net.cpp:68] Creating Layer inception_4b/1x1
I0313 00:15:11.695232 28832 net.cpp:395] inception_4b/1x1 <- inception_4a/output_inception_4a/output_0_split_1
I0313 00:15:11.695250 28832 net.cpp:357] inception_4b/1x1 -> inception_4b/1x1
I0313 00:15:11.695266 28832 net.cpp:97] Setting up inception_4b/1x1
I0313 00:15:11.696197 28832 net.cpp:104] Top shape: 96 160 5 5 (384000)
I0313 00:15:11.696220 28832 layer_factory.hpp:78] Creating layer inception_4b/1x1/bn
I0313 00:15:11.696238 28832 net.cpp:68] Creating Layer inception_4b/1x1/bn
I0313 00:15:11.696251 28832 net.cpp:395] inception_4b/1x1/bn <- inception_4b/1x1
I0313 00:15:11.696265 28832 net.cpp:357] inception_4b/1x1/bn -> inception_4b/1x1/bn
I0313 00:15:11.696281 28832 net.cpp:97] Setting up inception_4b/1x1/bn
I0313 00:15:11.696305 28832 net.cpp:104] Top shape: 96 160 5 5 (384000)
I0313 00:15:11.696319 28832 layer_factory.hpp:78] Creating layer inception_4b/relu_1x1
I0313 00:15:11.696333 28832 net.cpp:68] Creating Layer inception_4b/relu_1x1
I0313 00:15:11.696346 28832 net.cpp:395] inception_4b/relu_1x1 <- inception_4b/1x1/bn
I0313 00:15:11.696360 28832 net.cpp:346] inception_4b/relu_1x1 -> inception_4b/1x1/bn (in-place)
I0313 00:15:11.696375 28832 net.cpp:97] Setting up inception_4b/relu_1x1
I0313 00:15:11.696390 28832 net.cpp:104] Top shape: 96 160 5 5 (384000)
I0313 00:15:11.696403 28832 layer_factory.hpp:78] Creating layer inception_4b/3x3_reduce
I0313 00:15:11.696419 28832 net.cpp:68] Creating Layer inception_4b/3x3_reduce
I0313 00:15:11.696431 28832 net.cpp:395] inception_4b/3x3_reduce <- inception_4a/output_inception_4a/output_0_split_2
I0313 00:15:11.696446 28832 net.cpp:357] inception_4b/3x3_reduce -> inception_4b/3x3_reduce
I0313 00:15:11.696461 28832 net.cpp:97] Setting up inception_4b/3x3_reduce
I0313 00:15:11.697152 28832 net.cpp:104] Top shape: 96 112 5 5 (268800)
I0313 00:15:11.697204 28832 layer_factory.hpp:78] Creating layer inception_4b/3x3_reduce/bn
I0313 00:15:11.697224 28832 net.cpp:68] Creating Layer inception_4b/3x3_reduce/bn
I0313 00:15:11.697238 28832 net.cpp:395] inception_4b/3x3_reduce/bn <- inception_4b/3x3_reduce
I0313 00:15:11.697253 28832 net.cpp:357] inception_4b/3x3_reduce/bn -> inception_4b/3x3_reduce/bn
I0313 00:15:11.697269 28832 net.cpp:97] Setting up inception_4b/3x3_reduce/bn
I0313 00:15:11.697291 28832 net.cpp:104] Top shape: 96 112 5 5 (268800)
I0313 00:15:11.697305 28832 layer_factory.hpp:78] Creating layer inception_4b/relu_3x3_reduce
I0313 00:15:11.697320 28832 net.cpp:68] Creating Layer inception_4b/relu_3x3_reduce
I0313 00:15:11.697331 28832 net.cpp:395] inception_4b/relu_3x3_reduce <- inception_4b/3x3_reduce/bn
I0313 00:15:11.697347 28832 net.cpp:346] inception_4b/relu_3x3_reduce -> inception_4b/3x3_reduce/bn (in-place)
I0313 00:15:11.697361 28832 net.cpp:97] Setting up inception_4b/relu_3x3_reduce
I0313 00:15:11.697377 28832 net.cpp:104] Top shape: 96 112 5 5 (268800)
I0313 00:15:11.697389 28832 layer_factory.hpp:78] Creating layer inception_4b/3x3
I0313 00:15:11.697404 28832 net.cpp:68] Creating Layer inception_4b/3x3
I0313 00:15:11.697417 28832 net.cpp:395] inception_4b/3x3 <- inception_4b/3x3_reduce/bn
I0313 00:15:11.697429 28832 net.cpp:357] inception_4b/3x3 -> inception_4b/3x3
I0313 00:15:11.697444 28832 net.cpp:97] Setting up inception_4b/3x3
I0313 00:15:11.700011 28832 net.cpp:104] Top shape: 96 224 5 5 (537600)
I0313 00:15:11.700043 28832 layer_factory.hpp:78] Creating layer inception_4b/3x3/bn
I0313 00:15:11.700063 28832 net.cpp:68] Creating Layer inception_4b/3x3/bn
I0313 00:15:11.700078 28832 net.cpp:395] inception_4b/3x3/bn <- inception_4b/3x3
I0313 00:15:11.700091 28832 net.cpp:357] inception_4b/3x3/bn -> inception_4b/3x3/bn
I0313 00:15:11.700109 28832 net.cpp:97] Setting up inception_4b/3x3/bn
I0313 00:15:11.700131 28832 net.cpp:104] Top shape: 96 224 5 5 (537600)
I0313 00:15:11.700146 28832 layer_factory.hpp:78] Creating layer inception_4b/relu_3x3
I0313 00:15:11.700162 28832 net.cpp:68] Creating Layer inception_4b/relu_3x3
I0313 00:15:11.700175 28832 net.cpp:395] inception_4b/relu_3x3 <- inception_4b/3x3/bn
I0313 00:15:11.700189 28832 net.cpp:346] inception_4b/relu_3x3 -> inception_4b/3x3/bn (in-place)
I0313 00:15:11.700204 28832 net.cpp:97] Setting up inception_4b/relu_3x3
I0313 00:15:11.700219 28832 net.cpp:104] Top shape: 96 224 5 5 (537600)
I0313 00:15:11.700232 28832 layer_factory.hpp:78] Creating layer inception_4b/5x5_reduce
I0313 00:15:11.700248 28832 net.cpp:68] Creating Layer inception_4b/5x5_reduce
I0313 00:15:11.700259 28832 net.cpp:395] inception_4b/5x5_reduce <- inception_4a/output_inception_4a/output_0_split_3
I0313 00:15:11.700278 28832 net.cpp:357] inception_4b/5x5_reduce -> inception_4b/5x5_reduce
I0313 00:15:11.700292 28832 net.cpp:97] Setting up inception_4b/5x5_reduce
I0313 00:15:11.700495 28832 net.cpp:104] Top shape: 96 24 5 5 (57600)
I0313 00:15:11.700515 28832 layer_factory.hpp:78] Creating layer inception_4b/5x5_reduce/bn
I0313 00:15:11.700534 28832 net.cpp:68] Creating Layer inception_4b/5x5_reduce/bn
I0313 00:15:11.700547 28832 net.cpp:395] inception_4b/5x5_reduce/bn <- inception_4b/5x5_reduce
I0313 00:15:11.700562 28832 net.cpp:357] inception_4b/5x5_reduce/bn -> inception_4b/5x5_reduce/bn
I0313 00:15:11.700580 28832 net.cpp:97] Setting up inception_4b/5x5_reduce/bn
I0313 00:15:11.700598 28832 net.cpp:104] Top shape: 96 24 5 5 (57600)
I0313 00:15:11.700613 28832 layer_factory.hpp:78] Creating layer inception_4b/relu_5x5_reduce
I0313 00:15:11.700630 28832 net.cpp:68] Creating Layer inception_4b/relu_5x5_reduce
I0313 00:15:11.700642 28832 net.cpp:395] inception_4b/relu_5x5_reduce <- inception_4b/5x5_reduce/bn
I0313 00:15:11.700655 28832 net.cpp:346] inception_4b/relu_5x5_reduce -> inception_4b/5x5_reduce/bn (in-place)
I0313 00:15:11.700672 28832 net.cpp:97] Setting up inception_4b/relu_5x5_reduce
I0313 00:15:11.700687 28832 net.cpp:104] Top shape: 96 24 5 5 (57600)
I0313 00:15:11.700700 28832 layer_factory.hpp:78] Creating layer inception_4b/5x5
I0313 00:15:11.700734 28832 net.cpp:68] Creating Layer inception_4b/5x5
I0313 00:15:11.700748 28832 net.cpp:395] inception_4b/5x5 <- inception_4b/5x5_reduce/bn
I0313 00:15:11.700763 28832 net.cpp:357] inception_4b/5x5 -> inception_4b/5x5
I0313 00:15:11.700778 28832 net.cpp:97] Setting up inception_4b/5x5
I0313 00:15:11.701287 28832 net.cpp:104] Top shape: 96 64 5 5 (153600)
I0313 00:15:11.701309 28832 layer_factory.hpp:78] Creating layer inception_4b/5x5/bn
I0313 00:15:11.701328 28832 net.cpp:68] Creating Layer inception_4b/5x5/bn
I0313 00:15:11.701340 28832 net.cpp:395] inception_4b/5x5/bn <- inception_4b/5x5
I0313 00:15:11.701354 28832 net.cpp:357] inception_4b/5x5/bn -> inception_4b/5x5/bn
I0313 00:15:11.701370 28832 net.cpp:97] Setting up inception_4b/5x5/bn
I0313 00:15:11.701397 28832 net.cpp:104] Top shape: 96 64 5 5 (153600)
I0313 00:15:11.701412 28832 layer_factory.hpp:78] Creating layer inception_4b/relu_5x5
I0313 00:15:11.701426 28832 net.cpp:68] Creating Layer inception_4b/relu_5x5
I0313 00:15:11.701438 28832 net.cpp:395] inception_4b/relu_5x5 <- inception_4b/5x5/bn
I0313 00:15:11.701453 28832 net.cpp:346] inception_4b/relu_5x5 -> inception_4b/5x5/bn (in-place)
I0313 00:15:11.701467 28832 net.cpp:97] Setting up inception_4b/relu_5x5
I0313 00:15:11.701483 28832 net.cpp:104] Top shape: 96 64 5 5 (153600)
I0313 00:15:11.701494 28832 layer_factory.hpp:78] Creating layer inception_4b/pool
I0313 00:15:11.701508 28832 layer_factory.cpp:51] CUDNN does not support padding or multiple tops. Using Caffe's own pooling layer.
I0313 00:15:11.701522 28832 net.cpp:68] Creating Layer inception_4b/pool
I0313 00:15:11.701539 28832 net.cpp:395] inception_4b/pool <- inception_4a/output_inception_4a/output_0_split_4
I0313 00:15:11.701552 28832 net.cpp:357] inception_4b/pool -> inception_4b/pool
I0313 00:15:11.701566 28832 net.cpp:97] Setting up inception_4b/pool
I0313 00:15:11.701581 28832 net.cpp:104] Top shape: 96 512 5 5 (1228800)
I0313 00:15:11.701592 28832 layer_factory.hpp:78] Creating layer inception_4b/pool_proj
I0313 00:15:11.701612 28832 net.cpp:68] Creating Layer inception_4b/pool_proj
I0313 00:15:11.701624 28832 net.cpp:395] inception_4b/pool_proj <- inception_4b/pool
I0313 00:15:11.701642 28832 net.cpp:357] inception_4b/pool_proj -> inception_4b/pool_proj
I0313 00:15:11.701658 28832 net.cpp:97] Setting up inception_4b/pool_proj
I0313 00:15:11.702071 28832 net.cpp:104] Top shape: 96 64 5 5 (153600)
I0313 00:15:11.702093 28832 layer_factory.hpp:78] Creating layer inception_4b/pool_proj/bn
I0313 00:15:11.702112 28832 net.cpp:68] Creating Layer inception_4b/pool_proj/bn
I0313 00:15:11.702131 28832 net.cpp:395] inception_4b/pool_proj/bn <- inception_4b/pool_proj
I0313 00:15:11.702144 28832 net.cpp:357] inception_4b/pool_proj/bn -> inception_4b/pool_proj/bn
I0313 00:15:11.702160 28832 net.cpp:97] Setting up inception_4b/pool_proj/bn
I0313 00:15:11.702179 28832 net.cpp:104] Top shape: 96 64 5 5 (153600)
I0313 00:15:11.702196 28832 layer_factory.hpp:78] Creating layer inception_4b/relu_pool_proj
I0313 00:15:11.702211 28832 net.cpp:68] Creating Layer inception_4b/relu_pool_proj
I0313 00:15:11.702224 28832 net.cpp:395] inception_4b/relu_pool_proj <- inception_4b/pool_proj/bn
I0313 00:15:11.702235 28832 net.cpp:346] inception_4b/relu_pool_proj -> inception_4b/pool_proj/bn (in-place)
I0313 00:15:11.702250 28832 net.cpp:97] Setting up inception_4b/relu_pool_proj
I0313 00:15:11.702265 28832 net.cpp:104] Top shape: 96 64 5 5 (153600)
I0313 00:15:11.702277 28832 layer_factory.hpp:78] Creating layer inception_4b/output
I0313 00:15:11.702291 28832 net.cpp:68] Creating Layer inception_4b/output
I0313 00:15:11.702303 28832 net.cpp:395] inception_4b/output <- inception_4b/1x1/bn
I0313 00:15:11.702316 28832 net.cpp:395] inception_4b/output <- inception_4b/3x3/bn
I0313 00:15:11.702329 28832 net.cpp:395] inception_4b/output <- inception_4b/5x5/bn
I0313 00:15:11.702342 28832 net.cpp:395] inception_4b/output <- inception_4b/pool_proj/bn
I0313 00:15:11.702358 28832 net.cpp:357] inception_4b/output -> inception_4b/output
I0313 00:15:11.702389 28832 net.cpp:97] Setting up inception_4b/output
I0313 00:15:11.702404 28832 net.cpp:104] Top shape: 96 512 5 5 (1228800)
I0313 00:15:11.702414 28832 layer_factory.hpp:78] Creating layer inception_4b/output_inception_4b/output_0_split
I0313 00:15:11.702428 28832 net.cpp:68] Creating Layer inception_4b/output_inception_4b/output_0_split
I0313 00:15:11.702440 28832 net.cpp:395] inception_4b/output_inception_4b/output_0_split <- inception_4b/output
I0313 00:15:11.702456 28832 net.cpp:357] inception_4b/output_inception_4b/output_0_split -> inception_4b/output_inception_4b/output_0_split_0
I0313 00:15:11.702473 28832 net.cpp:357] inception_4b/output_inception_4b/output_0_split -> inception_4b/output_inception_4b/output_0_split_1
I0313 00:15:11.702489 28832 net.cpp:357] inception_4b/output_inception_4b/output_0_split -> inception_4b/output_inception_4b/output_0_split_2
I0313 00:15:11.702505 28832 net.cpp:357] inception_4b/output_inception_4b/output_0_split -> inception_4b/output_inception_4b/output_0_split_3
I0313 00:15:11.702519 28832 net.cpp:97] Setting up inception_4b/output_inception_4b/output_0_split
I0313 00:15:11.702533 28832 net.cpp:104] Top shape: 96 512 5 5 (1228800)
I0313 00:15:11.702544 28832 net.cpp:104] Top shape: 96 512 5 5 (1228800)
I0313 00:15:11.702554 28832 net.cpp:104] Top shape: 96 512 5 5 (1228800)
I0313 00:15:11.702565 28832 net.cpp:104] Top shape: 96 512 5 5 (1228800)
I0313 00:15:11.702576 28832 layer_factory.hpp:78] Creating layer inception_4c/1x1
I0313 00:15:11.702592 28832 net.cpp:68] Creating Layer inception_4c/1x1
I0313 00:15:11.702605 28832 net.cpp:395] inception_4c/1x1 <- inception_4b/output_inception_4b/output_0_split_0
I0313 00:15:11.702620 28832 net.cpp:357] inception_4c/1x1 -> inception_4c/1x1
I0313 00:15:11.702636 28832 net.cpp:97] Setting up inception_4c/1x1
I0313 00:15:11.703382 28832 net.cpp:104] Top shape: 96 128 5 5 (307200)
I0313 00:15:11.703403 28832 layer_factory.hpp:78] Creating layer inception_4c/1x1/bn
I0313 00:15:11.703419 28832 net.cpp:68] Creating Layer inception_4c/1x1/bn
I0313 00:15:11.703431 28832 net.cpp:395] inception_4c/1x1/bn <- inception_4c/1x1
I0313 00:15:11.703447 28832 net.cpp:357] inception_4c/1x1/bn -> inception_4c/1x1/bn
I0313 00:15:11.703464 28832 net.cpp:97] Setting up inception_4c/1x1/bn
I0313 00:15:11.703483 28832 net.cpp:104] Top shape: 96 128 5 5 (307200)
I0313 00:15:11.703497 28832 layer_factory.hpp:78] Creating layer inception_4c/relu_1x1
I0313 00:15:11.703515 28832 net.cpp:68] Creating Layer inception_4c/relu_1x1
I0313 00:15:11.703526 28832 net.cpp:395] inception_4c/relu_1x1 <- inception_4c/1x1/bn
I0313 00:15:11.703539 28832 net.cpp:346] inception_4c/relu_1x1 -> inception_4c/1x1/bn (in-place)
I0313 00:15:11.703552 28832 net.cpp:97] Setting up inception_4c/relu_1x1
I0313 00:15:11.703567 28832 net.cpp:104] Top shape: 96 128 5 5 (307200)
I0313 00:15:11.703578 28832 layer_factory.hpp:78] Creating layer inception_4c/3x3_reduce
I0313 00:15:11.703595 28832 net.cpp:68] Creating Layer inception_4c/3x3_reduce
I0313 00:15:11.703608 28832 net.cpp:395] inception_4c/3x3_reduce <- inception_4b/output_inception_4b/output_0_split_1
I0313 00:15:11.703622 28832 net.cpp:357] inception_4c/3x3_reduce -> inception_4c/3x3_reduce
I0313 00:15:11.703637 28832 net.cpp:97] Setting up inception_4c/3x3_reduce
I0313 00:15:11.704515 28832 net.cpp:104] Top shape: 96 128 5 5 (307200)
I0313 00:15:11.704541 28832 layer_factory.hpp:78] Creating layer inception_4c/3x3_reduce/bn
I0313 00:15:11.704560 28832 net.cpp:68] Creating Layer inception_4c/3x3_reduce/bn
I0313 00:15:11.704574 28832 net.cpp:395] inception_4c/3x3_reduce/bn <- inception_4c/3x3_reduce
I0313 00:15:11.704588 28832 net.cpp:357] inception_4c/3x3_reduce/bn -> inception_4c/3x3_reduce/bn
I0313 00:15:11.704604 28832 net.cpp:97] Setting up inception_4c/3x3_reduce/bn
I0313 00:15:11.704627 28832 net.cpp:104] Top shape: 96 128 5 5 (307200)
I0313 00:15:11.704661 28832 layer_factory.hpp:78] Creating layer inception_4c/relu_3x3_reduce
I0313 00:15:11.704677 28832 net.cpp:68] Creating Layer inception_4c/relu_3x3_reduce
I0313 00:15:11.704709 28832 net.cpp:395] inception_4c/relu_3x3_reduce <- inception_4c/3x3_reduce/bn
I0313 00:15:11.704725 28832 net.cpp:346] inception_4c/relu_3x3_reduce -> inception_4c/3x3_reduce/bn (in-place)
I0313 00:15:11.704741 28832 net.cpp:97] Setting up inception_4c/relu_3x3_reduce
I0313 00:15:11.704756 28832 net.cpp:104] Top shape: 96 128 5 5 (307200)
I0313 00:15:11.704768 28832 layer_factory.hpp:78] Creating layer inception_4c/3x3
I0313 00:15:11.704783 28832 net.cpp:68] Creating Layer inception_4c/3x3
I0313 00:15:11.704798 28832 net.cpp:395] inception_4c/3x3 <- inception_4c/3x3_reduce/bn
I0313 00:15:11.704813 28832 net.cpp:357] inception_4c/3x3 -> inception_4c/3x3
I0313 00:15:11.704828 28832 net.cpp:97] Setting up inception_4c/3x3
I0313 00:15:11.707976 28832 net.cpp:104] Top shape: 96 256 5 5 (614400)
I0313 00:15:11.708006 28832 layer_factory.hpp:78] Creating layer inception_4c/3x3/bn
I0313 00:15:11.708027 28832 net.cpp:68] Creating Layer inception_4c/3x3/bn
I0313 00:15:11.708040 28832 net.cpp:395] inception_4c/3x3/bn <- inception_4c/3x3
I0313 00:15:11.708057 28832 net.cpp:357] inception_4c/3x3/bn -> inception_4c/3x3/bn
I0313 00:15:11.708073 28832 net.cpp:97] Setting up inception_4c/3x3/bn
I0313 00:15:11.708094 28832 net.cpp:104] Top shape: 96 256 5 5 (614400)
I0313 00:15:11.708109 28832 layer_factory.hpp:78] Creating layer inception_4c/relu_3x3
I0313 00:15:11.708123 28832 net.cpp:68] Creating Layer inception_4c/relu_3x3
I0313 00:15:11.708135 28832 net.cpp:395] inception_4c/relu_3x3 <- inception_4c/3x3/bn
I0313 00:15:11.708151 28832 net.cpp:346] inception_4c/relu_3x3 -> inception_4c/3x3/bn (in-place)
I0313 00:15:11.708165 28832 net.cpp:97] Setting up inception_4c/relu_3x3
I0313 00:15:11.708179 28832 net.cpp:104] Top shape: 96 256 5 5 (614400)
I0313 00:15:11.708191 28832 layer_factory.hpp:78] Creating layer inception_4c/5x5_reduce
I0313 00:15:11.708206 28832 net.cpp:68] Creating Layer inception_4c/5x5_reduce
I0313 00:15:11.708219 28832 net.cpp:395] inception_4c/5x5_reduce <- inception_4b/output_inception_4b/output_0_split_2
I0313 00:15:11.708233 28832 net.cpp:357] inception_4c/5x5_reduce -> inception_4c/5x5_reduce
I0313 00:15:11.708248 28832 net.cpp:97] Setting up inception_4c/5x5_reduce
I0313 00:15:11.708446 28832 net.cpp:104] Top shape: 96 24 5 5 (57600)
I0313 00:15:11.708469 28832 layer_factory.hpp:78] Creating layer inception_4c/5x5_reduce/bn
I0313 00:15:11.708487 28832 net.cpp:68] Creating Layer inception_4c/5x5_reduce/bn
I0313 00:15:11.708499 28832 net.cpp:395] inception_4c/5x5_reduce/bn <- inception_4c/5x5_reduce
I0313 00:15:11.708515 28832 net.cpp:357] inception_4c/5x5_reduce/bn -> inception_4c/5x5_reduce/bn
I0313 00:15:11.708533 28832 net.cpp:97] Setting up inception_4c/5x5_reduce/bn
I0313 00:15:11.708552 28832 net.cpp:104] Top shape: 96 24 5 5 (57600)
I0313 00:15:11.708567 28832 layer_factory.hpp:78] Creating layer inception_4c/relu_5x5_reduce
I0313 00:15:11.708582 28832 net.cpp:68] Creating Layer inception_4c/relu_5x5_reduce
I0313 00:15:11.708593 28832 net.cpp:395] inception_4c/relu_5x5_reduce <- inception_4c/5x5_reduce/bn
I0313 00:15:11.708609 28832 net.cpp:346] inception_4c/relu_5x5_reduce -> inception_4c/5x5_reduce/bn (in-place)
I0313 00:15:11.708623 28832 net.cpp:97] Setting up inception_4c/relu_5x5_reduce
I0313 00:15:11.708638 28832 net.cpp:104] Top shape: 96 24 5 5 (57600)
I0313 00:15:11.708650 28832 layer_factory.hpp:78] Creating layer inception_4c/5x5
I0313 00:15:11.708665 28832 net.cpp:68] Creating Layer inception_4c/5x5
I0313 00:15:11.708678 28832 net.cpp:395] inception_4c/5x5 <- inception_4c/5x5_reduce/bn
I0313 00:15:11.708694 28832 net.cpp:357] inception_4c/5x5 -> inception_4c/5x5
I0313 00:15:11.708709 28832 net.cpp:97] Setting up inception_4c/5x5
I0313 00:15:11.709197 28832 net.cpp:104] Top shape: 96 64 5 5 (153600)
I0313 00:15:11.709218 28832 layer_factory.hpp:78] Creating layer inception_4c/5x5/bn
I0313 00:15:11.709238 28832 net.cpp:68] Creating Layer inception_4c/5x5/bn
I0313 00:15:11.709249 28832 net.cpp:395] inception_4c/5x5/bn <- inception_4c/5x5
I0313 00:15:11.709264 28832 net.cpp:357] inception_4c/5x5/bn -> inception_4c/5x5/bn
I0313 00:15:11.709302 28832 net.cpp:97] Setting up inception_4c/5x5/bn
I0313 00:15:11.709326 28832 net.cpp:104] Top shape: 96 64 5 5 (153600)
I0313 00:15:11.709342 28832 layer_factory.hpp:78] Creating layer inception_4c/relu_5x5
I0313 00:15:11.709357 28832 net.cpp:68] Creating Layer inception_4c/relu_5x5
I0313 00:15:11.709368 28832 net.cpp:395] inception_4c/relu_5x5 <- inception_4c/5x5/bn
I0313 00:15:11.709381 28832 net.cpp:346] inception_4c/relu_5x5 -> inception_4c/5x5/bn (in-place)
I0313 00:15:11.709395 28832 net.cpp:97] Setting up inception_4c/relu_5x5
I0313 00:15:11.709411 28832 net.cpp:104] Top shape: 96 64 5 5 (153600)
I0313 00:15:11.709422 28832 layer_factory.hpp:78] Creating layer inception_4c/pool
I0313 00:15:11.709435 28832 layer_factory.cpp:51] CUDNN does not support padding or multiple tops. Using Caffe's own pooling layer.
I0313 00:15:11.709451 28832 net.cpp:68] Creating Layer inception_4c/pool
I0313 00:15:11.709465 28832 net.cpp:395] inception_4c/pool <- inception_4b/output_inception_4b/output_0_split_3
I0313 00:15:11.709478 28832 net.cpp:357] inception_4c/pool -> inception_4c/pool
I0313 00:15:11.709493 28832 net.cpp:97] Setting up inception_4c/pool
I0313 00:15:11.709506 28832 net.cpp:104] Top shape: 96 512 5 5 (1228800)
I0313 00:15:11.709517 28832 layer_factory.hpp:78] Creating layer inception_4c/pool_proj
I0313 00:15:11.709553 28832 net.cpp:68] Creating Layer inception_4c/pool_proj
I0313 00:15:11.709566 28832 net.cpp:395] inception_4c/pool_proj <- inception_4c/pool
I0313 00:15:11.709581 28832 net.cpp:357] inception_4c/pool_proj -> inception_4c/pool_proj
I0313 00:15:11.709597 28832 net.cpp:97] Setting up inception_4c/pool_proj
I0313 00:15:11.710010 28832 net.cpp:104] Top shape: 96 64 5 5 (153600)
I0313 00:15:11.710032 28832 layer_factory.hpp:78] Creating layer inception_4c/pool_proj/bn
I0313 00:15:11.710052 28832 net.cpp:68] Creating Layer inception_4c/pool_proj/bn
I0313 00:15:11.710064 28832 net.cpp:395] inception_4c/pool_proj/bn <- inception_4c/pool_proj
I0313 00:15:11.710082 28832 net.cpp:357] inception_4c/pool_proj/bn -> inception_4c/pool_proj/bn
I0313 00:15:11.710098 28832 net.cpp:97] Setting up inception_4c/pool_proj/bn
I0313 00:15:11.710119 28832 net.cpp:104] Top shape: 96 64 5 5 (153600)
I0313 00:15:11.710132 28832 layer_factory.hpp:78] Creating layer inception_4c/relu_pool_proj
I0313 00:15:11.710146 28832 net.cpp:68] Creating Layer inception_4c/relu_pool_proj
I0313 00:15:11.710158 28832 net.cpp:395] inception_4c/relu_pool_proj <- inception_4c/pool_proj/bn
I0313 00:15:11.710175 28832 net.cpp:346] inception_4c/relu_pool_proj -> inception_4c/pool_proj/bn (in-place)
I0313 00:15:11.710188 28832 net.cpp:97] Setting up inception_4c/relu_pool_proj
I0313 00:15:11.710203 28832 net.cpp:104] Top shape: 96 64 5 5 (153600)
I0313 00:15:11.710217 28832 layer_factory.hpp:78] Creating layer inception_4c/output
I0313 00:15:11.710230 28832 net.cpp:68] Creating Layer inception_4c/output
I0313 00:15:11.710242 28832 net.cpp:395] inception_4c/output <- inception_4c/1x1/bn
I0313 00:15:11.710255 28832 net.cpp:395] inception_4c/output <- inception_4c/3x3/bn
I0313 00:15:11.710268 28832 net.cpp:395] inception_4c/output <- inception_4c/5x5/bn
I0313 00:15:11.710280 28832 net.cpp:395] inception_4c/output <- inception_4c/pool_proj/bn
I0313 00:15:11.710294 28832 net.cpp:357] inception_4c/output -> inception_4c/output
I0313 00:15:11.710309 28832 net.cpp:97] Setting up inception_4c/output
I0313 00:15:11.710320 28832 net.cpp:104] Top shape: 96 512 5 5 (1228800)
I0313 00:15:11.710331 28832 layer_factory.hpp:78] Creating layer inception_4c/output_inception_4c/output_0_split
I0313 00:15:11.710345 28832 net.cpp:68] Creating Layer inception_4c/output_inception_4c/output_0_split
I0313 00:15:11.710357 28832 net.cpp:395] inception_4c/output_inception_4c/output_0_split <- inception_4c/output
I0313 00:15:11.710373 28832 net.cpp:357] inception_4c/output_inception_4c/output_0_split -> inception_4c/output_inception_4c/output_0_split_0
I0313 00:15:11.710391 28832 net.cpp:357] inception_4c/output_inception_4c/output_0_split -> inception_4c/output_inception_4c/output_0_split_1
I0313 00:15:11.710422 28832 net.cpp:357] inception_4c/output_inception_4c/output_0_split -> inception_4c/output_inception_4c/output_0_split_2
I0313 00:15:11.710439 28832 net.cpp:357] inception_4c/output_inception_4c/output_0_split -> inception_4c/output_inception_4c/output_0_split_3
I0313 00:15:11.710454 28832 net.cpp:97] Setting up inception_4c/output_inception_4c/output_0_split
I0313 00:15:11.710468 28832 net.cpp:104] Top shape: 96 512 5 5 (1228800)
I0313 00:15:11.710479 28832 net.cpp:104] Top shape: 96 512 5 5 (1228800)
I0313 00:15:11.710489 28832 net.cpp:104] Top shape: 96 512 5 5 (1228800)
I0313 00:15:11.710500 28832 net.cpp:104] Top shape: 96 512 5 5 (1228800)
I0313 00:15:11.710510 28832 layer_factory.hpp:78] Creating layer inception_4d/1x1
I0313 00:15:11.710527 28832 net.cpp:68] Creating Layer inception_4d/1x1
I0313 00:15:11.710539 28832 net.cpp:395] inception_4d/1x1 <- inception_4c/output_inception_4c/output_0_split_0
I0313 00:15:11.710554 28832 net.cpp:357] inception_4d/1x1 -> inception_4d/1x1
I0313 00:15:11.710569 28832 net.cpp:97] Setting up inception_4d/1x1
I0313 00:15:11.711385 28832 net.cpp:104] Top shape: 96 112 5 5 (268800)
I0313 00:15:11.711410 28832 layer_factory.hpp:78] Creating layer inception_4d/1x1/bn
I0313 00:15:11.711431 28832 net.cpp:68] Creating Layer inception_4d/1x1/bn
I0313 00:15:11.711443 28832 net.cpp:395] inception_4d/1x1/bn <- inception_4d/1x1
I0313 00:15:11.711457 28832 net.cpp:357] inception_4d/1x1/bn -> inception_4d/1x1/bn
I0313 00:15:11.711473 28832 net.cpp:97] Setting up inception_4d/1x1/bn
I0313 00:15:11.711496 28832 net.cpp:104] Top shape: 96 112 5 5 (268800)
I0313 00:15:11.711511 28832 layer_factory.hpp:78] Creating layer inception_4d/relu_1x1
I0313 00:15:11.711526 28832 net.cpp:68] Creating Layer inception_4d/relu_1x1
I0313 00:15:11.711539 28832 net.cpp:395] inception_4d/relu_1x1 <- inception_4d/1x1/bn
I0313 00:15:11.711554 28832 net.cpp:346] inception_4d/relu_1x1 -> inception_4d/1x1/bn (in-place)
I0313 00:15:11.711568 28832 net.cpp:97] Setting up inception_4d/relu_1x1
I0313 00:15:11.711583 28832 net.cpp:104] Top shape: 96 112 5 5 (268800)
I0313 00:15:11.711596 28832 layer_factory.hpp:78] Creating layer inception_4d/3x3_reduce
I0313 00:15:11.711611 28832 net.cpp:68] Creating Layer inception_4d/3x3_reduce
I0313 00:15:11.711622 28832 net.cpp:395] inception_4d/3x3_reduce <- inception_4c/output_inception_4c/output_0_split_1
I0313 00:15:11.711640 28832 net.cpp:357] inception_4d/3x3_reduce -> inception_4d/3x3_reduce
I0313 00:15:11.711657 28832 net.cpp:97] Setting up inception_4d/3x3_reduce
I0313 00:15:11.712491 28832 net.cpp:104] Top shape: 96 144 5 5 (345600)
I0313 00:15:11.712513 28832 layer_factory.hpp:78] Creating layer inception_4d/3x3_reduce/bn
I0313 00:15:11.712532 28832 net.cpp:68] Creating Layer inception_4d/3x3_reduce/bn
I0313 00:15:11.712546 28832 net.cpp:395] inception_4d/3x3_reduce/bn <- inception_4d/3x3_reduce
I0313 00:15:11.712563 28832 net.cpp:357] inception_4d/3x3_reduce/bn -> inception_4d/3x3_reduce/bn
I0313 00:15:11.712579 28832 net.cpp:97] Setting up inception_4d/3x3_reduce/bn
I0313 00:15:11.712601 28832 net.cpp:104] Top shape: 96 144 5 5 (345600)
I0313 00:15:11.712616 28832 layer_factory.hpp:78] Creating layer inception_4d/relu_3x3_reduce
I0313 00:15:11.712637 28832 net.cpp:68] Creating Layer inception_4d/relu_3x3_reduce
I0313 00:15:11.712651 28832 net.cpp:395] inception_4d/relu_3x3_reduce <- inception_4d/3x3_reduce/bn
I0313 00:15:11.712663 28832 net.cpp:346] inception_4d/relu_3x3_reduce -> inception_4d/3x3_reduce/bn (in-place)
I0313 00:15:11.712677 28832 net.cpp:97] Setting up inception_4d/relu_3x3_reduce
I0313 00:15:11.712692 28832 net.cpp:104] Top shape: 96 144 5 5 (345600)
I0313 00:15:11.712703 28832 layer_factory.hpp:78] Creating layer inception_4d/3x3
I0313 00:15:11.712719 28832 net.cpp:68] Creating Layer inception_4d/3x3
I0313 00:15:11.712731 28832 net.cpp:395] inception_4d/3x3 <- inception_4d/3x3_reduce/bn
I0313 00:15:11.712748 28832 net.cpp:357] inception_4d/3x3 -> inception_4d/3x3
I0313 00:15:11.712781 28832 net.cpp:97] Setting up inception_4d/3x3
I0313 00:15:11.716713 28832 net.cpp:104] Top shape: 96 288 5 5 (691200)
I0313 00:15:11.716740 28832 layer_factory.hpp:78] Creating layer inception_4d/3x3/bn
I0313 00:15:11.716756 28832 net.cpp:68] Creating Layer inception_4d/3x3/bn
I0313 00:15:11.716769 28832 net.cpp:395] inception_4d/3x3/bn <- inception_4d/3x3
I0313 00:15:11.716791 28832 net.cpp:357] inception_4d/3x3/bn -> inception_4d/3x3/bn
I0313 00:15:11.716809 28832 net.cpp:97] Setting up inception_4d/3x3/bn
I0313 00:15:11.716831 28832 net.cpp:104] Top shape: 96 288 5 5 (691200)
I0313 00:15:11.716846 28832 layer_factory.hpp:78] Creating layer inception_4d/relu_3x3
I0313 00:15:11.716866 28832 net.cpp:68] Creating Layer inception_4d/relu_3x3
I0313 00:15:11.716879 28832 net.cpp:395] inception_4d/relu_3x3 <- inception_4d/3x3/bn
I0313 00:15:11.716892 28832 net.cpp:346] inception_4d/relu_3x3 -> inception_4d/3x3/bn (in-place)
I0313 00:15:11.716907 28832 net.cpp:97] Setting up inception_4d/relu_3x3
I0313 00:15:11.716922 28832 net.cpp:104] Top shape: 96 288 5 5 (691200)
I0313 00:15:11.716933 28832 layer_factory.hpp:78] Creating layer inception_4d/5x5_reduce
I0313 00:15:11.716948 28832 net.cpp:68] Creating Layer inception_4d/5x5_reduce
I0313 00:15:11.716960 28832 net.cpp:395] inception_4d/5x5_reduce <- inception_4c/output_inception_4c/output_0_split_2
I0313 00:15:11.716977 28832 net.cpp:357] inception_4d/5x5_reduce -> inception_4d/5x5_reduce
I0313 00:15:11.716994 28832 net.cpp:97] Setting up inception_4d/5x5_reduce
I0313 00:15:11.717237 28832 net.cpp:104] Top shape: 96 32 5 5 (76800)
I0313 00:15:11.717258 28832 layer_factory.hpp:78] Creating layer inception_4d/5x5_reduce/bn
I0313 00:15:11.717278 28832 net.cpp:68] Creating Layer inception_4d/5x5_reduce/bn
I0313 00:15:11.717290 28832 net.cpp:395] inception_4d/5x5_reduce/bn <- inception_4d/5x5_reduce
I0313 00:15:11.717305 28832 net.cpp:357] inception_4d/5x5_reduce/bn -> inception_4d/5x5_reduce/bn
I0313 00:15:11.717320 28832 net.cpp:97] Setting up inception_4d/5x5_reduce/bn
I0313 00:15:11.717340 28832 net.cpp:104] Top shape: 96 32 5 5 (76800)
I0313 00:15:11.717358 28832 layer_factory.hpp:78] Creating layer inception_4d/relu_5x5_reduce
I0313 00:15:11.717372 28832 net.cpp:68] Creating Layer inception_4d/relu_5x5_reduce
I0313 00:15:11.717385 28832 net.cpp:395] inception_4d/relu_5x5_reduce <- inception_4d/5x5_reduce/bn
I0313 00:15:11.717396 28832 net.cpp:346] inception_4d/relu_5x5_reduce -> inception_4d/5x5_reduce/bn (in-place)
I0313 00:15:11.717411 28832 net.cpp:97] Setting up inception_4d/relu_5x5_reduce
I0313 00:15:11.717425 28832 net.cpp:104] Top shape: 96 32 5 5 (76800)
I0313 00:15:11.717437 28832 layer_factory.hpp:78] Creating layer inception_4d/5x5
I0313 00:15:11.717453 28832 net.cpp:68] Creating Layer inception_4d/5x5
I0313 00:15:11.717466 28832 net.cpp:395] inception_4d/5x5 <- inception_4d/5x5_reduce/bn
I0313 00:15:11.717480 28832 net.cpp:357] inception_4d/5x5 -> inception_4d/5x5
I0313 00:15:11.717495 28832 net.cpp:97] Setting up inception_4d/5x5
I0313 00:15:11.718139 28832 net.cpp:104] Top shape: 96 64 5 5 (153600)
I0313 00:15:11.718164 28832 layer_factory.hpp:78] Creating layer inception_4d/5x5/bn
I0313 00:15:11.718181 28832 net.cpp:68] Creating Layer inception_4d/5x5/bn
I0313 00:15:11.718194 28832 net.cpp:395] inception_4d/5x5/bn <- inception_4d/5x5
I0313 00:15:11.718210 28832 net.cpp:357] inception_4d/5x5/bn -> inception_4d/5x5/bn
I0313 00:15:11.718226 28832 net.cpp:97] Setting up inception_4d/5x5/bn
I0313 00:15:11.718246 28832 net.cpp:104] Top shape: 96 64 5 5 (153600)
I0313 00:15:11.718261 28832 layer_factory.hpp:78] Creating layer inception_4d/relu_5x5
I0313 00:15:11.718276 28832 net.cpp:68] Creating Layer inception_4d/relu_5x5
I0313 00:15:11.718287 28832 net.cpp:395] inception_4d/relu_5x5 <- inception_4d/5x5/bn
I0313 00:15:11.718302 28832 net.cpp:346] inception_4d/relu_5x5 -> inception_4d/5x5/bn (in-place)
I0313 00:15:11.735918 28832 net.cpp:97] Setting up inception_4d/relu_5x5
I0313 00:15:11.735931 28832 net.cpp:104] Top shape: 96 64 5 5 (153600)
I0313 00:15:11.735975 28832 layer_factory.hpp:78] Creating layer inception_4d/pool
I0313 00:15:11.735991 28832 layer_factory.cpp:51] CUDNN does not support padding or multiple tops. Using Caffe's own pooling layer.
I0313 00:15:11.736004 28832 net.cpp:68] Creating Layer inception_4d/pool
I0313 00:15:11.736016 28832 net.cpp:395] inception_4d/pool <- inception_4c/output_inception_4c/output_0_split_3
I0313 00:15:11.736038 28832 net.cpp:357] inception_4d/pool -> inception_4d/pool
I0313 00:15:11.736073 28832 net.cpp:97] Setting up inception_4d/pool
I0313 00:15:11.736089 28832 net.cpp:104] Top shape: 96 512 5 5 (1228800)
I0313 00:15:11.736101 28832 layer_factory.hpp:78] Creating layer inception_4d/pool_proj
I0313 00:15:11.736116 28832 net.cpp:68] Creating Layer inception_4d/pool_proj
I0313 00:15:11.736129 28832 net.cpp:395] inception_4d/pool_proj <- inception_4d/pool
I0313 00:15:11.736143 28832 net.cpp:357] inception_4d/pool_proj -> inception_4d/pool_proj
I0313 00:15:11.736158 28832 net.cpp:97] Setting up inception_4d/pool_proj
I0313 00:15:11.736750 28832 net.cpp:104] Top shape: 96 64 5 5 (153600)
I0313 00:15:11.736780 28832 layer_factory.hpp:78] Creating layer inception_4d/pool_proj/bn
I0313 00:15:11.736798 28832 net.cpp:68] Creating Layer inception_4d/pool_proj/bn
I0313 00:15:11.736810 28832 net.cpp:395] inception_4d/pool_proj/bn <- inception_4d/pool_proj
I0313 00:15:11.736825 28832 net.cpp:357] inception_4d/pool_proj/bn -> inception_4d/pool_proj/bn
I0313 00:15:11.736841 28832 net.cpp:97] Setting up inception_4d/pool_proj/bn
I0313 00:15:11.736884 28832 net.cpp:104] Top shape: 96 64 5 5 (153600)
I0313 00:15:11.736901 28832 layer_factory.hpp:78] Creating layer inception_4d/relu_pool_proj
I0313 00:15:11.736924 28832 net.cpp:68] Creating Layer inception_4d/relu_pool_proj
I0313 00:15:11.736937 28832 net.cpp:395] inception_4d/relu_pool_proj <- inception_4d/pool_proj/bn
I0313 00:15:11.736949 28832 net.cpp:346] inception_4d/relu_pool_proj -> inception_4d/pool_proj/bn (in-place)
I0313 00:15:11.736963 28832 net.cpp:97] Setting up inception_4d/relu_pool_proj
I0313 00:15:11.736986 28832 net.cpp:104] Top shape: 96 64 5 5 (153600)
I0313 00:15:11.736999 28832 layer_factory.hpp:78] Creating layer inception_4d/output
I0313 00:15:11.737015 28832 net.cpp:68] Creating Layer inception_4d/output
I0313 00:15:11.737027 28832 net.cpp:395] inception_4d/output <- inception_4d/1x1/bn
I0313 00:15:11.737040 28832 net.cpp:395] inception_4d/output <- inception_4d/3x3/bn
I0313 00:15:11.737053 28832 net.cpp:395] inception_4d/output <- inception_4d/5x5/bn
I0313 00:15:11.737066 28832 net.cpp:395] inception_4d/output <- inception_4d/pool_proj/bn
I0313 00:15:11.737078 28832 net.cpp:357] inception_4d/output -> inception_4d/output
I0313 00:15:11.737093 28832 net.cpp:97] Setting up inception_4d/output
I0313 00:15:11.737104 28832 net.cpp:104] Top shape: 96 528 5 5 (1267200)
I0313 00:15:11.737117 28832 layer_factory.hpp:78] Creating layer inception_4d/output_inception_4d/output_0_split
I0313 00:15:11.737130 28832 net.cpp:68] Creating Layer inception_4d/output_inception_4d/output_0_split
I0313 00:15:11.737143 28832 net.cpp:395] inception_4d/output_inception_4d/output_0_split <- inception_4d/output
I0313 00:15:11.737159 28832 net.cpp:357] inception_4d/output_inception_4d/output_0_split -> inception_4d/output_inception_4d/output_0_split_0
I0313 00:15:11.737175 28832 net.cpp:357] inception_4d/output_inception_4d/output_0_split -> inception_4d/output_inception_4d/output_0_split_1
I0313 00:15:11.737191 28832 net.cpp:357] inception_4d/output_inception_4d/output_0_split -> inception_4d/output_inception_4d/output_0_split_2
I0313 00:15:11.737207 28832 net.cpp:357] inception_4d/output_inception_4d/output_0_split -> inception_4d/output_inception_4d/output_0_split_3
I0313 00:15:11.737222 28832 net.cpp:357] inception_4d/output_inception_4d/output_0_split -> inception_4d/output_inception_4d/output_0_split_4
I0313 00:15:11.737237 28832 net.cpp:97] Setting up inception_4d/output_inception_4d/output_0_split
I0313 00:15:11.737251 28832 net.cpp:104] Top shape: 96 528 5 5 (1267200)
I0313 00:15:11.737278 28832 net.cpp:104] Top shape: 96 528 5 5 (1267200)
I0313 00:15:11.737292 28832 net.cpp:104] Top shape: 96 528 5 5 (1267200)
I0313 00:15:11.737301 28832 net.cpp:104] Top shape: 96 528 5 5 (1267200)
I0313 00:15:11.737313 28832 net.cpp:104] Top shape: 96 528 5 5 (1267200)
I0313 00:15:11.737323 28832 layer_factory.hpp:78] Creating layer loss2/ave_pool
I0313 00:15:11.737339 28832 net.cpp:68] Creating Layer loss2/ave_pool
I0313 00:15:11.737351 28832 net.cpp:395] loss2/ave_pool <- inception_4d/output_inception_4d/output_0_split_0
I0313 00:15:11.737366 28832 net.cpp:357] loss2/ave_pool -> loss2/ave_pool
I0313 00:15:11.737380 28832 net.cpp:97] Setting up loss2/ave_pool
I0313 00:15:11.737397 28832 net.cpp:104] Top shape: 96 528 1 1 (50688)
I0313 00:15:11.737411 28832 layer_factory.hpp:78] Creating layer loss2/conv
I0313 00:15:11.737428 28832 net.cpp:68] Creating Layer loss2/conv
I0313 00:15:11.737442 28832 net.cpp:395] loss2/conv <- loss2/ave_pool
I0313 00:15:11.737455 28832 net.cpp:357] loss2/conv -> loss2/conv
I0313 00:15:11.737470 28832 net.cpp:97] Setting up loss2/conv
I0313 00:15:11.738304 28832 net.cpp:104] Top shape: 96 128 1 1 (12288)
I0313 00:15:11.738327 28832 layer_factory.hpp:78] Creating layer loss2/conv/bn
I0313 00:15:11.738350 28832 net.cpp:68] Creating Layer loss2/conv/bn
I0313 00:15:11.738363 28832 net.cpp:395] loss2/conv/bn <- loss2/conv
I0313 00:15:11.738378 28832 net.cpp:357] loss2/conv/bn -> loss2/conv/bn
I0313 00:15:11.738394 28832 net.cpp:97] Setting up loss2/conv/bn
I0313 00:15:11.738415 28832 net.cpp:104] Top shape: 96 128 1 1 (12288)
I0313 00:15:11.738430 28832 layer_factory.hpp:78] Creating layer loss2/relu_conv
I0313 00:15:11.738443 28832 net.cpp:68] Creating Layer loss2/relu_conv
I0313 00:15:11.738456 28832 net.cpp:395] loss2/relu_conv <- loss2/conv/bn
I0313 00:15:11.738468 28832 net.cpp:346] loss2/relu_conv -> loss2/conv/bn (in-place)
I0313 00:15:11.738482 28832 net.cpp:97] Setting up loss2/relu_conv
I0313 00:15:11.738497 28832 net.cpp:104] Top shape: 96 128 1 1 (12288)
I0313 00:15:11.738509 28832 layer_factory.hpp:78] Creating layer loss2/fc
I0313 00:15:11.738528 28832 net.cpp:68] Creating Layer loss2/fc
I0313 00:15:11.738538 28832 net.cpp:395] loss2/fc <- loss2/conv/bn
I0313 00:15:11.738553 28832 net.cpp:357] loss2/fc -> loss2/fc
I0313 00:15:11.738567 28832 net.cpp:97] Setting up loss2/fc
I0313 00:15:11.739939 28832 net.cpp:104] Top shape: 96 1024 1 1 (98304)
I0313 00:15:11.739960 28832 layer_factory.hpp:78] Creating layer loss2/fc/bn
I0313 00:15:11.739976 28832 net.cpp:68] Creating Layer loss2/fc/bn
I0313 00:15:11.739989 28832 net.cpp:395] loss2/fc/bn <- loss2/fc
I0313 00:15:11.740005 28832 net.cpp:357] loss2/fc/bn -> loss2/fc/bn
I0313 00:15:11.740020 28832 net.cpp:97] Setting up loss2/fc/bn
I0313 00:15:11.740046 28832 net.cpp:104] Top shape: 96 1024 1 1 (98304)
I0313 00:15:11.740061 28832 layer_factory.hpp:78] Creating layer loss2/relu_fc
I0313 00:15:11.740075 28832 net.cpp:68] Creating Layer loss2/relu_fc
I0313 00:15:11.740087 28832 net.cpp:395] loss2/relu_fc <- loss2/fc/bn
I0313 00:15:11.740104 28832 net.cpp:346] loss2/relu_fc -> loss2/fc/bn (in-place)
I0313 00:15:11.740118 28832 net.cpp:97] Setting up loss2/relu_fc
I0313 00:15:11.740134 28832 net.cpp:104] Top shape: 96 1024 1 1 (98304)
I0313 00:15:11.740145 28832 layer_factory.hpp:78] Creating layer loss2/drop_fc
I0313 00:15:11.740160 28832 net.cpp:68] Creating Layer loss2/drop_fc
I0313 00:15:11.740171 28832 net.cpp:395] loss2/drop_fc <- loss2/fc/bn
I0313 00:15:11.765334 28832 net.cpp:346] loss2/drop_fc -> loss2/fc/bn (in-place)
I0313 00:15:11.765362 28832 net.cpp:97] Setting up loss2/drop_fc
I0313 00:15:11.765377 28832 net.cpp:104] Top shape: 96 1024 1 1 (98304)
I0313 00:15:11.765389 28832 layer_factory.hpp:78] Creating layer loss2/classifier
I0313 00:15:11.765404 28832 net.cpp:68] Creating Layer loss2/classifier
I0313 00:15:11.765416 28832 net.cpp:395] loss2/classifier <- loss2/fc/bn
I0313 00:15:11.765431 28832 net.cpp:357] loss2/classifier -> loss2/classifier
I0313 00:15:11.765447 28832 net.cpp:97] Setting up loss2/classifier
I0313 00:15:11.766770 28832 net.cpp:104] Top shape: 96 121 1 1 (11616)
I0313 00:15:11.766794 28832 layer_factory.hpp:78] Creating layer loss2/loss
I0313 00:15:11.766809 28832 net.cpp:68] Creating Layer loss2/loss
I0313 00:15:11.766823 28832 net.cpp:395] loss2/loss <- loss2/classifier
I0313 00:15:11.766839 28832 net.cpp:395] loss2/loss <- label_data_1_split_1
I0313 00:15:11.766854 28832 net.cpp:357] loss2/loss -> loss2/loss
I0313 00:15:11.766875 28832 net.cpp:97] Setting up loss2/loss
I0313 00:15:11.766888 28832 layer_factory.hpp:78] Creating layer loss2/loss
I0313 00:15:11.766943 28832 net.cpp:104] Top shape: 1 1 1 1 (1)
I0313 00:15:11.766958 28832 net.cpp:110]     with loss weight 0.05
I0313 00:15:11.766979 28832 layer_factory.hpp:78] Creating layer inception_4e/1x1
I0313 00:15:11.766995 28832 net.cpp:68] Creating Layer inception_4e/1x1
I0313 00:15:11.767007 28832 net.cpp:395] inception_4e/1x1 <- inception_4d/output_inception_4d/output_0_split_1
I0313 00:15:11.767024 28832 net.cpp:357] inception_4e/1x1 -> inception_4e/1x1
I0313 00:15:11.767041 28832 net.cpp:97] Setting up inception_4e/1x1
I0313 00:15:11.768534 28832 net.cpp:104] Top shape: 96 256 5 5 (614400)
I0313 00:15:11.768561 28832 layer_factory.hpp:78] Creating layer inception_4e/1x1/bn
I0313 00:15:11.768579 28832 net.cpp:68] Creating Layer inception_4e/1x1/bn
I0313 00:15:11.768591 28832 net.cpp:395] inception_4e/1x1/bn <- inception_4e/1x1
I0313 00:15:11.768609 28832 net.cpp:357] inception_4e/1x1/bn -> inception_4e/1x1/bn
I0313 00:15:11.768625 28832 net.cpp:97] Setting up inception_4e/1x1/bn
I0313 00:15:11.768647 28832 net.cpp:104] Top shape: 96 256 5 5 (614400)
I0313 00:15:11.768662 28832 layer_factory.hpp:78] Creating layer inception_4e/relu_1x1
I0313 00:15:11.768677 28832 net.cpp:68] Creating Layer inception_4e/relu_1x1
I0313 00:15:11.768689 28832 net.cpp:395] inception_4e/relu_1x1 <- inception_4e/1x1/bn
I0313 00:15:11.768704 28832 net.cpp:346] inception_4e/relu_1x1 -> inception_4e/1x1/bn (in-place)
I0313 00:15:11.768719 28832 net.cpp:97] Setting up inception_4e/relu_1x1
I0313 00:15:11.768733 28832 net.cpp:104] Top shape: 96 256 5 5 (614400)
I0313 00:15:11.768745 28832 layer_factory.hpp:78] Creating layer inception_4e/3x3_reduce
I0313 00:15:11.768760 28832 net.cpp:68] Creating Layer inception_4e/3x3_reduce
I0313 00:15:11.768772 28832 net.cpp:395] inception_4e/3x3_reduce <- inception_4d/output_inception_4d/output_0_split_2
I0313 00:15:11.768790 28832 net.cpp:357] inception_4e/3x3_reduce -> inception_4e/3x3_reduce
I0313 00:15:11.768806 28832 net.cpp:97] Setting up inception_4e/3x3_reduce
I0313 00:15:11.769786 28832 net.cpp:104] Top shape: 96 160 5 5 (384000)
I0313 00:15:11.769814 28832 layer_factory.hpp:78] Creating layer inception_4e/3x3_reduce/bn
I0313 00:15:11.769829 28832 net.cpp:68] Creating Layer inception_4e/3x3_reduce/bn
I0313 00:15:11.769848 28832 net.cpp:395] inception_4e/3x3_reduce/bn <- inception_4e/3x3_reduce
I0313 00:15:11.769866 28832 net.cpp:357] inception_4e/3x3_reduce/bn -> inception_4e/3x3_reduce/bn
I0313 00:15:11.769882 28832 net.cpp:97] Setting up inception_4e/3x3_reduce/bn
I0313 00:15:11.769903 28832 net.cpp:104] Top shape: 96 160 5 5 (384000)
I0313 00:15:11.769918 28832 layer_factory.hpp:78] Creating layer inception_4e/relu_3x3_reduce
I0313 00:15:11.769935 28832 net.cpp:68] Creating Layer inception_4e/relu_3x3_reduce
I0313 00:15:11.769948 28832 net.cpp:395] inception_4e/relu_3x3_reduce <- inception_4e/3x3_reduce/bn
I0313 00:15:11.769960 28832 net.cpp:346] inception_4e/relu_3x3_reduce -> inception_4e/3x3_reduce/bn (in-place)
I0313 00:15:11.769983 28832 net.cpp:97] Setting up inception_4e/relu_3x3_reduce
I0313 00:15:11.769997 28832 net.cpp:104] Top shape: 96 160 5 5 (384000)
I0313 00:15:11.770009 28832 layer_factory.hpp:78] Creating layer inception_4e/3x3
I0313 00:15:11.770025 28832 net.cpp:68] Creating Layer inception_4e/3x3
I0313 00:15:11.770036 28832 net.cpp:395] inception_4e/3x3 <- inception_4e/3x3_reduce/bn
I0313 00:15:11.770051 28832 net.cpp:357] inception_4e/3x3 -> inception_4e/3x3
I0313 00:15:11.770066 28832 net.cpp:97] Setting up inception_4e/3x3
I0313 00:15:11.775284 28832 net.cpp:104] Top shape: 96 320 5 5 (768000)
I0313 00:15:11.775308 28832 layer_factory.hpp:78] Creating layer inception_4e/3x3/bn
I0313 00:15:11.775327 28832 net.cpp:68] Creating Layer inception_4e/3x3/bn
I0313 00:15:11.775341 28832 net.cpp:395] inception_4e/3x3/bn <- inception_4e/3x3
I0313 00:15:11.775356 28832 net.cpp:357] inception_4e/3x3/bn -> inception_4e/3x3/bn
I0313 00:15:11.775370 28832 net.cpp:97] Setting up inception_4e/3x3/bn
I0313 00:15:11.775393 28832 net.cpp:104] Top shape: 96 320 5 5 (768000)
I0313 00:15:11.775409 28832 layer_factory.hpp:78] Creating layer inception_4e/relu_3x3
I0313 00:15:11.775424 28832 net.cpp:68] Creating Layer inception_4e/relu_3x3
I0313 00:15:11.775435 28832 net.cpp:395] inception_4e/relu_3x3 <- inception_4e/3x3/bn
I0313 00:15:11.775449 28832 net.cpp:346] inception_4e/relu_3x3 -> inception_4e/3x3/bn (in-place)
I0313 00:15:11.775462 28832 net.cpp:97] Setting up inception_4e/relu_3x3
I0313 00:15:11.775477 28832 net.cpp:104] Top shape: 96 320 5 5 (768000)
I0313 00:15:11.775490 28832 layer_factory.hpp:78] Creating layer inception_4e/5x5_reduce
I0313 00:15:11.775506 28832 net.cpp:68] Creating Layer inception_4e/5x5_reduce
I0313 00:15:11.775517 28832 net.cpp:395] inception_4e/5x5_reduce <- inception_4d/output_inception_4d/output_0_split_3
I0313 00:15:11.775534 28832 net.cpp:357] inception_4e/5x5_reduce -> inception_4e/5x5_reduce
I0313 00:15:11.775550 28832 net.cpp:97] Setting up inception_4e/5x5_reduce
I0313 00:15:11.775986 28832 net.cpp:104] Top shape: 96 32 5 5 (76800)
I0313 00:15:11.776011 28832 layer_factory.hpp:78] Creating layer inception_4e/5x5_reduce/bn
I0313 00:15:11.776031 28832 net.cpp:68] Creating Layer inception_4e/5x5_reduce/bn
I0313 00:15:11.776046 28832 net.cpp:395] inception_4e/5x5_reduce/bn <- inception_4e/5x5_reduce
I0313 00:15:11.776062 28832 net.cpp:357] inception_4e/5x5_reduce/bn -> inception_4e/5x5_reduce/bn
I0313 00:15:11.776077 28832 net.cpp:97] Setting up inception_4e/5x5_reduce/bn
I0313 00:15:11.776098 28832 net.cpp:104] Top shape: 96 32 5 5 (76800)
I0313 00:15:11.776113 28832 layer_factory.hpp:78] Creating layer inception_4e/relu_5x5_reduce
I0313 00:15:11.776129 28832 net.cpp:68] Creating Layer inception_4e/relu_5x5_reduce
I0313 00:15:11.776141 28832 net.cpp:395] inception_4e/relu_5x5_reduce <- inception_4e/5x5_reduce/bn
I0313 00:15:11.776154 28832 net.cpp:346] inception_4e/relu_5x5_reduce -> inception_4e/5x5_reduce/bn (in-place)
I0313 00:15:11.776170 28832 net.cpp:97] Setting up inception_4e/relu_5x5_reduce
I0313 00:15:11.776185 28832 net.cpp:104] Top shape: 96 32 5 5 (76800)
I0313 00:15:11.776196 28832 layer_factory.hpp:78] Creating layer inception_4e/5x5
I0313 00:15:11.776211 28832 net.cpp:68] Creating Layer inception_4e/5x5
I0313 00:15:11.776223 28832 net.cpp:395] inception_4e/5x5 <- inception_4e/5x5_reduce/bn
I0313 00:15:11.776239 28832 net.cpp:357] inception_4e/5x5 -> inception_4e/5x5
I0313 00:15:11.776255 28832 net.cpp:97] Setting up inception_4e/5x5
I0313 00:15:11.777478 28832 net.cpp:104] Top shape: 96 128 5 5 (307200)
I0313 00:15:11.777501 28832 layer_factory.hpp:78] Creating layer inception_4e/5x5/bn
I0313 00:15:11.777520 28832 net.cpp:68] Creating Layer inception_4e/5x5/bn
I0313 00:15:11.802381 28832 net.cpp:395] inception_4e/5x5/bn <- inception_4e/5x5
I0313 00:15:11.802413 28832 net.cpp:357] inception_4e/5x5/bn -> inception_4e/5x5/bn
I0313 00:15:11.802433 28832 net.cpp:97] Setting up inception_4e/5x5/bn
I0313 00:15:11.802459 28832 net.cpp:104] Top shape: 96 128 5 5 (307200)
I0313 00:15:11.802477 28832 layer_factory.hpp:78] Creating layer inception_4e/relu_5x5
I0313 00:15:11.802492 28832 net.cpp:68] Creating Layer inception_4e/relu_5x5
I0313 00:15:11.802505 28832 net.cpp:395] inception_4e/relu_5x5 <- inception_4e/5x5/bn
I0313 00:15:11.802517 28832 net.cpp:346] inception_4e/relu_5x5 -> inception_4e/5x5/bn (in-place)
I0313 00:15:11.802532 28832 net.cpp:97] Setting up inception_4e/relu_5x5
I0313 00:15:11.802548 28832 net.cpp:104] Top shape: 96 128 5 5 (307200)
I0313 00:15:11.802561 28832 layer_factory.hpp:78] Creating layer inception_4e/pool
I0313 00:15:11.802603 28832 layer_factory.cpp:51] CUDNN does not support padding or multiple tops. Using Caffe's own pooling layer.
I0313 00:15:11.802621 28832 net.cpp:68] Creating Layer inception_4e/pool
I0313 00:15:11.802634 28832 net.cpp:395] inception_4e/pool <- inception_4d/output_inception_4d/output_0_split_4
I0313 00:15:11.802649 28832 net.cpp:357] inception_4e/pool -> inception_4e/pool
I0313 00:15:11.802665 28832 net.cpp:97] Setting up inception_4e/pool
I0313 00:15:11.802680 28832 net.cpp:104] Top shape: 96 528 5 5 (1267200)
I0313 00:15:11.802692 28832 layer_factory.hpp:78] Creating layer inception_4e/pool_proj
I0313 00:15:11.802711 28832 net.cpp:68] Creating Layer inception_4e/pool_proj
I0313 00:15:11.802722 28832 net.cpp:395] inception_4e/pool_proj <- inception_4e/pool
I0313 00:15:11.802737 28832 net.cpp:357] inception_4e/pool_proj -> inception_4e/pool_proj
I0313 00:15:11.802752 28832 net.cpp:97] Setting up inception_4e/pool_proj
I0313 00:15:11.803544 28832 net.cpp:104] Top shape: 96 128 5 5 (307200)
I0313 00:15:11.803566 28832 layer_factory.hpp:78] Creating layer inception_4e/pool_proj/bn
I0313 00:15:11.803586 28832 net.cpp:68] Creating Layer inception_4e/pool_proj/bn
I0313 00:15:11.803598 28832 net.cpp:395] inception_4e/pool_proj/bn <- inception_4e/pool_proj
I0313 00:15:11.803613 28832 net.cpp:357] inception_4e/pool_proj/bn -> inception_4e/pool_proj/bn
I0313 00:15:11.803629 28832 net.cpp:97] Setting up inception_4e/pool_proj/bn
I0313 00:15:11.803653 28832 net.cpp:104] Top shape: 96 128 5 5 (307200)
I0313 00:15:11.803668 28832 layer_factory.hpp:78] Creating layer inception_4e/relu_pool_proj
I0313 00:15:11.803683 28832 net.cpp:68] Creating Layer inception_4e/relu_pool_proj
I0313 00:15:11.803694 28832 net.cpp:395] inception_4e/relu_pool_proj <- inception_4e/pool_proj/bn
I0313 00:15:11.803707 28832 net.cpp:346] inception_4e/relu_pool_proj -> inception_4e/pool_proj/bn (in-place)
I0313 00:15:11.803722 28832 net.cpp:97] Setting up inception_4e/relu_pool_proj
I0313 00:15:11.803736 28832 net.cpp:104] Top shape: 96 128 5 5 (307200)
I0313 00:15:11.803750 28832 layer_factory.hpp:78] Creating layer inception_4e/output
I0313 00:15:11.803766 28832 net.cpp:68] Creating Layer inception_4e/output
I0313 00:15:11.803777 28832 net.cpp:395] inception_4e/output <- inception_4e/1x1/bn
I0313 00:15:11.803791 28832 net.cpp:395] inception_4e/output <- inception_4e/3x3/bn
I0313 00:15:11.803803 28832 net.cpp:395] inception_4e/output <- inception_4e/5x5/bn
I0313 00:15:11.803817 28832 net.cpp:395] inception_4e/output <- inception_4e/pool_proj/bn
I0313 00:15:11.803830 28832 net.cpp:357] inception_4e/output -> inception_4e/output
I0313 00:15:11.803845 28832 net.cpp:97] Setting up inception_4e/output
I0313 00:15:11.803858 28832 net.cpp:104] Top shape: 96 832 5 5 (1996800)
I0313 00:15:11.803869 28832 layer_factory.hpp:78] Creating layer pool4/3x3_s2
I0313 00:15:11.803885 28832 net.cpp:68] Creating Layer pool4/3x3_s2
I0313 00:15:11.803899 28832 net.cpp:395] pool4/3x3_s2 <- inception_4e/output
I0313 00:15:11.803912 28832 net.cpp:357] pool4/3x3_s2 -> pool4/3x3_s2
I0313 00:15:11.803927 28832 net.cpp:97] Setting up pool4/3x3_s2
I0313 00:15:11.803944 28832 net.cpp:104] Top shape: 96 832 2 2 (319488)
I0313 00:15:11.803957 28832 layer_factory.hpp:78] Creating layer pool4/3x3_s2_pool4/3x3_s2_0_split
I0313 00:15:11.803972 28832 net.cpp:68] Creating Layer pool4/3x3_s2_pool4/3x3_s2_0_split
I0313 00:15:11.803983 28832 net.cpp:395] pool4/3x3_s2_pool4/3x3_s2_0_split <- pool4/3x3_s2
I0313 00:15:11.803999 28832 net.cpp:357] pool4/3x3_s2_pool4/3x3_s2_0_split -> pool4/3x3_s2_pool4/3x3_s2_0_split_0
I0313 00:15:11.804015 28832 net.cpp:357] pool4/3x3_s2_pool4/3x3_s2_0_split -> pool4/3x3_s2_pool4/3x3_s2_0_split_1
I0313 00:15:11.804033 28832 net.cpp:357] pool4/3x3_s2_pool4/3x3_s2_0_split -> pool4/3x3_s2_pool4/3x3_s2_0_split_2
I0313 00:15:11.804047 28832 net.cpp:357] pool4/3x3_s2_pool4/3x3_s2_0_split -> pool4/3x3_s2_pool4/3x3_s2_0_split_3
I0313 00:15:11.804060 28832 net.cpp:97] Setting up pool4/3x3_s2_pool4/3x3_s2_0_split
I0313 00:15:11.804090 28832 net.cpp:104] Top shape: 96 832 2 2 (319488)
I0313 00:15:11.804103 28832 net.cpp:104] Top shape: 96 832 2 2 (319488)
I0313 00:15:11.804114 28832 net.cpp:104] Top shape: 96 832 2 2 (319488)
I0313 00:15:11.804126 28832 net.cpp:104] Top shape: 96 832 2 2 (319488)
I0313 00:15:11.804136 28832 layer_factory.hpp:78] Creating layer inception_5a/1x1
I0313 00:15:11.804154 28832 net.cpp:68] Creating Layer inception_5a/1x1
I0313 00:15:11.804167 28832 net.cpp:395] inception_5a/1x1 <- pool4/3x3_s2_pool4/3x3_s2_0_split_0
I0313 00:15:11.804183 28832 net.cpp:357] inception_5a/1x1 -> inception_5a/1x1
I0313 00:15:11.804198 28832 net.cpp:97] Setting up inception_5a/1x1
I0313 00:15:11.806500 28832 net.cpp:104] Top shape: 96 256 2 2 (98304)
I0313 00:15:11.806524 28832 layer_factory.hpp:78] Creating layer inception_5a/1x1/bn
I0313 00:15:11.806547 28832 net.cpp:68] Creating Layer inception_5a/1x1/bn
I0313 00:15:11.806561 28832 net.cpp:395] inception_5a/1x1/bn <- inception_5a/1x1
I0313 00:15:11.806577 28832 net.cpp:357] inception_5a/1x1/bn -> inception_5a/1x1/bn
I0313 00:15:11.806594 28832 net.cpp:97] Setting up inception_5a/1x1/bn
I0313 00:15:11.806617 28832 net.cpp:104] Top shape: 96 256 2 2 (98304)
I0313 00:15:11.806632 28832 layer_factory.hpp:78] Creating layer inception_5a/relu_1x1
I0313 00:15:11.806648 28832 net.cpp:68] Creating Layer inception_5a/relu_1x1
I0313 00:15:11.806659 28832 net.cpp:395] inception_5a/relu_1x1 <- inception_5a/1x1/bn
I0313 00:15:11.806675 28832 net.cpp:346] inception_5a/relu_1x1 -> inception_5a/1x1/bn (in-place)
I0313 00:15:11.806690 28832 net.cpp:97] Setting up inception_5a/relu_1x1
I0313 00:15:11.806705 28832 net.cpp:104] Top shape: 96 256 2 2 (98304)
I0313 00:15:11.806717 28832 layer_factory.hpp:78] Creating layer inception_5a/3x3_reduce
I0313 00:15:11.806732 28832 net.cpp:68] Creating Layer inception_5a/3x3_reduce
I0313 00:15:11.806746 28832 net.cpp:395] inception_5a/3x3_reduce <- pool4/3x3_s2_pool4/3x3_s2_0_split_1
I0313 00:15:11.806762 28832 net.cpp:357] inception_5a/3x3_reduce -> inception_5a/3x3_reduce
I0313 00:15:11.806778 28832 net.cpp:97] Setting up inception_5a/3x3_reduce
I0313 00:15:11.808220 28832 net.cpp:104] Top shape: 96 160 2 2 (61440)
I0313 00:15:11.808243 28832 layer_factory.hpp:78] Creating layer inception_5a/3x3_reduce/bn
I0313 00:15:11.808261 28832 net.cpp:68] Creating Layer inception_5a/3x3_reduce/bn
I0313 00:15:11.808274 28832 net.cpp:395] inception_5a/3x3_reduce/bn <- inception_5a/3x3_reduce
I0313 00:15:11.808291 28832 net.cpp:357] inception_5a/3x3_reduce/bn -> inception_5a/3x3_reduce/bn
I0313 00:15:11.808308 28832 net.cpp:97] Setting up inception_5a/3x3_reduce/bn
I0313 00:15:11.808329 28832 net.cpp:104] Top shape: 96 160 2 2 (61440)
I0313 00:15:11.808344 28832 layer_factory.hpp:78] Creating layer inception_5a/relu_3x3_reduce
I0313 00:15:11.808362 28832 net.cpp:68] Creating Layer inception_5a/relu_3x3_reduce
I0313 00:15:11.808374 28832 net.cpp:395] inception_5a/relu_3x3_reduce <- inception_5a/3x3_reduce/bn
I0313 00:15:11.808387 28832 net.cpp:346] inception_5a/relu_3x3_reduce -> inception_5a/3x3_reduce/bn (in-place)
I0313 00:15:11.808401 28832 net.cpp:97] Setting up inception_5a/relu_3x3_reduce
I0313 00:15:11.831832 28832 net.cpp:104] Top shape: 96 160 2 2 (61440)
I0313 00:15:11.831856 28832 layer_factory.hpp:78] Creating layer inception_5a/3x3
I0313 00:15:11.831874 28832 net.cpp:68] Creating Layer inception_5a/3x3
I0313 00:15:11.831888 28832 net.cpp:395] inception_5a/3x3 <- inception_5a/3x3_reduce/bn
I0313 00:15:11.831909 28832 net.cpp:357] inception_5a/3x3 -> inception_5a/3x3
I0313 00:15:11.831928 28832 net.cpp:97] Setting up inception_5a/3x3
I0313 00:15:11.837324 28832 net.cpp:104] Top shape: 96 320 2 2 (122880)
I0313 00:15:11.837357 28832 layer_factory.hpp:78] Creating layer inception_5a/3x3/bn
I0313 00:15:11.837378 28832 net.cpp:68] Creating Layer inception_5a/3x3/bn
I0313 00:15:11.837390 28832 net.cpp:395] inception_5a/3x3/bn <- inception_5a/3x3
I0313 00:15:11.837409 28832 net.cpp:357] inception_5a/3x3/bn -> inception_5a/3x3/bn
I0313 00:15:11.837425 28832 net.cpp:97] Setting up inception_5a/3x3/bn
I0313 00:15:11.837476 28832 net.cpp:104] Top shape: 96 320 2 2 (122880)
I0313 00:15:11.837494 28832 layer_factory.hpp:78] Creating layer inception_5a/relu_3x3
I0313 00:15:11.837509 28832 net.cpp:68] Creating Layer inception_5a/relu_3x3
I0313 00:15:11.837522 28832 net.cpp:395] inception_5a/relu_3x3 <- inception_5a/3x3/bn
I0313 00:15:11.837538 28832 net.cpp:346] inception_5a/relu_3x3 -> inception_5a/3x3/bn (in-place)
I0313 00:15:11.837553 28832 net.cpp:97] Setting up inception_5a/relu_3x3
I0313 00:15:11.837568 28832 net.cpp:104] Top shape: 96 320 2 2 (122880)
I0313 00:15:11.837581 28832 layer_factory.hpp:78] Creating layer inception_5a/5x5_reduce
I0313 00:15:11.837596 28832 net.cpp:68] Creating Layer inception_5a/5x5_reduce
I0313 00:15:11.837610 28832 net.cpp:395] inception_5a/5x5_reduce <- pool4/3x3_s2_pool4/3x3_s2_0_split_2
I0313 00:15:11.837625 28832 net.cpp:357] inception_5a/5x5_reduce -> inception_5a/5x5_reduce
I0313 00:15:11.837640 28832 net.cpp:97] Setting up inception_5a/5x5_reduce
I0313 00:15:11.838013 28832 net.cpp:104] Top shape: 96 32 2 2 (12288)
I0313 00:15:11.838038 28832 layer_factory.hpp:78] Creating layer inception_5a/5x5_reduce/bn
I0313 00:15:11.838057 28832 net.cpp:68] Creating Layer inception_5a/5x5_reduce/bn
I0313 00:15:11.838068 28832 net.cpp:395] inception_5a/5x5_reduce/bn <- inception_5a/5x5_reduce
I0313 00:15:11.838086 28832 net.cpp:357] inception_5a/5x5_reduce/bn -> inception_5a/5x5_reduce/bn
I0313 00:15:11.838104 28832 net.cpp:97] Setting up inception_5a/5x5_reduce/bn
I0313 00:15:11.838124 28832 net.cpp:104] Top shape: 96 32 2 2 (12288)
I0313 00:15:11.838138 28832 layer_factory.hpp:78] Creating layer inception_5a/relu_5x5_reduce
I0313 00:15:11.838153 28832 net.cpp:68] Creating Layer inception_5a/relu_5x5_reduce
I0313 00:15:11.838165 28832 net.cpp:395] inception_5a/relu_5x5_reduce <- inception_5a/5x5_reduce/bn
I0313 00:15:11.838181 28832 net.cpp:346] inception_5a/relu_5x5_reduce -> inception_5a/5x5_reduce/bn (in-place)
I0313 00:15:11.838196 28832 net.cpp:97] Setting up inception_5a/relu_5x5_reduce
I0313 00:15:11.838210 28832 net.cpp:104] Top shape: 96 32 2 2 (12288)
I0313 00:15:11.838223 28832 layer_factory.hpp:78] Creating layer inception_5a/5x5
I0313 00:15:11.838238 28832 net.cpp:68] Creating Layer inception_5a/5x5
I0313 00:15:11.838250 28832 net.cpp:395] inception_5a/5x5 <- inception_5a/5x5_reduce/bn
I0313 00:15:11.838268 28832 net.cpp:357] inception_5a/5x5 -> inception_5a/5x5
I0313 00:15:11.838284 28832 net.cpp:97] Setting up inception_5a/5x5
I0313 00:15:11.839409 28832 net.cpp:104] Top shape: 96 128 2 2 (49152)
I0313 00:15:11.839432 28832 layer_factory.hpp:78] Creating layer inception_5a/5x5/bn
I0313 00:15:11.839452 28832 net.cpp:68] Creating Layer inception_5a/5x5/bn
I0313 00:15:11.839464 28832 net.cpp:395] inception_5a/5x5/bn <- inception_5a/5x5
I0313 00:15:11.839481 28832 net.cpp:357] inception_5a/5x5/bn -> inception_5a/5x5/bn
I0313 00:15:11.839498 28832 net.cpp:97] Setting up inception_5a/5x5/bn
I0313 00:15:11.839519 28832 net.cpp:104] Top shape: 96 128 2 2 (49152)
I0313 00:15:11.839534 28832 layer_factory.hpp:78] Creating layer inception_5a/relu_5x5
I0313 00:15:11.839550 28832 net.cpp:68] Creating Layer inception_5a/relu_5x5
I0313 00:15:11.839562 28832 net.cpp:395] inception_5a/relu_5x5 <- inception_5a/5x5/bn
I0313 00:15:11.839576 28832 net.cpp:346] inception_5a/relu_5x5 -> inception_5a/5x5/bn (in-place)
I0313 00:15:11.839589 28832 net.cpp:97] Setting up inception_5a/relu_5x5
I0313 00:15:11.839603 28832 net.cpp:104] Top shape: 96 128 2 2 (49152)
I0313 00:15:11.839615 28832 layer_factory.hpp:78] Creating layer inception_5a/pool
I0313 00:15:11.839628 28832 layer_factory.cpp:51] CUDNN does not support padding or multiple tops. Using Caffe's own pooling layer.
I0313 00:15:11.839642 28832 net.cpp:68] Creating Layer inception_5a/pool
I0313 00:15:11.839653 28832 net.cpp:395] inception_5a/pool <- pool4/3x3_s2_pool4/3x3_s2_0_split_3
I0313 00:15:11.839668 28832 net.cpp:357] inception_5a/pool -> inception_5a/pool
I0313 00:15:11.839681 28832 net.cpp:97] Setting up inception_5a/pool
I0313 00:15:11.839717 28832 net.cpp:104] Top shape: 96 832 2 2 (319488)
I0313 00:15:11.839731 28832 layer_factory.hpp:78] Creating layer inception_5a/pool_proj
I0313 00:15:11.839750 28832 net.cpp:68] Creating Layer inception_5a/pool_proj
I0313 00:15:11.839761 28832 net.cpp:395] inception_5a/pool_proj <- inception_5a/pool
I0313 00:15:11.839778 28832 net.cpp:357] inception_5a/pool_proj -> inception_5a/pool_proj
I0313 00:15:11.839794 28832 net.cpp:97] Setting up inception_5a/pool_proj
I0313 00:15:11.840986 28832 net.cpp:104] Top shape: 96 128 2 2 (49152)
I0313 00:15:11.841008 28832 layer_factory.hpp:78] Creating layer inception_5a/pool_proj/bn
I0313 00:15:11.841027 28832 net.cpp:68] Creating Layer inception_5a/pool_proj/bn
I0313 00:15:11.841040 28832 net.cpp:395] inception_5a/pool_proj/bn <- inception_5a/pool_proj
I0313 00:15:11.841055 28832 net.cpp:357] inception_5a/pool_proj/bn -> inception_5a/pool_proj/bn
I0313 00:15:11.841074 28832 net.cpp:97] Setting up inception_5a/pool_proj/bn
I0313 00:15:11.841095 28832 net.cpp:104] Top shape: 96 128 2 2 (49152)
I0313 00:15:11.841110 28832 layer_factory.hpp:78] Creating layer inception_5a/relu_pool_proj
I0313 00:15:11.841125 28832 net.cpp:68] Creating Layer inception_5a/relu_pool_proj
I0313 00:15:11.841137 28832 net.cpp:395] inception_5a/relu_pool_proj <- inception_5a/pool_proj/bn
I0313 00:15:11.841153 28832 net.cpp:346] inception_5a/relu_pool_proj -> inception_5a/pool_proj/bn (in-place)
I0313 00:15:11.841168 28832 net.cpp:97] Setting up inception_5a/relu_pool_proj
I0313 00:15:11.841183 28832 net.cpp:104] Top shape: 96 128 2 2 (49152)
I0313 00:15:11.841195 28832 layer_factory.hpp:78] Creating layer inception_5a/output
I0313 00:15:11.841210 28832 net.cpp:68] Creating Layer inception_5a/output
I0313 00:15:11.841223 28832 net.cpp:395] inception_5a/output <- inception_5a/1x1/bn
I0313 00:15:11.841235 28832 net.cpp:395] inception_5a/output <- inception_5a/3x3/bn
I0313 00:15:11.841248 28832 net.cpp:395] inception_5a/output <- inception_5a/5x5/bn
I0313 00:15:11.841261 28832 net.cpp:395] inception_5a/output <- inception_5a/pool_proj/bn
I0313 00:15:11.841274 28832 net.cpp:357] inception_5a/output -> inception_5a/output
I0313 00:15:11.841289 28832 net.cpp:97] Setting up inception_5a/output
I0313 00:15:11.841302 28832 net.cpp:104] Top shape: 96 832 2 2 (319488)
I0313 00:15:11.841313 28832 layer_factory.hpp:78] Creating layer inception_5a/output_inception_5a/output_0_split
I0313 00:15:11.841331 28832 net.cpp:68] Creating Layer inception_5a/output_inception_5a/output_0_split
I0313 00:15:11.841342 28832 net.cpp:395] inception_5a/output_inception_5a/output_0_split <- inception_5a/output
I0313 00:15:11.841357 28832 net.cpp:357] inception_5a/output_inception_5a/output_0_split -> inception_5a/output_inception_5a/output_0_split_0
I0313 00:15:11.841373 28832 net.cpp:357] inception_5a/output_inception_5a/output_0_split -> inception_5a/output_inception_5a/output_0_split_1
I0313 00:15:11.841389 28832 net.cpp:357] inception_5a/output_inception_5a/output_0_split -> inception_5a/output_inception_5a/output_0_split_2
I0313 00:15:11.841405 28832 net.cpp:357] inception_5a/output_inception_5a/output_0_split -> inception_5a/output_inception_5a/output_0_split_3
I0313 00:15:11.880743 28832 net.cpp:97] Setting up inception_5a/output_inception_5a/output_0_split
I0313 00:15:11.880771 28832 net.cpp:104] Top shape: 96 832 2 2 (319488)
I0313 00:15:11.880784 28832 net.cpp:104] Top shape: 96 832 2 2 (319488)
I0313 00:15:11.880795 28832 net.cpp:104] Top shape: 96 832 2 2 (319488)
I0313 00:15:11.880806 28832 net.cpp:104] Top shape: 96 832 2 2 (319488)
I0313 00:15:11.880817 28832 layer_factory.hpp:78] Creating layer inception_5b/1x1
I0313 00:15:11.880834 28832 net.cpp:68] Creating Layer inception_5b/1x1
I0313 00:15:11.880846 28832 net.cpp:395] inception_5b/1x1 <- inception_5a/output_inception_5a/output_0_split_0
I0313 00:15:11.880885 28832 net.cpp:357] inception_5b/1x1 -> inception_5b/1x1
I0313 00:15:11.880905 28832 net.cpp:97] Setting up inception_5b/1x1
I0313 00:15:11.884552 28832 net.cpp:104] Top shape: 96 384 2 2 (147456)
I0313 00:15:11.884600 28832 layer_factory.hpp:78] Creating layer inception_5b/1x1/bn
I0313 00:15:11.884619 28832 net.cpp:68] Creating Layer inception_5b/1x1/bn
I0313 00:15:11.884632 28832 net.cpp:395] inception_5b/1x1/bn <- inception_5b/1x1
I0313 00:15:11.884647 28832 net.cpp:357] inception_5b/1x1/bn -> inception_5b/1x1/bn
I0313 00:15:11.884665 28832 net.cpp:97] Setting up inception_5b/1x1/bn
I0313 00:15:11.884687 28832 net.cpp:104] Top shape: 96 384 2 2 (147456)
I0313 00:15:11.884702 28832 layer_factory.hpp:78] Creating layer inception_5b/relu_1x1
I0313 00:15:11.884717 28832 net.cpp:68] Creating Layer inception_5b/relu_1x1
I0313 00:15:11.884729 28832 net.cpp:395] inception_5b/relu_1x1 <- inception_5b/1x1/bn
I0313 00:15:11.884742 28832 net.cpp:346] inception_5b/relu_1x1 -> inception_5b/1x1/bn (in-place)
I0313 00:15:11.884757 28832 net.cpp:97] Setting up inception_5b/relu_1x1
I0313 00:15:11.884773 28832 net.cpp:104] Top shape: 96 384 2 2 (147456)
I0313 00:15:11.884783 28832 layer_factory.hpp:78] Creating layer inception_5b/3x3_reduce
I0313 00:15:11.884799 28832 net.cpp:68] Creating Layer inception_5b/3x3_reduce
I0313 00:15:11.884811 28832 net.cpp:395] inception_5b/3x3_reduce <- inception_5a/output_inception_5a/output_0_split_1
I0313 00:15:11.884829 28832 net.cpp:357] inception_5b/3x3_reduce -> inception_5b/3x3_reduce
I0313 00:15:11.884845 28832 net.cpp:97] Setting up inception_5b/3x3_reduce
I0313 00:15:11.886847 28832 net.cpp:104] Top shape: 96 192 2 2 (73728)
I0313 00:15:11.886874 28832 layer_factory.hpp:78] Creating layer inception_5b/3x3_reduce/bn
I0313 00:15:11.886895 28832 net.cpp:68] Creating Layer inception_5b/3x3_reduce/bn
I0313 00:15:11.886909 28832 net.cpp:395] inception_5b/3x3_reduce/bn <- inception_5b/3x3_reduce
I0313 00:15:11.886925 28832 net.cpp:357] inception_5b/3x3_reduce/bn -> inception_5b/3x3_reduce/bn
I0313 00:15:11.886942 28832 net.cpp:97] Setting up inception_5b/3x3_reduce/bn
I0313 00:15:11.886965 28832 net.cpp:104] Top shape: 96 192 2 2 (73728)
I0313 00:15:11.886981 28832 layer_factory.hpp:78] Creating layer inception_5b/relu_3x3_reduce
I0313 00:15:11.886996 28832 net.cpp:68] Creating Layer inception_5b/relu_3x3_reduce
I0313 00:15:11.887011 28832 net.cpp:395] inception_5b/relu_3x3_reduce <- inception_5b/3x3_reduce/bn
I0313 00:15:11.887024 28832 net.cpp:346] inception_5b/relu_3x3_reduce -> inception_5b/3x3_reduce/bn (in-place)
I0313 00:15:11.887038 28832 net.cpp:97] Setting up inception_5b/relu_3x3_reduce
I0313 00:15:11.887053 28832 net.cpp:104] Top shape: 96 192 2 2 (73728)
I0313 00:15:11.887068 28832 layer_factory.hpp:78] Creating layer inception_5b/3x3
I0313 00:15:11.887084 28832 net.cpp:68] Creating Layer inception_5b/3x3
I0313 00:15:11.887097 28832 net.cpp:395] inception_5b/3x3 <- inception_5b/3x3_reduce/bn
I0313 00:15:11.887114 28832 net.cpp:357] inception_5b/3x3 -> inception_5b/3x3
I0313 00:15:11.887130 28832 net.cpp:97] Setting up inception_5b/3x3
I0313 00:15:11.894085 28832 net.cpp:104] Top shape: 96 384 2 2 (147456)
I0313 00:15:11.894115 28832 layer_factory.hpp:78] Creating layer inception_5b/3x3/bn
I0313 00:15:11.894134 28832 net.cpp:68] Creating Layer inception_5b/3x3/bn
I0313 00:15:11.894148 28832 net.cpp:395] inception_5b/3x3/bn <- inception_5b/3x3
I0313 00:15:11.894165 28832 net.cpp:357] inception_5b/3x3/bn -> inception_5b/3x3/bn
I0313 00:15:11.894181 28832 net.cpp:97] Setting up inception_5b/3x3/bn
I0313 00:15:11.894202 28832 net.cpp:104] Top shape: 96 384 2 2 (147456)
I0313 00:15:11.894217 28832 layer_factory.hpp:78] Creating layer inception_5b/relu_3x3
I0313 00:15:11.894232 28832 net.cpp:68] Creating Layer inception_5b/relu_3x3
I0313 00:15:11.894243 28832 net.cpp:395] inception_5b/relu_3x3 <- inception_5b/3x3/bn
I0313 00:15:11.894258 28832 net.cpp:346] inception_5b/relu_3x3 -> inception_5b/3x3/bn (in-place)
I0313 00:15:11.894271 28832 net.cpp:97] Setting up inception_5b/relu_3x3
I0313 00:15:11.894286 28832 net.cpp:104] Top shape: 96 384 2 2 (147456)
I0313 00:15:11.894299 28832 layer_factory.hpp:78] Creating layer inception_5b/5x5_reduce
I0313 00:15:11.894314 28832 net.cpp:68] Creating Layer inception_5b/5x5_reduce
I0313 00:15:11.894351 28832 net.cpp:395] inception_5b/5x5_reduce <- inception_5a/output_inception_5a/output_0_split_2
I0313 00:15:11.894371 28832 net.cpp:357] inception_5b/5x5_reduce -> inception_5b/5x5_reduce
I0313 00:15:11.894388 28832 net.cpp:97] Setting up inception_5b/5x5_reduce
I0313 00:15:11.894909 28832 net.cpp:104] Top shape: 96 48 2 2 (18432)
I0313 00:15:11.894932 28832 layer_factory.hpp:78] Creating layer inception_5b/5x5_reduce/bn
I0313 00:15:11.894951 28832 net.cpp:68] Creating Layer inception_5b/5x5_reduce/bn
I0313 00:15:11.894964 28832 net.cpp:395] inception_5b/5x5_reduce/bn <- inception_5b/5x5_reduce
I0313 00:15:11.894979 28832 net.cpp:357] inception_5b/5x5_reduce/bn -> inception_5b/5x5_reduce/bn
I0313 00:15:11.894995 28832 net.cpp:97] Setting up inception_5b/5x5_reduce/bn
I0313 00:15:11.895015 28832 net.cpp:104] Top shape: 96 48 2 2 (18432)
I0313 00:15:11.895025 28832 layer_factory.hpp:78] Creating layer inception_5b/relu_5x5_reduce
I0313 00:15:11.895036 28832 net.cpp:68] Creating Layer inception_5b/relu_5x5_reduce
I0313 00:15:11.895043 28832 net.cpp:395] inception_5b/relu_5x5_reduce <- inception_5b/5x5_reduce/bn
I0313 00:15:11.895076 28832 net.cpp:346] inception_5b/relu_5x5_reduce -> inception_5b/5x5_reduce/bn (in-place)
I0313 00:15:11.895092 28832 net.cpp:97] Setting up inception_5b/relu_5x5_reduce
I0313 00:15:11.895107 28832 net.cpp:104] Top shape: 96 48 2 2 (18432)
I0313 00:15:11.895119 28832 layer_factory.hpp:78] Creating layer inception_5b/5x5
I0313 00:15:11.895136 28832 net.cpp:68] Creating Layer inception_5b/5x5
I0313 00:15:11.895149 28832 net.cpp:395] inception_5b/5x5 <- inception_5b/5x5_reduce/bn
I0313 00:15:11.895165 28832 net.cpp:357] inception_5b/5x5 -> inception_5b/5x5
I0313 00:15:11.895181 28832 net.cpp:97] Setting up inception_5b/5x5
I0313 00:15:11.896831 28832 net.cpp:104] Top shape: 96 128 2 2 (49152)
I0313 00:15:11.896854 28832 layer_factory.hpp:78] Creating layer inception_5b/5x5/bn
I0313 00:15:11.896884 28832 net.cpp:68] Creating Layer inception_5b/5x5/bn
I0313 00:15:11.896898 28832 net.cpp:395] inception_5b/5x5/bn <- inception_5b/5x5
I0313 00:15:11.896914 28832 net.cpp:357] inception_5b/5x5/bn -> inception_5b/5x5/bn
I0313 00:15:11.896935 28832 net.cpp:97] Setting up inception_5b/5x5/bn
I0313 00:15:11.896960 28832 net.cpp:104] Top shape: 96 128 2 2 (49152)
I0313 00:15:11.896975 28832 layer_factory.hpp:78] Creating layer inception_5b/relu_5x5
I0313 00:15:11.896989 28832 net.cpp:68] Creating Layer inception_5b/relu_5x5
I0313 00:15:11.897001 28832 net.cpp:395] inception_5b/relu_5x5 <- inception_5b/5x5/bn
I0313 00:15:11.897017 28832 net.cpp:346] inception_5b/relu_5x5 -> inception_5b/5x5/bn (in-place)
I0313 00:15:11.897032 28832 net.cpp:97] Setting up inception_5b/relu_5x5
I0313 00:15:11.897047 28832 net.cpp:104] Top shape: 96 128 2 2 (49152)
I0313 00:15:11.897059 28832 layer_factory.hpp:78] Creating layer inception_5b/pool
I0313 00:15:11.897071 28832 layer_factory.cpp:51] CUDNN does not support padding or multiple tops. Using Caffe's own pooling layer.
I0313 00:15:11.897084 28832 net.cpp:68] Creating Layer inception_5b/pool
I0313 00:15:11.897096 28832 net.cpp:395] inception_5b/pool <- inception_5a/output_inception_5a/output_0_split_3
I0313 00:15:11.897110 28832 net.cpp:357] inception_5b/pool -> inception_5b/pool
I0313 00:15:11.897125 28832 net.cpp:97] Setting up inception_5b/pool
I0313 00:15:11.897140 28832 net.cpp:104] Top shape: 96 832 2 2 (319488)
I0313 00:15:11.897151 28832 layer_factory.hpp:78] Creating layer inception_5b/pool_proj
I0313 00:15:11.897169 28832 net.cpp:68] Creating Layer inception_5b/pool_proj
I0313 00:15:11.897181 28832 net.cpp:395] inception_5b/pool_proj <- inception_5b/pool
I0313 00:15:11.897197 28832 net.cpp:357] inception_5b/pool_proj -> inception_5b/pool_proj
…
I0313 00:15:12.408184 28832 net.cpp:68] Creating Layer inception_4d/5x5_reduce/bn
I0313 00:15:12.408192 28832 net.cpp:395] inception_4d/5x5_reduce/bn <- inception_4d/5x5_reduce
I0313 00:15:12.408203 28832 net.cpp:357] inception_4d/5x5_reduce/bn -> inception_4d/5x5_reduce/bn
I0313 00:15:12.408215 28832 net.cpp:97] Setting up inception_4d/5x5_reduce/bn
I0313 00:15:12.408231 28832 net.cpp:104] Top shape: 32 32 5 5 (25600)
I0313 00:15:12.408242 28832 layer_factory.hpp:78] Creating layer inception_4d/relu_5x5_reduce
I0313 00:15:12.408254 28832 net.cpp:68] Creating Layer inception_4d/relu_5x5_reduce
I0313 00:15:12.408262 28832 net.cpp:395] inception_4d/relu_5x5_reduce <- inception_4d/5x5_reduce/bn
I0313 00:15:12.408272 28832 net.cpp:346] inception_4d/relu_5x5_reduce -> inception_4d/5x5_reduce/bn (in-place)
I0313 00:15:12.408282 28832 net.cpp:97] Setting up inception_4d/relu_5x5_reduce
I0313 00:15:12.408293 28832 net.cpp:104] Top shape: 32 32 5 5 (25600)
I0313 00:15:12.408301 28832 layer_factory.hpp:78] Creating layer inception_4d/5x5
I0313 00:15:12.408352 28832 net.cpp:68] Creating Layer inception_4d/5x5
I0313 00:15:12.408363 28832 net.cpp:395] inception_4d/5x5 <- inception_4d/5x5_reduce/bn
I0313 00:15:12.408373 28832 net.cpp:357] inception_4d/5x5 -> inception_4d/5x5
I0313 00:15:12.408385 28832 net.cpp:97] Setting up inception_4d/5x5
I0313 00:15:12.409087 28832 net.cpp:104] Top shape: 32 64 5 5 (51200)
I0313 00:15:12.409104 28832 layer_factory.hpp:78] Creating layer inception_4d/5x5/bn
I0313 00:15:12.409118 28832 net.cpp:68] Creating Layer inception_4d/5x5/bn
I0313 00:15:12.409127 28832 net.cpp:395] inception_4d/5x5/bn <- inception_4d/5x5
I0313 00:15:12.409138 28832 net.cpp:357] inception_4d/5x5/bn -> inception_4d/5x5/bn
I0313 00:15:12.409149 28832 net.cpp:97] Setting up inception_4d/5x5/bn
I0313 00:15:12.409165 28832 net.cpp:104] Top shape: 32 64 5 5 (51200)
I0313 00:15:12.409176 28832 layer_factory.hpp:78] Creating layer inception_4d/relu_5x5
I0313 00:15:12.409189 28832 net.cpp:68] Creating Layer inception_4d/relu_5x5
I0313 00:15:12.409196 28832 net.cpp:395] inception_4d/relu_5x5 <- inception_4d/5x5/bn
I0313 00:15:12.409205 28832 net.cpp:346] inception_4d/relu_5x5 -> inception_4d/5x5/bn (in-place)
I0313 00:15:12.409215 28832 net.cpp:97] Setting up inception_4d/relu_5x5
I0313 00:15:12.409225 28832 net.cpp:104] Top shape: 32 64 5 5 (51200)
I0313 00:15:12.409234 28832 layer_factory.hpp:78] Creating layer inception_4d/pool
I0313 00:15:12.409241 28832 layer_factory.cpp:51] CUDNN does not support padding or multiple tops. Using Caffe's own pooling layer.
I0313 00:15:12.409255 28832 net.cpp:68] Creating Layer inception_4d/pool
I0313 00:15:12.409262 28832 net.cpp:395] inception_4d/pool <- inception_4c/output_inception_4c/output_0_split_3
I0313 00:15:12.409272 28832 net.cpp:357] inception_4d/pool -> inception_4d/pool
I0313 00:15:12.409283 28832 net.cpp:97] Setting up inception_4d/pool
I0313 00:15:12.409293 28832 net.cpp:104] Top shape: 32 512 5 5 (409600)
I0313 00:15:12.409301 28832 layer_factory.hpp:78] Creating layer inception_4d/pool_proj
I0313 00:15:12.409314 28832 net.cpp:68] Creating Layer inception_4d/pool_proj
I0313 00:15:12.409322 28832 net.cpp:395] inception_4d/pool_proj <- inception_4d/pool
I0313 00:15:12.409333 28832 net.cpp:357] inception_4d/pool_proj -> inception_4d/pool_proj
I0313 00:15:12.409343 28832 net.cpp:97] Setting up inception_4d/pool_proj
I0313 00:15:12.409996 28832 net.cpp:104] Top shape: 32 64 5 5 (51200)
I0313 00:15:12.410015 28832 layer_factory.hpp:78] Creating layer inception_4d/pool_proj/bn
I0313 00:15:12.410030 28832 net.cpp:68] Creating Layer inception_4d/pool_proj/bn
I0313 00:15:12.410039 28832 net.cpp:395] inception_4d/pool_proj/bn <- inception_4d/pool_proj
I0313 00:15:12.410053 28832 net.cpp:357] inception_4d/pool_proj/bn -> inception_4d/pool_proj/bn
I0313 00:15:12.410064 28832 net.cpp:97] Setting up inception_4d/pool_proj/bn
I0313 00:15:12.410082 28832 net.cpp:104] Top shape: 32 64 5 5 (51200)
I0313 00:15:12.410092 28832 layer_factory.hpp:78] Creating layer inception_4d/relu_pool_proj
I0313 00:15:12.410102 28832 net.cpp:68] Creating Layer inception_4d/relu_pool_proj
I0313 00:15:12.410110 28832 net.cpp:395] inception_4d/relu_pool_proj <- inception_4d/pool_proj/bn
I0313 00:15:12.410121 28832 net.cpp:346] inception_4d/relu_pool_proj -> inception_4d/pool_proj/bn (in-place)
I0313 00:15:12.410132 28832 net.cpp:97] Setting up inception_4d/relu_pool_proj
I0313 00:15:12.410143 28832 net.cpp:104] Top shape: 32 64 5 5 (51200)
I0313 00:15:12.410151 28832 layer_factory.hpp:78] Creating layer inception_4d/output
I0313 00:15:12.410161 28832 net.cpp:68] Creating Layer inception_4d/output
I0313 00:15:12.410168 28832 net.cpp:395] inception_4d/output <- inception_4d/1x1/bn
I0313 00:15:12.410178 28832 net.cpp:395] inception_4d/output <- inception_4d/3x3/bn
I0313 00:15:12.410187 28832 net.cpp:395] inception_4d/output <- inception_4d/5x5/bn
I0313 00:15:12.410195 28832 net.cpp:395] inception_4d/output <- inception_4d/pool_proj/bn
I0313 00:15:12.414813 28832 net.cpp:357] inception_4d/output -> inception_4d/output
I0313 00:15:12.414911 28832 net.cpp:97] Setting up inception_4d/output
I0313 00:15:12.414943 28832 net.cpp:104] Top shape: 32 528 5 5 (422400)
I0313 00:15:12.414968 28832 layer_factory.hpp:78] Creating layer inception_4d/output_inception_4d/output_0_split
I0313 00:15:12.414995 28832 net.cpp:68] Creating Layer inception_4d/output_inception_4d/output_0_split
I0313 00:15:12.415019 28832 net.cpp:395] inception_4d/output_inception_4d/output_0_split <- inception_4d/output
I0313 00:15:12.415056 28832 net.cpp:357] inception_4d/output_inception_4d/output_0_split -> inception_4d/output_inception_4d/output_0_split_0
I0313 00:15:12.415091 28832 net.cpp:357] inception_4d/output_inception_4d/output_0_split -> inception_4d/output_inception_4d/output_0_split_1
I0313 00:15:12.415123 28832 net.cpp:357] inception_4d/output_inception_4d/output_0_split -> inception_4d/output_inception_4d/output_0_split_2
I0313 00:15:12.415154 28832 net.cpp:357] inception_4d/output_inception_4d/output_0_split -> inception_4d/output_inception_4d/output_0_split_3
I0313 00:15:12.415185 28832 net.cpp:357] inception_4d/output_inception_4d/output_0_split -> inception_4d/output_inception_4d/output_0_split_4
I0313 00:15:12.415215 28832 net.cpp:97] Setting up inception_4d/output_inception_4d/output_0_split
I0313 00:15:12.415242 28832 net.cpp:104] Top shape: 32 528 5 5 (422400)
I0313 00:15:12.415264 28832 net.cpp:104] Top shape: 32 528 5 5 (422400)
I0313 00:15:12.415287 28832 net.cpp:104] Top shape: 32 528 5 5 (422400)
I0313 00:15:12.415307 28832 net.cpp:104] Top shape: 32 528 5 5 (422400)
I0313 00:15:12.415329 28832 net.cpp:104] Top shape: 32 528 5 5 (422400)
I0313 00:15:12.415351 28832 layer_factory.hpp:78] Creating layer loss2/ave_pool
I0313 00:15:12.415382 28832 net.cpp:68] Creating Layer loss2/ave_pool
I0313 00:15:12.415407 28832 net.cpp:395] loss2/ave_pool <- inception_4d/output_inception_4d/output_0_split_0
I0313 00:15:12.415446 28832 net.cpp:357] loss2/ave_pool -> loss2/ave_pool
I0313 00:15:12.415478 28832 net.cpp:97] Setting up loss2/ave_pool
I0313 00:15:12.415515 28832 net.cpp:104] Top shape: 32 528 1 1 (16896)
I0313 00:15:12.415541 28832 layer_factory.hpp:78] Creating layer loss2/conv
I0313 00:15:12.415575 28832 net.cpp:68] Creating Layer loss2/conv
I0313 00:15:12.415599 28832 net.cpp:395] loss2/conv <- loss2/ave_pool
I0313 00:15:12.415632 28832 net.cpp:357] loss2/conv -> loss2/conv
I0313 00:15:12.415663 28832 net.cpp:97] Setting up loss2/conv
I0313 00:15:12.417145 28832 net.cpp:104] Top shape: 32 128 1 1 (4096)
I0313 00:15:12.417171 28832 layer_factory.hpp:78] Creating layer loss2/conv/bn
I0313 00:15:12.417191 28832 net.cpp:68] Creating Layer loss2/conv/bn
I0313 00:15:12.417207 28832 net.cpp:395] loss2/conv/bn <- loss2/conv
I0313 00:15:12.417223 28832 net.cpp:357] loss2/conv/bn -> loss2/conv/bn
I0313 00:15:12.417242 28832 net.cpp:97] Setting up loss2/conv/bn
I0313 00:15:12.417266 28832 net.cpp:104] Top shape: 32 128 1 1 (4096)
I0313 00:15:12.417284 28832 layer_factory.hpp:78] Creating layer loss2/relu_conv
I0313 00:15:12.417299 28832 net.cpp:68] Creating Layer loss2/relu_conv
I0313 00:15:12.417312 28832 net.cpp:395] loss2/relu_conv <- loss2/conv/bn
I0313 00:15:12.417327 28832 net.cpp:346] loss2/relu_conv -> loss2/conv/bn (in-place)
I0313 00:15:12.417346 28832 net.cpp:97] Setting up loss2/relu_conv
I0313 00:15:12.417363 28832 net.cpp:104] Top shape: 32 128 1 1 (4096)
I0313 00:15:12.417377 28832 layer_factory.hpp:78] Creating layer loss2/fc
I0313 00:15:12.417394 28832 net.cpp:68] Creating Layer loss2/fc
I0313 00:15:12.417407 28832 net.cpp:395] loss2/fc <- loss2/conv/bn
I0313 00:15:12.417423 28832 net.cpp:357] loss2/fc -> loss2/fc
I0313 00:15:12.417440 28832 net.cpp:97] Setting up loss2/fc
I0313 00:15:12.419396 28832 net.cpp:104] Top shape: 32 1024 1 1 (32768)
I0313 00:15:12.434028 28832 layer_factory.hpp:78] Creating layer loss2/fc/bn
I0313 00:15:12.434077 28832 net.cpp:68] Creating Layer loss2/fc/bn
I0313 00:15:12.434105 28832 net.cpp:395] loss2/fc/bn <- loss2/fc
I0313 00:15:12.434141 28832 net.cpp:357] loss2/fc/bn -> loss2/fc/bn
I0313 00:15:12.434226 28832 net.cpp:97] Setting up loss2/fc/bn
I0313 00:15:12.434283 28832 net.cpp:104] Top shape: 32 1024 1 1 (32768)
I0313 00:15:12.434301 28832 layer_factory.hpp:78] Creating layer loss2/relu_fc
I0313 00:15:12.434335 28832 net.cpp:68] Creating Layer loss2/relu_fc
I0313 00:15:12.434360 28832 net.cpp:395] loss2/relu_fc <- loss2/fc/bn
I0313 00:15:12.434389 28832 net.cpp:346] loss2/relu_fc -> loss2/fc/bn (in-place)
I0313 00:15:12.434419 28832 net.cpp:97] Setting up loss2/relu_fc
I0313 00:15:12.434453 28832 net.cpp:104] Top shape: 32 1024 1 1 (32768)
I0313 00:15:12.434478 28832 layer_factory.hpp:78] Creating layer loss2/drop_fc
I0313 00:15:12.434505 28832 net.cpp:68] Creating Layer loss2/drop_fc
I0313 00:15:12.434528 28832 net.cpp:395] loss2/drop_fc <- loss2/fc/bn
I0313 00:15:12.434556 28832 net.cpp:346] loss2/drop_fc -> loss2/fc/bn (in-place)
I0313 00:15:12.434583 28832 net.cpp:97] Setting up loss2/drop_fc
I0313 00:15:12.434607 28832 net.cpp:104] Top shape: 32 1024 1 1 (32768)
I0313 00:15:12.434630 28832 layer_factory.hpp:78] Creating layer loss2/classifier
I0313 00:15:12.434659 28832 net.cpp:68] Creating Layer loss2/classifier
I0313 00:15:12.434680 28832 net.cpp:395] loss2/classifier <- loss2/fc/bn
I0313 00:15:12.434712 28832 net.cpp:357] loss2/classifier -> loss2/classifier
I0313 00:15:12.434744 28832 net.cpp:97] Setting up loss2/classifier
I0313 00:15:12.437340 28832 net.cpp:104] Top shape: 32 121 1 1 (3872)
I0313 00:15:12.437382 28832 layer_factory.hpp:78] Creating layer loss2/classifier_loss2/classifier_0_split
I0313 00:15:12.437410 28832 net.cpp:68] Creating Layer loss2/classifier_loss2/classifier_0_split
I0313 00:15:12.437434 28832 net.cpp:395] loss2/classifier_loss2/classifier_0_split <- loss2/classifier
I0313 00:15:12.437463 28832 net.cpp:357] loss2/classifier_loss2/classifier_0_split -> loss2/classifier_loss2/classifier_0_split_0
I0313 00:15:12.437494 28832 net.cpp:357] loss2/classifier_loss2/classifier_0_split -> loss2/classifier_loss2/classifier_0_split_1
I0313 00:15:12.437525 28832 net.cpp:97] Setting up loss2/classifier_loss2/classifier_0_split
I0313 00:15:12.437551 28832 net.cpp:104] Top shape: 32 121 1 1 (3872)
I0313 00:15:12.437572 28832 net.cpp:104] Top shape: 32 121 1 1 (3872)
I0313 00:15:12.437594 28832 layer_factory.hpp:78] Creating layer loss2/loss
I0313 00:15:12.437625 28832 net.cpp:68] Creating Layer loss2/loss
I0313 00:15:12.437650 28832 net.cpp:395] loss2/loss <- loss2/classifier_loss2/classifier_0_split_0
I0313 00:15:12.437676 28832 net.cpp:395] loss2/loss <- label_data_1_split_2
I0313 00:15:12.437705 28832 net.cpp:357] loss2/loss -> loss2/loss
I0313 00:15:12.437734 28832 net.cpp:97] Setting up loss2/loss
I0313 00:15:12.437760 28832 layer_factory.hpp:78] Creating layer loss2/loss
I0313 00:15:12.437831 28832 net.cpp:104] Top shape: 1 1 1 1 (1)
I0313 00:15:12.437860 28832 net.cpp:110]     with loss weight 0.05
I0313 00:15:12.437901 28832 layer_factory.hpp:78] Creating layer loss2/top-1
I0313 00:15:12.437927 28832 net.cpp:68] Creating Layer loss2/top-1
I0313 00:15:12.437950 28832 net.cpp:395] loss2/top-1 <- loss2/classifier_loss2/classifier_0_split_1
I0313 00:15:12.437976 28832 net.cpp:395] loss2/top-1 <- label_data_1_split_3
I0313 00:15:12.438009 28832 net.cpp:357] loss2/top-1 -> loss2/top-1
I0313 00:15:12.438040 28832 net.cpp:97] Setting up loss2/top-1
I0313 00:15:12.438066 28832 net.cpp:104] Top shape: 1 1 1 1 (1)
I0313 00:15:12.438089 28832 layer_factory.hpp:78] Creating layer inception_4e/1x1
I0313 00:15:12.438117 28832 net.cpp:68] Creating Layer inception_4e/1x1
I0313 00:15:12.438141 28832 net.cpp:395] inception_4e/1x1 <- inception_4d/output_inception_4d/output_0_split_1
I0313 00:15:12.442265 28832 net.cpp:357] inception_4e/1x1 -> inception_4e/1x1
I0313 00:15:12.442319 28832 net.cpp:97] Setting up inception_4e/1x1
I0313 00:15:12.444339 28832 net.cpp:104] Top shape: 32 256 5 5 (204800)
I0313 00:15:12.444388 28832 layer_factory.hpp:78] Creating layer inception_4e/1x1/bn
I0313 00:15:12.444411 28832 net.cpp:68] Creating Layer inception_4e/1x1/bn
I0313 00:15:12.444437 28832 net.cpp:395] inception_4e/1x1/bn <- inception_4e/1x1
I0313 00:15:12.444519 28832 net.cpp:357] inception_4e/1x1/bn -> inception_4e/1x1/bn
I0313 00:15:12.444560 28832 net.cpp:97] Setting up inception_4e/1x1/bn
I0313 00:15:12.444588 28832 net.cpp:104] Top shape: 32 256 5 5 (204800)
I0313 00:15:12.444607 28832 layer_factory.hpp:78] Creating layer inception_4e/relu_1x1
I0313 00:15:12.444639 28832 net.cpp:68] Creating Layer inception_4e/relu_1x1
I0313 00:15:12.444664 28832 net.cpp:395] inception_4e/relu_1x1 <- inception_4e/1x1/bn
I0313 00:15:12.444691 28832 net.cpp:346] inception_4e/relu_1x1 -> inception_4e/1x1/bn (in-place)
I0313 00:15:12.444720 28832 net.cpp:97] Setting up inception_4e/relu_1x1
I0313 00:15:12.444751 28832 net.cpp:104] Top shape: 32 256 5 5 (204800)
I0313 00:15:12.444774 28832 layer_factory.hpp:78] Creating layer inception_4e/3x3_reduce
I0313 00:15:12.444802 28832 net.cpp:68] Creating Layer inception_4e/3x3_reduce
I0313 00:15:12.444825 28832 net.cpp:395] inception_4e/3x3_reduce <- inception_4d/output_inception_4d/output_0_split_2
I0313 00:15:12.444860 28832 net.cpp:357] inception_4e/3x3_reduce -> inception_4e/3x3_reduce
I0313 00:15:12.444936 28832 net.cpp:97] Setting up inception_4e/3x3_reduce
I0313 00:15:12.446619 28832 net.cpp:104] Top shape: 32 160 5 5 (128000)
I0313 00:15:12.446657 28832 layer_factory.hpp:78] Creating layer inception_4e/3x3_reduce/bn
I0313 00:15:12.446687 28832 net.cpp:68] Creating Layer inception_4e/3x3_reduce/bn
I0313 00:15:12.446710 28832 net.cpp:395] inception_4e/3x3_reduce/bn <- inception_4e/3x3_reduce
I0313 00:15:12.446739 28832 net.cpp:357] inception_4e/3x3_reduce/bn -> inception_4e/3x3_reduce/bn
I0313 00:15:12.446768 28832 net.cpp:97] Setting up inception_4e/3x3_reduce/bn
I0313 00:15:12.446802 28832 net.cpp:104] Top shape: 32 160 5 5 (128000)
I0313 00:15:12.446832 28832 layer_factory.hpp:78] Creating layer inception_4e/relu_3x3_reduce
I0313 00:15:12.446856 28832 net.cpp:68] Creating Layer inception_4e/relu_3x3_reduce
I0313 00:15:12.446877 28832 net.cpp:395] inception_4e/relu_3x3_reduce <- inception_4e/3x3_reduce/bn
I0313 00:15:12.446899 28832 net.cpp:346] inception_4e/relu_3x3_reduce -> inception_4e/3x3_reduce/bn (in-place)
I0313 00:15:12.446923 28832 net.cpp:97] Setting up inception_4e/relu_3x3_reduce
I0313 00:15:12.446948 28832 net.cpp:104] Top shape: 32 160 5 5 (128000)
I0313 00:15:12.446967 28832 layer_factory.hpp:78] Creating layer inception_4e/3x3
I0313 00:15:12.446995 28832 net.cpp:68] Creating Layer inception_4e/3x3
I0313 00:15:12.447016 28832 net.cpp:395] inception_4e/3x3 <- inception_4e/3x3_reduce/bn
I0313 00:15:12.447039 28832 net.cpp:357] inception_4e/3x3 -> inception_4e/3x3
I0313 00:15:12.447065 28832 net.cpp:97] Setting up inception_4e/3x3
I0313 00:15:12.454396 28832 net.cpp:104] Top shape: 32 320 5 5 (256000)
I0313 00:15:12.454424 28832 layer_factory.hpp:78] Creating layer inception_4e/3x3/bn
I0313 00:15:12.454442 28832 net.cpp:68] Creating Layer inception_4e/3x3/bn
I0313 00:15:12.454454 28832 net.cpp:395] inception_4e/3x3/bn <- inception_4e/3x3
I0313 00:15:12.454471 28832 net.cpp:357] inception_4e/3x3/bn -> inception_4e/3x3/bn
I0313 00:15:12.454488 28832 net.cpp:97] Setting up inception_4e/3x3/bn
I0313 00:15:12.454509 28832 net.cpp:104] Top shape: 32 320 5 5 (256000)
I0313 00:15:12.454524 28832 layer_factory.hpp:78] Creating layer inception_4e/relu_3x3
I0313 00:15:12.454538 28832 net.cpp:68] Creating Layer inception_4e/relu_3x3
I0313 00:15:12.454550 28832 net.cpp:395] inception_4e/relu_3x3 <- inception_4e/3x3/bn
I0313 00:15:12.454563 28832 net.cpp:346] inception_4e/relu_3x3 -> inception_4e/3x3/bn (in-place)
I0313 00:15:12.464357 28832 net.cpp:97] Setting up inception_4e/relu_3x3
I0313 00:15:12.464385 28832 net.cpp:104] Top shape: 32 320 5 5 (256000)
I0313 00:15:12.464400 28832 layer_factory.hpp:78] Creating layer inception_4e/5x5_reduce
I0313 00:15:12.464416 28832 net.cpp:68] Creating Layer inception_4e/5x5_reduce
I0313 00:15:12.464429 28832 net.cpp:395] inception_4e/5x5_reduce <- inception_4d/output_inception_4d/output_0_split_3
I0313 00:15:12.464449 28832 net.cpp:357] inception_4e/5x5_reduce -> inception_4e/5x5_reduce
I0313 00:15:12.464491 28832 net.cpp:97] Setting up inception_4e/5x5_reduce
I0313 00:15:12.465016 28832 net.cpp:104] Top shape: 32 32 5 5 (25600)
I0313 00:15:12.465060 28832 layer_factory.hpp:78] Creating layer inception_4e/5x5_reduce/bn
I0313 00:15:12.465085 28832 net.cpp:68] Creating Layer inception_4e/5x5_reduce/bn
I0313 00:15:12.465119 28832 net.cpp:395] inception_4e/5x5_reduce/bn <- inception_4e/5x5_reduce
I0313 00:15:12.465149 28832 net.cpp:357] inception_4e/5x5_reduce/bn -> inception_4e/5x5_reduce/bn
I0313 00:15:12.465183 28832 net.cpp:97] Setting up inception_4e/5x5_reduce/bn
I0313 00:15:12.465224 28832 net.cpp:104] Top shape: 32 32 5 5 (25600)
I0313 00:15:12.465255 28832 layer_factory.hpp:78] Creating layer inception_4e/relu_5x5_reduce
I0313 00:15:12.465287 28832 net.cpp:68] Creating Layer inception_4e/relu_5x5_reduce
I0313 00:15:12.465312 28832 net.cpp:395] inception_4e/relu_5x5_reduce <- inception_4e/5x5_reduce/bn
I0313 00:15:12.465338 28832 net.cpp:346] inception_4e/relu_5x5_reduce -> inception_4e/5x5_reduce/bn (in-place)
I0313 00:15:12.465366 28832 net.cpp:97] Setting up inception_4e/relu_5x5_reduce
I0313 00:15:12.465396 28832 net.cpp:104] Top shape: 32 32 5 5 (25600)
I0313 00:15:12.465420 28832 layer_factory.hpp:78] Creating layer inception_4e/5x5
I0313 00:15:12.465450 28832 net.cpp:68] Creating Layer inception_4e/5x5
I0313 00:15:12.465473 28832 net.cpp:395] inception_4e/5x5 <- inception_4e/5x5_reduce/bn
I0313 00:15:12.465507 28832 net.cpp:357] inception_4e/5x5 -> inception_4e/5x5
I0313 00:15:12.465538 28832 net.cpp:97] Setting up inception_4e/5x5
I0313 00:15:12.467712 28832 net.cpp:104] Top shape: 32 128 5 5 (102400)
I0313 00:15:12.467763 28832 layer_factory.hpp:78] Creating layer inception_4e/5x5/bn
I0313 00:15:12.467794 28832 net.cpp:68] Creating Layer inception_4e/5x5/bn
I0313 00:15:12.467820 28832 net.cpp:395] inception_4e/5x5/bn <- inception_4e/5x5
I0313 00:15:12.467852 28832 net.cpp:357] inception_4e/5x5/bn -> inception_4e/5x5/bn
I0313 00:15:12.467885 28832 net.cpp:97] Setting up inception_4e/5x5/bn
I0313 00:15:12.467926 28832 net.cpp:104] Top shape: 32 128 5 5 (102400)
I0313 00:15:12.467955 28832 layer_factory.hpp:78] Creating layer inception_4e/relu_5x5
I0313 00:15:12.467983 28832 net.cpp:68] Creating Layer inception_4e/relu_5x5
I0313 00:15:12.468006 28832 net.cpp:395] inception_4e/relu_5x5 <- inception_4e/5x5/bn
I0313 00:15:12.468039 28832 net.cpp:346] inception_4e/relu_5x5 -> inception_4e/5x5/bn (in-place)
I0313 00:15:12.468068 28832 net.cpp:97] Setting up inception_4e/relu_5x5
I0313 00:15:12.468097 28832 net.cpp:104] Top shape: 32 128 5 5 (102400)
I0313 00:15:12.468122 28832 layer_factory.hpp:78] Creating layer inception_4e/pool
I0313 00:15:12.468144 28832 layer_factory.cpp:51] CUDNN does not support padding or multiple tops. Using Caffe's own pooling layer.
I0313 00:15:12.468171 28832 net.cpp:68] Creating Layer inception_4e/pool
I0313 00:15:12.468196 28832 net.cpp:395] inception_4e/pool <- inception_4d/output_inception_4d/output_0_split_4
I0313 00:15:12.468230 28832 net.cpp:357] inception_4e/pool -> inception_4e/pool
I0313 00:15:12.468260 28832 net.cpp:97] Setting up inception_4e/pool
I0313 00:15:12.468287 28832 net.cpp:104] Top shape: 32 528 5 5 (422400)
I0313 00:15:12.468310 28832 layer_factory.hpp:78] Creating layer inception_4e/pool_proj
I0313 00:15:12.468338 28832 net.cpp:68] Creating Layer inception_4e/pool_proj
I0313 00:15:12.468361 28832 net.cpp:395] inception_4e/pool_proj <- inception_4e/pool
I0313 00:15:12.468394 28832 net.cpp:357] inception_4e/pool_proj -> inception_4e/pool_proj
I0313 00:15:12.508215 28832 net.cpp:97] Setting up inception_4e/pool_proj
I0313 00:15:12.509771 28832 net.cpp:104] Top shape: 32 128 5 5 (102400)
I0313 00:15:12.509827 28832 layer_factory.hpp:78] Creating layer inception_4e/pool_proj/bn
I0313 00:15:12.509871 28832 net.cpp:68] Creating Layer inception_4e/pool_proj/bn
I0313 00:15:12.509897 28832 net.cpp:395] inception_4e/pool_proj/bn <- inception_4e/pool_proj
I0313 00:15:12.509930 28832 net.cpp:357] inception_4e/pool_proj/bn -> inception_4e/pool_proj/bn
I0313 00:15:12.510018 28832 net.cpp:97] Setting up inception_4e/pool_proj/bn
I0313 00:15:12.510067 28832 net.cpp:104] Top shape: 32 128 5 5 (102400)
I0313 00:15:12.510087 28832 layer_factory.hpp:78] Creating layer inception_4e/relu_pool_proj
I0313 00:15:12.510102 28832 net.cpp:68] Creating Layer inception_4e/relu_pool_proj
I0313 00:15:12.510131 28832 net.cpp:395] inception_4e/relu_pool_proj <- inception_4e/pool_proj/bn
I0313 00:15:12.510150 28832 net.cpp:346] inception_4e/relu_pool_proj -> inception_4e/pool_proj/bn (in-place)
I0313 00:15:12.510170 28832 net.cpp:97] Setting up inception_4e/relu_pool_proj
I0313 00:15:12.510215 28832 net.cpp:104] Top shape: 32 128 5 5 (102400)
I0313 00:15:12.510227 28832 layer_factory.hpp:78] Creating layer inception_4e/output
I0313 00:15:12.510242 28832 net.cpp:68] Creating Layer inception_4e/output
I0313 00:15:12.510253 28832 net.cpp:395] inception_4e/output <- inception_4e/1x1/bn
I0313 00:15:12.510288 28832 net.cpp:395] inception_4e/output <- inception_4e/3x3/bn
I0313 00:15:12.510314 28832 net.cpp:395] inception_4e/output <- inception_4e/5x5/bn
I0313 00:15:12.510339 28832 net.cpp:395] inception_4e/output <- inception_4e/pool_proj/bn
I0313 00:15:12.510371 28832 net.cpp:357] inception_4e/output -> inception_4e/output
I0313 00:15:12.510402 28832 net.cpp:97] Setting up inception_4e/output
I0313 00:15:12.510429 28832 net.cpp:104] Top shape: 32 832 5 5 (665600)
I0313 00:15:12.510452 28832 layer_factory.hpp:78] Creating layer pool4/3x3_s2
I0313 00:15:12.510478 28832 net.cpp:68] Creating Layer pool4/3x3_s2
I0313 00:15:12.510501 28832 net.cpp:395] pool4/3x3_s2 <- inception_4e/output
I0313 00:15:12.510535 28832 net.cpp:357] pool4/3x3_s2 -> pool4/3x3_s2
I0313 00:15:12.510565 28832 net.cpp:97] Setting up pool4/3x3_s2
I0313 00:15:12.510597 28832 net.cpp:104] Top shape: 32 832 2 2 (106496)
I0313 00:15:12.510622 28832 layer_factory.hpp:78] Creating layer pool4/3x3_s2_pool4/3x3_s2_0_split
I0313 00:15:12.510649 28832 net.cpp:68] Creating Layer pool4/3x3_s2_pool4/3x3_s2_0_split
I0313 00:15:12.510671 28832 net.cpp:395] pool4/3x3_s2_pool4/3x3_s2_0_split <- pool4/3x3_s2
I0313 00:15:12.510697 28832 net.cpp:357] pool4/3x3_s2_pool4/3x3_s2_0_split -> pool4/3x3_s2_pool4/3x3_s2_0_split_0
I0313 00:15:12.510728 28832 net.cpp:357] pool4/3x3_s2_pool4/3x3_s2_0_split -> pool4/3x3_s2_pool4/3x3_s2_0_split_1
I0313 00:15:12.510763 28832 net.cpp:357] pool4/3x3_s2_pool4/3x3_s2_0_split -> pool4/3x3_s2_pool4/3x3_s2_0_split_2
I0313 00:15:12.510797 28832 net.cpp:357] pool4/3x3_s2_pool4/3x3_s2_0_split -> pool4/3x3_s2_pool4/3x3_s2_0_split_3
I0313 00:15:12.510824 28832 net.cpp:97] Setting up pool4/3x3_s2_pool4/3x3_s2_0_split
I0313 00:15:12.510850 28832 net.cpp:104] Top shape: 32 832 2 2 (106496)
I0313 00:15:12.510872 28832 net.cpp:104] Top shape: 32 832 2 2 (106496)
I0313 00:15:12.510893 28832 net.cpp:104] Top shape: 32 832 2 2 (106496)
I0313 00:15:12.510915 28832 net.cpp:104] Top shape: 32 832 2 2 (106496)
I0313 00:15:12.510937 28832 layer_factory.hpp:78] Creating layer inception_5a/1x1
I0313 00:15:12.510969 28832 net.cpp:68] Creating Layer inception_5a/1x1
I0313 00:15:12.510994 28832 net.cpp:395] inception_5a/1x1 <- pool4/3x3_s2_pool4/3x3_s2_0_split_0
I0313 00:15:12.511023 28832 net.cpp:357] inception_5a/1x1 -> inception_5a/1x1
I0313 00:15:12.511052 28832 net.cpp:97] Setting up inception_5a/1x1
I0313 00:15:12.514214 28832 net.cpp:104] Top shape: 32 256 2 2 (32768)
I0313 00:15:12.514238 28832 layer_factory.hpp:78] Creating layer inception_5a/1x1/bn
I0313 00:15:12.514257 28832 net.cpp:68] Creating Layer inception_5a/1x1/bn
I0313 00:15:12.514271 28832 net.cpp:395] inception_5a/1x1/bn <- inception_5a/1x1
I0313 00:15:12.514286 28832 net.cpp:357] inception_5a/1x1/bn -> inception_5a/1x1/bn
I0313 00:15:12.514302 28832 net.cpp:97] Setting up inception_5a/1x1/bn
I0313 00:15:12.514328 28832 net.cpp:104] Top shape: 32 256 2 2 (32768)
I0313 00:15:12.514343 28832 layer_factory.hpp:78] Creating layer inception_5a/relu_1x1
I0313 00:15:12.514356 28832 net.cpp:68] Creating Layer inception_5a/relu_1x1
I0313 00:15:12.514386 28832 net.cpp:395] inception_5a/relu_1x1 <- inception_5a/1x1/bn
I0313 00:15:12.514405 28832 net.cpp:346] inception_5a/relu_1x1 -> inception_5a/1x1/bn (in-place)
I0313 00:15:12.514420 28832 net.cpp:97] Setting up inception_5a/relu_1x1
I0313 00:15:12.514436 28832 net.cpp:104] Top shape: 32 256 2 2 (32768)
I0313 00:15:12.514447 28832 layer_factory.hpp:78] Creating layer inception_5a/3x3_reduce
I0313 00:15:12.514462 28832 net.cpp:68] Creating Layer inception_5a/3x3_reduce
I0313 00:15:12.514474 28832 net.cpp:395] inception_5a/3x3_reduce <- pool4/3x3_s2_pool4/3x3_s2_0_split_1
I0313 00:15:12.514492 28832 net.cpp:357] inception_5a/3x3_reduce -> inception_5a/3x3_reduce
I0313 00:15:12.514508 28832 net.cpp:97] Setting up inception_5a/3x3_reduce
I0313 00:15:12.516042 28832 net.cpp:104] Top shape: 32 160 2 2 (20480)
I0313 00:15:12.516065 28832 layer_factory.hpp:78] Creating layer inception_5a/3x3_reduce/bn
I0313 00:15:12.516085 28832 net.cpp:68] Creating Layer inception_5a/3x3_reduce/bn
I0313 00:15:12.516098 28832 net.cpp:395] inception_5a/3x3_reduce/bn <- inception_5a/3x3_reduce
I0313 00:15:12.516115 28832 net.cpp:357] inception_5a/3x3_reduce/bn -> inception_5a/3x3_reduce/bn
I0313 00:15:12.516132 28832 net.cpp:97] Setting up inception_5a/3x3_reduce/bn
I0313 00:15:12.516152 28832 net.cpp:104] Top shape: 32 160 2 2 (20480)
I0313 00:15:12.516167 28832 layer_factory.hpp:78] Creating layer inception_5a/relu_3x3_reduce
I0313 00:15:12.516183 28832 net.cpp:68] Creating Layer inception_5a/relu_3x3_reduce
I0313 00:15:12.516196 28832 net.cpp:395] inception_5a/relu_3x3_reduce <- inception_5a/3x3_reduce/bn
I0313 00:15:12.516208 28832 net.cpp:346] inception_5a/relu_3x3_reduce -> inception_5a/3x3_reduce/bn (in-place)
I0313 00:15:12.516223 28832 net.cpp:97] Setting up inception_5a/relu_3x3_reduce
I0313 00:15:12.516237 28832 net.cpp:104] Top shape: 32 160 2 2 (20480)
I0313 00:15:12.516249 28832 layer_factory.hpp:78] Creating layer inception_5a/3x3
I0313 00:15:12.516264 28832 net.cpp:68] Creating Layer inception_5a/3x3
I0313 00:15:12.516275 28832 net.cpp:395] inception_5a/3x3 <- inception_5a/3x3_reduce/bn
I0313 00:15:12.516293 28832 net.cpp:357] inception_5a/3x3 -> inception_5a/3x3
I0313 00:15:12.516309 28832 net.cpp:97] Setting up inception_5a/3x3
I0313 00:15:12.521659 28832 net.cpp:104] Top shape: 32 320 2 2 (40960)
I0313 00:15:12.521689 28832 layer_factory.hpp:78] Creating layer inception_5a/3x3/bn
I0313 00:15:12.521708 28832 net.cpp:68] Creating Layer inception_5a/3x3/bn
I0313 00:15:12.521723 28832 net.cpp:395] inception_5a/3x3/bn <- inception_5a/3x3
I0313 00:15:12.521736 28832 net.cpp:357] inception_5a/3x3/bn -> inception_5a/3x3/bn
I0313 00:15:12.521754 28832 net.cpp:97] Setting up inception_5a/3x3/bn
I0313 00:15:12.521775 28832 net.cpp:104] Top shape: 32 320 2 2 (40960)
I0313 00:15:12.521791 28832 layer_factory.hpp:78] Creating layer inception_5a/relu_3x3
I0313 00:15:12.521806 28832 net.cpp:68] Creating Layer inception_5a/relu_3x3
I0313 00:15:12.521818 28832 net.cpp:395] inception_5a/relu_3x3 <- inception_5a/3x3/bn
I0313 00:15:12.521831 28832 net.cpp:346] inception_5a/relu_3x3 -> inception_5a/3x3/bn (in-place)
I0313 00:15:12.521847 28832 net.cpp:97] Setting up inception_5a/relu_3x3
I0313 00:15:12.521862 28832 net.cpp:104] Top shape: 32 320 2 2 (40960)
I0313 00:15:12.521873 28832 layer_factory.hpp:78] Creating layer inception_5a/5x5_reduce
I0313 00:15:12.521890 28832 net.cpp:68] Creating Layer inception_5a/5x5_reduce
I0313 00:15:12.521903 28832 net.cpp:395] inception_5a/5x5_reduce <- pool4/3x3_s2_pool4/3x3_s2_0_split_2
I0313 00:15:12.521920 28832 net.cpp:357] inception_5a/5x5_reduce -> inception_5a/5x5_reduce
I0313 00:15:12.521935 28832 net.cpp:97] Setting up inception_5a/5x5_reduce
I0313 00:15:12.522300 28832 net.cpp:104] Top shape: 32 32 2 2 (4096)
I0313 00:15:12.522326 28832 layer_factory.hpp:78] Creating layer inception_5a/5x5_reduce/bn
I0313 00:15:12.522342 28832 net.cpp:68] Creating Layer inception_5a/5x5_reduce/bn
I0313 00:15:12.522356 28832 net.cpp:395] inception_5a/5x5_reduce/bn <- inception_5a/5x5_reduce
I0313 00:15:12.522373 28832 net.cpp:357] inception_5a/5x5_reduce/bn -> inception_5a/5x5_reduce/bn
I0313 00:15:12.522413 28832 net.cpp:97] Setting up inception_5a/5x5_reduce/bn
I0313 00:15:12.522441 28832 net.cpp:104] Top shape: 32 32 2 2 (4096)
I0313 00:15:12.522457 28832 layer_factory.hpp:78] Creating layer inception_5a/relu_5x5_reduce
I0313 00:15:12.522471 28832 net.cpp:68] Creating Layer inception_5a/relu_5x5_reduce
I0313 00:15:12.522483 28832 net.cpp:395] inception_5a/relu_5x5_reduce <- inception_5a/5x5_reduce/bn
I0313 00:15:12.522497 28832 net.cpp:346] inception_5a/relu_5x5_reduce -> inception_5a/5x5_reduce/bn (in-place)
I0313 00:15:12.522511 28832 net.cpp:97] Setting up inception_5a/relu_5x5_reduce
I0313 00:15:12.522527 28832 net.cpp:104] Top shape: 32 32 2 2 (4096)
I0313 00:15:12.522539 28832 layer_factory.hpp:78] Creating layer inception_5a/5x5
I0313 00:15:12.522557 28832 net.cpp:68] Creating Layer inception_5a/5x5
I0313 00:15:12.522572 28832 net.cpp:395] inception_5a/5x5 <- inception_5a/5x5_reduce/bn
I0313 00:15:12.522588 28832 net.cpp:357] inception_5a/5x5 -> inception_5a/5x5
I0313 00:15:12.522605 28832 net.cpp:97] Setting up inception_5a/5x5
I0313 00:15:12.523805 28832 net.cpp:104] Top shape: 32 128 2 2 (16384)
I0313 00:15:12.523830 28832 layer_factory.hpp:78] Creating layer inception_5a/5x5/bn
I0313 00:15:12.523846 28832 net.cpp:68] Creating Layer inception_5a/5x5/bn
I0313 00:15:12.523859 28832 net.cpp:395] inception_5a/5x5/bn <- inception_5a/5x5
I0313 00:15:12.523876 28832 net.cpp:357] inception_5a/5x5/bn -> inception_5a/5x5/bn
I0313 00:15:12.523892 28832 net.cpp:97] Setting up inception_5a/5x5/bn
I0313 00:15:12.523913 28832 net.cpp:104] Top shape: 32 128 2 2 (16384)
I0313 00:15:12.523927 28832 layer_factory.hpp:78] Creating layer inception_5a/relu_5x5
I0313 00:15:12.523941 28832 net.cpp:68] Creating Layer inception_5a/relu_5x5
I0313 00:15:12.523953 28832 net.cpp:395] inception_5a/relu_5x5 <- inception_5a/5x5/bn
I0313 00:15:12.523968 28832 net.cpp:346] inception_5a/relu_5x5 -> inception_5a/5x5/bn (in-place)
I0313 00:15:12.523983 28832 net.cpp:97] Setting up inception_5a/relu_5x5
I0313 00:15:12.523999 28832 net.cpp:104] Top shape: 32 128 2 2 (16384)
I0313 00:15:12.524011 28832 layer_factory.hpp:78] Creating layer inception_5a/pool
I0313 00:15:12.524024 28832 layer_factory.cpp:51] CUDNN does not support padding or multiple tops. Using Caffe's own pooling layer.
I0313 00:15:12.524037 28832 net.cpp:68] Creating Layer inception_5a/pool
I0313 00:15:12.524050 28832 net.cpp:395] inception_5a/pool <- pool4/3x3_s2_pool4/3x3_s2_0_split_3
I0313 00:15:12.524067 28832 net.cpp:357] inception_5a/pool -> inception_5a/pool
I0313 00:15:12.524082 28832 net.cpp:97] Setting up inception_5a/pool
I0313 00:15:12.524097 28832 net.cpp:104] Top shape: 32 832 2 2 (106496)
I0313 00:15:12.524108 28832 layer_factory.hpp:78] Creating layer inception_5a/pool_proj
I0313 00:15:12.524122 28832 net.cpp:68] Creating Layer inception_5a/pool_proj
I0313 00:15:12.524135 28832 net.cpp:395] inception_5a/pool_proj <- inception_5a/pool
I0313 00:15:12.524152 28832 net.cpp:357] inception_5a/pool_proj -> inception_5a/pool_proj
I0313 00:15:12.524168 28832 net.cpp:97] Setting up inception_5a/pool_proj
I0313 00:15:12.525333 28832 net.cpp:104] Top shape: 32 128 2 2 (16384)
I0313 00:15:12.525356 28832 layer_factory.hpp:78] Creating layer inception_5a/pool_proj/bn
I0313 00:15:12.525374 28832 net.cpp:68] Creating Layer inception_5a/pool_proj/bn
I0313 00:15:12.525388 28832 net.cpp:395] inception_5a/pool_proj/bn <- inception_5a/pool_proj
I0313 00:15:12.525403 28832 net.cpp:357] inception_5a/pool_proj/bn -> inception_5a/pool_proj/bn
I0313 00:15:12.536829 28832 net.cpp:97] Setting up inception_5a/pool_proj/bn
I0313 00:15:12.536880 28832 net.cpp:104] Top shape: 32 128 2 2 (16384)
I0313 00:15:12.536921 28832 layer_factory.hpp:78] Creating layer inception_5a/relu_pool_proj
I0313 00:15:12.536952 28832 net.cpp:68] Creating Layer inception_5a/relu_pool_proj
I0313 00:15:12.536978 28832 net.cpp:395] inception_5a/relu_pool_proj <- inception_5a/pool_proj/bn
I0313 00:15:12.537009 28832 net.cpp:346] inception_5a/relu_pool_proj -> inception_5a/pool_proj/bn (in-place)
I0313 00:15:12.537089 28832 net.cpp:97] Setting up inception_5a/relu_pool_proj
I0313 00:15:12.537127 28832 net.cpp:104] Top shape: 32 128 2 2 (16384)
I0313 00:15:12.537153 28832 layer_factory.hpp:78] Creating layer inception_5a/output
I0313 00:15:12.537181 28832 net.cpp:68] Creating Layer inception_5a/output
I0313 00:15:12.537204 28832 net.cpp:395] inception_5a/output <- inception_5a/1x1/bn
I0313 00:15:12.537231 28832 net.cpp:395] inception_5a/output <- inception_5a/3x3/bn
I0313 00:15:12.537258 28832 net.cpp:395] inception_5a/output <- inception_5a/5x5/bn
I0313 00:15:12.537284 28832 net.cpp:395] inception_5a/output <- inception_5a/pool_proj/bn
I0313 00:15:12.537312 28832 net.cpp:357] inception_5a/output -> inception_5a/output
I0313 00:15:12.537343 28832 net.cpp:97] Setting up inception_5a/output
I0313 00:15:12.537369 28832 net.cpp:104] Top shape: 32 832 2 2 (106496)
I0313 00:15:12.537391 28832 layer_factory.hpp:78] Creating layer inception_5a/output_inception_5a/output_0_split
I0313 00:15:12.537425 28832 net.cpp:68] Creating Layer inception_5a/output_inception_5a/output_0_split
I0313 00:15:12.537449 28832 net.cpp:395] inception_5a/output_inception_5a/output_0_split <- inception_5a/output
I0313 00:15:12.537478 28832 net.cpp:357] inception_5a/output_inception_5a/output_0_split -> inception_5a/output_inception_5a/output_0_split_0
I0313 00:15:12.537510 28832 net.cpp:357] inception_5a/output_inception_5a/output_0_split -> inception_5a/output_inception_5a/output_0_split_1
I0313 00:15:12.537542 28832 net.cpp:357] inception_5a/output_inception_5a/output_0_split -> inception_5a/output_inception_5a/output_0_split_2
I0313 00:15:12.537575 28832 net.cpp:357] inception_5a/output_inception_5a/output_0_split -> inception_5a/output_inception_5a/output_0_split_3
I0313 00:15:12.537605 28832 net.cpp:97] Setting up inception_5a/output_inception_5a/output_0_split
I0313 00:15:12.537631 28832 net.cpp:104] Top shape: 32 832 2 2 (106496)
I0313 00:15:12.537653 28832 net.cpp:104] Top shape: 32 832 2 2 (106496)
I0313 00:15:12.537675 28832 net.cpp:104] Top shape: 32 832 2 2 (106496)
I0313 00:15:12.537696 28832 net.cpp:104] Top shape: 32 832 2 2 (106496)
I0313 00:15:12.537717 28832 layer_factory.hpp:78] Creating layer inception_5b/1x1
I0313 00:15:12.537750 28832 net.cpp:68] Creating Layer inception_5b/1x1
I0313 00:15:12.537776 28832 net.cpp:395] inception_5b/1x1 <- inception_5a/output_inception_5a/output_0_split_0
I0313 00:15:12.537811 28832 net.cpp:357] inception_5b/1x1 -> inception_5b/1x1
I0313 00:15:12.537842 28832 net.cpp:97] Setting up inception_5b/1x1
I0313 00:15:12.544917 28832 net.cpp:104] Top shape: 32 384 2 2 (49152)
I0313 00:15:12.544970 28832 layer_factory.hpp:78] Creating layer inception_5b/1x1/bn
I0313 00:15:12.545007 28832 net.cpp:68] Creating Layer inception_5b/1x1/bn
I0313 00:15:12.545035 28832 net.cpp:395] inception_5b/1x1/bn <- inception_5b/1x1
I0313 00:15:12.545070 28832 net.cpp:357] inception_5b/1x1/bn -> inception_5b/1x1/bn
I0313 00:15:12.545104 28832 net.cpp:97] Setting up inception_5b/1x1/bn
I0313 00:15:12.545145 28832 net.cpp:104] Top shape: 32 384 2 2 (49152)
I0313 00:15:12.545176 28832 layer_factory.hpp:78] Creating layer inception_5b/relu_1x1
I0313 00:15:12.545207 28832 net.cpp:68] Creating Layer inception_5b/relu_1x1
I0313 00:15:12.545231 28832 net.cpp:395] inception_5b/relu_1x1 <- inception_5b/1x1/bn
I0313 00:15:12.545258 28832 net.cpp:346] inception_5b/relu_1x1 -> inception_5b/1x1/bn (in-place)
I0313 00:15:12.545285 28832 net.cpp:97] Setting up inception_5b/relu_1x1
I0313 00:15:12.545315 28832 net.cpp:104] Top shape: 32 384 2 2 (49152)
I0313 00:15:12.545338 28832 layer_factory.hpp:78] Creating layer inception_5b/3x3_reduce
I0313 00:15:12.555840 28832 net.cpp:68] Creating Layer inception_5b/3x3_reduce
I0313 00:15:12.555886 28832 net.cpp:395] inception_5b/3x3_reduce <- inception_5a/output_inception_5a/output_0_split_1
I0313 00:15:12.555922 28832 net.cpp:357] inception_5b/3x3_reduce -> inception_5b/3x3_reduce
I0313 00:15:12.555958 28832 net.cpp:97] Setting up inception_5b/3x3_reduce
I0313 00:15:12.559654 28832 net.cpp:104] Top shape: 32 192 2 2 (24576)
I0313 00:15:12.559710 28832 layer_factory.hpp:78] Creating layer inception_5b/3x3_reduce/bn
I0313 00:15:12.559749 28832 net.cpp:68] Creating Layer inception_5b/3x3_reduce/bn
I0313 00:15:12.559777 28832 net.cpp:395] inception_5b/3x3_reduce/bn <- inception_5b/3x3_reduce
I0313 00:15:12.559808 28832 net.cpp:357] inception_5b/3x3_reduce/bn -> inception_5b/3x3_reduce/bn
I0313 00:15:12.559841 28832 net.cpp:97] Setting up inception_5b/3x3_reduce/bn
I0313 00:15:12.559885 28832 net.cpp:104] Top shape: 32 192 2 2 (24576)
I0313 00:15:12.559916 28832 layer_factory.hpp:78] Creating layer inception_5b/relu_3x3_reduce
I0313 00:15:12.559943 28832 net.cpp:68] Creating Layer inception_5b/relu_3x3_reduce
I0313 00:15:12.559967 28832 net.cpp:395] inception_5b/relu_3x3_reduce <- inception_5b/3x3_reduce/bn
I0313 00:15:12.559993 28832 net.cpp:346] inception_5b/relu_3x3_reduce -> inception_5b/3x3_reduce/bn (in-place)
I0313 00:15:12.560022 28832 net.cpp:97] Setting up inception_5b/relu_3x3_reduce
I0313 00:15:12.560053 28832 net.cpp:104] Top shape: 32 192 2 2 (24576)
I0313 00:15:12.560077 28832 layer_factory.hpp:78] Creating layer inception_5b/3x3
I0313 00:15:12.560111 28832 net.cpp:68] Creating Layer inception_5b/3x3
I0313 00:15:12.560134 28832 net.cpp:395] inception_5b/3x3 <- inception_5b/3x3_reduce/bn
I0313 00:15:12.560169 28832 net.cpp:357] inception_5b/3x3 -> inception_5b/3x3
I0313 00:15:12.560202 28832 net.cpp:97] Setting up inception_5b/3x3
I0313 00:15:12.567348 28832 net.cpp:104] Top shape: 32 384 2 2 (49152)
I0313 00:15:12.567378 28832 layer_factory.hpp:78] Creating layer inception_5b/3x3/bn
I0313 00:15:12.567399 28832 net.cpp:68] Creating Layer inception_5b/3x3/bn
I0313 00:15:12.567412 28832 net.cpp:395] inception_5b/3x3/bn <- inception_5b/3x3
I0313 00:15:12.567435 28832 net.cpp:357] inception_5b/3x3/bn -> inception_5b/3x3/bn
I0313 00:15:12.567451 28832 net.cpp:97] Setting up inception_5b/3x3/bn
I0313 00:15:12.567474 28832 net.cpp:104] Top shape: 32 384 2 2 (49152)
I0313 00:15:12.567491 28832 layer_factory.hpp:78] Creating layer inception_5b/relu_3x3
I0313 00:15:12.567504 28832 net.cpp:68] Creating Layer inception_5b/relu_3x3
I0313 00:15:12.567517 28832 net.cpp:395] inception_5b/relu_3x3 <- inception_5b/3x3/bn
I0313 00:15:12.567533 28832 net.cpp:346] inception_5b/relu_3x3 -> inception_5b/3x3/bn (in-place)
I0313 00:15:12.567548 28832 net.cpp:97] Setting up inception_5b/relu_3x3
I0313 00:15:12.567564 28832 net.cpp:104] Top shape: 32 384 2 2 (49152)
I0313 00:15:12.567575 28832 layer_factory.hpp:78] Creating layer inception_5b/5x5_reduce
I0313 00:15:12.567591 28832 net.cpp:68] Creating Layer inception_5b/5x5_reduce
I0313 00:15:12.567605 28832 net.cpp:395] inception_5b/5x5_reduce <- inception_5a/output_inception_5a/output_0_split_2
I0313 00:15:12.567620 28832 net.cpp:357] inception_5b/5x5_reduce -> inception_5b/5x5_reduce
I0313 00:15:12.567636 28832 net.cpp:97] Setting up inception_5b/5x5_reduce
I0313 00:15:12.568116 28832 net.cpp:104] Top shape: 32 48 2 2 (6144)
I0313 00:15:12.568138 28832 layer_factory.hpp:78] Creating layer inception_5b/5x5_reduce/bn
I0313 00:15:12.568157 28832 net.cpp:68] Creating Layer inception_5b/5x5_reduce/bn
I0313 00:15:12.568171 28832 net.cpp:395] inception_5b/5x5_reduce/bn <- inception_5b/5x5_reduce
I0313 00:15:12.568187 28832 net.cpp:357] inception_5b/5x5_reduce/bn -> inception_5b/5x5_reduce/bn
I0313 00:15:12.568203 28832 net.cpp:97] Setting up inception_5b/5x5_reduce/bn
I0313 00:15:12.568224 28832 net.cpp:104] Top shape: 32 48 2 2 (6144)
I0313 00:15:12.568239 28832 layer_factory.hpp:78] Creating layer inception_5b/relu_5x5_reduce
I0313 00:15:12.597949 28832 net.cpp:68] Creating Layer inception_5b/relu_5x5_reduce
I0313 00:15:12.597978 28832 net.cpp:395] inception_5b/relu_5x5_reduce <- inception_5b/5x5_reduce/bn
I0313 00:15:12.598016 28832 net.cpp:346] inception_5b/relu_5x5_reduce -> inception_5b/5x5_reduce/bn (in-place)
I0313 00:15:12.598062 28832 net.cpp:97] Setting up inception_5b/relu_5x5_reduce
I0313 00:15:12.598100 28832 net.cpp:104] Top shape: 32 48 2 2 (6144)
I0313 00:15:12.598191 28832 layer_factory.hpp:78] Creating layer inception_5b/5x5
I0313 00:15:12.598225 28832 net.cpp:68] Creating Layer inception_5b/5x5
I0313 00:15:12.598250 28832 net.cpp:395] inception_5b/5x5 <- inception_5b/5x5_reduce/bn
I0313 00:15:12.598280 28832 net.cpp:357] inception_5b/5x5 -> inception_5b/5x5
I0313 00:15:12.598314 28832 net.cpp:97] Setting up inception_5b/5x5
I0313 00:15:12.601577 28832 net.cpp:104] Top shape: 32 128 2 2 (16384)
I0313 00:15:12.601625 28832 layer_factory.hpp:78] Creating layer inception_5b/5x5/bn
I0313 00:15:12.601662 28832 net.cpp:68] Creating Layer inception_5b/5x5/bn
I0313 00:15:12.601690 28832 net.cpp:395] inception_5b/5x5/bn <- inception_5b/5x5
I0313 00:15:12.601723 28832 net.cpp:357] inception_5b/5x5/bn -> inception_5b/5x5/bn
I0313 00:15:12.601757 28832 net.cpp:97] Setting up inception_5b/5x5/bn
I0313 00:15:12.601797 28832 net.cpp:104] Top shape: 32 128 2 2 (16384)
I0313 00:15:12.601829 28832 layer_factory.hpp:78] Creating layer inception_5b/relu_5x5
I0313 00:15:12.601856 28832 net.cpp:68] Creating Layer inception_5b/relu_5x5
I0313 00:15:12.601884 28832 net.cpp:395] inception_5b/relu_5x5 <- inception_5b/5x5/bn
I0313 00:15:12.601912 28832 net.cpp:346] inception_5b/relu_5x5 -> inception_5b/5x5/bn (in-place)
I0313 00:15:12.601939 28832 net.cpp:97] Setting up inception_5b/relu_5x5
I0313 00:15:12.601969 28832 net.cpp:104] Top shape: 32 128 2 2 (16384)
I0313 00:15:12.601992 28832 layer_factory.hpp:78] Creating layer inception_5b/pool
I0313 00:15:12.602016 28832 layer_factory.cpp:51] CUDNN does not support padding or multiple tops. Using Caffe's own pooling layer.
I0313 00:15:12.602043 28832 net.cpp:68] Creating Layer inception_5b/pool
I0313 00:15:12.602067 28832 net.cpp:395] inception_5b/pool <- inception_5a/output_inception_5a/output_0_split_3
I0313 00:15:12.602095 28832 net.cpp:357] inception_5b/pool -> inception_5b/pool
I0313 00:15:12.602126 28832 net.cpp:97] Setting up inception_5b/pool
I0313 00:15:12.602154 28832 net.cpp:104] Top shape: 32 832 2 2 (106496)
I0313 00:15:12.602177 28832 layer_factory.hpp:78] Creating layer inception_5b/pool_proj
I0313 00:15:12.602210 28832 net.cpp:68] Creating Layer inception_5b/pool_proj
I0313 00:15:12.602234 28832 net.cpp:395] inception_5b/pool_proj <- inception_5b/pool
I0313 00:15:12.602269 28832 net.cpp:357] inception_5b/pool_proj -> inception_5b/pool_proj
I0313 00:15:12.602301 28832 net.cpp:97] Setting up inception_5b/pool_proj
I0313 00:15:12.604737 28832 net.cpp:104] Top shape: 32 128 2 2 (16384)
I0313 00:15:12.604781 28832 layer_factory.hpp:78] Creating layer inception_5b/pool_proj/bn
I0313 00:15:12.604815 28832 net.cpp:68] Creating Layer inception_5b/pool_proj/bn
I0313 00:15:12.604841 28832 net.cpp:395] inception_5b/pool_proj/bn <- inception_5b/pool_proj
I0313 00:15:12.604884 28832 net.cpp:357] inception_5b/pool_proj/bn -> inception_5b/pool_proj/bn
I0313 00:15:12.604924 28832 net.cpp:97] Setting up inception_5b/pool_proj/bn
I0313 00:15:12.604965 28832 net.cpp:104] Top shape: 32 128 2 2 (16384)
I0313 00:15:12.604996 28832 layer_factory.hpp:78] Creating layer inception_5b/relu_pool_proj
I0313 00:15:12.605023 28832 net.cpp:68] Creating Layer inception_5b/relu_pool_proj
I0313 00:15:12.605046 28832 net.cpp:395] inception_5b/relu_pool_proj <- inception_5b/pool_proj/bn
I0313 00:15:12.605077 28832 net.cpp:346] inception_5b/relu_pool_proj -> inception_5b/pool_proj/bn (in-place)
I0313 00:15:12.605108 28832 net.cpp:97] Setting up inception_5b/relu_pool_proj
I0313 00:15:12.605139 28832 net.cpp:104] Top shape: 32 128 2 2 (16384)
I0313 00:15:12.605162 28832 layer_factory.hpp:78] Creating layer inception_5b/output
I0313 00:15:12.605188 28832 net.cpp:68] Creating Layer inception_5b/output
I0313 00:15:12.605211 28832 net.cpp:395] inception_5b/output <- inception_5b/1x1/bn
I0313 00:15:12.605237 28832 net.cpp:395] inception_5b/output <- inception_5b/3x3/bn
I0313 00:15:12.605263 28832 net.cpp:395] inception_5b/output <- inception_5b/5x5/bn
I0313 00:15:12.605288 28832 net.cpp:395] inception_5b/output <- inception_5b/pool_proj/bn
I0313 00:15:12.605355 28832 net.cpp:357] inception_5b/output -> inception_5b/output
I0313 00:15:12.605387 28832 net.cpp:97] Setting up inception_5b/output
I0313 00:15:12.605414 28832 net.cpp:104] Top shape: 32 1024 2 2 (131072)
I0313 00:15:12.605437 28832 layer_factory.hpp:78] Creating layer pool5/7x7_s1
I0313 00:15:12.605469 28832 net.cpp:68] Creating Layer pool5/7x7_s1
I0313 00:15:12.605494 28832 net.cpp:395] pool5/7x7_s1 <- inception_5b/output
I0313 00:15:12.605521 28832 net.cpp:357] pool5/7x7_s1 -> pool5/7x7_s1
I0313 00:15:12.605551 28832 net.cpp:97] Setting up pool5/7x7_s1
I0313 00:15:12.605583 28832 net.cpp:104] Top shape: 32 1024 1 1 (32768)
I0313 00:15:12.605608 28832 layer_factory.hpp:78] Creating layer pool5/drop_7x7_s1
I0313 00:15:12.605635 28832 net.cpp:68] Creating Layer pool5/drop_7x7_s1
I0313 00:15:12.605659 28832 net.cpp:395] pool5/drop_7x7_s1 <- pool5/7x7_s1
I0313 00:15:12.605695 28832 net.cpp:346] pool5/drop_7x7_s1 -> pool5/7x7_s1 (in-place)
I0313 00:15:12.605725 28832 net.cpp:97] Setting up pool5/drop_7x7_s1
I0313 00:15:12.605751 28832 net.cpp:104] Top shape: 32 1024 1 1 (32768)
I0313 00:15:12.605773 28832 layer_factory.hpp:78] Creating layer loss3/classifier
I0313 00:15:12.605803 28832 net.cpp:68] Creating Layer loss3/classifier
I0313 00:15:12.605825 28832 net.cpp:395] loss3/classifier <- pool5/7x7_s1
I0313 00:15:12.605859 28832 net.cpp:357] loss3/classifier -> loss3/classifier
I0313 00:15:12.605890 28832 net.cpp:97] Setting up loss3/classifier
I0313 00:15:12.608564 28832 net.cpp:104] Top shape: 32 121 1 1 (3872)
I0313 00:15:12.608608 28832 layer_factory.hpp:78] Creating layer loss3/classifier_loss3/classifier_0_split
I0313 00:15:12.608640 28832 net.cpp:68] Creating Layer loss3/classifier_loss3/classifier_0_split
I0313 00:15:12.608665 28832 net.cpp:395] loss3/classifier_loss3/classifier_0_split <- loss3/classifier
I0313 00:15:12.608692 28832 net.cpp:357] loss3/classifier_loss3/classifier_0_split -> loss3/classifier_loss3/classifier_0_split_0
I0313 00:15:12.608724 28832 net.cpp:357] loss3/classifier_loss3/classifier_0_split -> loss3/classifier_loss3/classifier_0_split_1
I0313 00:15:12.608754 28832 net.cpp:97] Setting up loss3/classifier_loss3/classifier_0_split
I0313 00:15:12.608780 28832 net.cpp:104] Top shape: 32 121 1 1 (3872)
I0313 00:15:12.608803 28832 net.cpp:104] Top shape: 32 121 1 1 (3872)
I0313 00:15:12.608825 28832 layer_factory.hpp:78] Creating layer loss3/loss
I0313 00:15:12.608850 28832 net.cpp:68] Creating Layer loss3/loss
I0313 00:15:12.608896 28832 net.cpp:395] loss3/loss <- loss3/classifier_loss3/classifier_0_split_0
I0313 00:15:12.608932 28832 net.cpp:395] loss3/loss <- label_data_1_split_4
I0313 00:15:12.608949 28832 net.cpp:357] loss3/loss -> loss3/loss
I0313 00:15:12.608964 28832 net.cpp:97] Setting up loss3/loss
I0313 00:15:12.608978 28832 layer_factory.hpp:78] Creating layer loss3/loss
I0313 00:15:12.609019 28832 net.cpp:104] Top shape: 1 1 1 1 (1)
I0313 00:15:12.609033 28832 net.cpp:110]     with loss weight 1
I0313 00:15:12.609056 28832 layer_factory.hpp:78] Creating layer loss3/top-1
I0313 00:15:12.609074 28832 net.cpp:68] Creating Layer loss3/top-1
I0313 00:15:12.609087 28832 net.cpp:395] loss3/top-1 <- loss3/classifier_loss3/classifier_0_split_1
I0313 00:15:12.609102 28832 net.cpp:395] loss3/top-1 <- label_data_1_split_5
I0313 00:15:12.609115 28832 net.cpp:357] loss3/top-1 -> loss3/top-1
I0313 00:15:12.609132 28832 net.cpp:97] Setting up loss3/top-1
I0313 00:15:12.609144 28832 net.cpp:104] Top shape: 1 1 1 1 (1)
I0313 00:15:12.609156 28832 net.cpp:173] loss3/top-1 does not need backward computation.
I0313 00:15:12.609166 28832 net.cpp:171] loss3/loss needs backward computation.
I0313 00:15:12.609179 28832 net.cpp:171] loss3/classifier_loss3/classifier_0_split needs backward computation.
I0313 00:15:12.609189 28832 net.cpp:171] loss3/classifier needs backward computation.
I0313 00:15:12.609200 28832 net.cpp:171] pool5/drop_7x7_s1 needs backward computation.
…
