…
I0228 13:52:46.921648 30032 net.cpp:276] The NetState phase (0) differed from the phase (1) specified by a rule in layer accuracy
I0228 13:52:46.921846 30032 net.cpp:39] Initializing net from parameters: 
name: "model1_part1"
layers {
  top: "data"
  top: "label"
  name: "data"
  type: DATA
  data_param {
    source: "/home/jaehyun/kaggle/nationalDataScienceBowl/data/typeD/train_lmdb"
    batch_size: 256
    backend: LMDB
    shuffle: true
  }
  include {
    phase: TRAIN
  }
  transform_param {
    mirror: true
    mean_file: "/home/jaehyun/kaggle/nationalDataScienceBowl/data/typeD/train_mean.binaryproto"
  }
}
layers {
  bottom: "data"
  top: "conv1"
  name: "conv1"
  type: CONVOLUTION
  blobs_lr: 1
  blobs_lr: 2
  weight_decay: 1
  weight_decay: 0
  convolution_param {
    num_output: 256
    kernel_size: 4
    stride: 2
    weight_filler {
      type: "gaussian"
      std: 0.01
    }
    bias_filler {
      type: "constant"
      value: 0
    }
  }
}
layers {
  bottom: "conv1"
  top: "conv1"
  name: "relu1"
  type: RELU
  relu_param {
    negative_slope: 0.1
  }
}
layers {
  bottom: "conv1"
  top: "cccp1"
  name: "cccp1"
  type: CONVOLUTION
  blobs_lr: 1
  blobs_lr: 2
  weight_decay: 1
  weight_decay: 0
  convolution_param {
    num_output: 256
    kernel_size: 1
    group: 1
    stride: 1
    weight_filler {
      type: "gaussian"
      std: 0.01
    }
    bias_filler {
      type: "constant"
      value: 0
    }
  }
}
layers {
  bottom: "cccp1"
  top: "cccp1"
  name: "relu_cccp1"
  type: RELU
  relu_param {
    negative_slope: 0.1
  }
}
layers {
  bottom: "cccp1"
  top: "pool1"
  name: "pool1"
  type: POOLING
  pooling_param {
    pool: MAX
    kernel_size: 3
    stride: 2
  }
}
layers {
  bottom: "pool1"
  top: "conv2"
  name: "conv2"
  type: CONVOLUTION
  blobs_lr: 1
  blobs_lr: 2
  weight_decay: 1
  weight_decay: 0
  convolution_param {
    num_output: 128
    kernel_size: 3
    weight_filler {
      type: "gaussian"
      std: 0.01
    }
    bias_filler {
      type: "constant"
      value: 1
    }
  }
}
layers {
  bottom: "conv2"
  top: "conv2"
  name: "relu2"
  type: RELU
  relu_param {
    negative_slope: 0.1
  }
}
layers {
  bottom: "conv2"
  top: "conv3"
  name: "conv3"
  type: CONVOLUTION
  blobs_lr: 1
  blobs_lr: 2
  weight_decay: 1
  weight_decay: 0
  convolution_param {
    num_output: 128
    kernel_size: 3
    weight_filler {
      type: "gaussian"
      std: 0.01
    }
    bias_filler {
      type: "constant"
      value: 0
    }
  }
}
layers {
  bottom: "conv3"
  top: "conv3"
  name: "relu3"
  type: RELU
  relu_param {
    negative_slope: 0.1
  }
}
layers {
  bottom: "conv3"
  top: "pool3"
  name: "pool3"
  type: POOLING
  pooling_param {
    pool: MAX
    kernel_size: 3
    stride: 2
  }
}
layers {
  bottom: "pool3"
  top: "fc4"
  name: "fc4"
  type: INNER_PRODUCT
  blobs_lr: 1
  blobs_lr: 2
  weight_decay: 1
  weight_decay: 0
  inner_product_param {
    num_output: 512
    weight_filler {
      type: "gaussian"
      std: 0.005
    }
    bias_filler {
      type: "constant"
      value: 1
    }
  }
}
layers {
  bottom: "fc4"
  top: "fc4"
  name: "relu4"
  type: RELU
  relu_param {
    negative_slope: 0.1
  }
}
layers {
  bottom: "fc4"
  top: "fc4"
  name: "drop4"
  type: DROPOUT
  dropout_param {
    dropout_ratio: 0.5
  }
}
layers {
  bottom: "fc4"
  top: "fc5"
  name: "fc5"
  type: INNER_PRODUCT
  blobs_lr: 1
  blobs_lr: 2
  weight_decay: 1
  weight_decay: 0
  inner_product_param {
    num_output: 512
    weight_filler {
      type: "gaussian"
      std: 0.005
    }
    bias_filler {
      type: "constant"
      value: 1
    }
  }
}
layers {
  bottom: "fc5"
  top: "fc5"
  name: "relu5"
  type: RELU
  relu_param {
    negative_slope: 0.1
  }
}
layers {
  bottom: "fc5"
  top: "fc5"
  name: "drop5"
  type: DROPOUT
  dropout_param {
    dropout_ratio: 0.5
  }
}
layers {
  bottom: "fc5"
  top: "fc6"
  name: "fc6"
  type: INNER_PRODUCT
  blobs_lr: 1
  blobs_lr: 2
  weight_decay: 1
  weight_decay: 0
  inner_product_param {
    num_output: 121
    weight_filler {
      type: "gaussian"
      std: 0.01
    }
    bias_filler {
      type: "constant"
      value: 0
    }
  }
}
layers {
  bottom: "fc6"
  bottom: "label"
  top: "loss"
  name: "loss"
  type: SOFTMAX_LOSS
}
state {
  phase: TRAIN
}
I0228 13:52:46.922847 30032 layer_factory.hpp:78] Creating layer data
I0228 13:52:46.922878 30032 data_transformer.cpp:24] Loading mean file from/home/jaehyun/kaggle/nationalDataScienceBowl/data/typeD/train_mean.binaryproto
I0228 13:52:46.922983 30032 net.cpp:68] Creating Layer data
I0228 13:52:46.923007 30032 net.cpp:357] data -> data
I0228 13:52:46.923038 30032 net.cpp:357] data -> label
I0228 13:52:46.923063 30032 net.cpp:97] Setting up data
I0228 13:52:46.923084 30032 data_layer.cpp:34] Opening dataset /home/jaehyun/kaggle/nationalDataScienceBowl/data/typeD/train_lmdb
I0228 13:52:46.923183 30032 lmdb_dataset.cpp:73] what the fuck!!
I0228 13:52:46.923259 30032 data_layer.cpp:73] output data size: 256,1,48,48
I0228 13:52:46.924835 30032 net.cpp:104] Top shape: 256 1 48 48 (589824)
I0228 13:52:46.924859 30032 net.cpp:104] Top shape: 256 1 1 1 (256)
I0228 13:52:46.924872 30032 layer_factory.hpp:78] Creating layer conv1
I0228 13:52:46.924901 30032 net.cpp:68] Creating Layer conv1
I0228 13:52:46.924916 30032 net.cpp:395] conv1 <- data
I0228 13:52:46.924942 30032 net.cpp:357] conv1 -> conv1
I0228 13:52:46.924960 30032 net.cpp:97] Setting up conv1
I0228 13:52:46.981122 30032 net.cpp:104] Top shape: 256 256 23 23 (34668544)
I0228 13:52:46.981220 30032 layer_factory.hpp:78] Creating layer relu1
I0228 13:52:46.981246 30032 net.cpp:68] Creating Layer relu1
I0228 13:52:46.981268 30032 net.cpp:395] relu1 <- conv1
I0228 13:52:46.981287 30032 net.cpp:346] relu1 -> conv1 (in-place)
I0228 13:52:46.981307 30032 net.cpp:97] Setting up relu1
I0228 13:52:46.981326 30032 net.cpp:104] Top shape: 256 256 23 23 (34668544)
I0228 13:52:46.981340 30032 layer_factory.hpp:78] Creating layer cccp1
I0228 13:52:46.981359 30032 net.cpp:68] Creating Layer cccp1
I0228 13:52:46.981371 30032 net.cpp:395] cccp1 <- conv1
I0228 13:52:46.981389 30032 net.cpp:357] cccp1 -> cccp1
I0228 13:52:46.981406 30032 net.cpp:97] Setting up cccp1
I0228 13:52:46.984194 30032 net.cpp:104] Top shape: 256 256 23 23 (34668544)
I0228 13:52:46.984225 30032 layer_factory.hpp:78] Creating layer relu_cccp1
I0228 13:52:46.984242 30032 net.cpp:68] Creating Layer relu_cccp1
I0228 13:52:46.984254 30032 net.cpp:395] relu_cccp1 <- cccp1
I0228 13:52:46.984274 30032 net.cpp:346] relu_cccp1 -> cccp1 (in-place)
I0228 13:52:46.984292 30032 net.cpp:97] Setting up relu_cccp1
I0228 13:52:46.984308 30032 net.cpp:104] Top shape: 256 256 23 23 (34668544)
I0228 13:52:46.984321 30032 layer_factory.hpp:78] Creating layer pool1
I0228 13:52:46.984338 30032 net.cpp:68] Creating Layer pool1
I0228 13:52:46.984350 30032 net.cpp:395] pool1 <- cccp1
I0228 13:52:46.984364 30032 net.cpp:357] pool1 -> pool1
I0228 13:52:46.984380 30032 net.cpp:97] Setting up pool1
I0228 13:52:46.984415 30032 net.cpp:104] Top shape: 256 256 11 11 (7929856)
I0228 13:52:46.984429 30032 layer_factory.hpp:78] Creating layer conv2
I0228 13:52:46.984449 30032 net.cpp:68] Creating Layer conv2
I0228 13:52:46.984462 30032 net.cpp:395] conv2 <- pool1
I0228 13:52:46.984479 30032 net.cpp:357] conv2 -> conv2
I0228 13:52:46.984495 30032 net.cpp:97] Setting up conv2
I0228 13:52:46.996704 30032 net.cpp:104] Top shape: 256 128 9 9 (2654208)
I0228 13:52:46.996798 30032 layer_factory.hpp:78] Creating layer relu2
I0228 13:52:46.996816 30032 net.cpp:68] Creating Layer relu2
I0228 13:52:46.996830 30032 net.cpp:395] relu2 <- conv2
I0228 13:52:46.996850 30032 net.cpp:346] relu2 -> conv2 (in-place)
I0228 13:52:46.996867 30032 net.cpp:97] Setting up relu2
I0228 13:52:46.996883 30032 net.cpp:104] Top shape: 256 128 9 9 (2654208)
I0228 13:52:46.996896 30032 layer_factory.hpp:78] Creating layer conv3
I0228 13:52:46.996912 30032 net.cpp:68] Creating Layer conv3
I0228 13:52:46.996924 30032 net.cpp:395] conv3 <- conv2
I0228 13:52:46.996942 30032 net.cpp:357] conv3 -> conv3
I0228 13:52:46.996958 30032 net.cpp:97] Setting up conv3
I0228 13:52:47.003096 30032 net.cpp:104] Top shape: 256 128 7 7 (1605632)
I0228 13:52:47.003124 30032 layer_factory.hpp:78] Creating layer relu3
I0228 13:52:47.003140 30032 net.cpp:68] Creating Layer relu3
I0228 13:52:47.003154 30032 net.cpp:395] relu3 <- conv3
I0228 13:52:47.003171 30032 net.cpp:346] relu3 -> conv3 (in-place)
I0228 13:52:47.003186 30032 net.cpp:97] Setting up relu3
I0228 13:52:47.003202 30032 net.cpp:104] Top shape: 256 128 7 7 (1605632)
I0228 13:52:47.003214 30032 layer_factory.hpp:78] Creating layer pool3
I0228 13:52:47.003229 30032 net.cpp:68] Creating Layer pool3
I0228 13:52:47.003240 30032 net.cpp:395] pool3 <- conv3
I0228 13:52:47.003254 30032 net.cpp:357] pool3 -> pool3
I0228 13:52:47.003269 30032 net.cpp:97] Setting up pool3
I0228 13:52:47.003285 30032 net.cpp:104] Top shape: 256 128 3 3 (294912)
I0228 13:52:47.003298 30032 layer_factory.hpp:78] Creating layer fc4
I0228 13:52:47.003319 30032 net.cpp:68] Creating Layer fc4
I0228 13:52:47.003331 30032 net.cpp:395] fc4 <- pool3
I0228 13:52:47.003346 30032 net.cpp:357] fc4 -> fc4
I0228 13:52:47.003365 30032 net.cpp:97] Setting up fc4
I0228 13:52:47.032048 30032 net.cpp:104] Top shape: 256 512 1 1 (131072)
I0228 13:52:47.032104 30032 layer_factory.hpp:78] Creating layer relu4
I0228 13:52:47.032124 30032 net.cpp:68] Creating Layer relu4
I0228 13:52:47.032136 30032 net.cpp:395] relu4 <- fc4
I0228 13:52:47.032151 30032 net.cpp:346] relu4 -> fc4 (in-place)
I0228 13:52:47.032168 30032 net.cpp:97] Setting up relu4
I0228 13:52:47.032192 30032 net.cpp:104] Top shape: 256 512 1 1 (131072)
I0228 13:52:47.032204 30032 layer_factory.hpp:78] Creating layer drop4
I0228 13:52:47.032223 30032 net.cpp:68] Creating Layer drop4
I0228 13:52:47.032235 30032 net.cpp:395] drop4 <- fc4
I0228 13:52:47.032256 30032 net.cpp:346] drop4 -> fc4 (in-place)
I0228 13:52:47.032271 30032 net.cpp:97] Setting up drop4
I0228 13:52:47.032286 30032 net.cpp:104] Top shape: 256 512 1 1 (131072)
I0228 13:52:47.032299 30032 layer_factory.hpp:78] Creating layer fc5
I0228 13:52:47.032315 30032 net.cpp:68] Creating Layer fc5
I0228 13:52:47.032325 30032 net.cpp:395] fc5 <- fc4
I0228 13:52:47.032342 30032 net.cpp:357] fc5 -> fc5
I0228 13:52:47.032361 30032 net.cpp:97] Setting up fc5
I0228 13:52:47.048591 30032 net.cpp:104] Top shape: 256 512 1 1 (131072)
I0228 13:52:47.048652 30032 layer_factory.hpp:78] Creating layer relu5
I0228 13:52:47.048676 30032 net.cpp:68] Creating Layer relu5
I0228 13:52:47.048697 30032 net.cpp:395] relu5 <- fc5
I0228 13:52:47.048715 30032 net.cpp:346] relu5 -> fc5 (in-place)
I0228 13:52:47.048734 30032 net.cpp:97] Setting up relu5
I0228 13:52:47.048763 30032 net.cpp:104] Top shape: 256 512 1 1 (131072)
I0228 13:52:47.048776 30032 layer_factory.hpp:78] Creating layer drop5
I0228 13:52:47.048796 30032 net.cpp:68] Creating Layer drop5
I0228 13:52:47.048809 30032 net.cpp:395] drop5 <- fc5
I0228 13:52:47.048825 30032 net.cpp:346] drop5 -> fc5 (in-place)
I0228 13:52:47.048840 30032 net.cpp:97] Setting up drop5
I0228 13:52:47.048853 30032 net.cpp:104] Top shape: 256 512 1 1 (131072)
I0228 13:52:47.048864 30032 layer_factory.hpp:78] Creating layer fc6
I0228 13:52:47.048881 30032 net.cpp:68] Creating Layer fc6
I0228 13:52:47.048892 30032 net.cpp:395] fc6 <- fc5
I0228 13:52:47.048909 30032 net.cpp:357] fc6 -> fc6
I0228 13:52:47.048926 30032 net.cpp:97] Setting up fc6
I0228 13:52:47.052000 30032 net.cpp:104] Top shape: 256 121 1 1 (30976)
I0228 13:52:47.052021 30032 layer_factory.hpp:78] Creating layer loss
I0228 13:52:47.052039 30032 net.cpp:68] Creating Layer loss
I0228 13:52:47.052052 30032 net.cpp:395] loss <- fc6
I0228 13:52:47.052074 30032 net.cpp:395] loss <- label
I0228 13:52:47.052089 30032 net.cpp:357] loss -> loss
I0228 13:52:47.052108 30032 net.cpp:97] Setting up loss
I0228 13:52:47.052122 30032 layer_factory.hpp:78] Creating layer loss
I0228 13:52:47.052234 30032 net.cpp:104] Top shape: 1 1 1 1 (1)
I0228 13:52:47.052253 30032 net.cpp:110]     with loss weight 1
I0228 13:52:47.052299 30032 net.cpp:171] loss needs backward computation.
I0228 13:52:47.052311 30032 net.cpp:171] fc6 needs backward computation.
I0228 13:52:47.052321 30032 net.cpp:171] drop5 needs backward computation.
I0228 13:52:47.052332 30032 net.cpp:171] relu5 needs backward computation.
I0228 13:52:47.052343 30032 net.cpp:171] fc5 needs backward computation.
…
I0228 13:52:47.053270 30032 net.cpp:276] The NetState phase (1) differed from the phase (0) specified by a rule in layer data
I0228 13:52:47.053491 30032 net.cpp:39] Initializing net from parameters: 
name: "model1_part1"
layers {
  top: "data"
  top: "label"
  name: "data"
  type: DATA
  data_param {
    source: "/home/jaehyun/kaggle/nationalDataScienceBowl/data/typeD/val_lmdb"
    batch_size: 256
    backend: LMDB
  }
  include {
    phase: TEST
  }
  transform_param {
    mirror: false
    mean_file: "/home/jaehyun/kaggle/nationalDataScienceBowl/data/typeD/train_mean.binaryproto"
  }
}
layers {
  bottom: "data"
  top: "conv1"
  name: "conv1"
  type: CONVOLUTION
  blobs_lr: 1
  blobs_lr: 2
  weight_decay: 1
  weight_decay: 0
  convolution_param {
    num_output: 256
    kernel_size: 4
    stride: 2
    weight_filler {
      type: "gaussian"
      std: 0.01
    }
    bias_filler {
      type: "constant"
      value: 0
    }
  }
}
layers {
  bottom: "conv1"
  top: "conv1"
  name: "relu1"
  type: RELU
  relu_param {
    negative_slope: 0.1
  }
}
layers {
  bottom: "conv1"
  top: "cccp1"
  name: "cccp1"
  type: CONVOLUTION
  blobs_lr: 1
  blobs_lr: 2
  weight_decay: 1
  weight_decay: 0
  convolution_param {
    num_output: 256
    kernel_size: 1
    group: 1
    stride: 1
    weight_filler {
      type: "gaussian"
      std: 0.01
    }
    bias_filler {
      type: "constant"
      value: 0
    }
  }
}
layers {
  bottom: "cccp1"
  top: "cccp1"
  name: "relu_cccp1"
  type: RELU
  relu_param {
    negative_slope: 0.1
  }
}
layers {
  bottom: "cccp1"
  top: "pool1"
  name: "pool1"
  type: POOLING
  pooling_param {
    pool: MAX
    kernel_size: 3
    stride: 2
  }
}
layers {
  bottom: "pool1"
  top: "conv2"
  name: "conv2"
  type: CONVOLUTION
  blobs_lr: 1
  blobs_lr: 2
  weight_decay: 1
  weight_decay: 0
  convolution_param {
    num_output: 128
    kernel_size: 3
    weight_filler {
      type: "gaussian"
      std: 0.01
    }
    bias_filler {
      type: "constant"
      value: 1
    }
  }
}
layers {
  bottom: "conv2"
  top: "conv2"
  name: "relu2"
  type: RELU
  relu_param {
    negative_slope: 0.1
  }
}
layers {
  bottom: "conv2"
  top: "conv3"
  name: "conv3"
  type: CONVOLUTION
  blobs_lr: 1
  blobs_lr: 2
  weight_decay: 1
  weight_decay: 0
  convolution_param {
    num_output: 128
    kernel_size: 3
    weight_filler {
      type: "gaussian"
      std: 0.01
    }
    bias_filler {
      type: "constant"
      value: 0
    }
  }
}
layers {
  bottom: "conv3"
  top: "conv3"
  name: "relu3"
  type: RELU
  relu_param {
    negative_slope: 0.1
  }
}
layers {
  bottom: "conv3"
  top: "pool3"
  name: "pool3"
  type: POOLING
  pooling_param {
    pool: MAX
    kernel_size: 3
    stride: 2
  }
}
layers {
  bottom: "pool3"
  top: "fc4"
  name: "fc4"
  type: INNER_PRODUCT
  blobs_lr: 1
  blobs_lr: 2
  weight_decay: 1
  weight_decay: 0
  inner_product_param {
    num_output: 512
    weight_filler {
      type: "gaussian"
      std: 0.005
    }
    bias_filler {
      type: "constant"
      value: 1
    }
  }
}
layers {
  bottom: "fc4"
  top: "fc4"
  name: "relu4"
  type: RELU
  relu_param {
    negative_slope: 0.1
  }
}
layers {
  bottom: "fc4"
  top: "fc4"
  name: "drop4"
  type: DROPOUT
  dropout_param {
    dropout_ratio: 0.5
  }
}
layers {
  bottom: "fc4"
  top: "fc5"
  name: "fc5"
  type: INNER_PRODUCT
  blobs_lr: 1
  blobs_lr: 2
  weight_decay: 1
  weight_decay: 0
  inner_product_param {
    num_output: 512
    weight_filler {
      type: "gaussian"
      std: 0.005
    }
    bias_filler {
      type: "constant"
      value: 1
    }
  }
}
layers {
  bottom: "fc5"
  top: "fc5"
  name: "relu5"
  type: RELU
  relu_param {
    negative_slope: 0.1
  }
}
layers {
  bottom: "fc5"
  top: "fc5"
  name: "drop5"
  type: DROPOUT
  dropout_param {
    dropout_ratio: 0.5
  }
}
layers {
  bottom: "fc5"
  top: "fc6"
  name: "fc6"
  type: INNER_PRODUCT
  blobs_lr: 1
  blobs_lr: 2
  weight_decay: 1
  weight_decay: 0
  inner_product_param {
    num_output: 121
    weight_filler {
      type: "gaussian"
      std: 0.01
    }
    bias_filler {
      type: "constant"
      value: 0
    }
  }
}
layers {
  bottom: "fc6"
  top: "prob"
  name: "prob"
  type: SOFTMAX
  include {
    phase: TEST
  }
}
layers {
  bottom: "prob"
  bottom: "label"
  top: "accuracy"
  name: "accuracy"
  type: ACCURACY
  accuracy_param {
    top_k: 1
  }
  include {
    phase: TEST
  }
}
layers {
  bottom: "fc6"
  bottom: "label"
  top: "loss"
  name: "loss"
  type: SOFTMAX_LOSS
}
state {
  phase: TEST
}
I0228 13:52:47.054497 30032 layer_factory.hpp:78] Creating layer data
I0228 13:52:47.054519 30032 data_transformer.cpp:24] Loading mean file from/home/jaehyun/kaggle/nationalDataScienceBowl/data/typeD/train_mean.binaryproto
I0228 13:52:47.054584 30032 net.cpp:68] Creating Layer data
I0228 13:52:47.054602 30032 net.cpp:357] data -> data
I0228 13:52:47.054620 30032 net.cpp:357] data -> label
I0228 13:52:47.054637 30032 net.cpp:97] Setting up data
I0228 13:52:47.054651 30032 data_layer.cpp:34] Opening dataset /home/jaehyun/kaggle/nationalDataScienceBowl/data/typeD/val_lmdb
I0228 13:52:47.054714 30032 lmdb_dataset.cpp:73] what the fuck!!
I0228 13:52:47.054757 30032 data_layer.cpp:73] output data size: 256,1,48,48
I0228 13:52:47.056361 30032 net.cpp:104] Top shape: 256 1 48 48 (589824)
I0228 13:52:47.056382 30032 net.cpp:104] Top shape: 256 1 1 1 (256)
I0228 13:52:47.056393 30032 layer_factory.hpp:78] Creating layer label_data_1_split
I0228 13:52:47.056411 30032 net.cpp:68] Creating Layer label_data_1_split
I0228 13:52:47.056430 30032 net.cpp:395] label_data_1_split <- label
I0228 13:52:47.056443 30032 net.cpp:357] label_data_1_split -> label_data_1_split_0
I0228 13:52:47.056480 30032 net.cpp:357] label_data_1_split -> label_data_1_split_1
I0228 13:52:47.056498 30032 net.cpp:97] Setting up label_data_1_split
I0228 13:52:47.056515 30032 net.cpp:104] Top shape: 256 1 1 1 (256)
I0228 13:52:47.056526 30032 net.cpp:104] Top shape: 256 1 1 1 (256)
I0228 13:52:47.056676 30032 layer_factory.hpp:78] Creating layer conv1
I0228 13:52:47.056726 30032 net.cpp:68] Creating Layer conv1
I0228 13:52:47.056742 30032 net.cpp:395] conv1 <- data
I0228 13:52:47.056771 30032 net.cpp:357] conv1 -> conv1
I0228 13:52:47.056797 30032 net.cpp:97] Setting up conv1
I0228 13:52:47.057271 30032 net.cpp:104] Top shape: 256 256 23 23 (34668544)
I0228 13:52:47.057307 30032 layer_factory.hpp:78] Creating layer relu1
I0228 13:52:47.057327 30032 net.cpp:68] Creating Layer relu1
I0228 13:52:47.057340 30032 net.cpp:395] relu1 <- conv1
I0228 13:52:47.057358 30032 net.cpp:346] relu1 -> conv1 (in-place)
I0228 13:52:47.057373 30032 net.cpp:97] Setting up relu1
I0228 13:52:47.057476 30032 net.cpp:104] Top shape: 256 256 23 23 (34668544)
I0228 13:52:47.057495 30032 layer_factory.hpp:78] Creating layer cccp1
I0228 13:52:47.057520 30032 net.cpp:68] Creating Layer cccp1
I0228 13:52:47.057535 30032 net.cpp:395] cccp1 <- conv1
I0228 13:52:47.057564 30032 net.cpp:357] cccp1 -> cccp1
I0228 13:52:47.057585 30032 net.cpp:97] Setting up cccp1
I0228 13:52:47.060673 30032 net.cpp:104] Top shape: 256 256 23 23 (34668544)
I0228 13:52:47.060711 30032 layer_factory.hpp:78] Creating layer relu_cccp1
I0228 13:52:47.060731 30032 net.cpp:68] Creating Layer relu_cccp1
I0228 13:52:47.060747 30032 net.cpp:395] relu_cccp1 <- cccp1
I0228 13:52:47.060762 30032 net.cpp:346] relu_cccp1 -> cccp1 (in-place)
I0228 13:52:47.060778 30032 net.cpp:97] Setting up relu_cccp1
I0228 13:52:47.060794 30032 net.cpp:104] Top shape: 256 256 23 23 (34668544)
I0228 13:52:47.060820 30032 layer_factory.hpp:78] Creating layer pool1
I0228 13:52:47.060842 30032 net.cpp:68] Creating Layer pool1
I0228 13:52:47.060855 30032 net.cpp:395] pool1 <- cccp1
I0228 13:52:47.060869 30032 net.cpp:357] pool1 -> pool1
I0228 13:52:47.060884 30032 net.cpp:97] Setting up pool1
I0228 13:52:47.060904 30032 net.cpp:104] Top shape: 256 256 11 11 (7929856)
I0228 13:52:47.060917 30032 layer_factory.hpp:78] Creating layer conv2
I0228 13:52:47.060938 30032 net.cpp:68] Creating Layer conv2
I0228 13:52:47.060951 30032 net.cpp:395] conv2 <- pool1
I0228 13:52:47.060966 30032 net.cpp:357] conv2 -> conv2
I0228 13:52:47.060981 30032 net.cpp:97] Setting up conv2
I0228 13:52:47.074247 30032 net.cpp:104] Top shape: 256 128 9 9 (2654208)
I0228 13:52:47.074311 30032 layer_factory.hpp:78] Creating layer relu2
I0228 13:52:47.074344 30032 net.cpp:68] Creating Layer relu2
I0228 13:52:47.074359 30032 net.cpp:395] relu2 <- conv2
I0228 13:52:47.074375 30032 net.cpp:346] relu2 -> conv2 (in-place)
I0228 13:52:47.074405 30032 net.cpp:97] Setting up relu2
I0228 13:52:47.074421 30032 net.cpp:104] Top shape: 256 128 9 9 (2654208)
I0228 13:52:47.074434 30032 layer_factory.hpp:78] Creating layer conv3
I0228 13:52:47.074455 30032 net.cpp:68] Creating Layer conv3
I0228 13:52:47.074470 30032 net.cpp:395] conv3 <- conv2
I0228 13:52:47.074484 30032 net.cpp:357] conv3 -> conv3
I0228 13:52:47.074501 30032 net.cpp:97] Setting up conv3
I0228 13:52:47.080996 30032 net.cpp:104] Top shape: 256 128 7 7 (1605632)
I0228 13:52:47.081064 30032 layer_factory.hpp:78] Creating layer relu3
I0228 13:52:47.081086 30032 net.cpp:68] Creating Layer relu3
I0228 13:52:47.081101 30032 net.cpp:395] relu3 <- conv3
I0228 13:52:47.081122 30032 net.cpp:346] relu3 -> conv3 (in-place)
I0228 13:52:47.081142 30032 net.cpp:97] Setting up relu3
I0228 13:52:47.081159 30032 net.cpp:104] Top shape: 256 128 7 7 (1605632)
I0228 13:52:47.081172 30032 layer_factory.hpp:78] Creating layer pool3
I0228 13:52:47.081188 30032 net.cpp:68] Creating Layer pool3
I0228 13:52:47.081200 30032 net.cpp:395] pool3 <- conv3
I0228 13:52:47.081214 30032 net.cpp:357] pool3 -> pool3
I0228 13:52:47.081230 30032 net.cpp:97] Setting up pool3
I0228 13:52:47.081249 30032 net.cpp:104] Top shape: 256 128 3 3 (294912)
I0228 13:52:47.081313 30032 layer_factory.hpp:78] Creating layer fc4
I0228 13:52:47.081334 30032 net.cpp:68] Creating Layer fc4
I0228 13:52:47.081347 30032 net.cpp:395] fc4 <- pool3
I0228 13:52:47.081364 30032 net.cpp:357] fc4 -> fc4
I0228 13:52:47.081382 30032 net.cpp:97] Setting up fc4
I0228 13:52:47.105384 30032 net.cpp:104] Top shape: 256 512 1 1 (131072)
I0228 13:52:47.105448 30032 layer_factory.hpp:78] Creating layer relu4
I0228 13:52:47.105471 30032 net.cpp:68] Creating Layer relu4
I0228 13:52:47.105484 30032 net.cpp:395] relu4 <- fc4
I0228 13:52:47.105502 30032 net.cpp:346] relu4 -> fc4 (in-place)
I0228 13:52:47.105520 30032 net.cpp:97] Setting up relu4
I0228 13:52:47.105550 30032 net.cpp:104] Top shape: 256 512 1 1 (131072)
I0228 13:52:47.105562 30032 layer_factory.hpp:78] Creating layer drop4
I0228 13:52:47.105577 30032 net.cpp:68] Creating Layer drop4
I0228 13:52:47.105588 30032 net.cpp:395] drop4 <- fc4
I0228 13:52:47.105605 30032 net.cpp:346] drop4 -> fc4 (in-place)
I0228 13:52:47.105620 30032 net.cpp:97] Setting up drop4
I0228 13:52:47.105633 30032 net.cpp:104] Top shape: 256 512 1 1 (131072)
I0228 13:52:47.105644 30032 layer_factory.hpp:78] Creating layer fc5
I0228 13:52:47.105660 30032 net.cpp:68] Creating Layer fc5
I0228 13:52:47.105671 30032 net.cpp:395] fc5 <- fc4
I0228 13:52:47.105689 30032 net.cpp:357] fc5 -> fc5
I0228 13:52:47.105705 30032 net.cpp:97] Setting up fc5
I0228 13:52:47.116521 30032 net.cpp:104] Top shape: 256 512 1 1 (131072)
I0228 13:52:47.116570 30032 layer_factory.hpp:78] Creating layer relu5
I0228 13:52:47.116596 30032 net.cpp:68] Creating Layer relu5
I0228 13:52:47.116611 30032 net.cpp:395] relu5 <- fc5
I0228 13:52:47.116627 30032 net.cpp:346] relu5 -> fc5 (in-place)
I0228 13:52:47.116646 30032 net.cpp:97] Setting up relu5
I0228 13:52:47.116674 30032 net.cpp:104] Top shape: 256 512 1 1 (131072)
I0228 13:52:47.116688 30032 layer_factory.hpp:78] Creating layer drop5
I0228 13:52:47.116701 30032 net.cpp:68] Creating Layer drop5
I0228 13:52:47.116713 30032 net.cpp:395] drop5 <- fc5
I0228 13:52:47.116729 30032 net.cpp:346] drop5 -> fc5 (in-place)
I0228 13:52:47.116744 30032 net.cpp:97] Setting up drop5
I0228 13:52:47.116757 30032 net.cpp:104] Top shape: 256 512 1 1 (131072)
I0228 13:52:47.116767 30032 layer_factory.hpp:78] Creating layer fc6
I0228 13:52:47.116783 30032 net.cpp:68] Creating Layer fc6
I0228 13:52:47.116794 30032 net.cpp:395] fc6 <- fc5
I0228 13:52:47.116811 30032 net.cpp:357] fc6 -> fc6
I0228 13:52:47.116828 30032 net.cpp:97] Setting up fc6
I0228 13:52:47.119395 30032 net.cpp:104] Top shape: 256 121 1 1 (30976)
I0228 13:52:47.119417 30032 layer_factory.hpp:78] Creating layer fc6_fc6_0_split
I0228 13:52:47.119431 30032 net.cpp:68] Creating Layer fc6_fc6_0_split
I0228 13:52:47.119443 30032 net.cpp:395] fc6_fc6_0_split <- fc6
I0228 13:52:47.119457 30032 net.cpp:357] fc6_fc6_0_split -> fc6_fc6_0_split_0
I0228 13:52:47.119472 30032 net.cpp:357] fc6_fc6_0_split -> fc6_fc6_0_split_1
I0228 13:52:47.119488 30032 net.cpp:97] Setting up fc6_fc6_0_split
I0228 13:52:47.119499 30032 net.cpp:104] Top shape: 256 121 1 1 (30976)
I0228 13:52:47.119510 30032 net.cpp:104] Top shape: 256 121 1 1 (30976)
I0228 13:52:47.119521 30032 layer_factory.hpp:78] Creating layer prob
I0228 13:52:47.119539 30032 net.cpp:68] Creating Layer prob
I0228 13:52:47.119552 30032 net.cpp:395] prob <- fc6_fc6_0_split_0
I0228 13:52:47.119566 30032 net.cpp:357] prob -> prob
I0228 13:52:47.119583 30032 net.cpp:97] Setting up prob
I0228 13:52:47.119601 30032 net.cpp:104] Top shape: 256 121 1 1 (30976)
I0228 13:52:47.119612 30032 layer_factory.hpp:78] Creating layer accuracy
I0228 13:52:47.119632 30032 net.cpp:68] Creating Layer accuracy
I0228 13:52:47.119644 30032 net.cpp:395] accuracy <- prob
I0228 13:52:47.119657 30032 net.cpp:395] accuracy <- label_data_1_split_0
I0228 13:52:47.119673 30032 net.cpp:357] accuracy -> accuracy
I0228 13:52:47.119693 30032 net.cpp:97] Setting up accuracy
I0228 13:52:47.119709 30032 net.cpp:104] Top shape: 1 1 1 1 (1)
I0228 13:52:47.119720 30032 layer_factory.hpp:78] Creating layer loss
I0228 13:52:47.119773 30032 net.cpp:68] Creating Layer loss
I0228 13:52:47.119786 30032 net.cpp:395] loss <- fc6_fc6_0_split_1
I0228 13:52:47.119799 30032 net.cpp:395] loss <- label_data_1_split_1
I0228 13:52:47.119817 30032 net.cpp:357] loss -> loss
I0228 13:52:47.119833 30032 net.cpp:97] Setting up loss
I0228 13:52:47.119848 30032 layer_factory.hpp:78] Creating layer loss
I0228 13:52:47.119940 30032 net.cpp:104] Top shape: 1 1 1 1 (1)
I0228 13:52:47.119956 30032 net.cpp:110]     with loss weight 1
I0228 13:52:47.119981 30032 net.cpp:171] loss needs backward computation.
I0228 13:52:47.119992 30032 net.cpp:173] accuracy does not need backward computation.
I0228 13:52:47.120002 30032 net.cpp:173] prob does not need backward computation.
I0228 13:52:47.120013 30032 net.cpp:171] fc6_fc6_0_split needs backward computation.
…
