…
I0228 16:06:52.038357 21851 net.cpp:276] The NetState phase (0) differed from the phase (1) specified by a rule in layer accuracy
I0228 16:06:52.038542 21851 net.cpp:39] Initializing net from parameters: 
name: "model2_part1"
layers {
  top: "data"
  top: "label"
  name: "data"
  type: DATA
  data_param {
    source: "/home/jaehyun/kaggle/nationalDataScienceBowl/data/typeD/train_lmdb"
    batch_size: 256
    backend: LMDB
    shuffle: true
  }
  include {
    phase: TRAIN
  }
  transform_param {
    mirror: true
    mean_file: "/home/jaehyun/kaggle/nationalDataScienceBowl/data/typeD/train_mean.binaryproto"
  }
}
layers {
  bottom: "data"
  top: "conv1"
  name: "conv1"
  type: CONVOLUTION
  blobs_lr: 1
  blobs_lr: 2
  weight_decay: 1
  weight_decay: 0
  convolution_param {
    num_output: 256
    kernel_size: 4
    stride: 2
    weight_filler {
      type: "gaussian"
      std: 0.01
    }
    bias_filler {
      type: "constant"
      value: 0
    }
  }
}
layers {
  bottom: "conv1"
  top: "conv1"
  name: "relu1"
  type: RELU
  relu_param {
    negative_slope: 0.1
  }
}
layers {
  bottom: "conv1"
  top: "cccp1"
  name: "cccp1"
  type: CONVOLUTION
  blobs_lr: 1
  blobs_lr: 2
  weight_decay: 1
  weight_decay: 0
  convolution_param {
    num_output: 256
    kernel_size: 1
    group: 1
    stride: 1
    weight_filler {
      type: "gaussian"
      std: 0.01
    }
    bias_filler {
      type: "constant"
      value: 0
    }
  }
}
layers {
  bottom: "cccp1"
  top: "cccp1"
  name: "relu_cccp1"
  type: RELU
  relu_param {
    negative_slope: 0.1
  }
}
layers {
  bottom: "cccp1"
  top: "pool1"
  name: "pool1"
  type: POOLING
  pooling_param {
    pool: MAX
    kernel_size: 3
    stride: 2
  }
}
layers {
  bottom: "pool1"
  top: "conv2"
  name: "conv2"
  type: CONVOLUTION
  blobs_lr: 1
  blobs_lr: 2
  weight_decay: 1
  weight_decay: 0
  convolution_param {
    num_output: 128
    kernel_size: 3
    weight_filler {
      type: "gaussian"
      std: 0.01
    }
    bias_filler {
      type: "constant"
      value: 1
    }
  }
}
layers {
  bottom: "conv2"
  top: "conv2"
  name: "relu2"
  type: RELU
  relu_param {
    negative_slope: 0.1
  }
}
layers {
  bottom: "conv2"
  top: "conv3"
  name: "conv3"
  type: CONVOLUTION
  blobs_lr: 1
  blobs_lr: 2
  weight_decay: 1
  weight_decay: 0
  convolution_param {
    num_output: 128
    kernel_size: 3
    weight_filler {
      type: "gaussian"
      std: 0.01
    }
    bias_filler {
      type: "constant"
      value: 0
    }
  }
}
layers {
  bottom: "conv3"
  top: "conv3"
  name: "relu3"
  type: RELU
  relu_param {
    negative_slope: 0.1
  }
}
layers {
  bottom: "conv3"
  top: "pool3"
  name: "pool3"
  type: POOLING
  pooling_param {
    pool: MAX
    kernel_size: 3
    stride: 2
  }
}
layers {
  bottom: "pool3"
  top: "fc4"
  name: "fc4"
  type: INNER_PRODUCT
  blobs_lr: 1
  blobs_lr: 2
  weight_decay: 1
  weight_decay: 0
  inner_product_param {
    num_output: 512
    weight_filler {
      type: "gaussian"
      std: 0.005
    }
    bias_filler {
      type: "constant"
      value: 1
    }
  }
}
layers {
  bottom: "fc4"
  top: "fc4"
  name: "relu4"
  type: RELU
  relu_param {
    negative_slope: 0.1
  }
}
layers {
  bottom: "fc4"
  top: "fc4"
  name: "drop4"
  type: DROPOUT
  dropout_param {
    dropout_ratio: 0.5
  }
}
layers {
  bottom: "fc4"
  top: "fc5"
  name: "fc5"
  type: INNER_PRODUCT
  blobs_lr: 1
  blobs_lr: 2
  weight_decay: 1
  weight_decay: 0
  inner_product_param {
    num_output: 512
    weight_filler {
      type: "gaussian"
      std: 0.005
    }
    bias_filler {
      type: "constant"
      value: 1
    }
  }
}
layers {
  bottom: "fc5"
  top: "fc5"
  name: "relu5"
  type: RELU
  relu_param {
    negative_slope: 0.1
  }
}
layers {
  bottom: "fc5"
  top: "fc5"
  name: "drop5"
  type: DROPOUT
  dropout_param {
    dropout_ratio: 0.5
  }
}
layers {
  bottom: "fc5"
  top: "fc6"
  name: "fc6"
  type: INNER_PRODUCT
  blobs_lr: 1
  blobs_lr: 2
  weight_decay: 1
  weight_decay: 0
  inner_product_param {
    num_output: 121
    weight_filler {
      type: "gaussian"
      std: 0.01
    }
    bias_filler {
      type: "constant"
      value: 0
    }
  }
}
layers {
  bottom: "fc6"
  bottom: "label"
  top: "loss"
  name: "loss"
  type: SOFTMAX_LOSS
}
state {
  phase: TRAIN
}
I0228 16:06:52.039523 21851 layer_factory.hpp:78] Creating layer data
I0228 16:06:52.039552 21851 data_transformer.cpp:24] Loading mean file from/home/jaehyun/kaggle/nationalDataScienceBowl/data/typeD/train_mean.binaryproto
I0228 16:06:52.039652 21851 net.cpp:68] Creating Layer data
I0228 16:06:52.039674 21851 net.cpp:357] data -> data
I0228 16:06:52.039701 21851 net.cpp:357] data -> label
I0228 16:06:52.039724 21851 net.cpp:97] Setting up data
I0228 16:06:52.039749 21851 data_layer.cpp:34] Opening dataset /home/jaehyun/kaggle/nationalDataScienceBowl/data/typeD/train_lmdb
I0228 16:06:52.039947 21851 lmdb_dataset.cpp:73] what the fuck!!
I0228 16:06:52.040190 21851 data_layer.cpp:73] output data size: 256,1,48,48
I0228 16:06:52.043193 21851 net.cpp:104] Top shape: 256 1 48 48 (589824)
I0228 16:06:52.043227 21851 net.cpp:104] Top shape: 256 1 1 1 (256)
I0228 16:06:52.043246 21851 layer_factory.hpp:78] Creating layer conv1
I0228 16:06:52.043292 21851 net.cpp:68] Creating Layer conv1
I0228 16:06:52.043310 21851 net.cpp:395] conv1 <- data
I0228 16:06:52.043364 21851 net.cpp:357] conv1 -> conv1
I0228 16:06:52.043400 21851 net.cpp:97] Setting up conv1
I0228 16:06:52.079375 21851 net.cpp:104] Top shape: 256 256 23 23 (34668544)
I0228 16:06:52.079494 21851 layer_factory.hpp:78] Creating layer relu1
I0228 16:06:52.079527 21851 net.cpp:68] Creating Layer relu1
I0228 16:06:52.079545 21851 net.cpp:395] relu1 <- conv1
I0228 16:06:52.079565 21851 net.cpp:346] relu1 -> conv1 (in-place)
I0228 16:06:52.079587 21851 net.cpp:97] Setting up relu1
I0228 16:06:52.079609 21851 net.cpp:104] Top shape: 256 256 23 23 (34668544)
I0228 16:06:52.079623 21851 layer_factory.hpp:78] Creating layer cccp1
I0228 16:06:52.079645 21851 net.cpp:68] Creating Layer cccp1
I0228 16:06:52.079658 21851 net.cpp:395] cccp1 <- conv1
I0228 16:06:52.079674 21851 net.cpp:357] cccp1 -> cccp1
I0228 16:06:52.079692 21851 net.cpp:97] Setting up cccp1
I0228 16:06:52.082507 21851 net.cpp:104] Top shape: 256 256 23 23 (34668544)
I0228 16:06:52.082540 21851 layer_factory.hpp:78] Creating layer relu_cccp1
I0228 16:06:52.082559 21851 net.cpp:68] Creating Layer relu_cccp1
I0228 16:06:52.082573 21851 net.cpp:395] relu_cccp1 <- cccp1
I0228 16:06:52.082592 21851 net.cpp:346] relu_cccp1 -> cccp1 (in-place)
I0228 16:06:52.082608 21851 net.cpp:97] Setting up relu_cccp1
I0228 16:06:52.082624 21851 net.cpp:104] Top shape: 256 256 23 23 (34668544)
I0228 16:06:52.082638 21851 layer_factory.hpp:78] Creating layer pool1
I0228 16:06:52.082656 21851 net.cpp:68] Creating Layer pool1
I0228 16:06:52.082670 21851 net.cpp:395] pool1 <- cccp1
I0228 16:06:52.082685 21851 net.cpp:357] pool1 -> pool1
I0228 16:06:52.082701 21851 net.cpp:97] Setting up pool1
I0228 16:06:52.082741 21851 net.cpp:104] Top shape: 256 256 11 11 (7929856)
I0228 16:06:52.082756 21851 layer_factory.hpp:78] Creating layer conv2
I0228 16:06:52.082777 21851 net.cpp:68] Creating Layer conv2
I0228 16:06:52.082790 21851 net.cpp:395] conv2 <- pool1
I0228 16:06:52.082808 21851 net.cpp:357] conv2 -> conv2
I0228 16:06:52.082825 21851 net.cpp:97] Setting up conv2
I0228 16:06:52.095070 21851 net.cpp:104] Top shape: 256 128 9 9 (2654208)
I0228 16:06:52.095161 21851 layer_factory.hpp:78] Creating layer relu2
I0228 16:06:52.095180 21851 net.cpp:68] Creating Layer relu2
I0228 16:06:52.095193 21851 net.cpp:395] relu2 <- conv2
I0228 16:06:52.095217 21851 net.cpp:346] relu2 -> conv2 (in-place)
I0228 16:06:52.095233 21851 net.cpp:97] Setting up relu2
I0228 16:06:52.095249 21851 net.cpp:104] Top shape: 256 128 9 9 (2654208)
I0228 16:06:52.095263 21851 layer_factory.hpp:78] Creating layer conv3
I0228 16:06:52.095283 21851 net.cpp:68] Creating Layer conv3
I0228 16:06:52.095296 21851 net.cpp:395] conv3 <- conv2
I0228 16:06:52.095311 21851 net.cpp:357] conv3 -> conv3
I0228 16:06:52.095327 21851 net.cpp:97] Setting up conv3
I0228 16:06:52.101558 21851 net.cpp:104] Top shape: 256 128 7 7 (1605632)
I0228 16:06:52.101585 21851 layer_factory.hpp:78] Creating layer relu3
I0228 16:06:52.101601 21851 net.cpp:68] Creating Layer relu3
I0228 16:06:52.101614 21851 net.cpp:395] relu3 <- conv3
I0228 16:06:52.101634 21851 net.cpp:346] relu3 -> conv3 (in-place)
I0228 16:06:52.101649 21851 net.cpp:97] Setting up relu3
I0228 16:06:52.101665 21851 net.cpp:104] Top shape: 256 128 7 7 (1605632)
I0228 16:06:52.101676 21851 layer_factory.hpp:78] Creating layer pool3
I0228 16:06:52.101691 21851 net.cpp:68] Creating Layer pool3
I0228 16:06:52.101704 21851 net.cpp:395] pool3 <- conv3
I0228 16:06:52.101719 21851 net.cpp:357] pool3 -> pool3
I0228 16:06:52.101734 21851 net.cpp:97] Setting up pool3
I0228 16:06:52.101750 21851 net.cpp:104] Top shape: 256 128 3 3 (294912)
I0228 16:06:52.101763 21851 layer_factory.hpp:78] Creating layer fc4
I0228 16:06:52.101785 21851 net.cpp:68] Creating Layer fc4
I0228 16:06:52.101799 21851 net.cpp:395] fc4 <- pool3
I0228 16:06:52.101814 21851 net.cpp:357] fc4 -> fc4
I0228 16:06:52.101831 21851 net.cpp:97] Setting up fc4
I0228 16:06:52.126480 21851 net.cpp:104] Top shape: 256 512 1 1 (131072)
I0228 16:06:52.126528 21851 layer_factory.hpp:78] Creating layer relu4
I0228 16:06:52.126546 21851 net.cpp:68] Creating Layer relu4
I0228 16:06:52.126562 21851 net.cpp:395] relu4 <- fc4
I0228 16:06:52.126579 21851 net.cpp:346] relu4 -> fc4 (in-place)
I0228 16:06:52.126596 21851 net.cpp:97] Setting up relu4
I0228 16:06:52.126620 21851 net.cpp:104] Top shape: 256 512 1 1 (131072)
I0228 16:06:52.126631 21851 layer_factory.hpp:78] Creating layer drop4
I0228 16:06:52.126651 21851 net.cpp:68] Creating Layer drop4
I0228 16:06:52.126663 21851 net.cpp:395] drop4 <- fc4
I0228 16:06:52.126680 21851 net.cpp:346] drop4 -> fc4 (in-place)
I0228 16:06:52.126696 21851 net.cpp:97] Setting up drop4
I0228 16:06:52.126711 21851 net.cpp:104] Top shape: 256 512 1 1 (131072)
I0228 16:06:52.126724 21851 layer_factory.hpp:78] Creating layer fc5
I0228 16:06:52.126740 21851 net.cpp:68] Creating Layer fc5
I0228 16:06:52.126752 21851 net.cpp:395] fc5 <- fc4
I0228 16:06:52.126770 21851 net.cpp:357] fc5 -> fc5
I0228 16:06:52.126790 21851 net.cpp:97] Setting up fc5
I0228 16:06:52.137748 21851 net.cpp:104] Top shape: 256 512 1 1 (131072)
I0228 16:06:52.137773 21851 layer_factory.hpp:78] Creating layer relu5
I0228 16:06:52.137794 21851 net.cpp:68] Creating Layer relu5
I0228 16:06:52.137806 21851 net.cpp:395] relu5 <- fc5
I0228 16:06:52.137821 21851 net.cpp:346] relu5 -> fc5 (in-place)
I0228 16:06:52.137835 21851 net.cpp:97] Setting up relu5
I0228 16:06:52.137851 21851 net.cpp:104] Top shape: 256 512 1 1 (131072)
I0228 16:06:52.137864 21851 layer_factory.hpp:78] Creating layer drop5
I0228 16:06:52.137881 21851 net.cpp:68] Creating Layer drop5
I0228 16:06:52.137893 21851 net.cpp:395] drop5 <- fc5
I0228 16:06:52.137910 21851 net.cpp:346] drop5 -> fc5 (in-place)
I0228 16:06:52.137925 21851 net.cpp:97] Setting up drop5
I0228 16:06:52.137938 21851 net.cpp:104] Top shape: 256 512 1 1 (131072)
I0228 16:06:52.137948 21851 layer_factory.hpp:78] Creating layer fc6
I0228 16:06:52.137964 21851 net.cpp:68] Creating Layer fc6
I0228 16:06:52.137976 21851 net.cpp:395] fc6 <- fc5
I0228 16:06:52.137998 21851 net.cpp:357] fc6 -> fc6
I0228 16:06:52.138015 21851 net.cpp:97] Setting up fc6
I0228 16:06:52.140671 21851 net.cpp:104] Top shape: 256 121 1 1 (30976)
I0228 16:06:52.140694 21851 layer_factory.hpp:78] Creating layer loss
I0228 16:06:52.140712 21851 net.cpp:68] Creating Layer loss
I0228 16:06:52.140725 21851 net.cpp:395] loss <- fc6
I0228 16:06:52.140738 21851 net.cpp:395] loss <- label
I0228 16:06:52.140753 21851 net.cpp:357] loss -> loss
I0228 16:06:52.140770 21851 net.cpp:97] Setting up loss
I0228 16:06:52.140787 21851 layer_factory.hpp:78] Creating layer loss
I0228 16:06:52.140897 21851 net.cpp:104] Top shape: 1 1 1 1 (1)
I0228 16:06:52.140914 21851 net.cpp:110]     with loss weight 1
I0228 16:06:52.140967 21851 net.cpp:171] loss needs backward computation.
I0228 16:06:52.140980 21851 net.cpp:171] fc6 needs backward computation.
I0228 16:06:52.140991 21851 net.cpp:171] drop5 needs backward computation.
I0228 16:06:52.141002 21851 net.cpp:171] relu5 needs backward computation.
I0228 16:06:52.141013 21851 net.cpp:171] fc5 needs backward computation.
…
I0228 16:06:52.141966 21851 net.cpp:276] The NetState phase (1) differed from the phase (0) specified by a rule in layer data
I0228 16:06:52.142189 21851 net.cpp:39] Initializing net from parameters: 
name: "model2_part1"
layers {
  top: "data"
  top: "label"
  name: "data"
  type: DATA
  data_param {
    source: "/home/jaehyun/kaggle/nationalDataScienceBowl/data/typeD/val_lmdb"
    batch_size: 256
    backend: LMDB
  }
  include {
    phase: TEST
  }
  transform_param {
    mirror: false
    mean_file: "/home/jaehyun/kaggle/nationalDataScienceBowl/data/typeD/train_mean.binaryproto"
  }
}
layers {
  bottom: "data"
  top: "conv1"
  name: "conv1"
  type: CONVOLUTION
  blobs_lr: 1
  blobs_lr: 2
  weight_decay: 1
  weight_decay: 0
  convolution_param {
    num_output: 256
    kernel_size: 4
    stride: 2
    weight_filler {
      type: "gaussian"
      std: 0.01
    }
    bias_filler {
      type: "constant"
      value: 0
    }
  }
}
layers {
  bottom: "conv1"
  top: "conv1"
  name: "relu1"
  type: RELU
  relu_param {
    negative_slope: 0.1
  }
}
layers {
  bottom: "conv1"
  top: "cccp1"
  name: "cccp1"
  type: CONVOLUTION
  blobs_lr: 1
  blobs_lr: 2
  weight_decay: 1
  weight_decay: 0
  convolution_param {
    num_output: 256
    kernel_size: 1
    group: 1
    stride: 1
    weight_filler {
      type: "gaussian"
      std: 0.01
    }
    bias_filler {
      type: "constant"
      value: 0
    }
  }
}
layers {
  bottom: "cccp1"
  top: "cccp1"
  name: "relu_cccp1"
  type: RELU
  relu_param {
    negative_slope: 0.1
  }
}
layers {
  bottom: "cccp1"
  top: "pool1"
  name: "pool1"
  type: POOLING
  pooling_param {
    pool: MAX
    kernel_size: 3
    stride: 2
  }
}
layers {
  bottom: "pool1"
  top: "conv2"
  name: "conv2"
  type: CONVOLUTION
  blobs_lr: 1
  blobs_lr: 2
  weight_decay: 1
  weight_decay: 0
  convolution_param {
    num_output: 128
    kernel_size: 3
    weight_filler {
      type: "gaussian"
      std: 0.01
    }
    bias_filler {
      type: "constant"
      value: 1
    }
  }
}
layers {
  bottom: "conv2"
  top: "conv2"
  name: "relu2"
  type: RELU
  relu_param {
    negative_slope: 0.1
  }
}
layers {
  bottom: "conv2"
  top: "conv3"
  name: "conv3"
  type: CONVOLUTION
  blobs_lr: 1
  blobs_lr: 2
  weight_decay: 1
  weight_decay: 0
  convolution_param {
    num_output: 128
    kernel_size: 3
    weight_filler {
      type: "gaussian"
      std: 0.01
    }
    bias_filler {
      type: "constant"
      value: 0
    }
  }
}
layers {
  bottom: "conv3"
  top: "conv3"
  name: "relu3"
  type: RELU
  relu_param {
    negative_slope: 0.1
  }
}
layers {
  bottom: "conv3"
  top: "pool3"
  name: "pool3"
  type: POOLING
  pooling_param {
    pool: MAX
    kernel_size: 3
    stride: 2
  }
}
layers {
  bottom: "pool3"
  top: "fc4"
  name: "fc4"
  type: INNER_PRODUCT
  blobs_lr: 1
  blobs_lr: 2
  weight_decay: 1
  weight_decay: 0
  inner_product_param {
    num_output: 512
    weight_filler {
      type: "gaussian"
      std: 0.005
    }
    bias_filler {
      type: "constant"
      value: 1
    }
  }
}
layers {
  bottom: "fc4"
  top: "fc4"
  name: "relu4"
  type: RELU
  relu_param {
    negative_slope: 0.1
  }
}
layers {
  bottom: "fc4"
  top: "fc4"
  name: "drop4"
  type: DROPOUT
  dropout_param {
    dropout_ratio: 0.5
  }
}
layers {
  bottom: "fc4"
  top: "fc5"
  name: "fc5"
  type: INNER_PRODUCT
  blobs_lr: 1
  blobs_lr: 2
  weight_decay: 1
  weight_decay: 0
  inner_product_param {
    num_output: 512
    weight_filler {
      type: "gaussian"
      std: 0.005
    }
    bias_filler {
      type: "constant"
      value: 1
    }
  }
}
layers {
  bottom: "fc5"
  top: "fc5"
  name: "relu5"
  type: RELU
  relu_param {
    negative_slope: 0.1
  }
}
layers {
  bottom: "fc5"
  top: "fc5"
  name: "drop5"
  type: DROPOUT
  dropout_param {
    dropout_ratio: 0.5
  }
}
layers {
  bottom: "fc5"
  top: "fc6"
  name: "fc6"
  type: INNER_PRODUCT
  blobs_lr: 1
  blobs_lr: 2
  weight_decay: 1
  weight_decay: 0
  inner_product_param {
    num_output: 121
    weight_filler {
      type: "gaussian"
      std: 0.01
    }
    bias_filler {
      type: "constant"
      value: 0
    }
  }
}
layers {
  bottom: "fc6"
  top: "prob"
  name: "prob"
  type: SOFTMAX
  include {
    phase: TEST
  }
}
layers {
  bottom: "prob"
  bottom: "label"
  top: "accuracy"
  name: "accuracy"
  type: ACCURACY
  accuracy_param {
    top_k: 1
  }
  include {
    phase: TEST
  }
}
layers {
  bottom: "fc6"
  bottom: "label"
  top: "loss"
  name: "loss"
  type: SOFTMAX_LOSS
}
state {
  phase: TEST
}
I0228 16:06:52.143208 21851 layer_factory.hpp:78] Creating layer data
I0228 16:06:52.143230 21851 data_transformer.cpp:24] Loading mean file from/home/jaehyun/kaggle/nationalDataScienceBowl/data/typeD/train_mean.binaryproto
I0228 16:06:52.143301 21851 net.cpp:68] Creating Layer data
I0228 16:06:52.143318 21851 net.cpp:357] data -> data
I0228 16:06:52.143337 21851 net.cpp:357] data -> label
I0228 16:06:52.143353 21851 net.cpp:97] Setting up data
I0228 16:06:52.143368 21851 data_layer.cpp:34] Opening dataset /home/jaehyun/kaggle/nationalDataScienceBowl/data/typeD/val_lmdb
I0228 16:06:52.143443 21851 lmdb_dataset.cpp:73] what the fuck!!
I0228 16:06:52.143484 21851 data_layer.cpp:73] output data size: 256,1,48,48
I0228 16:06:52.144719 21851 net.cpp:104] Top shape: 256 1 48 48 (589824)
I0228 16:06:52.144742 21851 net.cpp:104] Top shape: 256 1 1 1 (256)
I0228 16:06:52.144776 21851 layer_factory.hpp:78] Creating layer label_data_1_split
I0228 16:06:52.144799 21851 net.cpp:68] Creating Layer label_data_1_split
I0228 16:06:52.144817 21851 net.cpp:395] label_data_1_split <- label
I0228 16:06:52.144835 21851 net.cpp:357] label_data_1_split -> label_data_1_split_0
I0228 16:06:52.144881 21851 net.cpp:357] label_data_1_split -> label_data_1_split_1
I0228 16:06:52.144899 21851 net.cpp:97] Setting up label_data_1_split
I0228 16:06:52.144918 21851 net.cpp:104] Top shape: 256 1 1 1 (256)
I0228 16:06:52.144932 21851 net.cpp:104] Top shape: 256 1 1 1 (256)
I0228 16:06:52.144943 21851 layer_factory.hpp:78] Creating layer conv1
I0228 16:06:52.144968 21851 net.cpp:68] Creating Layer conv1
I0228 16:06:52.144984 21851 net.cpp:395] conv1 <- data
I0228 16:06:52.145023 21851 net.cpp:357] conv1 -> conv1
I0228 16:06:52.145040 21851 net.cpp:97] Setting up conv1
I0228 16:06:52.145349 21851 net.cpp:104] Top shape: 256 256 23 23 (34668544)
I0228 16:06:52.145377 21851 layer_factory.hpp:78] Creating layer relu1
I0228 16:06:52.145393 21851 net.cpp:68] Creating Layer relu1
I0228 16:06:52.145409 21851 net.cpp:395] relu1 <- conv1
I0228 16:06:52.145426 21851 net.cpp:346] relu1 -> conv1 (in-place)
I0228 16:06:52.145442 21851 net.cpp:97] Setting up relu1
I0228 16:06:52.145458 21851 net.cpp:104] Top shape: 256 256 23 23 (34668544)
I0228 16:06:52.145472 21851 layer_factory.hpp:78] Creating layer cccp1
I0228 16:06:52.145491 21851 net.cpp:68] Creating Layer cccp1
I0228 16:06:52.145508 21851 net.cpp:395] cccp1 <- conv1
I0228 16:06:52.145524 21851 net.cpp:357] cccp1 -> cccp1
I0228 16:06:52.145540 21851 net.cpp:97] Setting up cccp1
I0228 16:06:52.148578 21851 net.cpp:104] Top shape: 256 256 23 23 (34668544)
I0228 16:06:52.148608 21851 layer_factory.hpp:78] Creating layer relu_cccp1
I0228 16:06:52.148624 21851 net.cpp:68] Creating Layer relu_cccp1
I0228 16:06:52.148638 21851 net.cpp:395] relu_cccp1 <- cccp1
I0228 16:06:52.148653 21851 net.cpp:346] relu_cccp1 -> cccp1 (in-place)
I0228 16:06:52.148671 21851 net.cpp:97] Setting up relu_cccp1
I0228 16:06:52.148689 21851 net.cpp:104] Top shape: 256 256 23 23 (34668544)
I0228 16:06:52.148700 21851 layer_factory.hpp:78] Creating layer pool1
I0228 16:06:52.148721 21851 net.cpp:68] Creating Layer pool1
I0228 16:06:52.148736 21851 net.cpp:395] pool1 <- cccp1
I0228 16:06:52.148771 21851 net.cpp:357] pool1 -> pool1
I0228 16:06:52.148787 21851 net.cpp:97] Setting up pool1
I0228 16:06:52.148808 21851 net.cpp:104] Top shape: 256 256 11 11 (7929856)
I0228 16:06:52.148821 21851 layer_factory.hpp:78] Creating layer conv2
I0228 16:06:52.148844 21851 net.cpp:68] Creating Layer conv2
I0228 16:06:52.148859 21851 net.cpp:395] conv2 <- pool1
I0228 16:06:52.148874 21851 net.cpp:357] conv2 -> conv2
I0228 16:06:52.148893 21851 net.cpp:97] Setting up conv2
I0228 16:06:52.161156 21851 net.cpp:104] Top shape: 256 128 9 9 (2654208)
I0228 16:06:52.161185 21851 layer_factory.hpp:78] Creating layer relu2
I0228 16:06:52.161203 21851 net.cpp:68] Creating Layer relu2
I0228 16:06:52.161217 21851 net.cpp:395] relu2 <- conv2
I0228 16:06:52.161232 21851 net.cpp:346] relu2 -> conv2 (in-place)
I0228 16:06:52.161247 21851 net.cpp:97] Setting up relu2
I0228 16:06:52.161262 21851 net.cpp:104] Top shape: 256 128 9 9 (2654208)
I0228 16:06:52.161274 21851 layer_factory.hpp:78] Creating layer conv3
I0228 16:06:52.161293 21851 net.cpp:68] Creating Layer conv3
I0228 16:06:52.161305 21851 net.cpp:395] conv3 <- conv2
I0228 16:06:52.161319 21851 net.cpp:357] conv3 -> conv3
I0228 16:06:52.161336 21851 net.cpp:97] Setting up conv3
I0228 16:06:52.167490 21851 net.cpp:104] Top shape: 256 128 7 7 (1605632)
I0228 16:06:52.167515 21851 layer_factory.hpp:78] Creating layer relu3
I0228 16:06:52.167531 21851 net.cpp:68] Creating Layer relu3
I0228 16:06:52.167543 21851 net.cpp:395] relu3 <- conv3
I0228 16:06:52.167561 21851 net.cpp:346] relu3 -> conv3 (in-place)
I0228 16:06:52.167575 21851 net.cpp:97] Setting up relu3
I0228 16:06:52.167590 21851 net.cpp:104] Top shape: 256 128 7 7 (1605632)
I0228 16:06:52.167603 21851 layer_factory.hpp:78] Creating layer pool3
I0228 16:06:52.167618 21851 net.cpp:68] Creating Layer pool3
I0228 16:06:52.167629 21851 net.cpp:395] pool3 <- conv3
I0228 16:06:52.167642 21851 net.cpp:357] pool3 -> pool3
I0228 16:06:52.167656 21851 net.cpp:97] Setting up pool3
I0228 16:06:52.167672 21851 net.cpp:104] Top shape: 256 128 3 3 (294912)
I0228 16:06:52.167707 21851 layer_factory.hpp:78] Creating layer fc4
I0228 16:06:52.167727 21851 net.cpp:68] Creating Layer fc4
I0228 16:06:52.167740 21851 net.cpp:395] fc4 <- pool3
I0228 16:06:52.167757 21851 net.cpp:357] fc4 -> fc4
I0228 16:06:52.167773 21851 net.cpp:97] Setting up fc4
I0228 16:06:52.192045 21851 net.cpp:104] Top shape: 256 512 1 1 (131072)
I0228 16:06:52.192086 21851 layer_factory.hpp:78] Creating layer relu4
I0228 16:06:52.192104 21851 net.cpp:68] Creating Layer relu4
I0228 16:06:52.192118 21851 net.cpp:395] relu4 <- fc4
I0228 16:06:52.192133 21851 net.cpp:346] relu4 -> fc4 (in-place)
I0228 16:06:52.192149 21851 net.cpp:97] Setting up relu4
I0228 16:06:52.192167 21851 net.cpp:104] Top shape: 256 512 1 1 (131072)
I0228 16:06:52.192180 21851 layer_factory.hpp:78] Creating layer drop4
I0228 16:06:52.192195 21851 net.cpp:68] Creating Layer drop4
I0228 16:06:52.192206 21851 net.cpp:395] drop4 <- fc4
I0228 16:06:52.192224 21851 net.cpp:346] drop4 -> fc4 (in-place)
I0228 16:06:52.192239 21851 net.cpp:97] Setting up drop4
I0228 16:06:52.192252 21851 net.cpp:104] Top shape: 256 512 1 1 (131072)
I0228 16:06:52.192265 21851 layer_factory.hpp:78] Creating layer fc5
I0228 16:06:52.192280 21851 net.cpp:68] Creating Layer fc5
I0228 16:06:52.192291 21851 net.cpp:395] fc5 <- fc4
I0228 16:06:52.192308 21851 net.cpp:357] fc5 -> fc5
I0228 16:06:52.192324 21851 net.cpp:97] Setting up fc5
I0228 16:06:52.203125 21851 net.cpp:104] Top shape: 256 512 1 1 (131072)
I0228 16:06:52.203150 21851 layer_factory.hpp:78] Creating layer relu5
I0228 16:06:52.203172 21851 net.cpp:68] Creating Layer relu5
I0228 16:06:52.203186 21851 net.cpp:395] relu5 <- fc5
I0228 16:06:52.203200 21851 net.cpp:346] relu5 -> fc5 (in-place)
I0228 16:06:52.203215 21851 net.cpp:97] Setting up relu5
I0228 16:06:52.203230 21851 net.cpp:104] Top shape: 256 512 1 1 (131072)
I0228 16:06:52.203243 21851 layer_factory.hpp:78] Creating layer drop5
I0228 16:06:52.203258 21851 net.cpp:68] Creating Layer drop5
I0228 16:06:52.203269 21851 net.cpp:395] drop5 <- fc5
I0228 16:06:52.203286 21851 net.cpp:346] drop5 -> fc5 (in-place)
I0228 16:06:52.203302 21851 net.cpp:97] Setting up drop5
I0228 16:06:52.203315 21851 net.cpp:104] Top shape: 256 512 1 1 (131072)
I0228 16:06:52.203327 21851 layer_factory.hpp:78] Creating layer fc6
I0228 16:06:52.203342 21851 net.cpp:68] Creating Layer fc6
I0228 16:06:52.203354 21851 net.cpp:395] fc6 <- fc5
I0228 16:06:52.203372 21851 net.cpp:357] fc6 -> fc6
I0228 16:06:52.203387 21851 net.cpp:97] Setting up fc6
I0228 16:06:52.205957 21851 net.cpp:104] Top shape: 256 121 1 1 (30976)
I0228 16:06:52.205979 21851 layer_factory.hpp:78] Creating layer fc6_fc6_0_split
I0228 16:06:52.205994 21851 net.cpp:68] Creating Layer fc6_fc6_0_split
I0228 16:06:52.206007 21851 net.cpp:395] fc6_fc6_0_split <- fc6
I0228 16:06:52.206020 21851 net.cpp:357] fc6_fc6_0_split -> fc6_fc6_0_split_0
I0228 16:06:52.206037 21851 net.cpp:357] fc6_fc6_0_split -> fc6_fc6_0_split_1
I0228 16:06:52.206051 21851 net.cpp:97] Setting up fc6_fc6_0_split
I0228 16:06:52.206065 21851 net.cpp:104] Top shape: 256 121 1 1 (30976)
I0228 16:06:52.206078 21851 net.cpp:104] Top shape: 256 121 1 1 (30976)
I0228 16:06:52.206089 21851 layer_factory.hpp:78] Creating layer prob
I0228 16:06:52.206107 21851 net.cpp:68] Creating Layer prob
I0228 16:06:52.206120 21851 net.cpp:395] prob <- fc6_fc6_0_split_0
I0228 16:06:52.206135 21851 net.cpp:357] prob -> prob
I0228 16:06:52.206151 21851 net.cpp:97] Setting up prob
I0228 16:06:52.206171 21851 net.cpp:104] Top shape: 256 121 1 1 (30976)
I0228 16:06:52.206184 21851 layer_factory.hpp:78] Creating layer accuracy
I0228 16:06:52.206204 21851 net.cpp:68] Creating Layer accuracy
I0228 16:06:52.206217 21851 net.cpp:395] accuracy <- prob
I0228 16:06:52.206230 21851 net.cpp:395] accuracy <- label_data_1_split_0
I0228 16:06:52.206245 21851 net.cpp:357] accuracy -> accuracy
I0228 16:06:52.206269 21851 net.cpp:97] Setting up accuracy
I0228 16:06:52.206286 21851 net.cpp:104] Top shape: 1 1 1 1 (1)
I0228 16:06:52.206300 21851 layer_factory.hpp:78] Creating layer loss
I0228 16:06:52.206351 21851 net.cpp:68] Creating Layer loss
I0228 16:06:52.206364 21851 net.cpp:395] loss <- fc6_fc6_0_split_1
I0228 16:06:52.206377 21851 net.cpp:395] loss <- label_data_1_split_1
I0228 16:06:52.206392 21851 net.cpp:357] loss -> loss
I0228 16:06:52.206408 21851 net.cpp:97] Setting up loss
I0228 16:06:52.206424 21851 layer_factory.hpp:78] Creating layer loss
I0228 16:06:52.206523 21851 net.cpp:104] Top shape: 1 1 1 1 (1)
I0228 16:06:52.206542 21851 net.cpp:110]     with loss weight 1
I0228 16:06:52.206568 21851 net.cpp:171] loss needs backward computation.
I0228 16:06:52.206580 21851 net.cpp:173] accuracy does not need backward computation.
I0228 16:06:52.206593 21851 net.cpp:173] prob does not need backward computation.
I0228 16:06:52.206604 21851 net.cpp:171] fc6_fc6_0_split needs backward computation.
…
