…
I0227 15:54:04.991029  8434 net.cpp:276] The NetState phase (0) differed from the phase (1) specified by a rule in layer accuracy
I0227 15:54:04.991271  8434 net.cpp:39] Initializing net from parameters: 
name: "model1_part3"
layers {
  top: "data"
  top: "label"
  name: "data"
  type: DATA
  data_param {
    source: "/home/jaehyun/kaggle/nationalDataScienceBowl/data/typeD/train_lmdb"
    batch_size: 256
    backend: LMDB
    shuffle: true
  }
  include {
    phase: TRAIN
  }
  transform_param {
    mirror: true
    mean_file: "/home/jaehyun/kaggle/nationalDataScienceBowl/data/typeD/train_mean.binaryproto"
  }
}
layers {
  bottom: "data"
  top: "conv1"
  name: "conv1"
  type: CONVOLUTION
  blobs_lr: 0
  blobs_lr: 0
  weight_decay: 0
  weight_decay: 0
  convolution_param {
    num_output: 128
    kernel_size: 4
    stride: 2
    weight_filler {
      type: "gaussian"
      std: 0.01
    }
    bias_filler {
      type: "constant"
      value: 0
    }
  }
}
layers {
  bottom: "conv1"
  top: "conv1"
  name: "relu1"
  type: RELU
  relu_param {
    negative_slope: 0.1
  }
}
layers {
  bottom: "conv1"
  top: "cccp1"
  name: "cccp1"
  type: CONVOLUTION
  blobs_lr: 0
  blobs_lr: 0
  weight_decay: 0
  weight_decay: 0
  convolution_param {
    num_output: 128
    kernel_size: 1
    group: 1
    stride: 1
    weight_filler {
      type: "gaussian"
      std: 0.01
    }
    bias_filler {
      type: "constant"
      value: 0
    }
  }
}
layers {
  bottom: "cccp1"
  top: "cccp1"
  name: "relu_cccp1"
  type: RELU
  relu_param {
    negative_slope: 0.1
  }
}
layers {
  bottom: "cccp1"
  top: "pool1"
  name: "pool1"
  type: POOLING
  pooling_param {
    pool: MAX
    kernel_size: 3
    stride: 2
  }
}
layers {
  bottom: "pool1"
  top: "conv2"
  name: "conv2"
  type: CONVOLUTION
  blobs_lr: 0
  blobs_lr: 0
  weight_decay: 0
  weight_decay: 0
  convolution_param {
    num_output: 128
    kernel_size: 3
    weight_filler {
      type: "gaussian"
      std: 0.01
    }
    bias_filler {
      type: "constant"
      value: 1
    }
  }
}
layers {
  bottom: "conv2"
  top: "conv2"
  name: "relu2"
  type: RELU
  relu_param {
    negative_slope: 0.1
  }
}
layers {
  bottom: "conv2"
  top: "cccp2"
  name: "cccp2"
  type: CONVOLUTION
  blobs_lr: 0
  blobs_lr: 0
  weight_decay: 0
  weight_decay: 0
  convolution_param {
    num_output: 128
    kernel_size: 1
    group: 1
    stride: 1
    weight_filler {
      type: "gaussian"
      std: 0.01
    }
    bias_filler {
      type: "constant"
      value: 0
    }
  }
}
layers {
  bottom: "cccp2"
  top: "cccp2"
  name: "relu_cccp2"
  type: RELU
  relu_param {
    negative_slope: 0.1
  }
}
layers {
  bottom: "cccp2"
  top: "conv3"
  name: "conv3"
  type: CONVOLUTION
  blobs_lr: 1
  blobs_lr: 2
  weight_decay: 1
  weight_decay: 0
  convolution_param {
    num_output: 128
    kernel_size: 3
    weight_filler {
      type: "gaussian"
      std: 0.01
    }
    bias_filler {
      type: "constant"
      value: 0
    }
  }
}
layers {
  bottom: "conv3"
  top: "conv3"
  name: "relu3"
  type: RELU
  relu_param {
    negative_slope: 0.1
  }
}
layers {
  bottom: "conv3"
  top: "cccp3"
  name: "cccp3"
  type: CONVOLUTION
  blobs_lr: 1
  blobs_lr: 2
  weight_decay: 1
  weight_decay: 0
  convolution_param {
    num_output: 128
    kernel_size: 1
    group: 1
    stride: 1
    weight_filler {
      type: "gaussian"
      std: 0.01
    }
    bias_filler {
      type: "constant"
      value: 0
    }
  }
}
layers {
  bottom: "cccp3"
  top: "cccp3"
  name: "relu_cccp3"
  type: RELU
  relu_param {
    negative_slope: 0.1
  }
}
layers {
  bottom: "cccp3"
  top: "pool3"
  name: "pool3"
  type: POOLING
  pooling_param {
    pool: MAX
    kernel_size: 3
    stride: 2
  }
}
layers {
  bottom: "pool3"
  top: "fc4"
  name: "fc4"
  type: INNER_PRODUCT
  blobs_lr: 1
  blobs_lr: 2
  weight_decay: 1
  weight_decay: 0
  inner_product_param {
    num_output: 512
    weight_filler {
      type: "gaussian"
      std: 0.005
    }
    bias_filler {
      type: "constant"
      value: 1
    }
  }
}
layers {
  bottom: "fc4"
  top: "fc4"
  name: "relu4"
  type: RELU
  relu_param {
    negative_slope: 0.1
  }
}
layers {
  bottom: "fc4"
  top: "fc4"
  name: "drop4"
  type: DROPOUT
  dropout_param {
    dropout_ratio: 0.5
  }
}
layers {
  bottom: "fc4"
  top: "fc5"
  name: "fc5"
  type: INNER_PRODUCT
  blobs_lr: 1
  blobs_lr: 2
  weight_decay: 1
  weight_decay: 0
  inner_product_param {
    num_output: 512
    weight_filler {
      type: "gaussian"
      std: 0.005
    }
    bias_filler {
      type: "constant"
      value: 1
    }
  }
}
layers {
  bottom: "fc5"
  top: "fc5"
  name: "relu5"
  type: RELU
  relu_param {
    negative_slope: 0.1
  }
}
layers {
  bottom: "fc5"
  top: "fc5"
  name: "drop5"
  type: DROPOUT
  dropout_param {
    dropout_ratio: 0.5
  }
}
layers {
  bottom: "fc5"
  top: "fc6"
  name: "fc6"
  type: INNER_PRODUCT
  blobs_lr: 1
  blobs_lr: 2
  weight_decay: 1
  weight_decay: 0
  inner_product_param {
    num_output: 121
    weight_filler {
      type: "gaussian"
      std: 0.01
    }
    bias_filler {
      type: "constant"
      value: 0
    }
  }
}
layers {
  bottom: "fc6"
  bottom: "label"
  top: "loss"
  name: "loss"
  type: SOFTMAX_LOSS
}
state {
  phase: TRAIN
}
I0227 15:54:04.992502  8434 layer_factory.hpp:78] Creating layer data
I0227 15:54:04.992532  8434 data_transformer.cpp:24] Loading mean file from/home/jaehyun/kaggle/nationalDataScienceBowl/data/typeD/train_mean.binaryproto
I0227 15:54:04.992638  8434 net.cpp:68] Creating Layer data
I0227 15:54:04.992661  8434 net.cpp:357] data -> data
I0227 15:54:04.992688  8434 net.cpp:357] data -> label
I0227 15:54:04.992712  8434 net.cpp:97] Setting up data
I0227 15:54:04.992732  8434 data_layer.cpp:34] Opening dataset /home/jaehyun/kaggle/nationalDataScienceBowl/data/typeD/train_lmdb
I0227 15:54:04.992841  8434 lmdb_dataset.cpp:73] what the fuck!!
I0227 15:54:04.992918  8434 data_layer.cpp:73] output data size: 256,1,48,48
I0227 15:54:05.010707  8434 net.cpp:104] Top shape: 256 1 48 48 (589824)
I0227 15:54:05.010785  8434 net.cpp:104] Top shape: 256 1 1 1 (256)
I0227 15:54:05.010800  8434 layer_factory.hpp:78] Creating layer conv1
I0227 15:54:05.010835  8434 net.cpp:68] Creating Layer conv1
I0227 15:54:05.010850  8434 net.cpp:395] conv1 <- data
I0227 15:54:05.010887  8434 net.cpp:357] conv1 -> conv1
I0227 15:54:05.010910  8434 net.cpp:97] Setting up conv1
I0227 15:54:05.092377  8434 net.cpp:104] Top shape: 256 128 23 23 (17334272)
I0227 15:54:05.092473  8434 layer_factory.hpp:78] Creating layer relu1
I0227 15:54:05.092499  8434 net.cpp:68] Creating Layer relu1
I0227 15:54:05.092514  8434 net.cpp:395] relu1 <- conv1
I0227 15:54:05.092532  8434 net.cpp:346] relu1 -> conv1 (in-place)
I0227 15:54:05.092551  8434 net.cpp:97] Setting up relu1
I0227 15:54:05.092572  8434 net.cpp:104] Top shape: 256 128 23 23 (17334272)
I0227 15:54:05.092586  8434 layer_factory.hpp:78] Creating layer cccp1
I0227 15:54:05.092604  8434 net.cpp:68] Creating Layer cccp1
I0227 15:54:05.092617  8434 net.cpp:395] cccp1 <- conv1
I0227 15:54:05.092633  8434 net.cpp:357] cccp1 -> cccp1
I0227 15:54:05.092649  8434 net.cpp:97] Setting up cccp1
I0227 15:54:05.093415  8434 net.cpp:104] Top shape: 256 128 23 23 (17334272)
I0227 15:54:05.093443  8434 layer_factory.hpp:78] Creating layer relu_cccp1
I0227 15:54:05.093464  8434 net.cpp:68] Creating Layer relu_cccp1
I0227 15:54:05.093538  8434 net.cpp:395] relu_cccp1 <- cccp1
I0227 15:54:05.093556  8434 net.cpp:346] relu_cccp1 -> cccp1 (in-place)
I0227 15:54:05.093571  8434 net.cpp:97] Setting up relu_cccp1
I0227 15:54:05.093587  8434 net.cpp:104] Top shape: 256 128 23 23 (17334272)
I0227 15:54:05.093600  8434 layer_factory.hpp:78] Creating layer pool1
I0227 15:54:05.093621  8434 net.cpp:68] Creating Layer pool1
I0227 15:54:05.093633  8434 net.cpp:395] pool1 <- cccp1
I0227 15:54:05.093653  8434 net.cpp:357] pool1 -> pool1
I0227 15:54:05.093669  8434 net.cpp:97] Setting up pool1
I0227 15:54:05.093703  8434 net.cpp:104] Top shape: 256 128 11 11 (3964928)
I0227 15:54:05.093718  8434 layer_factory.hpp:78] Creating layer conv2
I0227 15:54:05.093735  8434 net.cpp:68] Creating Layer conv2
I0227 15:54:05.093749  8434 net.cpp:395] conv2 <- pool1
I0227 15:54:05.093763  8434 net.cpp:357] conv2 -> conv2
I0227 15:54:05.093780  8434 net.cpp:97] Setting up conv2
I0227 15:54:05.099917  8434 net.cpp:104] Top shape: 256 128 9 9 (2654208)
I0227 15:54:05.099951  8434 layer_factory.hpp:78] Creating layer relu2
I0227 15:54:05.099968  8434 net.cpp:68] Creating Layer relu2
I0227 15:54:05.099980  8434 net.cpp:395] relu2 <- conv2
I0227 15:54:05.099997  8434 net.cpp:346] relu2 -> conv2 (in-place)
I0227 15:54:05.100013  8434 net.cpp:97] Setting up relu2
I0227 15:54:05.100029  8434 net.cpp:104] Top shape: 256 128 9 9 (2654208)
I0227 15:54:05.100042  8434 layer_factory.hpp:78] Creating layer cccp2
I0227 15:54:05.100061  8434 net.cpp:68] Creating Layer cccp2
I0227 15:54:05.100074  8434 net.cpp:395] cccp2 <- conv2
I0227 15:54:05.100087  8434 net.cpp:357] cccp2 -> cccp2
I0227 15:54:05.100103  8434 net.cpp:97] Setting up cccp2
I0227 15:54:05.100858  8434 net.cpp:104] Top shape: 256 128 9 9 (2654208)
I0227 15:54:05.100882  8434 layer_factory.hpp:78] Creating layer relu_cccp2
I0227 15:54:05.100898  8434 net.cpp:68] Creating Layer relu_cccp2
I0227 15:54:05.100911  8434 net.cpp:395] relu_cccp2 <- cccp2
I0227 15:54:05.100925  8434 net.cpp:346] relu_cccp2 -> cccp2 (in-place)
I0227 15:54:05.100939  8434 net.cpp:97] Setting up relu_cccp2
I0227 15:54:05.100955  8434 net.cpp:104] Top shape: 256 128 9 9 (2654208)
I0227 15:54:05.100966  8434 layer_factory.hpp:78] Creating layer conv3
I0227 15:54:05.100983  8434 net.cpp:68] Creating Layer conv3
I0227 15:54:05.101003  8434 net.cpp:395] conv3 <- cccp2
I0227 15:54:05.101018  8434 net.cpp:357] conv3 -> conv3
I0227 15:54:05.101033  8434 net.cpp:97] Setting up conv3
I0227 15:54:05.107200  8434 net.cpp:104] Top shape: 256 128 7 7 (1605632)
I0227 15:54:05.107239  8434 layer_factory.hpp:78] Creating layer relu3
I0227 15:54:05.107256  8434 net.cpp:68] Creating Layer relu3
I0227 15:54:05.107270  8434 net.cpp:395] relu3 <- conv3
I0227 15:54:05.107285  8434 net.cpp:346] relu3 -> conv3 (in-place)
I0227 15:54:05.107300  8434 net.cpp:97] Setting up relu3
I0227 15:54:05.107316  8434 net.cpp:104] Top shape: 256 128 7 7 (1605632)
I0227 15:54:05.107327  8434 layer_factory.hpp:78] Creating layer cccp3
I0227 15:54:05.107342  8434 net.cpp:68] Creating Layer cccp3
I0227 15:54:05.107353  8434 net.cpp:395] cccp3 <- conv3
I0227 15:54:05.107372  8434 net.cpp:357] cccp3 -> cccp3
I0227 15:54:05.107389  8434 net.cpp:97] Setting up cccp3
I0227 15:54:05.108337  8434 net.cpp:104] Top shape: 256 128 7 7 (1605632)
I0227 15:54:05.108363  8434 layer_factory.hpp:78] Creating layer relu_cccp3
I0227 15:54:05.108379  8434 net.cpp:68] Creating Layer relu_cccp3
I0227 15:54:05.108397  8434 net.cpp:395] relu_cccp3 <- cccp3
I0227 15:54:05.108415  8434 net.cpp:346] relu_cccp3 -> cccp3 (in-place)
I0227 15:54:05.108433  8434 net.cpp:97] Setting up relu_cccp3
I0227 15:54:05.108448  8434 net.cpp:104] Top shape: 256 128 7 7 (1605632)
I0227 15:54:05.108459  8434 layer_factory.hpp:78] Creating layer pool3
I0227 15:54:05.108474  8434 net.cpp:68] Creating Layer pool3
I0227 15:54:05.108489  8434 net.cpp:395] pool3 <- cccp3
I0227 15:54:05.108510  8434 net.cpp:357] pool3 -> pool3
I0227 15:54:05.108527  8434 net.cpp:97] Setting up pool3
I0227 15:54:05.108543  8434 net.cpp:104] Top shape: 256 128 3 3 (294912)
I0227 15:54:05.108577  8434 layer_factory.hpp:78] Creating layer fc4
I0227 15:54:05.108597  8434 net.cpp:68] Creating Layer fc4
I0227 15:54:05.108609  8434 net.cpp:395] fc4 <- pool3
I0227 15:54:05.108628  8434 net.cpp:357] fc4 -> fc4
I0227 15:54:05.108644  8434 net.cpp:97] Setting up fc4
I0227 15:54:05.133010  8434 net.cpp:104] Top shape: 256 512 1 1 (131072)
I0227 15:54:05.133050  8434 layer_factory.hpp:78] Creating layer relu4
I0227 15:54:05.133072  8434 net.cpp:68] Creating Layer relu4
I0227 15:54:05.133086  8434 net.cpp:395] relu4 <- fc4
I0227 15:54:05.133101  8434 net.cpp:346] relu4 -> fc4 (in-place)
I0227 15:54:05.133117  8434 net.cpp:97] Setting up relu4
I0227 15:54:05.133142  8434 net.cpp:104] Top shape: 256 512 1 1 (131072)
I0227 15:54:05.133157  8434 layer_factory.hpp:78] Creating layer drop4
I0227 15:54:05.133178  8434 net.cpp:68] Creating Layer drop4
I0227 15:54:05.133191  8434 net.cpp:395] drop4 <- fc4
I0227 15:54:05.133205  8434 net.cpp:346] drop4 -> fc4 (in-place)
I0227 15:54:05.133219  8434 net.cpp:97] Setting up drop4
I0227 15:54:05.133234  8434 net.cpp:104] Top shape: 256 512 1 1 (131072)
I0227 15:54:05.133244  8434 layer_factory.hpp:78] Creating layer fc5
I0227 15:54:05.133260  8434 net.cpp:68] Creating Layer fc5
I0227 15:54:05.133271  8434 net.cpp:395] fc5 <- fc4
I0227 15:54:05.133291  8434 net.cpp:357] fc5 -> fc5
I0227 15:54:05.133308  8434 net.cpp:97] Setting up fc5
I0227 15:54:05.144114  8434 net.cpp:104] Top shape: 256 512 1 1 (131072)
I0227 15:54:05.144140  8434 layer_factory.hpp:78] Creating layer relu5
I0227 15:54:05.144157  8434 net.cpp:68] Creating Layer relu5
I0227 15:54:05.144170  8434 net.cpp:395] relu5 <- fc5
I0227 15:54:05.144183  8434 net.cpp:346] relu5 -> fc5 (in-place)
I0227 15:54:05.144198  8434 net.cpp:97] Setting up relu5
I0227 15:54:05.144214  8434 net.cpp:104] Top shape: 256 512 1 1 (131072)
I0227 15:54:05.144227  8434 layer_factory.hpp:78] Creating layer drop5
I0227 15:54:05.144242  8434 net.cpp:68] Creating Layer drop5
I0227 15:54:05.144253  8434 net.cpp:395] drop5 <- fc5
I0227 15:54:05.144268  8434 net.cpp:346] drop5 -> fc5 (in-place)
I0227 15:54:05.144280  8434 net.cpp:97] Setting up drop5
I0227 15:54:05.144292  8434 net.cpp:104] Top shape: 256 512 1 1 (131072)
I0227 15:54:05.144304  8434 layer_factory.hpp:78] Creating layer fc6
I0227 15:54:05.144317  8434 net.cpp:68] Creating Layer fc6
I0227 15:54:05.144328  8434 net.cpp:395] fc6 <- fc5
I0227 15:54:05.144345  8434 net.cpp:357] fc6 -> fc6
I0227 15:54:05.144361  8434 net.cpp:97] Setting up fc6
I0227 15:54:05.146910  8434 net.cpp:104] Top shape: 256 121 1 1 (30976)
I0227 15:54:05.146935  8434 layer_factory.hpp:78] Creating layer loss
I0227 15:54:05.146952  8434 net.cpp:68] Creating Layer loss
I0227 15:54:05.146965  8434 net.cpp:395] loss <- fc6
I0227 15:54:05.146977  8434 net.cpp:395] loss <- label
I0227 15:54:05.146994  8434 net.cpp:357] loss -> loss
I0227 15:54:05.147012  8434 net.cpp:97] Setting up loss
I0227 15:54:05.147027  8434 layer_factory.hpp:78] Creating layer loss
I0227 15:54:05.147125  8434 net.cpp:104] Top shape: 1 1 1 1 (1)
I0227 15:54:05.147142  8434 net.cpp:110]     with loss weight 1
I0227 15:54:05.147191  8434 net.cpp:171] loss needs backward computation.
I0227 15:54:05.147203  8434 net.cpp:171] fc6 needs backward computation.
I0227 15:54:05.147228  8434 net.cpp:171] drop5 needs backward computation.
I0227 15:54:05.147238  8434 net.cpp:171] relu5 needs backward computation.
I0227 15:54:05.147249  8434 net.cpp:171] fc5 needs backward computation.
…
I0227 15:54:05.148346  8434 net.cpp:276] The NetState phase (1) differed from the phase (0) specified by a rule in layer data
I0227 15:54:05.148586  8434 net.cpp:39] Initializing net from parameters: 
name: "model1_part3"
layers {
  top: "data"
  top: "label"
  name: "data"
  type: DATA
  data_param {
    source: "/home/jaehyun/kaggle/nationalDataScienceBowl/data/typeD/val_lmdb"
    batch_size: 256
    backend: LMDB
  }
  include {
    phase: TEST
  }
  transform_param {
    mirror: false
    mean_file: "/home/jaehyun/kaggle/nationalDataScienceBowl/data/typeD/train_mean.binaryproto"
  }
}
layers {
  bottom: "data"
  top: "conv1"
  name: "conv1"
  type: CONVOLUTION
  blobs_lr: 0
  blobs_lr: 0
  weight_decay: 0
  weight_decay: 0
  convolution_param {
    num_output: 128
    kernel_size: 4
    stride: 2
    weight_filler {
      type: "gaussian"
      std: 0.01
    }
    bias_filler {
      type: "constant"
      value: 0
    }
  }
}
layers {
  bottom: "conv1"
  top: "conv1"
  name: "relu1"
  type: RELU
  relu_param {
    negative_slope: 0.1
  }
}
layers {
  bottom: "conv1"
  top: "cccp1"
  name: "cccp1"
  type: CONVOLUTION
  blobs_lr: 0
  blobs_lr: 0
  weight_decay: 0
  weight_decay: 0
  convolution_param {
    num_output: 128
    kernel_size: 1
    group: 1
    stride: 1
    weight_filler {
      type: "gaussian"
      std: 0.01
    }
    bias_filler {
      type: "constant"
      value: 0
    }
  }
}
layers {
  bottom: "cccp1"
  top: "cccp1"
  name: "relu_cccp1"
  type: RELU
  relu_param {
    negative_slope: 0.1
  }
}
layers {
  bottom: "cccp1"
  top: "pool1"
  name: "pool1"
  type: POOLING
  pooling_param {
    pool: MAX
    kernel_size: 3
    stride: 2
  }
}
layers {
  bottom: "pool1"
  top: "conv2"
  name: "conv2"
  type: CONVOLUTION
  blobs_lr: 0
  blobs_lr: 0
  weight_decay: 0
  weight_decay: 0
  convolution_param {
    num_output: 128
    kernel_size: 3
    weight_filler {
      type: "gaussian"
      std: 0.01
    }
    bias_filler {
      type: "constant"
      value: 1
    }
  }
}
layers {
  bottom: "conv2"
  top: "conv2"
  name: "relu2"
  type: RELU
  relu_param {
    negative_slope: 0.1
  }
}
layers {
  bottom: "conv2"
  top: "cccp2"
  name: "cccp2"
  type: CONVOLUTION
  blobs_lr: 0
  blobs_lr: 0
  weight_decay: 0
  weight_decay: 0
  convolution_param {
    num_output: 128
    kernel_size: 1
    group: 1
    stride: 1
    weight_filler {
      type: "gaussian"
      std: 0.01
    }
    bias_filler {
      type: "constant"
      value: 0
    }
  }
}
layers {
  bottom: "cccp2"
  top: "cccp2"
  name: "relu_cccp2"
  type: RELU
  relu_param {
    negative_slope: 0.1
  }
}
layers {
  bottom: "cccp2"
  top: "conv3"
  name: "conv3"
  type: CONVOLUTION
  blobs_lr: 1
  blobs_lr: 2
  weight_decay: 1
  weight_decay: 0
  convolution_param {
    num_output: 128
    kernel_size: 3
    weight_filler {
      type: "gaussian"
      std: 0.01
    }
    bias_filler {
      type: "constant"
      value: 0
    }
  }
}
layers {
  bottom: "conv3"
  top: "conv3"
  name: "relu3"
  type: RELU
  relu_param {
    negative_slope: 0.1
  }
}
layers {
  bottom: "conv3"
  top: "cccp3"
  name: "cccp3"
  type: CONVOLUTION
  blobs_lr: 1
  blobs_lr: 2
  weight_decay: 1
  weight_decay: 0
  convolution_param {
    num_output: 128
    kernel_size: 1
    group: 1
    stride: 1
    weight_filler {
      type: "gaussian"
      std: 0.01
    }
    bias_filler {
      type: "constant"
      value: 0
    }
  }
}
layers {
  bottom: "cccp3"
  top: "cccp3"
  name: "relu_cccp3"
  type: RELU
  relu_param {
    negative_slope: 0.1
  }
}
layers {
  bottom: "cccp3"
  top: "pool3"
  name: "pool3"
  type: POOLING
  pooling_param {
    pool: MAX
    kernel_size: 3
    stride: 2
  }
}
layers {
  bottom: "pool3"
  top: "fc4"
  name: "fc4"
  type: INNER_PRODUCT
  blobs_lr: 1
  blobs_lr: 2
  weight_decay: 1
  weight_decay: 0
  inner_product_param {
    num_output: 512
    weight_filler {
      type: "gaussian"
      std: 0.005
    }
    bias_filler {
      type: "constant"
      value: 1
    }
  }
}
layers {
  bottom: "fc4"
  top: "fc4"
  name: "relu4"
  type: RELU
  relu_param {
    negative_slope: 0.1
  }
}
layers {
  bottom: "fc4"
  top: "fc4"
  name: "drop4"
  type: DROPOUT
  dropout_param {
    dropout_ratio: 0.5
  }
}
layers {
  bottom: "fc4"
  top: "fc5"
  name: "fc5"
  type: INNER_PRODUCT
  blobs_lr: 1
  blobs_lr: 2
  weight_decay: 1
  weight_decay: 0
  inner_product_param {
    num_output: 512
    weight_filler {
      type: "gaussian"
      std: 0.005
    }
    bias_filler {
      type: "constant"
      value: 1
    }
  }
}
layers {
  bottom: "fc5"
  top: "fc5"
  name: "relu5"
  type: RELU
  relu_param {
    negative_slope: 0.1
  }
}
layers {
  bottom: "fc5"
  top: "fc5"
  name: "drop5"
  type: DROPOUT
  dropout_param {
    dropout_ratio: 0.5
  }
}
layers {
  bottom: "fc5"
  top: "fc6"
  name: "fc6"
  type: INNER_PRODUCT
  blobs_lr: 1
  blobs_lr: 2
  weight_decay: 1
  weight_decay: 0
  inner_product_param {
    num_output: 121
    weight_filler {
      type: "gaussian"
      std: 0.01
    }
    bias_filler {
      type: "constant"
      value: 0
    }
  }
}
layers {
  bottom: "fc6"
  top: "prob"
  name: "prob"
  type: SOFTMAX
  include {
    phase: TEST
  }
}
layers {
  bottom: "prob"
  bottom: "label"
  top: "accuracy"
  name: "accuracy"
  type: ACCURACY
  accuracy_param {
    top_k: 1
  }
  include {
    phase: TEST
  }
}
layers {
  bottom: "fc6"
  bottom: "label"
  top: "loss"
  name: "loss"
  type: SOFTMAX_LOSS
}
state {
  phase: TEST
}
I0227 15:54:05.149802  8434 layer_factory.hpp:78] Creating layer data
I0227 15:54:05.149826  8434 data_transformer.cpp:24] Loading mean file from/home/jaehyun/kaggle/nationalDataScienceBowl/data/typeD/train_mean.binaryproto
I0227 15:54:05.149891  8434 net.cpp:68] Creating Layer data
I0227 15:54:05.149909  8434 net.cpp:357] data -> data
I0227 15:54:05.149927  8434 net.cpp:357] data -> label
I0227 15:54:05.149943  8434 net.cpp:97] Setting up data
I0227 15:54:05.149957  8434 data_layer.cpp:34] Opening dataset /home/jaehyun/kaggle/nationalDataScienceBowl/data/typeD/val_lmdb
I0227 15:54:05.190954  8434 lmdb_dataset.cpp:73] what the fuck!!
I0227 15:54:05.191061  8434 data_layer.cpp:73] output data size: 256,1,48,48
I0227 15:54:05.192217  8434 net.cpp:104] Top shape: 256 1 48 48 (589824)
I0227 15:54:05.192231  8434 net.cpp:104] Top shape: 256 1 1 1 (256)
I0227 15:54:05.192240  8434 layer_factory.hpp:78] Creating layer label_data_1_split
I0227 15:54:05.192263  8434 net.cpp:68] Creating Layer label_data_1_split
I0227 15:54:05.192272  8434 net.cpp:395] label_data_1_split <- label
I0227 15:54:05.192284  8434 net.cpp:357] label_data_1_split -> label_data_1_split_0
I0227 15:54:05.192404  8434 net.cpp:357] label_data_1_split -> label_data_1_split_1
I0227 15:54:05.192420  8434 net.cpp:97] Setting up label_data_1_split
I0227 15:54:05.192437  8434 net.cpp:104] Top shape: 256 1 1 1 (256)
I0227 15:54:05.192495  8434 net.cpp:104] Top shape: 256 1 1 1 (256)
I0227 15:54:05.192512  8434 layer_factory.hpp:78] Creating layer conv1
I0227 15:54:05.192530  8434 net.cpp:68] Creating Layer conv1
I0227 15:54:05.192538  8434 net.cpp:395] conv1 <- data
I0227 15:54:05.192556  8434 net.cpp:357] conv1 -> conv1
I0227 15:54:05.192569  8434 net.cpp:97] Setting up conv1
I0227 15:54:05.192800  8434 net.cpp:104] Top shape: 256 128 23 23 (17334272)
I0227 15:54:05.192821  8434 layer_factory.hpp:78] Creating layer relu1
I0227 15:54:05.192842  8434 net.cpp:68] Creating Layer relu1
I0227 15:54:05.192850  8434 net.cpp:395] relu1 <- conv1
I0227 15:54:05.192860  8434 net.cpp:346] relu1 -> conv1 (in-place)
I0227 15:54:05.192870  8434 net.cpp:97] Setting up relu1
I0227 15:54:05.192881  8434 net.cpp:104] Top shape: 256 128 23 23 (17334272)
I0227 15:54:05.192948  8434 layer_factory.hpp:78] Creating layer cccp1
I0227 15:54:05.192970  8434 net.cpp:68] Creating Layer cccp1
I0227 15:54:05.192986  8434 net.cpp:395] cccp1 <- conv1
I0227 15:54:05.192997  8434 net.cpp:357] cccp1 -> cccp1
I0227 15:54:05.193011  8434 net.cpp:97] Setting up cccp1
I0227 15:54:05.193781  8434 net.cpp:104] Top shape: 256 128 23 23 (17334272)
I0227 15:54:05.193807  8434 layer_factory.hpp:78] Creating layer relu_cccp1
I0227 15:54:05.193819  8434 net.cpp:68] Creating Layer relu_cccp1
I0227 15:54:05.193826  8434 net.cpp:395] relu_cccp1 <- cccp1
I0227 15:54:05.193838  8434 net.cpp:346] relu_cccp1 -> cccp1 (in-place)
I0227 15:54:05.193850  8434 net.cpp:97] Setting up relu_cccp1
I0227 15:54:05.193861  8434 net.cpp:104] Top shape: 256 128 23 23 (17334272)
I0227 15:54:05.193931  8434 layer_factory.hpp:78] Creating layer pool1
I0227 15:54:05.193999  8434 net.cpp:68] Creating Layer pool1
I0227 15:54:05.194008  8434 net.cpp:395] pool1 <- cccp1
I0227 15:54:05.194021  8434 net.cpp:357] pool1 -> pool1
I0227 15:54:05.194032  8434 net.cpp:97] Setting up pool1
I0227 15:54:05.194051  8434 net.cpp:104] Top shape: 256 128 11 11 (3964928)
I0227 15:54:05.194061  8434 layer_factory.hpp:78] Creating layer conv2
I0227 15:54:05.194077  8434 net.cpp:68] Creating Layer conv2
I0227 15:54:05.194085  8434 net.cpp:395] conv2 <- pool1
I0227 15:54:05.194097  8434 net.cpp:357] conv2 -> conv2
I0227 15:54:05.194108  8434 net.cpp:97] Setting up conv2
I0227 15:54:05.200358  8434 net.cpp:104] Top shape: 256 128 9 9 (2654208)
I0227 15:54:05.200392  8434 layer_factory.hpp:78] Creating layer relu2
I0227 15:54:05.200410  8434 net.cpp:68] Creating Layer relu2
I0227 15:54:05.200424  8434 net.cpp:395] relu2 <- conv2
I0227 15:54:05.200443  8434 net.cpp:346] relu2 -> conv2 (in-place)
I0227 15:54:05.200459  8434 net.cpp:97] Setting up relu2
I0227 15:54:05.200474  8434 net.cpp:104] Top shape: 256 128 9 9 (2654208)
I0227 15:54:05.200485  8434 layer_factory.hpp:78] Creating layer cccp2
I0227 15:54:05.200502  8434 net.cpp:68] Creating Layer cccp2
I0227 15:54:05.200515  8434 net.cpp:395] cccp2 <- conv2
I0227 15:54:05.200531  8434 net.cpp:357] cccp2 -> cccp2
I0227 15:54:05.200548  8434 net.cpp:97] Setting up cccp2
I0227 15:54:05.201305  8434 net.cpp:104] Top shape: 256 128 9 9 (2654208)
I0227 15:54:05.201330  8434 layer_factory.hpp:78] Creating layer relu_cccp2
I0227 15:54:05.201349  8434 net.cpp:68] Creating Layer relu_cccp2
I0227 15:54:05.201362  8434 net.cpp:395] relu_cccp2 <- cccp2
I0227 15:54:05.201377  8434 net.cpp:346] relu_cccp2 -> cccp2 (in-place)
I0227 15:54:05.201391  8434 net.cpp:97] Setting up relu_cccp2
I0227 15:54:05.201406  8434 net.cpp:104] Top shape: 256 128 9 9 (2654208)
I0227 15:54:05.201417  8434 layer_factory.hpp:78] Creating layer conv3
I0227 15:54:05.201436  8434 net.cpp:68] Creating Layer conv3
I0227 15:54:05.201448  8434 net.cpp:395] conv3 <- cccp2
I0227 15:54:05.201462  8434 net.cpp:357] conv3 -> conv3
I0227 15:54:05.201478  8434 net.cpp:97] Setting up conv3
I0227 15:54:05.207926  8434 net.cpp:104] Top shape: 256 128 7 7 (1605632)
I0227 15:54:05.207963  8434 layer_factory.hpp:78] Creating layer relu3
I0227 15:54:05.207981  8434 net.cpp:68] Creating Layer relu3
I0227 15:54:05.207999  8434 net.cpp:395] relu3 <- conv3
I0227 15:54:05.208045  8434 net.cpp:346] relu3 -> conv3 (in-place)
I0227 15:54:05.208062  8434 net.cpp:97] Setting up relu3
I0227 15:54:05.208077  8434 net.cpp:104] Top shape: 256 128 7 7 (1605632)
I0227 15:54:05.208091  8434 layer_factory.hpp:78] Creating layer cccp3
I0227 15:54:05.208111  8434 net.cpp:68] Creating Layer cccp3
I0227 15:54:05.208123  8434 net.cpp:395] cccp3 <- conv3
I0227 15:54:05.208137  8434 net.cpp:357] cccp3 -> cccp3
I0227 15:54:05.208153  8434 net.cpp:97] Setting up cccp3
I0227 15:54:05.208909  8434 net.cpp:104] Top shape: 256 128 7 7 (1605632)
I0227 15:54:05.208938  8434 layer_factory.hpp:78] Creating layer relu_cccp3
I0227 15:54:05.208953  8434 net.cpp:68] Creating Layer relu_cccp3
I0227 15:54:05.208966  8434 net.cpp:395] relu_cccp3 <- cccp3
I0227 15:54:05.208981  8434 net.cpp:346] relu_cccp3 -> cccp3 (in-place)
I0227 15:54:05.208995  8434 net.cpp:97] Setting up relu_cccp3
I0227 15:54:05.209010  8434 net.cpp:104] Top shape: 256 128 7 7 (1605632)
I0227 15:54:05.209022  8434 layer_factory.hpp:78] Creating layer pool3
I0227 15:54:05.209038  8434 net.cpp:68] Creating Layer pool3
I0227 15:54:05.209049  8434 net.cpp:395] pool3 <- cccp3
I0227 15:54:05.209065  8434 net.cpp:357] pool3 -> pool3
I0227 15:54:05.209080  8434 net.cpp:97] Setting up pool3
I0227 15:54:05.209097  8434 net.cpp:104] Top shape: 256 128 3 3 (294912)
I0227 15:54:05.209110  8434 layer_factory.hpp:78] Creating layer fc4
I0227 15:54:05.209131  8434 net.cpp:68] Creating Layer fc4
I0227 15:54:05.209146  8434 net.cpp:395] fc4 <- pool3
I0227 15:54:05.209159  8434 net.cpp:357] fc4 -> fc4
I0227 15:54:05.209175  8434 net.cpp:97] Setting up fc4
I0227 15:54:05.233499  8434 net.cpp:104] Top shape: 256 512 1 1 (131072)
I0227 15:54:05.233530  8434 layer_factory.hpp:78] Creating layer relu4
I0227 15:54:05.233546  8434 net.cpp:68] Creating Layer relu4
I0227 15:54:05.233559  8434 net.cpp:395] relu4 <- fc4
I0227 15:54:05.233574  8434 net.cpp:346] relu4 -> fc4 (in-place)
I0227 15:54:05.233592  8434 net.cpp:97] Setting up relu4
I0227 15:54:05.233609  8434 net.cpp:104] Top shape: 256 512 1 1 (131072)
I0227 15:54:05.233623  8434 layer_factory.hpp:78] Creating layer drop4
I0227 15:54:05.233644  8434 net.cpp:68] Creating Layer drop4
I0227 15:54:05.233656  8434 net.cpp:395] drop4 <- fc4
I0227 15:54:05.233670  8434 net.cpp:346] drop4 -> fc4 (in-place)
I0227 15:54:05.233685  8434 net.cpp:97] Setting up drop4
I0227 15:54:05.233698  8434 net.cpp:104] Top shape: 256 512 1 1 (131072)
I0227 15:54:05.233710  8434 layer_factory.hpp:78] Creating layer fc5
I0227 15:54:05.233726  8434 net.cpp:68] Creating Layer fc5
I0227 15:54:05.233738  8434 net.cpp:395] fc5 <- fc4
I0227 15:54:05.233752  8434 net.cpp:357] fc5 -> fc5
I0227 15:54:05.233768  8434 net.cpp:97] Setting up fc5
I0227 15:54:05.244613  8434 net.cpp:104] Top shape: 256 512 1 1 (131072)
I0227 15:54:05.244642  8434 layer_factory.hpp:78] Creating layer relu5
I0227 15:54:05.244658  8434 net.cpp:68] Creating Layer relu5
I0227 15:54:05.244671  8434 net.cpp:395] relu5 <- fc5
I0227 15:54:05.244686  8434 net.cpp:346] relu5 -> fc5 (in-place)
I0227 15:54:05.244703  8434 net.cpp:97] Setting up relu5
I0227 15:54:05.244719  8434 net.cpp:104] Top shape: 256 512 1 1 (131072)
I0227 15:54:05.244731  8434 layer_factory.hpp:78] Creating layer drop5
I0227 15:54:05.244748  8434 net.cpp:68] Creating Layer drop5
I0227 15:54:05.244760  8434 net.cpp:395] drop5 <- fc5
I0227 15:54:05.244774  8434 net.cpp:346] drop5 -> fc5 (in-place)
I0227 15:54:05.244788  8434 net.cpp:97] Setting up drop5
I0227 15:54:05.244801  8434 net.cpp:104] Top shape: 256 512 1 1 (131072)
I0227 15:54:05.244812  8434 layer_factory.hpp:78] Creating layer fc6
I0227 15:54:05.244827  8434 net.cpp:68] Creating Layer fc6
I0227 15:54:05.244843  8434 net.cpp:395] fc6 <- fc5
I0227 15:54:05.244855  8434 net.cpp:357] fc6 -> fc6
I0227 15:54:05.244873  8434 net.cpp:97] Setting up fc6
I0227 15:54:05.247457  8434 net.cpp:104] Top shape: 256 121 1 1 (30976)
I0227 15:54:05.247486  8434 layer_factory.hpp:78] Creating layer fc6_fc6_0_split
I0227 15:54:05.247503  8434 net.cpp:68] Creating Layer fc6_fc6_0_split
I0227 15:54:05.247545  8434 net.cpp:395] fc6_fc6_0_split <- fc6
I0227 15:54:05.247565  8434 net.cpp:357] fc6_fc6_0_split -> fc6_fc6_0_split_0
I0227 15:54:05.247583  8434 net.cpp:357] fc6_fc6_0_split -> fc6_fc6_0_split_1
I0227 15:54:05.247601  8434 net.cpp:97] Setting up fc6_fc6_0_split
I0227 15:54:05.247613  8434 net.cpp:104] Top shape: 256 121 1 1 (30976)
I0227 15:54:05.247627  8434 net.cpp:104] Top shape: 256 121 1 1 (30976)
I0227 15:54:05.247638  8434 layer_factory.hpp:78] Creating layer prob
I0227 15:54:05.247659  8434 net.cpp:68] Creating Layer prob
I0227 15:54:05.247671  8434 net.cpp:395] prob <- fc6_fc6_0_split_0
I0227 15:54:05.247685  8434 net.cpp:357] prob -> prob
I0227 15:54:05.247700  8434 net.cpp:97] Setting up prob
I0227 15:54:05.247719  8434 net.cpp:104] Top shape: 256 121 1 1 (30976)
I0227 15:54:05.247731  8434 layer_factory.hpp:78] Creating layer accuracy
I0227 15:54:05.247753  8434 net.cpp:68] Creating Layer accuracy
I0227 15:54:05.247766  8434 net.cpp:395] accuracy <- prob
I0227 15:54:05.247779  8434 net.cpp:395] accuracy <- label_data_1_split_0
I0227 15:54:05.247793  8434 net.cpp:357] accuracy -> accuracy
I0227 15:54:05.247809  8434 net.cpp:97] Setting up accuracy
I0227 15:54:05.247824  8434 net.cpp:104] Top shape: 1 1 1 1 (1)
I0227 15:54:05.247836  8434 layer_factory.hpp:78] Creating layer loss
I0227 15:54:05.247853  8434 net.cpp:68] Creating Layer loss
I0227 15:54:05.247866  8434 net.cpp:395] loss <- fc6_fc6_0_split_1
I0227 15:54:05.247879  8434 net.cpp:395] loss <- label_data_1_split_1
I0227 15:54:05.247892  8434 net.cpp:357] loss -> loss
I0227 15:54:05.247906  8434 net.cpp:97] Setting up loss
I0227 15:54:05.247920  8434 layer_factory.hpp:78] Creating layer loss
I0227 15:54:05.248013  8434 net.cpp:104] Top shape: 1 1 1 1 (1)
I0227 15:54:05.248036  8434 net.cpp:110]     with loss weight 1
I0227 15:54:05.248060  8434 net.cpp:171] loss needs backward computation.
I0227 15:54:05.248072  8434 net.cpp:173] accuracy does not need backward computation.
I0227 15:54:05.248083  8434 net.cpp:173] prob does not need backward computation.
I0227 15:54:05.248093  8434 net.cpp:171] fc6_fc6_0_split needs backward computation.
…
