…
I0227 16:18:35.567944 31810 net.cpp:276] The NetState phase (0) differed from the phase (1) specified by a rule in layer accuracy
I0227 16:18:35.568403 31810 net.cpp:39] Initializing net from parameters: 
name: "model1_full"
layers {
  top: "data"
  top: "label"
  name: "data"
  type: DATA
  data_param {
    source: "/home/jaehyun/kaggle/nationalDataScienceBowl/data/typeD/train_lmdb"
    batch_size: 256
    backend: LMDB
    shuffle: true
  }
  include {
    phase: TRAIN
  }
  transform_param {
    mirror: true
    mean_file: "/home/jaehyun/kaggle/nationalDataScienceBowl/data/typeD/train_mean.binaryproto"
  }
}
layers {
  bottom: "data"
  top: "conv1"
  name: "conv1"
  type: CONVOLUTION
  blobs_lr: 1
  blobs_lr: 2
  weight_decay: 1
  weight_decay: 0
  convolution_param {
    num_output: 128
    kernel_size: 4
    stride: 2
    weight_filler {
      type: "gaussian"
      std: 0.01
    }
    bias_filler {
      type: "constant"
      value: 0
    }
  }
}
layers {
  bottom: "conv1"
  top: "conv1"
  name: "relu1"
  type: RELU
  relu_param {
    negative_slope: 0.1
  }
}
layers {
  bottom: "conv1"
  top: "cccp1"
  name: "cccp1"
  type: CONVOLUTION
  blobs_lr: 1
  blobs_lr: 2
  weight_decay: 1
  weight_decay: 0
  convolution_param {
    num_output: 128
    kernel_size: 1
    group: 1
    stride: 1
    weight_filler {
      type: "gaussian"
      std: 0.01
    }
    bias_filler {
      type: "constant"
      value: 0
    }
  }
}
layers {
  bottom: "cccp1"
  top: "cccp1"
  name: "relu_cccp1"
  type: RELU
  relu_param {
    negative_slope: 0.1
  }
}
layers {
  bottom: "cccp1"
  top: "pool1"
  name: "pool1"
  type: POOLING
  pooling_param {
    pool: MAX
    kernel_size: 3
    stride: 2
  }
}
layers {
  bottom: "pool1"
  top: "conv2"
  name: "conv2"
  type: CONVOLUTION
  blobs_lr: 1
  blobs_lr: 2
  weight_decay: 1
  weight_decay: 0
  convolution_param {
    num_output: 128
    kernel_size: 3
    weight_filler {
      type: "gaussian"
      std: 0.01
    }
    bias_filler {
      type: "constant"
      value: 1
    }
  }
}
layers {
  bottom: "conv2"
  top: "conv2"
  name: "relu2"
  type: RELU
  relu_param {
    negative_slope: 0.1
  }
}
layers {
  bottom: "conv2"
  top: "cccp2"
  name: "cccp2"
  type: CONVOLUTION
  blobs_lr: 1
  blobs_lr: 2
  weight_decay: 1
  weight_decay: 0
  convolution_param {
    num_output: 128
    kernel_size: 1
    group: 1
    stride: 1
    weight_filler {
      type: "gaussian"
      std: 0.01
    }
    bias_filler {
      type: "constant"
      value: 0
    }
  }
}
layers {
  bottom: "cccp2"
  top: "cccp2"
  name: "relu_cccp2"
  type: RELU
  relu_param {
    negative_slope: 0.1
  }
}
layers {
  bottom: "cccp2"
  top: "conv3"
  name: "conv3"
  type: CONVOLUTION
  blobs_lr: 1
  blobs_lr: 2
  weight_decay: 1
  weight_decay: 0
  convolution_param {
    num_output: 128
    kernel_size: 3
    weight_filler {
      type: "gaussian"
      std: 0.01
    }
    bias_filler {
      type: "constant"
      value: 0
    }
  }
}
layers {
  bottom: "conv3"
  top: "conv3"
  name: "relu3"
  type: RELU
  relu_param {
    negative_slope: 0.1
  }
}
layers {
  bottom: "conv3"
  top: "cccp3"
  name: "cccp3"
  type: CONVOLUTION
  blobs_lr: 1
  blobs_lr: 2
  weight_decay: 1
  weight_decay: 0
  convolution_param {
    num_output: 128
    kernel_size: 1
    group: 1
    stride: 1
    weight_filler {
      type: "gaussian"
      std: 0.01
    }
    bias_filler {
      type: "constant"
      value: 0
    }
  }
}
layers {
  bottom: "cccp3"
  top: "cccp3"
  name: "relu_cccp3"
  type: RELU
  relu_param {
    negative_slope: 0.1
  }
}
layers {
  bottom: "cccp3"
  top: "pool3"
  name: "pool3"
  type: POOLING
  pooling_param {
    pool: MAX
    kernel_size: 3
    stride: 2
  }
}
layers {
  bottom: "pool3"
  top: "fc4"
  name: "fc4"
  type: INNER_PRODUCT
  blobs_lr: 1
  blobs_lr: 2
  weight_decay: 1
  weight_decay: 0
  inner_product_param {
    num_output: 512
    weight_filler {
      type: "gaussian"
      std: 0.005
    }
    bias_filler {
      type: "constant"
      value: 1
    }
  }
}
layers {
  bottom: "fc4"
  top: "fc4"
  name: "relu4"
  type: RELU
  relu_param {
    negative_slope: 0.1
  }
}
layers {
  bottom: "fc4"
  top: "fc4"
  name: "drop4"
  type: DROPOUT
  dropout_param {
    dropout_ratio: 0.5
  }
}
layers {
  bottom: "fc4"
  top: "fc5"
  name: "fc5"
  type: INNER_PRODUCT
  blobs_lr: 1
  blobs_lr: 2
  weight_decay: 1
  weight_decay: 0
  inner_product_param {
    num_output: 512
    weight_filler {
      type: "gaussian"
      std: 0.005
    }
    bias_filler {
      type: "constant"
      value: 1
    }
  }
}
layers {
  bottom: "fc5"
  top: "fc5"
  name: "relu5"
  type: RELU
  relu_param {
    negative_slope: 0.1
  }
}
layers {
  bottom: "fc5"
  top: "fc5"
  name: "drop5"
  type: DROPOUT
  dropout_param {
    dropout_ratio: 0.5
  }
}
layers {
  bottom: "fc5"
  top: "fc6"
  name: "fc6"
  type: INNER_PRODUCT
  blobs_lr: 1
  blobs_lr: 2
  weight_decay: 1
  weight_decay: 0
  inner_product_param {
    num_output: 121
    weight_filler {
      type: "gaussian"
      std: 0.01
    }
    bias_filler {
      type: "constant"
      value: 0
    }
  }
}
layers {
  bottom: "fc6"
  bottom: "label"
  top: "loss"
  name: "loss"
  type: SOFTMAX_LOSS
}
state {
  phase: TRAIN
}
I0227 16:18:35.568931 31810 layer_factory.hpp:78] Creating layer data
I0227 16:18:35.964130 31810 data_transformer.cpp:24] Loading mean file from/home/jaehyun/kaggle/nationalDataScienceBowl/data/typeD/train_mean.binaryproto
I0227 16:18:36.357238 31810 net.cpp:68] Creating Layer data
I0227 16:18:36.357308 31810 net.cpp:357] data -> data
I0227 16:18:36.357343 31810 net.cpp:357] data -> label
I0227 16:18:36.357365 31810 net.cpp:97] Setting up data
I0227 16:18:37.272162 31810 data_layer.cpp:34] Opening dataset /home/jaehyun/kaggle/nationalDataScienceBowl/data/typeD/train_lmdb
I0227 16:18:38.091959 31810 lmdb_dataset.cpp:73] what the fuck!!
I0227 16:18:38.092098 31810 data_layer.cpp:73] output data size: 256,1,48,48
I0227 16:18:38.093771 31810 net.cpp:104] Top shape: 256 1 48 48 (589824)
I0227 16:18:38.093788 31810 net.cpp:104] Top shape: 256 1 1 1 (256)
I0227 16:18:38.093797 31810 layer_factory.hpp:78] Creating layer conv1
I0227 16:18:38.093842 31810 net.cpp:68] Creating Layer conv1
I0227 16:18:38.093854 31810 net.cpp:395] conv1 <- data
I0227 16:18:38.093983 31810 net.cpp:357] conv1 -> conv1
I0227 16:18:38.094040 31810 net.cpp:97] Setting up conv1
I0227 16:18:51.838824 31810 net.cpp:104] Top shape: 256 128 23 23 (17334272)
I0227 16:18:51.838953 31810 layer_factory.hpp:78] Creating layer relu1
I0227 16:18:51.838989 31810 net.cpp:68] Creating Layer relu1
I0227 16:18:51.839010 31810 net.cpp:395] relu1 <- conv1
I0227 16:18:51.839031 31810 net.cpp:346] relu1 -> conv1 (in-place)
I0227 16:18:51.839057 31810 net.cpp:97] Setting up relu1
I0227 16:18:51.839087 31810 net.cpp:104] Top shape: 256 128 23 23 (17334272)
I0227 16:18:51.839102 31810 layer_factory.hpp:78] Creating layer cccp1
I0227 16:18:51.839125 31810 net.cpp:68] Creating Layer cccp1
I0227 16:18:51.839140 31810 net.cpp:395] cccp1 <- conv1
I0227 16:18:51.839161 31810 net.cpp:357] cccp1 -> cccp1
I0227 16:18:51.839184 31810 net.cpp:97] Setting up cccp1
I0227 16:18:51.840137 31810 net.cpp:104] Top shape: 256 128 23 23 (17334272)
I0227 16:18:51.840162 31810 layer_factory.hpp:78] Creating layer relu_cccp1
I0227 16:18:51.840176 31810 net.cpp:68] Creating Layer relu_cccp1
I0227 16:18:51.840186 31810 net.cpp:395] relu_cccp1 <- cccp1
I0227 16:18:51.840196 31810 net.cpp:346] relu_cccp1 -> cccp1 (in-place)
I0227 16:18:51.840271 31810 net.cpp:97] Setting up relu_cccp1
I0227 16:18:51.840286 31810 net.cpp:104] Top shape: 256 128 23 23 (17334272)
I0227 16:18:51.840296 31810 layer_factory.hpp:78] Creating layer pool1
I0227 16:18:51.840334 31810 net.cpp:68] Creating Layer pool1
I0227 16:18:51.840342 31810 net.cpp:395] pool1 <- cccp1
I0227 16:18:51.840354 31810 net.cpp:357] pool1 -> pool1
I0227 16:18:51.840365 31810 net.cpp:97] Setting up pool1
I0227 16:18:51.840417 31810 net.cpp:104] Top shape: 256 128 11 11 (3964928)
I0227 16:18:51.840427 31810 layer_factory.hpp:78] Creating layer conv2
I0227 16:18:51.840442 31810 net.cpp:68] Creating Layer conv2
I0227 16:18:51.840451 31810 net.cpp:395] conv2 <- pool1
I0227 16:18:51.840462 31810 net.cpp:357] conv2 -> conv2
I0227 16:18:51.840474 31810 net.cpp:97] Setting up conv2
I0227 16:18:51.847337 31810 net.cpp:104] Top shape: 256 128 9 9 (2654208)
I0227 16:18:51.847364 31810 layer_factory.hpp:78] Creating layer relu2
I0227 16:18:51.847378 31810 net.cpp:68] Creating Layer relu2
I0227 16:18:51.847385 31810 net.cpp:395] relu2 <- conv2
I0227 16:18:51.847399 31810 net.cpp:346] relu2 -> conv2 (in-place)
I0227 16:18:51.847410 31810 net.cpp:97] Setting up relu2
I0227 16:18:51.847420 31810 net.cpp:104] Top shape: 256 128 9 9 (2654208)
I0227 16:18:51.847429 31810 layer_factory.hpp:78] Creating layer cccp2
I0227 16:18:51.847441 31810 net.cpp:68] Creating Layer cccp2
I0227 16:18:51.847448 31810 net.cpp:395] cccp2 <- conv2
I0227 16:18:51.847460 31810 net.cpp:357] cccp2 -> cccp2
I0227 16:18:51.847470 31810 net.cpp:97] Setting up cccp2
I0227 16:18:51.848242 31810 net.cpp:104] Top shape: 256 128 9 9 (2654208)
I0227 16:18:51.848258 31810 layer_factory.hpp:78] Creating layer relu_cccp2
I0227 16:18:51.848268 31810 net.cpp:68] Creating Layer relu_cccp2
I0227 16:18:51.848276 31810 net.cpp:395] relu_cccp2 <- cccp2
I0227 16:18:51.848287 31810 net.cpp:346] relu_cccp2 -> cccp2 (in-place)
I0227 16:18:51.848297 31810 net.cpp:97] Setting up relu_cccp2
I0227 16:18:51.848307 31810 net.cpp:104] Top shape: 256 128 9 9 (2654208)
I0227 16:18:51.848315 31810 layer_factory.hpp:78] Creating layer conv3
I0227 16:18:51.848326 31810 net.cpp:68] Creating Layer conv3
I0227 16:18:51.848335 31810 net.cpp:395] conv3 <- cccp2
I0227 16:18:51.848343 31810 net.cpp:357] conv3 -> conv3
I0227 16:18:51.848353 31810 net.cpp:97] Setting up conv3
I0227 16:18:51.855293 31810 net.cpp:104] Top shape: 256 128 7 7 (1605632)
I0227 16:18:51.855370 31810 layer_factory.hpp:78] Creating layer relu3
I0227 16:18:51.855392 31810 net.cpp:68] Creating Layer relu3
I0227 16:18:51.855414 31810 net.cpp:395] relu3 <- conv3
I0227 16:18:51.855432 31810 net.cpp:346] relu3 -> conv3 (in-place)
I0227 16:18:51.855451 31810 net.cpp:97] Setting up relu3
I0227 16:18:51.855468 31810 net.cpp:104] Top shape: 256 128 7 7 (1605632)
I0227 16:18:51.855481 31810 layer_factory.hpp:78] Creating layer cccp3
I0227 16:18:51.855499 31810 net.cpp:68] Creating Layer cccp3
I0227 16:18:51.855511 31810 net.cpp:395] cccp3 <- conv3
I0227 16:18:51.855530 31810 net.cpp:357] cccp3 -> cccp3
I0227 16:18:51.855551 31810 net.cpp:97] Setting up cccp3
I0227 16:18:51.856631 31810 net.cpp:104] Top shape: 256 128 7 7 (1605632)
I0227 16:18:51.856658 31810 layer_factory.hpp:78] Creating layer relu_cccp3
I0227 16:18:51.856681 31810 net.cpp:68] Creating Layer relu_cccp3
I0227 16:18:51.856689 31810 net.cpp:395] relu_cccp3 <- cccp3
I0227 16:18:51.856699 31810 net.cpp:346] relu_cccp3 -> cccp3 (in-place)
I0227 16:18:51.856710 31810 net.cpp:97] Setting up relu_cccp3
I0227 16:18:51.856721 31810 net.cpp:104] Top shape: 256 128 7 7 (1605632)
I0227 16:18:51.856729 31810 layer_factory.hpp:78] Creating layer pool3
I0227 16:18:51.856739 31810 net.cpp:68] Creating Layer pool3
I0227 16:18:51.856747 31810 net.cpp:395] pool3 <- cccp3
I0227 16:18:51.856760 31810 net.cpp:357] pool3 -> pool3
I0227 16:18:51.856770 31810 net.cpp:97] Setting up pool3
I0227 16:18:51.856783 31810 net.cpp:104] Top shape: 256 128 3 3 (294912)
I0227 16:18:51.856791 31810 layer_factory.hpp:78] Creating layer fc4
I0227 16:18:53.384706 31810 net.cpp:68] Creating Layer fc4
I0227 16:18:53.384760 31810 net.cpp:395] fc4 <- pool3
I0227 16:18:53.384784 31810 net.cpp:357] fc4 -> fc4
I0227 16:18:53.384802 31810 net.cpp:97] Setting up fc4
I0227 16:18:53.422772 31810 net.cpp:104] Top shape: 256 512 1 1 (131072)
I0227 16:18:53.422857 31810 layer_factory.hpp:78] Creating layer relu4
I0227 16:18:53.422888 31810 net.cpp:68] Creating Layer relu4
I0227 16:18:53.422904 31810 net.cpp:395] relu4 <- fc4
I0227 16:18:53.422924 31810 net.cpp:346] relu4 -> fc4 (in-place)
I0227 16:18:53.422945 31810 net.cpp:97] Setting up relu4
I0227 16:18:53.422977 31810 net.cpp:104] Top shape: 256 512 1 1 (131072)
I0227 16:18:53.422991 31810 layer_factory.hpp:78] Creating layer drop4
I0227 16:18:53.423012 31810 net.cpp:68] Creating Layer drop4
I0227 16:18:53.423025 31810 net.cpp:395] drop4 <- fc4
I0227 16:18:53.423039 31810 net.cpp:346] drop4 -> fc4 (in-place)
I0227 16:18:53.423055 31810 net.cpp:97] Setting up drop4
I0227 16:18:53.423069 31810 net.cpp:104] Top shape: 256 512 1 1 (131072)
I0227 16:18:53.423081 31810 layer_factory.hpp:78] Creating layer fc5
I0227 16:18:53.423099 31810 net.cpp:68] Creating Layer fc5
I0227 16:18:53.423110 31810 net.cpp:395] fc5 <- fc4
I0227 16:18:53.423138 31810 net.cpp:357] fc5 -> fc5
I0227 16:18:53.423156 31810 net.cpp:97] Setting up fc5
I0227 16:18:53.433990 31810 net.cpp:104] Top shape: 256 512 1 1 (131072)
I0227 16:18:53.434015 31810 layer_factory.hpp:78] Creating layer relu5
I0227 16:18:53.434032 31810 net.cpp:68] Creating Layer relu5
I0227 16:18:53.434046 31810 net.cpp:395] relu5 <- fc5
I0227 16:18:53.434061 31810 net.cpp:346] relu5 -> fc5 (in-place)
I0227 16:18:53.434074 31810 net.cpp:97] Setting up relu5
I0227 16:18:53.434090 31810 net.cpp:104] Top shape: 256 512 1 1 (131072)
I0227 16:18:53.434103 31810 layer_factory.hpp:78] Creating layer drop5
I0227 16:18:53.434119 31810 net.cpp:68] Creating Layer drop5
I0227 16:18:53.434131 31810 net.cpp:395] drop5 <- fc5
I0227 16:18:53.434146 31810 net.cpp:346] drop5 -> fc5 (in-place)
I0227 16:18:53.434160 31810 net.cpp:97] Setting up drop5
I0227 16:18:53.434172 31810 net.cpp:104] Top shape: 256 512 1 1 (131072)
I0227 16:18:53.434185 31810 layer_factory.hpp:78] Creating layer fc6
I0227 16:18:53.434198 31810 net.cpp:68] Creating Layer fc6
I0227 16:18:53.434211 31810 net.cpp:395] fc6 <- fc5
I0227 16:18:53.434226 31810 net.cpp:357] fc6 -> fc6
I0227 16:18:53.434242 31810 net.cpp:97] Setting up fc6
I0227 16:18:53.436810 31810 net.cpp:104] Top shape: 256 121 1 1 (30976)
I0227 16:18:53.436837 31810 layer_factory.hpp:78] Creating layer loss
I0227 16:18:53.436858 31810 net.cpp:68] Creating Layer loss
I0227 16:18:53.436872 31810 net.cpp:395] loss <- fc6
I0227 16:18:53.436885 31810 net.cpp:395] loss <- label
I0227 16:18:53.436900 31810 net.cpp:357] loss -> loss
I0227 16:18:53.436918 31810 net.cpp:97] Setting up loss
I0227 16:18:53.436933 31810 layer_factory.hpp:78] Creating layer loss
I0227 16:18:53.437038 31810 net.cpp:104] Top shape: 1 1 1 1 (1)
I0227 16:18:53.437057 31810 net.cpp:110]     with loss weight 1
I0227 16:18:53.437113 31810 net.cpp:171] loss needs backward computation.
I0227 16:18:53.437125 31810 net.cpp:171] fc6 needs backward computation.
I0227 16:18:53.437136 31810 net.cpp:171] drop5 needs backward computation.
I0227 16:18:53.437151 31810 net.cpp:171] relu5 needs backward computation.
I0227 16:18:53.437162 31810 net.cpp:171] fc5 needs backward computation.
…
I0227 16:18:53.438333 31810 net.cpp:276] The NetState phase (1) differed from the phase (0) specified by a rule in layer data
I0227 16:18:53.438580 31810 net.cpp:39] Initializing net from parameters: 
name: "model1_full"
layers {
  top: "data"
  top: "label"
  name: "data"
  type: DATA
  data_param {
    source: "/home/jaehyun/kaggle/nationalDataScienceBowl/data/typeD/val_lmdb"
    batch_size: 256
    backend: LMDB
  }
  include {
    phase: TEST
  }
  transform_param {
    mirror: false
    mean_file: "/home/jaehyun/kaggle/nationalDataScienceBowl/data/typeD/train_mean.binaryproto"
  }
}
layers {
  bottom: "data"
  top: "conv1"
  name: "conv1"
  type: CONVOLUTION
  blobs_lr: 1
  blobs_lr: 2
  weight_decay: 1
  weight_decay: 0
  convolution_param {
    num_output: 128
    kernel_size: 4
    stride: 2
    weight_filler {
      type: "gaussian"
      std: 0.01
    }
    bias_filler {
      type: "constant"
      value: 0
    }
  }
}
layers {
  bottom: "conv1"
  top: "conv1"
  name: "relu1"
  type: RELU
  relu_param {
    negative_slope: 0.1
  }
}
layers {
  bottom: "conv1"
  top: "cccp1"
  name: "cccp1"
  type: CONVOLUTION
  blobs_lr: 1
  blobs_lr: 2
  weight_decay: 1
  weight_decay: 0
  convolution_param {
    num_output: 128
    kernel_size: 1
    group: 1
    stride: 1
    weight_filler {
      type: "gaussian"
      std: 0.01
    }
    bias_filler {
      type: "constant"
      value: 0
    }
  }
}
layers {
  bottom: "cccp1"
  top: "cccp1"
  name: "relu_cccp1"
  type: RELU
  relu_param {
    negative_slope: 0.1
  }
}
layers {
  bottom: "cccp1"
  top: "pool1"
  name: "pool1"
  type: POOLING
  pooling_param {
    pool: MAX
    kernel_size: 3
    stride: 2
  }
}
layers {
  bottom: "pool1"
  top: "conv2"
  name: "conv2"
  type: CONVOLUTION
  blobs_lr: 1
  blobs_lr: 2
  weight_decay: 1
  weight_decay: 0
  convolution_param {
    num_output: 128
    kernel_size: 3
    weight_filler {
      type: "gaussian"
      std: 0.01
    }
    bias_filler {
      type: "constant"
      value: 1
    }
  }
}
layers {
  bottom: "conv2"
  top: "conv2"
  name: "relu2"
  type: RELU
  relu_param {
    negative_slope: 0.1
  }
}
layers {
  bottom: "conv2"
  top: "cccp2"
  name: "cccp2"
  type: CONVOLUTION
  blobs_lr: 1
  blobs_lr: 2
  weight_decay: 1
  weight_decay: 0
  convolution_param {
    num_output: 128
    kernel_size: 1
    group: 1
    stride: 1
    weight_filler {
      type: "gaussian"
      std: 0.01
    }
    bias_filler {
      type: "constant"
      value: 0
    }
  }
}
layers {
  bottom: "cccp2"
  top: "cccp2"
  name: "relu_cccp2"
  type: RELU
  relu_param {
    negative_slope: 0.1
  }
}
layers {
  bottom: "cccp2"
  top: "conv3"
  name: "conv3"
  type: CONVOLUTION
  blobs_lr: 1
  blobs_lr: 2
  weight_decay: 1
  weight_decay: 0
  convolution_param {
    num_output: 128
    kernel_size: 3
    weight_filler {
      type: "gaussian"
      std: 0.01
    }
    bias_filler {
      type: "constant"
      value: 0
    }
  }
}
layers {
  bottom: "conv3"
  top: "conv3"
  name: "relu3"
  type: RELU
  relu_param {
    negative_slope: 0.1
  }
}
layers {
  bottom: "conv3"
  top: "cccp3"
  name: "cccp3"
  type: CONVOLUTION
  blobs_lr: 1
  blobs_lr: 2
  weight_decay: 1
  weight_decay: 0
  convolution_param {
    num_output: 128
    kernel_size: 1
    group: 1
    stride: 1
    weight_filler {
      type: "gaussian"
      std: 0.01
    }
    bias_filler {
      type: "constant"
      value: 0
    }
  }
}
layers {
  bottom: "cccp3"
  top: "cccp3"
  name: "relu_cccp3"
  type: RELU
  relu_param {
    negative_slope: 0.1
  }
}
layers {
  bottom: "cccp3"
  top: "pool3"
  name: "pool3"
  type: POOLING
  pooling_param {
    pool: MAX
    kernel_size: 3
    stride: 2
  }
}
layers {
  bottom: "pool3"
  top: "fc4"
  name: "fc4"
  type: INNER_PRODUCT
  blobs_lr: 1
  blobs_lr: 2
  weight_decay: 1
  weight_decay: 0
  inner_product_param {
    num_output: 512
    weight_filler {
      type: "gaussian"
      std: 0.005
    }
    bias_filler {
      type: "constant"
      value: 1
    }
  }
}
layers {
  bottom: "fc4"
  top: "fc4"
  name: "relu4"
  type: RELU
  relu_param {
    negative_slope: 0.1
  }
}
layers {
  bottom: "fc4"
  top: "fc4"
  name: "drop4"
  type: DROPOUT
  dropout_param {
    dropout_ratio: 0.5
  }
}
layers {
  bottom: "fc4"
  top: "fc5"
  name: "fc5"
  type: INNER_PRODUCT
  blobs_lr: 1
  blobs_lr: 2
  weight_decay: 1
  weight_decay: 0
  inner_product_param {
    num_output: 512
    weight_filler {
      type: "gaussian"
      std: 0.005
    }
    bias_filler {
      type: "constant"
      value: 1
    }
  }
}
layers {
  bottom: "fc5"
  top: "fc5"
  name: "relu5"
  type: RELU
  relu_param {
    negative_slope: 0.1
  }
}
layers {
  bottom: "fc5"
  top: "fc5"
  name: "drop5"
  type: DROPOUT
  dropout_param {
    dropout_ratio: 0.5
  }
}
layers {
  bottom: "fc5"
  top: "fc6"
  name: "fc6"
  type: INNER_PRODUCT
  blobs_lr: 1
  blobs_lr: 2
  weight_decay: 1
  weight_decay: 0
  inner_product_param {
    num_output: 121
    weight_filler {
      type: "gaussian"
      std: 0.01
    }
    bias_filler {
      type: "constant"
      value: 0
    }
  }
}
layers {
  bottom: "fc6"
  top: "prob"
  name: "prob"
  type: SOFTMAX
  include {
    phase: TEST
  }
}
layers {
  bottom: "prob"
  bottom: "label"
  top: "accuracy"
  name: "accuracy"
  type: ACCURACY
  accuracy_param {
    top_k: 1
  }
  include {
    phase: TEST
  }
}
layers {
  bottom: "fc6"
  bottom: "label"
  top: "loss"
  name: "loss"
  type: SOFTMAX_LOSS
}
state {
  phase: TEST
}
I0227 16:18:53.439885 31810 layer_factory.hpp:78] Creating layer data
I0227 16:18:53.439909 31810 data_transformer.cpp:24] Loading mean file from/home/jaehyun/kaggle/nationalDataScienceBowl/data/typeD/train_mean.binaryproto
I0227 16:18:53.439985 31810 net.cpp:68] Creating Layer data
I0227 16:18:53.440003 31810 net.cpp:357] data -> data
I0227 16:18:53.440026 31810 net.cpp:357] data -> label
I0227 16:18:53.440043 31810 net.cpp:97] Setting up data
I0227 16:18:53.440057 31810 data_layer.cpp:34] Opening dataset /home/jaehyun/kaggle/nationalDataScienceBowl/data/typeD/val_lmdb
I0227 16:18:53.618412 31810 lmdb_dataset.cpp:73] what the fuck!!
I0227 16:18:53.618504 31810 data_layer.cpp:73] output data size: 256,1,48,48
I0227 16:18:53.619710 31810 net.cpp:104] Top shape: 256 1 48 48 (589824)
I0227 16:18:53.619727 31810 net.cpp:104] Top shape: 256 1 1 1 (256)
I0227 16:18:53.619735 31810 layer_factory.hpp:78] Creating layer label_data_1_split
I0227 16:18:53.620962 31810 net.cpp:68] Creating Layer label_data_1_split
I0227 16:18:53.620980 31810 net.cpp:395] label_data_1_split <- label
I0227 16:18:53.620995 31810 net.cpp:357] label_data_1_split -> label_data_1_split_0
I0227 16:18:53.621012 31810 net.cpp:357] label_data_1_split -> label_data_1_split_1
I0227 16:18:53.621024 31810 net.cpp:97] Setting up label_data_1_split
I0227 16:18:53.621037 31810 net.cpp:104] Top shape: 256 1 1 1 (256)
I0227 16:18:53.621045 31810 net.cpp:104] Top shape: 256 1 1 1 (256)
I0227 16:18:53.621052 31810 layer_factory.hpp:78] Creating layer conv1
I0227 16:18:53.621107 31810 net.cpp:68] Creating Layer conv1
I0227 16:18:53.621117 31810 net.cpp:395] conv1 <- data
I0227 16:18:53.621130 31810 net.cpp:357] conv1 -> conv1
I0227 16:18:53.621142 31810 net.cpp:97] Setting up conv1
I0227 16:18:53.621387 31810 net.cpp:104] Top shape: 256 128 23 23 (17334272)
I0227 16:18:53.621408 31810 layer_factory.hpp:78] Creating layer relu1
I0227 16:18:53.621420 31810 net.cpp:68] Creating Layer relu1
I0227 16:18:53.621450 31810 net.cpp:395] relu1 <- conv1
I0227 16:18:53.621460 31810 net.cpp:346] relu1 -> conv1 (in-place)
I0227 16:18:53.621472 31810 net.cpp:97] Setting up relu1
I0227 16:18:53.621484 31810 net.cpp:104] Top shape: 256 128 23 23 (17334272)
I0227 16:18:53.621490 31810 layer_factory.hpp:78] Creating layer cccp1
I0227 16:18:53.621597 31810 net.cpp:68] Creating Layer cccp1
I0227 16:18:53.621608 31810 net.cpp:395] cccp1 <- conv1
I0227 16:18:53.621620 31810 net.cpp:357] cccp1 -> cccp1
I0227 16:18:53.621633 31810 net.cpp:97] Setting up cccp1
I0227 16:18:53.622441 31810 net.cpp:104] Top shape: 256 128 23 23 (17334272)
I0227 16:18:53.622469 31810 layer_factory.hpp:78] Creating layer relu_cccp1
I0227 16:18:53.622480 31810 net.cpp:68] Creating Layer relu_cccp1
I0227 16:18:53.622488 31810 net.cpp:395] relu_cccp1 <- cccp1
I0227 16:18:53.622500 31810 net.cpp:346] relu_cccp1 -> cccp1 (in-place)
I0227 16:18:53.622511 31810 net.cpp:97] Setting up relu_cccp1
I0227 16:18:53.622522 31810 net.cpp:104] Top shape: 256 128 23 23 (17334272)
I0227 16:18:53.622611 31810 layer_factory.hpp:78] Creating layer pool1
I0227 16:18:53.622638 31810 net.cpp:68] Creating Layer pool1
I0227 16:18:53.622663 31810 net.cpp:395] pool1 <- cccp1
I0227 16:18:53.622684 31810 net.cpp:357] pool1 -> pool1
I0227 16:18:53.622705 31810 net.cpp:97] Setting up pool1
I0227 16:18:53.622735 31810 net.cpp:104] Top shape: 256 128 11 11 (3964928)
I0227 16:18:53.622751 31810 layer_factory.hpp:78] Creating layer conv2
I0227 16:18:53.622779 31810 net.cpp:68] Creating Layer conv2
I0227 16:18:53.622803 31810 net.cpp:395] conv2 <- pool1
I0227 16:18:53.622823 31810 net.cpp:357] conv2 -> conv2
I0227 16:18:53.622848 31810 net.cpp:97] Setting up conv2
I0227 16:18:53.631180 31810 net.cpp:104] Top shape: 256 128 9 9 (2654208)
I0227 16:18:53.631214 31810 layer_factory.hpp:78] Creating layer relu2
I0227 16:18:53.631233 31810 net.cpp:68] Creating Layer relu2
I0227 16:18:53.631247 31810 net.cpp:395] relu2 <- conv2
I0227 16:18:53.631273 31810 net.cpp:346] relu2 -> conv2 (in-place)
I0227 16:18:53.631288 31810 net.cpp:97] Setting up relu2
I0227 16:18:53.631304 31810 net.cpp:104] Top shape: 256 128 9 9 (2654208)
I0227 16:18:53.631315 31810 layer_factory.hpp:78] Creating layer cccp2
I0227 16:18:53.631338 31810 net.cpp:68] Creating Layer cccp2
I0227 16:18:53.631350 31810 net.cpp:395] cccp2 <- conv2
I0227 16:18:53.631368 31810 net.cpp:357] cccp2 -> cccp2
I0227 16:18:53.631386 31810 net.cpp:97] Setting up cccp2
I0227 16:18:53.632151 31810 net.cpp:104] Top shape: 256 128 9 9 (2654208)
I0227 16:18:53.632174 31810 layer_factory.hpp:78] Creating layer relu_cccp2
I0227 16:18:53.632191 31810 net.cpp:68] Creating Layer relu_cccp2
I0227 16:18:53.632205 31810 net.cpp:395] relu_cccp2 <- cccp2
I0227 16:18:53.632218 31810 net.cpp:346] relu_cccp2 -> cccp2 (in-place)
I0227 16:18:53.632232 31810 net.cpp:97] Setting up relu_cccp2
I0227 16:18:53.632247 31810 net.cpp:104] Top shape: 256 128 9 9 (2654208)
I0227 16:18:53.632259 31810 layer_factory.hpp:78] Creating layer conv3
I0227 16:18:53.632277 31810 net.cpp:68] Creating Layer conv3
I0227 16:18:53.632289 31810 net.cpp:395] conv3 <- cccp2
I0227 16:18:53.632303 31810 net.cpp:357] conv3 -> conv3
I0227 16:18:53.632318 31810 net.cpp:97] Setting up conv3
I0227 16:18:53.638803 31810 net.cpp:104] Top shape: 256 128 7 7 (1605632)
I0227 16:18:53.638834 31810 layer_factory.hpp:78] Creating layer relu3
I0227 16:18:53.638852 31810 net.cpp:68] Creating Layer relu3
I0227 16:18:53.638864 31810 net.cpp:395] relu3 <- conv3
I0227 16:18:53.638878 31810 net.cpp:346] relu3 -> conv3 (in-place)
I0227 16:18:53.638892 31810 net.cpp:97] Setting up relu3
I0227 16:18:53.638937 31810 net.cpp:104] Top shape: 256 128 7 7 (1605632)
I0227 16:18:53.638952 31810 layer_factory.hpp:78] Creating layer cccp3
I0227 16:18:53.638970 31810 net.cpp:68] Creating Layer cccp3
I0227 16:18:53.638983 31810 net.cpp:395] cccp3 <- conv3
I0227 16:18:53.639006 31810 net.cpp:357] cccp3 -> cccp3
I0227 16:18:53.639022 31810 net.cpp:97] Setting up cccp3
I0227 16:18:53.639812 31810 net.cpp:104] Top shape: 256 128 7 7 (1605632)
I0227 16:18:53.639838 31810 layer_factory.hpp:78] Creating layer relu_cccp3
I0227 16:18:53.639853 31810 net.cpp:68] Creating Layer relu_cccp3
I0227 16:18:53.639866 31810 net.cpp:395] relu_cccp3 <- cccp3
I0227 16:18:53.639879 31810 net.cpp:346] relu_cccp3 -> cccp3 (in-place)
I0227 16:18:53.639894 31810 net.cpp:97] Setting up relu_cccp3
I0227 16:18:53.639909 31810 net.cpp:104] Top shape: 256 128 7 7 (1605632)
I0227 16:18:53.639921 31810 layer_factory.hpp:78] Creating layer pool3
I0227 16:18:53.639935 31810 net.cpp:68] Creating Layer pool3
I0227 16:18:53.639948 31810 net.cpp:395] pool3 <- cccp3
I0227 16:18:53.639966 31810 net.cpp:357] pool3 -> pool3
I0227 16:18:53.639981 31810 net.cpp:97] Setting up pool3
I0227 16:18:53.639997 31810 net.cpp:104] Top shape: 256 128 3 3 (294912)
I0227 16:18:53.640010 31810 layer_factory.hpp:78] Creating layer fc4
I0227 16:18:53.640029 31810 net.cpp:68] Creating Layer fc4
I0227 16:18:53.640043 31810 net.cpp:395] fc4 <- pool3
I0227 16:18:53.640058 31810 net.cpp:357] fc4 -> fc4
I0227 16:18:53.640074 31810 net.cpp:97] Setting up fc4
I0227 16:18:53.664289 31810 net.cpp:104] Top shape: 256 512 1 1 (131072)
I0227 16:18:53.664316 31810 layer_factory.hpp:78] Creating layer relu4
I0227 16:18:53.664332 31810 net.cpp:68] Creating Layer relu4
I0227 16:18:53.664345 31810 net.cpp:395] relu4 <- fc4
I0227 16:18:53.664363 31810 net.cpp:346] relu4 -> fc4 (in-place)
I0227 16:18:53.664379 31810 net.cpp:97] Setting up relu4
I0227 16:18:53.664397 31810 net.cpp:104] Top shape: 256 512 1 1 (131072)
I0227 16:18:53.664408 31810 layer_factory.hpp:78] Creating layer drop4
I0227 16:18:53.664427 31810 net.cpp:68] Creating Layer drop4
I0227 16:18:53.664438 31810 net.cpp:395] drop4 <- fc4
I0227 16:18:53.664453 31810 net.cpp:346] drop4 -> fc4 (in-place)
I0227 16:18:53.664468 31810 net.cpp:97] Setting up drop4
I0227 16:18:53.664480 31810 net.cpp:104] Top shape: 256 512 1 1 (131072)
I0227 16:18:53.664492 31810 layer_factory.hpp:78] Creating layer fc5
I0227 16:18:53.664510 31810 net.cpp:68] Creating Layer fc5
I0227 16:18:53.664522 31810 net.cpp:395] fc5 <- fc4
I0227 16:18:53.664537 31810 net.cpp:357] fc5 -> fc5
I0227 16:18:53.664552 31810 net.cpp:97] Setting up fc5
I0227 16:18:53.675309 31810 net.cpp:104] Top shape: 256 512 1 1 (131072)
I0227 16:18:53.675333 31810 layer_factory.hpp:78] Creating layer relu5
I0227 16:18:53.675366 31810 net.cpp:68] Creating Layer relu5
I0227 16:18:53.675379 31810 net.cpp:395] relu5 <- fc5
I0227 16:18:53.675393 31810 net.cpp:346] relu5 -> fc5 (in-place)
I0227 16:18:53.675408 31810 net.cpp:97] Setting up relu5
I0227 16:18:53.675425 31810 net.cpp:104] Top shape: 256 512 1 1 (131072)
I0227 16:18:53.675436 31810 layer_factory.hpp:78] Creating layer drop5
I0227 16:18:53.675453 31810 net.cpp:68] Creating Layer drop5
I0227 16:18:53.675465 31810 net.cpp:395] drop5 <- fc5
I0227 16:18:53.675479 31810 net.cpp:346] drop5 -> fc5 (in-place)
I0227 16:18:53.675493 31810 net.cpp:97] Setting up drop5
I0227 16:18:53.675506 31810 net.cpp:104] Top shape: 256 512 1 1 (131072)
I0227 16:18:53.675518 31810 layer_factory.hpp:78] Creating layer fc6
I0227 16:18:53.675534 31810 net.cpp:68] Creating Layer fc6
I0227 16:18:53.675546 31810 net.cpp:395] fc6 <- fc5
I0227 16:18:53.675560 31810 net.cpp:357] fc6 -> fc6
I0227 16:18:53.675576 31810 net.cpp:97] Setting up fc6
I0227 16:18:53.678115 31810 net.cpp:104] Top shape: 256 121 1 1 (30976)
I0227 16:18:53.678143 31810 layer_factory.hpp:78] Creating layer fc6_fc6_0_split
I0227 16:18:53.678161 31810 net.cpp:68] Creating Layer fc6_fc6_0_split
I0227 16:18:53.678174 31810 net.cpp:395] fc6_fc6_0_split <- fc6
I0227 16:18:53.678189 31810 net.cpp:357] fc6_fc6_0_split -> fc6_fc6_0_split_0
I0227 16:18:53.678237 31810 net.cpp:357] fc6_fc6_0_split -> fc6_fc6_0_split_1
I0227 16:18:53.678256 31810 net.cpp:97] Setting up fc6_fc6_0_split
I0227 16:18:53.678269 31810 net.cpp:104] Top shape: 256 121 1 1 (30976)
I0227 16:18:53.678282 31810 net.cpp:104] Top shape: 256 121 1 1 (30976)
I0227 16:18:53.678293 31810 layer_factory.hpp:78] Creating layer prob
I0227 16:18:53.678321 31810 net.cpp:68] Creating Layer prob
I0227 16:18:53.678336 31810 net.cpp:395] prob <- fc6_fc6_0_split_0
I0227 16:18:53.678351 31810 net.cpp:357] prob -> prob
I0227 16:18:53.678369 31810 net.cpp:97] Setting up prob
I0227 16:18:53.678387 31810 net.cpp:104] Top shape: 256 121 1 1 (30976)
I0227 16:18:53.678400 31810 layer_factory.hpp:78] Creating layer accuracy
I0227 16:18:53.678421 31810 net.cpp:68] Creating Layer accuracy
I0227 16:18:53.678433 31810 net.cpp:395] accuracy <- prob
I0227 16:18:53.678447 31810 net.cpp:395] accuracy <- label_data_1_split_0
I0227 16:18:53.678462 31810 net.cpp:357] accuracy -> accuracy
I0227 16:18:53.678480 31810 net.cpp:97] Setting up accuracy
I0227 16:18:53.678495 31810 net.cpp:104] Top shape: 1 1 1 1 (1)
I0227 16:18:53.678508 31810 layer_factory.hpp:78] Creating layer loss
I0227 16:18:53.678521 31810 net.cpp:68] Creating Layer loss
I0227 16:18:53.678534 31810 net.cpp:395] loss <- fc6_fc6_0_split_1
I0227 16:18:53.678546 31810 net.cpp:395] loss <- label_data_1_split_1
I0227 16:18:53.678560 31810 net.cpp:357] loss -> loss
I0227 16:18:53.678575 31810 net.cpp:97] Setting up loss
I0227 16:18:53.678588 31810 layer_factory.hpp:78] Creating layer loss
I0227 16:18:53.678683 31810 net.cpp:104] Top shape: 1 1 1 1 (1)
I0227 16:18:53.678700 31810 net.cpp:110]     with loss weight 1
I0227 16:18:53.678730 31810 net.cpp:171] loss needs backward computation.
I0227 16:18:53.678741 31810 net.cpp:173] accuracy does not need backward computation.
I0227 16:18:53.678752 31810 net.cpp:173] prob does not need backward computation.
I0227 16:18:53.678763 31810 net.cpp:171] fc6_fc6_0_split needs backward computation.
…
