…
I0228 13:49:05.185514 27074 net.cpp:276] The NetState phase (0) differed from the phase (1) specified by a rule in layer accuracy
I0228 13:49:05.185732 27074 net.cpp:39] Initializing net from parameters: 
name: "model1_full"
layers {
  top: "data"
  top: "label"
  name: "data"
  type: DATA
  data_param {
    source: "/home/jaehyun/kaggle/nationalDataScienceBowl/data/typeD/train_lmdb"
    batch_size: 256
    backend: LMDB
    shuffle: true
  }
  include {
    phase: TRAIN
  }
  transform_param {
    mirror: true
    mean_file: "/home/jaehyun/kaggle/nationalDataScienceBowl/data/typeD/train_mean.binaryproto"
  }
}
layers {
  bottom: "data"
  top: "conv1"
  name: "conv1"
  type: CONVOLUTION
  blobs_lr: 1
  blobs_lr: 2
  weight_decay: 1
  weight_decay: 0
  convolution_param {
    num_output: 128
    kernel_size: 4
    stride: 2
    weight_filler {
      type: "gaussian"
      std: 0.01
    }
    bias_filler {
      type: "constant"
      value: 0
    }
  }
}
layers {
  bottom: "conv1"
  top: "conv1"
  name: "relu1"
  type: RELU
  relu_param {
    negative_slope: 0.1
  }
}
layers {
  bottom: "conv1"
  top: "cccp1"
  name: "cccp1"
  type: CONVOLUTION
  blobs_lr: 1
  blobs_lr: 2
  weight_decay: 1
  weight_decay: 0
  convolution_param {
    num_output: 128
    kernel_size: 1
    group: 1
    stride: 1
    weight_filler {
      type: "gaussian"
      std: 0.01
    }
    bias_filler {
      type: "constant"
      value: 0
    }
  }
}
layers {
  bottom: "cccp1"
  top: "cccp1"
  name: "relu_cccp1"
  type: RELU
  relu_param {
    negative_slope: 0.1
  }
}
layers {
  bottom: "cccp1"
  top: "pool1"
  name: "pool1"
  type: POOLING
  pooling_param {
    pool: MAX
    kernel_size: 3
    stride: 2
  }
}
layers {
  bottom: "pool1"
  top: "conv2"
  name: "conv2"
  type: CONVOLUTION
  blobs_lr: 1
  blobs_lr: 2
  weight_decay: 1
  weight_decay: 0
  convolution_param {
    num_output: 128
    kernel_size: 3
    weight_filler {
      type: "gaussian"
      std: 0.01
    }
    bias_filler {
      type: "constant"
      value: 1
    }
  }
}
layers {
  bottom: "conv2"
  top: "conv2"
  name: "relu2"
  type: RELU
  relu_param {
    negative_slope: 0.1
  }
}
layers {
  bottom: "conv2"
  top: "cccp2"
  name: "cccp2"
  type: CONVOLUTION
  blobs_lr: 1
  blobs_lr: 2
  weight_decay: 1
  weight_decay: 0
  convolution_param {
    num_output: 128
    kernel_size: 1
    group: 1
    stride: 1
    weight_filler {
      type: "gaussian"
      std: 0.01
    }
    bias_filler {
      type: "constant"
      value: 0
    }
  }
}
layers {
  bottom: "cccp2"
  top: "cccp2"
  name: "relu_cccp2"
  type: RELU
  relu_param {
    negative_slope: 0.1
  }
}
layers {
  bottom: "cccp2"
  top: "conv3"
  name: "conv3"
  type: CONVOLUTION
  blobs_lr: 1
  blobs_lr: 2
  weight_decay: 1
  weight_decay: 0
  convolution_param {
    num_output: 128
    kernel_size: 3
    weight_filler {
      type: "gaussian"
      std: 0.01
    }
    bias_filler {
      type: "constant"
      value: 0
    }
  }
}
layers {
  bottom: "conv3"
  top: "conv3"
  name: "relu3"
  type: RELU
  relu_param {
    negative_slope: 0.1
  }
}
layers {
  bottom: "conv3"
  top: "cccp3"
  name: "cccp3"
  type: CONVOLUTION
  blobs_lr: 1
  blobs_lr: 2
  weight_decay: 1
  weight_decay: 0
  convolution_param {
    num_output: 128
    kernel_size: 1
    group: 1
    stride: 1
    weight_filler {
      type: "gaussian"
      std: 0.01
    }
    bias_filler {
      type: "constant"
      value: 0
    }
  }
}
layers {
  bottom: "cccp3"
  top: "cccp3"
  name: "relu_cccp3"
  type: RELU
  relu_param {
    negative_slope: 0.1
  }
}
layers {
  bottom: "cccp3"
  top: "pool3"
  name: "pool3"
  type: POOLING
  pooling_param {
    pool: MAX
    kernel_size: 3
    stride: 2
  }
}
layers {
  bottom: "pool3"
  top: "fc4"
  name: "fc4"
  type: INNER_PRODUCT
  blobs_lr: 1
  blobs_lr: 2
  weight_decay: 1
  weight_decay: 0
  inner_product_param {
    num_output: 512
    weight_filler {
      type: "gaussian"
      std: 0.005
    }
    bias_filler {
      type: "constant"
      value: 1
    }
  }
}
layers {
  bottom: "fc4"
  top: "fc4"
  name: "relu4"
  type: RELU
  relu_param {
    negative_slope: 0.1
  }
}
layers {
  bottom: "fc4"
  top: "fc4"
  name: "drop4"
  type: DROPOUT
  dropout_param {
    dropout_ratio: 0.5
  }
}
layers {
  bottom: "fc4"
  top: "fc5"
  name: "fc5"
  type: INNER_PRODUCT
  blobs_lr: 1
  blobs_lr: 2
  weight_decay: 1
  weight_decay: 0
  inner_product_param {
    num_output: 512
    weight_filler {
      type: "gaussian"
      std: 0.005
    }
    bias_filler {
      type: "constant"
      value: 1
    }
  }
}
layers {
  bottom: "fc5"
  top: "fc5"
  name: "relu5"
  type: RELU
  relu_param {
    negative_slope: 0.1
  }
}
layers {
  bottom: "fc5"
  top: "fc5"
  name: "drop5"
  type: DROPOUT
  dropout_param {
    dropout_ratio: 0.5
  }
}
layers {
  bottom: "fc5"
  top: "fc6"
  name: "fc6"
  type: INNER_PRODUCT
  blobs_lr: 1
  blobs_lr: 2
  weight_decay: 1
  weight_decay: 0
  inner_product_param {
    num_output: 121
    weight_filler {
      type: "gaussian"
      std: 0.01
    }
    bias_filler {
      type: "constant"
      value: 0
    }
  }
}
layers {
  bottom: "fc6"
  bottom: "label"
  top: "loss"
  name: "loss"
  type: SOFTMAX_LOSS
}
state {
  phase: TRAIN
}
I0228 13:49:05.186930 27074 layer_factory.hpp:78] Creating layer data
I0228 13:49:05.187779 27074 data_transformer.cpp:24] Loading mean file from/home/jaehyun/kaggle/nationalDataScienceBowl/data/typeD/train_mean.binaryproto
I0228 13:49:05.187937 27074 net.cpp:68] Creating Layer data
I0228 13:49:05.187955 27074 net.cpp:357] data -> data
I0228 13:49:05.187978 27074 net.cpp:357] data -> label
I0228 13:49:05.187996 27074 net.cpp:97] Setting up data
I0228 13:49:05.188010 27074 data_layer.cpp:34] Opening dataset /home/jaehyun/kaggle/nationalDataScienceBowl/data/typeD/train_lmdb
I0228 13:49:05.261909 27074 lmdb_dataset.cpp:73] what the fuck!!
I0228 13:49:05.359447 27074 data_layer.cpp:73] output data size: 256,1,48,48
I0228 13:49:05.361227 27074 net.cpp:104] Top shape: 256 1 48 48 (589824)
I0228 13:49:05.361259 27074 net.cpp:104] Top shape: 256 1 1 1 (256)
I0228 13:49:05.361269 27074 layer_factory.hpp:78] Creating layer conv1
I0228 13:49:05.361299 27074 net.cpp:68] Creating Layer conv1
I0228 13:49:05.361307 27074 net.cpp:395] conv1 <- data
I0228 13:49:05.361351 27074 net.cpp:357] conv1 -> conv1
I0228 13:49:05.361405 27074 net.cpp:97] Setting up conv1
I0228 13:49:05.431294 27074 net.cpp:104] Top shape: 256 128 23 23 (17334272)
I0228 13:49:05.431388 27074 layer_factory.hpp:78] Creating layer relu1
I0228 13:49:05.431427 27074 net.cpp:68] Creating Layer relu1
I0228 13:49:05.431444 27074 net.cpp:395] relu1 <- conv1
I0228 13:49:05.431471 27074 net.cpp:346] relu1 -> conv1 (in-place)
I0228 13:49:05.431493 27074 net.cpp:97] Setting up relu1
I0228 13:49:05.431514 27074 net.cpp:104] Top shape: 256 128 23 23 (17334272)
I0228 13:49:05.431527 27074 layer_factory.hpp:78] Creating layer cccp1
I0228 13:49:05.431547 27074 net.cpp:68] Creating Layer cccp1
I0228 13:49:05.431560 27074 net.cpp:395] cccp1 <- conv1
I0228 13:49:05.431574 27074 net.cpp:357] cccp1 -> cccp1
I0228 13:49:05.431592 27074 net.cpp:97] Setting up cccp1
I0228 13:49:05.432446 27074 net.cpp:104] Top shape: 256 128 23 23 (17334272)
I0228 13:49:05.432471 27074 layer_factory.hpp:78] Creating layer relu_cccp1
I0228 13:49:05.432488 27074 net.cpp:68] Creating Layer relu_cccp1
I0228 13:49:05.432553 27074 net.cpp:395] relu_cccp1 <- cccp1
I0228 13:49:05.432574 27074 net.cpp:346] relu_cccp1 -> cccp1 (in-place)
I0228 13:49:05.432590 27074 net.cpp:97] Setting up relu_cccp1
I0228 13:49:05.432610 27074 net.cpp:104] Top shape: 256 128 23 23 (17334272)
I0228 13:49:05.432622 27074 layer_factory.hpp:78] Creating layer pool1
I0228 13:49:05.432642 27074 net.cpp:68] Creating Layer pool1
I0228 13:49:05.432656 27074 net.cpp:395] pool1 <- cccp1
I0228 13:49:05.432669 27074 net.cpp:357] pool1 -> pool1
I0228 13:49:05.432692 27074 net.cpp:97] Setting up pool1
I0228 13:49:05.452097 27074 net.cpp:104] Top shape: 256 128 11 11 (3964928)
I0228 13:49:05.452136 27074 layer_factory.hpp:78] Creating layer conv2
I0228 13:49:05.452155 27074 net.cpp:68] Creating Layer conv2
I0228 13:49:05.452169 27074 net.cpp:395] conv2 <- pool1
I0228 13:49:05.452188 27074 net.cpp:357] conv2 -> conv2
I0228 13:49:05.452206 27074 net.cpp:97] Setting up conv2
I0228 13:49:05.459048 27074 net.cpp:104] Top shape: 256 128 9 9 (2654208)
I0228 13:49:05.459081 27074 layer_factory.hpp:78] Creating layer relu2
I0228 13:49:05.459100 27074 net.cpp:68] Creating Layer relu2
I0228 13:49:05.459112 27074 net.cpp:395] relu2 <- conv2
I0228 13:49:05.459127 27074 net.cpp:346] relu2 -> conv2 (in-place)
I0228 13:49:05.459143 27074 net.cpp:97] Setting up relu2
I0228 13:49:05.459158 27074 net.cpp:104] Top shape: 256 128 9 9 (2654208)
I0228 13:49:05.459172 27074 layer_factory.hpp:78] Creating layer cccp2
I0228 13:49:05.459190 27074 net.cpp:68] Creating Layer cccp2
I0228 13:49:05.459203 27074 net.cpp:395] cccp2 <- conv2
I0228 13:49:05.459218 27074 net.cpp:357] cccp2 -> cccp2
I0228 13:49:05.459233 27074 net.cpp:97] Setting up cccp2
I0228 13:49:05.460072 27074 net.cpp:104] Top shape: 256 128 9 9 (2654208)
I0228 13:49:05.460093 27074 layer_factory.hpp:78] Creating layer relu_cccp2
I0228 13:49:05.460109 27074 net.cpp:68] Creating Layer relu_cccp2
I0228 13:49:05.460122 27074 net.cpp:395] relu_cccp2 <- cccp2
I0228 13:49:05.460136 27074 net.cpp:346] relu_cccp2 -> cccp2 (in-place)
I0228 13:49:05.460150 27074 net.cpp:97] Setting up relu_cccp2
I0228 13:49:05.460165 27074 net.cpp:104] Top shape: 256 128 9 9 (2654208)
I0228 13:49:05.460177 27074 layer_factory.hpp:78] Creating layer conv3
I0228 13:49:05.460193 27074 net.cpp:68] Creating Layer conv3
I0228 13:49:05.460206 27074 net.cpp:395] conv3 <- cccp2
I0228 13:49:05.460222 27074 net.cpp:357] conv3 -> conv3
I0228 13:49:05.460237 27074 net.cpp:97] Setting up conv3
I0228 13:49:05.467047 27074 net.cpp:104] Top shape: 256 128 7 7 (1605632)
I0228 13:49:05.467079 27074 layer_factory.hpp:78] Creating layer relu3
I0228 13:49:05.467095 27074 net.cpp:68] Creating Layer relu3
I0228 13:49:05.467108 27074 net.cpp:395] relu3 <- conv3
I0228 13:49:05.467123 27074 net.cpp:346] relu3 -> conv3 (in-place)
I0228 13:49:05.467139 27074 net.cpp:97] Setting up relu3
I0228 13:49:05.467154 27074 net.cpp:104] Top shape: 256 128 7 7 (1605632)
I0228 13:49:05.467165 27074 layer_factory.hpp:78] Creating layer cccp3
I0228 13:49:05.467183 27074 net.cpp:68] Creating Layer cccp3
I0228 13:49:05.467195 27074 net.cpp:395] cccp3 <- conv3
I0228 13:49:05.467211 27074 net.cpp:357] cccp3 -> cccp3
I0228 13:49:05.467229 27074 net.cpp:97] Setting up cccp3
I0228 13:49:05.468262 27074 net.cpp:104] Top shape: 256 128 7 7 (1605632)
I0228 13:49:05.468288 27074 layer_factory.hpp:78] Creating layer relu_cccp3
I0228 13:49:05.468303 27074 net.cpp:68] Creating Layer relu_cccp3
I0228 13:49:05.468315 27074 net.cpp:395] relu_cccp3 <- cccp3
I0228 13:49:05.468333 27074 net.cpp:346] relu_cccp3 -> cccp3 (in-place)
I0228 13:49:05.468349 27074 net.cpp:97] Setting up relu_cccp3
I0228 13:49:05.468364 27074 net.cpp:104] Top shape: 256 128 7 7 (1605632)
I0228 13:49:05.468376 27074 layer_factory.hpp:78] Creating layer pool3
I0228 13:49:05.468391 27074 net.cpp:68] Creating Layer pool3
I0228 13:49:05.468404 27074 net.cpp:395] pool3 <- cccp3
I0228 13:49:05.468417 27074 net.cpp:357] pool3 -> pool3
I0228 13:49:05.468432 27074 net.cpp:97] Setting up pool3
I0228 13:49:05.468448 27074 net.cpp:104] Top shape: 256 128 3 3 (294912)
I0228 13:49:05.468490 27074 layer_factory.hpp:78] Creating layer fc4
I0228 13:49:05.485067 27074 net.cpp:68] Creating Layer fc4
I0228 13:49:05.485100 27074 net.cpp:395] fc4 <- pool3
I0228 13:49:05.485117 27074 net.cpp:357] fc4 -> fc4
I0228 13:49:05.485136 27074 net.cpp:97] Setting up fc4
I0228 13:49:05.509603 27074 net.cpp:104] Top shape: 256 512 1 1 (131072)
I0228 13:49:05.509661 27074 layer_factory.hpp:78] Creating layer relu4
I0228 13:49:05.509702 27074 net.cpp:68] Creating Layer relu4
I0228 13:49:05.509723 27074 net.cpp:395] relu4 <- fc4
I0228 13:49:05.509740 27074 net.cpp:346] relu4 -> fc4 (in-place)
I0228 13:49:05.509760 27074 net.cpp:97] Setting up relu4
I0228 13:49:05.509790 27074 net.cpp:104] Top shape: 256 512 1 1 (131072)
I0228 13:49:05.509804 27074 layer_factory.hpp:78] Creating layer drop4
I0228 13:49:05.509822 27074 net.cpp:68] Creating Layer drop4
I0228 13:49:05.509835 27074 net.cpp:395] drop4 <- fc4
I0228 13:49:05.509848 27074 net.cpp:346] drop4 -> fc4 (in-place)
I0228 13:49:05.509863 27074 net.cpp:97] Setting up drop4
I0228 13:49:05.526136 27074 net.cpp:104] Top shape: 256 512 1 1 (131072)
I0228 13:49:05.526180 27074 layer_factory.hpp:78] Creating layer fc5
I0228 13:49:05.526221 27074 net.cpp:68] Creating Layer fc5
I0228 13:49:05.526237 27074 net.cpp:395] fc5 <- fc4
I0228 13:49:05.526254 27074 net.cpp:357] fc5 -> fc5
I0228 13:49:05.526276 27074 net.cpp:97] Setting up fc5
I0228 13:49:05.537128 27074 net.cpp:104] Top shape: 256 512 1 1 (131072)
I0228 13:49:05.537180 27074 layer_factory.hpp:78] Creating layer relu5
I0228 13:49:05.537214 27074 net.cpp:68] Creating Layer relu5
I0228 13:49:05.537232 27074 net.cpp:395] relu5 <- fc5
I0228 13:49:05.537247 27074 net.cpp:346] relu5 -> fc5 (in-place)
I0228 13:49:05.537266 27074 net.cpp:97] Setting up relu5
I0228 13:49:05.537299 27074 net.cpp:104] Top shape: 256 512 1 1 (131072)
I0228 13:49:05.537313 27074 layer_factory.hpp:78] Creating layer drop5
I0228 13:49:05.537338 27074 net.cpp:68] Creating Layer drop5
I0228 13:49:05.537349 27074 net.cpp:395] drop5 <- fc5
I0228 13:49:05.537363 27074 net.cpp:346] drop5 -> fc5 (in-place)
I0228 13:49:05.537377 27074 net.cpp:97] Setting up drop5
I0228 13:49:05.537399 27074 net.cpp:104] Top shape: 256 512 1 1 (131072)
I0228 13:49:05.537410 27074 layer_factory.hpp:78] Creating layer fc6
I0228 13:49:05.537427 27074 net.cpp:68] Creating Layer fc6
I0228 13:49:05.537439 27074 net.cpp:395] fc6 <- fc5
I0228 13:49:05.537459 27074 net.cpp:357] fc6 -> fc6
I0228 13:49:05.537475 27074 net.cpp:97] Setting up fc6
I0228 13:49:05.540026 27074 net.cpp:104] Top shape: 256 121 1 1 (30976)
I0228 13:49:05.540065 27074 layer_factory.hpp:78] Creating layer loss
I0228 13:49:05.540086 27074 net.cpp:68] Creating Layer loss
I0228 13:49:05.540098 27074 net.cpp:395] loss <- fc6
I0228 13:49:05.540112 27074 net.cpp:395] loss <- label
I0228 13:49:05.540125 27074 net.cpp:357] loss -> loss
I0228 13:49:05.540143 27074 net.cpp:97] Setting up loss
I0228 13:49:05.540159 27074 layer_factory.hpp:78] Creating layer loss
I0228 13:49:05.540267 27074 net.cpp:104] Top shape: 1 1 1 1 (1)
I0228 13:49:05.540285 27074 net.cpp:110]     with loss weight 1
I0228 13:49:05.540343 27074 net.cpp:171] loss needs backward computation.
I0228 13:49:05.540355 27074 net.cpp:171] fc6 needs backward computation.
I0228 13:49:05.540366 27074 net.cpp:171] drop5 needs backward computation.
I0228 13:49:05.540377 27074 net.cpp:171] relu5 needs backward computation.
I0228 13:49:05.540388 27074 net.cpp:171] fc5 needs backward computation.
…
I0228 13:49:05.541568 27074 net.cpp:276] The NetState phase (1) differed from the phase (0) specified by a rule in layer data
I0228 13:49:05.541807 27074 net.cpp:39] Initializing net from parameters: 
name: "model1_full"
layers {
  top: "data"
  top: "label"
  name: "data"
  type: DATA
  data_param {
    source: "/home/jaehyun/kaggle/nationalDataScienceBowl/data/typeD/val_lmdb"
    batch_size: 256
    backend: LMDB
  }
  include {
    phase: TEST
  }
  transform_param {
    mirror: false
    mean_file: "/home/jaehyun/kaggle/nationalDataScienceBowl/data/typeD/train_mean.binaryproto"
  }
}
layers {
  bottom: "data"
  top: "conv1"
  name: "conv1"
  type: CONVOLUTION
  blobs_lr: 1
  blobs_lr: 2
  weight_decay: 1
  weight_decay: 0
  convolution_param {
    num_output: 128
    kernel_size: 4
    stride: 2
    weight_filler {
      type: "gaussian"
      std: 0.01
    }
    bias_filler {
      type: "constant"
      value: 0
    }
  }
}
layers {
  bottom: "conv1"
  top: "conv1"
  name: "relu1"
  type: RELU
  relu_param {
    negative_slope: 0.1
  }
}
layers {
  bottom: "conv1"
  top: "cccp1"
  name: "cccp1"
  type: CONVOLUTION
  blobs_lr: 1
  blobs_lr: 2
  weight_decay: 1
  weight_decay: 0
  convolution_param {
    num_output: 128
    kernel_size: 1
    group: 1
    stride: 1
    weight_filler {
      type: "gaussian"
      std: 0.01
    }
    bias_filler {
      type: "constant"
      value: 0
    }
  }
}
layers {
  bottom: "cccp1"
  top: "cccp1"
  name: "relu_cccp1"
  type: RELU
  relu_param {
    negative_slope: 0.1
  }
}
layers {
  bottom: "cccp1"
  top: "pool1"
  name: "pool1"
  type: POOLING
  pooling_param {
    pool: MAX
    kernel_size: 3
    stride: 2
  }
}
layers {
  bottom: "pool1"
  top: "conv2"
  name: "conv2"
  type: CONVOLUTION
  blobs_lr: 1
  blobs_lr: 2
  weight_decay: 1
  weight_decay: 0
  convolution_param {
    num_output: 128
    kernel_size: 3
    weight_filler {
      type: "gaussian"
      std: 0.01
    }
    bias_filler {
      type: "constant"
      value: 1
    }
  }
}
layers {
  bottom: "conv2"
  top: "conv2"
  name: "relu2"
  type: RELU
  relu_param {
    negative_slope: 0.1
  }
}
layers {
  bottom: "conv2"
  top: "cccp2"
  name: "cccp2"
  type: CONVOLUTION
  blobs_lr: 1
  blobs_lr: 2
  weight_decay: 1
  weight_decay: 0
  convolution_param {
    num_output: 128
    kernel_size: 1
    group: 1
    stride: 1
    weight_filler {
      type: "gaussian"
      std: 0.01
    }
    bias_filler {
      type: "constant"
      value: 0
    }
  }
}
layers {
  bottom: "cccp2"
  top: "cccp2"
  name: "relu_cccp2"
  type: RELU
  relu_param {
    negative_slope: 0.1
  }
}
layers {
  bottom: "cccp2"
  top: "conv3"
  name: "conv3"
  type: CONVOLUTION
  blobs_lr: 1
  blobs_lr: 2
  weight_decay: 1
  weight_decay: 0
  convolution_param {
    num_output: 128
    kernel_size: 3
    weight_filler {
      type: "gaussian"
      std: 0.01
    }
    bias_filler {
      type: "constant"
      value: 0
    }
  }
}
layers {
  bottom: "conv3"
  top: "conv3"
  name: "relu3"
  type: RELU
  relu_param {
    negative_slope: 0.1
  }
}
layers {
  bottom: "conv3"
  top: "cccp3"
  name: "cccp3"
  type: CONVOLUTION
  blobs_lr: 1
  blobs_lr: 2
  weight_decay: 1
  weight_decay: 0
  convolution_param {
    num_output: 128
    kernel_size: 1
    group: 1
    stride: 1
    weight_filler {
      type: "gaussian"
      std: 0.01
    }
    bias_filler {
      type: "constant"
      value: 0
    }
  }
}
layers {
  bottom: "cccp3"
  top: "cccp3"
  name: "relu_cccp3"
  type: RELU
  relu_param {
    negative_slope: 0.1
  }
}
layers {
  bottom: "cccp3"
  top: "pool3"
  name: "pool3"
  type: POOLING
  pooling_param {
    pool: MAX
    kernel_size: 3
    stride: 2
  }
}
layers {
  bottom: "pool3"
  top: "fc4"
  name: "fc4"
  type: INNER_PRODUCT
  blobs_lr: 1
  blobs_lr: 2
  weight_decay: 1
  weight_decay: 0
  inner_product_param {
    num_output: 512
    weight_filler {
      type: "gaussian"
      std: 0.005
    }
    bias_filler {
      type: "constant"
      value: 1
    }
  }
}
layers {
  bottom: "fc4"
  top: "fc4"
  name: "relu4"
  type: RELU
  relu_param {
    negative_slope: 0.1
  }
}
layers {
  bottom: "fc4"
  top: "fc4"
  name: "drop4"
  type: DROPOUT
  dropout_param {
    dropout_ratio: 0.5
  }
}
layers {
  bottom: "fc4"
  top: "fc5"
  name: "fc5"
  type: INNER_PRODUCT
  blobs_lr: 1
  blobs_lr: 2
  weight_decay: 1
  weight_decay: 0
  inner_product_param {
    num_output: 512
    weight_filler {
      type: "gaussian"
      std: 0.005
    }
    bias_filler {
      type: "constant"
      value: 1
    }
  }
}
layers {
  bottom: "fc5"
  top: "fc5"
  name: "relu5"
  type: RELU
  relu_param {
    negative_slope: 0.1
  }
}
layers {
  bottom: "fc5"
  top: "fc5"
  name: "drop5"
  type: DROPOUT
  dropout_param {
    dropout_ratio: 0.5
  }
}
layers {
  bottom: "fc5"
  top: "fc6"
  name: "fc6"
  type: INNER_PRODUCT
  blobs_lr: 1
  blobs_lr: 2
  weight_decay: 1
  weight_decay: 0
  inner_product_param {
    num_output: 121
    weight_filler {
      type: "gaussian"
      std: 0.01
    }
    bias_filler {
      type: "constant"
      value: 0
    }
  }
}
layers {
  bottom: "fc6"
  top: "prob"
  name: "prob"
  type: SOFTMAX
  include {
    phase: TEST
  }
}
layers {
  bottom: "prob"
  bottom: "label"
  top: "accuracy"
  name: "accuracy"
  type: ACCURACY
  accuracy_param {
    top_k: 1
  }
  include {
    phase: TEST
  }
}
layers {
  bottom: "fc6"
  bottom: "label"
  top: "loss"
  name: "loss"
  type: SOFTMAX_LOSS
}
state {
  phase: TEST
}
I0228 13:49:05.543066 27074 layer_factory.hpp:78] Creating layer data
I0228 13:49:05.543090 27074 data_transformer.cpp:24] Loading mean file from/home/jaehyun/kaggle/nationalDataScienceBowl/data/typeD/train_mean.binaryproto
I0228 13:49:05.543181 27074 net.cpp:68] Creating Layer data
I0228 13:49:05.543195 27074 net.cpp:357] data -> data
I0228 13:49:05.543216 27074 net.cpp:357] data -> label
I0228 13:49:05.543238 27074 net.cpp:97] Setting up data
I0228 13:49:05.543252 27074 data_layer.cpp:34] Opening dataset /home/jaehyun/kaggle/nationalDataScienceBowl/data/typeD/val_lmdb
I0228 13:49:05.598585 27074 lmdb_dataset.cpp:73] what the fuck!!
I0228 13:49:05.618291 27074 data_layer.cpp:73] output data size: 256,1,48,48
I0228 13:49:05.621037 27074 net.cpp:104] Top shape: 256 1 48 48 (589824)
I0228 13:49:05.621058 27074 net.cpp:104] Top shape: 256 1 1 1 (256)
I0228 13:49:05.621068 27074 layer_factory.hpp:78] Creating layer label_data_1_split
I0228 13:49:05.621095 27074 net.cpp:68] Creating Layer label_data_1_split
I0228 13:49:05.621106 27074 net.cpp:395] label_data_1_split <- label
I0228 13:49:05.621120 27074 net.cpp:357] label_data_1_split -> label_data_1_split_0
I0228 13:49:05.621139 27074 net.cpp:357] label_data_1_split -> label_data_1_split_1
I0228 13:49:05.621150 27074 net.cpp:97] Setting up label_data_1_split
I0228 13:49:05.621162 27074 net.cpp:104] Top shape: 256 1 1 1 (256)
I0228 13:49:05.621170 27074 net.cpp:104] Top shape: 256 1 1 1 (256)
I0228 13:49:05.621223 27074 layer_factory.hpp:78] Creating layer conv1
I0228 13:49:05.621248 27074 net.cpp:68] Creating Layer conv1
I0228 13:49:05.621256 27074 net.cpp:395] conv1 <- data
I0228 13:49:05.621270 27074 net.cpp:357] conv1 -> conv1
I0228 13:49:05.621284 27074 net.cpp:97] Setting up conv1
I0228 13:49:05.621592 27074 net.cpp:104] Top shape: 256 128 23 23 (17334272)
I0228 13:49:05.621616 27074 layer_factory.hpp:78] Creating layer relu1
I0228 13:49:05.621629 27074 net.cpp:68] Creating Layer relu1
I0228 13:49:05.621636 27074 net.cpp:395] relu1 <- conv1
I0228 13:49:05.621649 27074 net.cpp:346] relu1 -> conv1 (in-place)
I0228 13:49:05.621660 27074 net.cpp:97] Setting up relu1
I0228 13:49:05.621671 27074 net.cpp:104] Top shape: 256 128 23 23 (17334272)
I0228 13:49:05.621678 27074 layer_factory.hpp:78] Creating layer cccp1
I0228 13:49:05.621690 27074 net.cpp:68] Creating Layer cccp1
I0228 13:49:05.621697 27074 net.cpp:395] cccp1 <- conv1
I0228 13:49:05.621706 27074 net.cpp:357] cccp1 -> cccp1
I0228 13:49:05.621717 27074 net.cpp:97] Setting up cccp1
I0228 13:49:05.622465 27074 net.cpp:104] Top shape: 256 128 23 23 (17334272)
I0228 13:49:05.622483 27074 layer_factory.hpp:78] Creating layer relu_cccp1
I0228 13:49:05.622495 27074 net.cpp:68] Creating Layer relu_cccp1
I0228 13:49:05.622503 27074 net.cpp:395] relu_cccp1 <- cccp1
I0228 13:49:05.622512 27074 net.cpp:346] relu_cccp1 -> cccp1 (in-place)
I0228 13:49:05.622521 27074 net.cpp:97] Setting up relu_cccp1
I0228 13:49:05.622531 27074 net.cpp:104] Top shape: 256 128 23 23 (17334272)
I0228 13:49:05.622539 27074 layer_factory.hpp:78] Creating layer pool1
I0228 13:49:05.622550 27074 net.cpp:68] Creating Layer pool1
I0228 13:49:05.622557 27074 net.cpp:395] pool1 <- cccp1
I0228 13:49:05.622568 27074 net.cpp:357] pool1 -> pool1
I0228 13:49:05.622580 27074 net.cpp:97] Setting up pool1
I0228 13:49:05.622594 27074 net.cpp:104] Top shape: 256 128 11 11 (3964928)
I0228 13:49:05.622601 27074 layer_factory.hpp:78] Creating layer conv2
I0228 13:49:05.622611 27074 net.cpp:68] Creating Layer conv2
I0228 13:49:05.622618 27074 net.cpp:395] conv2 <- pool1
I0228 13:49:05.622632 27074 net.cpp:357] conv2 -> conv2
I0228 13:49:05.622642 27074 net.cpp:97] Setting up conv2
I0228 13:49:05.628811 27074 net.cpp:104] Top shape: 256 128 9 9 (2654208)
I0228 13:49:05.628846 27074 layer_factory.hpp:78] Creating layer relu2
I0228 13:49:05.628866 27074 net.cpp:68] Creating Layer relu2
I0228 13:49:05.628880 27074 net.cpp:395] relu2 <- conv2
I0228 13:49:05.628893 27074 net.cpp:346] relu2 -> conv2 (in-place)
I0228 13:49:05.628909 27074 net.cpp:97] Setting up relu2
I0228 13:49:05.628923 27074 net.cpp:104] Top shape: 256 128 9 9 (2654208)
I0228 13:49:05.628936 27074 layer_factory.hpp:78] Creating layer cccp2
I0228 13:49:05.628953 27074 net.cpp:68] Creating Layer cccp2
I0228 13:49:05.628965 27074 net.cpp:395] cccp2 <- conv2
I0228 13:49:05.628979 27074 net.cpp:357] cccp2 -> cccp2
I0228 13:49:05.628995 27074 net.cpp:97] Setting up cccp2
I0228 13:49:05.629748 27074 net.cpp:104] Top shape: 256 128 9 9 (2654208)
I0228 13:49:05.629772 27074 layer_factory.hpp:78] Creating layer relu_cccp2
I0228 13:49:05.629788 27074 net.cpp:68] Creating Layer relu_cccp2
I0228 13:49:05.629802 27074 net.cpp:395] relu_cccp2 <- cccp2
I0228 13:49:05.629819 27074 net.cpp:346] relu_cccp2 -> cccp2 (in-place)
I0228 13:49:05.629835 27074 net.cpp:97] Setting up relu_cccp2
I0228 13:49:05.629850 27074 net.cpp:104] Top shape: 256 128 9 9 (2654208)
I0228 13:49:05.629863 27074 layer_factory.hpp:78] Creating layer conv3
I0228 13:49:05.629878 27074 net.cpp:68] Creating Layer conv3
I0228 13:49:05.629889 27074 net.cpp:395] conv3 <- cccp2
I0228 13:49:05.629905 27074 net.cpp:357] conv3 -> conv3
I0228 13:49:05.629921 27074 net.cpp:97] Setting up conv3
I0228 13:49:05.636698 27074 net.cpp:104] Top shape: 256 128 7 7 (1605632)
I0228 13:49:05.636759 27074 layer_factory.hpp:78] Creating layer relu3
I0228 13:49:05.636780 27074 net.cpp:68] Creating Layer relu3
I0228 13:49:05.636793 27074 net.cpp:395] relu3 <- conv3
I0228 13:49:05.636811 27074 net.cpp:346] relu3 -> conv3 (in-place)
I0228 13:49:05.636874 27074 net.cpp:97] Setting up relu3
I0228 13:49:05.636904 27074 net.cpp:104] Top shape: 256 128 7 7 (1605632)
I0228 13:49:05.636921 27074 layer_factory.hpp:78] Creating layer cccp3
I0228 13:49:05.636942 27074 net.cpp:68] Creating Layer cccp3
I0228 13:49:05.636957 27074 net.cpp:395] cccp3 <- conv3
I0228 13:49:05.636983 27074 net.cpp:357] cccp3 -> cccp3
I0228 13:49:05.637006 27074 net.cpp:97] Setting up cccp3
I0228 13:49:05.637979 27074 net.cpp:104] Top shape: 256 128 7 7 (1605632)
I0228 13:49:05.638006 27074 layer_factory.hpp:78] Creating layer relu_cccp3
I0228 13:49:05.638025 27074 net.cpp:68] Creating Layer relu_cccp3
I0228 13:49:05.638041 27074 net.cpp:395] relu_cccp3 <- cccp3
I0228 13:49:05.638061 27074 net.cpp:346] relu_cccp3 -> cccp3 (in-place)
I0228 13:49:05.638080 27074 net.cpp:97] Setting up relu_cccp3
I0228 13:49:05.638099 27074 net.cpp:104] Top shape: 256 128 7 7 (1605632)
I0228 13:49:05.638114 27074 layer_factory.hpp:78] Creating layer pool3
I0228 13:49:05.638135 27074 net.cpp:68] Creating Layer pool3
I0228 13:49:05.638150 27074 net.cpp:395] pool3 <- cccp3
I0228 13:49:05.638169 27074 net.cpp:357] pool3 -> pool3
I0228 13:49:05.638186 27074 net.cpp:97] Setting up pool3
I0228 13:49:05.638209 27074 net.cpp:104] Top shape: 256 128 3 3 (294912)
I0228 13:49:05.638226 27074 layer_factory.hpp:78] Creating layer fc4
I0228 13:49:05.638252 27074 net.cpp:68] Creating Layer fc4
I0228 13:49:05.638267 27074 net.cpp:395] fc4 <- pool3
I0228 13:49:05.638285 27074 net.cpp:357] fc4 -> fc4
I0228 13:49:05.638305 27074 net.cpp:97] Setting up fc4
I0228 13:49:05.662864 27074 net.cpp:104] Top shape: 256 512 1 1 (131072)
I0228 13:49:05.662904 27074 layer_factory.hpp:78] Creating layer relu4
I0228 13:49:05.662933 27074 net.cpp:68] Creating Layer relu4
I0228 13:49:05.662948 27074 net.cpp:395] relu4 <- fc4
I0228 13:49:05.662966 27074 net.cpp:346] relu4 -> fc4 (in-place)
I0228 13:49:05.662983 27074 net.cpp:97] Setting up relu4
I0228 13:49:05.663010 27074 net.cpp:104] Top shape: 256 512 1 1 (131072)
I0228 13:49:05.663022 27074 layer_factory.hpp:78] Creating layer drop4
I0228 13:49:05.663038 27074 net.cpp:68] Creating Layer drop4
I0228 13:49:05.663050 27074 net.cpp:395] drop4 <- fc4
I0228 13:49:05.663066 27074 net.cpp:346] drop4 -> fc4 (in-place)
I0228 13:49:05.663082 27074 net.cpp:97] Setting up drop4
I0228 13:49:05.663095 27074 net.cpp:104] Top shape: 256 512 1 1 (131072)
I0228 13:49:05.663106 27074 layer_factory.hpp:78] Creating layer fc5
I0228 13:49:05.663121 27074 net.cpp:68] Creating Layer fc5
I0228 13:49:05.663133 27074 net.cpp:395] fc5 <- fc4
I0228 13:49:05.663148 27074 net.cpp:357] fc5 -> fc5
I0228 13:49:05.663163 27074 net.cpp:97] Setting up fc5
I0228 13:49:05.673933 27074 net.cpp:104] Top shape: 256 512 1 1 (131072)
I0228 13:49:05.673959 27074 layer_factory.hpp:78] Creating layer relu5
I0228 13:49:05.673975 27074 net.cpp:68] Creating Layer relu5
I0228 13:49:05.673988 27074 net.cpp:395] relu5 <- fc5
I0228 13:49:05.674007 27074 net.cpp:346] relu5 -> fc5 (in-place)
I0228 13:49:05.674024 27074 net.cpp:97] Setting up relu5
I0228 13:49:05.674041 27074 net.cpp:104] Top shape: 256 512 1 1 (131072)
I0228 13:49:05.674052 27074 layer_factory.hpp:78] Creating layer drop5
I0228 13:49:05.674067 27074 net.cpp:68] Creating Layer drop5
I0228 13:49:05.674078 27074 net.cpp:395] drop5 <- fc5
I0228 13:49:05.674094 27074 net.cpp:346] drop5 -> fc5 (in-place)
I0228 13:49:05.674108 27074 net.cpp:97] Setting up drop5
I0228 13:49:05.674120 27074 net.cpp:104] Top shape: 256 512 1 1 (131072)
I0228 13:49:05.674132 27074 layer_factory.hpp:78] Creating layer fc6
I0228 13:49:05.674146 27074 net.cpp:68] Creating Layer fc6
I0228 13:49:05.674157 27074 net.cpp:395] fc6 <- fc5
I0228 13:49:05.674171 27074 net.cpp:357] fc6 -> fc6
I0228 13:49:05.674186 27074 net.cpp:97] Setting up fc6
I0228 13:49:05.676741 27074 net.cpp:104] Top shape: 256 121 1 1 (30976)
I0228 13:49:05.676774 27074 layer_factory.hpp:78] Creating layer fc6_fc6_0_split
I0228 13:49:05.676792 27074 net.cpp:68] Creating Layer fc6_fc6_0_split
I0228 13:49:05.676805 27074 net.cpp:395] fc6_fc6_0_split <- fc6
I0228 13:49:05.676859 27074 net.cpp:357] fc6_fc6_0_split -> fc6_fc6_0_split_0
I0228 13:49:05.676885 27074 net.cpp:357] fc6_fc6_0_split -> fc6_fc6_0_split_1
I0228 13:49:05.676904 27074 net.cpp:97] Setting up fc6_fc6_0_split
I0228 13:49:05.676918 27074 net.cpp:104] Top shape: 256 121 1 1 (30976)
I0228 13:49:05.676930 27074 net.cpp:104] Top shape: 256 121 1 1 (30976)
I0228 13:49:05.676941 27074 layer_factory.hpp:78] Creating layer prob
I0228 13:49:05.676957 27074 net.cpp:68] Creating Layer prob
I0228 13:49:05.676970 27074 net.cpp:395] prob <- fc6_fc6_0_split_0
I0228 13:49:05.676990 27074 net.cpp:357] prob -> prob
I0228 13:49:05.677006 27074 net.cpp:97] Setting up prob
I0228 13:49:05.677024 27074 net.cpp:104] Top shape: 256 121 1 1 (30976)
I0228 13:49:05.677037 27074 layer_factory.hpp:78] Creating layer accuracy
I0228 13:49:05.677057 27074 net.cpp:68] Creating Layer accuracy
I0228 13:49:05.677076 27074 net.cpp:395] accuracy <- prob
I0228 13:49:05.677089 27074 net.cpp:395] accuracy <- label_data_1_split_0
I0228 13:49:05.677111 27074 net.cpp:357] accuracy -> accuracy
I0228 13:49:05.677127 27074 net.cpp:97] Setting up accuracy
I0228 13:49:05.677142 27074 net.cpp:104] Top shape: 1 1 1 1 (1)
I0228 13:49:05.677155 27074 layer_factory.hpp:78] Creating layer loss
I0228 13:49:05.677167 27074 net.cpp:68] Creating Layer loss
I0228 13:49:05.677180 27074 net.cpp:395] loss <- fc6_fc6_0_split_1
I0228 13:49:05.677191 27074 net.cpp:395] loss <- label_data_1_split_1
I0228 13:49:05.677203 27074 net.cpp:357] loss -> loss
I0228 13:49:05.677218 27074 net.cpp:97] Setting up loss
I0228 13:49:05.677232 27074 layer_factory.hpp:78] Creating layer loss
I0228 13:49:05.677326 27074 net.cpp:104] Top shape: 1 1 1 1 (1)
I0228 13:49:05.677343 27074 net.cpp:110]     with loss weight 1
I0228 13:49:05.677367 27074 net.cpp:171] loss needs backward computation.
I0228 13:49:05.677378 27074 net.cpp:173] accuracy does not need backward computation.
I0228 13:49:05.677389 27074 net.cpp:173] prob does not need backward computation.
I0228 13:49:05.677400 27074 net.cpp:171] fc6_fc6_0_split needs backward computation.
…
