…
I0227 15:24:23.894819 13560 net.cpp:276] The NetState phase (0) differed from the phase (1) specified by a rule in layer accuracy
I0227 15:24:23.895021 13560 net.cpp:39] Initializing net from parameters: 
name: "model1_part2"
layers {
  top: "data"
  top: "label"
  name: "data"
  type: DATA
  data_param {
    source: "/home/jaehyun/kaggle/nationalDataScienceBowl/data/typeD/train_lmdb"
    batch_size: 256
    backend: LMDB
    shuffle: true
  }
  include {
    phase: TRAIN
  }
  transform_param {
    mirror: true
    mean_file: "/home/jaehyun/kaggle/nationalDataScienceBowl/data/typeD/train_mean.binaryproto"
  }
}
layers {
  bottom: "data"
  top: "conv1"
  name: "conv1"
  type: CONVOLUTION
  blobs_lr: 0
  blobs_lr: 0
  weight_decay: 0
  weight_decay: 0
  convolution_param {
    num_output: 128
    kernel_size: 4
    stride: 2
    weight_filler {
      type: "gaussian"
      std: 0.01
    }
    bias_filler {
      type: "constant"
      value: 0
    }
  }
}
layers {
  bottom: "conv1"
  top: "conv1"
  name: "relu1"
  type: RELU
  relu_param {
    negative_slope: 0.1
  }
}
layers {
  bottom: "conv1"
  top: "cccp1"
  name: "cccp1"
  type: CONVOLUTION
  blobs_lr: 0
  blobs_lr: 0
  weight_decay: 0
  weight_decay: 0
  convolution_param {
    num_output: 128
    kernel_size: 1
    group: 1
    stride: 1
    weight_filler {
      type: "gaussian"
      std: 0.01
    }
    bias_filler {
      type: "constant"
      value: 0
    }
  }
}
layers {
  bottom: "cccp1"
  top: "cccp1"
  name: "relu_cccp1"
  type: RELU
  relu_param {
    negative_slope: 0.1
  }
}
layers {
  bottom: "cccp1"
  top: "pool1"
  name: "pool1"
  type: POOLING
  pooling_param {
    pool: MAX
    kernel_size: 3
    stride: 2
  }
}
layers {
  bottom: "pool1"
  top: "conv2"
  name: "conv2"
  type: CONVOLUTION
  blobs_lr: 1
  blobs_lr: 2
  weight_decay: 1
  weight_decay: 0
  convolution_param {
    num_output: 128
    kernel_size: 3
    weight_filler {
      type: "gaussian"
      std: 0.01
    }
    bias_filler {
      type: "constant"
      value: 1
    }
  }
}
layers {
  bottom: "conv2"
  top: "conv2"
  name: "relu2"
  type: RELU
  relu_param {
    negative_slope: 0.1
  }
}
layers {
  bottom: "conv2"
  top: "cccp2"
  name: "cccp2"
  type: CONVOLUTION
  blobs_lr: 1
  blobs_lr: 2
  weight_decay: 1
  weight_decay: 0
  convolution_param {
    num_output: 128
    kernel_size: 1
    group: 1
    stride: 1
    weight_filler {
      type: "gaussian"
      std: 0.01
    }
    bias_filler {
      type: "constant"
      value: 0
    }
  }
}
layers {
  bottom: "cccp2"
  top: "cccp2"
  name: "relu_cccp2"
  type: RELU
  relu_param {
    negative_slope: 0.1
  }
}
layers {
  bottom: "cccp2"
  top: "conv3"
  name: "conv3"
  type: CONVOLUTION
  blobs_lr: 1
  blobs_lr: 2
  weight_decay: 1
  weight_decay: 0
  convolution_param {
    num_output: 128
    kernel_size: 3
    weight_filler {
      type: "gaussian"
      std: 0.01
    }
    bias_filler {
      type: "constant"
      value: 0
    }
  }
}
layers {
  bottom: "conv3"
  top: "conv3"
  name: "relu3"
  type: RELU
  relu_param {
    negative_slope: 0.1
  }
}
layers {
  bottom: "conv3"
  top: "pool3"
  name: "pool3"
  type: POOLING
  pooling_param {
    pool: MAX
    kernel_size: 3
    stride: 2
  }
}
layers {
  bottom: "pool3"
  top: "fc4"
  name: "fc4"
  type: INNER_PRODUCT
  blobs_lr: 1
  blobs_lr: 2
  weight_decay: 1
  weight_decay: 0
  inner_product_param {
    num_output: 512
    weight_filler {
      type: "gaussian"
      std: 0.005
    }
    bias_filler {
      type: "constant"
      value: 1
    }
  }
}
layers {
  bottom: "fc4"
  top: "fc4"
  name: "relu4"
  type: RELU
  relu_param {
    negative_slope: 0.1
  }
}
layers {
  bottom: "fc4"
  top: "fc4"
  name: "drop4"
  type: DROPOUT
  dropout_param {
    dropout_ratio: 0.5
  }
}
layers {
  bottom: "fc4"
  top: "fc5"
  name: "fc5"
  type: INNER_PRODUCT
  blobs_lr: 1
  blobs_lr: 2
  weight_decay: 1
  weight_decay: 0
  inner_product_param {
    num_output: 512
    weight_filler {
      type: "gaussian"
      std: 0.005
    }
    bias_filler {
      type: "constant"
      value: 1
    }
  }
}
layers {
  bottom: "fc5"
  top: "fc5"
  name: "relu5"
  type: RELU
  relu_param {
    negative_slope: 0.1
  }
}
layers {
  bottom: "fc5"
  top: "fc5"
  name: "drop5"
  type: DROPOUT
  dropout_param {
    dropout_ratio: 0.5
  }
}
layers {
  bottom: "fc5"
  top: "fc6"
  name: "fc6"
  type: INNER_PRODUCT
  blobs_lr: 1
  blobs_lr: 2
  weight_decay: 1
  weight_decay: 0
  inner_product_param {
    num_output: 121
    weight_filler {
      type: "gaussian"
      std: 0.01
    }
    bias_filler {
      type: "constant"
      value: 0
    }
  }
}
layers {
  bottom: "fc6"
  bottom: "label"
  top: "loss"
  name: "loss"
  type: SOFTMAX_LOSS
}
state {
  phase: TRAIN
}
I0227 15:24:23.896163 13560 layer_factory.hpp:78] Creating layer data
I0227 15:24:23.896193 13560 data_transformer.cpp:24] Loading mean file from/home/jaehyun/kaggle/nationalDataScienceBowl/data/typeD/train_mean.binaryproto
I0227 15:24:23.896296 13560 net.cpp:68] Creating Layer data
I0227 15:24:23.896319 13560 net.cpp:357] data -> data
I0227 15:24:23.896345 13560 net.cpp:357] data -> label
I0227 15:24:23.896369 13560 net.cpp:97] Setting up data
I0227 15:24:23.896389 13560 data_layer.cpp:34] Opening dataset /home/jaehyun/kaggle/nationalDataScienceBowl/data/typeD/train_lmdb
I0227 15:24:23.896494 13560 lmdb_dataset.cpp:73] what the fuck!!
I0227 15:24:23.896576 13560 data_layer.cpp:73] output data size: 256,1,48,48
I0227 15:24:23.897754 13560 net.cpp:104] Top shape: 256 1 48 48 (589824)
I0227 15:24:23.897778 13560 net.cpp:104] Top shape: 256 1 1 1 (256)
I0227 15:24:23.897794 13560 layer_factory.hpp:78] Creating layer conv1
I0227 15:24:23.897816 13560 net.cpp:68] Creating Layer conv1
I0227 15:24:23.897830 13560 net.cpp:395] conv1 <- data
I0227 15:24:23.897860 13560 net.cpp:357] conv1 -> conv1
I0227 15:24:23.897881 13560 net.cpp:97] Setting up conv1
I0227 15:24:23.949184 13560 net.cpp:104] Top shape: 256 128 23 23 (17334272)
I0227 15:24:23.949271 13560 layer_factory.hpp:78] Creating layer relu1
I0227 15:24:23.949297 13560 net.cpp:68] Creating Layer relu1
I0227 15:24:23.949313 13560 net.cpp:395] relu1 <- conv1
I0227 15:24:23.949331 13560 net.cpp:346] relu1 -> conv1 (in-place)
I0227 15:24:23.949352 13560 net.cpp:97] Setting up relu1
I0227 15:24:23.949370 13560 net.cpp:104] Top shape: 256 128 23 23 (17334272)
I0227 15:24:23.949383 13560 layer_factory.hpp:78] Creating layer cccp1
I0227 15:24:23.949400 13560 net.cpp:68] Creating Layer cccp1
I0227 15:24:23.949412 13560 net.cpp:395] cccp1 <- conv1
I0227 15:24:23.949429 13560 net.cpp:357] cccp1 -> cccp1
I0227 15:24:23.949446 13560 net.cpp:97] Setting up cccp1
I0227 15:24:23.950212 13560 net.cpp:104] Top shape: 256 128 23 23 (17334272)
I0227 15:24:23.950242 13560 layer_factory.hpp:78] Creating layer relu_cccp1
I0227 15:24:23.950258 13560 net.cpp:68] Creating Layer relu_cccp1
I0227 15:24:23.950271 13560 net.cpp:395] relu_cccp1 <- cccp1
I0227 15:24:23.950285 13560 net.cpp:346] relu_cccp1 -> cccp1 (in-place)
I0227 15:24:23.950300 13560 net.cpp:97] Setting up relu_cccp1
I0227 15:24:23.950315 13560 net.cpp:104] Top shape: 256 128 23 23 (17334272)
I0227 15:24:23.950327 13560 layer_factory.hpp:78] Creating layer pool1
I0227 15:24:23.950348 13560 net.cpp:68] Creating Layer pool1
I0227 15:24:23.950362 13560 net.cpp:395] pool1 <- cccp1
I0227 15:24:23.950376 13560 net.cpp:357] pool1 -> pool1
I0227 15:24:23.950453 13560 net.cpp:97] Setting up pool1
I0227 15:24:23.950489 13560 net.cpp:104] Top shape: 256 128 11 11 (3964928)
I0227 15:24:23.950505 13560 layer_factory.hpp:78] Creating layer conv2
I0227 15:24:23.950522 13560 net.cpp:68] Creating Layer conv2
I0227 15:24:23.950536 13560 net.cpp:395] conv2 <- pool1
I0227 15:24:23.950551 13560 net.cpp:357] conv2 -> conv2
I0227 15:24:23.950567 13560 net.cpp:97] Setting up conv2
I0227 15:24:23.956728 13560 net.cpp:104] Top shape: 256 128 9 9 (2654208)
I0227 15:24:23.956759 13560 layer_factory.hpp:78] Creating layer relu2
I0227 15:24:23.956775 13560 net.cpp:68] Creating Layer relu2
I0227 15:24:23.956791 13560 net.cpp:395] relu2 <- conv2
I0227 15:24:23.956809 13560 net.cpp:346] relu2 -> conv2 (in-place)
I0227 15:24:23.956825 13560 net.cpp:97] Setting up relu2
I0227 15:24:23.956840 13560 net.cpp:104] Top shape: 256 128 9 9 (2654208)
I0227 15:24:23.956852 13560 layer_factory.hpp:78] Creating layer cccp2
I0227 15:24:23.956868 13560 net.cpp:68] Creating Layer cccp2
I0227 15:24:23.956881 13560 net.cpp:395] cccp2 <- conv2
I0227 15:24:23.956899 13560 net.cpp:357] cccp2 -> cccp2
I0227 15:24:23.956915 13560 net.cpp:97] Setting up cccp2
I0227 15:24:23.957672 13560 net.cpp:104] Top shape: 256 128 9 9 (2654208)
I0227 15:24:23.957695 13560 layer_factory.hpp:78] Creating layer relu_cccp2
I0227 15:24:23.957710 13560 net.cpp:68] Creating Layer relu_cccp2
I0227 15:24:23.957721 13560 net.cpp:395] relu_cccp2 <- cccp2
I0227 15:24:23.957739 13560 net.cpp:346] relu_cccp2 -> cccp2 (in-place)
I0227 15:24:23.957754 13560 net.cpp:97] Setting up relu_cccp2
I0227 15:24:23.957772 13560 net.cpp:104] Top shape: 256 128 9 9 (2654208)
I0227 15:24:23.957783 13560 layer_factory.hpp:78] Creating layer conv3
I0227 15:24:23.957798 13560 net.cpp:68] Creating Layer conv3
I0227 15:24:23.957809 13560 net.cpp:395] conv3 <- cccp2
I0227 15:24:23.957828 13560 net.cpp:357] conv3 -> conv3
I0227 15:24:23.957844 13560 net.cpp:97] Setting up conv3
I0227 15:24:23.963997 13560 net.cpp:104] Top shape: 256 128 7 7 (1605632)
I0227 15:24:23.964030 13560 layer_factory.hpp:78] Creating layer relu3
I0227 15:24:23.964046 13560 net.cpp:68] Creating Layer relu3
I0227 15:24:23.964058 13560 net.cpp:395] relu3 <- conv3
I0227 15:24:23.964073 13560 net.cpp:346] relu3 -> conv3 (in-place)
I0227 15:24:23.964088 13560 net.cpp:97] Setting up relu3
I0227 15:24:23.964102 13560 net.cpp:104] Top shape: 256 128 7 7 (1605632)
I0227 15:24:23.964114 13560 layer_factory.hpp:78] Creating layer pool3
I0227 15:24:23.964128 13560 net.cpp:68] Creating Layer pool3
I0227 15:24:23.964140 13560 net.cpp:395] pool3 <- conv3
I0227 15:24:23.964156 13560 net.cpp:357] pool3 -> pool3
I0227 15:24:23.964174 13560 net.cpp:97] Setting up pool3
I0227 15:24:23.964190 13560 net.cpp:104] Top shape: 256 128 3 3 (294912)
I0227 15:24:23.964203 13560 layer_factory.hpp:78] Creating layer fc4
I0227 15:24:23.964221 13560 net.cpp:68] Creating Layer fc4
I0227 15:24:23.964236 13560 net.cpp:395] fc4 <- pool3
I0227 15:24:23.964251 13560 net.cpp:357] fc4 -> fc4
I0227 15:24:23.964267 13560 net.cpp:97] Setting up fc4
I0227 15:24:23.988718 13560 net.cpp:104] Top shape: 256 512 1 1 (131072)
I0227 15:24:23.988767 13560 layer_factory.hpp:78] Creating layer relu4
I0227 15:24:23.988785 13560 net.cpp:68] Creating Layer relu4
I0227 15:24:23.988813 13560 net.cpp:395] relu4 <- fc4
I0227 15:24:23.988831 13560 net.cpp:346] relu4 -> fc4 (in-place)
I0227 15:24:23.988848 13560 net.cpp:97] Setting up relu4
I0227 15:24:23.988873 13560 net.cpp:104] Top shape: 256 512 1 1 (131072)
I0227 15:24:23.988886 13560 layer_factory.hpp:78] Creating layer drop4
I0227 15:24:23.988908 13560 net.cpp:68] Creating Layer drop4
I0227 15:24:23.988919 13560 net.cpp:395] drop4 <- fc4
I0227 15:24:23.988934 13560 net.cpp:346] drop4 -> fc4 (in-place)
I0227 15:24:23.988948 13560 net.cpp:97] Setting up drop4
I0227 15:24:23.988962 13560 net.cpp:104] Top shape: 256 512 1 1 (131072)
I0227 15:24:23.988975 13560 layer_factory.hpp:78] Creating layer fc5
I0227 15:24:23.988996 13560 net.cpp:68] Creating Layer fc5
I0227 15:24:23.989061 13560 net.cpp:395] fc5 <- fc4
I0227 15:24:23.989078 13560 net.cpp:357] fc5 -> fc5
I0227 15:24:23.989095 13560 net.cpp:97] Setting up fc5
I0227 15:24:23.999914 13560 net.cpp:104] Top shape: 256 512 1 1 (131072)
I0227 15:24:23.999941 13560 layer_factory.hpp:78] Creating layer relu5
I0227 15:24:23.999955 13560 net.cpp:68] Creating Layer relu5
I0227 15:24:23.999969 13560 net.cpp:395] relu5 <- fc5
I0227 15:24:23.999984 13560 net.cpp:346] relu5 -> fc5 (in-place)
I0227 15:24:23.999999 13560 net.cpp:97] Setting up relu5
I0227 15:24:24.000015 13560 net.cpp:104] Top shape: 256 512 1 1 (131072)
I0227 15:24:24.000026 13560 layer_factory.hpp:78] Creating layer drop5
I0227 15:24:24.000042 13560 net.cpp:68] Creating Layer drop5
I0227 15:24:24.000056 13560 net.cpp:395] drop5 <- fc5
I0227 15:24:24.000068 13560 net.cpp:346] drop5 -> fc5 (in-place)
I0227 15:24:24.000082 13560 net.cpp:97] Setting up drop5
I0227 15:24:24.000094 13560 net.cpp:104] Top shape: 256 512 1 1 (131072)
I0227 15:24:24.000107 13560 layer_factory.hpp:78] Creating layer fc6
I0227 15:24:24.000123 13560 net.cpp:68] Creating Layer fc6
I0227 15:24:24.000135 13560 net.cpp:395] fc6 <- fc5
I0227 15:24:24.000149 13560 net.cpp:357] fc6 -> fc6
I0227 15:24:24.000164 13560 net.cpp:97] Setting up fc6
I0227 15:24:24.002713 13560 net.cpp:104] Top shape: 256 121 1 1 (30976)
I0227 15:24:24.002738 13560 layer_factory.hpp:78] Creating layer loss
I0227 15:24:24.002754 13560 net.cpp:68] Creating Layer loss
I0227 15:24:24.002768 13560 net.cpp:395] loss <- fc6
I0227 15:24:24.002782 13560 net.cpp:395] loss <- label
I0227 15:24:24.002800 13560 net.cpp:357] loss -> loss
I0227 15:24:24.002817 13560 net.cpp:97] Setting up loss
I0227 15:24:24.002833 13560 layer_factory.hpp:78] Creating layer loss
I0227 15:24:24.002936 13560 net.cpp:104] Top shape: 1 1 1 1 (1)
I0227 15:24:24.002954 13560 net.cpp:110]     with loss weight 1
I0227 15:24:24.003006 13560 net.cpp:171] loss needs backward computation.
I0227 15:24:24.003021 13560 net.cpp:171] fc6 needs backward computation.
I0227 15:24:24.003031 13560 net.cpp:171] drop5 needs backward computation.
I0227 15:24:24.003041 13560 net.cpp:171] relu5 needs backward computation.
I0227 15:24:24.003051 13560 net.cpp:171] fc5 needs backward computation.
…
I0227 15:24:24.004045 13560 net.cpp:276] The NetState phase (1) differed from the phase (0) specified by a rule in layer data
I0227 15:24:24.004289 13560 net.cpp:39] Initializing net from parameters: 
name: "model1_part2"
layers {
  top: "data"
  top: "label"
  name: "data"
  type: DATA
  data_param {
    source: "/home/jaehyun/kaggle/nationalDataScienceBowl/data/typeD/val_lmdb"
    batch_size: 256
    backend: LMDB
  }
  include {
    phase: TEST
  }
  transform_param {
    mirror: false
    mean_file: "/home/jaehyun/kaggle/nationalDataScienceBowl/data/typeD/train_mean.binaryproto"
  }
}
layers {
  bottom: "data"
  top: "conv1"
  name: "conv1"
  type: CONVOLUTION
  blobs_lr: 0
  blobs_lr: 0
  weight_decay: 0
  weight_decay: 0
  convolution_param {
    num_output: 128
    kernel_size: 4
    stride: 2
    weight_filler {
      type: "gaussian"
      std: 0.01
    }
    bias_filler {
      type: "constant"
      value: 0
    }
  }
}
layers {
  bottom: "conv1"
  top: "conv1"
  name: "relu1"
  type: RELU
  relu_param {
    negative_slope: 0.1
  }
}
layers {
  bottom: "conv1"
  top: "cccp1"
  name: "cccp1"
  type: CONVOLUTION
  blobs_lr: 0
  blobs_lr: 0
  weight_decay: 0
  weight_decay: 0
  convolution_param {
    num_output: 128
    kernel_size: 1
    group: 1
    stride: 1
    weight_filler {
      type: "gaussian"
      std: 0.01
    }
    bias_filler {
      type: "constant"
      value: 0
    }
  }
}
layers {
  bottom: "cccp1"
  top: "cccp1"
  name: "relu_cccp1"
  type: RELU
  relu_param {
    negative_slope: 0.1
  }
}
layers {
  bottom: "cccp1"
  top: "pool1"
  name: "pool1"
  type: POOLING
  pooling_param {
    pool: MAX
    kernel_size: 3
    stride: 2
  }
}
layers {
  bottom: "pool1"
  top: "conv2"
  name: "conv2"
  type: CONVOLUTION
  blobs_lr: 1
  blobs_lr: 2
  weight_decay: 1
  weight_decay: 0
  convolution_param {
    num_output: 128
    kernel_size: 3
    weight_filler {
      type: "gaussian"
      std: 0.01
    }
    bias_filler {
      type: "constant"
      value: 1
    }
  }
}
layers {
  bottom: "conv2"
  top: "conv2"
  name: "relu2"
  type: RELU
  relu_param {
    negative_slope: 0.1
  }
}
layers {
  bottom: "conv2"
  top: "cccp2"
  name: "cccp2"
  type: CONVOLUTION
  blobs_lr: 1
  blobs_lr: 2
  weight_decay: 1
  weight_decay: 0
  convolution_param {
    num_output: 128
    kernel_size: 1
    group: 1
    stride: 1
    weight_filler {
      type: "gaussian"
      std: 0.01
    }
    bias_filler {
      type: "constant"
      value: 0
    }
  }
}
layers {
  bottom: "cccp2"
  top: "cccp2"
  name: "relu_cccp2"
  type: RELU
  relu_param {
    negative_slope: 0.1
  }
}
layers {
  bottom: "cccp2"
  top: "conv3"
  name: "conv3"
  type: CONVOLUTION
  blobs_lr: 1
  blobs_lr: 2
  weight_decay: 1
  weight_decay: 0
  convolution_param {
    num_output: 128
    kernel_size: 3
    weight_filler {
      type: "gaussian"
      std: 0.01
    }
    bias_filler {
      type: "constant"
      value: 0
    }
  }
}
layers {
  bottom: "conv3"
  top: "conv3"
  name: "relu3"
  type: RELU
  relu_param {
    negative_slope: 0.1
  }
}
layers {
  bottom: "conv3"
  top: "pool3"
  name: "pool3"
  type: POOLING
  pooling_param {
    pool: MAX
    kernel_size: 3
    stride: 2
  }
}
layers {
  bottom: "pool3"
  top: "fc4"
  name: "fc4"
  type: INNER_PRODUCT
  blobs_lr: 1
  blobs_lr: 2
  weight_decay: 1
  weight_decay: 0
  inner_product_param {
    num_output: 512
    weight_filler {
      type: "gaussian"
      std: 0.005
    }
    bias_filler {
      type: "constant"
      value: 1
    }
  }
}
layers {
  bottom: "fc4"
  top: "fc4"
  name: "relu4"
  type: RELU
  relu_param {
    negative_slope: 0.1
  }
}
layers {
  bottom: "fc4"
  top: "fc4"
  name: "drop4"
  type: DROPOUT
  dropout_param {
    dropout_ratio: 0.5
  }
}
layers {
  bottom: "fc4"
  top: "fc5"
  name: "fc5"
  type: INNER_PRODUCT
  blobs_lr: 1
  blobs_lr: 2
  weight_decay: 1
  weight_decay: 0
  inner_product_param {
    num_output: 512
    weight_filler {
      type: "gaussian"
      std: 0.005
    }
    bias_filler {
      type: "constant"
      value: 1
    }
  }
}
layers {
  bottom: "fc5"
  top: "fc5"
  name: "relu5"
  type: RELU
  relu_param {
    negative_slope: 0.1
  }
}
layers {
  bottom: "fc5"
  top: "fc5"
  name: "drop5"
  type: DROPOUT
  dropout_param {
    dropout_ratio: 0.5
  }
}
layers {
  bottom: "fc5"
  top: "fc6"
  name: "fc6"
  type: INNER_PRODUCT
  blobs_lr: 1
  blobs_lr: 2
  weight_decay: 1
  weight_decay: 0
  inner_product_param {
    num_output: 121
    weight_filler {
      type: "gaussian"
      std: 0.01
    }
    bias_filler {
      type: "constant"
      value: 0
    }
  }
}
layers {
  bottom: "fc6"
  top: "prob"
  name: "prob"
  type: SOFTMAX
  include {
    phase: TEST
  }
}
layers {
  bottom: "prob"
  bottom: "label"
  top: "accuracy"
  name: "accuracy"
  type: ACCURACY
  accuracy_param {
    top_k: 1
  }
  include {
    phase: TEST
  }
}
layers {
  bottom: "fc6"
  bottom: "label"
  top: "loss"
  name: "loss"
  type: SOFTMAX_LOSS
}
state {
  phase: TEST
}
I0227 15:24:24.005452 13560 layer_factory.hpp:78] Creating layer data
I0227 15:24:24.005476 13560 data_transformer.cpp:24] Loading mean file from/home/jaehyun/kaggle/nationalDataScienceBowl/data/typeD/train_mean.binaryproto
I0227 15:24:24.005544 13560 net.cpp:68] Creating Layer data
I0227 15:24:24.005563 13560 net.cpp:357] data -> data
I0227 15:24:24.005581 13560 net.cpp:357] data -> label
I0227 15:24:24.005597 13560 net.cpp:97] Setting up data
I0227 15:24:24.005611 13560 data_layer.cpp:34] Opening dataset /home/jaehyun/kaggle/nationalDataScienceBowl/data/typeD/val_lmdb
I0227 15:24:24.005686 13560 lmdb_dataset.cpp:73] what the fuck!!
I0227 15:24:24.005731 13560 data_layer.cpp:73] output data size: 256,1,48,48
I0227 15:24:24.006853 13560 net.cpp:104] Top shape: 256 1 48 48 (589824)
I0227 15:24:24.006875 13560 net.cpp:104] Top shape: 256 1 1 1 (256)
I0227 15:24:24.006887 13560 layer_factory.hpp:78] Creating layer label_data_1_split
I0227 15:24:24.006906 13560 net.cpp:68] Creating Layer label_data_1_split
I0227 15:24:24.006922 13560 net.cpp:395] label_data_1_split <- label
I0227 15:24:24.006935 13560 net.cpp:357] label_data_1_split -> label_data_1_split_0
I0227 15:24:24.006953 13560 net.cpp:357] label_data_1_split -> label_data_1_split_1
I0227 15:24:24.006968 13560 net.cpp:97] Setting up label_data_1_split
I0227 15:24:24.006983 13560 net.cpp:104] Top shape: 256 1 1 1 (256)
I0227 15:24:24.006995 13560 net.cpp:104] Top shape: 256 1 1 1 (256)
I0227 15:24:24.007007 13560 layer_factory.hpp:78] Creating layer conv1
I0227 15:24:24.007022 13560 net.cpp:68] Creating Layer conv1
I0227 15:24:24.007035 13560 net.cpp:395] conv1 <- data
I0227 15:24:24.007051 13560 net.cpp:357] conv1 -> conv1
I0227 15:24:24.007068 13560 net.cpp:97] Setting up conv1
I0227 15:24:24.007551 13560 net.cpp:104] Top shape: 256 128 23 23 (17334272)
I0227 15:24:24.007580 13560 layer_factory.hpp:78] Creating layer relu1
I0227 15:24:24.007596 13560 net.cpp:68] Creating Layer relu1
I0227 15:24:24.007607 13560 net.cpp:395] relu1 <- conv1
I0227 15:24:24.007622 13560 net.cpp:346] relu1 -> conv1 (in-place)
I0227 15:24:24.007755 13560 net.cpp:97] Setting up relu1
I0227 15:24:24.007774 13560 net.cpp:104] Top shape: 256 128 23 23 (17334272)
I0227 15:24:24.007797 13560 layer_factory.hpp:78] Creating layer cccp1
I0227 15:24:24.007819 13560 net.cpp:68] Creating Layer cccp1
I0227 15:24:24.007833 13560 net.cpp:395] cccp1 <- conv1
I0227 15:24:24.007854 13560 net.cpp:357] cccp1 -> cccp1
I0227 15:24:24.007872 13560 net.cpp:97] Setting up cccp1
I0227 15:24:24.008644 13560 net.cpp:104] Top shape: 256 128 23 23 (17334272)
I0227 15:24:24.008673 13560 layer_factory.hpp:78] Creating layer relu_cccp1
I0227 15:24:24.008708 13560 net.cpp:68] Creating Layer relu_cccp1
I0227 15:24:24.008720 13560 net.cpp:395] relu_cccp1 <- cccp1
I0227 15:24:24.008734 13560 net.cpp:346] relu_cccp1 -> cccp1 (in-place)
I0227 15:24:24.008750 13560 net.cpp:97] Setting up relu_cccp1
I0227 15:24:24.008766 13560 net.cpp:104] Top shape: 256 128 23 23 (17334272)
I0227 15:24:24.008780 13560 layer_factory.hpp:78] Creating layer pool1
I0227 15:24:24.008813 13560 net.cpp:68] Creating Layer pool1
I0227 15:24:24.008832 13560 net.cpp:395] pool1 <- cccp1
I0227 15:24:24.008846 13560 net.cpp:357] pool1 -> pool1
I0227 15:24:24.008862 13560 net.cpp:97] Setting up pool1
I0227 15:24:24.008909 13560 net.cpp:104] Top shape: 256 128 11 11 (3964928)
I0227 15:24:24.008924 13560 layer_factory.hpp:78] Creating layer conv2
I0227 15:24:24.008942 13560 net.cpp:68] Creating Layer conv2
I0227 15:24:24.008955 13560 net.cpp:395] conv2 <- pool1
I0227 15:24:24.008970 13560 net.cpp:357] conv2 -> conv2
I0227 15:24:24.008986 13560 net.cpp:97] Setting up conv2
I0227 15:24:24.015190 13560 net.cpp:104] Top shape: 256 128 9 9 (2654208)
I0227 15:24:24.015234 13560 layer_factory.hpp:78] Creating layer relu2
I0227 15:24:24.015256 13560 net.cpp:68] Creating Layer relu2
I0227 15:24:24.015275 13560 net.cpp:395] relu2 <- conv2
I0227 15:24:24.015290 13560 net.cpp:346] relu2 -> conv2 (in-place)
I0227 15:24:24.015305 13560 net.cpp:97] Setting up relu2
I0227 15:24:24.015319 13560 net.cpp:104] Top shape: 256 128 9 9 (2654208)
I0227 15:24:24.015332 13560 layer_factory.hpp:78] Creating layer cccp2
I0227 15:24:24.015347 13560 net.cpp:68] Creating Layer cccp2
I0227 15:24:24.015358 13560 net.cpp:395] cccp2 <- conv2
I0227 15:24:24.015375 13560 net.cpp:357] cccp2 -> cccp2
I0227 15:24:24.015393 13560 net.cpp:97] Setting up cccp2
I0227 15:24:24.016147 13560 net.cpp:104] Top shape: 256 128 9 9 (2654208)
I0227 15:24:24.016172 13560 layer_factory.hpp:78] Creating layer relu_cccp2
I0227 15:24:24.016187 13560 net.cpp:68] Creating Layer relu_cccp2
I0227 15:24:24.016199 13560 net.cpp:395] relu_cccp2 <- cccp2
I0227 15:24:24.016212 13560 net.cpp:346] relu_cccp2 -> cccp2 (in-place)
I0227 15:24:24.016227 13560 net.cpp:97] Setting up relu_cccp2
I0227 15:24:24.016243 13560 net.cpp:104] Top shape: 256 128 9 9 (2654208)
I0227 15:24:24.016255 13560 layer_factory.hpp:78] Creating layer conv3
I0227 15:24:24.016273 13560 net.cpp:68] Creating Layer conv3
I0227 15:24:24.016284 13560 net.cpp:395] conv3 <- cccp2
I0227 15:24:24.016299 13560 net.cpp:357] conv3 -> conv3
I0227 15:24:24.016314 13560 net.cpp:97] Setting up conv3
I0227 15:24:24.022421 13560 net.cpp:104] Top shape: 256 128 7 7 (1605632)
I0227 15:24:24.022450 13560 layer_factory.hpp:78] Creating layer relu3
I0227 15:24:24.022465 13560 net.cpp:68] Creating Layer relu3
I0227 15:24:24.022478 13560 net.cpp:395] relu3 <- conv3
I0227 15:24:24.022498 13560 net.cpp:346] relu3 -> conv3 (in-place)
I0227 15:24:24.022513 13560 net.cpp:97] Setting up relu3
I0227 15:24:24.022528 13560 net.cpp:104] Top shape: 256 128 7 7 (1605632)
I0227 15:24:24.022541 13560 layer_factory.hpp:78] Creating layer pool3
I0227 15:24:24.022554 13560 net.cpp:68] Creating Layer pool3
I0227 15:24:24.022565 13560 net.cpp:395] pool3 <- conv3
I0227 15:24:24.022579 13560 net.cpp:357] pool3 -> pool3
I0227 15:24:24.022594 13560 net.cpp:97] Setting up pool3
I0227 15:24:24.022610 13560 net.cpp:104] Top shape: 256 128 3 3 (294912)
I0227 15:24:24.022622 13560 layer_factory.hpp:78] Creating layer fc4
I0227 15:24:24.022639 13560 net.cpp:68] Creating Layer fc4
I0227 15:24:24.022651 13560 net.cpp:395] fc4 <- pool3
I0227 15:24:24.022665 13560 net.cpp:357] fc4 -> fc4
I0227 15:24:24.022680 13560 net.cpp:97] Setting up fc4
I0227 15:24:24.046805 13560 net.cpp:104] Top shape: 256 512 1 1 (131072)
I0227 15:24:24.046833 13560 layer_factory.hpp:78] Creating layer relu4
I0227 15:24:24.046847 13560 net.cpp:68] Creating Layer relu4
I0227 15:24:24.046861 13560 net.cpp:395] relu4 <- fc4
I0227 15:24:24.046879 13560 net.cpp:346] relu4 -> fc4 (in-place)
I0227 15:24:24.046893 13560 net.cpp:97] Setting up relu4
I0227 15:24:24.046910 13560 net.cpp:104] Top shape: 256 512 1 1 (131072)
I0227 15:24:24.046922 13560 layer_factory.hpp:78] Creating layer drop4
I0227 15:24:24.046939 13560 net.cpp:68] Creating Layer drop4
I0227 15:24:24.046952 13560 net.cpp:395] drop4 <- fc4
I0227 15:24:24.046965 13560 net.cpp:346] drop4 -> fc4 (in-place)
I0227 15:24:24.046982 13560 net.cpp:97] Setting up drop4
I0227 15:24:24.046994 13560 net.cpp:104] Top shape: 256 512 1 1 (131072)
I0227 15:24:24.047005 13560 layer_factory.hpp:78] Creating layer fc5
I0227 15:24:24.047019 13560 net.cpp:68] Creating Layer fc5
I0227 15:24:24.047030 13560 net.cpp:395] fc5 <- fc4
I0227 15:24:24.047044 13560 net.cpp:357] fc5 -> fc5
I0227 15:24:24.047083 13560 net.cpp:97] Setting up fc5
I0227 15:24:24.057865 13560 net.cpp:104] Top shape: 256 512 1 1 (131072)
I0227 15:24:24.057893 13560 layer_factory.hpp:78] Creating layer relu5
I0227 15:24:24.057910 13560 net.cpp:68] Creating Layer relu5
I0227 15:24:24.057924 13560 net.cpp:395] relu5 <- fc5
I0227 15:24:24.057940 13560 net.cpp:346] relu5 -> fc5 (in-place)
I0227 15:24:24.057953 13560 net.cpp:97] Setting up relu5
I0227 15:24:24.057971 13560 net.cpp:104] Top shape: 256 512 1 1 (131072)
I0227 15:24:24.057982 13560 layer_factory.hpp:78] Creating layer drop5
I0227 15:24:24.057996 13560 net.cpp:68] Creating Layer drop5
I0227 15:24:24.058008 13560 net.cpp:395] drop5 <- fc5
I0227 15:24:24.058025 13560 net.cpp:346] drop5 -> fc5 (in-place)
I0227 15:24:24.058039 13560 net.cpp:97] Setting up drop5
I0227 15:24:24.058051 13560 net.cpp:104] Top shape: 256 512 1 1 (131072)
I0227 15:24:24.058063 13560 layer_factory.hpp:78] Creating layer fc6
I0227 15:24:24.058078 13560 net.cpp:68] Creating Layer fc6
I0227 15:24:24.058089 13560 net.cpp:395] fc6 <- fc5
I0227 15:24:24.058102 13560 net.cpp:357] fc6 -> fc6
I0227 15:24:24.058117 13560 net.cpp:97] Setting up fc6
I0227 15:24:24.060674 13560 net.cpp:104] Top shape: 256 121 1 1 (30976)
I0227 15:24:24.060699 13560 layer_factory.hpp:78] Creating layer fc6_fc6_0_split
I0227 15:24:24.060717 13560 net.cpp:68] Creating Layer fc6_fc6_0_split
I0227 15:24:24.060730 13560 net.cpp:395] fc6_fc6_0_split <- fc6
I0227 15:24:24.060745 13560 net.cpp:357] fc6_fc6_0_split -> fc6_fc6_0_split_0
I0227 15:24:24.060761 13560 net.cpp:357] fc6_fc6_0_split -> fc6_fc6_0_split_1
I0227 15:24:24.060777 13560 net.cpp:97] Setting up fc6_fc6_0_split
I0227 15:24:24.060791 13560 net.cpp:104] Top shape: 256 121 1 1 (30976)
I0227 15:24:24.060802 13560 net.cpp:104] Top shape: 256 121 1 1 (30976)
I0227 15:24:24.060813 13560 layer_factory.hpp:78] Creating layer prob
I0227 15:24:24.060830 13560 net.cpp:68] Creating Layer prob
I0227 15:24:24.060842 13560 net.cpp:395] prob <- fc6_fc6_0_split_0
I0227 15:24:24.060856 13560 net.cpp:357] prob -> prob
I0227 15:24:24.060873 13560 net.cpp:97] Setting up prob
I0227 15:24:24.060894 13560 net.cpp:104] Top shape: 256 121 1 1 (30976)
I0227 15:24:24.060907 13560 layer_factory.hpp:78] Creating layer accuracy
I0227 15:24:24.060925 13560 net.cpp:68] Creating Layer accuracy
I0227 15:24:24.060937 13560 net.cpp:395] accuracy <- prob
I0227 15:24:24.060950 13560 net.cpp:395] accuracy <- label_data_1_split_0
I0227 15:24:24.060966 13560 net.cpp:357] accuracy -> accuracy
I0227 15:24:24.060982 13560 net.cpp:97] Setting up accuracy
I0227 15:24:24.060998 13560 net.cpp:104] Top shape: 1 1 1 1 (1)
I0227 15:24:24.061010 13560 layer_factory.hpp:78] Creating layer loss
I0227 15:24:24.061023 13560 net.cpp:68] Creating Layer loss
I0227 15:24:24.061035 13560 net.cpp:395] loss <- fc6_fc6_0_split_1
I0227 15:24:24.061048 13560 net.cpp:395] loss <- label_data_1_split_1
I0227 15:24:24.061061 13560 net.cpp:357] loss -> loss
I0227 15:24:24.061077 13560 net.cpp:97] Setting up loss
I0227 15:24:24.061090 13560 layer_factory.hpp:78] Creating layer loss
I0227 15:24:24.061183 13560 net.cpp:104] Top shape: 1 1 1 1 (1)
I0227 15:24:24.061202 13560 net.cpp:110]     with loss weight 1
I0227 15:24:24.061225 13560 net.cpp:171] loss needs backward computation.
I0227 15:24:24.061238 13560 net.cpp:173] accuracy does not need backward computation.
I0227 15:24:24.061249 13560 net.cpp:173] prob does not need backward computation.
I0227 15:24:24.061259 13560 net.cpp:171] fc6_fc6_0_split needs backward computation.
…
