…
I0228 22:55:03.228870 21337 net.cpp:276] The NetState phase (0) differed from the phase (1) specified by a rule in layer accuracy
I0228 22:55:03.229064 21337 net.cpp:39] Initializing net from parameters: 
name: "model2_part1"
layers {
  top: "data"
  top: "label"
  name: "data"
  type: DATA
  data_param {
    source: "/home/jaehyun/kaggle/nationalDataScienceBowl/data/typeD/train_lmdb"
    batch_size: 256
    backend: LMDB
    shuffle: true
  }
  include {
    phase: TRAIN
  }
  transform_param {
    mirror: true
    mean_file: "/home/jaehyun/kaggle/nationalDataScienceBowl/data/typeD/train_mean.binaryproto"
  }
}
layers {
  bottom: "data"
  top: "conv1"
  name: "conv1"
  type: CONVOLUTION
  blobs_lr: 1
  blobs_lr: 2
  weight_decay: 1
  weight_decay: 0
  convolution_param {
    num_output: 256
    kernel_size: 4
    stride: 2
    weight_filler {
      type: "gaussian"
      std: 0.01
    }
    bias_filler {
      type: "constant"
      value: 0
    }
  }
}
layers {
  bottom: "conv1"
  top: "conv1"
  name: "relu1"
  type: RELU
  relu_param {
    negative_slope: 0.1
  }
}
layers {
  bottom: "conv1"
  top: "cccp1"
  name: "cccp1"
  type: CONVOLUTION
  blobs_lr: 1
  blobs_lr: 2
  weight_decay: 1
  weight_decay: 0
  convolution_param {
    num_output: 256
    kernel_size: 1
    group: 1
    stride: 1
    weight_filler {
      type: "gaussian"
      std: 0.01
    }
    bias_filler {
      type: "constant"
      value: 0
    }
  }
}
layers {
  bottom: "cccp1"
  top: "cccp1"
  name: "relu_cccp1"
  type: RELU
  relu_param {
    negative_slope: 0.1
  }
}
layers {
  bottom: "cccp1"
  top: "pool1"
  name: "pool1"
  type: POOLING
  pooling_param {
    pool: MAX
    kernel_size: 3
    stride: 2
  }
}
layers {
  bottom: "pool1"
  top: "conv2"
  name: "conv2"
  type: CONVOLUTION
  blobs_lr: 1
  blobs_lr: 2
  weight_decay: 1
  weight_decay: 0
  convolution_param {
    num_output: 128
    kernel_size: 3
    weight_filler {
      type: "gaussian"
      std: 0.01
    }
    bias_filler {
      type: "constant"
      value: 1
    }
  }
}
layers {
  bottom: "conv2"
  top: "conv2"
  name: "relu2"
  type: RELU
  relu_param {
    negative_slope: 0.1
  }
}
layers {
  bottom: "conv2"
  top: "conv3"
  name: "conv3"
  type: CONVOLUTION
  blobs_lr: 1
  blobs_lr: 2
  weight_decay: 1
  weight_decay: 0
  convolution_param {
    num_output: 128
    kernel_size: 3
    weight_filler {
      type: "gaussian"
      std: 0.01
    }
    bias_filler {
      type: "constant"
      value: 0
    }
  }
}
layers {
  bottom: "conv3"
  top: "conv3"
  name: "relu3"
  type: RELU
  relu_param {
    negative_slope: 0.1
  }
}
layers {
  bottom: "conv3"
  top: "pool3"
  name: "pool3"
  type: POOLING
  pooling_param {
    pool: MAX
    kernel_size: 3
    stride: 2
  }
}
layers {
  bottom: "pool3"
  top: "fc4"
  name: "fc4"
  type: INNER_PRODUCT
  blobs_lr: 1
  blobs_lr: 2
  weight_decay: 1
  weight_decay: 0
  inner_product_param {
    num_output: 512
    weight_filler {
      type: "gaussian"
      std: 0.005
    }
    bias_filler {
      type: "constant"
      value: 1
    }
  }
}
layers {
  bottom: "fc4"
  top: "fc4"
  name: "relu4"
  type: RELU
  relu_param {
    negative_slope: 0.1
  }
}
layers {
  bottom: "fc4"
  top: "fc4"
  name: "drop4"
  type: DROPOUT
  dropout_param {
    dropout_ratio: 0.5
  }
}
layers {
  bottom: "fc4"
  top: "fc5"
  name: "fc5"
  type: INNER_PRODUCT
  blobs_lr: 1
  blobs_lr: 2
  weight_decay: 1
  weight_decay: 0
  inner_product_param {
    num_output: 512
    weight_filler {
      type: "gaussian"
      std: 0.005
    }
    bias_filler {
      type: "constant"
      value: 1
    }
  }
}
layers {
  bottom: "fc5"
  top: "fc5"
  name: "relu5"
  type: RELU
  relu_param {
    negative_slope: 0.1
  }
}
layers {
  bottom: "fc5"
  top: "fc5"
  name: "drop5"
  type: DROPOUT
  dropout_param {
    dropout_ratio: 0.5
  }
}
layers {
  bottom: "fc5"
  top: "fc6"
  name: "fc6"
  type: INNER_PRODUCT
  blobs_lr: 1
  blobs_lr: 2
  weight_decay: 1
  weight_decay: 0
  inner_product_param {
    num_output: 121
    weight_filler {
      type: "gaussian"
      std: 0.01
    }
    bias_filler {
      type: "constant"
      value: 0
    }
  }
}
layers {
  bottom: "fc6"
  bottom: "label"
  top: "loss"
  name: "loss"
  type: SOFTMAX_LOSS
}
state {
  phase: TRAIN
}
I0228 22:55:03.230065 21337 layer_factory.hpp:78] Creating layer data
I0228 22:55:03.230098 21337 data_transformer.cpp:24] Loading mean file from/home/jaehyun/kaggle/nationalDataScienceBowl/data/typeD/train_mean.binaryproto
I0228 22:55:03.230204 21337 net.cpp:68] Creating Layer data
I0228 22:55:03.230229 21337 net.cpp:357] data -> data
I0228 22:55:03.230257 21337 net.cpp:357] data -> label
I0228 22:55:03.230281 21337 net.cpp:97] Setting up data
I0228 22:55:03.230304 21337 data_layer.cpp:34] Opening dataset /home/jaehyun/kaggle/nationalDataScienceBowl/data/typeD/train_lmdb
I0228 22:55:03.230494 21337 data_layer.cpp:73] output data size: 256,1,48,48
I0228 22:55:03.232218 21337 net.cpp:104] Top shape: 256 1 48 48 (589824)
I0228 22:55:03.232244 21337 net.cpp:104] Top shape: 256 1 1 1 (256)
I0228 22:55:03.232257 21337 layer_factory.hpp:78] Creating layer conv1
I0228 22:55:03.232277 21337 net.cpp:68] Creating Layer conv1
I0228 22:55:03.232290 21337 net.cpp:395] conv1 <- data
I0228 22:55:03.232321 21337 net.cpp:357] conv1 -> conv1
I0228 22:55:03.232342 21337 net.cpp:97] Setting up conv1
I0228 22:55:03.263814 21337 net.cpp:104] Top shape: 256 256 23 23 (34668544)
I0228 22:55:03.263907 21337 layer_factory.hpp:78] Creating layer relu1
I0228 22:55:03.263939 21337 net.cpp:68] Creating Layer relu1
I0228 22:55:03.263957 21337 net.cpp:395] relu1 <- conv1
I0228 22:55:03.263973 21337 net.cpp:346] relu1 -> conv1 (in-place)
I0228 22:55:03.263993 21337 net.cpp:97] Setting up relu1
I0228 22:55:03.264016 21337 net.cpp:104] Top shape: 256 256 23 23 (34668544)
I0228 22:55:03.264031 21337 layer_factory.hpp:78] Creating layer cccp1
I0228 22:55:03.264075 21337 net.cpp:68] Creating Layer cccp1
I0228 22:55:03.264096 21337 net.cpp:395] cccp1 <- conv1
I0228 22:55:03.264112 21337 net.cpp:357] cccp1 -> cccp1
I0228 22:55:03.264138 21337 net.cpp:97] Setting up cccp1
I0228 22:55:03.266921 21337 net.cpp:104] Top shape: 256 256 23 23 (34668544)
I0228 22:55:03.266954 21337 layer_factory.hpp:78] Creating layer relu_cccp1
I0228 22:55:03.266971 21337 net.cpp:68] Creating Layer relu_cccp1
I0228 22:55:03.266985 21337 net.cpp:395] relu_cccp1 <- cccp1
I0228 22:55:03.267004 21337 net.cpp:346] relu_cccp1 -> cccp1 (in-place)
I0228 22:55:03.267020 21337 net.cpp:97] Setting up relu_cccp1
I0228 22:55:03.267036 21337 net.cpp:104] Top shape: 256 256 23 23 (34668544)
I0228 22:55:03.267050 21337 layer_factory.hpp:78] Creating layer pool1
I0228 22:55:03.267065 21337 net.cpp:68] Creating Layer pool1
I0228 22:55:03.267076 21337 net.cpp:395] pool1 <- cccp1
I0228 22:55:03.267096 21337 net.cpp:357] pool1 -> pool1
I0228 22:55:03.267112 21337 net.cpp:97] Setting up pool1
I0228 22:55:03.267149 21337 net.cpp:104] Top shape: 256 256 11 11 (7929856)
I0228 22:55:03.267164 21337 layer_factory.hpp:78] Creating layer conv2
I0228 22:55:03.267180 21337 net.cpp:68] Creating Layer conv2
I0228 22:55:03.267192 21337 net.cpp:395] conv2 <- pool1
I0228 22:55:03.267210 21337 net.cpp:357] conv2 -> conv2
I0228 22:55:03.267225 21337 net.cpp:97] Setting up conv2
I0228 22:55:03.279546 21337 net.cpp:104] Top shape: 256 128 9 9 (2654208)
I0228 22:55:03.279603 21337 layer_factory.hpp:78] Creating layer relu2
I0228 22:55:03.279678 21337 net.cpp:68] Creating Layer relu2
I0228 22:55:03.279693 21337 net.cpp:395] relu2 <- conv2
I0228 22:55:03.279710 21337 net.cpp:346] relu2 -> conv2 (in-place)
I0228 22:55:03.279726 21337 net.cpp:97] Setting up relu2
I0228 22:55:03.279742 21337 net.cpp:104] Top shape: 256 128 9 9 (2654208)
I0228 22:55:03.279757 21337 layer_factory.hpp:78] Creating layer conv3
I0228 22:55:03.279778 21337 net.cpp:68] Creating Layer conv3
I0228 22:55:03.279790 21337 net.cpp:395] conv3 <- conv2
I0228 22:55:03.279808 21337 net.cpp:357] conv3 -> conv3
I0228 22:55:03.279825 21337 net.cpp:97] Setting up conv3
I0228 22:55:03.285982 21337 net.cpp:104] Top shape: 256 128 7 7 (1605632)
I0228 22:55:03.286015 21337 layer_factory.hpp:78] Creating layer relu3
I0228 22:55:03.286031 21337 net.cpp:68] Creating Layer relu3
I0228 22:55:03.286044 21337 net.cpp:395] relu3 <- conv3
I0228 22:55:03.286061 21337 net.cpp:346] relu3 -> conv3 (in-place)
I0228 22:55:03.286075 21337 net.cpp:97] Setting up relu3
I0228 22:55:03.286090 21337 net.cpp:104] Top shape: 256 128 7 7 (1605632)
I0228 22:55:03.286103 21337 layer_factory.hpp:78] Creating layer pool3
I0228 22:55:03.286118 21337 net.cpp:68] Creating Layer pool3
I0228 22:55:03.286130 21337 net.cpp:395] pool3 <- conv3
I0228 22:55:03.286147 21337 net.cpp:357] pool3 -> pool3
I0228 22:55:03.286164 21337 net.cpp:97] Setting up pool3
I0228 22:55:03.286181 21337 net.cpp:104] Top shape: 256 128 3 3 (294912)
I0228 22:55:03.286193 21337 layer_factory.hpp:78] Creating layer fc4
I0228 22:55:03.286216 21337 net.cpp:68] Creating Layer fc4
I0228 22:55:03.286228 21337 net.cpp:395] fc4 <- pool3
I0228 22:55:03.286242 21337 net.cpp:357] fc4 -> fc4
I0228 22:55:03.286260 21337 net.cpp:97] Setting up fc4
I0228 22:55:03.310060 21337 net.cpp:104] Top shape: 256 512 1 1 (131072)
I0228 22:55:03.310106 21337 layer_factory.hpp:78] Creating layer relu4
I0228 22:55:03.310127 21337 net.cpp:68] Creating Layer relu4
I0228 22:55:03.310142 21337 net.cpp:395] relu4 <- fc4
I0228 22:55:03.310159 21337 net.cpp:346] relu4 -> fc4 (in-place)
I0228 22:55:03.310176 21337 net.cpp:97] Setting up relu4
I0228 22:55:03.310197 21337 net.cpp:104] Top shape: 256 512 1 1 (131072)
I0228 22:55:03.310209 21337 layer_factory.hpp:78] Creating layer drop4
I0228 22:55:03.310230 21337 net.cpp:68] Creating Layer drop4
I0228 22:55:03.310242 21337 net.cpp:395] drop4 <- fc4
I0228 22:55:03.310256 21337 net.cpp:346] drop4 -> fc4 (in-place)
I0228 22:55:03.310271 21337 net.cpp:97] Setting up drop4
I0228 22:55:03.310286 21337 net.cpp:104] Top shape: 256 512 1 1 (131072)
I0228 22:55:03.310298 21337 layer_factory.hpp:78] Creating layer fc5
I0228 22:55:03.310314 21337 net.cpp:68] Creating Layer fc5
I0228 22:55:03.310327 21337 net.cpp:395] fc5 <- fc4
I0228 22:55:03.310343 21337 net.cpp:357] fc5 -> fc5
I0228 22:55:03.310360 21337 net.cpp:97] Setting up fc5
I0228 22:55:03.321151 21337 net.cpp:104] Top shape: 256 512 1 1 (131072)
I0228 22:55:03.321177 21337 layer_factory.hpp:78] Creating layer relu5
I0228 22:55:03.321195 21337 net.cpp:68] Creating Layer relu5
I0228 22:55:03.321208 21337 net.cpp:395] relu5 <- fc5
I0228 22:55:03.321223 21337 net.cpp:346] relu5 -> fc5 (in-place)
I0228 22:55:03.321238 21337 net.cpp:97] Setting up relu5
I0228 22:55:03.321254 21337 net.cpp:104] Top shape: 256 512 1 1 (131072)
I0228 22:55:03.321266 21337 layer_factory.hpp:78] Creating layer drop5
I0228 22:55:03.321287 21337 net.cpp:68] Creating Layer drop5
I0228 22:55:03.321300 21337 net.cpp:395] drop5 <- fc5
I0228 22:55:03.321313 21337 net.cpp:346] drop5 -> fc5 (in-place)
I0228 22:55:03.321327 21337 net.cpp:97] Setting up drop5
I0228 22:55:03.321339 21337 net.cpp:104] Top shape: 256 512 1 1 (131072)
I0228 22:55:03.321351 21337 layer_factory.hpp:78] Creating layer fc6
I0228 22:55:03.321365 21337 net.cpp:68] Creating Layer fc6
I0228 22:55:03.321377 21337 net.cpp:395] fc6 <- fc5
I0228 22:55:03.321398 21337 net.cpp:357] fc6 -> fc6
I0228 22:55:03.321413 21337 net.cpp:97] Setting up fc6
I0228 22:55:03.323969 21337 net.cpp:104] Top shape: 256 121 1 1 (30976)
I0228 22:55:03.324035 21337 layer_factory.hpp:78] Creating layer loss
I0228 22:55:03.324062 21337 net.cpp:68] Creating Layer loss
I0228 22:55:03.324076 21337 net.cpp:395] loss <- fc6
I0228 22:55:03.324090 21337 net.cpp:395] loss <- label
I0228 22:55:03.324106 21337 net.cpp:357] loss -> loss
I0228 22:55:03.324125 21337 net.cpp:97] Setting up loss
I0228 22:55:03.324141 21337 layer_factory.hpp:78] Creating layer loss
I0228 22:55:03.324249 21337 net.cpp:104] Top shape: 1 1 1 1 (1)
I0228 22:55:03.324267 21337 net.cpp:110]     with loss weight 1
I0228 22:55:03.324311 21337 net.cpp:171] loss needs backward computation.
I0228 22:55:03.324324 21337 net.cpp:171] fc6 needs backward computation.
I0228 22:55:03.324336 21337 net.cpp:171] drop5 needs backward computation.
I0228 22:55:03.324347 21337 net.cpp:171] relu5 needs backward computation.
I0228 22:55:03.324357 21337 net.cpp:171] fc5 needs backward computation.
…
I0228 22:55:03.325280 21337 net.cpp:276] The NetState phase (1) differed from the phase (0) specified by a rule in layer data
I0228 22:55:03.325498 21337 net.cpp:39] Initializing net from parameters: 
name: "model2_part1"
layers {
  top: "data"
  top: "label"
  name: "data"
  type: DATA
  data_param {
    source: "/home/jaehyun/kaggle/nationalDataScienceBowl/data/typeD/val_lmdb"
    batch_size: 256
    backend: LMDB
  }
  include {
    phase: TEST
  }
  transform_param {
    mirror: false
    mean_file: "/home/jaehyun/kaggle/nationalDataScienceBowl/data/typeD/train_mean.binaryproto"
  }
}
layers {
  bottom: "data"
  top: "conv1"
  name: "conv1"
  type: CONVOLUTION
  blobs_lr: 1
  blobs_lr: 2
  weight_decay: 1
  weight_decay: 0
  convolution_param {
    num_output: 256
    kernel_size: 4
    stride: 2
    weight_filler {
      type: "gaussian"
      std: 0.01
    }
    bias_filler {
      type: "constant"
      value: 0
    }
  }
}
layers {
  bottom: "conv1"
  top: "conv1"
  name: "relu1"
  type: RELU
  relu_param {
    negative_slope: 0.1
  }
}
layers {
  bottom: "conv1"
  top: "cccp1"
  name: "cccp1"
  type: CONVOLUTION
  blobs_lr: 1
  blobs_lr: 2
  weight_decay: 1
  weight_decay: 0
  convolution_param {
    num_output: 256
    kernel_size: 1
    group: 1
    stride: 1
    weight_filler {
      type: "gaussian"
      std: 0.01
    }
    bias_filler {
      type: "constant"
      value: 0
    }
  }
}
layers {
  bottom: "cccp1"
  top: "cccp1"
  name: "relu_cccp1"
  type: RELU
  relu_param {
    negative_slope: 0.1
  }
}
layers {
  bottom: "cccp1"
  top: "pool1"
  name: "pool1"
  type: POOLING
  pooling_param {
    pool: MAX
    kernel_size: 3
    stride: 2
  }
}
layers {
  bottom: "pool1"
  top: "conv2"
  name: "conv2"
  type: CONVOLUTION
  blobs_lr: 1
  blobs_lr: 2
  weight_decay: 1
  weight_decay: 0
  convolution_param {
    num_output: 128
    kernel_size: 3
    weight_filler {
      type: "gaussian"
      std: 0.01
    }
    bias_filler {
      type: "constant"
      value: 1
    }
  }
}
layers {
  bottom: "conv2"
  top: "conv2"
  name: "relu2"
  type: RELU
  relu_param {
    negative_slope: 0.1
  }
}
layers {
  bottom: "conv2"
  top: "conv3"
  name: "conv3"
  type: CONVOLUTION
  blobs_lr: 1
  blobs_lr: 2
  weight_decay: 1
  weight_decay: 0
  convolution_param {
    num_output: 128
    kernel_size: 3
    weight_filler {
      type: "gaussian"
      std: 0.01
    }
    bias_filler {
      type: "constant"
      value: 0
    }
  }
}
layers {
  bottom: "conv3"
  top: "conv3"
  name: "relu3"
  type: RELU
  relu_param {
    negative_slope: 0.1
  }
}
layers {
  bottom: "conv3"
  top: "pool3"
  name: "pool3"
  type: POOLING
  pooling_param {
    pool: MAX
    kernel_size: 3
    stride: 2
  }
}
layers {
  bottom: "pool3"
  top: "fc4"
  name: "fc4"
  type: INNER_PRODUCT
  blobs_lr: 1
  blobs_lr: 2
  weight_decay: 1
  weight_decay: 0
  inner_product_param {
    num_output: 512
    weight_filler {
      type: "gaussian"
      std: 0.005
    }
    bias_filler {
      type: "constant"
      value: 1
    }
  }
}
layers {
  bottom: "fc4"
  top: "fc4"
  name: "relu4"
  type: RELU
  relu_param {
    negative_slope: 0.1
  }
}
layers {
  bottom: "fc4"
  top: "fc4"
  name: "drop4"
  type: DROPOUT
  dropout_param {
    dropout_ratio: 0.5
  }
}
layers {
  bottom: "fc4"
  top: "fc5"
  name: "fc5"
  type: INNER_PRODUCT
  blobs_lr: 1
  blobs_lr: 2
  weight_decay: 1
  weight_decay: 0
  inner_product_param {
    num_output: 512
    weight_filler {
      type: "gaussian"
      std: 0.005
    }
    bias_filler {
      type: "constant"
      value: 1
    }
  }
}
layers {
  bottom: "fc5"
  top: "fc5"
  name: "relu5"
  type: RELU
  relu_param {
    negative_slope: 0.1
  }
}
layers {
  bottom: "fc5"
  top: "fc5"
  name: "drop5"
  type: DROPOUT
  dropout_param {
    dropout_ratio: 0.5
  }
}
layers {
  bottom: "fc5"
  top: "fc6"
  name: "fc6"
  type: INNER_PRODUCT
  blobs_lr: 1
  blobs_lr: 2
  weight_decay: 1
  weight_decay: 0
  inner_product_param {
    num_output: 121
    weight_filler {
      type: "gaussian"
      std: 0.01
    }
    bias_filler {
      type: "constant"
      value: 0
    }
  }
}
layers {
  bottom: "fc6"
  top: "prob"
  name: "prob"
  type: SOFTMAX
  include {
    phase: TEST
  }
}
layers {
  bottom: "prob"
  bottom: "label"
  top: "accuracy"
  name: "accuracy"
  type: ACCURACY
  accuracy_param {
    top_k: 1
  }
  include {
    phase: TEST
  }
}
layers {
  bottom: "fc6"
  bottom: "label"
  top: "loss"
  name: "loss"
  type: SOFTMAX_LOSS
}
state {
  phase: TEST
}
I0228 22:55:03.326517 21337 layer_factory.hpp:78] Creating layer data
I0228 22:55:03.326540 21337 data_transformer.cpp:24] Loading mean file from/home/jaehyun/kaggle/nationalDataScienceBowl/data/typeD/train_mean.binaryproto
I0228 22:55:03.326608 21337 net.cpp:68] Creating Layer data
I0228 22:55:03.326627 21337 net.cpp:357] data -> data
I0228 22:55:03.326647 21337 net.cpp:357] data -> label
I0228 22:55:03.326663 21337 net.cpp:97] Setting up data
I0228 22:55:03.326676 21337 data_layer.cpp:34] Opening dataset /home/jaehyun/kaggle/nationalDataScienceBowl/data/typeD/val_lmdb
I0228 22:55:03.326762 21337 data_layer.cpp:73] output data size: 256,1,48,48
I0228 22:55:03.328022 21337 net.cpp:104] Top shape: 256 1 48 48 (589824)
I0228 22:55:03.328042 21337 net.cpp:104] Top shape: 256 1 1 1 (256)
I0228 22:55:03.328068 21337 layer_factory.hpp:78] Creating layer label_data_1_split
I0228 22:55:03.328085 21337 net.cpp:68] Creating Layer label_data_1_split
I0228 22:55:03.328099 21337 net.cpp:395] label_data_1_split <- label
I0228 22:55:03.328114 21337 net.cpp:357] label_data_1_split -> label_data_1_split_0
I0228 22:55:03.328130 21337 net.cpp:357] label_data_1_split -> label_data_1_split_1
I0228 22:55:03.328145 21337 net.cpp:97] Setting up label_data_1_split
I0228 22:55:03.328389 21337 net.cpp:104] Top shape: 256 1 1 1 (256)
I0228 22:55:03.328426 21337 net.cpp:104] Top shape: 256 1 1 1 (256)
I0228 22:55:03.328441 21337 layer_factory.hpp:78] Creating layer conv1
I0228 22:55:03.328481 21337 net.cpp:68] Creating Layer conv1
I0228 22:55:03.328497 21337 net.cpp:395] conv1 <- data
I0228 22:55:03.328627 21337 net.cpp:357] conv1 -> conv1
I0228 22:55:03.328672 21337 net.cpp:97] Setting up conv1
I0228 22:55:03.329236 21337 net.cpp:104] Top shape: 256 256 23 23 (34668544)
I0228 22:55:03.329280 21337 layer_factory.hpp:78] Creating layer relu1
I0228 22:55:03.329303 21337 net.cpp:68] Creating Layer relu1
I0228 22:55:03.329319 21337 net.cpp:395] relu1 <- conv1
I0228 22:55:03.329350 21337 net.cpp:346] relu1 -> conv1 (in-place)
I0228 22:55:03.329460 21337 net.cpp:97] Setting up relu1
I0228 22:55:03.329489 21337 net.cpp:104] Top shape: 256 256 23 23 (34668544)
I0228 22:55:03.329599 21337 layer_factory.hpp:78] Creating layer cccp1
I0228 22:55:03.329630 21337 net.cpp:68] Creating Layer cccp1
I0228 22:55:03.329646 21337 net.cpp:395] cccp1 <- conv1
I0228 22:55:03.329666 21337 net.cpp:357] cccp1 -> cccp1
I0228 22:55:03.329689 21337 net.cpp:97] Setting up cccp1
I0228 22:55:03.335572 21337 net.cpp:104] Top shape: 256 256 23 23 (34668544)
I0228 22:55:03.335623 21337 layer_factory.hpp:78] Creating layer relu_cccp1
I0228 22:55:03.335649 21337 net.cpp:68] Creating Layer relu_cccp1
I0228 22:55:03.335664 21337 net.cpp:395] relu_cccp1 <- cccp1
I0228 22:55:03.335700 21337 net.cpp:346] relu_cccp1 -> cccp1 (in-place)
I0228 22:55:03.335721 21337 net.cpp:97] Setting up relu_cccp1
I0228 22:55:03.335741 21337 net.cpp:104] Top shape: 256 256 23 23 (34668544)
I0228 22:55:03.335762 21337 layer_factory.hpp:78] Creating layer pool1
I0228 22:55:03.335873 21337 net.cpp:68] Creating Layer pool1
I0228 22:55:03.335892 21337 net.cpp:395] pool1 <- cccp1
I0228 22:55:03.336019 21337 net.cpp:357] pool1 -> pool1
I0228 22:55:03.336088 21337 net.cpp:97] Setting up pool1
I0228 22:55:03.336141 21337 net.cpp:104] Top shape: 256 256 11 11 (7929856)
I0228 22:55:03.336158 21337 layer_factory.hpp:78] Creating layer conv2
I0228 22:55:03.336189 21337 net.cpp:68] Creating Layer conv2
I0228 22:55:03.336205 21337 net.cpp:395] conv2 <- pool1
I0228 22:55:03.336223 21337 net.cpp:357] conv2 -> conv2
I0228 22:55:03.336241 21337 net.cpp:97] Setting up conv2
I0228 22:55:03.351532 21337 net.cpp:104] Top shape: 256 128 9 9 (2654208)
I0228 22:55:03.351563 21337 layer_factory.hpp:78] Creating layer relu2
I0228 22:55:03.351583 21337 net.cpp:68] Creating Layer relu2
I0228 22:55:03.351594 21337 net.cpp:395] relu2 <- conv2
I0228 22:55:03.351609 21337 net.cpp:346] relu2 -> conv2 (in-place)
I0228 22:55:03.351624 21337 net.cpp:97] Setting up relu2
I0228 22:55:03.351639 21337 net.cpp:104] Top shape: 256 128 9 9 (2654208)
I0228 22:55:03.351651 21337 layer_factory.hpp:78] Creating layer conv3
I0228 22:55:03.351670 21337 net.cpp:68] Creating Layer conv3
I0228 22:55:03.351682 21337 net.cpp:395] conv3 <- conv2
I0228 22:55:03.351698 21337 net.cpp:357] conv3 -> conv3
I0228 22:55:03.351716 21337 net.cpp:97] Setting up conv3
I0228 22:55:03.357846 21337 net.cpp:104] Top shape: 256 128 7 7 (1605632)
I0228 22:55:03.357870 21337 layer_factory.hpp:78] Creating layer relu3
I0228 22:55:03.357884 21337 net.cpp:68] Creating Layer relu3
I0228 22:55:03.357897 21337 net.cpp:395] relu3 <- conv3
I0228 22:55:03.357914 21337 net.cpp:346] relu3 -> conv3 (in-place)
I0228 22:55:03.357929 21337 net.cpp:97] Setting up relu3
I0228 22:55:03.357944 21337 net.cpp:104] Top shape: 256 128 7 7 (1605632)
I0228 22:55:03.357955 21337 layer_factory.hpp:78] Creating layer pool3
I0228 22:55:03.357970 21337 net.cpp:68] Creating Layer pool3
I0228 22:55:03.357981 21337 net.cpp:395] pool3 <- conv3
I0228 22:55:03.357998 21337 net.cpp:357] pool3 -> pool3
I0228 22:55:03.358013 21337 net.cpp:97] Setting up pool3
I0228 22:55:03.358031 21337 net.cpp:104] Top shape: 256 128 3 3 (294912)
I0228 22:55:03.358042 21337 layer_factory.hpp:78] Creating layer fc4
I0228 22:55:03.358059 21337 net.cpp:68] Creating Layer fc4
I0228 22:55:03.358124 21337 net.cpp:395] fc4 <- pool3
I0228 22:55:03.358144 21337 net.cpp:357] fc4 -> fc4
I0228 22:55:03.358160 21337 net.cpp:97] Setting up fc4
I0228 22:55:03.382441 21337 net.cpp:104] Top shape: 256 512 1 1 (131072)
I0228 22:55:03.382485 21337 layer_factory.hpp:78] Creating layer relu4
I0228 22:55:03.382504 21337 net.cpp:68] Creating Layer relu4
I0228 22:55:03.382519 21337 net.cpp:395] relu4 <- fc4
I0228 22:55:03.382534 21337 net.cpp:346] relu4 -> fc4 (in-place)
I0228 22:55:03.382550 21337 net.cpp:97] Setting up relu4
I0228 22:55:03.382571 21337 net.cpp:104] Top shape: 256 512 1 1 (131072)
I0228 22:55:03.382585 21337 layer_factory.hpp:78] Creating layer drop4
I0228 22:55:03.382602 21337 net.cpp:68] Creating Layer drop4
I0228 22:55:03.382614 21337 net.cpp:395] drop4 <- fc4
I0228 22:55:03.382628 21337 net.cpp:346] drop4 -> fc4 (in-place)
I0228 22:55:03.382642 21337 net.cpp:97] Setting up drop4
I0228 22:55:03.382654 21337 net.cpp:104] Top shape: 256 512 1 1 (131072)
I0228 22:55:03.382665 21337 layer_factory.hpp:78] Creating layer fc5
I0228 22:55:03.382681 21337 net.cpp:68] Creating Layer fc5
I0228 22:55:03.382693 21337 net.cpp:395] fc5 <- fc4
I0228 22:55:03.382709 21337 net.cpp:357] fc5 -> fc5
I0228 22:55:03.382725 21337 net.cpp:97] Setting up fc5
I0228 22:55:03.393524 21337 net.cpp:104] Top shape: 256 512 1 1 (131072)
I0228 22:55:03.393548 21337 layer_factory.hpp:78] Creating layer relu5
I0228 22:55:03.393569 21337 net.cpp:68] Creating Layer relu5
I0228 22:55:03.393582 21337 net.cpp:395] relu5 <- fc5
I0228 22:55:03.393596 21337 net.cpp:346] relu5 -> fc5 (in-place)
I0228 22:55:03.393614 21337 net.cpp:97] Setting up relu5
I0228 22:55:03.393630 21337 net.cpp:104] Top shape: 256 512 1 1 (131072)
I0228 22:55:03.393641 21337 layer_factory.hpp:78] Creating layer drop5
I0228 22:55:03.393656 21337 net.cpp:68] Creating Layer drop5
I0228 22:55:03.393667 21337 net.cpp:395] drop5 <- fc5
I0228 22:55:03.393681 21337 net.cpp:346] drop5 -> fc5 (in-place)
I0228 22:55:03.393694 21337 net.cpp:97] Setting up drop5
I0228 22:55:03.393705 21337 net.cpp:104] Top shape: 256 512 1 1 (131072)
I0228 22:55:03.393717 21337 layer_factory.hpp:78] Creating layer fc6
I0228 22:55:03.393731 21337 net.cpp:68] Creating Layer fc6
I0228 22:55:03.393743 21337 net.cpp:395] fc6 <- fc5
I0228 22:55:03.393759 21337 net.cpp:357] fc6 -> fc6
I0228 22:55:03.393774 21337 net.cpp:97] Setting up fc6
I0228 22:55:03.396347 21337 net.cpp:104] Top shape: 256 121 1 1 (30976)
I0228 22:55:03.396366 21337 layer_factory.hpp:78] Creating layer fc6_fc6_0_split
I0228 22:55:03.396381 21337 net.cpp:68] Creating Layer fc6_fc6_0_split
I0228 22:55:03.396394 21337 net.cpp:395] fc6_fc6_0_split <- fc6
I0228 22:55:03.396415 21337 net.cpp:357] fc6_fc6_0_split -> fc6_fc6_0_split_0
I0228 22:55:03.396431 21337 net.cpp:357] fc6_fc6_0_split -> fc6_fc6_0_split_1
I0228 22:55:03.396447 21337 net.cpp:97] Setting up fc6_fc6_0_split
I0228 22:55:03.396459 21337 net.cpp:104] Top shape: 256 121 1 1 (30976)
I0228 22:55:03.396471 21337 net.cpp:104] Top shape: 256 121 1 1 (30976)
I0228 22:55:03.396482 21337 layer_factory.hpp:78] Creating layer prob
I0228 22:55:03.396497 21337 net.cpp:68] Creating Layer prob
I0228 22:55:03.396509 21337 net.cpp:395] prob <- fc6_fc6_0_split_0
I0228 22:55:03.396523 21337 net.cpp:357] prob -> prob
I0228 22:55:03.396538 21337 net.cpp:97] Setting up prob
I0228 22:55:03.396558 21337 net.cpp:104] Top shape: 256 121 1 1 (30976)
I0228 22:55:03.396570 21337 layer_factory.hpp:78] Creating layer accuracy
I0228 22:55:03.396590 21337 net.cpp:68] Creating Layer accuracy
I0228 22:55:03.396602 21337 net.cpp:395] accuracy <- prob
I0228 22:55:03.396615 21337 net.cpp:395] accuracy <- label_data_1_split_0
I0228 22:55:03.396632 21337 net.cpp:357] accuracy -> accuracy
I0228 22:55:03.396649 21337 net.cpp:97] Setting up accuracy
I0228 22:55:03.396667 21337 net.cpp:104] Top shape: 1 1 1 1 (1)
I0228 22:55:03.396678 21337 layer_factory.hpp:78] Creating layer loss
I0228 22:55:03.396692 21337 net.cpp:68] Creating Layer loss
I0228 22:55:03.396703 21337 net.cpp:395] loss <- fc6_fc6_0_split_1
I0228 22:55:03.396762 21337 net.cpp:395] loss <- label_data_1_split_1
I0228 22:55:03.396781 21337 net.cpp:357] loss -> loss
I0228 22:55:03.396797 21337 net.cpp:97] Setting up loss
I0228 22:55:03.396811 21337 layer_factory.hpp:78] Creating layer loss
I0228 22:55:03.396913 21337 net.cpp:104] Top shape: 1 1 1 1 (1)
I0228 22:55:03.396930 21337 net.cpp:110]     with loss weight 1
I0228 22:55:03.396955 21337 net.cpp:171] loss needs backward computation.
I0228 22:55:03.396967 21337 net.cpp:173] accuracy does not need backward computation.
I0228 22:55:03.396977 21337 net.cpp:173] prob does not need backward computation.
I0228 22:55:03.396988 21337 net.cpp:171] fc6_fc6_0_split needs backward computation.
…
