…
I0226 10:53:36.044473 17894 net.cpp:276] The NetState phase (0) differed from the phase (1) specified by a rule in layer accuracy
I0226 10:53:36.044643 17894 net.cpp:39] Initializing net from parameters: 
name: "cxxnet"
layers {
  top: "data"
  top: "label"
  name: "data"
  type: DATA
  data_param {
    source: "/home/jaehyun/kaggle/nationalDataScienceBowl/data/typeD/train_lmdb"
    batch_size: 256
    backend: LMDB
    shuffle: true
  }
  include {
    phase: TRAIN
  }
  transform_param {
    mirror: true
    mean_file: "/home/jaehyun/kaggle/nationalDataScienceBowl/data/typeD/train_mean.binaryproto"
  }
}
layers {
  bottom: "data"
  top: "conv1"
  name: "conv1"
  type: CONVOLUTION
  blobs_lr: 1
  blobs_lr: 2
  weight_decay: 1
  weight_decay: 0
  convolution_param {
    num_output: 96
    pad: 2
    kernel_size: 5
    stride: 4
    weight_filler {
      type: "gaussian"
      std: 0.01
    }
    bias_filler {
      type: "constant"
      value: 0
    }
  }
}
layers {
  bottom: "conv1"
  top: "conv1"
  name: "relu1"
  type: RELU
}
layers {
  bottom: "conv1"
  top: "pool1"
  name: "pool1"
  type: POOLING
  pooling_param {
    pool: MAX
    kernel_size: 3
    stride: 2
  }
}
layers {
  bottom: "pool1"
  top: "conv2"
  name: "conv2"
  type: CONVOLUTION
  blobs_lr: 1
  blobs_lr: 2
  weight_decay: 1
  weight_decay: 0
  convolution_param {
    num_output: 128
    pad: 2
    kernel_size: 3
    group: 2
    weight_filler {
      type: "gaussian"
      std: 0.01
    }
    bias_filler {
      type: "constant"
      value: 1
    }
  }
}
layers {
  bottom: "conv2"
  top: "conv2"
  name: "relu2"
  type: RELU
}
layers {
  bottom: "conv2"
  top: "conv3"
  name: "conv3"
  type: CONVOLUTION
  blobs_lr: 1
  blobs_lr: 2
  weight_decay: 1
  weight_decay: 0
  convolution_param {
    num_output: 128
    pad: 1
    kernel_size: 3
    weight_filler {
      type: "gaussian"
      std: 0.01
    }
    bias_filler {
      type: "constant"
      value: 0
    }
  }
}
layers {
  bottom: "conv3"
  top: "conv3"
  name: "relu3"
  type: RELU
}
layers {
  bottom: "conv3"
  top: "pool3"
  name: "pool3"
  type: POOLING
  pooling_param {
    pool: MAX
    kernel_size: 3
    stride: 2
  }
}
layers {
  bottom: "pool3"
  top: "fc4"
  name: "fc4"
  type: INNER_PRODUCT
  blobs_lr: 1
  blobs_lr: 2
  weight_decay: 1
  weight_decay: 0
  inner_product_param {
    num_output: 512
    weight_filler {
      type: "gaussian"
      std: 0.005
    }
    bias_filler {
      type: "constant"
      value: 1
    }
  }
}
layers {
  bottom: "fc4"
  top: "fc4"
  name: "relu4"
  type: RELU
}
layers {
  bottom: "fc4"
  top: "fc4"
  name: "drop4"
  type: DROPOUT
  dropout_param {
    dropout_ratio: 0.5
  }
}
layers {
  bottom: "fc4"
  top: "fc5"
  name: "fc5"
  type: INNER_PRODUCT
  blobs_lr: 1
  blobs_lr: 2
  weight_decay: 1
  weight_decay: 0
  inner_product_param {
    num_output: 512
    weight_filler {
      type: "gaussian"
      std: 0.005
    }
    bias_filler {
      type: "constant"
      value: 1
    }
  }
}
layers {
  bottom: "fc5"
  top: "fc5"
  name: "relu5"
  type: RELU
}
layers {
  bottom: "fc5"
  top: "fc5"
  name: "drop5"
  type: DROPOUT
  dropout_param {
    dropout_ratio: 0.5
  }
}
layers {
  bottom: "fc5"
  top: "fc6"
  name: "fc6"
  type: INNER_PRODUCT
  blobs_lr: 1
  blobs_lr: 2
  weight_decay: 1
  weight_decay: 0
  inner_product_param {
    num_output: 121
    weight_filler {
      type: "gaussian"
      std: 0.01
    }
    bias_filler {
      type: "constant"
      value: 0
    }
  }
}
layers {
  bottom: "fc6"
  bottom: "label"
  top: "loss"
  name: "loss"
  type: SOFTMAX_LOSS
}
state {
  phase: TRAIN
}
I0226 10:53:36.045505 17894 layer_factory.hpp:78] Creating layer data
I0226 10:53:36.045536 17894 data_transformer.cpp:24] Loading mean file from/home/jaehyun/kaggle/nationalDataScienceBowl/data/typeD/train_mean.binaryproto
I0226 10:53:36.045706 17894 net.cpp:68] Creating Layer data
I0226 10:53:36.045729 17894 net.cpp:357] data -> data
I0226 10:53:36.045760 17894 net.cpp:357] data -> label
I0226 10:53:36.045785 17894 net.cpp:97] Setting up data
I0226 10:53:36.045806 17894 data_layer.cpp:34] Opening dataset /home/jaehyun/kaggle/nationalDataScienceBowl/data/typeD/train_lmdb
I0226 10:53:36.045929 17894 lmdb_dataset.cpp:73] what the fuck!!
I0226 10:53:36.046003 17894 data_layer.cpp:73] output data size: 256,3,48,48
I0226 10:53:36.049206 17894 net.cpp:104] Top shape: 256 3 48 48 (1769472)
I0226 10:53:36.049243 17894 net.cpp:104] Top shape: 256 1 1 1 (256)
I0226 10:53:36.049257 17894 layer_factory.hpp:78] Creating layer conv1
I0226 10:53:36.049285 17894 net.cpp:68] Creating Layer conv1
I0226 10:53:36.049299 17894 net.cpp:395] conv1 <- data
I0226 10:53:36.049329 17894 net.cpp:357] conv1 -> conv1
I0226 10:53:36.049350 17894 net.cpp:97] Setting up conv1
I0226 10:53:36.083825 17894 net.cpp:104] Top shape: 256 96 12 12 (3538944)
I0226 10:53:36.083925 17894 layer_factory.hpp:78] Creating layer relu1
I0226 10:53:36.083956 17894 net.cpp:68] Creating Layer relu1
I0226 10:53:36.083974 17894 net.cpp:395] relu1 <- conv1
I0226 10:53:36.083992 17894 net.cpp:346] relu1 -> conv1 (in-place)
I0226 10:53:36.084012 17894 net.cpp:97] Setting up relu1
I0226 10:53:36.084033 17894 net.cpp:104] Top shape: 256 96 12 12 (3538944)
I0226 10:53:36.084046 17894 layer_factory.hpp:78] Creating layer pool1
I0226 10:53:36.084064 17894 net.cpp:68] Creating Layer pool1
I0226 10:53:36.084077 17894 net.cpp:395] pool1 <- conv1
I0226 10:53:36.084099 17894 net.cpp:357] pool1 -> pool1
I0226 10:53:36.084116 17894 net.cpp:97] Setting up pool1
I0226 10:53:36.084151 17894 net.cpp:104] Top shape: 256 96 6 6 (884736)
I0226 10:53:36.084166 17894 layer_factory.hpp:78] Creating layer conv2
I0226 10:53:36.084187 17894 net.cpp:68] Creating Layer conv2
I0226 10:53:36.084202 17894 net.cpp:395] conv2 <- pool1
I0226 10:53:36.084218 17894 net.cpp:357] conv2 -> conv2
I0226 10:53:36.084238 17894 net.cpp:97] Setting up conv2
I0226 10:53:36.086669 17894 net.cpp:104] Top shape: 256 128 8 8 (2097152)
I0226 10:53:36.086704 17894 layer_factory.hpp:78] Creating layer relu2
I0226 10:53:36.086720 17894 net.cpp:68] Creating Layer relu2
I0226 10:53:36.086733 17894 net.cpp:395] relu2 <- conv2
I0226 10:53:36.086750 17894 net.cpp:346] relu2 -> conv2 (in-place)
I0226 10:53:36.086765 17894 net.cpp:97] Setting up relu2
I0226 10:53:36.086781 17894 net.cpp:104] Top shape: 256 128 8 8 (2097152)
I0226 10:53:36.086793 17894 layer_factory.hpp:78] Creating layer conv3
I0226 10:53:36.086810 17894 net.cpp:68] Creating Layer conv3
I0226 10:53:36.086822 17894 net.cpp:395] conv3 <- conv2
I0226 10:53:36.086840 17894 net.cpp:357] conv3 -> conv3
I0226 10:53:36.086856 17894 net.cpp:97] Setting up conv3
I0226 10:53:36.093093 17894 net.cpp:104] Top shape: 256 128 8 8 (2097152)
I0226 10:53:36.093139 17894 layer_factory.hpp:78] Creating layer relu3
I0226 10:53:36.093158 17894 net.cpp:68] Creating Layer relu3
I0226 10:53:36.093170 17894 net.cpp:395] relu3 <- conv3
I0226 10:53:36.093185 17894 net.cpp:346] relu3 -> conv3 (in-place)
I0226 10:53:36.093201 17894 net.cpp:97] Setting up relu3
I0226 10:53:36.093219 17894 net.cpp:104] Top shape: 256 128 8 8 (2097152)
I0226 10:53:36.093230 17894 layer_factory.hpp:78] Creating layer pool3
I0226 10:53:36.093247 17894 net.cpp:68] Creating Layer pool3
I0226 10:53:36.093260 17894 net.cpp:395] pool3 <- conv3
I0226 10:53:36.093277 17894 net.cpp:357] pool3 -> pool3
I0226 10:53:36.093292 17894 net.cpp:97] Setting up pool3
I0226 10:53:36.093364 17894 net.cpp:104] Top shape: 256 128 4 4 (524288)
I0226 10:53:36.093379 17894 layer_factory.hpp:78] Creating layer fc4
I0226 10:53:36.093397 17894 net.cpp:68] Creating Layer fc4
I0226 10:53:36.093410 17894 net.cpp:395] fc4 <- pool3
I0226 10:53:36.093430 17894 net.cpp:357] fc4 -> fc4
I0226 10:53:36.093446 17894 net.cpp:97] Setting up fc4
I0226 10:53:36.136703 17894 net.cpp:104] Top shape: 256 512 1 1 (131072)
I0226 10:53:36.136771 17894 layer_factory.hpp:78] Creating layer relu4
I0226 10:53:36.136793 17894 net.cpp:68] Creating Layer relu4
I0226 10:53:36.136808 17894 net.cpp:395] relu4 <- fc4
I0226 10:53:36.136829 17894 net.cpp:346] relu4 -> fc4 (in-place)
I0226 10:53:36.136848 17894 net.cpp:97] Setting up relu4
I0226 10:53:36.136880 17894 net.cpp:104] Top shape: 256 512 1 1 (131072)
I0226 10:53:36.136893 17894 layer_factory.hpp:78] Creating layer drop4
I0226 10:53:36.136915 17894 net.cpp:68] Creating Layer drop4
I0226 10:53:36.136927 17894 net.cpp:395] drop4 <- fc4
I0226 10:53:36.136941 17894 net.cpp:346] drop4 -> fc4 (in-place)
I0226 10:53:36.136956 17894 net.cpp:97] Setting up drop4
I0226 10:53:36.136972 17894 net.cpp:104] Top shape: 256 512 1 1 (131072)
I0226 10:53:36.136988 17894 layer_factory.hpp:78] Creating layer fc5
I0226 10:53:36.137004 17894 net.cpp:68] Creating Layer fc5
I0226 10:53:36.137017 17894 net.cpp:395] fc5 <- fc4
I0226 10:53:36.137032 17894 net.cpp:357] fc5 -> fc5
I0226 10:53:36.137051 17894 net.cpp:97] Setting up fc5
I0226 10:53:36.148025 17894 net.cpp:104] Top shape: 256 512 1 1 (131072)
I0226 10:53:36.148077 17894 layer_factory.hpp:78] Creating layer relu5
I0226 10:53:36.148097 17894 net.cpp:68] Creating Layer relu5
I0226 10:53:36.148111 17894 net.cpp:395] relu5 <- fc5
I0226 10:53:36.148128 17894 net.cpp:346] relu5 -> fc5 (in-place)
I0226 10:53:36.148145 17894 net.cpp:97] Setting up relu5
I0226 10:53:36.148171 17894 net.cpp:104] Top shape: 256 512 1 1 (131072)
I0226 10:53:36.148185 17894 layer_factory.hpp:78] Creating layer drop5
I0226 10:53:36.148200 17894 net.cpp:68] Creating Layer drop5
I0226 10:53:36.148211 17894 net.cpp:395] drop5 <- fc5
I0226 10:53:36.148228 17894 net.cpp:346] drop5 -> fc5 (in-place)
I0226 10:53:36.148244 17894 net.cpp:97] Setting up drop5
I0226 10:53:36.148257 17894 net.cpp:104] Top shape: 256 512 1 1 (131072)
I0226 10:53:36.148268 17894 layer_factory.hpp:78] Creating layer fc6
I0226 10:53:36.148283 17894 net.cpp:68] Creating Layer fc6
I0226 10:53:36.148295 17894 net.cpp:395] fc6 <- fc5
I0226 10:53:36.148313 17894 net.cpp:357] fc6 -> fc6
I0226 10:53:36.148329 17894 net.cpp:97] Setting up fc6
I0226 10:53:36.150909 17894 net.cpp:104] Top shape: 256 121 1 1 (30976)
I0226 10:53:36.150934 17894 layer_factory.hpp:78] Creating layer loss
I0226 10:53:36.150957 17894 net.cpp:68] Creating Layer loss
I0226 10:53:36.150970 17894 net.cpp:395] loss <- fc6
I0226 10:53:36.150984 17894 net.cpp:395] loss <- label
I0226 10:53:36.150997 17894 net.cpp:357] loss -> loss
I0226 10:53:36.151015 17894 net.cpp:97] Setting up loss
I0226 10:53:36.151033 17894 layer_factory.hpp:78] Creating layer loss
I0226 10:53:36.151139 17894 net.cpp:104] Top shape: 1 1 1 1 (1)
I0226 10:53:36.151157 17894 net.cpp:110]     with loss weight 1
I0226 10:53:36.151204 17894 net.cpp:171] loss needs backward computation.
I0226 10:53:36.151216 17894 net.cpp:171] fc6 needs backward computation.
I0226 10:53:36.151227 17894 net.cpp:171] drop5 needs backward computation.
I0226 10:53:36.151242 17894 net.cpp:171] relu5 needs backward computation.
I0226 10:53:36.151252 17894 net.cpp:171] fc5 needs backward computation.
…
I0226 10:53:36.152087 17894 solver.cpp:154] Creating test net (#0) specified by net file: model/train_val.prototxt
I0226 10:53:36.152140 17894 net.cpp:276] The NetState phase (1) differed from the phase (0) specified by a rule in layer data
I0226 10:53:36.152338 17894 net.cpp:39] Initializing net from parameters: 
name: "cxxnet"
layers {
  top: "data"
  top: "label"
  name: "data"
  type: DATA
  data_param {
    source: "/home/jaehyun/kaggle/nationalDataScienceBowl/data/typeD/val_lmdb"
    batch_size: 256
    backend: LMDB
  }
  include {
    phase: TEST
  }
  transform_param {
    mirror: false
    mean_file: "/home/jaehyun/kaggle/nationalDataScienceBowl/data/typeD/train_mean.binaryproto"
  }
}
layers {
  bottom: "data"
  top: "conv1"
  name: "conv1"
  type: CONVOLUTION
  blobs_lr: 1
  blobs_lr: 2
  weight_decay: 1
  weight_decay: 0
  convolution_param {
    num_output: 96
    pad: 2
    kernel_size: 5
    stride: 4
    weight_filler {
      type: "gaussian"
      std: 0.01
    }
    bias_filler {
      type: "constant"
      value: 0
    }
  }
}
layers {
  bottom: "conv1"
  top: "conv1"
  name: "relu1"
  type: RELU
}
layers {
  bottom: "conv1"
  top: "pool1"
  name: "pool1"
  type: POOLING
  pooling_param {
    pool: MAX
    kernel_size: 3
    stride: 2
  }
}
layers {
  bottom: "pool1"
  top: "conv2"
  name: "conv2"
  type: CONVOLUTION
  blobs_lr: 1
  blobs_lr: 2
  weight_decay: 1
  weight_decay: 0
  convolution_param {
    num_output: 128
    pad: 2
    kernel_size: 3
    group: 2
    weight_filler {
      type: "gaussian"
      std: 0.01
    }
    bias_filler {
      type: "constant"
      value: 1
    }
  }
}
layers {
  bottom: "conv2"
  top: "conv2"
  name: "relu2"
  type: RELU
}
layers {
  bottom: "conv2"
  top: "conv3"
  name: "conv3"
  type: CONVOLUTION
  blobs_lr: 1
  blobs_lr: 2
  weight_decay: 1
  weight_decay: 0
  convolution_param {
    num_output: 128
    pad: 1
    kernel_size: 3
    weight_filler {
      type: "gaussian"
      std: 0.01
    }
    bias_filler {
      type: "constant"
      value: 0
    }
  }
}
layers {
  bottom: "conv3"
  top: "conv3"
  name: "relu3"
  type: RELU
}
layers {
  bottom: "conv3"
  top: "pool3"
  name: "pool3"
  type: POOLING
  pooling_param {
    pool: MAX
    kernel_size: 3
    stride: 2
  }
}
layers {
  bottom: "pool3"
  top: "fc4"
  name: "fc4"
  type: INNER_PRODUCT
  blobs_lr: 1
  blobs_lr: 2
  weight_decay: 1
  weight_decay: 0
  inner_product_param {
    num_output: 512
    weight_filler {
      type: "gaussian"
      std: 0.005
    }
    bias_filler {
      type: "constant"
      value: 1
    }
  }
}
layers {
  bottom: "fc4"
  top: "fc4"
  name: "relu4"
  type: RELU
}
layers {
  bottom: "fc4"
  top: "fc4"
  name: "drop4"
  type: DROPOUT
  dropout_param {
    dropout_ratio: 0.5
  }
}
layers {
  bottom: "fc4"
  top: "fc5"
  name: "fc5"
  type: INNER_PRODUCT
  blobs_lr: 1
  blobs_lr: 2
  weight_decay: 1
  weight_decay: 0
  inner_product_param {
    num_output: 512
    weight_filler {
      type: "gaussian"
      std: 0.005
    }
    bias_filler {
      type: "constant"
      value: 1
    }
  }
}
layers {
  bottom: "fc5"
  top: "fc5"
  name: "relu5"
  type: RELU
}
layers {
  bottom: "fc5"
  top: "fc5"
  name: "drop5"
  type: DROPOUT
  dropout_param {
    dropout_ratio: 0.5
  }
}
layers {
  bottom: "fc5"
  top: "fc6"
  name: "fc6"
  type: INNER_PRODUCT
  blobs_lr: 1
  blobs_lr: 2
  weight_decay: 1
  weight_decay: 0
  inner_product_param {
    num_output: 121
    weight_filler {
      type: "gaussian"
      std: 0.01
    }
    bias_filler {
      type: "constant"
      value: 0
    }
  }
}
layers {
  bottom: "fc6"
  top: "prob"
  name: "prob"
  type: SOFTMAX
  include {
    phase: TEST
  }
}
layers {
  bottom: "prob"
  bottom: "label"
  top: "accuracy"
  name: "accuracy"
  type: ACCURACY
  accuracy_param {
    top_k: 1
  }
  include {
    phase: TEST
  }
}
layers {
  bottom: "fc6"
  bottom: "label"
  top: "loss"
  name: "loss"
  type: SOFTMAX_LOSS
}
state {
  phase: TEST
}
I0226 10:53:36.153244 17894 layer_factory.hpp:78] Creating layer data
I0226 10:53:36.153267 17894 data_transformer.cpp:24] Loading mean file from/home/jaehyun/kaggle/nationalDataScienceBowl/data/typeD/train_mean.binaryproto
I0226 10:53:36.153385 17894 net.cpp:68] Creating Layer data
I0226 10:53:36.153404 17894 net.cpp:357] data -> data
I0226 10:53:36.153424 17894 net.cpp:357] data -> label
I0226 10:53:36.153440 17894 net.cpp:97] Setting up data
I0226 10:53:36.153455 17894 data_layer.cpp:34] Opening dataset /home/jaehyun/kaggle/nationalDataScienceBowl/data/typeD/val_lmdb
I0226 10:53:36.153527 17894 lmdb_dataset.cpp:73] what the fuck!!
I0226 10:53:36.153570 17894 data_layer.cpp:73] output data size: 256,3,48,48
I0226 10:53:36.155773 17894 net.cpp:104] Top shape: 256 3 48 48 (1769472)
I0226 10:53:36.155817 17894 net.cpp:104] Top shape: 256 1 1 1 (256)
I0226 10:53:36.155832 17894 layer_factory.hpp:78] Creating layer label_data_1_split
I0226 10:53:36.155856 17894 net.cpp:68] Creating Layer label_data_1_split
I0226 10:53:36.155874 17894 net.cpp:395] label_data_1_split <- label
I0226 10:53:36.155905 17894 net.cpp:357] label_data_1_split -> label_data_1_split_0
I0226 10:53:36.155925 17894 net.cpp:357] label_data_1_split -> label_data_1_split_1
I0226 10:53:36.155941 17894 net.cpp:97] Setting up label_data_1_split
I0226 10:53:36.155959 17894 net.cpp:104] Top shape: 256 1 1 1 (256)
I0226 10:53:36.155972 17894 net.cpp:104] Top shape: 256 1 1 1 (256)
I0226 10:53:36.155983 17894 layer_factory.hpp:78] Creating layer conv1
I0226 10:53:36.156002 17894 net.cpp:68] Creating Layer conv1
I0226 10:53:36.156014 17894 net.cpp:395] conv1 <- data
I0226 10:53:36.156029 17894 net.cpp:357] conv1 -> conv1
I0226 10:53:36.156047 17894 net.cpp:97] Setting up conv1
I0226 10:53:36.156489 17894 net.cpp:104] Top shape: 256 96 12 12 (3538944)
I0226 10:53:36.156520 17894 layer_factory.hpp:78] Creating layer relu1
I0226 10:53:36.156536 17894 net.cpp:68] Creating Layer relu1
I0226 10:53:36.156558 17894 net.cpp:395] relu1 <- conv1
I0226 10:53:36.156571 17894 net.cpp:346] relu1 -> conv1 (in-place)
I0226 10:53:36.156585 17894 net.cpp:97] Setting up relu1
I0226 10:53:36.156601 17894 net.cpp:104] Top shape: 256 96 12 12 (3538944)
I0226 10:53:36.156613 17894 layer_factory.hpp:78] Creating layer pool1
I0226 10:53:36.156632 17894 net.cpp:68] Creating Layer pool1
I0226 10:53:36.156646 17894 net.cpp:395] pool1 <- conv1
I0226 10:53:36.156661 17894 net.cpp:357] pool1 -> pool1
I0226 10:53:36.156676 17894 net.cpp:97] Setting up pool1
I0226 10:53:36.156695 17894 net.cpp:104] Top shape: 256 96 6 6 (884736)
I0226 10:53:36.156708 17894 layer_factory.hpp:78] Creating layer conv2
I0226 10:53:36.156728 17894 net.cpp:68] Creating Layer conv2
I0226 10:53:36.156740 17894 net.cpp:395] conv2 <- pool1
I0226 10:53:36.156756 17894 net.cpp:357] conv2 -> conv2
I0226 10:53:36.156771 17894 net.cpp:97] Setting up conv2
I0226 10:53:36.159487 17894 net.cpp:104] Top shape: 256 128 8 8 (2097152)
I0226 10:53:36.159524 17894 layer_factory.hpp:78] Creating layer relu2
I0226 10:53:36.159540 17894 net.cpp:68] Creating Layer relu2
I0226 10:53:36.159554 17894 net.cpp:395] relu2 <- conv2
I0226 10:53:36.159571 17894 net.cpp:346] relu2 -> conv2 (in-place)
I0226 10:53:36.159593 17894 net.cpp:97] Setting up relu2
I0226 10:53:36.159608 17894 net.cpp:104] Top shape: 256 128 8 8 (2097152)
I0226 10:53:36.159629 17894 layer_factory.hpp:78] Creating layer conv3
I0226 10:53:36.159646 17894 net.cpp:68] Creating Layer conv3
I0226 10:53:36.159703 17894 net.cpp:395] conv3 <- conv2
I0226 10:53:36.159720 17894 net.cpp:357] conv3 -> conv3
I0226 10:53:36.159736 17894 net.cpp:97] Setting up conv3
I0226 10:53:36.165943 17894 net.cpp:104] Top shape: 256 128 8 8 (2097152)
I0226 10:53:36.165984 17894 layer_factory.hpp:78] Creating layer relu3
I0226 10:53:36.166005 17894 net.cpp:68] Creating Layer relu3
I0226 10:53:36.166019 17894 net.cpp:395] relu3 <- conv3
I0226 10:53:36.166034 17894 net.cpp:346] relu3 -> conv3 (in-place)
I0226 10:53:36.166049 17894 net.cpp:97] Setting up relu3
I0226 10:53:36.166065 17894 net.cpp:104] Top shape: 256 128 8 8 (2097152)
I0226 10:53:36.166077 17894 layer_factory.hpp:78] Creating layer pool3
I0226 10:53:36.166092 17894 net.cpp:68] Creating Layer pool3
I0226 10:53:36.166115 17894 net.cpp:395] pool3 <- conv3
I0226 10:53:36.166132 17894 net.cpp:357] pool3 -> pool3
I0226 10:53:36.166149 17894 net.cpp:97] Setting up pool3
I0226 10:53:36.166178 17894 net.cpp:104] Top shape: 256 128 4 4 (524288)
I0226 10:53:36.166190 17894 layer_factory.hpp:78] Creating layer fc4
I0226 10:53:36.166209 17894 net.cpp:68] Creating Layer fc4
I0226 10:53:36.166223 17894 net.cpp:395] fc4 <- pool3
I0226 10:53:36.166236 17894 net.cpp:357] fc4 -> fc4
I0226 10:53:36.166252 17894 net.cpp:97] Setting up fc4
I0226 10:53:36.209017 17894 net.cpp:104] Top shape: 256 512 1 1 (131072)
I0226 10:53:36.209048 17894 layer_factory.hpp:78] Creating layer relu4
I0226 10:53:36.209064 17894 net.cpp:68] Creating Layer relu4
I0226 10:53:36.209076 17894 net.cpp:395] relu4 <- fc4
I0226 10:53:36.209091 17894 net.cpp:346] relu4 -> fc4 (in-place)
I0226 10:53:36.209105 17894 net.cpp:97] Setting up relu4
I0226 10:53:36.209122 17894 net.cpp:104] Top shape: 256 512 1 1 (131072)
I0226 10:53:36.209136 17894 layer_factory.hpp:78] Creating layer drop4
I0226 10:53:36.209154 17894 net.cpp:68] Creating Layer drop4
I0226 10:53:36.209167 17894 net.cpp:395] drop4 <- fc4
I0226 10:53:36.209182 17894 net.cpp:346] drop4 -> fc4 (in-place)
I0226 10:53:36.209195 17894 net.cpp:97] Setting up drop4
I0226 10:53:36.209208 17894 net.cpp:104] Top shape: 256 512 1 1 (131072)
I0226 10:53:36.209220 17894 layer_factory.hpp:78] Creating layer fc5
I0226 10:53:36.209235 17894 net.cpp:68] Creating Layer fc5
I0226 10:53:36.209247 17894 net.cpp:395] fc5 <- fc4
I0226 10:53:36.209264 17894 net.cpp:357] fc5 -> fc5
I0226 10:53:36.209280 17894 net.cpp:97] Setting up fc5
I0226 10:53:36.220103 17894 net.cpp:104] Top shape: 256 512 1 1 (131072)
I0226 10:53:36.220129 17894 layer_factory.hpp:78] Creating layer relu5
I0226 10:53:36.220144 17894 net.cpp:68] Creating Layer relu5
I0226 10:53:36.220157 17894 net.cpp:395] relu5 <- fc5
I0226 10:53:36.220171 17894 net.cpp:346] relu5 -> fc5 (in-place)
I0226 10:53:36.220185 17894 net.cpp:97] Setting up relu5
I0226 10:53:36.220201 17894 net.cpp:104] Top shape: 256 512 1 1 (131072)
I0226 10:53:36.220212 17894 layer_factory.hpp:78] Creating layer drop5
I0226 10:53:36.220228 17894 net.cpp:68] Creating Layer drop5
I0226 10:53:36.220242 17894 net.cpp:395] drop5 <- fc5
I0226 10:53:36.220255 17894 net.cpp:346] drop5 -> fc5 (in-place)
I0226 10:53:36.220269 17894 net.cpp:97] Setting up drop5
I0226 10:53:36.220281 17894 net.cpp:104] Top shape: 256 512 1 1 (131072)
I0226 10:53:36.220293 17894 layer_factory.hpp:78] Creating layer fc6
I0226 10:53:36.220312 17894 net.cpp:68] Creating Layer fc6
I0226 10:53:36.220325 17894 net.cpp:395] fc6 <- fc5
I0226 10:53:36.220340 17894 net.cpp:357] fc6 -> fc6
I0226 10:53:36.220355 17894 net.cpp:97] Setting up fc6
I0226 10:53:36.222918 17894 net.cpp:104] Top shape: 256 121 1 1 (30976)
I0226 10:53:36.222940 17894 layer_factory.hpp:78] Creating layer fc6_fc6_0_split
I0226 10:53:36.222956 17894 net.cpp:68] Creating Layer fc6_fc6_0_split
I0226 10:53:36.222968 17894 net.cpp:395] fc6_fc6_0_split <- fc6
I0226 10:53:36.222985 17894 net.cpp:357] fc6_fc6_0_split -> fc6_fc6_0_split_0
I0226 10:53:36.223001 17894 net.cpp:357] fc6_fc6_0_split -> fc6_fc6_0_split_1
I0226 10:53:36.223016 17894 net.cpp:97] Setting up fc6_fc6_0_split
I0226 10:53:36.223029 17894 net.cpp:104] Top shape: 256 121 1 1 (30976)
I0226 10:53:36.223088 17894 net.cpp:104] Top shape: 256 121 1 1 (30976)
I0226 10:53:36.223101 17894 layer_factory.hpp:78] Creating layer prob
I0226 10:53:36.223117 17894 net.cpp:68] Creating Layer prob
I0226 10:53:36.223129 17894 net.cpp:395] prob <- fc6_fc6_0_split_0
I0226 10:53:36.223146 17894 net.cpp:357] prob -> prob
I0226 10:53:36.223163 17894 net.cpp:97] Setting up prob
I0226 10:53:36.223181 17894 net.cpp:104] Top shape: 256 121 1 1 (30976)
I0226 10:53:36.223193 17894 layer_factory.hpp:78] Creating layer accuracy
I0226 10:53:36.223213 17894 net.cpp:68] Creating Layer accuracy
I0226 10:53:36.223227 17894 net.cpp:395] accuracy <- prob
I0226 10:53:36.223238 17894 net.cpp:395] accuracy <- label_data_1_split_0
I0226 10:53:36.223255 17894 net.cpp:357] accuracy -> accuracy
I0226 10:53:36.223273 17894 net.cpp:97] Setting up accuracy
I0226 10:53:36.223287 17894 net.cpp:104] Top shape: 1 1 1 1 (1)
I0226 10:53:36.223299 17894 layer_factory.hpp:78] Creating layer loss
I0226 10:53:36.223315 17894 net.cpp:68] Creating Layer loss
I0226 10:53:36.223325 17894 net.cpp:395] loss <- fc6_fc6_0_split_1
I0226 10:53:36.223337 17894 net.cpp:395] loss <- label_data_1_split_1
I0226 10:53:36.223354 17894 net.cpp:357] loss -> loss
I0226 10:53:36.223371 17894 net.cpp:97] Setting up loss
I0226 10:53:36.223387 17894 layer_factory.hpp:78] Creating layer loss
I0226 10:53:36.223492 17894 net.cpp:104] Top shape: 1 1 1 1 (1)
I0226 10:53:36.223511 17894 net.cpp:110]     with loss weight 1
I0226 10:53:36.223536 17894 net.cpp:171] loss needs backward computation.
I0226 10:53:36.223547 17894 net.cpp:173] accuracy does not need backward computation.
I0226 10:53:36.223559 17894 net.cpp:173] prob does not need backward computation.
I0226 10:53:36.223569 17894 net.cpp:171] fc6_fc6_0_split needs backward computation.
…
