…
I0226 13:09:15.790271 23768 net.cpp:276] The NetState phase (0) differed from the phase (1) specified by a rule in layer accuracy
I0226 13:09:15.790446 23768 net.cpp:39] Initializing net from parameters: 
name: "cxxnet"
layers {
  top: "data"
  top: "label"
  name: "data"
  type: DATA
  data_param {
    source: "/home/jaehyun/kaggle/nationalDataScienceBowl/data/typeD/train_lmdb"
    batch_size: 256
    backend: LMDB
    shuffle: true
  }
  include {
    phase: TRAIN
  }
  transform_param {
    mirror: true
    mean_file: "/home/jaehyun/kaggle/nationalDataScienceBowl/data/typeD/train_mean.binaryproto"
  }
}
layers {
  bottom: "data"
  top: "conv1"
  name: "conv1"
  type: CONVOLUTION
  blobs_lr: 1
  blobs_lr: 2
  weight_decay: 1
  weight_decay: 0
  convolution_param {
    num_output: 96
    pad: 2
    kernel_size: 5
    stride: 4
    weight_filler {
      type: "gaussian"
      std: 0.01
    }
    bias_filler {
      type: "constant"
      value: 0
    }
  }
}
layers {
  bottom: "conv1"
  top: "conv1"
  name: "relu1"
  type: RELU
}
layers {
  bottom: "conv1"
  top: "pool1"
  name: "pool1"
  type: POOLING
  pooling_param {
    pool: MAX
    kernel_size: 3
    stride: 2
  }
}
layers {
  bottom: "pool1"
  top: "conv2"
  name: "conv2"
  type: CONVOLUTION
  blobs_lr: 1
  blobs_lr: 2
  weight_decay: 1
  weight_decay: 0
  convolution_param {
    num_output: 128
    pad: 2
    kernel_size: 3
    group: 2
    weight_filler {
      type: "gaussian"
      std: 0.01
    }
    bias_filler {
      type: "constant"
      value: 1
    }
  }
}
layers {
  bottom: "conv2"
  top: "conv2"
  name: "relu2"
  type: RELU
}
layers {
  bottom: "conv2"
  top: "conv3"
  name: "conv3"
  type: CONVOLUTION
  blobs_lr: 1
  blobs_lr: 2
  weight_decay: 1
  weight_decay: 0
  convolution_param {
    num_output: 128
    pad: 1
    kernel_size: 3
    weight_filler {
      type: "gaussian"
      std: 0.01
    }
    bias_filler {
      type: "constant"
      value: 0
    }
  }
}
layers {
  bottom: "conv3"
  top: "conv3"
  name: "relu3"
  type: RELU
}
layers {
  bottom: "conv3"
  top: "pool3"
  name: "pool3"
  type: POOLING
  pooling_param {
    pool: MAX
    kernel_size: 3
    stride: 2
  }
}
layers {
  bottom: "pool3"
  top: "fc4"
  name: "fc4"
  type: INNER_PRODUCT
  blobs_lr: 1
  blobs_lr: 2
  weight_decay: 1
  weight_decay: 0
  inner_product_param {
    num_output: 512
    weight_filler {
      type: "gaussian"
      std: 0.005
    }
    bias_filler {
      type: "constant"
      value: 1
    }
  }
}
layers {
  bottom: "fc4"
  top: "fc4"
  name: "relu4"
  type: RELU
}
layers {
  bottom: "fc4"
  top: "fc4"
  name: "drop4"
  type: DROPOUT
  dropout_param {
    dropout_ratio: 0.5
  }
}
layers {
  bottom: "fc4"
  top: "fc5"
  name: "fc5"
  type: INNER_PRODUCT
  blobs_lr: 1
  blobs_lr: 2
  weight_decay: 1
  weight_decay: 0
  inner_product_param {
    num_output: 512
    weight_filler {
      type: "gaussian"
      std: 0.005
    }
    bias_filler {
      type: "constant"
      value: 1
    }
  }
}
layers {
  bottom: "fc5"
  top: "fc5"
  name: "relu5"
  type: RELU
}
layers {
  bottom: "fc5"
  top: "fc5"
  name: "drop5"
  type: DROPOUT
  dropout_param {
    dropout_ratio: 0.5
  }
}
layers {
  bottom: "fc5"
  top: "fc6"
  name: "fc6"
  type: INNER_PRODUCT
  blobs_lr: 1
  blobs_lr: 2
  weight_decay: 1
  weight_decay: 0
  inner_product_param {
    num_output: 121
    weight_filler {
      type: "gaussian"
      std: 0.01
    }
    bias_filler {
      type: "constant"
      value: 0
    }
  }
}
layers {
  bottom: "fc6"
  bottom: "label"
  top: "loss"
  name: "loss"
  type: SOFTMAX_LOSS
}
state {
  phase: TRAIN
}
I0226 13:09:15.791350 23768 layer_factory.hpp:78] Creating layer data
I0226 13:09:15.791383 23768 data_transformer.cpp:24] Loading mean file from/home/jaehyun/kaggle/nationalDataScienceBowl/data/typeD/train_mean.binaryproto
I0226 13:09:15.791559 23768 net.cpp:68] Creating Layer data
I0226 13:09:15.791584 23768 net.cpp:357] data -> data
I0226 13:09:15.791615 23768 net.cpp:357] data -> label
I0226 13:09:15.791640 23768 net.cpp:97] Setting up data
I0226 13:09:15.791661 23768 data_layer.cpp:34] Opening dataset /home/jaehyun/kaggle/nationalDataScienceBowl/data/typeD/train_lmdb
I0226 13:09:15.791788 23768 lmdb_dataset.cpp:73] what the fuck!!
I0226 13:09:15.791867 23768 data_layer.cpp:73] output data size: 256,3,48,48
I0226 13:09:15.794675 23768 net.cpp:104] Top shape: 256 3 48 48 (1769472)
I0226 13:09:15.794725 23768 net.cpp:104] Top shape: 256 1 1 1 (256)
I0226 13:09:15.794739 23768 layer_factory.hpp:78] Creating layer conv1
I0226 13:09:15.794767 23768 net.cpp:68] Creating Layer conv1
I0226 13:09:15.794792 23768 net.cpp:395] conv1 <- data
I0226 13:09:15.794922 23768 net.cpp:357] conv1 -> conv1
I0226 13:09:15.794988 23768 net.cpp:97] Setting up conv1
I0226 13:09:15.823813 23768 net.cpp:104] Top shape: 256 96 12 12 (3538944)
I0226 13:09:15.823911 23768 layer_factory.hpp:78] Creating layer relu1
I0226 13:09:15.823938 23768 net.cpp:68] Creating Layer relu1
I0226 13:09:15.823954 23768 net.cpp:395] relu1 <- conv1
I0226 13:09:15.823972 23768 net.cpp:346] relu1 -> conv1 (in-place)
I0226 13:09:15.823992 23768 net.cpp:97] Setting up relu1
I0226 13:09:15.824012 23768 net.cpp:104] Top shape: 256 96 12 12 (3538944)
I0226 13:09:15.824025 23768 layer_factory.hpp:78] Creating layer pool1
I0226 13:09:15.824044 23768 net.cpp:68] Creating Layer pool1
I0226 13:09:15.824057 23768 net.cpp:395] pool1 <- conv1
I0226 13:09:15.824071 23768 net.cpp:357] pool1 -> pool1
I0226 13:09:15.824089 23768 net.cpp:97] Setting up pool1
I0226 13:09:15.824120 23768 net.cpp:104] Top shape: 256 96 6 6 (884736)
I0226 13:09:15.824136 23768 layer_factory.hpp:78] Creating layer conv2
I0226 13:09:15.824156 23768 net.cpp:68] Creating Layer conv2
I0226 13:09:15.824168 23768 net.cpp:395] conv2 <- pool1
I0226 13:09:15.824184 23768 net.cpp:357] conv2 -> conv2
I0226 13:09:15.824203 23768 net.cpp:97] Setting up conv2
I0226 13:09:15.826614 23768 net.cpp:104] Top shape: 256 128 8 8 (2097152)
I0226 13:09:15.826648 23768 layer_factory.hpp:78] Creating layer relu2
I0226 13:09:15.826666 23768 net.cpp:68] Creating Layer relu2
I0226 13:09:15.826679 23768 net.cpp:395] relu2 <- conv2
I0226 13:09:15.826694 23768 net.cpp:346] relu2 -> conv2 (in-place)
I0226 13:09:15.826709 23768 net.cpp:97] Setting up relu2
I0226 13:09:15.826724 23768 net.cpp:104] Top shape: 256 128 8 8 (2097152)
I0226 13:09:15.826736 23768 layer_factory.hpp:78] Creating layer conv3
I0226 13:09:15.826756 23768 net.cpp:68] Creating Layer conv3
I0226 13:09:15.826768 23768 net.cpp:395] conv3 <- conv2
I0226 13:09:15.826783 23768 net.cpp:357] conv3 -> conv3
I0226 13:09:15.826799 23768 net.cpp:97] Setting up conv3
I0226 13:09:15.832985 23768 net.cpp:104] Top shape: 256 128 8 8 (2097152)
I0226 13:09:15.833026 23768 layer_factory.hpp:78] Creating layer relu3
I0226 13:09:15.833048 23768 net.cpp:68] Creating Layer relu3
I0226 13:09:15.833062 23768 net.cpp:395] relu3 <- conv3
I0226 13:09:15.833077 23768 net.cpp:346] relu3 -> conv3 (in-place)
I0226 13:09:15.833093 23768 net.cpp:97] Setting up relu3
I0226 13:09:15.833109 23768 net.cpp:104] Top shape: 256 128 8 8 (2097152)
I0226 13:09:15.833122 23768 layer_factory.hpp:78] Creating layer pool3
I0226 13:09:15.833139 23768 net.cpp:68] Creating Layer pool3
I0226 13:09:15.833151 23768 net.cpp:395] pool3 <- conv3
I0226 13:09:15.833169 23768 net.cpp:357] pool3 -> pool3
I0226 13:09:15.833185 23768 net.cpp:97] Setting up pool3
I0226 13:09:15.833253 23768 net.cpp:104] Top shape: 256 128 4 4 (524288)
I0226 13:09:15.833271 23768 layer_factory.hpp:78] Creating layer fc4
I0226 13:09:15.833291 23768 net.cpp:68] Creating Layer fc4
I0226 13:09:15.833303 23768 net.cpp:395] fc4 <- pool3
I0226 13:09:15.833323 23768 net.cpp:357] fc4 -> fc4
I0226 13:09:15.833341 23768 net.cpp:97] Setting up fc4
I0226 13:09:15.876078 23768 net.cpp:104] Top shape: 256 512 1 1 (131072)
I0226 13:09:15.876130 23768 layer_factory.hpp:78] Creating layer relu4
I0226 13:09:15.876152 23768 net.cpp:68] Creating Layer relu4
I0226 13:09:15.876165 23768 net.cpp:395] relu4 <- fc4
I0226 13:09:15.876183 23768 net.cpp:346] relu4 -> fc4 (in-place)
I0226 13:09:15.876201 23768 net.cpp:97] Setting up relu4
I0226 13:09:15.876227 23768 net.cpp:104] Top shape: 256 512 1 1 (131072)
I0226 13:09:15.876240 23768 layer_factory.hpp:78] Creating layer drop4
I0226 13:09:15.876260 23768 net.cpp:68] Creating Layer drop4
I0226 13:09:15.876272 23768 net.cpp:395] drop4 <- fc4
I0226 13:09:15.876291 23768 net.cpp:346] drop4 -> fc4 (in-place)
I0226 13:09:15.876307 23768 net.cpp:97] Setting up drop4
I0226 13:09:15.876322 23768 net.cpp:104] Top shape: 256 512 1 1 (131072)
I0226 13:09:15.876333 23768 layer_factory.hpp:78] Creating layer fc5
I0226 13:09:15.876350 23768 net.cpp:68] Creating Layer fc5
I0226 13:09:15.876363 23768 net.cpp:395] fc5 <- fc4
I0226 13:09:15.876384 23768 net.cpp:357] fc5 -> fc5
I0226 13:09:15.876405 23768 net.cpp:97] Setting up fc5
I0226 13:09:15.887255 23768 net.cpp:104] Top shape: 256 512 1 1 (131072)
I0226 13:09:15.887285 23768 layer_factory.hpp:78] Creating layer relu5
I0226 13:09:15.887301 23768 net.cpp:68] Creating Layer relu5
I0226 13:09:15.887315 23768 net.cpp:395] relu5 <- fc5
I0226 13:09:15.887331 23768 net.cpp:346] relu5 -> fc5 (in-place)
I0226 13:09:15.887346 23768 net.cpp:97] Setting up relu5
I0226 13:09:15.887361 23768 net.cpp:104] Top shape: 256 512 1 1 (131072)
I0226 13:09:15.887373 23768 layer_factory.hpp:78] Creating layer drop5
I0226 13:09:15.887392 23768 net.cpp:68] Creating Layer drop5
I0226 13:09:15.887404 23768 net.cpp:395] drop5 <- fc5
I0226 13:09:15.887418 23768 net.cpp:346] drop5 -> fc5 (in-place)
I0226 13:09:15.887434 23768 net.cpp:97] Setting up drop5
I0226 13:09:15.887445 23768 net.cpp:104] Top shape: 256 512 1 1 (131072)
I0226 13:09:15.887457 23768 layer_factory.hpp:78] Creating layer fc6
I0226 13:09:15.887478 23768 net.cpp:68] Creating Layer fc6
I0226 13:09:15.887491 23768 net.cpp:395] fc6 <- fc5
I0226 13:09:15.887511 23768 net.cpp:357] fc6 -> fc6
I0226 13:09:15.887527 23768 net.cpp:97] Setting up fc6
I0226 13:09:15.890091 23768 net.cpp:104] Top shape: 256 121 1 1 (30976)
I0226 13:09:15.890116 23768 layer_factory.hpp:78] Creating layer loss
I0226 13:09:15.890137 23768 net.cpp:68] Creating Layer loss
I0226 13:09:15.890151 23768 net.cpp:395] loss <- fc6
I0226 13:09:15.890166 23768 net.cpp:395] loss <- label
I0226 13:09:15.890182 23768 net.cpp:357] loss -> loss
I0226 13:09:15.890202 23768 net.cpp:97] Setting up loss
I0226 13:09:15.890218 23768 layer_factory.hpp:78] Creating layer loss
I0226 13:09:15.890324 23768 net.cpp:104] Top shape: 1 1 1 1 (1)
I0226 13:09:15.890343 23768 net.cpp:110]     with loss weight 1
I0226 13:09:15.890393 23768 net.cpp:171] loss needs backward computation.
I0226 13:09:15.890406 23768 net.cpp:171] fc6 needs backward computation.
I0226 13:09:15.890418 23768 net.cpp:171] drop5 needs backward computation.
I0226 13:09:15.890429 23768 net.cpp:171] relu5 needs backward computation.
I0226 13:09:15.890440 23768 net.cpp:171] fc5 needs backward computation.
…
I0226 13:09:15.891273 23768 solver.cpp:154] Creating test net (#0) specified by net file: model/train_val.prototxt
I0226 13:09:15.891326 23768 net.cpp:276] The NetState phase (1) differed from the phase (0) specified by a rule in layer data
I0226 13:09:15.891536 23768 net.cpp:39] Initializing net from parameters: 
name: "cxxnet"
layers {
  top: "data"
  top: "label"
  name: "data"
  type: DATA
  data_param {
    source: "/home/jaehyun/kaggle/nationalDataScienceBowl/data/typeD/val_lmdb"
    batch_size: 256
    backend: LMDB
  }
  include {
    phase: TEST
  }
  transform_param {
    mirror: false
    mean_file: "/home/jaehyun/kaggle/nationalDataScienceBowl/data/typeD/train_mean.binaryproto"
  }
}
layers {
  bottom: "data"
  top: "conv1"
  name: "conv1"
  type: CONVOLUTION
  blobs_lr: 1
  blobs_lr: 2
  weight_decay: 1
  weight_decay: 0
  convolution_param {
    num_output: 96
    pad: 2
    kernel_size: 5
    stride: 4
    weight_filler {
      type: "gaussian"
      std: 0.01
    }
    bias_filler {
      type: "constant"
      value: 0
    }
  }
}
layers {
  bottom: "conv1"
  top: "conv1"
  name: "relu1"
  type: RELU
}
layers {
  bottom: "conv1"
  top: "pool1"
  name: "pool1"
  type: POOLING
  pooling_param {
    pool: MAX
    kernel_size: 3
    stride: 2
  }
}
layers {
  bottom: "pool1"
  top: "conv2"
  name: "conv2"
  type: CONVOLUTION
  blobs_lr: 1
  blobs_lr: 2
  weight_decay: 1
  weight_decay: 0
  convolution_param {
    num_output: 128
    pad: 2
    kernel_size: 3
    group: 2
    weight_filler {
      type: "gaussian"
      std: 0.01
    }
    bias_filler {
      type: "constant"
      value: 1
    }
  }
}
layers {
  bottom: "conv2"
  top: "conv2"
  name: "relu2"
  type: RELU
}
layers {
  bottom: "conv2"
  top: "conv3"
  name: "conv3"
  type: CONVOLUTION
  blobs_lr: 1
  blobs_lr: 2
  weight_decay: 1
  weight_decay: 0
  convolution_param {
    num_output: 128
    pad: 1
    kernel_size: 3
    weight_filler {
      type: "gaussian"
      std: 0.01
    }
    bias_filler {
      type: "constant"
      value: 0
    }
  }
}
layers {
  bottom: "conv3"
  top: "conv3"
  name: "relu3"
  type: RELU
}
layers {
  bottom: "conv3"
  top: "pool3"
  name: "pool3"
  type: POOLING
  pooling_param {
    pool: MAX
    kernel_size: 3
    stride: 2
  }
}
layers {
  bottom: "pool3"
  top: "fc4"
  name: "fc4"
  type: INNER_PRODUCT
  blobs_lr: 1
  blobs_lr: 2
  weight_decay: 1
  weight_decay: 0
  inner_product_param {
    num_output: 512
    weight_filler {
      type: "gaussian"
      std: 0.005
    }
    bias_filler {
      type: "constant"
      value: 1
    }
  }
}
layers {
  bottom: "fc4"
  top: "fc4"
  name: "relu4"
  type: RELU
}
layers {
  bottom: "fc4"
  top: "fc4"
  name: "drop4"
  type: DROPOUT
  dropout_param {
    dropout_ratio: 0.5
  }
}
layers {
  bottom: "fc4"
  top: "fc5"
  name: "fc5"
  type: INNER_PRODUCT
  blobs_lr: 1
  blobs_lr: 2
  weight_decay: 1
  weight_decay: 0
  inner_product_param {
    num_output: 512
    weight_filler {
      type: "gaussian"
      std: 0.005
    }
    bias_filler {
      type: "constant"
      value: 1
    }
  }
}
layers {
  bottom: "fc5"
  top: "fc5"
  name: "relu5"
  type: RELU
}
layers {
  bottom: "fc5"
  top: "fc5"
  name: "drop5"
  type: DROPOUT
  dropout_param {
    dropout_ratio: 0.5
  }
}
layers {
  bottom: "fc5"
  top: "fc6"
  name: "fc6"
  type: INNER_PRODUCT
  blobs_lr: 1
  blobs_lr: 2
  weight_decay: 1
  weight_decay: 0
  inner_product_param {
    num_output: 121
    weight_filler {
      type: "gaussian"
      std: 0.01
    }
    bias_filler {
      type: "constant"
      value: 0
    }
  }
}
layers {
  bottom: "fc6"
  top: "prob"
  name: "prob"
  type: SOFTMAX
  include {
    phase: TEST
  }
}
layers {
  bottom: "prob"
  bottom: "label"
  top: "accuracy"
  name: "accuracy"
  type: ACCURACY
  accuracy_param {
    top_k: 1
  }
  include {
    phase: TEST
  }
}
layers {
  bottom: "fc6"
  bottom: "label"
  top: "loss"
  name: "loss"
  type: SOFTMAX_LOSS
}
state {
  phase: TEST
}
I0226 13:09:15.892432 23768 layer_factory.hpp:78] Creating layer data
I0226 13:09:15.892456 23768 data_transformer.cpp:24] Loading mean file from/home/jaehyun/kaggle/nationalDataScienceBowl/data/typeD/train_mean.binaryproto
I0226 13:09:15.892572 23768 net.cpp:68] Creating Layer data
I0226 13:09:15.892591 23768 net.cpp:357] data -> data
I0226 13:09:15.892611 23768 net.cpp:357] data -> label
I0226 13:09:15.892627 23768 net.cpp:97] Setting up data
I0226 13:09:15.892642 23768 data_layer.cpp:34] Opening dataset /home/jaehyun/kaggle/nationalDataScienceBowl/data/typeD/val_lmdb
I0226 13:09:15.892719 23768 lmdb_dataset.cpp:73] what the fuck!!
I0226 13:09:15.892760 23768 data_layer.cpp:73] output data size: 256,3,48,48
I0226 13:09:15.895509 23768 net.cpp:104] Top shape: 256 3 48 48 (1769472)
I0226 13:09:15.895553 23768 net.cpp:104] Top shape: 256 1 1 1 (256)
I0226 13:09:15.895573 23768 layer_factory.hpp:78] Creating layer label_data_1_split
I0226 13:09:15.895598 23768 net.cpp:68] Creating Layer label_data_1_split
I0226 13:09:15.895630 23768 net.cpp:395] label_data_1_split <- label
I0226 13:09:15.895648 23768 net.cpp:357] label_data_1_split -> label_data_1_split_0
I0226 13:09:15.895668 23768 net.cpp:357] label_data_1_split -> label_data_1_split_1
I0226 13:09:15.895684 23768 net.cpp:97] Setting up label_data_1_split
I0226 13:09:15.895702 23768 net.cpp:104] Top shape: 256 1 1 1 (256)
I0226 13:09:15.895715 23768 net.cpp:104] Top shape: 256 1 1 1 (256)
I0226 13:09:15.895727 23768 layer_factory.hpp:78] Creating layer conv1
I0226 13:09:15.895751 23768 net.cpp:68] Creating Layer conv1
I0226 13:09:15.895764 23768 net.cpp:395] conv1 <- data
I0226 13:09:15.895779 23768 net.cpp:357] conv1 -> conv1
I0226 13:09:15.895797 23768 net.cpp:97] Setting up conv1
I0226 13:09:15.896235 23768 net.cpp:104] Top shape: 256 96 12 12 (3538944)
I0226 13:09:15.896263 23768 layer_factory.hpp:78] Creating layer relu1
I0226 13:09:15.896280 23768 net.cpp:68] Creating Layer relu1
I0226 13:09:15.896291 23768 net.cpp:395] relu1 <- conv1
I0226 13:09:15.896309 23768 net.cpp:346] relu1 -> conv1 (in-place)
I0226 13:09:15.896325 23768 net.cpp:97] Setting up relu1
I0226 13:09:15.896350 23768 net.cpp:104] Top shape: 256 96 12 12 (3538944)
I0226 13:09:15.896363 23768 layer_factory.hpp:78] Creating layer pool1
I0226 13:09:15.896378 23768 net.cpp:68] Creating Layer pool1
I0226 13:09:15.896390 23768 net.cpp:395] pool1 <- conv1
I0226 13:09:15.896410 23768 net.cpp:357] pool1 -> pool1
I0226 13:09:15.896426 23768 net.cpp:97] Setting up pool1
I0226 13:09:15.896445 23768 net.cpp:104] Top shape: 256 96 6 6 (884736)
I0226 13:09:15.896461 23768 layer_factory.hpp:78] Creating layer conv2
I0226 13:09:15.896479 23768 net.cpp:68] Creating Layer conv2
I0226 13:09:15.896493 23768 net.cpp:395] conv2 <- pool1
I0226 13:09:15.896507 23768 net.cpp:357] conv2 -> conv2
I0226 13:09:15.896527 23768 net.cpp:97] Setting up conv2
I0226 13:09:15.899168 23768 net.cpp:104] Top shape: 256 128 8 8 (2097152)
I0226 13:09:15.899199 23768 layer_factory.hpp:78] Creating layer relu2
I0226 13:09:15.899217 23768 net.cpp:68] Creating Layer relu2
I0226 13:09:15.899231 23768 net.cpp:395] relu2 <- conv2
I0226 13:09:15.899251 23768 net.cpp:346] relu2 -> conv2 (in-place)
I0226 13:09:15.899268 23768 net.cpp:97] Setting up relu2
I0226 13:09:15.899283 23768 net.cpp:104] Top shape: 256 128 8 8 (2097152)
I0226 13:09:15.899296 23768 layer_factory.hpp:78] Creating layer conv3
I0226 13:09:15.899312 23768 net.cpp:68] Creating Layer conv3
I0226 13:09:15.899359 23768 net.cpp:395] conv3 <- conv2
I0226 13:09:15.899384 23768 net.cpp:357] conv3 -> conv3
I0226 13:09:15.899401 23768 net.cpp:97] Setting up conv3
I0226 13:09:15.905592 23768 net.cpp:104] Top shape: 256 128 8 8 (2097152)
I0226 13:09:15.905625 23768 layer_factory.hpp:78] Creating layer relu3
I0226 13:09:15.905644 23768 net.cpp:68] Creating Layer relu3
I0226 13:09:15.905657 23768 net.cpp:395] relu3 <- conv3
I0226 13:09:15.905671 23768 net.cpp:346] relu3 -> conv3 (in-place)
I0226 13:09:15.905686 23768 net.cpp:97] Setting up relu3
I0226 13:09:15.905701 23768 net.cpp:104] Top shape: 256 128 8 8 (2097152)
I0226 13:09:15.905730 23768 layer_factory.hpp:78] Creating layer pool3
I0226 13:09:15.905747 23768 net.cpp:68] Creating Layer pool3
I0226 13:09:15.905764 23768 net.cpp:395] pool3 <- conv3
I0226 13:09:15.905782 23768 net.cpp:357] pool3 -> pool3
I0226 13:09:15.905800 23768 net.cpp:97] Setting up pool3
I0226 13:09:15.905819 23768 net.cpp:104] Top shape: 256 128 4 4 (524288)
I0226 13:09:15.905833 23768 layer_factory.hpp:78] Creating layer fc4
I0226 13:09:15.905851 23768 net.cpp:68] Creating Layer fc4
I0226 13:09:15.905864 23768 net.cpp:395] fc4 <- pool3
I0226 13:09:15.905879 23768 net.cpp:357] fc4 -> fc4
I0226 13:09:15.905896 23768 net.cpp:97] Setting up fc4
I0226 13:09:15.948572 23768 net.cpp:104] Top shape: 256 512 1 1 (131072)
I0226 13:09:15.948626 23768 layer_factory.hpp:78] Creating layer relu4
I0226 13:09:15.948645 23768 net.cpp:68] Creating Layer relu4
I0226 13:09:15.948659 23768 net.cpp:395] relu4 <- fc4
I0226 13:09:15.948675 23768 net.cpp:346] relu4 -> fc4 (in-place)
I0226 13:09:15.948693 23768 net.cpp:97] Setting up relu4
I0226 13:09:15.948716 23768 net.cpp:104] Top shape: 256 512 1 1 (131072)
I0226 13:09:15.948729 23768 layer_factory.hpp:78] Creating layer drop4
I0226 13:09:15.948751 23768 net.cpp:68] Creating Layer drop4
I0226 13:09:15.948765 23768 net.cpp:395] drop4 <- fc4
I0226 13:09:15.948779 23768 net.cpp:346] drop4 -> fc4 (in-place)
I0226 13:09:15.948793 23768 net.cpp:97] Setting up drop4
I0226 13:09:15.948807 23768 net.cpp:104] Top shape: 256 512 1 1 (131072)
I0226 13:09:15.948818 23768 layer_factory.hpp:78] Creating layer fc5
I0226 13:09:15.948837 23768 net.cpp:68] Creating Layer fc5
I0226 13:09:15.948850 23768 net.cpp:395] fc5 <- fc4
I0226 13:09:15.948864 23768 net.cpp:357] fc5 -> fc5
I0226 13:09:15.948880 23768 net.cpp:97] Setting up fc5
I0226 13:09:15.959702 23768 net.cpp:104] Top shape: 256 512 1 1 (131072)
I0226 13:09:15.959731 23768 layer_factory.hpp:78] Creating layer relu5
I0226 13:09:15.959748 23768 net.cpp:68] Creating Layer relu5
I0226 13:09:15.959759 23768 net.cpp:395] relu5 <- fc5
I0226 13:09:15.959774 23768 net.cpp:346] relu5 -> fc5 (in-place)
I0226 13:09:15.959789 23768 net.cpp:97] Setting up relu5
I0226 13:09:15.959805 23768 net.cpp:104] Top shape: 256 512 1 1 (131072)
I0226 13:09:15.959817 23768 layer_factory.hpp:78] Creating layer drop5
I0226 13:09:15.959835 23768 net.cpp:68] Creating Layer drop5
I0226 13:09:15.959847 23768 net.cpp:395] drop5 <- fc5
I0226 13:09:15.959861 23768 net.cpp:346] drop5 -> fc5 (in-place)
I0226 13:09:15.959875 23768 net.cpp:97] Setting up drop5
I0226 13:09:15.959887 23768 net.cpp:104] Top shape: 256 512 1 1 (131072)
I0226 13:09:15.959899 23768 layer_factory.hpp:78] Creating layer fc6
I0226 13:09:15.959918 23768 net.cpp:68] Creating Layer fc6
I0226 13:09:15.959931 23768 net.cpp:395] fc6 <- fc5
I0226 13:09:15.959946 23768 net.cpp:357] fc6 -> fc6
I0226 13:09:15.959961 23768 net.cpp:97] Setting up fc6
I0226 13:09:15.962527 23768 net.cpp:104] Top shape: 256 121 1 1 (30976)
I0226 13:09:15.962550 23768 layer_factory.hpp:78] Creating layer fc6_fc6_0_split
I0226 13:09:15.962565 23768 net.cpp:68] Creating Layer fc6_fc6_0_split
I0226 13:09:15.962577 23768 net.cpp:395] fc6_fc6_0_split <- fc6
I0226 13:09:15.962595 23768 net.cpp:357] fc6_fc6_0_split -> fc6_fc6_0_split_0
I0226 13:09:15.962612 23768 net.cpp:357] fc6_fc6_0_split -> fc6_fc6_0_split_1
I0226 13:09:15.962627 23768 net.cpp:97] Setting up fc6_fc6_0_split
I0226 13:09:15.962641 23768 net.cpp:104] Top shape: 256 121 1 1 (30976)
I0226 13:09:15.962697 23768 net.cpp:104] Top shape: 256 121 1 1 (30976)
I0226 13:09:15.962709 23768 layer_factory.hpp:78] Creating layer prob
I0226 13:09:15.962729 23768 net.cpp:68] Creating Layer prob
I0226 13:09:15.962743 23768 net.cpp:395] prob <- fc6_fc6_0_split_0
I0226 13:09:15.962757 23768 net.cpp:357] prob -> prob
I0226 13:09:15.962772 23768 net.cpp:97] Setting up prob
I0226 13:09:15.962790 23768 net.cpp:104] Top shape: 256 121 1 1 (30976)
I0226 13:09:15.962802 23768 layer_factory.hpp:78] Creating layer accuracy
I0226 13:09:15.962826 23768 net.cpp:68] Creating Layer accuracy
I0226 13:09:15.962838 23768 net.cpp:395] accuracy <- prob
I0226 13:09:15.962852 23768 net.cpp:395] accuracy <- label_data_1_split_0
I0226 13:09:15.962867 23768 net.cpp:357] accuracy -> accuracy
I0226 13:09:15.962882 23768 net.cpp:97] Setting up accuracy
I0226 13:09:15.962898 23768 net.cpp:104] Top shape: 1 1 1 1 (1)
I0226 13:09:15.962909 23768 layer_factory.hpp:78] Creating layer loss
I0226 13:09:15.962924 23768 net.cpp:68] Creating Layer loss
I0226 13:09:15.962935 23768 net.cpp:395] loss <- fc6_fc6_0_split_1
I0226 13:09:15.962949 23768 net.cpp:395] loss <- label_data_1_split_1
I0226 13:09:15.962965 23768 net.cpp:357] loss -> loss
I0226 13:09:15.962982 23768 net.cpp:97] Setting up loss
I0226 13:09:15.962996 23768 layer_factory.hpp:78] Creating layer loss
I0226 13:09:15.963099 23768 net.cpp:104] Top shape: 1 1 1 1 (1)
I0226 13:09:15.963116 23768 net.cpp:110]     with loss weight 1
I0226 13:09:15.963143 23768 net.cpp:171] loss needs backward computation.
I0226 13:09:15.963155 23768 net.cpp:173] accuracy does not need backward computation.
I0226 13:09:15.963166 23768 net.cpp:173] prob does not need backward computation.
I0226 13:09:15.963177 23768 net.cpp:171] fc6_fc6_0_split needs backward computation.
…
