…
I0226 11:13:26.285514 11813 net.cpp:276] The NetState phase (0) differed from the phase (1) specified by a rule in layer accuracy
I0226 11:13:26.285689 11813 net.cpp:39] Initializing net from parameters: 
name: "cxxnet"
layers {
  top: "data"
  top: "label"
  name: "data"
  type: DATA
  data_param {
    source: "/home/jaehyun/kaggle/nationalDataScienceBowl/data/typeD/train_lmdb"
    batch_size: 256
    backend: LMDB
    shuffle: true
  }
  include {
    phase: TRAIN
  }
  transform_param {
    mirror: true
    mean_file: "/home/jaehyun/kaggle/nationalDataScienceBowl/data/typeD/train_mean.binaryproto"
  }
}
layers {
  bottom: "data"
  top: "conv1"
  name: "conv1"
  type: CONVOLUTION
  blobs_lr: 1
  blobs_lr: 2
  weight_decay: 1
  weight_decay: 0
  convolution_param {
    num_output: 96
    pad: 2
    kernel_size: 5
    stride: 4
    weight_filler {
      type: "gaussian"
      std: 0.01
    }
    bias_filler {
      type: "constant"
      value: 0
    }
  }
}
layers {
  bottom: "conv1"
  top: "conv1"
  name: "relu1"
  type: RELU
}
layers {
  bottom: "conv1"
  top: "pool1"
  name: "pool1"
  type: POOLING
  pooling_param {
    pool: MAX
    kernel_size: 3
    stride: 2
  }
}
layers {
  bottom: "pool1"
  top: "conv2"
  name: "conv2"
  type: CONVOLUTION
  blobs_lr: 1
  blobs_lr: 2
  weight_decay: 1
  weight_decay: 0
  convolution_param {
    num_output: 128
    pad: 2
    kernel_size: 3
    group: 2
    weight_filler {
      type: "gaussian"
      std: 0.01
    }
    bias_filler {
      type: "constant"
      value: 1
    }
  }
}
layers {
  bottom: "conv2"
  top: "conv2"
  name: "relu2"
  type: RELU
}
layers {
  bottom: "conv2"
  top: "conv3"
  name: "conv3"
  type: CONVOLUTION
  blobs_lr: 1
  blobs_lr: 2
  weight_decay: 1
  weight_decay: 0
  convolution_param {
    num_output: 128
    pad: 1
    kernel_size: 3
    weight_filler {
      type: "gaussian"
      std: 0.01
    }
    bias_filler {
      type: "constant"
      value: 0
    }
  }
}
layers {
  bottom: "conv3"
  top: "conv3"
  name: "relu3"
  type: RELU
}
layers {
  bottom: "conv3"
  top: "pool3"
  name: "pool3"
  type: POOLING
  pooling_param {
    pool: MAX
    kernel_size: 3
    stride: 2
  }
}
layers {
  bottom: "pool3"
  top: "fc4"
  name: "fc4"
  type: INNER_PRODUCT
  blobs_lr: 1
  blobs_lr: 2
  weight_decay: 1
  weight_decay: 0
  inner_product_param {
    num_output: 512
    weight_filler {
      type: "gaussian"
      std: 0.005
    }
    bias_filler {
      type: "constant"
      value: 1
    }
  }
}
layers {
  bottom: "fc4"
  top: "fc4"
  name: "relu4"
  type: RELU
}
layers {
  bottom: "fc4"
  top: "fc4"
  name: "drop4"
  type: DROPOUT
  dropout_param {
    dropout_ratio: 0.5
  }
}
layers {
  bottom: "fc4"
  top: "fc5"
  name: "fc5"
  type: INNER_PRODUCT
  blobs_lr: 1
  blobs_lr: 2
  weight_decay: 1
  weight_decay: 0
  inner_product_param {
    num_output: 512
    weight_filler {
      type: "gaussian"
      std: 0.005
    }
    bias_filler {
      type: "constant"
      value: 1
    }
  }
}
layers {
  bottom: "fc5"
  top: "fc5"
  name: "relu5"
  type: RELU
}
layers {
  bottom: "fc5"
  top: "fc5"
  name: "drop5"
  type: DROPOUT
  dropout_param {
    dropout_ratio: 0.5
  }
}
layers {
  bottom: "fc5"
  top: "fc6"
  name: "fc6"
  type: INNER_PRODUCT
  blobs_lr: 1
  blobs_lr: 2
  weight_decay: 1
  weight_decay: 0
  inner_product_param {
    num_output: 121
    weight_filler {
      type: "gaussian"
      std: 0.01
    }
    bias_filler {
      type: "constant"
      value: 0
    }
  }
}
layers {
  bottom: "fc6"
  bottom: "label"
  top: "loss"
  name: "loss"
  type: SOFTMAX_LOSS
}
state {
  phase: TRAIN
}
I0226 11:13:26.286569 11813 layer_factory.hpp:78] Creating layer data
I0226 11:13:26.286599 11813 data_transformer.cpp:24] Loading mean file from/home/jaehyun/kaggle/nationalDataScienceBowl/data/typeD/train_mean.binaryproto
I0226 11:13:26.286747 11813 net.cpp:68] Creating Layer data
I0226 11:13:26.286770 11813 net.cpp:357] data -> data
I0226 11:13:26.286798 11813 net.cpp:357] data -> label
I0226 11:13:26.286821 11813 net.cpp:97] Setting up data
I0226 11:13:26.286841 11813 data_layer.cpp:34] Opening dataset /home/jaehyun/kaggle/nationalDataScienceBowl/data/typeD/train_lmdb
I0226 11:13:26.286957 11813 lmdb_dataset.cpp:73] what the fuck!!
I0226 11:13:26.287039 11813 data_layer.cpp:73] output data size: 256,3,48,48
I0226 11:13:26.290011 11813 net.cpp:104] Top shape: 256 3 48 48 (1769472)
I0226 11:13:26.290056 11813 net.cpp:104] Top shape: 256 1 1 1 (256)
I0226 11:13:26.290071 11813 layer_factory.hpp:78] Creating layer conv1
I0226 11:13:26.290117 11813 net.cpp:68] Creating Layer conv1
I0226 11:13:26.290132 11813 net.cpp:395] conv1 <- data
I0226 11:13:26.290159 11813 net.cpp:357] conv1 -> conv1
I0226 11:13:26.290180 11813 net.cpp:97] Setting up conv1
I0226 11:13:26.320339 11813 net.cpp:104] Top shape: 256 96 12 12 (3538944)
I0226 11:13:26.320441 11813 layer_factory.hpp:78] Creating layer relu1
I0226 11:13:26.320474 11813 net.cpp:68] Creating Layer relu1
I0226 11:13:26.320492 11813 net.cpp:395] relu1 <- conv1
I0226 11:13:26.320510 11813 net.cpp:346] relu1 -> conv1 (in-place)
I0226 11:13:26.320529 11813 net.cpp:97] Setting up relu1
I0226 11:13:26.320549 11813 net.cpp:104] Top shape: 256 96 12 12 (3538944)
I0226 11:13:26.320564 11813 layer_factory.hpp:78] Creating layer pool1
I0226 11:13:26.320581 11813 net.cpp:68] Creating Layer pool1
I0226 11:13:26.320595 11813 net.cpp:395] pool1 <- conv1
I0226 11:13:26.320608 11813 net.cpp:357] pool1 -> pool1
I0226 11:13:26.320626 11813 net.cpp:97] Setting up pool1
I0226 11:13:26.320657 11813 net.cpp:104] Top shape: 256 96 6 6 (884736)
I0226 11:13:26.320672 11813 layer_factory.hpp:78] Creating layer conv2
I0226 11:13:26.320693 11813 net.cpp:68] Creating Layer conv2
I0226 11:13:26.320706 11813 net.cpp:395] conv2 <- pool1
I0226 11:13:26.320725 11813 net.cpp:357] conv2 -> conv2
I0226 11:13:26.320749 11813 net.cpp:97] Setting up conv2
I0226 11:13:26.323182 11813 net.cpp:104] Top shape: 256 128 8 8 (2097152)
I0226 11:13:26.323217 11813 layer_factory.hpp:78] Creating layer relu2
I0226 11:13:26.323240 11813 net.cpp:68] Creating Layer relu2
I0226 11:13:26.323253 11813 net.cpp:395] relu2 <- conv2
I0226 11:13:26.323267 11813 net.cpp:346] relu2 -> conv2 (in-place)
I0226 11:13:26.323282 11813 net.cpp:97] Setting up relu2
I0226 11:13:26.323297 11813 net.cpp:104] Top shape: 256 128 8 8 (2097152)
I0226 11:13:26.323308 11813 layer_factory.hpp:78] Creating layer conv3
I0226 11:13:26.323325 11813 net.cpp:68] Creating Layer conv3
I0226 11:13:26.323338 11813 net.cpp:395] conv3 <- conv2
I0226 11:13:26.323357 11813 net.cpp:357] conv3 -> conv3
I0226 11:13:26.323374 11813 net.cpp:97] Setting up conv3
I0226 11:13:26.329905 11813 net.cpp:104] Top shape: 256 128 8 8 (2097152)
I0226 11:13:26.329958 11813 layer_factory.hpp:78] Creating layer relu3
I0226 11:13:26.329980 11813 net.cpp:68] Creating Layer relu3
I0226 11:13:26.329993 11813 net.cpp:395] relu3 <- conv3
I0226 11:13:26.330013 11813 net.cpp:346] relu3 -> conv3 (in-place)
I0226 11:13:26.330031 11813 net.cpp:97] Setting up relu3
I0226 11:13:26.330047 11813 net.cpp:104] Top shape: 256 128 8 8 (2097152)
I0226 11:13:26.330060 11813 layer_factory.hpp:78] Creating layer pool3
I0226 11:13:26.330077 11813 net.cpp:68] Creating Layer pool3
I0226 11:13:26.330090 11813 net.cpp:395] pool3 <- conv3
I0226 11:13:26.330106 11813 net.cpp:357] pool3 -> pool3
I0226 11:13:26.330122 11813 net.cpp:97] Setting up pool3
I0226 11:13:26.330199 11813 net.cpp:104] Top shape: 256 128 4 4 (524288)
I0226 11:13:26.330214 11813 layer_factory.hpp:78] Creating layer fc4
I0226 11:13:26.330237 11813 net.cpp:68] Creating Layer fc4
I0226 11:13:26.330253 11813 net.cpp:395] fc4 <- pool3
I0226 11:13:26.330270 11813 net.cpp:357] fc4 -> fc4
I0226 11:13:26.330289 11813 net.cpp:97] Setting up fc4
I0226 11:13:26.374106 11813 net.cpp:104] Top shape: 256 512 1 1 (131072)
I0226 11:13:26.374161 11813 layer_factory.hpp:78] Creating layer relu4
I0226 11:13:26.374187 11813 net.cpp:68] Creating Layer relu4
I0226 11:13:26.374203 11813 net.cpp:395] relu4 <- fc4
I0226 11:13:26.374222 11813 net.cpp:346] relu4 -> fc4 (in-place)
I0226 11:13:26.374238 11813 net.cpp:97] Setting up relu4
I0226 11:13:26.374264 11813 net.cpp:104] Top shape: 256 512 1 1 (131072)
I0226 11:13:26.374275 11813 layer_factory.hpp:78] Creating layer drop4
I0226 11:13:26.374294 11813 net.cpp:68] Creating Layer drop4
I0226 11:13:26.374307 11813 net.cpp:395] drop4 <- fc4
I0226 11:13:26.374320 11813 net.cpp:346] drop4 -> fc4 (in-place)
I0226 11:13:26.374335 11813 net.cpp:97] Setting up drop4
I0226 11:13:26.374349 11813 net.cpp:104] Top shape: 256 512 1 1 (131072)
I0226 11:13:26.374366 11813 layer_factory.hpp:78] Creating layer fc5
I0226 11:13:26.374387 11813 net.cpp:68] Creating Layer fc5
I0226 11:13:26.374399 11813 net.cpp:395] fc5 <- fc4
I0226 11:13:26.374414 11813 net.cpp:357] fc5 -> fc5
I0226 11:13:26.374436 11813 net.cpp:97] Setting up fc5
I0226 11:13:26.385678 11813 net.cpp:104] Top shape: 256 512 1 1 (131072)
I0226 11:13:26.385743 11813 layer_factory.hpp:78] Creating layer relu5
I0226 11:13:26.385766 11813 net.cpp:68] Creating Layer relu5
I0226 11:13:26.385783 11813 net.cpp:395] relu5 <- fc5
I0226 11:13:26.385799 11813 net.cpp:346] relu5 -> fc5 (in-place)
I0226 11:13:26.385817 11813 net.cpp:97] Setting up relu5
I0226 11:13:26.385843 11813 net.cpp:104] Top shape: 256 512 1 1 (131072)
I0226 11:13:26.385856 11813 layer_factory.hpp:78] Creating layer drop5
I0226 11:13:26.385871 11813 net.cpp:68] Creating Layer drop5
I0226 11:13:26.385882 11813 net.cpp:395] drop5 <- fc5
I0226 11:13:26.385900 11813 net.cpp:346] drop5 -> fc5 (in-place)
I0226 11:13:26.385916 11813 net.cpp:97] Setting up drop5
I0226 11:13:26.385928 11813 net.cpp:104] Top shape: 256 512 1 1 (131072)
I0226 11:13:26.385941 11813 layer_factory.hpp:78] Creating layer fc6
I0226 11:13:26.385956 11813 net.cpp:68] Creating Layer fc6
I0226 11:13:26.385967 11813 net.cpp:395] fc6 <- fc5
I0226 11:13:26.385984 11813 net.cpp:357] fc6 -> fc6
I0226 11:13:26.386001 11813 net.cpp:97] Setting up fc6
I0226 11:13:26.388581 11813 net.cpp:104] Top shape: 256 121 1 1 (30976)
I0226 11:13:26.388608 11813 layer_factory.hpp:78] Creating layer loss
I0226 11:13:26.388630 11813 net.cpp:68] Creating Layer loss
I0226 11:13:26.388645 11813 net.cpp:395] loss <- fc6
I0226 11:13:26.388659 11813 net.cpp:395] loss <- label
I0226 11:13:26.388672 11813 net.cpp:357] loss -> loss
I0226 11:13:26.388689 11813 net.cpp:97] Setting up loss
I0226 11:13:26.388705 11813 layer_factory.hpp:78] Creating layer loss
I0226 11:13:26.388820 11813 net.cpp:104] Top shape: 1 1 1 1 (1)
I0226 11:13:26.388839 11813 net.cpp:110]     with loss weight 1
I0226 11:13:26.388897 11813 net.cpp:171] loss needs backward computation.
I0226 11:13:26.388911 11813 net.cpp:171] fc6 needs backward computation.
I0226 11:13:26.388921 11813 net.cpp:171] drop5 needs backward computation.
I0226 11:13:26.388932 11813 net.cpp:171] relu5 needs backward computation.
I0226 11:13:26.388943 11813 net.cpp:171] fc5 needs backward computation.
…
I0226 11:13:26.389780 11813 solver.cpp:154] Creating test net (#0) specified by net file: model/train_val.prototxt
I0226 11:13:26.389839 11813 net.cpp:276] The NetState phase (1) differed from the phase (0) specified by a rule in layer data
I0226 11:13:26.390039 11813 net.cpp:39] Initializing net from parameters: 
name: "cxxnet"
layers {
  top: "data"
  top: "label"
  name: "data"
  type: DATA
  data_param {
    source: "/home/jaehyun/kaggle/nationalDataScienceBowl/data/typeD/val_lmdb"
    batch_size: 256
    backend: LMDB
  }
  include {
    phase: TEST
  }
  transform_param {
    mirror: false
    mean_file: "/home/jaehyun/kaggle/nationalDataScienceBowl/data/typeD/train_mean.binaryproto"
  }
}
layers {
  bottom: "data"
  top: "conv1"
  name: "conv1"
  type: CONVOLUTION
  blobs_lr: 1
  blobs_lr: 2
  weight_decay: 1
  weight_decay: 0
  convolution_param {
    num_output: 96
    pad: 2
    kernel_size: 5
    stride: 4
    weight_filler {
      type: "gaussian"
      std: 0.01
    }
    bias_filler {
      type: "constant"
      value: 0
    }
  }
}
layers {
  bottom: "conv1"
  top: "conv1"
  name: "relu1"
  type: RELU
}
layers {
  bottom: "conv1"
  top: "pool1"
  name: "pool1"
  type: POOLING
  pooling_param {
    pool: MAX
    kernel_size: 3
    stride: 2
  }
}
layers {
  bottom: "pool1"
  top: "conv2"
  name: "conv2"
  type: CONVOLUTION
  blobs_lr: 1
  blobs_lr: 2
  weight_decay: 1
  weight_decay: 0
  convolution_param {
    num_output: 128
    pad: 2
    kernel_size: 3
    group: 2
    weight_filler {
      type: "gaussian"
      std: 0.01
    }
    bias_filler {
      type: "constant"
      value: 1
    }
  }
}
layers {
  bottom: "conv2"
  top: "conv2"
  name: "relu2"
  type: RELU
}
layers {
  bottom: "conv2"
  top: "conv3"
  name: "conv3"
  type: CONVOLUTION
  blobs_lr: 1
  blobs_lr: 2
  weight_decay: 1
  weight_decay: 0
  convolution_param {
    num_output: 128
    pad: 1
    kernel_size: 3
    weight_filler {
      type: "gaussian"
      std: 0.01
    }
    bias_filler {
      type: "constant"
      value: 0
    }
  }
}
layers {
  bottom: "conv3"
  top: "conv3"
  name: "relu3"
  type: RELU
}
layers {
  bottom: "conv3"
  top: "pool3"
  name: "pool3"
  type: POOLING
  pooling_param {
    pool: MAX
    kernel_size: 3
    stride: 2
  }
}
layers {
  bottom: "pool3"
  top: "fc4"
  name: "fc4"
  type: INNER_PRODUCT
  blobs_lr: 1
  blobs_lr: 2
  weight_decay: 1
  weight_decay: 0
  inner_product_param {
    num_output: 512
    weight_filler {
      type: "gaussian"
      std: 0.005
    }
    bias_filler {
      type: "constant"
      value: 1
    }
  }
}
layers {
  bottom: "fc4"
  top: "fc4"
  name: "relu4"
  type: RELU
}
layers {
  bottom: "fc4"
  top: "fc4"
  name: "drop4"
  type: DROPOUT
  dropout_param {
    dropout_ratio: 0.5
  }
}
layers {
  bottom: "fc4"
  top: "fc5"
  name: "fc5"
  type: INNER_PRODUCT
  blobs_lr: 1
  blobs_lr: 2
  weight_decay: 1
  weight_decay: 0
  inner_product_param {
    num_output: 512
    weight_filler {
      type: "gaussian"
      std: 0.005
    }
    bias_filler {
      type: "constant"
      value: 1
    }
  }
}
layers {
  bottom: "fc5"
  top: "fc5"
  name: "relu5"
  type: RELU
}
layers {
  bottom: "fc5"
  top: "fc5"
  name: "drop5"
  type: DROPOUT
  dropout_param {
    dropout_ratio: 0.5
  }
}
layers {
  bottom: "fc5"
  top: "fc6"
  name: "fc6"
  type: INNER_PRODUCT
  blobs_lr: 1
  blobs_lr: 2
  weight_decay: 1
  weight_decay: 0
  inner_product_param {
    num_output: 121
    weight_filler {
      type: "gaussian"
      std: 0.01
    }
    bias_filler {
      type: "constant"
      value: 0
    }
  }
}
layers {
  bottom: "fc6"
  top: "prob"
  name: "prob"
  type: SOFTMAX
  include {
    phase: TEST
  }
}
layers {
  bottom: "prob"
  bottom: "label"
  top: "accuracy"
  name: "accuracy"
  type: ACCURACY
  accuracy_param {
    top_k: 1
  }
  include {
    phase: TEST
  }
}
layers {
  bottom: "fc6"
  bottom: "label"
  top: "loss"
  name: "loss"
  type: SOFTMAX_LOSS
}
state {
  phase: TEST
}
I0226 11:13:26.390966 11813 layer_factory.hpp:78] Creating layer data
I0226 11:13:26.390990 11813 data_transformer.cpp:24] Loading mean file from/home/jaehyun/kaggle/nationalDataScienceBowl/data/typeD/train_mean.binaryproto
I0226 11:13:26.391114 11813 net.cpp:68] Creating Layer data
I0226 11:13:26.391134 11813 net.cpp:357] data -> data
I0226 11:13:26.391152 11813 net.cpp:357] data -> label
I0226 11:13:26.391170 11813 net.cpp:97] Setting up data
I0226 11:13:26.391182 11813 data_layer.cpp:34] Opening dataset /home/jaehyun/kaggle/nationalDataScienceBowl/data/typeD/val_lmdb
I0226 11:13:26.391368 11813 lmdb_dataset.cpp:73] what the fuck!!
I0226 11:13:26.391425 11813 data_layer.cpp:73] output data size: 256,3,48,48
I0226 11:13:26.394047 11813 net.cpp:104] Top shape: 256 3 48 48 (1769472)
I0226 11:13:26.394103 11813 net.cpp:104] Top shape: 256 1 1 1 (256)
I0226 11:13:26.394157 11813 layer_factory.hpp:78] Creating layer label_data_1_split
I0226 11:13:26.394184 11813 net.cpp:68] Creating Layer label_data_1_split
I0226 11:13:26.394208 11813 net.cpp:395] label_data_1_split <- label
I0226 11:13:26.394232 11813 net.cpp:357] label_data_1_split -> label_data_1_split_0
I0226 11:13:26.394253 11813 net.cpp:357] label_data_1_split -> label_data_1_split_1
I0226 11:13:26.394269 11813 net.cpp:97] Setting up label_data_1_split
I0226 11:13:26.394286 11813 net.cpp:104] Top shape: 256 1 1 1 (256)
I0226 11:13:26.394304 11813 net.cpp:104] Top shape: 256 1 1 1 (256)
I0226 11:13:26.394316 11813 layer_factory.hpp:78] Creating layer conv1
I0226 11:13:26.394340 11813 net.cpp:68] Creating Layer conv1
I0226 11:13:26.394352 11813 net.cpp:395] conv1 <- data
I0226 11:13:26.394367 11813 net.cpp:357] conv1 -> conv1
I0226 11:13:26.394392 11813 net.cpp:97] Setting up conv1
I0226 11:13:26.394842 11813 net.cpp:104] Top shape: 256 96 12 12 (3538944)
I0226 11:13:26.394877 11813 layer_factory.hpp:78] Creating layer relu1
I0226 11:13:26.394894 11813 net.cpp:68] Creating Layer relu1
I0226 11:13:26.394912 11813 net.cpp:395] relu1 <- conv1
I0226 11:13:26.394927 11813 net.cpp:346] relu1 -> conv1 (in-place)
I0226 11:13:26.394940 11813 net.cpp:97] Setting up relu1
I0226 11:13:26.394955 11813 net.cpp:104] Top shape: 256 96 12 12 (3538944)
I0226 11:13:26.394968 11813 layer_factory.hpp:78] Creating layer pool1
I0226 11:13:26.394994 11813 net.cpp:68] Creating Layer pool1
I0226 11:13:26.395009 11813 net.cpp:395] pool1 <- conv1
I0226 11:13:26.395022 11813 net.cpp:357] pool1 -> pool1
I0226 11:13:26.395037 11813 net.cpp:97] Setting up pool1
I0226 11:13:26.395056 11813 net.cpp:104] Top shape: 256 96 6 6 (884736)
I0226 11:13:26.395074 11813 layer_factory.hpp:78] Creating layer conv2
I0226 11:13:26.395094 11813 net.cpp:68] Creating Layer conv2
I0226 11:13:26.395108 11813 net.cpp:395] conv2 <- pool1
I0226 11:13:26.395123 11813 net.cpp:357] conv2 -> conv2
I0226 11:13:26.395138 11813 net.cpp:97] Setting up conv2
I0226 11:13:26.398067 11813 net.cpp:104] Top shape: 256 128 8 8 (2097152)
I0226 11:13:26.398119 11813 layer_factory.hpp:78] Creating layer relu2
I0226 11:13:26.398140 11813 net.cpp:68] Creating Layer relu2
I0226 11:13:26.398154 11813 net.cpp:395] relu2 <- conv2
I0226 11:13:26.398169 11813 net.cpp:346] relu2 -> conv2 (in-place)
I0226 11:13:26.398192 11813 net.cpp:97] Setting up relu2
I0226 11:13:26.398214 11813 net.cpp:104] Top shape: 256 128 8 8 (2097152)
I0226 11:13:26.398227 11813 layer_factory.hpp:78] Creating layer conv3
I0226 11:13:26.398248 11813 net.cpp:68] Creating Layer conv3
I0226 11:13:26.398303 11813 net.cpp:395] conv3 <- conv2
I0226 11:13:26.398330 11813 net.cpp:357] conv3 -> conv3
I0226 11:13:26.398347 11813 net.cpp:97] Setting up conv3
I0226 11:13:26.404592 11813 net.cpp:104] Top shape: 256 128 8 8 (2097152)
I0226 11:13:26.404635 11813 layer_factory.hpp:78] Creating layer relu3
I0226 11:13:26.404661 11813 net.cpp:68] Creating Layer relu3
I0226 11:13:26.404676 11813 net.cpp:395] relu3 <- conv3
I0226 11:13:26.404691 11813 net.cpp:346] relu3 -> conv3 (in-place)
I0226 11:13:26.404707 11813 net.cpp:97] Setting up relu3
I0226 11:13:26.404723 11813 net.cpp:104] Top shape: 256 128 8 8 (2097152)
I0226 11:13:26.404736 11813 layer_factory.hpp:78] Creating layer pool3
I0226 11:13:26.404752 11813 net.cpp:68] Creating Layer pool3
I0226 11:13:26.404763 11813 net.cpp:395] pool3 <- conv3
I0226 11:13:26.404778 11813 net.cpp:357] pool3 -> pool3
I0226 11:13:26.404793 11813 net.cpp:97] Setting up pool3
I0226 11:13:26.404819 11813 net.cpp:104] Top shape: 256 128 4 4 (524288)
I0226 11:13:26.404832 11813 layer_factory.hpp:78] Creating layer fc4
I0226 11:13:26.404850 11813 net.cpp:68] Creating Layer fc4
I0226 11:13:26.404862 11813 net.cpp:395] fc4 <- pool3
I0226 11:13:26.404881 11813 net.cpp:357] fc4 -> fc4
I0226 11:13:26.404897 11813 net.cpp:97] Setting up fc4
I0226 11:13:26.448623 11813 net.cpp:104] Top shape: 256 512 1 1 (131072)
I0226 11:13:26.448696 11813 layer_factory.hpp:78] Creating layer relu4
I0226 11:13:26.448721 11813 net.cpp:68] Creating Layer relu4
I0226 11:13:26.448735 11813 net.cpp:395] relu4 <- fc4
I0226 11:13:26.448752 11813 net.cpp:346] relu4 -> fc4 (in-place)
I0226 11:13:26.448770 11813 net.cpp:97] Setting up relu4
I0226 11:13:26.448799 11813 net.cpp:104] Top shape: 256 512 1 1 (131072)
I0226 11:13:26.448812 11813 layer_factory.hpp:78] Creating layer drop4
I0226 11:13:26.448827 11813 net.cpp:68] Creating Layer drop4
I0226 11:13:26.448839 11813 net.cpp:395] drop4 <- fc4
I0226 11:13:26.448859 11813 net.cpp:346] drop4 -> fc4 (in-place)
I0226 11:13:26.448875 11813 net.cpp:97] Setting up drop4
I0226 11:13:26.448887 11813 net.cpp:104] Top shape: 256 512 1 1 (131072)
I0226 11:13:26.448899 11813 layer_factory.hpp:78] Creating layer fc5
I0226 11:13:26.448915 11813 net.cpp:68] Creating Layer fc5
I0226 11:13:26.448926 11813 net.cpp:395] fc5 <- fc4
I0226 11:13:26.448945 11813 net.cpp:357] fc5 -> fc5
I0226 11:13:26.448962 11813 net.cpp:97] Setting up fc5
I0226 11:13:26.460108 11813 net.cpp:104] Top shape: 256 512 1 1 (131072)
I0226 11:13:26.460146 11813 layer_factory.hpp:78] Creating layer relu5
I0226 11:13:26.460165 11813 net.cpp:68] Creating Layer relu5
I0226 11:13:26.460176 11813 net.cpp:395] relu5 <- fc5
I0226 11:13:26.460191 11813 net.cpp:346] relu5 -> fc5 (in-place)
I0226 11:13:26.460206 11813 net.cpp:97] Setting up relu5
I0226 11:13:26.460222 11813 net.cpp:104] Top shape: 256 512 1 1 (131072)
I0226 11:13:26.460234 11813 layer_factory.hpp:78] Creating layer drop5
I0226 11:13:26.460248 11813 net.cpp:68] Creating Layer drop5
I0226 11:13:26.460260 11813 net.cpp:395] drop5 <- fc5
I0226 11:13:26.460278 11813 net.cpp:346] drop5 -> fc5 (in-place)
I0226 11:13:26.460294 11813 net.cpp:97] Setting up drop5
I0226 11:13:26.460305 11813 net.cpp:104] Top shape: 256 512 1 1 (131072)
I0226 11:13:26.460316 11813 layer_factory.hpp:78] Creating layer fc6
I0226 11:13:26.460337 11813 net.cpp:68] Creating Layer fc6
I0226 11:13:26.460350 11813 net.cpp:395] fc6 <- fc5
I0226 11:13:26.460364 11813 net.cpp:357] fc6 -> fc6
I0226 11:13:26.460379 11813 net.cpp:97] Setting up fc6
I0226 11:13:26.462959 11813 net.cpp:104] Top shape: 256 121 1 1 (30976)
I0226 11:13:26.462990 11813 layer_factory.hpp:78] Creating layer fc6_fc6_0_split
I0226 11:13:26.463004 11813 net.cpp:68] Creating Layer fc6_fc6_0_split
I0226 11:13:26.463017 11813 net.cpp:395] fc6_fc6_0_split <- fc6
I0226 11:13:26.463037 11813 net.cpp:357] fc6_fc6_0_split -> fc6_fc6_0_split_0
I0226 11:13:26.463053 11813 net.cpp:357] fc6_fc6_0_split -> fc6_fc6_0_split_1
I0226 11:13:26.463069 11813 net.cpp:97] Setting up fc6_fc6_0_split
I0226 11:13:26.463083 11813 net.cpp:104] Top shape: 256 121 1 1 (30976)
I0226 11:13:26.463140 11813 net.cpp:104] Top shape: 256 121 1 1 (30976)
I0226 11:13:26.463152 11813 layer_factory.hpp:78] Creating layer prob
I0226 11:13:26.463168 11813 net.cpp:68] Creating Layer prob
I0226 11:13:26.463181 11813 net.cpp:395] prob <- fc6_fc6_0_split_0
I0226 11:13:26.463199 11813 net.cpp:357] prob -> prob
I0226 11:13:26.463217 11813 net.cpp:97] Setting up prob
I0226 11:13:26.463238 11813 net.cpp:104] Top shape: 256 121 1 1 (30976)
I0226 11:13:26.463249 11813 layer_factory.hpp:78] Creating layer accuracy
I0226 11:13:26.463269 11813 net.cpp:68] Creating Layer accuracy
I0226 11:13:26.463281 11813 net.cpp:395] accuracy <- prob
I0226 11:13:26.463294 11813 net.cpp:395] accuracy <- label_data_1_split_0
I0226 11:13:26.463313 11813 net.cpp:357] accuracy -> accuracy
I0226 11:13:26.463330 11813 net.cpp:97] Setting up accuracy
I0226 11:13:26.463346 11813 net.cpp:104] Top shape: 1 1 1 1 (1)
I0226 11:13:26.463357 11813 layer_factory.hpp:78] Creating layer loss
I0226 11:13:26.463371 11813 net.cpp:68] Creating Layer loss
I0226 11:13:26.463383 11813 net.cpp:395] loss <- fc6_fc6_0_split_1
I0226 11:13:26.463395 11813 net.cpp:395] loss <- label_data_1_split_1
I0226 11:13:26.463408 11813 net.cpp:357] loss -> loss
I0226 11:13:26.463429 11813 net.cpp:97] Setting up loss
I0226 11:13:26.463444 11813 layer_factory.hpp:78] Creating layer loss
I0226 11:13:26.463562 11813 net.cpp:104] Top shape: 1 1 1 1 (1)
I0226 11:13:26.463585 11813 net.cpp:110]     with loss weight 1
I0226 11:13:26.463614 11813 net.cpp:171] loss needs backward computation.
I0226 11:13:26.463626 11813 net.cpp:173] accuracy does not need backward computation.
I0226 11:13:26.463639 11813 net.cpp:173] prob does not need backward computation.
I0226 11:13:26.463650 11813 net.cpp:171] fc6_fc6_0_split needs backward computation.
…
