…
I0226 16:39:22.980834 32712 net.cpp:276] The NetState phase (0) differed from the phase (1) specified by a rule in layer accuracy
I0226 16:39:22.981025 32712 net.cpp:39] Initializing net from parameters: 
name: "cxxnet_nin"
layers {
  top: "data"
  top: "label"
  name: "data"
  type: DATA
  data_param {
    source: "/home/jaehyun/kaggle/nationalDataScienceBowl/data/typeD/train_lmdb"
    batch_size: 256
    backend: LMDB
    shuffle: true
  }
  include {
    phase: TRAIN
  }
  transform_param {
    mirror: true
    mean_file: "/home/jaehyun/kaggle/nationalDataScienceBowl/data/typeD/train_mean.binaryproto"
  }
}
layers {
  bottom: "data"
  top: "conv1"
  name: "conv1"
  type: CONVOLUTION
  blobs_lr: 1
  blobs_lr: 2
  weight_decay: 1
  weight_decay: 0
  convolution_param {
    num_output: 96
    pad: 2
    kernel_size: 5
    stride: 4
    weight_filler {
      type: "gaussian"
      std: 0.01
    }
    bias_filler {
      type: "constant"
      value: 0
    }
  }
}
layers {
  bottom: "conv1"
  top: "conv1"
  name: "relu1"
  type: RELU
  relu_param {
    negative_slope: 0.1
  }
}
layers {
  bottom: "conv1"
  top: "pool1"
  name: "pool1"
  type: POOLING
  pooling_param {
    pool: MAX
    kernel_size: 3
    stride: 2
  }
}
layers {
  bottom: "pool1"
  top: "conv2"
  name: "conv2"
  type: CONVOLUTION
  blobs_lr: 1
  blobs_lr: 2
  weight_decay: 1
  weight_decay: 0
  convolution_param {
    num_output: 128
    pad: 2
    kernel_size: 3
    group: 2
    weight_filler {
      type: "gaussian"
      std: 0.01
    }
    bias_filler {
      type: "constant"
      value: 1
    }
  }
}
layers {
  bottom: "conv2"
  top: "conv2"
  name: "relu2"
  type: RELU
  relu_param {
    negative_slope: 0.1
  }
}
layers {
  bottom: "conv2"
  top: "conv3"
  name: "conv3"
  type: CONVOLUTION
  blobs_lr: 1
  blobs_lr: 2
  weight_decay: 1
  weight_decay: 0
  convolution_param {
    num_output: 128
    pad: 1
    kernel_size: 3
    weight_filler {
      type: "gaussian"
      std: 0.01
    }
    bias_filler {
      type: "constant"
      value: 0
    }
  }
}
layers {
  bottom: "conv3"
  top: "conv3"
  name: "relu3"
  type: RELU
  relu_param {
    negative_slope: 0.1
  }
}
layers {
  bottom: "conv3"
  top: "cccp3"
  name: "cccp3"
  type: CONVOLUTION
  blobs_lr: 1
  blobs_lr: 2
  weight_decay: 1
  weight_decay: 0
  convolution_param {
    num_output: 128
    kernel_size: 1
    group: 1
    stride: 1
    weight_filler {
      type: "gaussian"
      std: 0.01
    }
    bias_filler {
      type: "constant"
      value: 0
    }
  }
}
layers {
  bottom: "cccp3"
  top: "cccp3"
  name: "relu_cccp3"
  type: RELU
  relu_param {
    negative_slope: 0.1
  }
}
layers {
  bottom: "cccp3"
  top: "pool3"
  name: "pool3"
  type: POOLING
  pooling_param {
    pool: MAX
    kernel_size: 3
    stride: 2
  }
}
layers {
  bottom: "pool3"
  top: "fc4"
  name: "fc4"
  type: INNER_PRODUCT
  blobs_lr: 1
  blobs_lr: 2
  weight_decay: 1
  weight_decay: 0
  inner_product_param {
    num_output: 512
    weight_filler {
      type: "gaussian"
      std: 0.005
    }
    bias_filler {
      type: "constant"
      value: 1
    }
  }
}
layers {
  bottom: "fc4"
  top: "fc4"
  name: "relu4"
  type: RELU
  relu_param {
    negative_slope: 0.1
  }
}
layers {
  bottom: "fc4"
  top: "fc4"
  name: "drop4"
  type: DROPOUT
  dropout_param {
    dropout_ratio: 0.5
  }
}
layers {
  bottom: "fc4"
  top: "fc5"
  name: "fc5"
  type: INNER_PRODUCT
  blobs_lr: 1
  blobs_lr: 2
  weight_decay: 1
  weight_decay: 0
  inner_product_param {
    num_output: 512
    weight_filler {
      type: "gaussian"
      std: 0.005
    }
    bias_filler {
      type: "constant"
      value: 1
    }
  }
}
layers {
  bottom: "fc5"
  top: "fc5"
  name: "relu5"
  type: RELU
  relu_param {
    negative_slope: 0.1
  }
}
layers {
  bottom: "fc5"
  top: "fc5"
  name: "drop5"
  type: DROPOUT
  dropout_param {
    dropout_ratio: 0.5
  }
}
layers {
  bottom: "fc5"
  top: "fc6"
  name: "fc6"
  type: INNER_PRODUCT
  blobs_lr: 1
  blobs_lr: 2
  weight_decay: 1
  weight_decay: 0
  inner_product_param {
    num_output: 121
    weight_filler {
      type: "gaussian"
      std: 0.01
    }
    bias_filler {
      type: "constant"
      value: 0
    }
  }
}
layers {
  bottom: "fc6"
  bottom: "label"
  top: "loss"
  name: "loss"
  type: SOFTMAX_LOSS
}
state {
  phase: TRAIN
}
I0226 16:39:22.982024 32712 layer_factory.hpp:78] Creating layer data
I0226 16:39:22.982053 32712 data_transformer.cpp:24] Loading mean file from/home/jaehyun/kaggle/nationalDataScienceBowl/data/typeD/train_mean.binaryproto
I0226 16:39:22.982206 32712 net.cpp:68] Creating Layer data
I0226 16:39:22.982230 32712 net.cpp:357] data -> data
I0226 16:39:22.982256 32712 net.cpp:357] data -> label
I0226 16:39:22.982280 32712 net.cpp:97] Setting up data
I0226 16:39:22.982300 32712 data_layer.cpp:34] Opening dataset /home/jaehyun/kaggle/nationalDataScienceBowl/data/typeD/train_lmdb
I0226 16:39:22.982422 32712 lmdb_dataset.cpp:73] what the fuck!!
I0226 16:39:22.982507 32712 data_layer.cpp:73] output data size: 256,3,48,48
I0226 16:39:22.985615 32712 net.cpp:104] Top shape: 256 3 48 48 (1769472)
I0226 16:39:22.985664 32712 net.cpp:104] Top shape: 256 1 1 1 (256)
I0226 16:39:22.985680 32712 layer_factory.hpp:78] Creating layer conv1
I0226 16:39:22.985785 32712 net.cpp:68] Creating Layer conv1
I0226 16:39:22.985826 32712 net.cpp:395] conv1 <- data
I0226 16:39:22.985864 32712 net.cpp:357] conv1 -> conv1
I0226 16:39:22.985883 32712 net.cpp:97] Setting up conv1
I0226 16:39:23.099022 32712 net.cpp:104] Top shape: 256 96 12 12 (3538944)
I0226 16:39:23.100467 32712 layer_factory.hpp:78] Creating layer relu1
I0226 16:39:23.101295 32712 net.cpp:68] Creating Layer relu1
I0226 16:39:23.101327 32712 net.cpp:395] relu1 <- conv1
I0226 16:39:23.101343 32712 net.cpp:346] relu1 -> conv1 (in-place)
I0226 16:39:23.101358 32712 net.cpp:97] Setting up relu1
I0226 16:39:23.101392 32712 net.cpp:104] Top shape: 256 96 12 12 (3538944)
I0226 16:39:23.101402 32712 layer_factory.hpp:78] Creating layer pool1
I0226 16:39:23.101418 32712 net.cpp:68] Creating Layer pool1
I0226 16:39:23.101425 32712 net.cpp:395] pool1 <- conv1
I0226 16:39:23.101434 32712 net.cpp:357] pool1 -> pool1
I0226 16:39:23.101445 32712 net.cpp:97] Setting up pool1
I0226 16:39:23.101481 32712 net.cpp:104] Top shape: 256 96 6 6 (884736)
I0226 16:39:23.101491 32712 layer_factory.hpp:78] Creating layer conv2
I0226 16:39:23.101510 32712 net.cpp:68] Creating Layer conv2
I0226 16:39:23.101516 32712 net.cpp:395] conv2 <- pool1
I0226 16:39:23.101527 32712 net.cpp:357] conv2 -> conv2
I0226 16:39:23.101541 32712 net.cpp:97] Setting up conv2
I0226 16:39:23.104411 32712 net.cpp:104] Top shape: 256 128 8 8 (2097152)
I0226 16:39:23.104439 32712 layer_factory.hpp:78] Creating layer relu2
I0226 16:39:23.104456 32712 net.cpp:68] Creating Layer relu2
I0226 16:39:23.104465 32712 net.cpp:395] relu2 <- conv2
I0226 16:39:23.104477 32712 net.cpp:346] relu2 -> conv2 (in-place)
I0226 16:39:23.104488 32712 net.cpp:97] Setting up relu2
I0226 16:39:23.104501 32712 net.cpp:104] Top shape: 256 128 8 8 (2097152)
I0226 16:39:23.104511 32712 layer_factory.hpp:78] Creating layer conv3
I0226 16:39:23.104523 32712 net.cpp:68] Creating Layer conv3
I0226 16:39:23.104532 32712 net.cpp:395] conv3 <- conv2
I0226 16:39:23.104548 32712 net.cpp:357] conv3 -> conv3
I0226 16:39:23.104562 32712 net.cpp:97] Setting up conv3
I0226 16:39:23.114941 32712 net.cpp:104] Top shape: 256 128 8 8 (2097152)
I0226 16:39:23.115084 32712 layer_factory.hpp:78] Creating layer relu3
I0226 16:39:23.115124 32712 net.cpp:68] Creating Layer relu3
I0226 16:39:23.115138 32712 net.cpp:395] relu3 <- conv3
I0226 16:39:23.115155 32712 net.cpp:346] relu3 -> conv3 (in-place)
I0226 16:39:23.115196 32712 net.cpp:97] Setting up relu3
I0226 16:39:23.115227 32712 net.cpp:104] Top shape: 256 128 8 8 (2097152)
I0226 16:39:23.115252 32712 layer_factory.hpp:78] Creating layer cccp3
I0226 16:39:23.115285 32712 net.cpp:68] Creating Layer cccp3
I0226 16:39:23.115309 32712 net.cpp:395] cccp3 <- conv3
I0226 16:39:23.115344 32712 net.cpp:357] cccp3 -> cccp3
I0226 16:39:23.115375 32712 net.cpp:97] Setting up cccp3
I0226 16:39:23.116225 32712 net.cpp:104] Top shape: 256 128 8 8 (2097152)
I0226 16:39:23.116251 32712 layer_factory.hpp:78] Creating layer relu_cccp3
I0226 16:39:23.116268 32712 net.cpp:68] Creating Layer relu_cccp3
I0226 16:39:23.116282 32712 net.cpp:395] relu_cccp3 <- cccp3
I0226 16:39:23.116297 32712 net.cpp:346] relu_cccp3 -> cccp3 (in-place)
I0226 16:39:23.116310 32712 net.cpp:97] Setting up relu_cccp3
I0226 16:39:23.116325 32712 net.cpp:104] Top shape: 256 128 8 8 (2097152)
I0226 16:39:23.116338 32712 layer_factory.hpp:78] Creating layer pool3
I0226 16:39:23.116353 32712 net.cpp:68] Creating Layer pool3
I0226 16:39:23.116364 32712 net.cpp:395] pool3 <- cccp3
I0226 16:39:23.116382 32712 net.cpp:357] pool3 -> pool3
I0226 16:39:23.116397 32712 net.cpp:97] Setting up pool3
I0226 16:39:23.116413 32712 net.cpp:104] Top shape: 256 128 4 4 (524288)
I0226 16:39:23.116426 32712 layer_factory.hpp:78] Creating layer fc4
I0226 16:39:23.116446 32712 net.cpp:68] Creating Layer fc4
I0226 16:39:23.116458 32712 net.cpp:395] fc4 <- pool3
I0226 16:39:23.116477 32712 net.cpp:357] fc4 -> fc4
I0226 16:39:23.116493 32712 net.cpp:97] Setting up fc4
I0226 16:39:23.159423 32712 net.cpp:104] Top shape: 256 512 1 1 (131072)
I0226 16:39:23.159492 32712 layer_factory.hpp:78] Creating layer relu4
I0226 16:39:23.159514 32712 net.cpp:68] Creating Layer relu4
I0226 16:39:23.159530 32712 net.cpp:395] relu4 <- fc4
I0226 16:39:23.159548 32712 net.cpp:346] relu4 -> fc4 (in-place)
I0226 16:39:23.159566 32712 net.cpp:97] Setting up relu4
I0226 16:39:23.159593 32712 net.cpp:104] Top shape: 256 512 1 1 (131072)
I0226 16:39:23.159606 32712 layer_factory.hpp:78] Creating layer drop4
I0226 16:39:23.159646 32712 net.cpp:68] Creating Layer drop4
I0226 16:39:23.159661 32712 net.cpp:395] drop4 <- fc4
I0226 16:39:23.159674 32712 net.cpp:346] drop4 -> fc4 (in-place)
I0226 16:39:23.159688 32712 net.cpp:97] Setting up drop4
I0226 16:39:23.159703 32712 net.cpp:104] Top shape: 256 512 1 1 (131072)
I0226 16:39:23.159715 32712 layer_factory.hpp:78] Creating layer fc5
I0226 16:39:23.159735 32712 net.cpp:68] Creating Layer fc5
I0226 16:39:23.159747 32712 net.cpp:395] fc5 <- fc4
I0226 16:39:23.159762 32712 net.cpp:357] fc5 -> fc5
I0226 16:39:23.159780 32712 net.cpp:97] Setting up fc5
I0226 16:39:23.170624 32712 net.cpp:104] Top shape: 256 512 1 1 (131072)
I0226 16:39:23.170647 32712 layer_factory.hpp:78] Creating layer relu5
I0226 16:39:23.170662 32712 net.cpp:68] Creating Layer relu5
I0226 16:39:23.170675 32712 net.cpp:395] relu5 <- fc5
I0226 16:39:23.170688 32712 net.cpp:346] relu5 -> fc5 (in-place)
I0226 16:39:23.170702 32712 net.cpp:97] Setting up relu5
I0226 16:39:23.170718 32712 net.cpp:104] Top shape: 256 512 1 1 (131072)
I0226 16:39:23.170730 32712 layer_factory.hpp:78] Creating layer drop5
I0226 16:39:23.170752 32712 net.cpp:68] Creating Layer drop5
I0226 16:39:23.170763 32712 net.cpp:395] drop5 <- fc5
I0226 16:39:23.170778 32712 net.cpp:346] drop5 -> fc5 (in-place)
I0226 16:39:23.170791 32712 net.cpp:97] Setting up drop5
I0226 16:39:23.170804 32712 net.cpp:104] Top shape: 256 512 1 1 (131072)
I0226 16:39:23.170814 32712 layer_factory.hpp:78] Creating layer fc6
I0226 16:39:23.170832 32712 net.cpp:68] Creating Layer fc6
I0226 16:39:23.170845 32712 net.cpp:395] fc6 <- fc5
I0226 16:39:23.170858 32712 net.cpp:357] fc6 -> fc6
I0226 16:39:23.170873 32712 net.cpp:97] Setting up fc6
I0226 16:39:23.173497 32712 net.cpp:104] Top shape: 256 121 1 1 (30976)
I0226 16:39:23.173521 32712 layer_factory.hpp:78] Creating layer loss
I0226 16:39:23.173538 32712 net.cpp:68] Creating Layer loss
I0226 16:39:23.173550 32712 net.cpp:395] loss <- fc6
I0226 16:39:23.173563 32712 net.cpp:395] loss <- label
I0226 16:39:23.173580 32712 net.cpp:357] loss -> loss
I0226 16:39:23.173599 32712 net.cpp:97] Setting up loss
I0226 16:39:23.173614 32712 layer_factory.hpp:78] Creating layer loss
I0226 16:39:23.173724 32712 net.cpp:104] Top shape: 1 1 1 1 (1)
I0226 16:39:23.173743 32712 net.cpp:110]     with loss weight 1
I0226 16:39:23.173794 32712 net.cpp:171] loss needs backward computation.
I0226 16:39:23.173806 32712 net.cpp:171] fc6 needs backward computation.
I0226 16:39:23.173817 32712 net.cpp:171] drop5 needs backward computation.
I0226 16:39:23.173827 32712 net.cpp:171] relu5 needs backward computation.
I0226 16:39:23.173837 32712 net.cpp:171] fc5 needs backward computation.
…
I0226 16:39:23.174772 32712 net.cpp:276] The NetState phase (1) differed from the phase (0) specified by a rule in layer data
I0226 16:39:23.174993 32712 net.cpp:39] Initializing net from parameters: 
name: "cxxnet_nin"
layers {
  top: "data"
  top: "label"
  name: "data"
  type: DATA
  data_param {
    source: "/home/jaehyun/kaggle/nationalDataScienceBowl/data/typeD/val_lmdb"
    batch_size: 256
    backend: LMDB
  }
  include {
    phase: TEST
  }
  transform_param {
    mirror: false
    mean_file: "/home/jaehyun/kaggle/nationalDataScienceBowl/data/typeD/train_mean.binaryproto"
  }
}
layers {
  bottom: "data"
  top: "conv1"
  name: "conv1"
  type: CONVOLUTION
  blobs_lr: 1
  blobs_lr: 2
  weight_decay: 1
  weight_decay: 0
  convolution_param {
    num_output: 96
    pad: 2
    kernel_size: 5
    stride: 4
    weight_filler {
      type: "gaussian"
      std: 0.01
    }
    bias_filler {
      type: "constant"
      value: 0
    }
  }
}
layers {
  bottom: "conv1"
  top: "conv1"
  name: "relu1"
  type: RELU
  relu_param {
    negative_slope: 0.1
  }
}
layers {
  bottom: "conv1"
  top: "pool1"
  name: "pool1"
  type: POOLING
  pooling_param {
    pool: MAX
    kernel_size: 3
    stride: 2
  }
}
layers {
  bottom: "pool1"
  top: "conv2"
  name: "conv2"
  type: CONVOLUTION
  blobs_lr: 1
  blobs_lr: 2
  weight_decay: 1
  weight_decay: 0
  convolution_param {
    num_output: 128
    pad: 2
    kernel_size: 3
    group: 2
    weight_filler {
      type: "gaussian"
      std: 0.01
    }
    bias_filler {
      type: "constant"
      value: 1
    }
  }
}
layers {
  bottom: "conv2"
  top: "conv2"
  name: "relu2"
  type: RELU
  relu_param {
    negative_slope: 0.1
  }
}
layers {
  bottom: "conv2"
  top: "conv3"
  name: "conv3"
  type: CONVOLUTION
  blobs_lr: 1
  blobs_lr: 2
  weight_decay: 1
  weight_decay: 0
  convolution_param {
    num_output: 128
    pad: 1
    kernel_size: 3
    weight_filler {
      type: "gaussian"
      std: 0.01
    }
    bias_filler {
      type: "constant"
      value: 0
    }
  }
}
layers {
  bottom: "conv3"
  top: "conv3"
  name: "relu3"
  type: RELU
  relu_param {
    negative_slope: 0.1
  }
}
layers {
  bottom: "conv3"
  top: "cccp3"
  name: "cccp3"
  type: CONVOLUTION
  blobs_lr: 1
  blobs_lr: 2
  weight_decay: 1
  weight_decay: 0
  convolution_param {
    num_output: 128
    kernel_size: 1
    group: 1
    stride: 1
    weight_filler {
      type: "gaussian"
      std: 0.01
    }
    bias_filler {
      type: "constant"
      value: 0
    }
  }
}
layers {
  bottom: "cccp3"
  top: "cccp3"
  name: "relu_cccp3"
  type: RELU
  relu_param {
    negative_slope: 0.1
  }
}
layers {
  bottom: "cccp3"
  top: "pool3"
  name: "pool3"
  type: POOLING
  pooling_param {
    pool: MAX
    kernel_size: 3
    stride: 2
  }
}
layers {
  bottom: "pool3"
  top: "fc4"
  name: "fc4"
  type: INNER_PRODUCT
  blobs_lr: 1
  blobs_lr: 2
  weight_decay: 1
  weight_decay: 0
  inner_product_param {
    num_output: 512
    weight_filler {
      type: "gaussian"
      std: 0.005
    }
    bias_filler {
      type: "constant"
      value: 1
    }
  }
}
layers {
  bottom: "fc4"
  top: "fc4"
  name: "relu4"
  type: RELU
  relu_param {
    negative_slope: 0.1
  }
}
layers {
  bottom: "fc4"
  top: "fc4"
  name: "drop4"
  type: DROPOUT
  dropout_param {
    dropout_ratio: 0.5
  }
}
layers {
  bottom: "fc4"
  top: "fc5"
  name: "fc5"
  type: INNER_PRODUCT
  blobs_lr: 1
  blobs_lr: 2
  weight_decay: 1
  weight_decay: 0
  inner_product_param {
    num_output: 512
    weight_filler {
      type: "gaussian"
      std: 0.005
    }
    bias_filler {
      type: "constant"
      value: 1
    }
  }
}
layers {
  bottom: "fc5"
  top: "fc5"
  name: "relu5"
  type: RELU
  relu_param {
    negative_slope: 0.1
  }
}
layers {
  bottom: "fc5"
  top: "fc5"
  name: "drop5"
  type: DROPOUT
  dropout_param {
    dropout_ratio: 0.5
  }
}
layers {
  bottom: "fc5"
  top: "fc6"
  name: "fc6"
  type: INNER_PRODUCT
  blobs_lr: 1
  blobs_lr: 2
  weight_decay: 1
  weight_decay: 0
  inner_product_param {
    num_output: 121
    weight_filler {
      type: "gaussian"
      std: 0.01
    }
    bias_filler {
      type: "constant"
      value: 0
    }
  }
}
layers {
  bottom: "fc6"
  top: "prob"
  name: "prob"
  type: SOFTMAX
  include {
    phase: TEST
  }
}
layers {
  bottom: "prob"
  bottom: "label"
  top: "accuracy"
  name: "accuracy"
  type: ACCURACY
  accuracy_param {
    top_k: 1
  }
  include {
    phase: TEST
  }
}
layers {
  bottom: "fc6"
  bottom: "label"
  top: "loss"
  name: "loss"
  type: SOFTMAX_LOSS
}
state {
  phase: TEST
}
I0226 16:39:23.176040 32712 layer_factory.hpp:78] Creating layer data
I0226 16:39:23.176064 32712 data_transformer.cpp:24] Loading mean file from/home/jaehyun/kaggle/nationalDataScienceBowl/data/typeD/train_mean.binaryproto
I0226 16:39:23.176189 32712 net.cpp:68] Creating Layer data
I0226 16:39:23.176208 32712 net.cpp:357] data -> data
I0226 16:39:23.176228 32712 net.cpp:357] data -> label
I0226 16:39:23.176244 32712 net.cpp:97] Setting up data
I0226 16:39:23.176257 32712 data_layer.cpp:34] Opening dataset /home/jaehyun/kaggle/nationalDataScienceBowl/data/typeD/val_lmdb
I0226 16:39:23.176332 32712 lmdb_dataset.cpp:73] what the fuck!!
I0226 16:39:23.176376 32712 data_layer.cpp:73] output data size: 256,3,48,48
I0226 16:39:23.178753 32712 net.cpp:104] Top shape: 256 3 48 48 (1769472)
I0226 16:39:23.178786 32712 net.cpp:104] Top shape: 256 1 1 1 (256)
I0226 16:39:23.178798 32712 layer_factory.hpp:78] Creating layer label_data_1_split
I0226 16:39:23.178823 32712 net.cpp:68] Creating Layer label_data_1_split
I0226 16:39:23.178836 32712 net.cpp:395] label_data_1_split <- label
I0226 16:39:23.178853 32712 net.cpp:357] label_data_1_split -> label_data_1_split_0
I0226 16:39:23.178916 32712 net.cpp:357] label_data_1_split -> label_data_1_split_1
I0226 16:39:23.178944 32712 net.cpp:97] Setting up label_data_1_split
I0226 16:39:23.178963 32712 net.cpp:104] Top shape: 256 1 1 1 (256)
I0226 16:39:23.178975 32712 net.cpp:104] Top shape: 256 1 1 1 (256)
I0226 16:39:23.178988 32712 layer_factory.hpp:78] Creating layer conv1
I0226 16:39:23.179008 32712 net.cpp:68] Creating Layer conv1
I0226 16:39:23.179020 32712 net.cpp:395] conv1 <- data
I0226 16:39:23.179035 32712 net.cpp:357] conv1 -> conv1
I0226 16:39:23.179051 32712 net.cpp:97] Setting up conv1
I0226 16:39:23.179757 32712 net.cpp:104] Top shape: 256 96 12 12 (3538944)
I0226 16:39:23.179791 32712 layer_factory.hpp:78] Creating layer relu1
I0226 16:39:23.179811 32712 net.cpp:68] Creating Layer relu1
I0226 16:39:23.179823 32712 net.cpp:395] relu1 <- conv1
I0226 16:39:23.179837 32712 net.cpp:346] relu1 -> conv1 (in-place)
I0226 16:39:23.179852 32712 net.cpp:97] Setting up relu1
I0226 16:39:23.179868 32712 net.cpp:104] Top shape: 256 96 12 12 (3538944)
I0226 16:39:23.179882 32712 layer_factory.hpp:78] Creating layer pool1
I0226 16:39:23.179901 32712 net.cpp:68] Creating Layer pool1
I0226 16:39:23.179914 32712 net.cpp:395] pool1 <- conv1
I0226 16:39:23.179929 32712 net.cpp:357] pool1 -> pool1
I0226 16:39:23.179942 32712 net.cpp:97] Setting up pool1
I0226 16:39:23.179963 32712 net.cpp:104] Top shape: 256 96 6 6 (884736)
I0226 16:39:23.179975 32712 layer_factory.hpp:78] Creating layer conv2
I0226 16:39:23.179994 32712 net.cpp:68] Creating Layer conv2
I0226 16:39:23.180007 32712 net.cpp:395] conv2 <- pool1
I0226 16:39:23.180022 32712 net.cpp:357] conv2 -> conv2
I0226 16:39:23.180038 32712 net.cpp:97] Setting up conv2
I0226 16:39:23.182461 32712 net.cpp:104] Top shape: 256 128 8 8 (2097152)
I0226 16:39:23.182487 32712 layer_factory.hpp:78] Creating layer relu2
I0226 16:39:23.182503 32712 net.cpp:68] Creating Layer relu2
I0226 16:39:23.182515 32712 net.cpp:395] relu2 <- conv2
I0226 16:39:23.182543 32712 net.cpp:346] relu2 -> conv2 (in-place)
I0226 16:39:23.182559 32712 net.cpp:97] Setting up relu2
I0226 16:39:23.182574 32712 net.cpp:104] Top shape: 256 128 8 8 (2097152)
I0226 16:39:23.182592 32712 layer_factory.hpp:78] Creating layer conv3
I0226 16:39:23.182613 32712 net.cpp:68] Creating Layer conv3
I0226 16:39:23.182626 32712 net.cpp:395] conv3 <- conv2
I0226 16:39:23.182643 32712 net.cpp:357] conv3 -> conv3
I0226 16:39:23.182662 32712 net.cpp:97] Setting up conv3
I0226 16:39:23.188863 32712 net.cpp:104] Top shape: 256 128 8 8 (2097152)
I0226 16:39:23.188892 32712 layer_factory.hpp:78] Creating layer relu3
I0226 16:39:23.188915 32712 net.cpp:68] Creating Layer relu3
I0226 16:39:23.188927 32712 net.cpp:395] relu3 <- conv3
I0226 16:39:23.188941 32712 net.cpp:346] relu3 -> conv3 (in-place)
I0226 16:39:23.188957 32712 net.cpp:97] Setting up relu3
I0226 16:39:23.188973 32712 net.cpp:104] Top shape: 256 128 8 8 (2097152)
I0226 16:39:23.188987 32712 layer_factory.hpp:78] Creating layer cccp3
I0226 16:39:23.189007 32712 net.cpp:68] Creating Layer cccp3
I0226 16:39:23.189019 32712 net.cpp:395] cccp3 <- conv3
I0226 16:39:23.189033 32712 net.cpp:357] cccp3 -> cccp3
I0226 16:39:23.189049 32712 net.cpp:97] Setting up cccp3
I0226 16:39:23.189808 32712 net.cpp:104] Top shape: 256 128 8 8 (2097152)
I0226 16:39:23.189834 32712 layer_factory.hpp:78] Creating layer relu_cccp3
I0226 16:39:23.189851 32712 net.cpp:68] Creating Layer relu_cccp3
I0226 16:39:23.189862 32712 net.cpp:395] relu_cccp3 <- cccp3
I0226 16:39:23.189879 32712 net.cpp:346] relu_cccp3 -> cccp3 (in-place)
I0226 16:39:23.189894 32712 net.cpp:97] Setting up relu_cccp3
I0226 16:39:23.189910 32712 net.cpp:104] Top shape: 256 128 8 8 (2097152)
I0226 16:39:23.189923 32712 layer_factory.hpp:78] Creating layer pool3
I0226 16:39:23.189937 32712 net.cpp:68] Creating Layer pool3
I0226 16:39:23.189949 32712 net.cpp:395] pool3 <- cccp3
I0226 16:39:23.189963 32712 net.cpp:357] pool3 -> pool3
I0226 16:39:23.189977 32712 net.cpp:97] Setting up pool3
I0226 16:39:23.190035 32712 net.cpp:104] Top shape: 256 128 4 4 (524288)
I0226 16:39:23.190050 32712 layer_factory.hpp:78] Creating layer fc4
I0226 16:39:23.190070 32712 net.cpp:68] Creating Layer fc4
I0226 16:39:23.190083 32712 net.cpp:395] fc4 <- pool3
I0226 16:39:23.190098 32712 net.cpp:357] fc4 -> fc4
I0226 16:39:23.190117 32712 net.cpp:97] Setting up fc4
I0226 16:39:23.236073 32712 net.cpp:104] Top shape: 256 512 1 1 (131072)
I0226 16:39:23.236142 32712 layer_factory.hpp:78] Creating layer relu4
I0226 16:39:23.236166 32712 net.cpp:68] Creating Layer relu4
I0226 16:39:23.236181 32712 net.cpp:395] relu4 <- fc4
I0226 16:39:23.236198 32712 net.cpp:346] relu4 -> fc4 (in-place)
I0226 16:39:23.236215 32712 net.cpp:97] Setting up relu4
I0226 16:39:23.236245 32712 net.cpp:104] Top shape: 256 512 1 1 (131072)
I0226 16:39:23.236258 32712 layer_factory.hpp:78] Creating layer drop4
I0226 16:39:23.236274 32712 net.cpp:68] Creating Layer drop4
I0226 16:39:23.236285 32712 net.cpp:395] drop4 <- fc4
I0226 16:39:23.236310 32712 net.cpp:346] drop4 -> fc4 (in-place)
I0226 16:39:23.236326 32712 net.cpp:97] Setting up drop4
I0226 16:39:23.236338 32712 net.cpp:104] Top shape: 256 512 1 1 (131072)
I0226 16:39:23.236351 32712 layer_factory.hpp:78] Creating layer fc5
I0226 16:39:23.236367 32712 net.cpp:68] Creating Layer fc5
I0226 16:39:23.236378 32712 net.cpp:395] fc5 <- fc4
I0226 16:39:23.236397 32712 net.cpp:357] fc5 -> fc5
I0226 16:39:23.236413 32712 net.cpp:97] Setting up fc5
I0226 16:39:23.247232 32712 net.cpp:104] Top shape: 256 512 1 1 (131072)
I0226 16:39:23.247256 32712 layer_factory.hpp:78] Creating layer relu5
I0226 16:39:23.247277 32712 net.cpp:68] Creating Layer relu5
I0226 16:39:23.247290 32712 net.cpp:395] relu5 <- fc5
I0226 16:39:23.247304 32712 net.cpp:346] relu5 -> fc5 (in-place)
I0226 16:39:23.247318 32712 net.cpp:97] Setting up relu5
I0226 16:39:23.247334 32712 net.cpp:104] Top shape: 256 512 1 1 (131072)
I0226 16:39:23.247346 32712 layer_factory.hpp:78] Creating layer drop5
I0226 16:39:23.247360 32712 net.cpp:68] Creating Layer drop5
I0226 16:39:23.247372 32712 net.cpp:395] drop5 <- fc5
I0226 16:39:23.247388 32712 net.cpp:346] drop5 -> fc5 (in-place)
I0226 16:39:23.247402 32712 net.cpp:97] Setting up drop5
I0226 16:39:23.247416 32712 net.cpp:104] Top shape: 256 512 1 1 (131072)
I0226 16:39:23.247426 32712 layer_factory.hpp:78] Creating layer fc6
I0226 16:39:23.247442 32712 net.cpp:68] Creating Layer fc6
I0226 16:39:23.247452 32712 net.cpp:395] fc6 <- fc5
I0226 16:39:23.247478 32712 net.cpp:357] fc6 -> fc6
I0226 16:39:23.247494 32712 net.cpp:97] Setting up fc6
I0226 16:39:23.250056 32712 net.cpp:104] Top shape: 256 121 1 1 (30976)
I0226 16:39:23.250077 32712 layer_factory.hpp:78] Creating layer fc6_fc6_0_split
I0226 16:39:23.250092 32712 net.cpp:68] Creating Layer fc6_fc6_0_split
I0226 16:39:23.250104 32712 net.cpp:395] fc6_fc6_0_split <- fc6
I0226 16:39:23.250118 32712 net.cpp:357] fc6_fc6_0_split -> fc6_fc6_0_split_0
I0226 16:39:23.250134 32712 net.cpp:357] fc6_fc6_0_split -> fc6_fc6_0_split_1
I0226 16:39:23.250150 32712 net.cpp:97] Setting up fc6_fc6_0_split
I0226 16:39:23.250164 32712 net.cpp:104] Top shape: 256 121 1 1 (30976)
I0226 16:39:23.250175 32712 net.cpp:104] Top shape: 256 121 1 1 (30976)
I0226 16:39:23.250186 32712 layer_factory.hpp:78] Creating layer prob
I0226 16:39:23.250205 32712 net.cpp:68] Creating Layer prob
I0226 16:39:23.250216 32712 net.cpp:395] prob <- fc6_fc6_0_split_0
I0226 16:39:23.250231 32712 net.cpp:357] prob -> prob
I0226 16:39:23.250247 32712 net.cpp:97] Setting up prob
I0226 16:39:23.250267 32712 net.cpp:104] Top shape: 256 121 1 1 (30976)
I0226 16:39:23.250279 32712 layer_factory.hpp:78] Creating layer accuracy
I0226 16:39:23.250300 32712 net.cpp:68] Creating Layer accuracy
I0226 16:39:23.250313 32712 net.cpp:395] accuracy <- prob
I0226 16:39:23.250325 32712 net.cpp:395] accuracy <- label_data_1_split_0
I0226 16:39:23.250339 32712 net.cpp:357] accuracy -> accuracy
I0226 16:39:23.250356 32712 net.cpp:97] Setting up accuracy
I0226 16:39:23.250372 32712 net.cpp:104] Top shape: 1 1 1 1 (1)
I0226 16:39:23.250440 32712 layer_factory.hpp:78] Creating layer loss
I0226 16:39:23.250459 32712 net.cpp:68] Creating Layer loss
I0226 16:39:23.250473 32712 net.cpp:395] loss <- fc6_fc6_0_split_1
I0226 16:39:23.250485 32712 net.cpp:395] loss <- label_data_1_split_1
I0226 16:39:23.250499 32712 net.cpp:357] loss -> loss
I0226 16:39:23.250514 32712 net.cpp:97] Setting up loss
I0226 16:39:23.250527 32712 layer_factory.hpp:78] Creating layer loss
I0226 16:39:23.250628 32712 net.cpp:104] Top shape: 1 1 1 1 (1)
I0226 16:39:23.250645 32712 net.cpp:110]     with loss weight 1
I0226 16:39:23.250669 32712 net.cpp:171] loss needs backward computation.
I0226 16:39:23.250681 32712 net.cpp:173] accuracy does not need backward computation.
I0226 16:39:23.250692 32712 net.cpp:173] prob does not need backward computation.
I0226 16:39:23.250704 32712 net.cpp:171] fc6_fc6_0_split needs backward computation.
…
