…
  transform_param {
    mirror: true
    mean_file: "/media/data/kaggle/nationalDataScienceBowl/data/typeF/train_mean.binaryproto"
    affine_param {
      x_stretch_unirnd_range: 0.01
      y_stretch_unirnd_range: 0.01
      rotation_unirnd_range: 180
      max_translation: 5
      background_color: 255
    }
  }
  image_data_affine_param {
    source: "/media/data/kaggle/nationalDataScienceBowl/data/typeF/train.txt"
    scale: 0.00390625
    batch_size: 128
    shuffle: true
    new_size: 96
    is_color: false
    root_folder: "/media/data/kaggle/nationalDataScienceBowl/data/typeF/"
  }
}
layers {
  bottom: "data"
  top: "conv1/7x7_s2"
  name: "conv1/7x7_s2"
  type: CONVOLUTION
  blobs_lr: 1
  blobs_lr: 2
  weight_decay: 1
  weight_decay: 0
  convolution_param {
    num_output: 64
    pad: 0
    kernel_size: 4
    stride: 2
    weight_filler {
      type: "xavier"
      std: 0.1
    }
    bias_filler {
      type: "constant"
      value: 0.2
    }
  }
}
layers {
  bottom: "conv1/7x7_s2"
  top: "conv1/7x7_s2"
  name: "conv1/relu_7x7"
  type: RELU
}
layers {
  bottom: "conv1/7x7_s2"
  top: "pool1/3x3_s2"
  name: "pool1/3x3_s2"
  type: POOLING
  pooling_param {
    pool: MAX
    kernel_size: 3
    stride: 2
  }
}
layers {
  bottom: "pool1/3x3_s2"
  top: "pool1/norm1"
  name: "pool1/norm1"
  type: LRN
  lrn_param {
    local_size: 5
    alpha: 0.0001
    beta: 0.75
  }
}
layers {
  bottom: "pool1/norm1"
  top: "conv2/3x3_reduce"
  name: "conv2/3x3_reduce"
  type: CONVOLUTION
  blobs_lr: 1
  blobs_lr: 2
  weight_decay: 1
  weight_decay: 0
  convolution_param {
    num_output: 64
    kernel_size: 1
    weight_filler {
      type: "xavier"
      std: 0.1
    }
    bias_filler {
      type: "constant"
      value: 0.2
    }
  }
}
layers {
  bottom: "conv2/3x3_reduce"
  top: "conv2/3x3_reduce"
  name: "conv2/relu_3x3_reduce"
  type: RELU
}
layers {
  bottom: "conv2/3x3_reduce"
  top: "conv2/3x3"
  name: "conv2/3x3"
  type: CONVOLUTION
  blobs_lr: 1
  blobs_lr: 2
  weight_decay: 1
  weight_decay: 0
  convolution_param {
    num_output: 192
    pad: 1
    kernel_size: 3
    weight_filler {
      type: "xavier"
      std: 0.03
    }
    bias_filler {
      type: "constant"
      value: 0.2
    }
  }
}
layers {
  bottom: "conv2/3x3"
  top: "conv2/3x3"
  name: "conv2/relu_3x3"
  type: RELU
}
layers {
  bottom: "conv2/3x3"
  top: "conv2/norm2"
  name: "conv2/norm2"
  type: LRN
  lrn_param {
    local_size: 5
    alpha: 0.0001
    beta: 0.75
  }
}
layers {
  bottom: "conv2/norm2"
  top: "pool2/3x3_s2"
  name: "pool2/3x3_s2"
  type: POOLING
  pooling_param {
    pool: MAX
    kernel_size: 3
    stride: 2
  }
}
layers {
  bottom: "pool2/3x3_s2"
  top: "inception_3a/1x1"
  name: "inception_3a/1x1"
  type: CONVOLUTION
  blobs_lr: 1
  blobs_lr: 2
  weight_decay: 1
  weight_decay: 0
  convolution_param {
    num_output: 64
    kernel_size: 1
    weight_filler {
      type: "xavier"
      std: 0.03
    }
    bias_filler {
      type: "constant"
      value: 0.2
    }
  }
}
layers {
  bottom: "inception_3a/1x1"
  top: "inception_3a/1x1"
  name: "inception_3a/relu_1x1"
  type: RELU
}
layers {
  bottom: "pool2/3x3_s2"
  top: "inception_3a/3x3_reduce"
  name: "inception_3a/3x3_reduce"
  type: CONVOLUTION
  blobs_lr: 1
  blobs_lr: 2
  weight_decay: 1
  weight_decay: 0
  convolution_param {
    num_output: 96
    kernel_size: 1
    weight_filler {
      type: "xavier"
      std: 0.09
    }
    bias_filler {
      type: "constant"
      value: 0.2
    }
  }
}
layers {
  bottom: "inception_3a/3x3_reduce"
  top: "inception_3a/3x3_reduce"
  name: "inception_3a/relu_3x3_reduce"
  type: RELU
}
layers {
  bottom: "inception_3a/3x3_reduce"
  top: "inception_3a/3x3"
  name: "inception_3a/3x3"
  type: CONVOLUTION
  blobs_lr: 1
  blobs_lr: 2
  weight_decay: 1
  weight_decay: 0
  convolution_param {
    num_output: 128
    pad: 1
    kernel_size: 3
    weight_filler {
      type: "xavier"
      std: 0.03
    }
    bias_filler {
      type: "constant"
      value: 0.2
    }
  }
}
layers {
  bottom: "inception_3a/3x3"
  top: "inception_3a/3x3"
  name: "inception_3a/relu_3x3"
  type: RELU
}
layers {
  bottom: "pool2/3x3_s2"
  top: "inception_3a/5x5_reduce"
  name: "inception_3a/5x5_reduce"
  type: CONVOLUTION
  blobs_lr: 1
  blobs_lr: 2
  weight_decay: 1
  weight_decay: 0
  convolution_param {
    num_output: 16
    kernel_size: 1
    weight_filler {
      type: "xavier"
      std: 0.2
    }
    bias_filler {
      type: "constant"
      value: 0.2
    }
  }
}
layers {
  bottom: "inception_3a/5x5_reduce"
  top: "inception_3a/5x5_reduce"
  name: "inception_3a/relu_5x5_reduce"
  type: RELU
}
layers {
  bottom: "inception_3a/5x5_reduce"
  top: "inception_3a/5x5"
  name: "inception_3a/5x5"
  type: CONVOLUTION
  blobs_lr: 1
  blobs_lr: 2
  weight_decay: 1
  weight_decay: 0
  convolution_param {
    num_output: 32
    pad: 2
    kernel_size: 5
    weight_filler {
      type: "xavier"
      std: 0.03
    }
    bias_filler {
      type: "constant"
      value: 0.2
    }
  }
}
layers {
  bottom: "inception_3a/5x5"
  top: "inception_3a/5x5"
  name: "inception_3a/relu_5x5"
  type: RELU
}
layers {
  bottom: "pool2/3x3_s2"
  top: "inception_3a/pool"
  name: "inception_3a/pool"
  type: POOLING
  pooling_param {
    pool: MAX
    kernel_size: 3
    stride: 1
    pad: 1
  }
}
layers {
  bottom: "inception_3a/pool"
  top: "inception_3a/pool_proj"
  name: "inception_3a/pool_proj"
  type: CONVOLUTION
  blobs_lr: 1
  blobs_lr: 2
  weight_decay: 1
  weight_decay: 0
  convolution_param {
    num_output: 32
    kernel_size: 1
    weight_filler {
      type: "xavier"
      std: 0.1
    }
    bias_filler {
      type: "constant"
      value: 0.2
    }
  }
}
layers {
  bottom: "inception_3a/pool_proj"
  top: "inception_3a/pool_proj"
  name: "inception_3a/relu_pool_proj"
  type: RELU
}
layers {
  bottom: "inception_3a/1x1"
  bottom: "inception_3a/3x3"
  bottom: "inception_3a/5x5"
  bottom: "inception_3a/pool_proj"
  top: "inception_3a/output"
  name: "inception_3a/output"
  type: CONCAT
}
layers {
  bottom: "inception_3a/output"
  top: "inception_3b/1x1"
  name: "inception_3b/1x1"
  type: CONVOLUTION
  blobs_lr: 1
  blobs_lr: 2
  weight_decay: 1
  weight_decay: 0
  convolution_param {
    num_output: 128
    kernel_size: 1
    weight_filler {
      type: "xavier"
      std: 0.03
    }
    bias_filler {
      type: "constant"
      value: 0.2
    }
  }
}
layers {
  bottom: "inception_3b/1x1"
  top: "inception_3b/1x1"
  name: "inception_3b/relu_1x1"
  type: RELU
}
layers {
  bottom: "inception_3a/output"
  top: "inception_3b/3x3_reduce"
  name: "inception_3b/3x3_reduce"
  type: CONVOLUTION
  blobs_lr: 1
  blobs_lr: 2
  weight_decay: 1
  weight_decay: 0
  convolution_param {
    num_output: 128
    kernel_size: 1
    weight_filler {
      type: "xavier"
      std: 0.09
    }
    bias_filler {
      type: "constant"
      value: 0.2
    }
  }
}
layers {
  bottom: "inception_3b/3x3_reduce"
  top: "inception_3b/3x3_reduce"
  name: "inception_3b/relu_3x3_reduce"
  type: RELU
}
layers {
  bottom: "inception_3b/3x3_reduce"
  top: "inception_3b/3x3"
  name: "inception_3b/3x3"
  type: CONVOLUTION
  blobs_lr: 1
  blobs_lr: 2
  weight_decay: 1
  weight_decay: 0
  convolution_param {
    num_output: 192
    pad: 1
    kernel_size: 3
    weight_filler {
      type: "xavier"
      std: 0.03
    }
    bias_filler {
      type: "constant"
      value: 0.2
    }
  }
}
layers {
  bottom: "inception_3b/3x3"
  top: "inception_3b/3x3"
  name: "inception_3b/relu_3x3"
  type: RELU
}
layers {
  bottom: "inception_3a/output"
  top: "inception_3b/5x5_reduce"
  name: "inception_3b/5x5_reduce"
  type: CONVOLUTION
  blobs_lr: 1
  blobs_lr: 2
  weight_decay: 1
  weight_decay: 0
  convolution_param {
    num_output: 32
    kernel_size: 1
    weight_filler {
      type: "xavier"
      std: 0.2
    }
    bias_filler {
      type: "constant"
      value: 0.2
    }
  }
}
layers {
  bottom: "inception_3b/5x5_reduce"
  top: "inception_3b/5x5_reduce"
  name: "inception_3b/relu_5x5_reduce"
  type: RELU
}
layers {
  bottom: "inception_3b/5x5_reduce"
  top: "inception_3b/5x5"
  name: "inception_3b/5x5"
  type: CONVOLUTION
  blobs_lr: 1
  blobs_lr: 2
  weight_decay: 1
  weight_decay: 0
  convolution_param {
    num_output: 96
    pad: 2
    kernel_size: 5
    weight_filler {
      type: "xavier"
      std: 0.03
    }
    bias_filler {
      type: "constant"
      value: 0.2
    }
  }
}
layers {
  bottom: "inception_3b/5x5"
  top: "inception_3b/5x5"
  name: "inception_3b/relu_5x5"
  type: RELU
}
layers {
  bottom: "inception_3a/output"
  top: "inception_3b/pool"
  name: "inception_3b/pool"
  type: POOLING
  pooling_param {
    pool: MAX
    kernel_size: 3
    stride: 1
    pad: 1
  }
}
layers {
  bottom: "inception_3b/pool"
  top: "inception_3b/pool_proj"
  name: "inception_3b/pool_proj"
  type: CONVOLUTION
  blobs_lr: 1
  blobs_lr: 2
  weight_decay: 1
  weight_decay: 0
  convolution_param {
    num_output: 64
    kernel_size: 1
    weight_filler {
      type: "xavier"
      std: 0.1
    }
    bias_filler {
      type: "constant"
      value: 0.2
    }
  }
}
layers {
  bottom: "inception_3b/pool_proj"
  top: "inception_3b/pool_proj"
  name: "inception_3b/relu_pool_proj"
  type: RELU
}
layers {
  bottom: "inception_3b/1x1"
  bottom: "inception_3b/3x3"
  bottom: "inception_3b/5x5"
  bottom: "inception_3b/pool_proj"
  top: "inception_3b/output"
  name: "inception_3b/output"
  type: CONCAT
}
layers {
  bottom: "inception_3b/output"
  top: "pool3/3x3_s2"
  name: "pool3/3x3_s2"
  type: POOLING
  pooling_param {
    pool: MAX
    kernel_size: 3
    stride: 2
  }
}
layers {
  bottom: "pool3/3x3_s2"
  top: "inception_4a/1x1"
  name: "inception_4a/1x1"
  type: CONVOLUTION
  blobs_lr: 1
  blobs_lr: 2
  weight_decay: 1
  weight_decay: 0
  convolution_param {
    num_output: 192
    kernel_size: 1
    weight_filler {
      type: "xavier"
      std: 0.03
    }
    bias_filler {
      type: "constant"
      value: 0.2
    }
  }
}
layers {
  bottom: "inception_4a/1x1"
  top: "inception_4a/1x1"
  name: "inception_4a/relu_1x1"
  type: RELU
}
layers {
  bottom: "pool3/3x3_s2"
  top: "inception_4a/3x3_reduce"
  name: "inception_4a/3x3_reduce"
  type: CONVOLUTION
  blobs_lr: 1
  blobs_lr: 2
  weight_decay: 1
  weight_decay: 0
  convolution_param {
    num_output: 96
    kernel_size: 1
    weight_filler {
      type: "xavier"
      std: 0.09
    }
    bias_filler {
      type: "constant"
      value: 0.2
    }
  }
}
layers {
  bottom: "inception_4a/3x3_reduce"
  top: "inception_4a/3x3_reduce"
  name: "inception_4a/relu_3x3_reduce"
  type: RELU
}
layers {
  bottom: "inception_4a/3x3_reduce"
  top: "inception_4a/3x3"
  name: "inception_4a/3x3"
  type: CONVOLUTION
  blobs_lr: 1
  blobs_lr: 2
  weight_decay: 1
  weight_decay: 0
  convolution_param {
    num_output: 208
    pad: 1
    kernel_size: 3
    weight_filler {
      type: "xavier"
      std: 0.03
    }
    bias_filler {
      type: "constant"
      value: 0.2
    }
  }
}
layers {
  bottom: "inception_4a/3x3"
  top: "inception_4a/3x3"
  name: "inception_4a/relu_3x3"
  type: RELU
}
layers {
  bottom: "pool3/3x3_s2"
  top: "inception_4a/5x5_reduce"
  name: "inception_4a/5x5_reduce"
  type: CONVOLUTION
  blobs_lr: 1
  blobs_lr: 2
  weight_decay: 1
  weight_decay: 0
  convolution_param {
    num_output: 16
    kernel_size: 1
    weight_filler {
      type: "xavier"
      std: 0.2
    }
    bias_filler {
      type: "constant"
      value: 0.2
    }
  }
}
layers {
  bottom: "inception_4a/5x5_reduce"
  top: "inception_4a/5x5_reduce"
  name: "inception_4a/relu_5x5_reduce"
  type: RELU
}
layers {
  bottom: "inception_4a/5x5_reduce"
  top: "inception_4a/5x5"
  name: "inception_4a/5x5"
  type: CONVOLUTION
  blobs_lr: 1
  blobs_lr: 2
  weight_decay: 1
  weight_decay: 0
  convolution_param {
    num_output: 48
    pad: 2
    kernel_size: 5
    weight_filler {
      type: "xavier"
      std: 0.03
    }
    bias_filler {
      type: "constant"
      value: 0.2
    }
  }
}
layers {
  bottom: "inception_4a/5x5"
  top: "inception_4a/5x5"
  name: "inception_4a/relu_5x5"
  type: RELU
}
layers {
  bottom: "pool3/3x3_s2"
  top: "inception_4a/pool"
  name: "inception_4a/pool"
  type: POOLING
  pooling_param {
    pool: MAX
    kernel_size: 3
    stride: 1
    pad: 1
  }
}
layers {
  bottom: "inception_4a/pool"
  top: "inception_4a/pool_proj"
  name: "inception_4a/pool_proj"
  type: CONVOLUTION
  blobs_lr: 1
  blobs_lr: 2
  weight_decay: 1
  weight_decay: 0
  convolution_param {
    num_output: 64
    kernel_size: 1
    weight_filler {
      type: "xavier"
      std: 0.1
    }
    bias_filler {
      type: "constant"
      value: 0.2
    }
  }
}
layers {
  bottom: "inception_4a/pool_proj"
  top: "inception_4a/pool_proj"
  name: "inception_4a/relu_pool_proj"
  type: RELU
}
layers {
  bottom: "inception_4a/1x1"
  bottom: "inception_4a/3x3"
  bottom: "inception_4a/5x5"
  bottom: "inception_4a/pool_proj"
  top: "inception_4a/output"
  name: "inception_4a/output"
  type: CONCAT
}
layers {
  bottom: "inception_4a/output"
  top: "loss1/ave_pool"
  name: "loss1/ave_pool"
  type: POOLING
  pooling_param {
    pool: AVE
    kernel_size: 5
    stride: 3
  }
}
layers {
  bottom: "loss1/ave_pool"
  top: "loss1/conv"
  name: "loss1/conv"
  type: CONVOLUTION
  blobs_lr: 1
  blobs_lr: 2
  weight_decay: 1
  weight_decay: 0
  convolution_param {
    num_output: 128
    kernel_size: 1
    weight_filler {
      type: "xavier"
      std: 0.08
    }
    bias_filler {
      type: "constant"
      value: 0.2
    }
  }
}
layers {
  bottom: "loss1/conv"
  top: "loss1/conv"
  name: "loss1/relu_conv"
  type: RELU
}
layers {
  bottom: "loss1/conv"
  top: "loss1/fc"
  name: "loss1/fc"
  type: INNER_PRODUCT
  blobs_lr: 1
  blobs_lr: 2
  weight_decay: 1
  weight_decay: 0
  inner_product_param {
    num_output: 1024
    weight_filler {
      type: "xavier"
      std: 0.02
    }
    bias_filler {
      type: "constant"
      value: 0.2
    }
  }
}
layers {
  bottom: "loss1/fc"
  top: "loss1/fc"
  name: "loss1/relu_fc"
  type: RELU
}
layers {
  bottom: "loss1/fc"
  top: "loss1/fc"
  name: "loss1/drop_fc"
  type: DROPOUT
  dropout_param {
    dropout_ratio: 0.7
  }
}
layers {
  bottom: "loss1/fc"
  top: "loss1/classifier"
  name: "loss1/classifier"
  type: INNER_PRODUCT
  blobs_lr: 1
  blobs_lr: 2
  weight_decay: 1
  weight_decay: 0
  inner_product_param {
    num_output: 121
    weight_filler {
      type: "xavier"
      std: 0.0009765625
    }
    bias_filler {
      type: "constant"
      value: 0
    }
  }
}
layers {
  bottom: "loss1/classifier"
  bottom: "label"
  top: "loss1/loss1"
  name: "loss1/loss"
  type: SOFTMAX_LOSS
  loss_weight: 0.3
}
layers {
  bottom: "inception_4a/output"
  top: "inception_4b/1x1"
  name: "inception_4b/1x1"
  type: CONVOLUTION
  blobs_lr: 1
  blobs_lr: 2
  weight_decay: 1
  weight_decay: 0
  convolution_param {
    num_output: 160
    kernel_size: 1
    weight_filler {
      type: "xavier"
      std: 0.03
    }
    bias_filler {
      type: "constant"
      value: 0.2
    }
  }
}
layers {
  bottom: "inception_4b/1x1"
  top: "inception_4b/1x1"
  name: "inception_4b/relu_1x1"
  type: RELU
}
layers {
  bottom: "inception_4a/output"
  top: "inception_4b/3x3_reduce"
  name: "inception_4b/3x3_reduce"
  type: CONVOLUTION
  blobs_lr: 1
  blobs_lr: 2
  weight_decay: 1
  weight_decay: 0
  convolution_param {
    num_output: 112
    kernel_size: 1
    weight_filler {
      type: "xavier"
      std: 0.09
    }
    bias_filler {
      type: "constant"
      value: 0.2
    }
  }
}
layers {
  bottom: "inception_4b/3x3_reduce"
  top: "inception_4b/3x3_reduce"
  name: "inception_4b/relu_3x3_reduce"
  type: RELU
}
layers {
  bottom: "inception_4b/3x3_reduce"
  top: "inception_4b/3x3"
  name: "inception_4b/3x3"
  type: CONVOLUTION
  blobs_lr: 1
  blobs_lr: 2
  weight_decay: 1
  weight_decay: 0
  convolution_param {
    num_output: 224
    pad: 1
    kernel_size: 3
    weight_filler {
      type: "xavier"
      std: 0.03
    }
    bias_filler {
      type: "constant"
      value: 0.2
    }
  }
}
layers {
  bottom: "inception_4b/3x3"
  top: "inception_4b/3x3"
  name: "inception_4b/relu_3x3"
  type: RELU
}
layers {
  bottom: "inception_4a/output"
  top: "inception_4b/5x5_reduce"
  name: "inception_4b/5x5_reduce"
  type: CONVOLUTION
  blobs_lr: 1
  blobs_lr: 2
  weight_decay: 1
  weight_decay: 0
  convolution_param {
    num_output: 24
    kernel_size: 1
    weight_filler {
      type: "xavier"
      std: 0.2
    }
    bias_filler {
      type: "constant"
      value: 0.2
    }
  }
}
layers {
  bottom: "inception_4b/5x5_reduce"
  top: "inception_4b/5x5_reduce"
  name: "inception_4b/relu_5x5_reduce"
  type: RELU
}
layers {
  bottom: "inception_4b/5x5_reduce"
  top: "inception_4b/5x5"
  name: "inception_4b/5x5"
  type: CONVOLUTION
  blobs_lr: 1
  blobs_lr: 2
  weight_decay: 1
  weight_decay: 0
  convolution_param {
    num_output: 64
    pad: 2
    kernel_size: 5
    weight_filler {
      type: "xavier"
      std: 0.03
    }
    bias_filler {
      type: "constant"
      value: 0.2
    }
  }
}
layers {
  bottom: "inception_4b/5x5"
  top: "inception_4b/5x5"
  name: "inception_4b/relu_5x5"
  type: RELU
}
layers {
  bottom: "inception_4a/output"
  top: "inception_4b/pool"
  name: "inception_4b/pool"
  type: POOLING
  pooling_param {
    pool: MAX
    kernel_size: 3
    stride: 1
    pad: 1
  }
}
layers {
  bottom: "inception_4b/pool"
  top: "inception_4b/pool_proj"
  name: "inception_4b/pool_proj"
  type: CONVOLUTION
  blobs_lr: 1
  blobs_lr: 2
  weight_decay: 1
  weight_decay: 0
  convolution_param {
    num_output: 64
    kernel_size: 1
    weight_filler {
      type: "xavier"
      std: 0.1
    }
    bias_filler {
      type: "constant"
      value: 0.2
    }
  }
}
layers {
  bottom: "inception_4b/pool_proj"
  top: "inception_4b/pool_proj"
  name: "inception_4b/relu_pool_proj"
  type: RELU
}
layers {
  bottom: "inception_4b/1x1"
  bottom: "inception_4b/3x3"
  bottom: "inception_4b/5x5"
  bottom: "inception_4b/pool_proj"
  top: "inception_4b/output"
  name: "inception_4b/output"
  type: CONCAT
}
layers {
  bottom: "inception_4b/output"
  top: "inception_4c/1x1"
  name: "inception_4c/1x1"
  type: CONVOLUTION
  blobs_lr: 1
  blobs_lr: 2
  weight_decay: 1
  weight_decay: 0
  convolution_param {
    num_output: 128
    kernel_size: 1
    weight_filler {
      type: "xavier"
      std: 0.03
    }
    bias_filler {
      type: "constant"
      value: 0.2
    }
  }
}
layers {
  bottom: "inception_4c/1x1"
  top: "inception_4c/1x1"
  name: "inception_4c/relu_1x1"
  type: RELU
}
layers {
  bottom: "inception_4b/output"
  top: "inception_4c/3x3_reduce"
  name: "inception_4c/3x3_reduce"
  type: CONVOLUTION
  blobs_lr: 1
  blobs_lr: 2
  weight_decay: 1
  weight_decay: 0
  convolution_param {
    num_output: 128
    kernel_size: 1
    weight_filler {
      type: "xavier"
      std: 0.09
    }
    bias_filler {
      type: "constant"
      value: 0.2
    }
  }
}
layers {
  bottom: "inception_4c/3x3_reduce"
  top: "inception_4c/3x3_reduce"
  name: "inception_4c/relu_3x3_reduce"
  type: RELU
}
layers {
  bottom: "inception_4c/3x3_reduce"
  top: "inception_4c/3x3"
  name: "inception_4c/3x3"
  type: CONVOLUTION
  blobs_lr: 1
  blobs_lr: 2
  weight_decay: 1
  weight_decay: 0
  convolution_param {
    num_output: 256
    pad: 1
    kernel_size: 3
    weight_filler {
      type: "xavier"
      std: 0.03
    }
    bias_filler {
      type: "constant"
      value: 0.2
    }
  }
}
layers {
  bottom: "inception_4c/3x3"
  top: "inception_4c/3x3"
  name: "inception_4c/relu_3x3"
  type: RELU
}
layers {
  bottom: "inception_4b/output"
  top: "inception_4c/5x5_reduce"
  name: "inception_4c/5x5_reduce"
  type: CONVOLUTION
  blobs_lr: 1
  blobs_lr: 2
  weight_decay: 1
  weight_decay: 0
  convolution_param {
    num_output: 24
    kernel_size: 1
    weight_filler {
      type: "xavier"
      std: 0.2
    }
    bias_filler {
      type: "constant"
      value: 0.2
    }
  }
}
layers {
  bottom: "inception_4c/5x5_reduce"
  top: "inception_4c/5x5_reduce"
  name: "inception_4c/relu_5x5_reduce"
  type: RELU
}
layers {
  bottom: "inception_4c/5x5_reduce"
  top: "inception_4c/5x5"
  name: "inception_4c/5x5"
  type: CONVOLUTION
  blobs_lr: 1
  blobs_lr: 2
  weight_decay: 1
  weight_decay: 0
  convolution_param {
    num_output: 64
    pad: 2
    kernel_size: 5
    weight_filler {
      type: "xavier"
      std: 0.03
    }
    bias_filler {
      type: "constant"
      value: 0.2
    }
  }
}
layers {
  bottom: "inception_4c/5x5"
  top: "inception_4c/5x5"
  name: "inception_4c/relu_5x5"
  type: RELU
}
layers {
  bottom: "inception_4b/output"
  top: "inception_4c/pool"
  name: "inception_4c/pool"
  type: POOLING
  pooling_param {
    pool: MAX
    kernel_size: 3
    stride: 1
    pad: 1
  }
}
layers {
  bottom: "inception_4c/pool"
  top: "inception_4c/pool_proj"
  name: "inception_4c/pool_proj"
  type: CONVOLUTION
  blobs_lr: 1
  blobs_lr: 2
  weight_decay: 1
  weight_decay: 0
  convolution_param {
    num_output: 64
    kernel_size: 1
    weight_filler {
      type: "xavier"
      std: 0.1
    }
    bias_filler {
      type: "constant"
      value: 0.2
    }
  }
}
layers {
  bottom: "inception_4c/pool_proj"
  top: "inception_4c/pool_proj"
  name: "inception_4c/relu_pool_proj"
  type: RELU
}
layers {
  bottom: "inception_4c/1x1"
  bottom: "inception_4c/3x3"
  bottom: "inception_4c/5x5"
  bottom: "inception_4c/pool_proj"
  top: "inception_4c/output"
  name: "inception_4c/output"
  type: CONCAT
}
layers {
  bottom: "inception_4c/output"
  top: "inception_4d/1x1"
  name: "inception_4d/1x1"
  type: CONVOLUTION
  blobs_lr: 1
  blobs_lr: 2
  weight_decay: 1
  weight_decay: 0
  convolution_param {
    num_output: 112
    kernel_size: 1
    weight_filler {
      type: "xavier"
      std: 0.03
    }
    bias_filler {
      type: "constant"
      value: 0.2
    }
  }
}
layers {
  bottom: "inception_4d/1x1"
  top: "inception_4d/1x1"
  name: "inception_4d/relu_1x1"
  type: RELU
}
layers {
  bottom: "inception_4c/output"
  top: "inception_4d/3x3_reduce"
  name: "inception_4d/3x3_reduce"
  type: CONVOLUTION
  blobs_lr: 1
  blobs_lr: 2
  weight_decay: 1
  weight_decay: 0
  convolution_param {
    num_output: 144
    kernel_size: 1
    weight_filler {
      type: "xavier"
      std: 0.09
    }
    bias_filler {
      type: "constant"
      value: 0.2
    }
  }
}
layers {
  bottom: "inception_4d/3x3_reduce"
  top: "inception_4d/3x3_reduce"
  name: "inception_4d/relu_3x3_reduce"
  type: RELU
}
layers {
  bottom: "inception_4d/3x3_reduce"
  top: "inception_4d/3x3"
  name: "inception_4d/3x3"
  type: CONVOLUTION
  blobs_lr: 1
  blobs_lr: 2
  weight_decay: 1
  weight_decay: 0
  convolution_param {
    num_output: 288
    pad: 1
    kernel_size: 3
    weight_filler {
      type: "xavier"
      std: 0.03
    }
    bias_filler {
      type: "constant"
      value: 0.2
    }
  }
}
layers {
  bottom: "inception_4d/3x3"
  top: "inception_4d/3x3"
  name: "inception_4d/relu_3x3"
  type: RELU
}
layers {
  bottom: "inception_4c/output"
  top: "inception_4d/5x5_reduce"
  name: "inception_4d/5x5_reduce"
  type: CONVOLUTION
  blobs_lr: 1
  blobs_lr: 2
  weight_decay: 1
  weight_decay: 0
  convolution_param {
    num_output: 32
    kernel_size: 1
    weight_filler {
      type: "xavier"
      std: 0.2
    }
    bias_filler {
      type: "constant"
      value: 0.2
    }
  }
}
layers {
  bottom: "inception_4d/5x5_reduce"
  top: "inception_4d/5x5_reduce"
  name: "inception_4d/relu_5x5_reduce"
  type: RELU
}
layers {
  bottom: "inception_4d/5x5_reduce"
  top: "inception_4d/5x5"
  name: "inception_4d/5x5"
  type: CONVOLUTION
  blobs_lr: 1
  blobs_lr: 2
  weight_decay: 1
  weight_decay: 0
  convolution_param {
    num_output: 64
    pad: 2
    kernel_size: 5
    weight_filler {
      type: "xavier"
      std: 0.03
    }
    bias_filler {
      type: "constant"
      value: 0.2
    }
  }
}
layers {
  bottom: "inception_4d/5x5"
  top: "inception_4d/5x5"
  name: "inception_4d/relu_5x5"
  type: RELU
}
layers {
  bottom: "inception_4c/output"
  top: "inception_4d/pool"
  name: "inception_4d/pool"
  type: POOLING
  pooling_param {
    pool: MAX
    kernel_size: 3
    stride: 1
    pad: 1
  }
}
layers {
  bottom: "inception_4d/pool"
  top: "inception_4d/pool_proj"
  name: "inception_4d/pool_proj"
  type: CONVOLUTION
  blobs_lr: 1
  blobs_lr: 2
  weight_decay: 1
  weight_decay: 0
  convolution_param {
    num_output: 64
    kernel_size: 1
    weight_filler {
      type: "xavier"
      std: 0.1
    }
    bias_filler {
      type: "constant"
      value: 0.2
    }
  }
}
layers {
  bottom: "inception_4d/pool_proj"
  top: "inception_4d/pool_proj"
  name: "inception_4d/relu_pool_proj"
  type: RELU
}
layers {
  bottom: "inception_4d/1x1"
  bottom: "inception_4d/3x3"
  bottom: "inception_4d/5x5"
  bottom: "inception_4d/pool_proj"
  top: "inception_4d/output"
  name: "inception_4d/output"
  type: CONCAT
}
layers {
  bottom: "inception_4d/output"
  top: "loss2/ave_pool"
  name: "loss2/ave_pool"
  type: POOLING
  pooling_param {
    pool: AVE
    kernel_size: 5
    stride: 3
  }
}
layers {
  bottom: "loss2/ave_pool"
  top: "loss2/conv"
  name: "loss2/conv"
  type: CONVOLUTION
  blobs_lr: 1
  blobs_lr: 2
  weight_decay: 1
  weight_decay: 0
  convolution_param {
    num_output: 128
    kernel_size: 1
    weight_filler {
      type: "xavier"
      std: 0.08
    }
    bias_filler {
      type: "constant"
      value: 0.2
    }
  }
}
layers {
  bottom: "loss2/conv"
  top: "loss2/conv"
  name: "loss2/relu_conv"
  type: RELU
}
layers {
  bottom: "loss2/conv"
  top: "loss2/fc"
  name: "loss2/fc"
  type: INNER_PRODUCT
  blobs_lr: 1
  blobs_lr: 2
  weight_decay: 1
  weight_decay: 0
  inner_product_param {
    num_output: 1024
    weight_filler {
      type: "xavier"
      std: 0.02
    }
    bias_filler {
      type: "constant"
      value: 0.2
    }
  }
}
layers {
  bottom: "loss2/fc"
  top: "loss2/fc"
  name: "loss2/relu_fc"
  type: RELU
}
layers {
  bottom: "loss2/fc"
  top: "loss2/fc"
  name: "loss2/drop_fc"
  type: DROPOUT
  dropout_param {
    dropout_ratio: 0.7
  }
}
layers {
  bottom: "loss2/fc"
  top: "loss2/classifier"
  name: "loss2/classifier"
  type: INNER_PRODUCT
  blobs_lr: 1
  blobs_lr: 2
  weight_decay: 1
  weight_decay: 0
  inner_product_param {
    num_output: 121
    weight_filler {
      type: "xavier"
      std: 0.0009765625
    }
    bias_filler {
      type: "constant"
      value: 0
    }
  }
}
layers {
  bottom: "loss2/classifier"
  bottom: "label"
  top: "loss2/loss1"
  name: "loss2/loss"
  type: SOFTMAX_LOSS
  loss_weight: 0.3
}
layers {
  bottom: "inception_4d/output"
  top: "inception_4e/1x1"
  name: "inception_4e/1x1"
  type: CONVOLUTION
  blobs_lr: 1
  blobs_lr: 2
  weight_decay: 1
  weight_decay: 0
  convolution_param {
    num_output: 256
    kernel_size: 1
    weight_filler {
      type: "xavier"
      std: 0.03
    }
    bias_filler {
      type: "constant"
      value: 0.2
    }
  }
}
layers {
  bottom: "inception_4e/1x1"
  top: "inception_4e/1x1"
  name: "inception_4e/relu_1x1"
  type: RELU
}
layers {
  bottom: "inception_4d/output"
  top: "inception_4e/3x3_reduce"
  name: "inception_4e/3x3_reduce"
  type: CONVOLUTION
  blobs_lr: 1
  blobs_lr: 2
  weight_decay: 1
  weight_decay: 0
  convolution_param {
    num_output: 160
    kernel_size: 1
    weight_filler {
      type: "xavier"
      std: 0.09
    }
    bias_filler {
      type: "constant"
      value: 0.2
    }
  }
}
layers {
  bottom: "inception_4e/3x3_reduce"
  top: "inception_4e/3x3_reduce"
  name: "inception_4e/relu_3x3_reduce"
  type: RELU
}
layers {
  bottom: "inception_4e/3x3_reduce"
  top: "inception_4e/3x3"
  name: "inception_4e/3x3"
  type: CONVOLUTION
  blobs_lr: 1
  blobs_lr: 2
  weight_decay: 1
  weight_decay: 0
  convolution_param {
    num_output: 320
    pad: 1
    kernel_size: 3
    weight_filler {
      type: "xavier"
      std: 0.03
    }
    bias_filler {
      type: "constant"
      value: 0.2
    }
  }
}
layers {
  bottom: "inception_4e/3x3"
  top: "inception_4e/3x3"
  name: "inception_4e/relu_3x3"
  type: RELU
}
layers {
  bottom: "inception_4d/output"
  top: "inception_4e/5x5_reduce"
  name: "inception_4e/5x5_reduce"
  type: CONVOLUTION
  blobs_lr: 1
  blobs_lr: 2
  weight_decay: 1
  weight_decay: 0
  convolution_param {
    num_output: 32
    kernel_size: 1
    weight_filler {
      type: "xavier"
      std: 0.2
    }
    bias_filler {
      type: "constant"
      value: 0.2
    }
  }
}
layers {
  bottom: "inception_4e/5x5_reduce"
  top: "inception_4e/5x5_reduce"
  name: "inception_4e/relu_5x5_reduce"
  type: RELU
}
layers {
  bottom: "inception_4e/5x5_reduce"
  top: "inception_4e/5x5"
  name: "inception_4e/5x5"
  type: CONVOLUTION
  blobs_lr: 1
  blobs_lr: 2
  weight_decay: 1
  weight_decay: 0
  convolution_param {
    num_output: 128
    pad: 2
    kernel_size: 5
    weight_filler {
      type: "xavier"
      std: 0.03
    }
    bias_filler {
      type: "constant"
      value: 0.2
    }
  }
}
layers {
  bottom: "inception_4e/5x5"
  top: "inception_4e/5x5"
  name: "inception_4e/relu_5x5"
  type: RELU
}
layers {
  bottom: "inception_4d/output"
  top: "inception_4e/pool"
  name: "inception_4e/pool"
  type: POOLING
  pooling_param {
    pool: MAX
    kernel_size: 3
    stride: 1
    pad: 1
  }
}
layers {
  bottom: "inception_4e/pool"
  top: "inception_4e/pool_proj"
  name: "inception_4e/pool_proj"
  type: CONVOLUTION
  blobs_lr: 1
  blobs_lr: 2
  weight_decay: 1
  weight_decay: 0
  convolution_param {
    num_output: 128
    kernel_size: 1
    weight_filler {
      type: "xavier"
      std: 0.1
    }
    bias_filler {
      type: "constant"
      value: 0.2
    }
  }
}
layers {
  bottom: "inception_4e/pool_proj"
  top: "inception_4e/pool_p
I0311 09:07:36.187525 21001 layer_factory.hpp:78] Creating layer data
I0311 09:07:36.187558 21001 data_transformer.cpp:24] Loading mean file from/media/data/kaggle/nationalDataScienceBowl/data/typeF/train_mean.binaryproto
I0311 09:07:36.187757 21001 net.cpp:68] Creating Layer data
I0311 09:07:36.187785 21001 net.cpp:357] data -> data
I0311 09:07:36.187818 21001 net.cpp:357] data -> label
I0311 09:07:36.187840 21001 net.cpp:97] Setting up data
I0311 09:07:36.187857 21001 image_data_affine_layer.cpp:37] Opening file /media/data/kaggle/nationalDataScienceBowl/data/typeF/train.txt
I0311 09:07:36.201922 21001 image_data_affine_layer.cpp:47] Shuffling data
I0311 09:07:36.204567 21001 image_data_affine_layer.cpp:52] A total of 27302 images.
I0311 09:07:36.206717 21001 image_data_affine_layer.cpp:81] output data size: 128,1,96,96
I0311 09:07:36.208700 21001 net.cpp:104] Top shape: 128 1 96 96 (1179648)
I0311 09:07:36.208739 21001 net.cpp:104] Top shape: 128 1 1 1 (128)
I0311 09:07:36.208755 21001 layer_factory.hpp:78] Creating layer label_data_1_split
I0311 09:07:36.208781 21001 net.cpp:68] Creating Layer label_data_1_split
I0311 09:07:36.208799 21001 net.cpp:395] label_data_1_split <- label
I0311 09:07:36.208827 21001 net.cpp:357] label_data_1_split -> label_data_1_split_0
I0311 09:07:36.208850 21001 net.cpp:357] label_data_1_split -> label_data_1_split_1
I0311 09:07:36.208888 21001 net.cpp:357] label_data_1_split -> label_data_1_split_2
I0311 09:07:36.208905 21001 net.cpp:97] Setting up label_data_1_split
I0311 09:07:36.208928 21001 net.cpp:104] Top shape: 128 1 1 1 (128)
I0311 09:07:36.208943 21001 net.cpp:104] Top shape: 128 1 1 1 (128)
I0311 09:07:36.208955 21001 net.cpp:104] Top shape: 128 1 1 1 (128)
I0311 09:07:36.209018 21001 layer_factory.hpp:78] Creating layer conv1/7x7_s2
I0311 09:07:36.209043 21001 net.cpp:68] Creating Layer conv1/7x7_s2
I0311 09:07:36.209055 21001 net.cpp:395] conv1/7x7_s2 <- data
I0311 09:07:36.209070 21001 net.cpp:357] conv1/7x7_s2 -> conv1/7x7_s2
I0311 09:07:36.209090 21001 net.cpp:97] Setting up conv1/7x7_s2
I0311 09:07:36.247840 21001 net.cpp:104] Top shape: 128 64 47 47 (18096128)
I0311 09:07:36.247926 21001 layer_factory.hpp:78] Creating layer conv1/relu_7x7
I0311 09:07:36.247956 21001 net.cpp:68] Creating Layer conv1/relu_7x7
I0311 09:07:36.247972 21001 net.cpp:395] conv1/relu_7x7 <- conv1/7x7_s2
I0311 09:07:36.247990 21001 net.cpp:346] conv1/relu_7x7 -> conv1/7x7_s2 (in-place)
I0311 09:07:36.248010 21001 net.cpp:97] Setting up conv1/relu_7x7
I0311 09:07:36.248031 21001 net.cpp:104] Top shape: 128 64 47 47 (18096128)
I0311 09:07:36.248045 21001 layer_factory.hpp:78] Creating layer pool1/3x3_s2
I0311 09:07:36.248065 21001 net.cpp:68] Creating Layer pool1/3x3_s2
I0311 09:07:36.248077 21001 net.cpp:395] pool1/3x3_s2 <- conv1/7x7_s2
I0311 09:07:36.248096 21001 net.cpp:357] pool1/3x3_s2 -> pool1/3x3_s2
I0311 09:07:36.248113 21001 net.cpp:97] Setting up pool1/3x3_s2
I0311 09:07:36.248152 21001 net.cpp:104] Top shape: 128 64 23 23 (4333568)
I0311 09:07:36.248169 21001 layer_factory.hpp:78] Creating layer pool1/norm1
I0311 09:07:36.248193 21001 net.cpp:68] Creating Layer pool1/norm1
I0311 09:07:36.248205 21001 net.cpp:395] pool1/norm1 <- pool1/3x3_s2
I0311 09:07:36.248219 21001 net.cpp:357] pool1/norm1 -> pool1/norm1
I0311 09:07:36.248236 21001 net.cpp:97] Setting up pool1/norm1
I0311 09:07:36.248253 21001 net.cpp:104] Top shape: 128 64 23 23 (4333568)
I0311 09:07:36.248265 21001 layer_factory.hpp:78] Creating layer conv2/3x3_reduce
I0311 09:07:36.248283 21001 net.cpp:68] Creating Layer conv2/3x3_reduce
I0311 09:07:36.248296 21001 net.cpp:395] conv2/3x3_reduce <- pool1/norm1
I0311 09:07:36.248312 21001 net.cpp:357] conv2/3x3_reduce -> conv2/3x3_reduce
I0311 09:07:36.248332 21001 net.cpp:97] Setting up conv2/3x3_reduce
I0311 09:07:36.248464 21001 net.cpp:104] Top shape: 128 64 23 23 (4333568)
I0311 09:07:36.248492 21001 layer_factory.hpp:78] Creating layer conv2/relu_3x3_reduce
I0311 09:07:36.248508 21001 net.cpp:68] Creating Layer conv2/relu_3x3_reduce
I0311 09:07:36.248522 21001 net.cpp:395] conv2/relu_3x3_reduce <- conv2/3x3_reduce
I0311 09:07:36.248535 21001 net.cpp:346] conv2/relu_3x3_reduce -> conv2/3x3_reduce (in-place)
I0311 09:07:36.248549 21001 net.cpp:97] Setting up conv2/relu_3x3_reduce
I0311 09:07:36.248564 21001 net.cpp:104] Top shape: 128 64 23 23 (4333568)
I0311 09:07:36.248577 21001 layer_factory.hpp:78] Creating layer conv2/3x3
I0311 09:07:36.248596 21001 net.cpp:68] Creating Layer conv2/3x3
I0311 09:07:36.248608 21001 net.cpp:395] conv2/3x3 <- conv2/3x3_reduce
I0311 09:07:36.248623 21001 net.cpp:357] conv2/3x3 -> conv2/3x3
I0311 09:07:36.248639 21001 net.cpp:97] Setting up conv2/3x3
I0311 09:07:36.249871 21001 net.cpp:104] Top shape: 128 192 23 23 (13000704)
I0311 09:07:36.249897 21001 layer_factory.hpp:78] Creating layer conv2/relu_3x3
I0311 09:07:36.249912 21001 net.cpp:68] Creating Layer conv2/relu_3x3
I0311 09:07:36.249924 21001 net.cpp:395] conv2/relu_3x3 <- conv2/3x3
I0311 09:07:36.249941 21001 net.cpp:346] conv2/relu_3x3 -> conv2/3x3 (in-place)
I0311 09:07:36.249956 21001 net.cpp:97] Setting up conv2/relu_3x3
I0311 09:07:36.249971 21001 net.cpp:104] Top shape: 128 192 23 23 (13000704)
I0311 09:07:36.249984 21001 layer_factory.hpp:78] Creating layer conv2/norm2
I0311 09:07:36.249999 21001 net.cpp:68] Creating Layer conv2/norm2
I0311 09:07:36.250010 21001 net.cpp:395] conv2/norm2 <- conv2/3x3
I0311 09:07:36.250026 21001 net.cpp:357] conv2/norm2 -> conv2/norm2
I0311 09:07:36.250041 21001 net.cpp:97] Setting up conv2/norm2
I0311 09:07:36.250054 21001 net.cpp:104] Top shape: 128 192 23 23 (13000704)
I0311 09:07:36.250066 21001 layer_factory.hpp:78] Creating layer pool2/3x3_s2
I0311 09:07:36.250080 21001 net.cpp:68] Creating Layer pool2/3x3_s2
I0311 09:07:36.250152 21001 net.cpp:395] pool2/3x3_s2 <- conv2/norm2
I0311 09:07:36.250171 21001 net.cpp:357] pool2/3x3_s2 -> pool2/3x3_s2
I0311 09:07:36.250188 21001 net.cpp:97] Setting up pool2/3x3_s2
I0311 09:07:36.250206 21001 net.cpp:104] Top shape: 128 192 11 11 (2973696)
I0311 09:07:36.250219 21001 layer_factory.hpp:78] Creating layer pool2/3x3_s2_pool2/3x3_s2_0_split
I0311 09:07:36.250233 21001 net.cpp:68] Creating Layer pool2/3x3_s2_pool2/3x3_s2_0_split
I0311 09:07:36.250246 21001 net.cpp:395] pool2/3x3_s2_pool2/3x3_s2_0_split <- pool2/3x3_s2
I0311 09:07:36.250262 21001 net.cpp:357] pool2/3x3_s2_pool2/3x3_s2_0_split -> pool2/3x3_s2_pool2/3x3_s2_0_split_0
I0311 09:07:36.250278 21001 net.cpp:357] pool2/3x3_s2_pool2/3x3_s2_0_split -> pool2/3x3_s2_pool2/3x3_s2_0_split_1
I0311 09:07:36.250294 21001 net.cpp:357] pool2/3x3_s2_pool2/3x3_s2_0_split -> pool2/3x3_s2_pool2/3x3_s2_0_split_2
I0311 09:07:36.250309 21001 net.cpp:357] pool2/3x3_s2_pool2/3x3_s2_0_split -> pool2/3x3_s2_pool2/3x3_s2_0_split_3
I0311 09:07:36.250324 21001 net.cpp:97] Setting up pool2/3x3_s2_pool2/3x3_s2_0_split
I0311 09:07:36.250337 21001 net.cpp:104] Top shape: 128 192 11 11 (2973696)
I0311 09:07:36.250349 21001 net.cpp:104] Top shape: 128 192 11 11 (2973696)
I0311 09:07:36.250360 21001 net.cpp:104] Top shape: 128 192 11 11 (2973696)
I0311 09:07:36.250370 21001 net.cpp:104] Top shape: 128 192 11 11 (2973696)
I0311 09:07:36.250381 21001 layer_factory.hpp:78] Creating layer inception_3a/1x1
I0311 09:07:36.250411 21001 net.cpp:68] Creating Layer inception_3a/1x1
I0311 09:07:36.250424 21001 net.cpp:395] inception_3a/1x1 <- pool2/3x3_s2_pool2/3x3_s2_0_split_0
I0311 09:07:36.250443 21001 net.cpp:357] inception_3a/1x1 -> inception_3a/1x1
I0311 09:07:36.250460 21001 net.cpp:97] Setting up inception_3a/1x1
I0311 09:07:36.250674 21001 net.cpp:104] Top shape: 128 64 11 11 (991232)
I0311 09:07:36.250702 21001 layer_factory.hpp:78] Creating layer inception_3a/relu_1x1
I0311 09:07:36.250717 21001 net.cpp:68] Creating Layer inception_3a/relu_1x1
I0311 09:07:36.250730 21001 net.cpp:395] inception_3a/relu_1x1 <- inception_3a/1x1
I0311 09:07:36.250743 21001 net.cpp:346] inception_3a/relu_1x1 -> inception_3a/1x1 (in-place)
I0311 09:07:36.250757 21001 net.cpp:97] Setting up inception_3a/relu_1x1
I0311 09:07:36.250772 21001 net.cpp:104] Top shape: 128 64 11 11 (991232)
I0311 09:07:36.250784 21001 layer_factory.hpp:78] Creating layer inception_3a/3x3_reduce
I0311 09:07:36.250798 21001 net.cpp:68] Creating Layer inception_3a/3x3_reduce
I0311 09:07:36.250810 21001 net.cpp:395] inception_3a/3x3_reduce <- pool2/3x3_s2_pool2/3x3_s2_0_split_1
I0311 09:07:36.250828 21001 net.cpp:357] inception_3a/3x3_reduce -> inception_3a/3x3_reduce
I0311 09:07:36.250844 21001 net.cpp:97] Setting up inception_3a/3x3_reduce
I0311 09:07:36.251114 21001 net.cpp:104] Top shape: 128 96 11 11 (1486848)
I0311 09:07:36.251139 21001 layer_factory.hpp:78] Creating layer inception_3a/relu_3x3_reduce
I0311 09:07:36.251157 21001 net.cpp:68] Creating Layer inception_3a/relu_3x3_reduce
I0311 09:07:36.251168 21001 net.cpp:395] inception_3a/relu_3x3_reduce <- inception_3a/3x3_reduce
I0311 09:07:36.251184 21001 net.cpp:346] inception_3a/relu_3x3_reduce -> inception_3a/3x3_reduce (in-place)
I0311 09:07:36.251199 21001 net.cpp:97] Setting up inception_3a/relu_3x3_reduce
I0311 09:07:36.251214 21001 net.cpp:104] Top shape: 128 96 11 11 (1486848)
I0311 09:07:36.251226 21001 layer_factory.hpp:78] Creating layer inception_3a/3x3
I0311 09:07:36.251241 21001 net.cpp:68] Creating Layer inception_3a/3x3
I0311 09:07:36.251255 21001 net.cpp:395] inception_3a/3x3 <- inception_3a/3x3_reduce
I0311 09:07:36.251273 21001 net.cpp:357] inception_3a/3x3 -> inception_3a/3x3
I0311 09:07:36.251289 21001 net.cpp:97] Setting up inception_3a/3x3
I0311 09:07:36.252697 21001 net.cpp:104] Top shape: 128 128 11 11 (1982464)
I0311 09:07:36.252724 21001 layer_factory.hpp:78] Creating layer inception_3a/relu_3x3
I0311 09:07:36.252745 21001 net.cpp:68] Creating Layer inception_3a/relu_3x3
I0311 09:07:36.252758 21001 net.cpp:395] inception_3a/relu_3x3 <- inception_3a/3x3
I0311 09:07:36.252791 21001 net.cpp:346] inception_3a/relu_3x3 -> inception_3a/3x3 (in-place)
I0311 09:07:36.252809 21001 net.cpp:97] Setting up inception_3a/relu_3x3
I0311 09:07:36.252842 21001 net.cpp:104] Top shape: 128 128 11 11 (1982464)
I0311 09:07:36.252856 21001 layer_factory.hpp:78] Creating layer inception_3a/5x5_reduce
I0311 09:07:36.252877 21001 net.cpp:68] Creating Layer inception_3a/5x5_reduce
I0311 09:07:36.252890 21001 net.cpp:395] inception_3a/5x5_reduce <- pool2/3x3_s2_pool2/3x3_s2_0_split_2
I0311 09:07:36.252925 21001 net.cpp:357] inception_3a/5x5_reduce -> inception_3a/5x5_reduce
I0311 09:07:36.252943 21001 net.cpp:97] Setting up inception_3a/5x5_reduce
I0311 09:07:36.253060 21001 net.cpp:104] Top shape: 128 16 11 11 (247808)
I0311 09:07:36.253082 21001 layer_factory.hpp:78] Creating layer inception_3a/relu_5x5_reduce
I0311 09:07:36.253096 21001 net.cpp:68] Creating Layer inception_3a/relu_5x5_reduce
I0311 09:07:36.253108 21001 net.cpp:395] inception_3a/relu_5x5_reduce <- inception_3a/5x5_reduce
I0311 09:07:36.253123 21001 net.cpp:346] inception_3a/relu_5x5_reduce -> inception_3a/5x5_reduce (in-place)
I0311 09:07:36.253136 21001 net.cpp:97] Setting up inception_3a/relu_5x5_reduce
I0311 09:07:36.253164 21001 net.cpp:104] Top shape: 128 16 11 11 (247808)
I0311 09:07:36.253176 21001 layer_factory.hpp:78] Creating layer inception_3a/5x5
I0311 09:07:36.253190 21001 net.cpp:68] Creating Layer inception_3a/5x5
I0311 09:07:36.253202 21001 net.cpp:395] inception_3a/5x5 <- inception_3a/5x5_reduce
I0311 09:07:36.253221 21001 net.cpp:357] inception_3a/5x5 -> inception_3a/5x5
I0311 09:07:36.253237 21001 net.cpp:97] Setting up inception_3a/5x5
I0311 09:07:36.253437 21001 net.cpp:104] Top shape: 128 32 11 11 (495616)
I0311 09:07:36.253458 21001 layer_factory.hpp:78] Creating layer inception_3a/relu_5x5
I0311 09:07:36.253473 21001 net.cpp:68] Creating Layer inception_3a/relu_5x5
I0311 09:07:36.253485 21001 net.cpp:395] inception_3a/relu_5x5 <- inception_3a/5x5
I0311 09:07:36.253504 21001 net.cpp:346] inception_3a/relu_5x5 -> inception_3a/5x5 (in-place)
I0311 09:07:36.253520 21001 net.cpp:97] Setting up inception_3a/relu_5x5
I0311 09:07:36.253535 21001 net.cpp:104] Top shape: 128 32 11 11 (495616)
I0311 09:07:36.253545 21001 layer_factory.hpp:78] Creating layer inception_3a/pool
I0311 09:07:36.253551 21001 layer_factory.cpp:51] CUDNN does not support padding or multiple tops. Using Caffe's own pooling layer.
I0311 09:07:36.253561 21001 net.cpp:68] Creating Layer inception_3a/pool
I0311 09:07:36.253568 21001 net.cpp:395] inception_3a/pool <- pool2/3x3_s2_pool2/3x3_s2_0_split_3
I0311 09:07:36.253592 21001 net.cpp:357] inception_3a/pool -> inception_3a/pool
I0311 09:07:36.253609 21001 net.cpp:97] Setting up inception_3a/pool
I0311 09:07:36.253623 21001 net.cpp:104] Top shape: 128 192 11 11 (2973696)
I0311 09:07:36.253633 21001 layer_factory.hpp:78] Creating layer inception_3a/pool_proj
I0311 09:07:36.253648 21001 net.cpp:68] Creating Layer inception_3a/pool_proj
I0311 09:07:36.253660 21001 net.cpp:395] inception_3a/pool_proj <- inception_3a/pool
I0311 09:07:36.253677 21001 net.cpp:357] inception_3a/pool_proj -> inception_3a/pool_proj
I0311 09:07:36.253693 21001 net.cpp:97] Setting up inception_3a/pool_proj
I0311 09:07:36.253835 21001 net.cpp:104] Top shape: 128 32 11 11 (495616)
I0311 09:07:36.253862 21001 layer_factory.hpp:78] Creating layer inception_3a/relu_pool_proj
I0311 09:07:36.253878 21001 net.cpp:68] Creating Layer inception_3a/relu_pool_proj
I0311 09:07:36.253890 21001 net.cpp:395] inception_3a/relu_pool_proj <- inception_3a/pool_proj
I0311 09:07:36.253904 21001 net.cpp:346] inception_3a/relu_pool_proj -> inception_3a/pool_proj (in-place)
I0311 09:07:36.253919 21001 net.cpp:97] Setting up inception_3a/relu_pool_proj
I0311 09:07:36.253933 21001 net.cpp:104] Top shape: 128 32 11 11 (495616)
I0311 09:07:36.253945 21001 layer_factory.hpp:78] Creating layer inception_3a/output
I0311 09:07:36.253962 21001 net.cpp:68] Creating Layer inception_3a/output
I0311 09:07:36.253974 21001 net.cpp:395] inception_3a/output <- inception_3a/1x1
I0311 09:07:36.254006 21001 net.cpp:395] inception_3a/output <- inception_3a/3x3
I0311 09:07:36.254020 21001 net.cpp:395] inception_3a/output <- inception_3a/5x5
I0311 09:07:36.254032 21001 net.cpp:395] inception_3a/output <- inception_3a/pool_proj
I0311 09:07:36.254050 21001 net.cpp:357] inception_3a/output -> inception_3a/output
I0311 09:07:36.254065 21001 net.cpp:97] Setting up inception_3a/output
I0311 09:07:36.254079 21001 net.cpp:104] Top shape: 128 256 11 11 (3964928)
I0311 09:07:36.254091 21001 layer_factory.hpp:78] Creating layer inception_3a/output_inception_3a/output_0_split
I0311 09:07:36.254106 21001 net.cpp:68] Creating Layer inception_3a/output_inception_3a/output_0_split
I0311 09:07:36.254117 21001 net.cpp:395] inception_3a/output_inception_3a/output_0_split <- inception_3a/output
I0311 09:07:36.254134 21001 net.cpp:357] inception_3a/output_inception_3a/output_0_split -> inception_3a/output_inception_3a/output_0_split_0
I0311 09:07:36.254151 21001 net.cpp:357] inception_3a/output_inception_3a/output_0_split -> inception_3a/output_inception_3a/output_0_split_1
I0311 09:07:36.254168 21001 net.cpp:357] inception_3a/output_inception_3a/output_0_split -> inception_3a/output_inception_3a/output_0_split_2
I0311 09:07:36.254184 21001 net.cpp:357] inception_3a/output_inception_3a/output_0_split -> inception_3a/output_inception_3a/output_0_split_3
I0311 09:07:36.254197 21001 net.cpp:97] Setting up inception_3a/output_inception_3a/output_0_split
I0311 09:07:36.254210 21001 net.cpp:104] Top shape: 128 256 11 11 (3964928)
I0311 09:07:36.254221 21001 net.cpp:104] Top shape: 128 256 11 11 (3964928)
I0311 09:07:36.254232 21001 net.cpp:104] Top shape: 128 256 11 11 (3964928)
I0311 09:07:36.254243 21001 net.cpp:104] Top shape: 128 256 11 11 (3964928)
I0311 09:07:36.254254 21001 layer_factory.hpp:78] Creating layer inception_3b/1x1
I0311 09:07:36.254268 21001 net.cpp:68] Creating Layer inception_3b/1x1
I0311 09:07:36.254279 21001 net.cpp:395] inception_3b/1x1 <- inception_3a/output_inception_3a/output_0_split_0
I0311 09:07:36.254304 21001 net.cpp:357] inception_3b/1x1 -> inception_3b/1x1
I0311 09:07:36.254325 21001 net.cpp:97] Setting up inception_3b/1x1
I0311 09:07:36.254757 21001 net.cpp:104] Top shape: 128 128 11 11 (1982464)
I0311 09:07:36.254783 21001 layer_factory.hpp:78] Creating layer inception_3b/relu_1x1
I0311 09:07:36.254797 21001 net.cpp:68] Creating Layer inception_3b/relu_1x1
I0311 09:07:36.254815 21001 net.cpp:395] inception_3b/relu_1x1 <- inception_3b/1x1
I0311 09:07:36.254829 21001 net.cpp:346] inception_3b/relu_1x1 -> inception_3b/1x1 (in-place)
I0311 09:07:36.254848 21001 net.cpp:97] Setting up inception_3b/relu_1x1
I0311 09:07:36.254863 21001 net.cpp:104] Top shape: 128 128 11 11 (1982464)
I0311 09:07:36.254874 21001 layer_factory.hpp:78] Creating layer inception_3b/3x3_reduce
I0311 09:07:36.254891 21001 net.cpp:68] Creating Layer inception_3b/3x3_reduce
I0311 09:07:36.254904 21001 net.cpp:395] inception_3b/3x3_reduce <- inception_3a/output_inception_3a/output_0_split_1
I0311 09:07:36.254923 21001 net.cpp:357] inception_3b/3x3_reduce -> inception_3b/3x3_reduce
I0311 09:07:36.254940 21001 net.cpp:97] Setting up inception_3b/3x3_reduce
I0311 09:07:36.255482 21001 net.cpp:104] Top shape: 128 128 11 11 (1982464)
I0311 09:07:36.255508 21001 layer_factory.hpp:78] Creating layer inception_3b/relu_3x3_reduce
I0311 09:07:36.255524 21001 net.cpp:68] Creating Layer inception_3b/relu_3x3_reduce
I0311 09:07:36.255537 21001 net.cpp:395] inception_3b/relu_3x3_reduce <- inception_3b/3x3_reduce
I0311 09:07:36.255553 21001 net.cpp:346] inception_3b/relu_3x3_reduce -> inception_3b/3x3_reduce (in-place)
I0311 09:07:36.255569 21001 net.cpp:97] Setting up inception_3b/relu_3x3_reduce
I0311 09:07:36.255584 21001 net.cpp:104] Top shape: 128 128 11 11 (1982464)
I0311 09:07:36.255596 21001 layer_factory.hpp:78] Creating layer inception_3b/3x3
I0311 09:07:36.255612 21001 net.cpp:68] Creating Layer inception_3b/3x3
I0311 09:07:36.255625 21001 net.cpp:395] inception_3b/3x3 <- inception_3b/3x3_reduce
I0311 09:07:36.255661 21001 net.cpp:357] inception_3b/3x3 -> inception_3b/3x3
I0311 09:07:36.255678 21001 net.cpp:97] Setting up inception_3b/3x3
I0311 09:07:36.258124 21001 net.cpp:104] Top shape: 128 192 11 11 (2973696)
I0311 09:07:36.258154 21001 layer_factory.hpp:78] Creating layer inception_3b/relu_3x3
I0311 09:07:36.258175 21001 net.cpp:68] Creating Layer inception_3b/relu_3x3
I0311 09:07:36.258189 21001 net.cpp:395] inception_3b/relu_3x3 <- inception_3b/3x3
I0311 09:07:36.258203 21001 net.cpp:346] inception_3b/relu_3x3 -> inception_3b/3x3 (in-place)
I0311 09:07:36.258218 21001 net.cpp:97] Setting up inception_3b/relu_3x3
I0311 09:07:36.258232 21001 net.cpp:104] Top shape: 128 192 11 11 (2973696)
I0311 09:07:36.258244 21001 layer_factory.hpp:78] Creating layer inception_3b/5x5_reduce
I0311 09:07:36.258258 21001 net.cpp:68] Creating Layer inception_3b/5x5_reduce
I0311 09:07:36.258270 21001 net.cpp:395] inception_3b/5x5_reduce <- inception_3a/output_inception_3a/output_0_split_2
I0311 09:07:36.258288 21001 net.cpp:357] inception_3b/5x5_reduce -> inception_3b/5x5_reduce
I0311 09:07:36.258304 21001 net.cpp:97] Setting up inception_3b/5x5_reduce
I0311 09:07:36.258468 21001 net.cpp:104] Top shape: 128 32 11 11 (495616)
I0311 09:07:36.258493 21001 layer_factory.hpp:78] Creating layer inception_3b/relu_5x5_reduce
I0311 09:07:36.258508 21001 net.cpp:68] Creating Layer inception_3b/relu_5x5_reduce
I0311 09:07:36.258520 21001 net.cpp:395] inception_3b/relu_5x5_reduce <- inception_3b/5x5_reduce
I0311 09:07:36.258534 21001 net.cpp:346] inception_3b/relu_5x5_reduce -> inception_3b/5x5_reduce (in-place)
I0311 09:07:36.258548 21001 net.cpp:97] Setting up inception_3b/relu_5x5_reduce
I0311 09:07:36.258563 21001 net.cpp:104] Top shape: 128 32 11 11 (495616)
I0311 09:07:36.258575 21001 layer_factory.hpp:78] Creating layer inception_3b/5x5
I0311 09:07:36.258592 21001 net.cpp:68] Creating Layer inception_3b/5x5
I0311 09:07:36.258605 21001 net.cpp:395] inception_3b/5x5 <- inception_3b/5x5_reduce
I0311 09:07:36.258620 21001 net.cpp:357] inception_3b/5x5 -> inception_3b/5x5
I0311 09:07:36.258642 21001 net.cpp:97] Setting up inception_3b/5x5
I0311 09:07:36.259557 21001 net.cpp:104] Top shape: 128 96 11 11 (1486848)
I0311 09:07:36.259582 21001 layer_factory.hpp:78] Creating layer inception_3b/relu_5x5
I0311 09:07:36.259598 21001 net.cpp:68] Creating Layer inception_3b/relu_5x5
I0311 09:07:36.259610 21001 net.cpp:395] inception_3b/relu_5x5 <- inception_3b/5x5
I0311 09:07:36.259624 21001 net.cpp:346] inception_3b/relu_5x5 -> inception_3b/5x5 (in-place)
I0311 09:07:36.259639 21001 net.cpp:97] Setting up inception_3b/relu_5x5
I0311 09:07:36.259652 21001 net.cpp:104] Top shape: 128 96 11 11 (1486848)
I0311 09:07:36.259665 21001 layer_factory.hpp:78] Creating layer inception_3b/pool
I0311 09:07:36.259675 21001 layer_factory.cpp:51] CUDNN does not support padding or multiple tops. Using Caffe's own pooling layer.
I0311 09:07:36.259690 21001 net.cpp:68] Creating Layer inception_3b/pool
I0311 09:07:36.259701 21001 net.cpp:395] inception_3b/pool <- inception_3a/output_inception_3a/output_0_split_3
I0311 09:07:36.259718 21001 net.cpp:357] inception_3b/pool -> inception_3b/pool
I0311 09:07:36.259737 21001 net.cpp:97] Setting up inception_3b/pool
I0311 09:07:36.259752 21001 net.cpp:104] Top shape: 128 256 11 11 (3964928)
I0311 09:07:36.259763 21001 layer_factory.hpp:78] Creating layer inception_3b/pool_proj
I0311 09:07:36.259784 21001 net.cpp:68] Creating Layer inception_3b/pool_proj
I0311 09:07:36.259798 21001 net.cpp:395] inception_3b/pool_proj <- inception_3b/pool
I0311 09:07:36.259814 21001 net.cpp:357] inception_3b/pool_proj -> inception_3b/pool_proj
I0311 09:07:36.259831 21001 net.cpp:97] Setting up inception_3b/pool_proj
I0311 09:07:36.260079 21001 net.cpp:104] Top shape: 128 64 11 11 (991232)
I0311 09:07:36.260102 21001 layer_factory.hpp:78] Creating layer inception_3b/relu_pool_proj
I0311 09:07:36.260117 21001 net.cpp:68] Creating Layer inception_3b/relu_pool_proj
I0311 09:07:36.260128 21001 net.cpp:395] inception_3b/relu_pool_proj <- inception_3b/pool_proj
I0311 09:07:36.260164 21001 net.cpp:346] inception_3b/relu_pool_proj -> inception_3b/pool_proj (in-place)
I0311 09:07:36.260180 21001 net.cpp:97] Setting up inception_3b/relu_pool_proj
I0311 09:07:36.260196 21001 net.cpp:104] Top shape: 128 64 11 11 (991232)
I0311 09:07:36.260208 21001 layer_factory.hpp:78] Creating layer inception_3b/output
I0311 09:07:36.260221 21001 net.cpp:68] Creating Layer inception_3b/output
I0311 09:07:36.260232 21001 net.cpp:395] inception_3b/output <- inception_3b/1x1
I0311 09:07:36.260246 21001 net.cpp:395] inception_3b/output <- inception_3b/3x3
I0311 09:07:36.260257 21001 net.cpp:395] inception_3b/output <- inception_3b/5x5
I0311 09:07:36.260274 21001 net.cpp:395] inception_3b/output <- inception_3b/pool_proj
I0311 09:07:36.260288 21001 net.cpp:357] inception_3b/output -> inception_3b/output
I0311 09:07:36.260306 21001 net.cpp:97] Setting up inception_3b/output
I0311 09:07:36.260319 21001 net.cpp:104] Top shape: 128 480 11 11 (7434240)
I0311 09:07:36.260330 21001 layer_factory.hpp:78] Creating layer pool3/3x3_s2
I0311 09:07:36.260347 21001 net.cpp:68] Creating Layer pool3/3x3_s2
I0311 09:07:36.260360 21001 net.cpp:395] pool3/3x3_s2 <- inception_3b/output
I0311 09:07:36.260375 21001 net.cpp:357] pool3/3x3_s2 -> pool3/3x3_s2
I0311 09:07:36.260390 21001 net.cpp:97] Setting up pool3/3x3_s2
I0311 09:07:36.260406 21001 net.cpp:104] Top shape: 128 480 5 5 (1536000)
I0311 09:07:36.260417 21001 layer_factory.hpp:78] Creating layer pool3/3x3_s2_pool3/3x3_s2_0_split
I0311 09:07:36.260433 21001 net.cpp:68] Creating Layer pool3/3x3_s2_pool3/3x3_s2_0_split
I0311 09:07:36.260445 21001 net.cpp:395] pool3/3x3_s2_pool3/3x3_s2_0_split <- pool3/3x3_s2
I0311 09:07:36.260459 21001 net.cpp:357] pool3/3x3_s2_pool3/3x3_s2_0_split -> pool3/3x3_s2_pool3/3x3_s2_0_split_0
I0311 09:07:36.260475 21001 net.cpp:357] pool3/3x3_s2_pool3/3x3_s2_0_split -> pool3/3x3_s2_pool3/3x3_s2_0_split_1
I0311 09:07:36.260490 21001 net.cpp:357] pool3/3x3_s2_pool3/3x3_s2_0_split -> pool3/3x3_s2_pool3/3x3_s2_0_split_2
I0311 09:07:36.260505 21001 net.cpp:357] pool3/3x3_s2_pool3/3x3_s2_0_split -> pool3/3x3_s2_pool3/3x3_s2_0_split_3
I0311 09:07:36.260519 21001 net.cpp:97] Setting up pool3/3x3_s2_pool3/3x3_s2_0_split
I0311 09:07:36.260532 21001 net.cpp:104] Top shape: 128 480 5 5 (1536000)
I0311 09:07:36.260543 21001 net.cpp:104] Top shape: 128 480 5 5 (1536000)
I0311 09:07:36.260555 21001 net.cpp:104] Top shape: 128 480 5 5 (1536000)
I0311 09:07:36.260565 21001 net.cpp:104] Top shape: 128 480 5 5 (1536000)
I0311 09:07:36.260576 21001 layer_factory.hpp:78] Creating layer inception_4a/1x1
I0311 09:07:36.260592 21001 net.cpp:68] Creating Layer inception_4a/1x1
I0311 09:07:36.260606 21001 net.cpp:395] inception_4a/1x1 <- pool3/3x3_s2_pool3/3x3_s2_0_split_0
I0311 09:07:36.260622 21001 net.cpp:357] inception_4a/1x1 -> inception_4a/1x1
I0311 09:07:36.260643 21001 net.cpp:97] Setting up inception_4a/1x1
I0311 09:07:36.261832 21001 net.cpp:104] Top shape: 128 192 5 5 (614400)
I0311 09:07:36.261858 21001 layer_factory.hpp:78] Creating layer inception_4a/relu_1x1
I0311 09:07:36.261876 21001 net.cpp:68] Creating Layer inception_4a/relu_1x1
I0311 09:07:36.261890 21001 net.cpp:395] inception_4a/relu_1x1 <- inception_4a/1x1
I0311 09:07:36.261906 21001 net.cpp:346] inception_4a/relu_1x1 -> inception_4a/1x1 (in-place)
I0311 09:07:36.261922 21001 net.cpp:97] Setting up inception_4a/relu_1x1
I0311 09:07:36.261937 21001 net.cpp:104] Top shape: 128 192 5 5 (614400)
I0311 09:07:36.261950 21001 layer_factory.hpp:78] Creating layer inception_4a/3x3_reduce
I0311 09:07:36.261963 21001 net.cpp:68] Creating Layer inception_4a/3x3_reduce
I0311 09:07:36.261976 21001 net.cpp:395] inception_4a/3x3_reduce <- pool3/3x3_s2_pool3/3x3_s2_0_split_1
I0311 09:07:36.261991 21001 net.cpp:357] inception_4a/3x3_reduce -> inception_4a/3x3_reduce
I0311 09:07:36.262006 21001 net.cpp:97] Setting up inception_4a/3x3_reduce
I0311 09:07:36.262612 21001 net.cpp:104] Top shape: 128 96 5 5 (307200)
I0311 09:07:36.262645 21001 layer_factory.hpp:78] Creating layer inception_4a/relu_3x3_reduce
I0311 09:07:36.262681 21001 net.cpp:68] Creating Layer inception_4a/relu_3x3_reduce
I0311 09:07:36.262696 21001 net.cpp:395] inception_4a/relu_3x3_reduce <- inception_4a/3x3_reduce
I0311 09:07:36.262711 21001 net.cpp:346] inception_4a/relu_3x3_reduce -> inception_4a/3x3_reduce (in-place)
I0311 09:07:36.262725 21001 net.cpp:97] Setting up inception_4a/relu_3x3_reduce
I0311 09:07:36.262742 21001 net.cpp:104] Top shape: 128 96 5 5 (307200)
I0311 09:07:36.262753 21001 layer_factory.hpp:78] Creating layer inception_4a/3x3
I0311 09:07:36.262768 21001 net.cpp:68] Creating Layer inception_4a/3x3
I0311 09:07:36.262779 21001 net.cpp:395] inception_4a/3x3 <- inception_4a/3x3_reduce
I0311 09:07:36.262796 21001 net.cpp:357] inception_4a/3x3 -> inception_4a/3x3
I0311 09:07:36.262812 21001 net.cpp:97] Setting up inception_4a/3x3
I0311 09:07:36.264716 21001 net.cpp:104] Top shape: 128 208 5 5 (665600)
I0311 09:07:36.264740 21001 layer_factory.hpp:78] Creating layer inception_4a/relu_3x3
I0311 09:07:36.264758 21001 net.cpp:68] Creating Layer inception_4a/relu_3x3
I0311 09:07:36.264771 21001 net.cpp:395] inception_4a/relu_3x3 <- inception_4a/3x3
I0311 09:07:36.264785 21001 net.cpp:346] inception_4a/relu_3x3 -> inception_4a/3x3 (in-place)
I0311 09:07:36.264799 21001 net.cpp:97] Setting up inception_4a/relu_3x3
I0311 09:07:36.264813 21001 net.cpp:104] Top shape: 128 208 5 5 (665600)
I0311 09:07:36.264825 21001 layer_factory.hpp:78] Creating layer inception_4a/5x5_reduce
I0311 09:07:36.264842 21001 net.cpp:68] Creating Layer inception_4a/5x5_reduce
I0311 09:07:36.264854 21001 net.cpp:395] inception_4a/5x5_reduce <- pool3/3x3_s2_pool3/3x3_s2_0_split_2
I0311 09:07:36.264878 21001 net.cpp:357] inception_4a/5x5_reduce -> inception_4a/5x5_reduce
I0311 09:07:36.264897 21001 net.cpp:97] Setting up inception_4a/5x5_reduce
I0311 09:07:36.265064 21001 net.cpp:104] Top shape: 128 16 5 5 (51200)
I0311 09:07:36.265089 21001 layer_factory.hpp:78] Creating layer inception_4a/relu_5x5_reduce
I0311 09:07:36.265105 21001 net.cpp:68] Creating Layer inception_4a/relu_5x5_reduce
I0311 09:07:36.265117 21001 net.cpp:395] inception_4a/relu_5x5_reduce <- inception_4a/5x5_reduce
I0311 09:07:36.265131 21001 net.cpp:346] inception_4a/relu_5x5_reduce -> inception_4a/5x5_reduce (in-place)
I0311 09:07:36.265146 21001 net.cpp:97] Setting up inception_4a/relu_5x5_reduce
I0311 09:07:36.265161 21001 net.cpp:104] Top shape: 128 16 5 5 (51200)
I0311 09:07:36.265172 21001 layer_factory.hpp:78] Creating layer inception_4a/5x5
I0311 09:07:36.265188 21001 net.cpp:68] Creating Layer inception_4a/5x5
I0311 09:07:36.265202 21001 net.cpp:395] inception_4a/5x5 <- inception_4a/5x5_reduce
I0311 09:07:36.265215 21001 net.cpp:357] inception_4a/5x5 -> inception_4a/5x5
I0311 09:07:36.265231 21001 net.cpp:97] Setting up inception_4a/5x5
I0311 09:07:36.265512 21001 net.cpp:104] Top shape: 128 48 5 5 (153600)
I0311 09:07:36.265537 21001 layer_factory.hpp:78] Creating layer inception_4a/relu_5x5
I0311 09:07:36.265552 21001 net.cpp:68] Creating Layer inception_4a/relu_5x5
I0311 09:07:36.265564 21001 net.cpp:395] inception_4a/relu_5x5 <- inception_4a/5x5
I0311 09:07:36.265578 21001 net.cpp:346] inception_4a/relu_5x5 -> inception_4a/5x5 (in-place)
I0311 09:07:36.265594 21001 net.cpp:97] Setting up inception_4a/relu_5x5
I0311 09:07:36.265607 21001 net.cpp:104] Top shape: 128 48 5 5 (153600)
I0311 09:07:36.265619 21001 layer_factory.hpp:78] Creating layer inception_4a/pool
I0311 09:07:36.265630 21001 layer_factory.cpp:51] CUDNN does not support padding or multiple tops. Using Caffe's own pooling layer.
I0311 09:07:36.265646 21001 net.cpp:68] Creating Layer inception_4a/pool
I0311 09:07:36.265658 21001 net.cpp:395] inception_4a/pool <- pool3/3x3_s2_pool3/3x3_s2_0_split_3
I0311 09:07:36.265673 21001 net.cpp:357] inception_4a/pool -> inception_4a/pool
I0311 09:07:36.265687 21001 net.cpp:97] Setting up inception_4a/pool
I0311 09:07:36.265700 21001 net.cpp:104] Top shape: 128 480 5 5 (1536000)
I0311 09:07:36.265712 21001 layer_factory.hpp:78] Creating layer inception_4a/pool_proj
I0311 09:07:36.265750 21001 net.cpp:68] Creating Layer inception_4a/pool_proj
I0311 09:07:36.265769 21001 net.cpp:395] inception_4a/pool_proj <- inception_4a/pool
I0311 09:07:36.265786 21001 net.cpp:357] inception_4a/pool_proj -> inception_4a/pool_proj
I0311 09:07:36.265802 21001 net.cpp:97] Setting up inception_4a/pool_proj
I0311 09:07:36.266327 21001 net.cpp:104] Top shape: 128 64 5 5 (204800)
I0311 09:07:36.266352 21001 layer_factory.hpp:78] Creating layer inception_4a/relu_pool_proj
I0311 09:07:36.266371 21001 net.cpp:68] Creating Layer inception_4a/relu_pool_proj
I0311 09:07:36.266383 21001 net.cpp:395] inception_4a/relu_pool_proj <- inception_4a/pool_proj
I0311 09:07:36.266397 21001 net.cpp:346] inception_4a/relu_pool_proj -> inception_4a/pool_proj (in-place)
I0311 09:07:36.266412 21001 net.cpp:97] Setting up inception_4a/relu_pool_proj
I0311 09:07:36.266427 21001 net.cpp:104] Top shape: 128 64 5 5 (204800)
I0311 09:07:36.266438 21001 layer_factory.hpp:78] Creating layer inception_4a/output
I0311 09:07:36.266451 21001 net.cpp:68] Creating Layer inception_4a/output
I0311 09:07:36.266469 21001 net.cpp:395] inception_4a/output <- inception_4a/1x1
I0311 09:07:36.266482 21001 net.cpp:395] inception_4a/output <- inception_4a/3x3
I0311 09:07:36.266497 21001 net.cpp:395] inception_4a/output <- inception_4a/5x5
I0311 09:07:36.266510 21001 net.cpp:395] inception_4a/output <- inception_4a/pool_proj
I0311 09:07:36.266523 21001 net.cpp:357] inception_4a/output -> inception_4a/output
I0311 09:07:36.266538 21001 net.cpp:97] Setting up inception_4a/output
I0311 09:07:36.266551 21001 net.cpp:104] Top shape: 128 512 5 5 (1638400)
I0311 09:07:36.266562 21001 layer_factory.hpp:78] Creating layer inception_4a/output_inception_4a/output_0_split
I0311 09:07:36.266580 21001 net.cpp:68] Creating Layer inception_4a/output_inception_4a/output_0_split
I0311 09:07:36.266592 21001 net.cpp:395] inception_4a/output_inception_4a/output_0_split <- inception_4a/output
I0311 09:07:36.266607 21001 net.cpp:357] inception_4a/output_inception_4a/output_0_split -> inception_4a/output_inception_4a/output_0_split_0
I0311 09:07:36.266623 21001 net.cpp:357] inception_4a/output_inception_4a/output_0_split -> inception_4a/output_inception_4a/output_0_split_1
I0311 09:07:36.266643 21001 net.cpp:357] inception_4a/output_inception_4a/output_0_split -> inception_4a/output_inception_4a/output_0_split_2
I0311 09:07:36.266659 21001 net.cpp:357] inception_4a/output_inception_4a/output_0_split -> inception_4a/output_inception_4a/output_0_split_3
I0311 09:07:36.266674 21001 net.cpp:357] inception_4a/output_inception_4a/output_0_split -> inception_4a/output_inception_4a/output_0_split_4
I0311 09:07:36.266690 21001 net.cpp:97] Setting up inception_4a/output_inception_4a/output_0_split
I0311 09:07:36.266702 21001 net.cpp:104] Top shape: 128 512 5 5 (1638400)
I0311 09:07:36.266713 21001 net.cpp:104] Top shape: 128 512 5 5 (1638400)
I0311 09:07:36.266724 21001 net.cpp:104] Top shape: 128 512 5 5 (1638400)
I0311 09:07:36.266734 21001 net.cpp:104] Top shape: 128 512 5 5 (1638400)
I0311 09:07:36.266746 21001 net.cpp:104] Top shape: 128 512 5 5 (1638400)
I0311 09:07:36.266757 21001 layer_factory.hpp:78] Creating layer loss1/ave_pool
I0311 09:07:36.266770 21001 net.cpp:68] Creating Layer loss1/ave_pool
I0311 09:07:36.266784 21001 net.cpp:395] loss1/ave_pool <- inception_4a/output_inception_4a/output_0_split_0
I0311 09:07:36.266803 21001 net.cpp:357] loss1/ave_pool -> loss1/ave_pool
I0311 09:07:36.266819 21001 net.cpp:97] Setting up loss1/ave_pool
I0311 09:07:36.266834 21001 net.cpp:104] Top shape: 128 512 1 1 (65536)
I0311 09:07:36.266846 21001 layer_factory.hpp:78] Creating layer loss1/conv
I0311 09:07:36.266861 21001 net.cpp:68] Creating Layer loss1/conv
I0311 09:07:36.266872 21001 net.cpp:395] loss1/conv <- loss1/ave_pool
I0311 09:07:36.266891 21001 net.cpp:357] loss1/conv -> loss1/conv
I0311 09:07:36.266906 21001 net.cpp:97] Setting up loss1/conv
I0311 09:07:36.267721 21001 net.cpp:104] Top shape: 128 128 1 1 (16384)
I0311 09:07:36.267745 21001 layer_factory.hpp:78] Creating layer loss1/relu_conv
I0311 09:07:36.267781 21001 net.cpp:68] Creating Layer loss1/relu_conv
I0311 09:07:36.267796 21001 net.cpp:395] loss1/relu_conv <- loss1/conv
I0311 09:07:36.267809 21001 net.cpp:346] loss1/relu_conv -> loss1/conv (in-place)
I0311 09:07:36.267823 21001 net.cpp:97] Setting up loss1/relu_conv
I0311 09:07:36.267838 21001 net.cpp:104] Top shape: 128 128 1 1 (16384)
I0311 09:07:36.267851 21001 layer_factory.hpp:78] Creating layer loss1/fc
I0311 09:07:36.267868 21001 net.cpp:68] Creating Layer loss1/fc
I0311 09:07:36.267881 21001 net.cpp:395] loss1/fc <- loss1/conv
I0311 09:07:36.267895 21001 net.cpp:357] loss1/fc -> loss1/fc
I0311 09:07:36.267912 21001 net.cpp:97] Setting up loss1/fc
I0311 09:07:36.269315 21001 net.cpp:104] Top shape: 128 1024 1 1 (131072)
I0311 09:07:36.269340 21001 layer_factory.hpp:78] Creating layer loss1/relu_fc
I0311 09:07:36.269357 21001 net.cpp:68] Creating Layer loss1/relu_fc
I0311 09:07:36.269371 21001 net.cpp:395] loss1/relu_fc <- loss1/fc
I0311 09:07:36.269383 21001 net.cpp:346] loss1/relu_fc -> loss1/fc (in-place)
I0311 09:07:36.269397 21001 net.cpp:97] Setting up loss1/relu_fc
I0311 09:07:36.269413 21001 net.cpp:104] Top shape: 128 1024 1 1 (131072)
I0311 09:07:36.269425 21001 layer_factory.hpp:78] Creating layer loss1/drop_fc
I0311 09:07:36.269449 21001 net.cpp:68] Creating Layer loss1/drop_fc
I0311 09:07:36.269462 21001 net.cpp:395] loss1/drop_fc <- loss1/fc
I0311 09:07:36.269476 21001 net.cpp:346] loss1/drop_fc -> loss1/fc (in-place)
I0311 09:07:36.269490 21001 net.cpp:97] Setting up loss1/drop_fc
I0311 09:07:36.269505 21001 net.cpp:104] Top shape: 128 1024 1 1 (131072)
I0311 09:07:36.269517 21001 layer_factory.hpp:78] Creating layer loss1/classifier
I0311 09:07:36.269534 21001 net.cpp:68] Creating Layer loss1/classifier
I0311 09:07:36.269546 21001 net.cpp:395] loss1/classifier <- loss1/fc
I0311 09:07:36.269563 21001 net.cpp:357] loss1/classifier -> loss1/classifier
I0311 09:07:36.269579 21001 net.cpp:97] Setting up loss1/classifier
I0311 09:07:36.270900 21001 net.cpp:104] Top shape: 128 121 1 1 (15488)
I0311 09:07:36.270925 21001 layer_factory.hpp:78] Creating layer loss1/loss
I0311 09:07:36.270941 21001 net.cpp:68] Creating Layer loss1/loss
I0311 09:07:36.270953 21001 net.cpp:395] loss1/loss <- loss1/classifier
I0311 09:07:36.270983 21001 net.cpp:395] loss1/loss <- label_data_1_split_0
I0311 09:07:36.271003 21001 net.cpp:357] loss1/loss -> loss1/loss1
I0311 09:07:36.271020 21001 net.cpp:97] Setting up loss1/loss
I0311 09:07:36.271036 21001 layer_factory.hpp:78] Creating layer loss1/loss
I0311 09:07:36.271100 21001 net.cpp:104] Top shape: 1 1 1 1 (1)
I0311 09:07:36.271116 21001 net.cpp:110]     with loss weight 0.3
I0311 09:07:36.271165 21001 layer_factory.hpp:78] Creating layer inception_4b/1x1
I0311 09:07:36.271183 21001 net.cpp:68] Creating Layer inception_4b/1x1
I0311 09:07:36.271196 21001 net.cpp:395] inception_4b/1x1 <- inception_4a/output_inception_4a/output_0_split_1
I0311 09:07:36.271215 21001 net.cpp:357] inception_4b/1x1 -> inception_4b/1x1
I0311 09:07:36.271232 21001 net.cpp:97] Setting up inception_4b/1x1
I0311 09:07:36.272194 21001 net.cpp:104] Top shape: 128 160 5 5 (512000)
I0311 09:07:36.272223 21001 layer_factory.hpp:78] Creating layer inception_4b/relu_1x1
I0311 09:07:36.272238 21001 net.cpp:68] Creating Layer inception_4b/relu_1x1
I0311 09:07:36.272251 21001 net.cpp:395] inception_4b/relu_1x1 <- inception_4b/1x1
I0311 09:07:36.272265 21001 net.cpp:346] inception_4b/relu_1x1 -> inception_4b/1x1 (in-place)
I0311 09:07:36.272280 21001 net.cpp:97] Setting up inception_4b/relu_1x1
I0311 09:07:36.272295 21001 net.cpp:104] Top shape: 128 160 5 5 (512000)
I0311 09:07:36.272307 21001 layer_factory.hpp:78] Creating layer inception_4b/3x3_reduce
I0311 09:07:36.272325 21001 net.cpp:68] Creating Layer inception_4b/3x3_reduce
I0311 09:07:36.272336 21001 net.cpp:395] inception_4b/3x3_reduce <- inception_4a/output_inception_4a/output_0_split_2
I0311 09:07:36.272351 21001 net.cpp:357] inception_4b/3x3_reduce -> inception_4b/3x3_reduce
I0311 09:07:36.272367 21001 net.cpp:97] Setting up inception_4b/3x3_reduce
I0311 09:07:36.273164 21001 net.cpp:104] Top shape: 128 112 5 5 (358400)
I0311 09:07:36.273190 21001 layer_factory.hpp:78] Creating layer inception_4b/relu_3x3_reduce
I0311 09:07:36.273205 21001 net.cpp:68] Creating Layer inception_4b/relu_3x3_reduce
I0311 09:07:36.273216 21001 net.cpp:395] inception_4b/relu_3x3_reduce <- inception_4b/3x3_reduce
I0311 09:07:36.273231 21001 net.cpp:346] inception_4b/relu_3x3_reduce -> inception_4b/3x3_reduce (in-place)
I0311 09:07:36.273247 21001 net.cpp:97] Setting up inception_4b/relu_3x3_reduce
I0311 09:07:36.273260 21001 net.cpp:104] Top shape: 128 112 5 5 (358400)
I0311 09:07:36.273272 21001 layer_factory.hpp:78] Creating layer inception_4b/3x3
I0311 09:07:36.273289 21001 net.cpp:68] Creating Layer inception_4b/3x3
I0311 09:07:36.273303 21001 net.cpp:395] inception_4b/3x3 <- inception_4b/3x3_reduce
I0311 09:07:36.273320 21001 net.cpp:357] inception_4b/3x3 -> inception_4b/3x3
I0311 09:07:36.273336 21001 net.cpp:97] Setting up inception_4b/3x3
I0311 09:07:36.275763 21001 net.cpp:104] Top shape: 128 224 5 5 (716800)
I0311 09:07:36.275787 21001 layer_factory.hpp:78] Creating layer inception_4b/relu_3x3
I0311 09:07:36.275805 21001 net.cpp:68] Creating Layer inception_4b/relu_3x3
I0311 09:07:36.275818 21001 net.cpp:395] inception_4b/relu_3x3 <- inception_4b/3x3
I0311 09:07:36.275832 21001 net.cpp:346] inception_4b/relu_3x3 -> inception_4b/3x3 (in-place)
I0311 09:07:36.275847 21001 net.cpp:97] Setting up inception_4b/relu_3x3
I0311 09:07:36.275862 21001 net.cpp:104] Top shape: 128 224 5 5 (716800)
I0311 09:07:36.275873 21001 layer_factory.hpp:78] Creating layer inception_4b/5x5_reduce
I0311 09:07:36.275897 21001 net.cpp:68] Creating Layer inception_4b/5x5_reduce
I0311 09:07:36.275913 21001 net.cpp:395] inception_4b/5x5_reduce <- inception_4a/output_inception_4a/output_0_split_3
I0311 09:07:36.275929 21001 net.cpp:357] inception_4b/5x5_reduce -> inception_4b/5x5_reduce
I0311 09:07:36.275944 21001 net.cpp:97] Setting up inception_4b/5x5_reduce
I0311 09:07:36.276285 21001 net.cpp:104] Top shape: 128 24 5 5 (76800)
I0311 09:07:36.276310 21001 layer_factory.hpp:78] Creating layer inception_4b/relu_5x5_reduce
I0311 09:07:36.276329 21001 net.cpp:68] Creating Layer inception_4b/relu_5x5_reduce
I0311 09:07:36.276341 21001 net.cpp:395] inception_4b/relu_5x5_reduce <- inception_4b/5x5_reduce
I0311 09:07:36.276355 21001 net.cpp:346] inception_4b/relu_5x5_reduce -> inception_4b/5x5_reduce (in-place)
I0311 09:07:36.276371 21001 net.cpp:97] Setting up inception_4b/relu_5x5_reduce
I0311 09:07:36.276386 21001 net.cpp:104] Top shape: 128 24 5 5 (76800)
I0311 09:07:36.276397 21001 layer_factory.hpp:78] Creating layer inception_4b/5x5
I0311 09:07:36.276412 21001 net.cpp:68] Creating Layer inception_4b/5x5
I0311 09:07:36.276423 21001 net.cpp:395] inception_4b/5x5 <- inception_4b/5x5_reduce
I0311 09:07:36.276440 21001 net.cpp:357] inception_4b/5x5 -> inception_4b/5x5
I0311 09:07:36.276456 21001 net.cpp:97] Setting up inception_4b/5x5
I0311 09:07:36.276993 21001 net.cpp:104] Top shape: 128 64 5 5 (204800)
I0311 09:07:36.277017 21001 layer_factory.hpp:78] Creating layer inception_4b/relu_5x5
I0311 09:07:36.277034 21001 net.cpp:68] Creating Layer inception_4b/relu_5x5
I0311 09:07:36.277047 21001 net.cpp:395] inception_4b/relu_5x5 <- inception_4b/5x5
I0311 09:07:36.277061 21001 net.cpp:346] inception_4b/relu_5x5 -> inception_4b/5x5 (in-place)
I0311 09:07:36.277076 21001 net.cpp:97] Setting up inception_4b/relu_5x5
I0311 09:07:36.277091 21001 net.cpp:104] Top shape: 128 64 5 5 (204800)
I0311 09:07:36.277102 21001 layer_factory.hpp:78] Creating layer inception_4b/pool
I0311 09:07:36.277114 21001 layer_factory.cpp:51] CUDNN does not support padding or multiple tops. Using Caffe's own pooling layer.
I0311 09:07:36.277130 21001 net.cpp:68] Creating Layer inception_4b/pool
I0311 09:07:36.277143 21001 net.cpp:395] inception_4b/pool <- inception_4a/output_inception_4a/output_0_split_4
I0311 09:07:36.277158 21001 net.cpp:357] inception_4b/pool -> inception_4b/pool
I0311 09:07:36.277210 21001 net.cpp:97] Setting up inception_4b/pool
I0311 09:07:36.277228 21001 net.cpp:104] Top shape: 128 512 5 5 (1638400)
I0311 09:07:36.277240 21001 layer_factory.hpp:78] Creating layer inception_4b/pool_proj
I0311 09:07:36.277256 21001 net.cpp:68] Creating Layer inception_4b/pool_proj
I0311 09:07:36.277267 21001 net.cpp:395] inception_4b/pool_proj <- inception_4b/pool
I0311 09:07:36.277284 21001 net.cpp:357] inception_4b/pool_proj -> inception_4b/pool_proj
I0311 09:07:36.277300 21001 net.cpp:97] Setting up inception_4b/pool_proj
I0311 09:07:36.277710 21001 net.cpp:104] Top shape: 128 64 5 5 (204800)
I0311 09:07:36.277734 21001 layer_factory.hpp:78] Creating layer inception_4b/relu_pool_proj
I0311 09:07:36.277747 21001 net.cpp:68] Creating Layer inception_4b/relu_pool_proj
I0311 09:07:36.277762 21001 net.cpp:395] inception_4b/relu_pool_proj <- inception_4b/pool_proj
I0311 09:07:36.277776 21001 net.cpp:346] inception_4b/relu_pool_proj -> inception_4b/pool_proj (in-place)
I0311 09:07:36.277791 21001 net.cpp:97] Setting up inception_4b/relu_pool_proj
I0311 09:07:36.277807 21001 net.cpp:104] Top shape: 128 64 5 5 (204800)
I0311 09:07:36.277819 21001 layer_factory.hpp:78] Creating layer inception_4b/output
I0311 09:07:36.277835 21001 net.cpp:68] Creating Layer inception_4b/output
I0311 09:07:36.277848 21001 net.cpp:395] inception_4b/output <- inception_4b/1x1
I0311 09:07:36.277861 21001 net.cpp:395] inception_4b/output <- inception_4b/3x3
I0311 09:07:36.277873 21001 net.cpp:395] inception_4b/output <- inception_4b/5x5
I0311 09:07:36.277885 21001 net.cpp:395] inception_4b/output <- inception_4b/pool_proj
I0311 09:07:36.277899 21001 net.cpp:357] inception_4b/output -> inception_4b/output
I0311 09:07:36.277915 21001 net.cpp:97] Setting up inception_4b/output
I0311 09:07:36.277926 21001 net.cpp:104] Top shape: 128 512 5 5 (1638400)
I0311 09:07:36.277937 21001 layer_factory.hpp:78] Creating layer inception_4b/output_inception_4b/output_0_split
I0311 09:07:36.277951 21001 net.cpp:68] Creating Layer inception_4b/output_inception_4b/output_0_split
I0311 09:07:36.277966 21001 net.cpp:395] inception_4b/output_inception_4b/output_0_split <- inception_4b/output
I0311 09:07:36.277981 21001 net.cpp:357] inception_4b/output_inception_4b/output_0_split -> inception_4b/output_inception_4b/output_0_split_0
I0311 09:07:36.278000 21001 net.cpp:357] inception_4b/output_inception_4b/output_0_split -> inception_4b/output_inception_4b/output_0_split_1
I0311 09:07:36.278017 21001 net.cpp:357] inception_4b/output_inception_4b/output_0_split -> inception_4b/output_inception_4b/output_0_split_2
I0311 09:07:36.278033 21001 net.cpp:357] inception_4b/output_inception_4b/output_0_split -> inception_4b/output_inception_4b/output_0_split_3
I0311 09:07:36.278048 21001 net.cpp:97] Setting up inception_4b/output_inception_4b/output_0_split
I0311 09:07:36.278061 21001 net.cpp:104] Top shape: 128 512 5 5 (1638400)
I0311 09:07:36.278072 21001 net.cpp:104] Top shape: 128 512 5 5 (1638400)
I0311 09:07:36.278084 21001 net.cpp:104] Top shape: 128 512 5 5 (1638400)
I0311 09:07:36.278095 21001 net.cpp:104] Top shape: 128 512 5 5 (1638400)
I0311 09:07:36.278105 21001 layer_factory.hpp:78] Creating layer inception_4c/1x1
I0311 09:07:36.278122 21001 net.cpp:68] Creating Layer inception_4c/1x1
I0311 09:07:36.278134 21001 net.cpp:395] inception_4c/1x1 <- inception_4b/output_inception_4b/output_0_split_0
I0311 09:07:36.278151 21001 net.cpp:357] inception_4c/1x1 -> inception_4c/1x1
I0311 09:07:36.278167 21001 net.cpp:97] Setting up inception_4c/1x1
I0311 09:07:36.278935 21001 net.cpp:104] Top shape: 128 128 5 5 (409600)
I0311 09:07:36.278959 21001 layer_factory.hpp:78] Creating layer inception_4c/relu_1x1
I0311 09:07:36.278973 21001 net.cpp:68] Creating Layer inception_4c/relu_1x1
I0311 09:07:36.278985 21001 net.cpp:395] inception_4c/relu_1x1 <- inception_4c/1x1
I0311 09:07:36.279002 21001 net.cpp:346] inception_4c/relu_1x1 -> inception_4c/1x1 (in-place)
I0311 09:07:36.279018 21001 net.cpp:97] Setting up inception_4c/relu_1x1
I0311 09:07:36.279033 21001 net.cpp:104] Top shape: 128 128 5 5 (409600)
I0311 09:07:36.279062 21001 layer_factory.hpp:78] Creating layer inception_4c/3x3_reduce
I0311 09:07:36.279078 21001 net.cpp:68] Creating Layer inception_4c/3x3_reduce
I0311 09:07:36.279090 21001 net.cpp:395] inception_4c/3x3_reduce <- inception_4b/output_inception_4b/output_0_split_1
I0311 09:07:36.279109 21001 net.cpp:357] inception_4c/3x3_reduce -> inception_4c/3x3_reduce
I0311 09:07:36.279125 21001 net.cpp:97] Setting up inception_4c/3x3_reduce
I0311 09:07:36.279904 21001 net.cpp:104] Top shape: 128 128 5 5 (409600)
I0311 09:07:36.279928 21001 layer_factory.hpp:78] Creating layer inception_4c/relu_3x3_reduce
I0311 09:07:36.279943 21001 net.cpp:68] Creating Layer inception_4c/relu_3x3_reduce
I0311 09:07:36.279956 21001 net.cpp:395] inception_4c/relu_3x3_reduce <- inception_4c/3x3_reduce
I0311 09:07:36.279973 21001 net.cpp:346] inception_4c/relu_3x3_reduce -> inception_4c/3x3_reduce (in-place)
I0311 09:07:36.279989 21001 net.cpp:97] Setting up inception_4c/relu_3x3_reduce
I0311 09:07:36.280004 21001 net.cpp:104] Top shape: 128 128 5 5 (409600)
I0311 09:07:36.280015 21001 layer_factory.hpp:78] Creating layer inception_4c/3x3
I0311 09:07:36.280030 21001 net.cpp:68] Creating Layer inception_4c/3x3
I0311 09:07:36.280041 21001 net.cpp:395] inception_4c/3x3 <- inception_4c/3x3_reduce
I0311 09:07:36.280057 21001 net.cpp:357] inception_4c/3x3 -> inception_4c/3x3
I0311 09:07:36.280073 21001 net.cpp:97] Setting up inception_4c/3x3
I0311 09:07:36.283301 21001 net.cpp:104] Top shape: 128 256 5 5 (819200)
I0311 09:07:36.283339 21001 layer_factory.hpp:78] Creating layer inception_4c/relu_3x3
I0311 09:07:36.283356 21001 net.cpp:68] Creating Layer inception_4c/relu_3x3
I0311 09:07:36.283368 21001 net.cpp:395] inception_4c/relu_3x3 <- inception_4c/3x3
I0311 09:07:36.283385 21001 net.cpp:346] inception_4c/relu_3x3 -> inception_4c/3x3 (in-place)
I0311 09:07:36.283401 21001 net.cpp:97] Setting up inception_4c/relu_3x3
I0311 09:07:36.283416 21001 net.cpp:104] Top shape: 128 256 5 5 (819200)
I0311 09:07:36.283427 21001 layer_factory.hpp:78] Creating layer inception_4c/5x5_reduce
I0311 09:07:36.283442 21001 net.cpp:68] Creating Layer inception_4c/5x5_reduce
I0311 09:07:36.283454 21001 net.cpp:395] inception_4c/5x5_reduce <- inception_4b/output_inception_4b/output_0_split_2
I0311 09:07:36.283473 21001 net.cpp:357] inception_4c/5x5_reduce -> inception_4c/5x5_reduce
I0311 09:07:36.283488 21001 net.cpp:97] Setting up inception_4c/5x5_reduce
I0311 09:07:36.283684 21001 net.cpp:104] Top shape: 128 24 5 5 (76800)
I0311 09:07:36.283705 21001 layer_factory.hpp:78] Creating layer inception_4c/relu_5x5_reduce
I0311 09:07:36.283720 21001 net.cpp:68] Creating Layer inception_4c/relu_5x5_reduce
I0311 09:07:36.283732 21001 net.cpp:395] inception_4c/relu_5x5_reduce <- inception_4c/5x5_reduce
I0311 09:07:36.283751 21001 net.cpp:346] inception_4c/relu_5x5_reduce -> inception_4c/5x5_reduce (in-place)
I0311 09:07:36.283766 21001 net.cpp:97] Setting up inception_4c/relu_5x5_reduce
I0311 09:07:36.283782 21001 net.cpp:104] Top shape: 128 24 5 5 (76800)
I0311 09:07:36.283793 21001 layer_factory.hpp:78] Creating layer inception_4c/5x5
I0311 09:07:36.283808 21001 net.cpp:68] Creating Layer inception_4c/5x5
I0311 09:07:36.283821 21001 net.cpp:395] inception_4c/5x5 <- inception_4c/5x5_reduce
I0311 09:07:36.283838 21001 net.cpp:357] inception_4c/5x5 -> inception_4c/5x5
I0311 09:07:36.283859 21001 net.cpp:97] Setting up inception_4c/5x5
I0311 09:07:36.284325 21001 net.cpp:104] Top shape: 128 64 5 5 (204800)
I0311 09:07:36.284351 21001 layer_factory.hpp:78] Creating layer inception_4c/relu_5x5
I0311 09:07:36.284368 21001 net.cpp:68] Creating Layer inception_4c/relu_5x5
I0311 09:07:36.284381 21001 net.cpp:395] inception_4c/relu_5x5 <- inception_4c/5x5
I0311 09:07:36.284394 21001 net.cpp:346] inception_4c/relu_5x5 -> inception_4c/5x5 (in-place)
I0311 09:07:36.284409 21001 net.cpp:97] Setting up inception_4c/relu_5x5
I0311 09:07:36.284423 21001 net.cpp:104] Top shape: 128 64 5 5 (204800)
I0311 09:07:36.284435 21001 layer_factory.hpp:78] Creating layer inception_4c/pool
I0311 09:07:36.284467 21001 layer_factory.cpp:51] CUDNN does not support padding or multiple tops. Using Caffe's own pooling layer.
I0311 09:07:36.284487 21001 net.cpp:68] Creating Layer inception_4c/pool
I0311 09:07:36.284498 21001 net.cpp:395] inception_4c/pool <- inception_4b/output_inception_4b/output_0_split_3
I0311 09:07:36.284513 21001 net.cpp:357] inception_4c/pool -> inception_4c/pool
I0311 09:07:36.284529 21001 net.cpp:97] Setting up inception_4c/pool
I0311 09:07:36.284543 21001 net.cpp:104] Top shape: 128 512 5 5 (1638400)
I0311 09:07:36.284554 21001 layer_factory.hpp:78] Creating layer inception_4c/pool_proj
I0311 09:07:36.284569 21001 net.cpp:68] Creating Layer inception_4c/pool_proj
I0311 09:07:36.284580 21001 net.cpp:395] inception_4c/pool_proj <- inception_4c/pool
I0311 09:07:36.284597 21001 net.cpp:357] inception_4c/pool_proj -> inception_4c/pool_proj
I0311 09:07:36.284613 21001 net.cpp:97] Setting up inception_4c/pool_proj
I0311 09:07:36.285040 21001 net.cpp:104] Top shape: 128 64 5 5 (204800)
I0311 09:07:36.285065 21001 layer_factory.hpp:78] Creating layer inception_4c/relu_pool_proj
I0311 09:07:36.285080 21001 net.cpp:68] Creating Layer inception_4c/relu_pool_proj
I0311 09:07:36.285094 21001 net.cpp:395] inception_4c/relu_pool_proj <- inception_4c/pool_proj
I0311 09:07:36.285106 21001 net.cpp:346] inception_4c/relu_pool_proj -> inception_4c/pool_proj (in-place)
I0311 09:07:36.285122 21001 net.cpp:97] Setting up inception_4c/relu_pool_proj
I0311 09:07:36.285136 21001 net.cpp:104] Top shape: 128 64 5 5 (204800)
I0311 09:07:36.285150 21001 layer_factory.hpp:78] Creating layer inception_4c/output
I0311 09:07:36.285162 21001 net.cpp:68] Creating Layer inception_4c/output
I0311 09:07:36.285174 21001 net.cpp:395] inception_4c/output <- inception_4c/1x1
I0311 09:07:36.285187 21001 net.cpp:395] inception_4c/output <- inception_4c/3x3
I0311 09:07:36.285199 21001 net.cpp:395] inception_4c/output <- inception_4c/5x5
I0311 09:07:36.285212 21001 net.cpp:395] inception_4c/output <- inception_4c/pool_proj
I0311 09:07:36.285228 21001 net.cpp:357] inception_4c/output -> inception_4c/output
I0311 09:07:36.285243 21001 net.cpp:97] Setting up inception_4c/output
I0311 09:07:36.285256 21001 net.cpp:104] Top shape: 128 512 5 5 (1638400)
I0311 09:07:36.285267 21001 layer_factory.hpp:78] Creating layer inception_4c/output_inception_4c/output_0_split
I0311 09:07:36.285281 21001 net.cpp:68] Creating Layer inception_4c/output_inception_4c/output_0_split
I0311 09:07:36.285295 21001 net.cpp:395] inception_4c/output_inception_4c/output_0_split <- inception_4c/output
I0311 09:07:36.285310 21001 net.cpp:357] inception_4c/output_inception_4c/output_0_split -> inception_4c/output_inception_4c/output_0_split_0
I0311 09:07:36.285327 21001 net.cpp:357] inception_4c/output_inception_4c/output_0_split -> inception_4c/output_inception_4c/output_0_split_1
I0311 09:07:36.285344 21001 net.cpp:357] inception_4c/output_inception_4c/output_0_split -> inception_4c/output_inception_4c/output_0_split_2
I0311 09:07:36.285361 21001 net.cpp:357] inception_4c/output_inception_4c/output_0_split -> inception_4c/output_inception_4c/output_0_split_3
I0311 09:07:36.285375 21001 net.cpp:97] Setting up inception_4c/output_inception_4c/output_0_split
I0311 09:07:36.285387 21001 net.cpp:104] Top shape: 128 512 5 5 (1638400)
I0311 09:07:36.285399 21001 net.cpp:104] Top shape: 128 512 5 5 (1638400)
I0311 09:07:36.285410 21001 net.cpp:104] Top shape: 128 512 5 5 (1638400)
I0311 09:07:36.285420 21001 net.cpp:104] Top shape: 128 512 5 5 (1638400)
I0311 09:07:36.285431 21001 layer_factory.hpp:78] Creating layer inception_4d/1x1
I0311 09:07:36.285449 21001 net.cpp:68] Creating Layer inception_4d/1x1
I0311 09:07:36.285460 21001 net.cpp:395] inception_4d/1x1 <- inception_4c/output_inception_4c/output_0_split_0
I0311 09:07:36.285475 21001 net.cpp:357] inception_4d/1x1 -> inception_4d/1x1
I0311 09:07:36.285490 21001 net.cpp:97] Setting up inception_4d/1x1
I0311 09:07:36.286147 21001 net.cpp:104] Top shape: 128 112 5 5 (358400)
I0311 09:07:36.286170 21001 layer_factory.hpp:78] Creating layer inception_4d/relu_1x1
I0311 09:07:36.286205 21001 net.cpp:68] Creating Layer inception_4d/relu_1x1
I0311 09:07:36.286218 21001 net.cpp:395] inception_4d/relu_1x1 <- inception_4d/1x1
I0311 09:07:36.286231 21001 net.cpp:346] inception_4d/relu_1x1 -> inception_4d/1x1 (in-place)
I0311 09:07:36.286247 21001 net.cpp:97] Setting up inception_4d/relu_1x1
I0311 09:07:36.286262 21001 net.cpp:104] Top shape: 128 112 5 5 (358400)
I0311 09:07:36.286273 21001 layer_factory.hpp:78] Creating layer inception_4d/3x3_reduce
I0311 09:07:36.286290 21001 net.cpp:68] Creating Layer inception_4d/3x3_reduce
I0311 09:07:36.286303 21001 net.cpp:395] inception_4d/3x3_reduce <- inception_4c/output_inception_4c/output_0_split_1
I0311 09:07:36.286317 21001 net.cpp:357] inception_4d/3x3_reduce -> inception_4d/3x3_reduce
I0311 09:07:36.286334 21001 net.cpp:97] Setting up inception_4d/3x3_reduce
I0311 09:07:36.287291 21001 net.cpp:104] Top shape: 128 144 5 5 (460800)
I0311 09:07:36.287315 21001 layer_factory.hpp:78] Creating layer inception_4d/relu_3x3_reduce
I0311 09:07:36.287330 21001 net.cpp:68] Creating Layer inception_4d/relu_3x3_reduce
I0311 09:07:36.287343 21001 net.cpp:395] inception_4d/relu_3x3_reduce <- inception_4d/3x3_reduce
I0311 09:07:36.287359 21001 net.cpp:346] inception_4d/relu_3x3_reduce -> inception_4d/3x3_reduce (in-place)
I0311 09:07:36.287374 21001 net.cpp:97] Setting up inception_4d/relu_3x3_reduce
I0311 09:07:36.287390 21001 net.cpp:104] Top shape: 128 144 5 5 (460800)
I0311 09:07:36.287402 21001 layer_factory.hpp:78] Creating layer inception_4d/3x3
I0311 09:07:36.287417 21001 net.cpp:68] Creating Layer inception_4d/3x3
I0311 09:07:36.287430 21001 net.cpp:395] inception_4d/3x3 <- inception_4d/3x3_reduce
I0311 09:07:36.287446 21001 net.cpp:357] inception_4d/3x3 -> inception_4d/3x3
I0311 09:07:36.287462 21001 net.cpp:97] Setting up inception_4d/3x3
I0311 09:07:36.291400 21001 net.cpp:104] Top shape: 128 288 5 5 (921600)
I0311 09:07:36.291425 21001 layer_factory.hpp:78] Creating layer inception_4d/relu_3x3
I0311 09:07:36.291443 21001 net.cpp:68] Creating Layer inception_4d/relu_3x3
I0311 09:07:36.291456 21001 net.cpp:395] inception_4d/relu_3x3 <- inception_4d/3x3
I0311 09:07:36.291470 21001 net.cpp:346] inception_4d/relu_3x3 -> inception_4d/3x3 (in-place)
I0311 09:07:36.291486 21001 net.cpp:97] Setting up inception_4d/relu_3x3
I0311 09:07:36.291501 21001 net.cpp:104] Top shape: 128 288 5 5 (921600)
I0311 09:07:36.291512 21001 layer_factory.hpp:78] Creating layer inception_4d/5x5_reduce
I0311 09:07:36.291528 21001 net.cpp:68] Creating Layer inception_4d/5x5_reduce
I0311 09:07:36.291542 21001 net.cpp:395] inception_4d/5x5_reduce <- inception_4c/output_inception_4c/output_0_split_2
I0311 09:07:36.291556 21001 net.cpp:357] inception_4d/5x5_reduce -> inception_4d/5x5_reduce
I0311 09:07:36.291574 21001 net.cpp:97] Setting up inception_4d/5x5_reduce
I0311 09:07:36.291811 21001 net.cpp:104] Top shape: 128 32 5 5 (102400)
I0311 09:07:36.291833 21001 layer_factory.hpp:78] Creating layer inception_4d/relu_5x5_reduce
I0311 09:07:36.291852 21001 net.cpp:68] Creating Layer inception_4d/relu_5x5_reduce
I0311 09:07:36.291867 21001 net.cpp:395] inception_4d/relu_5x5_reduce <- inception_4d/5x5_reduce
I0311 09:07:36.291880 21001 net.cpp:346] inception_4d/relu_5x5_reduce -> inception_4d/5x5_reduce (in-place)
I0311 09:07:36.291898 21001 net.cpp:97] Setting up inception_4d/relu_5x5_reduce
I0311 09:07:36.291913 21001 net.cpp:104] Top shape: 128 32 5 5 (102400)
I0311 09:07:36.291925 21001 layer_factory.hpp:78] Creating layer inception_4d/5x5
I0311 09:07:36.291939 21001 net.cpp:68] Creating Layer inception_4d/5x5
I0311 09:07:36.291951 21001 net.cpp:395] inception_4d/5x5 <- inception_4d/5x5_reduce
I0311 09:07:36.291966 21001 net.cpp:357] inception_4d/5x5 -> inception_4d/5x5
I0311 09:07:36.291982 21001 net.cpp:97] Setting up inception_4d/5x5
I0311 09:07:36.292582 21001 net.cpp:104] Top shape: 128 64 5 5 (204800)
I0311 09:07:36.292605 21001 layer_factory.hpp:78] Creating layer inception_4d/relu_5x5
I0311 09:07:36.292621 21001 net.cpp:68] Creating Layer inception_4d/relu_5x5
I0311 09:07:36.292655 21001 net.cpp:395] inception_4d/relu_5x5 <- inception_4d/5x5
I0311 09:07:36.292671 21001 net.cpp:346] inception_4d/relu_5x5 -> inception_4d/5x5 (in-place)
I0311 09:07:36.292686 21001 net.cpp:97] Setting up inception_4d/relu_5x5
I0311 09:07:36.292701 21001 net.cpp:104] Top shape: 128 64 5 5 (204800)
I0311 09:07:36.292712 21001 layer_factory.hpp:78] Creating layer inception_4d/pool
I0311 09:07:36.292726 21001 layer_factory.cpp:51] CUDNN does not support padding or multiple tops. Using Caffe's own pooling layer.
I0311 09:07:36.292738 21001 net.cpp:68] Creating Layer inception_4d/pool
I0311 09:07:36.292750 21001 net.cpp:395] inception_4d/pool <- inception_4c/output_inception_4c/output_0_split_3
I0311 09:07:36.292768 21001 net.cpp:357] inception_4d/pool -> inception_4d/pool
I0311 09:07:36.292784 21001 net.cpp:97] Setting up inception_4d/pool
I0311 09:07:36.292798 21001 net.cpp:104] Top shape: 128 512 5 5 (1638400)
I0311 09:07:36.292809 21001 layer_factory.hpp:78] Creating layer inception_4d/pool_proj
I0311 09:07:36.292824 21001 net.cpp:68] Creating Layer inception_4d/pool_proj
I0311 09:07:36.292836 21001 net.cpp:395] inception_4d/pool_proj <- inception_4d/pool
I0311 09:07:36.292853 21001 net.cpp:357] inception_4d/pool_proj -> inception_4d/pool_proj
I0311 09:07:36.292876 21001 net.cpp:97] Setting up inception_4d/pool_proj
I0311 09:07:36.293287 21001 net.cpp:104] Top shape: 128 64 5 5 (204800)
I0311 09:07:36.293310 21001 layer_factory.hpp:78] Creating layer inception_4d/relu_pool_proj
I0311 09:07:36.293328 21001 net.cpp:68] Creating Layer inception_4d/relu_pool_proj
I0311 09:07:36.293340 21001 net.cpp:395] inception_4d/relu_pool_proj <- inception_4d/pool_proj
I0311 09:07:36.293354 21001 net.cpp:346] inception_4d/relu_pool_proj -> inception_4d/pool_proj (in-place)
I0311 09:07:36.293368 21001 net.cpp:97] Setting up inception_4d/relu_pool_proj
I0311 09:07:36.293383 21001 net.cpp:104] Top shape: 128 64 5 5 (204800)
I0311 09:07:36.293395 21001 layer_factory.hpp:78] Creating layer inception_4d/output
I0311 09:07:36.293408 21001 net.cpp:68] Creating Layer inception_4d/output
I0311 09:07:36.293421 21001 net.cpp:395] inception_4d/output <- inception_4d/1x1
I0311 09:07:36.293433 21001 net.cpp:395] inception_4d/output <- inception_4d/3x3
I0311 09:07:36.293445 21001 net.cpp:395] inception_4d/output <- inception_4d/5x5
I0311 09:07:36.293458 21001 net.cpp:395] inception_4d/output <- inception_4d/pool_proj
I0311 09:07:36.293473 21001 net.cpp:357] inception_4d/output -> inception_4d/output
I0311 09:07:36.293486 21001 net.cpp:97] Setting up inception_4d/output
I0311 09:07:36.293499 21001 net.cpp:104] Top shape: 128 528 5 5 (1689600)
I0311 09:07:36.293510 21001 layer_factory.hpp:78] Creating layer inception_4d/output_inception_4d/output_0_split
I0311 09:07:36.293526 21001 net.cpp:68] Creating Layer inception_4d/output_inception_4d/output_0_split
I0311 09:07:36.293540 21001 net.cpp:395] inception_4d/output_inception_4d/output_0_split <- inception_4d/output
I0311 09:07:36.293553 21001 net.cpp:357] inception_4d/output_inception_4d/output_0_split -> inception_4d/output_inception_4d/output_0_split_0
I0311 09:07:36.293570 21001 net.cpp:357] inception_4d/output_inception_4d/output_0_split -> inception_4d/output_inception_4d/output_0_split_1
I0311 09:07:36.293588 21001 net.cpp:357] inception_4d/output_inception_4d/output_0_split -> inception_4d/output_inception_4d/output_0_split_2
I0311 09:07:36.293606 21001 net.cpp:357] inception_4d/output_inception_4d/output_0_split -> inception_4d/output_inception_4d/output_0_split_3
I0311 09:07:36.293620 21001 net.cpp:357] inception_4d/output_inception_4d/output_0_split -> inception_4d/output_inception_4d/output_0_split_4
I0311 09:07:36.293635 21001 net.cpp:97] Setting up inception_4d/output_inception_4d/output_0_split
I0311 09:07:36.293648 21001 net.cpp:104] Top shape: 128 528 5 5 (1689600)
I0311 09:07:36.293659 21001 net.cpp:104] Top shape: 128 528 5 5 (1689600)
I0311 09:07:36.293670 21001 net.cpp:104] Top shape: 128 528 5 5 (1689600)
I0311 09:07:36.293699 21001 net.cpp:104] Top shape: 128 528 5 5 (1689600)
I0311 09:07:36.293710 21001 net.cpp:104] Top shape: 128 528 5 5 (1689600)
I0311 09:07:36.293721 21001 layer_factory.hpp:78] Creating layer loss2/ave_pool
I0311 09:07:36.293735 21001 net.cpp:68] Creating Layer loss2/ave_pool
I0311 09:07:36.293747 21001 net.cpp:395] loss2/ave_pool <- inception_4d/output_inception_4d/output_0_split_0
I0311 09:07:36.293764 21001 net.cpp:357] loss2/ave_pool -> loss2/ave_pool
I0311 09:07:36.293779 21001 net.cpp:97] Setting up loss2/ave_pool
I0311 09:07:36.293797 21001 net.cpp:104] Top shape: 128 528 1 1 (67584)
I0311 09:07:36.293809 21001 layer_factory.hpp:78] Creating layer loss2/conv
I0311 09:07:36.293825 21001 net.cpp:68] Creating Layer loss2/conv
I0311 09:07:36.293838 21001 net.cpp:395] loss2/conv <- loss2/ave_pool
I0311 09:07:36.293854 21001 net.cpp:357] loss2/conv -> loss2/conv
I0311 09:07:36.293869 21001 net.cpp:97] Setting up loss2/conv
I0311 09:07:36.294770 21001 net.cpp:104] Top shape: 128 128 1 1 (16384)
I0311 09:07:36.294796 21001 layer_factory.hpp:78] Creating layer loss2/relu_conv
I0311 09:07:36.294811 21001 net.cpp:68] Creating Layer loss2/relu_conv
I0311 09:07:36.294824 21001 net.cpp:395] loss2/relu_conv <- loss2/conv
I0311 09:07:36.294838 21001 net.cpp:346] loss2/relu_conv -> loss2/conv (in-place)
I0311 09:07:36.294853 21001 net.cpp:97] Setting up loss2/relu_conv
I0311 09:07:36.294867 21001 net.cpp:104] Top shape: 128 128 1 1 (16384)
I0311 09:07:36.294879 21001 layer_factory.hpp:78] Creating layer loss2/fc
I0311 09:07:36.294895 21001 net.cpp:68] Creating Layer loss2/fc
I0311 09:07:36.294908 21001 net.cpp:395] loss2/fc <- loss2/conv
I0311 09:07:36.294921 21001 net.cpp:357] loss2/fc -> loss2/fc
I0311 09:07:36.294937 21001 net.cpp:97] Setting up loss2/fc
I0311 09:07:36.296286 21001 net.cpp:104] Top shape: 128 1024 1 1 (131072)
I0311 09:07:36.296308 21001 layer_factory.hpp:78] Creating layer loss2/relu_fc
I0311 09:07:36.296326 21001 net.cpp:68] Creating Layer loss2/relu_fc
I0311 09:07:36.296339 21001 net.cpp:395] loss2/relu_fc <- loss2/fc
I0311 09:07:36.296351 21001 net.cpp:346] loss2/relu_fc -> loss2/fc (in-place)
I0311 09:07:36.296366 21001 net.cpp:97] Setting up loss2/relu_fc
I0311 09:07:36.296381 21001 net.cpp:104] Top shape: 128 1024 1 1 (131072)
I0311 09:07:36.296392 21001 layer_factory.hpp:78] Creating layer loss2/drop_fc
I0311 09:07:36.296409 21001 net.cpp:68] Creating Layer loss2/drop_fc
I0311 09:07:36.296422 21001 net.cpp:395] loss2/drop_fc <- loss2/fc
I0311 09:07:36.296434 21001 net.cpp:346] loss2/drop_fc -> loss2/fc (in-place)
I0311 09:07:36.296448 21001 net.cpp:97] Setting up loss2/drop_fc
I0311 09:07:36.296463 21001 net.cpp:104] Top shape: 128 1024 1 1 (131072)
I0311 09:07:36.296473 21001 layer_factory.hpp:78] Creating layer loss2/classifier
I0311 09:07:36.296488 21001 net.cpp:68] Creating Layer loss2/classifier
I0311 09:07:36.296499 21001 net.cpp:395] loss2/classifier <- loss2/fc
I0311 09:07:36.296516 21001 net.cpp:357] loss2/classifier -> loss2/classifier
I0311 09:07:36.296532 21001 net.cpp:97] Setting up loss2/classifier
I0311 09:07:36.298024 21001 net.cpp:104] Top shape: 128 121 1 1 (15488)
I0311 09:07:36.298048 21001 layer_factory.hpp:78] Creating layer loss2/loss
I0311 09:07:36.298063 21001 net.cpp:68] Creating Layer loss2/loss
I0311 09:07:36.298074 21001 net.cpp:395] loss2/loss <- loss2/classifier
I0311 09:07:36.298089 21001 net.cpp:395] loss2/loss <- label_data_1_split_1
I0311 09:07:36.298101 21001 net.cpp:357] loss2/loss -> loss2/loss1
I0311 09:07:36.298116 21001 net.cpp:97] Setting up loss2/loss
I0311 09:07:36.298130 21001 layer_factory.hpp:78] Creating layer loss2/loss
I0311 09:07:36.298194 21001 net.cpp:104] Top shape: 1 1 1 1 (1)
I0311 09:07:36.298210 21001 net.cpp:110]     with loss weight 0.3
I0311 09:07:36.298234 21001 layer_factory.hpp:78] Creating layer inception_4e/1x1
I0311 09:07:36.298249 21001 net.cpp:68] Creating Layer inception_4e/1x1
I0311 09:07:36.298261 21001 net.cpp:395] inception_4e/1x1 <- inception_4d/output_inception_4d/output_0_split_1
I0311 09:07:36.298280 21001 net.cpp:357] inception_4e/1x1 -> inception_4e/1x1
I0311 09:07:36.298313 21001 net.cpp:97] Setting up inception_4e/1x1
I0311 09:07:36.299767 21001 net.cpp:104] Top shape: 128 256 5 5 (819200)
I0311 09:07:36.299793 21001 layer_factory.hpp:78] Creating layer inception_4e/relu_1x1
I0311 09:07:36.299806 21001 net.cpp:68] Creating Layer inception_4e/relu_1x1
I0311 09:07:36.299819 21001 net.cpp:395] inception_4e/relu_1x1 <- inception_4e/1x1
I0311 09:07:36.299834 21001 net.cpp:346] inception_4e/relu_1x1 -> inception_4e/1x1 (in-place)
I0311 09:07:36.299847 21001 net.cpp:97] Setting up inception_4e/relu_1x1
I0311 09:07:36.299862 21001 net.cpp:104] Top shape: 128 256 5 5 (819200)
I0311 09:07:36.299875 21001 layer_factory.hpp:78] Creating layer inception_4e/3x3_reduce
I0311 09:07:36.299892 21001 net.cpp:68] Creating Layer inception_4e/3x3_reduce
I0311 09:07:36.299904 21001 net.cpp:395] inception_4e/3x3_reduce <- inception_4d/output_inception_4d/output_0_split_2
I0311 09:07:36.299919 21001 net.cpp:357] inception_4e/3x3_reduce -> inception_4e/3x3_reduce
I0311 09:07:36.299935 21001 net.cpp:97] Setting up inception_4e/3x3_reduce
I0311 09:07:36.300880 21001 net.cpp:104] Top shape: 128 160 5 5 (512000)
I0311 09:07:36.300904 21001 layer_factory.hpp:78] Creating layer inception_4e/relu_3x3_reduce
I0311 09:07:36.300918 21001 net.cpp:68] Creating Layer inception_4e/relu_3x3_reduce
I0311 09:07:36.300930 21001 net.cpp:395] inception_4e/relu_3x3_reduce <- inception_4e/3x3_reduce
I0311 09:07:36.300947 21001 net.cpp:346] inception_4e/relu_3x3_reduce -> inception_4e/3x3_reduce (in-place)
I0311 09:07:36.300962 21001 net.cpp:97] Setting up inception_4e/relu_3x3_reduce
I0311 09:07:36.300977 21001 net.cpp:104] Top shape: 128 160 5 5 (512000)
I0311 09:07:36.300989 21001 layer_factory.hpp:78] Creating layer inception_4e/3x3
I0311 09:07:36.301004 21001 net.cpp:68] Creating Layer inception_4e/3x3
I0311 09:07:36.301017 21001 net.cpp:395] inception_4e/3x3 <- inception_4e/3x3_reduce
I0311 09:07:36.301033 21001 net.cpp:357] inception_4e/3x3 -> inception_4e/3x3
I0311 09:07:36.301049 21001 net.cpp:97] Setting up inception_4e/3x3
I0311 09:07:36.305811 21001 net.cpp:104] Top shape: 128 320 5 5 (1024000)
I0311 09:07:36.305837 21001 layer_factory.hpp:78] Creating layer inception_4e/relu_3x3
I0311 09:07:36.305852 21001 net.cpp:68] Creating Layer inception_4e/relu_3x3
I0311 09:07:36.305865 21001 net.cpp:395] inception_4e/relu_3x3 <- inception_4e/3x3
I0311 09:07:36.305881 21001 net.cpp:346] inception_4e/relu_3x3 -> inception_4e/3x3 (in-place)
I0311 09:07:36.305896 21001 net.cpp:97] Setting up inception_4e/relu_3x3
I0311 09:07:36.305910 21001 net.cpp:104] Top shape: 128 320 5 5 (1024000)
I0311 09:07:36.305922 21001 layer_factory.hpp:78] Creating layer inception_4e/5x5_reduce
I0311 09:07:36.305938 21001 net.cpp:68] Creating Layer inception_4e/5x5_reduce
I0311 09:07:36.305949 21001 net.cpp:395] inception_4e/5x5_reduce <- inception_4d/output_inception_4d/output_0_split_3
I0311 09:07:36.305968 21001 net.cpp:357] inception_4e/5x5_reduce -> inception_4e/5x5_reduce
I0311 09:07:36.305984 21001 net.cpp:97] Setting up inception_4e/5x5_reduce
I0311 09:07:36.306223 21001 net.cpp:104] Top shape: 128 32 5 5 (102400)
I0311 09:07:36.306246 21001 layer_factory.hpp:78] Creating layer inception_4e/relu_5x5_reduce
I0311 09:07:36.306260 21001 net.cpp:68] Creating Layer inception_4e/relu_5x5_reduce
I0311 09:07:36.306272 21001 net.cpp:395] inception_4e/relu_5x5_reduce <- inception_4e/5x5_reduce
I0311 09:07:36.306289 21001 net.cpp:346] inception_4e/relu_5x5_reduce -> inception_4e/5x5_reduce (in-place)
I0311 09:07:36.306304 21001 net.cpp:97] Setting up inception_4e/relu_5x5_reduce
I0311 09:07:36.306319 21001 net.cpp:104] Top shape: 128 32 5 5 (102400)
I0311 09:07:36.306331 21001 layer_factory.hpp:78] Creating layer inception_4e/5x5
I0311 09:07:36.306365 21001 net.cpp:68] Creating Layer inception_4e/5x5
I0311 09:07:36.306378 21001 net.cpp:395] inception_4e/5x5 <- inception_4e/5x5_reduce
I0311 09:07:36.306393 21001 net.cpp:357] inception_4e/5x5 -> inception_4e/5x5
I0311 09:07:36.306408 21001 net.cpp:97] Setting up inception_4e/5x5
I0311 09:07:36.307689 21001 net.cpp:104] Top shape: 128 128 5 5 (409600)
I0311 09:07:36.307716 21001 layer_factory.hpp:78] Creating layer inception_4e/relu_5x5
I0311 09:07:36.307734 21001 net.cpp:68] Creating Layer inception_4e/relu_5x5
I0311 09:07:36.307746 21001 net.cpp:395] inception_4e/relu_5x5 <- inception_4e/5x5
I0311 09:07:36.307760 21001 net.cpp:346] inception_4e/relu_5x5 -> inception_4e/5x5 (in-place)
I0311 09:07:36.307775 21001 net.cpp:97] Setting up inception_4e/relu_5x5
I0311 09:07:36.307788 21001 net.cpp:104] Top shape: 128 128 5 5 (409600)
I0311 09:07:36.307801 21001 layer_factory.hpp:78] Creating layer inception_4e/pool
I0311 09:07:36.307813 21001 layer_factory.cpp:51] CUDNN does not support padding or multiple tops. Using Caffe's own pooling layer.
I0311 09:07:36.307829 21001 net.cpp:68] Creating Layer inception_4e/pool
I0311 09:07:36.307842 21001 net.cpp:395] inception_4e/pool <- inception_4d/output_inception_4d/output_0_split_4
I0311 09:07:36.307857 21001 net.cpp:357] inception_4e/pool -> inception_4e/pool
I0311 09:07:36.307870 21001 net.cpp:97] Setting up inception_4e/pool
I0311 09:07:36.307885 21001 net.cpp:104] Top shape: 128 528 5 5 (1689600)
I0311 09:07:36.307896 21001 layer_factory.hpp:78] Creating layer inception_4e/pool_proj
I0311 09:07:36.307911 21001 net.cpp:68] Creating Layer inception_4e/pool_proj
I0311 09:07:36.307924 21001 net.cpp:395] inception_4e/pool_proj <- inception_4e/pool
I0311 09:07:36.307941 21001 net.cpp:357] inception_4e/pool_proj -> inception_4e/pool_proj
I0311 09:07:36.307957 21001 net.cpp:97] Setting up inception_4e/pool_proj
I0311 09:07:36.308722 21001 net.cpp:104] Top shape: 128 128 5 5 (409600)
I0311 09:07:36.308744 21001 layer_factory.hpp:78] Creating layer inception_4e/relu_pool_proj
I0311 09:07:36.308758 21001 net.cpp:68] Creating Layer inception_4e/relu_pool_proj
I0311 09:07:36.308774 21001 net.cpp:395] inception_4e/relu_pool_proj <- inception_4e/pool_proj
I0311 09:07:36.308789 21001 net.cpp:346] inception_4e/relu_pool_proj -> inception_4e/pool_proj (in-place)
I0311 09:07:36.308802 21001 net.cpp:97] Setting up inception_4e/relu_pool_proj
I0311 09:07:36.308817 21001 net.cpp:104] Top shape: 128 128 5 5 (409600)
I0311 09:07:36.308830 21001 layer_factory.hpp:78] Creating layer inception_4e/output
I0311 09:07:36.308842 21001 net.cpp:68] Creating Layer inception_4e/output
I0311 09:07:36.308853 21001 net.cpp:395] inception_4e/output <- inception_4e/1x1
I0311 09:07:36.308876 21001 net.cpp:395] inception_4e/output <- inception_4e/3x3
I0311 09:07:36.308889 21001 net.cpp:395] inception_4e/output <- inception_4e/5x5
I0311 09:07:36.308902 21001 net.cpp:395] inception_4e/output <- inception_4e/pool_proj
I0311 09:07:36.308917 21001 net.cpp:357] inception_4e/output -> inception_4e/output
I0311 09:07:36.308931 21001 net.cpp:97] Setting up inception_4e/output
I0311 09:07:36.308943 21001 net.cpp:104] Top shape: 128 832 5 5 (2662400)
I0311 09:07:36.308954 21001 layer_factory.hpp:78] Creating layer pool4/3x3_s2
I0311 09:07:36.308971 21001 net.cpp:68] Creating Layer pool4/3x3_s2
I0311 09:07:36.308984 21001 net.cpp:395] pool4/3x3_s2 <- inception_4e/output
I0311 09:07:36.308998 21001 net.cpp:357] pool4/3x3_s2 -> pool4/3x3_s2
I0311 09:07:36.309013 21001 net.cpp:97] Setting up pool4/3x3_s2
I0311 09:07:36.309029 21001 net.cpp:104] Top shape: 128 832 2 2 (425984)
I0311 09:07:36.309042 21001 layer_factory.hpp:78] Creating layer pool4/3x3_s2_pool4/3x3_s2_0_split
I0311 09:07:36.309059 21001 net.cpp:68] Creating Layer pool4/3x3_s2_pool4/3x3_s2_0_split
I0311 09:07:36.309072 21001 net.cpp:395] pool4/3x3_s2_pool4/3x3_s2_0_split <- pool4/3x3_s2
I0311 09:07:36.309085 21001 net.cpp:357] pool4/3x3_s2_pool4/3x3_s2_0_split -> pool4/3x3_s2_pool4/3x3_s2_0_split_0
I0311 09:07:36.309101 21001 net.cpp:357] pool4/3x3_s2_pool4/3x3_s2_0_split -> pool4/3x3_s2_pool4/3x3_s2_0_split_1
I0311 09:07:36.309116 21001 net.cpp:357] pool4/3x3_s2_pool4/3x3_s2_0_split -> pool4/3x3_s2_pool4/3x3_s2_0_split_2
I0311 09:07:36.309133 21001 net.cpp:357] pool4/3x3_s2_pool4/3x3_s2_0_split -> pool4/3x3_s2_pool4/3x3_s2_0_split_3
I0311 09:07:36.309165 21001 net.cpp:97] Setting up pool4/3x3_s2_pool4/3x3_s2_0_split
I0311 09:07:36.309180 21001 net.cpp:104] Top shape: 128 832 2 2 (425984)
I0311 09:07:36.309191 21001 net.cpp:104] Top shape: 128 832 2 2 (425984)
I0311 09:07:36.309202 21001 net.cpp:104] Top shape: 128 832 2 2 (425984)
I0311 09:07:36.309213 21001 net.cpp:104] Top shape: 128 832 2 2 (425984)
I0311 09:07:36.309224 21001 layer_factory.hpp:78] Creating layer inception_5a/1x1
I0311 09:07:36.309242 21001 net.cpp:68] Creating Layer inception_5a/1x1
I0311 09:07:36.309254 21001 net.cpp:395] inception_5a/1x1 <- pool4/3x3_s2_pool4/3x3_s2_0_split_0
I0311 09:07:36.309273 21001 net.cpp:357] inception_5a/1x1 -> inception_5a/1x1
I0311 09:07:36.309289 21001 net.cpp:97] Setting up inception_5a/1x1
I0311 09:07:36.311522 21001 net.cpp:104] Top shape: 128 256 2 2 (131072)
I0311 09:07:36.311545 21001 layer_factory.hpp:78] Creating layer inception_5a/relu_1x1
I0311 09:07:36.311563 21001 net.cpp:68] Creating Layer inception_5a/relu_1x1
I0311 09:07:36.311575 21001 net.cpp:395] inception_5a/relu_1x1 <- inception_5a/1x1
I0311 09:07:36.311589 21001 net.cpp:346] inception_5a/relu_1x1 -> inception_5a/1x1 (in-place)
I0311 09:07:36.311602 21001 net.cpp:97] Setting up inception_5a/relu_1x1
I0311 09:07:36.311617 21001 net.cpp:104] Top shape: 128 256 2 2 (131072)
I0311 09:07:36.311630 21001 layer_factory.hpp:78] Creating layer inception_5a/3x3_reduce
I0311 09:07:36.311645 21001 net.cpp:68] Creating Layer inception_5a/3x3_reduce
I0311 09:07:36.311658 21001 net.cpp:395] inception_5a/3x3_reduce <- pool4/3x3_s2_pool4/3x3_s2_0_split_1
I0311 09:07:36.311672 21001 net.cpp:357] inception_5a/3x3_reduce -> inception_5a/3x3_reduce
I0311 09:07:36.311688 21001 net.cpp:97] Setting up inception_5a/3x3_reduce
I0311 09:07:36.313123 21001 net.cpp:104] Top shape: 128 160 2 2 (81920)
I0311 09:07:36.313148 21001 layer_factory.hpp:78] Creating layer inception_5a/relu_3x3_reduce
I0311 09:07:36.313161 21001 net.cpp:68] Creating Layer inception_5a/relu_3x3_reduce
I0311 09:07:36.313174 21001 net.cpp:395] inception_5a/relu_3x3_reduce <- inception_5a/3x3_reduce
I0311 09:07:36.320178 21001 net.cpp:346] inception_5a/relu_3x3_reduce -> inception_5a/3x3_reduce (in-place)
I0311 09:07:36.320191 21001 net.cpp:97] Setting up inception_5a/relu_3x3_reduce
I0311 09:07:36.320231 21001 net.cpp:104] Top shape: 128 160 2 2 (81920)
I0311 09:07:36.320245 21001 layer_factory.hpp:78] Creating layer inception_5a/3x3
I0311 09:07:36.320260 21001 net.cpp:68] Creating Layer inception_5a/3x3
I0311 09:07:36.320271 21001 net.cpp:395] inception_5a/3x3 <- inception_5a/3x3_reduce
I0311 09:07:36.320288 21001 net.cpp:357] inception_5a/3x3 -> inception_5a/3x3
I0311 09:07:36.320304 21001 net.cpp:97] Setting up inception_5a/3x3
I0311 09:07:36.329305 21001 net.cpp:104] Top shape: 128 320 2 2 (163840)
I0311 09:07:36.329360 21001 layer_factory.hpp:78] Creating layer inception_5a/relu_3x3
I0311 09:07:36.329391 21001 net.cpp:68] Creating Layer inception_5a/relu_3x3
I0311 09:07:36.329418 21001 net.cpp:395] inception_5a/relu_3x3 <- inception_5a/3x3
I0311 09:07:36.329445 21001 net.cpp:346] inception_5a/relu_3x3 -> inception_5a/3x3 (in-place)
I0311 09:07:36.329474 21001 net.cpp:97] Setting up inception_5a/relu_3x3
I0311 09:07:36.329504 21001 net.cpp:104] Top shape: 128 320 2 2 (163840)
I0311 09:07:36.329527 21001 layer_factory.hpp:78] Creating layer inception_5a/5x5_reduce
I0311 09:07:36.329560 21001 net.cpp:68] Creating Layer inception_5a/5x5_reduce
I0311 09:07:36.329586 21001 net.cpp:395] inception_5a/5x5_reduce <- pool4/3x3_s2_pool4/3x3_s2_0_split_2
I0311 09:07:36.329615 21001 net.cpp:357] inception_5a/5x5_reduce -> inception_5a/5x5_reduce
I0311 09:07:36.329646 21001 net.cpp:97] Setting up inception_5a/5x5_reduce
I0311 09:07:36.330538 21001 net.cpp:104] Top shape: 128 32 2 2 (16384)
I0311 09:07:36.330587 21001 layer_factory.hpp:78] Creating layer inception_5a/relu_5x5_reduce
I0311 09:07:36.330621 21001 net.cpp:68] Creating Layer inception_5a/relu_5x5_reduce
I0311 09:07:36.330647 21001 net.cpp:395] inception_5a/relu_5x5_reduce <- inception_5a/5x5_reduce
I0311 09:07:36.330720 21001 net.cpp:346] inception_5a/relu_5x5_reduce -> inception_5a/5x5_reduce (in-place)
I0311 09:07:36.330754 21001 net.cpp:97] Setting up inception_5a/relu_5x5_reduce
I0311 09:07:36.330785 21001 net.cpp:104] Top shape: 128 32 2 2 (16384)
I0311 09:07:36.330809 21001 layer_factory.hpp:78] Creating layer inception_5a/5x5
I0311 09:07:36.330837 21001 net.cpp:68] Creating Layer inception_5a/5x5
I0311 09:07:36.330862 21001 net.cpp:395] inception_5a/5x5 <- inception_5a/5x5_reduce
I0311 09:07:36.330896 21001 net.cpp:357] inception_5a/5x5 -> inception_5a/5x5
I0311 09:07:36.330929 21001 net.cpp:97] Setting up inception_5a/5x5
I0311 09:07:36.333039 21001 net.cpp:104] Top shape: 128 128 2 2 (65536)
I0311 09:07:36.333062 21001 layer_factory.hpp:78] Creating layer inception_5a/relu_5x5
I0311 09:07:36.333077 21001 net.cpp:68] Creating Layer inception_5a/relu_5x5
I0311 09:07:36.333091 21001 net.cpp:395] inception_5a/relu_5x5 <- inception_5a/5x5
I0311 09:07:36.333106 21001 net.cpp:346] inception_5a/relu_5x5 -> inception_5a/5x5 (in-place)
I0311 09:07:36.333122 21001 net.cpp:97] Setting up inception_5a/relu_5x5
I0311 09:07:36.333137 21001 net.cpp:104] Top shape: 128 128 2 2 (65536)
I0311 09:07:36.333148 21001 layer_factory.hpp:78] Creating layer inception_5a/pool
I0311 09:07:36.333160 21001 layer_factory.cpp:51] CUDNN does not support padding or multiple tops. Using Caffe's own pooling layer.
I0311 09:07:36.333174 21001 net.cpp:68] Creating Layer inception_5a/pool
I0311 09:07:36.333186 21001 net.cpp:395] inception_5a/pool <- pool4/3x3_s2_pool4/3x3_s2_0_split_3
I0311 09:07:36.333201 21001 net.cpp:357] inception_5a/pool -> inception_5a/pool
I0311 09:07:36.333216 21001 net.cpp:97] Setting up inception_5a/pool
I0311 09:07:36.333230 21001 net.cpp:104] Top shape: 128 832 2 2 (425984)
I0311 09:07:36.333241 21001 layer_factory.hpp:78] Creating layer inception_5a/pool_proj
I0311 09:07:36.333258 21001 net.cpp:68] Creating Layer inception_5a/pool_proj
I0311 09:07:36.333271 21001 net.cpp:395] inception_5a/pool_proj <- inception_5a/pool
I0311 09:07:36.333288 21001 net.cpp:357] inception_5a/pool_proj -> inception_5a/pool_proj
I0311 09:07:36.333304 21001 net.cpp:97] Setting up inception_5a/pool_proj
I0311 09:07:36.334461 21001 net.cpp:104] Top shape: 128 128 2 2 (65536)
I0311 09:07:36.334485 21001 layer_factory.hpp:78] Creating layer inception_5a/relu_pool_proj
I0311 09:07:36.334498 21001 net.cpp:68] Creating Layer inception_5a/relu_pool_proj
I0311 09:07:36.334511 21001 net.cpp:395] inception_5a/relu_pool_proj <- inception_5a/pool_proj
I0311 09:07:36.334528 21001 net.cpp:346] inception_5a/relu_pool_proj -> inception_5a/pool_proj (in-place)
I0311 09:07:36.334543 21001 net.cpp:97] Setting up inception_5a/relu_pool_proj
I0311 09:07:36.334558 21001 net.cpp:104] Top shape: 128 128 2 2 (65536)
I0311 09:07:36.334570 21001 layer_factory.hpp:78] Creating layer inception_5a/output
I0311 09:07:36.334583 21001 net.cpp:68] Creating Layer inception_5a/output
I0311 09:07:36.334595 21001 net.cpp:395] inception_5a/output <- inception_5a/1x1
I0311 09:07:36.334609 21001 net.cpp:395] inception_5a/output <- inception_5a/3x3
I0311 09:07:36.334621 21001 net.cpp:395] inception_5a/output <- inception_5a/5x5
I0311 09:07:36.334633 21001 net.cpp:395] inception_5a/output <- inception_5a/pool_proj
I0311 09:07:36.334647 21001 net.cpp:357] inception_5a/output -> inception_5a/output
I0311 09:07:36.334666 21001 net.cpp:97] Setting up inception_5a/output
I0311 09:07:36.334679 21001 net.cpp:104] Top shape: 128 832 2 2 (425984)
I0311 09:07:36.334691 21001 layer_factory.hpp:78] Creating layer inception_5a/output_inception_5a/output_0_split
I0311 09:07:36.334704 21001 net.cpp:68] Creating Layer inception_5a/output_inception_5a/output_0_split
I0311 09:07:36.334717 21001 net.cpp:395] inception_5a/output_inception_5a/output_0_split <- inception_5a/output
I0311 09:07:36.334730 21001 net.cpp:357] inception_5a/output_inception_5a/output_0_split -> inception_5a/output_inception_5a/output_0_split_0
I0311 09:07:36.334748 21001 net.cpp:357] inception_5a/output_inception_5a/output_0_split -> inception_5a/output_inception_5a/output_0_split_1
I0311 09:07:36.334781 21001 net.cpp:357] inception_5a/output_inception_5a/output_0_split -> inception_5a/output_inception_5a/output_0_split_2
I0311 09:07:36.334800 21001 net.cpp:357] inception_5a/output_inception_5a/output_0_split -> inception_5a/output_inception_5a/output_0_split_3
I0311 09:07:36.334815 21001 net.cpp:97] Setting up inception_5a/output_inception_5a/output_0_split
I0311 09:07:36.334827 21001 net.cpp:104] Top shape: 128 832 2 2 (425984)
I0311 09:07:36.334839 21001 net.cpp:104] Top shape: 128 832 2 2 (425984)
I0311 09:07:36.334849 21001 net.cpp:104] Top shape: 128 832 2 2 (425984)
I0311 09:07:36.334861 21001 net.cpp:104] Top shape: 128 832 2 2 (425984)
I0311 09:07:36.334872 21001 layer_factory.hpp:78] Creating layer inception_5b/1x1
I0311 09:07:36.334888 21001 net.cpp:68] Creating Layer inception_5b/1x1
I0311 09:07:36.334902 21001 net.cpp:395] inception_5b/1x1 <- inception_5a/output_inception_5a/output_0_split_0
I0311 09:07:36.334918 21001 net.cpp:357] inception_5b/1x1 -> inception_5b/1x1
I0311 09:07:36.334934 21001 net.cpp:97] Setting up inception_5b/1x1
I0311 09:07:36.338255 21001 net.cpp:104] Top shape: 128 384 2 2 (196608)
I0311 09:07:36.338280 21001 layer_factory.hpp:78] Creating layer inception_5b/relu_1x1
I0311 09:07:36.338297 21001 net.cpp:68] Creating Layer inception_5b/relu_1x1
I0311 09:07:36.338310 21001 net.cpp:395] inception_5b/relu_1x1 <- inception_5b/1x1
I0311 09:07:36.338325 21001 net.cpp:346] inception_5b/relu_1x1 -> inception_5b/1x1 (in-place)
I0311 09:07:36.338341 21001 net.cpp:97] Setting up inception_5b/relu_1x1
I0311 09:07:36.338356 21001 net.cpp:104] Top shape: 128 384 2 2 (196608)
I0311 09:07:36.338368 21001 layer_factory.hpp:78] Creating layer inception_5b/3x3_reduce
I0311 09:07:36.338383 21001 net.cpp:68] Creating Layer inception_5b/3x3_reduce
I0311 09:07:36.348700 21001 net.cpp:395] inception_5b/3x3_reduce <- inception_5a/output_inception_5a/output_0_split_1
I0311 09:07:36.348728 21001 net.cpp:357] inception_5b/3x3_reduce -> inception_5b/3x3_reduce
I0311 09:07:36.348747 21001 net.cpp:97] Setting up inception_5b/3x3_reduce
I0311 09:07:36.352270 21001 net.cpp:104] Top shape: 128 192 2 2 (98304)
I0311 09:07:36.352324 21001 layer_factory.hpp:78] Creating layer inception_5b/relu_3x3_reduce
I0311 09:07:36.352360 21001 net.cpp:68] Creating Layer inception_5b/relu_3x3_reduce
I0311 09:07:36.352386 21001 net.cpp:395] inception_5b/relu_3x3_reduce <- inception_5b/3x3_reduce
I0311 09:07:36.352416 21001 net.cpp:346] inception_5b/relu_3x3_reduce -> inception_5b/3x3_reduce (in-place)
I0311 09:07:36.352447 21001 net.cpp:97] Setting up inception_5b/relu_3x3_reduce
I0311 09:07:36.352478 21001 net.cpp:104] Top shape: 128 192 2 2 (98304)
I0311 09:07:36.352588 21001 layer_factory.hpp:78] Creating layer inception_5b/3x3
I0311 09:07:36.352624 21001 net.cpp:68] Creating Layer inception_5b/3x3
I0311 09:07:36.352650 21001 net.cpp:395] inception_5b/3x3 <- inception_5b/3x3_reduce
I0311 09:07:36.352681 21001 net.cpp:357] inception_5b/3x3 -> inception_5b/3x3
I0311 09:07:36.352748 21001 net.cpp:97] Setting up inception_5b/3x3
I0311 09:07:36.361265 21001 net.cpp:104] Top shape: 128 384 2 2 (196608)
I0311 09:07:36.361296 21001 layer_factory.hpp:78] Creating layer inception_5b/relu_3x3
I0311 09:07:36.361313 21001 net.cpp:68] Creating Layer inception_5b/relu_3x3
I0311 09:07:36.361326 21001 net.cpp:395] inception_5b/relu_3x3 <- inception_5b/3x3
I0311 09:07:36.361340 21001 net.cpp:346] inception_5b/relu_3x3 -> inception_5b/3x3 (in-place)
I0311 09:07:36.361356 21001 net.cpp:97] Setting up inception_5b/relu_3x3
I0311 09:07:36.361372 21001 net.cpp:104] Top shape: 128 384 2 2 (196608)
I0311 09:07:36.361384 21001 layer_factory.hpp:78] Creating layer inception_5b/5x5_reduce
I0311 09:07:36.361403 21001 net.cpp:68] Creating Layer inception_5b/5x5_reduce
I0311 09:07:36.361418 21001 net.cpp:395] inception_5b/5x5_reduce <- inception_5a/output_inception_5a/output_0_split_2
I0311 09:07:36.361433 21001 net.cpp:357] inception_5b/5x5_reduce -> inception_5b/5x5_reduce
I0311 09:07:36.361482 21001 net.cpp:97] Setting up inception_5b/5x5_reduce
I0311 09:07:36.362005 21001 net.cpp:104] Top shape: 128 48 2 2 (24576)
I0311 09:07:36.362028 21001 layer_factory.hpp:78] Creating layer inception_5b/relu_5x5_reduce
I0311 09:07:36.362046 21001 net.cpp:68] Creating Layer inception_5b/relu_5x5_reduce
I0311 09:07:36.362059 21001 net.cpp:395] inception_5b/relu_5x5_reduce <- inception_5b/5x5_reduce
I0311 09:07:36.362073 21001 net.cpp:346] inception_5b/relu_5x5_reduce -> inception_5b/5x5_reduce (in-place)
I0311 09:07:36.362089 21001 net.cpp:97] Setting up inception_5b/relu_5x5_reduce
I0311 09:07:36.362104 21001 net.cpp:104] Top shape: 128 48 2 2 (24576)
I0311 09:07:36.362117 21001 layer_factory.hpp:78] Creating layer inception_5b/5x5
I0311 09:07:36.362133 21001 net.cpp:68] Creating Layer inception_5b/5x5
I0311 09:07:36.362144 21001 net.cpp:395] inception_5b/5x5 <- inception_5b/5x5_reduce
I0311 09:07:36.362161 21001 net.cpp:357] inception_5b/5x5 -> inception_5b/5x5
I0311 09:07:36.362177 21001 net.cpp:97] Setting up inception_5b/5x5
I0311 09:07:36.363811 21001 net.cpp:104] Top shape: 128 128 2 2 (65536)
I0311 09:07:36.363834 21001 layer_factory.hpp:78] Creating layer inception_5b/relu_5x5
I0311 09:07:36.363852 21001 net.cpp:68] Creating Layer inception_5b/relu_5x5
I0311 09:07:36.363864 21001 net.cpp:395] inception_5b/relu_5x5 <- inception_5b/5x5
I0311 09:07:36.363878 21001 net.cpp:346] inception_5b/relu_5x5 -> inception_5b/5x5 (in-place)
I0311 09:07:36.363894 21001 net.cpp:97] Setting up inception_5b/relu_5x5
I0311 09:07:36.363909 21001 net.cpp:104] Top shape: 128 128 2 2 (65536)
I0311 09:07:36.363920 21001 layer_factory.hpp:78] Creating layer inception_5b/pool
I0311 09:07:36.363932 21001 layer_factory.cpp:51] CUDNN does not support padding or multiple tops. Using Caffe's own pooling layer.
I0311 09:07:36.363946 21001 net.cpp:68] Creating Layer inception_5b/pool
I0311 09:07:36.363958 21001 net.cpp:395] inception_5b/pool <- inception_5a/output_inception_5a/output_0_split_3
I0311 09:07:36.370928 21001 net.cpp:357] inception_5b/pool -> inception_5b/pool
I0311 09:07:36.370955 21001 net.cpp:97] Setting up inception_5b/pool
I0311 09:07:36.370972 21001 net.cpp:104] Top shape: 128 832 2 2 (425984)
I0311 09:07:36.370985 21001 layer_factory.hpp:78] Creating layer inception_5b/pool_proj
I0311 09:07:36.371000 21001 net.cpp:68] Creating Layer inception_5b/pool_proj
I0311 09:07:36.371012 21001 net.cpp:395] inception_5b/pool_proj <- inception_5b/pool
I0311 09:07:36.371031 21001 net.cpp:357] inception_5b/pool_proj -> inception_5b/pool_proj
I0311 09:07:36.371047 21001 net.cpp:97] Setting up inception_5b/pool_proj
I0311 09:07:36.372266 21001 net.cpp:104] Top shape: 128 128 2 2 (65536)
I0311 09:07:36.372290 21001 layer_factory.hpp:78] Creating layer inception_5b/relu_pool_proj
I0311 09:07:36.372308 21001 net.cpp:68] Creating Layer inception_5b/relu_pool_proj
I0311 09:07:36.372321 21001 net.cpp:395] inception_5b/relu_pool_proj <- inception_5b/pool_proj
I0311 09:07:36.372335 21001 net.cpp:346] inception_5b/relu_pool_proj -> inception_5b/pool_proj (in-place)
I0311 09:07:36.372350 21001 net.cpp:97] Setting up inception_5b/relu_pool_proj
I0311 09:07:36.372366 21001 net.cpp:104] Top shape: 128 128 2 2 (65536)
I0311 09:07:36.372378 21001 layer_factory.hpp:78] Creating layer inception_5b/output
I0311 09:07:36.372391 21001 net.cpp:68] Creating Layer inception_5b/output
I0311 09:07:36.372403 21001 net.cpp:395] inception_5b/output <- inception_5b/1x1
I0311 09:07:36.372417 21001 net.cpp:395] inception_5b/output <- inception_5b/3x3
I0311 09:07:36.372429 21001 net.cpp:395] inception_5b/output <- inception_5b/5x5
I0311 09:07:36.372442 21001 net.cpp:395] inception_5b/output <- inception_5b/pool_proj
I0311 09:07:36.372462 21001 net.cpp:357] inception_5b/output -> inception_5b/output
I0311 09:07:36.372478 21001 net.cpp:97] Setting up inception_5b/output
I0311 09:07:36.372491 21001 net.cpp:104] Top shape: 128 1024 2 2 (524288)
I0311 09:07:36.372503 21001 layer_factory.hpp:78] Creating layer pool5/7x7_s1
I0311 09:07:36.372540 21001 net.cpp:68] Creating Layer pool5/7x7_s1
I0311 09:07:36.372555 21001 net.cpp:395] pool5/7x7_s1 <- inception_5b/output
I0311 09:07:36.372570 21001 net.cpp:357] pool5/7x7_s1 -> pool5/7x7_s1
I0311 09:07:36.372586 21001 net.cpp:97] Setting up pool5/7x7_s1
I0311 09:07:36.372603 21001 net.cpp:104] Top shape: 128 1024 1 1 (131072)
I0311 09:07:36.372617 21001 layer_factory.hpp:78] Creating layer pool5/drop_7x7_s1
I0311 09:07:36.372633 21001 net.cpp:68] Creating Layer pool5/drop_7x7_s1
I0311 09:07:36.372645 21001 net.cpp:395] pool5/drop_7x7_s1 <- pool5/7x7_s1
I0311 09:07:36.372658 21001 net.cpp:346] pool5/drop_7x7_s1 -> pool5/7x7_s1 (in-place)
I0311 09:07:36.372673 21001 net.cpp:97] Setting up pool5/drop_7x7_s1
I0311 09:07:36.372687 21001 net.cpp:104] Top shape: 128 1024 1 1 (131072)
I0311 09:07:36.372699 21001 layer_factory.hpp:78] Creating layer loss3/classifier
I0311 09:07:36.372716 21001 net.cpp:68] Creating Layer loss3/classifier
I0311 09:07:36.372728 21001 net.cpp:395] loss3/classifier <- pool5/7x7_s1
I0311 09:07:36.372743 21001 net.cpp:357] loss3/classifier -> loss3/classifier
I0311 09:07:36.372759 21001 net.cpp:97] Setting up loss3/classifier
I0311 09:07:36.374861 21001 net.cpp:104] Top shape: 128 121 1 1 (15488)
I0311 09:07:36.374902 21001 layer_factory.hpp:78] Creating layer loss3/loss3
I0311 09:07:36.374927 21001 net.cpp:68] Creating Layer loss3/loss3
I0311 09:07:36.374948 21001 net.cpp:395] loss3/loss3 <- loss3/classifier
I0311 09:07:36.374970 21001 net.cpp:395] loss3/loss3 <- label_data_1_split_2
I0311 09:07:36.375005 21001 net.cpp:357] loss3/loss3 -> loss3/loss3
I0311 09:07:36.375031 21001 net.cpp:97] Setting up loss3/loss3
I0311 09:07:36.375054 21001 layer_factory.hpp:78] Creating layer loss3/loss3
I0311 09:07:36.375146 21001 net.cpp:104] Top shape: 1 1 1 1 (1)
I0311 09:07:36.375174 21001 net.cpp:110]     with loss weight 1
I0311 09:07:36.375216 21001 net.cpp:171] loss3/loss3 needs backward computation.
I0311 09:07:36.375236 21001 net.cpp:171] loss3/classifier needs backward computation.
I0311 09:07:36.375255 21001 net.cpp:171] pool5/drop_7x7_s1 needs backward computation.
I0311 09:07:36.381233 21001 net.cpp:171] pool5/7x7_s1 needs backward computation.
…
  transform_param {
    mirror: true
    mean_file: "/media/data/kaggle/nationalDataScienceBowl/data/typeF/train_mean.binaryproto"
    affine_param {
      x_stretch_unirnd_range: 0.01
      y_stretch_unirnd_range: 0.01
      rotation_unirnd_range: 180
      max_translation: 5
      background_color: 255
    }
  }
  image_data_affine_param {
    source: "/media/data/kaggle/nationalDataScienceBowl/data/typeF/train.txt"
    scale: 0.00390625
    batch_size: 128
    shuffle: true
    new_size: 96
    is_color: false
    root_folder: "/media/data/kaggle/nationalDataScienceBowl/data/typeF/"
  }
}
layers {
  bottom: "data"
  top: "conv1/7x7_s2"
  name: "conv1/7x7_s2"
  type: CONVOLUTION
  blobs_lr: 1
  blobs_lr: 2
  weight_decay: 1
  weight_decay: 0
  convolution_param {
    num_output: 64
    pad: 0
    kernel_size: 4
    stride: 2
    weight_filler {
      type: "xavier"
      std: 0.1
    }
    bias_filler {
      type: "constant"
      value: 0.2
    }
  }
}
layers {
  bottom: "conv1/7x7_s2"
  top: "conv1/7x7_s2"
  name: "conv1/relu_7x7"
  type: RELU
}
layers {
  bottom: "conv1/7x7_s2"
  top: "pool1/3x3_s2"
  name: "pool1/3x3_s2"
  type: POOLING
  pooling_param {
    pool: MAX
    kernel_size: 3
    stride: 2
  }
}
layers {
  bottom: "pool1/3x3_s2"
  top: "pool1/norm1"
  name: "pool1/norm1"
  type: LRN
  lrn_param {
    local_size: 5
    alpha: 0.0001
    beta: 0.75
  }
}
layers {
  bottom: "pool1/norm1"
  top: "conv2/3x3_reduce"
  name: "conv2/3x3_reduce"
  type: CONVOLUTION
  blobs_lr: 1
  blobs_lr: 2
  weight_decay: 1
  weight_decay: 0
  convolution_param {
    num_output: 64
    kernel_size: 1
    weight_filler {
      type: "xavier"
      std: 0.1
    }
    bias_filler {
      type: "constant"
      value: 0.2
    }
  }
}
layers {
  bottom: "conv2/3x3_reduce"
  top: "conv2/3x3_reduce"
  name: "conv2/relu_3x3_reduce"
  type: RELU
}
layers {
  bottom: "conv2/3x3_reduce"
  top: "conv2/3x3"
  name: "conv2/3x3"
  type: CONVOLUTION
  blobs_lr: 1
  blobs_lr: 2
  weight_decay: 1
  weight_decay: 0
  convolution_param {
    num_output: 192
    pad: 1
    kernel_size: 3
    weight_filler {
      type: "xavier"
      std: 0.03
    }
    bias_filler {
      type: "constant"
      value: 0.2
    }
  }
}
layers {
  bottom: "conv2/3x3"
  top: "conv2/3x3"
  name: "conv2/relu_3x3"
  type: RELU
}
layers {
  bottom: "conv2/3x3"
  top: "conv2/norm2"
  name: "conv2/norm2"
  type: LRN
  lrn_param {
    local_size: 5
    alpha: 0.0001
    beta: 0.75
  }
}
layers {
  bottom: "conv2/norm2"
  top: "pool2/3x3_s2"
  name: "pool2/3x3_s2"
  type: POOLING
  pooling_param {
    pool: MAX
    kernel_size: 3
    stride: 2
  }
}
layers {
  bottom: "pool2/3x3_s2"
  top: "inception_3a/1x1"
  name: "inception_3a/1x1"
  type: CONVOLUTION
  blobs_lr: 1
  blobs_lr: 2
  weight_decay: 1
  weight_decay: 0
  convolution_param {
    num_output: 64
    kernel_size: 1
    weight_filler {
      type: "xavier"
      std: 0.03
    }
    bias_filler {
      type: "constant"
      value: 0.2
    }
  }
}
layers {
  bottom: "inception_3a/1x1"
  top: "inception_3a/1x1"
  name: "inception_3a/relu_1x1"
  type: RELU
}
layers {
  bottom: "pool2/3x3_s2"
  top: "inception_3a/3x3_reduce"
  name: "inception_3a/3x3_reduce"
  type: CONVOLUTION
  blobs_lr: 1
  blobs_lr: 2
  weight_decay: 1
  weight_decay: 0
  convolution_param {
    num_output: 96
    kernel_size: 1
    weight_filler {
      type: "xavier"
      std: 0.09
    }
    bias_filler {
      type: "constant"
      value: 0.2
    }
  }
}
layers {
  bottom: "inception_3a/3x3_reduce"
  top: "inception_3a/3x3_reduce"
  name: "inception_3a/relu_3x3_reduce"
  type: RELU
}
layers {
  bottom: "inception_3a/3x3_reduce"
  top: "inception_3a/3x3"
  name: "inception_3a/3x3"
  type: CONVOLUTION
  blobs_lr: 1
  blobs_lr: 2
  weight_decay: 1
  weight_decay: 0
  convolution_param {
    num_output: 128
    pad: 1
    kernel_size: 3
    weight_filler {
      type: "xavier"
      std: 0.03
    }
    bias_filler {
      type: "constant"
      value: 0.2
    }
  }
}
layers {
  bottom: "inception_3a/3x3"
  top: "inception_3a/3x3"
  name: "inception_3a/relu_3x3"
  type: RELU
}
layers {
  bottom: "pool2/3x3_s2"
  top: "inception_3a/5x5_reduce"
  name: "inception_3a/5x5_reduce"
  type: CONVOLUTION
  blobs_lr: 1
  blobs_lr: 2
  weight_decay: 1
  weight_decay: 0
  convolution_param {
    num_output: 16
    kernel_size: 1
    weight_filler {
      type: "xavier"
      std: 0.2
    }
    bias_filler {
      type: "constant"
      value: 0.2
    }
  }
}
layers {
  bottom: "inception_3a/5x5_reduce"
  top: "inception_3a/5x5_reduce"
  name: "inception_3a/relu_5x5_reduce"
  type: RELU
}
layers {
  bottom: "inception_3a/5x5_reduce"
  top: "inception_3a/5x5"
  name: "inception_3a/5x5"
  type: CONVOLUTION
  blobs_lr: 1
  blobs_lr: 2
  weight_decay: 1
  weight_decay: 0
  convolution_param {
    num_output: 32
    pad: 2
    kernel_size: 5
    weight_filler {
      type: "xavier"
      std: 0.03
    }
    bias_filler {
      type: "constant"
      value: 0.2
    }
  }
}
layers {
  bottom: "inception_3a/5x5"
  top: "inception_3a/5x5"
  name: "inception_3a/relu_5x5"
  type: RELU
}
layers {
  bottom: "pool2/3x3_s2"
  top: "inception_3a/pool"
  name: "inception_3a/pool"
  type: POOLING
  pooling_param {
    pool: MAX
    kernel_size: 3
    stride: 1
    pad: 1
  }
}
layers {
  bottom: "inception_3a/pool"
  top: "inception_3a/pool_proj"
  name: "inception_3a/pool_proj"
  type: CONVOLUTION
  blobs_lr: 1
  blobs_lr: 2
  weight_decay: 1
  weight_decay: 0
  convolution_param {
    num_output: 32
    kernel_size: 1
    weight_filler {
      type: "xavier"
      std: 0.1
    }
    bias_filler {
      type: "constant"
      value: 0.2
    }
  }
}
layers {
  bottom: "inception_3a/pool_proj"
  top: "inception_3a/pool_proj"
  name: "inception_3a/relu_pool_proj"
  type: RELU
}
layers {
  bottom: "inception_3a/1x1"
  bottom: "inception_3a/3x3"
  bottom: "inception_3a/5x5"
  bottom: "inception_3a/pool_proj"
  top: "inception_3a/output"
  name: "inception_3a/output"
  type: CONCAT
}
layers {
  bottom: "inception_3a/output"
  top: "inception_3b/1x1"
  name: "inception_3b/1x1"
  type: CONVOLUTION
  blobs_lr: 1
  blobs_lr: 2
  weight_decay: 1
  weight_decay: 0
  convolution_param {
    num_output: 128
    kernel_size: 1
    weight_filler {
      type: "xavier"
      std: 0.03
    }
    bias_filler {
      type: "constant"
      value: 0.2
    }
  }
}
layers {
  bottom: "inception_3b/1x1"
  top: "inception_3b/1x1"
  name: "inception_3b/relu_1x1"
  type: RELU
}
layers {
  bottom: "inception_3a/output"
  top: "inception_3b/3x3_reduce"
  name: "inception_3b/3x3_reduce"
  type: CONVOLUTION
  blobs_lr: 1
  blobs_lr: 2
  weight_decay: 1
  weight_decay: 0
  convolution_param {
    num_output: 128
    kernel_size: 1
    weight_filler {
      type: "xavier"
      std: 0.09
    }
    bias_filler {
      type: "constant"
      value: 0.2
    }
  }
}
layers {
  bottom: "inception_3b/3x3_reduce"
  top: "inception_3b/3x3_reduce"
  name: "inception_3b/relu_3x3_reduce"
  type: RELU
}
layers {
  bottom: "inception_3b/3x3_reduce"
  top: "inception_3b/3x3"
  name: "inception_3b/3x3"
  type: CONVOLUTION
  blobs_lr: 1
  blobs_lr: 2
  weight_decay: 1
  weight_decay: 0
  convolution_param {
    num_output: 192
    pad: 1
    kernel_size: 3
    weight_filler {
      type: "xavier"
      std: 0.03
    }
    bias_filler {
      type: "constant"
      value: 0.2
    }
  }
}
layers {
  bottom: "inception_3b/3x3"
  top: "inception_3b/3x3"
  name: "inception_3b/relu_3x3"
  type: RELU
}
layers {
  bottom: "inception_3a/output"
  top: "inception_3b/5x5_reduce"
  name: "inception_3b/5x5_reduce"
  type: CONVOLUTION
  blobs_lr: 1
  blobs_lr: 2
  weight_decay: 1
  weight_decay: 0
  convolution_param {
    num_output: 32
    kernel_size: 1
    weight_filler {
      type: "xavier"
      std: 0.2
    }
    bias_filler {
      type: "constant"
      value: 0.2
    }
  }
}
layers {
  bottom: "inception_3b/5x5_reduce"
  top: "inception_3b/5x5_reduce"
  name: "inception_3b/relu_5x5_reduce"
  type: RELU
}
layers {
  bottom: "inception_3b/5x5_reduce"
  top: "inception_3b/5x5"
  name: "inception_3b/5x5"
  type: CONVOLUTION
  blobs_lr: 1
  blobs_lr: 2
  weight_decay: 1
  weight_decay: 0
  convolution_param {
    num_output: 96
    pad: 2
    kernel_size: 5
    weight_filler {
      type: "xavier"
      std: 0.03
    }
    bias_filler {
      type: "constant"
      value: 0.2
    }
  }
}
layers {
  bottom: "inception_3b/5x5"
  top: "inception_3b/5x5"
  name: "inception_3b/relu_5x5"
  type: RELU
}
layers {
  bottom: "inception_3a/output"
  top: "inception_3b/pool"
  name: "inception_3b/pool"
  type: POOLING
  pooling_param {
    pool: MAX
    kernel_size: 3
    stride: 1
    pad: 1
  }
}
layers {
  bottom: "inception_3b/pool"
  top: "inception_3b/pool_proj"
  name: "inception_3b/pool_proj"
  type: CONVOLUTION
  blobs_lr: 1
  blobs_lr: 2
  weight_decay: 1
  weight_decay: 0
  convolution_param {
    num_output: 64
    kernel_size: 1
    weight_filler {
      type: "xavier"
      std: 0.1
    }
    bias_filler {
      type: "constant"
      value: 0.2
    }
  }
}
layers {
  bottom: "inception_3b/pool_proj"
  top: "inception_3b/pool_proj"
  name: "inception_3b/relu_pool_proj"
  type: RELU
}
layers {
  bottom: "inception_3b/1x1"
  bottom: "inception_3b/3x3"
  bottom: "inception_3b/5x5"
  bottom: "inception_3b/pool_proj"
  top: "inception_3b/output"
  name: "inception_3b/output"
  type: CONCAT
}
layers {
  bottom: "inception_3b/output"
  top: "pool3/3x3_s2"
  name: "pool3/3x3_s2"
  type: POOLING
  pooling_param {
    pool: MAX
    kernel_size: 3
    stride: 2
  }
}
layers {
  bottom: "pool3/3x3_s2"
  top: "inception_4a/1x1"
  name: "inception_4a/1x1"
  type: CONVOLUTION
  blobs_lr: 1
  blobs_lr: 2
  weight_decay: 1
  weight_decay: 0
  convolution_param {
    num_output: 192
    kernel_size: 1
    weight_filler {
      type: "xavier"
      std: 0.03
    }
    bias_filler {
      type: "constant"
      value: 0.2
    }
  }
}
layers {
  bottom: "inception_4a/1x1"
  top: "inception_4a/1x1"
  name: "inception_4a/relu_1x1"
  type: RELU
}
layers {
  bottom: "pool3/3x3_s2"
  top: "inception_4a/3x3_reduce"
  name: "inception_4a/3x3_reduce"
  type: CONVOLUTION
  blobs_lr: 1
  blobs_lr: 2
  weight_decay: 1
  weight_decay: 0
  convolution_param {
    num_output: 96
    kernel_size: 1
    weight_filler {
      type: "xavier"
      std: 0.09
    }
    bias_filler {
      type: "constant"
      value: 0.2
    }
  }
}
layers {
  bottom: "inception_4a/3x3_reduce"
  top: "inception_4a/3x3_reduce"
  name: "inception_4a/relu_3x3_reduce"
  type: RELU
}
layers {
  bottom: "inception_4a/3x3_reduce"
  top: "inception_4a/3x3"
  name: "inception_4a/3x3"
  type: CONVOLUTION
  blobs_lr: 1
  blobs_lr: 2
  weight_decay: 1
  weight_decay: 0
  convolution_param {
    num_output: 208
    pad: 1
    kernel_size: 3
    weight_filler {
      type: "xavier"
      std: 0.03
    }
    bias_filler {
      type: "constant"
      value: 0.2
    }
  }
}
layers {
  bottom: "inception_4a/3x3"
  top: "inception_4a/3x3"
  name: "inception_4a/relu_3x3"
  type: RELU
}
layers {
  bottom: "pool3/3x3_s2"
  top: "inception_4a/5x5_reduce"
  name: "inception_4a/5x5_reduce"
  type: CONVOLUTION
  blobs_lr: 1
  blobs_lr: 2
  weight_decay: 1
  weight_decay: 0
  convolution_param {
    num_output: 16
    kernel_size: 1
    weight_filler {
      type: "xavier"
      std: 0.2
    }
    bias_filler {
      type: "constant"
      value: 0.2
    }
  }
}
layers {
  bottom: "inception_4a/5x5_reduce"
  top: "inception_4a/5x5_reduce"
  name: "inception_4a/relu_5x5_reduce"
  type: RELU
}
layers {
  bottom: "inception_4a/5x5_reduce"
  top: "inception_4a/5x5"
  name: "inception_4a/5x5"
  type: CONVOLUTION
  blobs_lr: 1
  blobs_lr: 2
  weight_decay: 1
  weight_decay: 0
  convolution_param {
    num_output: 48
    pad: 2
    kernel_size: 5
    weight_filler {
      type: "xavier"
      std: 0.03
    }
    bias_filler {
      type: "constant"
      value: 0.2
    }
  }
}
layers {
  bottom: "inception_4a/5x5"
  top: "inception_4a/5x5"
  name: "inception_4a/relu_5x5"
  type: RELU
}
layers {
  bottom: "pool3/3x3_s2"
  top: "inception_4a/pool"
  name: "inception_4a/pool"
  type: POOLING
  pooling_param {
    pool: MAX
    kernel_size: 3
    stride: 1
    pad: 1
  }
}
layers {
  bottom: "inception_4a/pool"
  top: "inception_4a/pool_proj"
  name: "inception_4a/pool_proj"
  type: CONVOLUTION
  blobs_lr: 1
  blobs_lr: 2
  weight_decay: 1
  weight_decay: 0
  convolution_param {
    num_output: 64
    kernel_size: 1
    weight_filler {
      type: "xavier"
      std: 0.1
    }
    bias_filler {
      type: "constant"
      value: 0.2
    }
  }
}
layers {
  bottom: "inception_4a/pool_proj"
  top: "inception_4a/pool_proj"
  name: "inception_4a/relu_pool_proj"
  type: RELU
}
layers {
  bottom: "inception_4a/1x1"
  bottom: "inception_4a/3x3"
  bottom: "inception_4a/5x5"
  bottom: "inception_4a/pool_proj"
  top: "inception_4a/output"
  name: "inception_4a/output"
  type: CONCAT
}
layers {
  bottom: "inception_4a/output"
  top: "loss1/ave_pool"
  name: "loss1/ave_pool"
  type: POOLING
  pooling_param {
    pool: AVE
    kernel_size: 5
    stride: 3
  }
}
layers {
  bottom: "loss1/ave_pool"
  top: "loss1/conv"
  name: "loss1/conv"
  type: CONVOLUTION
  blobs_lr: 1
  blobs_lr: 2
  weight_decay: 1
  weight_decay: 0
  convolution_param {
    num_output: 128
    kernel_size: 1
    weight_filler {
      type: "xavier"
      std: 0.08
    }
    bias_filler {
      type: "constant"
      value: 0.2
    }
  }
}
layers {
  bottom: "loss1/conv"
  top: "loss1/conv"
  name: "loss1/relu_conv"
  type: RELU
}
layers {
  bottom: "loss1/conv"
  top: "loss1/fc"
  name: "loss1/fc"
  type: INNER_PRODUCT
  blobs_lr: 1
  blobs_lr: 2
  weight_decay: 1
  weight_decay: 0
  inner_product_param {
    num_output: 1024
    weight_filler {
      type: "xavier"
      std: 0.02
    }
    bias_filler {
      type: "constant"
      value: 0.2
    }
  }
}
layers {
  bottom: "loss1/fc"
  top: "loss1/fc"
  name: "loss1/relu_fc"
  type: RELU
}
layers {
  bottom: "loss1/fc"
  top: "loss1/fc"
  name: "loss1/drop_fc"
  type: DROPOUT
  dropout_param {
    dropout_ratio: 0.7
  }
}
layers {
  bottom: "loss1/fc"
  top: "loss1/classifier"
  name: "loss1/classifier"
  type: INNER_PRODUCT
  blobs_lr: 1
  blobs_lr: 2
  weight_decay: 1
  weight_decay: 0
  inner_product_param {
    num_output: 121
    weight_filler {
      type: "xavier"
      std: 0.0009765625
    }
    bias_filler {
      type: "constant"
      value: 0
    }
  }
}
layers {
  bottom: "loss1/classifier"
  bottom: "label"
  top: "loss1/loss1"
  name: "loss1/loss"
  type: SOFTMAX_LOSS
  loss_weight: 0.3
}
layers {
  bottom: "loss1/classifier"
  bottom: "label"
  top: "loss1/top-1"
  name: "loss1/top-1"
  type: ACCURACY
  include {
    phase: TEST
  }
}
layers {
  bottom: "inception_4a/output"
  top: "inception_4b/1x1"
  name: "inception_4b/1x1"
  type: CONVOLUTION
  blobs_lr: 1
  blobs_lr: 2
  weight_decay: 1
  weight_decay: 0
  convolution_param {
    num_output: 160
    kernel_size: 1
    weight_filler {
      type: "xavier"
      std: 0.03
    }
    bias_filler {
      type: "constant"
      value: 0.2
    }
  }
}
layers {
  bottom: "inception_4b/1x1"
  top: "inception_4b/1x1"
  name: "inception_4b/relu_1x1"
  type: RELU
}
layers {
  bottom: "inception_4a/output"
  top: "inception_4b/3x3_reduce"
  name: "inception_4b/3x3_reduce"
  type: CONVOLUTION
  blobs_lr: 1
  blobs_lr: 2
  weight_decay: 1
  weight_decay: 0
  convolution_param {
    num_output: 112
    kernel_size: 1
    weight_filler {
      type: "xavier"
      std: 0.09
    }
    bias_filler {
      type: "constant"
      value: 0.2
    }
  }
}
layers {
  bottom: "inception_4b/3x3_reduce"
  top: "inception_4b/3x3_reduce"
  name: "inception_4b/relu_3x3_reduce"
  type: RELU
}
layers {
  bottom: "inception_4b/3x3_reduce"
  top: "inception_4b/3x3"
  name: "inception_4b/3x3"
  type: CONVOLUTION
  blobs_lr: 1
  blobs_lr: 2
  weight_decay: 1
  weight_decay: 0
  convolution_param {
    num_output: 224
    pad: 1
    kernel_size: 3
    weight_filler {
      type: "xavier"
      std: 0.03
    }
    bias_filler {
      type: "constant"
      value: 0.2
    }
  }
}
layers {
  bottom: "inception_4b/3x3"
  top: "inception_4b/3x3"
  name: "inception_4b/relu_3x3"
  type: RELU
}
layers {
  bottom: "inception_4a/output"
  top: "inception_4b/5x5_reduce"
  name: "inception_4b/5x5_reduce"
  type: CONVOLUTION
  blobs_lr: 1
  blobs_lr: 2
  weight_decay: 1
  weight_decay: 0
  convolution_param {
    num_output: 24
    kernel_size: 1
    weight_filler {
      type: "xavier"
      std: 0.2
    }
    bias_filler {
      type: "constant"
      value: 0.2
    }
  }
}
layers {
  bottom: "inception_4b/5x5_reduce"
  top: "inception_4b/5x5_reduce"
  name: "inception_4b/relu_5x5_reduce"
  type: RELU
}
layers {
  bottom: "inception_4b/5x5_reduce"
  top: "inception_4b/5x5"
  name: "inception_4b/5x5"
  type: CONVOLUTION
  blobs_lr: 1
  blobs_lr: 2
  weight_decay: 1
  weight_decay: 0
  convolution_param {
    num_output: 64
    pad: 2
    kernel_size: 5
    weight_filler {
      type: "xavier"
      std: 0.03
    }
    bias_filler {
      type: "constant"
      value: 0.2
    }
  }
}
layers {
  bottom: "inception_4b/5x5"
  top: "inception_4b/5x5"
  name: "inception_4b/relu_5x5"
  type: RELU
}
layers {
  bottom: "inception_4a/output"
  top: "inception_4b/pool"
  name: "inception_4b/pool"
  type: POOLING
  pooling_param {
    pool: MAX
    kernel_size: 3
    stride: 1
    pad: 1
  }
}
layers {
  bottom: "inception_4b/pool"
  top: "inception_4b/pool_proj"
  name: "inception_4b/pool_proj"
  type: CONVOLUTION
  blobs_lr: 1
  blobs_lr: 2
  weight_decay: 1
  weight_decay: 0
  convolution_param {
    num_output: 64
    kernel_size: 1
    weight_filler {
      type: "xavier"
      std: 0.1
    }
    bias_filler {
      type: "constant"
      value: 0.2
    }
  }
}
layers {
  bottom: "inception_4b/pool_proj"
  top: "inception_4b/pool_proj"
  name: "inception_4b/relu_pool_proj"
  type: RELU
}
layers {
  bottom: "inception_4b/1x1"
  bottom: "inception_4b/3x3"
  bottom: "inception_4b/5x5"
  bottom: "inception_4b/pool_proj"
  top: "inception_4b/output"
  name: "inception_4b/output"
  type: CONCAT
}
layers {
  bottom: "inception_4b/output"
  top: "inception_4c/1x1"
  name: "inception_4c/1x1"
  type: CONVOLUTION
  blobs_lr: 1
  blobs_lr: 2
  weight_decay: 1
  weight_decay: 0
  convolution_param {
    num_output: 128
    kernel_size: 1
    weight_filler {
      type: "xavier"
      std: 0.03
    }
    bias_filler {
      type: "constant"
      value: 0.2
    }
  }
}
layers {
  bottom: "inception_4c/1x1"
  top: "inception_4c/1x1"
  name: "inception_4c/relu_1x1"
  type: RELU
}
layers {
  bottom: "inception_4b/output"
  top: "inception_4c/3x3_reduce"
  name: "inception_4c/3x3_reduce"
  type: CONVOLUTION
  blobs_lr: 1
  blobs_lr: 2
  weight_decay: 1
  weight_decay: 0
  convolution_param {
    num_output: 128
    kernel_size: 1
    weight_filler {
      type: "xavier"
      std: 0.09
    }
    bias_filler {
      type: "constant"
      value: 0.2
    }
  }
}
layers {
  bottom: "inception_4c/3x3_reduce"
  top: "inception_4c/3x3_reduce"
  name: "inception_4c/relu_3x3_reduce"
  type: RELU
}
layers {
  bottom: "inception_4c/3x3_reduce"
  top: "inception_4c/3x3"
  name: "inception_4c/3x3"
  type: CONVOLUTION
  blobs_lr: 1
  blobs_lr: 2
  weight_decay: 1
  weight_decay: 0
  convolution_param {
    num_output: 256
    pad: 1
    kernel_size: 3
    weight_filler {
      type: "xavier"
      std: 0.03
    }
    bias_filler {
      type: "constant"
      value: 0.2
    }
  }
}
layers {
  bottom: "inception_4c/3x3"
  top: "inception_4c/3x3"
  name: "inception_4c/relu_3x3"
  type: RELU
}
layers {
  bottom: "inception_4b/output"
  top: "inception_4c/5x5_reduce"
  name: "inception_4c/5x5_reduce"
  type: CONVOLUTION
  blobs_lr: 1
  blobs_lr: 2
  weight_decay: 1
  weight_decay: 0
  convolution_param {
    num_output: 24
    kernel_size: 1
    weight_filler {
      type: "xavier"
      std: 0.2
    }
    bias_filler {
      type: "constant"
      value: 0.2
    }
  }
}
layers {
  bottom: "inception_4c/5x5_reduce"
  top: "inception_4c/5x5_reduce"
  name: "inception_4c/relu_5x5_reduce"
  type: RELU
}
layers {
  bottom: "inception_4c/5x5_reduce"
  top: "inception_4c/5x5"
  name: "inception_4c/5x5"
  type: CONVOLUTION
  blobs_lr: 1
  blobs_lr: 2
  weight_decay: 1
  weight_decay: 0
  convolution_param {
    num_output: 64
    pad: 2
    kernel_size: 5
    weight_filler {
      type: "xavier"
      std: 0.03
    }
    bias_filler {
      type: "constant"
      value: 0.2
    }
  }
}
layers {
  bottom: "inception_4c/5x5"
  top: "inception_4c/5x5"
  name: "inception_4c/relu_5x5"
  type: RELU
}
layers {
  bottom: "inception_4b/output"
  top: "inception_4c/pool"
  name: "inception_4c/pool"
  type: POOLING
  pooling_param {
    pool: MAX
    kernel_size: 3
    stride: 1
    pad: 1
  }
}
layers {
  bottom: "inception_4c/pool"
  top: "inception_4c/pool_proj"
  name: "inception_4c/pool_proj"
  type: CONVOLUTION
  blobs_lr: 1
  blobs_lr: 2
  weight_decay: 1
  weight_decay: 0
  convolution_param {
    num_output: 64
    kernel_size: 1
    weight_filler {
      type: "xavier"
      std: 0.1
    }
    bias_filler {
      type: "constant"
      value: 0.2
    }
  }
}
layers {
  bottom: "inception_4c/pool_proj"
  top: "inception_4c/pool_proj"
  name: "inception_4c/relu_pool_proj"
  type: RELU
}
layers {
  bottom: "inception_4c/1x1"
  bottom: "inception_4c/3x3"
  bottom: "inception_4c/5x5"
  bottom: "inception_4c/pool_proj"
  top: "inception_4c/output"
  name: "inception_4c/output"
  type: CONCAT
}
layers {
  bottom: "inception_4c/output"
  top: "inception_4d/1x1"
  name: "inception_4d/1x1"
  type: CONVOLUTION
  blobs_lr: 1
  blobs_lr: 2
  weight_decay: 1
  weight_decay: 0
  convolution_param {
    num_output: 112
    kernel_size: 1
    weight_filler {
      type: "xavier"
      std: 0.03
    }
    bias_filler {
      type: "constant"
      value: 0.2
    }
  }
}
layers {
  bottom: "inception_4d/1x1"
  top: "inception_4d/1x1"
  name: "inception_4d/relu_1x1"
  type: RELU
}
layers {
  bottom: "inception_4c/output"
  top: "inception_4d/3x3_reduce"
  name: "inception_4d/3x3_reduce"
  type: CONVOLUTION
  blobs_lr: 1
  blobs_lr: 2
  weight_decay: 1
  weight_decay: 0
  convolution_param {
    num_output: 144
    kernel_size: 1
    weight_filler {
      type: "xavier"
      std: 0.09
    }
    bias_filler {
      type: "constant"
      value: 0.2
    }
  }
}
layers {
  bottom: "inception_4d/3x3_reduce"
  top: "inception_4d/3x3_reduce"
  name: "inception_4d/relu_3x3_reduce"
  type: RELU
}
layers {
  bottom: "inception_4d/3x3_reduce"
  top: "inception_4d/3x3"
  name: "inception_4d/3x3"
  type: CONVOLUTION
  blobs_lr: 1
  blobs_lr: 2
  weight_decay: 1
  weight_decay: 0
  convolution_param {
    num_output: 288
    pad: 1
    kernel_size: 3
    weight_filler {
      type: "xavier"
      std: 0.03
    }
    bias_filler {
      type: "constant"
      value: 0.2
    }
  }
}
layers {
  bottom: "inception_4d/3x3"
  top: "inception_4d/3x3"
  name: "inception_4d/relu_3x3"
  type: RELU
}
layers {
  bottom: "inception_4c/output"
  top: "inception_4d/5x5_reduce"
  name: "inception_4d/5x5_reduce"
  type: CONVOLUTION
  blobs_lr: 1
  blobs_lr: 2
  weight_decay: 1
  weight_decay: 0
  convolution_param {
    num_output: 32
    kernel_size: 1
    weight_filler {
      type: "xavier"
      std: 0.2
    }
    bias_filler {
      type: "constant"
      value: 0.2
    }
  }
}
layers {
  bottom: "inception_4d/5x5_reduce"
  top: "inception_4d/5x5_reduce"
  name: "inception_4d/relu_5x5_reduce"
  type: RELU
}
layers {
  bottom: "inception_4d/5x5_reduce"
  top: "inception_4d/5x5"
  name: "inception_4d/5x5"
  type: CONVOLUTION
  blobs_lr: 1
  blobs_lr: 2
  weight_decay: 1
  weight_decay: 0
  convolution_param {
    num_output: 64
    pad: 2
    kernel_size: 5
    weight_filler {
      type: "xavier"
      std: 0.03
    }
    bias_filler {
      type: "constant"
      value: 0.2
    }
  }
}
layers {
  bottom: "inception_4d/5x5"
  top: "inception_4d/5x5"
  name: "inception_4d/relu_5x5"
  type: RELU
}
layers {
  bottom: "inception_4c/output"
  top: "inception_4d/pool"
  name: "inception_4d/pool"
  type: POOLING
  pooling_param {
    pool: MAX
    kernel_size: 3
    stride: 1
    pad: 1
  }
}
layers {
  bottom: "inception_4d/pool"
  top: "inception_4d/pool_proj"
  name: "inception_4d/pool_proj"
  type: CONVOLUTION
  blobs_lr: 1
  blobs_lr: 2
  weight_decay: 1
  weight_decay: 0
  convolution_param {
    num_output: 64
    kernel_size: 1
    weight_filler {
      type: "xavier"
      std: 0.1
    }
    bias_filler {
      type: "constant"
      value: 0.2
    }
  }
}
layers {
  bottom: "inception_4d/pool_proj"
  top: "inception_4d/pool_proj"
  name: "inception_4d/relu_pool_proj"
  type: RELU
}
layers {
  bottom: "inception_4d/1x1"
  bottom: "inception_4d/3x3"
  bottom: "inception_4d/5x5"
  bottom: "inception_4d/pool_proj"
  top: "inception_4d/output"
  name: "inception_4d/output"
  type: CONCAT
}
layers {
  bottom: "inception_4d/output"
  top: "loss2/ave_pool"
  name: "loss2/ave_pool"
  type: POOLING
  pooling_param {
    pool: AVE
    kernel_size: 5
    stride: 3
  }
}
layers {
  bottom: "loss2/ave_pool"
  top: "loss2/conv"
  name: "loss2/conv"
  type: CONVOLUTION
  blobs_lr: 1
  blobs_lr: 2
  weight_decay: 1
  weight_decay: 0
  convolution_param {
    num_output: 128
    kernel_size: 1
    weight_filler {
      type: "xavier"
      std: 0.08
    }
    bias_filler {
      type: "constant"
      value: 0.2
    }
  }
}
layers {
  bottom: "loss2/conv"
  top: "loss2/conv"
  name: "loss2/relu_conv"
  type: RELU
}
layers {
  bottom: "loss2/conv"
  top: "loss2/fc"
  name: "loss2/fc"
  type: INNER_PRODUCT
  blobs_lr: 1
  blobs_lr: 2
  weight_decay: 1
  weight_decay: 0
  inner_product_param {
    num_output: 1024
    weight_filler {
      type: "xavier"
      std: 0.02
    }
    bias_filler {
      type: "constant"
      value: 0.2
    }
  }
}
layers {
  bottom: "loss2/fc"
  top: "loss2/fc"
  name: "loss2/relu_fc"
  type: RELU
}
layers {
  bottom: "loss2/fc"
…
I0311 09:07:36.740074 21001 layer_factory.hpp:78] Creating layer inception_4c/3x3_reduce
I0311 09:07:36.740103 21001 net.cpp:68] Creating Layer inception_4c/3x3_reduce
I0311 09:07:36.740128 21001 net.cpp:395] inception_4c/3x3_reduce <- inception_4b/output_inception_4b/output_0_split_1
I0311 09:07:36.740162 21001 net.cpp:357] inception_4c/3x3_reduce -> inception_4c/3x3_reduce
I0311 09:07:36.740195 21001 net.cpp:97] Setting up inception_4c/3x3_reduce
I0311 09:07:36.741668 21001 net.cpp:104] Top shape: 128 128 5 5 (409600)
I0311 09:07:36.741714 21001 layer_factory.hpp:78] Creating layer inception_4c/relu_3x3_reduce
I0311 09:07:36.741744 21001 net.cpp:68] Creating Layer inception_4c/relu_3x3_reduce
I0311 09:07:36.741770 21001 net.cpp:395] inception_4c/relu_3x3_reduce <- inception_4c/3x3_reduce
I0311 09:07:36.741801 21001 net.cpp:346] inception_4c/relu_3x3_reduce -> inception_4c/3x3_reduce (in-place)
I0311 09:07:36.741832 21001 net.cpp:97] Setting up inception_4c/relu_3x3_reduce
I0311 09:07:36.741863 21001 net.cpp:104] Top shape: 128 128 5 5 (409600)
I0311 09:07:36.741885 21001 layer_factory.hpp:78] Creating layer inception_4c/3x3
I0311 09:07:36.741914 21001 net.cpp:68] Creating Layer inception_4c/3x3
I0311 09:07:36.741937 21001 net.cpp:395] inception_4c/3x3 <- inception_4c/3x3_reduce
I0311 09:07:36.741973 21001 net.cpp:357] inception_4c/3x3 -> inception_4c/3x3
I0311 09:07:36.742007 21001 net.cpp:97] Setting up inception_4c/3x3
I0311 09:07:36.746296 21001 net.cpp:104] Top shape: 128 256 5 5 (819200)
I0311 09:07:36.746340 21001 layer_factory.hpp:78] Creating layer inception_4c/relu_3x3
I0311 09:07:36.746357 21001 net.cpp:68] Creating Layer inception_4c/relu_3x3
I0311 09:07:36.746371 21001 net.cpp:395] inception_4c/relu_3x3 <- inception_4c/3x3
I0311 09:07:36.746386 21001 net.cpp:346] inception_4c/relu_3x3 -> inception_4c/3x3 (in-place)
I0311 09:07:36.746430 21001 net.cpp:97] Setting up inception_4c/relu_3x3
I0311 09:07:36.746448 21001 net.cpp:104] Top shape: 128 256 5 5 (819200)
I0311 09:07:36.746460 21001 layer_factory.hpp:78] Creating layer inception_4c/5x5_reduce
I0311 09:07:36.746479 21001 net.cpp:68] Creating Layer inception_4c/5x5_reduce
I0311 09:07:36.753636 21001 net.cpp:395] inception_4c/5x5_reduce <- inception_4b/output_inception_4b/output_0_split_2
I0311 09:07:36.753684 21001 net.cpp:357] inception_4c/5x5_reduce -> inception_4c/5x5_reduce
I0311 09:07:36.753712 21001 net.cpp:97] Setting up inception_4c/5x5_reduce
I0311 09:07:36.754400 21001 net.cpp:104] Top shape: 128 24 5 5 (76800)
I0311 09:07:36.754438 21001 layer_factory.hpp:78] Creating layer inception_4c/relu_5x5_reduce
I0311 09:07:36.754463 21001 net.cpp:68] Creating Layer inception_4c/relu_5x5_reduce
I0311 09:07:36.754480 21001 net.cpp:395] inception_4c/relu_5x5_reduce <- inception_4c/5x5_reduce
I0311 09:07:36.754499 21001 net.cpp:346] inception_4c/relu_5x5_reduce -> inception_4c/5x5_reduce (in-place)
I0311 09:07:36.754520 21001 net.cpp:97] Setting up inception_4c/relu_5x5_reduce
I0311 09:07:36.754540 21001 net.cpp:104] Top shape: 128 24 5 5 (76800)
I0311 09:07:36.754555 21001 layer_factory.hpp:78] Creating layer inception_4c/5x5
I0311 09:07:36.754575 21001 net.cpp:68] Creating Layer inception_4c/5x5
I0311 09:07:36.754590 21001 net.cpp:395] inception_4c/5x5 <- inception_4c/5x5_reduce
I0311 09:07:36.754614 21001 net.cpp:357] inception_4c/5x5 -> inception_4c/5x5
I0311 09:07:36.754637 21001 net.cpp:97] Setting up inception_4c/5x5
I0311 09:07:36.755589 21001 net.cpp:104] Top shape: 128 64 5 5 (204800)
I0311 09:07:36.755620 21001 layer_factory.hpp:78] Creating layer inception_4c/relu_5x5
I0311 09:07:36.755640 21001 net.cpp:68] Creating Layer inception_4c/relu_5x5
I0311 09:07:36.755656 21001 net.cpp:395] inception_4c/relu_5x5 <- inception_4c/5x5
I0311 09:07:36.755678 21001 net.cpp:346] inception_4c/relu_5x5 -> inception_4c/5x5 (in-place)
I0311 09:07:36.755698 21001 net.cpp:97] Setting up inception_4c/relu_5x5
I0311 09:07:36.755717 21001 net.cpp:104] Top shape: 128 64 5 5 (204800)
I0311 09:07:36.755731 21001 layer_factory.hpp:78] Creating layer inception_4c/pool
I0311 09:07:36.755746 21001 layer_factory.cpp:51] CUDNN does not support padding or multiple tops. Using Caffe's own pooling layer.
I0311 09:07:36.755764 21001 net.cpp:68] Creating Layer inception_4c/pool
I0311 09:07:36.755779 21001 net.cpp:395] inception_4c/pool <- inception_4b/output_inception_4b/output_0_split_3
I0311 09:07:36.755798 21001 net.cpp:357] inception_4c/pool -> inception_4c/pool
I0311 09:07:36.755817 21001 net.cpp:97] Setting up inception_4c/pool
I0311 09:07:36.755836 21001 net.cpp:104] Top shape: 128 512 5 5 (1638400)
I0311 09:07:36.755848 21001 layer_factory.hpp:78] Creating layer inception_4c/pool_proj
I0311 09:07:36.755872 21001 net.cpp:68] Creating Layer inception_4c/pool_proj
I0311 09:07:36.755887 21001 net.cpp:395] inception_4c/pool_proj <- inception_4c/pool
I0311 09:07:36.755908 21001 net.cpp:357] inception_4c/pool_proj -> inception_4c/pool_proj
I0311 09:07:36.755928 21001 net.cpp:97] Setting up inception_4c/pool_proj
I0311 09:07:36.756779 21001 net.cpp:104] Top shape: 128 64 5 5 (204800)
I0311 09:07:36.756810 21001 layer_factory.hpp:78] Creating layer inception_4c/relu_pool_proj
I0311 09:07:36.756829 21001 net.cpp:68] Creating Layer inception_4c/relu_pool_proj
I0311 09:07:36.756844 21001 net.cpp:395] inception_4c/relu_pool_proj <- inception_4c/pool_proj
I0311 09:07:36.756886 21001 net.cpp:346] inception_4c/relu_pool_proj -> inception_4c/pool_proj (in-place)
I0311 09:07:36.756909 21001 net.cpp:97] Setting up inception_4c/relu_pool_proj
I0311 09:07:36.756929 21001 net.cpp:104] Top shape: 128 64 5 5 (204800)
I0311 09:07:36.756953 21001 layer_factory.hpp:78] Creating layer inception_4c/output
I0311 09:07:36.756965 21001 net.cpp:68] Creating Layer inception_4c/output
I0311 09:07:36.756975 21001 net.cpp:395] inception_4c/output <- inception_4c/1x1
I0311 09:07:36.757041 21001 net.cpp:395] inception_4c/output <- inception_4c/3x3
I0311 09:07:36.757061 21001 net.cpp:395] inception_4c/output <- inception_4c/5x5
I0311 09:07:36.757076 21001 net.cpp:395] inception_4c/output <- inception_4c/pool_proj
I0311 09:07:36.757094 21001 net.cpp:357] inception_4c/output -> inception_4c/output
I0311 09:07:36.757115 21001 net.cpp:97] Setting up inception_4c/output
I0311 09:07:36.757133 21001 net.cpp:104] Top shape: 128 512 5 5 (1638400)
I0311 09:07:36.757145 21001 layer_factory.hpp:78] Creating layer inception_4c/output_inception_4c/output_0_split
I0311 09:07:36.757165 21001 net.cpp:68] Creating Layer inception_4c/output_inception_4c/output_0_split
I0311 09:07:36.757179 21001 net.cpp:395] inception_4c/output_inception_4c/output_0_split <- inception_4c/output
I0311 09:07:36.757202 21001 net.cpp:357] inception_4c/output_inception_4c/output_0_split -> inception_4c/output_inception_4c/output_0_split_0
I0311 09:07:36.757226 21001 net.cpp:357] inception_4c/output_inception_4c/output_0_split -> inception_4c/output_inception_4c/output_0_split_1
I0311 09:07:36.757248 21001 net.cpp:357] inception_4c/output_inception_4c/output_0_split -> inception_4c/output_inception_4c/output_0_split_2
I0311 09:07:36.757271 21001 net.cpp:357] inception_4c/output_inception_4c/output_0_split -> inception_4c/output_inception_4c/output_0_split_3
I0311 09:07:36.757289 21001 net.cpp:97] Setting up inception_4c/output_inception_4c/output_0_split
I0311 09:07:36.757305 21001 net.cpp:104] Top shape: 128 512 5 5 (1638400)
I0311 09:07:36.757318 21001 net.cpp:104] Top shape: 128 512 5 5 (1638400)
I0311 09:07:36.757331 21001 net.cpp:104] Top shape: 128 512 5 5 (1638400)
I0311 09:07:36.757344 21001 net.cpp:104] Top shape: 128 512 5 5 (1638400)
I0311 09:07:36.757356 21001 layer_factory.hpp:78] Creating layer inception_4d/1x1
I0311 09:07:36.757380 21001 net.cpp:68] Creating Layer inception_4d/1x1
I0311 09:07:36.757395 21001 net.cpp:395] inception_4d/1x1 <- inception_4c/output_inception_4c/output_0_split_0
I0311 09:07:36.757414 21001 net.cpp:357] inception_4d/1x1 -> inception_4d/1x1
I0311 09:07:36.757434 21001 net.cpp:97] Setting up inception_4d/1x1
I0311 09:07:36.758782 21001 net.cpp:104] Top shape: 128 112 5 5 (358400)
I0311 09:07:36.758813 21001 layer_factory.hpp:78] Creating layer inception_4d/relu_1x1
I0311 09:07:36.758832 21001 net.cpp:68] Creating Layer inception_4d/relu_1x1
I0311 09:07:36.758847 21001 net.cpp:395] inception_4d/relu_1x1 <- inception_4d/1x1
I0311 09:07:36.758869 21001 net.cpp:346] inception_4d/relu_1x1 -> inception_4d/1x1 (in-place)
I0311 09:07:36.758890 21001 net.cpp:97] Setting up inception_4d/relu_1x1
I0311 09:07:36.758909 21001 net.cpp:104] Top shape: 128 112 5 5 (358400)
I0311 09:07:36.758923 21001 layer_factory.hpp:78] Creating layer inception_4d/3x3_reduce
I0311 09:07:36.758942 21001 net.cpp:68] Creating Layer inception_4d/3x3_reduce
I0311 09:07:36.758957 21001 net.cpp:395] inception_4d/3x3_reduce <- inception_4c/output_inception_4c/output_0_split_1
I0311 09:07:36.758981 21001 net.cpp:357] inception_4d/3x3_reduce -> inception_4d/3x3_reduce
I0311 09:07:36.759003 21001 net.cpp:97] Setting up inception_4d/3x3_reduce
I0311 09:07:36.760612 21001 net.cpp:104] Top shape: 128 144 5 5 (460800)
I0311 09:07:36.760643 21001 layer_factory.hpp:78] Creating layer inception_4d/relu_3x3_reduce
I0311 09:07:36.760669 21001 net.cpp:68] Creating Layer inception_4d/relu_3x3_reduce
I0311 09:07:36.760685 21001 net.cpp:395] inception_4d/relu_3x3_reduce <- inception_4d/3x3_reduce
I0311 09:07:36.769162 21001 net.cpp:346] inception_4d/relu_3x3_reduce -> inception_4d/3x3_reduce (in-place)
I0311 09:07:36.769201 21001 net.cpp:97] Setting up inception_4d/relu_3x3_reduce
I0311 09:07:36.769228 21001 net.cpp:104] Top shape: 128 144 5 5 (460800)
I0311 09:07:36.769246 21001 layer_factory.hpp:78] Creating layer inception_4d/3x3
I0311 09:07:36.769268 21001 net.cpp:68] Creating Layer inception_4d/3x3
I0311 09:07:36.769286 21001 net.cpp:395] inception_4d/3x3 <- inception_4d/3x3_reduce
I0311 09:07:36.769309 21001 net.cpp:357] inception_4d/3x3 -> inception_4d/3x3
I0311 09:07:36.769367 21001 net.cpp:97] Setting up inception_4d/3x3
I0311 09:07:36.776465 21001 net.cpp:104] Top shape: 128 288 5 5 (921600)
I0311 09:07:36.776527 21001 layer_factory.hpp:78] Creating layer inception_4d/relu_3x3
I0311 09:07:36.776561 21001 net.cpp:68] Creating Layer inception_4d/relu_3x3
I0311 09:07:36.776587 21001 net.cpp:395] inception_4d/relu_3x3 <- inception_4d/3x3
I0311 09:07:36.776621 21001 net.cpp:346] inception_4d/relu_3x3 -> inception_4d/3x3 (in-place)
I0311 09:07:36.776654 21001 net.cpp:97] Setting up inception_4d/relu_3x3
I0311 09:07:36.776684 21001 net.cpp:104] Top shape: 128 288 5 5 (921600)
I0311 09:07:36.776708 21001 layer_factory.hpp:78] Creating layer inception_4d/5x5_reduce
I0311 09:07:36.776738 21001 net.cpp:68] Creating Layer inception_4d/5x5_reduce
I0311 09:07:36.776763 21001 net.cpp:395] inception_4d/5x5_reduce <- inception_4c/output_inception_4c/output_0_split_2
I0311 09:07:36.776799 21001 net.cpp:357] inception_4d/5x5_reduce -> inception_4d/5x5_reduce
I0311 09:07:36.776832 21001 net.cpp:97] Setting up inception_4d/5x5_reduce
I0311 09:07:36.777164 21001 net.cpp:104] Top shape: 128 32 5 5 (102400)
I0311 09:07:36.777191 21001 layer_factory.hpp:78] Creating layer inception_4d/relu_5x5_reduce
I0311 09:07:36.777207 21001 net.cpp:68] Creating Layer inception_4d/relu_5x5_reduce
I0311 09:07:36.777220 21001 net.cpp:395] inception_4d/relu_5x5_reduce <- inception_4d/5x5_reduce
I0311 09:07:36.777235 21001 net.cpp:346] inception_4d/relu_5x5_reduce -> inception_4d/5x5_reduce (in-place)
I0311 09:07:36.777250 21001 net.cpp:97] Setting up inception_4d/relu_5x5_reduce
I0311 09:07:36.777264 21001 net.cpp:104] Top shape: 128 32 5 5 (102400)
I0311 09:07:36.777276 21001 layer_factory.hpp:78] Creating layer inception_4d/5x5
I0311 09:07:36.777294 21001 net.cpp:68] Creating Layer inception_4d/5x5
I0311 09:07:36.777307 21001 net.cpp:395] inception_4d/5x5 <- inception_4d/5x5_reduce
I0311 09:07:36.777322 21001 net.cpp:357] inception_4d/5x5 -> inception_4d/5x5
I0311 09:07:36.777338 21001 net.cpp:97] Setting up inception_4d/5x5
I0311 09:07:36.777984 21001 net.cpp:104] Top shape: 128 64 5 5 (204800)
I0311 09:07:36.778009 21001 layer_factory.hpp:78] Creating layer inception_4d/relu_5x5
I0311 09:07:36.778024 21001 net.cpp:68] Creating Layer inception_4d/relu_5x5
I0311 09:07:36.778036 21001 net.cpp:395] inception_4d/relu_5x5 <- inception_4d/5x5
I0311 09:07:36.778050 21001 net.cpp:346] inception_4d/relu_5x5 -> inception_4d/5x5 (in-place)
I0311 09:07:36.778064 21001 net.cpp:97] Setting up inception_4d/relu_5x5
I0311 09:07:36.778079 21001 net.cpp:104] Top shape: 128 64 5 5 (204800)
I0311 09:07:36.778091 21001 layer_factory.hpp:78] Creating layer inception_4d/pool
I0311 09:07:36.778105 21001 layer_factory.cpp:51] CUDNN does not support padding or multiple tops. Using Caffe's own pooling layer.
I0311 09:07:36.778121 21001 net.cpp:68] Creating Layer inception_4d/pool
I0311 09:07:36.778133 21001 net.cpp:395] inception_4d/pool <- inception_4c/output_inception_4c/output_0_split_3
I0311 09:07:36.778148 21001 net.cpp:357] inception_4d/pool -> inception_4d/pool
I0311 09:07:36.778163 21001 net.cpp:97] Setting up inception_4d/pool
I0311 09:07:36.778177 21001 net.cpp:104] Top shape: 128 512 5 5 (1638400)
I0311 09:07:36.778188 21001 layer_factory.hpp:78] Creating layer inception_4d/pool_proj
I0311 09:07:36.778209 21001 net.cpp:68] Creating Layer inception_4d/pool_proj
I0311 09:07:36.778223 21001 net.cpp:395] inception_4d/pool_proj <- inception_4d/pool
I0311 09:07:36.778237 21001 net.cpp:357] inception_4d/pool_proj -> inception_4d/pool_proj
I0311 09:07:36.778252 21001 net.cpp:97] Setting up inception_4d/pool_proj
I0311 09:07:36.814877 21001 net.cpp:104] Top shape: 128 64 5 5 (204800)
I0311 09:07:36.814939 21001 layer_factory.hpp:78] Creating layer inception_4d/relu_pool_proj
I0311 09:07:36.814977 21001 net.cpp:68] Creating Layer inception_4d/relu_pool_proj
I0311 09:07:36.815006 21001 net.cpp:395] inception_4d/relu_pool_proj <- inception_4d/pool_proj
I0311 09:07:36.815037 21001 net.cpp:346] inception_4d/relu_pool_proj -> inception_4d/pool_proj (in-place)
I0311 09:07:36.815125 21001 net.cpp:97] Setting up inception_4d/relu_pool_proj
I0311 09:07:36.815160 21001 net.cpp:104] Top shape: 128 64 5 5 (204800)
I0311 09:07:36.815184 21001 layer_factory.hpp:78] Creating layer inception_4d/output
I0311 09:07:36.815220 21001 net.cpp:68] Creating Layer inception_4d/output
I0311 09:07:36.815245 21001 net.cpp:395] inception_4d/output <- inception_4d/1x1
I0311 09:07:36.815273 21001 net.cpp:395] inception_4d/output <- inception_4d/3x3
I0311 09:07:36.815299 21001 net.cpp:395] inception_4d/output <- inception_4d/5x5
I0311 09:07:36.815322 21001 net.cpp:395] inception_4d/output <- inception_4d/pool_proj
I0311 09:07:36.815351 21001 net.cpp:357] inception_4d/output -> inception_4d/output
I0311 09:07:36.815382 21001 net.cpp:97] Setting up inception_4d/output
I0311 09:07:36.815409 21001 net.cpp:104] Top shape: 128 528 5 5 (1689600)
I0311 09:07:36.815431 21001 layer_factory.hpp:78] Creating layer inception_4d/output_inception_4d/output_0_split
I0311 09:07:36.815460 21001 net.cpp:68] Creating Layer inception_4d/output_inception_4d/output_0_split
I0311 09:07:36.815485 21001 net.cpp:395] inception_4d/output_inception_4d/output_0_split <- inception_4d/output
I0311 09:07:36.815512 21001 net.cpp:357] inception_4d/output_inception_4d/output_0_split -> inception_4d/output_inception_4d/output_0_split_0
I0311 09:07:36.815551 21001 net.cpp:357] inception_4d/output_inception_4d/output_0_split -> inception_4d/output_inception_4d/output_0_split_1
I0311 09:07:36.815584 21001 net.cpp:357] inception_4d/output_inception_4d/output_0_split -> inception_4d/output_inception_4d/output_0_split_2
I0311 09:07:36.815616 21001 net.cpp:357] inception_4d/output_inception_4d/output_0_split -> inception_4d/output_inception_4d/output_0_split_3
I0311 09:07:36.815646 21001 net.cpp:357] inception_4d/output_inception_4d/output_0_split -> inception_4d/output_inception_4d/output_0_split_4
I0311 09:07:36.815675 21001 net.cpp:97] Setting up inception_4d/output_inception_4d/output_0_split
I0311 09:07:36.815702 21001 net.cpp:104] Top shape: 128 528 5 5 (1689600)
I0311 09:07:36.815724 21001 net.cpp:104] Top shape: 128 528 5 5 (1689600)
I0311 09:07:36.815745 21001 net.cpp:104] Top shape: 128 528 5 5 (1689600)
I0311 09:07:36.815767 21001 net.cpp:104] Top shape: 128 528 5 5 (1689600)
I0311 09:07:36.815788 21001 net.cpp:104] Top shape: 128 528 5 5 (1689600)
I0311 09:07:36.815809 21001 layer_factory.hpp:78] Creating layer loss2/ave_pool
I0311 09:07:36.815841 21001 net.cpp:68] Creating Layer loss2/ave_pool
I0311 09:07:36.815866 21001 net.cpp:395] loss2/ave_pool <- inception_4d/output_inception_4d/output_0_split_0
I0311 09:07:36.815897 21001 net.cpp:357] loss2/ave_pool -> loss2/ave_pool
I0311 09:07:36.815928 21001 net.cpp:97] Setting up loss2/ave_pool
I0311 09:07:36.815961 21001 net.cpp:104] Top shape: 128 528 1 1 (67584)
I0311 09:07:36.815985 21001 layer_factory.hpp:78] Creating layer loss2/conv
I0311 09:07:36.816020 21001 net.cpp:68] Creating Layer loss2/conv
I0311 09:07:36.816046 21001 net.cpp:395] loss2/conv <- loss2/ave_pool
I0311 09:07:36.816067 21001 net.cpp:357] loss2/conv -> loss2/conv
I0311 09:07:36.816089 21001 net.cpp:97] Setting up loss2/conv
I0311 09:07:36.817724 21001 net.cpp:104] Top shape: 128 128 1 1 (16384)
I0311 09:07:36.817772 21001 layer_factory.hpp:78] Creating layer loss2/relu_conv
I0311 09:07:36.817806 21001 net.cpp:68] Creating Layer loss2/relu_conv
I0311 09:07:36.817832 21001 net.cpp:395] loss2/relu_conv <- loss2/conv
I0311 09:07:36.817859 21001 net.cpp:346] loss2/relu_conv -> loss2/conv (in-place)
I0311 09:07:36.817888 21001 net.cpp:97] Setting up loss2/relu_conv
I0311 09:07:36.817916 21001 net.cpp:104] Top shape: 128 128 1 1 (16384)
I0311 09:07:36.817939 21001 layer_factory.hpp:78] Creating layer loss2/fc
I0311 09:07:36.817970 21001 net.cpp:68] Creating Layer loss2/fc
I0311 09:07:36.817993 21001 net.cpp:395] loss2/fc <- loss2/conv
I0311 09:07:36.818027 21001 net.cpp:357] loss2/fc -> loss2/fc
I0311 09:07:36.818059 21001 net.cpp:97] Setting up loss2/fc
I0311 09:07:36.820927 21001 net.cpp:104] Top shape: 128 1024 1 1 (131072)
I0311 09:07:36.821005 21001 layer_factory.hpp:78] Creating layer loss2/relu_fc
I0311 09:07:36.821041 21001 net.cpp:68] Creating Layer loss2/relu_fc
I0311 09:07:36.821068 21001 net.cpp:395] loss2/relu_fc <- loss2/fc
I0311 09:07:36.821095 21001 net.cpp:346] loss2/relu_fc -> loss2/fc (in-place)
I0311 09:07:36.821122 21001 net.cpp:97] Setting up loss2/relu_fc
I0311 09:07:36.821152 21001 net.cpp:104] Top shape: 128 1024 1 1 (131072)
I0311 09:07:36.821177 21001 layer_factory.hpp:78] Creating layer loss2/drop_fc
I0311 09:07:36.821204 21001 net.cpp:68] Creating Layer loss2/drop_fc
I0311 09:07:36.821228 21001 net.cpp:395] loss2/drop_fc <- loss2/fc
I0311 09:07:36.821259 21001 net.cpp:346] loss2/drop_fc -> loss2/fc (in-place)
I0311 09:07:36.821288 21001 net.cpp:97] Setting up loss2/drop_fc
I0311 09:07:36.821313 21001 net.cpp:104] Top shape: 128 1024 1 1 (131072)
I0311 09:07:36.821336 21001 layer_factory.hpp:78] Creating layer loss2/classifier
I0311 09:07:36.821365 21001 net.cpp:68] Creating Layer loss2/classifier
I0311 09:07:36.821388 21001 net.cpp:395] loss2/classifier <- loss2/fc
I0311 09:07:36.821424 21001 net.cpp:357] loss2/classifier -> loss2/classifier
I0311 09:07:36.821457 21001 net.cpp:97] Setting up loss2/classifier
I0311 09:07:36.824071 21001 net.cpp:104] Top shape: 128 121 1 1 (15488)
I0311 09:07:36.824115 21001 layer_factory.hpp:78] Creating layer loss2/classifier_loss2/classifier_0_split
I0311 09:07:36.824144 21001 net.cpp:68] Creating Layer loss2/classifier_loss2/classifier_0_split
I0311 09:07:36.824169 21001 net.cpp:395] loss2/classifier_loss2/classifier_0_split <- loss2/classifier
I0311 09:07:36.824204 21001 net.cpp:357] loss2/classifier_loss2/classifier_0_split -> loss2/classifier_loss2/classifier_0_split_0
I0311 09:07:36.824239 21001 net.cpp:357] loss2/classifier_loss2/classifier_0_split -> loss2/classifier_loss2/classifier_0_split_1
I0311 09:07:36.824268 21001 net.cpp:97] Setting up loss2/classifier_loss2/classifier_0_split
I0311 09:07:36.824295 21001 net.cpp:104] Top shape: 128 121 1 1 (15488)
I0311 09:07:36.824316 21001 net.cpp:104] Top shape: 128 121 1 1 (15488)
I0311 09:07:36.824338 21001 layer_factory.hpp:78] Creating layer loss2/loss
I0311 09:07:36.824370 21001 net.cpp:68] Creating Layer loss2/loss
I0311 09:07:36.824395 21001 net.cpp:395] loss2/loss <- loss2/classifier_loss2/classifier_0_split_0
I0311 09:07:36.824422 21001 net.cpp:395] loss2/loss <- label_data_1_split_2
I0311 09:07:36.824450 21001 net.cpp:357] loss2/loss -> loss2/loss1
I0311 09:07:36.824481 21001 net.cpp:97] Setting up loss2/loss
I0311 09:07:36.824507 21001 layer_factory.hpp:78] Creating layer loss2/loss
I0311 09:07:36.824620 21001 net.cpp:104] Top shape: 1 1 1 1 (1)
I0311 09:07:36.824651 21001 net.cpp:110]     with loss weight 0.3
I0311 09:07:36.824693 21001 layer_factory.hpp:78] Creating layer loss2/top-1
I0311 09:07:36.824728 21001 net.cpp:68] Creating Layer loss2/top-1
I0311 09:07:36.824753 21001 net.cpp:395] loss2/top-1 <- loss2/classifier_loss2/classifier_0_split_1
I0311 09:07:36.824779 21001 net.cpp:395] loss2/top-1 <- label_data_1_split_3
I0311 09:07:36.824807 21001 net.cpp:357] loss2/top-1 -> loss2/top-1
I0311 09:07:36.824838 21001 net.cpp:97] Setting up loss2/top-1
I0311 09:07:36.824888 21001 net.cpp:104] Top shape: 1 1 1 1 (1)
I0311 09:07:36.824923 21001 layer_factory.hpp:78] Creating layer inception_4e/1x1
I0311 09:07:36.824940 21001 net.cpp:68] Creating Layer inception_4e/1x1
I0311 09:07:36.824952 21001 net.cpp:395] inception_4e/1x1 <- inception_4d/output_inception_4d/output_0_split_1
I0311 09:07:36.824971 21001 net.cpp:357] inception_4e/1x1 -> inception_4e/1x1
I0311 09:07:36.824988 21001 net.cpp:97] Setting up inception_4e/1x1
I0311 09:07:36.826733 21001 net.cpp:104] Top shape: 128 256 5 5 (819200)
I0311 09:07:36.826761 21001 layer_factory.hpp:78] Creating layer inception_4e/relu_1x1
I0311 09:07:36.826778 21001 net.cpp:68] Creating Layer inception_4e/relu_1x1
I0311 09:07:36.826792 21001 net.cpp:395] inception_4e/relu_1x1 <- inception_4e/1x1
I0311 09:07:36.826807 21001 net.cpp:346] inception_4e/relu_1x1 -> inception_4e/1x1 (in-place)
I0311 09:07:36.826843 21001 net.cpp:97] Setting up inception_4e/relu_1x1
I0311 09:07:36.826859 21001 net.cpp:104] Top shape: 128 256 5 5 (819200)
I0311 09:07:36.826872 21001 layer_factory.hpp:78] Creating layer inception_4e/3x3_reduce
I0311 09:07:36.826891 21001 net.cpp:68] Creating Layer inception_4e/3x3_reduce
I0311 09:07:36.826905 21001 net.cpp:395] inception_4e/3x3_reduce <- inception_4d/output_inception_4d/output_0_split_2
I0311 09:07:36.826920 21001 net.cpp:357] inception_4e/3x3_reduce -> inception_4e/3x3_reduce
I0311 09:07:36.826936 21001 net.cpp:97] Setting up inception_4e/3x3_reduce
I0311 09:07:36.827944 21001 net.cpp:104] Top shape: 128 160 5 5 (512000)
I0311 09:07:36.827968 21001 layer_factory.hpp:78] Creating layer inception_4e/relu_3x3_reduce
I0311 09:07:36.827983 21001 net.cpp:68] Creating Layer inception_4e/relu_3x3_reduce
I0311 09:07:36.827996 21001 net.cpp:395] inception_4e/relu_3x3_reduce <- inception_4e/3x3_reduce
I0311 09:07:36.828009 21001 net.cpp:346] inception_4e/relu_3x3_reduce -> inception_4e/3x3_reduce (in-place)
I0311 09:07:36.828025 21001 net.cpp:97] Setting up inception_4e/relu_3x3_reduce
I0311 09:07:36.828040 21001 net.cpp:104] Top shape: 128 160 5 5 (512000)
I0311 09:07:36.828052 21001 layer_factory.hpp:78] Creating layer inception_4e/3x3
I0311 09:07:36.828093 21001 net.cpp:68] Creating Layer inception_4e/3x3
I0311 09:07:36.828107 21001 net.cpp:395] inception_4e/3x3 <- inception_4e/3x3_reduce
I0311 09:07:36.828122 21001 net.cpp:357] inception_4e/3x3 -> inception_4e/3x3
I0311 09:07:36.828138 21001 net.cpp:97] Setting up inception_4e/3x3
I0311 09:07:36.833291 21001 net.cpp:104] Top shape: 128 320 5 5 (1024000)
I0311 09:07:36.833318 21001 layer_factory.hpp:78] Creating layer inception_4e/relu_3x3
I0311 09:07:36.833336 21001 net.cpp:68] Creating Layer inception_4e/relu_3x3
I0311 09:07:36.833349 21001 net.cpp:395] inception_4e/relu_3x3 <- inception_4e/3x3
I0311 09:07:36.833364 21001 net.cpp:346] inception_4e/relu_3x3 -> inception_4e/3x3 (in-place)
I0311 09:07:36.833379 21001 net.cpp:97] Setting up inception_4e/relu_3x3
I0311 09:07:36.833392 21001 net.cpp:104] Top shape: 128 320 5 5 (1024000)
I0311 09:07:36.833405 21001 layer_factory.hpp:78] Creating layer inception_4e/5x5_reduce
I0311 09:07:36.833420 21001 net.cpp:68] Creating Layer inception_4e/5x5_reduce
I0311 09:07:36.833432 21001 net.cpp:395] inception_4e/5x5_reduce <- inception_4d/output_inception_4d/output_0_split_3
I0311 09:07:36.833451 21001 net.cpp:357] inception_4e/5x5_reduce -> inception_4e/5x5_reduce
I0311 09:07:36.833467 21001 net.cpp:97] Setting up inception_4e/5x5_reduce
I0311 09:07:36.833715 21001 net.cpp:104] Top shape: 128 32 5 5 (102400)
I0311 09:07:36.833737 21001 layer_factory.hpp:78] Creating layer inception_4e/relu_5x5_reduce
I0311 09:07:36.833755 21001 net.cpp:68] Creating Layer inception_4e/relu_5x5_reduce
I0311 09:07:36.833768 21001 net.cpp:395] inception_4e/relu_5x5_reduce <- inception_4e/5x5_reduce
I0311 09:07:36.833782 21001 net.cpp:346] inception_4e/relu_5x5_reduce -> inception_4e/5x5_reduce (in-place)
I0311 09:07:36.833797 21001 net.cpp:97] Setting up inception_4e/relu_5x5_reduce
I0311 09:07:36.833812 21001 net.cpp:104] Top shape: 128 32 5 5 (102400)
I0311 09:07:36.833824 21001 layer_factory.hpp:78] Creating layer inception_4e/5x5
I0311 09:07:36.833842 21001 net.cpp:68] Creating Layer inception_4e/5x5
I0311 09:07:36.833855 21001 net.cpp:395] inception_4e/5x5 <- inception_4e/5x5_reduce
I0311 09:07:36.833870 21001 net.cpp:357] inception_4e/5x5 -> inception_4e/5x5
I0311 09:07:36.833884 21001 net.cpp:97] Setting up inception_4e/5x5
I0311 09:07:36.835176 21001 net.cpp:104] Top shape: 128 128 5 5 (409600)
I0311 09:07:36.835202 21001 layer_factory.hpp:78] Creating layer inception_4e/relu_5x5
I0311 09:07:36.835218 21001 net.cpp:68] Creating Layer inception_4e/relu_5x5
I0311 09:07:36.835232 21001 net.cpp:395] inception_4e/relu_5x5 <- inception_4e/5x5
I0311 09:07:36.835248 21001 net.cpp:346] inception_4e/relu_5x5 -> inception_4e/5x5 (in-place)
I0311 09:07:36.835263 21001 net.cpp:97] Setting up inception_4e/relu_5x5
I0311 09:07:36.835301 21001 net.cpp:104] Top shape: 128 128 5 5 (409600)
I0311 09:07:36.835315 21001 layer_factory.hpp:78] Creating layer inception_4e/pool
I0311 09:07:36.835327 21001 layer_factory.cpp:51] CUDNN does not support padding or multiple tops. Using Caffe's own pooling layer.
I0311 09:07:36.835342 21001 net.cpp:68] Creating Layer inception_4e/pool
I0311 09:07:36.835355 21001 net.cpp:395] inception_4e/pool <- inception_4d/output_inception_4d/output_0_split_4
I0311 09:07:36.835372 21001 net.cpp:357] inception_4e/pool -> inception_4e/pool
I0311 09:07:36.835389 21001 net.cpp:97] Setting up inception_4e/pool
I0311 09:07:36.835404 21001 net.cpp:104] Top shape: 128 528 5 5 (1689600)
I0311 09:07:36.835415 21001 layer_factory.hpp:78] Creating layer inception_4e/pool_proj
I0311 09:07:36.835432 21001 net.cpp:68] Creating Layer inception_4e/pool_proj
I0311 09:07:36.835443 21001 net.cpp:395] inception_4e/pool_proj <- inception_4e/pool
I0311 09:07:36.835460 21001 net.cpp:357] inception_4e/pool_proj -> inception_4e/pool_proj
I0311 09:07:36.835476 21001 net.cpp:97] Setting up inception_4e/pool_proj
I0311 09:07:36.836391 21001 net.cpp:104] Top shape: 128 128 5 5 (409600)
I0311 09:07:36.836417 21001 layer_factory.hpp:78] Creating layer inception_4e/relu_pool_proj
I0311 09:07:36.836433 21001 net.cpp:68] Creating Layer inception_4e/relu_pool_proj
I0311 09:07:36.836446 21001 net.cpp:395] inception_4e/relu_pool_proj <- inception_4e/pool_proj
I0311 09:07:36.836462 21001 net.cpp:346] inception_4e/relu_pool_proj -> inception_4e/pool_proj (in-place)
I0311 09:07:36.836478 21001 net.cpp:97] Setting up inception_4e/relu_pool_proj
I0311 09:07:36.836493 21001 net.cpp:104] Top shape: 128 128 5 5 (409600)
I0311 09:07:36.836505 21001 layer_factory.hpp:78] Creating layer inception_4e/output
I0311 09:07:36.836520 21001 net.cpp:68] Creating Layer inception_4e/output
I0311 09:07:36.836531 21001 net.cpp:395] inception_4e/output <- inception_4e/1x1
I0311 09:07:36.836545 21001 net.cpp:395] inception_4e/output <- inception_4e/3x3
I0311 09:07:36.836558 21001 net.cpp:395] inception_4e/output <- inception_4e/5x5
I0311 09:07:36.836570 21001 net.cpp:395] inception_4e/output <- inception_4e/pool_proj
I0311 09:07:36.836585 21001 net.cpp:357] inception_4e/output -> inception_4e/output
I0311 09:07:36.836599 21001 net.cpp:97] Setting up inception_4e/output
I0311 09:07:36.836612 21001 net.cpp:104] Top shape: 128 832 5 5 (2662400)
I0311 09:07:36.836623 21001 layer_factory.hpp:78] Creating layer pool4/3x3_s2
I0311 09:07:36.836642 21001 net.cpp:68] Creating Layer pool4/3x3_s2
I0311 09:07:36.836653 21001 net.cpp:395] pool4/3x3_s2 <- inception_4e/output
I0311 09:07:36.862102 21001 net.cpp:357] pool4/3x3_s2 -> pool4/3x3_s2
I0311 09:07:36.862131 21001 net.cpp:97] Setting up pool4/3x3_s2
I0311 09:07:36.862153 21001 net.cpp:104] Top shape: 128 832 2 2 (425984)
I0311 09:07:36.862165 21001 layer_factory.hpp:78] Creating layer pool4/3x3_s2_pool4/3x3_s2_0_split
I0311 09:07:36.862182 21001 net.cpp:68] Creating Layer pool4/3x3_s2_pool4/3x3_s2_0_split
I0311 09:07:36.862195 21001 net.cpp:395] pool4/3x3_s2_pool4/3x3_s2_0_split <- pool4/3x3_s2
I0311 09:07:36.862215 21001 net.cpp:357] pool4/3x3_s2_pool4/3x3_s2_0_split -> pool4/3x3_s2_pool4/3x3_s2_0_split_0
I0311 09:07:36.862233 21001 net.cpp:357] pool4/3x3_s2_pool4/3x3_s2_0_split -> pool4/3x3_s2_pool4/3x3_s2_0_split_1
I0311 09:07:36.862251 21001 net.cpp:357] pool4/3x3_s2_pool4/3x3_s2_0_split -> pool4/3x3_s2_pool4/3x3_s2_0_split_2
I0311 09:07:36.862265 21001 net.cpp:357] pool4/3x3_s2_pool4/3x3_s2_0_split -> pool4/3x3_s2_pool4/3x3_s2_0_split_3
I0311 09:07:36.862280 21001 net.cpp:97] Setting up pool4/3x3_s2_pool4/3x3_s2_0_split
I0311 09:07:36.862293 21001 net.cpp:104] Top shape: 128 832 2 2 (425984)
I0311 09:07:36.862304 21001 net.cpp:104] Top shape: 128 832 2 2 (425984)
I0311 09:07:36.862315 21001 net.cpp:104] Top shape: 128 832 2 2 (425984)
I0311 09:07:36.862326 21001 net.cpp:104] Top shape: 128 832 2 2 (425984)
I0311 09:07:36.862337 21001 layer_factory.hpp:78] Creating layer inception_5a/1x1
I0311 09:07:36.862382 21001 net.cpp:68] Creating Layer inception_5a/1x1
I0311 09:07:36.862396 21001 net.cpp:395] inception_5a/1x1 <- pool4/3x3_s2_pool4/3x3_s2_0_split_0
I0311 09:07:36.862412 21001 net.cpp:357] inception_5a/1x1 -> inception_5a/1x1
I0311 09:07:36.862428 21001 net.cpp:97] Setting up inception_5a/1x1
I0311 09:07:36.864856 21001 net.cpp:104] Top shape: 128 256 2 2 (131072)
I0311 09:07:36.864913 21001 layer_factory.hpp:78] Creating layer inception_5a/relu_1x1
I0311 09:07:36.864949 21001 net.cpp:68] Creating Layer inception_5a/relu_1x1
I0311 09:07:36.864976 21001 net.cpp:395] inception_5a/relu_1x1 <- inception_5a/1x1
I0311 09:07:36.865005 21001 net.cpp:346] inception_5a/relu_1x1 -> inception_5a/1x1 (in-place)
I0311 09:07:36.865034 21001 net.cpp:97] Setting up inception_5a/relu_1x1
I0311 09:07:36.865066 21001 net.cpp:104] Top shape: 128 256 2 2 (131072)
I0311 09:07:36.865089 21001 layer_factory.hpp:78] Creating layer inception_5a/3x3_reduce
I0311 09:07:36.865118 21001 net.cpp:68] Creating Layer inception_5a/3x3_reduce
I0311 09:07:36.865144 21001 net.cpp:395] inception_5a/3x3_reduce <- pool4/3x3_s2_pool4/3x3_s2_0_split_1
I0311 09:07:36.865177 21001 net.cpp:357] inception_5a/3x3_reduce -> inception_5a/3x3_reduce
I0311 09:07:36.865211 21001 net.cpp:97] Setting up inception_5a/3x3_reduce
I0311 09:07:36.868018 21001 net.cpp:104] Top shape: 128 160 2 2 (81920)
I0311 09:07:36.868067 21001 layer_factory.hpp:78] Creating layer inception_5a/relu_3x3_reduce
I0311 09:07:36.868096 21001 net.cpp:68] Creating Layer inception_5a/relu_3x3_reduce
I0311 09:07:36.868121 21001 net.cpp:395] inception_5a/relu_3x3_reduce <- inception_5a/3x3_reduce
I0311 09:07:36.868155 21001 net.cpp:346] inception_5a/relu_3x3_reduce -> inception_5a/3x3_reduce (in-place)
I0311 09:07:36.868186 21001 net.cpp:97] Setting up inception_5a/relu_3x3_reduce
I0311 09:07:36.868217 21001 net.cpp:104] Top shape: 128 160 2 2 (81920)
I0311 09:07:36.868242 21001 layer_factory.hpp:78] Creating layer inception_5a/3x3
I0311 09:07:36.868269 21001 net.cpp:68] Creating Layer inception_5a/3x3
I0311 09:07:36.868294 21001 net.cpp:395] inception_5a/3x3 <- inception_5a/3x3_reduce
I0311 09:07:36.868329 21001 net.cpp:357] inception_5a/3x3 -> inception_5a/3x3
I0311 09:07:36.868360 21001 net.cpp:97] Setting up inception_5a/3x3
I0311 09:07:36.875304 21001 net.cpp:104] Top shape: 128 320 2 2 (163840)
I0311 09:07:36.875334 21001 layer_factory.hpp:78] Creating layer inception_5a/relu_3x3
I0311 09:07:36.875351 21001 net.cpp:68] Creating Layer inception_5a/relu_3x3
I0311 09:07:36.875365 21001 net.cpp:395] inception_5a/relu_3x3 <- inception_5a/3x3
I0311 09:07:36.875380 21001 net.cpp:346] inception_5a/relu_3x3 -> inception_5a/3x3 (in-place)
I0311 09:07:36.875396 21001 net.cpp:97] Setting up inception_5a/relu_3x3
I0311 09:07:36.875411 21001 net.cpp:104] Top shape: 128 320 2 2 (163840)
I0311 09:07:36.875422 21001 layer_factory.hpp:78] Creating layer inception_5a/5x5_reduce
I0311 09:07:36.875440 21001 net.cpp:68] Creating Layer inception_5a/5x5_reduce
I0311 09:07:36.875454 21001 net.cpp:395] inception_5a/5x5_reduce <- pool4/3x3_s2_pool4/3x3_s2_0_split_2
I0311 09:07:36.875469 21001 net.cpp:357] inception_5a/5x5_reduce -> inception_5a/5x5_reduce
I0311 09:07:36.875485 21001 net.cpp:97] Setting up inception_5a/5x5_reduce
I0311 09:07:36.875830 21001 net.cpp:104] Top shape: 128 32 2 2 (16384)
I0311 09:07:36.875855 21001 layer_factory.hpp:78] Creating layer inception_5a/relu_5x5_reduce
I0311 09:07:36.875871 21001 net.cpp:68] Creating Layer inception_5a/relu_5x5_reduce
I0311 09:07:36.875883 21001 net.cpp:395] inception_5a/relu_5x5_reduce <- inception_5a/5x5_reduce
I0311 09:07:36.875897 21001 net.cpp:346] inception_5a/relu_5x5_reduce -> inception_5a/5x5_reduce (in-place)
I0311 09:07:36.875911 21001 net.cpp:97] Setting up inception_5a/relu_5x5_reduce
I0311 09:07:36.875926 21001 net.cpp:104] Top shape: 128 32 2 2 (16384)
I0311 09:07:36.875938 21001 layer_factory.hpp:78] Creating layer inception_5a/5x5
I0311 09:07:36.875957 21001 net.cpp:68] Creating Layer inception_5a/5x5
I0311 09:07:36.875969 21001 net.cpp:395] inception_5a/5x5 <- inception_5a/5x5_reduce
I0311 09:07:36.876011 21001 net.cpp:357] inception_5a/5x5 -> inception_5a/5x5
I0311 09:07:36.876029 21001 net.cpp:97] Setting up inception_5a/5x5
I0311 09:07:36.877359 21001 net.cpp:104] Top shape: 128 128 2 2 (65536)
I0311 09:07:36.877387 21001 layer_factory.hpp:78] Creating layer inception_5a/relu_5x5
I0311 09:07:36.877403 21001 net.cpp:68] Creating Layer inception_5a/relu_5x5
I0311 09:07:36.877415 21001 net.cpp:395] inception_5a/relu_5x5 <- inception_5a/5x5
I0311 09:07:36.877434 21001 net.cpp:346] inception_5a/relu_5x5 -> inception_5a/5x5 (in-place)
I0311 09:07:36.877449 21001 net.cpp:97] Setting up inception_5a/relu_5x5
I0311 09:07:36.877465 21001 net.cpp:104] Top shape: 128 128 2 2 (65536)
I0311 09:07:36.877476 21001 layer_factory.hpp:78] Creating layer inception_5a/pool
I0311 09:07:36.877490 21001 layer_factory.cpp:51] CUDNN does not support padding or multiple tops. Using Caffe's own pooling layer.
I0311 09:07:36.877503 21001 net.cpp:68] Creating Layer inception_5a/pool
I0311 09:07:36.877516 21001 net.cpp:395] inception_5a/pool <- pool4/3x3_s2_pool4/3x3_s2_0_split_3
I0311 09:07:36.877531 21001 net.cpp:357] inception_5a/pool -> inception_5a/pool
I0311 09:07:36.877570 21001 net.cpp:97] Setting up inception_5a/pool
I0311 09:07:36.877590 21001 net.cpp:104] Top shape: 128 832 2 2 (425984)
I0311 09:07:36.877603 21001 layer_factory.hpp:78] Creating layer inception_5a/pool_proj
I0311 09:07:36.877619 21001 net.cpp:68] Creating Layer inception_5a/pool_proj
I0311 09:07:36.877631 21001 net.cpp:395] inception_5a/pool_proj <- inception_5a/pool
I0311 09:07:36.877646 21001 net.cpp:357] inception_5a/pool_proj -> inception_5a/pool_proj
I0311 09:07:36.877662 21001 net.cpp:97] Setting up inception_5a/pool_proj
I0311 09:07:36.878820 21001 net.cpp:104] Top shape: 128 128 2 2 (65536)
I0311 09:07:36.878844 21001 layer_factory.hpp:78] Creating layer inception_5a/relu_pool_proj
I0311 09:07:36.878860 21001 net.cpp:68] Creating Layer inception_5a/relu_pool_proj
I0311 09:07:36.878873 21001 net.cpp:395] inception_5a/relu_pool_proj <- inception_5a/pool_proj
I0311 09:07:36.878887 21001 net.cpp:346] inception_5a/relu_pool_proj -> inception_5a/pool_proj (in-place)
I0311 09:07:36.878906 21001 net.cpp:97] Setting up inception_5a/relu_pool_proj
I0311 09:07:36.878921 21001 net.cpp:104] Top shape: 128 128 2 2 (65536)
I0311 09:07:36.878932 21001 layer_factory.hpp:78] Creating layer inception_5a/output
I0311 09:07:36.878947 21001 net.cpp:68] Creating Layer inception_5a/output
I0311 09:07:36.878959 21001 net.cpp:395] inception_5a/output <- inception_5a/1x1
I0311 09:07:36.878973 21001 net.cpp:395] inception_5a/output <- inception_5a/3x3
I0311 09:07:36.878984 21001 net.cpp:395] inception_5a/output <- inception_5a/5x5
I0311 09:07:36.878998 21001 net.cpp:395] inception_5a/output <- inception_5a/pool_proj
I0311 09:07:36.879011 21001 net.cpp:357] inception_5a/output -> inception_5a/output
I0311 09:07:36.879027 21001 net.cpp:97] Setting up inception_5a/output
I0311 09:07:36.879041 21001 net.cpp:104] Top shape: 128 832 2 2 (425984)
I0311 09:07:36.879053 21001 layer_factory.hpp:78] Creating layer inception_5a/output_inception_5a/output_0_split
I0311 09:07:36.879068 21001 net.cpp:68] Creating Layer inception_5a/output_inception_5a/output_0_split
I0311 09:07:36.879081 21001 net.cpp:395] inception_5a/output_inception_5a/output_0_split <- inception_5a/output
I0311 09:07:36.879098 21001 net.cpp:357] inception_5a/output_inception_5a/output_0_split -> inception_5a/output_inception_5a/output_0_split_0
I0311 09:07:36.879115 21001 net.cpp:357] inception_5a/output_inception_5a/output_0_split -> inception_5a/output_inception_5a/output_0_split_1
I0311 09:07:36.879132 21001 net.cpp:357] inception_5a/output_inception_5a/output_0_split -> inception_5a/output_inception_5a/output_0_split_2
I0311 09:07:36.879149 21001 net.cpp:357] inception_5a/output_inception_5a/output_0_split -> inception_5a/output_inception_5a/output_0_split_3
I0311 09:07:36.879165 21001 net.cpp:97] Setting up inception_5a/output_inception_5a/output_0_split
I0311 09:07:36.879202 21001 net.cpp:104] Top shape: 128 832 2 2 (425984)
I0311 09:07:36.879215 21001 net.cpp:104] Top shape: 128 832 2 2 (425984)
I0311 09:07:36.879226 21001 net.cpp:104] Top shape: 128 832 2 2 (425984)
I0311 09:07:36.879237 21001 net.cpp:104] Top shape: 128 832 2 2 (425984)
I0311 09:07:36.879250 21001 layer_factory.hpp:78] Creating layer inception_5b/1x1
I0311 09:07:36.879269 21001 net.cpp:68] Creating Layer inception_5b/1x1
I0311 09:07:36.879282 21001 net.cpp:395] inception_5b/1x1 <- inception_5a/output_inception_5a/output_0_split_0
I0311 09:07:36.879298 21001 net.cpp:357] inception_5b/1x1 -> inception_5b/1x1
I0311 09:07:36.879314 21001 net.cpp:97] Setting up inception_5b/1x1
I0311 09:07:36.882915 21001 net.cpp:104] Top shape: 128 384 2 2 (196608)
I0311 09:07:36.882943 21001 layer_factory.hpp:78] Creating layer inception_5b/relu_1x1
I0311 09:07:36.882958 21001 net.cpp:68] Creating Layer inception_5b/relu_1x1
I0311 09:07:36.882972 21001 net.cpp:395] inception_5b/relu_1x1 <- inception_5b/1x1
I0311 09:07:36.882988 21001 net.cpp:346] inception_5b/relu_1x1 -> inception_5b/1x1 (in-place)
I0311 09:07:36.883004 21001 net.cpp:97] Setting up inception_5b/relu_1x1
I0311 09:07:36.883019 21001 net.cpp:104] Top shape: 128 384 2 2 (196608)
I0311 09:07:36.883031 21001 layer_factory.hpp:78] Creating layer inception_5b/3x3_reduce
I0311 09:07:36.883046 21001 net.cpp:68] Creating Layer inception_5b/3x3_reduce
I0311 09:07:36.883059 21001 net.cpp:395] inception_5b/3x3_reduce <- inception_5a/output_inception_5a/output_0_split_1
I0311 09:07:36.883075 21001 net.cpp:357] inception_5b/3x3_reduce -> inception_5b/3x3_reduce
I0311 09:07:36.883091 21001 net.cpp:97] Setting up inception_5b/3x3_reduce
I0311 09:07:36.884879 21001 net.cpp:104] Top shape: 128 192 2 2 (98304)
I0311 09:07:36.884902 21001 layer_factory.hpp:78] Creating layer inception_5b/relu_3x3_reduce
I0311 09:07:36.884919 21001 net.cpp:68] Creating Layer inception_5b/relu_3x3_reduce
I0311 09:07:36.884933 21001 net.cpp:395] inception_5b/relu_3x3_reduce <- inception_5b/3x3_reduce
I0311 09:07:36.884948 21001 net.cpp:346] inception_5b/relu_3x3_reduce -> inception_5b/3x3_reduce (in-place)
I0311 09:07:36.884963 21001 net.cpp:97] Setting up inception_5b/relu_3x3_reduce
I0311 09:07:36.884979 21001 net.cpp:104] Top shape: 128 192 2 2 (98304)
I0311 09:07:36.884991 21001 layer_factory.hpp:78] Creating layer inception_5b/3x3
I0311 09:07:36.885007 21001 net.cpp:68] Creating Layer inception_5b/3x3
I0311 09:07:36.885020 21001 net.cpp:395] inception_5b/3x3 <- inception_5b/3x3_reduce
I0311 09:07:36.885036 21001 net.cpp:357] inception_5b/3x3 -> inception_5b/3x3
I0311 09:07:36.885053 21001 net.cpp:97] Setting up inception_5b/3x3
I0311 09:07:36.910886 21001 net.cpp:104] Top shape: 128 384 2 2 (196608)
I0311 09:07:36.910928 21001 layer_factory.hpp:78] Creating layer inception_5b/relu_3x3
I0311 09:07:36.910945 21001 net.cpp:68] Creating Layer inception_5b/relu_3x3
I0311 09:07:36.910962 21001 net.cpp:395] inception_5b/relu_3x3 <- inception_5b/3x3
I0311 09:07:36.910979 21001 net.cpp:346] inception_5b/relu_3x3 -> inception_5b/3x3 (in-place)
I0311 09:07:36.910995 21001 net.cpp:97] Setting up inception_5b/relu_3x3
I0311 09:07:36.911010 21001 net.cpp:104] Top shape: 128 384 2 2 (196608)
I0311 09:07:36.911022 21001 layer_factory.hpp:78] Creating layer inception_5b/5x5_reduce
I0311 09:07:36.911042 21001 net.cpp:68] Creating Layer inception_5b/5x5_reduce
I0311 09:07:36.911056 21001 net.cpp:395] inception_5b/5x5_reduce <- inception_5a/output_inception_5a/output_0_split_2
I0311 09:07:36.911074 21001 net.cpp:357] inception_5b/5x5_reduce -> inception_5b/5x5_reduce
I0311 09:07:36.911092 21001 net.cpp:97] Setting up inception_5b/5x5_reduce
I0311 09:07:36.911788 21001 net.cpp:104] Top shape: 128 48 2 2 (24576)
I0311 09:07:36.911814 21001 layer_factory.hpp:78] Creating layer inception_5b/relu_5x5_reduce
I0311 09:07:36.911830 21001 net.cpp:68] Creating Layer inception_5b/relu_5x5_reduce
I0311 09:07:36.911844 21001 net.cpp:395] inception_5b/relu_5x5_reduce <- inception_5b/5x5_reduce
I0311 09:07:36.911860 21001 net.cpp:346] inception_5b/relu_5x5_reduce -> inception_5b/5x5_reduce (in-place)
I0311 09:07:36.911919 21001 net.cpp:97] Setting up inception_5b/relu_5x5_reduce
I0311 09:07:36.911937 21001 net.cpp:104] Top shape: 128 48 2 2 (24576)
I0311 09:07:36.911949 21001 layer_factory.hpp:78] Creating layer inception_5b/5x5
I0311 09:07:36.911965 21001 net.cpp:68] Creating Layer inception_5b/5x5
I0311 09:07:36.911978 21001 net.cpp:395] inception_5b/5x5 <- inception_5b/5x5_reduce
I0311 09:07:36.911995 21001 net.cpp:357] inception_5b/5x5 -> inception_5b/5x5
I0311 09:07:36.912014 21001 net.cpp:97] Setting up inception_5b/5x5
I0311 09:07:36.913789 21001 net.cpp:104] Top shape: 128 128 2 2 (65536)
I0311 09:07:36.913813 21001 layer_factory.hpp:78] Creating layer inception_5b/relu_5x5
I0311 09:07:36.913828 21001 net.cpp:68] Creating Layer inception_5b/relu_5x5
I0311 09:07:36.913841 21001 net.cpp:395] inception_5b/relu_5x5 <- inception_5b/5x5
I0311 09:07:36.913858 21001 net.cpp:346] inception_5b/relu_5x5 -> inception_5b/5x5 (in-place)
I0311 09:07:36.913873 21001 net.cpp:97] Setting up inception_5b/relu_5x5
I0311 09:07:36.913887 21001 net.cpp:104] Top shape: 128 128 2 2 (65536)
I0311 09:07:36.913899 21001 layer_factory.hpp:78] Creating layer inception_5b/pool
I0311 09:07:36.913913 21001 layer_factory.cpp:51] CUDNN does not support padding or multiple tops. Using Caffe's own pooling layer.
I0311 09:07:36.913928 21001 net.cpp:68] Creating Layer inception_5b/pool
I0311 09:07:36.913939 21001 net.cpp:395] inception_5b/pool <- inception_5a/output_inception_5a/output_0_split_3
I0311 09:07:36.913956 21001 net.cpp:357] inception_5b/pool -> inception_5b/pool
I0311 09:07:36.913972 21001 net.cpp:97] Setting up inception_5b/pool
I0311 09:07:36.913988 21001 net.cpp:104] Top shape: 128 832 2 2 (425984)
I0311 09:07:36.914000 21001 layer_factory.hpp:78] Creating layer inception_5b/pool_proj
I0311 09:07:36.914016 21001 net.cpp:68] Creating Layer inception_5b/pool_proj
I0311 09:07:36.914027 21001 net.cpp:395] inception_5b/pool_proj <- inception_5b/pool
I0311 09:07:36.914046 21001 net.cpp:357] inception_5b/pool_proj -> inception_5b/pool_proj
I0311 09:07:36.914062 21001 net.cpp:97] Setting up inception_5b/pool_proj
I0311 09:07:36.915227 21001 net.cpp:104] Top shape: 128 128 2 2 (65536)
I0311 09:07:36.915251 21001 layer_factory.hpp:78] Creating layer inception_5b/relu_pool_proj
I0311 09:07:36.915268 21001 net.cpp:68] Creating Layer inception_5b/relu_pool_proj
I0311 09:07:36.915282 21001 net.cpp:395] inception_5b/relu_pool_proj <- inception_5b/pool_proj
I0311 09:07:36.915297 21001 net.cpp:346] inception_5b/relu_pool_proj -> inception_5b/pool_proj (in-place)
I0311 09:07:36.915312 21001 net.cpp:97] Setting up inception_5b/relu_pool_proj
I0311 09:07:36.915326 21001 net.cpp:104] Top shape: 128 128 2 2 (65536)
I0311 09:07:36.928822 21001 layer_factory.hpp:78] Creating layer inception_5b/output
I0311 09:07:36.928849 21001 net.cpp:68] Creating Layer inception_5b/output
I0311 09:07:36.928879 21001 net.cpp:395] inception_5b/output <- inception_5b/1x1
I0311 09:07:36.928895 21001 net.cpp:395] inception_5b/output <- inception_5b/3x3
I0311 09:07:36.928921 21001 net.cpp:395] inception_5b/output <- inception_5b/5x5
I0311 09:07:36.928948 21001 net.cpp:395] inception_5b/output <- inception_5b/pool_proj
I0311 09:07:36.928987 21001 net.cpp:357] inception_5b/output -> inception_5b/output
I0311 09:07:36.929023 21001 net.cpp:97] Setting up inception_5b/output
I0311 09:07:36.929049 21001 net.cpp:104] Top shape: 128 1024 2 2 (524288)
I0311 09:07:36.929074 21001 layer_factory.hpp:78] Creating layer pool5/7x7_s1
I0311 09:07:36.929102 21001 net.cpp:68] Creating Layer pool5/7x7_s1
I0311 09:07:36.929126 21001 net.cpp:395] pool5/7x7_s1 <- inception_5b/output
I0311 09:07:36.929157 21001 net.cpp:357] pool5/7x7_s1 -> pool5/7x7_s1
I0311 09:07:36.929186 21001 net.cpp:97] Setting up pool5/7x7_s1
I0311 09:07:36.929224 21001 net.cpp:104] Top shape: 128 1024 1 1 (131072)
I0311 09:07:36.929250 21001 layer_factory.hpp:78] Creating layer pool5/drop_7x7_s1
I0311 09:07:36.929285 21001 net.cpp:68] Creating Layer pool5/drop_7x7_s1
I0311 09:07:36.929368 21001 net.cpp:395] pool5/drop_7x7_s1 <- pool5/7x7_s1
I0311 09:07:36.929401 21001 net.cpp:346] pool5/drop_7x7_s1 -> pool5/7x7_s1 (in-place)
I0311 09:07:36.929430 21001 net.cpp:97] Setting up pool5/drop_7x7_s1
I0311 09:07:36.929456 21001 net.cpp:104] Top shape: 128 1024 1 1 (131072)
I0311 09:07:36.929479 21001 layer_factory.hpp:78] Creating layer loss3/classifier
I0311 09:07:36.929509 21001 net.cpp:68] Creating Layer loss3/classifier
I0311 09:07:36.929533 21001 net.cpp:395] loss3/classifier <- pool5/7x7_s1
I0311 09:07:36.929572 21001 net.cpp:357] loss3/classifier -> loss3/classifier
I0311 09:07:36.929589 21001 net.cpp:97] Setting up loss3/classifier
I0311 09:07:36.931063 21001 net.cpp:104] Top shape: 128 121 1 1 (15488)
I0311 09:07:36.931108 21001 layer_factory.hpp:78] Creating layer loss3/classifier_loss3/classifier_0_split
I0311 09:07:36.931149 21001 net.cpp:68] Creating Layer loss3/classifier_loss3/classifier_0_split
I0311 09:07:36.931162 21001 net.cpp:395] loss3/classifier_loss3/classifier_0_split <- loss3/classifier
I0311 09:07:36.931176 21001 net.cpp:357] loss3/classifier_loss3/classifier_0_split -> loss3/classifier_loss3/classifier_0_split_0
I0311 09:07:36.931192 21001 net.cpp:357] loss3/classifier_loss3/classifier_0_split -> loss3/classifier_loss3/classifier_0_split_1
I0311 09:07:36.931208 21001 net.cpp:97] Setting up loss3/classifier_loss3/classifier_0_split
I0311 09:07:36.931222 21001 net.cpp:104] Top shape: 128 121 1 1 (15488)
I0311 09:07:36.931233 21001 net.cpp:104] Top shape: 128 121 1 1 (15488)
I0311 09:07:36.931244 21001 layer_factory.hpp:78] Creating layer loss3/loss3
I0311 09:07:36.931262 21001 net.cpp:68] Creating Layer loss3/loss3
I0311 09:07:36.931273 21001 net.cpp:395] loss3/loss3 <- loss3/classifier_loss3/classifier_0_split_0
I0311 09:07:36.931288 21001 net.cpp:395] loss3/loss3 <- label_data_1_split_4
I0311 09:07:36.931301 21001 net.cpp:357] loss3/loss3 -> loss3/loss3
I0311 09:07:36.931318 21001 net.cpp:97] Setting up loss3/loss3
I0311 09:07:36.931331 21001 layer_factory.hpp:78] Creating layer loss3/loss3
I0311 09:07:36.931391 21001 net.cpp:104] Top shape: 1 1 1 1 (1)
I0311 09:07:36.931407 21001 net.cpp:110]     with loss weight 1
I0311 09:07:36.931432 21001 layer_factory.hpp:78] Creating layer loss3/top-1
I0311 09:07:36.931449 21001 net.cpp:68] Creating Layer loss3/top-1
I0311 09:07:36.931462 21001 net.cpp:395] loss3/top-1 <- loss3/classifier_loss3/classifier_0_split_1
I0311 09:07:36.931474 21001 net.cpp:395] loss3/top-1 <- label_data_1_split_5
I0311 09:07:36.931491 21001 net.cpp:357] loss3/top-1 -> loss3/top-1
I0311 09:07:36.931507 21001 net.cpp:97] Setting up loss3/top-1
I0311 09:07:36.931520 21001 net.cpp:104] Top shape: 1 1 1 1 (1)
I0311 09:07:36.931532 21001 net.cpp:173] loss3/top-1 does not need backward computation.
I0311 09:07:36.931542 21001 net.cpp:171] loss3/loss3 needs backward computation.
I0311 09:07:36.931568 21001 net.cpp:171] loss3/classifier_loss3/classifier_0_split needs backward computation.
I0311 09:07:36.931591 21001 net.cpp:171] loss3/classifier needs backward computation.
I0311 09:07:36.931613 21001 net.cpp:171] pool5/drop_7x7_s1 needs backward computation.
…
