…
  transform_param {
    mirror: true
    mean_file: "/media/data/kaggle/nationalDataScienceBowl/data/typeF/train_mean.binaryproto"
    affine_param {
      x_stretch_unirnd_range: 0.01
      y_stretch_unirnd_range: 0.01
      rotation_unirnd_range: 180
      max_translation: 5
      background_color: 255
    }
  }
  image_data_affine_param {
    source: "/media/data/kaggle/nationalDataScienceBowl/data/typeF/train.txt"
    scale: 0.00390625
    batch_size: 128
    shuffle: true
    new_size: 96
    is_color: false
    root_folder: "/media/data/kaggle/nationalDataScienceBowl/data/typeF/"
  }
}
layers {
  bottom: "data"
  top: "conv1/7x7_s2"
  name: "conv1/7x7_s2"
  type: CONVOLUTION
  blobs_lr: 1
  blobs_lr: 2
  weight_decay: 1
  weight_decay: 0
  convolution_param {
    num_output: 64
    pad: 0
    kernel_size: 4
    stride: 2
    weight_filler {
      type: "xavier"
      std: 0.1
    }
    bias_filler {
      type: "constant"
      value: 0.2
    }
  }
}
layers {
  bottom: "conv1/7x7_s2"
  top: "conv1/7x7_s2"
  name: "conv1/relu_7x7"
  type: RELU
}
layers {
  bottom: "conv1/7x7_s2"
  top: "pool1/3x3_s2"
  name: "pool1/3x3_s2"
  type: POOLING
  pooling_param {
    pool: MAX
    kernel_size: 3
    stride: 2
  }
}
layers {
  bottom: "pool1/3x3_s2"
  top: "pool1/norm1"
  name: "pool1/norm1"
  type: LRN
  lrn_param {
    local_size: 5
    alpha: 0.0001
    beta: 0.75
  }
}
layers {
  bottom: "pool1/norm1"
  top: "conv2/3x3_reduce"
  name: "conv2/3x3_reduce"
  type: CONVOLUTION
  blobs_lr: 1
  blobs_lr: 2
  weight_decay: 1
  weight_decay: 0
  convolution_param {
    num_output: 64
    kernel_size: 1
    weight_filler {
      type: "xavier"
      std: 0.1
    }
    bias_filler {
      type: "constant"
      value: 0.2
    }
  }
}
layers {
  bottom: "conv2/3x3_reduce"
  top: "conv2/3x3_reduce"
  name: "conv2/relu_3x3_reduce"
  type: RELU
}
layers {
  bottom: "conv2/3x3_reduce"
  top: "conv2/3x3"
  name: "conv2/3x3"
  type: CONVOLUTION
  blobs_lr: 1
  blobs_lr: 2
  weight_decay: 1
  weight_decay: 0
  convolution_param {
    num_output: 192
    pad: 1
    kernel_size: 3
    weight_filler {
      type: "xavier"
      std: 0.03
    }
    bias_filler {
      type: "constant"
      value: 0.2
    }
  }
}
layers {
  bottom: "conv2/3x3"
  top: "conv2/3x3"
  name: "conv2/relu_3x3"
  type: RELU
}
layers {
  bottom: "conv2/3x3"
  top: "conv2/norm2"
  name: "conv2/norm2"
  type: LRN
  lrn_param {
    local_size: 5
    alpha: 0.0001
    beta: 0.75
  }
}
layers {
  bottom: "conv2/norm2"
  top: "pool2/3x3_s2"
  name: "pool2/3x3_s2"
  type: POOLING
  pooling_param {
    pool: MAX
    kernel_size: 3
    stride: 2
  }
}
layers {
  bottom: "pool2/3x3_s2"
  top: "inception_3a/1x1"
  name: "inception_3a/1x1"
  type: CONVOLUTION
  blobs_lr: 1
  blobs_lr: 2
  weight_decay: 1
  weight_decay: 0
  convolution_param {
    num_output: 64
    kernel_size: 1
    weight_filler {
      type: "xavier"
      std: 0.03
    }
    bias_filler {
      type: "constant"
      value: 0.2
    }
  }
}
layers {
  bottom: "inception_3a/1x1"
  top: "inception_3a/1x1"
  name: "inception_3a/relu_1x1"
  type: RELU
}
layers {
  bottom: "pool2/3x3_s2"
  top: "inception_3a/3x3_reduce"
  name: "inception_3a/3x3_reduce"
  type: CONVOLUTION
  blobs_lr: 1
  blobs_lr: 2
  weight_decay: 1
  weight_decay: 0
  convolution_param {
    num_output: 96
    kernel_size: 1
    weight_filler {
      type: "xavier"
      std: 0.09
    }
    bias_filler {
      type: "constant"
      value: 0.2
    }
  }
}
layers {
  bottom: "inception_3a/3x3_reduce"
  top: "inception_3a/3x3_reduce"
  name: "inception_3a/relu_3x3_reduce"
  type: RELU
}
layers {
  bottom: "inception_3a/3x3_reduce"
  top: "inception_3a/3x3"
  name: "inception_3a/3x3"
  type: CONVOLUTION
  blobs_lr: 1
  blobs_lr: 2
  weight_decay: 1
  weight_decay: 0
  convolution_param {
    num_output: 128
    pad: 1
    kernel_size: 3
    weight_filler {
      type: "xavier"
      std: 0.03
    }
    bias_filler {
      type: "constant"
      value: 0.2
    }
  }
}
layers {
  bottom: "inception_3a/3x3"
  top: "inception_3a/3x3"
  name: "inception_3a/relu_3x3"
  type: RELU
}
layers {
  bottom: "pool2/3x3_s2"
  top: "inception_3a/5x5_reduce"
  name: "inception_3a/5x5_reduce"
  type: CONVOLUTION
  blobs_lr: 1
  blobs_lr: 2
  weight_decay: 1
  weight_decay: 0
  convolution_param {
    num_output: 16
    kernel_size: 1
    weight_filler {
      type: "xavier"
      std: 0.2
    }
    bias_filler {
      type: "constant"
      value: 0.2
    }
  }
}
layers {
  bottom: "inception_3a/5x5_reduce"
  top: "inception_3a/5x5_reduce"
  name: "inception_3a/relu_5x5_reduce"
  type: RELU
}
layers {
  bottom: "inception_3a/5x5_reduce"
  top: "inception_3a/5x5"
  name: "inception_3a/5x5"
  type: CONVOLUTION
  blobs_lr: 1
  blobs_lr: 2
  weight_decay: 1
  weight_decay: 0
  convolution_param {
    num_output: 32
    pad: 2
    kernel_size: 5
    weight_filler {
      type: "xavier"
      std: 0.03
    }
    bias_filler {
      type: "constant"
      value: 0.2
    }
  }
}
layers {
  bottom: "inception_3a/5x5"
  top: "inception_3a/5x5"
  name: "inception_3a/relu_5x5"
  type: RELU
}
layers {
  bottom: "pool2/3x3_s2"
  top: "inception_3a/pool"
  name: "inception_3a/pool"
  type: POOLING
  pooling_param {
    pool: MAX
    kernel_size: 3
    stride: 1
    pad: 1
  }
}
layers {
  bottom: "inception_3a/pool"
  top: "inception_3a/pool_proj"
  name: "inception_3a/pool_proj"
  type: CONVOLUTION
  blobs_lr: 1
  blobs_lr: 2
  weight_decay: 1
  weight_decay: 0
  convolution_param {
    num_output: 32
    kernel_size: 1
    weight_filler {
      type: "xavier"
      std: 0.1
    }
    bias_filler {
      type: "constant"
      value: 0.2
    }
  }
}
layers {
  bottom: "inception_3a/pool_proj"
  top: "inception_3a/pool_proj"
  name: "inception_3a/relu_pool_proj"
  type: RELU
}
layers {
  bottom: "inception_3a/1x1"
  bottom: "inception_3a/3x3"
  bottom: "inception_3a/5x5"
  bottom: "inception_3a/pool_proj"
  top: "inception_3a/output"
  name: "inception_3a/output"
  type: CONCAT
}
layers {
  bottom: "inception_3a/output"
  top: "inception_3b/1x1"
  name: "inception_3b/1x1"
  type: CONVOLUTION
  blobs_lr: 1
  blobs_lr: 2
  weight_decay: 1
  weight_decay: 0
  convolution_param {
    num_output: 128
    kernel_size: 1
    weight_filler {
      type: "xavier"
      std: 0.03
    }
    bias_filler {
      type: "constant"
      value: 0.2
    }
  }
}
layers {
  bottom: "inception_3b/1x1"
  top: "inception_3b/1x1"
  name: "inception_3b/relu_1x1"
  type: RELU
}
layers {
  bottom: "inception_3a/output"
  top: "inception_3b/3x3_reduce"
  name: "inception_3b/3x3_reduce"
  type: CONVOLUTION
  blobs_lr: 1
  blobs_lr: 2
  weight_decay: 1
  weight_decay: 0
  convolution_param {
    num_output: 128
    kernel_size: 1
    weight_filler {
      type: "xavier"
      std: 0.09
    }
    bias_filler {
      type: "constant"
      value: 0.2
    }
  }
}
layers {
  bottom: "inception_3b/3x3_reduce"
  top: "inception_3b/3x3_reduce"
  name: "inception_3b/relu_3x3_reduce"
  type: RELU
}
layers {
  bottom: "inception_3b/3x3_reduce"
  top: "inception_3b/3x3"
  name: "inception_3b/3x3"
  type: CONVOLUTION
  blobs_lr: 1
  blobs_lr: 2
  weight_decay: 1
  weight_decay: 0
  convolution_param {
    num_output: 192
    pad: 1
    kernel_size: 3
    weight_filler {
      type: "xavier"
      std: 0.03
    }
    bias_filler {
      type: "constant"
      value: 0.2
    }
  }
}
layers {
  bottom: "inception_3b/3x3"
  top: "inception_3b/3x3"
  name: "inception_3b/relu_3x3"
  type: RELU
}
layers {
  bottom: "inception_3a/output"
  top: "inception_3b/5x5_reduce"
  name: "inception_3b/5x5_reduce"
  type: CONVOLUTION
  blobs_lr: 1
  blobs_lr: 2
  weight_decay: 1
  weight_decay: 0
  convolution_param {
    num_output: 32
    kernel_size: 1
    weight_filler {
      type: "xavier"
      std: 0.2
    }
    bias_filler {
      type: "constant"
      value: 0.2
    }
  }
}
layers {
  bottom: "inception_3b/5x5_reduce"
  top: "inception_3b/5x5_reduce"
  name: "inception_3b/relu_5x5_reduce"
  type: RELU
}
layers {
  bottom: "inception_3b/5x5_reduce"
  top: "inception_3b/5x5"
  name: "inception_3b/5x5"
  type: CONVOLUTION
  blobs_lr: 1
  blobs_lr: 2
  weight_decay: 1
  weight_decay: 0
  convolution_param {
    num_output: 96
    pad: 2
    kernel_size: 5
    weight_filler {
      type: "xavier"
      std: 0.03
    }
    bias_filler {
      type: "constant"
      value: 0.2
    }
  }
}
layers {
  bottom: "inception_3b/5x5"
  top: "inception_3b/5x5"
  name: "inception_3b/relu_5x5"
  type: RELU
}
layers {
  bottom: "inception_3a/output"
  top: "inception_3b/pool"
  name: "inception_3b/pool"
  type: POOLING
  pooling_param {
    pool: MAX
    kernel_size: 3
    stride: 1
    pad: 1
  }
}
layers {
  bottom: "inception_3b/pool"
  top: "inception_3b/pool_proj"
  name: "inception_3b/pool_proj"
  type: CONVOLUTION
  blobs_lr: 1
  blobs_lr: 2
  weight_decay: 1
  weight_decay: 0
  convolution_param {
    num_output: 64
    kernel_size: 1
    weight_filler {
      type: "xavier"
      std: 0.1
    }
    bias_filler {
      type: "constant"
      value: 0.2
    }
  }
}
layers {
  bottom: "inception_3b/pool_proj"
  top: "inception_3b/pool_proj"
  name: "inception_3b/relu_pool_proj"
  type: RELU
}
layers {
  bottom: "inception_3b/1x1"
  bottom: "inception_3b/3x3"
  bottom: "inception_3b/5x5"
  bottom: "inception_3b/pool_proj"
  top: "inception_3b/output"
  name: "inception_3b/output"
  type: CONCAT
}
layers {
  bottom: "inception_3b/output"
  top: "pool3/3x3_s2"
  name: "pool3/3x3_s2"
  type: POOLING
  pooling_param {
    pool: MAX
    kernel_size: 3
    stride: 2
  }
}
layers {
  bottom: "pool3/3x3_s2"
  top: "inception_4a/1x1"
  name: "inception_4a/1x1"
  type: CONVOLUTION
  blobs_lr: 1
  blobs_lr: 2
  weight_decay: 1
  weight_decay: 0
  convolution_param {
    num_output: 192
    kernel_size: 1
    weight_filler {
      type: "xavier"
      std: 0.03
    }
    bias_filler {
      type: "constant"
      value: 0.2
    }
  }
}
layers {
  bottom: "inception_4a/1x1"
  top: "inception_4a/1x1"
  name: "inception_4a/relu_1x1"
  type: RELU
}
layers {
  bottom: "pool3/3x3_s2"
  top: "inception_4a/3x3_reduce"
  name: "inception_4a/3x3_reduce"
  type: CONVOLUTION
  blobs_lr: 1
  blobs_lr: 2
  weight_decay: 1
  weight_decay: 0
  convolution_param {
    num_output: 96
    kernel_size: 1
    weight_filler {
      type: "xavier"
      std: 0.09
    }
    bias_filler {
      type: "constant"
      value: 0.2
    }
  }
}
layers {
  bottom: "inception_4a/3x3_reduce"
  top: "inception_4a/3x3_reduce"
  name: "inception_4a/relu_3x3_reduce"
  type: RELU
}
layers {
  bottom: "inception_4a/3x3_reduce"
  top: "inception_4a/3x3"
  name: "inception_4a/3x3"
  type: CONVOLUTION
  blobs_lr: 1
  blobs_lr: 2
  weight_decay: 1
  weight_decay: 0
  convolution_param {
    num_output: 208
    pad: 1
    kernel_size: 3
    weight_filler {
      type: "xavier"
      std: 0.03
    }
    bias_filler {
      type: "constant"
      value: 0.2
    }
  }
}
layers {
  bottom: "inception_4a/3x3"
  top: "inception_4a/3x3"
  name: "inception_4a/relu_3x3"
  type: RELU
}
layers {
  bottom: "pool3/3x3_s2"
  top: "inception_4a/5x5_reduce"
  name: "inception_4a/5x5_reduce"
  type: CONVOLUTION
  blobs_lr: 1
  blobs_lr: 2
  weight_decay: 1
  weight_decay: 0
  convolution_param {
    num_output: 16
    kernel_size: 1
    weight_filler {
      type: "xavier"
      std: 0.2
    }
    bias_filler {
      type: "constant"
      value: 0.2
    }
  }
}
layers {
  bottom: "inception_4a/5x5_reduce"
  top: "inception_4a/5x5_reduce"
  name: "inception_4a/relu_5x5_reduce"
  type: RELU
}
layers {
  bottom: "inception_4a/5x5_reduce"
  top: "inception_4a/5x5"
  name: "inception_4a/5x5"
  type: CONVOLUTION
  blobs_lr: 1
  blobs_lr: 2
  weight_decay: 1
  weight_decay: 0
  convolution_param {
    num_output: 48
    pad: 2
    kernel_size: 5
    weight_filler {
      type: "xavier"
      std: 0.03
    }
    bias_filler {
      type: "constant"
      value: 0.2
    }
  }
}
layers {
  bottom: "inception_4a/5x5"
  top: "inception_4a/5x5"
  name: "inception_4a/relu_5x5"
  type: RELU
}
layers {
  bottom: "pool3/3x3_s2"
  top: "inception_4a/pool"
  name: "inception_4a/pool"
  type: POOLING
  pooling_param {
    pool: MAX
    kernel_size: 3
    stride: 1
    pad: 1
  }
}
layers {
  bottom: "inception_4a/pool"
  top: "inception_4a/pool_proj"
  name: "inception_4a/pool_proj"
  type: CONVOLUTION
  blobs_lr: 1
  blobs_lr: 2
  weight_decay: 1
  weight_decay: 0
  convolution_param {
    num_output: 64
    kernel_size: 1
    weight_filler {
      type: "xavier"
      std: 0.1
    }
    bias_filler {
      type: "constant"
      value: 0.2
    }
  }
}
layers {
  bottom: "inception_4a/pool_proj"
  top: "inception_4a/pool_proj"
  name: "inception_4a/relu_pool_proj"
  type: RELU
}
layers {
  bottom: "inception_4a/1x1"
  bottom: "inception_4a/3x3"
  bottom: "inception_4a/5x5"
  bottom: "inception_4a/pool_proj"
  top: "inception_4a/output"
  name: "inception_4a/output"
  type: CONCAT
}
layers {
  bottom: "inception_4a/output"
  top: "loss1/ave_pool"
  name: "loss1/ave_pool"
  type: POOLING
  pooling_param {
    pool: AVE
    kernel_size: 5
    stride: 3
  }
}
layers {
  bottom: "loss1/ave_pool"
  top: "loss1/conv"
  name: "loss1/conv"
  type: CONVOLUTION
  blobs_lr: 1
  blobs_lr: 2
  weight_decay: 1
  weight_decay: 0
  convolution_param {
    num_output: 128
    kernel_size: 1
    weight_filler {
      type: "xavier"
      std: 0.08
    }
    bias_filler {
      type: "constant"
      value: 0.2
    }
  }
}
layers {
  bottom: "loss1/conv"
  top: "loss1/conv"
  name: "loss1/relu_conv"
  type: RELU
}
layers {
  bottom: "loss1/conv"
  top: "loss1/fc"
  name: "loss1/fc"
  type: INNER_PRODUCT
  blobs_lr: 1
  blobs_lr: 2
  weight_decay: 1
  weight_decay: 0
  inner_product_param {
    num_output: 1024
    weight_filler {
      type: "xavier"
      std: 0.02
    }
    bias_filler {
      type: "constant"
      value: 0.2
    }
  }
}
layers {
  bottom: "loss1/fc"
  top: "loss1/fc"
  name: "loss1/relu_fc"
  type: RELU
}
layers {
  bottom: "loss1/fc"
  top: "loss1/fc"
  name: "loss1/drop_fc"
  type: DROPOUT
  dropout_param {
    dropout_ratio: 0.7
  }
}
layers {
  bottom: "loss1/fc"
  top: "loss1/classifier"
  name: "loss1/classifier"
  type: INNER_PRODUCT
  blobs_lr: 1
  blobs_lr: 2
  weight_decay: 1
  weight_decay: 0
  inner_product_param {
    num_output: 121
    weight_filler {
      type: "xavier"
      std: 0.0009765625
    }
    bias_filler {
      type: "constant"
      value: 0
    }
  }
}
layers {
  bottom: "loss1/classifier"
  bottom: "label"
  top: "loss1/loss1"
  name: "loss1/loss"
  type: SOFTMAX_LOSS
  loss_weight: 0.3
}
layers {
  bottom: "inception_4a/output"
  top: "inception_4b/1x1"
  name: "inception_4b/1x1"
  type: CONVOLUTION
  blobs_lr: 1
  blobs_lr: 2
  weight_decay: 1
  weight_decay: 0
  convolution_param {
    num_output: 160
    kernel_size: 1
    weight_filler {
      type: "xavier"
      std: 0.03
    }
    bias_filler {
      type: "constant"
      value: 0.2
    }
  }
}
layers {
  bottom: "inception_4b/1x1"
  top: "inception_4b/1x1"
  name: "inception_4b/relu_1x1"
  type: RELU
}
layers {
  bottom: "inception_4a/output"
  top: "inception_4b/3x3_reduce"
  name: "inception_4b/3x3_reduce"
  type: CONVOLUTION
  blobs_lr: 1
  blobs_lr: 2
  weight_decay: 1
  weight_decay: 0
  convolution_param {
    num_output: 112
    kernel_size: 1
    weight_filler {
      type: "xavier"
      std: 0.09
    }
    bias_filler {
      type: "constant"
      value: 0.2
    }
  }
}
layers {
  bottom: "inception_4b/3x3_reduce"
  top: "inception_4b/3x3_reduce"
  name: "inception_4b/relu_3x3_reduce"
  type: RELU
}
layers {
  bottom: "inception_4b/3x3_reduce"
  top: "inception_4b/3x3"
  name: "inception_4b/3x3"
  type: CONVOLUTION
  blobs_lr: 1
  blobs_lr: 2
  weight_decay: 1
  weight_decay: 0
  convolution_param {
    num_output: 224
    pad: 1
    kernel_size: 3
    weight_filler {
      type: "xavier"
      std: 0.03
    }
    bias_filler {
      type: "constant"
      value: 0.2
    }
  }
}
layers {
  bottom: "inception_4b/3x3"
  top: "inception_4b/3x3"
  name: "inception_4b/relu_3x3"
  type: RELU
}
layers {
  bottom: "inception_4a/output"
  top: "inception_4b/5x5_reduce"
  name: "inception_4b/5x5_reduce"
  type: CONVOLUTION
  blobs_lr: 1
  blobs_lr: 2
  weight_decay: 1
  weight_decay: 0
  convolution_param {
    num_output: 24
    kernel_size: 1
    weight_filler {
      type: "xavier"
      std: 0.2
    }
    bias_filler {
      type: "constant"
      value: 0.2
    }
  }
}
layers {
  bottom: "inception_4b/5x5_reduce"
  top: "inception_4b/5x5_reduce"
  name: "inception_4b/relu_5x5_reduce"
  type: RELU
}
layers {
  bottom: "inception_4b/5x5_reduce"
  top: "inception_4b/5x5"
  name: "inception_4b/5x5"
  type: CONVOLUTION
  blobs_lr: 1
  blobs_lr: 2
  weight_decay: 1
  weight_decay: 0
  convolution_param {
    num_output: 64
    pad: 2
    kernel_size: 5
    weight_filler {
      type: "xavier"
      std: 0.03
    }
    bias_filler {
      type: "constant"
      value: 0.2
    }
  }
}
layers {
  bottom: "inception_4b/5x5"
  top: "inception_4b/5x5"
  name: "inception_4b/relu_5x5"
  type: RELU
}
layers {
  bottom: "inception_4a/output"
  top: "inception_4b/pool"
  name: "inception_4b/pool"
  type: POOLING
  pooling_param {
    pool: MAX
    kernel_size: 3
    stride: 1
    pad: 1
  }
}
layers {
  bottom: "inception_4b/pool"
  top: "inception_4b/pool_proj"
  name: "inception_4b/pool_proj"
  type: CONVOLUTION
  blobs_lr: 1
  blobs_lr: 2
  weight_decay: 1
  weight_decay: 0
  convolution_param {
    num_output: 64
    kernel_size: 1
    weight_filler {
      type: "xavier"
      std: 0.1
    }
    bias_filler {
      type: "constant"
      value: 0.2
    }
  }
}
layers {
  bottom: "inception_4b/pool_proj"
  top: "inception_4b/pool_proj"
  name: "inception_4b/relu_pool_proj"
  type: RELU
}
layers {
  bottom: "inception_4b/1x1"
  bottom: "inception_4b/3x3"
  bottom: "inception_4b/5x5"
  bottom: "inception_4b/pool_proj"
  top: "inception_4b/output"
  name: "inception_4b/output"
  type: CONCAT
}
layers {
  bottom: "inception_4b/output"
  top: "inception_4c/1x1"
  name: "inception_4c/1x1"
  type: CONVOLUTION
  blobs_lr: 1
  blobs_lr: 2
  weight_decay: 1
  weight_decay: 0
  convolution_param {
    num_output: 128
    kernel_size: 1
    weight_filler {
      type: "xavier"
      std: 0.03
    }
    bias_filler {
      type: "constant"
      value: 0.2
    }
  }
}
layers {
  bottom: "inception_4c/1x1"
  top: "inception_4c/1x1"
  name: "inception_4c/relu_1x1"
  type: RELU
}
layers {
  bottom: "inception_4b/output"
  top: "inception_4c/3x3_reduce"
  name: "inception_4c/3x3_reduce"
  type: CONVOLUTION
  blobs_lr: 1
  blobs_lr: 2
  weight_decay: 1
  weight_decay: 0
  convolution_param {
    num_output: 128
    kernel_size: 1
    weight_filler {
      type: "xavier"
      std: 0.09
    }
    bias_filler {
      type: "constant"
      value: 0.2
    }
  }
}
layers {
  bottom: "inception_4c/3x3_reduce"
  top: "inception_4c/3x3_reduce"
  name: "inception_4c/relu_3x3_reduce"
  type: RELU
}
layers {
  bottom: "inception_4c/3x3_reduce"
  top: "inception_4c/3x3"
  name: "inception_4c/3x3"
  type: CONVOLUTION
  blobs_lr: 1
  blobs_lr: 2
  weight_decay: 1
  weight_decay: 0
  convolution_param {
    num_output: 256
    pad: 1
    kernel_size: 3
    weight_filler {
      type: "xavier"
      std: 0.03
    }
    bias_filler {
      type: "constant"
      value: 0.2
    }
  }
}
layers {
  bottom: "inception_4c/3x3"
  top: "inception_4c/3x3"
  name: "inception_4c/relu_3x3"
  type: RELU
}
layers {
  bottom: "inception_4b/output"
  top: "inception_4c/5x5_reduce"
  name: "inception_4c/5x5_reduce"
  type: CONVOLUTION
  blobs_lr: 1
  blobs_lr: 2
  weight_decay: 1
  weight_decay: 0
  convolution_param {
    num_output: 24
    kernel_size: 1
    weight_filler {
      type: "xavier"
      std: 0.2
    }
    bias_filler {
      type: "constant"
      value: 0.2
    }
  }
}
layers {
  bottom: "inception_4c/5x5_reduce"
  top: "inception_4c/5x5_reduce"
  name: "inception_4c/relu_5x5_reduce"
  type: RELU
}
layers {
  bottom: "inception_4c/5x5_reduce"
  top: "inception_4c/5x5"
  name: "inception_4c/5x5"
  type: CONVOLUTION
  blobs_lr: 1
  blobs_lr: 2
  weight_decay: 1
  weight_decay: 0
  convolution_param {
    num_output: 64
    pad: 2
    kernel_size: 5
    weight_filler {
      type: "xavier"
      std: 0.03
    }
    bias_filler {
      type: "constant"
      value: 0.2
    }
  }
}
layers {
  bottom: "inception_4c/5x5"
  top: "inception_4c/5x5"
  name: "inception_4c/relu_5x5"
  type: RELU
}
layers {
  bottom: "inception_4b/output"
  top: "inception_4c/pool"
  name: "inception_4c/pool"
  type: POOLING
  pooling_param {
    pool: MAX
    kernel_size: 3
    stride: 1
    pad: 1
  }
}
layers {
  bottom: "inception_4c/pool"
  top: "inception_4c/pool_proj"
  name: "inception_4c/pool_proj"
  type: CONVOLUTION
  blobs_lr: 1
  blobs_lr: 2
  weight_decay: 1
  weight_decay: 0
  convolution_param {
    num_output: 64
    kernel_size: 1
    weight_filler {
      type: "xavier"
      std: 0.1
    }
    bias_filler {
      type: "constant"
      value: 0.2
    }
  }
}
layers {
  bottom: "inception_4c/pool_proj"
  top: "inception_4c/pool_proj"
  name: "inception_4c/relu_pool_proj"
  type: RELU
}
layers {
  bottom: "inception_4c/1x1"
  bottom: "inception_4c/3x3"
  bottom: "inception_4c/5x5"
  bottom: "inception_4c/pool_proj"
  top: "inception_4c/output"
  name: "inception_4c/output"
  type: CONCAT
}
layers {
  bottom: "inception_4c/output"
  top: "inception_4d/1x1"
  name: "inception_4d/1x1"
  type: CONVOLUTION
  blobs_lr: 1
  blobs_lr: 2
  weight_decay: 1
  weight_decay: 0
  convolution_param {
    num_output: 112
    kernel_size: 1
    weight_filler {
      type: "xavier"
      std: 0.03
    }
    bias_filler {
      type: "constant"
      value: 0.2
    }
  }
}
layers {
  bottom: "inception_4d/1x1"
  top: "inception_4d/1x1"
  name: "inception_4d/relu_1x1"
  type: RELU
}
layers {
  bottom: "inception_4c/output"
  top: "inception_4d/3x3_reduce"
  name: "inception_4d/3x3_reduce"
  type: CONVOLUTION
  blobs_lr: 1
  blobs_lr: 2
  weight_decay: 1
  weight_decay: 0
  convolution_param {
    num_output: 144
    kernel_size: 1
    weight_filler {
      type: "xavier"
      std: 0.09
    }
    bias_filler {
      type: "constant"
      value: 0.2
    }
  }
}
layers {
  bottom: "inception_4d/3x3_reduce"
  top: "inception_4d/3x3_reduce"
  name: "inception_4d/relu_3x3_reduce"
  type: RELU
}
layers {
  bottom: "inception_4d/3x3_reduce"
  top: "inception_4d/3x3"
  name: "inception_4d/3x3"
  type: CONVOLUTION
  blobs_lr: 1
  blobs_lr: 2
  weight_decay: 1
  weight_decay: 0
  convolution_param {
    num_output: 288
    pad: 1
    kernel_size: 3
    weight_filler {
      type: "xavier"
      std: 0.03
    }
    bias_filler {
      type: "constant"
      value: 0.2
    }
  }
}
layers {
  bottom: "inception_4d/3x3"
  top: "inception_4d/3x3"
  name: "inception_4d/relu_3x3"
  type: RELU
}
layers {
  bottom: "inception_4c/output"
  top: "inception_4d/5x5_reduce"
  name: "inception_4d/5x5_reduce"
  type: CONVOLUTION
  blobs_lr: 1
  blobs_lr: 2
  weight_decay: 1
  weight_decay: 0
  convolution_param {
    num_output: 32
    kernel_size: 1
    weight_filler {
      type: "xavier"
      std: 0.2
    }
    bias_filler {
      type: "constant"
      value: 0.2
    }
  }
}
layers {
  bottom: "inception_4d/5x5_reduce"
  top: "inception_4d/5x5_reduce"
  name: "inception_4d/relu_5x5_reduce"
  type: RELU
}
layers {
  bottom: "inception_4d/5x5_reduce"
  top: "inception_4d/5x5"
  name: "inception_4d/5x5"
  type: CONVOLUTION
  blobs_lr: 1
  blobs_lr: 2
  weight_decay: 1
  weight_decay: 0
  convolution_param {
    num_output: 64
    pad: 2
    kernel_size: 5
    weight_filler {
      type: "xavier"
      std: 0.03
    }
    bias_filler {
      type: "constant"
      value: 0.2
    }
  }
}
layers {
  bottom: "inception_4d/5x5"
  top: "inception_4d/5x5"
  name: "inception_4d/relu_5x5"
  type: RELU
}
layers {
  bottom: "inception_4c/output"
  top: "inception_4d/pool"
  name: "inception_4d/pool"
  type: POOLING
  pooling_param {
    pool: MAX
    kernel_size: 3
    stride: 1
    pad: 1
  }
}
layers {
  bottom: "inception_4d/pool"
  top: "inception_4d/pool_proj"
  name: "inception_4d/pool_proj"
  type: CONVOLUTION
  blobs_lr: 1
  blobs_lr: 2
  weight_decay: 1
  weight_decay: 0
  convolution_param {
    num_output: 64
    kernel_size: 1
    weight_filler {
      type: "xavier"
      std: 0.1
    }
    bias_filler {
      type: "constant"
      value: 0.2
    }
  }
}
layers {
  bottom: "inception_4d/pool_proj"
  top: "inception_4d/pool_proj"
  name: "inception_4d/relu_pool_proj"
  type: RELU
}
layers {
  bottom: "inception_4d/1x1"
  bottom: "inception_4d/3x3"
  bottom: "inception_4d/5x5"
  bottom: "inception_4d/pool_proj"
  top: "inception_4d/output"
  name: "inception_4d/output"
  type: CONCAT
}
layers {
  bottom: "inception_4d/output"
  top: "loss2/ave_pool"
  name: "loss2/ave_pool"
  type: POOLING
  pooling_param {
    pool: AVE
    kernel_size: 5
    stride: 3
  }
}
layers {
  bottom: "loss2/ave_pool"
  top: "loss2/conv"
  name: "loss2/conv"
  type: CONVOLUTION
  blobs_lr: 1
  blobs_lr: 2
  weight_decay: 1
  weight_decay: 0
  convolution_param {
    num_output: 128
    kernel_size: 1
    weight_filler {
      type: "xavier"
      std: 0.08
    }
    bias_filler {
      type: "constant"
      value: 0.2
    }
  }
}
layers {
  bottom: "loss2/conv"
  top: "loss2/conv"
  name: "loss2/relu_conv"
  type: RELU
}
layers {
  bottom: "loss2/conv"
  top: "loss2/fc"
  name: "loss2/fc"
  type: INNER_PRODUCT
  blobs_lr: 1
  blobs_lr: 2
  weight_decay: 1
  weight_decay: 0
  inner_product_param {
    num_output: 1024
    weight_filler {
      type: "xavier"
      std: 0.02
    }
    bias_filler {
      type: "constant"
      value: 0.2
    }
  }
}
layers {
  bottom: "loss2/fc"
  top: "loss2/fc"
  name: "loss2/relu_fc"
  type: RELU
}
layers {
  bottom: "loss2/fc"
  top: "loss2/fc"
  name: "loss2/drop_fc"
  type: DROPOUT
  dropout_param {
    dropout_ratio: 0.7
  }
}
layers {
  bottom: "loss2/fc"
  top: "loss2/classifier"
  name: "loss2/classifier"
  type: INNER_PRODUCT
  blobs_lr: 1
  blobs_lr: 2
  weight_decay: 1
  weight_decay: 0
  inner_product_param {
    num_output: 121
    weight_filler {
      type: "xavier"
      std: 0.0009765625
    }
    bias_filler {
      type: "constant"
      value: 0
    }
  }
}
layers {
  bottom: "loss2/classifier"
  bottom: "label"
  top: "loss2/loss1"
  name: "loss2/loss"
  type: SOFTMAX_LOSS
  loss_weight: 0.3
}
layers {
  bottom: "inception_4d/output"
  top: "inception_4e/1x1"
  name: "inception_4e/1x1"
  type: CONVOLUTION
  blobs_lr: 1
  blobs_lr: 2
  weight_decay: 1
  weight_decay: 0
  convolution_param {
    num_output: 256
    kernel_size: 1
    weight_filler {
      type: "xavier"
      std: 0.03
    }
    bias_filler {
      type: "constant"
      value: 0.2
    }
  }
}
layers {
  bottom: "inception_4e/1x1"
  top: "inception_4e/1x1"
  name: "inception_4e/relu_1x1"
  type: RELU
}
layers {
  bottom: "inception_4d/output"
  top: "inception_4e/3x3_reduce"
  name: "inception_4e/3x3_reduce"
  type: CONVOLUTION
  blobs_lr: 1
  blobs_lr: 2
  weight_decay: 1
  weight_decay: 0
  convolution_param {
    num_output: 160
    kernel_size: 1
    weight_filler {
      type: "xavier"
      std: 0.09
    }
    bias_filler {
      type: "constant"
      value: 0.2
    }
  }
}
layers {
  bottom: "inception_4e/3x3_reduce"
  top: "inception_4e/3x3_reduce"
  name: "inception_4e/relu_3x3_reduce"
  type: RELU
}
layers {
  bottom: "inception_4e/3x3_reduce"
  top: "inception_4e/3x3"
  name: "inception_4e/3x3"
  type: CONVOLUTION
  blobs_lr: 1
  blobs_lr: 2
  weight_decay: 1
  weight_decay: 0
  convolution_param {
    num_output: 320
    pad: 1
    kernel_size: 3
    weight_filler {
      type: "xavier"
      std: 0.03
    }
    bias_filler {
      type: "constant"
      value: 0.2
    }
  }
}
layers {
  bottom: "inception_4e/3x3"
  top: "inception_4e/3x3"
  name: "inception_4e/relu_3x3"
  type: RELU
}
layers {
  bottom: "inception_4d/output"
  top: "inception_4e/5x5_reduce"
  name: "inception_4e/5x5_reduce"
  type: CONVOLUTION
  blobs_lr: 1
  blobs_lr: 2
  weight_decay: 1
  weight_decay: 0
  convolution_param {
    num_output: 32
    kernel_size: 1
    weight_filler {
      type: "xavier"
      std: 0.2
    }
    bias_filler {
      type: "constant"
      value: 0.2
    }
  }
}
layers {
  bottom: "inception_4e/5x5_reduce"
  top: "inception_4e/5x5_reduce"
  name: "inception_4e/relu_5x5_reduce"
  type: RELU
}
layers {
  bottom: "inception_4e/5x5_reduce"
  top: "inception_4e/5x5"
  name: "inception_4e/5x5"
  type: CONVOLUTION
  blobs_lr: 1
  blobs_lr: 2
  weight_decay: 1
  weight_decay: 0
  convolution_param {
    num_output: 128
    pad: 2
    kernel_size: 5
    weight_filler {
      type: "xavier"
      std: 0.03
    }
    bias_filler {
      type: "constant"
      value: 0.2
    }
  }
}
layers {
  bottom: "inception_4e/5x5"
  top: "inception_4e/5x5"
  name: "inception_4e/relu_5x5"
  type: RELU
}
layers {
  bottom: "inception_4d/output"
  top: "inception_4e/pool"
  name: "inception_4e/pool"
  type: POOLING
  pooling_param {
    pool: MAX
    kernel_size: 3
    stride: 1
    pad: 1
  }
}
layers {
  bottom: "inception_4e/pool"
  top: "inception_4e/pool_proj"
  name: "inception_4e/pool_proj"
  type: CONVOLUTION
  blobs_lr: 1
  blobs_lr: 2
  weight_decay: 1
  weight_decay: 0
  convolution_param {
    num_output: 128
    kernel_size: 1
    weight_filler {
      type: "xavier"
      std: 0.1
    }
    bias_filler {
      type: "constant"
      value: 0.2
    }
  }
}
layers {
  bottom: "inception_4e/pool_proj"
  top: "inception_4e/pool_p
I0311 16:29:35.551435  4547 layer_factory.hpp:78] Creating layer data
I0311 16:29:35.551470  4547 data_transformer.cpp:24] Loading mean file from/media/data/kaggle/nationalDataScienceBowl/data/typeF/train_mean.binaryproto
I0311 16:29:35.551667  4547 net.cpp:68] Creating Layer data
I0311 16:29:35.551692  4547 net.cpp:357] data -> data
I0311 16:29:35.551722  4547 net.cpp:357] data -> label
I0311 16:29:35.551743  4547 net.cpp:97] Setting up data
I0311 16:29:35.551759  4547 image_data_affine_layer.cpp:37] Opening file /media/data/kaggle/nationalDataScienceBowl/data/typeF/train.txt
I0311 16:29:35.565094  4547 image_data_affine_layer.cpp:47] Shuffling data
I0311 16:29:35.567725  4547 image_data_affine_layer.cpp:52] A total of 27302 images.
I0311 16:29:35.569787  4547 image_data_affine_layer.cpp:81] output data size: 128,1,96,96
I0311 16:29:35.571646  4547 net.cpp:104] Top shape: 128 1 96 96 (1179648)
I0311 16:29:35.571678  4547 net.cpp:104] Top shape: 128 1 1 1 (128)
I0311 16:29:35.571693  4547 layer_factory.hpp:78] Creating layer label_data_1_split
I0311 16:29:35.571737  4547 net.cpp:68] Creating Layer label_data_1_split
I0311 16:29:35.571753  4547 net.cpp:395] label_data_1_split <- label
I0311 16:29:35.571779  4547 net.cpp:357] label_data_1_split -> label_data_1_split_0
I0311 16:29:35.571804  4547 net.cpp:357] label_data_1_split -> label_data_1_split_1
I0311 16:29:35.571821  4547 net.cpp:357] label_data_1_split -> label_data_1_split_2
I0311 16:29:35.571837  4547 net.cpp:97] Setting up label_data_1_split
I0311 16:29:35.571854  4547 net.cpp:104] Top shape: 128 1 1 1 (128)
I0311 16:29:35.571866  4547 net.cpp:104] Top shape: 128 1 1 1 (128)
I0311 16:29:35.571877  4547 net.cpp:104] Top shape: 128 1 1 1 (128)
I0311 16:29:35.571945  4547 layer_factory.hpp:78] Creating layer conv1/7x7_s2
I0311 16:29:35.571969  4547 net.cpp:68] Creating Layer conv1/7x7_s2
I0311 16:29:35.571980  4547 net.cpp:395] conv1/7x7_s2 <- data
I0311 16:29:35.571996  4547 net.cpp:357] conv1/7x7_s2 -> conv1/7x7_s2
I0311 16:29:35.572013  4547 net.cpp:97] Setting up conv1/7x7_s2
I0311 16:29:35.631538  4547 net.cpp:104] Top shape: 128 64 47 47 (18096128)
I0311 16:29:35.631608  4547 layer_factory.hpp:78] Creating layer conv1/relu_7x7
I0311 16:29:35.631634  4547 net.cpp:68] Creating Layer conv1/relu_7x7
I0311 16:29:35.631650  4547 net.cpp:395] conv1/relu_7x7 <- conv1/7x7_s2
I0311 16:29:35.631669  4547 net.cpp:346] conv1/relu_7x7 -> conv1/7x7_s2 (in-place)
I0311 16:29:35.631690  4547 net.cpp:97] Setting up conv1/relu_7x7
I0311 16:29:35.631711  4547 net.cpp:104] Top shape: 128 64 47 47 (18096128)
I0311 16:29:35.631724  4547 layer_factory.hpp:78] Creating layer pool1/3x3_s2
I0311 16:29:35.631747  4547 net.cpp:68] Creating Layer pool1/3x3_s2
I0311 16:29:35.631759  4547 net.cpp:395] pool1/3x3_s2 <- conv1/7x7_s2
I0311 16:29:35.631774  4547 net.cpp:357] pool1/3x3_s2 -> pool1/3x3_s2
I0311 16:29:35.631790  4547 net.cpp:97] Setting up pool1/3x3_s2
I0311 16:29:35.631825  4547 net.cpp:104] Top shape: 128 64 23 23 (4333568)
I0311 16:29:35.631839  4547 layer_factory.hpp:78] Creating layer pool1/norm1
I0311 16:29:35.631860  4547 net.cpp:68] Creating Layer pool1/norm1
I0311 16:29:35.631872  4547 net.cpp:395] pool1/norm1 <- pool1/3x3_s2
I0311 16:29:35.631887  4547 net.cpp:357] pool1/norm1 -> pool1/norm1
I0311 16:29:35.631902  4547 net.cpp:97] Setting up pool1/norm1
I0311 16:29:35.631918  4547 net.cpp:104] Top shape: 128 64 23 23 (4333568)
I0311 16:29:35.631930  4547 layer_factory.hpp:78] Creating layer conv2/3x3_reduce
I0311 16:29:35.631952  4547 net.cpp:68] Creating Layer conv2/3x3_reduce
I0311 16:29:35.631964  4547 net.cpp:395] conv2/3x3_reduce <- pool1/norm1
I0311 16:29:35.631978  4547 net.cpp:357] conv2/3x3_reduce -> conv2/3x3_reduce
I0311 16:29:35.631997  4547 net.cpp:97] Setting up conv2/3x3_reduce
I0311 16:29:35.632130  4547 net.cpp:104] Top shape: 128 64 23 23 (4333568)
I0311 16:29:35.632155  4547 layer_factory.hpp:78] Creating layer conv2/relu_3x3_reduce
I0311 16:29:35.632171  4547 net.cpp:68] Creating Layer conv2/relu_3x3_reduce
I0311 16:29:35.632184  4547 net.cpp:395] conv2/relu_3x3_reduce <- conv2/3x3_reduce
I0311 16:29:35.632199  4547 net.cpp:346] conv2/relu_3x3_reduce -> conv2/3x3_reduce (in-place)
I0311 16:29:35.632213  4547 net.cpp:97] Setting up conv2/relu_3x3_reduce
I0311 16:29:35.632227  4547 net.cpp:104] Top shape: 128 64 23 23 (4333568)
I0311 16:29:35.632239  4547 layer_factory.hpp:78] Creating layer conv2/3x3
I0311 16:29:35.632258  4547 net.cpp:68] Creating Layer conv2/3x3
I0311 16:29:35.632272  4547 net.cpp:395] conv2/3x3 <- conv2/3x3_reduce
I0311 16:29:35.632289  4547 net.cpp:357] conv2/3x3 -> conv2/3x3
I0311 16:29:35.632304  4547 net.cpp:97] Setting up conv2/3x3
I0311 16:29:35.633631  4547 net.cpp:104] Top shape: 128 192 23 23 (13000704)
I0311 16:29:35.633677  4547 layer_factory.hpp:78] Creating layer conv2/relu_3x3
I0311 16:29:35.633697  4547 net.cpp:68] Creating Layer conv2/relu_3x3
I0311 16:29:35.633709  4547 net.cpp:395] conv2/relu_3x3 <- conv2/3x3
I0311 16:29:35.633733  4547 net.cpp:346] conv2/relu_3x3 -> conv2/3x3 (in-place)
I0311 16:29:35.633746  4547 net.cpp:97] Setting up conv2/relu_3x3
I0311 16:29:35.633762  4547 net.cpp:104] Top shape: 128 192 23 23 (13000704)
I0311 16:29:35.633774  4547 layer_factory.hpp:78] Creating layer conv2/norm2
I0311 16:29:35.633790  4547 net.cpp:68] Creating Layer conv2/norm2
I0311 16:29:35.633807  4547 net.cpp:395] conv2/norm2 <- conv2/3x3
I0311 16:29:35.633823  4547 net.cpp:357] conv2/norm2 -> conv2/norm2
I0311 16:29:35.633838  4547 net.cpp:97] Setting up conv2/norm2
I0311 16:29:35.633852  4547 net.cpp:104] Top shape: 128 192 23 23 (13000704)
I0311 16:29:35.633863  4547 layer_factory.hpp:78] Creating layer pool2/3x3_s2
I0311 16:29:35.633877  4547 net.cpp:68] Creating Layer pool2/3x3_s2
I0311 16:29:35.633946  4547 net.cpp:395] pool2/3x3_s2 <- conv2/norm2
I0311 16:29:35.633965  4547 net.cpp:357] pool2/3x3_s2 -> pool2/3x3_s2
I0311 16:29:35.633980  4547 net.cpp:97] Setting up pool2/3x3_s2
I0311 16:29:35.633997  4547 net.cpp:104] Top shape: 128 192 11 11 (2973696)
I0311 16:29:35.634011  4547 layer_factory.hpp:78] Creating layer pool2/3x3_s2_pool2/3x3_s2_0_split
I0311 16:29:35.634024  4547 net.cpp:68] Creating Layer pool2/3x3_s2_pool2/3x3_s2_0_split
I0311 16:29:35.634037  4547 net.cpp:395] pool2/3x3_s2_pool2/3x3_s2_0_split <- pool2/3x3_s2
I0311 16:29:35.634052  4547 net.cpp:357] pool2/3x3_s2_pool2/3x3_s2_0_split -> pool2/3x3_s2_pool2/3x3_s2_0_split_0
I0311 16:29:35.634073  4547 net.cpp:357] pool2/3x3_s2_pool2/3x3_s2_0_split -> pool2/3x3_s2_pool2/3x3_s2_0_split_1
I0311 16:29:35.634089  4547 net.cpp:357] pool2/3x3_s2_pool2/3x3_s2_0_split -> pool2/3x3_s2_pool2/3x3_s2_0_split_2
I0311 16:29:35.634104  4547 net.cpp:357] pool2/3x3_s2_pool2/3x3_s2_0_split -> pool2/3x3_s2_pool2/3x3_s2_0_split_3
I0311 16:29:35.634119  4547 net.cpp:97] Setting up pool2/3x3_s2_pool2/3x3_s2_0_split
I0311 16:29:35.634131  4547 net.cpp:104] Top shape: 128 192 11 11 (2973696)
I0311 16:29:35.634142  4547 net.cpp:104] Top shape: 128 192 11 11 (2973696)
I0311 16:29:35.634153  4547 net.cpp:104] Top shape: 128 192 11 11 (2973696)
I0311 16:29:35.634166  4547 net.cpp:104] Top shape: 128 192 11 11 (2973696)
I0311 16:29:35.634176  4547 layer_factory.hpp:78] Creating layer inception_3a/1x1
I0311 16:29:35.634194  4547 net.cpp:68] Creating Layer inception_3a/1x1
I0311 16:29:35.634207  4547 net.cpp:395] inception_3a/1x1 <- pool2/3x3_s2_pool2/3x3_s2_0_split_0
I0311 16:29:35.634220  4547 net.cpp:357] inception_3a/1x1 -> inception_3a/1x1
I0311 16:29:35.634237  4547 net.cpp:97] Setting up inception_3a/1x1
I0311 16:29:35.634452  4547 net.cpp:104] Top shape: 128 64 11 11 (991232)
I0311 16:29:35.634477  4547 layer_factory.hpp:78] Creating layer inception_3a/relu_1x1
I0311 16:29:35.634497  4547 net.cpp:68] Creating Layer inception_3a/relu_1x1
I0311 16:29:35.634510  4547 net.cpp:395] inception_3a/relu_1x1 <- inception_3a/1x1
I0311 16:29:35.634523  4547 net.cpp:346] inception_3a/relu_1x1 -> inception_3a/1x1 (in-place)
I0311 16:29:35.634538  4547 net.cpp:97] Setting up inception_3a/relu_1x1
I0311 16:29:35.634553  4547 net.cpp:104] Top shape: 128 64 11 11 (991232)
I0311 16:29:35.634567  4547 layer_factory.hpp:78] Creating layer inception_3a/3x3_reduce
I0311 16:29:35.634583  4547 net.cpp:68] Creating Layer inception_3a/3x3_reduce
I0311 16:29:35.634595  4547 net.cpp:395] inception_3a/3x3_reduce <- pool2/3x3_s2_pool2/3x3_s2_0_split_1
I0311 16:29:35.634609  4547 net.cpp:357] inception_3a/3x3_reduce -> inception_3a/3x3_reduce
I0311 16:29:35.634624  4547 net.cpp:97] Setting up inception_3a/3x3_reduce
I0311 16:29:35.634924  4547 net.cpp:104] Top shape: 128 96 11 11 (1486848)
I0311 16:29:35.634954  4547 layer_factory.hpp:78] Creating layer inception_3a/relu_3x3_reduce
I0311 16:29:35.634974  4547 net.cpp:68] Creating Layer inception_3a/relu_3x3_reduce
I0311 16:29:35.634987  4547 net.cpp:395] inception_3a/relu_3x3_reduce <- inception_3a/3x3_reduce
I0311 16:29:35.635001  4547 net.cpp:346] inception_3a/relu_3x3_reduce -> inception_3a/3x3_reduce (in-place)
I0311 16:29:35.635015  4547 net.cpp:97] Setting up inception_3a/relu_3x3_reduce
I0311 16:29:35.635030  4547 net.cpp:104] Top shape: 128 96 11 11 (1486848)
I0311 16:29:35.635042  4547 layer_factory.hpp:78] Creating layer inception_3a/3x3
I0311 16:29:35.635056  4547 net.cpp:68] Creating Layer inception_3a/3x3
I0311 16:29:35.635071  4547 net.cpp:395] inception_3a/3x3 <- inception_3a/3x3_reduce
I0311 16:29:35.635088  4547 net.cpp:357] inception_3a/3x3 -> inception_3a/3x3
I0311 16:29:35.635105  4547 net.cpp:97] Setting up inception_3a/3x3
I0311 16:29:35.636476  4547 net.cpp:104] Top shape: 128 128 11 11 (1982464)
I0311 16:29:35.636504  4547 layer_factory.hpp:78] Creating layer inception_3a/relu_3x3
I0311 16:29:35.636523  4547 net.cpp:68] Creating Layer inception_3a/relu_3x3
I0311 16:29:35.636536  4547 net.cpp:395] inception_3a/relu_3x3 <- inception_3a/3x3
I0311 16:29:35.636569  4547 net.cpp:346] inception_3a/relu_3x3 -> inception_3a/3x3 (in-place)
I0311 16:29:35.636586  4547 net.cpp:97] Setting up inception_3a/relu_3x3
I0311 16:29:35.636602  4547 net.cpp:104] Top shape: 128 128 11 11 (1982464)
I0311 16:29:35.636615  4547 layer_factory.hpp:78] Creating layer inception_3a/5x5_reduce
I0311 16:29:35.636631  4547 net.cpp:68] Creating Layer inception_3a/5x5_reduce
I0311 16:29:35.636644  4547 net.cpp:395] inception_3a/5x5_reduce <- pool2/3x3_s2_pool2/3x3_s2_0_split_2
I0311 16:29:35.636662  4547 net.cpp:357] inception_3a/5x5_reduce -> inception_3a/5x5_reduce
I0311 16:29:35.636677  4547 net.cpp:97] Setting up inception_3a/5x5_reduce
I0311 16:29:35.636790  4547 net.cpp:104] Top shape: 128 16 11 11 (247808)
I0311 16:29:35.636816  4547 layer_factory.hpp:78] Creating layer inception_3a/relu_5x5_reduce
I0311 16:29:35.636829  4547 net.cpp:68] Creating Layer inception_3a/relu_5x5_reduce
I0311 16:29:35.636842  4547 net.cpp:395] inception_3a/relu_5x5_reduce <- inception_3a/5x5_reduce
I0311 16:29:35.636858  4547 net.cpp:346] inception_3a/relu_5x5_reduce -> inception_3a/5x5_reduce (in-place)
I0311 16:29:35.636893  4547 net.cpp:97] Setting up inception_3a/relu_5x5_reduce
I0311 16:29:35.636910  4547 net.cpp:104] Top shape: 128 16 11 11 (247808)
I0311 16:29:35.636924  4547 layer_factory.hpp:78] Creating layer inception_3a/5x5
I0311 16:29:35.636937  4547 net.cpp:68] Creating Layer inception_3a/5x5
I0311 16:29:35.636950  4547 net.cpp:395] inception_3a/5x5 <- inception_3a/5x5_reduce
I0311 16:29:35.636963  4547 net.cpp:357] inception_3a/5x5 -> inception_3a/5x5
I0311 16:29:35.636978  4547 net.cpp:97] Setting up inception_3a/5x5
I0311 16:29:35.637184  4547 net.cpp:104] Top shape: 128 32 11 11 (495616)
I0311 16:29:35.637209  4547 layer_factory.hpp:78] Creating layer inception_3a/relu_5x5
I0311 16:29:35.637228  4547 net.cpp:68] Creating Layer inception_3a/relu_5x5
I0311 16:29:35.637240  4547 net.cpp:395] inception_3a/relu_5x5 <- inception_3a/5x5
I0311 16:29:35.637259  4547 net.cpp:346] inception_3a/relu_5x5 -> inception_3a/5x5 (in-place)
I0311 16:29:35.637274  4547 net.cpp:97] Setting up inception_3a/relu_5x5
I0311 16:29:35.637289  4547 net.cpp:104] Top shape: 128 32 11 11 (495616)
I0311 16:29:35.637300  4547 layer_factory.hpp:78] Creating layer inception_3a/pool
I0311 16:29:35.637311  4547 layer_factory.cpp:51] CUDNN does not support padding or multiple tops. Using Caffe's own pooling layer.
I0311 16:29:35.637325  4547 net.cpp:68] Creating Layer inception_3a/pool
I0311 16:29:35.637336  4547 net.cpp:395] inception_3a/pool <- pool2/3x3_s2_pool2/3x3_s2_0_split_3
I0311 16:29:35.637353  4547 net.cpp:357] inception_3a/pool -> inception_3a/pool
I0311 16:29:35.637368  4547 net.cpp:97] Setting up inception_3a/pool
I0311 16:29:35.637383  4547 net.cpp:104] Top shape: 128 192 11 11 (2973696)
I0311 16:29:35.637397  4547 layer_factory.hpp:78] Creating layer inception_3a/pool_proj
I0311 16:29:35.637410  4547 net.cpp:68] Creating Layer inception_3a/pool_proj
I0311 16:29:35.637501  4547 net.cpp:395] inception_3a/pool_proj <- inception_3a/pool
I0311 16:29:35.637521  4547 net.cpp:357] inception_3a/pool_proj -> inception_3a/pool_proj
I0311 16:29:35.637550  4547 net.cpp:97] Setting up inception_3a/pool_proj
I0311 16:29:35.637697  4547 net.cpp:104] Top shape: 128 32 11 11 (495616)
I0311 16:29:35.637722  4547 layer_factory.hpp:78] Creating layer inception_3a/relu_pool_proj
I0311 16:29:35.637742  4547 net.cpp:68] Creating Layer inception_3a/relu_pool_proj
I0311 16:29:35.637756  4547 net.cpp:395] inception_3a/relu_pool_proj <- inception_3a/pool_proj
I0311 16:29:35.637769  4547 net.cpp:346] inception_3a/relu_pool_proj -> inception_3a/pool_proj (in-place)
I0311 16:29:35.637784  4547 net.cpp:97] Setting up inception_3a/relu_pool_proj
I0311 16:29:35.637800  4547 net.cpp:104] Top shape: 128 32 11 11 (495616)
I0311 16:29:35.637812  4547 layer_factory.hpp:78] Creating layer inception_3a/output
I0311 16:29:35.637836  4547 net.cpp:68] Creating Layer inception_3a/output
I0311 16:29:35.637848  4547 net.cpp:395] inception_3a/output <- inception_3a/1x1
I0311 16:29:35.637879  4547 net.cpp:395] inception_3a/output <- inception_3a/3x3
I0311 16:29:35.637893  4547 net.cpp:395] inception_3a/output <- inception_3a/5x5
I0311 16:29:35.637907  4547 net.cpp:395] inception_3a/output <- inception_3a/pool_proj
I0311 16:29:35.637920  4547 net.cpp:357] inception_3a/output -> inception_3a/output
I0311 16:29:35.637935  4547 net.cpp:97] Setting up inception_3a/output
I0311 16:29:35.637954  4547 net.cpp:104] Top shape: 128 256 11 11 (3964928)
I0311 16:29:35.637965  4547 layer_factory.hpp:78] Creating layer inception_3a/output_inception_3a/output_0_split
I0311 16:29:35.637979  4547 net.cpp:68] Creating Layer inception_3a/output_inception_3a/output_0_split
I0311 16:29:35.637990  4547 net.cpp:395] inception_3a/output_inception_3a/output_0_split <- inception_3a/output
I0311 16:29:35.638005  4547 net.cpp:357] inception_3a/output_inception_3a/output_0_split -> inception_3a/output_inception_3a/output_0_split_0
I0311 16:29:35.638025  4547 net.cpp:357] inception_3a/output_inception_3a/output_0_split -> inception_3a/output_inception_3a/output_0_split_1
I0311 16:29:35.638041  4547 net.cpp:357] inception_3a/output_inception_3a/output_0_split -> inception_3a/output_inception_3a/output_0_split_2
I0311 16:29:35.638057  4547 net.cpp:357] inception_3a/output_inception_3a/output_0_split -> inception_3a/output_inception_3a/output_0_split_3
I0311 16:29:35.638072  4547 net.cpp:97] Setting up inception_3a/output_inception_3a/output_0_split
I0311 16:29:35.638087  4547 net.cpp:104] Top shape: 128 256 11 11 (3964928)
I0311 16:29:35.638098  4547 net.cpp:104] Top shape: 128 256 11 11 (3964928)
I0311 16:29:35.638108  4547 net.cpp:104] Top shape: 128 256 11 11 (3964928)
I0311 16:29:35.638119  4547 net.cpp:104] Top shape: 128 256 11 11 (3964928)
I0311 16:29:35.638130  4547 layer_factory.hpp:78] Creating layer inception_3b/1x1
I0311 16:29:35.638146  4547 net.cpp:68] Creating Layer inception_3b/1x1
I0311 16:29:35.638159  4547 net.cpp:395] inception_3b/1x1 <- inception_3a/output_inception_3a/output_0_split_0
I0311 16:29:35.638173  4547 net.cpp:357] inception_3b/1x1 -> inception_3b/1x1
I0311 16:29:35.638188  4547 net.cpp:97] Setting up inception_3b/1x1
I0311 16:29:35.638628  4547 net.cpp:104] Top shape: 128 128 11 11 (1982464)
I0311 16:29:35.638653  4547 layer_factory.hpp:78] Creating layer inception_3b/relu_1x1
I0311 16:29:35.638669  4547 net.cpp:68] Creating Layer inception_3b/relu_1x1
I0311 16:29:35.638681  4547 net.cpp:395] inception_3b/relu_1x1 <- inception_3b/1x1
I0311 16:29:35.638698  4547 net.cpp:346] inception_3b/relu_1x1 -> inception_3b/1x1 (in-place)
I0311 16:29:35.638713  4547 net.cpp:97] Setting up inception_3b/relu_1x1
I0311 16:29:35.638728  4547 net.cpp:104] Top shape: 128 128 11 11 (1982464)
I0311 16:29:35.638741  4547 layer_factory.hpp:78] Creating layer inception_3b/3x3_reduce
I0311 16:29:35.638754  4547 net.cpp:68] Creating Layer inception_3b/3x3_reduce
I0311 16:29:35.638767  4547 net.cpp:395] inception_3b/3x3_reduce <- inception_3a/output_inception_3a/output_0_split_1
I0311 16:29:35.638783  4547 net.cpp:357] inception_3b/3x3_reduce -> inception_3b/3x3_reduce
I0311 16:29:35.638802  4547 net.cpp:97] Setting up inception_3b/3x3_reduce
I0311 16:29:35.639477  4547 net.cpp:104] Top shape: 128 128 11 11 (1982464)
I0311 16:29:35.639508  4547 layer_factory.hpp:78] Creating layer inception_3b/relu_3x3_reduce
I0311 16:29:35.639523  4547 net.cpp:68] Creating Layer inception_3b/relu_3x3_reduce
I0311 16:29:35.639536  4547 net.cpp:395] inception_3b/relu_3x3_reduce <- inception_3b/3x3_reduce
I0311 16:29:35.639555  4547 net.cpp:346] inception_3b/relu_3x3_reduce -> inception_3b/3x3_reduce (in-place)
I0311 16:29:35.639570  4547 net.cpp:97] Setting up inception_3b/relu_3x3_reduce
I0311 16:29:35.639585  4547 net.cpp:104] Top shape: 128 128 11 11 (1982464)
I0311 16:29:35.639597  4547 layer_factory.hpp:78] Creating layer inception_3b/3x3
I0311 16:29:35.639617  4547 net.cpp:68] Creating Layer inception_3b/3x3
I0311 16:29:35.639629  4547 net.cpp:395] inception_3b/3x3 <- inception_3b/3x3_reduce
I0311 16:29:35.639663  4547 net.cpp:357] inception_3b/3x3 -> inception_3b/3x3
I0311 16:29:35.639682  4547 net.cpp:97] Setting up inception_3b/3x3
I0311 16:29:35.642040  4547 net.cpp:104] Top shape: 128 192 11 11 (2973696)
I0311 16:29:35.642068  4547 layer_factory.hpp:78] Creating layer inception_3b/relu_3x3
I0311 16:29:35.642089  4547 net.cpp:68] Creating Layer inception_3b/relu_3x3
I0311 16:29:35.642108  4547 net.cpp:395] inception_3b/relu_3x3 <- inception_3b/3x3
I0311 16:29:35.642122  4547 net.cpp:346] inception_3b/relu_3x3 -> inception_3b/3x3 (in-place)
I0311 16:29:35.642137  4547 net.cpp:97] Setting up inception_3b/relu_3x3
I0311 16:29:35.642150  4547 net.cpp:104] Top shape: 128 192 11 11 (2973696)
I0311 16:29:35.642163  4547 layer_factory.hpp:78] Creating layer inception_3b/5x5_reduce
I0311 16:29:35.642179  4547 net.cpp:68] Creating Layer inception_3b/5x5_reduce
I0311 16:29:35.642192  4547 net.cpp:395] inception_3b/5x5_reduce <- inception_3a/output_inception_3a/output_0_split_2
I0311 16:29:35.642209  4547 net.cpp:357] inception_3b/5x5_reduce -> inception_3b/5x5_reduce
I0311 16:29:35.642225  4547 net.cpp:97] Setting up inception_3b/5x5_reduce
I0311 16:29:35.642381  4547 net.cpp:104] Top shape: 128 32 11 11 (495616)
I0311 16:29:35.642403  4547 layer_factory.hpp:78] Creating layer inception_3b/relu_5x5_reduce
I0311 16:29:35.642422  4547 net.cpp:68] Creating Layer inception_3b/relu_5x5_reduce
I0311 16:29:35.642436  4547 net.cpp:395] inception_3b/relu_5x5_reduce <- inception_3b/5x5_reduce
I0311 16:29:35.642449  4547 net.cpp:346] inception_3b/relu_5x5_reduce -> inception_3b/5x5_reduce (in-place)
I0311 16:29:35.642465  4547 net.cpp:97] Setting up inception_3b/relu_5x5_reduce
I0311 16:29:35.642479  4547 net.cpp:104] Top shape: 128 32 11 11 (495616)
I0311 16:29:35.642491  4547 layer_factory.hpp:78] Creating layer inception_3b/5x5
I0311 16:29:35.642508  4547 net.cpp:68] Creating Layer inception_3b/5x5
I0311 16:29:35.642520  4547 net.cpp:395] inception_3b/5x5 <- inception_3b/5x5_reduce
I0311 16:29:35.642534  4547 net.cpp:357] inception_3b/5x5 -> inception_3b/5x5
I0311 16:29:35.642555  4547 net.cpp:97] Setting up inception_3b/5x5
I0311 16:29:35.643419  4547 net.cpp:104] Top shape: 128 96 11 11 (1486848)
I0311 16:29:35.643447  4547 layer_factory.hpp:78] Creating layer inception_3b/relu_5x5
I0311 16:29:35.643463  4547 net.cpp:68] Creating Layer inception_3b/relu_5x5
I0311 16:29:35.643477  4547 net.cpp:395] inception_3b/relu_5x5 <- inception_3b/5x5
I0311 16:29:35.643491  4547 net.cpp:346] inception_3b/relu_5x5 -> inception_3b/5x5 (in-place)
I0311 16:29:35.643507  4547 net.cpp:97] Setting up inception_3b/relu_5x5
I0311 16:29:35.643520  4547 net.cpp:104] Top shape: 128 96 11 11 (1486848)
I0311 16:29:35.643532  4547 layer_factory.hpp:78] Creating layer inception_3b/pool
I0311 16:29:35.643543  4547 layer_factory.cpp:51] CUDNN does not support padding or multiple tops. Using Caffe's own pooling layer.
I0311 16:29:35.643556  4547 net.cpp:68] Creating Layer inception_3b/pool
I0311 16:29:35.643568  4547 net.cpp:395] inception_3b/pool <- inception_3a/output_inception_3a/output_0_split_3
I0311 16:29:35.643586  4547 net.cpp:357] inception_3b/pool -> inception_3b/pool
I0311 16:29:35.643604  4547 net.cpp:97] Setting up inception_3b/pool
I0311 16:29:35.643617  4547 net.cpp:104] Top shape: 128 256 11 11 (3964928)
I0311 16:29:35.643630  4547 layer_factory.hpp:78] Creating layer inception_3b/pool_proj
I0311 16:29:35.643646  4547 net.cpp:68] Creating Layer inception_3b/pool_proj
I0311 16:29:35.643658  4547 net.cpp:395] inception_3b/pool_proj <- inception_3b/pool
I0311 16:29:35.643673  4547 net.cpp:357] inception_3b/pool_proj -> inception_3b/pool_proj
I0311 16:29:35.643687  4547 net.cpp:97] Setting up inception_3b/pool_proj
I0311 16:29:35.643960  4547 net.cpp:104] Top shape: 128 64 11 11 (991232)
I0311 16:29:35.643986  4547 layer_factory.hpp:78] Creating layer inception_3b/relu_pool_proj
I0311 16:29:35.644001  4547 net.cpp:68] Creating Layer inception_3b/relu_pool_proj
I0311 16:29:35.644016  4547 net.cpp:395] inception_3b/relu_pool_proj <- inception_3b/pool_proj
I0311 16:29:35.644052  4547 net.cpp:346] inception_3b/relu_pool_proj -> inception_3b/pool_proj (in-place)
I0311 16:29:35.644068  4547 net.cpp:97] Setting up inception_3b/relu_pool_proj
I0311 16:29:35.644083  4547 net.cpp:104] Top shape: 128 64 11 11 (991232)
I0311 16:29:35.644095  4547 layer_factory.hpp:78] Creating layer inception_3b/output
I0311 16:29:35.644114  4547 net.cpp:68] Creating Layer inception_3b/output
I0311 16:29:35.644129  4547 net.cpp:395] inception_3b/output <- inception_3b/1x1
I0311 16:29:35.644146  4547 net.cpp:395] inception_3b/output <- inception_3b/3x3
I0311 16:29:35.644158  4547 net.cpp:395] inception_3b/output <- inception_3b/5x5
I0311 16:29:35.644170  4547 net.cpp:395] inception_3b/output <- inception_3b/pool_proj
I0311 16:29:35.644187  4547 net.cpp:357] inception_3b/output -> inception_3b/output
I0311 16:29:35.644201  4547 net.cpp:97] Setting up inception_3b/output
I0311 16:29:35.644214  4547 net.cpp:104] Top shape: 128 480 11 11 (7434240)
I0311 16:29:35.644225  4547 layer_factory.hpp:78] Creating layer pool3/3x3_s2
I0311 16:29:35.644243  4547 net.cpp:68] Creating Layer pool3/3x3_s2
I0311 16:29:35.644254  4547 net.cpp:395] pool3/3x3_s2 <- inception_3b/output
I0311 16:29:35.644268  4547 net.cpp:357] pool3/3x3_s2 -> pool3/3x3_s2
I0311 16:29:35.644284  4547 net.cpp:97] Setting up pool3/3x3_s2
I0311 16:29:35.644300  4547 net.cpp:104] Top shape: 128 480 5 5 (1536000)
I0311 16:29:35.644314  4547 layer_factory.hpp:78] Creating layer pool3/3x3_s2_pool3/3x3_s2_0_split
I0311 16:29:35.644327  4547 net.cpp:68] Creating Layer pool3/3x3_s2_pool3/3x3_s2_0_split
I0311 16:29:35.644338  4547 net.cpp:395] pool3/3x3_s2_pool3/3x3_s2_0_split <- pool3/3x3_s2
I0311 16:29:35.644354  4547 net.cpp:357] pool3/3x3_s2_pool3/3x3_s2_0_split -> pool3/3x3_s2_pool3/3x3_s2_0_split_0
I0311 16:29:35.644371  4547 net.cpp:357] pool3/3x3_s2_pool3/3x3_s2_0_split -> pool3/3x3_s2_pool3/3x3_s2_0_split_1
I0311 16:29:35.644386  4547 net.cpp:357] pool3/3x3_s2_pool3/3x3_s2_0_split -> pool3/3x3_s2_pool3/3x3_s2_0_split_2
I0311 16:29:35.644402  4547 net.cpp:357] pool3/3x3_s2_pool3/3x3_s2_0_split -> pool3/3x3_s2_pool3/3x3_s2_0_split_3
I0311 16:29:35.644414  4547 net.cpp:97] Setting up pool3/3x3_s2_pool3/3x3_s2_0_split
I0311 16:29:35.644428  4547 net.cpp:104] Top shape: 128 480 5 5 (1536000)
I0311 16:29:35.644439  4547 net.cpp:104] Top shape: 128 480 5 5 (1536000)
I0311 16:29:35.644449  4547 net.cpp:104] Top shape: 128 480 5 5 (1536000)
I0311 16:29:35.644464  4547 net.cpp:104] Top shape: 128 480 5 5 (1536000)
I0311 16:29:35.644476  4547 layer_factory.hpp:78] Creating layer inception_4a/1x1
I0311 16:29:35.644495  4547 net.cpp:68] Creating Layer inception_4a/1x1
I0311 16:29:35.644506  4547 net.cpp:395] inception_4a/1x1 <- pool3/3x3_s2_pool3/3x3_s2_0_split_0
I0311 16:29:35.644526  4547 net.cpp:357] inception_4a/1x1 -> inception_4a/1x1
I0311 16:29:35.644543  4547 net.cpp:97] Setting up inception_4a/1x1
I0311 16:29:35.645774  4547 net.cpp:104] Top shape: 128 192 5 5 (614400)
I0311 16:29:35.645805  4547 layer_factory.hpp:78] Creating layer inception_4a/relu_1x1
I0311 16:29:35.645822  4547 net.cpp:68] Creating Layer inception_4a/relu_1x1
I0311 16:29:35.645833  4547 net.cpp:395] inception_4a/relu_1x1 <- inception_4a/1x1
I0311 16:29:35.645850  4547 net.cpp:346] inception_4a/relu_1x1 -> inception_4a/1x1 (in-place)
I0311 16:29:35.645872  4547 net.cpp:97] Setting up inception_4a/relu_1x1
I0311 16:29:35.645887  4547 net.cpp:104] Top shape: 128 192 5 5 (614400)
I0311 16:29:35.645900  4547 layer_factory.hpp:78] Creating layer inception_4a/3x3_reduce
I0311 16:29:35.645915  4547 net.cpp:68] Creating Layer inception_4a/3x3_reduce
I0311 16:29:35.645926  4547 net.cpp:395] inception_4a/3x3_reduce <- pool3/3x3_s2_pool3/3x3_s2_0_split_1
I0311 16:29:35.645943  4547 net.cpp:357] inception_4a/3x3_reduce -> inception_4a/3x3_reduce
I0311 16:29:35.645959  4547 net.cpp:97] Setting up inception_4a/3x3_reduce
I0311 16:29:35.646533  4547 net.cpp:104] Top shape: 128 96 5 5 (307200)
I0311 16:29:35.646566  4547 layer_factory.hpp:78] Creating layer inception_4a/relu_3x3_reduce
I0311 16:29:35.646606  4547 net.cpp:68] Creating Layer inception_4a/relu_3x3_reduce
I0311 16:29:35.646627  4547 net.cpp:395] inception_4a/relu_3x3_reduce <- inception_4a/3x3_reduce
I0311 16:29:35.646644  4547 net.cpp:346] inception_4a/relu_3x3_reduce -> inception_4a/3x3_reduce (in-place)
I0311 16:29:35.646659  4547 net.cpp:97] Setting up inception_4a/relu_3x3_reduce
I0311 16:29:35.646675  4547 net.cpp:104] Top shape: 128 96 5 5 (307200)
I0311 16:29:35.646687  4547 layer_factory.hpp:78] Creating layer inception_4a/3x3
I0311 16:29:35.646703  4547 net.cpp:68] Creating Layer inception_4a/3x3
I0311 16:29:35.646713  4547 net.cpp:395] inception_4a/3x3 <- inception_4a/3x3_reduce
I0311 16:29:35.646730  4547 net.cpp:357] inception_4a/3x3 -> inception_4a/3x3
I0311 16:29:35.646746  4547 net.cpp:97] Setting up inception_4a/3x3
I0311 16:29:35.648668  4547 net.cpp:104] Top shape: 128 208 5 5 (665600)
I0311 16:29:35.648697  4547 layer_factory.hpp:78] Creating layer inception_4a/relu_3x3
I0311 16:29:35.648715  4547 net.cpp:68] Creating Layer inception_4a/relu_3x3
I0311 16:29:35.648728  4547 net.cpp:395] inception_4a/relu_3x3 <- inception_4a/3x3
I0311 16:29:35.648742  4547 net.cpp:346] inception_4a/relu_3x3 -> inception_4a/3x3 (in-place)
I0311 16:29:35.648758  4547 net.cpp:97] Setting up inception_4a/relu_3x3
I0311 16:29:35.648774  4547 net.cpp:104] Top shape: 128 208 5 5 (665600)
I0311 16:29:35.648787  4547 layer_factory.hpp:78] Creating layer inception_4a/5x5_reduce
I0311 16:29:35.648804  4547 net.cpp:68] Creating Layer inception_4a/5x5_reduce
I0311 16:29:35.648818  4547 net.cpp:395] inception_4a/5x5_reduce <- pool3/3x3_s2_pool3/3x3_s2_0_split_2
I0311 16:29:35.648831  4547 net.cpp:357] inception_4a/5x5_reduce -> inception_4a/5x5_reduce
I0311 16:29:35.648846  4547 net.cpp:97] Setting up inception_4a/5x5_reduce
I0311 16:29:35.649005  4547 net.cpp:104] Top shape: 128 16 5 5 (51200)
I0311 16:29:35.649027  4547 layer_factory.hpp:78] Creating layer inception_4a/relu_5x5_reduce
I0311 16:29:35.649046  4547 net.cpp:68] Creating Layer inception_4a/relu_5x5_reduce
I0311 16:29:35.649060  4547 net.cpp:395] inception_4a/relu_5x5_reduce <- inception_4a/5x5_reduce
I0311 16:29:35.649080  4547 net.cpp:346] inception_4a/relu_5x5_reduce -> inception_4a/5x5_reduce (in-place)
I0311 16:29:35.649097  4547 net.cpp:97] Setting up inception_4a/relu_5x5_reduce
I0311 16:29:35.649112  4547 net.cpp:104] Top shape: 128 16 5 5 (51200)
I0311 16:29:35.649124  4547 layer_factory.hpp:78] Creating layer inception_4a/5x5
I0311 16:29:35.649145  4547 net.cpp:68] Creating Layer inception_4a/5x5
I0311 16:29:35.649158  4547 net.cpp:395] inception_4a/5x5 <- inception_4a/5x5_reduce
I0311 16:29:35.649173  4547 net.cpp:357] inception_4a/5x5 -> inception_4a/5x5
I0311 16:29:35.649188  4547 net.cpp:97] Setting up inception_4a/5x5
I0311 16:29:35.649468  4547 net.cpp:104] Top shape: 128 48 5 5 (153600)
I0311 16:29:35.649492  4547 layer_factory.hpp:78] Creating layer inception_4a/relu_5x5
I0311 16:29:35.649508  4547 net.cpp:68] Creating Layer inception_4a/relu_5x5
I0311 16:29:35.649521  4547 net.cpp:395] inception_4a/relu_5x5 <- inception_4a/5x5
I0311 16:29:35.649534  4547 net.cpp:346] inception_4a/relu_5x5 -> inception_4a/5x5 (in-place)
I0311 16:29:35.649549  4547 net.cpp:97] Setting up inception_4a/relu_5x5
I0311 16:29:35.649564  4547 net.cpp:104] Top shape: 128 48 5 5 (153600)
I0311 16:29:35.649575  4547 layer_factory.hpp:78] Creating layer inception_4a/pool
I0311 16:29:35.649586  4547 layer_factory.cpp:51] CUDNN does not support padding or multiple tops. Using Caffe's own pooling layer.
I0311 16:29:35.649601  4547 net.cpp:68] Creating Layer inception_4a/pool
I0311 16:29:35.649615  4547 net.cpp:395] inception_4a/pool <- pool3/3x3_s2_pool3/3x3_s2_0_split_3
I0311 16:29:35.649628  4547 net.cpp:357] inception_4a/pool -> inception_4a/pool
I0311 16:29:35.649646  4547 net.cpp:97] Setting up inception_4a/pool
I0311 16:29:35.649659  4547 net.cpp:104] Top shape: 128 480 5 5 (1536000)
I0311 16:29:35.649670  4547 layer_factory.hpp:78] Creating layer inception_4a/pool_proj
I0311 16:29:35.649708  4547 net.cpp:68] Creating Layer inception_4a/pool_proj
I0311 16:29:35.649723  4547 net.cpp:395] inception_4a/pool_proj <- inception_4a/pool
I0311 16:29:35.649737  4547 net.cpp:357] inception_4a/pool_proj -> inception_4a/pool_proj
I0311 16:29:35.649754  4547 net.cpp:97] Setting up inception_4a/pool_proj
I0311 16:29:35.650282  4547 net.cpp:104] Top shape: 128 64 5 5 (204800)
I0311 16:29:35.650310  4547 layer_factory.hpp:78] Creating layer inception_4a/relu_pool_proj
I0311 16:29:35.650328  4547 net.cpp:68] Creating Layer inception_4a/relu_pool_proj
I0311 16:29:35.650341  4547 net.cpp:395] inception_4a/relu_pool_proj <- inception_4a/pool_proj
I0311 16:29:35.650356  4547 net.cpp:346] inception_4a/relu_pool_proj -> inception_4a/pool_proj (in-place)
I0311 16:29:35.650370  4547 net.cpp:97] Setting up inception_4a/relu_pool_proj
I0311 16:29:35.650385  4547 net.cpp:104] Top shape: 128 64 5 5 (204800)
I0311 16:29:35.650398  4547 layer_factory.hpp:78] Creating layer inception_4a/output
I0311 16:29:35.650413  4547 net.cpp:68] Creating Layer inception_4a/output
I0311 16:29:35.650425  4547 net.cpp:395] inception_4a/output <- inception_4a/1x1
I0311 16:29:35.650439  4547 net.cpp:395] inception_4a/output <- inception_4a/3x3
I0311 16:29:35.650452  4547 net.cpp:395] inception_4a/output <- inception_4a/5x5
I0311 16:29:35.650465  4547 net.cpp:395] inception_4a/output <- inception_4a/pool_proj
I0311 16:29:35.650481  4547 net.cpp:357] inception_4a/output -> inception_4a/output
I0311 16:29:35.650496  4547 net.cpp:97] Setting up inception_4a/output
I0311 16:29:35.650508  4547 net.cpp:104] Top shape: 128 512 5 5 (1638400)
I0311 16:29:35.650519  4547 layer_factory.hpp:78] Creating layer inception_4a/output_inception_4a/output_0_split
I0311 16:29:35.650533  4547 net.cpp:68] Creating Layer inception_4a/output_inception_4a/output_0_split
I0311 16:29:35.650545  4547 net.cpp:395] inception_4a/output_inception_4a/output_0_split <- inception_4a/output
I0311 16:29:35.650559  4547 net.cpp:357] inception_4a/output_inception_4a/output_0_split -> inception_4a/output_inception_4a/output_0_split_0
I0311 16:29:35.650575  4547 net.cpp:357] inception_4a/output_inception_4a/output_0_split -> inception_4a/output_inception_4a/output_0_split_1
I0311 16:29:35.650591  4547 net.cpp:357] inception_4a/output_inception_4a/output_0_split -> inception_4a/output_inception_4a/output_0_split_2
I0311 16:29:35.650609  4547 net.cpp:357] inception_4a/output_inception_4a/output_0_split -> inception_4a/output_inception_4a/output_0_split_3
I0311 16:29:35.650625  4547 net.cpp:357] inception_4a/output_inception_4a/output_0_split -> inception_4a/output_inception_4a/output_0_split_4
I0311 16:29:35.650641  4547 net.cpp:97] Setting up inception_4a/output_inception_4a/output_0_split
I0311 16:29:35.650655  4547 net.cpp:104] Top shape: 128 512 5 5 (1638400)
I0311 16:29:35.650665  4547 net.cpp:104] Top shape: 128 512 5 5 (1638400)
I0311 16:29:35.650676  4547 net.cpp:104] Top shape: 128 512 5 5 (1638400)
I0311 16:29:35.650686  4547 net.cpp:104] Top shape: 128 512 5 5 (1638400)
I0311 16:29:35.650696  4547 net.cpp:104] Top shape: 128 512 5 5 (1638400)
I0311 16:29:35.650707  4547 layer_factory.hpp:78] Creating layer loss1/ave_pool
I0311 16:29:35.650722  4547 net.cpp:68] Creating Layer loss1/ave_pool
I0311 16:29:35.650737  4547 net.cpp:395] loss1/ave_pool <- inception_4a/output_inception_4a/output_0_split_0
I0311 16:29:35.650751  4547 net.cpp:357] loss1/ave_pool -> loss1/ave_pool
I0311 16:29:35.650768  4547 net.cpp:97] Setting up loss1/ave_pool
I0311 16:29:35.650784  4547 net.cpp:104] Top shape: 128 512 1 1 (65536)
I0311 16:29:35.650796  4547 layer_factory.hpp:78] Creating layer loss1/conv
I0311 16:29:35.650810  4547 net.cpp:68] Creating Layer loss1/conv
I0311 16:29:35.650822  4547 net.cpp:395] loss1/conv <- loss1/ave_pool
I0311 16:29:35.650840  4547 net.cpp:357] loss1/conv -> loss1/conv
I0311 16:29:35.650856  4547 net.cpp:97] Setting up loss1/conv
I0311 16:29:35.651599  4547 net.cpp:104] Top shape: 128 128 1 1 (16384)
I0311 16:29:35.651626  4547 layer_factory.hpp:78] Creating layer loss1/relu_conv
I0311 16:29:35.651659  4547 net.cpp:68] Creating Layer loss1/relu_conv
I0311 16:29:35.651671  4547 net.cpp:395] loss1/relu_conv <- loss1/conv
I0311 16:29:35.651689  4547 net.cpp:346] loss1/relu_conv -> loss1/conv (in-place)
I0311 16:29:35.651703  4547 net.cpp:97] Setting up loss1/relu_conv
I0311 16:29:35.651720  4547 net.cpp:104] Top shape: 128 128 1 1 (16384)
I0311 16:29:35.651731  4547 layer_factory.hpp:78] Creating layer loss1/fc
I0311 16:29:35.651747  4547 net.cpp:68] Creating Layer loss1/fc
I0311 16:29:35.651758  4547 net.cpp:395] loss1/fc <- loss1/conv
I0311 16:29:35.651777  4547 net.cpp:357] loss1/fc -> loss1/fc
I0311 16:29:35.651793  4547 net.cpp:97] Setting up loss1/fc
I0311 16:29:35.653183  4547 net.cpp:104] Top shape: 128 1024 1 1 (131072)
I0311 16:29:35.653210  4547 layer_factory.hpp:78] Creating layer loss1/relu_fc
I0311 16:29:35.653224  4547 net.cpp:68] Creating Layer loss1/relu_fc
I0311 16:29:35.653236  4547 net.cpp:395] loss1/relu_fc <- loss1/fc
I0311 16:29:35.653250  4547 net.cpp:346] loss1/relu_fc -> loss1/fc (in-place)
I0311 16:29:35.653265  4547 net.cpp:97] Setting up loss1/relu_fc
I0311 16:29:35.653282  4547 net.cpp:104] Top shape: 128 1024 1 1 (131072)
I0311 16:29:35.653295  4547 layer_factory.hpp:78] Creating layer loss1/drop_fc
I0311 16:29:35.653323  4547 net.cpp:68] Creating Layer loss1/drop_fc
I0311 16:29:35.653337  4547 net.cpp:395] loss1/drop_fc <- loss1/fc
I0311 16:29:35.653350  4547 net.cpp:346] loss1/drop_fc -> loss1/fc (in-place)
I0311 16:29:35.653364  4547 net.cpp:97] Setting up loss1/drop_fc
I0311 16:29:35.653378  4547 net.cpp:104] Top shape: 128 1024 1 1 (131072)
I0311 16:29:35.653391  4547 layer_factory.hpp:78] Creating layer loss1/classifier
I0311 16:29:35.653405  4547 net.cpp:68] Creating Layer loss1/classifier
I0311 16:29:35.653417  4547 net.cpp:395] loss1/classifier <- loss1/fc
I0311 16:29:35.653431  4547 net.cpp:357] loss1/classifier -> loss1/classifier
I0311 16:29:35.653445  4547 net.cpp:97] Setting up loss1/classifier
I0311 16:29:35.654777  4547 net.cpp:104] Top shape: 128 121 1 1 (15488)
I0311 16:29:35.654801  4547 layer_factory.hpp:78] Creating layer loss1/loss
I0311 16:29:35.654821  4547 net.cpp:68] Creating Layer loss1/loss
I0311 16:29:35.654834  4547 net.cpp:395] loss1/loss <- loss1/classifier
I0311 16:29:35.654847  4547 net.cpp:395] loss1/loss <- label_data_1_split_0
I0311 16:29:35.654863  4547 net.cpp:357] loss1/loss -> loss1/loss1
I0311 16:29:35.654881  4547 net.cpp:97] Setting up loss1/loss
I0311 16:29:35.654896  4547 layer_factory.hpp:78] Creating layer loss1/loss
I0311 16:29:35.654959  4547 net.cpp:104] Top shape: 1 1 1 1 (1)
I0311 16:29:35.654975  4547 net.cpp:110]     with loss weight 0.3
I0311 16:29:35.655027  4547 layer_factory.hpp:78] Creating layer inception_4b/1x1
I0311 16:29:35.655046  4547 net.cpp:68] Creating Layer inception_4b/1x1
I0311 16:29:35.655060  4547 net.cpp:395] inception_4b/1x1 <- inception_4a/output_inception_4a/output_0_split_1
I0311 16:29:35.655074  4547 net.cpp:357] inception_4b/1x1 -> inception_4b/1x1
I0311 16:29:35.655089  4547 net.cpp:97] Setting up inception_4b/1x1
I0311 16:29:35.656008  4547 net.cpp:104] Top shape: 128 160 5 5 (512000)
I0311 16:29:35.656033  4547 layer_factory.hpp:78] Creating layer inception_4b/relu_1x1
I0311 16:29:35.656050  4547 net.cpp:68] Creating Layer inception_4b/relu_1x1
I0311 16:29:35.656064  4547 net.cpp:395] inception_4b/relu_1x1 <- inception_4b/1x1
I0311 16:29:35.656079  4547 net.cpp:346] inception_4b/relu_1x1 -> inception_4b/1x1 (in-place)
I0311 16:29:35.656095  4547 net.cpp:97] Setting up inception_4b/relu_1x1
I0311 16:29:35.656110  4547 net.cpp:104] Top shape: 128 160 5 5 (512000)
I0311 16:29:35.656121  4547 layer_factory.hpp:78] Creating layer inception_4b/3x3_reduce
I0311 16:29:35.656138  4547 net.cpp:68] Creating Layer inception_4b/3x3_reduce
I0311 16:29:35.656150  4547 net.cpp:395] inception_4b/3x3_reduce <- inception_4a/output_inception_4a/output_0_split_2
I0311 16:29:35.656165  4547 net.cpp:357] inception_4b/3x3_reduce -> inception_4b/3x3_reduce
I0311 16:29:35.656182  4547 net.cpp:97] Setting up inception_4b/3x3_reduce
I0311 16:29:35.656859  4547 net.cpp:104] Top shape: 128 112 5 5 (358400)
I0311 16:29:35.656891  4547 layer_factory.hpp:78] Creating layer inception_4b/relu_3x3_reduce
I0311 16:29:35.656911  4547 net.cpp:68] Creating Layer inception_4b/relu_3x3_reduce
I0311 16:29:35.656924  4547 net.cpp:395] inception_4b/relu_3x3_reduce <- inception_4b/3x3_reduce
I0311 16:29:35.656941  4547 net.cpp:346] inception_4b/relu_3x3_reduce -> inception_4b/3x3_reduce (in-place)
I0311 16:29:35.656966  4547 net.cpp:97] Setting up inception_4b/relu_3x3_reduce
I0311 16:29:35.656981  4547 net.cpp:104] Top shape: 128 112 5 5 (358400)
I0311 16:29:35.656993  4547 layer_factory.hpp:78] Creating layer inception_4b/3x3
I0311 16:29:35.657007  4547 net.cpp:68] Creating Layer inception_4b/3x3
I0311 16:29:35.657019  4547 net.cpp:395] inception_4b/3x3 <- inception_4b/3x3_reduce
I0311 16:29:35.657033  4547 net.cpp:357] inception_4b/3x3 -> inception_4b/3x3
I0311 16:29:35.657048  4547 net.cpp:97] Setting up inception_4b/3x3
I0311 16:29:35.659406  4547 net.cpp:104] Top shape: 128 224 5 5 (716800)
I0311 16:29:35.659435  4547 layer_factory.hpp:78] Creating layer inception_4b/relu_3x3
I0311 16:29:35.659450  4547 net.cpp:68] Creating Layer inception_4b/relu_3x3
I0311 16:29:35.659461  4547 net.cpp:395] inception_4b/relu_3x3 <- inception_4b/3x3
I0311 16:29:35.659476  4547 net.cpp:346] inception_4b/relu_3x3 -> inception_4b/3x3 (in-place)
I0311 16:29:35.659492  4547 net.cpp:97] Setting up inception_4b/relu_3x3
I0311 16:29:35.659507  4547 net.cpp:104] Top shape: 128 224 5 5 (716800)
I0311 16:29:35.659518  4547 layer_factory.hpp:78] Creating layer inception_4b/5x5_reduce
I0311 16:29:35.659535  4547 net.cpp:68] Creating Layer inception_4b/5x5_reduce
I0311 16:29:35.659548  4547 net.cpp:395] inception_4b/5x5_reduce <- inception_4a/output_inception_4a/output_0_split_3
I0311 16:29:35.659562  4547 net.cpp:357] inception_4b/5x5_reduce -> inception_4b/5x5_reduce
I0311 16:29:35.659580  4547 net.cpp:97] Setting up inception_4b/5x5_reduce
I0311 16:29:35.659934  4547 net.cpp:104] Top shape: 128 24 5 5 (76800)
I0311 16:29:35.659961  4547 layer_factory.hpp:78] Creating layer inception_4b/relu_5x5_reduce
I0311 16:29:35.659981  4547 net.cpp:68] Creating Layer inception_4b/relu_5x5_reduce
I0311 16:29:35.659993  4547 net.cpp:395] inception_4b/relu_5x5_reduce <- inception_4b/5x5_reduce
I0311 16:29:35.660007  4547 net.cpp:346] inception_4b/relu_5x5_reduce -> inception_4b/5x5_reduce (in-place)
I0311 16:29:35.660022  4547 net.cpp:97] Setting up inception_4b/relu_5x5_reduce
I0311 16:29:35.660037  4547 net.cpp:104] Top shape: 128 24 5 5 (76800)
I0311 16:29:35.660049  4547 layer_factory.hpp:78] Creating layer inception_4b/5x5
I0311 16:29:35.660066  4547 net.cpp:68] Creating Layer inception_4b/5x5
I0311 16:29:35.660080  4547 net.cpp:395] inception_4b/5x5 <- inception_4b/5x5_reduce
I0311 16:29:35.660094  4547 net.cpp:357] inception_4b/5x5 -> inception_4b/5x5
I0311 16:29:35.660109  4547 net.cpp:97] Setting up inception_4b/5x5
I0311 16:29:35.660573  4547 net.cpp:104] Top shape: 128 64 5 5 (204800)
I0311 16:29:35.660615  4547 layer_factory.hpp:78] Creating layer inception_4b/relu_5x5
I0311 16:29:35.660631  4547 net.cpp:68] Creating Layer inception_4b/relu_5x5
I0311 16:29:35.660644  4547 net.cpp:395] inception_4b/relu_5x5 <- inception_4b/5x5
I0311 16:29:35.660657  4547 net.cpp:346] inception_4b/relu_5x5 -> inception_4b/5x5 (in-place)
I0311 16:29:35.660671  4547 net.cpp:97] Setting up inception_4b/relu_5x5
I0311 16:29:35.660686  4547 net.cpp:104] Top shape: 128 64 5 5 (204800)
I0311 16:29:35.660697  4547 layer_factory.hpp:78] Creating layer inception_4b/pool
I0311 16:29:35.660709  4547 layer_factory.cpp:51] CUDNN does not support padding or multiple tops. Using Caffe's own pooling layer.
I0311 16:29:35.660723  4547 net.cpp:68] Creating Layer inception_4b/pool
I0311 16:29:35.660735  4547 net.cpp:395] inception_4b/pool <- inception_4a/output_inception_4a/output_0_split_4
I0311 16:29:35.660759  4547 net.cpp:357] inception_4b/pool -> inception_4b/pool
I0311 16:29:35.660806  4547 net.cpp:97] Setting up inception_4b/pool
I0311 16:29:35.660825  4547 net.cpp:104] Top shape: 128 512 5 5 (1638400)
I0311 16:29:35.660836  4547 layer_factory.hpp:78] Creating layer inception_4b/pool_proj
I0311 16:29:35.660851  4547 net.cpp:68] Creating Layer inception_4b/pool_proj
I0311 16:29:35.660868  4547 net.cpp:395] inception_4b/pool_proj <- inception_4b/pool
I0311 16:29:35.660887  4547 net.cpp:357] inception_4b/pool_proj -> inception_4b/pool_proj
I0311 16:29:35.660909  4547 net.cpp:97] Setting up inception_4b/pool_proj
I0311 16:29:35.661327  4547 net.cpp:104] Top shape: 128 64 5 5 (204800)
I0311 16:29:35.661351  4547 layer_factory.hpp:78] Creating layer inception_4b/relu_pool_proj
I0311 16:29:35.661370  4547 net.cpp:68] Creating Layer inception_4b/relu_pool_proj
I0311 16:29:35.661381  4547 net.cpp:395] inception_4b/relu_pool_proj <- inception_4b/pool_proj
I0311 16:29:35.661397  4547 net.cpp:346] inception_4b/relu_pool_proj -> inception_4b/pool_proj (in-place)
I0311 16:29:35.661412  4547 net.cpp:97] Setting up inception_4b/relu_pool_proj
I0311 16:29:35.661427  4547 net.cpp:104] Top shape: 128 64 5 5 (204800)
I0311 16:29:35.661439  4547 layer_factory.hpp:78] Creating layer inception_4b/output
I0311 16:29:35.661453  4547 net.cpp:68] Creating Layer inception_4b/output
I0311 16:29:35.661464  4547 net.cpp:395] inception_4b/output <- inception_4b/1x1
I0311 16:29:35.661478  4547 net.cpp:395] inception_4b/output <- inception_4b/3x3
I0311 16:29:35.661491  4547 net.cpp:395] inception_4b/output <- inception_4b/5x5
I0311 16:29:35.661504  4547 net.cpp:395] inception_4b/output <- inception_4b/pool_proj
I0311 16:29:35.661517  4547 net.cpp:357] inception_4b/output -> inception_4b/output
I0311 16:29:35.661531  4547 net.cpp:97] Setting up inception_4b/output
I0311 16:29:35.661543  4547 net.cpp:104] Top shape: 128 512 5 5 (1638400)
I0311 16:29:35.661555  4547 layer_factory.hpp:78] Creating layer inception_4b/output_inception_4b/output_0_split
I0311 16:29:35.661568  4547 net.cpp:68] Creating Layer inception_4b/output_inception_4b/output_0_split
I0311 16:29:35.661579  4547 net.cpp:395] inception_4b/output_inception_4b/output_0_split <- inception_4b/output
I0311 16:29:35.661597  4547 net.cpp:357] inception_4b/output_inception_4b/output_0_split -> inception_4b/output_inception_4b/output_0_split_0
I0311 16:29:35.661614  4547 net.cpp:357] inception_4b/output_inception_4b/output_0_split -> inception_4b/output_inception_4b/output_0_split_1
I0311 16:29:35.661630  4547 net.cpp:357] inception_4b/output_inception_4b/output_0_split -> inception_4b/output_inception_4b/output_0_split_2
I0311 16:29:35.661646  4547 net.cpp:357] inception_4b/output_inception_4b/output_0_split -> inception_4b/output_inception_4b/output_0_split_3
I0311 16:29:35.661661  4547 net.cpp:97] Setting up inception_4b/output_inception_4b/output_0_split
I0311 16:29:35.661674  4547 net.cpp:104] Top shape: 128 512 5 5 (1638400)
I0311 16:29:35.661685  4547 net.cpp:104] Top shape: 128 512 5 5 (1638400)
I0311 16:29:35.661695  4547 net.cpp:104] Top shape: 128 512 5 5 (1638400)
I0311 16:29:35.661706  4547 net.cpp:104] Top shape: 128 512 5 5 (1638400)
I0311 16:29:35.661717  4547 layer_factory.hpp:78] Creating layer inception_4c/1x1
I0311 16:29:35.661734  4547 net.cpp:68] Creating Layer inception_4c/1x1
I0311 16:29:35.661746  4547 net.cpp:395] inception_4c/1x1 <- inception_4b/output_inception_4b/output_0_split_0
I0311 16:29:35.661762  4547 net.cpp:357] inception_4c/1x1 -> inception_4c/1x1
I0311 16:29:35.661777  4547 net.cpp:97] Setting up inception_4c/1x1
I0311 16:29:35.662511  4547 net.cpp:104] Top shape: 128 128 5 5 (409600)
I0311 16:29:35.662539  4547 layer_factory.hpp:78] Creating layer inception_4c/relu_1x1
I0311 16:29:35.662552  4547 net.cpp:68] Creating Layer inception_4c/relu_1x1
I0311 16:29:35.662565  4547 net.cpp:395] inception_4c/relu_1x1 <- inception_4c/1x1
I0311 16:29:35.662581  4547 net.cpp:346] inception_4c/relu_1x1 -> inception_4c/1x1 (in-place)
I0311 16:29:35.662600  4547 net.cpp:97] Setting up inception_4c/relu_1x1
I0311 16:29:35.662616  4547 net.cpp:104] Top shape: 128 128 5 5 (409600)
I0311 16:29:35.662652  4547 layer_factory.hpp:78] Creating layer inception_4c/3x3_reduce
I0311 16:29:35.662669  4547 net.cpp:68] Creating Layer inception_4c/3x3_reduce
I0311 16:29:35.662681  4547 net.cpp:395] inception_4c/3x3_reduce <- inception_4b/output_inception_4b/output_0_split_1
I0311 16:29:35.662699  4547 net.cpp:357] inception_4c/3x3_reduce -> inception_4c/3x3_reduce
I0311 16:29:35.662715  4547 net.cpp:97] Setting up inception_4c/3x3_reduce
I0311 16:29:35.663450  4547 net.cpp:104] Top shape: 128 128 5 5 (409600)
I0311 16:29:35.663477  4547 layer_factory.hpp:78] Creating layer inception_4c/relu_3x3_reduce
I0311 16:29:35.663494  4547 net.cpp:68] Creating Layer inception_4c/relu_3x3_reduce
I0311 16:29:35.663507  4547 net.cpp:395] inception_4c/relu_3x3_reduce <- inception_4c/3x3_reduce
I0311 16:29:35.663530  4547 net.cpp:346] inception_4c/relu_3x3_reduce -> inception_4c/3x3_reduce (in-place)
I0311 16:29:35.663547  4547 net.cpp:97] Setting up inception_4c/relu_3x3_reduce
I0311 16:29:35.663563  4547 net.cpp:104] Top shape: 128 128 5 5 (409600)
I0311 16:29:35.663574  4547 layer_factory.hpp:78] Creating layer inception_4c/3x3
I0311 16:29:35.663589  4547 net.cpp:68] Creating Layer inception_4c/3x3
I0311 16:29:35.663600  4547 net.cpp:395] inception_4c/3x3 <- inception_4c/3x3_reduce
I0311 16:29:35.663617  4547 net.cpp:357] inception_4c/3x3 -> inception_4c/3x3
I0311 16:29:35.663633  4547 net.cpp:97] Setting up inception_4c/3x3
I0311 16:29:35.666851  4547 net.cpp:104] Top shape: 128 256 5 5 (819200)
I0311 16:29:35.666893  4547 layer_factory.hpp:78] Creating layer inception_4c/relu_3x3
I0311 16:29:35.666911  4547 net.cpp:68] Creating Layer inception_4c/relu_3x3
I0311 16:29:35.666924  4547 net.cpp:395] inception_4c/relu_3x3 <- inception_4c/3x3
I0311 16:29:35.666941  4547 net.cpp:346] inception_4c/relu_3x3 -> inception_4c/3x3 (in-place)
I0311 16:29:35.666957  4547 net.cpp:97] Setting up inception_4c/relu_3x3
I0311 16:29:35.666972  4547 net.cpp:104] Top shape: 128 256 5 5 (819200)
I0311 16:29:35.666985  4547 layer_factory.hpp:78] Creating layer inception_4c/5x5_reduce
I0311 16:29:35.666999  4547 net.cpp:68] Creating Layer inception_4c/5x5_reduce
I0311 16:29:35.667011  4547 net.cpp:395] inception_4c/5x5_reduce <- inception_4b/output_inception_4b/output_0_split_2
I0311 16:29:35.667029  4547 net.cpp:357] inception_4c/5x5_reduce -> inception_4c/5x5_reduce
I0311 16:29:35.667045  4547 net.cpp:97] Setting up inception_4c/5x5_reduce
I0311 16:29:35.667251  4547 net.cpp:104] Top shape: 128 24 5 5 (76800)
I0311 16:29:35.667273  4547 layer_factory.hpp:78] Creating layer inception_4c/relu_5x5_reduce
I0311 16:29:35.667289  4547 net.cpp:68] Creating Layer inception_4c/relu_5x5_reduce
I0311 16:29:35.667304  4547 net.cpp:395] inception_4c/relu_5x5_reduce <- inception_4c/5x5_reduce
I0311 16:29:35.667317  4547 net.cpp:346] inception_4c/relu_5x5_reduce -> inception_4c/5x5_reduce (in-place)
I0311 16:29:35.667332  4547 net.cpp:97] Setting up inception_4c/relu_5x5_reduce
I0311 16:29:35.667346  4547 net.cpp:104] Top shape: 128 24 5 5 (76800)
I0311 16:29:35.667359  4547 layer_factory.hpp:78] Creating layer inception_4c/5x5
I0311 16:29:35.667373  4547 net.cpp:68] Creating Layer inception_4c/5x5
I0311 16:29:35.667385  4547 net.cpp:395] inception_4c/5x5 <- inception_4c/5x5_reduce
I0311 16:29:35.667402  4547 net.cpp:357] inception_4c/5x5 -> inception_4c/5x5
I0311 16:29:35.667420  4547 net.cpp:97] Setting up inception_4c/5x5
I0311 16:29:35.667892  4547 net.cpp:104] Top shape: 128 64 5 5 (204800)
I0311 16:29:35.667918  4547 layer_factory.hpp:78] Creating layer inception_4c/relu_5x5
I0311 16:29:35.667932  4547 net.cpp:68] Creating Layer inception_4c/relu_5x5
I0311 16:29:35.667945  4547 net.cpp:395] inception_4c/relu_5x5 <- inception_4c/5x5
I0311 16:29:35.667959  4547 net.cpp:346] inception_4c/relu_5x5 -> inception_4c/5x5 (in-place)
I0311 16:29:35.667973  4547 net.cpp:97] Setting up inception_4c/relu_5x5
I0311 16:29:35.667989  4547 net.cpp:104] Top shape: 128 64 5 5 (204800)
I0311 16:29:35.668002  4547 layer_factory.hpp:78] Creating layer inception_4c/pool
I0311 16:29:35.668035  4547 layer_factory.cpp:51] CUDNN does not support padding or multiple tops. Using Caffe's own pooling layer.
I0311 16:29:35.668053  4547 net.cpp:68] Creating Layer inception_4c/pool
I0311 16:29:35.668066  4547 net.cpp:395] inception_4c/pool <- inception_4b/output_inception_4b/output_0_split_3
I0311 16:29:35.668081  4547 net.cpp:357] inception_4c/pool -> inception_4c/pool
I0311 16:29:35.668095  4547 net.cpp:97] Setting up inception_4c/pool
I0311 16:29:35.668108  4547 net.cpp:104] Top shape: 128 512 5 5 (1638400)
I0311 16:29:35.668120  4547 layer_factory.hpp:78] Creating layer inception_4c/pool_proj
I0311 16:29:35.668138  4547 net.cpp:68] Creating Layer inception_4c/pool_proj
I0311 16:29:35.668150  4547 net.cpp:395] inception_4c/pool_proj <- inception_4c/pool
I0311 16:29:35.668164  4547 net.cpp:357] inception_4c/pool_proj -> inception_4c/pool_proj
I0311 16:29:35.668180  4547 net.cpp:97] Setting up inception_4c/pool_proj
I0311 16:29:35.668617  4547 net.cpp:104] Top shape: 128 64 5 5 (204800)
I0311 16:29:35.668644  4547 layer_factory.hpp:78] Creating layer inception_4c/relu_pool_proj
I0311 16:29:35.668661  4547 net.cpp:68] Creating Layer inception_4c/relu_pool_proj
I0311 16:29:35.668674  4547 net.cpp:395] inception_4c/relu_pool_proj <- inception_4c/pool_proj
I0311 16:29:35.668689  4547 net.cpp:346] inception_4c/relu_pool_proj -> inception_4c/pool_proj (in-place)
I0311 16:29:35.668704  4547 net.cpp:97] Setting up inception_4c/relu_pool_proj
I0311 16:29:35.668720  4547 net.cpp:104] Top shape: 128 64 5 5 (204800)
I0311 16:29:35.668732  4547 layer_factory.hpp:78] Creating layer inception_4c/output
I0311 16:29:35.668750  4547 net.cpp:68] Creating Layer inception_4c/output
I0311 16:29:35.668761  4547 net.cpp:395] inception_4c/output <- inception_4c/1x1
I0311 16:29:35.668774  4547 net.cpp:395] inception_4c/output <- inception_4c/3x3
I0311 16:29:35.668787  4547 net.cpp:395] inception_4c/output <- inception_4c/5x5
I0311 16:29:35.668798  4547 net.cpp:395] inception_4c/output <- inception_4c/pool_proj
I0311 16:29:35.668812  4547 net.cpp:357] inception_4c/output -> inception_4c/output
I0311 16:29:35.668828  4547 net.cpp:97] Setting up inception_4c/output
I0311 16:29:35.668839  4547 net.cpp:104] Top shape: 128 512 5 5 (1638400)
I0311 16:29:35.668851  4547 layer_factory.hpp:78] Creating layer inception_4c/output_inception_4c/output_0_split
I0311 16:29:35.668870  4547 net.cpp:68] Creating Layer inception_4c/output_inception_4c/output_0_split
I0311 16:29:35.668886  4547 net.cpp:395] inception_4c/output_inception_4c/output_0_split <- inception_4c/output
I0311 16:29:35.668905  4547 net.cpp:357] inception_4c/output_inception_4c/output_0_split -> inception_4c/output_inception_4c/output_0_split_0
I0311 16:29:35.668921  4547 net.cpp:357] inception_4c/output_inception_4c/output_0_split -> inception_4c/output_inception_4c/output_0_split_1
I0311 16:29:35.668938  4547 net.cpp:357] inception_4c/output_inception_4c/output_0_split -> inception_4c/output_inception_4c/output_0_split_2
I0311 16:29:35.668954  4547 net.cpp:357] inception_4c/output_inception_4c/output_0_split -> inception_4c/output_inception_4c/output_0_split_3
I0311 16:29:35.668969  4547 net.cpp:97] Setting up inception_4c/output_inception_4c/output_0_split
I0311 16:29:35.668982  4547 net.cpp:104] Top shape: 128 512 5 5 (1638400)
I0311 16:29:35.668994  4547 net.cpp:104] Top shape: 128 512 5 5 (1638400)
I0311 16:29:35.669004  4547 net.cpp:104] Top shape: 128 512 5 5 (1638400)
I0311 16:29:35.669015  4547 net.cpp:104] Top shape: 128 512 5 5 (1638400)
I0311 16:29:35.669026  4547 layer_factory.hpp:78] Creating layer inception_4d/1x1
I0311 16:29:35.669042  4547 net.cpp:68] Creating Layer inception_4d/1x1
I0311 16:29:35.669054  4547 net.cpp:395] inception_4d/1x1 <- inception_4c/output_inception_4c/output_0_split_0
I0311 16:29:35.669070  4547 net.cpp:357] inception_4d/1x1 -> inception_4d/1x1
I0311 16:29:35.669085  4547 net.cpp:97] Setting up inception_4d/1x1
I0311 16:29:35.669738  4547 net.cpp:104] Top shape: 128 112 5 5 (358400)
I0311 16:29:35.669780  4547 layer_factory.hpp:78] Creating layer inception_4d/relu_1x1
I0311 16:29:35.669811  4547 net.cpp:68] Creating Layer inception_4d/relu_1x1
I0311 16:29:35.669824  4547 net.cpp:395] inception_4d/relu_1x1 <- inception_4d/1x1
I0311 16:29:35.669841  4547 net.cpp:346] inception_4d/relu_1x1 -> inception_4d/1x1 (in-place)
I0311 16:29:35.669857  4547 net.cpp:97] Setting up inception_4d/relu_1x1
I0311 16:29:35.669872  4547 net.cpp:104] Top shape: 128 112 5 5 (358400)
I0311 16:29:35.669883  4547 layer_factory.hpp:78] Creating layer inception_4d/3x3_reduce
I0311 16:29:35.669898  4547 net.cpp:68] Creating Layer inception_4d/3x3_reduce
I0311 16:29:35.669911  4547 net.cpp:395] inception_4d/3x3_reduce <- inception_4c/output_inception_4c/output_0_split_1
I0311 16:29:35.669925  4547 net.cpp:357] inception_4d/3x3_reduce -> inception_4d/3x3_reduce
I0311 16:29:35.669940  4547 net.cpp:97] Setting up inception_4d/3x3_reduce
I0311 16:29:35.670989  4547 net.cpp:104] Top shape: 128 144 5 5 (460800)
I0311 16:29:35.671017  4547 layer_factory.hpp:78] Creating layer inception_4d/relu_3x3_reduce
I0311 16:29:35.671037  4547 net.cpp:68] Creating Layer inception_4d/relu_3x3_reduce
I0311 16:29:35.671051  4547 net.cpp:395] inception_4d/relu_3x3_reduce <- inception_4d/3x3_reduce
I0311 16:29:35.671066  4547 net.cpp:346] inception_4d/relu_3x3_reduce -> inception_4d/3x3_reduce (in-place)
I0311 16:29:35.671080  4547 net.cpp:97] Setting up inception_4d/relu_3x3_reduce
I0311 16:29:35.671097  4547 net.cpp:104] Top shape: 128 144 5 5 (460800)
I0311 16:29:35.671109  4547 layer_factory.hpp:78] Creating layer inception_4d/3x3
I0311 16:29:35.671123  4547 net.cpp:68] Creating Layer inception_4d/3x3
I0311 16:29:35.671134  4547 net.cpp:395] inception_4d/3x3 <- inception_4d/3x3_reduce
I0311 16:29:35.671151  4547 net.cpp:357] inception_4d/3x3 -> inception_4d/3x3
I0311 16:29:35.671167  4547 net.cpp:97] Setting up inception_4d/3x3
I0311 16:29:35.675025  4547 net.cpp:104] Top shape: 128 288 5 5 (921600)
I0311 16:29:35.675053  4547 layer_factory.hpp:78] Creating layer inception_4d/relu_3x3
I0311 16:29:35.675068  4547 net.cpp:68] Creating Layer inception_4d/relu_3x3
I0311 16:29:35.675081  4547 net.cpp:395] inception_4d/relu_3x3 <- inception_4d/3x3
I0311 16:29:35.675094  4547 net.cpp:346] inception_4d/relu_3x3 -> inception_4d/3x3 (in-place)
I0311 16:29:35.675119  4547 net.cpp:97] Setting up inception_4d/relu_3x3
I0311 16:29:35.675135  4547 net.cpp:104] Top shape: 128 288 5 5 (921600)
I0311 16:29:35.675146  4547 layer_factory.hpp:78] Creating layer inception_4d/5x5_reduce
I0311 16:29:35.675163  4547 net.cpp:68] Creating Layer inception_4d/5x5_reduce
I0311 16:29:35.675176  4547 net.cpp:395] inception_4d/5x5_reduce <- inception_4c/output_inception_4c/output_0_split_2
I0311 16:29:35.675191  4547 net.cpp:357] inception_4d/5x5_reduce -> inception_4d/5x5_reduce
I0311 16:29:35.675209  4547 net.cpp:97] Setting up inception_4d/5x5_reduce
I0311 16:29:35.675462  4547 net.cpp:104] Top shape: 128 32 5 5 (102400)
I0311 16:29:35.675487  4547 layer_factory.hpp:78] Creating layer inception_4d/relu_5x5_reduce
I0311 16:29:35.675500  4547 net.cpp:68] Creating Layer inception_4d/relu_5x5_reduce
I0311 16:29:35.675513  4547 net.cpp:395] inception_4d/relu_5x5_reduce <- inception_4d/5x5_reduce
I0311 16:29:35.675526  4547 net.cpp:346] inception_4d/relu_5x5_reduce -> inception_4d/5x5_reduce (in-place)
I0311 16:29:35.675540  4547 net.cpp:97] Setting up inception_4d/relu_5x5_reduce
I0311 16:29:35.675554  4547 net.cpp:104] Top shape: 128 32 5 5 (102400)
I0311 16:29:35.675567  4547 layer_factory.hpp:78] Creating layer inception_4d/5x5
I0311 16:29:35.675583  4547 net.cpp:68] Creating Layer inception_4d/5x5
I0311 16:29:35.675596  4547 net.cpp:395] inception_4d/5x5 <- inception_4d/5x5_reduce
I0311 16:29:35.675613  4547 net.cpp:357] inception_4d/5x5 -> inception_4d/5x5
I0311 16:29:35.675629  4547 net.cpp:97] Setting up inception_4d/5x5
I0311 16:29:35.676223  4547 net.cpp:104] Top shape: 128 64 5 5 (204800)
I0311 16:29:35.676249  4547 layer_factory.hpp:78] Creating layer inception_4d/relu_5x5
I0311 16:29:35.676266  4547 net.cpp:68] Creating Layer inception_4d/relu_5x5
I0311 16:29:35.676311  4547 net.cpp:395] inception_4d/relu_5x5 <- inception_4d/5x5
I0311 16:29:35.676327  4547 net.cpp:346] inception_4d/relu_5x5 -> inception_4d/5x5 (in-place)
I0311 16:29:35.676342  4547 net.cpp:97] Setting up inception_4d/relu_5x5
I0311 16:29:35.676357  4547 net.cpp:104] Top shape: 128 64 5 5 (204800)
I0311 16:29:35.676369  4547 layer_factory.hpp:78] Creating layer inception_4d/pool
I0311 16:29:35.676380  4547 layer_factory.cpp:51] CUDNN does not support padding or multiple tops. Using Caffe's own pooling layer.
I0311 16:29:35.676393  4547 net.cpp:68] Creating Layer inception_4d/pool
I0311 16:29:35.676405  4547 net.cpp:395] inception_4d/pool <- inception_4c/output_inception_4c/output_0_split_3
I0311 16:29:35.676424  4547 net.cpp:357] inception_4d/pool -> inception_4d/pool
I0311 16:29:35.676439  4547 net.cpp:97] Setting up inception_4d/pool
I0311 16:29:35.676452  4547 net.cpp:104] Top shape: 128 512 5 5 (1638400)
I0311 16:29:35.676463  4547 layer_factory.hpp:78] Creating layer inception_4d/pool_proj
I0311 16:29:35.676478  4547 net.cpp:68] Creating Layer inception_4d/pool_proj
I0311 16:29:35.676491  4547 net.cpp:395] inception_4d/pool_proj <- inception_4d/pool
I0311 16:29:35.676508  4547 net.cpp:357] inception_4d/pool_proj -> inception_4d/pool_proj
I0311 16:29:35.676525  4547 net.cpp:97] Setting up inception_4d/pool_proj
I0311 16:29:35.676946  4547 net.cpp:104] Top shape: 128 64 5 5 (204800)
I0311 16:29:35.676970  4547 layer_factory.hpp:78] Creating layer inception_4d/relu_pool_proj
I0311 16:29:35.676986  4547 net.cpp:68] Creating Layer inception_4d/relu_pool_proj
I0311 16:29:35.677000  4547 net.cpp:395] inception_4d/relu_pool_proj <- inception_4d/pool_proj
I0311 16:29:35.677013  4547 net.cpp:346] inception_4d/relu_pool_proj -> inception_4d/pool_proj (in-place)
I0311 16:29:35.677027  4547 net.cpp:97] Setting up inception_4d/relu_pool_proj
I0311 16:29:35.677042  4547 net.cpp:104] Top shape: 128 64 5 5 (204800)
I0311 16:29:35.677054  4547 layer_factory.hpp:78] Creating layer inception_4d/output
I0311 16:29:35.677067  4547 net.cpp:68] Creating Layer inception_4d/output
I0311 16:29:35.677083  4547 net.cpp:395] inception_4d/output <- inception_4d/1x1
I0311 16:29:35.677096  4547 net.cpp:395] inception_4d/output <- inception_4d/3x3
I0311 16:29:35.677109  4547 net.cpp:395] inception_4d/output <- inception_4d/5x5
I0311 16:29:35.677121  4547 net.cpp:395] inception_4d/output <- inception_4d/pool_proj
I0311 16:29:35.677139  4547 net.cpp:357] inception_4d/output -> inception_4d/output
I0311 16:29:35.677153  4547 net.cpp:97] Setting up inception_4d/output
I0311 16:29:35.677166  4547 net.cpp:104] Top shape: 128 528 5 5 (1689600)
I0311 16:29:35.677177  4547 layer_factory.hpp:78] Creating layer inception_4d/output_inception_4d/output_0_split
I0311 16:29:35.677191  4547 net.cpp:68] Creating Layer inception_4d/output_inception_4d/output_0_split
I0311 16:29:35.677203  4547 net.cpp:395] inception_4d/output_inception_4d/output_0_split <- inception_4d/output
I0311 16:29:35.677217  4547 net.cpp:357] inception_4d/output_inception_4d/output_0_split -> inception_4d/output_inception_4d/output_0_split_0
I0311 16:29:35.677232  4547 net.cpp:357] inception_4d/output_inception_4d/output_0_split -> inception_4d/output_inception_4d/output_0_split_1
I0311 16:29:35.677248  4547 net.cpp:357] inception_4d/output_inception_4d/output_0_split -> inception_4d/output_inception_4d/output_0_split_2
I0311 16:29:35.677268  4547 net.cpp:357] inception_4d/output_inception_4d/output_0_split -> inception_4d/output_inception_4d/output_0_split_3
I0311 16:29:35.677284  4547 net.cpp:357] inception_4d/output_inception_4d/output_0_split -> inception_4d/output_inception_4d/output_0_split_4
I0311 16:29:35.677299  4547 net.cpp:97] Setting up inception_4d/output_inception_4d/output_0_split
I0311 16:29:35.677311  4547 net.cpp:104] Top shape: 128 528 5 5 (1689600)
I0311 16:29:35.677322  4547 net.cpp:104] Top shape: 128 528 5 5 (1689600)
I0311 16:29:35.677333  4547 net.cpp:104] Top shape: 128 528 5 5 (1689600)
I0311 16:29:35.677361  4547 net.cpp:104] Top shape: 128 528 5 5 (1689600)
I0311 16:29:35.677373  4547 net.cpp:104] Top shape: 128 528 5 5 (1689600)
I0311 16:29:35.677384  4547 layer_factory.hpp:78] Creating layer loss2/ave_pool
I0311 16:29:35.677403  4547 net.cpp:68] Creating Layer loss2/ave_pool
I0311 16:29:35.677418  4547 net.cpp:395] loss2/ave_pool <- inception_4d/output_inception_4d/output_0_split_0
I0311 16:29:35.677433  4547 net.cpp:357] loss2/ave_pool -> loss2/ave_pool
I0311 16:29:35.677448  4547 net.cpp:97] Setting up loss2/ave_pool
I0311 16:29:35.677465  4547 net.cpp:104] Top shape: 128 528 1 1 (67584)
I0311 16:29:35.677479  4547 layer_factory.hpp:78] Creating layer loss2/conv
I0311 16:29:35.677494  4547 net.cpp:68] Creating Layer loss2/conv
I0311 16:29:35.677505  4547 net.cpp:395] loss2/conv <- loss2/ave_pool
I0311 16:29:35.677521  4547 net.cpp:357] loss2/conv -> loss2/conv
I0311 16:29:35.677537  4547 net.cpp:97] Setting up loss2/conv
I0311 16:29:35.678444  4547 net.cpp:104] Top shape: 128 128 1 1 (16384)
I0311 16:29:35.678472  4547 layer_factory.hpp:78] Creating layer loss2/relu_conv
I0311 16:29:35.678488  4547 net.cpp:68] Creating Layer loss2/relu_conv
I0311 16:29:35.678501  4547 net.cpp:395] loss2/relu_conv <- loss2/conv
I0311 16:29:35.678515  4547 net.cpp:346] loss2/relu_conv -> loss2/conv (in-place)
I0311 16:29:35.678530  4547 net.cpp:97] Setting up loss2/relu_conv
I0311 16:29:35.678544  4547 net.cpp:104] Top shape: 128 128 1 1 (16384)
I0311 16:29:35.678556  4547 layer_factory.hpp:78] Creating layer loss2/fc
I0311 16:29:35.678572  4547 net.cpp:68] Creating Layer loss2/fc
I0311 16:29:35.678585  4547 net.cpp:395] loss2/fc <- loss2/conv
I0311 16:29:35.678599  4547 net.cpp:357] loss2/fc -> loss2/fc
I0311 16:29:35.678617  4547 net.cpp:97] Setting up loss2/fc
I0311 16:29:35.679960  4547 net.cpp:104] Top shape: 128 1024 1 1 (131072)
I0311 16:29:35.679986  4547 layer_factory.hpp:78] Creating layer loss2/relu_fc
I0311 16:29:35.680001  4547 net.cpp:68] Creating Layer loss2/relu_fc
I0311 16:29:35.680013  4547 net.cpp:395] loss2/relu_fc <- loss2/fc
I0311 16:29:35.680027  4547 net.cpp:346] loss2/relu_fc -> loss2/fc (in-place)
I0311 16:29:35.680042  4547 net.cpp:97] Setting up loss2/relu_fc
I0311 16:29:35.680058  4547 net.cpp:104] Top shape: 128 1024 1 1 (131072)
I0311 16:29:35.680071  4547 layer_factory.hpp:78] Creating layer loss2/drop_fc
I0311 16:29:35.680088  4547 net.cpp:68] Creating Layer loss2/drop_fc
I0311 16:29:35.680101  4547 net.cpp:395] loss2/drop_fc <- loss2/fc
I0311 16:29:35.680115  4547 net.cpp:346] loss2/drop_fc -> loss2/fc (in-place)
I0311 16:29:35.680130  4547 net.cpp:97] Setting up loss2/drop_fc
I0311 16:29:35.680142  4547 net.cpp:104] Top shape: 128 1024 1 1 (131072)
I0311 16:29:35.680153  4547 layer_factory.hpp:78] Creating layer loss2/classifier
I0311 16:29:35.680166  4547 net.cpp:68] Creating Layer loss2/classifier
I0311 16:29:35.680181  4547 net.cpp:395] loss2/classifier <- loss2/fc
I0311 16:29:35.680196  4547 net.cpp:357] loss2/classifier -> loss2/classifier
I0311 16:29:35.680212  4547 net.cpp:97] Setting up loss2/classifier
I0311 16:29:35.681586  4547 net.cpp:104] Top shape: 128 121 1 1 (15488)
I0311 16:29:35.681612  4547 layer_factory.hpp:78] Creating layer loss2/loss
I0311 16:29:35.681628  4547 net.cpp:68] Creating Layer loss2/loss
I0311 16:29:35.681641  4547 net.cpp:395] loss2/loss <- loss2/classifier
I0311 16:29:35.681655  4547 net.cpp:395] loss2/loss <- label_data_1_split_1
I0311 16:29:35.681670  4547 net.cpp:357] loss2/loss -> loss2/loss1
I0311 16:29:35.681689  4547 net.cpp:97] Setting up loss2/loss
I0311 16:29:35.681704  4547 layer_factory.hpp:78] Creating layer loss2/loss
I0311 16:29:35.681764  4547 net.cpp:104] Top shape: 1 1 1 1 (1)
I0311 16:29:35.681781  4547 net.cpp:110]     with loss weight 0.3
I0311 16:29:35.681810  4547 layer_factory.hpp:78] Creating layer inception_4e/1x1
I0311 16:29:35.681825  4547 net.cpp:68] Creating Layer inception_4e/1x1
I0311 16:29:35.681838  4547 net.cpp:395] inception_4e/1x1 <- inception_4d/output_inception_4d/output_0_split_1
I0311 16:29:35.681855  4547 net.cpp:357] inception_4e/1x1 -> inception_4e/1x1
I0311 16:29:35.681890  4547 net.cpp:97] Setting up inception_4e/1x1
I0311 16:29:35.683451  4547 net.cpp:104] Top shape: 128 256 5 5 (819200)
I0311 16:29:35.683480  4547 layer_factory.hpp:78] Creating layer inception_4e/relu_1x1
I0311 16:29:35.683496  4547 net.cpp:68] Creating Layer inception_4e/relu_1x1
I0311 16:29:35.683511  4547 net.cpp:395] inception_4e/relu_1x1 <- inception_4e/1x1
I0311 16:29:35.683524  4547 net.cpp:346] inception_4e/relu_1x1 -> inception_4e/1x1 (in-place)
I0311 16:29:35.683548  4547 net.cpp:97] Setting up inception_4e/relu_1x1
I0311 16:29:35.683563  4547 net.cpp:104] Top shape: 128 256 5 5 (819200)
I0311 16:29:35.683575  4547 layer_factory.hpp:78] Creating layer inception_4e/3x3_reduce
I0311 16:29:35.683590  4547 net.cpp:68] Creating Layer inception_4e/3x3_reduce
I0311 16:29:35.683603  4547 net.cpp:395] inception_4e/3x3_reduce <- inception_4d/output_inception_4d/output_0_split_2
I0311 16:29:35.683617  4547 net.cpp:357] inception_4e/3x3_reduce -> inception_4e/3x3_reduce
I0311 16:29:35.683632  4547 net.cpp:97] Setting up inception_4e/3x3_reduce
I0311 16:29:35.684633  4547 net.cpp:104] Top shape: 128 160 5 5 (512000)
I0311 16:29:35.684659  4547 layer_factory.hpp:78] Creating layer inception_4e/relu_3x3_reduce
I0311 16:29:35.684674  4547 net.cpp:68] Creating Layer inception_4e/relu_3x3_reduce
I0311 16:29:35.684686  4547 net.cpp:395] inception_4e/relu_3x3_reduce <- inception_4e/3x3_reduce
I0311 16:29:35.684702  4547 net.cpp:346] inception_4e/relu_3x3_reduce -> inception_4e/3x3_reduce (in-place)
I0311 16:29:35.684718  4547 net.cpp:97] Setting up inception_4e/relu_3x3_reduce
I0311 16:29:35.684734  4547 net.cpp:104] Top shape: 128 160 5 5 (512000)
I0311 16:29:35.684746  4547 layer_factory.hpp:78] Creating layer inception_4e/3x3
I0311 16:29:35.684762  4547 net.cpp:68] Creating Layer inception_4e/3x3
I0311 16:29:35.684772  4547 net.cpp:395] inception_4e/3x3 <- inception_4e/3x3_reduce
I0311 16:29:35.684790  4547 net.cpp:357] inception_4e/3x3 -> inception_4e/3x3
I0311 16:29:35.684805  4547 net.cpp:97] Setting up inception_4e/3x3
I0311 16:29:35.689862  4547 net.cpp:104] Top shape: 128 320 5 5 (1024000)
I0311 16:29:35.689889  4547 layer_factory.hpp:78] Creating layer inception_4e/relu_3x3
I0311 16:29:35.689905  4547 net.cpp:68] Creating Layer inception_4e/relu_3x3
I0311 16:29:35.689918  4547 net.cpp:395] inception_4e/relu_3x3 <- inception_4e/3x3
I0311 16:29:35.689944  4547 net.cpp:346] inception_4e/relu_3x3 -> inception_4e/3x3 (in-place)
I0311 16:29:35.689960  4547 net.cpp:97] Setting up inception_4e/relu_3x3
I0311 16:29:35.689976  4547 net.cpp:104] Top shape: 128 320 5 5 (1024000)
I0311 16:29:35.689988  4547 layer_factory.hpp:78] Creating layer inception_4e/5x5_reduce
I0311 16:29:35.690002  4547 net.cpp:68] Creating Layer inception_4e/5x5_reduce
I0311 16:29:35.690016  4547 net.cpp:395] inception_4e/5x5_reduce <- inception_4d/output_inception_4d/output_0_split_3
I0311 16:29:35.690032  4547 net.cpp:357] inception_4e/5x5_reduce -> inception_4e/5x5_reduce
I0311 16:29:35.690048  4547 net.cpp:97] Setting up inception_4e/5x5_reduce
I0311 16:29:35.690290  4547 net.cpp:104] Top shape: 128 32 5 5 (102400)
I0311 16:29:35.690314  4547 layer_factory.hpp:78] Creating layer inception_4e/relu_5x5_reduce
I0311 16:29:35.690330  4547 net.cpp:68] Creating Layer inception_4e/relu_5x5_reduce
I0311 16:29:35.690343  4547 net.cpp:395] inception_4e/relu_5x5_reduce <- inception_4e/5x5_reduce
I0311 16:29:35.690357  4547 net.cpp:346] inception_4e/relu_5x5_reduce -> inception_4e/5x5_reduce (in-place)
I0311 16:29:35.690371  4547 net.cpp:97] Setting up inception_4e/relu_5x5_reduce
I0311 16:29:35.690387  4547 net.cpp:104] Top shape: 128 32 5 5 (102400)
I0311 16:29:35.690398  4547 layer_factory.hpp:78] Creating layer inception_4e/5x5
I0311 16:29:35.690433  4547 net.cpp:68] Creating Layer inception_4e/5x5
I0311 16:29:35.690449  4547 net.cpp:395] inception_4e/5x5 <- inception_4e/5x5_reduce
I0311 16:29:35.690465  4547 net.cpp:357] inception_4e/5x5 -> inception_4e/5x5
I0311 16:29:35.690481  4547 net.cpp:97] Setting up inception_4e/5x5
I0311 16:29:35.691949  4547 net.cpp:104] Top shape: 128 128 5 5 (409600)
I0311 16:29:35.691984  4547 layer_factory.hpp:78] Creating layer inception_4e/relu_5x5
I0311 16:29:35.692001  4547 net.cpp:68] Creating Layer inception_4e/relu_5x5
I0311 16:29:35.692014  4547 net.cpp:395] inception_4e/relu_5x5 <- inception_4e/5x5
I0311 16:29:35.692030  4547 net.cpp:346] inception_4e/relu_5x5 -> inception_4e/5x5 (in-place)
I0311 16:29:35.692045  4547 net.cpp:97] Setting up inception_4e/relu_5x5
I0311 16:29:35.692061  4547 net.cpp:104] Top shape: 128 128 5 5 (409600)
I0311 16:29:35.692073  4547 layer_factory.hpp:78] Creating layer inception_4e/pool
I0311 16:29:35.692085  4547 layer_factory.cpp:51] CUDNN does not support padding or multiple tops. Using Caffe's own pooling layer.
I0311 16:29:35.692098  4547 net.cpp:68] Creating Layer inception_4e/pool
I0311 16:29:35.692111  4547 net.cpp:395] inception_4e/pool <- inception_4d/output_inception_4d/output_0_split_4
I0311 16:29:35.692128  4547 net.cpp:357] inception_4e/pool -> inception_4e/pool
I0311 16:29:35.692144  4547 net.cpp:97] Setting up inception_4e/pool
I0311 16:29:35.692158  4547 net.cpp:104] Top shape: 128 528 5 5 (1689600)
I0311 16:29:35.692169  4547 layer_factory.hpp:78] Creating layer inception_4e/pool_proj
I0311 16:29:35.692188  4547 net.cpp:68] Creating Layer inception_4e/pool_proj
I0311 16:29:35.692199  4547 net.cpp:395] inception_4e/pool_proj <- inception_4e/pool
I0311 16:29:35.692214  4547 net.cpp:357] inception_4e/pool_proj -> inception_4e/pool_proj
I0311 16:29:35.692229  4547 net.cpp:97] Setting up inception_4e/pool_proj
I0311 16:29:35.692999  4547 net.cpp:104] Top shape: 128 128 5 5 (409600)
I0311 16:29:35.693025  4547 layer_factory.hpp:78] Creating layer inception_4e/relu_pool_proj
I0311 16:29:35.693039  4547 net.cpp:68] Creating Layer inception_4e/relu_pool_proj
I0311 16:29:35.693053  4547 net.cpp:395] inception_4e/relu_pool_proj <- inception_4e/pool_proj
I0311 16:29:35.693069  4547 net.cpp:346] inception_4e/relu_pool_proj -> inception_4e/pool_proj (in-place)
I0311 16:29:35.693089  4547 net.cpp:97] Setting up inception_4e/relu_pool_proj
I0311 16:29:35.693106  4547 net.cpp:104] Top shape: 128 128 5 5 (409600)
I0311 16:29:35.693119  4547 layer_factory.hpp:78] Creating layer inception_4e/output
I0311 16:29:35.693131  4547 net.cpp:68] Creating Layer inception_4e/output
I0311 16:29:35.693143  4547 net.cpp:395] inception_4e/output <- inception_4e/1x1
I0311 16:29:35.693156  4547 net.cpp:395] inception_4e/output <- inception_4e/3x3
I0311 16:29:35.693168  4547 net.cpp:395] inception_4e/output <- inception_4e/5x5
I0311 16:29:35.693181  4547 net.cpp:395] inception_4e/output <- inception_4e/pool_proj
I0311 16:29:35.693197  4547 net.cpp:357] inception_4e/output -> inception_4e/output
I0311 16:29:35.693212  4547 net.cpp:97] Setting up inception_4e/output
I0311 16:29:35.693225  4547 net.cpp:104] Top shape: 128 832 5 5 (2662400)
I0311 16:29:35.693236  4547 layer_factory.hpp:78] Creating layer pool4/3x3_s2
I0311 16:29:35.693250  4547 net.cpp:68] Creating Layer pool4/3x3_s2
I0311 16:29:35.693263  4547 net.cpp:395] pool4/3x3_s2 <- inception_4e/output
I0311 16:29:35.693277  4547 net.cpp:357] pool4/3x3_s2 -> pool4/3x3_s2
I0311 16:29:35.693291  4547 net.cpp:97] Setting up pool4/3x3_s2
I0311 16:29:35.693310  4547 net.cpp:104] Top shape: 128 832 2 2 (425984)
I0311 16:29:35.693322  4547 layer_factory.hpp:78] Creating layer pool4/3x3_s2_pool4/3x3_s2_0_split
I0311 16:29:35.693339  4547 net.cpp:68] Creating Layer pool4/3x3_s2_pool4/3x3_s2_0_split
I0311 16:29:35.693351  4547 net.cpp:395] pool4/3x3_s2_pool4/3x3_s2_0_split <- pool4/3x3_s2
I0311 16:29:35.693366  4547 net.cpp:357] pool4/3x3_s2_pool4/3x3_s2_0_split -> pool4/3x3_s2_pool4/3x3_s2_0_split_0
I0311 16:29:35.693382  4547 net.cpp:357] pool4/3x3_s2_pool4/3x3_s2_0_split -> pool4/3x3_s2_pool4/3x3_s2_0_split_1
I0311 16:29:35.693397  4547 net.cpp:357] pool4/3x3_s2_pool4/3x3_s2_0_split -> pool4/3x3_s2_pool4/3x3_s2_0_split_2
I0311 16:29:35.693413  4547 net.cpp:357] pool4/3x3_s2_pool4/3x3_s2_0_split -> pool4/3x3_s2_pool4/3x3_s2_0_split_3
I0311 16:29:35.693447  4547 net.cpp:97] Setting up pool4/3x3_s2_pool4/3x3_s2_0_split
I0311 16:29:35.693462  4547 net.cpp:104] Top shape: 128 832 2 2 (425984)
I0311 16:29:35.693474  4547 net.cpp:104] Top shape: 128 832 2 2 (425984)
I0311 16:29:35.693485  4547 net.cpp:104] Top shape: 128 832 2 2 (425984)
I0311 16:29:35.693495  4547 net.cpp:104] Top shape: 128 832 2 2 (425984)
I0311 16:29:35.693506  4547 layer_factory.hpp:78] Creating layer inception_5a/1x1
I0311 16:29:35.693521  4547 net.cpp:68] Creating Layer inception_5a/1x1
I0311 16:29:35.693532  4547 net.cpp:395] inception_5a/1x1 <- pool4/3x3_s2_pool4/3x3_s2_0_split_0
I0311 16:29:35.693549  4547 net.cpp:357] inception_5a/1x1 -> inception_5a/1x1
I0311 16:29:35.693565  4547 net.cpp:97] Setting up inception_5a/1x1
I0311 16:29:35.695787  4547 net.cpp:104] Top shape: 128 256 2 2 (131072)
I0311 16:29:35.695817  4547 layer_factory.hpp:78] Creating layer inception_5a/relu_1x1
I0311 16:29:35.695832  4547 net.cpp:68] Creating Layer inception_5a/relu_1x1
I0311 16:29:35.695845  4547 net.cpp:395] inception_5a/relu_1x1 <- inception_5a/1x1
I0311 16:29:35.695859  4547 net.cpp:346] inception_5a/relu_1x1 -> inception_5a/1x1 (in-place)
I0311 16:29:35.695878  4547 net.cpp:97] Setting up inception_5a/relu_1x1
I0311 16:29:35.695895  4547 net.cpp:104] Top shape: 128 256 2 2 (131072)
I0311 16:29:35.695906  4547 layer_factory.hpp:78] Creating layer inception_5a/3x3_reduce
I0311 16:29:35.695924  4547 net.cpp:68] Creating Layer inception_5a/3x3_reduce
I0311 16:29:35.695935  4547 net.cpp:395] inception_5a/3x3_reduce <- pool4/3x3_s2_pool4/3x3_s2_0_split_1
I0311 16:29:35.695950  4547 net.cpp:357] inception_5a/3x3_reduce -> inception_5a/3x3_reduce
I0311 16:29:35.695966  4547 net.cpp:97] Setting up inception_5a/3x3_reduce
I0311 16:29:35.697409  4547 net.cpp:104] Top shape: 128 160 2 2 (81920)
I0311 16:29:35.697435  4547 layer_factory.hpp:78] Creating layer inception_5a/relu_3x3_reduce
I0311 16:29:35.697453  4547 net.cpp:68] Creating Layer inception_5a/relu_3x3_reduce
I0311 16:29:35.697466  4547 net.cpp:395] inception_5a/relu_3x3_reduce <- inception_5a/3x3_reduce
I0311 16:29:35.697480  4547 net.cpp:346] inception_5a/relu_3x3_reduce -> inception_5a/3x3_reduce (in-place)
I0311 16:29:35.697496  4547 net.cpp:97] Setting up inception_5a/relu_3x3_reduce
I0311 16:29:35.697512  4547 net.cpp:104] Top shape: 128 160 2 2 (81920)
I0311 16:29:35.697525  4547 layer_factory.hpp:78] Creating layer inception_5a/3x3
I0311 16:29:35.697538  4547 net.cpp:68] Creating Layer inception_5a/3x3
I0311 16:29:35.697549  4547 net.cpp:395] inception_5a/3x3 <- inception_5a/3x3_reduce
I0311 16:29:35.697566  4547 net.cpp:357] inception_5a/3x3 -> inception_5a/3x3
I0311 16:29:35.697582  4547 net.cpp:97] Setting up inception_5a/3x3
I0311 16:29:35.702332  4547 net.cpp:104] Top shape: 128 320 2 2 (163840)
I0311 16:29:35.702359  4547 layer_factory.hpp:78] Creating layer inception_5a/relu_3x3
I0311 16:29:35.702374  4547 net.cpp:68] Creating Layer inception_5a/relu_3x3
I0311 16:29:35.702388  4547 net.cpp:395] inception_5a/relu_3x3 <- inception_5a/3x3
I0311 16:29:35.702401  4547 net.cpp:346] inception_5a/relu_3x3 -> inception_5a/3x3 (in-place)
I0311 16:29:35.702425  4547 net.cpp:97] Setting up inception_5a/relu_3x3
I0311 16:29:35.702446  4547 net.cpp:104] Top shape: 128 320 2 2 (163840)
I0311 16:29:35.702457  4547 layer_factory.hpp:78] Creating layer inception_5a/5x5_reduce
I0311 16:29:35.702474  4547 net.cpp:68] Creating Layer inception_5a/5x5_reduce
I0311 16:29:35.702487  4547 net.cpp:395] inception_5a/5x5_reduce <- pool4/3x3_s2_pool4/3x3_s2_0_split_2
I0311 16:29:35.702504  4547 net.cpp:357] inception_5a/5x5_reduce -> inception_5a/5x5_reduce
I0311 16:29:35.702520  4547 net.cpp:97] Setting up inception_5a/5x5_reduce
I0311 16:29:35.703001  4547 net.cpp:104] Top shape: 128 32 2 2 (16384)
I0311 16:29:35.703028  4547 layer_factory.hpp:78] Creating layer inception_5a/relu_5x5_reduce
I0311 16:29:35.703047  4547 net.cpp:68] Creating Layer inception_5a/relu_5x5_reduce
I0311 16:29:35.703059  4547 net.cpp:395] inception_5a/relu_5x5_reduce <- inception_5a/5x5_reduce
I0311 16:29:35.703097  4547 net.cpp:346] inception_5a/relu_5x5_reduce -> inception_5a/5x5_reduce (in-place)
I0311 16:29:35.703114  4547 net.cpp:97] Setting up inception_5a/relu_5x5_reduce
I0311 16:29:35.703130  4547 net.cpp:104] Top shape: 128 32 2 2 (16384)
I0311 16:29:35.703142  4547 layer_factory.hpp:78] Creating layer inception_5a/5x5
I0311 16:29:35.703161  4547 net.cpp:68] Creating Layer inception_5a/5x5
I0311 16:29:35.703172  4547 net.cpp:395] inception_5a/5x5 <- inception_5a/5x5_reduce
I0311 16:29:35.703187  4547 net.cpp:357] inception_5a/5x5 -> inception_5a/5x5
I0311 16:29:35.703202  4547 net.cpp:97] Setting up inception_5a/5x5
I0311 16:29:35.704313  4547 net.cpp:104] Top shape: 128 128 2 2 (65536)
I0311 16:29:35.704339  4547 layer_factory.hpp:78] Creating layer inception_5a/relu_5x5
I0311 16:29:35.704355  4547 net.cpp:68] Creating Layer inception_5a/relu_5x5
I0311 16:29:35.704367  4547 net.cpp:395] inception_5a/relu_5x5 <- inception_5a/5x5
I0311 16:29:35.704383  4547 net.cpp:346] inception_5a/relu_5x5 -> inception_5a/5x5 (in-place)
I0311 16:29:35.704401  4547 net.cpp:97] Setting up inception_5a/relu_5x5
I0311 16:29:35.704417  4547 net.cpp:104] Top shape: 128 128 2 2 (65536)
I0311 16:29:35.704429  4547 layer_factory.hpp:78] Creating layer inception_5a/pool
I0311 16:29:35.704440  4547 layer_factory.cpp:51] CUDNN does not support padding or multiple tops. Using Caffe's own pooling layer.
I0311 16:29:35.704453  4547 net.cpp:68] Creating Layer inception_5a/pool
I0311 16:29:35.704465  4547 net.cpp:395] inception_5a/pool <- pool4/3x3_s2_pool4/3x3_s2_0_split_3
I0311 16:29:35.704483  4547 net.cpp:357] inception_5a/pool -> inception_5a/pool
I0311 16:29:35.704499  4547 net.cpp:97] Setting up inception_5a/pool
I0311 16:29:35.704512  4547 net.cpp:104] Top shape: 128 832 2 2 (425984)
I0311 16:29:35.704524  4547 layer_factory.hpp:78] Creating layer inception_5a/pool_proj
I0311 16:29:35.704538  4547 net.cpp:68] Creating Layer inception_5a/pool_proj
I0311 16:29:35.704550  4547 net.cpp:395] inception_5a/pool_proj <- inception_5a/pool
I0311 16:29:35.704567  4547 net.cpp:357] inception_5a/pool_proj -> inception_5a/pool_proj
I0311 16:29:35.704583  4547 net.cpp:97] Setting up inception_5a/pool_proj
I0311 16:29:35.705749  4547 net.cpp:104] Top shape: 128 128 2 2 (65536)
I0311 16:29:35.705775  4547 layer_factory.hpp:78] Creating layer inception_5a/relu_pool_proj
I0311 16:29:35.705792  4547 net.cpp:68] Creating Layer inception_5a/relu_pool_proj
I0311 16:29:35.705806  4547 net.cpp:395] inception_5a/relu_pool_proj <- inception_5a/pool_proj
I0311 16:29:35.705821  4547 net.cpp:346] inception_5a/relu_pool_proj -> inception_5a/pool_proj (in-place)
I0311 16:29:35.705837  4547 net.cpp:97] Setting up inception_5a/relu_pool_proj
I0311 16:29:35.705853  4547 net.cpp:104] Top shape: 128 128 2 2 (65536)
I0311 16:29:35.705865  4547 layer_factory.hpp:78] Creating layer inception_5a/output
I0311 16:29:35.705878  4547 net.cpp:68] Creating Layer inception_5a/output
I0311 16:29:35.705890  4547 net.cpp:395] inception_5a/output <- inception_5a/1x1
I0311 16:29:35.705904  4547 net.cpp:395] inception_5a/output <- inception_5a/3x3
I0311 16:29:35.705915  4547 net.cpp:395] inception_5a/output <- inception_5a/5x5
I0311 16:29:35.705929  4547 net.cpp:395] inception_5a/output <- inception_5a/pool_proj
I0311 16:29:35.705941  4547 net.cpp:357] inception_5a/output -> inception_5a/output
I0311 16:29:35.705955  4547 net.cpp:97] Setting up inception_5a/output
I0311 16:29:35.705967  4547 net.cpp:104] Top shape: 128 832 2 2 (425984)
I0311 16:29:35.705978  4547 layer_factory.hpp:78] Creating layer inception_5a/output_inception_5a/output_0_split
I0311 16:29:35.705994  4547 net.cpp:68] Creating Layer inception_5a/output_inception_5a/output_0_split
I0311 16:29:35.706007  4547 net.cpp:395] inception_5a/output_inception_5a/output_0_split <- inception_5a/output
I0311 16:29:35.706022  4547 net.cpp:357] inception_5a/output_inception_5a/output_0_split -> inception_5a/output_inception_5a/output_0_split_0
I0311 16:29:35.706037  4547 net.cpp:357] inception_5a/output_inception_5a/output_0_split -> inception_5a/output_inception_5a/output_0_split_1
I0311 16:29:35.706071  4547 net.cpp:357] inception_5a/output_inception_5a/output_0_split -> inception_5a/output_inception_5a/output_0_split_2
I0311 16:29:35.706094  4547 net.cpp:357] inception_5a/output_inception_5a/output_0_split -> inception_5a/output_inception_5a/output_0_split_3
I0311 16:29:35.706109  4547 net.cpp:97] Setting up inception_5a/output_inception_5a/output_0_split
I0311 16:29:35.706121  4547 net.cpp:104] Top shape: 128 832 2 2 (425984)
I0311 16:29:35.706138  4547 net.cpp:104] Top shape: 128 832 2 2 (425984)
I0311 16:29:35.706149  4547 net.cpp:104] Top shape: 128 832 2 2 (425984)
I0311 16:29:35.706161  4547 net.cpp:104] Top shape: 128 832 2 2 (425984)
I0311 16:29:35.706171  4547 layer_factory.hpp:78] Creating layer inception_5b/1x1
I0311 16:29:35.706184  4547 net.cpp:68] Creating Layer inception_5b/1x1
I0311 16:29:35.706197  4547 net.cpp:395] inception_5b/1x1 <- inception_5a/output_inception_5a/output_0_split_0
I0311 16:29:35.706213  4547 net.cpp:357] inception_5b/1x1 -> inception_5b/1x1
I0311 16:29:35.706229  4547 net.cpp:97] Setting up inception_5b/1x1
I0311 16:29:35.709736  4547 net.cpp:104] Top shape: 128 384 2 2 (196608)
I0311 16:29:35.709764  4547 layer_factory.hpp:78] Creating layer inception_5b/relu_1x1
I0311 16:29:35.709779  4547 net.cpp:68] Creating Layer inception_5b/relu_1x1
I0311 16:29:35.709790  4547 net.cpp:395] inception_5b/relu_1x1 <- inception_5b/1x1
I0311 16:29:35.709805  4547 net.cpp:346] inception_5b/relu_1x1 -> inception_5b/1x1 (in-place)
I0311 16:29:35.709821  4547 net.cpp:97] Setting up inception_5b/relu_1x1
I0311 16:29:35.709838  4547 net.cpp:104] Top shape: 128 384 2 2 (196608)
I0311 16:29:35.709849  4547 layer_factory.hpp:78] Creating layer inception_5b/3x3_reduce
I0311 16:29:35.709867  4547 net.cpp:68] Creating Layer inception_5b/3x3_reduce
I0311 16:29:35.709879  4547 net.cpp:395] inception_5b/3x3_reduce <- inception_5a/output_inception_5a/output_0_split_1
I0311 16:29:35.709895  4547 net.cpp:357] inception_5b/3x3_reduce -> inception_5b/3x3_reduce
I0311 16:29:35.709913  4547 net.cpp:97] Setting up inception_5b/3x3_reduce
I0311 16:29:35.711592  4547 net.cpp:104] Top shape: 128 192 2 2 (98304)
I0311 16:29:35.711622  4547 layer_factory.hpp:78] Creating layer inception_5b/relu_3x3_reduce
I0311 16:29:35.711637  4547 net.cpp:68] Creating Layer inception_5b/relu_3x3_reduce
I0311 16:29:35.711650  4547 net.cpp:395] inception_5b/relu_3x3_reduce <- inception_5b/3x3_reduce
I0311 16:29:35.711665  4547 net.cpp:346] inception_5b/relu_3x3_reduce -> inception_5b/3x3_reduce (in-place)
I0311 16:29:35.711686  4547 net.cpp:97] Setting up inception_5b/relu_3x3_reduce
I0311 16:29:35.711701  4547 net.cpp:104] Top shape: 128 192 2 2 (98304)
I0311 16:29:35.711712  4547 layer_factory.hpp:78] Creating layer inception_5b/3x3
I0311 16:29:35.711730  4547 net.cpp:68] Creating Layer inception_5b/3x3
I0311 16:29:35.711742  4547 net.cpp:395] inception_5b/3x3 <- inception_5b/3x3_reduce
I0311 16:29:35.711756  4547 net.cpp:357] inception_5b/3x3 -> inception_5b/3x3
I0311 16:29:35.711792  4547 net.cpp:97] Setting up inception_5b/3x3
I0311 16:29:35.718727  4547 net.cpp:104] Top shape: 128 384 2 2 (196608)
I0311 16:29:35.718761  4547 layer_factory.hpp:78] Creating layer inception_5b/relu_3x3
I0311 16:29:35.718777  4547 net.cpp:68] Creating Layer inception_5b/relu_3x3
I0311 16:29:35.718791  4547 net.cpp:395] inception_5b/relu_3x3 <- inception_5b/3x3
I0311 16:29:35.718806  4547 net.cpp:346] inception_5b/relu_3x3 -> inception_5b/3x3 (in-place)
I0311 16:29:35.718822  4547 net.cpp:97] Setting up inception_5b/relu_3x3
I0311 16:29:35.718837  4547 net.cpp:104] Top shape: 128 384 2 2 (196608)
I0311 16:29:35.718849  4547 layer_factory.hpp:78] Creating layer inception_5b/5x5_reduce
I0311 16:29:35.718868  4547 net.cpp:68] Creating Layer inception_5b/5x5_reduce
I0311 16:29:35.718880  4547 net.cpp:395] inception_5b/5x5_reduce <- inception_5a/output_inception_5a/output_0_split_2
I0311 16:29:35.718895  4547 net.cpp:357] inception_5b/5x5_reduce -> inception_5b/5x5_reduce
I0311 16:29:35.718940  4547 net.cpp:97] Setting up inception_5b/5x5_reduce
I0311 16:29:35.719456  4547 net.cpp:104] Top shape: 128 48 2 2 (24576)
I0311 16:29:35.719483  4547 layer_factory.hpp:78] Creating layer inception_5b/relu_5x5_reduce
I0311 16:29:35.719498  4547 net.cpp:68] Creating Layer inception_5b/relu_5x5_reduce
I0311 16:29:35.719511  4547 net.cpp:395] inception_5b/relu_5x5_reduce <- inception_5b/5x5_reduce
I0311 16:29:35.719528  4547 net.cpp:346] inception_5b/relu_5x5_reduce -> inception_5b/5x5_reduce (in-place)
I0311 16:29:35.719547  4547 net.cpp:97] Setting up inception_5b/relu_5x5_reduce
I0311 16:29:35.719563  4547 net.cpp:104] Top shape: 128 48 2 2 (24576)
I0311 16:29:35.719574  4547 layer_factory.hpp:78] Creating layer inception_5b/5x5
I0311 16:29:35.719589  4547 net.cpp:68] Creating Layer inception_5b/5x5
I0311 16:29:35.719601  4547 net.cpp:395] inception_5b/5x5 <- inception_5b/5x5_reduce
I0311 16:29:35.719619  4547 net.cpp:357] inception_5b/5x5 -> inception_5b/5x5
I0311 16:29:35.719635  4547 net.cpp:97] Setting up inception_5b/5x5
I0311 16:29:35.721271  4547 net.cpp:104] Top shape: 128 128 2 2 (65536)
I0311 16:29:35.721297  4547 layer_factory.hpp:78] Creating layer inception_5b/relu_5x5
I0311 16:29:35.721315  4547 net.cpp:68] Creating Layer inception_5b/relu_5x5
I0311 16:29:35.721328  4547 net.cpp:395] inception_5b/relu_5x5 <- inception_5b/5x5
I0311 16:29:35.721343  4547 net.cpp:346] inception_5b/relu_5x5 -> inception_5b/5x5 (in-place)
I0311 16:29:35.721364  4547 net.cpp:97] Setting up inception_5b/relu_5x5
I0311 16:29:35.721379  4547 net.cpp:104] Top shape: 128 128 2 2 (65536)
I0311 16:29:35.721390  4547 layer_factory.hpp:78] Creating layer inception_5b/pool
I0311 16:29:35.721402  4547 layer_factory.cpp:51] CUDNN does not support padding or multiple tops. Using Caffe's own pooling layer.
I0311 16:29:35.721418  4547 net.cpp:68] Creating Layer inception_5b/pool
I0311 16:29:35.721431  4547 net.cpp:395] inception_5b/pool <- inception_5a/output_inception_5a/output_0_split_3
I0311 16:29:35.721446  4547 net.cpp:357] inception_5b/pool -> inception_5b/pool
I0311 16:29:35.721460  4547 net.cpp:97] Setting up inception_5b/pool
I0311 16:29:35.721474  4547 net.cpp:104] Top shape: 128 832 2 2 (425984)
I0311 16:29:35.721487  4547 layer_factory.hpp:78] Creating layer inception_5b/pool_proj
I0311 16:29:35.721500  4547 net.cpp:68] Creating Layer inception_5b/pool_proj
I0311 16:29:35.721513  4547 net.cpp:395] inception_5b/pool_proj <- inception_5b/pool
I0311 16:29:35.721529  4547 net.cpp:357] inception_5b/pool_proj -> inception_5b/pool_proj
I0311 16:29:35.721545  4547 net.cpp:97] Setting up inception_5b/pool_proj
I0311 16:29:35.722693  4547 net.cpp:104] Top shape: 128 128 2 2 (65536)
I0311 16:29:35.722723  4547 layer_factory.hpp:78] Creating layer inception_5b/relu_pool_proj
I0311 16:29:35.722738  4547 net.cpp:68] Creating Layer inception_5b/relu_pool_proj
I0311 16:29:35.722751  4547 net.cpp:395] inception_5b/relu_pool_proj <- inception_5b/pool_proj
I0311 16:29:35.722765  4547 net.cpp:346] inception_5b/relu_pool_proj -> inception_5b/pool_proj (in-place)
I0311 16:29:35.722782  4547 net.cpp:97] Setting up inception_5b/relu_pool_proj
I0311 16:29:35.722797  4547 net.cpp:104] Top shape: 128 128 2 2 (65536)
I0311 16:29:35.722810  4547 layer_factory.hpp:78] Creating layer inception_5b/output
I0311 16:29:35.722823  4547 net.cpp:68] Creating Layer inception_5b/output
I0311 16:29:35.722836  4547 net.cpp:395] inception_5b/output <- inception_5b/1x1
I0311 16:29:35.722847  4547 net.cpp:395] inception_5b/output <- inception_5b/3x3
I0311 16:29:35.722861  4547 net.cpp:395] inception_5b/output <- inception_5b/5x5
I0311 16:29:35.722872  4547 net.cpp:395] inception_5b/output <- inception_5b/pool_proj
I0311 16:29:35.722890  4547 net.cpp:357] inception_5b/output -> inception_5b/output
I0311 16:29:35.722905  4547 net.cpp:97] Setting up inception_5b/output
I0311 16:29:35.722918  4547 net.cpp:104] Top shape: 128 1024 2 2 (524288)
I0311 16:29:35.722929  4547 layer_factory.hpp:78] Creating layer pool5/7x7_s1
I0311 16:29:35.722959  4547 net.cpp:68] Creating Layer pool5/7x7_s1
I0311 16:29:35.722973  4547 net.cpp:395] pool5/7x7_s1 <- inception_5b/output
I0311 16:29:35.722990  4547 net.cpp:357] pool5/7x7_s1 -> pool5/7x7_s1
I0311 16:29:35.723006  4547 net.cpp:97] Setting up pool5/7x7_s1
I0311 16:29:35.723024  4547 net.cpp:104] Top shape: 128 1024 1 1 (131072)
I0311 16:29:35.723037  4547 layer_factory.hpp:78] Creating layer pool5/drop_7x7_s1
I0311 16:29:35.723052  4547 net.cpp:68] Creating Layer pool5/drop_7x7_s1
I0311 16:29:35.723062  4547 net.cpp:395] pool5/drop_7x7_s1 <- pool5/7x7_s1
I0311 16:29:35.723075  4547 net.cpp:346] pool5/drop_7x7_s1 -> pool5/7x7_s1 (in-place)
I0311 16:29:35.723091  4547 net.cpp:97] Setting up pool5/drop_7x7_s1
I0311 16:29:35.723104  4547 net.cpp:104] Top shape: 128 1024 1 1 (131072)
I0311 16:29:35.723115  4547 layer_factory.hpp:78] Creating layer loss3/classifier
I0311 16:29:35.723132  4547 net.cpp:68] Creating Layer loss3/classifier
I0311 16:29:35.723145  4547 net.cpp:395] loss3/classifier <- pool5/7x7_s1
I0311 16:29:35.723160  4547 net.cpp:357] loss3/classifier -> loss3/classifier
I0311 16:29:35.723176  4547 net.cpp:97] Setting up loss3/classifier
I0311 16:29:35.724443  4547 net.cpp:104] Top shape: 128 121 1 1 (15488)
I0311 16:29:35.724469  4547 layer_factory.hpp:78] Creating layer loss3/loss3
I0311 16:29:35.724484  4547 net.cpp:68] Creating Layer loss3/loss3
I0311 16:29:35.724496  4547 net.cpp:395] loss3/loss3 <- loss3/classifier
I0311 16:29:35.724510  4547 net.cpp:395] loss3/loss3 <- label_data_1_split_2
I0311 16:29:35.724529  4547 net.cpp:357] loss3/loss3 -> loss3/loss3
I0311 16:29:35.724545  4547 net.cpp:97] Setting up loss3/loss3
I0311 16:29:35.724558  4547 layer_factory.hpp:78] Creating layer loss3/loss3
I0311 16:29:35.724617  4547 net.cpp:104] Top shape: 1 1 1 1 (1)
I0311 16:29:35.724632  4547 net.cpp:110]     with loss weight 1
I0311 16:29:35.724663  4547 net.cpp:171] loss3/loss3 needs backward computation.
I0311 16:29:35.724673  4547 net.cpp:171] loss3/classifier needs backward computation.
I0311 16:29:35.724684  4547 net.cpp:171] pool5/drop_7x7_s1 needs backward computation.
I0311 16:29:35.724695  4547 net.cpp:171] pool5/7x7_s1 needs backward computation.
…
  transform_param {
    mirror: true
    mean_file: "/media/data/kaggle/nationalDataScienceBowl/data/typeF/train_mean.binaryproto"
    affine_param {
      x_stretch_unirnd_range: 0.01
      y_stretch_unirnd_range: 0.01
      rotation_unirnd_range: 180
      max_translation: 5
      background_color: 255
    }
  }
  image_data_affine_param {
    source: "/media/data/kaggle/nationalDataScienceBowl/data/typeF/val.txt"
    scale: 0.00390625
    batch_size: 128
    shuffle: true
    new_size: 96
    is_color: false
    root_folder: "/media/data/kaggle/nationalDataScienceBowl/data/typeF/"
  }
}
layers {
  bottom: "data"
  top: "conv1/7x7_s2"
  name: "conv1/7x7_s2"
  type: CONVOLUTION
  blobs_lr: 1
  blobs_lr: 2
  weight_decay: 1
  weight_decay: 0
  convolution_param {
    num_output: 64
    pad: 0
    kernel_size: 4
    stride: 2
    weight_filler {
      type: "xavier"
      std: 0.1
    }
    bias_filler {
      type: "constant"
      value: 0.2
    }
  }
}
layers {
  bottom: "conv1/7x7_s2"
  top: "conv1/7x7_s2"
  name: "conv1/relu_7x7"
  type: RELU
}
layers {
  bottom: "conv1/7x7_s2"
  top: "pool1/3x3_s2"
  name: "pool1/3x3_s2"
  type: POOLING
  pooling_param {
    pool: MAX
    kernel_size: 3
    stride: 2
  }
}
layers {
  bottom: "pool1/3x3_s2"
  top: "pool1/norm1"
  name: "pool1/norm1"
  type: LRN
  lrn_param {
    local_size: 5
    alpha: 0.0001
    beta: 0.75
  }
}
layers {
  bottom: "pool1/norm1"
  top: "conv2/3x3_reduce"
  name: "conv2/3x3_reduce"
  type: CONVOLUTION
  blobs_lr: 1
  blobs_lr: 2
  weight_decay: 1
  weight_decay: 0
  convolution_param {
    num_output: 64
    kernel_size: 1
    weight_filler {
      type: "xavier"
      std: 0.1
    }
    bias_filler {
      type: "constant"
      value: 0.2
    }
  }
}
layers {
  bottom: "conv2/3x3_reduce"
  top: "conv2/3x3_reduce"
  name: "conv2/relu_3x3_reduce"
  type: RELU
}
layers {
  bottom: "conv2/3x3_reduce"
  top: "conv2/3x3"
  name: "conv2/3x3"
  type: CONVOLUTION
  blobs_lr: 1
  blobs_lr: 2
  weight_decay: 1
  weight_decay: 0
  convolution_param {
    num_output: 192
    pad: 1
    kernel_size: 3
    weight_filler {
      type: "xavier"
      std: 0.03
    }
    bias_filler {
      type: "constant"
      value: 0.2
    }
  }
}
layers {
  bottom: "conv2/3x3"
  top: "conv2/3x3"
  name: "conv2/relu_3x3"
  type: RELU
}
layers {
  bottom: "conv2/3x3"
  top: "conv2/norm2"
  name: "conv2/norm2"
  type: LRN
  lrn_param {
    local_size: 5
    alpha: 0.0001
    beta: 0.75
  }
}
layers {
  bottom: "conv2/norm2"
  top: "pool2/3x3_s2"
  name: "pool2/3x3_s2"
  type: POOLING
  pooling_param {
    pool: MAX
    kernel_size: 3
    stride: 2
  }
}
layers {
  bottom: "pool2/3x3_s2"
  top: "inception_3a/1x1"
  name: "inception_3a/1x1"
  type: CONVOLUTION
  blobs_lr: 1
  blobs_lr: 2
  weight_decay: 1
  weight_decay: 0
  convolution_param {
    num_output: 64
    kernel_size: 1
    weight_filler {
      type: "xavier"
      std: 0.03
    }
    bias_filler {
      type: "constant"
      value: 0.2
    }
  }
}
layers {
  bottom: "inception_3a/1x1"
  top: "inception_3a/1x1"
  name: "inception_3a/relu_1x1"
  type: RELU
}
layers {
  bottom: "pool2/3x3_s2"
  top: "inception_3a/3x3_reduce"
  name: "inception_3a/3x3_reduce"
  type: CONVOLUTION
  blobs_lr: 1
  blobs_lr: 2
  weight_decay: 1
  weight_decay: 0
  convolution_param {
    num_output: 96
    kernel_size: 1
    weight_filler {
      type: "xavier"
      std: 0.09
    }
    bias_filler {
      type: "constant"
      value: 0.2
    }
  }
}
layers {
  bottom: "inception_3a/3x3_reduce"
  top: "inception_3a/3x3_reduce"
  name: "inception_3a/relu_3x3_reduce"
  type: RELU
}
layers {
  bottom: "inception_3a/3x3_reduce"
  top: "inception_3a/3x3"
  name: "inception_3a/3x3"
  type: CONVOLUTION
  blobs_lr: 1
  blobs_lr: 2
  weight_decay: 1
  weight_decay: 0
  convolution_param {
    num_output: 128
    pad: 1
    kernel_size: 3
    weight_filler {
      type: "xavier"
      std: 0.03
    }
    bias_filler {
      type: "constant"
      value: 0.2
    }
  }
}
layers {
  bottom: "inception_3a/3x3"
  top: "inception_3a/3x3"
  name: "inception_3a/relu_3x3"
  type: RELU
}
layers {
  bottom: "pool2/3x3_s2"
  top: "inception_3a/5x5_reduce"
  name: "inception_3a/5x5_reduce"
  type: CONVOLUTION
  blobs_lr: 1
  blobs_lr: 2
  weight_decay: 1
  weight_decay: 0
  convolution_param {
    num_output: 16
    kernel_size: 1
    weight_filler {
      type: "xavier"
      std: 0.2
    }
    bias_filler {
      type: "constant"
      value: 0.2
    }
  }
}
layers {
  bottom: "inception_3a/5x5_reduce"
  top: "inception_3a/5x5_reduce"
  name: "inception_3a/relu_5x5_reduce"
  type: RELU
}
layers {
  bottom: "inception_3a/5x5_reduce"
  top: "inception_3a/5x5"
  name: "inception_3a/5x5"
  type: CONVOLUTION
  blobs_lr: 1
  blobs_lr: 2
  weight_decay: 1
  weight_decay: 0
  convolution_param {
    num_output: 32
    pad: 2
    kernel_size: 5
    weight_filler {
      type: "xavier"
      std: 0.03
    }
    bias_filler {
      type: "constant"
      value: 0.2
    }
  }
}
layers {
  bottom: "inception_3a/5x5"
  top: "inception_3a/5x5"
  name: "inception_3a/relu_5x5"
  type: RELU
}
layers {
  bottom: "pool2/3x3_s2"
  top: "inception_3a/pool"
  name: "inception_3a/pool"
  type: POOLING
  pooling_param {
    pool: MAX
    kernel_size: 3
    stride: 1
    pad: 1
  }
}
layers {
  bottom: "inception_3a/pool"
  top: "inception_3a/pool_proj"
  name: "inception_3a/pool_proj"
  type: CONVOLUTION
  blobs_lr: 1
  blobs_lr: 2
  weight_decay: 1
  weight_decay: 0
  convolution_param {
    num_output: 32
    kernel_size: 1
    weight_filler {
      type: "xavier"
      std: 0.1
    }
    bias_filler {
      type: "constant"
      value: 0.2
    }
  }
}
layers {
  bottom: "inception_3a/pool_proj"
  top: "inception_3a/pool_proj"
  name: "inception_3a/relu_pool_proj"
  type: RELU
}
layers {
  bottom: "inception_3a/1x1"
  bottom: "inception_3a/3x3"
  bottom: "inception_3a/5x5"
  bottom: "inception_3a/pool_proj"
  top: "inception_3a/output"
  name: "inception_3a/output"
  type: CONCAT
}
layers {
  bottom: "inception_3a/output"
  top: "inception_3b/1x1"
  name: "inception_3b/1x1"
  type: CONVOLUTION
  blobs_lr: 1
  blobs_lr: 2
  weight_decay: 1
  weight_decay: 0
  convolution_param {
    num_output: 128
    kernel_size: 1
    weight_filler {
      type: "xavier"
      std: 0.03
    }
    bias_filler {
      type: "constant"
      value: 0.2
    }
  }
}
layers {
  bottom: "inception_3b/1x1"
  top: "inception_3b/1x1"
  name: "inception_3b/relu_1x1"
  type: RELU
}
layers {
  bottom: "inception_3a/output"
  top: "inception_3b/3x3_reduce"
  name: "inception_3b/3x3_reduce"
  type: CONVOLUTION
  blobs_lr: 1
  blobs_lr: 2
  weight_decay: 1
  weight_decay: 0
  convolution_param {
    num_output: 128
    kernel_size: 1
    weight_filler {
      type: "xavier"
      std: 0.09
    }
    bias_filler {
      type: "constant"
      value: 0.2
    }
  }
}
layers {
  bottom: "inception_3b/3x3_reduce"
  top: "inception_3b/3x3_reduce"
  name: "inception_3b/relu_3x3_reduce"
  type: RELU
}
layers {
  bottom: "inception_3b/3x3_reduce"
  top: "inception_3b/3x3"
  name: "inception_3b/3x3"
  type: CONVOLUTION
  blobs_lr: 1
  blobs_lr: 2
  weight_decay: 1
  weight_decay: 0
  convolution_param {
    num_output: 192
    pad: 1
    kernel_size: 3
    weight_filler {
      type: "xavier"
      std: 0.03
    }
    bias_filler {
      type: "constant"
      value: 0.2
    }
  }
}
layers {
  bottom: "inception_3b/3x3"
  top: "inception_3b/3x3"
  name: "inception_3b/relu_3x3"
  type: RELU
}
layers {
  bottom: "inception_3a/output"
  top: "inception_3b/5x5_reduce"
  name: "inception_3b/5x5_reduce"
  type: CONVOLUTION
  blobs_lr: 1
  blobs_lr: 2
  weight_decay: 1
  weight_decay: 0
  convolution_param {
    num_output: 32
    kernel_size: 1
    weight_filler {
      type: "xavier"
      std: 0.2
    }
    bias_filler {
      type: "constant"
      value: 0.2
    }
  }
}
layers {
  bottom: "inception_3b/5x5_reduce"
  top: "inception_3b/5x5_reduce"
  name: "inception_3b/relu_5x5_reduce"
  type: RELU
}
layers {
  bottom: "inception_3b/5x5_reduce"
  top: "inception_3b/5x5"
  name: "inception_3b/5x5"
  type: CONVOLUTION
  blobs_lr: 1
  blobs_lr: 2
  weight_decay: 1
  weight_decay: 0
  convolution_param {
    num_output: 96
    pad: 2
    kernel_size: 5
    weight_filler {
      type: "xavier"
      std: 0.03
    }
    bias_filler {
      type: "constant"
      value: 0.2
    }
  }
}
layers {
  bottom: "inception_3b/5x5"
  top: "inception_3b/5x5"
  name: "inception_3b/relu_5x5"
  type: RELU
}
layers {
  bottom: "inception_3a/output"
  top: "inception_3b/pool"
  name: "inception_3b/pool"
  type: POOLING
  pooling_param {
    pool: MAX
    kernel_size: 3
    stride: 1
    pad: 1
  }
}
layers {
  bottom: "inception_3b/pool"
  top: "inception_3b/pool_proj"
  name: "inception_3b/pool_proj"
  type: CONVOLUTION
  blobs_lr: 1
  blobs_lr: 2
  weight_decay: 1
  weight_decay: 0
  convolution_param {
    num_output: 64
    kernel_size: 1
    weight_filler {
      type: "xavier"
      std: 0.1
    }
    bias_filler {
      type: "constant"
      value: 0.2
    }
  }
}
layers {
  bottom: "inception_3b/pool_proj"
  top: "inception_3b/pool_proj"
  name: "inception_3b/relu_pool_proj"
  type: RELU
}
layers {
  bottom: "inception_3b/1x1"
  bottom: "inception_3b/3x3"
  bottom: "inception_3b/5x5"
  bottom: "inception_3b/pool_proj"
  top: "inception_3b/output"
  name: "inception_3b/output"
  type: CONCAT
}
layers {
  bottom: "inception_3b/output"
  top: "pool3/3x3_s2"
  name: "pool3/3x3_s2"
  type: POOLING
  pooling_param {
    pool: MAX
    kernel_size: 3
    stride: 2
  }
}
layers {
  bottom: "pool3/3x3_s2"
  top: "inception_4a/1x1"
  name: "inception_4a/1x1"
  type: CONVOLUTION
  blobs_lr: 1
  blobs_lr: 2
  weight_decay: 1
  weight_decay: 0
  convolution_param {
    num_output: 192
    kernel_size: 1
    weight_filler {
      type: "xavier"
      std: 0.03
    }
    bias_filler {
      type: "constant"
      value: 0.2
    }
  }
}
layers {
  bottom: "inception_4a/1x1"
  top: "inception_4a/1x1"
  name: "inception_4a/relu_1x1"
  type: RELU
}
layers {
  bottom: "pool3/3x3_s2"
  top: "inception_4a/3x3_reduce"
  name: "inception_4a/3x3_reduce"
  type: CONVOLUTION
  blobs_lr: 1
  blobs_lr: 2
  weight_decay: 1
  weight_decay: 0
  convolution_param {
    num_output: 96
    kernel_size: 1
    weight_filler {
      type: "xavier"
      std: 0.09
    }
    bias_filler {
      type: "constant"
      value: 0.2
    }
  }
}
layers {
  bottom: "inception_4a/3x3_reduce"
  top: "inception_4a/3x3_reduce"
  name: "inception_4a/relu_3x3_reduce"
  type: RELU
}
layers {
  bottom: "inception_4a/3x3_reduce"
  top: "inception_4a/3x3"
  name: "inception_4a/3x3"
  type: CONVOLUTION
  blobs_lr: 1
  blobs_lr: 2
  weight_decay: 1
  weight_decay: 0
  convolution_param {
    num_output: 208
    pad: 1
    kernel_size: 3
    weight_filler {
      type: "xavier"
      std: 0.03
    }
    bias_filler {
      type: "constant"
      value: 0.2
    }
  }
}
layers {
  bottom: "inception_4a/3x3"
  top: "inception_4a/3x3"
  name: "inception_4a/relu_3x3"
  type: RELU
}
layers {
  bottom: "pool3/3x3_s2"
  top: "inception_4a/5x5_reduce"
  name: "inception_4a/5x5_reduce"
  type: CONVOLUTION
  blobs_lr: 1
  blobs_lr: 2
  weight_decay: 1
  weight_decay: 0
  convolution_param {
    num_output: 16
    kernel_size: 1
    weight_filler {
      type: "xavier"
      std: 0.2
    }
    bias_filler {
      type: "constant"
      value: 0.2
    }
  }
}
layers {
  bottom: "inception_4a/5x5_reduce"
  top: "inception_4a/5x5_reduce"
  name: "inception_4a/relu_5x5_reduce"
  type: RELU
}
layers {
  bottom: "inception_4a/5x5_reduce"
  top: "inception_4a/5x5"
  name: "inception_4a/5x5"
  type: CONVOLUTION
  blobs_lr: 1
  blobs_lr: 2
  weight_decay: 1
  weight_decay: 0
  convolution_param {
    num_output: 48
    pad: 2
    kernel_size: 5
    weight_filler {
      type: "xavier"
      std: 0.03
    }
    bias_filler {
      type: "constant"
      value: 0.2
    }
  }
}
layers {
  bottom: "inception_4a/5x5"
  top: "inception_4a/5x5"
  name: "inception_4a/relu_5x5"
  type: RELU
}
layers {
  bottom: "pool3/3x3_s2"
  top: "inception_4a/pool"
  name: "inception_4a/pool"
  type: POOLING
  pooling_param {
    pool: MAX
    kernel_size: 3
    stride: 1
    pad: 1
  }
}
layers {
  bottom: "inception_4a/pool"
  top: "inception_4a/pool_proj"
  name: "inception_4a/pool_proj"
  type: CONVOLUTION
  blobs_lr: 1
  blobs_lr: 2
  weight_decay: 1
  weight_decay: 0
  convolution_param {
    num_output: 64
    kernel_size: 1
    weight_filler {
      type: "xavier"
      std: 0.1
    }
    bias_filler {
      type: "constant"
      value: 0.2
    }
  }
}
layers {
  bottom: "inception_4a/pool_proj"
  top: "inception_4a/pool_proj"
  name: "inception_4a/relu_pool_proj"
  type: RELU
}
layers {
  bottom: "inception_4a/1x1"
  bottom: "inception_4a/3x3"
  bottom: "inception_4a/5x5"
  bottom: "inception_4a/pool_proj"
  top: "inception_4a/output"
  name: "inception_4a/output"
  type: CONCAT
}
layers {
  bottom: "inception_4a/output"
  top: "loss1/ave_pool"
  name: "loss1/ave_pool"
  type: POOLING
  pooling_param {
    pool: AVE
    kernel_size: 5
    stride: 3
  }
}
layers {
  bottom: "loss1/ave_pool"
  top: "loss1/conv"
  name: "loss1/conv"
  type: CONVOLUTION
  blobs_lr: 1
  blobs_lr: 2
  weight_decay: 1
  weight_decay: 0
  convolution_param {
    num_output: 128
    kernel_size: 1
    weight_filler {
      type: "xavier"
      std: 0.08
    }
    bias_filler {
      type: "constant"
      value: 0.2
    }
  }
}
layers {
  bottom: "loss1/conv"
  top: "loss1/conv"
  name: "loss1/relu_conv"
  type: RELU
}
layers {
  bottom: "loss1/conv"
  top: "loss1/fc"
  name: "loss1/fc"
  type: INNER_PRODUCT
  blobs_lr: 1
  blobs_lr: 2
  weight_decay: 1
  weight_decay: 0
  inner_product_param {
    num_output: 1024
    weight_filler {
      type: "xavier"
      std: 0.02
    }
    bias_filler {
      type: "constant"
      value: 0.2
    }
  }
}
layers {
  bottom: "loss1/fc"
  top: "loss1/fc"
  name: "loss1/relu_fc"
  type: RELU
}
layers {
  bottom: "loss1/fc"
  top: "loss1/fc"
  name: "loss1/drop_fc"
  type: DROPOUT
  dropout_param {
    dropout_ratio: 0.7
  }
}
layers {
  bottom: "loss1/fc"
  top: "loss1/classifier"
  name: "loss1/classifier"
  type: INNER_PRODUCT
  blobs_lr: 1
  blobs_lr: 2
  weight_decay: 1
  weight_decay: 0
  inner_product_param {
    num_output: 121
    weight_filler {
      type: "xavier"
      std: 0.0009765625
    }
    bias_filler {
      type: "constant"
      value: 0
    }
  }
}
layers {
  bottom: "loss1/classifier"
  bottom: "label"
  top: "loss1/loss1"
  name: "loss1/loss"
  type: SOFTMAX_LOSS
  loss_weight: 0.3
}
layers {
  bottom: "loss1/classifier"
  bottom: "label"
  top: "loss1/top-1"
  name: "loss1/top-1"
  type: ACCURACY
  include {
    phase: TEST
  }
}
layers {
  bottom: "inception_4a/output"
  top: "inception_4b/1x1"
  name: "inception_4b/1x1"
  type: CONVOLUTION
  blobs_lr: 1
  blobs_lr: 2
  weight_decay: 1
  weight_decay: 0
  convolution_param {
    num_output: 160
    kernel_size: 1
    weight_filler {
      type: "xavier"
      std: 0.03
    }
    bias_filler {
      type: "constant"
      value: 0.2
    }
  }
}
layers {
  bottom: "inception_4b/1x1"
  top: "inception_4b/1x1"
  name: "inception_4b/relu_1x1"
  type: RELU
}
layers {
  bottom: "inception_4a/output"
  top: "inception_4b/3x3_reduce"
  name: "inception_4b/3x3_reduce"
  type: CONVOLUTION
  blobs_lr: 1
  blobs_lr: 2
  weight_decay: 1
  weight_decay: 0
  convolution_param {
    num_output: 112
    kernel_size: 1
    weight_filler {
      type: "xavier"
      std: 0.09
    }
    bias_filler {
      type: "constant"
      value: 0.2
    }
  }
}
layers {
  bottom: "inception_4b/3x3_reduce"
  top: "inception_4b/3x3_reduce"
  name: "inception_4b/relu_3x3_reduce"
  type: RELU
}
layers {
  bottom: "inception_4b/3x3_reduce"
  top: "inception_4b/3x3"
  name: "inception_4b/3x3"
  type: CONVOLUTION
  blobs_lr: 1
  blobs_lr: 2
  weight_decay: 1
  weight_decay: 0
  convolution_param {
    num_output: 224
    pad: 1
    kernel_size: 3
    weight_filler {
      type: "xavier"
      std: 0.03
    }
    bias_filler {
      type: "constant"
      value: 0.2
    }
  }
}
layers {
  bottom: "inception_4b/3x3"
  top: "inception_4b/3x3"
  name: "inception_4b/relu_3x3"
  type: RELU
}
layers {
  bottom: "inception_4a/output"
  top: "inception_4b/5x5_reduce"
  name: "inception_4b/5x5_reduce"
  type: CONVOLUTION
  blobs_lr: 1
  blobs_lr: 2
  weight_decay: 1
  weight_decay: 0
  convolution_param {
    num_output: 24
    kernel_size: 1
    weight_filler {
      type: "xavier"
      std: 0.2
    }
    bias_filler {
      type: "constant"
      value: 0.2
    }
  }
}
layers {
  bottom: "inception_4b/5x5_reduce"
  top: "inception_4b/5x5_reduce"
  name: "inception_4b/relu_5x5_reduce"
  type: RELU
}
layers {
  bottom: "inception_4b/5x5_reduce"
  top: "inception_4b/5x5"
  name: "inception_4b/5x5"
  type: CONVOLUTION
  blobs_lr: 1
  blobs_lr: 2
  weight_decay: 1
  weight_decay: 0
  convolution_param {
    num_output: 64
    pad: 2
    kernel_size: 5
    weight_filler {
      type: "xavier"
      std: 0.03
    }
    bias_filler {
      type: "constant"
      value: 0.2
    }
  }
}
layers {
  bottom: "inception_4b/5x5"
  top: "inception_4b/5x5"
  name: "inception_4b/relu_5x5"
  type: RELU
}
layers {
  bottom: "inception_4a/output"
  top: "inception_4b/pool"
  name: "inception_4b/pool"
  type: POOLING
  pooling_param {
    pool: MAX
    kernel_size: 3
    stride: 1
    pad: 1
  }
}
layers {
  bottom: "inception_4b/pool"
  top: "inception_4b/pool_proj"
  name: "inception_4b/pool_proj"
  type: CONVOLUTION
  blobs_lr: 1
  blobs_lr: 2
  weight_decay: 1
  weight_decay: 0
  convolution_param {
    num_output: 64
    kernel_size: 1
    weight_filler {
      type: "xavier"
      std: 0.1
    }
    bias_filler {
      type: "constant"
      value: 0.2
    }
  }
}
layers {
  bottom: "inception_4b/pool_proj"
  top: "inception_4b/pool_proj"
  name: "inception_4b/relu_pool_proj"
  type: RELU
}
layers {
  bottom: "inception_4b/1x1"
  bottom: "inception_4b/3x3"
  bottom: "inception_4b/5x5"
  bottom: "inception_4b/pool_proj"
  top: "inception_4b/output"
  name: "inception_4b/output"
  type: CONCAT
}
layers {
  bottom: "inception_4b/output"
  top: "inception_4c/1x1"
  name: "inception_4c/1x1"
  type: CONVOLUTION
  blobs_lr: 1
  blobs_lr: 2
  weight_decay: 1
  weight_decay: 0
  convolution_param {
    num_output: 128
    kernel_size: 1
    weight_filler {
      type: "xavier"
      std: 0.03
    }
    bias_filler {
      type: "constant"
      value: 0.2
    }
  }
}
layers {
  bottom: "inception_4c/1x1"
  top: "inception_4c/1x1"
  name: "inception_4c/relu_1x1"
  type: RELU
}
layers {
  bottom: "inception_4b/output"
  top: "inception_4c/3x3_reduce"
  name: "inception_4c/3x3_reduce"
  type: CONVOLUTION
  blobs_lr: 1
  blobs_lr: 2
  weight_decay: 1
  weight_decay: 0
  convolution_param {
    num_output: 128
    kernel_size: 1
    weight_filler {
      type: "xavier"
      std: 0.09
    }
    bias_filler {
      type: "constant"
      value: 0.2
    }
  }
}
layers {
  bottom: "inception_4c/3x3_reduce"
  top: "inception_4c/3x3_reduce"
  name: "inception_4c/relu_3x3_reduce"
  type: RELU
}
layers {
  bottom: "inception_4c/3x3_reduce"
  top: "inception_4c/3x3"
  name: "inception_4c/3x3"
  type: CONVOLUTION
  blobs_lr: 1
  blobs_lr: 2
  weight_decay: 1
  weight_decay: 0
  convolution_param {
    num_output: 256
    pad: 1
    kernel_size: 3
    weight_filler {
      type: "xavier"
      std: 0.03
    }
    bias_filler {
      type: "constant"
      value: 0.2
    }
  }
}
layers {
  bottom: "inception_4c/3x3"
  top: "inception_4c/3x3"
  name: "inception_4c/relu_3x3"
  type: RELU
}
layers {
  bottom: "inception_4b/output"
  top: "inception_4c/5x5_reduce"
  name: "inception_4c/5x5_reduce"
  type: CONVOLUTION
  blobs_lr: 1
  blobs_lr: 2
  weight_decay: 1
  weight_decay: 0
  convolution_param {
    num_output: 24
    kernel_size: 1
    weight_filler {
      type: "xavier"
      std: 0.2
    }
    bias_filler {
      type: "constant"
      value: 0.2
    }
  }
}
layers {
  bottom: "inception_4c/5x5_reduce"
  top: "inception_4c/5x5_reduce"
  name: "inception_4c/relu_5x5_reduce"
  type: RELU
}
layers {
  bottom: "inception_4c/5x5_reduce"
  top: "inception_4c/5x5"
  name: "inception_4c/5x5"
  type: CONVOLUTION
  blobs_lr: 1
  blobs_lr: 2
  weight_decay: 1
  weight_decay: 0
  convolution_param {
    num_output: 64
    pad: 2
    kernel_size: 5
    weight_filler {
      type: "xavier"
      std: 0.03
    }
    bias_filler {
      type: "constant"
      value: 0.2
    }
  }
}
layers {
  bottom: "inception_4c/5x5"
  top: "inception_4c/5x5"
  name: "inception_4c/relu_5x5"
  type: RELU
}
layers {
  bottom: "inception_4b/output"
  top: "inception_4c/pool"
  name: "inception_4c/pool"
  type: POOLING
  pooling_param {
    pool: MAX
    kernel_size: 3
    stride: 1
    pad: 1
  }
}
layers {
  bottom: "inception_4c/pool"
  top: "inception_4c/pool_proj"
  name: "inception_4c/pool_proj"
  type: CONVOLUTION
  blobs_lr: 1
  blobs_lr: 2
  weight_decay: 1
  weight_decay: 0
  convolution_param {
    num_output: 64
    kernel_size: 1
    weight_filler {
      type: "xavier"
      std: 0.1
    }
    bias_filler {
      type: "constant"
      value: 0.2
    }
  }
}
layers {
  bottom: "inception_4c/pool_proj"
  top: "inception_4c/pool_proj"
  name: "inception_4c/relu_pool_proj"
  type: RELU
}
layers {
  bottom: "inception_4c/1x1"
  bottom: "inception_4c/3x3"
  bottom: "inception_4c/5x5"
  bottom: "inception_4c/pool_proj"
  top: "inception_4c/output"
  name: "inception_4c/output"
  type: CONCAT
}
layers {
  bottom: "inception_4c/output"
  top: "inception_4d/1x1"
  name: "inception_4d/1x1"
  type: CONVOLUTION
  blobs_lr: 1
  blobs_lr: 2
  weight_decay: 1
  weight_decay: 0
  convolution_param {
    num_output: 112
    kernel_size: 1
    weight_filler {
      type: "xavier"
      std: 0.03
    }
    bias_filler {
      type: "constant"
      value: 0.2
    }
  }
}
layers {
  bottom: "inception_4d/1x1"
  top: "inception_4d/1x1"
  name: "inception_4d/relu_1x1"
  type: RELU
}
layers {
  bottom: "inception_4c/output"
  top: "inception_4d/3x3_reduce"
  name: "inception_4d/3x3_reduce"
  type: CONVOLUTION
  blobs_lr: 1
  blobs_lr: 2
  weight_decay: 1
  weight_decay: 0
  convolution_param {
    num_output: 144
    kernel_size: 1
    weight_filler {
      type: "xavier"
      std: 0.09
    }
    bias_filler {
      type: "constant"
      value: 0.2
    }
  }
}
layers {
  bottom: "inception_4d/3x3_reduce"
  top: "inception_4d/3x3_reduce"
  name: "inception_4d/relu_3x3_reduce"
  type: RELU
}
layers {
  bottom: "inception_4d/3x3_reduce"
  top: "inception_4d/3x3"
  name: "inception_4d/3x3"
  type: CONVOLUTION
  blobs_lr: 1
  blobs_lr: 2
  weight_decay: 1
  weight_decay: 0
  convolution_param {
    num_output: 288
    pad: 1
    kernel_size: 3
    weight_filler {
      type: "xavier"
      std: 0.03
    }
    bias_filler {
      type: "constant"
      value: 0.2
    }
  }
}
layers {
  bottom: "inception_4d/3x3"
  top: "inception_4d/3x3"
  name: "inception_4d/relu_3x3"
  type: RELU
}
layers {
  bottom: "inception_4c/output"
  top: "inception_4d/5x5_reduce"
  name: "inception_4d/5x5_reduce"
  type: CONVOLUTION
  blobs_lr: 1
  blobs_lr: 2
  weight_decay: 1
  weight_decay: 0
  convolution_param {
    num_output: 32
    kernel_size: 1
    weight_filler {
      type: "xavier"
      std: 0.2
    }
    bias_filler {
      type: "constant"
      value: 0.2
    }
  }
}
layers {
  bottom: "inception_4d/5x5_reduce"
  top: "inception_4d/5x5_reduce"
  name: "inception_4d/relu_5x5_reduce"
  type: RELU
}
layers {
  bottom: "inception_4d/5x5_reduce"
  top: "inception_4d/5x5"
  name: "inception_4d/5x5"
  type: CONVOLUTION
  blobs_lr: 1
  blobs_lr: 2
  weight_decay: 1
  weight_decay: 0
  convolution_param {
    num_output: 64
    pad: 2
    kernel_size: 5
    weight_filler {
      type: "xavier"
      std: 0.03
    }
    bias_filler {
      type: "constant"
      value: 0.2
    }
  }
}
layers {
  bottom: "inception_4d/5x5"
  top: "inception_4d/5x5"
  name: "inception_4d/relu_5x5"
  type: RELU
}
layers {
  bottom: "inception_4c/output"
  top: "inception_4d/pool"
  name: "inception_4d/pool"
  type: POOLING
  pooling_param {
    pool: MAX
    kernel_size: 3
    stride: 1
    pad: 1
  }
}
layers {
  bottom: "inception_4d/pool"
  top: "inception_4d/pool_proj"
  name: "inception_4d/pool_proj"
  type: CONVOLUTION
  blobs_lr: 1
  blobs_lr: 2
  weight_decay: 1
  weight_decay: 0
  convolution_param {
    num_output: 64
    kernel_size: 1
    weight_filler {
      type: "xavier"
      std: 0.1
    }
    bias_filler {
      type: "constant"
      value: 0.2
    }
  }
}
layers {
  bottom: "inception_4d/pool_proj"
  top: "inception_4d/pool_proj"
  name: "inception_4d/relu_pool_proj"
  type: RELU
}
layers {
  bottom: "inception_4d/1x1"
  bottom: "inception_4d/3x3"
  bottom: "inception_4d/5x5"
  bottom: "inception_4d/pool_proj"
  top: "inception_4d/output"
  name: "inception_4d/output"
  type: CONCAT
}
layers {
  bottom: "inception_4d/output"
  top: "loss2/ave_pool"
  name: "loss2/ave_pool"
  type: POOLING
  pooling_param {
    pool: AVE
    kernel_size: 5
    stride: 3
  }
}
layers {
  bottom: "loss2/ave_pool"
  top: "loss2/conv"
  name: "loss2/conv"
  type: CONVOLUTION
  blobs_lr: 1
  blobs_lr: 2
  weight_decay: 1
  weight_decay: 0
  convolution_param {
    num_output: 128
    kernel_size: 1
    weight_filler {
      type: "xavier"
      std: 0.08
    }
    bias_filler {
      type: "constant"
      value: 0.2
    }
  }
}
layers {
  bottom: "loss2/conv"
  top: "loss2/conv"
  name: "loss2/relu_conv"
  type: RELU
}
layers {
  bottom: "loss2/conv"
  top: "loss2/fc"
  name: "loss2/fc"
  type: INNER_PRODUCT
  blobs_lr: 1
  blobs_lr: 2
  weight_decay: 1
  weight_decay: 0
  inner_product_param {
    num_output: 1024
    weight_filler {
      type: "xavier"
      std: 0.02
    }
    bias_filler {
      type: "constant"
      value: 0.2
    }
  }
}
layers {
  bottom: "loss2/fc"
  top: "loss2/fc"
  name: "loss2/relu_fc"
  type: RELU
}
layers {
  bottom: "loss2/fc"
…
I0311 16:29:35.781550  4547 layer_factory.hpp:78] Creating layer inception_4c/3x3_reduce
I0311 16:29:35.781576  4547 net.cpp:68] Creating Layer inception_4c/3x3_reduce
I0311 16:29:35.781596  4547 net.cpp:395] inception_4c/3x3_reduce <- inception_4b/output_inception_4b/output_0_split_1
I0311 16:29:35.781613  4547 net.cpp:357] inception_4c/3x3_reduce -> inception_4c/3x3_reduce
I0311 16:29:35.781628  4547 net.cpp:97] Setting up inception_4c/3x3_reduce
I0311 16:29:35.782407  4547 net.cpp:104] Top shape: 128 128 5 5 (409600)
I0311 16:29:35.782433  4547 layer_factory.hpp:78] Creating layer inception_4c/relu_3x3_reduce
I0311 16:29:35.782449  4547 net.cpp:68] Creating Layer inception_4c/relu_3x3_reduce
I0311 16:29:35.782462  4547 net.cpp:395] inception_4c/relu_3x3_reduce <- inception_4c/3x3_reduce
I0311 16:29:35.782475  4547 net.cpp:346] inception_4c/relu_3x3_reduce -> inception_4c/3x3_reduce (in-place)
I0311 16:29:35.782490  4547 net.cpp:97] Setting up inception_4c/relu_3x3_reduce
I0311 16:29:35.782505  4547 net.cpp:104] Top shape: 128 128 5 5 (409600)
I0311 16:29:35.782516  4547 layer_factory.hpp:78] Creating layer inception_4c/3x3
I0311 16:29:35.782531  4547 net.cpp:68] Creating Layer inception_4c/3x3
I0311 16:29:35.782544  4547 net.cpp:395] inception_4c/3x3 <- inception_4c/3x3_reduce
I0311 16:29:35.782560  4547 net.cpp:357] inception_4c/3x3 -> inception_4c/3x3
I0311 16:29:35.782577  4547 net.cpp:97] Setting up inception_4c/3x3
I0311 16:29:35.785738  4547 net.cpp:104] Top shape: 128 256 5 5 (819200)
I0311 16:29:35.785778  4547 layer_factory.hpp:78] Creating layer inception_4c/relu_3x3
I0311 16:29:35.785799  4547 net.cpp:68] Creating Layer inception_4c/relu_3x3
I0311 16:29:35.785812  4547 net.cpp:395] inception_4c/relu_3x3 <- inception_4c/3x3
I0311 16:29:35.785826  4547 net.cpp:346] inception_4c/relu_3x3 -> inception_4c/3x3 (in-place)
I0311 16:29:35.785872  4547 net.cpp:97] Setting up inception_4c/relu_3x3
I0311 16:29:35.785889  4547 net.cpp:104] Top shape: 128 256 5 5 (819200)
I0311 16:29:35.785910  4547 layer_factory.hpp:78] Creating layer inception_4c/5x5_reduce
I0311 16:29:35.785928  4547 net.cpp:68] Creating Layer inception_4c/5x5_reduce
I0311 16:29:35.785940  4547 net.cpp:395] inception_4c/5x5_reduce <- inception_4b/output_inception_4b/output_0_split_2
I0311 16:29:35.785956  4547 net.cpp:357] inception_4c/5x5_reduce -> inception_4c/5x5_reduce
I0311 16:29:35.785976  4547 net.cpp:97] Setting up inception_4c/5x5_reduce
I0311 16:29:35.786337  4547 net.cpp:104] Top shape: 128 24 5 5 (76800)
I0311 16:29:35.786367  4547 layer_factory.hpp:78] Creating layer inception_4c/relu_5x5_reduce
I0311 16:29:35.786383  4547 net.cpp:68] Creating Layer inception_4c/relu_5x5_reduce
I0311 16:29:35.786397  4547 net.cpp:395] inception_4c/relu_5x5_reduce <- inception_4c/5x5_reduce
I0311 16:29:35.786412  4547 net.cpp:346] inception_4c/relu_5x5_reduce -> inception_4c/5x5_reduce (in-place)
I0311 16:29:35.786427  4547 net.cpp:97] Setting up inception_4c/relu_5x5_reduce
I0311 16:29:35.786440  4547 net.cpp:104] Top shape: 128 24 5 5 (76800)
I0311 16:29:35.786453  4547 layer_factory.hpp:78] Creating layer inception_4c/5x5
I0311 16:29:35.786471  4547 net.cpp:68] Creating Layer inception_4c/5x5
I0311 16:29:35.786484  4547 net.cpp:395] inception_4c/5x5 <- inception_4c/5x5_reduce
I0311 16:29:35.786499  4547 net.cpp:357] inception_4c/5x5 -> inception_4c/5x5
I0311 16:29:35.786514  4547 net.cpp:97] Setting up inception_4c/5x5
I0311 16:29:35.786998  4547 net.cpp:104] Top shape: 128 64 5 5 (204800)
I0311 16:29:35.787025  4547 layer_factory.hpp:78] Creating layer inception_4c/relu_5x5
I0311 16:29:35.787044  4547 net.cpp:68] Creating Layer inception_4c/relu_5x5
I0311 16:29:35.787056  4547 net.cpp:395] inception_4c/relu_5x5 <- inception_4c/5x5
I0311 16:29:35.787073  4547 net.cpp:346] inception_4c/relu_5x5 -> inception_4c/5x5 (in-place)
I0311 16:29:35.787088  4547 net.cpp:97] Setting up inception_4c/relu_5x5
I0311 16:29:35.787112  4547 net.cpp:104] Top shape: 128 64 5 5 (204800)
I0311 16:29:35.787134  4547 layer_factory.hpp:78] Creating layer inception_4c/pool
I0311 16:29:35.787147  4547 layer_factory.cpp:51] CUDNN does not support padding or multiple tops. Using Caffe's own pooling layer.
I0311 16:29:35.787161  4547 net.cpp:68] Creating Layer inception_4c/pool
I0311 16:29:35.787174  4547 net.cpp:395] inception_4c/pool <- inception_4b/output_inception_4b/output_0_split_3
I0311 16:29:35.787194  4547 net.cpp:357] inception_4c/pool -> inception_4c/pool
I0311 16:29:35.787209  4547 net.cpp:97] Setting up inception_4c/pool
I0311 16:29:35.787224  4547 net.cpp:104] Top shape: 128 512 5 5 (1638400)
I0311 16:29:35.787235  4547 layer_factory.hpp:78] Creating layer inception_4c/pool_proj
I0311 16:29:35.787250  4547 net.cpp:68] Creating Layer inception_4c/pool_proj
I0311 16:29:35.787261  4547 net.cpp:395] inception_4c/pool_proj <- inception_4c/pool
I0311 16:29:35.787277  4547 net.cpp:357] inception_4c/pool_proj -> inception_4c/pool_proj
I0311 16:29:35.787293  4547 net.cpp:97] Setting up inception_4c/pool_proj
I0311 16:29:35.787704  4547 net.cpp:104] Top shape: 128 64 5 5 (204800)
I0311 16:29:35.787729  4547 layer_factory.hpp:78] Creating layer inception_4c/relu_pool_proj
I0311 16:29:35.787747  4547 net.cpp:68] Creating Layer inception_4c/relu_pool_proj
I0311 16:29:35.787760  4547 net.cpp:395] inception_4c/relu_pool_proj <- inception_4c/pool_proj
I0311 16:29:35.787773  4547 net.cpp:346] inception_4c/relu_pool_proj -> inception_4c/pool_proj (in-place)
I0311 16:29:35.787788  4547 net.cpp:97] Setting up inception_4c/relu_pool_proj
I0311 16:29:35.787802  4547 net.cpp:104] Top shape: 128 64 5 5 (204800)
I0311 16:29:35.787814  4547 layer_factory.hpp:78] Creating layer inception_4c/output
I0311 16:29:35.787828  4547 net.cpp:68] Creating Layer inception_4c/output
I0311 16:29:35.787840  4547 net.cpp:395] inception_4c/output <- inception_4c/1x1
I0311 16:29:35.787871  4547 net.cpp:395] inception_4c/output <- inception_4c/3x3
I0311 16:29:35.787886  4547 net.cpp:395] inception_4c/output <- inception_4c/5x5
I0311 16:29:35.787899  4547 net.cpp:395] inception_4c/output <- inception_4c/pool_proj
I0311 16:29:35.787912  4547 net.cpp:357] inception_4c/output -> inception_4c/output
I0311 16:29:35.787927  4547 net.cpp:97] Setting up inception_4c/output
I0311 16:29:35.787940  4547 net.cpp:104] Top shape: 128 512 5 5 (1638400)
I0311 16:29:35.787950  4547 layer_factory.hpp:78] Creating layer inception_4c/output_inception_4c/output_0_split
I0311 16:29:35.787966  4547 net.cpp:68] Creating Layer inception_4c/output_inception_4c/output_0_split
I0311 16:29:35.787979  4547 net.cpp:395] inception_4c/output_inception_4c/output_0_split <- inception_4c/output
I0311 16:29:35.787993  4547 net.cpp:357] inception_4c/output_inception_4c/output_0_split -> inception_4c/output_inception_4c/output_0_split_0
I0311 16:29:35.788009  4547 net.cpp:357] inception_4c/output_inception_4c/output_0_split -> inception_4c/output_inception_4c/output_0_split_1
I0311 16:29:35.788025  4547 net.cpp:357] inception_4c/output_inception_4c/output_0_split -> inception_4c/output_inception_4c/output_0_split_2
I0311 16:29:35.788054  4547 net.cpp:357] inception_4c/output_inception_4c/output_0_split -> inception_4c/output_inception_4c/output_0_split_3
I0311 16:29:35.788071  4547 net.cpp:97] Setting up inception_4c/output_inception_4c/output_0_split
I0311 16:29:35.788084  4547 net.cpp:104] Top shape: 128 512 5 5 (1638400)
I0311 16:29:35.788094  4547 net.cpp:104] Top shape: 128 512 5 5 (1638400)
I0311 16:29:35.788105  4547 net.cpp:104] Top shape: 128 512 5 5 (1638400)
I0311 16:29:35.788125  4547 net.cpp:104] Top shape: 128 512 5 5 (1638400)
I0311 16:29:35.788136  4547 layer_factory.hpp:78] Creating layer inception_4d/1x1
I0311 16:29:35.788151  4547 net.cpp:68] Creating Layer inception_4d/1x1
I0311 16:29:35.788161  4547 net.cpp:395] inception_4d/1x1 <- inception_4c/output_inception_4c/output_0_split_0
I0311 16:29:35.788178  4547 net.cpp:357] inception_4d/1x1 -> inception_4d/1x1
I0311 16:29:35.788194  4547 net.cpp:97] Setting up inception_4d/1x1
I0311 16:29:35.788877  4547 net.cpp:104] Top shape: 128 112 5 5 (358400)
I0311 16:29:35.788902  4547 layer_factory.hpp:78] Creating layer inception_4d/relu_1x1
I0311 16:29:35.788919  4547 net.cpp:68] Creating Layer inception_4d/relu_1x1
I0311 16:29:35.788931  4547 net.cpp:395] inception_4d/relu_1x1 <- inception_4d/1x1
I0311 16:29:35.788945  4547 net.cpp:346] inception_4d/relu_1x1 -> inception_4d/1x1 (in-place)
I0311 16:29:35.788959  4547 net.cpp:97] Setting up inception_4d/relu_1x1
I0311 16:29:35.788974  4547 net.cpp:104] Top shape: 128 112 5 5 (358400)
I0311 16:29:35.788985  4547 layer_factory.hpp:78] Creating layer inception_4d/3x3_reduce
I0311 16:29:35.789001  4547 net.cpp:68] Creating Layer inception_4d/3x3_reduce
I0311 16:29:35.789013  4547 net.cpp:395] inception_4d/3x3_reduce <- inception_4c/output_inception_4c/output_0_split_1
I0311 16:29:35.789031  4547 net.cpp:357] inception_4d/3x3_reduce -> inception_4d/3x3_reduce
I0311 16:29:35.789047  4547 net.cpp:97] Setting up inception_4d/3x3_reduce
I0311 16:29:35.789944  4547 net.cpp:104] Top shape: 128 144 5 5 (460800)
I0311 16:29:35.789969  4547 layer_factory.hpp:78] Creating layer inception_4d/relu_3x3_reduce
I0311 16:29:35.789985  4547 net.cpp:68] Creating Layer inception_4d/relu_3x3_reduce
I0311 16:29:35.789998  4547 net.cpp:395] inception_4d/relu_3x3_reduce <- inception_4d/3x3_reduce
I0311 16:29:35.790014  4547 net.cpp:346] inception_4d/relu_3x3_reduce -> inception_4d/3x3_reduce (in-place)
I0311 16:29:35.790030  4547 net.cpp:97] Setting up inception_4d/relu_3x3_reduce
I0311 16:29:35.790045  4547 net.cpp:104] Top shape: 128 144 5 5 (460800)
I0311 16:29:35.790055  4547 layer_factory.hpp:78] Creating layer inception_4d/3x3
I0311 16:29:35.790071  4547 net.cpp:68] Creating Layer inception_4d/3x3
I0311 16:29:35.790081  4547 net.cpp:395] inception_4d/3x3 <- inception_4d/3x3_reduce
I0311 16:29:35.790098  4547 net.cpp:357] inception_4d/3x3 -> inception_4d/3x3
I0311 16:29:35.790132  4547 net.cpp:97] Setting up inception_4d/3x3
I0311 16:29:35.794263  4547 net.cpp:104] Top shape: 128 288 5 5 (921600)
I0311 16:29:35.794294  4547 layer_factory.hpp:78] Creating layer inception_4d/relu_3x3
I0311 16:29:35.794311  4547 net.cpp:68] Creating Layer inception_4d/relu_3x3
I0311 16:29:35.794324  4547 net.cpp:395] inception_4d/relu_3x3 <- inception_4d/3x3
I0311 16:29:35.794340  4547 net.cpp:346] inception_4d/relu_3x3 -> inception_4d/3x3 (in-place)
I0311 16:29:35.794356  4547 net.cpp:97] Setting up inception_4d/relu_3x3
I0311 16:29:35.794371  4547 net.cpp:104] Top shape: 128 288 5 5 (921600)
I0311 16:29:35.794383  4547 layer_factory.hpp:78] Creating layer inception_4d/5x5_reduce
I0311 16:29:35.794399  4547 net.cpp:68] Creating Layer inception_4d/5x5_reduce
I0311 16:29:35.794410  4547 net.cpp:395] inception_4d/5x5_reduce <- inception_4c/output_inception_4c/output_0_split_2
I0311 16:29:35.794428  4547 net.cpp:357] inception_4d/5x5_reduce -> inception_4d/5x5_reduce
I0311 16:29:35.794445  4547 net.cpp:97] Setting up inception_4d/5x5_reduce
I0311 16:29:35.794706  4547 net.cpp:104] Top shape: 128 32 5 5 (102400)
I0311 16:29:35.794729  4547 layer_factory.hpp:78] Creating layer inception_4d/relu_5x5_reduce
I0311 16:29:35.794744  4547 net.cpp:68] Creating Layer inception_4d/relu_5x5_reduce
I0311 16:29:35.794756  4547 net.cpp:395] inception_4d/relu_5x5_reduce <- inception_4d/5x5_reduce
I0311 16:29:35.794770  4547 net.cpp:346] inception_4d/relu_5x5_reduce -> inception_4d/5x5_reduce (in-place)
I0311 16:29:35.794785  4547 net.cpp:97] Setting up inception_4d/relu_5x5_reduce
I0311 16:29:35.794800  4547 net.cpp:104] Top shape: 128 32 5 5 (102400)
I0311 16:29:35.794811  4547 layer_factory.hpp:78] Creating layer inception_4d/5x5
I0311 16:29:35.794831  4547 net.cpp:68] Creating Layer inception_4d/5x5
I0311 16:29:35.794842  4547 net.cpp:395] inception_4d/5x5 <- inception_4d/5x5_reduce
I0311 16:29:35.794859  4547 net.cpp:357] inception_4d/5x5 -> inception_4d/5x5
I0311 16:29:35.794875  4547 net.cpp:97] Setting up inception_4d/5x5
I0311 16:29:35.795482  4547 net.cpp:104] Top shape: 128 64 5 5 (204800)
I0311 16:29:35.795507  4547 layer_factory.hpp:78] Creating layer inception_4d/relu_5x5
I0311 16:29:35.795522  4547 net.cpp:68] Creating Layer inception_4d/relu_5x5
I0311 16:29:35.795534  4547 net.cpp:395] inception_4d/relu_5x5 <- inception_4d/5x5
I0311 16:29:35.795547  4547 net.cpp:346] inception_4d/relu_5x5 -> inception_4d/5x5 (in-place)
I0311 16:29:35.795562  4547 net.cpp:97] Setting up inception_4d/relu_5x5
I0311 16:29:35.795577  4547 net.cpp:104] Top shape: 128 64 5 5 (204800)
I0311 16:29:35.795588  4547 layer_factory.hpp:78] Creating layer inception_4d/pool
I0311 16:29:35.795599  4547 layer_factory.cpp:51] CUDNN does not support padding or multiple tops. Using Caffe's own pooling layer.
I0311 16:29:35.795615  4547 net.cpp:68] Creating Layer inception_4d/pool
I0311 16:29:35.795627  4547 net.cpp:395] inception_4d/pool <- inception_4c/output_inception_4c/output_0_split_3
I0311 16:29:35.795642  4547 net.cpp:357] inception_4d/pool -> inception_4d/pool
I0311 16:29:35.795658  4547 net.cpp:97] Setting up inception_4d/pool
I0311 16:29:35.795671  4547 net.cpp:104] Top shape: 128 512 5 5 (1638400)
I0311 16:29:35.795682  4547 layer_factory.hpp:78] Creating layer inception_4d/pool_proj
I0311 16:29:35.795701  4547 net.cpp:68] Creating Layer inception_4d/pool_proj
I0311 16:29:35.795712  4547 net.cpp:395] inception_4d/pool_proj <- inception_4d/pool
I0311 16:29:35.795727  4547 net.cpp:357] inception_4d/pool_proj -> inception_4d/pool_proj
I0311 16:29:35.795742  4547 net.cpp:97] Setting up inception_4d/pool_proj
I0311 16:29:35.796197  4547 net.cpp:104] Top shape: 128 64 5 5 (204800)
I0311 16:29:35.796222  4547 layer_factory.hpp:78] Creating layer inception_4d/relu_pool_proj
I0311 16:29:35.796237  4547 net.cpp:68] Creating Layer inception_4d/relu_pool_proj
I0311 16:29:35.796250  4547 net.cpp:395] inception_4d/relu_pool_proj <- inception_4d/pool_proj
I0311 16:29:35.796267  4547 net.cpp:346] inception_4d/relu_pool_proj -> inception_4d/pool_proj (in-place)
I0311 16:29:35.796308  4547 net.cpp:97] Setting up inception_4d/relu_pool_proj
I0311 16:29:35.796324  4547 net.cpp:104] Top shape: 128 64 5 5 (204800)
I0311 16:29:35.796337  4547 layer_factory.hpp:78] Creating layer inception_4d/output
I0311 16:29:35.796351  4547 net.cpp:68] Creating Layer inception_4d/output
I0311 16:29:35.796363  4547 net.cpp:395] inception_4d/output <- inception_4d/1x1
I0311 16:29:35.796376  4547 net.cpp:395] inception_4d/output <- inception_4d/3x3
I0311 16:29:35.796389  4547 net.cpp:395] inception_4d/output <- inception_4d/5x5
I0311 16:29:35.796401  4547 net.cpp:395] inception_4d/output <- inception_4d/pool_proj
I0311 16:29:35.796416  4547 net.cpp:357] inception_4d/output -> inception_4d/output
I0311 16:29:35.796429  4547 net.cpp:97] Setting up inception_4d/output
I0311 16:29:35.796442  4547 net.cpp:104] Top shape: 128 528 5 5 (1689600)
I0311 16:29:35.796453  4547 layer_factory.hpp:78] Creating layer inception_4d/output_inception_4d/output_0_split
I0311 16:29:35.796468  4547 net.cpp:68] Creating Layer inception_4d/output_inception_4d/output_0_split
I0311 16:29:35.796479  4547 net.cpp:395] inception_4d/output_inception_4d/output_0_split <- inception_4d/output
I0311 16:29:35.796495  4547 net.cpp:357] inception_4d/output_inception_4d/output_0_split -> inception_4d/output_inception_4d/output_0_split_0
I0311 16:29:35.796512  4547 net.cpp:357] inception_4d/output_inception_4d/output_0_split -> inception_4d/output_inception_4d/output_0_split_1
I0311 16:29:35.796530  4547 net.cpp:357] inception_4d/output_inception_4d/output_0_split -> inception_4d/output_inception_4d/output_0_split_2
I0311 16:29:35.796566  4547 net.cpp:357] inception_4d/output_inception_4d/output_0_split -> inception_4d/output_inception_4d/output_0_split_3
I0311 16:29:35.796581  4547 net.cpp:357] inception_4d/output_inception_4d/output_0_split -> inception_4d/output_inception_4d/output_0_split_4
I0311 16:29:35.796618  4547 net.cpp:97] Setting up inception_4d/output_inception_4d/output_0_split
I0311 16:29:35.796632  4547 net.cpp:104] Top shape: 128 528 5 5 (1689600)
I0311 16:29:35.796646  4547 net.cpp:104] Top shape: 128 528 5 5 (1689600)
I0311 16:29:35.796658  4547 net.cpp:104] Top shape: 128 528 5 5 (1689600)
I0311 16:29:35.796669  4547 net.cpp:104] Top shape: 128 528 5 5 (1689600)
I0311 16:29:35.796679  4547 net.cpp:104] Top shape: 128 528 5 5 (1689600)
I0311 16:29:35.796690  4547 layer_factory.hpp:78] Creating layer loss2/ave_pool
I0311 16:29:35.796705  4547 net.cpp:68] Creating Layer loss2/ave_pool
I0311 16:29:35.796716  4547 net.cpp:395] loss2/ave_pool <- inception_4d/output_inception_4d/output_0_split_0
I0311 16:29:35.796731  4547 net.cpp:357] loss2/ave_pool -> loss2/ave_pool
I0311 16:29:35.796747  4547 net.cpp:97] Setting up loss2/ave_pool
I0311 16:29:35.796764  4547 net.cpp:104] Top shape: 128 528 1 1 (67584)
I0311 16:29:35.796777  4547 layer_factory.hpp:78] Creating layer loss2/conv
I0311 16:29:35.796794  4547 net.cpp:68] Creating Layer loss2/conv
I0311 16:29:35.796808  4547 net.cpp:395] loss2/conv <- loss2/ave_pool
I0311 16:29:35.796825  4547 net.cpp:357] loss2/conv -> loss2/conv
I0311 16:29:35.796841  4547 net.cpp:97] Setting up loss2/conv
I0311 16:29:35.797613  4547 net.cpp:104] Top shape: 128 128 1 1 (16384)
I0311 16:29:35.797641  4547 layer_factory.hpp:78] Creating layer loss2/relu_conv
I0311 16:29:35.797657  4547 net.cpp:68] Creating Layer loss2/relu_conv
I0311 16:29:35.797669  4547 net.cpp:395] loss2/relu_conv <- loss2/conv
I0311 16:29:35.797683  4547 net.cpp:346] loss2/relu_conv -> loss2/conv (in-place)
I0311 16:29:35.797699  4547 net.cpp:97] Setting up loss2/relu_conv
I0311 16:29:35.797713  4547 net.cpp:104] Top shape: 128 128 1 1 (16384)
I0311 16:29:35.797725  4547 layer_factory.hpp:78] Creating layer loss2/fc
I0311 16:29:35.797752  4547 net.cpp:68] Creating Layer loss2/fc
I0311 16:29:35.797765  4547 net.cpp:395] loss2/fc <- loss2/conv
I0311 16:29:35.797783  4547 net.cpp:357] loss2/fc -> loss2/fc
I0311 16:29:35.797801  4547 net.cpp:97] Setting up loss2/fc
I0311 16:29:35.799325  4547 net.cpp:104] Top shape: 128 1024 1 1 (131072)
I0311 16:29:35.799367  4547 layer_factory.hpp:78] Creating layer loss2/relu_fc
I0311 16:29:35.799383  4547 net.cpp:68] Creating Layer loss2/relu_fc
I0311 16:29:35.799396  4547 net.cpp:395] loss2/relu_fc <- loss2/fc
I0311 16:29:35.799409  4547 net.cpp:346] loss2/relu_fc -> loss2/fc (in-place)
I0311 16:29:35.799423  4547 net.cpp:97] Setting up loss2/relu_fc
I0311 16:29:35.799453  4547 net.cpp:104] Top shape: 128 1024 1 1 (131072)
I0311 16:29:35.799465  4547 layer_factory.hpp:78] Creating layer loss2/drop_fc
I0311 16:29:35.799480  4547 net.cpp:68] Creating Layer loss2/drop_fc
I0311 16:29:35.799500  4547 net.cpp:395] loss2/drop_fc <- loss2/fc
I0311 16:29:35.799518  4547 net.cpp:346] loss2/drop_fc -> loss2/fc (in-place)
I0311 16:29:35.799533  4547 net.cpp:97] Setting up loss2/drop_fc
I0311 16:29:35.799552  4547 net.cpp:104] Top shape: 128 1024 1 1 (131072)
I0311 16:29:35.799566  4547 layer_factory.hpp:78] Creating layer loss2/classifier
I0311 16:29:35.799579  4547 net.cpp:68] Creating Layer loss2/classifier
I0311 16:29:35.799592  4547 net.cpp:395] loss2/classifier <- loss2/fc
I0311 16:29:35.799609  4547 net.cpp:357] loss2/classifier -> loss2/classifier
I0311 16:29:35.799626  4547 net.cpp:97] Setting up loss2/classifier
I0311 16:29:35.800910  4547 net.cpp:104] Top shape: 128 121 1 1 (15488)
I0311 16:29:35.800935  4547 layer_factory.hpp:78] Creating layer loss2/classifier_loss2/classifier_0_split
I0311 16:29:35.800951  4547 net.cpp:68] Creating Layer loss2/classifier_loss2/classifier_0_split
I0311 16:29:35.800964  4547 net.cpp:395] loss2/classifier_loss2/classifier_0_split <- loss2/classifier
I0311 16:29:35.800978  4547 net.cpp:357] loss2/classifier_loss2/classifier_0_split -> loss2/classifier_loss2/classifier_0_split_0
I0311 16:29:35.800994  4547 net.cpp:357] loss2/classifier_loss2/classifier_0_split -> loss2/classifier_loss2/classifier_0_split_1
I0311 16:29:35.801009  4547 net.cpp:97] Setting up loss2/classifier_loss2/classifier_0_split
I0311 16:29:35.801023  4547 net.cpp:104] Top shape: 128 121 1 1 (15488)
I0311 16:29:35.801033  4547 net.cpp:104] Top shape: 128 121 1 1 (15488)
I0311 16:29:35.801044  4547 layer_factory.hpp:78] Creating layer loss2/loss
I0311 16:29:35.801060  4547 net.cpp:68] Creating Layer loss2/loss
I0311 16:29:35.801074  4547 net.cpp:395] loss2/loss <- loss2/classifier_loss2/classifier_0_split_0
I0311 16:29:35.801086  4547 net.cpp:395] loss2/loss <- label_data_1_split_2
I0311 16:29:35.801100  4547 net.cpp:357] loss2/loss -> loss2/loss1
I0311 16:29:35.801115  4547 net.cpp:97] Setting up loss2/loss
I0311 16:29:35.801127  4547 layer_factory.hpp:78] Creating layer loss2/loss
I0311 16:29:35.801183  4547 net.cpp:104] Top shape: 1 1 1 1 (1)
I0311 16:29:35.801199  4547 net.cpp:110]     with loss weight 0.3
I0311 16:29:35.801223  4547 layer_factory.hpp:78] Creating layer loss2/top-1
I0311 16:29:35.801240  4547 net.cpp:68] Creating Layer loss2/top-1
I0311 16:29:35.801252  4547 net.cpp:395] loss2/top-1 <- loss2/classifier_loss2/classifier_0_split_1
I0311 16:29:35.801265  4547 net.cpp:395] loss2/top-1 <- label_data_1_split_3
I0311 16:29:35.801280  4547 net.cpp:357] loss2/top-1 -> loss2/top-1
I0311 16:29:35.801295  4547 net.cpp:97] Setting up loss2/top-1
I0311 16:29:35.801308  4547 net.cpp:104] Top shape: 1 1 1 1 (1)
I0311 16:29:35.801319  4547 layer_factory.hpp:78] Creating layer inception_4e/1x1
I0311 16:29:35.801337  4547 net.cpp:68] Creating Layer inception_4e/1x1
I0311 16:29:35.801349  4547 net.cpp:395] inception_4e/1x1 <- inception_4d/output_inception_4d/output_0_split_1
I0311 16:29:35.801364  4547 net.cpp:357] inception_4e/1x1 -> inception_4e/1x1
I0311 16:29:35.801379  4547 net.cpp:97] Setting up inception_4e/1x1
I0311 16:29:35.803022  4547 net.cpp:104] Top shape: 128 256 5 5 (819200)
I0311 16:29:35.803053  4547 layer_factory.hpp:78] Creating layer inception_4e/relu_1x1
I0311 16:29:35.803069  4547 net.cpp:68] Creating Layer inception_4e/relu_1x1
I0311 16:29:35.803083  4547 net.cpp:395] inception_4e/relu_1x1 <- inception_4e/1x1
I0311 16:29:35.803099  4547 net.cpp:346] inception_4e/relu_1x1 -> inception_4e/1x1 (in-place)
I0311 16:29:35.803133  4547 net.cpp:97] Setting up inception_4e/relu_1x1
I0311 16:29:35.803149  4547 net.cpp:104] Top shape: 128 256 5 5 (819200)
I0311 16:29:35.803161  4547 layer_factory.hpp:78] Creating layer inception_4e/3x3_reduce
I0311 16:29:35.803176  4547 net.cpp:68] Creating Layer inception_4e/3x3_reduce
I0311 16:29:35.803189  4547 net.cpp:395] inception_4e/3x3_reduce <- inception_4d/output_inception_4d/output_0_split_2
I0311 16:29:35.803205  4547 net.cpp:357] inception_4e/3x3_reduce -> inception_4e/3x3_reduce
I0311 16:29:35.803220  4547 net.cpp:97] Setting up inception_4e/3x3_reduce
I0311 16:29:35.804164  4547 net.cpp:104] Top shape: 128 160 5 5 (512000)
I0311 16:29:35.804189  4547 layer_factory.hpp:78] Creating layer inception_4e/relu_3x3_reduce
I0311 16:29:35.804204  4547 net.cpp:68] Creating Layer inception_4e/relu_3x3_reduce
I0311 16:29:35.804218  4547 net.cpp:395] inception_4e/relu_3x3_reduce <- inception_4e/3x3_reduce
I0311 16:29:35.804234  4547 net.cpp:346] inception_4e/relu_3x3_reduce -> inception_4e/3x3_reduce (in-place)
I0311 16:29:35.804250  4547 net.cpp:97] Setting up inception_4e/relu_3x3_reduce
I0311 16:29:35.804263  4547 net.cpp:104] Top shape: 128 160 5 5 (512000)
I0311 16:29:35.804275  4547 layer_factory.hpp:78] Creating layer inception_4e/3x3
I0311 16:29:35.804316  4547 net.cpp:68] Creating Layer inception_4e/3x3
I0311 16:29:35.804330  4547 net.cpp:395] inception_4e/3x3 <- inception_4e/3x3_reduce
I0311 16:29:35.804347  4547 net.cpp:357] inception_4e/3x3 -> inception_4e/3x3
I0311 16:29:35.804363  4547 net.cpp:97] Setting up inception_4e/3x3
I0311 16:29:35.809186  4547 net.cpp:104] Top shape: 128 320 5 5 (1024000)
I0311 16:29:35.809217  4547 layer_factory.hpp:78] Creating layer inception_4e/relu_3x3
I0311 16:29:35.809233  4547 net.cpp:68] Creating Layer inception_4e/relu_3x3
I0311 16:29:35.809247  4547 net.cpp:395] inception_4e/relu_3x3 <- inception_4e/3x3
I0311 16:29:35.809260  4547 net.cpp:346] inception_4e/relu_3x3 -> inception_4e/3x3 (in-place)
I0311 16:29:35.809274  4547 net.cpp:97] Setting up inception_4e/relu_3x3
I0311 16:29:35.809289  4547 net.cpp:104] Top shape: 128 320 5 5 (1024000)
I0311 16:29:35.809300  4547 layer_factory.hpp:78] Creating layer inception_4e/5x5_reduce
I0311 16:29:35.809319  4547 net.cpp:68] Creating Layer inception_4e/5x5_reduce
I0311 16:29:35.809331  4547 net.cpp:395] inception_4e/5x5_reduce <- inception_4d/output_inception_4d/output_0_split_3
I0311 16:29:35.809346  4547 net.cpp:357] inception_4e/5x5_reduce -> inception_4e/5x5_reduce
I0311 16:29:35.809362  4547 net.cpp:97] Setting up inception_4e/5x5_reduce
I0311 16:29:35.809612  4547 net.cpp:104] Top shape: 128 32 5 5 (102400)
I0311 16:29:35.809635  4547 layer_factory.hpp:78] Creating layer inception_4e/relu_5x5_reduce
I0311 16:29:35.809653  4547 net.cpp:68] Creating Layer inception_4e/relu_5x5_reduce
I0311 16:29:35.809665  4547 net.cpp:395] inception_4e/relu_5x5_reduce <- inception_4e/5x5_reduce
I0311 16:29:35.809679  4547 net.cpp:346] inception_4e/relu_5x5_reduce -> inception_4e/5x5_reduce (in-place)
I0311 16:29:35.809696  4547 net.cpp:97] Setting up inception_4e/relu_5x5_reduce
I0311 16:29:35.809710  4547 net.cpp:104] Top shape: 128 32 5 5 (102400)
I0311 16:29:35.809722  4547 layer_factory.hpp:78] Creating layer inception_4e/5x5
I0311 16:29:35.809737  4547 net.cpp:68] Creating Layer inception_4e/5x5
I0311 16:29:35.809748  4547 net.cpp:395] inception_4e/5x5 <- inception_4e/5x5_reduce
I0311 16:29:35.809762  4547 net.cpp:357] inception_4e/5x5 -> inception_4e/5x5
I0311 16:29:35.809777  4547 net.cpp:97] Setting up inception_4e/5x5
I0311 16:29:35.810901  4547 net.cpp:104] Top shape: 128 128 5 5 (409600)
I0311 16:29:35.810931  4547 layer_factory.hpp:78] Creating layer inception_4e/relu_5x5
I0311 16:29:35.810950  4547 net.cpp:68] Creating Layer inception_4e/relu_5x5
I0311 16:29:35.810972  4547 net.cpp:395] inception_4e/relu_5x5 <- inception_4e/5x5
I0311 16:29:35.810986  4547 net.cpp:346] inception_4e/relu_5x5 -> inception_4e/5x5 (in-place)
I0311 16:29:35.811002  4547 net.cpp:97] Setting up inception_4e/relu_5x5
I0311 16:29:35.811038  4547 net.cpp:104] Top shape: 128 128 5 5 (409600)
I0311 16:29:35.811051  4547 layer_factory.hpp:78] Creating layer inception_4e/pool
I0311 16:29:35.811064  4547 layer_factory.cpp:51] CUDNN does not support padding or multiple tops. Using Caffe's own pooling layer.
I0311 16:29:35.811077  4547 net.cpp:68] Creating Layer inception_4e/pool
I0311 16:29:35.811094  4547 net.cpp:395] inception_4e/pool <- inception_4d/output_inception_4d/output_0_split_4
I0311 16:29:35.811108  4547 net.cpp:357] inception_4e/pool -> inception_4e/pool
I0311 16:29:35.811123  4547 net.cpp:97] Setting up inception_4e/pool
I0311 16:29:35.811137  4547 net.cpp:104] Top shape: 128 528 5 5 (1689600)
I0311 16:29:35.811148  4547 layer_factory.hpp:78] Creating layer inception_4e/pool_proj
I0311 16:29:35.811163  4547 net.cpp:68] Creating Layer inception_4e/pool_proj
I0311 16:29:35.811175  4547 net.cpp:395] inception_4e/pool_proj <- inception_4e/pool
I0311 16:29:35.811192  4547 net.cpp:357] inception_4e/pool_proj -> inception_4e/pool_proj
I0311 16:29:35.811208  4547 net.cpp:97] Setting up inception_4e/pool_proj
I0311 16:29:35.812104  4547 net.cpp:104] Top shape: 128 128 5 5 (409600)
I0311 16:29:35.812131  4547 layer_factory.hpp:78] Creating layer inception_4e/relu_pool_proj
I0311 16:29:35.812146  4547 net.cpp:68] Creating Layer inception_4e/relu_pool_proj
I0311 16:29:35.812160  4547 net.cpp:395] inception_4e/relu_pool_proj <- inception_4e/pool_proj
I0311 16:29:35.812176  4547 net.cpp:346] inception_4e/relu_pool_proj -> inception_4e/pool_proj (in-place)
I0311 16:29:35.812191  4547 net.cpp:97] Setting up inception_4e/relu_pool_proj
I0311 16:29:35.812206  4547 net.cpp:104] Top shape: 128 128 5 5 (409600)
I0311 16:29:35.812218  4547 layer_factory.hpp:78] Creating layer inception_4e/output
I0311 16:29:35.812232  4547 net.cpp:68] Creating Layer inception_4e/output
I0311 16:29:35.812244  4547 net.cpp:395] inception_4e/output <- inception_4e/1x1
I0311 16:29:35.812257  4547 net.cpp:395] inception_4e/output <- inception_4e/3x3
I0311 16:29:35.812269  4547 net.cpp:395] inception_4e/output <- inception_4e/5x5
I0311 16:29:35.812281  4547 net.cpp:395] inception_4e/output <- inception_4e/pool_proj
I0311 16:29:35.812297  4547 net.cpp:357] inception_4e/output -> inception_4e/output
I0311 16:29:35.812312  4547 net.cpp:97] Setting up inception_4e/output
I0311 16:29:35.812325  4547 net.cpp:104] Top shape: 128 832 5 5 (2662400)
I0311 16:29:35.812337  4547 layer_factory.hpp:78] Creating layer pool4/3x3_s2
I0311 16:29:35.812350  4547 net.cpp:68] Creating Layer pool4/3x3_s2
I0311 16:29:35.812362  4547 net.cpp:395] pool4/3x3_s2 <- inception_4e/output
I0311 16:29:35.812376  4547 net.cpp:357] pool4/3x3_s2 -> pool4/3x3_s2
I0311 16:29:35.812391  4547 net.cpp:97] Setting up pool4/3x3_s2
I0311 16:29:35.812407  4547 net.cpp:104] Top shape: 128 832 2 2 (425984)
I0311 16:29:35.812432  4547 layer_factory.hpp:78] Creating layer pool4/3x3_s2_pool4/3x3_s2_0_split
I0311 16:29:35.812453  4547 net.cpp:68] Creating Layer pool4/3x3_s2_pool4/3x3_s2_0_split
I0311 16:29:35.812474  4547 net.cpp:395] pool4/3x3_s2_pool4/3x3_s2_0_split <- pool4/3x3_s2
I0311 16:29:35.812492  4547 net.cpp:357] pool4/3x3_s2_pool4/3x3_s2_0_split -> pool4/3x3_s2_pool4/3x3_s2_0_split_0
I0311 16:29:35.812507  4547 net.cpp:357] pool4/3x3_s2_pool4/3x3_s2_0_split -> pool4/3x3_s2_pool4/3x3_s2_0_split_1
I0311 16:29:35.812523  4547 net.cpp:357] pool4/3x3_s2_pool4/3x3_s2_0_split -> pool4/3x3_s2_pool4/3x3_s2_0_split_2
I0311 16:29:35.812541  4547 net.cpp:357] pool4/3x3_s2_pool4/3x3_s2_0_split -> pool4/3x3_s2_pool4/3x3_s2_0_split_3
I0311 16:29:35.812556  4547 net.cpp:97] Setting up pool4/3x3_s2_pool4/3x3_s2_0_split
I0311 16:29:35.812568  4547 net.cpp:104] Top shape: 128 832 2 2 (425984)
I0311 16:29:35.812579  4547 net.cpp:104] Top shape: 128 832 2 2 (425984)
I0311 16:29:35.812589  4547 net.cpp:104] Top shape: 128 832 2 2 (425984)
I0311 16:29:35.812600  4547 net.cpp:104] Top shape: 128 832 2 2 (425984)
I0311 16:29:35.812610  4547 layer_factory.hpp:78] Creating layer inception_5a/1x1
I0311 16:29:35.812643  4547 net.cpp:68] Creating Layer inception_5a/1x1
I0311 16:29:35.812656  4547 net.cpp:395] inception_5a/1x1 <- pool4/3x3_s2_pool4/3x3_s2_0_split_0
I0311 16:29:35.812674  4547 net.cpp:357] inception_5a/1x1 -> inception_5a/1x1
I0311 16:29:35.812690  4547 net.cpp:97] Setting up inception_5a/1x1
I0311 16:29:35.815171  4547 net.cpp:104] Top shape: 128 256 2 2 (131072)
I0311 16:29:35.815201  4547 layer_factory.hpp:78] Creating layer inception_5a/relu_1x1
I0311 16:29:35.815217  4547 net.cpp:68] Creating Layer inception_5a/relu_1x1
I0311 16:29:35.815229  4547 net.cpp:395] inception_5a/relu_1x1 <- inception_5a/1x1
I0311 16:29:35.815243  4547 net.cpp:346] inception_5a/relu_1x1 -> inception_5a/1x1 (in-place)
I0311 16:29:35.815258  4547 net.cpp:97] Setting up inception_5a/relu_1x1
I0311 16:29:35.815273  4547 net.cpp:104] Top shape: 128 256 2 2 (131072)
I0311 16:29:35.815284  4547 layer_factory.hpp:78] Creating layer inception_5a/3x3_reduce
I0311 16:29:35.815302  4547 net.cpp:68] Creating Layer inception_5a/3x3_reduce
I0311 16:29:35.815315  4547 net.cpp:395] inception_5a/3x3_reduce <- pool4/3x3_s2_pool4/3x3_s2_0_split_1
I0311 16:29:35.815330  4547 net.cpp:357] inception_5a/3x3_reduce -> inception_5a/3x3_reduce
I0311 16:29:35.815346  4547 net.cpp:97] Setting up inception_5a/3x3_reduce
I0311 16:29:35.816792  4547 net.cpp:104] Top shape: 128 160 2 2 (81920)
I0311 16:29:35.816817  4547 layer_factory.hpp:78] Creating layer inception_5a/relu_3x3_reduce
I0311 16:29:35.816844  4547 net.cpp:68] Creating Layer inception_5a/relu_3x3_reduce
I0311 16:29:35.816859  4547 net.cpp:395] inception_5a/relu_3x3_reduce <- inception_5a/3x3_reduce
I0311 16:29:35.816882  4547 net.cpp:346] inception_5a/relu_3x3_reduce -> inception_5a/3x3_reduce (in-place)
I0311 16:29:35.816897  4547 net.cpp:97] Setting up inception_5a/relu_3x3_reduce
I0311 16:29:35.816912  4547 net.cpp:104] Top shape: 128 160 2 2 (81920)
I0311 16:29:35.816925  4547 layer_factory.hpp:78] Creating layer inception_5a/3x3
I0311 16:29:35.816939  4547 net.cpp:68] Creating Layer inception_5a/3x3
I0311 16:29:35.816951  4547 net.cpp:395] inception_5a/3x3 <- inception_5a/3x3_reduce
I0311 16:29:35.816969  4547 net.cpp:357] inception_5a/3x3 -> inception_5a/3x3
I0311 16:29:35.816987  4547 net.cpp:97] Setting up inception_5a/3x3
I0311 16:29:35.821749  4547 net.cpp:104] Top shape: 128 320 2 2 (163840)
I0311 16:29:35.821779  4547 layer_factory.hpp:78] Creating layer inception_5a/relu_3x3
I0311 16:29:35.821792  4547 net.cpp:68] Creating Layer inception_5a/relu_3x3
I0311 16:29:35.821805  4547 net.cpp:395] inception_5a/relu_3x3 <- inception_5a/3x3
I0311 16:29:35.821820  4547 net.cpp:346] inception_5a/relu_3x3 -> inception_5a/3x3 (in-place)
I0311 16:29:35.821833  4547 net.cpp:97] Setting up inception_5a/relu_3x3
I0311 16:29:35.821848  4547 net.cpp:104] Top shape: 128 320 2 2 (163840)
I0311 16:29:35.821861  4547 layer_factory.hpp:78] Creating layer inception_5a/5x5_reduce
I0311 16:29:35.821877  4547 net.cpp:68] Creating Layer inception_5a/5x5_reduce
I0311 16:29:35.821890  4547 net.cpp:395] inception_5a/5x5_reduce <- pool4/3x3_s2_pool4/3x3_s2_0_split_2
I0311 16:29:35.821908  4547 net.cpp:357] inception_5a/5x5_reduce -> inception_5a/5x5_reduce
I0311 16:29:35.821924  4547 net.cpp:97] Setting up inception_5a/5x5_reduce
I0311 16:29:35.822270  4547 net.cpp:104] Top shape: 128 32 2 2 (16384)
I0311 16:29:35.822294  4547 layer_factory.hpp:78] Creating layer inception_5a/relu_5x5_reduce
I0311 16:29:35.822309  4547 net.cpp:68] Creating Layer inception_5a/relu_5x5_reduce
I0311 16:29:35.822321  4547 net.cpp:395] inception_5a/relu_5x5_reduce <- inception_5a/5x5_reduce
I0311 16:29:35.822335  4547 net.cpp:346] inception_5a/relu_5x5_reduce -> inception_5a/5x5_reduce (in-place)
I0311 16:29:35.822348  4547 net.cpp:97] Setting up inception_5a/relu_5x5_reduce
I0311 16:29:35.822363  4547 net.cpp:104] Top shape: 128 32 2 2 (16384)
I0311 16:29:35.822374  4547 layer_factory.hpp:78] Creating layer inception_5a/5x5
I0311 16:29:35.822392  4547 net.cpp:68] Creating Layer inception_5a/5x5
I0311 16:29:35.822404  4547 net.cpp:395] inception_5a/5x5 <- inception_5a/5x5_reduce
I0311 16:29:35.822444  4547 net.cpp:357] inception_5a/5x5 -> inception_5a/5x5
I0311 16:29:35.822461  4547 net.cpp:97] Setting up inception_5a/5x5
I0311 16:29:35.823822  4547 net.cpp:104] Top shape: 128 128 2 2 (65536)
I0311 16:29:35.823850  4547 layer_factory.hpp:78] Creating layer inception_5a/relu_5x5
I0311 16:29:35.823865  4547 net.cpp:68] Creating Layer inception_5a/relu_5x5
I0311 16:29:35.823879  4547 net.cpp:395] inception_5a/relu_5x5 <- inception_5a/5x5
I0311 16:29:35.823895  4547 net.cpp:346] inception_5a/relu_5x5 -> inception_5a/5x5 (in-place)
I0311 16:29:35.823911  4547 net.cpp:97] Setting up inception_5a/relu_5x5
I0311 16:29:35.823926  4547 net.cpp:104] Top shape: 128 128 2 2 (65536)
I0311 16:29:35.823938  4547 layer_factory.hpp:78] Creating layer inception_5a/pool
I0311 16:29:35.823951  4547 layer_factory.cpp:51] CUDNN does not support padding or multiple tops. Using Caffe's own pooling layer.
I0311 16:29:35.823963  4547 net.cpp:68] Creating Layer inception_5a/pool
I0311 16:29:35.823976  4547 net.cpp:395] inception_5a/pool <- pool4/3x3_s2_pool4/3x3_s2_0_split_3
I0311 16:29:35.823992  4547 net.cpp:357] inception_5a/pool -> inception_5a/pool
I0311 16:29:35.824029  4547 net.cpp:97] Setting up inception_5a/pool
I0311 16:29:35.824045  4547 net.cpp:104] Top shape: 128 832 2 2 (425984)
I0311 16:29:35.824057  4547 layer_factory.hpp:78] Creating layer inception_5a/pool_proj
I0311 16:29:35.824072  4547 net.cpp:68] Creating Layer inception_5a/pool_proj
I0311 16:29:35.824084  4547 net.cpp:395] inception_5a/pool_proj <- inception_5a/pool
I0311 16:29:35.824100  4547 net.cpp:357] inception_5a/pool_proj -> inception_5a/pool_proj
I0311 16:29:35.824115  4547 net.cpp:97] Setting up inception_5a/pool_proj
I0311 16:29:35.825381  4547 net.cpp:104] Top shape: 128 128 2 2 (65536)
I0311 16:29:35.825405  4547 layer_factory.hpp:78] Creating layer inception_5a/relu_pool_proj
I0311 16:29:35.825420  4547 net.cpp:68] Creating Layer inception_5a/relu_pool_proj
I0311 16:29:35.825433  4547 net.cpp:395] inception_5a/relu_pool_proj <- inception_5a/pool_proj
I0311 16:29:35.825449  4547 net.cpp:346] inception_5a/relu_pool_proj -> inception_5a/pool_proj (in-place)
I0311 16:29:35.825465  4547 net.cpp:97] Setting up inception_5a/relu_pool_proj
I0311 16:29:35.825480  4547 net.cpp:104] Top shape: 128 128 2 2 (65536)
I0311 16:29:35.825501  4547 layer_factory.hpp:78] Creating layer inception_5a/output
I0311 16:29:35.825517  4547 net.cpp:68] Creating Layer inception_5a/output
I0311 16:29:35.825530  4547 net.cpp:395] inception_5a/output <- inception_5a/1x1
I0311 16:29:35.825551  4547 net.cpp:395] inception_5a/output <- inception_5a/3x3
I0311 16:29:35.825566  4547 net.cpp:395] inception_5a/output <- inception_5a/5x5
I0311 16:29:35.825577  4547 net.cpp:395] inception_5a/output <- inception_5a/pool_proj
I0311 16:29:35.825598  4547 net.cpp:357] inception_5a/output -> inception_5a/output
I0311 16:29:35.825614  4547 net.cpp:97] Setting up inception_5a/output
I0311 16:29:35.825628  4547 net.cpp:104] Top shape: 128 832 2 2 (425984)
I0311 16:29:35.825644  4547 layer_factory.hpp:78] Creating layer inception_5a/output_inception_5a/output_0_split
I0311 16:29:35.825664  4547 net.cpp:68] Creating Layer inception_5a/output_inception_5a/output_0_split
I0311 16:29:35.825676  4547 net.cpp:395] inception_5a/output_inception_5a/output_0_split <- inception_5a/output
I0311 16:29:35.825690  4547 net.cpp:357] inception_5a/output_inception_5a/output_0_split -> inception_5a/output_inception_5a/output_0_split_0
I0311 16:29:35.825707  4547 net.cpp:357] inception_5a/output_inception_5a/output_0_split -> inception_5a/output_inception_5a/output_0_split_1
I0311 16:29:35.825723  4547 net.cpp:357] inception_5a/output_inception_5a/output_0_split -> inception_5a/output_inception_5a/output_0_split_2
I0311 16:29:35.825739  4547 net.cpp:357] inception_5a/output_inception_5a/output_0_split -> inception_5a/output_inception_5a/output_0_split_3
I0311 16:29:35.825753  4547 net.cpp:97] Setting up inception_5a/output_inception_5a/output_0_split
I0311 16:29:35.825784  4547 net.cpp:104] Top shape: 128 832 2 2 (425984)
I0311 16:29:35.825798  4547 net.cpp:104] Top shape: 128 832 2 2 (425984)
I0311 16:29:35.825808  4547 net.cpp:104] Top shape: 128 832 2 2 (425984)
I0311 16:29:35.825819  4547 net.cpp:104] Top shape: 128 832 2 2 (425984)
I0311 16:29:35.825829  4547 layer_factory.hpp:78] Creating layer inception_5b/1x1
I0311 16:29:35.825846  4547 net.cpp:68] Creating Layer inception_5b/1x1
I0311 16:29:35.825860  4547 net.cpp:395] inception_5b/1x1 <- inception_5a/output_inception_5a/output_0_split_0
I0311 16:29:35.825878  4547 net.cpp:357] inception_5b/1x1 -> inception_5b/1x1
I0311 16:29:35.825896  4547 net.cpp:97] Setting up inception_5b/1x1
I0311 16:29:35.829491  4547 net.cpp:104] Top shape: 128 384 2 2 (196608)
I0311 16:29:35.829517  4547 layer_factory.hpp:78] Creating layer inception_5b/relu_1x1
I0311 16:29:35.829534  4547 net.cpp:68] Creating Layer inception_5b/relu_1x1
I0311 16:29:35.829546  4547 net.cpp:395] inception_5b/relu_1x1 <- inception_5b/1x1
I0311 16:29:35.829562  4547 net.cpp:346] inception_5b/relu_1x1 -> inception_5b/1x1 (in-place)
I0311 16:29:35.829577  4547 net.cpp:97] Setting up inception_5b/relu_1x1
I0311 16:29:35.829591  4547 net.cpp:104] Top shape: 128 384 2 2 (196608)
I0311 16:29:35.829603  4547 layer_factory.hpp:78] Creating layer inception_5b/3x3_reduce
I0311 16:29:35.829618  4547 net.cpp:68] Creating Layer inception_5b/3x3_reduce
I0311 16:29:35.829630  4547 net.cpp:395] inception_5b/3x3_reduce <- inception_5a/output_inception_5a/output_0_split_1
I0311 16:29:35.829648  4547 net.cpp:357] inception_5b/3x3_reduce -> inception_5b/3x3_reduce
I0311 16:29:35.829663  4547 net.cpp:97] Setting up inception_5b/3x3_reduce
I0311 16:29:35.831480  4547 net.cpp:104] Top shape: 128 192 2 2 (98304)
I0311 16:29:35.831506  4547 layer_factory.hpp:78] Creating layer inception_5b/relu_3x3_reduce
I0311 16:29:35.831522  4547 net.cpp:68] Creating Layer inception_5b/relu_3x3_reduce
I0311 16:29:35.831536  4547 net.cpp:395] inception_5b/relu_3x3_reduce <- inception_5b/3x3_reduce
I0311 16:29:35.831549  4547 net.cpp:346] inception_5b/relu_3x3_reduce -> inception_5b/3x3_reduce (in-place)
I0311 16:29:35.831563  4547 net.cpp:97] Setting up inception_5b/relu_3x3_reduce
I0311 16:29:35.831578  4547 net.cpp:104] Top shape: 128 192 2 2 (98304)
I0311 16:29:35.831590  4547 layer_factory.hpp:78] Creating layer inception_5b/3x3
I0311 16:29:35.831604  4547 net.cpp:68] Creating Layer inception_5b/3x3
I0311 16:29:35.831616  4547 net.cpp:395] inception_5b/3x3 <- inception_5b/3x3_reduce
I0311 16:29:35.831632  4547 net.cpp:357] inception_5b/3x3 -> inception_5b/3x3
I0311 16:29:35.831648  4547 net.cpp:97] Setting up inception_5b/3x3
I0311 16:29:35.838775  4547 net.cpp:104] Top shape: 128 384 2 2 (196608)
I0311 16:29:35.838804  4547 layer_factory.hpp:78] Creating layer inception_5b/relu_3x3
I0311 16:29:35.838821  4547 net.cpp:68] Creating Layer inception_5b/relu_3x3
I0311 16:29:35.838834  4547 net.cpp:395] inception_5b/relu_3x3 <- inception_5b/3x3
I0311 16:29:35.838850  4547 net.cpp:346] inception_5b/relu_3x3 -> inception_5b/3x3 (in-place)
I0311 16:29:35.838866  4547 net.cpp:97] Setting up inception_5b/relu_3x3
I0311 16:29:35.838881  4547 net.cpp:104] Top shape: 128 384 2 2 (196608)
I0311 16:29:35.838892  4547 layer_factory.hpp:78] Creating layer inception_5b/5x5_reduce
I0311 16:29:35.838907  4547 net.cpp:68] Creating Layer inception_5b/5x5_reduce
I0311 16:29:35.838919  4547 net.cpp:395] inception_5b/5x5_reduce <- inception_5a/output_inception_5a/output_0_split_2
I0311 16:29:35.838937  4547 net.cpp:357] inception_5b/5x5_reduce -> inception_5b/5x5_reduce
I0311 16:29:35.838953  4547 net.cpp:97] Setting up inception_5b/5x5_reduce
I0311 16:29:35.839620  4547 net.cpp:104] Top shape: 128 48 2 2 (24576)
I0311 16:29:35.839648  4547 layer_factory.hpp:78] Creating layer inception_5b/relu_5x5_reduce
I0311 16:29:35.839665  4547 net.cpp:68] Creating Layer inception_5b/relu_5x5_reduce
I0311 16:29:35.839679  4547 net.cpp:395] inception_5b/relu_5x5_reduce <- inception_5b/5x5_reduce
I0311 16:29:35.839694  4547 net.cpp:346] inception_5b/relu_5x5_reduce -> inception_5b/5x5_reduce (in-place)
I0311 16:29:35.839733  4547 net.cpp:97] Setting up inception_5b/relu_5x5_reduce
I0311 16:29:35.839751  4547 net.cpp:104] Top shape: 128 48 2 2 (24576)
I0311 16:29:35.839762  4547 layer_factory.hpp:78] Creating layer inception_5b/5x5
I0311 16:29:35.839781  4547 net.cpp:68] Creating Layer inception_5b/5x5
I0311 16:29:35.839793  4547 net.cpp:395] inception_5b/5x5 <- inception_5b/5x5_reduce
I0311 16:29:35.839807  4547 net.cpp:357] inception_5b/5x5 -> inception_5b/5x5
I0311 16:29:35.839823  4547 net.cpp:97] Setting up inception_5b/5x5
I0311 16:29:35.841560  4547 net.cpp:104] Top shape: 128 128 2 2 (65536)
I0311 16:29:35.841585  4547 layer_factory.hpp:78] Creating layer inception_5b/relu_5x5
I0311 16:29:35.841611  4547 net.cpp:68] Creating Layer inception_5b/relu_5x5
I0311 16:29:35.841626  4547 net.cpp:395] inception_5b/relu_5x5 <- inception_5b/5x5
I0311 16:29:35.841640  4547 net.cpp:346] inception_5b/relu_5x5 -> inception_5b/5x5 (in-place)
I0311 16:29:35.841655  4547 net.cpp:97] Setting up inception_5b/relu_5x5
I0311 16:29:35.841670  4547 net.cpp:104] Top shape: 128 128 2 2 (65536)
I0311 16:29:35.841682  4547 layer_factory.hpp:78] Creating layer inception_5b/pool
I0311 16:29:35.841694  4547 layer_factory.cpp:51] CUDNN does not support padding or multiple tops. Using Caffe's own pooling layer.
I0311 16:29:35.841711  4547 net.cpp:68] Creating Layer inception_5b/pool
I0311 16:29:35.841723  4547 net.cpp:395] inception_5b/pool <- inception_5a/output_inception_5a/output_0_split_3
I0311 16:29:35.841738  4547 net.cpp:357] inception_5b/pool -> inception_5b/pool
I0311 16:29:35.841753  4547 net.cpp:97] Setting up inception_5b/pool
I0311 16:29:35.841768  4547 net.cpp:104] Top shape: 128 832 2 2 (425984)
I0311 16:29:35.841778  4547 layer_factory.hpp:78] Creating layer inception_5b/pool_proj
I0311 16:29:35.841794  4547 net.cpp:68] Creating Layer inception_5b/pool_proj
I0311 16:29:35.841805  4547 net.cpp:395] inception_5b/pool_proj <- inception_5b/pool
I0311 16:29:35.841822  4547 net.cpp:357] inception_5b/pool_proj -> inception_5b/pool_proj
I0311 16:29:35.841837  4547 net.cpp:97] Setting up inception_5b/pool_proj
I0311 16:29:35.843060  4547 net.cpp:104] Top shape: 128 128 2 2 (65536)
I0311 16:29:35.843088  4547 layer_factory.hpp:78] Creating layer inception_5b/relu_pool_proj
I0311 16:29:35.843103  4547 net.cpp:68] Creating Layer inception_5b/relu_pool_proj
I0311 16:29:35.843117  4547 net.cpp:395] inception_5b/relu_pool_proj <- inception_5b/pool_proj
I0311 16:29:35.843132  4547 net.cpp:346] inception_5b/relu_pool_proj -> inception_5b/pool_proj (in-place)
I0311 16:29:35.843145  4547 net.cpp:97] Setting up inception_5b/relu_pool_proj
I0311 16:29:35.843160  4547 net.cpp:104] Top shape: 128 128 2 2 (65536)
I0311 16:29:35.843173  4547 layer_factory.hpp:78] Creating layer inception_5b/output
I0311 16:29:35.843186  4547 net.cpp:68] Creating Layer inception_5b/output
I0311 16:29:35.843199  4547 net.cpp:395] inception_5b/output <- inception_5b/1x1
I0311 16:29:35.843211  4547 net.cpp:395] inception_5b/output <- inception_5b/3x3
I0311 16:29:35.843224  4547 net.cpp:395] inception_5b/output <- inception_5b/5x5
I0311 16:29:35.843237  4547 net.cpp:395] inception_5b/output <- inception_5b/pool_proj
I0311 16:29:35.843255  4547 net.cpp:357] inception_5b/output -> inception_5b/output
I0311 16:29:35.843269  4547 net.cpp:97] Setting up inception_5b/output
I0311 16:29:35.843282  4547 net.cpp:104] Top shape: 128 1024 2 2 (524288)
I0311 16:29:35.843293  4547 layer_factory.hpp:78] Creating layer pool5/7x7_s1
I0311 16:29:35.843307  4547 net.cpp:68] Creating Layer pool5/7x7_s1
I0311 16:29:35.843318  4547 net.cpp:395] pool5/7x7_s1 <- inception_5b/output
I0311 16:29:35.843345  4547 net.cpp:357] pool5/7x7_s1 -> pool5/7x7_s1
I0311 16:29:35.843363  4547 net.cpp:97] Setting up pool5/7x7_s1
I0311 16:29:35.843379  4547 net.cpp:104] Top shape: 128 1024 1 1 (131072)
I0311 16:29:35.843392  4547 layer_factory.hpp:78] Creating layer pool5/drop_7x7_s1
I0311 16:29:35.843406  4547 net.cpp:68] Creating Layer pool5/drop_7x7_s1
I0311 16:29:35.843446  4547 net.cpp:395] pool5/drop_7x7_s1 <- pool5/7x7_s1
I0311 16:29:35.843461  4547 net.cpp:346] pool5/drop_7x7_s1 -> pool5/7x7_s1 (in-place)
I0311 16:29:35.843475  4547 net.cpp:97] Setting up pool5/drop_7x7_s1
I0311 16:29:35.843488  4547 net.cpp:104] Top shape: 128 1024 1 1 (131072)
I0311 16:29:35.843499  4547 layer_factory.hpp:78] Creating layer loss3/classifier
I0311 16:29:35.843518  4547 net.cpp:68] Creating Layer loss3/classifier
I0311 16:29:35.843529  4547 net.cpp:395] loss3/classifier <- pool5/7x7_s1
I0311 16:29:35.843544  4547 net.cpp:357] loss3/classifier -> loss3/classifier
I0311 16:29:35.843560  4547 net.cpp:97] Setting up loss3/classifier
I0311 16:29:35.844852  4547 net.cpp:104] Top shape: 128 121 1 1 (15488)
I0311 16:29:35.844880  4547 layer_factory.hpp:78] Creating layer loss3/classifier_loss3/classifier_0_split
I0311 16:29:35.844897  4547 net.cpp:68] Creating Layer loss3/classifier_loss3/classifier_0_split
I0311 16:29:35.844908  4547 net.cpp:395] loss3/classifier_loss3/classifier_0_split <- loss3/classifier
I0311 16:29:35.844925  4547 net.cpp:357] loss3/classifier_loss3/classifier_0_split -> loss3/classifier_loss3/classifier_0_split_0
I0311 16:29:35.844943  4547 net.cpp:357] loss3/classifier_loss3/classifier_0_split -> loss3/classifier_loss3/classifier_0_split_1
I0311 16:29:35.844957  4547 net.cpp:97] Setting up loss3/classifier_loss3/classifier_0_split
I0311 16:29:35.844970  4547 net.cpp:104] Top shape: 128 121 1 1 (15488)
I0311 16:29:35.844981  4547 net.cpp:104] Top shape: 128 121 1 1 (15488)
I0311 16:29:35.844992  4547 layer_factory.hpp:78] Creating layer loss3/loss3
I0311 16:29:35.845005  4547 net.cpp:68] Creating Layer loss3/loss3
I0311 16:29:35.845017  4547 net.cpp:395] loss3/loss3 <- loss3/classifier_loss3/classifier_0_split_0
I0311 16:29:35.845031  4547 net.cpp:395] loss3/loss3 <- label_data_1_split_4
I0311 16:29:35.845047  4547 net.cpp:357] loss3/loss3 -> loss3/loss3
I0311 16:29:35.845062  4547 net.cpp:97] Setting up loss3/loss3
I0311 16:29:35.845075  4547 layer_factory.hpp:78] Creating layer loss3/loss3
I0311 16:29:35.845134  4547 net.cpp:104] Top shape: 1 1 1 1 (1)
I0311 16:29:35.845149  4547 net.cpp:110]     with loss weight 1
I0311 16:29:35.845172  4547 layer_factory.hpp:78] Creating layer loss3/top-1
I0311 16:29:35.845187  4547 net.cpp:68] Creating Layer loss3/top-1
I0311 16:29:35.845199  4547 net.cpp:395] loss3/top-1 <- loss3/classifier_loss3/classifier_0_split_1
I0311 16:29:35.845212  4547 net.cpp:395] loss3/top-1 <- label_data_1_split_5
I0311 16:29:35.845228  4547 net.cpp:357] loss3/top-1 -> loss3/top-1
I0311 16:29:35.845244  4547 net.cpp:97] Setting up loss3/top-1
I0311 16:29:35.845257  4547 net.cpp:104] Top shape: 1 1 1 1 (1)
I0311 16:29:35.845268  4547 net.cpp:173] loss3/top-1 does not need backward computation.
I0311 16:29:35.845279  4547 net.cpp:171] loss3/loss3 needs backward computation.
I0311 16:29:35.845290  4547 net.cpp:171] loss3/classifier_loss3/classifier_0_split needs backward computation.
I0311 16:29:35.845301  4547 net.cpp:171] loss3/classifier needs backward computation.
I0311 16:29:35.845312  4547 net.cpp:171] pool5/drop_7x7_s1 needs backward computation.
…
