…
  transform_param {
    mirror: true
    mean_file: "/media/data/kaggle/nationalDataScienceBowl/data/typeF/train_mean.binaryproto"
    affine_param {
      x_stretch_unirnd_range: 0.01
      y_stretch_unirnd_range: 0.01
      rotation_unirnd_range: 180
      max_translation: 5
      background_color: 255
    }
  }
  image_data_affine_param {
    source: "/media/data/kaggle/nationalDataScienceBowl/data/typeF/train.txt"
    scale: 0.00390625
    batch_size: 128
    shuffle: true
    new_size: 96
    is_color: false
    root_folder: "/media/data/kaggle/nationalDataScienceBowl/data/typeF/"
  }
}
layers {
  bottom: "data"
  top: "conv1/7x7_s2"
  name: "conv1/7x7_s2"
  type: CONVOLUTION
  blobs_lr: 1
  blobs_lr: 2
  weight_decay: 1
  weight_decay: 0
  convolution_param {
    num_output: 64
    kernel_size: 4
    stride: 2
    weight_filler {
      type: "xavier"
    }
    bias_filler {
      type: "constant"
    }
  }
}
layers {
  bottom: "conv1/7x7_s2"
  top: "conv1/7x7_s2/bn"
  name: "conv1/7x7_s2/bn"
  type: BN
  blobs_lr: 1
  blobs_lr: 1
  weight_decay: 0
  weight_decay: 0
  bn_param {
    scale_filler {
      type: "constant"
      value: 1
    }
    shift_filler {
      type: "constant"
      value: 0
    }
  }
}
layers {
  bottom: "conv1/7x7_s2/bn"
  top: "conv1/7x7_s2/bn"
  name: "conv1/relu_7x7"
  type: RELU
}
layers {
  bottom: "conv1/7x7_s2/bn"
  top: "pool1/3x3_s2"
  name: "pool1/3x3_s2"
  type: POOLING
  pooling_param {
    pool: MAX
    kernel_size: 3
    stride: 2
  }
}
layers {
  bottom: "pool1/3x3_s2"
  top: "conv2/3x3_reduce"
  name: "conv2/3x3_reduce"
  type: CONVOLUTION
  blobs_lr: 1
  blobs_lr: 2
  weight_decay: 1
  weight_decay: 0
  convolution_param {
    num_output: 64
    kernel_size: 1
    weight_filler {
      type: "xavier"
    }
    bias_filler {
      type: "constant"
    }
  }
}
layers {
  bottom: "conv2/3x3_reduce"
  top: "conv2/3x3_reduce/bn"
  name: "conv2/3x3_reduce/bn"
  type: BN
  blobs_lr: 1
  blobs_lr: 1
  weight_decay: 0
  weight_decay: 0
  bn_param {
    scale_filler {
      type: "constant"
      value: 1
    }
    shift_filler {
      type: "constant"
      value: 0
    }
  }
}
layers {
  bottom: "conv2/3x3_reduce/bn"
  top: "conv2/3x3_reduce/bn"
  name: "conv2/relu_3x3_reduce"
  type: RELU
}
layers {
  bottom: "conv2/3x3_reduce/bn"
  top: "conv2/3x3"
  name: "conv2/3x3"
  type: CONVOLUTION
  blobs_lr: 1
  blobs_lr: 2
  weight_decay: 1
  weight_decay: 0
  convolution_param {
    num_output: 192
    pad: 1
    kernel_size: 3
    weight_filler {
      type: "xavier"
    }
    bias_filler {
      type: "constant"
    }
  }
}
layers {
  bottom: "conv2/3x3"
  top: "conv2/3x3/bn"
  name: "conv2/3x3/bn"
  type: BN
  blobs_lr: 1
  blobs_lr: 1
  weight_decay: 0
  weight_decay: 0
  bn_param {
    scale_filler {
      type: "constant"
      value: 1
    }
    shift_filler {
      type: "constant"
      value: 0
    }
  }
}
layers {
  bottom: "conv2/3x3/bn"
  top: "conv2/3x3/bn"
  name: "conv2/relu_3x3"
  type: RELU
}
layers {
  bottom: "conv2/3x3/bn"
  top: "pool2/3x3_s2"
  name: "pool2/3x3_s2"
  type: POOLING
  pooling_param {
    pool: MAX
    kernel_size: 3
    stride: 2
  }
}
layers {
  bottom: "pool2/3x3_s2"
  top: "inception_3a/1x1"
  name: "inception_3a/1x1"
  type: CONVOLUTION
  blobs_lr: 1
  blobs_lr: 2
  weight_decay: 1
  weight_decay: 0
  convolution_param {
    num_output: 64
    kernel_size: 1
    weight_filler {
      type: "xavier"
    }
    bias_filler {
      type: "constant"
    }
  }
}
layers {
  bottom: "inception_3a/1x1"
  top: "inception_3a/1x1/bn"
  name: "inception_3a/1x1/bn"
  type: BN
  blobs_lr: 1
  blobs_lr: 1
  weight_decay: 0
  weight_decay: 0
  bn_param {
    scale_filler {
      type: "constant"
      value: 1
    }
    shift_filler {
      type: "constant"
      value: 0
    }
  }
}
layers {
  bottom: "inception_3a/1x1/bn"
  top: "inception_3a/1x1/bn"
  name: "inception_3a/relu_1x1"
  type: RELU
}
layers {
  bottom: "pool2/3x3_s2"
  top: "inception_3a/3x3_reduce"
  name: "inception_3a/3x3_reduce"
  type: CONVOLUTION
  blobs_lr: 1
  blobs_lr: 2
  weight_decay: 1
  weight_decay: 0
  convolution_param {
    num_output: 96
    kernel_size: 1
    weight_filler {
      type: "xavier"
    }
    bias_filler {
      type: "constant"
    }
  }
}
layers {
  bottom: "inception_3a/3x3_reduce"
  top: "inception_3a/3x3_reduce/bn"
  name: "inception_3a/3x3_reduce/bn"
  type: BN
  blobs_lr: 1
  blobs_lr: 1
  weight_decay: 0
  weight_decay: 0
  bn_param {
    scale_filler {
      type: "constant"
      value: 1
    }
    shift_filler {
      type: "constant"
      value: 0
    }
  }
}
layers {
  bottom: "inception_3a/3x3_reduce/bn"
  top: "inception_3a/3x3_reduce/bn"
  name: "inception_3a/relu_3x3_reduce"
  type: RELU
}
layers {
  bottom: "inception_3a/3x3_reduce/bn"
  top: "inception_3a/3x3"
  name: "inception_3a/3x3"
  type: CONVOLUTION
  blobs_lr: 1
  blobs_lr: 2
  weight_decay: 1
  weight_decay: 0
  convolution_param {
    num_output: 128
    pad: 1
    kernel_size: 3
    weight_filler {
      type: "xavier"
    }
    bias_filler {
      type: "constant"
    }
  }
}
layers {
  bottom: "inception_3a/3x3"
  top: "inception_3a/3x3/bn"
  name: "inception_3a/3x3/bn"
  type: BN
  blobs_lr: 1
  blobs_lr: 1
  weight_decay: 0
  weight_decay: 0
  bn_param {
    scale_filler {
      type: "constant"
      value: 1
    }
    shift_filler {
      type: "constant"
      value: 0
    }
  }
}
layers {
  bottom: "inception_3a/3x3/bn"
  top: "inception_3a/3x3/bn"
  name: "inception_3a/relu_3x3"
  type: RELU
}
layers {
  bottom: "pool2/3x3_s2"
  top: "inception_3a/5x5_reduce"
  name: "inception_3a/5x5_reduce"
  type: CONVOLUTION
  blobs_lr: 1
  blobs_lr: 2
  weight_decay: 1
  weight_decay: 0
  convolution_param {
    num_output: 16
    kernel_size: 1
    weight_filler {
      type: "xavier"
    }
    bias_filler {
      type: "constant"
    }
  }
}
layers {
  bottom: "inception_3a/5x5_reduce"
  top: "inception_3a/5x5_reduce/bn"
  name: "inception_3a/5x5_reduce/bn"
  type: BN
  blobs_lr: 1
  blobs_lr: 1
  weight_decay: 0
  weight_decay: 0
  bn_param {
    scale_filler {
      type: "constant"
      value: 1
    }
    shift_filler {
      type: "constant"
      value: 0
    }
  }
}
layers {
  bottom: "inception_3a/5x5_reduce/bn"
  top: "inception_3a/5x5_reduce/bn"
  name: "inception_3a/relu_5x5_reduce"
  type: RELU
}
layers {
  bottom: "inception_3a/5x5_reduce/bn"
  top: "inception_3a/5x5"
  name: "inception_3a/5x5"
  type: CONVOLUTION
  blobs_lr: 1
  blobs_lr: 2
  weight_decay: 1
  weight_decay: 0
  convolution_param {
    num_output: 32
    pad: 2
    kernel_size: 5
    weight_filler {
      type: "xavier"
    }
    bias_filler {
      type: "constant"
    }
  }
}
layers {
  bottom: "inception_3a/5x5"
  top: "inception_3a/5x5/bn"
  name: "inception_3a/5x5/bn"
  type: BN
  blobs_lr: 1
  blobs_lr: 1
  weight_decay: 0
  weight_decay: 0
  bn_param {
    scale_filler {
      type: "constant"
      value: 1
    }
    shift_filler {
      type: "constant"
      value: 0
    }
  }
}
layers {
  bottom: "inception_3a/5x5/bn"
  top: "inception_3a/5x5/bn"
  name: "inception_3a/relu_5x5"
  type: RELU
}
layers {
  bottom: "pool2/3x3_s2"
  top: "inception_3a/pool"
  name: "inception_3a/pool"
  type: POOLING
  pooling_param {
    pool: MAX
    kernel_size: 3
    stride: 1
    pad: 1
  }
}
layers {
  bottom: "inception_3a/pool"
  top: "inception_3a/pool_proj"
  name: "inception_3a/pool_proj"
  type: CONVOLUTION
  blobs_lr: 1
  blobs_lr: 2
  weight_decay: 1
  weight_decay: 0
  convolution_param {
    num_output: 32
    kernel_size: 1
    weight_filler {
      type: "xavier"
    }
    bias_filler {
      type: "constant"
    }
  }
}
layers {
  bottom: "inception_3a/pool_proj"
  top: "inception_3a/pool_proj/bn"
  name: "inception_3a/pool_proj/bn"
  type: BN
  blobs_lr: 1
  blobs_lr: 1
  weight_decay: 0
  weight_decay: 0
  bn_param {
    scale_filler {
      type: "constant"
      value: 1
    }
    shift_filler {
      type: "constant"
      value: 0
    }
  }
}
layers {
  bottom: "inception_3a/pool_proj/bn"
  top: "inception_3a/pool_proj/bn"
  name: "inception_3a/relu_pool_proj"
  type: RELU
}
layers {
  bottom: "inception_3a/1x1/bn"
  bottom: "inception_3a/3x3/bn"
  bottom: "inception_3a/5x5/bn"
  bottom: "inception_3a/pool_proj/bn"
  top: "inception_3a/output"
  name: "inception_3a/output"
  type: CONCAT
}
layers {
  bottom: "inception_3a/output"
  top: "inception_3b/1x1"
  name: "inception_3b/1x1"
  type: CONVOLUTION
  blobs_lr: 1
  blobs_lr: 2
  weight_decay: 1
  weight_decay: 0
  convolution_param {
    num_output: 128
    kernel_size: 1
    weight_filler {
      type: "xavier"
    }
    bias_filler {
      type: "constant"
    }
  }
}
layers {
  bottom: "inception_3b/1x1"
  top: "inception_3b/1x1/bn"
  name: "inception_3b/1x1/bn"
  type: BN
  blobs_lr: 1
  blobs_lr: 1
  weight_decay: 0
  weight_decay: 0
  bn_param {
    scale_filler {
      type: "constant"
      value: 1
    }
    shift_filler {
      type: "constant"
      value: 0
    }
  }
}
layers {
  bottom: "inception_3b/1x1/bn"
  top: "inception_3b/1x1/bn"
  name: "inception_3b/relu_1x1"
  type: RELU
}
layers {
  bottom: "inception_3a/output"
  top: "inception_3b/3x3_reduce"
  name: "inception_3b/3x3_reduce"
  type: CONVOLUTION
  blobs_lr: 1
  blobs_lr: 2
  weight_decay: 1
  weight_decay: 0
  convolution_param {
    num_output: 128
    kernel_size: 1
    weight_filler {
      type: "xavier"
    }
    bias_filler {
      type: "constant"
    }
  }
}
layers {
  bottom: "inception_3b/3x3_reduce"
  top: "inception_3b/3x3_reduce/bn"
  name: "inception_3b/3x3_reduce/bn"
  type: BN
  blobs_lr: 1
  blobs_lr: 1
  weight_decay: 0
  weight_decay: 0
  bn_param {
    scale_filler {
      type: "constant"
      value: 1
    }
    shift_filler {
      type: "constant"
      value: 0
    }
  }
}
layers {
  bottom: "inception_3b/3x3_reduce/bn"
  top: "inception_3b/3x3_reduce/bn"
  name: "inception_3b/relu_3x3_reduce"
  type: RELU
}
layers {
  bottom: "inception_3b/3x3_reduce/bn"
  top: "inception_3b/3x3"
  name: "inception_3b/3x3"
  type: CONVOLUTION
  blobs_lr: 1
  blobs_lr: 2
  weight_decay: 1
  weight_decay: 0
  convolution_param {
    num_output: 192
    pad: 1
    kernel_size: 3
    weight_filler {
      type: "xavier"
    }
    bias_filler {
      type: "constant"
    }
  }
}
layers {
  bottom: "inception_3b/3x3"
  top: "inception_3b/3x3/bn"
  name: "inception_3b/3x3/bn"
  type: BN
  blobs_lr: 1
  blobs_lr: 1
  weight_decay: 0
  weight_decay: 0
  bn_param {
    scale_filler {
      type: "constant"
      value: 1
    }
    shift_filler {
      type: "constant"
      value: 0
    }
  }
}
layers {
  bottom: "inception_3b/3x3/bn"
  top: "inception_3b/3x3/bn"
  name: "inception_3b/relu_3x3"
  type: RELU
}
layers {
  bottom: "inception_3a/output"
  top: "inception_3b/5x5_reduce"
  name: "inception_3b/5x5_reduce"
  type: CONVOLUTION
  blobs_lr: 1
  blobs_lr: 2
  weight_decay: 1
  weight_decay: 0
  convolution_param {
    num_output: 32
    kernel_size: 1
    weight_filler {
      type: "xavier"
    }
    bias_filler {
      type: "constant"
    }
  }
}
layers {
  bottom: "inception_3b/5x5_reduce"
  top: "inception_3b/5x5_reduce/bn"
  name: "inception_3b/5x5_reduce/bn"
  type: BN
  blobs_lr: 1
  blobs_lr: 1
  weight_decay: 0
  weight_decay: 0
  bn_param {
    scale_filler {
      type: "constant"
      value: 1
    }
    shift_filler {
      type: "constant"
      value: 0
    }
  }
}
layers {
  bottom: "inception_3b/5x5_reduce/bn"
  top: "inception_3b/5x5_reduce/bn"
  name: "inception_3b/relu_5x5_reduce"
  type: RELU
}
layers {
  bottom: "inception_3b/5x5_reduce/bn"
  top: "inception_3b/5x5"
  name: "inception_3b/5x5"
  type: CONVOLUTION
  blobs_lr: 1
  blobs_lr: 2
  weight_decay: 1
  weight_decay: 0
  convolution_param {
    num_output: 96
    pad: 2
    kernel_size: 5
    weight_filler {
      type: "xavier"
    }
    bias_filler {
      type: "constant"
    }
  }
}
layers {
  bottom: "inception_3b/5x5"
  top: "inception_3b/5x5/bn"
  name: "inception_3b/5x5/bn"
  type: BN
  blobs_lr: 1
  blobs_lr: 1
  weight_decay: 0
  weight_decay: 0
  bn_param {
    scale_filler {
      type: "constant"
      value: 1
    }
    shift_filler {
      type: "constant"
      value: 0
    }
  }
}
layers {
  bottom: "inception_3b/5x5/bn"
  top: "inception_3b/5x5/bn"
  name: "inception_3b/relu_5x5"
  type: RELU
}
layers {
  bottom: "inception_3a/output"
  top: "inception_3b/pool"
  name: "inception_3b/pool"
  type: POOLING
  pooling_param {
    pool: MAX
    kernel_size: 3
    stride: 1
    pad: 1
  }
}
layers {
  bottom: "inception_3b/pool"
  top: "inception_3b/pool_proj"
  name: "inception_3b/pool_proj"
  type: CONVOLUTION
  blobs_lr: 1
  blobs_lr: 2
  weight_decay: 1
  weight_decay: 0
  convolution_param {
    num_output: 64
    kernel_size: 1
    weight_filler {
      type: "xavier"
    }
    bias_filler {
      type: "constant"
    }
  }
}
layers {
  bottom: "inception_3b/pool_proj"
  top: "inception_3b/pool_proj/bn"
  name: "inception_3b/pool_proj/bn"
  type: BN
  blobs_lr: 1
  blobs_lr: 1
  weight_decay: 0
  weight_decay: 0
  bn_param {
    scale_filler {
      type: "constant"
      value: 1
    }
    shift_filler {
      type: "constant"
      value: 0
    }
  }
}
layers {
  bottom: "inception_3b/pool_proj/bn"
  top: "inception_3b/pool_proj/bn"
  name: "inception_3b/relu_pool_proj"
  type: RELU
}
layers {
  bottom: "inception_3b/1x1/bn"
  bottom: "inception_3b/3x3/bn"
  bottom: "inception_3b/5x5/bn"
  bottom: "inception_3b/pool_proj/bn"
  top: "inception_3b/output"
  name: "inception_3b/output"
  type: CONCAT
}
layers {
  bottom: "inception_3b/output"
  top: "pool3/3x3_s2"
  name: "pool3/3x3_s2"
  type: POOLING
  pooling_param {
    pool: MAX
    kernel_size: 3
    stride: 2
  }
}
layers {
  bottom: "pool3/3x3_s2"
  top: "inception_4a/1x1"
  name: "inception_4a/1x1"
  type: CONVOLUTION
  blobs_lr: 1
  blobs_lr: 2
  weight_decay: 1
  weight_decay: 0
  convolution_param {
    num_output: 192
    kernel_size: 1
    weight_filler {
      type: "xavier"
    }
    bias_filler {
      type: "constant"
    }
  }
}
layers {
  bottom: "inception_4a/1x1"
  top: "inception_4a/1x1/bn"
  name: "inception_4a/1x1/bn"
  type: BN
  blobs_lr: 1
  blobs_lr: 1
  weight_decay: 0
  weight_decay: 0
  bn_param {
    scale_filler {
      type: "constant"
      value: 1
    }
    shift_filler {
      type: "constant"
      value: 0
    }
  }
}
layers {
  bottom: "inception_4a/1x1/bn"
  top: "inception_4a/1x1/bn"
  name: "inception_4a/relu_1x1"
  type: RELU
}
layers {
  bottom: "pool3/3x3_s2"
  top: "inception_4a/3x3_reduce"
  name: "inception_4a/3x3_reduce"
  type: CONVOLUTION
  blobs_lr: 1
  blobs_lr: 2
  weight_decay: 1
  weight_decay: 0
  convolution_param {
    num_output: 96
    kernel_size: 1
    weight_filler {
      type: "xavier"
    }
    bias_filler {
      type: "constant"
    }
  }
}
layers {
  bottom: "inception_4a/3x3_reduce"
  top: "inception_4a/3x3_reduce/bn"
  name: "inception_4a/3x3_reduce/bn"
  type: BN
  blobs_lr: 1
  blobs_lr: 1
  weight_decay: 0
  weight_decay: 0
  bn_param {
    scale_filler {
      type: "constant"
      value: 1
    }
    shift_filler {
      type: "constant"
      value: 0
    }
  }
}
layers {
  bottom: "inception_4a/3x3_reduce/bn"
  top: "inception_4a/3x3_reduce/bn"
  name: "inception_4a/relu_3x3_reduce"
  type: RELU
}
layers {
  bottom: "inception_4a/3x3_reduce/bn"
  top: "inception_4a/3x3"
  name: "inception_4a/3x3"
  type: CONVOLUTION
  blobs_lr: 1
  blobs_lr: 2
  weight_decay: 1
  weight_decay: 0
  convolution_param {
    num_output: 208
    pad: 1
    kernel_size: 3
    weight_filler {
      type: "xavier"
    }
    bias_filler {
      type: "constant"
    }
  }
}
layers {
  bottom: "inception_4a/3x3"
  top: "inception_4a/3x3/bn"
  name: "inception_4a/3x3/bn"
  type: BN
  blobs_lr: 1
  blobs_lr: 1
  weight_decay: 0
  weight_decay: 0
  bn_param {
    scale_filler {
      type: "constant"
      value: 1
    }
    shift_filler {
      type: "constant"
      value: 0
    }
  }
}
layers {
  bottom: "inception_4a/3x3/bn"
  top: "inception_4a/3x3/bn"
  name: "inception_4a/relu_3x3"
  type: RELU
}
layers {
  bottom: "pool3/3x3_s2"
  top: "inception_4a/5x5_reduce"
  name: "inception_4a/5x5_reduce"
  type: CONVOLUTION
  blobs_lr: 1
  blobs_lr: 2
  weight_decay: 1
  weight_decay: 0
  convolution_param {
    num_output: 16
    kernel_size: 1
    weight_filler {
      type: "xavier"
    }
    bias_filler {
      type: "constant"
    }
  }
}
layers {
  bottom: "inception_4a/5x5_reduce"
  top: "inception_4a/5x5_reduce/bn"
  name: "inception_4a/5x5_reduce/bn"
  type: BN
  blobs_lr: 1
  blobs_lr: 1
  weight_decay: 0
  weight_decay: 0
  bn_param {
    scale_filler {
      type: "constant"
      value: 1
    }
    shift_filler {
      type: "constant"
      value: 0
    }
  }
}
layers {
  bottom: "inception_4a/5x5_reduce/bn"
  top: "inception_4a/5x5_reduce/bn"
  name: "inception_4a/relu_5x5_reduce"
  type: RELU
}
layers {
  bottom: "inception_4a/5x5_reduce/bn"
  top: "inception_4a/5x5"
  name: "inception_4a/5x5"
  type: CONVOLUTION
  blobs_lr: 1
  blobs_lr: 2
  weight_decay: 1
  weight_decay: 0
  convolution_param {
    num_output: 48
    pad: 2
    kernel_size: 5
    weight_filler {
      type: "xavier"
    }
    bias_filler {
      type: "constant"
    }
  }
}
layers {
  bottom: "inception_4a/5x5"
  top: "inception_4a/5x5/bn"
  name: "inception_4a/5x5/bn"
  type: BN
  blobs_lr: 1
  blobs_lr: 1
  weight_decay: 0
  weight_decay: 0
  bn_param {
    scale_filler {
      type: "constant"
      value: 1
    }
    shift_filler {
      type: "constant"
      value: 0
    }
  }
}
layers {
  bottom: "inception_4a/5x5/bn"
  top: "inception_4a/5x5/bn"
  name: "inception_4a/relu_5x5"
  type: RELU
}
layers {
  bottom: "pool3/3x3_s2"
  top: "inception_4a/pool"
  name: "inception_4a/pool"
  type: POOLING
  pooling_param {
    pool: MAX
    kernel_size: 3
    stride: 1
    pad: 1
  }
}
layers {
  bottom: "inception_4a/pool"
  top: "inception_4a/pool_proj"
  name: "inception_4a/pool_proj"
  type: CONVOLUTION
  blobs_lr: 1
  blobs_lr: 2
  weight_decay: 1
  weight_decay: 0
  convolution_param {
    num_output: 64
    kernel_size: 1
    weight_filler {
      type: "xavier"
    }
    bias_filler {
      type: "constant"
    }
  }
}
layers {
  bottom: "inception_4a/pool_proj"
  top: "inception_4a/pool_proj/bn"
  name: "inception_4a/pool_proj/bn"
  type: BN
  blobs_lr: 1
  blobs_lr: 1
  weight_decay: 0
  weight_decay: 0
  bn_param {
    scale_filler {
      type: "constant"
      value: 1
    }
    shift_filler {
      type: "constant"
      value: 0
    }
  }
}
layers {
  bottom: "inception_4a/pool_proj/bn"
  top: "inception_4a/pool_proj/bn"
  name: "inception_4a/relu_pool_proj"
  type: RELU
}
layers {
  bottom: "inception_4a/1x1/bn"
  bottom: "inception_4a/3x3/bn"
  bottom: "inception_4a/5x5/bn"
  bottom: "inception_4a/pool_proj/bn"
  top: "inception_4a/output"
  name: "inception_4a/output"
  type: CONCAT
}
layers {
  bottom: "inception_4a/output"
  top: "loss1/ave_pool"
  name: "loss1/ave_pool"
  type: POOLING
  pooling_param {
    pool: AVE
    kernel_size: 5
    stride: 3
  }
}
layers {
  bottom: "loss1/ave_pool"
  top: "loss1/conv"
  name: "loss1/conv"
  type: CONVOLUTION
  blobs_lr: 1
  blobs_lr: 2
  weight_decay: 1
  weight_decay: 0
  convolution_param {
    num_output: 128
    kernel_size: 1
    weight_filler {
      type: "xavier"
    }
    bias_filler {
      type: "constant"
    }
  }
}
layers {
  bottom: "loss1/conv"
  top: "loss1/conv/bn"
  name: "loss1/conv/bn"
  type: BN
  blobs_lr: 1
  blobs_lr: 1
  weight_decay: 0
  weight_decay: 0
  bn_param {
    scale_filler {
      type: "constant"
      value: 1
    }
    shift_filler {
      type: "constant"
      value: 0
    }
  }
}
layers {
  bottom: "loss1/conv/bn"
  top: "loss1/conv/bn"
  name: "loss1/relu_conv"
  type: RELU
}
layers {
  bottom: "loss1/conv/bn"
  top: "loss1/fc"
  name: "loss1/fc"
  type: INNER_PRODUCT
  blobs_lr: 1
  blobs_lr: 2
  weight_decay: 1
  weight_decay: 0
  inner_product_param {
    num_output: 1024
    weight_filler {
      type: "xavier"
    }
    bias_filler {
      type: "constant"
    }
  }
}
layers {
  bottom: "loss1/fc"
  top: "loss1/fc/bn"
  name: "loss1/fc/bn"
  type: BN
  blobs_lr: 1
  blobs_lr: 1
  weight_decay: 0
  weight_decay: 0
  bn_param {
    scale_filler {
      type: "constant"
      value: 1
    }
    shift_filler {
      type: "constant"
      value: 0
    }
  }
}
layers {
  bottom: "loss1/fc/bn"
  top: "loss1/fc/bn"
  name: "loss1/relu_fc"
  type: RELU
}
layers {
  bottom: "loss1/fc/bn"
  top: "loss1/fc/bn"
  name: "loss1/drop_fc"
  type: DROPOUT
  dropout_param {
    dropout_ratio: 0.7
  }
}
layers {
  bottom: "loss1/fc/bn"
  top: "loss1/classifier"
  name: "loss1/classifier"
  type: INNER_PRODUCT
  blobs_lr: 1
  blobs_lr: 2
  weight_decay: 1
  weight_decay: 0
  inner_product_param {
    num_output: 121
    weight_filler {
      type: "xavier"
    }
    bias_filler {
      type: "constant"
    }
  }
}
layers {
  bottom: "loss1/classifier"
  bottom: "label"
  top: "loss1/loss1"
  name: "loss1/loss"
  type: SOFTMAX_LOSS
  loss_weight: 0.3
}
layers {
  bottom: "inception_4a/output"
  top: "inception_4b/1x1"
  name: "inception_4b/1x1"
  type: CONVOLUTION
  blobs_lr: 1
  blobs_lr: 2
  weight_decay: 1
  weight_decay: 0
  convolution_param {
    num_output: 160
    kernel_size: 1
    weight_filler {
      type: "xavier"
    }
    bias_filler {
      type: "constant"
    }
  }
}
layers {
  bottom: "inception_4b/1x1"
  top: "inception_4b/1x1/bn"
  name: "inception_4b/1x1/bn"
  type: BN
  blobs_lr: 1
  blobs_lr: 1
  weight_decay: 0
  weight_decay: 0
  bn_param {
    scale_filler {
      type: "constant"
      value: 1
    }
    shift_filler {
      type: "constant"
      value: 0
    }
  }
}
layers {
  bottom: "inception_4b/1x1/bn"
  top: "inception_4b/1x1/bn"
  name: "inception_4b/relu_1x1"
  type: RELU
}
layers {
  bottom: "inception_4a/output"
  top: "inception_4b/3x3_reduce"
  name: "inception_4b/3x3_reduce"
  type: CONVOLUTION
  blobs_lr: 1
  blobs_lr: 2
  weight_decay: 1
  weight_decay: 0
  convolution_param {
    num_output: 112
    kernel_size: 1
    weight_filler {
      type: "xavier"
    }
    bias_filler {
      type: "constant"
    }
  }
}
layers {
  bottom: "inception_4b/3x3_reduce"
  top: "inception_4b/3x3_reduce/bn"
  name: "inception_4b/3x3_reduce/bn"
  type: BN
  blobs_lr: 1
  blobs_lr: 1
  weight_decay: 0
  weight_decay: 0
  bn_param {
    scale_filler {
      type: "constant"
      value: 1
    }
    shift_filler {
      type: "constant"
      value: 0
    }
  }
}
layers {
  bottom: "inception_4b/3x3_reduce/bn"
  top: "inception_4b/3x3_reduce/bn"
  name: "inception_4b/relu_3x3_reduce"
  type: RELU
}
layers {
  bottom: "inception_4b/3x3_reduce/bn"
  top: "inception_4b/3x3"
  name: "inception_4b/3x3"
  type: CONVOLUTION
  blobs_lr: 1
  blobs_lr: 2
  weight_decay: 1
  weight_decay: 0
  convolution_param {
    num_output: 224
    pad: 1
    kernel_size: 3
    weight_filler {
      type: "xavier"
    }
    bias_filler {
      type: "constant"
    }
  }
}
layers {
  bottom: "inception_4b/3x3"
  top: "inception_4b/3x3/bn"
  name: "inception_4b/3x3/bn"
  type: BN
  blobs_lr: 1
  blobs_lr: 1
  weight_decay: 0
  weight_decay: 0
  bn_param {
    scale_filler {
      type: "constant"
      value: 1
    }
    shift_filler {
      type: "constant"
      value: 0
    }
  }
}
layers {
  bottom: "inception_4b/3x3/bn"
  top: "inception_4b/3x3/bn"
  name: "inception_4b/relu_3x3"
  type: RELU
}
layers {
  bottom: "inception_4a/output"
  top: "inception_4b/5x5_reduce"
  name: "inception_4b/5x5_reduce"
  type: CONVOLUTION
  blobs_lr: 1
  blobs_lr: 2
  weight_decay: 1
  weight_decay: 0
  convolution_param {
    num_output: 24
    kernel_size: 1
    weight_filler {
      type: "xavier"
    }
    bias_filler {
      type: "constant"
    }
  }
}
layers {
  bottom: "inception_4b/5x5_reduce"
  top: "inception_4b/5x5_reduce/bn"
  name: "inception_4b/5x5_reduce/bn"
  type: BN
  blobs_lr: 1
  blobs_lr: 1
  weight_decay: 0
  weight_decay: 0
  bn_param {
    scale_filler {
      type: "constant"
      value: 1
    }
    shift_filler {
      type: "constant"
      value: 0
    }
  }
}
layers {
  bottom: "inception_4b/5x5_reduce/bn"
  top: "inception_4b/5x5_reduce/bn"
  name: "inception_4b/relu_5x5_reduce"
  type: RELU
}
layers {
  bottom: "inception_4b/5x5_reduce/bn"
  top: "inception_4b/5x5"
  name: "inception_4b/5x5"
  type: CONVOLUTION
  blobs_lr: 1
  blobs_lr: 2
  weight_decay: 1
  weight_decay: 0
  convolution_param {
    num_output: 64
    pad: 2
    kernel_size: 5
    weight_filler {
      type: "xavier"
    }
    bias_filler {
      type: "constant"
    }
  }
}
layers {
  bottom: "inception_4b/5x5"
  top: "inception_4b/5x5/bn"
  name: "inception_4b/5x5/bn"
  type: BN
  blobs_lr: 1
  blobs_lr: 1
  weight_decay: 0
  weight_decay: 0
  bn_param {
    scale_filler {
      type: "constant"
      value: 1
    }
    shift_filler {
      type: "constant"
      value: 0
    }
  }
}
layers {
  bottom: "inception_4b/5x5/bn"
  top: "inception_4b/5x5/bn"
  name: "inception_4b/relu_5x5"
  type: RELU
}
layers {
  bottom: "inception_4a/output"
  top: "inception_4b/pool"
  name: "inception_4b/pool"
  type: POOLING
  pooling_param {
    pool: MAX
    kernel_size: 3
    stride: 1
    pad: 1
  }
}
layers {
  bottom: "inception_4b/pool"
  top: "inception_4b/pool_proj"
  name: "inception_4b/pool_proj"
  type: CONVOLUTION
  blobs_lr: 1
  blobs_lr: 2
  weight_decay: 1
  weight_decay: 0
  convolution_param {
    num_output: 64
    kernel_size: 1
    weight_filler {
      type: "xavier"
    }
    bias_filler {
      type: "constant"
    }
  }
}
layers {
  bottom: "inception_4b/pool_proj"
  top: "inception_4b/pool_proj/bn"
  name: "inception_4b/pool_proj/bn"
  type: BN
  blobs_lr: 1
  blobs_lr: 1
  weight_decay: 0
  weight_decay: 0
  bn_param {
    scale_filler {
      type: "constant"
      value: 1
    }
    shift_filler {
      type: "constant"
      value: 0
    }
  }
}
layers {
  bottom: "inception_4b/pool_proj/bn"
  top: "inception_4b/pool_proj/bn"
  name: "inception_4b/relu_pool_proj"
  type: RELU
}
layers {
  bottom: "inception_4b/1x1/bn"
  bottom: "inception_4b/3x3/bn"
  bottom: "inception_4b/5x5/bn"
  bottom: "inception_4b/pool_proj/bn"
  top: "inception_4b/output"
  name: "inception_4b/output"
  type: CONCAT
}
layers {
  bottom: "inception_4b/output"
  top: "inception_4c/1x1"
  name: "inception_4c/1x1"
  type: CONVOLUTION
  blobs_lr: 1
  blobs_lr: 2
  weight_decay: 1
  weight_decay: 0
  convolution_param {
    num_output: 128
    kernel_size: 1
    weight_filler {
      type: "xavier"
    }
    bias_filler {
      type: "constant"
    }
  }
}
layers {
  bottom: "inception_4c/1x1"
  top: "inception_4c/1x1/bn"
  name: "inception_4c/1x1/bn"
  type: BN
  blobs_lr: 1
  blobs_lr: 1
  weight_decay: 0
  weight_decay: 0
  bn_param {
    scale_filler {
      type: "constant"
      value: 1
    }
    shift_filler {
      type: "constant"
      value: 0
    }
  }
}
layers {
  bottom: "inception_4c/1x1/bn"
  top: "inception_4c/1x1/bn"
  name: "inception_4c/relu_1x1"
  type: RELU
}
layers {
  bottom: "inception_4b/output"
  top: "inception_4c/3x3_reduce"
  name: "inception_4c/3x3_reduce"
  type: CONVOLUTION
  blobs_lr: 1
  blobs_lr: 2
  weight_decay: 1
  weight_decay: 0
  convolution_param {
    num_output: 128
    kernel_size: 1
    weight_filler {
      type: "xavier"
    }
    bias_filler {
      type: "constant"
    }
  }
}
layers {
  bottom: "inception_4c/3x3_reduce"
  top: "inception_4c/3x3_reduce/bn"
  name: "inception_4c/3x3_reduce/bn"
  type: BN
  blobs_lr: 1
  blobs_lr: 1
  weight_decay: 0
  weight_decay: 0
  bn_param {
    scale_filler {
      type: "constant"
      value: 1
    }
    shift_filler {
      type: "constant"
      value: 0
    }
  }
}
layers {
  bottom: "inception_4c/3x3_reduce/bn"
  top: "inception_4c/3x3_reduce/bn"
  name: "inception_4c/relu_3x3_reduce"
  type: RELU
}
layers {
  bottom: "inception_4c/3x3_reduce/bn"
  top: "inception_4c/3x3"
  name: "inception_4c/3x3"
  type: CONVOLUTION
  blobs_lr: 1
  blobs_lr: 2
  weight_decay: 1
  weight_decay: 0
  convolution_param {
    num_output: 256
    pad: 1
    kernel_size: 3
    weight_filler {
      type: "xavier"
    }
    bias_filler {
      type: "constant"
    }
  }
}
layers {
  bottom: "inception_4c/3x3"
  top: "inception_4c/3x3/bn"
  name: "inception_4c/3x3/bn"
  type: BN
  blobs_lr: 1
  blobs_lr: 1
  weight_decay: 0
  weight_decay: 0
  bn_param {
    scale_filler {
      type: "constant"
      value: 1
    }
    shift_filler {
      type: "constant"
      value: 0
    }
  }
}
layers {
  bottom: "inception_4c/3x3/bn"
  top: "inception_4c/3x3/bn"
  name: "inception_4c/relu_3x3"
  type: RELU
}
layers {
  bottom: "inception_4b/output"
  top: "inception_4c/5x5_reduce"
  name: "inception_4c/5x5_reduce"
  type: CONVOLUTION
  blobs_lr: 1
  blobs_lr: 2
  weight_decay: 1
  weight_decay: 0
  convolution_param {
    num_output: 24
    kernel_size: 1
    weight_filler {
      type: "xavier"
    }
    bias_filler {
      type: "constant"
    }
  }
}
layers {
  bottom: "inception_4c/5x5_reduce"
  top: "inception_4c/5x5_reduce/bn"
  name: "inception_4c/5x5_reduce/bn"
  type: BN
  blobs_lr: 1
  blobs_lr: 1
  weight_decay: 0
  weight_decay: 0
  bn_param {
    scale_filler {
      type: "constant"
      value: 1
    }
    shift_filler {
      type: "constant"
      value: 0
    }
  }
}
layers {
  bottom: "inception_4c/5x5_reduce/bn"
  top: "inception_4c/5x5_reduce/bn"
  name: "inception_4c/relu_5x5_reduce"
  type: RELU
}
layers {
  bottom: "inception_4c/5x5_reduce/bn"
  top: "inception_4c/5x5"
  name: "inception_4c/5x5"
  type: CONVOLUTION
  blobs_lr: 1
  blob
I0312 11:30:55.081423 27875 layer_factory.hpp:78] Creating layer data
I0312 11:30:55.081459 27875 data_transformer.cpp:24] Loading mean file from/media/data/kaggle/nationalDataScienceBowl/data/typeF/train_mean.binaryproto
I0312 11:30:55.081657 27875 net.cpp:68] Creating Layer data
I0312 11:30:55.081684 27875 net.cpp:357] data -> data
I0312 11:30:55.081715 27875 net.cpp:357] data -> label
I0312 11:30:55.081737 27875 net.cpp:97] Setting up data
I0312 11:30:55.081753 27875 image_data_affine_layer.cpp:37] Opening file /media/data/kaggle/nationalDataScienceBowl/data/typeF/train.txt
I0312 11:30:55.095252 27875 image_data_affine_layer.cpp:47] Shuffling data
I0312 11:30:55.097901 27875 image_data_affine_layer.cpp:52] A total of 27302 images.
I0312 11:30:55.100071 27875 image_data_affine_layer.cpp:81] output data size: 128,1,96,96
I0312 11:30:55.101982 27875 net.cpp:104] Top shape: 128 1 96 96 (1179648)
I0312 11:30:55.102015 27875 net.cpp:104] Top shape: 128 1 1 1 (128)
I0312 11:30:55.102028 27875 layer_factory.hpp:78] Creating layer label_data_1_split
I0312 11:30:55.102054 27875 net.cpp:68] Creating Layer label_data_1_split
I0312 11:30:55.102068 27875 net.cpp:395] label_data_1_split <- label
I0312 11:30:55.102095 27875 net.cpp:357] label_data_1_split -> label_data_1_split_0
I0312 11:30:55.102121 27875 net.cpp:357] label_data_1_split -> label_data_1_split_1
I0312 11:30:55.102138 27875 net.cpp:357] label_data_1_split -> label_data_1_split_2
I0312 11:30:55.102154 27875 net.cpp:97] Setting up label_data_1_split
I0312 11:30:55.102170 27875 net.cpp:104] Top shape: 128 1 1 1 (128)
I0312 11:30:55.102182 27875 net.cpp:104] Top shape: 128 1 1 1 (128)
I0312 11:30:55.102241 27875 net.cpp:104] Top shape: 128 1 1 1 (128)
I0312 11:30:55.102252 27875 layer_factory.hpp:78] Creating layer conv1/7x7_s2
I0312 11:30:55.102274 27875 net.cpp:68] Creating Layer conv1/7x7_s2
I0312 11:30:55.102288 27875 net.cpp:395] conv1/7x7_s2 <- data
I0312 11:30:55.102303 27875 net.cpp:357] conv1/7x7_s2 -> conv1/7x7_s2
I0312 11:30:55.102320 27875 net.cpp:97] Setting up conv1/7x7_s2
I0312 11:30:55.136425 27875 net.cpp:104] Top shape: 128 64 47 47 (18096128)
I0312 11:30:55.136503 27875 layer_factory.hpp:78] Creating layer conv1/7x7_s2/bn
I0312 11:30:55.136533 27875 net.cpp:68] Creating Layer conv1/7x7_s2/bn
I0312 11:30:55.136549 27875 net.cpp:395] conv1/7x7_s2/bn <- conv1/7x7_s2
I0312 11:30:55.136566 27875 net.cpp:357] conv1/7x7_s2/bn -> conv1/7x7_s2/bn
I0312 11:30:55.136589 27875 net.cpp:97] Setting up conv1/7x7_s2/bn
I0312 11:30:55.136628 27875 net.cpp:104] Top shape: 128 64 47 47 (18096128)
I0312 11:30:55.136647 27875 layer_factory.hpp:78] Creating layer conv1/relu_7x7
I0312 11:30:55.136667 27875 net.cpp:68] Creating Layer conv1/relu_7x7
I0312 11:30:55.136678 27875 net.cpp:395] conv1/relu_7x7 <- conv1/7x7_s2/bn
I0312 11:30:55.136694 27875 net.cpp:346] conv1/relu_7x7 -> conv1/7x7_s2/bn (in-place)
I0312 11:30:55.136709 27875 net.cpp:97] Setting up conv1/relu_7x7
I0312 11:30:55.136729 27875 net.cpp:104] Top shape: 128 64 47 47 (18096128)
I0312 11:30:55.136741 27875 layer_factory.hpp:78] Creating layer pool1/3x3_s2
I0312 11:30:55.136759 27875 net.cpp:68] Creating Layer pool1/3x3_s2
I0312 11:30:55.136771 27875 net.cpp:395] pool1/3x3_s2 <- conv1/7x7_s2/bn
I0312 11:30:55.136785 27875 net.cpp:357] pool1/3x3_s2 -> pool1/3x3_s2
I0312 11:30:55.136800 27875 net.cpp:97] Setting up pool1/3x3_s2
I0312 11:30:55.136836 27875 net.cpp:104] Top shape: 128 64 23 23 (4333568)
I0312 11:30:55.136849 27875 layer_factory.hpp:78] Creating layer conv2/3x3_reduce
I0312 11:30:55.136883 27875 net.cpp:68] Creating Layer conv2/3x3_reduce
I0312 11:30:55.136896 27875 net.cpp:395] conv2/3x3_reduce <- pool1/3x3_s2
I0312 11:30:55.136914 27875 net.cpp:357] conv2/3x3_reduce -> conv2/3x3_reduce
I0312 11:30:55.136930 27875 net.cpp:97] Setting up conv2/3x3_reduce
I0312 11:30:55.137061 27875 net.cpp:104] Top shape: 128 64 23 23 (4333568)
I0312 11:30:55.137084 27875 layer_factory.hpp:78] Creating layer conv2/3x3_reduce/bn
I0312 11:30:55.137101 27875 net.cpp:68] Creating Layer conv2/3x3_reduce/bn
I0312 11:30:55.137112 27875 net.cpp:395] conv2/3x3_reduce/bn <- conv2/3x3_reduce
I0312 11:30:55.137126 27875 net.cpp:357] conv2/3x3_reduce/bn -> conv2/3x3_reduce/bn
I0312 11:30:55.137141 27875 net.cpp:97] Setting up conv2/3x3_reduce/bn
I0312 11:30:55.137167 27875 net.cpp:104] Top shape: 128 64 23 23 (4333568)
I0312 11:30:55.137182 27875 layer_factory.hpp:78] Creating layer conv2/relu_3x3_reduce
I0312 11:30:55.137197 27875 net.cpp:68] Creating Layer conv2/relu_3x3_reduce
I0312 11:30:55.137208 27875 net.cpp:395] conv2/relu_3x3_reduce <- conv2/3x3_reduce/bn
I0312 11:30:55.137225 27875 net.cpp:346] conv2/relu_3x3_reduce -> conv2/3x3_reduce/bn (in-place)
I0312 11:30:55.137239 27875 net.cpp:97] Setting up conv2/relu_3x3_reduce
I0312 11:30:55.137259 27875 net.cpp:104] Top shape: 128 64 23 23 (4333568)
I0312 11:30:55.137271 27875 layer_factory.hpp:78] Creating layer conv2/3x3
I0312 11:30:55.137292 27875 net.cpp:68] Creating Layer conv2/3x3
I0312 11:30:55.137305 27875 net.cpp:395] conv2/3x3 <- conv2/3x3_reduce/bn
I0312 11:30:55.137317 27875 net.cpp:357] conv2/3x3 -> conv2/3x3
I0312 11:30:55.137334 27875 net.cpp:97] Setting up conv2/3x3
I0312 11:30:55.138545 27875 net.cpp:104] Top shape: 128 192 23 23 (13000704)
I0312 11:30:55.138571 27875 layer_factory.hpp:78] Creating layer conv2/3x3/bn
I0312 11:30:55.138589 27875 net.cpp:68] Creating Layer conv2/3x3/bn
I0312 11:30:55.138602 27875 net.cpp:395] conv2/3x3/bn <- conv2/3x3
I0312 11:30:55.138617 27875 net.cpp:357] conv2/3x3/bn -> conv2/3x3/bn
I0312 11:30:55.138633 27875 net.cpp:97] Setting up conv2/3x3/bn
I0312 11:30:55.138656 27875 net.cpp:104] Top shape: 128 192 23 23 (13000704)
I0312 11:30:55.138671 27875 layer_factory.hpp:78] Creating layer conv2/relu_3x3
I0312 11:30:55.138748 27875 net.cpp:68] Creating Layer conv2/relu_3x3
I0312 11:30:55.138762 27875 net.cpp:395] conv2/relu_3x3 <- conv2/3x3/bn
I0312 11:30:55.138777 27875 net.cpp:346] conv2/relu_3x3 -> conv2/3x3/bn (in-place)
I0312 11:30:55.138792 27875 net.cpp:97] Setting up conv2/relu_3x3
I0312 11:30:55.138806 27875 net.cpp:104] Top shape: 128 192 23 23 (13000704)
I0312 11:30:55.138818 27875 layer_factory.hpp:78] Creating layer pool2/3x3_s2
I0312 11:30:55.138834 27875 net.cpp:68] Creating Layer pool2/3x3_s2
I0312 11:30:55.138846 27875 net.cpp:395] pool2/3x3_s2 <- conv2/3x3/bn
I0312 11:30:55.138859 27875 net.cpp:357] pool2/3x3_s2 -> pool2/3x3_s2
I0312 11:30:55.138875 27875 net.cpp:97] Setting up pool2/3x3_s2
I0312 11:30:55.138890 27875 net.cpp:104] Top shape: 128 192 11 11 (2973696)
I0312 11:30:55.138901 27875 layer_factory.hpp:78] Creating layer pool2/3x3_s2_pool2/3x3_s2_0_split
I0312 11:30:55.138916 27875 net.cpp:68] Creating Layer pool2/3x3_s2_pool2/3x3_s2_0_split
I0312 11:30:55.138926 27875 net.cpp:395] pool2/3x3_s2_pool2/3x3_s2_0_split <- pool2/3x3_s2
I0312 11:30:55.138943 27875 net.cpp:357] pool2/3x3_s2_pool2/3x3_s2_0_split -> pool2/3x3_s2_pool2/3x3_s2_0_split_0
I0312 11:30:55.138959 27875 net.cpp:357] pool2/3x3_s2_pool2/3x3_s2_0_split -> pool2/3x3_s2_pool2/3x3_s2_0_split_1
I0312 11:30:55.138975 27875 net.cpp:357] pool2/3x3_s2_pool2/3x3_s2_0_split -> pool2/3x3_s2_pool2/3x3_s2_0_split_2
I0312 11:30:55.138990 27875 net.cpp:357] pool2/3x3_s2_pool2/3x3_s2_0_split -> pool2/3x3_s2_pool2/3x3_s2_0_split_3
I0312 11:30:55.139005 27875 net.cpp:97] Setting up pool2/3x3_s2_pool2/3x3_s2_0_split
I0312 11:30:55.139019 27875 net.cpp:104] Top shape: 128 192 11 11 (2973696)
I0312 11:30:55.139030 27875 net.cpp:104] Top shape: 128 192 11 11 (2973696)
I0312 11:30:55.139041 27875 net.cpp:104] Top shape: 128 192 11 11 (2973696)
I0312 11:30:55.139052 27875 net.cpp:104] Top shape: 128 192 11 11 (2973696)
I0312 11:30:55.139066 27875 layer_factory.hpp:78] Creating layer inception_3a/1x1
I0312 11:30:55.139081 27875 net.cpp:68] Creating Layer inception_3a/1x1
I0312 11:30:55.139092 27875 net.cpp:395] inception_3a/1x1 <- pool2/3x3_s2_pool2/3x3_s2_0_split_0
I0312 11:30:55.139108 27875 net.cpp:357] inception_3a/1x1 -> inception_3a/1x1
I0312 11:30:55.139123 27875 net.cpp:97] Setting up inception_3a/1x1
I0312 11:30:55.139339 27875 net.cpp:104] Top shape: 128 64 11 11 (991232)
I0312 11:30:55.139361 27875 layer_factory.hpp:78] Creating layer inception_3a/1x1/bn
I0312 11:30:55.139379 27875 net.cpp:68] Creating Layer inception_3a/1x1/bn
I0312 11:30:55.139390 27875 net.cpp:395] inception_3a/1x1/bn <- inception_3a/1x1
I0312 11:30:55.139406 27875 net.cpp:357] inception_3a/1x1/bn -> inception_3a/1x1/bn
I0312 11:30:55.139422 27875 net.cpp:97] Setting up inception_3a/1x1/bn
I0312 11:30:55.139461 27875 net.cpp:104] Top shape: 128 64 11 11 (991232)
I0312 11:30:55.139477 27875 layer_factory.hpp:78] Creating layer inception_3a/relu_1x1
I0312 11:30:55.139492 27875 net.cpp:68] Creating Layer inception_3a/relu_1x1
I0312 11:30:55.139503 27875 net.cpp:395] inception_3a/relu_1x1 <- inception_3a/1x1/bn
I0312 11:30:55.139516 27875 net.cpp:346] inception_3a/relu_1x1 -> inception_3a/1x1/bn (in-place)
I0312 11:30:55.139530 27875 net.cpp:97] Setting up inception_3a/relu_1x1
I0312 11:30:55.139551 27875 net.cpp:104] Top shape: 128 64 11 11 (991232)
I0312 11:30:55.139562 27875 layer_factory.hpp:78] Creating layer inception_3a/3x3_reduce
I0312 11:30:55.139580 27875 net.cpp:68] Creating Layer inception_3a/3x3_reduce
I0312 11:30:55.139592 27875 net.cpp:395] inception_3a/3x3_reduce <- pool2/3x3_s2_pool2/3x3_s2_0_split_1
I0312 11:30:55.139605 27875 net.cpp:357] inception_3a/3x3_reduce -> inception_3a/3x3_reduce
I0312 11:30:55.139623 27875 net.cpp:97] Setting up inception_3a/3x3_reduce
I0312 11:30:55.139899 27875 net.cpp:104] Top shape: 128 96 11 11 (1486848)
I0312 11:30:55.139925 27875 layer_factory.hpp:78] Creating layer inception_3a/3x3_reduce/bn
I0312 11:30:55.139942 27875 net.cpp:68] Creating Layer inception_3a/3x3_reduce/bn
I0312 11:30:55.139955 27875 net.cpp:395] inception_3a/3x3_reduce/bn <- inception_3a/3x3_reduce
I0312 11:30:55.139991 27875 net.cpp:357] inception_3a/3x3_reduce/bn -> inception_3a/3x3_reduce/bn
I0312 11:30:55.140008 27875 net.cpp:97] Setting up inception_3a/3x3_reduce/bn
I0312 11:30:55.140028 27875 net.cpp:104] Top shape: 128 96 11 11 (1486848)
I0312 11:30:55.140046 27875 layer_factory.hpp:78] Creating layer inception_3a/relu_3x3_reduce
I0312 11:30:55.140060 27875 net.cpp:68] Creating Layer inception_3a/relu_3x3_reduce
I0312 11:30:55.140072 27875 net.cpp:395] inception_3a/relu_3x3_reduce <- inception_3a/3x3_reduce/bn
I0312 11:30:55.140085 27875 net.cpp:346] inception_3a/relu_3x3_reduce -> inception_3a/3x3_reduce/bn (in-place)
I0312 11:30:55.140099 27875 net.cpp:97] Setting up inception_3a/relu_3x3_reduce
I0312 11:30:55.140113 27875 net.cpp:104] Top shape: 128 96 11 11 (1486848)
I0312 11:30:55.140125 27875 layer_factory.hpp:78] Creating layer inception_3a/3x3
I0312 11:30:55.140138 27875 net.cpp:68] Creating Layer inception_3a/3x3
I0312 11:30:55.140151 27875 net.cpp:395] inception_3a/3x3 <- inception_3a/3x3_reduce/bn
I0312 11:30:55.140166 27875 net.cpp:357] inception_3a/3x3 -> inception_3a/3x3
I0312 11:30:55.140182 27875 net.cpp:97] Setting up inception_3a/3x3
I0312 11:30:55.142158 27875 net.cpp:104] Top shape: 128 128 11 11 (1982464)
I0312 11:30:55.142186 27875 layer_factory.hpp:78] Creating layer inception_3a/3x3/bn
I0312 11:30:55.142205 27875 net.cpp:68] Creating Layer inception_3a/3x3/bn
I0312 11:30:55.142218 27875 net.cpp:395] inception_3a/3x3/bn <- inception_3a/3x3
I0312 11:30:55.142235 27875 net.cpp:357] inception_3a/3x3/bn -> inception_3a/3x3/bn
I0312 11:30:55.142251 27875 net.cpp:97] Setting up inception_3a/3x3/bn
I0312 11:30:55.142273 27875 net.cpp:104] Top shape: 128 128 11 11 (1982464)
I0312 11:30:55.142289 27875 layer_factory.hpp:78] Creating layer inception_3a/relu_3x3
I0312 11:30:55.142303 27875 net.cpp:68] Creating Layer inception_3a/relu_3x3
I0312 11:30:55.142314 27875 net.cpp:395] inception_3a/relu_3x3 <- inception_3a/3x3/bn
I0312 11:30:55.142328 27875 net.cpp:346] inception_3a/relu_3x3 -> inception_3a/3x3/bn (in-place)
I0312 11:30:55.142341 27875 net.cpp:97] Setting up inception_3a/relu_3x3
I0312 11:30:55.142356 27875 net.cpp:104] Top shape: 128 128 11 11 (1982464)
I0312 11:30:55.142367 27875 layer_factory.hpp:78] Creating layer inception_3a/5x5_reduce
I0312 11:30:55.142385 27875 net.cpp:68] Creating Layer inception_3a/5x5_reduce
I0312 11:30:55.142397 27875 net.cpp:395] inception_3a/5x5_reduce <- pool2/3x3_s2_pool2/3x3_s2_0_split_2
I0312 11:30:55.142411 27875 net.cpp:357] inception_3a/5x5_reduce -> inception_3a/5x5_reduce
I0312 11:30:55.142426 27875 net.cpp:97] Setting up inception_3a/5x5_reduce
I0312 11:30:55.142534 27875 net.cpp:104] Top shape: 128 16 11 11 (247808)
I0312 11:30:55.142555 27875 layer_factory.hpp:78] Creating layer inception_3a/5x5_reduce/bn
I0312 11:30:55.142570 27875 net.cpp:68] Creating Layer inception_3a/5x5_reduce/bn
I0312 11:30:55.142582 27875 net.cpp:395] inception_3a/5x5_reduce/bn <- inception_3a/5x5_reduce
I0312 11:30:55.142597 27875 net.cpp:357] inception_3a/5x5_reduce/bn -> inception_3a/5x5_reduce/bn
I0312 11:30:55.142612 27875 net.cpp:97] Setting up inception_3a/5x5_reduce/bn
I0312 11:30:55.142632 27875 net.cpp:104] Top shape: 128 16 11 11 (247808)
I0312 11:30:55.142647 27875 layer_factory.hpp:78] Creating layer inception_3a/relu_5x5_reduce
I0312 11:30:55.142662 27875 net.cpp:68] Creating Layer inception_3a/relu_5x5_reduce
I0312 11:30:55.142673 27875 net.cpp:395] inception_3a/relu_5x5_reduce <- inception_3a/5x5_reduce/bn
I0312 11:30:55.142688 27875 net.cpp:346] inception_3a/relu_5x5_reduce -> inception_3a/5x5_reduce/bn (in-place)
I0312 11:30:55.142702 27875 net.cpp:97] Setting up inception_3a/relu_5x5_reduce
I0312 11:30:55.142716 27875 net.cpp:104] Top shape: 128 16 11 11 (247808)
I0312 11:30:55.142729 27875 layer_factory.hpp:78] Creating layer inception_3a/5x5
I0312 11:30:55.142741 27875 net.cpp:68] Creating Layer inception_3a/5x5
I0312 11:30:55.142753 27875 net.cpp:395] inception_3a/5x5 <- inception_3a/5x5_reduce/bn
I0312 11:30:55.142791 27875 net.cpp:357] inception_3a/5x5 -> inception_3a/5x5
I0312 11:30:55.142808 27875 net.cpp:97] Setting up inception_3a/5x5
I0312 11:30:55.143132 27875 net.cpp:104] Top shape: 128 32 11 11 (495616)
I0312 11:30:55.143162 27875 layer_factory.hpp:78] Creating layer inception_3a/5x5/bn
I0312 11:30:55.143240 27875 net.cpp:68] Creating Layer inception_3a/5x5/bn
I0312 11:30:55.143386 27875 net.cpp:395] inception_3a/5x5/bn <- inception_3a/5x5
I0312 11:30:55.143405 27875 net.cpp:357] inception_3a/5x5/bn -> inception_3a/5x5/bn
I0312 11:30:55.143426 27875 net.cpp:97] Setting up inception_3a/5x5/bn
I0312 11:30:55.143450 27875 net.cpp:104] Top shape: 128 32 11 11 (495616)
I0312 11:30:55.143465 27875 layer_factory.hpp:78] Creating layer inception_3a/relu_5x5
I0312 11:30:55.143479 27875 net.cpp:68] Creating Layer inception_3a/relu_5x5
I0312 11:30:55.143596 27875 net.cpp:395] inception_3a/relu_5x5 <- inception_3a/5x5/bn
I0312 11:30:55.143615 27875 net.cpp:346] inception_3a/relu_5x5 -> inception_3a/5x5/bn (in-place)
I0312 11:30:55.143630 27875 net.cpp:97] Setting up inception_3a/relu_5x5
I0312 11:30:55.143645 27875 net.cpp:104] Top shape: 128 32 11 11 (495616)
I0312 11:30:55.143656 27875 layer_factory.hpp:78] Creating layer inception_3a/pool
I0312 11:30:55.143668 27875 layer_factory.cpp:51] CUDNN does not support padding or multiple tops. Using Caffe's own pooling layer.
I0312 11:30:55.143684 27875 net.cpp:68] Creating Layer inception_3a/pool
I0312 11:30:55.143697 27875 net.cpp:395] inception_3a/pool <- pool2/3x3_s2_pool2/3x3_s2_0_split_3
I0312 11:30:55.143710 27875 net.cpp:357] inception_3a/pool -> inception_3a/pool
I0312 11:30:55.143724 27875 net.cpp:97] Setting up inception_3a/pool
I0312 11:30:55.143738 27875 net.cpp:104] Top shape: 128 192 11 11 (2973696)
I0312 11:30:55.143750 27875 layer_factory.hpp:78] Creating layer inception_3a/pool_proj
I0312 11:30:55.143766 27875 net.cpp:68] Creating Layer inception_3a/pool_proj
I0312 11:30:55.143779 27875 net.cpp:395] inception_3a/pool_proj <- inception_3a/pool
I0312 11:30:55.143793 27875 net.cpp:357] inception_3a/pool_proj -> inception_3a/pool_proj
I0312 11:30:55.143808 27875 net.cpp:97] Setting up inception_3a/pool_proj
I0312 11:30:55.143956 27875 net.cpp:104] Top shape: 128 32 11 11 (495616)
I0312 11:30:55.143985 27875 layer_factory.hpp:78] Creating layer inception_3a/pool_proj/bn
I0312 11:30:55.144001 27875 net.cpp:68] Creating Layer inception_3a/pool_proj/bn
I0312 11:30:55.144012 27875 net.cpp:395] inception_3a/pool_proj/bn <- inception_3a/pool_proj
I0312 11:30:55.144029 27875 net.cpp:357] inception_3a/pool_proj/bn -> inception_3a/pool_proj/bn
I0312 11:30:55.144049 27875 net.cpp:97] Setting up inception_3a/pool_proj/bn
I0312 11:30:55.144073 27875 net.cpp:104] Top shape: 128 32 11 11 (495616)
I0312 11:30:55.144089 27875 layer_factory.hpp:78] Creating layer inception_3a/relu_pool_proj
I0312 11:30:55.144107 27875 net.cpp:68] Creating Layer inception_3a/relu_pool_proj
I0312 11:30:55.144121 27875 net.cpp:395] inception_3a/relu_pool_proj <- inception_3a/pool_proj/bn
I0312 11:30:55.144134 27875 net.cpp:346] inception_3a/relu_pool_proj -> inception_3a/pool_proj/bn (in-place)
I0312 11:30:55.144150 27875 net.cpp:97] Setting up inception_3a/relu_pool_proj
I0312 11:30:55.144165 27875 net.cpp:104] Top shape: 128 32 11 11 (495616)
I0312 11:30:55.144176 27875 layer_factory.hpp:78] Creating layer inception_3a/output
I0312 11:30:55.144194 27875 net.cpp:68] Creating Layer inception_3a/output
I0312 11:30:55.144207 27875 net.cpp:395] inception_3a/output <- inception_3a/1x1/bn
I0312 11:30:55.144220 27875 net.cpp:395] inception_3a/output <- inception_3a/3x3/bn
I0312 11:30:55.144233 27875 net.cpp:395] inception_3a/output <- inception_3a/5x5/bn
I0312 11:30:55.144245 27875 net.cpp:395] inception_3a/output <- inception_3a/pool_proj/bn
I0312 11:30:55.144258 27875 net.cpp:357] inception_3a/output -> inception_3a/output
I0312 11:30:55.144273 27875 net.cpp:97] Setting up inception_3a/output
I0312 11:30:55.144289 27875 net.cpp:104] Top shape: 128 256 11 11 (3964928)
I0312 11:30:55.144317 27875 layer_factory.hpp:78] Creating layer inception_3a/output_inception_3a/output_0_split
I0312 11:30:55.144332 27875 net.cpp:68] Creating Layer inception_3a/output_inception_3a/output_0_split
I0312 11:30:55.144345 27875 net.cpp:395] inception_3a/output_inception_3a/output_0_split <- inception_3a/output
I0312 11:30:55.144361 27875 net.cpp:357] inception_3a/output_inception_3a/output_0_split -> inception_3a/output_inception_3a/output_0_split_0
I0312 11:30:55.144378 27875 net.cpp:357] inception_3a/output_inception_3a/output_0_split -> inception_3a/output_inception_3a/output_0_split_1
I0312 11:30:55.144397 27875 net.cpp:357] inception_3a/output_inception_3a/output_0_split -> inception_3a/output_inception_3a/output_0_split_2
I0312 11:30:55.144417 27875 net.cpp:357] inception_3a/output_inception_3a/output_0_split -> inception_3a/output_inception_3a/output_0_split_3
I0312 11:30:55.144430 27875 net.cpp:97] Setting up inception_3a/output_inception_3a/output_0_split
I0312 11:30:55.144443 27875 net.cpp:104] Top shape: 128 256 11 11 (3964928)
I0312 11:30:55.144454 27875 net.cpp:104] Top shape: 128 256 11 11 (3964928)
I0312 11:30:55.144465 27875 net.cpp:104] Top shape: 128 256 11 11 (3964928)
I0312 11:30:55.144475 27875 net.cpp:104] Top shape: 128 256 11 11 (3964928)
I0312 11:30:55.144486 27875 layer_factory.hpp:78] Creating layer inception_3b/1x1
I0312 11:30:55.144500 27875 net.cpp:68] Creating Layer inception_3b/1x1
I0312 11:30:55.144511 27875 net.cpp:395] inception_3b/1x1 <- inception_3a/output_inception_3a/output_0_split_0
I0312 11:30:55.144528 27875 net.cpp:357] inception_3b/1x1 -> inception_3b/1x1
I0312 11:30:55.144544 27875 net.cpp:97] Setting up inception_3b/1x1
I0312 11:30:55.144984 27875 net.cpp:104] Top shape: 128 128 11 11 (1982464)
I0312 11:30:55.145011 27875 layer_factory.hpp:78] Creating layer inception_3b/1x1/bn
I0312 11:30:55.145026 27875 net.cpp:68] Creating Layer inception_3b/1x1/bn
I0312 11:30:55.145038 27875 net.cpp:395] inception_3b/1x1/bn <- inception_3b/1x1
I0312 11:30:55.145056 27875 net.cpp:357] inception_3b/1x1/bn -> inception_3b/1x1/bn
I0312 11:30:55.145072 27875 net.cpp:97] Setting up inception_3b/1x1/bn
I0312 11:30:55.145092 27875 net.cpp:104] Top shape: 128 128 11 11 (1982464)
I0312 11:30:55.145107 27875 layer_factory.hpp:78] Creating layer inception_3b/relu_1x1
I0312 11:30:55.145123 27875 net.cpp:68] Creating Layer inception_3b/relu_1x1
I0312 11:30:55.145135 27875 net.cpp:395] inception_3b/relu_1x1 <- inception_3b/1x1/bn
I0312 11:30:55.145148 27875 net.cpp:346] inception_3b/relu_1x1 -> inception_3b/1x1/bn (in-place)
I0312 11:30:55.145162 27875 net.cpp:97] Setting up inception_3b/relu_1x1
I0312 11:30:55.145176 27875 net.cpp:104] Top shape: 128 128 11 11 (1982464)
I0312 11:30:55.145189 27875 layer_factory.hpp:78] Creating layer inception_3b/3x3_reduce
I0312 11:30:55.145205 27875 net.cpp:68] Creating Layer inception_3b/3x3_reduce
I0312 11:30:55.145217 27875 net.cpp:395] inception_3b/3x3_reduce <- inception_3a/output_inception_3a/output_0_split_1
I0312 11:30:55.145232 27875 net.cpp:357] inception_3b/3x3_reduce -> inception_3b/3x3_reduce
I0312 11:30:55.145247 27875 net.cpp:97] Setting up inception_3b/3x3_reduce
I0312 11:30:55.145810 27875 net.cpp:104] Top shape: 128 128 11 11 (1982464)
I0312 11:30:55.145834 27875 layer_factory.hpp:78] Creating layer inception_3b/3x3_reduce/bn
I0312 11:30:55.145850 27875 net.cpp:68] Creating Layer inception_3b/3x3_reduce/bn
I0312 11:30:55.145862 27875 net.cpp:395] inception_3b/3x3_reduce/bn <- inception_3b/3x3_reduce
I0312 11:30:55.145881 27875 net.cpp:357] inception_3b/3x3_reduce/bn -> inception_3b/3x3_reduce/bn
I0312 11:30:55.145898 27875 net.cpp:97] Setting up inception_3b/3x3_reduce/bn
I0312 11:30:55.145920 27875 net.cpp:104] Top shape: 128 128 11 11 (1982464)
I0312 11:30:55.145934 27875 layer_factory.hpp:78] Creating layer inception_3b/relu_3x3_reduce
I0312 11:30:55.145948 27875 net.cpp:68] Creating Layer inception_3b/relu_3x3_reduce
I0312 11:30:55.145959 27875 net.cpp:395] inception_3b/relu_3x3_reduce <- inception_3b/3x3_reduce/bn
I0312 11:30:55.145977 27875 net.cpp:346] inception_3b/relu_3x3_reduce -> inception_3b/3x3_reduce/bn (in-place)
I0312 11:30:55.146016 27875 net.cpp:97] Setting up inception_3b/relu_3x3_reduce
I0312 11:30:55.146034 27875 net.cpp:104] Top shape: 128 128 11 11 (1982464)
I0312 11:30:55.146046 27875 layer_factory.hpp:78] Creating layer inception_3b/3x3
I0312 11:30:55.146061 27875 net.cpp:68] Creating Layer inception_3b/3x3
I0312 11:30:55.146073 27875 net.cpp:395] inception_3b/3x3 <- inception_3b/3x3_reduce/bn
I0312 11:30:55.146086 27875 net.cpp:357] inception_3b/3x3 -> inception_3b/3x3
I0312 11:30:55.146102 27875 net.cpp:97] Setting up inception_3b/3x3
I0312 11:30:55.148516 27875 net.cpp:104] Top shape: 128 192 11 11 (2973696)
I0312 11:30:55.148540 27875 layer_factory.hpp:78] Creating layer inception_3b/3x3/bn
I0312 11:30:55.148555 27875 net.cpp:68] Creating Layer inception_3b/3x3/bn
I0312 11:30:55.148563 27875 net.cpp:395] inception_3b/3x3/bn <- inception_3b/3x3
I0312 11:30:55.148573 27875 net.cpp:357] inception_3b/3x3/bn -> inception_3b/3x3/bn
I0312 11:30:55.148594 27875 net.cpp:97] Setting up inception_3b/3x3/bn
I0312 11:30:55.148643 27875 net.cpp:104] Top shape: 128 192 11 11 (2973696)
I0312 11:30:55.148661 27875 layer_factory.hpp:78] Creating layer inception_3b/relu_3x3
I0312 11:30:55.148674 27875 net.cpp:68] Creating Layer inception_3b/relu_3x3
I0312 11:30:55.148692 27875 net.cpp:395] inception_3b/relu_3x3 <- inception_3b/3x3/bn
I0312 11:30:55.148708 27875 net.cpp:346] inception_3b/relu_3x3 -> inception_3b/3x3/bn (in-place)
I0312 11:30:55.148723 27875 net.cpp:97] Setting up inception_3b/relu_3x3
I0312 11:30:55.148738 27875 net.cpp:104] Top shape: 128 192 11 11 (2973696)
I0312 11:30:55.148751 27875 layer_factory.hpp:78] Creating layer inception_3b/5x5_reduce
I0312 11:30:55.148766 27875 net.cpp:68] Creating Layer inception_3b/5x5_reduce
I0312 11:30:55.148777 27875 net.cpp:395] inception_3b/5x5_reduce <- inception_3a/output_inception_3a/output_0_split_2
I0312 11:30:55.148794 27875 net.cpp:357] inception_3b/5x5_reduce -> inception_3b/5x5_reduce
I0312 11:30:55.148809 27875 net.cpp:97] Setting up inception_3b/5x5_reduce
I0312 11:30:55.148984 27875 net.cpp:104] Top shape: 128 32 11 11 (495616)
I0312 11:30:55.149006 27875 layer_factory.hpp:78] Creating layer inception_3b/5x5_reduce/bn
I0312 11:30:55.149024 27875 net.cpp:68] Creating Layer inception_3b/5x5_reduce/bn
I0312 11:30:55.149036 27875 net.cpp:395] inception_3b/5x5_reduce/bn <- inception_3b/5x5_reduce
I0312 11:30:55.149063 27875 net.cpp:357] inception_3b/5x5_reduce/bn -> inception_3b/5x5_reduce/bn
I0312 11:30:55.149080 27875 net.cpp:97] Setting up inception_3b/5x5_reduce/bn
I0312 11:30:55.149099 27875 net.cpp:104] Top shape: 128 32 11 11 (495616)
I0312 11:30:55.149114 27875 layer_factory.hpp:78] Creating layer inception_3b/relu_5x5_reduce
I0312 11:30:55.149130 27875 net.cpp:68] Creating Layer inception_3b/relu_5x5_reduce
I0312 11:30:55.149142 27875 net.cpp:395] inception_3b/relu_5x5_reduce <- inception_3b/5x5_reduce/bn
I0312 11:30:55.149155 27875 net.cpp:346] inception_3b/relu_5x5_reduce -> inception_3b/5x5_reduce/bn (in-place)
I0312 11:30:55.149168 27875 net.cpp:97] Setting up inception_3b/relu_5x5_reduce
I0312 11:30:55.149183 27875 net.cpp:104] Top shape: 128 32 11 11 (495616)
I0312 11:30:55.149195 27875 layer_factory.hpp:78] Creating layer inception_3b/5x5
I0312 11:30:55.149209 27875 net.cpp:68] Creating Layer inception_3b/5x5
I0312 11:30:55.149221 27875 net.cpp:395] inception_3b/5x5 <- inception_3b/5x5_reduce/bn
I0312 11:30:55.149237 27875 net.cpp:357] inception_3b/5x5 -> inception_3b/5x5
I0312 11:30:55.149252 27875 net.cpp:97] Setting up inception_3b/5x5
I0312 11:30:55.150099 27875 net.cpp:104] Top shape: 128 96 11 11 (1486848)
I0312 11:30:55.150125 27875 layer_factory.hpp:78] Creating layer inception_3b/5x5/bn
I0312 11:30:55.150141 27875 net.cpp:68] Creating Layer inception_3b/5x5/bn
I0312 11:30:55.150152 27875 net.cpp:395] inception_3b/5x5/bn <- inception_3b/5x5
I0312 11:30:55.150169 27875 net.cpp:357] inception_3b/5x5/bn -> inception_3b/5x5/bn
I0312 11:30:55.150185 27875 net.cpp:97] Setting up inception_3b/5x5/bn
I0312 11:30:55.150226 27875 net.cpp:104] Top shape: 128 96 11 11 (1486848)
I0312 11:30:55.150244 27875 layer_factory.hpp:78] Creating layer inception_3b/relu_5x5
I0312 11:30:55.150260 27875 net.cpp:68] Creating Layer inception_3b/relu_5x5
I0312 11:30:55.150272 27875 net.cpp:395] inception_3b/relu_5x5 <- inception_3b/5x5/bn
I0312 11:30:55.150285 27875 net.cpp:346] inception_3b/relu_5x5 -> inception_3b/5x5/bn (in-place)
I0312 11:30:55.150300 27875 net.cpp:97] Setting up inception_3b/relu_5x5
I0312 11:30:55.150315 27875 net.cpp:104] Top shape: 128 96 11 11 (1486848)
I0312 11:30:55.150326 27875 layer_factory.hpp:78] Creating layer inception_3b/pool
I0312 11:30:55.150338 27875 layer_factory.cpp:51] CUDNN does not support padding or multiple tops. Using Caffe's own pooling layer.
I0312 11:30:55.150353 27875 net.cpp:68] Creating Layer inception_3b/pool
I0312 11:30:55.150365 27875 net.cpp:395] inception_3b/pool <- inception_3a/output_inception_3a/output_0_split_3
I0312 11:30:55.150379 27875 net.cpp:357] inception_3b/pool -> inception_3b/pool
I0312 11:30:55.150394 27875 net.cpp:97] Setting up inception_3b/pool
I0312 11:30:55.150408 27875 net.cpp:104] Top shape: 128 256 11 11 (3964928)
I0312 11:30:55.150419 27875 layer_factory.hpp:78] Creating layer inception_3b/pool_proj
I0312 11:30:55.150436 27875 net.cpp:68] Creating Layer inception_3b/pool_proj
I0312 11:30:55.150449 27875 net.cpp:395] inception_3b/pool_proj <- inception_3b/pool
I0312 11:30:55.150461 27875 net.cpp:357] inception_3b/pool_proj -> inception_3b/pool_proj
I0312 11:30:55.150477 27875 net.cpp:97] Setting up inception_3b/pool_proj
I0312 11:30:55.150713 27875 net.cpp:104] Top shape: 128 64 11 11 (991232)
I0312 11:30:55.150734 27875 layer_factory.hpp:78] Creating layer inception_3b/pool_proj/bn
I0312 11:30:55.150753 27875 net.cpp:68] Creating Layer inception_3b/pool_proj/bn
I0312 11:30:55.150765 27875 net.cpp:395] inception_3b/pool_proj/bn <- inception_3b/pool_proj
I0312 11:30:55.150780 27875 net.cpp:357] inception_3b/pool_proj/bn -> inception_3b/pool_proj/bn
I0312 11:30:55.150795 27875 net.cpp:97] Setting up inception_3b/pool_proj/bn
I0312 11:30:55.150820 27875 net.cpp:104] Top shape: 128 64 11 11 (991232)
I0312 11:30:55.150835 27875 layer_factory.hpp:78] Creating layer inception_3b/relu_pool_proj
I0312 11:30:55.150847 27875 net.cpp:68] Creating Layer inception_3b/relu_pool_proj
I0312 11:30:55.150859 27875 net.cpp:395] inception_3b/relu_pool_proj <- inception_3b/pool_proj/bn
I0312 11:30:55.150874 27875 net.cpp:346] inception_3b/relu_pool_proj -> inception_3b/pool_proj/bn (in-place)
I0312 11:30:55.150889 27875 net.cpp:97] Setting up inception_3b/relu_pool_proj
I0312 11:30:55.150904 27875 net.cpp:104] Top shape: 128 64 11 11 (991232)
I0312 11:30:55.150915 27875 layer_factory.hpp:78] Creating layer inception_3b/output
I0312 11:30:55.150928 27875 net.cpp:68] Creating Layer inception_3b/output
I0312 11:30:55.150940 27875 net.cpp:395] inception_3b/output <- inception_3b/1x1/bn
I0312 11:30:55.150954 27875 net.cpp:395] inception_3b/output <- inception_3b/3x3/bn
I0312 11:30:55.150965 27875 net.cpp:395] inception_3b/output <- inception_3b/5x5/bn
I0312 11:30:55.150979 27875 net.cpp:395] inception_3b/output <- inception_3b/pool_proj/bn
I0312 11:30:55.150991 27875 net.cpp:357] inception_3b/output -> inception_3b/output
I0312 11:30:55.151010 27875 net.cpp:97] Setting up inception_3b/output
I0312 11:30:55.151023 27875 net.cpp:104] Top shape: 128 480 11 11 (7434240)
I0312 11:30:55.151034 27875 layer_factory.hpp:78] Creating layer pool3/3x3_s2
I0312 11:30:55.151048 27875 net.cpp:68] Creating Layer pool3/3x3_s2
I0312 11:30:55.151059 27875 net.cpp:395] pool3/3x3_s2 <- inception_3b/output
I0312 11:30:55.151073 27875 net.cpp:357] pool3/3x3_s2 -> pool3/3x3_s2
I0312 11:30:55.151087 27875 net.cpp:97] Setting up pool3/3x3_s2
I0312 11:30:55.151104 27875 net.cpp:104] Top shape: 128 480 5 5 (1536000)
I0312 11:30:55.151116 27875 layer_factory.hpp:78] Creating layer pool3/3x3_s2_pool3/3x3_s2_0_split
I0312 11:30:55.151129 27875 net.cpp:68] Creating Layer pool3/3x3_s2_pool3/3x3_s2_0_split
I0312 11:30:55.151155 27875 net.cpp:395] pool3/3x3_s2_pool3/3x3_s2_0_split <- pool3/3x3_s2
I0312 11:30:55.151175 27875 net.cpp:357] pool3/3x3_s2_pool3/3x3_s2_0_split -> pool3/3x3_s2_pool3/3x3_s2_0_split_0
I0312 11:30:55.151191 27875 net.cpp:357] pool3/3x3_s2_pool3/3x3_s2_0_split -> pool3/3x3_s2_pool3/3x3_s2_0_split_1
I0312 11:30:55.151207 27875 net.cpp:357] pool3/3x3_s2_pool3/3x3_s2_0_split -> pool3/3x3_s2_pool3/3x3_s2_0_split_2
I0312 11:30:55.151223 27875 net.cpp:357] pool3/3x3_s2_pool3/3x3_s2_0_split -> pool3/3x3_s2_pool3/3x3_s2_0_split_3
I0312 11:30:55.151242 27875 net.cpp:97] Setting up pool3/3x3_s2_pool3/3x3_s2_0_split
I0312 11:30:55.151255 27875 net.cpp:104] Top shape: 128 480 5 5 (1536000)
I0312 11:30:55.151267 27875 net.cpp:104] Top shape: 128 480 5 5 (1536000)
I0312 11:30:55.151276 27875 net.cpp:104] Top shape: 128 480 5 5 (1536000)
I0312 11:30:55.151288 27875 net.cpp:104] Top shape: 128 480 5 5 (1536000)
I0312 11:30:55.151298 27875 layer_factory.hpp:78] Creating layer inception_4a/1x1
I0312 11:30:55.151311 27875 net.cpp:68] Creating Layer inception_4a/1x1
I0312 11:30:55.151324 27875 net.cpp:395] inception_4a/1x1 <- pool3/3x3_s2_pool3/3x3_s2_0_split_0
I0312 11:30:55.151340 27875 net.cpp:357] inception_4a/1x1 -> inception_4a/1x1
I0312 11:30:55.151355 27875 net.cpp:97] Setting up inception_4a/1x1
I0312 11:30:55.152529 27875 net.cpp:104] Top shape: 128 192 5 5 (614400)
I0312 11:30:55.152555 27875 layer_factory.hpp:78] Creating layer inception_4a/1x1/bn
I0312 11:30:55.152575 27875 net.cpp:68] Creating Layer inception_4a/1x1/bn
I0312 11:30:55.152587 27875 net.cpp:395] inception_4a/1x1/bn <- inception_4a/1x1
I0312 11:30:55.152601 27875 net.cpp:357] inception_4a/1x1/bn -> inception_4a/1x1/bn
I0312 11:30:55.152617 27875 net.cpp:97] Setting up inception_4a/1x1/bn
I0312 11:30:55.152642 27875 net.cpp:104] Top shape: 128 192 5 5 (614400)
I0312 11:30:55.152657 27875 layer_factory.hpp:78] Creating layer inception_4a/relu_1x1
I0312 11:30:55.152675 27875 net.cpp:68] Creating Layer inception_4a/relu_1x1
I0312 11:30:55.152688 27875 net.cpp:395] inception_4a/relu_1x1 <- inception_4a/1x1/bn
I0312 11:30:55.152700 27875 net.cpp:346] inception_4a/relu_1x1 -> inception_4a/1x1/bn (in-place)
I0312 11:30:55.152719 27875 net.cpp:97] Setting up inception_4a/relu_1x1
I0312 11:30:55.152734 27875 net.cpp:104] Top shape: 128 192 5 5 (614400)
I0312 11:30:55.152746 27875 layer_factory.hpp:78] Creating layer inception_4a/3x3_reduce
I0312 11:30:55.152760 27875 net.cpp:68] Creating Layer inception_4a/3x3_reduce
I0312 11:30:55.152773 27875 net.cpp:395] inception_4a/3x3_reduce <- pool3/3x3_s2_pool3/3x3_s2_0_split_1
I0312 11:30:55.152791 27875 net.cpp:357] inception_4a/3x3_reduce -> inception_4a/3x3_reduce
I0312 11:30:55.152808 27875 net.cpp:97] Setting up inception_4a/3x3_reduce
I0312 11:30:55.153427 27875 net.cpp:104] Top shape: 128 96 5 5 (307200)
I0312 11:30:55.153462 27875 layer_factory.hpp:78] Creating layer inception_4a/3x3_reduce/bn
I0312 11:30:55.153482 27875 net.cpp:68] Creating Layer inception_4a/3x3_reduce/bn
I0312 11:30:55.153496 27875 net.cpp:395] inception_4a/3x3_reduce/bn <- inception_4a/3x3_reduce
I0312 11:30:55.153516 27875 net.cpp:357] inception_4a/3x3_reduce/bn -> inception_4a/3x3_reduce/bn
I0312 11:30:55.153532 27875 net.cpp:97] Setting up inception_4a/3x3_reduce/bn
I0312 11:30:55.153556 27875 net.cpp:104] Top shape: 128 96 5 5 (307200)
I0312 11:30:55.153571 27875 layer_factory.hpp:78] Creating layer inception_4a/relu_3x3_reduce
I0312 11:30:55.153586 27875 net.cpp:68] Creating Layer inception_4a/relu_3x3_reduce
I0312 11:30:55.153597 27875 net.cpp:395] inception_4a/relu_3x3_reduce <- inception_4a/3x3_reduce/bn
I0312 11:30:55.153610 27875 net.cpp:346] inception_4a/relu_3x3_reduce -> inception_4a/3x3_reduce/bn (in-place)
I0312 11:30:55.153628 27875 net.cpp:97] Setting up inception_4a/relu_3x3_reduce
I0312 11:30:55.153643 27875 net.cpp:104] Top shape: 128 96 5 5 (307200)
I0312 11:30:55.153655 27875 layer_factory.hpp:78] Creating layer inception_4a/3x3
I0312 11:30:55.153668 27875 net.cpp:68] Creating Layer inception_4a/3x3
I0312 11:30:55.153700 27875 net.cpp:395] inception_4a/3x3 <- inception_4a/3x3_reduce/bn
I0312 11:30:55.153717 27875 net.cpp:357] inception_4a/3x3 -> inception_4a/3x3
I0312 11:30:55.153733 27875 net.cpp:97] Setting up inception_4a/3x3
I0312 11:30:55.155807 27875 net.cpp:104] Top shape: 128 208 5 5 (665600)
I0312 11:30:55.155832 27875 layer_factory.hpp:78] Creating layer inception_4a/3x3/bn
I0312 11:30:55.155856 27875 net.cpp:68] Creating Layer inception_4a/3x3/bn
I0312 11:30:55.155869 27875 net.cpp:395] inception_4a/3x3/bn <- inception_4a/3x3
I0312 11:30:55.155885 27875 net.cpp:357] inception_4a/3x3/bn -> inception_4a/3x3/bn
I0312 11:30:55.155900 27875 net.cpp:97] Setting up inception_4a/3x3/bn
I0312 11:30:55.155922 27875 net.cpp:104] Top shape: 128 208 5 5 (665600)
I0312 11:30:55.155938 27875 layer_factory.hpp:78] Creating layer inception_4a/relu_3x3
I0312 11:30:55.155953 27875 net.cpp:68] Creating Layer inception_4a/relu_3x3
I0312 11:30:55.155966 27875 net.cpp:395] inception_4a/relu_3x3 <- inception_4a/3x3/bn
I0312 11:30:55.155982 27875 net.cpp:346] inception_4a/relu_3x3 -> inception_4a/3x3/bn (in-place)
I0312 11:30:55.155997 27875 net.cpp:97] Setting up inception_4a/relu_3x3
I0312 11:30:55.156011 27875 net.cpp:104] Top shape: 128 208 5 5 (665600)
I0312 11:30:55.156023 27875 layer_factory.hpp:78] Creating layer inception_4a/5x5_reduce
I0312 11:30:55.156036 27875 net.cpp:68] Creating Layer inception_4a/5x5_reduce
I0312 11:30:55.156049 27875 net.cpp:395] inception_4a/5x5_reduce <- pool3/3x3_s2_pool3/3x3_s2_0_split_2
I0312 11:30:55.156065 27875 net.cpp:357] inception_4a/5x5_reduce -> inception_4a/5x5_reduce
I0312 11:30:55.156081 27875 net.cpp:97] Setting up inception_4a/5x5_reduce
I0312 11:30:55.156239 27875 net.cpp:104] Top shape: 128 16 5 5 (51200)
I0312 11:30:55.156260 27875 layer_factory.hpp:78] Creating layer inception_4a/5x5_reduce/bn
I0312 11:30:55.156278 27875 net.cpp:68] Creating Layer inception_4a/5x5_reduce/bn
I0312 11:30:55.156291 27875 net.cpp:395] inception_4a/5x5_reduce/bn <- inception_4a/5x5_reduce
I0312 11:30:55.156306 27875 net.cpp:357] inception_4a/5x5_reduce/bn -> inception_4a/5x5_reduce/bn
I0312 11:30:55.156322 27875 net.cpp:97] Setting up inception_4a/5x5_reduce/bn
I0312 11:30:55.156343 27875 net.cpp:104] Top shape: 128 16 5 5 (51200)
I0312 11:30:55.156358 27875 layer_factory.hpp:78] Creating layer inception_4a/relu_5x5_reduce
I0312 11:30:55.156373 27875 net.cpp:68] Creating Layer inception_4a/relu_5x5_reduce
I0312 11:30:55.156383 27875 net.cpp:395] inception_4a/relu_5x5_reduce <- inception_4a/5x5_reduce/bn
I0312 11:30:55.156397 27875 net.cpp:346] inception_4a/relu_5x5_reduce -> inception_4a/5x5_reduce/bn (in-place)
I0312 11:30:55.156410 27875 net.cpp:97] Setting up inception_4a/relu_5x5_reduce
I0312 11:30:55.156425 27875 net.cpp:104] Top shape: 128 16 5 5 (51200)
I0312 11:30:55.156436 27875 layer_factory.hpp:78] Creating layer inception_4a/5x5
I0312 11:30:55.156455 27875 net.cpp:68] Creating Layer inception_4a/5x5
I0312 11:30:55.156468 27875 net.cpp:395] inception_4a/5x5 <- inception_4a/5x5_reduce/bn
I0312 11:30:55.156481 27875 net.cpp:357] inception_4a/5x5 -> inception_4a/5x5
I0312 11:30:55.156503 27875 net.cpp:97] Setting up inception_4a/5x5
I0312 11:30:55.156777 27875 net.cpp:104] Top shape: 128 48 5 5 (153600)
I0312 11:30:55.156800 27875 layer_factory.hpp:78] Creating layer inception_4a/5x5/bn
I0312 11:30:55.156815 27875 net.cpp:68] Creating Layer inception_4a/5x5/bn
I0312 11:30:55.156826 27875 net.cpp:395] inception_4a/5x5/bn <- inception_4a/5x5
I0312 11:30:55.156844 27875 net.cpp:357] inception_4a/5x5/bn -> inception_4a/5x5/bn
I0312 11:30:55.156865 27875 net.cpp:97] Setting up inception_4a/5x5/bn
I0312 11:30:55.156888 27875 net.cpp:104] Top shape: 128 48 5 5 (153600)
I0312 11:30:55.156904 27875 layer_factory.hpp:78] Creating layer inception_4a/relu_5x5
I0312 11:30:55.156924 27875 net.cpp:68] Creating Layer inception_4a/relu_5x5
I0312 11:30:55.156937 27875 net.cpp:395] inception_4a/relu_5x5 <- inception_4a/5x5/bn
I0312 11:30:55.156949 27875 net.cpp:346] inception_4a/relu_5x5 -> inception_4a/5x5/bn (in-place)
I0312 11:30:55.156983 27875 net.cpp:97] Setting up inception_4a/relu_5x5
I0312 11:30:55.156999 27875 net.cpp:104] Top shape: 128 48 5 5 (153600)
I0312 11:30:55.157011 27875 layer_factory.hpp:78] Creating layer inception_4a/pool
I0312 11:30:55.157023 27875 layer_factory.cpp:51] CUDNN does not support padding or multiple tops. Using Caffe's own pooling layer.
I0312 11:30:55.157037 27875 net.cpp:68] Creating Layer inception_4a/pool
I0312 11:30:55.157047 27875 net.cpp:395] inception_4a/pool <- pool3/3x3_s2_pool3/3x3_s2_0_split_3
I0312 11:30:55.157064 27875 net.cpp:357] inception_4a/pool -> inception_4a/pool
I0312 11:30:55.157086 27875 net.cpp:97] Setting up inception_4a/pool
I0312 11:30:55.157105 27875 net.cpp:104] Top shape: 128 480 5 5 (1536000)
I0312 11:30:55.157117 27875 layer_factory.hpp:78] Creating layer inception_4a/pool_proj
I0312 11:30:55.157131 27875 net.cpp:68] Creating Layer inception_4a/pool_proj
I0312 11:30:55.157143 27875 net.cpp:395] inception_4a/pool_proj <- inception_4a/pool
I0312 11:30:55.157160 27875 net.cpp:357] inception_4a/pool_proj -> inception_4a/pool_proj
I0312 11:30:55.157176 27875 net.cpp:97] Setting up inception_4a/pool_proj
I0312 11:30:55.157696 27875 net.cpp:104] Top shape: 128 64 5 5 (204800)
I0312 11:30:55.157721 27875 layer_factory.hpp:78] Creating layer inception_4a/pool_proj/bn
I0312 11:30:55.157748 27875 net.cpp:68] Creating Layer inception_4a/pool_proj/bn
I0312 11:30:55.157763 27875 net.cpp:395] inception_4a/pool_proj/bn <- inception_4a/pool_proj
I0312 11:30:55.157776 27875 net.cpp:357] inception_4a/pool_proj/bn -> inception_4a/pool_proj/bn
I0312 11:30:55.157793 27875 net.cpp:97] Setting up inception_4a/pool_proj/bn
I0312 11:30:55.157815 27875 net.cpp:104] Top shape: 128 64 5 5 (204800)
I0312 11:30:55.157830 27875 layer_factory.hpp:78] Creating layer inception_4a/relu_pool_proj
I0312 11:30:55.157843 27875 net.cpp:68] Creating Layer inception_4a/relu_pool_proj
I0312 11:30:55.157855 27875 net.cpp:395] inception_4a/relu_pool_proj <- inception_4a/pool_proj/bn
I0312 11:30:55.157868 27875 net.cpp:346] inception_4a/relu_pool_proj -> inception_4a/pool_proj/bn (in-place)
I0312 11:30:55.157882 27875 net.cpp:97] Setting up inception_4a/relu_pool_proj
I0312 11:30:55.157897 27875 net.cpp:104] Top shape: 128 64 5 5 (204800)
I0312 11:30:55.157908 27875 layer_factory.hpp:78] Creating layer inception_4a/output
I0312 11:30:55.157922 27875 net.cpp:68] Creating Layer inception_4a/output
I0312 11:30:55.157933 27875 net.cpp:395] inception_4a/output <- inception_4a/1x1/bn
I0312 11:30:55.157949 27875 net.cpp:395] inception_4a/output <- inception_4a/3x3/bn
I0312 11:30:55.157963 27875 net.cpp:395] inception_4a/output <- inception_4a/5x5/bn
I0312 11:30:55.157975 27875 net.cpp:395] inception_4a/output <- inception_4a/pool_proj/bn
I0312 11:30:55.157989 27875 net.cpp:357] inception_4a/output -> inception_4a/output
I0312 11:30:55.158004 27875 net.cpp:97] Setting up inception_4a/output
I0312 11:30:55.158015 27875 net.cpp:104] Top shape: 128 512 5 5 (1638400)
I0312 11:30:55.158025 27875 layer_factory.hpp:78] Creating layer inception_4a/output_inception_4a/output_0_split
I0312 11:30:55.158041 27875 net.cpp:68] Creating Layer inception_4a/output_inception_4a/output_0_split
I0312 11:30:55.158051 27875 net.cpp:395] inception_4a/output_inception_4a/output_0_split <- inception_4a/output
I0312 11:30:55.158067 27875 net.cpp:357] inception_4a/output_inception_4a/output_0_split -> inception_4a/output_inception_4a/output_0_split_0
I0312 11:30:55.158084 27875 net.cpp:357] inception_4a/output_inception_4a/output_0_split -> inception_4a/output_inception_4a/output_0_split_1
I0312 11:30:55.158102 27875 net.cpp:357] inception_4a/output_inception_4a/output_0_split -> inception_4a/output_inception_4a/output_0_split_2
I0312 11:30:55.158118 27875 net.cpp:357] inception_4a/output_inception_4a/output_0_split -> inception_4a/output_inception_4a/output_0_split_3
I0312 11:30:55.158133 27875 net.cpp:357] inception_4a/output_inception_4a/output_0_split -> inception_4a/output_inception_4a/output_0_split_4
I0312 11:30:55.158148 27875 net.cpp:97] Setting up inception_4a/output_inception_4a/output_0_split
I0312 11:30:55.158177 27875 net.cpp:104] Top shape: 128 512 5 5 (1638400)
I0312 11:30:55.158190 27875 net.cpp:104] Top shape: 128 512 5 5 (1638400)
I0312 11:30:55.158200 27875 net.cpp:104] Top shape: 128 512 5 5 (1638400)
I0312 11:30:55.158211 27875 net.cpp:104] Top shape: 128 512 5 5 (1638400)
I0312 11:30:55.158221 27875 net.cpp:104] Top shape: 128 512 5 5 (1638400)
I0312 11:30:55.158232 27875 layer_factory.hpp:78] Creating layer loss1/ave_pool
I0312 11:30:55.158252 27875 net.cpp:68] Creating Layer loss1/ave_pool
I0312 11:30:55.158264 27875 net.cpp:395] loss1/ave_pool <- inception_4a/output_inception_4a/output_0_split_0
I0312 11:30:55.158277 27875 net.cpp:357] loss1/ave_pool -> loss1/ave_pool
I0312 11:30:55.158293 27875 net.cpp:97] Setting up loss1/ave_pool
I0312 11:30:55.158308 27875 net.cpp:104] Top shape: 128 512 1 1 (65536)
I0312 11:30:55.158320 27875 layer_factory.hpp:78] Creating layer loss1/conv
I0312 11:30:55.158337 27875 net.cpp:68] Creating Layer loss1/conv
I0312 11:30:55.158349 27875 net.cpp:395] loss1/conv <- loss1/ave_pool
I0312 11:30:55.158362 27875 net.cpp:357] loss1/conv -> loss1/conv
I0312 11:30:55.158378 27875 net.cpp:97] Setting up loss1/conv
I0312 11:30:55.159132 27875 net.cpp:104] Top shape: 128 128 1 1 (16384)
I0312 11:30:55.159158 27875 layer_factory.hpp:78] Creating layer loss1/conv/bn
I0312 11:30:55.159176 27875 net.cpp:68] Creating Layer loss1/conv/bn
I0312 11:30:55.159189 27875 net.cpp:395] loss1/conv/bn <- loss1/conv
I0312 11:30:55.159204 27875 net.cpp:357] loss1/conv/bn -> loss1/conv/bn
I0312 11:30:55.159219 27875 net.cpp:97] Setting up loss1/conv/bn
I0312 11:30:55.159241 27875 net.cpp:104] Top shape: 128 128 1 1 (16384)
I0312 11:30:55.159256 27875 layer_factory.hpp:78] Creating layer loss1/relu_conv
I0312 11:30:55.159271 27875 net.cpp:68] Creating Layer loss1/relu_conv
I0312 11:30:55.159281 27875 net.cpp:395] loss1/relu_conv <- loss1/conv/bn
I0312 11:30:55.159293 27875 net.cpp:346] loss1/relu_conv -> loss1/conv/bn (in-place)
I0312 11:30:55.159307 27875 net.cpp:97] Setting up loss1/relu_conv
I0312 11:30:55.159322 27875 net.cpp:104] Top shape: 128 128 1 1 (16384)
I0312 11:30:55.159333 27875 layer_factory.hpp:78] Creating layer loss1/fc
I0312 11:30:55.159353 27875 net.cpp:68] Creating Layer loss1/fc
I0312 11:30:55.159366 27875 net.cpp:395] loss1/fc <- loss1/conv/bn
I0312 11:30:55.159379 27875 net.cpp:357] loss1/fc -> loss1/fc
I0312 11:30:55.159396 27875 net.cpp:97] Setting up loss1/fc
I0312 11:30:55.160768 27875 net.cpp:104] Top shape: 128 1024 1 1 (131072)
I0312 11:30:55.160791 27875 layer_factory.hpp:78] Creating layer loss1/fc/bn
I0312 11:30:55.160806 27875 net.cpp:68] Creating Layer loss1/fc/bn
I0312 11:30:55.160819 27875 net.cpp:395] loss1/fc/bn <- loss1/fc
I0312 11:30:55.160836 27875 net.cpp:357] loss1/fc/bn -> loss1/fc/bn
I0312 11:30:55.160853 27875 net.cpp:97] Setting up loss1/fc/bn
I0312 11:30:55.160887 27875 net.cpp:104] Top shape: 128 1024 1 1 (131072)
I0312 11:30:55.160902 27875 layer_factory.hpp:78] Creating layer loss1/relu_fc
I0312 11:30:55.160917 27875 net.cpp:68] Creating Layer loss1/relu_fc
I0312 11:30:55.160929 27875 net.cpp:395] loss1/relu_fc <- loss1/fc/bn
I0312 11:30:55.160945 27875 net.cpp:346] loss1/relu_fc -> loss1/fc/bn (in-place)
I0312 11:30:55.160959 27875 net.cpp:97] Setting up loss1/relu_fc
I0312 11:30:55.160975 27875 net.cpp:104] Top shape: 128 1024 1 1 (131072)
I0312 11:30:55.160987 27875 layer_factory.hpp:78] Creating layer loss1/drop_fc
I0312 11:30:55.161003 27875 net.cpp:68] Creating Layer loss1/drop_fc
I0312 11:30:55.161015 27875 net.cpp:395] loss1/drop_fc <- loss1/fc/bn
I0312 11:30:55.161031 27875 net.cpp:346] loss1/drop_fc -> loss1/fc/bn (in-place)
I0312 11:30:55.161046 27875 net.cpp:97] Setting up loss1/drop_fc
I0312 11:30:55.161061 27875 net.cpp:104] Top shape: 128 1024 1 1 (131072)
I0312 11:30:55.161072 27875 layer_factory.hpp:78] Creating layer loss1/classifier
I0312 11:30:55.161085 27875 net.cpp:68] Creating Layer loss1/classifier
I0312 11:30:55.161097 27875 net.cpp:395] loss1/classifier <- loss1/fc/bn
I0312 11:30:55.161130 27875 net.cpp:357] loss1/classifier -> loss1/classifier
I0312 11:30:55.161147 27875 net.cpp:97] Setting up loss1/classifier
I0312 11:30:55.162456 27875 net.cpp:104] Top shape: 128 121 1 1 (15488)
I0312 11:30:55.162478 27875 layer_factory.hpp:78] Creating layer loss1/loss
I0312 11:30:55.162498 27875 net.cpp:68] Creating Layer loss1/loss
I0312 11:30:55.162510 27875 net.cpp:395] loss1/loss <- loss1/classifier
I0312 11:30:55.162523 27875 net.cpp:395] loss1/loss <- label_data_1_split_0
I0312 11:30:55.162538 27875 net.cpp:357] loss1/loss -> loss1/loss1
I0312 11:30:55.162554 27875 net.cpp:97] Setting up loss1/loss
I0312 11:30:55.162570 27875 layer_factory.hpp:78] Creating layer loss1/loss
I0312 11:30:55.162636 27875 net.cpp:104] Top shape: 1 1 1 1 (1)
I0312 11:30:55.162652 27875 net.cpp:110]     with loss weight 0.3
I0312 11:30:55.162708 27875 layer_factory.hpp:78] Creating layer inception_4b/1x1
I0312 11:30:55.162726 27875 net.cpp:68] Creating Layer inception_4b/1x1
I0312 11:30:55.162739 27875 net.cpp:395] inception_4b/1x1 <- inception_4a/output_inception_4a/output_0_split_1
I0312 11:30:55.162753 27875 net.cpp:357] inception_4b/1x1 -> inception_4b/1x1
I0312 11:30:55.162768 27875 net.cpp:97] Setting up inception_4b/1x1
I0312 11:30:55.163796 27875 net.cpp:104] Top shape: 128 160 5 5 (512000)
I0312 11:30:55.163820 27875 layer_factory.hpp:78] Creating layer inception_4b/1x1/bn
I0312 11:30:55.163837 27875 net.cpp:68] Creating Layer inception_4b/1x1/bn
I0312 11:30:55.163851 27875 net.cpp:395] inception_4b/1x1/bn <- inception_4b/1x1
I0312 11:30:55.163867 27875 net.cpp:357] inception_4b/1x1/bn -> inception_4b/1x1/bn
I0312 11:30:55.163883 27875 net.cpp:97] Setting up inception_4b/1x1/bn
I0312 11:30:55.163904 27875 net.cpp:104] Top shape: 128 160 5 5 (512000)
I0312 11:30:55.163921 27875 layer_factory.hpp:78] Creating layer inception_4b/relu_1x1
I0312 11:30:55.163934 27875 net.cpp:68] Creating Layer inception_4b/relu_1x1
I0312 11:30:55.163947 27875 net.cpp:395] inception_4b/relu_1x1 <- inception_4b/1x1/bn
I0312 11:30:55.163964 27875 net.cpp:346] inception_4b/relu_1x1 -> inception_4b/1x1/bn (in-place)
I0312 11:30:55.163979 27875 net.cpp:97] Setting up inception_4b/relu_1x1
I0312 11:30:55.163995 27875 net.cpp:104] Top shape: 128 160 5 5 (512000)
I0312 11:30:55.164013 27875 layer_factory.hpp:78] Creating layer inception_4b/3x3_reduce
I0312 11:30:55.164031 27875 net.cpp:68] Creating Layer inception_4b/3x3_reduce
I0312 11:30:55.164044 27875 net.cpp:395] inception_4b/3x3_reduce <- inception_4a/output_inception_4a/output_0_split_2
I0312 11:30:55.164059 27875 net.cpp:357] inception_4b/3x3_reduce -> inception_4b/3x3_reduce
I0312 11:30:55.164075 27875 net.cpp:97] Setting up inception_4b/3x3_reduce
I0312 11:30:55.164733 27875 net.cpp:104] Top shape: 128 112 5 5 (358400)
I0312 11:30:55.164757 27875 layer_factory.hpp:78] Creating layer inception_4b/3x3_reduce/bn
I0312 11:30:55.164772 27875 net.cpp:68] Creating Layer inception_4b/3x3_reduce/bn
I0312 11:30:55.164785 27875 net.cpp:395] inception_4b/3x3_reduce/bn <- inception_4b/3x3_reduce
I0312 11:30:55.164803 27875 net.cpp:357] inception_4b/3x3_reduce/bn -> inception_4b/3x3_reduce/bn
I0312 11:30:55.164819 27875 net.cpp:97] Setting up inception_4b/3x3_reduce/bn
I0312 11:30:55.164839 27875 net.cpp:104] Top shape: 128 112 5 5 (358400)
I0312 11:30:55.164855 27875 layer_factory.hpp:78] Creating layer inception_4b/relu_3x3_reduce
I0312 11:30:55.164896 27875 net.cpp:68] Creating Layer inception_4b/relu_3x3_reduce
I0312 11:30:55.164911 27875 net.cpp:395] inception_4b/relu_3x3_reduce <- inception_4b/3x3_reduce/bn
I0312 11:30:55.164924 27875 net.cpp:346] inception_4b/relu_3x3_reduce -> inception_4b/3x3_reduce/bn (in-place)
I0312 11:30:55.164944 27875 net.cpp:97] Setting up inception_4b/relu_3x3_reduce
I0312 11:30:55.164960 27875 net.cpp:104] Top shape: 128 112 5 5 (358400)
I0312 11:30:55.164973 27875 layer_factory.hpp:78] Creating layer inception_4b/3x3
I0312 11:30:55.164989 27875 net.cpp:68] Creating Layer inception_4b/3x3
I0312 11:30:55.165001 27875 net.cpp:395] inception_4b/3x3 <- inception_4b/3x3_reduce/bn
I0312 11:30:55.165035 27875 net.cpp:357] inception_4b/3x3 -> inception_4b/3x3
I0312 11:30:55.165052 27875 net.cpp:97] Setting up inception_4b/3x3
I0312 11:30:55.167446 27875 net.cpp:104] Top shape: 128 224 5 5 (716800)
I0312 11:30:55.167474 27875 layer_factory.hpp:78] Creating layer inception_4b/3x3/bn
I0312 11:30:55.167490 27875 net.cpp:68] Creating Layer inception_4b/3x3/bn
I0312 11:30:55.167501 27875 net.cpp:395] inception_4b/3x3/bn <- inception_4b/3x3
I0312 11:30:55.167518 27875 net.cpp:357] inception_4b/3x3/bn -> inception_4b/3x3/bn
I0312 11:30:55.167534 27875 net.cpp:97] Setting up inception_4b/3x3/bn
I0312 11:30:55.167557 27875 net.cpp:104] Top shape: 128 224 5 5 (716800)
I0312 11:30:55.167572 27875 layer_factory.hpp:78] Creating layer inception_4b/relu_3x3
I0312 11:30:55.167585 27875 net.cpp:68] Creating Layer inception_4b/relu_3x3
I0312 11:30:55.167598 27875 net.cpp:395] inception_4b/relu_3x3 <- inception_4b/3x3/bn
I0312 11:30:55.167609 27875 net.cpp:346] inception_4b/relu_3x3 -> inception_4b/3x3/bn (in-place)
I0312 11:30:55.167629 27875 net.cpp:97] Setting up inception_4b/relu_3x3
I0312 11:30:55.167644 27875 net.cpp:104] Top shape: 128 224 5 5 (716800)
I0312 11:30:55.167654 27875 layer_factory.hpp:78] Creating layer inception_4b/5x5_reduce
I0312 11:30:55.167670 27875 net.cpp:68] Creating Layer inception_4b/5x5_reduce
I0312 11:30:55.167681 27875 net.cpp:395] inception_4b/5x5_reduce <- inception_4a/output_inception_4a/output_0_split_3
I0312 11:30:55.167695 27875 net.cpp:357] inception_4b/5x5_reduce -> inception_4b/5x5_reduce
I0312 11:30:55.167711 27875 net.cpp:97] Setting up inception_4b/5x5_reduce
I0312 11:30:55.168052 27875 net.cpp:104] Top shape: 128 24 5 5 (76800)
I0312 11:30:55.168079 27875 layer_factory.hpp:78] Creating layer inception_4b/5x5_reduce/bn
I0312 11:30:55.168097 27875 net.cpp:68] Creating Layer inception_4b/5x5_reduce/bn
I0312 11:30:55.168109 27875 net.cpp:395] inception_4b/5x5_reduce/bn <- inception_4b/5x5_reduce
I0312 11:30:55.168126 27875 net.cpp:357] inception_4b/5x5_reduce/bn -> inception_4b/5x5_reduce/bn
I0312 11:30:55.168143 27875 net.cpp:97] Setting up inception_4b/5x5_reduce/bn
I0312 11:30:55.168164 27875 net.cpp:104] Top shape: 128 24 5 5 (76800)
I0312 11:30:55.168179 27875 layer_factory.hpp:78] Creating layer inception_4b/relu_5x5_reduce
I0312 11:30:55.168192 27875 net.cpp:68] Creating Layer inception_4b/relu_5x5_reduce
I0312 11:30:55.168203 27875 net.cpp:395] inception_4b/relu_5x5_reduce <- inception_4b/5x5_reduce/bn
I0312 11:30:55.168220 27875 net.cpp:346] inception_4b/relu_5x5_reduce -> inception_4b/5x5_reduce/bn (in-place)
I0312 11:30:55.168234 27875 net.cpp:97] Setting up inception_4b/relu_5x5_reduce
I0312 11:30:55.168249 27875 net.cpp:104] Top shape: 128 24 5 5 (76800)
I0312 11:30:55.168261 27875 layer_factory.hpp:78] Creating layer inception_4b/5x5
I0312 11:30:55.168274 27875 net.cpp:68] Creating Layer inception_4b/5x5
I0312 11:30:55.168287 27875 net.cpp:395] inception_4b/5x5 <- inception_4b/5x5_reduce/bn
I0312 11:30:55.168303 27875 net.cpp:357] inception_4b/5x5 -> inception_4b/5x5
I0312 11:30:55.168323 27875 net.cpp:97] Setting up inception_4b/5x5
I0312 11:30:55.168802 27875 net.cpp:104] Top shape: 128 64 5 5 (204800)
I0312 11:30:55.168825 27875 layer_factory.hpp:78] Creating layer inception_4b/5x5/bn
I0312 11:30:55.168843 27875 net.cpp:68] Creating Layer inception_4b/5x5/bn
I0312 11:30:55.168856 27875 net.cpp:395] inception_4b/5x5/bn <- inception_4b/5x5
I0312 11:30:55.168876 27875 net.cpp:357] inception_4b/5x5/bn -> inception_4b/5x5/bn
I0312 11:30:55.168894 27875 net.cpp:97] Setting up inception_4b/5x5/bn
I0312 11:30:55.168916 27875 net.cpp:104] Top shape: 128 64 5 5 (204800)
I0312 11:30:55.168933 27875 layer_factory.hpp:78] Creating layer inception_4b/relu_5x5
I0312 11:30:55.168946 27875 net.cpp:68] Creating Layer inception_4b/relu_5x5
I0312 11:30:55.168959 27875 net.cpp:395] inception_4b/relu_5x5 <- inception_4b/5x5/bn
I0312 11:30:55.168972 27875 net.cpp:346] inception_4b/relu_5x5 -> inception_4b/5x5/bn (in-place)
I0312 11:30:55.169003 27875 net.cpp:97] Setting up inception_4b/relu_5x5
I0312 11:30:55.169020 27875 net.cpp:104] Top shape: 128 64 5 5 (204800)
I0312 11:30:55.169033 27875 layer_factory.hpp:78] Creating layer inception_4b/pool
I0312 11:30:55.169044 27875 layer_factory.cpp:51] CUDNN does not support padding or multiple tops. Using Caffe's own pooling layer.
I0312 11:30:55.169060 27875 net.cpp:68] Creating Layer inception_4b/pool
I0312 11:30:55.169073 27875 net.cpp:395] inception_4b/pool <- inception_4a/output_inception_4a/output_0_split_4
I0312 11:30:55.169087 27875 net.cpp:357] inception_4b/pool -> inception_4b/pool
I0312 11:30:55.169102 27875 net.cpp:97] Setting up inception_4b/pool
I0312 11:30:55.169116 27875 net.cpp:104] Top shape: 128 512 5 5 (1638400)
I0312 11:30:55.169128 27875 layer_factory.hpp:78] Creating layer inception_4b/pool_proj
I0312 11:30:55.200909 27875 net.cpp:68] Creating Layer inception_4b/pool_proj
I0312 11:30:55.200955 27875 net.cpp:395] inception_4b/pool_proj <- inception_4b/pool
I0312 11:30:55.200989 27875 net.cpp:357] inception_4b/pool_proj -> inception_4b/pool_proj
I0312 11:30:55.201025 27875 net.cpp:97] Setting up inception_4b/pool_proj
I0312 11:30:55.201918 27875 net.cpp:104] Top shape: 128 64 5 5 (204800)
I0312 11:30:55.201968 27875 layer_factory.hpp:78] Creating layer inception_4b/pool_proj/bn
I0312 11:30:55.202004 27875 net.cpp:68] Creating Layer inception_4b/pool_proj/bn
I0312 11:30:55.202030 27875 net.cpp:395] inception_4b/pool_proj/bn <- inception_4b/pool_proj
I0312 11:30:55.202060 27875 net.cpp:357] inception_4b/pool_proj/bn -> inception_4b/pool_proj/bn
I0312 11:30:55.202097 27875 net.cpp:97] Setting up inception_4b/pool_proj/bn
I0312 11:30:55.202139 27875 net.cpp:104] Top shape: 128 64 5 5 (204800)
I0312 11:30:55.202170 27875 layer_factory.hpp:78] Creating layer inception_4b/relu_pool_proj
I0312 11:30:55.202196 27875 net.cpp:68] Creating Layer inception_4b/relu_pool_proj
I0312 11:30:55.202219 27875 net.cpp:395] inception_4b/relu_pool_proj <- inception_4b/pool_proj/bn
I0312 11:30:55.202250 27875 net.cpp:346] inception_4b/relu_pool_proj -> inception_4b/pool_proj/bn (in-place)
I0312 11:30:55.202280 27875 net.cpp:97] Setting up inception_4b/relu_pool_proj
I0312 11:30:55.202309 27875 net.cpp:104] Top shape: 128 64 5 5 (204800)
I0312 11:30:55.202333 27875 layer_factory.hpp:78] Creating layer inception_4b/output
I0312 11:30:55.202359 27875 net.cpp:68] Creating Layer inception_4b/output
I0312 11:30:55.202383 27875 net.cpp:395] inception_4b/output <- inception_4b/1x1/bn
I0312 11:30:55.202409 27875 net.cpp:395] inception_4b/output <- inception_4b/3x3/bn
I0312 11:30:55.202433 27875 net.cpp:395] inception_4b/output <- inception_4b/5x5/bn
I0312 11:30:55.202457 27875 net.cpp:395] inception_4b/output <- inception_4b/pool_proj/bn
I0312 11:30:55.202484 27875 net.cpp:357] inception_4b/output -> inception_4b/output
I0312 11:30:55.202513 27875 net.cpp:97] Setting up inception_4b/output
I0312 11:30:55.202538 27875 net.cpp:104] Top shape: 128 512 5 5 (1638400)
I0312 11:30:55.202560 27875 layer_factory.hpp:78] Creating layer inception_4b/output_inception_4b/output_0_split
I0312 11:30:55.202587 27875 net.cpp:68] Creating Layer inception_4b/output_inception_4b/output_0_split
I0312 11:30:55.202610 27875 net.cpp:395] inception_4b/output_inception_4b/output_0_split <- inception_4b/output
I0312 11:30:55.202641 27875 net.cpp:357] inception_4b/output_inception_4b/output_0_split -> inception_4b/output_inception_4b/output_0_split_0
I0312 11:30:55.202674 27875 net.cpp:357] inception_4b/output_inception_4b/output_0_split -> inception_4b/output_inception_4b/output_0_split_1
I0312 11:30:55.202708 27875 net.cpp:357] inception_4b/output_inception_4b/output_0_split -> inception_4b/output_inception_4b/output_0_split_2
I0312 11:30:55.202739 27875 net.cpp:357] inception_4b/output_inception_4b/output_0_split -> inception_4b/output_inception_4b/output_0_split_3
I0312 11:30:55.202769 27875 net.cpp:97] Setting up inception_4b/output_inception_4b/output_0_split
I0312 11:30:55.202795 27875 net.cpp:104] Top shape: 128 512 5 5 (1638400)
I0312 11:30:55.202867 27875 net.cpp:104] Top shape: 128 512 5 5 (1638400)
I0312 11:30:55.202893 27875 net.cpp:104] Top shape: 128 512 5 5 (1638400)
I0312 11:30:55.202915 27875 net.cpp:104] Top shape: 128 512 5 5 (1638400)
I0312 11:30:55.202936 27875 layer_factory.hpp:78] Creating layer inception_4c/1x1
I0312 11:30:55.202970 27875 net.cpp:68] Creating Layer inception_4c/1x1
I0312 11:30:55.202996 27875 net.cpp:395] inception_4c/1x1 <- inception_4b/output_inception_4b/output_0_split_0
I0312 11:30:55.203024 27875 net.cpp:357] inception_4c/1x1 -> inception_4c/1x1
I0312 11:30:55.203055 27875 net.cpp:97] Setting up inception_4c/1x1
I0312 11:30:55.204604 27875 net.cpp:104] Top shape: 128 128 5 5 (409600)
I0312 11:30:55.204650 27875 layer_factory.hpp:78] Creating layer inception_4c/1x1/bn
I0312 11:30:55.204685 27875 net.cpp:68] Creating Layer inception_4c/1x1/bn
I0312 11:30:55.204711 27875 net.cpp:395] inception_4c/1x1/bn <- inception_4c/1x1
I0312 11:30:55.204741 27875 net.cpp:357] inception_4c/1x1/bn -> inception_4c/1x1/bn
I0312 11:30:55.204772 27875 net.cpp:97] Setting up inception_4c/1x1/bn
I0312 11:30:55.204815 27875 net.cpp:104] Top shape: 128 128 5 5 (409600)
I0312 11:30:55.204845 27875 layer_factory.hpp:78] Creating layer inception_4c/relu_1x1
I0312 11:30:55.204881 27875 net.cpp:68] Creating Layer inception_4c/relu_1x1
I0312 11:30:55.204907 27875 net.cpp:395] inception_4c/relu_1x1 <- inception_4c/1x1/bn
I0312 11:30:55.204938 27875 net.cpp:346] inception_4c/relu_1x1 -> inception_4c/1x1/bn (in-place)
I0312 11:30:55.204968 27875 net.cpp:97] Setting up inception_4c/relu_1x1
I0312 11:30:55.204998 27875 net.cpp:104] Top shape: 128 128 5 5 (409600)
I0312 11:30:55.205023 27875 layer_factory.hpp:78] Creating layer inception_4c/3x3_reduce
I0312 11:30:55.205050 27875 net.cpp:68] Creating Layer inception_4c/3x3_reduce
I0312 11:30:55.205075 27875 net.cpp:395] inception_4c/3x3_reduce <- inception_4b/output_inception_4b/output_0_split_1
I0312 11:30:55.205107 27875 net.cpp:357] inception_4c/3x3_reduce -> inception_4c/3x3_reduce
I0312 11:30:55.205139 27875 net.cpp:97] Setting up inception_4c/3x3_reduce
I0312 11:30:55.206691 27875 net.cpp:104] Top shape: 128 128 5 5 (409600)
I0312 11:30:55.206734 27875 layer_factory.hpp:78] Creating layer inception_4c/3x3_reduce/bn
I0312 11:30:55.206769 27875 net.cpp:68] Creating Layer inception_4c/3x3_reduce/bn
I0312 11:30:55.206795 27875 net.cpp:395] inception_4c/3x3_reduce/bn <- inception_4c/3x3_reduce
I0312 11:30:55.206830 27875 net.cpp:357] inception_4c/3x3_reduce/bn -> inception_4c/3x3_reduce/bn
I0312 11:30:55.206863 27875 net.cpp:97] Setting up inception_4c/3x3_reduce/bn
I0312 11:30:55.206903 27875 net.cpp:104] Top shape: 128 128 5 5 (409600)
I0312 11:30:55.206933 27875 layer_factory.hpp:78] Creating layer inception_4c/relu_3x3_reduce
I0312 11:30:55.206962 27875 net.cpp:68] Creating Layer inception_4c/relu_3x3_reduce
I0312 11:30:55.206986 27875 net.cpp:395] inception_4c/relu_3x3_reduce <- inception_4c/3x3_reduce/bn
I0312 11:30:55.207012 27875 net.cpp:346] inception_4c/relu_3x3_reduce -> inception_4c/3x3_reduce/bn (in-place)
I0312 11:30:55.207041 27875 net.cpp:97] Setting up inception_4c/relu_3x3_reduce
I0312 11:30:55.207070 27875 net.cpp:104] Top shape: 128 128 5 5 (409600)
I0312 11:30:55.207093 27875 layer_factory.hpp:78] Creating layer inception_4c/3x3
I0312 11:30:55.207120 27875 net.cpp:68] Creating Layer inception_4c/3x3
I0312 11:30:55.207144 27875 net.cpp:395] inception_4c/3x3 <- inception_4c/3x3_reduce/bn
I0312 11:30:55.207175 27875 net.cpp:357] inception_4c/3x3 -> inception_4c/3x3
I0312 11:30:55.207207 27875 net.cpp:97] Setting up inception_4c/3x3
I0312 11:30:55.211237 27875 net.cpp:104] Top shape: 128 256 5 5 (819200)
I0312 11:30:55.211266 27875 layer_factory.hpp:78] Creating layer inception_4c/3x3/bn
I0312 11:30:55.211282 27875 net.cpp:68] Creating Layer inception_4c/3x3/bn
I0312 11:30:55.211293 27875 net.cpp:395] inception_4c/3x3/bn <- inception_4c/3x3
I0312 11:30:55.211311 27875 net.cpp:357] inception_4c/3x3/bn -> inception_4c/3x3/bn
I0312 11:30:55.211328 27875 net.cpp:97] Setting up inception_4c/3x3/bn
I0312 11:30:55.211370 27875 net.cpp:104] Top shape: 128 256 5 5 (819200)
I0312 11:30:55.211408 27875 layer_factory.hpp:78] Creating layer inception_4c/relu_3x3
I0312 11:30:55.211423 27875 net.cpp:68] Creating Layer inception_4c/relu_3x3
I0312 11:30:55.211436 27875 net.cpp:395] inception_4c/relu_3x3 <- inception_4c/3x3/bn
I0312 11:30:55.211451 27875 net.cpp:346] inception_4c/relu_3x3 -> inception_4c/3x3/bn (in-place)
I0312 11:30:55.231672 27875 net.cpp:97] Setting up inception_4c/relu_3x3
I0312 11:30:55.231699 27875 net.cpp:104] Top shape: 128 256 5 5 (819200)
I0312 11:30:55.231712 27875 layer_factory.hpp:78] Creating layer inception_4c/5x5_reduce
I0312 11:30:55.231734 27875 net.cpp:68] Creating Layer inception_4c/5x5_reduce
I0312 11:30:55.231748 27875 net.cpp:395] inception_4c/5x5_reduce <- inception_4b/output_inception_4b/output_0_split_2
I0312 11:30:55.231765 27875 net.cpp:357] inception_4c/5x5_reduce -> inception_4c/5x5_reduce
I0312 11:30:55.231781 27875 net.cpp:97] Setting up inception_4c/5x5_reduce
I0312 11:30:55.231999 27875 net.cpp:104] Top shape: 128 24 5 5 (76800)
I0312 11:30:55.232024 27875 layer_factory.hpp:78] Creating layer inception_4c/5x5_reduce/bn
I0312 11:30:55.232041 27875 net.cpp:68] Creating Layer inception_4c/5x5_reduce/bn
I0312 11:30:55.232054 27875 net.cpp:395] inception_4c/5x5_reduce/bn <- inception_4c/5x5_reduce
I0312 11:30:55.232072 27875 net.cpp:357] inception_4c/5x5_reduce/bn -> inception_4c/5x5_reduce/bn
I0312 11:30:55.232090 27875 net.cpp:97] Setting up inception_4c/5x5_reduce/bn
I0312 11:30:55.232111 27875 net.cpp:104] Top shape: 128 24 5 5 (76800)
I0312 11:30:55.232126 27875 layer_factory.hpp:78] Creating layer inception_4c/relu_5x5_reduce
I0312 11:30:55.232141 27875 net.cpp:68] Creating Layer inception_4c/relu_5x5_reduce
I0312 11:30:55.232152 27875 net.cpp:395] inception_4c/relu_5x5_reduce <- inception_4c/5x5_reduce/bn
I0312 11:30:55.232167 27875 net.cpp:346] inception_4c/relu_5x5_reduce -> inception_4c/5x5_reduce/bn (in-place)
I0312 11:30:55.232182 27875 net.cpp:97] Setting up inception_4c/relu_5x5_reduce
I0312 11:30:55.232198 27875 net.cpp:104] Top shape: 128 24 5 5 (76800)
I0312 11:30:55.232209 27875 layer_factory.hpp:78] Creating layer inception_4c/5x5
I0312 11:30:55.232224 27875 net.cpp:68] Creating Layer inception_4c/5x5
I0312 11:30:55.232236 27875 net.cpp:395] inception_4c/5x5 <- inception_4c/5x5_reduce/bn
I0312 11:30:55.232254 27875 net.cpp:357] inception_4c/5x5 -> inception_4c/5x5
I0312 11:30:55.232270 27875 net.cpp:97] Setting up inception_4c/5x5
I0312 11:30:55.232766 27875 net.cpp:104] Top shape: 128 64 5 5 (204800)
I0312 11:30:55.232789 27875 layer_factory.hpp:78] Creating layer inception_4c/5x5/bn
I0312 11:30:55.232810 27875 net.cpp:68] Creating Layer inception_4c/5x5/bn
I0312 11:30:55.232823 27875 net.cpp:395] inception_4c/5x5/bn <- inception_4c/5x5
I0312 11:30:55.232841 27875 net.cpp:357] inception_4c/5x5/bn -> inception_4c/5x5/bn
I0312 11:30:55.232856 27875 net.cpp:97] Setting up inception_4c/5x5/bn
I0312 11:30:55.232908 27875 net.cpp:104] Top shape: 128 64 5 5 (204800)
I0312 11:30:55.232950 27875 layer_factory.hpp:78] Creating layer inception_4c/relu_5x5
I0312 11:30:55.232978 27875 net.cpp:68] Creating Layer inception_4c/relu_5x5
I0312 11:30:55.233002 27875 net.cpp:395] inception_4c/relu_5x5 <- inception_4c/5x5/bn
I0312 11:30:55.233027 27875 net.cpp:346] inception_4c/relu_5x5 -> inception_4c/5x5/bn (in-place)
I0312 11:30:55.233055 27875 net.cpp:97] Setting up inception_4c/relu_5x5
I0312 11:30:55.233084 27875 net.cpp:104] Top shape: 128 64 5 5 (204800)
I0312 11:30:55.233106 27875 layer_factory.hpp:78] Creating layer inception_4c/pool
I0312 11:30:55.233129 27875 layer_factory.cpp:51] CUDNN does not support padding or multiple tops. Using Caffe's own pooling layer.
I0312 11:30:55.233155 27875 net.cpp:68] Creating Layer inception_4c/pool
I0312 11:30:55.233177 27875 net.cpp:395] inception_4c/pool <- inception_4b/output_inception_4b/output_0_split_3
I0312 11:30:55.233211 27875 net.cpp:357] inception_4c/pool -> inception_4c/pool
I0312 11:30:55.233242 27875 net.cpp:97] Setting up inception_4c/pool
I0312 11:30:55.233317 27875 net.cpp:104] Top shape: 128 512 5 5 (1638400)
I0312 11:30:55.233343 27875 layer_factory.hpp:78] Creating layer inception_4c/pool_proj
I0312 11:30:55.233371 27875 net.cpp:68] Creating Layer inception_4c/pool_proj
I0312 11:30:55.233396 27875 net.cpp:395] inception_4c/pool_proj <- inception_4c/pool
I0312 11:30:55.233429 27875 net.cpp:357] inception_4c/pool_proj -> inception_4c/pool_proj
I0312 11:30:55.271154 27875 net.cpp:97] Setting up inception_4c/pool_proj
I0312 11:30:55.272060 27875 net.cpp:104] Top shape: 128 64 5 5 (204800)
I0312 11:30:55.272111 27875 layer_factory.hpp:78] Creating layer inception_4c/pool_proj/bn
I0312 11:30:55.272150 27875 net.cpp:68] Creating Layer inception_4c/pool_proj/bn
I0312 11:30:55.272177 27875 net.cpp:395] inception_4c/pool_proj/bn <- inception_4c/pool_proj
I0312 11:30:55.272213 27875 net.cpp:357] inception_4c/pool_proj/bn -> inception_4c/pool_proj/bn
I0312 11:30:55.272246 27875 net.cpp:97] Setting up inception_4c/pool_proj/bn
I0312 11:30:55.272289 27875 net.cpp:104] Top shape: 128 64 5 5 (204800)
I0312 11:30:55.272320 27875 layer_factory.hpp:78] Creating layer inception_4c/relu_pool_proj
I0312 11:30:55.272346 27875 net.cpp:68] Creating Layer inception_4c/relu_pool_proj
I0312 11:30:55.272371 27875 net.cpp:395] inception_4c/relu_pool_proj <- inception_4c/pool_proj/bn
I0312 11:30:55.272400 27875 net.cpp:346] inception_4c/relu_pool_proj -> inception_4c/pool_proj/bn (in-place)
I0312 11:30:55.272430 27875 net.cpp:97] Setting up inception_4c/relu_pool_proj
I0312 11:30:55.272461 27875 net.cpp:104] Top shape: 128 64 5 5 (204800)
I0312 11:30:55.272485 27875 layer_factory.hpp:78] Creating layer inception_4c/output
I0312 11:30:55.272543 27875 net.cpp:68] Creating Layer inception_4c/output
I0312 11:30:55.272570 27875 net.cpp:395] inception_4c/output <- inception_4c/1x1/bn
I0312 11:30:55.272598 27875 net.cpp:395] inception_4c/output <- inception_4c/3x3/bn
I0312 11:30:55.272624 27875 net.cpp:395] inception_4c/output <- inception_4c/5x5/bn
I0312 11:30:55.272647 27875 net.cpp:395] inception_4c/output <- inception_4c/pool_proj/bn
I0312 11:30:55.272675 27875 net.cpp:357] inception_4c/output -> inception_4c/output
I0312 11:30:55.272704 27875 net.cpp:97] Setting up inception_4c/output
I0312 11:30:55.272728 27875 net.cpp:104] Top shape: 128 512 5 5 (1638400)
I0312 11:30:55.272753 27875 layer_factory.hpp:78] Creating layer inception_4c/output_inception_4c/output_0_split
I0312 11:30:55.272778 27875 net.cpp:68] Creating Layer inception_4c/output_inception_4c/output_0_split
I0312 11:30:55.272800 27875 net.cpp:395] inception_4c/output_inception_4c/output_0_split <- inception_4c/output
I0312 11:30:55.272827 27875 net.cpp:357] inception_4c/output_inception_4c/output_0_split -> inception_4c/output_inception_4c/output_0_split_0
I0312 11:30:55.272886 27875 net.cpp:357] inception_4c/output_inception_4c/output_0_split -> inception_4c/output_inception_4c/output_0_split_1
I0312 11:30:55.272924 27875 net.cpp:357] inception_4c/output_inception_4c/output_0_split -> inception_4c/output_inception_4c/output_0_split_2
I0312 11:30:55.272961 27875 net.cpp:357] inception_4c/output_inception_4c/output_0_split -> inception_4c/output_inception_4c/output_0_split_3
I0312 11:30:55.272990 27875 net.cpp:97] Setting up inception_4c/output_inception_4c/output_0_split
I0312 11:30:55.273016 27875 net.cpp:104] Top shape: 128 512 5 5 (1638400)
I0312 11:30:55.273038 27875 net.cpp:104] Top shape: 128 512 5 5 (1638400)
I0312 11:30:55.273059 27875 net.cpp:104] Top shape: 128 512 5 5 (1638400)
I0312 11:30:55.273080 27875 net.cpp:104] Top shape: 128 512 5 5 (1638400)
I0312 11:30:55.273102 27875 layer_factory.hpp:78] Creating layer inception_4d/1x1
I0312 11:30:55.273133 27875 net.cpp:68] Creating Layer inception_4d/1x1
I0312 11:30:55.273157 27875 net.cpp:395] inception_4d/1x1 <- inception_4c/output_inception_4c/output_0_split_0
I0312 11:30:55.273186 27875 net.cpp:357] inception_4d/1x1 -> inception_4d/1x1
I0312 11:30:55.273216 27875 net.cpp:97] Setting up inception_4d/1x1
I0312 11:30:55.303355 27875 net.cpp:104] Top shape: 128 112 5 5 (358400)
I0312 11:30:55.303463 27875 layer_factory.hpp:78] Creating layer inception_4d/1x1/bn
I0312 11:30:55.303504 27875 net.cpp:68] Creating Layer inception_4d/1x1/bn
I0312 11:30:55.303532 27875 net.cpp:395] inception_4d/1x1/bn <- inception_4d/1x1
I0312 11:30:55.303566 27875 net.cpp:357] inception_4d/1x1/bn -> inception_4d/1x1/bn
I0312 11:30:55.303602 27875 net.cpp:97] Setting up inception_4d/1x1/bn
I0312 11:30:55.303647 27875 net.cpp:104] Top shape: 128 112 5 5 (358400)
I0312 11:30:55.303678 27875 layer_factory.hpp:78] Creating layer inception_4d/relu_1x1
I0312 11:30:55.303704 27875 net.cpp:68] Creating Layer inception_4d/relu_1x1
I0312 11:30:55.303727 27875 net.cpp:395] inception_4d/relu_1x1 <- inception_4d/1x1/bn
I0312 11:30:55.303753 27875 net.cpp:346] inception_4d/relu_1x1 -> inception_4d/1x1/bn (in-place)
I0312 11:30:55.303781 27875 net.cpp:97] Setting up inception_4d/relu_1x1
I0312 11:30:55.303810 27875 net.cpp:104] Top shape: 128 112 5 5 (358400)
I0312 11:30:55.303833 27875 layer_factory.hpp:78] Creating layer inception_4d/3x3_reduce
I0312 11:30:55.303866 27875 net.cpp:68] Creating Layer inception_4d/3x3_reduce
I0312 11:30:55.303891 27875 net.cpp:395] inception_4d/3x3_reduce <- inception_4c/output_inception_4c/output_0_split_1
I0312 11:30:55.303921 27875 net.cpp:357] inception_4d/3x3_reduce -> inception_4d/3x3_reduce
I0312 11:30:55.303953 27875 net.cpp:97] Setting up inception_4d/3x3_reduce
I0312 11:30:55.305877 27875 net.cpp:104] Top shape: 128 144 5 5 (460800)
I0312 11:30:55.305929 27875 layer_factory.hpp:78] Creating layer inception_4d/3x3_reduce/bn
I0312 11:30:55.305965 27875 net.cpp:68] Creating Layer inception_4d/3x3_reduce/bn
I0312 11:30:55.305992 27875 net.cpp:395] inception_4d/3x3_reduce/bn <- inception_4d/3x3_reduce
I0312 11:30:55.306022 27875 net.cpp:357] inception_4d/3x3_reduce/bn -> inception_4d/3x3_reduce/bn
I0312 11:30:55.306056 27875 net.cpp:97] Setting up inception_4d/3x3_reduce/bn
I0312 11:30:55.306099 27875 net.cpp:104] Top shape: 128 144 5 5 (460800)
I0312 11:30:55.306129 27875 layer_factory.hpp:78] Creating layer inception_4d/relu_3x3_reduce
I0312 11:30:55.306155 27875 net.cpp:68] Creating Layer inception_4d/relu_3x3_reduce
I0312 11:30:55.306180 27875 net.cpp:395] inception_4d/relu_3x3_reduce <- inception_4d/3x3_reduce/bn
I0312 11:30:55.306212 27875 net.cpp:346] inception_4d/relu_3x3_reduce -> inception_4d/3x3_reduce/bn (in-place)
I0312 11:30:55.306241 27875 net.cpp:97] Setting up inception_4d/relu_3x3_reduce
I0312 11:30:55.306272 27875 net.cpp:104] Top shape: 128 144 5 5 (460800)
I0312 11:30:55.306296 27875 layer_factory.hpp:78] Creating layer inception_4d/3x3
I0312 11:30:55.306324 27875 net.cpp:68] Creating Layer inception_4d/3x3
I0312 11:30:55.306347 27875 net.cpp:395] inception_4d/3x3 <- inception_4d/3x3_reduce/bn
I0312 11:30:55.306380 27875 net.cpp:357] inception_4d/3x3 -> inception_4d/3x3
I0312 11:30:55.306411 27875 net.cpp:97] Setting up inception_4d/3x3
I0312 11:30:55.314528 27875 net.cpp:104] Top shape: 128 288 5 5 (921600)
I0312 11:30:55.314581 27875 layer_factory.hpp:78] Creating layer inception_4d/3x3/bn
I0312 11:30:55.314613 27875 net.cpp:68] Creating Layer inception_4d/3x3/bn
I0312 11:30:55.314638 27875 net.cpp:395] inception_4d/3x3/bn <- inception_4d/3x3
I0312 11:30:55.314672 27875 net.cpp:357] inception_4d/3x3/bn -> inception_4d/3x3/bn
I0312 11:30:55.314705 27875 net.cpp:97] Setting up inception_4d/3x3/bn
I0312 11:30:55.314749 27875 net.cpp:104] Top shape: 128 288 5 5 (921600)
I0312 11:30:55.314779 27875 layer_factory.hpp:78] Creating layer inception_4d/relu_3x3
I0312 11:30:55.314805 27875 net.cpp:68] Creating Layer inception_4d/relu_3x3
I0312 11:30:55.314827 27875 net.cpp:395] inception_4d/relu_3x3 <- inception_4d/3x3/bn
I0312 11:30:55.314852 27875 net.cpp:346] inception_4d/relu_3x3 -> inception_4d/3x3/bn (in-place)
I0312 11:30:55.314879 27875 net.cpp:97] Setting up inception_4d/relu_3x3
I0312 11:30:55.314908 27875 net.cpp:104] Top shape: 128 288 5 5 (921600)
I0312 11:30:55.314932 27875 layer_factory.hpp:78] Creating layer inception_4d/5x5_reduce
I0312 11:30:55.315001 27875 net.cpp:68] Creating Layer inception_4d/5x5_reduce
I0312 11:30:55.315028 27875 net.cpp:395] inception_4d/5x5_reduce <- inception_4c/output_inception_4c/output_0_split_2
I0312 11:30:55.332993 27875 net.cpp:357] inception_4d/5x5_reduce -> inception_4d/5x5_reduce
I0312 11:30:55.333050 27875 net.cpp:97] Setting up inception_4d/5x5_reduce
I0312 11:30:55.333564 27875 net.cpp:104] Top shape: 128 32 5 5 (102400)
I0312 11:30:55.333611 27875 layer_factory.hpp:78] Creating layer inception_4d/5x5_reduce/bn
I0312 11:30:55.333647 27875 net.cpp:68] Creating Layer inception_4d/5x5_reduce/bn
I0312 11:30:55.333673 27875 net.cpp:395] inception_4d/5x5_reduce/bn <- inception_4d/5x5_reduce
I0312 11:30:55.333703 27875 net.cpp:357] inception_4d/5x5_reduce/bn -> inception_4d/5x5_reduce/bn
I0312 11:30:55.333736 27875 net.cpp:97] Setting up inception_4d/5x5_reduce/bn
I0312 11:30:55.333781 27875 net.cpp:104] Top shape: 128 32 5 5 (102400)
I0312 11:30:55.333811 27875 layer_factory.hpp:78] Creating layer inception_4d/relu_5x5_reduce
I0312 11:30:55.333837 27875 net.cpp:68] Creating Layer inception_4d/relu_5x5_reduce
I0312 11:30:55.333861 27875 net.cpp:395] inception_4d/relu_5x5_reduce <- inception_4d/5x5_reduce/bn
I0312 11:30:55.333886 27875 net.cpp:346] inception_4d/relu_5x5_reduce -> inception_4d/5x5_reduce/bn (in-place)
I0312 11:30:55.333915 27875 net.cpp:97] Setting up inception_4d/relu_5x5_reduce
I0312 11:30:55.333945 27875 net.cpp:104] Top shape: 128 32 5 5 (102400)
I0312 11:30:55.333969 27875 layer_factory.hpp:78] Creating layer inception_4d/5x5
I0312 11:30:55.334002 27875 net.cpp:68] Creating Layer inception_4d/5x5
I0312 11:30:55.334028 27875 net.cpp:395] inception_4d/5x5 <- inception_4d/5x5_reduce/bn
I0312 11:30:55.334054 27875 net.cpp:357] inception_4d/5x5 -> inception_4d/5x5
I0312 11:30:55.334094 27875 net.cpp:97] Setting up inception_4d/5x5
I0312 11:30:55.335340 27875 net.cpp:104] Top shape: 128 64 5 5 (204800)
I0312 11:30:55.335384 27875 layer_factory.hpp:78] Creating layer inception_4d/5x5/bn
I0312 11:30:55.335418 27875 net.cpp:68] Creating Layer inception_4d/5x5/bn
I0312 11:30:55.335444 27875 net.cpp:395] inception_4d/5x5/bn <- inception_4d/5x5
I0312 11:30:55.335474 27875 net.cpp:357] inception_4d/5x5/bn -> inception_4d/5x5/bn
I0312 11:30:55.335503 27875 net.cpp:97] Setting up inception_4d/5x5/bn
I0312 11:30:55.335546 27875 net.cpp:104] Top shape: 128 64 5 5 (204800)
I0312 11:30:55.335575 27875 layer_factory.hpp:78] Creating layer inception_4d/relu_5x5
I0312 11:30:55.335600 27875 net.cpp:68] Creating Layer inception_4d/relu_5x5
I0312 11:30:55.335623 27875 net.cpp:395] inception_4d/relu_5x5 <- inception_4d/5x5/bn
I0312 11:30:55.335654 27875 net.cpp:346] inception_4d/relu_5x5 -> inception_4d/5x5/bn (in-place)
I0312 11:30:55.335681 27875 net.cpp:97] Setting up inception_4d/relu_5x5
I0312 11:30:55.335711 27875 net.cpp:104] Top shape: 128 64 5 5 (204800)
I0312 11:30:55.335734 27875 layer_factory.hpp:78] Creating layer inception_4d/pool
I0312 11:30:55.335757 27875 layer_factory.cpp:51] CUDNN does not support padding or multiple tops. Using Caffe's own pooling layer.
I0312 11:30:55.335783 27875 net.cpp:68] Creating Layer inception_4d/pool
I0312 11:30:55.335805 27875 net.cpp:395] inception_4d/pool <- inception_4c/output_inception_4c/output_0_split_3
I0312 11:30:55.335834 27875 net.cpp:357] inception_4d/pool -> inception_4d/pool
I0312 11:30:55.335865 27875 net.cpp:97] Setting up inception_4d/pool
I0312 11:30:55.335891 27875 net.cpp:104] Top shape: 128 512 5 5 (1638400)
I0312 11:30:55.335913 27875 layer_factory.hpp:78] Creating layer inception_4d/pool_proj
I0312 11:30:55.335947 27875 net.cpp:68] Creating Layer inception_4d/pool_proj
I0312 11:30:55.335970 27875 net.cpp:395] inception_4d/pool_proj <- inception_4d/pool
I0312 11:30:55.335999 27875 net.cpp:357] inception_4d/pool_proj -> inception_4d/pool_proj
I0312 11:30:55.336033 27875 net.cpp:97] Setting up inception_4d/pool_proj
I0312 11:30:55.337002 27875 net.cpp:104] Top shape: 128 64 5 5 (204800)
I0312 11:30:55.337048 27875 layer_factory.hpp:78] Creating layer inception_4d/pool_proj/bn
I0312 11:30:55.361515 27875 net.cpp:68] Creating Layer inception_4d/pool_proj/bn
I0312 11:30:55.361562 27875 net.cpp:395] inception_4d/pool_proj/bn <- inception_4d/pool_proj
I0312 11:30:55.361598 27875 net.cpp:357] inception_4d/pool_proj/bn -> inception_4d/pool_proj/bn
I0312 11:30:55.361665 27875 net.cpp:97] Setting up inception_4d/pool_proj/bn
I0312 11:30:55.361721 27875 net.cpp:104] Top shape: 128 64 5 5 (204800)
I0312 11:30:55.361755 27875 layer_factory.hpp:78] Creating layer inception_4d/relu_pool_proj
I0312 11:30:55.361783 27875 net.cpp:68] Creating Layer inception_4d/relu_pool_proj
I0312 11:30:55.361806 27875 net.cpp:395] inception_4d/relu_pool_proj <- inception_4d/pool_proj/bn
I0312 11:30:55.361832 27875 net.cpp:346] inception_4d/relu_pool_proj -> inception_4d/pool_proj/bn (in-place)
I0312 11:30:55.361861 27875 net.cpp:97] Setting up inception_4d/relu_pool_proj
I0312 11:30:55.361894 27875 net.cpp:104] Top shape: 128 64 5 5 (204800)
I0312 11:30:55.361918 27875 layer_factory.hpp:78] Creating layer inception_4d/output
I0312 11:30:55.361944 27875 net.cpp:68] Creating Layer inception_4d/output
I0312 11:30:55.361970 27875 net.cpp:395] inception_4d/output <- inception_4d/1x1/bn
I0312 11:30:55.361996 27875 net.cpp:395] inception_4d/output <- inception_4d/3x3/bn
I0312 11:30:55.362022 27875 net.cpp:395] inception_4d/output <- inception_4d/5x5/bn
I0312 11:30:55.362046 27875 net.cpp:395] inception_4d/output <- inception_4d/pool_proj/bn
I0312 11:30:55.362078 27875 net.cpp:357] inception_4d/output -> inception_4d/output
I0312 11:30:55.362109 27875 net.cpp:97] Setting up inception_4d/output
I0312 11:30:55.362134 27875 net.cpp:104] Top shape: 128 528 5 5 (1689600)
I0312 11:30:55.362156 27875 layer_factory.hpp:78] Creating layer inception_4d/output_inception_4d/output_0_split
I0312 11:30:55.362184 27875 net.cpp:68] Creating Layer inception_4d/output_inception_4d/output_0_split
I0312 11:30:55.362205 27875 net.cpp:395] inception_4d/output_inception_4d/output_0_split <- inception_4d/output
I0312 11:30:55.362231 27875 net.cpp:357] inception_4d/output_inception_4d/output_0_split -> inception_4d/output_inception_4d/output_0_split_0
I0312 11:30:55.362269 27875 net.cpp:357] inception_4d/output_inception_4d/output_0_split -> inception_4d/output_inception_4d/output_0_split_1
I0312 11:30:55.362303 27875 net.cpp:357] inception_4d/output_inception_4d/output_0_split -> inception_4d/output_inception_4d/output_0_split_2
I0312 11:30:55.362336 27875 net.cpp:357] inception_4d/output_inception_4d/output_0_split -> inception_4d/output_inception_4d/output_0_split_3
I0312 11:30:55.362366 27875 net.cpp:357] inception_4d/output_inception_4d/output_0_split -> inception_4d/output_inception_4d/output_0_split_4
I0312 11:30:55.362396 27875 net.cpp:97] Setting up inception_4d/output_inception_4d/output_0_split
I0312 11:30:55.362422 27875 net.cpp:104] Top shape: 128 528 5 5 (1689600)
I0312 11:30:55.362444 27875 net.cpp:104] Top shape: 128 528 5 5 (1689600)
I0312 11:30:55.362464 27875 net.cpp:104] Top shape: 128 528 5 5 (1689600)
I0312 11:30:55.362484 27875 net.cpp:104] Top shape: 128 528 5 5 (1689600)
I0312 11:30:55.362505 27875 net.cpp:104] Top shape: 128 528 5 5 (1689600)
I0312 11:30:55.362526 27875 layer_factory.hpp:78] Creating layer loss2/ave_pool
I0312 11:30:55.362552 27875 net.cpp:68] Creating Layer loss2/ave_pool
I0312 11:30:55.362576 27875 net.cpp:395] loss2/ave_pool <- inception_4d/output_inception_4d/output_0_split_0
I0312 11:30:55.362607 27875 net.cpp:357] loss2/ave_pool -> loss2/ave_pool
I0312 11:30:55.362637 27875 net.cpp:97] Setting up loss2/ave_pool
I0312 11:30:55.362673 27875 net.cpp:104] Top shape: 128 528 1 1 (67584)
I0312 11:30:55.362696 27875 layer_factory.hpp:78] Creating layer loss2/conv
I0312 11:30:55.362731 27875 net.cpp:68] Creating Layer loss2/conv
I0312 11:30:55.429280 27875 net.cpp:395] loss2/conv <- loss2/ave_pool
I0312 11:30:55.429334 27875 net.cpp:357] loss2/conv -> loss2/conv
I0312 11:30:55.429371 27875 net.cpp:97] Setting up loss2/conv
I0312 11:30:55.431231 27875 net.cpp:104] Top shape: 128 128 1 1 (16384)
I0312 11:30:55.431329 27875 layer_factory.hpp:78] Creating layer loss2/conv/bn
I0312 11:30:55.431365 27875 net.cpp:68] Creating Layer loss2/conv/bn
I0312 11:30:55.431391 27875 net.cpp:395] loss2/conv/bn <- loss2/conv
I0312 11:30:55.431421 27875 net.cpp:357] loss2/conv/bn -> loss2/conv/bn
I0312 11:30:55.431454 27875 net.cpp:97] Setting up loss2/conv/bn
I0312 11:30:55.431500 27875 net.cpp:104] Top shape: 128 128 1 1 (16384)
I0312 11:30:55.431530 27875 layer_factory.hpp:78] Creating layer loss2/relu_conv
I0312 11:30:55.431556 27875 net.cpp:68] Creating Layer loss2/relu_conv
I0312 11:30:55.431581 27875 net.cpp:395] loss2/relu_conv <- loss2/conv/bn
I0312 11:30:55.431606 27875 net.cpp:346] loss2/relu_conv -> loss2/conv/bn (in-place)
I0312 11:30:55.431633 27875 net.cpp:97] Setting up loss2/relu_conv
I0312 11:30:55.431664 27875 net.cpp:104] Top shape: 128 128 1 1 (16384)
I0312 11:30:55.431687 27875 layer_factory.hpp:78] Creating layer loss2/fc
I0312 11:30:55.431722 27875 net.cpp:68] Creating Layer loss2/fc
I0312 11:30:55.431748 27875 net.cpp:395] loss2/fc <- loss2/conv/bn
I0312 11:30:55.431777 27875 net.cpp:357] loss2/fc -> loss2/fc
I0312 11:30:55.431807 27875 net.cpp:97] Setting up loss2/fc
I0312 11:30:55.434581 27875 net.cpp:104] Top shape: 128 1024 1 1 (131072)
I0312 11:30:55.434629 27875 layer_factory.hpp:78] Creating layer loss2/fc/bn
I0312 11:30:55.434660 27875 net.cpp:68] Creating Layer loss2/fc/bn
I0312 11:30:55.434684 27875 net.cpp:395] loss2/fc/bn <- loss2/fc
I0312 11:30:55.434716 27875 net.cpp:357] loss2/fc/bn -> loss2/fc/bn
I0312 11:30:55.434749 27875 net.cpp:97] Setting up loss2/fc/bn
I0312 11:30:55.434800 27875 net.cpp:104] Top shape: 128 1024 1 1 (131072)
I0312 11:30:55.434830 27875 layer_factory.hpp:78] Creating layer loss2/relu_fc
I0312 11:30:55.434856 27875 net.cpp:68] Creating Layer loss2/relu_fc
I0312 11:30:55.434880 27875 net.cpp:395] loss2/relu_fc <- loss2/fc/bn
I0312 11:30:55.434909 27875 net.cpp:346] loss2/relu_fc -> loss2/fc/bn (in-place)
I0312 11:30:55.434937 27875 net.cpp:97] Setting up loss2/relu_fc
I0312 11:30:55.434968 27875 net.cpp:104] Top shape: 128 1024 1 1 (131072)
I0312 11:30:55.434993 27875 layer_factory.hpp:78] Creating layer loss2/drop_fc
I0312 11:30:55.435019 27875 net.cpp:68] Creating Layer loss2/drop_fc
I0312 11:30:55.435040 27875 net.cpp:395] loss2/drop_fc <- loss2/fc/bn
I0312 11:30:55.435066 27875 net.cpp:346] loss2/drop_fc -> loss2/fc/bn (in-place)
I0312 11:30:55.435104 27875 net.cpp:97] Setting up loss2/drop_fc
I0312 11:30:55.435130 27875 net.cpp:104] Top shape: 128 1024 1 1 (131072)
I0312 11:30:55.435153 27875 layer_factory.hpp:78] Creating layer loss2/classifier
I0312 11:30:55.435180 27875 net.cpp:68] Creating Layer loss2/classifier
I0312 11:30:55.435202 27875 net.cpp:395] loss2/classifier <- loss2/fc/bn
I0312 11:30:55.435230 27875 net.cpp:357] loss2/classifier -> loss2/classifier
I0312 11:30:55.435259 27875 net.cpp:97] Setting up loss2/classifier
I0312 11:30:55.437350 27875 net.cpp:104] Top shape: 128 121 1 1 (15488)
I0312 11:30:55.437371 27875 layer_factory.hpp:78] Creating layer loss2/loss
I0312 11:30:55.437386 27875 net.cpp:68] Creating Layer loss2/loss
I0312 11:30:55.437397 27875 net.cpp:395] loss2/loss <- loss2/classifier
I0312 11:30:55.437412 27875 net.cpp:395] loss2/loss <- label_data_1_split_1
I0312 11:30:55.437428 27875 net.cpp:357] loss2/loss -> loss2/loss1
I0312 11:30:55.437443 27875 net.cpp:97] Setting up loss2/loss
I0312 11:30:55.437458 27875 layer_factory.hpp:78] Creating layer loss2/loss
I0312 11:30:55.437517 27875 net.cpp:104] Top shape: 1 1 1 1 (1)
I0312 11:30:55.437532 27875 net.cpp:110]     with loss weight 0.3
I0312 11:30:55.437562 27875 layer_factory.hpp:78] Creating layer inception_4e/1x1
I0312 11:30:55.437580 27875 net.cpp:68] Creating Layer inception_4e/1x1
I0312 11:30:55.437592 27875 net.cpp:395] inception_4e/1x1 <- inception_4d/output_inception_4d/output_0_split_1
I0312 11:30:55.445627 27875 net.cpp:357] inception_4e/1x1 -> inception_4e/1x1
I0312 11:30:55.445654 27875 net.cpp:97] Setting up inception_4e/1x1
I0312 11:30:55.447116 27875 net.cpp:104] Top shape: 128 256 5 5 (819200)
I0312 11:30:55.447166 27875 layer_factory.hpp:78] Creating layer inception_4e/1x1/bn
I0312 11:30:55.447190 27875 net.cpp:68] Creating Layer inception_4e/1x1/bn
I0312 11:30:55.447203 27875 net.cpp:395] inception_4e/1x1/bn <- inception_4e/1x1
I0312 11:30:55.447218 27875 net.cpp:357] inception_4e/1x1/bn -> inception_4e/1x1/bn
I0312 11:30:55.447235 27875 net.cpp:97] Setting up inception_4e/1x1/bn
I0312 11:30:55.447258 27875 net.cpp:104] Top shape: 128 256 5 5 (819200)
I0312 11:30:55.447273 27875 layer_factory.hpp:78] Creating layer inception_4e/relu_1x1
I0312 11:30:55.447289 27875 net.cpp:68] Creating Layer inception_4e/relu_1x1
I0312 11:30:55.447301 27875 net.cpp:395] inception_4e/relu_1x1 <- inception_4e/1x1/bn
I0312 11:30:55.447314 27875 net.cpp:346] inception_4e/relu_1x1 -> inception_4e/1x1/bn (in-place)
I0312 11:30:55.447329 27875 net.cpp:97] Setting up inception_4e/relu_1x1
I0312 11:30:55.447343 27875 net.cpp:104] Top shape: 128 256 5 5 (819200)
I0312 11:30:55.447355 27875 layer_factory.hpp:78] Creating layer inception_4e/3x3_reduce
I0312 11:30:55.447371 27875 net.cpp:68] Creating Layer inception_4e/3x3_reduce
I0312 11:30:55.447384 27875 net.cpp:395] inception_4e/3x3_reduce <- inception_4d/output_inception_4d/output_0_split_2
I0312 11:30:55.447399 27875 net.cpp:357] inception_4e/3x3_reduce -> inception_4e/3x3_reduce
I0312 11:30:55.447415 27875 net.cpp:97] Setting up inception_4e/3x3_reduce
I0312 11:30:55.448415 27875 net.cpp:104] Top shape: 128 160 5 5 (512000)
I0312 11:30:55.448437 27875 layer_factory.hpp:78] Creating layer inception_4e/3x3_reduce/bn
I0312 11:30:55.448452 27875 net.cpp:68] Creating Layer inception_4e/3x3_reduce/bn
I0312 11:30:55.448465 27875 net.cpp:395] inception_4e/3x3_reduce/bn <- inception_4e/3x3_reduce
I0312 11:30:55.448483 27875 net.cpp:357] inception_4e/3x3_reduce/bn -> inception_4e/3x3_reduce/bn
I0312 11:30:55.448499 27875 net.cpp:97] Setting up inception_4e/3x3_reduce/bn
I0312 11:30:55.448523 27875 net.cpp:104] Top shape: 128 160 5 5 (512000)
I0312 11:30:55.448536 27875 layer_factory.hpp:78] Creating layer inception_4e/relu_3x3_reduce
I0312 11:30:55.448551 27875 net.cpp:68] Creating Layer inception_4e/relu_3x3_reduce
I0312 11:30:55.448562 27875 net.cpp:395] inception_4e/relu_3x3_reduce <- inception_4e/3x3_reduce/bn
I0312 11:30:55.448578 27875 net.cpp:346] inception_4e/relu_3x3_reduce -> inception_4e/3x3_reduce/bn (in-place)
I0312 11:30:55.448592 27875 net.cpp:97] Setting up inception_4e/relu_3x3_reduce
I0312 11:30:55.448607 27875 net.cpp:104] Top shape: 128 160 5 5 (512000)
I0312 11:30:55.448619 27875 layer_factory.hpp:78] Creating layer inception_4e/3x3
I0312 11:30:55.448634 27875 net.cpp:68] Creating Layer inception_4e/3x3
I0312 11:30:55.448647 27875 net.cpp:395] inception_4e/3x3 <- inception_4e/3x3_reduce/bn
I0312 11:30:55.448664 27875 net.cpp:357] inception_4e/3x3 -> inception_4e/3x3
I0312 11:30:55.448680 27875 net.cpp:97] Setting up inception_4e/3x3
I0312 11:30:55.457799 27875 net.cpp:104] Top shape: 128 320 5 5 (1024000)
I0312 11:30:55.457849 27875 layer_factory.hpp:78] Creating layer inception_4e/3x3/bn
I0312 11:30:55.457885 27875 net.cpp:68] Creating Layer inception_4e/3x3/bn
I0312 11:30:55.457911 27875 net.cpp:395] inception_4e/3x3/bn <- inception_4e/3x3
I0312 11:30:55.457939 27875 net.cpp:357] inception_4e/3x3/bn -> inception_4e/3x3/bn
I0312 11:30:55.457970 27875 net.cpp:97] Setting up inception_4e/3x3/bn
I0312 11:30:55.458011 27875 net.cpp:104] Top shape: 128 320 5 5 (1024000)
I0312 11:30:55.458040 27875 layer_factory.hpp:78] Creating layer inception_4e/relu_3x3
I0312 11:30:55.458070 27875 net.cpp:68] Creating Layer inception_4e/relu_3x3
I0312 11:30:55.458094 27875 net.cpp:395] inception_4e/relu_3x3 <- inception_4e/3x3/bn
I0312 11:30:55.458118 27875 net.cpp:346] inception_4e/relu_3x3 -> inception_4e/3x3/bn (in-place)
I0312 11:30:55.494798 27875 net.cpp:97] Setting up inception_4e/relu_3x3
I0312 11:30:55.494853 27875 net.cpp:104] Top shape: 128 320 5 5 (1024000)
I0312 11:30:55.494880 27875 layer_factory.hpp:78] Creating layer inception_4e/5x5_reduce
I0312 11:30:55.494962 27875 net.cpp:68] Creating Layer inception_4e/5x5_reduce
I0312 11:30:55.494992 27875 net.cpp:395] inception_4e/5x5_reduce <- inception_4d/output_inception_4d/output_0_split_3
I0312 11:30:55.495023 27875 net.cpp:357] inception_4e/5x5_reduce -> inception_4e/5x5_reduce
I0312 11:30:55.495056 27875 net.cpp:97] Setting up inception_4e/5x5_reduce
I0312 11:30:55.495595 27875 net.cpp:104] Top shape: 128 32 5 5 (102400)
I0312 11:30:55.495643 27875 layer_factory.hpp:78] Creating layer inception_4e/5x5_reduce/bn
I0312 11:30:55.495674 27875 net.cpp:68] Creating Layer inception_4e/5x5_reduce/bn
I0312 11:30:55.495699 27875 net.cpp:395] inception_4e/5x5_reduce/bn <- inception_4e/5x5_reduce
I0312 11:30:55.495733 27875 net.cpp:357] inception_4e/5x5_reduce/bn -> inception_4e/5x5_reduce/bn
I0312 11:30:55.495769 27875 net.cpp:97] Setting up inception_4e/5x5_reduce/bn
I0312 11:30:55.495810 27875 net.cpp:104] Top shape: 128 32 5 5 (102400)
I0312 11:30:55.495838 27875 layer_factory.hpp:78] Creating layer inception_4e/relu_5x5_reduce
I0312 11:30:55.495865 27875 net.cpp:68] Creating Layer inception_4e/relu_5x5_reduce
I0312 11:30:55.495889 27875 net.cpp:395] inception_4e/relu_5x5_reduce <- inception_4e/5x5_reduce/bn
I0312 11:30:55.495919 27875 net.cpp:346] inception_4e/relu_5x5_reduce -> inception_4e/5x5_reduce/bn (in-place)
I0312 11:30:55.495949 27875 net.cpp:97] Setting up inception_4e/relu_5x5_reduce
I0312 11:30:55.495980 27875 net.cpp:104] Top shape: 128 32 5 5 (102400)
I0312 11:30:55.496002 27875 layer_factory.hpp:78] Creating layer inception_4e/5x5
I0312 11:30:55.496029 27875 net.cpp:68] Creating Layer inception_4e/5x5
I0312 11:30:55.496058 27875 net.cpp:395] inception_4e/5x5 <- inception_4e/5x5_reduce/bn
I0312 11:30:55.496088 27875 net.cpp:357] inception_4e/5x5 -> inception_4e/5x5
I0312 11:30:55.496117 27875 net.cpp:97] Setting up inception_4e/5x5
I0312 11:30:55.498680 27875 net.cpp:104] Top shape: 128 128 5 5 (409600)
I0312 11:30:55.498817 27875 layer_factory.hpp:78] Creating layer inception_4e/5x5/bn
I0312 11:30:55.498858 27875 net.cpp:68] Creating Layer inception_4e/5x5/bn
I0312 11:30:55.498886 27875 net.cpp:395] inception_4e/5x5/bn <- inception_4e/5x5
I0312 11:30:55.498917 27875 net.cpp:357] inception_4e/5x5/bn -> inception_4e/5x5/bn
I0312 11:30:55.498951 27875 net.cpp:97] Setting up inception_4e/5x5/bn
I0312 11:30:55.499001 27875 net.cpp:104] Top shape: 128 128 5 5 (409600)
I0312 11:30:55.499032 27875 layer_factory.hpp:78] Creating layer inception_4e/relu_5x5
I0312 11:30:55.499058 27875 net.cpp:68] Creating Layer inception_4e/relu_5x5
I0312 11:30:55.499080 27875 net.cpp:395] inception_4e/relu_5x5 <- inception_4e/5x5/bn
I0312 11:30:55.499110 27875 net.cpp:346] inception_4e/relu_5x5 -> inception_4e/5x5/bn (in-place)
I0312 11:30:55.499140 27875 net.cpp:97] Setting up inception_4e/relu_5x5
I0312 11:30:55.499171 27875 net.cpp:104] Top shape: 128 128 5 5 (409600)
I0312 11:30:55.499194 27875 layer_factory.hpp:78] Creating layer inception_4e/pool
I0312 11:30:55.499217 27875 layer_factory.cpp:51] CUDNN does not support padding or multiple tops. Using Caffe's own pooling layer.
I0312 11:30:55.499243 27875 net.cpp:68] Creating Layer inception_4e/pool
I0312 11:30:55.499266 27875 net.cpp:395] inception_4e/pool <- inception_4d/output_inception_4d/output_0_split_4
I0312 11:30:55.499300 27875 net.cpp:357] inception_4e/pool -> inception_4e/pool
I0312 11:30:55.499330 27875 net.cpp:97] Setting up inception_4e/pool
I0312 11:30:55.499358 27875 net.cpp:104] Top shape: 128 528 5 5 (1689600)
I0312 11:30:55.499380 27875 layer_factory.hpp:78] Creating layer inception_4e/pool_proj
I0312 11:30:55.522564 27875 net.cpp:68] Creating Layer inception_4e/pool_proj
I0312 11:30:55.522610 27875 net.cpp:395] inception_4e/pool_proj <- inception_4e/pool
I0312 11:30:55.522652 27875 net.cpp:357] inception_4e/pool_proj -> inception_4e/pool_proj
I0312 11:30:55.522691 27875 net.cpp:97] Setting up inception_4e/pool_proj
I0312 11:30:55.524206 27875 net.cpp:104] Top shape: 128 128 5 5 (409600)
I0312 11:30:55.524255 27875 layer_factory.hpp:78] Creating layer inception_4e/pool_proj/bn
I0312 11:30:55.524341 27875 net.cpp:68] Creating Layer inception_4e/pool_proj/bn
I0312 11:30:55.524373 27875 net.cpp:395] inception_4e/pool_proj/bn <- inception_4e/pool_proj
I0312 11:30:55.524406 27875 net.cpp:357] inception_4e/pool_proj/bn -> inception_4e/pool_proj/bn
I0312 11:30:55.524440 27875 net.cpp:97] Setting up inception_4e/pool_proj/bn
I0312 11:30:55.524484 27875 net.cpp:104] Top shape: 128 128 5 5 (409600)
I0312 11:30:55.524515 27875 layer_factory.hpp:78] Creating layer inception_4e/relu_pool_proj
I0312 11:30:55.524541 27875 net.cpp:68] Creating Layer inception_4e/relu_pool_proj
I0312 11:30:55.524564 27875 net.cpp:395] inception_4e/relu_pool_proj <- inception_4e/pool_proj/bn
I0312 11:30:55.524590 27875 net.cpp:346] inception_4e/relu_pool_proj -> inception_4e/pool_proj/bn (in-place)
I0312 11:30:55.524617 27875 net.cpp:97] Setting up inception_4e/relu_pool_proj
I0312 11:30:55.524647 27875 net.cpp:104] Top shape: 128 128 5 5 (409600)
I0312 11:30:55.524670 27875 layer_factory.hpp:78] Creating layer inception_4e/output
I0312 11:30:55.524695 27875 net.cpp:68] Creating Layer inception_4e/output
I0312 11:30:55.524719 27875 net.cpp:395] inception_4e/output <- inception_4e/1x1/bn
I0312 11:30:55.524749 27875 net.cpp:395] inception_4e/output <- inception_4e/3x3/bn
I0312 11:30:55.524775 27875 net.cpp:395] inception_4e/output <- inception_4e/5x5/bn
I0312 11:30:55.524801 27875 net.cpp:395] inception_4e/output <- inception_4e/pool_proj/bn
I0312 11:30:55.524828 27875 net.cpp:357] inception_4e/output -> inception_4e/output
I0312 11:30:55.524857 27875 net.cpp:97] Setting up inception_4e/output
I0312 11:30:55.524906 27875 net.cpp:104] Top shape: 128 832 5 5 (2662400)
I0312 11:30:55.524934 27875 layer_factory.hpp:78] Creating layer pool4/3x3_s2
I0312 11:30:55.524960 27875 net.cpp:68] Creating Layer pool4/3x3_s2
I0312 11:30:55.524983 27875 net.cpp:395] pool4/3x3_s2 <- inception_4e/output
I0312 11:30:55.525015 27875 net.cpp:357] pool4/3x3_s2 -> pool4/3x3_s2
I0312 11:30:55.525046 27875 net.cpp:97] Setting up pool4/3x3_s2
I0312 11:30:55.525080 27875 net.cpp:104] Top shape: 128 832 2 2 (425984)
I0312 11:30:55.525105 27875 layer_factory.hpp:78] Creating layer pool4/3x3_s2_pool4/3x3_s2_0_split
I0312 11:30:55.525130 27875 net.cpp:68] Creating Layer pool4/3x3_s2_pool4/3x3_s2_0_split
I0312 11:30:55.525153 27875 net.cpp:395] pool4/3x3_s2_pool4/3x3_s2_0_split <- pool4/3x3_s2
I0312 11:30:55.525182 27875 net.cpp:357] pool4/3x3_s2_pool4/3x3_s2_0_split -> pool4/3x3_s2_pool4/3x3_s2_0_split_0
I0312 11:30:55.525216 27875 net.cpp:357] pool4/3x3_s2_pool4/3x3_s2_0_split -> pool4/3x3_s2_pool4/3x3_s2_0_split_1
I0312 11:30:55.525249 27875 net.cpp:357] pool4/3x3_s2_pool4/3x3_s2_0_split -> pool4/3x3_s2_pool4/3x3_s2_0_split_2
I0312 11:30:55.525282 27875 net.cpp:357] pool4/3x3_s2_pool4/3x3_s2_0_split -> pool4/3x3_s2_pool4/3x3_s2_0_split_3
I0312 11:30:55.525313 27875 net.cpp:97] Setting up pool4/3x3_s2_pool4/3x3_s2_0_split
I0312 11:30:55.525338 27875 net.cpp:104] Top shape: 128 832 2 2 (425984)
I0312 11:30:55.525362 27875 net.cpp:104] Top shape: 128 832 2 2 (425984)
I0312 11:30:55.525383 27875 net.cpp:104] Top shape: 128 832 2 2 (425984)
I0312 11:30:55.525405 27875 net.cpp:104] Top shape: 128 832 2 2 (425984)
I0312 11:30:55.525426 27875 layer_factory.hpp:78] Creating layer inception_5a/1x1
I0312 11:30:55.525467 27875 net.cpp:68] Creating Layer inception_5a/1x1
I0312 11:30:55.525490 27875 net.cpp:395] inception_5a/1x1 <- pool4/3x3_s2_pool4/3x3_s2_0_split_0
I0312 11:30:55.525521 27875 net.cpp:357] inception_5a/1x1 -> inception_5a/1x1
I0312 11:30:55.525554 27875 net.cpp:97] Setting up inception_5a/1x1
I0312 11:30:55.557003 27875 net.cpp:104] Top shape: 128 256 2 2 (131072)
I0312 11:30:55.557034 27875 layer_factory.hpp:78] Creating layer inception_5a/1x1/bn
I0312 11:30:55.557054 27875 net.cpp:68] Creating Layer inception_5a/1x1/bn
I0312 11:30:55.557068 27875 net.cpp:395] inception_5a/1x1/bn <- inception_5a/1x1
I0312 11:30:55.557082 27875 net.cpp:357] inception_5a/1x1/bn -> inception_5a/1x1/bn
I0312 11:30:55.557101 27875 net.cpp:97] Setting up inception_5a/1x1/bn
I0312 11:30:55.557150 27875 net.cpp:104] Top shape: 128 256 2 2 (131072)
I0312 11:30:55.557168 27875 layer_factory.hpp:78] Creating layer inception_5a/relu_1x1
I0312 11:30:55.557183 27875 net.cpp:68] Creating Layer inception_5a/relu_1x1
I0312 11:30:55.557196 27875 net.cpp:395] inception_5a/relu_1x1 <- inception_5a/1x1/bn
I0312 11:30:55.557209 27875 net.cpp:346] inception_5a/relu_1x1 -> inception_5a/1x1/bn (in-place)
I0312 11:30:55.557224 27875 net.cpp:97] Setting up inception_5a/relu_1x1
I0312 11:30:55.557240 27875 net.cpp:104] Top shape: 128 256 2 2 (131072)
I0312 11:30:55.557251 27875 layer_factory.hpp:78] Creating layer inception_5a/3x3_reduce
I0312 11:30:55.557268 27875 net.cpp:68] Creating Layer inception_5a/3x3_reduce
I0312 11:30:55.557281 27875 net.cpp:395] inception_5a/3x3_reduce <- pool4/3x3_s2_pool4/3x3_s2_0_split_1
I0312 11:30:55.557296 27875 net.cpp:357] inception_5a/3x3_reduce -> inception_5a/3x3_reduce
I0312 11:30:55.557312 27875 net.cpp:97] Setting up inception_5a/3x3_reduce
I0312 11:30:55.558842 27875 net.cpp:104] Top shape: 128 160 2 2 (81920)
I0312 11:30:55.558866 27875 layer_factory.hpp:78] Creating layer inception_5a/3x3_reduce/bn
I0312 11:30:55.558883 27875 net.cpp:68] Creating Layer inception_5a/3x3_reduce/bn
I0312 11:30:55.558897 27875 net.cpp:395] inception_5a/3x3_reduce/bn <- inception_5a/3x3_reduce
I0312 11:30:55.558912 27875 net.cpp:357] inception_5a/3x3_reduce/bn -> inception_5a/3x3_reduce/bn
I0312 11:30:55.558928 27875 net.cpp:97] Setting up inception_5a/3x3_reduce/bn
I0312 11:30:55.558950 27875 net.cpp:104] Top shape: 128 160 2 2 (81920)
I0312 11:30:55.558965 27875 layer_factory.hpp:78] Creating layer inception_5a/relu_3x3_reduce
I0312 11:30:55.558979 27875 net.cpp:68] Creating Layer inception_5a/relu_3x3_reduce
I0312 11:30:55.558990 27875 net.cpp:395] inception_5a/relu_3x3_reduce <- inception_5a/3x3_reduce/bn
I0312 11:30:55.559006 27875 net.cpp:346] inception_5a/relu_3x3_reduce -> inception_5a/3x3_reduce/bn (in-place)
I0312 11:30:55.559021 27875 net.cpp:97] Setting up inception_5a/relu_3x3_reduce
I0312 11:30:55.559036 27875 net.cpp:104] Top shape: 128 160 2 2 (81920)
I0312 11:30:55.559048 27875 layer_factory.hpp:78] Creating layer inception_5a/3x3
I0312 11:30:55.559062 27875 net.cpp:68] Creating Layer inception_5a/3x3
I0312 11:30:55.559074 27875 net.cpp:395] inception_5a/3x3 <- inception_5a/3x3_reduce/bn
I0312 11:30:55.559090 27875 net.cpp:357] inception_5a/3x3 -> inception_5a/3x3
I0312 11:30:55.559105 27875 net.cpp:97] Setting up inception_5a/3x3
I0312 11:30:55.564070 27875 net.cpp:104] Top shape: 128 320 2 2 (163840)
I0312 11:30:55.564095 27875 layer_factory.hpp:78] Creating layer inception_5a/3x3/bn
I0312 11:30:55.564111 27875 net.cpp:68] Creating Layer inception_5a/3x3/bn
I0312 11:30:55.564123 27875 net.cpp:395] inception_5a/3x3/bn <- inception_5a/3x3
I0312 11:30:55.564141 27875 net.cpp:357] inception_5a/3x3/bn -> inception_5a/3x3/bn
I0312 11:30:55.564157 27875 net.cpp:97] Setting up inception_5a/3x3/bn
I0312 11:30:55.564179 27875 net.cpp:104] Top shape: 128 320 2 2 (163840)
I0312 11:30:55.564194 27875 layer_factory.hpp:78] Creating layer inception_5a/relu_3x3
I0312 11:30:55.564208 27875 net.cpp:68] Creating Layer inception_5a/relu_3x3
I0312 11:30:55.564219 27875 net.cpp:395] inception_5a/relu_3x3 <- inception_5a/3x3/bn
I0312 11:30:55.564232 27875 net.cpp:346] inception_5a/relu_3x3 -> inception_5a/3x3/bn (in-place)
I0312 11:30:55.564245 27875 net.cpp:97] Setting up inception_5a/relu_3x3
I0312 11:30:55.564260 27875 net.cpp:104] Top shape: 128 320 2 2 (163840)
I0312 11:30:55.564272 27875 layer_factory.hpp:78] Creating layer inception_5a/5x5_reduce
I0312 11:30:55.583191 27875 net.cpp:68] Creating Layer inception_5a/5x5_reduce
I0312 11:30:55.583214 27875 net.cpp:395] inception_5a/5x5_reduce <- pool4/3x3_s2_pool4/3x3_s2_0_split_2
I0312 11:30:55.583262 27875 net.cpp:357] inception_5a/5x5_reduce -> inception_5a/5x5_reduce
I0312 11:30:55.583300 27875 net.cpp:97] Setting up inception_5a/5x5_reduce
I0312 11:30:55.584274 27875 net.cpp:104] Top shape: 128 32 2 2 (16384)
I0312 11:30:55.584378 27875 layer_factory.hpp:78] Creating layer inception_5a/5x5_reduce/bn
I0312 11:30:55.584417 27875 net.cpp:68] Creating Layer inception_5a/5x5_reduce/bn
I0312 11:30:55.584445 27875 net.cpp:395] inception_5a/5x5_reduce/bn <- inception_5a/5x5_reduce
I0312 11:30:55.584476 27875 net.cpp:357] inception_5a/5x5_reduce/bn -> inception_5a/5x5_reduce/bn
I0312 11:30:55.584511 27875 net.cpp:97] Setting up inception_5a/5x5_reduce/bn
I0312 11:30:55.584553 27875 net.cpp:104] Top shape: 128 32 2 2 (16384)
I0312 11:30:55.584583 27875 layer_factory.hpp:78] Creating layer inception_5a/relu_5x5_reduce
I0312 11:30:55.584614 27875 net.cpp:68] Creating Layer inception_5a/relu_5x5_reduce
I0312 11:30:55.584640 27875 net.cpp:395] inception_5a/relu_5x5_reduce <- inception_5a/5x5_reduce/bn
I0312 11:30:55.584666 27875 net.cpp:346] inception_5a/relu_5x5_reduce -> inception_5a/5x5_reduce/bn (in-place)
I0312 11:30:55.584694 27875 net.cpp:97] Setting up inception_5a/relu_5x5_reduce
I0312 11:30:55.584725 27875 net.cpp:104] Top shape: 128 32 2 2 (16384)
I0312 11:30:55.584749 27875 layer_factory.hpp:78] Creating layer inception_5a/5x5
I0312 11:30:55.584784 27875 net.cpp:68] Creating Layer inception_5a/5x5
I0312 11:30:55.584810 27875 net.cpp:395] inception_5a/5x5 <- inception_5a/5x5_reduce/bn
I0312 11:30:55.584838 27875 net.cpp:357] inception_5a/5x5 -> inception_5a/5x5
I0312 11:30:55.584892 27875 net.cpp:97] Setting up inception_5a/5x5
I0312 11:30:55.587159 27875 net.cpp:104] Top shape: 128 128 2 2 (65536)
I0312 11:30:55.587205 27875 layer_factory.hpp:78] Creating layer inception_5a/5x5/bn
I0312 11:30:55.587240 27875 net.cpp:68] Creating Layer inception_5a/5x5/bn
I0312 11:30:55.587265 27875 net.cpp:395] inception_5a/5x5/bn <- inception_5a/5x5
I0312 11:30:55.587294 27875 net.cpp:357] inception_5a/5x5/bn -> inception_5a/5x5/bn
I0312 11:30:55.587324 27875 net.cpp:97] Setting up inception_5a/5x5/bn
I0312 11:30:55.587368 27875 net.cpp:104] Top shape: 128 128 2 2 (65536)
I0312 11:30:55.587399 27875 layer_factory.hpp:78] Creating layer inception_5a/relu_5x5
I0312 11:30:55.587424 27875 net.cpp:68] Creating Layer inception_5a/relu_5x5
I0312 11:30:55.587446 27875 net.cpp:395] inception_5a/relu_5x5 <- inception_5a/5x5/bn
I0312 11:30:55.587476 27875 net.cpp:346] inception_5a/relu_5x5 -> inception_5a/5x5/bn (in-place)
I0312 11:30:55.587504 27875 net.cpp:97] Setting up inception_5a/relu_5x5
I0312 11:30:55.587533 27875 net.cpp:104] Top shape: 128 128 2 2 (65536)
I0312 11:30:55.587556 27875 layer_factory.hpp:78] Creating layer inception_5a/pool
I0312 11:30:55.587579 27875 layer_factory.cpp:51] CUDNN does not support padding or multiple tops. Using Caffe's own pooling layer.
I0312 11:30:55.587604 27875 net.cpp:68] Creating Layer inception_5a/pool
I0312 11:30:55.587628 27875 net.cpp:395] inception_5a/pool <- pool4/3x3_s2_pool4/3x3_s2_0_split_3
I0312 11:30:55.587656 27875 net.cpp:357] inception_5a/pool -> inception_5a/pool
I0312 11:30:55.587684 27875 net.cpp:97] Setting up inception_5a/pool
I0312 11:30:55.587712 27875 net.cpp:104] Top shape: 128 832 2 2 (425984)
I0312 11:30:55.587733 27875 layer_factory.hpp:78] Creating layer inception_5a/pool_proj
I0312 11:30:55.587764 27875 net.cpp:68] Creating Layer inception_5a/pool_proj
I0312 11:30:55.587790 27875 net.cpp:395] inception_5a/pool_proj <- inception_5a/pool
I0312 11:30:55.587821 27875 net.cpp:357] inception_5a/pool_proj -> inception_5a/pool_proj
I0312 11:30:55.587852 27875 net.cpp:97] Setting up inception_5a/pool_proj
I0312 11:30:55.590277 27875 net.cpp:104] Top shape: 128 128 2 2 (65536)
I0312 11:30:55.590322 27875 layer_factory.hpp:78] Creating layer inception_5a/pool_proj/bn
I0312 11:30:55.590358 27875 net.cpp:68] Creating Layer inception_5a/pool_proj/bn
I0312 11:30:55.661085 27875 net.cpp:395] inception_5a/pool_proj/bn <- inception_5a/pool_proj
I0312 11:30:55.661114 27875 net.cpp:357] inception_5a/pool_proj/bn -> inception_5a/pool_proj/bn
I0312 11:30:55.661150 27875 net.cpp:97] Setting up inception_5a/pool_proj/bn
I0312 11:30:55.661202 27875 net.cpp:104] Top shape: 128 128 2 2 (65536)
I0312 11:30:55.661237 27875 layer_factory.hpp:78] Creating layer inception_5a/relu_pool_proj
I0312 11:30:55.661314 27875 net.cpp:68] Creating Layer inception_5a/relu_pool_proj
I0312 11:30:55.661340 27875 net.cpp:395] inception_5a/relu_pool_proj <- inception_5a/pool_proj/bn
I0312 11:30:55.661372 27875 net.cpp:346] inception_5a/relu_pool_proj -> inception_5a/pool_proj/bn (in-place)
I0312 11:30:55.661403 27875 net.cpp:97] Setting up inception_5a/relu_pool_proj
I0312 11:30:55.661438 27875 net.cpp:104] Top shape: 128 128 2 2 (65536)
I0312 11:30:55.661463 27875 layer_factory.hpp:78] Creating layer inception_5a/output
I0312 11:30:55.661489 27875 net.cpp:68] Creating Layer inception_5a/output
I0312 11:30:55.661512 27875 net.cpp:395] inception_5a/output <- inception_5a/1x1/bn
I0312 11:30:55.661538 27875 net.cpp:395] inception_5a/output <- inception_5a/3x3/bn
I0312 11:30:55.661563 27875 net.cpp:395] inception_5a/output <- inception_5a/5x5/bn
I0312 11:30:55.661587 27875 net.cpp:395] inception_5a/output <- inception_5a/pool_proj/bn
I0312 11:30:55.661614 27875 net.cpp:357] inception_5a/output -> inception_5a/output
I0312 11:30:55.661643 27875 net.cpp:97] Setting up inception_5a/output
I0312 11:30:55.661667 27875 net.cpp:104] Top shape: 128 832 2 2 (425984)
I0312 11:30:55.661689 27875 layer_factory.hpp:78] Creating layer inception_5a/output_inception_5a/output_0_split
I0312 11:30:55.661720 27875 net.cpp:68] Creating Layer inception_5a/output_inception_5a/output_0_split
I0312 11:30:55.661743 27875 net.cpp:395] inception_5a/output_inception_5a/output_0_split <- inception_5a/output
I0312 11:30:55.661770 27875 net.cpp:357] inception_5a/output_inception_5a/output_0_split -> inception_5a/output_inception_5a/output_0_split_0
I0312 11:30:55.661803 27875 net.cpp:357] inception_5a/output_inception_5a/output_0_split -> inception_5a/output_inception_5a/output_0_split_1
I0312 11:30:55.661835 27875 net.cpp:357] inception_5a/output_inception_5a/output_0_split -> inception_5a/output_inception_5a/output_0_split_2
I0312 11:30:55.661867 27875 net.cpp:357] inception_5a/output_inception_5a/output_0_split -> inception_5a/output_inception_5a/output_0_split_3
I0312 11:30:55.661901 27875 net.cpp:97] Setting up inception_5a/output_inception_5a/output_0_split
I0312 11:30:55.661927 27875 net.cpp:104] Top shape: 128 832 2 2 (425984)
I0312 11:30:55.661948 27875 net.cpp:104] Top shape: 128 832 2 2 (425984)
I0312 11:30:55.661969 27875 net.cpp:104] Top shape: 128 832 2 2 (425984)
I0312 11:30:55.661990 27875 net.cpp:104] Top shape: 128 832 2 2 (425984)
I0312 11:30:55.662013 27875 layer_factory.hpp:78] Creating layer inception_5b/1x1
I0312 11:30:55.662040 27875 net.cpp:68] Creating Layer inception_5b/1x1
I0312 11:30:55.662065 27875 net.cpp:395] inception_5b/1x1 <- inception_5a/output_inception_5a/output_0_split_0
I0312 11:30:55.662096 27875 net.cpp:357] inception_5b/1x1 -> inception_5b/1x1
I0312 11:30:55.662128 27875 net.cpp:97] Setting up inception_5b/1x1
I0312 11:30:55.668711 27875 net.cpp:104] Top shape: 128 384 2 2 (196608)
I0312 11:30:55.668761 27875 layer_factory.hpp:78] Creating layer inception_5b/1x1/bn
I0312 11:30:55.668792 27875 net.cpp:68] Creating Layer inception_5b/1x1/bn
I0312 11:30:55.668817 27875 net.cpp:395] inception_5b/1x1/bn <- inception_5b/1x1
I0312 11:30:55.668849 27875 net.cpp:357] inception_5b/1x1/bn -> inception_5b/1x1/bn
I0312 11:30:55.668895 27875 net.cpp:97] Setting up inception_5b/1x1/bn
I0312 11:30:55.668941 27875 net.cpp:104] Top shape: 128 384 2 2 (196608)
I0312 11:30:55.668970 27875 layer_factory.hpp:78] Creating layer inception_5b/relu_1x1
I0312 11:30:55.668997 27875 net.cpp:68] Creating Layer inception_5b/relu_1x1
I0312 11:30:55.669019 27875 net.cpp:395] inception_5b/relu_1x1 <- inception_5b/1x1/bn
I0312 11:30:55.669044 27875 net.cpp:346] inception_5b/relu_1x1 -> inception_5b/1x1/bn (in-place)
I0312 11:30:55.669072 27875 net.cpp:97] Setting up inception_5b/relu_1x1
I0312 11:30:55.669101 27875 net.cpp:104] Top shape: 128 384 2 2 (196608)
I0312 11:30:55.669123 27875 layer_factory.hpp:78] Creating layer inception_5b/3x3_reduce
I0312 11:30:55.669157 27875 net.cpp:68] Creating Layer inception_5b/3x3_reduce
I0312 11:30:55.669216 27875 net.cpp:395] inception_5b/3x3_reduce <- inception_5a/output_inception_5a/output_0_split_1
I0312 11:30:55.669250 27875 net.cpp:357] inception_5b/3x3_reduce -> inception_5b/3x3_reduce
I0312 11:30:55.669282 27875 net.cpp:97] Setting up inception_5b/3x3_reduce
I0312 11:30:55.672830 27875 net.cpp:104] Top shape: 128 192 2 2 (98304)
I0312 11:30:55.672888 27875 layer_factory.hpp:78] Creating layer inception_5b/3x3_reduce/bn
I0312 11:30:55.672924 27875 net.cpp:68] Creating Layer inception_5b/3x3_reduce/bn
I0312 11:30:55.672951 27875 net.cpp:395] inception_5b/3x3_reduce/bn <- inception_5b/3x3_reduce
I0312 11:30:55.672981 27875 net.cpp:357] inception_5b/3x3_reduce/bn -> inception_5b/3x3_reduce/bn
I0312 11:30:55.673013 27875 net.cpp:97] Setting up inception_5b/3x3_reduce/bn
I0312 11:30:55.673056 27875 net.cpp:104] Top shape: 128 192 2 2 (98304)
I0312 11:30:55.673086 27875 layer_factory.hpp:78] Creating layer inception_5b/relu_3x3_reduce
I0312 11:30:55.673115 27875 net.cpp:68] Creating Layer inception_5b/relu_3x3_reduce
I0312 11:30:55.673141 27875 net.cpp:395] inception_5b/relu_3x3_reduce <- inception_5b/3x3_reduce/bn
I0312 11:30:55.673166 27875 net.cpp:346] inception_5b/relu_3x3_reduce -> inception_5b/3x3_reduce/bn (in-place)
I0312 11:30:55.673193 27875 net.cpp:97] Setting up inception_5b/relu_3x3_reduce
I0312 11:30:55.673223 27875 net.cpp:104] Top shape: 128 192 2 2 (98304)
I0312 11:30:55.673245 27875 layer_factory.hpp:78] Creating layer inception_5b/3x3
I0312 11:30:55.673277 27875 net.cpp:68] Creating Layer inception_5b/3x3
I0312 11:30:55.673301 27875 net.cpp:395] inception_5b/3x3 <- inception_5b/3x3_reduce/bn
I0312 11:30:55.673329 27875 net.cpp:357] inception_5b/3x3 -> inception_5b/3x3
I0312 11:30:55.673358 27875 net.cpp:97] Setting up inception_5b/3x3
I0312 11:30:55.681918 27875 net.cpp:104] Top shape: 128 384 2 2 (196608)
I0312 11:30:55.681948 27875 layer_factory.hpp:78] Creating layer inception_5b/3x3/bn
I0312 11:30:55.681965 27875 net.cpp:68] Creating Layer inception_5b/3x3/bn
I0312 11:30:55.681978 27875 net.cpp:395] inception_5b/3x3/bn <- inception_5b/3x3
I0312 11:30:55.681998 27875 net.cpp:357] inception_5b/3x3/bn -> inception_5b/3x3/bn
I0312 11:30:55.682016 27875 net.cpp:97] Setting up inception_5b/3x3/bn
I0312 11:30:55.682039 27875 net.cpp:104] Top shape: 128 384 2 2 (196608)
I0312 11:30:55.682054 27875 layer_factory.hpp:78] Creating layer inception_5b/relu_3x3
I0312 11:30:55.682068 27875 net.cpp:68] Creating Layer inception_5b/relu_3x3
I0312 11:30:55.682080 27875 net.cpp:395] inception_5b/relu_3x3 <- inception_5b/3x3/bn
I0312 11:30:55.682092 27875 net.cpp:346] inception_5b/relu_3x3 -> inception_5b/3x3/bn (in-place)
I0312 11:30:55.682106 27875 net.cpp:97] Setting up inception_5b/relu_3x3
I0312 11:30:55.682121 27875 net.cpp:104] Top shape: 128 384 2 2 (196608)
I0312 11:30:55.682133 27875 layer_factory.hpp:78] Creating layer inception_5b/5x5_reduce
I0312 11:30:55.682150 27875 net.cpp:68] Creating Layer inception_5b/5x5_reduce
I0312 11:30:55.682163 27875 net.cpp:395] inception_5b/5x5_reduce <- inception_5a/output_inception_5a/output_0_split_2
I0312 11:30:55.682178 27875 net.cpp:357] inception_5b/5x5_reduce -> inception_5b/5x5_reduce
I0312 11:30:55.682193 27875 net.cpp:97] Setting up inception_5b/5x5_reduce
I0312 11:30:55.682703 27875 net.cpp:104] Top shape: 128 48 2 2 (24576)
I0312 11:30:55.682726 27875 layer_factory.hpp:78] Creating layer inception_5b/5x5_reduce/bn
I0312 11:30:55.682744 27875 net.cpp:68] Creating Layer inception_5b/5x5_reduce/bn
I0312 11:30:55.737596 27875 net.cpp:395] inception_5b/5x5_reduce/bn <- inception_5b/5x5_reduce
I0312 11:30:55.737623 27875 net.cpp:357] inception_5b/5x5_reduce/bn -> inception_5b/5x5_reduce/bn
I0312 11:30:55.737660 27875 net.cpp:97] Setting up inception_5b/5x5_reduce/bn
I0312 11:30:55.737712 27875 net.cpp:104] Top shape: 128 48 2 2 (24576)
I0312 11:30:55.737748 27875 layer_factory.hpp:78] Creating layer inception_5b/relu_5x5_reduce
I0312 11:30:55.737776 27875 net.cpp:68] Creating Layer inception_5b/relu_5x5_reduce
I0312 11:30:55.737855 27875 net.cpp:395] inception_5b/relu_5x5_reduce <- inception_5b/5x5_reduce/bn
I0312 11:30:55.737887 27875 net.cpp:346] inception_5b/relu_5x5_reduce -> inception_5b/5x5_reduce/bn (in-place)
I0312 11:30:55.737916 27875 net.cpp:97] Setting up inception_5b/relu_5x5_reduce
I0312 11:30:55.737951 27875 net.cpp:104] Top shape: 128 48 2 2 (24576)
I0312 11:30:55.737974 27875 layer_factory.hpp:78] Creating layer inception_5b/5x5
I0312 11:30:55.738008 27875 net.cpp:68] Creating Layer inception_5b/5x5
I0312 11:30:55.738034 27875 net.cpp:395] inception_5b/5x5 <- inception_5b/5x5_reduce/bn
I0312 11:30:55.738066 27875 net.cpp:357] inception_5b/5x5 -> inception_5b/5x5
I0312 11:30:55.738100 27875 net.cpp:97] Setting up inception_5b/5x5
I0312 11:30:55.741503 27875 net.cpp:104] Top shape: 128 128 2 2 (65536)
I0312 11:30:55.741551 27875 layer_factory.hpp:78] Creating layer inception_5b/5x5/bn
I0312 11:30:55.741587 27875 net.cpp:68] Creating Layer inception_5b/5x5/bn
I0312 11:30:55.741614 27875 net.cpp:395] inception_5b/5x5/bn <- inception_5b/5x5
I0312 11:30:55.741643 27875 net.cpp:357] inception_5b/5x5/bn -> inception_5b/5x5/bn
I0312 11:30:55.741675 27875 net.cpp:97] Setting up inception_5b/5x5/bn
I0312 11:30:55.741718 27875 net.cpp:104] Top shape: 128 128 2 2 (65536)
I0312 11:30:55.741747 27875 layer_factory.hpp:78] Creating layer inception_5b/relu_5x5
I0312 11:30:55.741773 27875 net.cpp:68] Creating Layer inception_5b/relu_5x5
I0312 11:30:55.741797 27875 net.cpp:395] inception_5b/relu_5x5 <- inception_5b/5x5/bn
I0312 11:30:55.741827 27875 net.cpp:346] inception_5b/relu_5x5 -> inception_5b/5x5/bn (in-place)
I0312 11:30:55.741855 27875 net.cpp:97] Setting up inception_5b/relu_5x5
I0312 11:30:55.741884 27875 net.cpp:104] Top shape: 128 128 2 2 (65536)
I0312 11:30:55.741909 27875 layer_factory.hpp:78] Creating layer inception_5b/pool
I0312 11:30:55.741930 27875 layer_factory.cpp:51] CUDNN does not support padding or multiple tops. Using Caffe's own pooling layer.
I0312 11:30:55.741955 27875 net.cpp:68] Creating Layer inception_5b/pool
I0312 11:30:55.741979 27875 net.cpp:395] inception_5b/pool <- inception_5a/output_inception_5a/output_0_split_3
I0312 11:30:55.742007 27875 net.cpp:357] inception_5b/pool -> inception_5b/pool
I0312 11:30:55.742038 27875 net.cpp:97] Setting up inception_5b/pool
I0312 11:30:55.742064 27875 net.cpp:104] Top shape: 128 832 2 2 (425984)
I0312 11:30:55.742086 27875 layer_factory.hpp:78] Creating layer inception_5b/pool_proj
I0312 11:30:55.742118 27875 net.cpp:68] Creating Layer inception_5b/pool_proj
I0312 11:30:55.742142 27875 net.cpp:395] inception_5b/pool_proj <- inception_5b/pool
I0312 11:30:55.742175 27875 net.cpp:357] inception_5b/pool_proj -> inception_5b/pool_proj
I0312 11:30:55.742208 27875 net.cpp:97] Setting up inception_5b/pool_proj
I0312 11:30:55.744617 27875 net.cpp:104] Top shape: 128 128 2 2 (65536)
I0312 11:30:55.744662 27875 layer_factory.hpp:78] Creating layer inception_5b/pool_proj/bn
I0312 11:30:55.744695 27875 net.cpp:68] Creating Layer inception_5b/pool_proj/bn
I0312 11:30:55.744721 27875 net.cpp:395] inception_5b/pool_proj/bn <- inception_5b/pool_proj
I0312 11:30:55.744750 27875 net.cpp:357] inception_5b/pool_proj/bn -> inception_5b/pool_proj/bn
I0312 11:30:55.744781 27875 net.cpp:97] Setting up inception_5b/pool_proj/bn
I0312 11:30:55.744824 27875 net.cpp:104] Top shape: 128 128 2 2 (65536)
I0312 11:30:55.744853 27875 layer_factory.hpp:78] Creating layer inception_5b/relu_pool_proj
I0312 11:30:55.744891 27875 net.cpp:68] Creating Layer inception_5b/relu_pool_proj
I0312 11:30:55.744917 27875 net.cpp:395] inception_5b/relu_pool_proj <- inception_5b/pool_proj/bn
I0312 11:30:55.744951 27875 net.cpp:346] inception_5b/relu_pool_proj -> inception_5b/pool_proj/bn (in-place)
…
I0312 11:30:56.863970 27875 net.cpp:357] inception_4d/5x5_reduce/bn -> inception_4d/5x5_reduce/bn
I0312 11:30:56.864006 27875 net.cpp:97] Setting up inception_4d/5x5_reduce/bn
I0312 11:30:56.864047 27875 net.cpp:104] Top shape: 128 32 5 5 (102400)
I0312 11:30:56.864087 27875 layer_factory.hpp:78] Creating layer inception_4d/relu_5x5_reduce
I0312 11:30:56.864106 27875 net.cpp:68] Creating Layer inception_4d/relu_5x5_reduce
I0312 11:30:56.864126 27875 net.cpp:395] inception_4d/relu_5x5_reduce <- inception_4d/5x5_reduce/bn
I0312 11:30:56.864145 27875 net.cpp:346] inception_4d/relu_5x5_reduce -> inception_4d/5x5_reduce/bn (in-place)
I0312 11:30:56.864164 27875 net.cpp:97] Setting up inception_4d/relu_5x5_reduce
I0312 11:30:56.864186 27875 net.cpp:104] Top shape: 128 32 5 5 (102400)
I0312 11:30:56.864202 27875 layer_factory.hpp:78] Creating layer inception_4d/5x5
I0312 11:30:56.864223 27875 net.cpp:68] Creating Layer inception_4d/5x5
I0312 11:30:56.864256 27875 net.cpp:395] inception_4d/5x5 <- inception_4d/5x5_reduce/bn
I0312 11:30:56.864289 27875 net.cpp:357] inception_4d/5x5 -> inception_4d/5x5
I0312 11:30:56.864322 27875 net.cpp:97] Setting up inception_4d/5x5
I0312 11:30:56.865253 27875 net.cpp:104] Top shape: 128 64 5 5 (204800)
I0312 11:30:56.865290 27875 layer_factory.hpp:78] Creating layer inception_4d/5x5/bn
I0312 11:30:56.865319 27875 net.cpp:68] Creating Layer inception_4d/5x5/bn
I0312 11:30:56.865339 27875 net.cpp:395] inception_4d/5x5/bn <- inception_4d/5x5
I0312 11:30:56.865362 27875 net.cpp:357] inception_4d/5x5/bn -> inception_4d/5x5/bn
I0312 11:30:56.865387 27875 net.cpp:97] Setting up inception_4d/5x5/bn
I0312 11:30:56.865423 27875 net.cpp:104] Top shape: 128 64 5 5 (204800)
I0312 11:30:56.865447 27875 layer_factory.hpp:78] Creating layer inception_4d/relu_5x5
I0312 11:30:56.865470 27875 net.cpp:68] Creating Layer inception_4d/relu_5x5
I0312 11:30:56.865489 27875 net.cpp:395] inception_4d/relu_5x5 <- inception_4d/5x5/bn
I0312 11:30:56.865516 27875 net.cpp:346] inception_4d/relu_5x5 -> inception_4d/5x5/bn (in-place)
I0312 11:30:56.865540 27875 net.cpp:97] Setting up inception_4d/relu_5x5
I0312 11:30:56.865562 27875 net.cpp:104] Top shape: 128 64 5 5 (204800)
I0312 11:30:56.865581 27875 layer_factory.hpp:78] Creating layer inception_4d/pool
I0312 11:30:56.865600 27875 layer_factory.cpp:51] CUDNN does not support padding or multiple tops. Using Caffe's own pooling layer.
I0312 11:30:56.865622 27875 net.cpp:68] Creating Layer inception_4d/pool
I0312 11:30:56.865641 27875 net.cpp:395] inception_4d/pool <- inception_4c/output_inception_4c/output_0_split_3
I0312 11:30:56.865664 27875 net.cpp:357] inception_4d/pool -> inception_4d/pool
I0312 11:30:56.865687 27875 net.cpp:97] Setting up inception_4d/pool
I0312 11:30:56.865710 27875 net.cpp:104] Top shape: 128 512 5 5 (1638400)
I0312 11:30:56.865727 27875 layer_factory.hpp:78] Creating layer inception_4d/pool_proj
I0312 11:30:56.865754 27875 net.cpp:68] Creating Layer inception_4d/pool_proj
I0312 11:30:56.865773 27875 net.cpp:395] inception_4d/pool_proj <- inception_4d/pool
I0312 11:30:56.865797 27875 net.cpp:357] inception_4d/pool_proj -> inception_4d/pool_proj
I0312 11:30:56.865819 27875 net.cpp:97] Setting up inception_4d/pool_proj
I0312 11:30:56.866549 27875 net.cpp:104] Top shape: 128 64 5 5 (204800)
I0312 11:30:56.866586 27875 layer_factory.hpp:78] Creating layer inception_4d/pool_proj/bn
I0312 11:30:56.866616 27875 net.cpp:68] Creating Layer inception_4d/pool_proj/bn
I0312 11:30:56.866636 27875 net.cpp:395] inception_4d/pool_proj/bn <- inception_4d/pool_proj
I0312 11:30:56.866658 27875 net.cpp:357] inception_4d/pool_proj/bn -> inception_4d/pool_proj/bn
I0312 11:30:56.866683 27875 net.cpp:97] Setting up inception_4d/pool_proj/bn
I0312 11:30:56.866719 27875 net.cpp:104] Top shape: 128 64 5 5 (204800)
I0312 11:30:56.866742 27875 layer_factory.hpp:78] Creating layer inception_4d/relu_pool_proj
I0312 11:30:56.866762 27875 net.cpp:68] Creating Layer inception_4d/relu_pool_proj
I0312 11:30:56.866781 27875 net.cpp:395] inception_4d/relu_pool_proj <- inception_4d/pool_proj/bn
I0312 11:30:56.866801 27875 net.cpp:346] inception_4d/relu_pool_proj -> inception_4d/pool_proj/bn (in-place)
I0312 11:30:56.866823 27875 net.cpp:97] Setting up inception_4d/relu_pool_proj
I0312 11:30:56.866847 27875 net.cpp:104] Top shape: 128 64 5 5 (204800)
I0312 11:30:56.866865 27875 layer_factory.hpp:78] Creating layer inception_4d/output
I0312 11:30:56.866888 27875 net.cpp:68] Creating Layer inception_4d/output
I0312 11:30:56.866905 27875 net.cpp:395] inception_4d/output <- inception_4d/1x1/bn
I0312 11:30:56.866930 27875 net.cpp:395] inception_4d/output <- inception_4d/3x3/bn
I0312 11:30:56.866951 27875 net.cpp:395] inception_4d/output <- inception_4d/5x5/bn
I0312 11:30:56.866971 27875 net.cpp:395] inception_4d/output <- inception_4d/pool_proj/bn
I0312 11:30:56.866991 27875 net.cpp:357] inception_4d/output -> inception_4d/output
I0312 11:30:56.867014 27875 net.cpp:97] Setting up inception_4d/output
I0312 11:30:56.867034 27875 net.cpp:104] Top shape: 128 528 5 5 (1689600)
I0312 11:30:56.867053 27875 layer_factory.hpp:78] Creating layer inception_4d/output_inception_4d/output_0_split
I0312 11:30:56.867075 27875 net.cpp:68] Creating Layer inception_4d/output_inception_4d/output_0_split
I0312 11:30:56.867094 27875 net.cpp:395] inception_4d/output_inception_4d/output_0_split <- inception_4d/output
I0312 11:30:56.867118 27875 net.cpp:357] inception_4d/output_inception_4d/output_0_split -> inception_4d/output_inception_4d/output_0_split_0
I0312 11:30:56.867146 27875 net.cpp:357] inception_4d/output_inception_4d/output_0_split -> inception_4d/output_inception_4d/output_0_split_1
I0312 11:30:56.867172 27875 net.cpp:357] inception_4d/output_inception_4d/output_0_split -> inception_4d/output_inception_4d/output_0_split_2
I0312 11:30:56.867197 27875 net.cpp:357] inception_4d/output_inception_4d/output_0_split -> inception_4d/output_inception_4d/output_0_split_3
I0312 11:30:56.867221 27875 net.cpp:357] inception_4d/output_inception_4d/output_0_split -> inception_4d/output_inception_4d/output_0_split_4
I0312 11:30:56.867244 27875 net.cpp:97] Setting up inception_4d/output_inception_4d/output_0_split
I0312 11:30:56.867265 27875 net.cpp:104] Top shape: 128 528 5 5 (1689600)
I0312 11:30:56.867282 27875 net.cpp:104] Top shape: 128 528 5 5 (1689600)
I0312 11:30:56.867298 27875 net.cpp:104] Top shape: 128 528 5 5 (1689600)
I0312 11:30:56.867316 27875 net.cpp:104] Top shape: 128 528 5 5 (1689600)
I0312 11:30:56.867331 27875 net.cpp:104] Top shape: 128 528 5 5 (1689600)
I0312 11:30:56.867349 27875 layer_factory.hpp:78] Creating layer loss2/ave_pool
I0312 11:30:56.867374 27875 net.cpp:68] Creating Layer loss2/ave_pool
I0312 11:30:56.867394 27875 net.cpp:395] loss2/ave_pool <- inception_4d/output_inception_4d/output_0_split_0
I0312 11:30:56.867419 27875 net.cpp:357] loss2/ave_pool -> loss2/ave_pool
I0312 11:30:56.867444 27875 net.cpp:97] Setting up loss2/ave_pool
I0312 11:30:56.867470 27875 net.cpp:104] Top shape: 128 528 1 1 (67584)
I0312 11:30:56.867490 27875 layer_factory.hpp:78] Creating layer loss2/conv
I0312 11:30:56.867516 27875 net.cpp:68] Creating Layer loss2/conv
I0312 11:30:56.867535 27875 net.cpp:395] loss2/conv <- loss2/ave_pool
I0312 11:30:56.867558 27875 net.cpp:357] loss2/conv -> loss2/conv
I0312 11:30:56.867609 27875 net.cpp:97] Setting up loss2/conv
I0312 11:30:56.928203 27875 net.cpp:104] Top shape: 128 128 1 1 (16384)
I0312 11:30:56.928252 27875 layer_factory.hpp:78] Creating layer loss2/conv/bn
I0312 11:30:56.928282 27875 net.cpp:68] Creating Layer loss2/conv/bn
I0312 11:30:56.928300 27875 net.cpp:395] loss2/conv/bn <- loss2/conv
I0312 11:30:56.928325 27875 net.cpp:357] loss2/conv/bn -> loss2/conv/bn
I0312 11:30:56.928349 27875 net.cpp:97] Setting up loss2/conv/bn
I0312 11:30:56.928380 27875 net.cpp:104] Top shape: 128 128 1 1 (16384)
I0312 11:30:56.928400 27875 layer_factory.hpp:78] Creating layer loss2/relu_conv
I0312 11:30:56.928424 27875 net.cpp:68] Creating Layer loss2/relu_conv
I0312 11:30:56.928438 27875 net.cpp:395] loss2/relu_conv <- loss2/conv/bn
I0312 11:30:56.928455 27875 net.cpp:346] loss2/relu_conv -> loss2/conv/bn (in-place)
I0312 11:30:56.928473 27875 net.cpp:97] Setting up loss2/relu_conv
I0312 11:30:56.928493 27875 net.cpp:104] Top shape: 128 128 1 1 (16384)
I0312 11:30:56.928508 27875 layer_factory.hpp:78] Creating layer loss2/fc
I0312 11:30:56.928526 27875 net.cpp:68] Creating Layer loss2/fc
I0312 11:30:56.928540 27875 net.cpp:395] loss2/fc <- loss2/conv/bn
I0312 11:30:56.928562 27875 net.cpp:357] loss2/fc -> loss2/fc
I0312 11:30:56.928583 27875 net.cpp:97] Setting up loss2/fc
I0312 11:30:56.931334 27875 net.cpp:104] Top shape: 128 1024 1 1 (131072)
I0312 11:30:56.931365 27875 layer_factory.hpp:78] Creating layer loss2/fc/bn
I0312 11:30:56.931390 27875 net.cpp:68] Creating Layer loss2/fc/bn
I0312 11:30:56.931404 27875 net.cpp:395] loss2/fc/bn <- loss2/fc
I0312 11:30:56.931423 27875 net.cpp:357] loss2/fc/bn -> loss2/fc/bn
I0312 11:30:56.931443 27875 net.cpp:97] Setting up loss2/fc/bn
I0312 11:30:56.931486 27875 net.cpp:104] Top shape: 128 1024 1 1 (131072)
I0312 11:30:56.931506 27875 layer_factory.hpp:78] Creating layer loss2/relu_fc
I0312 11:30:56.931524 27875 net.cpp:68] Creating Layer loss2/relu_fc
I0312 11:30:56.931537 27875 net.cpp:395] loss2/relu_fc <- loss2/fc/bn
I0312 11:30:56.931553 27875 net.cpp:346] loss2/relu_fc -> loss2/fc/bn (in-place)
I0312 11:30:56.931570 27875 net.cpp:97] Setting up loss2/relu_fc
I0312 11:30:56.931589 27875 net.cpp:104] Top shape: 128 1024 1 1 (131072)
I0312 11:30:56.931603 27875 layer_factory.hpp:78] Creating layer loss2/drop_fc
I0312 11:30:56.931625 27875 net.cpp:68] Creating Layer loss2/drop_fc
I0312 11:30:56.931640 27875 net.cpp:395] loss2/drop_fc <- loss2/fc/bn
I0312 11:30:56.931658 27875 net.cpp:346] loss2/drop_fc -> loss2/fc/bn (in-place)
I0312 11:30:56.931674 27875 net.cpp:97] Setting up loss2/drop_fc
I0312 11:30:56.931689 27875 net.cpp:104] Top shape: 128 1024 1 1 (131072)
I0312 11:30:56.931702 27875 layer_factory.hpp:78] Creating layer loss2/classifier
I0312 11:30:56.931720 27875 net.cpp:68] Creating Layer loss2/classifier
I0312 11:30:56.931732 27875 net.cpp:395] loss2/classifier <- loss2/fc/bn
I0312 11:30:56.931753 27875 net.cpp:357] loss2/classifier -> loss2/classifier
I0312 11:30:56.931774 27875 net.cpp:97] Setting up loss2/classifier
I0312 11:30:56.934233 27875 net.cpp:104] Top shape: 128 121 1 1 (15488)
I0312 11:30:56.934264 27875 layer_factory.hpp:78] Creating layer loss2/classifier_loss2/classifier_0_split
I0312 11:30:56.934286 27875 net.cpp:68] Creating Layer loss2/classifier_loss2/classifier_0_split
I0312 11:30:56.934303 27875 net.cpp:395] loss2/classifier_loss2/classifier_0_split <- loss2/classifier
I0312 11:30:56.934320 27875 net.cpp:357] loss2/classifier_loss2/classifier_0_split -> loss2/classifier_loss2/classifier_0_split_0
I0312 11:30:56.934342 27875 net.cpp:357] loss2/classifier_loss2/classifier_0_split -> loss2/classifier_loss2/classifier_0_split_1
I0312 11:30:56.934367 27875 net.cpp:97] Setting up loss2/classifier_loss2/classifier_0_split
I0312 11:30:56.934383 27875 net.cpp:104] Top shape: 128 121 1 1 (15488)
I0312 11:30:56.934397 27875 net.cpp:104] Top shape: 128 121 1 1 (15488)
I0312 11:30:56.934411 27875 layer_factory.hpp:78] Creating layer loss2/loss
I0312 11:30:56.934428 27875 net.cpp:68] Creating Layer loss2/loss
I0312 11:30:56.934491 27875 net.cpp:395] loss2/loss <- loss2/classifier_loss2/classifier_0_split_0
I0312 11:30:56.934512 27875 net.cpp:395] loss2/loss <- label_data_1_split_2
I0312 11:30:56.934531 27875 net.cpp:357] loss2/loss -> loss2/loss1
I0312 11:30:56.934552 27875 net.cpp:97] Setting up loss2/loss
I0312 11:30:56.934569 27875 layer_factory.hpp:78] Creating layer loss2/loss
I0312 11:30:56.934666 27875 net.cpp:104] Top shape: 1 1 1 1 (1)
I0312 11:30:56.934689 27875 net.cpp:110]     with loss weight 0.3
I0312 11:30:56.934721 27875 layer_factory.hpp:78] Creating layer loss2/top-1
I0312 11:30:56.934741 27875 net.cpp:68] Creating Layer loss2/top-1
I0312 11:30:56.934753 27875 net.cpp:395] loss2/top-1 <- loss2/classifier_loss2/classifier_0_split_1
I0312 11:30:56.934770 27875 net.cpp:395] loss2/top-1 <- label_data_1_split_3
I0312 11:30:56.934788 27875 net.cpp:357] loss2/top-1 -> loss2/top-1
I0312 11:30:56.934808 27875 net.cpp:97] Setting up loss2/top-1
I0312 11:30:56.934823 27875 net.cpp:104] Top shape: 1 1 1 1 (1)
I0312 11:30:56.934836 27875 layer_factory.hpp:78] Creating layer inception_4e/1x1
I0312 11:30:56.934862 27875 net.cpp:68] Creating Layer inception_4e/1x1
I0312 11:30:56.934878 27875 net.cpp:395] inception_4e/1x1 <- inception_4d/output_inception_4d/output_0_split_1
I0312 11:30:56.934898 27875 net.cpp:357] inception_4e/1x1 -> inception_4e/1x1
I0312 11:30:56.934918 27875 net.cpp:97] Setting up inception_4e/1x1
I0312 11:30:56.938071 27875 net.cpp:104] Top shape: 128 256 5 5 (819200)
I0312 11:30:56.938109 27875 layer_factory.hpp:78] Creating layer inception_4e/1x1/bn
I0312 11:30:56.938137 27875 net.cpp:68] Creating Layer inception_4e/1x1/bn
I0312 11:30:56.938153 27875 net.cpp:395] inception_4e/1x1/bn <- inception_4e/1x1
I0312 11:30:56.938172 27875 net.cpp:357] inception_4e/1x1/bn -> inception_4e/1x1/bn
I0312 11:30:56.938194 27875 net.cpp:97] Setting up inception_4e/1x1/bn
I0312 11:30:56.938227 27875 net.cpp:104] Top shape: 128 256 5 5 (819200)
I0312 11:30:56.938247 27875 layer_factory.hpp:78] Creating layer inception_4e/relu_1x1
I0312 11:30:56.938266 27875 net.cpp:68] Creating Layer inception_4e/relu_1x1
I0312 11:30:56.938279 27875 net.cpp:395] inception_4e/relu_1x1 <- inception_4e/1x1/bn
I0312 11:30:56.938299 27875 net.cpp:346] inception_4e/relu_1x1 -> inception_4e/1x1/bn (in-place)
I0312 11:30:56.938318 27875 net.cpp:97] Setting up inception_4e/relu_1x1
I0312 11:30:56.938336 27875 net.cpp:104] Top shape: 128 256 5 5 (819200)
I0312 11:30:56.938350 27875 layer_factory.hpp:78] Creating layer inception_4e/3x3_reduce
I0312 11:30:56.938370 27875 net.cpp:68] Creating Layer inception_4e/3x3_reduce
I0312 11:30:56.938391 27875 net.cpp:395] inception_4e/3x3_reduce <- inception_4d/output_inception_4d/output_0_split_2
I0312 11:30:56.938412 27875 net.cpp:357] inception_4e/3x3_reduce -> inception_4e/3x3_reduce
I0312 11:30:56.938432 27875 net.cpp:97] Setting up inception_4e/3x3_reduce
I0312 11:30:56.940239 27875 net.cpp:104] Top shape: 128 160 5 5 (512000)
I0312 11:30:56.940276 27875 layer_factory.hpp:78] Creating layer inception_4e/3x3_reduce/bn
I0312 11:30:56.940297 27875 net.cpp:68] Creating Layer inception_4e/3x3_reduce/bn
I0312 11:30:56.940312 27875 net.cpp:395] inception_4e/3x3_reduce/bn <- inception_4e/3x3_reduce
I0312 11:30:56.940336 27875 net.cpp:357] inception_4e/3x3_reduce/bn -> inception_4e/3x3_reduce/bn
I0312 11:30:56.940358 27875 net.cpp:97] Setting up inception_4e/3x3_reduce/bn
I0312 11:30:56.940395 27875 net.cpp:104] Top shape: 128 160 5 5 (512000)
I0312 11:30:56.940413 27875 layer_factory.hpp:78] Creating layer inception_4e/relu_3x3_reduce
I0312 11:30:56.940435 27875 net.cpp:68] Creating Layer inception_4e/relu_3x3_reduce
I0312 11:30:56.940450 27875 net.cpp:395] inception_4e/relu_3x3_reduce <- inception_4e/3x3_reduce/bn
I0312 11:30:56.940467 27875 net.cpp:346] inception_4e/relu_3x3_reduce -> inception_4e/3x3_reduce/bn (in-place)
I0312 11:30:56.940485 27875 net.cpp:97] Setting up inception_4e/relu_3x3_reduce
I0312 11:30:57.004004 27875 net.cpp:104] Top shape: 128 160 5 5 (512000)
I0312 11:30:57.004022 27875 layer_factory.hpp:78] Creating layer inception_4e/3x3
I0312 11:30:57.004117 27875 net.cpp:68] Creating Layer inception_4e/3x3
I0312 11:30:57.004140 27875 net.cpp:395] inception_4e/3x3 <- inception_4e/3x3_reduce/bn
I0312 11:30:57.004163 27875 net.cpp:357] inception_4e/3x3 -> inception_4e/3x3
I0312 11:30:57.004187 27875 net.cpp:97] Setting up inception_4e/3x3
I0312 11:30:57.011647 27875 net.cpp:104] Top shape: 128 320 5 5 (1024000)
I0312 11:30:57.011673 27875 layer_factory.hpp:78] Creating layer inception_4e/3x3/bn
I0312 11:30:57.011689 27875 net.cpp:68] Creating Layer inception_4e/3x3/bn
I0312 11:30:57.011700 27875 net.cpp:395] inception_4e/3x3/bn <- inception_4e/3x3
I0312 11:30:57.011710 27875 net.cpp:357] inception_4e/3x3/bn -> inception_4e/3x3/bn
I0312 11:30:57.011723 27875 net.cpp:97] Setting up inception_4e/3x3/bn
I0312 11:30:57.011740 27875 net.cpp:104] Top shape: 128 320 5 5 (1024000)
I0312 11:30:57.011750 27875 layer_factory.hpp:78] Creating layer inception_4e/relu_3x3
I0312 11:30:57.011762 27875 net.cpp:68] Creating Layer inception_4e/relu_3x3
I0312 11:30:57.011770 27875 net.cpp:395] inception_4e/relu_3x3 <- inception_4e/3x3/bn
I0312 11:30:57.011778 27875 net.cpp:346] inception_4e/relu_3x3 -> inception_4e/3x3/bn (in-place)
I0312 11:30:57.011787 27875 net.cpp:97] Setting up inception_4e/relu_3x3
I0312 11:30:57.011797 27875 net.cpp:104] Top shape: 128 320 5 5 (1024000)
I0312 11:30:57.011804 27875 layer_factory.hpp:78] Creating layer inception_4e/5x5_reduce
I0312 11:30:57.011816 27875 net.cpp:68] Creating Layer inception_4e/5x5_reduce
I0312 11:30:57.011824 27875 net.cpp:395] inception_4e/5x5_reduce <- inception_4d/output_inception_4d/output_0_split_3
I0312 11:30:57.011836 27875 net.cpp:357] inception_4e/5x5_reduce -> inception_4e/5x5_reduce
I0312 11:30:57.011845 27875 net.cpp:97] Setting up inception_4e/5x5_reduce
I0312 11:30:57.012102 27875 net.cpp:104] Top shape: 128 32 5 5 (102400)
I0312 11:30:57.012120 27875 layer_factory.hpp:78] Creating layer inception_4e/5x5_reduce/bn
I0312 11:30:57.012131 27875 net.cpp:68] Creating Layer inception_4e/5x5_reduce/bn
I0312 11:30:57.012140 27875 net.cpp:395] inception_4e/5x5_reduce/bn <- inception_4e/5x5_reduce
I0312 11:30:57.012151 27875 net.cpp:357] inception_4e/5x5_reduce/bn -> inception_4e/5x5_reduce/bn
I0312 11:30:57.012162 27875 net.cpp:97] Setting up inception_4e/5x5_reduce/bn
I0312 11:30:57.012177 27875 net.cpp:104] Top shape: 128 32 5 5 (102400)
I0312 11:30:57.012187 27875 layer_factory.hpp:78] Creating layer inception_4e/relu_5x5_reduce
I0312 11:30:57.012197 27875 net.cpp:68] Creating Layer inception_4e/relu_5x5_reduce
I0312 11:30:57.012204 27875 net.cpp:395] inception_4e/relu_5x5_reduce <- inception_4e/5x5_reduce/bn
I0312 11:30:57.012217 27875 net.cpp:346] inception_4e/relu_5x5_reduce -> inception_4e/5x5_reduce/bn (in-place)
I0312 11:30:57.012225 27875 net.cpp:97] Setting up inception_4e/relu_5x5_reduce
I0312 11:30:57.012235 27875 net.cpp:104] Top shape: 128 32 5 5 (102400)
I0312 11:30:57.012243 27875 layer_factory.hpp:78] Creating layer inception_4e/5x5
I0312 11:30:57.012253 27875 net.cpp:68] Creating Layer inception_4e/5x5
I0312 11:30:57.012260 27875 net.cpp:395] inception_4e/5x5 <- inception_4e/5x5_reduce/bn
I0312 11:30:57.012272 27875 net.cpp:357] inception_4e/5x5 -> inception_4e/5x5
I0312 11:30:57.012282 27875 net.cpp:97] Setting up inception_4e/5x5
I0312 11:30:57.013871 27875 net.cpp:104] Top shape: 128 128 5 5 (409600)
I0312 11:30:57.013903 27875 layer_factory.hpp:78] Creating layer inception_4e/5x5/bn
I0312 11:30:57.013924 27875 net.cpp:68] Creating Layer inception_4e/5x5/bn
I0312 11:30:57.013939 27875 net.cpp:395] inception_4e/5x5/bn <- inception_4e/5x5
I0312 11:30:57.013962 27875 net.cpp:357] inception_4e/5x5/bn -> inception_4e/5x5/bn
I0312 11:30:57.013984 27875 net.cpp:97] Setting up inception_4e/5x5/bn
I0312 11:30:57.014014 27875 net.cpp:104] Top shape: 128 128 5 5 (409600)
I0312 11:30:57.014032 27875 layer_factory.hpp:78] Creating layer inception_4e/relu_5x5
I0312 11:30:57.014052 27875 net.cpp:68] Creating Layer inception_4e/relu_5x5
I0312 11:30:57.014067 27875 net.cpp:395] inception_4e/relu_5x5 <- inception_4e/5x5/bn
I0312 11:30:57.014132 27875 net.cpp:346] inception_4e/relu_5x5 -> inception_4e/5x5/bn (in-place)
I0312 11:30:57.014154 27875 net.cpp:97] Setting up inception_4e/relu_5x5
I0312 11:30:57.014174 27875 net.cpp:104] Top shape: 128 128 5 5 (409600)
I0312 11:30:57.014189 27875 layer_factory.hpp:78] Creating layer inception_4e/pool
I0312 11:30:57.014204 27875 layer_factory.cpp:51] CUDNN does not support padding or multiple tops. Using Caffe's own pooling layer.
I0312 11:30:57.014225 27875 net.cpp:68] Creating Layer inception_4e/pool
I0312 11:30:57.014241 27875 net.cpp:395] inception_4e/pool <- inception_4d/output_inception_4d/output_0_split_4
I0312 11:30:57.014261 27875 net.cpp:357] inception_4e/pool -> inception_4e/pool
I0312 11:30:57.014281 27875 net.cpp:97] Setting up inception_4e/pool
I0312 11:30:57.014299 27875 net.cpp:104] Top shape: 128 528 5 5 (1689600)
I0312 11:30:57.014313 27875 layer_factory.hpp:78] Creating layer inception_4e/pool_proj
I0312 11:30:57.014338 27875 net.cpp:68] Creating Layer inception_4e/pool_proj
I0312 11:30:57.014353 27875 net.cpp:395] inception_4e/pool_proj <- inception_4e/pool
I0312 11:30:57.014372 27875 net.cpp:357] inception_4e/pool_proj -> inception_4e/pool_proj
I0312 11:30:57.014392 27875 net.cpp:97] Setting up inception_4e/pool_proj
I0312 11:30:57.016165 27875 net.cpp:104] Top shape: 128 128 5 5 (409600)
I0312 11:30:57.016199 27875 layer_factory.hpp:78] Creating layer inception_4e/pool_proj/bn
I0312 11:30:57.016226 27875 net.cpp:68] Creating Layer inception_4e/pool_proj/bn
I0312 11:30:57.016242 27875 net.cpp:395] inception_4e/pool_proj/bn <- inception_4e/pool_proj
I0312 11:30:57.016265 27875 net.cpp:357] inception_4e/pool_proj/bn -> inception_4e/pool_proj/bn
I0312 11:30:57.016288 27875 net.cpp:97] Setting up inception_4e/pool_proj/bn
I0312 11:30:57.016317 27875 net.cpp:104] Top shape: 128 128 5 5 (409600)
I0312 11:30:57.016340 27875 layer_factory.hpp:78] Creating layer inception_4e/relu_pool_proj
I0312 11:30:57.016360 27875 net.cpp:68] Creating Layer inception_4e/relu_pool_proj
I0312 11:30:57.016373 27875 net.cpp:395] inception_4e/relu_pool_proj <- inception_4e/pool_proj/bn
I0312 11:30:57.016389 27875 net.cpp:346] inception_4e/relu_pool_proj -> inception_4e/pool_proj/bn (in-place)
I0312 11:30:57.016408 27875 net.cpp:97] Setting up inception_4e/relu_pool_proj
I0312 11:30:57.016427 27875 net.cpp:104] Top shape: 128 128 5 5 (409600)
I0312 11:30:57.016441 27875 layer_factory.hpp:78] Creating layer inception_4e/output
I0312 11:30:57.016459 27875 net.cpp:68] Creating Layer inception_4e/output
I0312 11:30:57.016474 27875 net.cpp:395] inception_4e/output <- inception_4e/1x1/bn
I0312 11:30:57.016506 27875 net.cpp:395] inception_4e/output <- inception_4e/3x3/bn
I0312 11:30:57.016515 27875 net.cpp:395] inception_4e/output <- inception_4e/5x5/bn
I0312 11:30:57.016523 27875 net.cpp:395] inception_4e/output <- inception_4e/pool_proj/bn
I0312 11:30:57.016535 27875 net.cpp:357] inception_4e/output -> inception_4e/output
I0312 11:30:57.016546 27875 net.cpp:97] Setting up inception_4e/output
I0312 11:30:57.016554 27875 net.cpp:104] Top shape: 128 832 5 5 (2662400)
I0312 11:30:57.016561 27875 layer_factory.hpp:78] Creating layer pool4/3x3_s2
I0312 11:30:57.016569 27875 net.cpp:68] Creating Layer pool4/3x3_s2
I0312 11:30:57.016577 27875 net.cpp:395] pool4/3x3_s2 <- inception_4e/output
I0312 11:30:57.016604 27875 net.cpp:357] pool4/3x3_s2 -> pool4/3x3_s2
I0312 11:30:57.016625 27875 net.cpp:97] Setting up pool4/3x3_s2
I0312 11:30:57.016649 27875 net.cpp:104] Top shape: 128 832 2 2 (425984)
I0312 11:30:57.016664 27875 layer_factory.hpp:78] Creating layer pool4/3x3_s2_pool4/3x3_s2_0_split
I0312 11:30:57.016682 27875 net.cpp:68] Creating Layer pool4/3x3_s2_pool4/3x3_s2_0_split
I0312 11:30:57.084045 27875 net.cpp:395] pool4/3x3_s2_pool4/3x3_s2_0_split <- pool4/3x3_s2
I0312 11:30:57.084076 27875 net.cpp:357] pool4/3x3_s2_pool4/3x3_s2_0_split -> pool4/3x3_s2_pool4/3x3_s2_0_split_0
I0312 11:30:57.084117 27875 net.cpp:357] pool4/3x3_s2_pool4/3x3_s2_0_split -> pool4/3x3_s2_pool4/3x3_s2_0_split_1
I0312 11:30:57.084208 27875 net.cpp:357] pool4/3x3_s2_pool4/3x3_s2_0_split -> pool4/3x3_s2_pool4/3x3_s2_0_split_2
I0312 11:30:57.084254 27875 net.cpp:357] pool4/3x3_s2_pool4/3x3_s2_0_split -> pool4/3x3_s2_pool4/3x3_s2_0_split_3
I0312 11:30:57.084288 27875 net.cpp:97] Setting up pool4/3x3_s2_pool4/3x3_s2_0_split
I0312 11:30:57.084317 27875 net.cpp:104] Top shape: 128 832 2 2 (425984)
I0312 11:30:57.084342 27875 net.cpp:104] Top shape: 128 832 2 2 (425984)
I0312 11:30:57.084362 27875 net.cpp:104] Top shape: 128 832 2 2 (425984)
I0312 11:30:57.084383 27875 net.cpp:104] Top shape: 128 832 2 2 (425984)
I0312 11:30:57.084405 27875 layer_factory.hpp:78] Creating layer inception_5a/1x1
I0312 11:30:57.084434 27875 net.cpp:68] Creating Layer inception_5a/1x1
I0312 11:30:57.084457 27875 net.cpp:395] inception_5a/1x1 <- pool4/3x3_s2_pool4/3x3_s2_0_split_0
I0312 11:30:57.084497 27875 net.cpp:357] inception_5a/1x1 -> inception_5a/1x1
I0312 11:30:57.084532 27875 net.cpp:97] Setting up inception_5a/1x1
I0312 11:30:57.088057 27875 net.cpp:104] Top shape: 128 256 2 2 (131072)
I0312 11:30:57.088107 27875 layer_factory.hpp:78] Creating layer inception_5a/1x1/bn
I0312 11:30:57.088145 27875 net.cpp:68] Creating Layer inception_5a/1x1/bn
I0312 11:30:57.088171 27875 net.cpp:395] inception_5a/1x1/bn <- inception_5a/1x1
I0312 11:30:57.088204 27875 net.cpp:357] inception_5a/1x1/bn -> inception_5a/1x1/bn
I0312 11:30:57.088238 27875 net.cpp:97] Setting up inception_5a/1x1/bn
I0312 11:30:57.088284 27875 net.cpp:104] Top shape: 128 256 2 2 (131072)
I0312 11:30:57.088315 27875 layer_factory.hpp:78] Creating layer inception_5a/relu_1x1
I0312 11:30:57.088341 27875 net.cpp:68] Creating Layer inception_5a/relu_1x1
I0312 11:30:57.088364 27875 net.cpp:395] inception_5a/relu_1x1 <- inception_5a/1x1/bn
I0312 11:30:57.088394 27875 net.cpp:346] inception_5a/relu_1x1 -> inception_5a/1x1/bn (in-place)
I0312 11:30:57.088423 27875 net.cpp:97] Setting up inception_5a/relu_1x1
I0312 11:30:57.088454 27875 net.cpp:104] Top shape: 128 256 2 2 (131072)
I0312 11:30:57.088476 27875 layer_factory.hpp:78] Creating layer inception_5a/3x3_reduce
I0312 11:30:57.088505 27875 net.cpp:68] Creating Layer inception_5a/3x3_reduce
I0312 11:30:57.088528 27875 net.cpp:395] inception_5a/3x3_reduce <- pool4/3x3_s2_pool4/3x3_s2_0_split_1
I0312 11:30:57.088562 27875 net.cpp:357] inception_5a/3x3_reduce -> inception_5a/3x3_reduce
I0312 11:30:57.088594 27875 net.cpp:97] Setting up inception_5a/3x3_reduce
I0312 11:30:57.091625 27875 net.cpp:104] Top shape: 128 160 2 2 (81920)
I0312 11:30:57.091672 27875 layer_factory.hpp:78] Creating layer inception_5a/3x3_reduce/bn
I0312 11:30:57.091703 27875 net.cpp:68] Creating Layer inception_5a/3x3_reduce/bn
I0312 11:30:57.091728 27875 net.cpp:395] inception_5a/3x3_reduce/bn <- inception_5a/3x3_reduce
I0312 11:30:57.091763 27875 net.cpp:357] inception_5a/3x3_reduce/bn -> inception_5a/3x3_reduce/bn
I0312 11:30:57.091795 27875 net.cpp:97] Setting up inception_5a/3x3_reduce/bn
I0312 11:30:57.091837 27875 net.cpp:104] Top shape: 128 160 2 2 (81920)
I0312 11:30:57.091867 27875 layer_factory.hpp:78] Creating layer inception_5a/relu_3x3_reduce
I0312 11:30:57.091893 27875 net.cpp:68] Creating Layer inception_5a/relu_3x3_reduce
I0312 11:30:57.091917 27875 net.cpp:395] inception_5a/relu_3x3_reduce <- inception_5a/3x3_reduce/bn
I0312 11:30:57.091948 27875 net.cpp:346] inception_5a/relu_3x3_reduce -> inception_5a/3x3_reduce/bn (in-place)
I0312 11:30:57.091975 27875 net.cpp:97] Setting up inception_5a/relu_3x3_reduce
I0312 11:30:57.092005 27875 net.cpp:104] Top shape: 128 160 2 2 (81920)
I0312 11:30:57.092027 27875 layer_factory.hpp:78] Creating layer inception_5a/3x3
I0312 11:30:57.092056 27875 net.cpp:68] Creating Layer inception_5a/3x3
I0312 11:30:57.092079 27875 net.cpp:395] inception_5a/3x3 <- inception_5a/3x3_reduce/bn
I0312 11:30:57.092108 27875 net.cpp:357] inception_5a/3x3 -> inception_5a/3x3
I0312 11:30:57.092138 27875 net.cpp:97] Setting up inception_5a/3x3
I0312 11:30:57.097240 27875 net.cpp:104] Top shape: 128 320 2 2 (163840)
I0312 11:30:57.097297 27875 layer_factory.hpp:78] Creating layer inception_5a/3x3/bn
I0312 11:30:57.097317 27875 net.cpp:68] Creating Layer inception_5a/3x3/bn
I0312 11:30:57.097332 27875 net.cpp:395] inception_5a/3x3/bn <- inception_5a/3x3
I0312 11:30:57.097348 27875 net.cpp:357] inception_5a/3x3/bn -> inception_5a/3x3/bn
I0312 11:30:57.097364 27875 net.cpp:97] Setting up inception_5a/3x3/bn
I0312 11:30:57.097388 27875 net.cpp:104] Top shape: 128 320 2 2 (163840)
I0312 11:30:57.097404 27875 layer_factory.hpp:78] Creating layer inception_5a/relu_3x3
I0312 11:30:57.097417 27875 net.cpp:68] Creating Layer inception_5a/relu_3x3
I0312 11:30:57.097429 27875 net.cpp:395] inception_5a/relu_3x3 <- inception_5a/3x3/bn
I0312 11:30:57.097441 27875 net.cpp:346] inception_5a/relu_3x3 -> inception_5a/3x3/bn (in-place)
I0312 11:30:57.097455 27875 net.cpp:97] Setting up inception_5a/relu_3x3
I0312 11:30:57.097470 27875 net.cpp:104] Top shape: 128 320 2 2 (163840)
I0312 11:30:57.097482 27875 layer_factory.hpp:78] Creating layer inception_5a/5x5_reduce
I0312 11:30:57.097497 27875 net.cpp:68] Creating Layer inception_5a/5x5_reduce
I0312 11:30:57.097511 27875 net.cpp:395] inception_5a/5x5_reduce <- pool4/3x3_s2_pool4/3x3_s2_0_split_2
I0312 11:30:57.097527 27875 net.cpp:357] inception_5a/5x5_reduce -> inception_5a/5x5_reduce
I0312 11:30:57.097543 27875 net.cpp:97] Setting up inception_5a/5x5_reduce
I0312 11:30:57.097908 27875 net.cpp:104] Top shape: 128 32 2 2 (16384)
I0312 11:30:57.097930 27875 layer_factory.hpp:78] Creating layer inception_5a/5x5_reduce/bn
I0312 11:30:57.097949 27875 net.cpp:68] Creating Layer inception_5a/5x5_reduce/bn
I0312 11:30:57.097962 27875 net.cpp:395] inception_5a/5x5_reduce/bn <- inception_5a/5x5_reduce
I0312 11:30:57.097977 27875 net.cpp:357] inception_5a/5x5_reduce/bn -> inception_5a/5x5_reduce/bn
I0312 11:30:57.097992 27875 net.cpp:97] Setting up inception_5a/5x5_reduce/bn
I0312 11:30:57.098014 27875 net.cpp:104] Top shape: 128 32 2 2 (16384)
I0312 11:30:57.098029 27875 layer_factory.hpp:78] Creating layer inception_5a/relu_5x5_reduce
I0312 11:30:57.098043 27875 net.cpp:68] Creating Layer inception_5a/relu_5x5_reduce
I0312 11:30:57.098054 27875 net.cpp:395] inception_5a/relu_5x5_reduce <- inception_5a/5x5_reduce/bn
I0312 11:30:57.098067 27875 net.cpp:346] inception_5a/relu_5x5_reduce -> inception_5a/5x5_reduce/bn (in-place)
I0312 11:30:57.098081 27875 net.cpp:97] Setting up inception_5a/relu_5x5_reduce
I0312 11:30:57.098096 27875 net.cpp:104] Top shape: 128 32 2 2 (16384)
I0312 11:30:57.098108 27875 layer_factory.hpp:78] Creating layer inception_5a/5x5
I0312 11:30:57.098129 27875 net.cpp:68] Creating Layer inception_5a/5x5
I0312 11:30:57.098141 27875 net.cpp:395] inception_5a/5x5 <- inception_5a/5x5_reduce/bn
I0312 11:30:57.098155 27875 net.cpp:357] inception_5a/5x5 -> inception_5a/5x5
I0312 11:30:57.098170 27875 net.cpp:97] Setting up inception_5a/5x5
I0312 11:30:57.099501 27875 net.cpp:104] Top shape: 128 128 2 2 (65536)
I0312 11:30:57.099526 27875 layer_factory.hpp:78] Creating layer inception_5a/5x5/bn
I0312 11:30:57.099545 27875 net.cpp:68] Creating Layer inception_5a/5x5/bn
I0312 11:30:57.099560 27875 net.cpp:395] inception_5a/5x5/bn <- inception_5a/5x5
I0312 11:30:57.099575 27875 net.cpp:357] inception_5a/5x5/bn -> inception_5a/5x5/bn
I0312 11:30:57.099591 27875 net.cpp:97] Setting up inception_5a/5x5/bn
I0312 11:30:57.099614 27875 net.cpp:104] Top shape: 128 128 2 2 (65536)
I0312 11:30:57.099629 27875 layer_factory.hpp:78] Creating layer inception_5a/relu_5x5
I0312 11:30:57.099643 27875 net.cpp:68] Creating Layer inception_5a/relu_5x5
I0312 11:30:57.099655 27875 net.cpp:395] inception_5a/relu_5x5 <- inception_5a/5x5/bn
I0312 11:30:57.099671 27875 net.cpp:346] inception_5a/relu_5x5 -> inception_5a/5x5/bn (in-place)
I0312 11:30:57.099686 27875 net.cpp:97] Setting up inception_5a/relu_5x5
I0312 11:30:57.099701 27875 net.cpp:104] Top shape: 128 128 2 2 (65536)
I0312 11:30:57.099714 27875 layer_factory.hpp:78] Creating layer inception_5a/pool
I0312 11:30:57.108650 27875 layer_factory.cpp:51] CUDNN does not support padding or multiple tops. Using Caffe's own pooling layer.
I0312 11:30:57.108702 27875 net.cpp:68] Creating Layer inception_5a/pool
I0312 11:30:57.108717 27875 net.cpp:395] inception_5a/pool <- pool4/3x3_s2_pool4/3x3_s2_0_split_3
I0312 11:30:57.108733 27875 net.cpp:357] inception_5a/pool -> inception_5a/pool
I0312 11:30:57.108750 27875 net.cpp:97] Setting up inception_5a/pool
I0312 11:30:57.108767 27875 net.cpp:104] Top shape: 128 832 2 2 (425984)
I0312 11:30:57.108778 27875 layer_factory.hpp:78] Creating layer inception_5a/pool_proj
I0312 11:30:57.108800 27875 net.cpp:68] Creating Layer inception_5a/pool_proj
I0312 11:30:57.108814 27875 net.cpp:395] inception_5a/pool_proj <- inception_5a/pool
I0312 11:30:57.108829 27875 net.cpp:357] inception_5a/pool_proj -> inception_5a/pool_proj
I0312 11:30:57.108847 27875 net.cpp:97] Setting up inception_5a/pool_proj
I0312 11:30:57.110344 27875 net.cpp:104] Top shape: 128 128 2 2 (65536)
I0312 11:30:57.110369 27875 layer_factory.hpp:78] Creating layer inception_5a/pool_proj/bn
I0312 11:30:57.110386 27875 net.cpp:68] Creating Layer inception_5a/pool_proj/bn
I0312 11:30:57.110399 27875 net.cpp:395] inception_5a/pool_proj/bn <- inception_5a/pool_proj
I0312 11:30:57.110416 27875 net.cpp:357] inception_5a/pool_proj/bn -> inception_5a/pool_proj/bn
I0312 11:30:57.110435 27875 net.cpp:97] Setting up inception_5a/pool_proj/bn
I0312 11:30:57.110457 27875 net.cpp:104] Top shape: 128 128 2 2 (65536)
I0312 11:30:57.110472 27875 layer_factory.hpp:78] Creating layer inception_5a/relu_pool_proj
I0312 11:30:57.110486 27875 net.cpp:68] Creating Layer inception_5a/relu_pool_proj
I0312 11:30:57.110498 27875 net.cpp:395] inception_5a/relu_pool_proj <- inception_5a/pool_proj/bn
I0312 11:30:57.110514 27875 net.cpp:346] inception_5a/relu_pool_proj -> inception_5a/pool_proj/bn (in-place)
I0312 11:30:57.110528 27875 net.cpp:97] Setting up inception_5a/relu_pool_proj
I0312 11:30:57.110543 27875 net.cpp:104] Top shape: 128 128 2 2 (65536)
I0312 11:30:57.110555 27875 layer_factory.hpp:78] Creating layer inception_5a/output
I0312 11:30:57.110570 27875 net.cpp:68] Creating Layer inception_5a/output
I0312 11:30:57.110582 27875 net.cpp:395] inception_5a/output <- inception_5a/1x1/bn
I0312 11:30:57.110596 27875 net.cpp:395] inception_5a/output <- inception_5a/3x3/bn
I0312 11:30:57.110609 27875 net.cpp:395] inception_5a/output <- inception_5a/5x5/bn
I0312 11:30:57.110621 27875 net.cpp:395] inception_5a/output <- inception_5a/pool_proj/bn
I0312 11:30:57.110635 27875 net.cpp:357] inception_5a/output -> inception_5a/output
I0312 11:30:57.110648 27875 net.cpp:97] Setting up inception_5a/output
I0312 11:30:57.110662 27875 net.cpp:104] Top shape: 128 832 2 2 (425984)
I0312 11:30:57.110673 27875 layer_factory.hpp:78] Creating layer inception_5a/output_inception_5a/output_0_split
I0312 11:30:57.110707 27875 net.cpp:68] Creating Layer inception_5a/output_inception_5a/output_0_split
I0312 11:30:57.110729 27875 net.cpp:395] inception_5a/output_inception_5a/output_0_split <- inception_5a/output
I0312 11:30:57.110765 27875 net.cpp:357] inception_5a/output_inception_5a/output_0_split -> inception_5a/output_inception_5a/output_0_split_0
I0312 11:30:57.110798 27875 net.cpp:357] inception_5a/output_inception_5a/output_0_split -> inception_5a/output_inception_5a/output_0_split_1
I0312 11:30:57.110829 27875 net.cpp:357] inception_5a/output_inception_5a/output_0_split -> inception_5a/output_inception_5a/output_0_split_2
I0312 11:30:57.110846 27875 net.cpp:357] inception_5a/output_inception_5a/output_0_split -> inception_5a/output_inception_5a/output_0_split_3
I0312 11:30:57.110859 27875 net.cpp:97] Setting up inception_5a/output_inception_5a/output_0_split
I0312 11:30:57.110873 27875 net.cpp:104] Top shape: 128 832 2 2 (425984)
I0312 11:30:57.142874 27875 net.cpp:104] Top shape: 128 832 2 2 (425984)
I0312 11:30:57.142896 27875 net.cpp:104] Top shape: 128 832 2 2 (425984)
I0312 11:30:57.142907 27875 net.cpp:104] Top shape: 128 832 2 2 (425984)
I0312 11:30:57.142931 27875 layer_factory.hpp:78] Creating layer inception_5b/1x1
I0312 11:30:57.143023 27875 net.cpp:68] Creating Layer inception_5b/1x1
I0312 11:30:57.143055 27875 net.cpp:395] inception_5b/1x1 <- inception_5a/output_inception_5a/output_0_split_0
I0312 11:30:57.143088 27875 net.cpp:357] inception_5b/1x1 -> inception_5b/1x1
I0312 11:30:57.143124 27875 net.cpp:97] Setting up inception_5b/1x1
I0312 11:30:57.148937 27875 net.cpp:104] Top shape: 128 384 2 2 (196608)
I0312 11:30:57.148988 27875 layer_factory.hpp:78] Creating layer inception_5b/1x1/bn
I0312 11:30:57.149021 27875 net.cpp:68] Creating Layer inception_5b/1x1/bn
I0312 11:30:57.149046 27875 net.cpp:395] inception_5b/1x1/bn <- inception_5b/1x1
I0312 11:30:57.149075 27875 net.cpp:357] inception_5b/1x1/bn -> inception_5b/1x1/bn
I0312 11:30:57.149107 27875 net.cpp:97] Setting up inception_5b/1x1/bn
I0312 11:30:57.149155 27875 net.cpp:104] Top shape: 128 384 2 2 (196608)
I0312 11:30:57.149186 27875 layer_factory.hpp:78] Creating layer inception_5b/relu_1x1
I0312 11:30:57.149214 27875 net.cpp:68] Creating Layer inception_5b/relu_1x1
I0312 11:30:57.149238 27875 net.cpp:395] inception_5b/relu_1x1 <- inception_5b/1x1/bn
I0312 11:30:57.149265 27875 net.cpp:346] inception_5b/relu_1x1 -> inception_5b/1x1/bn (in-place)
I0312 11:30:57.149291 27875 net.cpp:97] Setting up inception_5b/relu_1x1
I0312 11:30:57.149322 27875 net.cpp:104] Top shape: 128 384 2 2 (196608)
I0312 11:30:57.149343 27875 layer_factory.hpp:78] Creating layer inception_5b/3x3_reduce
I0312 11:30:57.149373 27875 net.cpp:68] Creating Layer inception_5b/3x3_reduce
I0312 11:30:57.149396 27875 net.cpp:395] inception_5b/3x3_reduce <- inception_5a/output_inception_5a/output_0_split_1
I0312 11:30:57.149425 27875 net.cpp:357] inception_5b/3x3_reduce -> inception_5b/3x3_reduce
I0312 11:30:57.149456 27875 net.cpp:97] Setting up inception_5b/3x3_reduce
I0312 11:30:57.152961 27875 net.cpp:104] Top shape: 128 192 2 2 (98304)
I0312 11:30:57.152984 27875 layer_factory.hpp:78] Creating layer inception_5b/3x3_reduce/bn
I0312 11:30:57.153004 27875 net.cpp:68] Creating Layer inception_5b/3x3_reduce/bn
I0312 11:30:57.153017 27875 net.cpp:395] inception_5b/3x3_reduce/bn <- inception_5b/3x3_reduce
I0312 11:30:57.153033 27875 net.cpp:357] inception_5b/3x3_reduce/bn -> inception_5b/3x3_reduce/bn
I0312 11:30:57.153050 27875 net.cpp:97] Setting up inception_5b/3x3_reduce/bn
I0312 11:30:57.153074 27875 net.cpp:104] Top shape: 128 192 2 2 (98304)
I0312 11:30:57.153090 27875 layer_factory.hpp:78] Creating layer inception_5b/relu_3x3_reduce
I0312 11:30:57.153105 27875 net.cpp:68] Creating Layer inception_5b/relu_3x3_reduce
I0312 11:30:57.153116 27875 net.cpp:395] inception_5b/relu_3x3_reduce <- inception_5b/3x3_reduce/bn
I0312 11:30:57.153132 27875 net.cpp:346] inception_5b/relu_3x3_reduce -> inception_5b/3x3_reduce/bn (in-place)
I0312 11:30:57.153147 27875 net.cpp:97] Setting up inception_5b/relu_3x3_reduce
I0312 11:30:57.153163 27875 net.cpp:104] Top shape: 128 192 2 2 (98304)
I0312 11:30:57.153177 27875 layer_factory.hpp:78] Creating layer inception_5b/3x3
I0312 11:30:57.153192 27875 net.cpp:68] Creating Layer inception_5b/3x3
I0312 11:30:57.153208 27875 net.cpp:395] inception_5b/3x3 <- inception_5b/3x3_reduce/bn
I0312 11:30:57.153223 27875 net.cpp:357] inception_5b/3x3 -> inception_5b/3x3
I0312 11:30:57.153240 27875 net.cpp:97] Setting up inception_5b/3x3
I0312 11:30:57.160941 27875 net.cpp:104] Top shape: 128 384 2 2 (196608)
I0312 11:30:57.160967 27875 layer_factory.hpp:78] Creating layer inception_5b/3x3/bn
I0312 11:30:57.160997 27875 net.cpp:68] Creating Layer inception_5b/3x3/bn
I0312 11:30:57.161013 27875 net.cpp:395] inception_5b/3x3/bn <- inception_5b/3x3
I0312 11:30:57.161031 27875 net.cpp:357] inception_5b/3x3/bn -> inception_5b/3x3/bn
I0312 11:30:57.161048 27875 net.cpp:97] Setting up inception_5b/3x3/bn
I0312 11:30:57.161073 27875 net.cpp:104] Top shape: 128 384 2 2 (196608)
I0312 11:30:57.161089 27875 layer_factory.hpp:78] Creating layer inception_5b/relu_3x3
I0312 11:30:57.161114 27875 net.cpp:68] Creating Layer inception_5b/relu_3x3
I0312 11:30:57.170871 27875 net.cpp:395] inception_5b/relu_3x3 <- inception_5b/3x3/bn
I0312 11:30:57.170951 27875 net.cpp:346] inception_5b/relu_3x3 -> inception_5b/3x3/bn (in-place)
I0312 11:30:57.170971 27875 net.cpp:97] Setting up inception_5b/relu_3x3
I0312 11:30:57.170990 27875 net.cpp:104] Top shape: 128 384 2 2 (196608)
I0312 11:30:57.171003 27875 layer_factory.hpp:78] Creating layer inception_5b/5x5_reduce
I0312 11:30:57.171021 27875 net.cpp:68] Creating Layer inception_5b/5x5_reduce
I0312 11:30:57.171035 27875 net.cpp:395] inception_5b/5x5_reduce <- inception_5a/output_inception_5a/output_0_split_2
I0312 11:30:57.171051 27875 net.cpp:357] inception_5b/5x5_reduce -> inception_5b/5x5_reduce
I0312 11:30:57.171068 27875 net.cpp:97] Setting up inception_5b/5x5_reduce
I0312 11:30:57.171816 27875 net.cpp:104] Top shape: 128 48 2 2 (24576)
I0312 11:30:57.171844 27875 layer_factory.hpp:78] Creating layer inception_5b/5x5_reduce/bn
I0312 11:30:57.171864 27875 net.cpp:68] Creating Layer inception_5b/5x5_reduce/bn
I0312 11:30:57.171877 27875 net.cpp:395] inception_5b/5x5_reduce/bn <- inception_5b/5x5_reduce
I0312 11:30:57.171892 27875 net.cpp:357] inception_5b/5x5_reduce/bn -> inception_5b/5x5_reduce/bn
I0312 11:30:57.171908 27875 net.cpp:97] Setting up inception_5b/5x5_reduce/bn
I0312 11:30:57.171931 27875 net.cpp:104] Top shape: 128 48 2 2 (24576)
I0312 11:30:57.171946 27875 layer_factory.hpp:78] Creating layer inception_5b/relu_5x5_reduce
I0312 11:30:57.171960 27875 net.cpp:68] Creating Layer inception_5b/relu_5x5_reduce
I0312 11:30:57.171972 27875 net.cpp:395] inception_5b/relu_5x5_reduce <- inception_5b/5x5_reduce/bn
I0312 11:30:57.171985 27875 net.cpp:346] inception_5b/relu_5x5_reduce -> inception_5b/5x5_reduce/bn (in-place)
I0312 11:30:57.171998 27875 net.cpp:97] Setting up inception_5b/relu_5x5_reduce
I0312 11:30:57.172013 27875 net.cpp:104] Top shape: 128 48 2 2 (24576)
I0312 11:30:57.172025 27875 layer_factory.hpp:78] Creating layer inception_5b/5x5
I0312 11:30:57.172044 27875 net.cpp:68] Creating Layer inception_5b/5x5
I0312 11:30:57.172056 27875 net.cpp:395] inception_5b/5x5 <- inception_5b/5x5_reduce/bn
I0312 11:30:57.172070 27875 net.cpp:357] inception_5b/5x5 -> inception_5b/5x5
I0312 11:30:57.172086 27875 net.cpp:97] Setting up inception_5b/5x5
I0312 11:30:57.174625 27875 net.cpp:104] Top shape: 128 128 2 2 (65536)
I0312 11:30:57.174669 27875 layer_factory.hpp:78] Creating layer inception_5b/5x5/bn
I0312 11:30:57.174698 27875 net.cpp:68] Creating Layer inception_5b/5x5/bn
I0312 11:30:57.174721 27875 net.cpp:395] inception_5b/5x5/bn <- inception_5b/5x5
I0312 11:30:57.174752 27875 net.cpp:357] inception_5b/5x5/bn -> inception_5b/5x5/bn
I0312 11:30:57.174783 27875 net.cpp:97] Setting up inception_5b/5x5/bn
I0312 11:30:57.174823 27875 net.cpp:104] Top shape: 128 128 2 2 (65536)
I0312 11:30:57.174850 27875 layer_factory.hpp:78] Creating layer inception_5b/relu_5x5
I0312 11:30:57.174876 27875 net.cpp:68] Creating Layer inception_5b/relu_5x5
I0312 11:30:57.174897 27875 net.cpp:395] inception_5b/relu_5x5 <- inception_5b/5x5/bn
I0312 11:30:57.174921 27875 net.cpp:346] inception_5b/relu_5x5 -> inception_5b/5x5/bn (in-place)
I0312 11:30:57.174947 27875 net.cpp:97] Setting up inception_5b/relu_5x5
I0312 11:30:57.174973 27875 net.cpp:104] Top shape: 128 128 2 2 (65536)
I0312 11:30:57.174994 27875 layer_factory.hpp:78] Creating layer inception_5b/pool
I0312 11:30:57.175016 27875 layer_factory.cpp:51] CUDNN does not support padding or multiple tops. Using Caffe's own pooling layer.
I0312 11:30:57.175045 27875 net.cpp:68] Creating Layer inception_5b/pool
I0312 11:30:57.175067 27875 net.cpp:395] inception_5b/pool <- inception_5a/output_inception_5a/output_0_split_3
I0312 11:30:57.175093 27875 net.cpp:357] inception_5b/pool -> inception_5b/pool
I0312 11:30:57.175120 27875 net.cpp:97] Setting up inception_5b/pool
I0312 11:30:57.175148 27875 net.cpp:104] Top shape: 128 832 2 2 (425984)
I0312 11:30:57.175168 27875 layer_factory.hpp:78] Creating layer inception_5b/pool_proj
I0312 11:30:57.233794 27875 net.cpp:68] Creating Layer inception_5b/pool_proj
I0312 11:30:57.233842 27875 net.cpp:395] inception_5b/pool_proj <- inception_5b/pool
I0312 11:30:57.233930 27875 net.cpp:357] inception_5b/pool_proj -> inception_5b/pool_proj
I0312 11:30:57.233970 27875 net.cpp:97] Setting up inception_5b/pool_proj
I0312 11:30:57.236457 27875 net.cpp:104] Top shape: 128 128 2 2 (65536)
I0312 11:30:57.236507 27875 layer_factory.hpp:78] Creating layer inception_5b/pool_proj/bn
I0312 11:30:57.236541 27875 net.cpp:68] Creating Layer inception_5b/pool_proj/bn
I0312 11:30:57.236564 27875 net.cpp:395] inception_5b/pool_proj/bn <- inception_5b/pool_proj
I0312 11:30:57.236599 27875 net.cpp:357] inception_5b/pool_proj/bn -> inception_5b/pool_proj/bn
I0312 11:30:57.236634 27875 net.cpp:97] Setting up inception_5b/pool_proj/bn
I0312 11:30:57.236675 27875 net.cpp:104] Top shape: 128 128 2 2 (65536)
I0312 11:30:57.236706 27875 layer_factory.hpp:78] Creating layer inception_5b/relu_pool_proj
I0312 11:30:57.236737 27875 net.cpp:68] Creating Layer inception_5b/relu_pool_proj
I0312 11:30:57.236760 27875 net.cpp:395] inception_5b/relu_pool_proj <- inception_5b/pool_proj/bn
I0312 11:30:57.236786 27875 net.cpp:346] inception_5b/relu_pool_proj -> inception_5b/pool_proj/bn (in-place)
I0312 11:30:57.236814 27875 net.cpp:97] Setting up inception_5b/relu_pool_proj
I0312 11:30:57.236845 27875 net.cpp:104] Top shape: 128 128 2 2 (65536)
I0312 11:30:57.236891 27875 layer_factory.hpp:78] Creating layer inception_5b/output
I0312 11:30:57.236942 27875 net.cpp:68] Creating Layer inception_5b/output
I0312 11:30:57.236958 27875 net.cpp:395] inception_5b/output <- inception_5b/1x1/bn
I0312 11:30:57.236976 27875 net.cpp:395] inception_5b/output <- inception_5b/3x3/bn
I0312 11:30:57.236994 27875 net.cpp:395] inception_5b/output <- inception_5b/5x5/bn
I0312 11:30:57.237010 27875 net.cpp:395] inception_5b/output <- inception_5b/pool_proj/bn
I0312 11:30:57.237027 27875 net.cpp:357] inception_5b/output -> inception_5b/output
I0312 11:30:57.237047 27875 net.cpp:97] Setting up inception_5b/output
I0312 11:30:57.237066 27875 net.cpp:104] Top shape: 128 1024 2 2 (524288)
I0312 11:30:57.237081 27875 layer_factory.hpp:78] Creating layer pool5/7x7_s1
I0312 11:30:57.237099 27875 net.cpp:68] Creating Layer pool5/7x7_s1
I0312 11:30:57.237114 27875 net.cpp:395] pool5/7x7_s1 <- inception_5b/output
I0312 11:30:57.237138 27875 net.cpp:357] pool5/7x7_s1 -> pool5/7x7_s1
I0312 11:30:57.237157 27875 net.cpp:97] Setting up pool5/7x7_s1
I0312 11:30:57.237180 27875 net.cpp:104] Top shape: 128 1024 1 1 (131072)
I0312 11:30:57.237195 27875 layer_factory.hpp:78] Creating layer pool5/drop_7x7_s1
I0312 11:30:57.237215 27875 net.cpp:68] Creating Layer pool5/drop_7x7_s1
I0312 11:30:57.237229 27875 net.cpp:395] pool5/drop_7x7_s1 <- pool5/7x7_s1
I0312 11:30:57.237251 27875 net.cpp:346] pool5/drop_7x7_s1 -> pool5/7x7_s1 (in-place)
I0312 11:30:57.237269 27875 net.cpp:97] Setting up pool5/drop_7x7_s1
I0312 11:30:57.237287 27875 net.cpp:104] Top shape: 128 1024 1 1 (131072)
I0312 11:30:57.237301 27875 layer_factory.hpp:78] Creating layer loss3/classifier
I0312 11:30:57.237321 27875 net.cpp:68] Creating Layer loss3/classifier
I0312 11:30:57.237335 27875 net.cpp:395] loss3/classifier <- pool5/7x7_s1
I0312 11:30:57.237355 27875 net.cpp:357] loss3/classifier -> loss3/classifier
I0312 11:30:57.237375 27875 net.cpp:97] Setting up loss3/classifier
I0312 11:30:57.239183 27875 net.cpp:104] Top shape: 128 121 1 1 (15488)
I0312 11:30:57.239212 27875 layer_factory.hpp:78] Creating layer loss3/classifier_loss3/classifier_0_split
I0312 11:30:57.239234 27875 net.cpp:68] Creating Layer loss3/classifier_loss3/classifier_0_split
I0312 11:30:57.239251 27875 net.cpp:395] loss3/classifier_loss3/classifier_0_split <- loss3/classifier
I0312 11:30:57.239270 27875 net.cpp:357] loss3/classifier_loss3/classifier_0_split -> loss3/classifier_loss3/classifier_0_split_0
I0312 11:30:57.239292 27875 net.cpp:357] loss3/classifier_loss3/classifier_0_split -> loss3/classifier_loss3/classifier_0_split_1
I0312 11:30:57.294726 27875 net.cpp:97] Setting up loss3/classifier_loss3/classifier_0_split
I0312 11:30:57.294775 27875 net.cpp:104] Top shape: 128 121 1 1 (15488)
I0312 11:30:57.294859 27875 net.cpp:104] Top shape: 128 121 1 1 (15488)
I0312 11:30:57.294886 27875 layer_factory.hpp:78] Creating layer loss3/loss3
I0312 11:30:57.294916 27875 net.cpp:68] Creating Layer loss3/loss3
I0312 11:30:57.294941 27875 net.cpp:395] loss3/loss3 <- loss3/classifier_loss3/classifier_0_split_0
I0312 11:30:57.294971 27875 net.cpp:395] loss3/loss3 <- label_data_1_split_4
I0312 11:30:57.295008 27875 net.cpp:357] loss3/loss3 -> loss3/loss3
I0312 11:30:57.295042 27875 net.cpp:97] Setting up loss3/loss3
I0312 11:30:57.295069 27875 layer_factory.hpp:78] Creating layer loss3/loss3
I0312 11:30:57.295192 27875 net.cpp:104] Top shape: 1 1 1 1 (1)
I0312 11:30:57.295223 27875 net.cpp:110]     with loss weight 1
I0312 11:30:57.295264 27875 layer_factory.hpp:78] Creating layer loss3/top-1
I0312 11:30:57.295292 27875 net.cpp:68] Creating Layer loss3/top-1
I0312 11:30:57.295315 27875 net.cpp:395] loss3/top-1 <- loss3/classifier_loss3/classifier_0_split_1
I0312 11:30:57.295341 27875 net.cpp:395] loss3/top-1 <- label_data_1_split_5
I0312 11:30:57.295372 27875 net.cpp:357] loss3/top-1 -> loss3/top-1
I0312 11:30:57.295403 27875 net.cpp:97] Setting up loss3/top-1
I0312 11:30:57.295428 27875 net.cpp:104] Top shape: 1 1 1 1 (1)
I0312 11:30:57.295450 27875 net.cpp:173] loss3/top-1 does not need backward computation.
I0312 11:30:57.295471 27875 net.cpp:171] loss3/loss3 needs backward computation.
I0312 11:30:57.295493 27875 net.cpp:171] loss3/classifier_loss3/classifier_0_split needs backward computation.
I0312 11:30:57.295516 27875 net.cpp:171] loss3/classifier needs backward computation.
I0312 11:30:57.295538 27875 net.cpp:171] pool5/drop_7x7_s1 needs backward computation.
…
