…
  transform_param {
    mirror: true
    mean_file: "/media/data/kaggle/nationalDataScienceBowl/data/typeF/train_mean.binaryproto"
    affine_param {
      x_stretch_unirnd_range: 0.01
      y_stretch_unirnd_range: 0.01
      rotation_unirnd_range: 180
      max_translation: 5
      background_color: 255
    }
  }
  image_data_affine_param {
    source: "/media/data/kaggle/nationalDataScienceBowl/data/typeF/train.txt"
    scale: 0.00390625
    batch_size: 96
    shuffle: true
    new_size: 96
    is_color: false
    root_folder: "/media/data/kaggle/nationalDataScienceBowl/data/typeF/"
  }
}
layers {
  bottom: "data"
  top: "conv1/7x7_s2"
  name: "conv1/7x7_s2"
  type: CONVOLUTION
  blobs_lr: 1
  blobs_lr: 2
  weight_decay: 1
  weight_decay: 0
  convolution_param {
    num_output: 256
    kernel_size: 4
    stride: 2
    weight_filler {
      type: "xavier"
    }
    bias_filler {
      type: "constant"
    }
  }
}
layers {
  bottom: "conv1/7x7_s2"
  top: "conv1/7x7_s2/bn"
  name: "conv1/7x7_s2/bn"
  type: BN
  blobs_lr: 1
  blobs_lr: 1
  weight_decay: 0
  weight_decay: 0
  bn_param {
    scale_filler {
      type: "constant"
      value: 1
    }
    shift_filler {
      type: "constant"
      value: 0
    }
  }
}
layers {
  bottom: "conv1/7x7_s2/bn"
  top: "conv1/7x7_s2/bn"
  name: "conv1/relu_7x7"
  type: RELU
  relu_param {
    negative_slope: 0.1
  }
}
layers {
  bottom: "conv1/7x7_s2/bn"
  top: "cccp1/7x7_s2"
  name: "cccp1/7x7_s2"
  type: CONVOLUTION
  blobs_lr: 1
  blobs_lr: 2
  weight_decay: 1
  weight_decay: 0
  convolution_param {
    num_output: 256
    kernel_size: 1
    group: 1
    stride: 1
    weight_filler {
      type: "xavier"
    }
    bias_filler {
      type: "constant"
    }
  }
}
layers {
  bottom: "cccp1/7x7_s2"
  top: "cccp1/7x7_s2/bn"
  name: "cccp1/7x7_s2/bn"
  type: BN
  blobs_lr: 1
  blobs_lr: 1
  weight_decay: 0
  weight_decay: 0
  bn_param {
    scale_filler {
      type: "constant"
      value: 1
    }
    shift_filler {
      type: "constant"
      value: 0
    }
  }
}
layers {
  bottom: "cccp1/7x7_s2/bn"
  top: "cccp1/7x7_s2/bn"
  name: "cccp1/7x7_s2/bn/relu"
  type: RELU
  relu_param {
    negative_slope: 0.1
  }
}
layers {
  bottom: "cccp1/7x7_s2/bn"
  top: "pool1/3x3_s2"
  name: "pool1/3x3_s2"
  type: POOLING
  pooling_param {
    pool: MAX
    kernel_size: 3
    stride: 2
  }
}
layers {
  bottom: "pool1/3x3_s2"
  top: "conv2/3x3_reduce"
  name: "conv2/3x3_reduce"
  type: CONVOLUTION
  blobs_lr: 1
  blobs_lr: 2
  weight_decay: 1
  weight_decay: 0
  convolution_param {
    num_output: 64
    kernel_size: 1
    weight_filler {
      type: "xavier"
    }
    bias_filler {
      type: "constant"
    }
  }
}
layers {
  bottom: "conv2/3x3_reduce"
  top: "conv2/3x3_reduce/bn"
  name: "conv2/3x3_reduce/bn"
  type: BN
  blobs_lr: 1
  blobs_lr: 1
  weight_decay: 0
  weight_decay: 0
  bn_param {
    scale_filler {
      type: "constant"
      value: 1
    }
    shift_filler {
      type: "constant"
      value: 0
    }
  }
}
layers {
  bottom: "conv2/3x3_reduce/bn"
  top: "conv2/3x3_reduce/bn"
  name: "conv2/relu_3x3_reduce"
  type: RELU
  relu_param {
    negative_slope: 0.1
  }
}
layers {
  bottom: "conv2/3x3_reduce/bn"
  top: "conv2/3x3"
  name: "conv2/3x3"
  type: CONVOLUTION
  blobs_lr: 1
  blobs_lr: 2
  weight_decay: 1
  weight_decay: 0
  convolution_param {
    num_output: 192
    pad: 1
    kernel_size: 3
    weight_filler {
      type: "xavier"
    }
    bias_filler {
      type: "constant"
    }
  }
}
layers {
  bottom: "conv2/3x3"
  top: "conv2/3x3/bn"
  name: "conv2/3x3/bn"
  type: BN
  blobs_lr: 1
  blobs_lr: 1
  weight_decay: 0
  weight_decay: 0
  bn_param {
    scale_filler {
      type: "constant"
      value: 1
    }
    shift_filler {
      type: "constant"
      value: 0
    }
  }
}
layers {
  bottom: "conv2/3x3/bn"
  top: "conv2/3x3/bn"
  name: "conv2/relu_3x3"
  type: RELU
  relu_param {
    negative_slope: 0.1
  }
}
layers {
  bottom: "conv2/3x3/bn"
  top: "pool2/3x3_s2"
  name: "pool2/3x3_s2"
  type: POOLING
  pooling_param {
    pool: MAX
    kernel_size: 3
    stride: 2
  }
}
layers {
  bottom: "pool2/3x3_s2"
  top: "inception_3a/1x1"
  name: "inception_3a/1x1"
  type: CONVOLUTION
  blobs_lr: 1
  blobs_lr: 2
  weight_decay: 1
  weight_decay: 0
  convolution_param {
    num_output: 64
    kernel_size: 1
    weight_filler {
      type: "xavier"
    }
    bias_filler {
      type: "constant"
    }
  }
}
layers {
  bottom: "inception_3a/1x1"
  top: "inception_3a/1x1/bn"
  name: "inception_3a/1x1/bn"
  type: BN
  blobs_lr: 1
  blobs_lr: 1
  weight_decay: 0
  weight_decay: 0
  bn_param {
    scale_filler {
      type: "constant"
      value: 1
    }
    shift_filler {
      type: "constant"
      value: 0
    }
  }
}
layers {
  bottom: "inception_3a/1x1/bn"
  top: "inception_3a/1x1/bn"
  name: "inception_3a/relu_1x1"
  type: RELU
  relu_param {
    negative_slope: 0.1
  }
}
layers {
  bottom: "pool2/3x3_s2"
  top: "inception_3a/3x3_reduce"
  name: "inception_3a/3x3_reduce"
  type: CONVOLUTION
  blobs_lr: 1
  blobs_lr: 2
  weight_decay: 1
  weight_decay: 0
  convolution_param {
    num_output: 96
    kernel_size: 1
    weight_filler {
      type: "xavier"
    }
    bias_filler {
      type: "constant"
    }
  }
}
layers {
  bottom: "inception_3a/3x3_reduce"
  top: "inception_3a/3x3_reduce/bn"
  name: "inception_3a/3x3_reduce/bn"
  type: BN
  blobs_lr: 1
  blobs_lr: 1
  weight_decay: 0
  weight_decay: 0
  bn_param {
    scale_filler {
      type: "constant"
      value: 1
    }
    shift_filler {
      type: "constant"
      value: 0
    }
  }
}
layers {
  bottom: "inception_3a/3x3_reduce/bn"
  top: "inception_3a/3x3_reduce/bn"
  name: "inception_3a/relu_3x3_reduce"
  type: RELU
  relu_param {
    negative_slope: 0.1
  }
}
layers {
  bottom: "inception_3a/3x3_reduce/bn"
  top: "inception_3a/3x3"
  name: "inception_3a/3x3"
  type: CONVOLUTION
  blobs_lr: 1
  blobs_lr: 2
  weight_decay: 1
  weight_decay: 0
  convolution_param {
    num_output: 128
    pad: 1
    kernel_size: 3
    weight_filler {
      type: "xavier"
    }
    bias_filler {
      type: "constant"
    }
  }
}
layers {
  bottom: "inception_3a/3x3"
  top: "inception_3a/3x3/bn"
  name: "inception_3a/3x3/bn"
  type: BN
  blobs_lr: 1
  blobs_lr: 1
  weight_decay: 0
  weight_decay: 0
  bn_param {
    scale_filler {
      type: "constant"
      value: 1
    }
    shift_filler {
      type: "constant"
      value: 0
    }
  }
}
layers {
  bottom: "inception_3a/3x3/bn"
  top: "inception_3a/3x3/bn"
  name: "inception_3a/relu_3x3"
  type: RELU
  relu_param {
    negative_slope: 0.1
  }
}
layers {
  bottom: "pool2/3x3_s2"
  top: "inception_3a/5x5_reduce"
  name: "inception_3a/5x5_reduce"
  type: CONVOLUTION
  blobs_lr: 1
  blobs_lr: 2
  weight_decay: 1
  weight_decay: 0
  convolution_param {
    num_output: 16
    kernel_size: 1
    weight_filler {
      type: "xavier"
    }
    bias_filler {
      type: "constant"
    }
  }
}
layers {
  bottom: "inception_3a/5x5_reduce"
  top: "inception_3a/5x5_reduce/bn"
  name: "inception_3a/5x5_reduce/bn"
  type: BN
  blobs_lr: 1
  blobs_lr: 1
  weight_decay: 0
  weight_decay: 0
  bn_param {
    scale_filler {
      type: "constant"
      value: 1
    }
    shift_filler {
      type: "constant"
      value: 0
    }
  }
}
layers {
  bottom: "inception_3a/5x5_reduce/bn"
  top: "inception_3a/5x5_reduce/bn"
  name: "inception_3a/relu_5x5_reduce"
  type: RELU
  relu_param {
    negative_slope: 0.1
  }
}
layers {
  bottom: "inception_3a/5x5_reduce/bn"
  top: "inception_3a/5x5"
  name: "inception_3a/5x5"
  type: CONVOLUTION
  blobs_lr: 1
  blobs_lr: 2
  weight_decay: 1
  weight_decay: 0
  convolution_param {
    num_output: 32
    pad: 2
    kernel_size: 5
    weight_filler {
      type: "xavier"
    }
    bias_filler {
      type: "constant"
    }
  }
}
layers {
  bottom: "inception_3a/5x5"
  top: "inception_3a/5x5/bn"
  name: "inception_3a/5x5/bn"
  type: BN
  blobs_lr: 1
  blobs_lr: 1
  weight_decay: 0
  weight_decay: 0
  bn_param {
    scale_filler {
      type: "constant"
      value: 1
    }
    shift_filler {
      type: "constant"
      value: 0
    }
  }
}
layers {
  bottom: "inception_3a/5x5/bn"
  top: "inception_3a/5x5/bn"
  name: "inception_3a/relu_5x5"
  type: RELU
  relu_param {
    negative_slope: 0.1
  }
}
layers {
  bottom: "pool2/3x3_s2"
  top: "inception_3a/pool"
  name: "inception_3a/pool"
  type: POOLING
  pooling_param {
    pool: MAX
    kernel_size: 3
    stride: 1
    pad: 1
  }
}
layers {
  bottom: "inception_3a/pool"
  top: "inception_3a/pool_proj"
  name: "inception_3a/pool_proj"
  type: CONVOLUTION
  blobs_lr: 1
  blobs_lr: 2
  weight_decay: 1
  weight_decay: 0
  convolution_param {
    num_output: 32
    kernel_size: 1
    weight_filler {
      type: "xavier"
    }
    bias_filler {
      type: "constant"
    }
  }
}
layers {
  bottom: "inception_3a/pool_proj"
  top: "inception_3a/pool_proj/bn"
  name: "inception_3a/pool_proj/bn"
  type: BN
  blobs_lr: 1
  blobs_lr: 1
  weight_decay: 0
  weight_decay: 0
  bn_param {
    scale_filler {
      type: "constant"
      value: 1
    }
    shift_filler {
      type: "constant"
      value: 0
    }
  }
}
layers {
  bottom: "inception_3a/pool_proj/bn"
  top: "inception_3a/pool_proj/bn"
  name: "inception_3a/relu_pool_proj"
  type: RELU
  relu_param {
    negative_slope: 0.1
  }
}
layers {
  bottom: "inception_3a/1x1/bn"
  bottom: "inception_3a/3x3/bn"
  bottom: "inception_3a/5x5/bn"
  bottom: "inception_3a/pool_proj/bn"
  top: "inception_3a/output"
  name: "inception_3a/output"
  type: CONCAT
}
layers {
  bottom: "inception_3a/output"
  top: "inception_3b/1x1"
  name: "inception_3b/1x1"
  type: CONVOLUTION
  blobs_lr: 1
  blobs_lr: 2
  weight_decay: 1
  weight_decay: 0
  convolution_param {
    num_output: 128
    kernel_size: 1
    weight_filler {
      type: "xavier"
    }
    bias_filler {
      type: "constant"
    }
  }
}
layers {
  bottom: "inception_3b/1x1"
  top: "inception_3b/1x1/bn"
  name: "inception_3b/1x1/bn"
  type: BN
  blobs_lr: 1
  blobs_lr: 1
  weight_decay: 0
  weight_decay: 0
  bn_param {
    scale_filler {
      type: "constant"
      value: 1
    }
    shift_filler {
      type: "constant"
      value: 0
    }
  }
}
layers {
  bottom: "inception_3b/1x1/bn"
  top: "inception_3b/1x1/bn"
  name: "inception_3b/relu_1x1"
  type: RELU
  relu_param {
    negative_slope: 0.1
  }
}
layers {
  bottom: "inception_3a/output"
  top: "inception_3b/3x3_reduce"
  name: "inception_3b/3x3_reduce"
  type: CONVOLUTION
  blobs_lr: 1
  blobs_lr: 2
  weight_decay: 1
  weight_decay: 0
  convolution_param {
    num_output: 128
    kernel_size: 1
    weight_filler {
      type: "xavier"
    }
    bias_filler {
      type: "constant"
    }
  }
}
layers {
  bottom: "inception_3b/3x3_reduce"
  top: "inception_3b/3x3_reduce/bn"
  name: "inception_3b/3x3_reduce/bn"
  type: BN
  blobs_lr: 1
  blobs_lr: 1
  weight_decay: 0
  weight_decay: 0
  bn_param {
    scale_filler {
      type: "constant"
      value: 1
    }
    shift_filler {
      type: "constant"
      value: 0
    }
  }
}
layers {
  bottom: "inception_3b/3x3_reduce/bn"
  top: "inception_3b/3x3_reduce/bn"
  name: "inception_3b/relu_3x3_reduce"
  type: RELU
  relu_param {
    negative_slope: 0.1
  }
}
layers {
  bottom: "inception_3b/3x3_reduce/bn"
  top: "inception_3b/3x3"
  name: "inception_3b/3x3"
  type: CONVOLUTION
  blobs_lr: 1
  blobs_lr: 2
  weight_decay: 1
  weight_decay: 0
  convolution_param {
    num_output: 192
    pad: 1
    kernel_size: 3
    weight_filler {
      type: "xavier"
    }
    bias_filler {
      type: "constant"
    }
  }
}
layers {
  bottom: "inception_3b/3x3"
  top: "inception_3b/3x3/bn"
  name: "inception_3b/3x3/bn"
  type: BN
  blobs_lr: 1
  blobs_lr: 1
  weight_decay: 0
  weight_decay: 0
  bn_param {
    scale_filler {
      type: "constant"
      value: 1
    }
    shift_filler {
      type: "constant"
      value: 0
    }
  }
}
layers {
  bottom: "inception_3b/3x3/bn"
  top: "inception_3b/3x3/bn"
  name: "inception_3b/relu_3x3"
  type: RELU
  relu_param {
    negative_slope: 0.1
  }
}
layers {
  bottom: "inception_3a/output"
  top: "inception_3b/5x5_reduce"
  name: "inception_3b/5x5_reduce"
  type: CONVOLUTION
  blobs_lr: 1
  blobs_lr: 2
  weight_decay: 1
  weight_decay: 0
  convolution_param {
    num_output: 32
    kernel_size: 1
    weight_filler {
      type: "xavier"
    }
    bias_filler {
      type: "constant"
    }
  }
}
layers {
  bottom: "inception_3b/5x5_reduce"
  top: "inception_3b/5x5_reduce/bn"
  name: "inception_3b/5x5_reduce/bn"
  type: BN
  blobs_lr: 1
  blobs_lr: 1
  weight_decay: 0
  weight_decay: 0
  bn_param {
    scale_filler {
      type: "constant"
      value: 1
    }
    shift_filler {
      type: "constant"
      value: 0
    }
  }
}
layers {
  bottom: "inception_3b/5x5_reduce/bn"
  top: "inception_3b/5x5_reduce/bn"
  name: "inception_3b/relu_5x5_reduce"
  type: RELU
  relu_param {
    negative_slope: 0.1
  }
}
layers {
  bottom: "inception_3b/5x5_reduce/bn"
  top: "inception_3b/5x5"
  name: "inception_3b/5x5"
  type: CONVOLUTION
  blobs_lr: 1
  blobs_lr: 2
  weight_decay: 1
  weight_decay: 0
  convolution_param {
    num_output: 96
    pad: 2
    kernel_size: 5
    weight_filler {
      type: "xavier"
    }
    bias_filler {
      type: "constant"
    }
  }
}
layers {
  bottom: "inception_3b/5x5"
  top: "inception_3b/5x5/bn"
  name: "inception_3b/5x5/bn"
  type: BN
  blobs_lr: 1
  blobs_lr: 1
  weight_decay: 0
  weight_decay: 0
  bn_param {
    scale_filler {
      type: "constant"
      value: 1
    }
    shift_filler {
      type: "constant"
      value: 0
    }
  }
}
layers {
  bottom: "inception_3b/5x5/bn"
  top: "inception_3b/5x5/bn"
  name: "inception_3b/relu_5x5"
  type: RELU
  relu_param {
    negative_slope: 0.1
  }
}
layers {
  bottom: "inception_3a/output"
  top: "inception_3b/pool"
  name: "inception_3b/pool"
  type: POOLING
  pooling_param {
    pool: MAX
    kernel_size: 3
    stride: 1
    pad: 1
  }
}
layers {
  bottom: "inception_3b/pool"
  top: "inception_3b/pool_proj"
  name: "inception_3b/pool_proj"
  type: CONVOLUTION
  blobs_lr: 1
  blobs_lr: 2
  weight_decay: 1
  weight_decay: 0
  convolution_param {
    num_output: 64
    kernel_size: 1
    weight_filler {
      type: "xavier"
    }
    bias_filler {
      type: "constant"
    }
  }
}
layers {
  bottom: "inception_3b/pool_proj"
  top: "inception_3b/pool_proj/bn"
  name: "inception_3b/pool_proj/bn"
  type: BN
  blobs_lr: 1
  blobs_lr: 1
  weight_decay: 0
  weight_decay: 0
  bn_param {
    scale_filler {
      type: "constant"
      value: 1
    }
    shift_filler {
      type: "constant"
      value: 0
    }
  }
}
layers {
  bottom: "inception_3b/pool_proj/bn"
  top: "inception_3b/pool_proj/bn"
  name: "inception_3b/relu_pool_proj"
  type: RELU
  relu_param {
    negative_slope: 0.1
  }
}
layers {
  bottom: "inception_3b/1x1/bn"
  bottom: "inception_3b/3x3/bn"
  bottom: "inception_3b/5x5/bn"
  bottom: "inception_3b/pool_proj/bn"
  top: "inception_3b/output"
  name: "inception_3b/output"
  type: CONCAT
}
layers {
  bottom: "inception_3b/output"
  top: "pool3/3x3_s2"
  name: "pool3/3x3_s2"
  type: POOLING
  pooling_param {
    pool: MAX
    kernel_size: 3
    stride: 2
  }
}
layers {
  bottom: "pool3/3x3_s2"
  top: "inception_4a/1x1"
  name: "inception_4a/1x1"
  type: CONVOLUTION
  blobs_lr: 1
  blobs_lr: 2
  weight_decay: 1
  weight_decay: 0
  convolution_param {
    num_output: 192
    kernel_size: 1
    weight_filler {
      type: "xavier"
    }
    bias_filler {
      type: "constant"
    }
  }
}
layers {
  bottom: "inception_4a/1x1"
  top: "inception_4a/1x1/bn"
  name: "inception_4a/1x1/bn"
  type: BN
  blobs_lr: 1
  blobs_lr: 1
  weight_decay: 0
  weight_decay: 0
  bn_param {
    scale_filler {
      type: "constant"
      value: 1
    }
    shift_filler {
      type: "constant"
      value: 0
    }
  }
}
layers {
  bottom: "inception_4a/1x1/bn"
  top: "inception_4a/1x1/bn"
  name: "inception_4a/relu_1x1"
  type: RELU
  relu_param {
    negative_slope: 0.1
  }
}
layers {
  bottom: "pool3/3x3_s2"
  top: "inception_4a/3x3_reduce"
  name: "inception_4a/3x3_reduce"
  type: CONVOLUTION
  blobs_lr: 1
  blobs_lr: 2
  weight_decay: 1
  weight_decay: 0
  convolution_param {
    num_output: 96
    kernel_size: 1
    weight_filler {
      type: "xavier"
    }
    bias_filler {
      type: "constant"
    }
  }
}
layers {
  bottom: "inception_4a/3x3_reduce"
  top: "inception_4a/3x3_reduce/bn"
  name: "inception_4a/3x3_reduce/bn"
  type: BN
  blobs_lr: 1
  blobs_lr: 1
  weight_decay: 0
  weight_decay: 0
  bn_param {
    scale_filler {
      type: "constant"
      value: 1
    }
    shift_filler {
      type: "constant"
      value: 0
    }
  }
}
layers {
  bottom: "inception_4a/3x3_reduce/bn"
  top: "inception_4a/3x3_reduce/bn"
  name: "inception_4a/relu_3x3_reduce"
  type: RELU
  relu_param {
    negative_slope: 0.1
  }
}
layers {
  bottom: "inception_4a/3x3_reduce/bn"
  top: "inception_4a/3x3"
  name: "inception_4a/3x3"
  type: CONVOLUTION
  blobs_lr: 1
  blobs_lr: 2
  weight_decay: 1
  weight_decay: 0
  convolution_param {
    num_output: 208
    pad: 1
    kernel_size: 3
    weight_filler {
      type: "xavier"
    }
    bias_filler {
      type: "constant"
    }
  }
}
layers {
  bottom: "inception_4a/3x3"
  top: "inception_4a/3x3/bn"
  name: "inception_4a/3x3/bn"
  type: BN
  blobs_lr: 1
  blobs_lr: 1
  weight_decay: 0
  weight_decay: 0
  bn_param {
    scale_filler {
      type: "constant"
      value: 1
    }
    shift_filler {
      type: "constant"
      value: 0
    }
  }
}
layers {
  bottom: "inception_4a/3x3/bn"
  top: "inception_4a/3x3/bn"
  name: "inception_4a/relu_3x3"
  type: RELU
  relu_param {
    negative_slope: 0.1
  }
}
layers {
  bottom: "pool3/3x3_s2"
  top: "inception_4a/5x5_reduce"
  name: "inception_4a/5x5_reduce"
  type: CONVOLUTION
  blobs_lr: 1
  blobs_lr: 2
  weight_decay: 1
  weight_decay: 0
  convolution_param {
    num_output: 16
    kernel_size: 1
    weight_filler {
      type: "xavier"
    }
    bias_filler {
      type: "constant"
    }
  }
}
layers {
  bottom: "inception_4a/5x5_reduce"
  top: "inception_4a/5x5_reduce/bn"
  name: "inception_4a/5x5_reduce/bn"
  type: BN
  blobs_lr: 1
  blobs_lr: 1
  weight_decay: 0
  weight_decay: 0
  bn_param {
    scale_filler {
      type: "constant"
      value: 1
    }
    shift_filler {
      type: "constant"
      value: 0
    }
  }
}
layers {
  bottom: "inception_4a/5x5_reduce/bn"
  top: "inception_4a/5x5_reduce/bn"
  name: "inception_4a/relu_5x5_reduce"
  type: RELU
  relu_param {
    negative_slope: 0.1
  }
}
layers {
  bottom: "inception_4a/5x5_reduce/bn"
  top: "inception_4a/5x5"
  name: "inception_4a/5x5"
  type: CONVOLUTION
  blobs_lr: 1
  blobs_lr: 2
  weight_decay: 1
  weight_decay: 0
  convolution_param {
    num_output: 48
    pad: 2
    kernel_size: 5
    weight_filler {
      type: "xavier"
    }
    bias_filler {
      type: "constant"
    }
  }
}
layers {
  bottom: "inception_4a/5x5"
  top: "inception_4a/5x5/bn"
  name: "inception_4a/5x5/bn"
  type: BN
  blobs_lr: 1
  blobs_lr: 1
  weight_decay: 0
  weight_decay: 0
  bn_param {
    scale_filler {
      type: "constant"
      value: 1
    }
    shift_filler {
      type: "constant"
      value: 0
    }
  }
}
layers {
  bottom: "inception_4a/5x5/bn"
  top: "inception_4a/5x5/bn"
  name: "inception_4a/relu_5x5"
  type: RELU
  relu_param {
    negative_slope: 0.1
  }
}
layers {
  bottom: "pool3/3x3_s2"
  top: "inception_4a/pool"
  name: "inception_4a/pool"
  type: POOLING
  pooling_param {
    pool: MAX
    kernel_size: 3
    stride: 1
    pad: 1
  }
}
layers {
  bottom: "inception_4a/pool"
  top: "inception_4a/pool_proj"
  name: "inception_4a/pool_proj"
  type: CONVOLUTION
  blobs_lr: 1
  blobs_lr: 2
  weight_decay: 1
  weight_decay: 0
  convolution_param {
    num_output: 64
    kernel_size: 1
    weight_filler {
      type: "xavier"
    }
    bias_filler {
      type: "constant"
    }
  }
}
layers {
  bottom: "inception_4a/pool_proj"
  top: "inception_4a/pool_proj/bn"
  name: "inception_4a/pool_proj/bn"
  type: BN
  blobs_lr: 1
  blobs_lr: 1
  weight_decay: 0
  weight_decay: 0
  bn_param {
    scale_filler {
      type: "constant"
      value: 1
    }
    shift_filler {
      type: "constant"
      value: 0
    }
  }
}
layers {
  bottom: "inception_4a/pool_proj/bn"
  top: "inception_4a/pool_proj/bn"
  name: "inception_4a/relu_pool_proj"
  type: RELU
  relu_param {
    negative_slope: 0.1
  }
}
layers {
  bottom: "inception_4a/1x1/bn"
  bottom: "inception_4a/3x3/bn"
  bottom: "inception_4a/5x5/bn"
  bottom: "inception_4a/pool_proj/bn"
  top: "inception_4a/output"
  name: "inception_4a/output"
  type: CONCAT
}
layers {
  bottom: "inception_4a/output"
  top: "loss1/ave_pool"
  name: "loss1/ave_pool"
  type: POOLING
  pooling_param {
    pool: AVE
    kernel_size: 5
    stride: 3
  }
}
layers {
  bottom: "loss1/ave_pool"
  top: "loss1/conv"
  name: "loss1/conv"
  type: CONVOLUTION
  blobs_lr: 1
  blobs_lr: 2
  weight_decay: 1
  weight_decay: 0
  convolution_param {
    num_output: 128
    kernel_size: 1
    weight_filler {
      type: "xavier"
    }
    bias_filler {
      type: "constant"
    }
  }
}
layers {
  bottom: "loss1/conv"
  top: "loss1/conv/bn"
  name: "loss1/conv/bn"
  type: BN
  blobs_lr: 1
  blobs_lr: 1
  weight_decay: 0
  weight_decay: 0
  bn_param {
    scale_filler {
      type: "constant"
      value: 1
    }
    shift_filler {
      type: "constant"
      value: 0
    }
  }
}
layers {
  bottom: "loss1/conv/bn"
  top: "loss1/conv/bn"
  name: "loss1/relu_conv"
  type: RELU
  relu_param {
    negative_slope: 0.1
  }
}
layers {
  bottom: "loss1/conv/bn"
  top: "loss1/fc"
  name: "loss1/fc"
  type: INNER_PRODUCT
  blobs_lr: 1
  blobs_lr: 2
  weight_decay: 1
  weight_decay: 0
  inner_product_param {
    num_output: 1024
    weight_filler {
      type: "xavier"
    }
    bias_filler {
      type: "constant"
    }
  }
}
layers {
  bottom: "loss1/fc"
  top: "loss1/fc/bn"
  name: "loss1/fc/bn"
  type: BN
  blobs_lr: 1
  blobs_lr: 1
  weight_decay: 0
  weight_decay: 0
  bn_param {
    scale_filler {
      type: "constant"
      value: 1
    }
    shift_filler {
      type: "constant"
      value: 0
    }
  }
}
layers {
  bottom: "loss1/fc/bn"
  top: "loss1/fc/bn"
  name: "loss1/relu_fc"
  type: RELU
  relu_param {
    negative_slope: 0.1
  }
}
layers {
  bottom: "loss1/fc/bn"
  top: "loss1/fc/bn"
  name: "loss1/drop_fc"
  type: DROPOUT
  dropout_param {
    dropout_ratio: 0.7
  }
}
layers {
  bottom: "loss1/fc/bn"
  top: "loss1/classifier"
  name: "loss1/classifier"
  type: INNER_PRODUCT
  blobs_lr: 1
  blobs_lr: 2
  weight_decay: 1
  weight_decay: 0
  inner_product_param {
    num_output: 121
    weight_filler {
      type: "xavier"
    }
    bias_filler {
      type: "constant"
    }
  }
}
layers {
  bottom: "loss1/classifier"
  bottom: "label"
  top: "loss1/loss"
  name: "loss1/loss"
  type: SOFTMAX_LOSS
  loss_weight: 0.05
}
layers {
  bottom: "inception_4a/output"
  top: "inception_4b/1x1"
  name: "inception_4b/1x1"
  type: CONVOLUTION
  blobs_lr: 1
  blobs_lr: 2
  weight_decay: 1
  weight_decay: 0
  convolution_param {
    num_output: 160
    kernel_size: 1
    weight_filler {
      type: "xavier"
    }
    bias_filler {
      type: "constant"
    }
  }
}
layers {
  bottom: "inception_4b/1x1"
  top: "inception_4b/1x1/bn"
  name: "inception_4b/1x1/bn"
  type: BN
  blobs_lr: 1
  blobs_lr: 1
  weight_decay: 0
  weight_decay: 0
  bn_param {
    scale_filler {
      type: "constant"
      value: 1
    }
    shift_filler {
      type: "constant"
      value: 0
    }
  }
}
layers {
  bottom: "inception_4b/1x1/bn"
  top: "inception_4b/1x1/bn"
  name: "inception_4b/relu_1x1"
  type: RELU
  relu_param {
    negative_slope: 0.1
  }
}
layers {
  bottom: "inception_4a/output"
  top: "inception_4b/3x3_reduce"
  name: "inception_4b/3x3_reduce"
  type: CONVOLUTION
  blobs_lr: 1
  blobs_lr: 2
  weight_decay: 1
  weight_decay: 0
  convolution_param {
    num_output: 112
    kernel_size: 1
    weight_filler {
      type: "xavier"
    }
    bias_filler {
      type: "constant"
    }
  }
}
layers {
  bottom: "inception_4b/3x3_reduce"
  top: "inception_4b/3x3_reduce/bn"
  name: "inception_4b/3x3_reduce/bn"
  type: BN
  blobs_lr: 1
  blobs_lr: 1
  weight_decay: 0
  weight_decay: 0
  bn_param {
    scale_filler {
      type: "constant"
      value: 1
    }
    shift_filler {
      type: "constant"
      value: 0
    }
  }
}
layers {
  bottom: "inception_4b/3x3_reduce/bn"
  top: "inception_4b/3x3_reduce/bn"
  name: "inception_4b/relu_3x3_reduce"
  type: RELU
  relu_param {
    negative_slope: 0.1
  }
}
layers {
  bottom: "inception_4b/3x3_reduce/bn"
  top: "inception_4b/3x3"
  name: "inception_4b/3x3"
  type: CONVOLUTION
  blobs_lr: 1
  blobs_lr: 2
  weight_decay: 1
  weight_decay: 0
  convolution_param {
    num_output: 224
    pad: 1
    kernel_size: 3
    weight_filler {
      type: "xavier"
    }
    bias_filler {
      type: "constant"
    }
  }
}
layers {
  bottom: "inception_4b/3x3"
  top: "inception_4b/3x3/bn"
  name: "inception_4b/3x3/bn"
  type: BN
  blobs_lr: 1
  blobs_lr: 1
  weight_decay: 0
  weight_decay: 0
  bn_param {
    scale_filler {
      type: "constant"
      value: 1
    }
    shift_filler {
      type: "constant"
      value: 0
    }
  }
}
layers {
  bottom: "inception_4b/3x3/bn"
  top: "inception_4b/3x3/bn"
  name: "inception_4b/relu_3x3"
  type: RELU
  relu_param {
    negative_slope: 0.1
  }
}
layers {
  bottom: "inception_4a/output"
  top: "inception_4b/5x5_reduce"
  name: "inception_4b/5x5_reduce"
  type: CONVOLUTION
  blobs_lr: 1
  blobs_lr: 2
  weight_decay: 1
  weight_decay: 0
  convolution_param {
    num_output: 24
    kernel_size: 1
    weight_filler {
      type: "xavier"
    }
    bias_filler {
      type: "constant"
    }
  }
}
layers {
  bottom: "inception_4b/5x5_reduce"
  top: "inception_4b/5x5_reduce/bn"
  name: "inception_4b/5x5_reduce/bn"
  type: BN
  blobs_lr: 1
  blobs_lr: 1
  weight_decay: 0
  weight_decay: 0
  bn_param {
    scale_filler {
      type: "constant"
      value: 1
    }
    shift_filler {
      type: "constant"
      value: 0
    }
  }
}
layers {
  bottom: "inception_4b/5x5_reduce/bn"
  top: "inception_4b/5x5_reduce/bn"
  name: "inception_4b/relu_5x5_reduce"
  type: RELU
  relu_param {
    negative_slope: 0.1
  }
}
layers {
  bottom: "inception_4b/5x5_reduce/bn"
  top: "inception_4b/5x5"
  name: "inception_4b/5x5"
  type: CONVOLUTION
  blobs_lr: 1
  blobs_lr: 2
  weight_decay: 1
  weight_decay: 0
  convolution_param {
    num_output: 64
    pad: 2
    kernel_size: 5
    weight_filler {
      type: "xavier"
    }
    bias_filler {
      type: "constant"
    }
  }
}
layers {
  bottom: "inception_4b/5x5"
  top: "inception_4b/5x5/bn"
  name: "inception_4b/5x5/bn"
  type: BN
  blobs_lr: 1
  blobs_lr: 1
  weight_decay: 0
  weight_decay: 0
  bn_param {
    scale_filler {
      type: "constant"
      value: 1
    }
    shift_filler {
      type: "constant"
      value: 0
    }
  }
}
layers {
  bottom: "inception_4b/5x5/bn"
  top: "inception_4b/5x5/bn"
  name: "inception_4b/relu_5x5"
  type: RELU
  relu_param {
    negative_slope: 0.1
  }
}
layers {
  bottom: "inception_4a/output"
  top: "inception_4b/pool"
  name: "inception_4b/pool"
  type: POOLING
  pooling_param {
    pool: MAX
    kernel_size: 3
    stride: 1
    pad: 1
  }
}
layers {
  bottom: "inception_4b/pool"
  top: "inception_4b/pool_proj"
  name: "inception_4b/pool_proj"
  type: CONVOLUTION
  blobs_lr: 1
  blobs_lr: 2
  weight_decay: 1
  weight_decay: 0
  convolution_param {
    num_output: 64
    kernel_size: 1
    weight_filler {
      type: "xavier"
    }
    bias_filler {
      type: "constant"
    }
  }
}
layers {
  bottom: "inception_4b/pool_proj"
  top: "inception_4b/pool_proj/bn"
  name: "inception_4b/pool_proj/bn"
  type: BN
  blobs_lr: 1
  blobs_lr: 1
  weight_decay: 0
  weight_decay: 0
  bn_param {
    scale_filler {
      type: "constant"
      value: 1
    }
    shift_filler {
      type: "constant"
      value: 0
    }
  }
}
layers {
  bottom: "inception_4b/pool_proj/bn"
  top: "inception_4b/pool_proj/bn"
  name: "inception_4b/relu_pool_proj"
  type: RELU
  relu_param {
    negative_slope: 0.1
  }
}
layers {
  bottom: "inception_4b/1x1/bn"
  bottom: "inception_4b/3x3/bn"
  bottom: "inception_4b/5x5/bn"
  bottom: "inception_4b/pool_proj/bn"
  top: "inception_4b/output"
  name: "inception_4b/output"
  type: CONCAT
}
layers {
  bottom: "inception_4b/output"
  top: "inception_4c/1x1"
  name: "inception_4c/1x1"
  type: CONVOLUTION
  blobs_lr: 1
  blobs_lr: 2
  weight_decay: 1
  weight_decay: 0
  convolution_param {
    num_output: 128
    kernel_size: 1
    weight_filler {
      type: "xavier"
    }
    bias_filler {
      type: "constant"
    }
  }
}
layers {
  bottom: "inception_4c/1x1"
  top: "inception_4c/1x1/bn"
  name: "inception_4c/1x1/bn"
  type: BN
  blobs_lr: 1
  blobs_lr: 1
  weight_decay: 0
  weight_decay: 0
  bn_param {
    scale_filler {
      type: "constant"
      value: 1
    }
    shift_filler {
      type: "constant"
      value: 0
    }
  }
}
layers {
  bottom: "inception_4c/1x1/bn"
  top: "inception_4c/1x1/bn"
  name: "inception_4c/relu_1x1"
  type: RELU
  relu_param {
    negative_slope: 0.1
  }
}
layers {
  bottom: "inception_4b/output"
  top: "inception_4c/3x3_reduce"
  name: "inception_4c/3x3_reduce"
  type: CONVOLUTION
  blobs_lr: 1
  blobs_lr: 2
  weight_decay: 1
  weight_decay: 0
  convolution_param {
    num_output: 128
    kernel_size: 1
    weight_filler {
      type: "xavier"
    }
    bias_filler {
      type: "constant"
    }
  }
}
layers {
  bottom: "inception_4c/3x3_reduce"
  top: "inception_4c/3x3_reduce/bn"
  name: "inception_4c/3x3_reduce/bn"
  type: BN
  
I0312 19:26:53.949414 17161 layer_factory.hpp:78] Creating layer data
I0312 19:26:53.949450 17161 data_transformer.cpp:24] Loading mean file from/media/data/kaggle/nationalDataScienceBowl/data/typeF/train_mean.binaryproto
I0312 19:26:53.949651 17161 net.cpp:68] Creating Layer data
I0312 19:26:53.949678 17161 net.cpp:357] data -> data
I0312 19:26:53.949710 17161 net.cpp:357] data -> label
I0312 19:26:53.949731 17161 net.cpp:97] Setting up data
I0312 19:26:53.949749 17161 image_data_affine_layer.cpp:37] Opening file /media/data/kaggle/nationalDataScienceBowl/data/typeF/train.txt
I0312 19:26:53.963258 17161 image_data_affine_layer.cpp:47] Shuffling data
I0312 19:26:53.965910 17161 image_data_affine_layer.cpp:52] A total of 27302 images.
I0312 19:26:53.968047 17161 image_data_affine_layer.cpp:81] output data size: 96,1,96,96
I0312 19:26:53.969456 17161 net.cpp:104] Top shape: 96 1 96 96 (884736)
I0312 19:26:53.969490 17161 net.cpp:104] Top shape: 96 1 1 1 (96)
I0312 19:26:53.969506 17161 layer_factory.hpp:78] Creating layer label_data_1_split
I0312 19:26:53.969530 17161 net.cpp:68] Creating Layer label_data_1_split
I0312 19:26:53.969547 17161 net.cpp:395] label_data_1_split <- label
I0312 19:26:53.969574 17161 net.cpp:357] label_data_1_split -> label_data_1_split_0
I0312 19:26:53.969596 17161 net.cpp:357] label_data_1_split -> label_data_1_split_1
I0312 19:26:53.969614 17161 net.cpp:357] label_data_1_split -> label_data_1_split_2
I0312 19:26:53.969630 17161 net.cpp:97] Setting up label_data_1_split
I0312 19:26:53.969650 17161 net.cpp:104] Top shape: 96 1 1 1 (96)
I0312 19:26:53.969662 17161 net.cpp:104] Top shape: 96 1 1 1 (96)
I0312 19:26:53.969712 17161 net.cpp:104] Top shape: 96 1 1 1 (96)
I0312 19:26:53.969725 17161 layer_factory.hpp:78] Creating layer conv1/7x7_s2
I0312 19:26:53.969746 17161 net.cpp:68] Creating Layer conv1/7x7_s2
I0312 19:26:53.969760 17161 net.cpp:395] conv1/7x7_s2 <- data
I0312 19:26:53.969776 17161 net.cpp:357] conv1/7x7_s2 -> conv1/7x7_s2
I0312 19:26:53.969794 17161 net.cpp:97] Setting up conv1/7x7_s2
I0312 19:26:54.007908 17161 net.cpp:104] Top shape: 96 256 47 47 (54288384)
I0312 19:26:54.007987 17161 layer_factory.hpp:78] Creating layer conv1/7x7_s2/bn
I0312 19:26:54.008018 17161 net.cpp:68] Creating Layer conv1/7x7_s2/bn
I0312 19:26:54.008036 17161 net.cpp:395] conv1/7x7_s2/bn <- conv1/7x7_s2
I0312 19:26:54.008054 17161 net.cpp:357] conv1/7x7_s2/bn -> conv1/7x7_s2/bn
I0312 19:26:54.008077 17161 net.cpp:97] Setting up conv1/7x7_s2/bn
I0312 19:26:54.008118 17161 net.cpp:104] Top shape: 96 256 47 47 (54288384)
I0312 19:26:54.008139 17161 layer_factory.hpp:78] Creating layer conv1/relu_7x7
I0312 19:26:54.008162 17161 net.cpp:68] Creating Layer conv1/relu_7x7
I0312 19:26:54.008174 17161 net.cpp:395] conv1/relu_7x7 <- conv1/7x7_s2/bn
I0312 19:26:54.008191 17161 net.cpp:346] conv1/relu_7x7 -> conv1/7x7_s2/bn (in-place)
I0312 19:26:54.008208 17161 net.cpp:97] Setting up conv1/relu_7x7
I0312 19:26:54.008227 17161 net.cpp:104] Top shape: 96 256 47 47 (54288384)
I0312 19:26:54.008240 17161 layer_factory.hpp:78] Creating layer cccp1/7x7_s2
I0312 19:26:54.008258 17161 net.cpp:68] Creating Layer cccp1/7x7_s2
I0312 19:26:54.008270 17161 net.cpp:395] cccp1/7x7_s2 <- conv1/7x7_s2/bn
I0312 19:26:54.008288 17161 net.cpp:357] cccp1/7x7_s2 -> cccp1/7x7_s2
I0312 19:26:54.008306 17161 net.cpp:97] Setting up cccp1/7x7_s2
I0312 19:26:54.009076 17161 net.cpp:104] Top shape: 96 256 47 47 (54288384)
I0312 19:26:54.009106 17161 layer_factory.hpp:78] Creating layer cccp1/7x7_s2/bn
I0312 19:26:54.009127 17161 net.cpp:68] Creating Layer cccp1/7x7_s2/bn
I0312 19:26:54.009145 17161 net.cpp:395] cccp1/7x7_s2/bn <- cccp1/7x7_s2
I0312 19:26:54.009165 17161 net.cpp:357] cccp1/7x7_s2/bn -> cccp1/7x7_s2/bn
I0312 19:26:54.009182 17161 net.cpp:97] Setting up cccp1/7x7_s2/bn
I0312 19:26:54.009213 17161 net.cpp:104] Top shape: 96 256 47 47 (54288384)
I0312 19:26:54.009230 17161 layer_factory.hpp:78] Creating layer cccp1/7x7_s2/bn/relu
I0312 19:26:54.009245 17161 net.cpp:68] Creating Layer cccp1/7x7_s2/bn/relu
I0312 19:26:54.009258 17161 net.cpp:395] cccp1/7x7_s2/bn/relu <- cccp1/7x7_s2/bn
I0312 19:26:54.009271 17161 net.cpp:346] cccp1/7x7_s2/bn/relu -> cccp1/7x7_s2/bn (in-place)
I0312 19:26:54.009285 17161 net.cpp:97] Setting up cccp1/7x7_s2/bn/relu
I0312 19:26:54.009301 17161 net.cpp:104] Top shape: 96 256 47 47 (54288384)
I0312 19:26:54.009313 17161 layer_factory.hpp:78] Creating layer pool1/3x3_s2
I0312 19:26:54.009336 17161 net.cpp:68] Creating Layer pool1/3x3_s2
I0312 19:26:54.009351 17161 net.cpp:395] pool1/3x3_s2 <- cccp1/7x7_s2/bn
I0312 19:26:54.009366 17161 net.cpp:357] pool1/3x3_s2 -> pool1/3x3_s2
I0312 19:26:54.009383 17161 net.cpp:97] Setting up pool1/3x3_s2
I0312 19:26:54.009424 17161 net.cpp:104] Top shape: 96 256 23 23 (13000704)
I0312 19:26:54.009441 17161 layer_factory.hpp:78] Creating layer conv2/3x3_reduce
I0312 19:26:54.009459 17161 net.cpp:68] Creating Layer conv2/3x3_reduce
I0312 19:26:54.009472 17161 net.cpp:395] conv2/3x3_reduce <- pool1/3x3_s2
I0312 19:26:54.009487 17161 net.cpp:357] conv2/3x3_reduce -> conv2/3x3_reduce
I0312 19:26:54.009502 17161 net.cpp:97] Setting up conv2/3x3_reduce
I0312 19:26:54.009762 17161 net.cpp:104] Top shape: 96 64 23 23 (3250176)
I0312 19:26:54.009791 17161 layer_factory.hpp:78] Creating layer conv2/3x3_reduce/bn
I0312 19:26:54.009809 17161 net.cpp:68] Creating Layer conv2/3x3_reduce/bn
I0312 19:26:54.009824 17161 net.cpp:395] conv2/3x3_reduce/bn <- conv2/3x3_reduce
I0312 19:26:54.009842 17161 net.cpp:357] conv2/3x3_reduce/bn -> conv2/3x3_reduce/bn
I0312 19:26:54.009860 17161 net.cpp:97] Setting up conv2/3x3_reduce/bn
I0312 19:26:54.009882 17161 net.cpp:104] Top shape: 96 64 23 23 (3250176)
I0312 19:26:54.009902 17161 layer_factory.hpp:78] Creating layer conv2/relu_3x3_reduce
I0312 19:26:54.009964 17161 net.cpp:68] Creating Layer conv2/relu_3x3_reduce
I0312 19:26:54.009979 17161 net.cpp:395] conv2/relu_3x3_reduce <- conv2/3x3_reduce/bn
I0312 19:26:54.010001 17161 net.cpp:346] conv2/relu_3x3_reduce -> conv2/3x3_reduce/bn (in-place)
I0312 19:26:54.010016 17161 net.cpp:97] Setting up conv2/relu_3x3_reduce
I0312 19:26:54.010035 17161 net.cpp:104] Top shape: 96 64 23 23 (3250176)
I0312 19:26:54.010047 17161 layer_factory.hpp:78] Creating layer conv2/3x3
I0312 19:26:54.010066 17161 net.cpp:68] Creating Layer conv2/3x3
I0312 19:26:54.010081 17161 net.cpp:395] conv2/3x3 <- conv2/3x3_reduce/bn
I0312 19:26:54.010094 17161 net.cpp:357] conv2/3x3 -> conv2/3x3
I0312 19:26:54.010110 17161 net.cpp:97] Setting up conv2/3x3
I0312 19:26:54.011306 17161 net.cpp:104] Top shape: 96 192 23 23 (9750528)
I0312 19:26:54.011333 17161 layer_factory.hpp:78] Creating layer conv2/3x3/bn
I0312 19:26:54.011353 17161 net.cpp:68] Creating Layer conv2/3x3/bn
I0312 19:26:54.011369 17161 net.cpp:395] conv2/3x3/bn <- conv2/3x3
I0312 19:26:54.011386 17161 net.cpp:357] conv2/3x3/bn -> conv2/3x3/bn
I0312 19:26:54.011402 17161 net.cpp:97] Setting up conv2/3x3/bn
I0312 19:26:54.011427 17161 net.cpp:104] Top shape: 96 192 23 23 (9750528)
I0312 19:26:54.011445 17161 layer_factory.hpp:78] Creating layer conv2/relu_3x3
I0312 19:26:54.011461 17161 net.cpp:68] Creating Layer conv2/relu_3x3
I0312 19:26:54.011474 17161 net.cpp:395] conv2/relu_3x3 <- conv2/3x3/bn
I0312 19:26:54.011487 17161 net.cpp:346] conv2/relu_3x3 -> conv2/3x3/bn (in-place)
I0312 19:26:54.011507 17161 net.cpp:97] Setting up conv2/relu_3x3
I0312 19:26:54.011523 17161 net.cpp:104] Top shape: 96 192 23 23 (9750528)
I0312 19:26:54.011534 17161 layer_factory.hpp:78] Creating layer pool2/3x3_s2
I0312 19:26:54.011554 17161 net.cpp:68] Creating Layer pool2/3x3_s2
I0312 19:26:54.011565 17161 net.cpp:395] pool2/3x3_s2 <- conv2/3x3/bn
I0312 19:26:54.011579 17161 net.cpp:357] pool2/3x3_s2 -> pool2/3x3_s2
I0312 19:26:54.011595 17161 net.cpp:97] Setting up pool2/3x3_s2
I0312 19:26:54.011611 17161 net.cpp:104] Top shape: 96 192 11 11 (2230272)
I0312 19:26:54.011625 17161 layer_factory.hpp:78] Creating layer pool2/3x3_s2_pool2/3x3_s2_0_split
I0312 19:26:54.011641 17161 net.cpp:68] Creating Layer pool2/3x3_s2_pool2/3x3_s2_0_split
I0312 19:26:54.011653 17161 net.cpp:395] pool2/3x3_s2_pool2/3x3_s2_0_split <- pool2/3x3_s2
I0312 19:26:54.011670 17161 net.cpp:357] pool2/3x3_s2_pool2/3x3_s2_0_split -> pool2/3x3_s2_pool2/3x3_s2_0_split_0
I0312 19:26:54.011687 17161 net.cpp:357] pool2/3x3_s2_pool2/3x3_s2_0_split -> pool2/3x3_s2_pool2/3x3_s2_0_split_1
I0312 19:26:54.011704 17161 net.cpp:357] pool2/3x3_s2_pool2/3x3_s2_0_split -> pool2/3x3_s2_pool2/3x3_s2_0_split_2
I0312 19:26:54.011723 17161 net.cpp:357] pool2/3x3_s2_pool2/3x3_s2_0_split -> pool2/3x3_s2_pool2/3x3_s2_0_split_3
I0312 19:26:54.011737 17161 net.cpp:97] Setting up pool2/3x3_s2_pool2/3x3_s2_0_split
I0312 19:26:54.011750 17161 net.cpp:104] Top shape: 96 192 11 11 (2230272)
I0312 19:26:54.011764 17161 net.cpp:104] Top shape: 96 192 11 11 (2230272)
I0312 19:26:54.011777 17161 net.cpp:104] Top shape: 96 192 11 11 (2230272)
I0312 19:26:54.011788 17161 net.cpp:104] Top shape: 96 192 11 11 (2230272)
I0312 19:26:54.011801 17161 layer_factory.hpp:78] Creating layer inception_3a/1x1
I0312 19:26:54.011816 17161 net.cpp:68] Creating Layer inception_3a/1x1
I0312 19:26:54.011827 17161 net.cpp:395] inception_3a/1x1 <- pool2/3x3_s2_pool2/3x3_s2_0_split_0
I0312 19:26:54.011847 17161 net.cpp:357] inception_3a/1x1 -> inception_3a/1x1
I0312 19:26:54.011862 17161 net.cpp:97] Setting up inception_3a/1x1
I0312 19:26:54.012054 17161 net.cpp:104] Top shape: 96 64 11 11 (743424)
I0312 19:26:54.012086 17161 layer_factory.hpp:78] Creating layer inception_3a/1x1/bn
I0312 19:26:54.012104 17161 net.cpp:68] Creating Layer inception_3a/1x1/bn
I0312 19:26:54.012116 17161 net.cpp:395] inception_3a/1x1/bn <- inception_3a/1x1
I0312 19:26:54.012135 17161 net.cpp:357] inception_3a/1x1/bn -> inception_3a/1x1/bn
I0312 19:26:54.012171 17161 net.cpp:97] Setting up inception_3a/1x1/bn
I0312 19:26:54.012193 17161 net.cpp:104] Top shape: 96 64 11 11 (743424)
I0312 19:26:54.012210 17161 layer_factory.hpp:78] Creating layer inception_3a/relu_1x1
I0312 19:26:54.012228 17161 net.cpp:68] Creating Layer inception_3a/relu_1x1
I0312 19:26:54.012240 17161 net.cpp:395] inception_3a/relu_1x1 <- inception_3a/1x1/bn
I0312 19:26:54.012254 17161 net.cpp:346] inception_3a/relu_1x1 -> inception_3a/1x1/bn (in-place)
I0312 19:26:54.012269 17161 net.cpp:97] Setting up inception_3a/relu_1x1
I0312 19:26:54.012284 17161 net.cpp:104] Top shape: 96 64 11 11 (743424)
I0312 19:26:54.012295 17161 layer_factory.hpp:78] Creating layer inception_3a/3x3_reduce
I0312 19:26:54.012313 17161 net.cpp:68] Creating Layer inception_3a/3x3_reduce
I0312 19:26:54.012331 17161 net.cpp:395] inception_3a/3x3_reduce <- pool2/3x3_s2_pool2/3x3_s2_0_split_1
I0312 19:26:54.012347 17161 net.cpp:357] inception_3a/3x3_reduce -> inception_3a/3x3_reduce
I0312 19:26:54.012363 17161 net.cpp:97] Setting up inception_3a/3x3_reduce
I0312 19:26:54.012778 17161 net.cpp:104] Top shape: 96 96 11 11 (1115136)
I0312 19:26:54.012810 17161 layer_factory.hpp:78] Creating layer inception_3a/3x3_reduce/bn
I0312 19:26:54.012828 17161 net.cpp:68] Creating Layer inception_3a/3x3_reduce/bn
I0312 19:26:54.012845 17161 net.cpp:395] inception_3a/3x3_reduce/bn <- inception_3a/3x3_reduce
I0312 19:26:54.012877 17161 net.cpp:357] inception_3a/3x3_reduce/bn -> inception_3a/3x3_reduce/bn
I0312 19:26:54.012897 17161 net.cpp:97] Setting up inception_3a/3x3_reduce/bn
I0312 19:26:54.012923 17161 net.cpp:104] Top shape: 96 96 11 11 (1115136)
I0312 19:26:54.012940 17161 layer_factory.hpp:78] Creating layer inception_3a/relu_3x3_reduce
I0312 19:26:54.012958 17161 net.cpp:68] Creating Layer inception_3a/relu_3x3_reduce
I0312 19:26:54.012970 17161 net.cpp:395] inception_3a/relu_3x3_reduce <- inception_3a/3x3_reduce/bn
I0312 19:26:54.012984 17161 net.cpp:346] inception_3a/relu_3x3_reduce -> inception_3a/3x3_reduce/bn (in-place)
I0312 19:26:54.013000 17161 net.cpp:97] Setting up inception_3a/relu_3x3_reduce
I0312 19:26:54.013015 17161 net.cpp:104] Top shape: 96 96 11 11 (1115136)
I0312 19:26:54.013027 17161 layer_factory.hpp:78] Creating layer inception_3a/3x3
I0312 19:26:54.013046 17161 net.cpp:68] Creating Layer inception_3a/3x3
I0312 19:26:54.013057 17161 net.cpp:395] inception_3a/3x3 <- inception_3a/3x3_reduce/bn
I0312 19:26:54.013072 17161 net.cpp:357] inception_3a/3x3 -> inception_3a/3x3
I0312 19:26:54.013087 17161 net.cpp:97] Setting up inception_3a/3x3
I0312 19:26:54.014272 17161 net.cpp:104] Top shape: 96 128 11 11 (1486848)
I0312 19:26:54.014300 17161 layer_factory.hpp:78] Creating layer inception_3a/3x3/bn
I0312 19:26:54.014320 17161 net.cpp:68] Creating Layer inception_3a/3x3/bn
I0312 19:26:54.014335 17161 net.cpp:395] inception_3a/3x3/bn <- inception_3a/3x3
I0312 19:26:54.014353 17161 net.cpp:357] inception_3a/3x3/bn -> inception_3a/3x3/bn
I0312 19:26:54.014369 17161 net.cpp:97] Setting up inception_3a/3x3/bn
I0312 19:26:54.014391 17161 net.cpp:104] Top shape: 96 128 11 11 (1486848)
I0312 19:26:54.014410 17161 layer_factory.hpp:78] Creating layer inception_3a/relu_3x3
I0312 19:26:54.014425 17161 net.cpp:68] Creating Layer inception_3a/relu_3x3
I0312 19:26:54.014437 17161 net.cpp:395] inception_3a/relu_3x3 <- inception_3a/3x3/bn
I0312 19:26:54.014451 17161 net.cpp:346] inception_3a/relu_3x3 -> inception_3a/3x3/bn (in-place)
I0312 19:26:54.014472 17161 net.cpp:97] Setting up inception_3a/relu_3x3
I0312 19:26:54.014492 17161 net.cpp:104] Top shape: 96 128 11 11 (1486848)
I0312 19:26:54.014506 17161 layer_factory.hpp:78] Creating layer inception_3a/5x5_reduce
I0312 19:26:54.014525 17161 net.cpp:68] Creating Layer inception_3a/5x5_reduce
I0312 19:26:54.014539 17161 net.cpp:395] inception_3a/5x5_reduce <- pool2/3x3_s2_pool2/3x3_s2_0_split_2
I0312 19:26:54.014555 17161 net.cpp:357] inception_3a/5x5_reduce -> inception_3a/5x5_reduce
I0312 19:26:54.014570 17161 net.cpp:97] Setting up inception_3a/5x5_reduce
I0312 19:26:54.014678 17161 net.cpp:104] Top shape: 96 16 11 11 (185856)
I0312 19:26:54.014717 17161 layer_factory.hpp:78] Creating layer inception_3a/5x5_reduce/bn
I0312 19:26:54.014735 17161 net.cpp:68] Creating Layer inception_3a/5x5_reduce/bn
I0312 19:26:54.014747 17161 net.cpp:395] inception_3a/5x5_reduce/bn <- inception_3a/5x5_reduce
I0312 19:26:54.014770 17161 net.cpp:357] inception_3a/5x5_reduce/bn -> inception_3a/5x5_reduce/bn
I0312 19:26:54.014788 17161 net.cpp:97] Setting up inception_3a/5x5_reduce/bn
I0312 19:26:54.014809 17161 net.cpp:104] Top shape: 96 16 11 11 (185856)
I0312 19:26:54.014825 17161 layer_factory.hpp:78] Creating layer inception_3a/relu_5x5_reduce
I0312 19:26:54.014843 17161 net.cpp:68] Creating Layer inception_3a/relu_5x5_reduce
I0312 19:26:54.014857 17161 net.cpp:395] inception_3a/relu_5x5_reduce <- inception_3a/5x5_reduce/bn
I0312 19:26:54.014870 17161 net.cpp:346] inception_3a/relu_5x5_reduce -> inception_3a/5x5_reduce/bn (in-place)
I0312 19:26:54.014884 17161 net.cpp:97] Setting up inception_3a/relu_5x5_reduce
I0312 19:26:54.014899 17161 net.cpp:104] Top shape: 96 16 11 11 (185856)
I0312 19:26:54.014912 17161 layer_factory.hpp:78] Creating layer inception_3a/5x5
I0312 19:26:54.014928 17161 net.cpp:68] Creating Layer inception_3a/5x5
I0312 19:26:54.014941 17161 net.cpp:395] inception_3a/5x5 <- inception_3a/5x5_reduce/bn
I0312 19:26:54.014955 17161 net.cpp:357] inception_3a/5x5 -> inception_3a/5x5
I0312 19:26:54.014971 17161 net.cpp:97] Setting up inception_3a/5x5
I0312 19:26:54.015185 17161 net.cpp:104] Top shape: 96 32 11 11 (371712)
I0312 19:26:54.015215 17161 layer_factory.hpp:78] Creating layer inception_3a/5x5/bn
I0312 19:26:54.015238 17161 net.cpp:68] Creating Layer inception_3a/5x5/bn
I0312 19:26:54.015251 17161 net.cpp:395] inception_3a/5x5/bn <- inception_3a/5x5
I0312 19:26:54.015267 17161 net.cpp:357] inception_3a/5x5/bn -> inception_3a/5x5/bn
I0312 19:26:54.015283 17161 net.cpp:97] Setting up inception_3a/5x5/bn
I0312 19:26:54.015305 17161 net.cpp:104] Top shape: 96 32 11 11 (371712)
I0312 19:26:54.015321 17161 layer_factory.hpp:78] Creating layer inception_3a/relu_5x5
I0312 19:26:54.015337 17161 net.cpp:68] Creating Layer inception_3a/relu_5x5
I0312 19:26:54.015349 17161 net.cpp:395] inception_3a/relu_5x5 <- inception_3a/5x5/bn
I0312 19:26:54.015365 17161 net.cpp:346] inception_3a/relu_5x5 -> inception_3a/5x5/bn (in-place)
I0312 19:26:54.015380 17161 net.cpp:97] Setting up inception_3a/relu_5x5
I0312 19:26:54.015395 17161 net.cpp:104] Top shape: 96 32 11 11 (371712)
I0312 19:26:54.015408 17161 layer_factory.hpp:78] Creating layer inception_3a/pool
I0312 19:26:54.015419 17161 layer_factory.cpp:51] CUDNN does not support padding or multiple tops. Using Caffe's own pooling layer.
I0312 19:26:54.015439 17161 net.cpp:68] Creating Layer inception_3a/pool
I0312 19:26:54.015457 17161 net.cpp:395] inception_3a/pool <- pool2/3x3_s2_pool2/3x3_s2_0_split_3
I0312 19:26:54.015476 17161 net.cpp:357] inception_3a/pool -> inception_3a/pool
I0312 19:26:54.015492 17161 net.cpp:97] Setting up inception_3a/pool
I0312 19:26:54.015506 17161 net.cpp:104] Top shape: 96 192 11 11 (2230272)
I0312 19:26:54.015518 17161 layer_factory.hpp:78] Creating layer inception_3a/pool_proj
I0312 19:26:54.015533 17161 net.cpp:68] Creating Layer inception_3a/pool_proj
I0312 19:26:54.015545 17161 net.cpp:395] inception_3a/pool_proj <- inception_3a/pool
I0312 19:26:54.015563 17161 net.cpp:357] inception_3a/pool_proj -> inception_3a/pool_proj
I0312 19:26:54.015578 17161 net.cpp:97] Setting up inception_3a/pool_proj
I0312 19:26:54.015743 17161 net.cpp:104] Top shape: 96 32 11 11 (371712)
I0312 19:26:54.015769 17161 layer_factory.hpp:78] Creating layer inception_3a/pool_proj/bn
I0312 19:26:54.015787 17161 net.cpp:68] Creating Layer inception_3a/pool_proj/bn
I0312 19:26:54.015801 17161 net.cpp:395] inception_3a/pool_proj/bn <- inception_3a/pool_proj
I0312 19:26:54.015820 17161 net.cpp:357] inception_3a/pool_proj/bn -> inception_3a/pool_proj/bn
I0312 19:26:54.015837 17161 net.cpp:97] Setting up inception_3a/pool_proj/bn
I0312 19:26:54.015858 17161 net.cpp:104] Top shape: 96 32 11 11 (371712)
I0312 19:26:54.015889 17161 layer_factory.hpp:78] Creating layer inception_3a/relu_pool_proj
I0312 19:26:54.015907 17161 net.cpp:68] Creating Layer inception_3a/relu_pool_proj
I0312 19:26:54.015919 17161 net.cpp:395] inception_3a/relu_pool_proj <- inception_3a/pool_proj/bn
I0312 19:26:54.015935 17161 net.cpp:346] inception_3a/relu_pool_proj -> inception_3a/pool_proj/bn (in-place)
I0312 19:26:54.015952 17161 net.cpp:97] Setting up inception_3a/relu_pool_proj
I0312 19:26:54.015969 17161 net.cpp:104] Top shape: 96 32 11 11 (371712)
I0312 19:26:54.015981 17161 layer_factory.hpp:78] Creating layer inception_3a/output
I0312 19:26:54.015998 17161 net.cpp:68] Creating Layer inception_3a/output
I0312 19:26:54.016011 17161 net.cpp:395] inception_3a/output <- inception_3a/1x1/bn
I0312 19:26:54.016026 17161 net.cpp:395] inception_3a/output <- inception_3a/3x3/bn
I0312 19:26:54.016038 17161 net.cpp:395] inception_3a/output <- inception_3a/5x5/bn
I0312 19:26:54.016052 17161 net.cpp:395] inception_3a/output <- inception_3a/pool_proj/bn
I0312 19:26:54.016072 17161 net.cpp:357] inception_3a/output -> inception_3a/output
I0312 19:26:54.016104 17161 net.cpp:97] Setting up inception_3a/output
I0312 19:26:54.016125 17161 net.cpp:104] Top shape: 96 256 11 11 (2973696)
I0312 19:26:54.016139 17161 layer_factory.hpp:78] Creating layer inception_3a/output_inception_3a/output_0_split
I0312 19:26:54.016152 17161 net.cpp:68] Creating Layer inception_3a/output_inception_3a/output_0_split
I0312 19:26:54.016165 17161 net.cpp:395] inception_3a/output_inception_3a/output_0_split <- inception_3a/output
I0312 19:26:54.016182 17161 net.cpp:357] inception_3a/output_inception_3a/output_0_split -> inception_3a/output_inception_3a/output_0_split_0
I0312 19:26:54.016201 17161 net.cpp:357] inception_3a/output_inception_3a/output_0_split -> inception_3a/output_inception_3a/output_0_split_1
I0312 19:26:54.016216 17161 net.cpp:357] inception_3a/output_inception_3a/output_0_split -> inception_3a/output_inception_3a/output_0_split_2
I0312 19:26:54.016233 17161 net.cpp:357] inception_3a/output_inception_3a/output_0_split -> inception_3a/output_inception_3a/output_0_split_3
I0312 19:26:54.016249 17161 net.cpp:97] Setting up inception_3a/output_inception_3a/output_0_split
I0312 19:26:54.016263 17161 net.cpp:104] Top shape: 96 256 11 11 (2973696)
I0312 19:26:54.016276 17161 net.cpp:104] Top shape: 96 256 11 11 (2973696)
I0312 19:26:54.016288 17161 net.cpp:104] Top shape: 96 256 11 11 (2973696)
I0312 19:26:54.016300 17161 net.cpp:104] Top shape: 96 256 11 11 (2973696)
I0312 19:26:54.016311 17161 layer_factory.hpp:78] Creating layer inception_3b/1x1
I0312 19:26:54.016326 17161 net.cpp:68] Creating Layer inception_3b/1x1
I0312 19:26:54.016338 17161 net.cpp:395] inception_3b/1x1 <- inception_3a/output_inception_3a/output_0_split_0
I0312 19:26:54.016357 17161 net.cpp:357] inception_3b/1x1 -> inception_3b/1x1
I0312 19:26:54.016376 17161 net.cpp:97] Setting up inception_3b/1x1
I0312 19:26:54.016945 17161 net.cpp:104] Top shape: 96 128 11 11 (1486848)
I0312 19:26:54.016974 17161 layer_factory.hpp:78] Creating layer inception_3b/1x1/bn
I0312 19:26:54.016994 17161 net.cpp:68] Creating Layer inception_3b/1x1/bn
I0312 19:26:54.017011 17161 net.cpp:395] inception_3b/1x1/bn <- inception_3b/1x1
I0312 19:26:54.017031 17161 net.cpp:357] inception_3b/1x1/bn -> inception_3b/1x1/bn
I0312 19:26:54.017048 17161 net.cpp:97] Setting up inception_3b/1x1/bn
I0312 19:26:54.017071 17161 net.cpp:104] Top shape: 96 128 11 11 (1486848)
I0312 19:26:54.017087 17161 layer_factory.hpp:78] Creating layer inception_3b/relu_1x1
I0312 19:26:54.017102 17161 net.cpp:68] Creating Layer inception_3b/relu_1x1
I0312 19:26:54.017115 17161 net.cpp:395] inception_3b/relu_1x1 <- inception_3b/1x1/bn
I0312 19:26:54.017129 17161 net.cpp:346] inception_3b/relu_1x1 -> inception_3b/1x1/bn (in-place)
I0312 19:26:54.017144 17161 net.cpp:97] Setting up inception_3b/relu_1x1
I0312 19:26:54.017160 17161 net.cpp:104] Top shape: 96 128 11 11 (1486848)
I0312 19:26:54.017173 17161 layer_factory.hpp:78] Creating layer inception_3b/3x3_reduce
I0312 19:26:54.017207 17161 net.cpp:68] Creating Layer inception_3b/3x3_reduce
I0312 19:26:54.017222 17161 net.cpp:395] inception_3b/3x3_reduce <- inception_3a/output_inception_3a/output_0_split_1
I0312 19:26:54.017237 17161 net.cpp:357] inception_3b/3x3_reduce -> inception_3b/3x3_reduce
I0312 19:26:54.017256 17161 net.cpp:97] Setting up inception_3b/3x3_reduce
I0312 19:26:54.017683 17161 net.cpp:104] Top shape: 96 128 11 11 (1486848)
I0312 19:26:54.017714 17161 layer_factory.hpp:78] Creating layer inception_3b/3x3_reduce/bn
I0312 19:26:54.017732 17161 net.cpp:68] Creating Layer inception_3b/3x3_reduce/bn
I0312 19:26:54.017746 17161 net.cpp:395] inception_3b/3x3_reduce/bn <- inception_3b/3x3_reduce
I0312 19:26:54.017765 17161 net.cpp:357] inception_3b/3x3_reduce/bn -> inception_3b/3x3_reduce/bn
I0312 19:26:54.017781 17161 net.cpp:97] Setting up inception_3b/3x3_reduce/bn
I0312 19:26:54.017802 17161 net.cpp:104] Top shape: 96 128 11 11 (1486848)
I0312 19:26:54.017817 17161 layer_factory.hpp:78] Creating layer inception_3b/relu_3x3_reduce
I0312 19:26:54.017834 17161 net.cpp:68] Creating Layer inception_3b/relu_3x3_reduce
I0312 19:26:54.017848 17161 net.cpp:395] inception_3b/relu_3x3_reduce <- inception_3b/3x3_reduce/bn
I0312 19:26:54.017861 17161 net.cpp:346] inception_3b/relu_3x3_reduce -> inception_3b/3x3_reduce/bn (in-place)
I0312 19:26:54.017875 17161 net.cpp:97] Setting up inception_3b/relu_3x3_reduce
I0312 19:26:54.017891 17161 net.cpp:104] Top shape: 96 128 11 11 (1486848)
I0312 19:26:54.017904 17161 layer_factory.hpp:78] Creating layer inception_3b/3x3
I0312 19:26:54.017920 17161 net.cpp:68] Creating Layer inception_3b/3x3
I0312 19:26:54.017936 17161 net.cpp:395] inception_3b/3x3 <- inception_3b/3x3_reduce/bn
I0312 19:26:54.017951 17161 net.cpp:357] inception_3b/3x3 -> inception_3b/3x3
I0312 19:26:54.017966 17161 net.cpp:97] Setting up inception_3b/3x3
I0312 19:26:54.020337 17161 net.cpp:104] Top shape: 96 192 11 11 (2230272)
I0312 19:26:54.020364 17161 layer_factory.hpp:78] Creating layer inception_3b/3x3/bn
I0312 19:26:54.020381 17161 net.cpp:68] Creating Layer inception_3b/3x3/bn
I0312 19:26:54.020395 17161 net.cpp:395] inception_3b/3x3/bn <- inception_3b/3x3
I0312 19:26:54.020409 17161 net.cpp:357] inception_3b/3x3/bn -> inception_3b/3x3/bn
I0312 19:26:54.020426 17161 net.cpp:97] Setting up inception_3b/3x3/bn
I0312 19:26:54.020447 17161 net.cpp:104] Top shape: 96 192 11 11 (2230272)
I0312 19:26:54.020463 17161 layer_factory.hpp:78] Creating layer inception_3b/relu_3x3
I0312 19:26:54.020481 17161 net.cpp:68] Creating Layer inception_3b/relu_3x3
I0312 19:26:54.020494 17161 net.cpp:395] inception_3b/relu_3x3 <- inception_3b/3x3/bn
I0312 19:26:54.020509 17161 net.cpp:346] inception_3b/relu_3x3 -> inception_3b/3x3/bn (in-place)
I0312 19:26:54.020522 17161 net.cpp:97] Setting up inception_3b/relu_3x3
I0312 19:26:54.020537 17161 net.cpp:104] Top shape: 96 192 11 11 (2230272)
I0312 19:26:54.020550 17161 layer_factory.hpp:78] Creating layer inception_3b/5x5_reduce
I0312 19:26:54.020567 17161 net.cpp:68] Creating Layer inception_3b/5x5_reduce
I0312 19:26:54.020581 17161 net.cpp:395] inception_3b/5x5_reduce <- inception_3a/output_inception_3a/output_0_split_2
I0312 19:26:54.020597 17161 net.cpp:357] inception_3b/5x5_reduce -> inception_3b/5x5_reduce
I0312 19:26:54.020613 17161 net.cpp:97] Setting up inception_3b/5x5_reduce
I0312 19:26:54.020792 17161 net.cpp:104] Top shape: 96 32 11 11 (371712)
I0312 19:26:54.020814 17161 layer_factory.hpp:78] Creating layer inception_3b/5x5_reduce/bn
I0312 19:26:54.020833 17161 net.cpp:68] Creating Layer inception_3b/5x5_reduce/bn
I0312 19:26:54.020848 17161 net.cpp:395] inception_3b/5x5_reduce/bn <- inception_3b/5x5_reduce
I0312 19:26:54.020882 17161 net.cpp:357] inception_3b/5x5_reduce/bn -> inception_3b/5x5_reduce/bn
I0312 19:26:54.020901 17161 net.cpp:97] Setting up inception_3b/5x5_reduce/bn
I0312 19:26:54.020931 17161 net.cpp:104] Top shape: 96 32 11 11 (371712)
I0312 19:26:54.020949 17161 layer_factory.hpp:78] Creating layer inception_3b/relu_5x5_reduce
I0312 19:26:54.020983 17161 net.cpp:68] Creating Layer inception_3b/relu_5x5_reduce
I0312 19:26:54.020998 17161 net.cpp:395] inception_3b/relu_5x5_reduce <- inception_3b/5x5_reduce/bn
I0312 19:26:54.021011 17161 net.cpp:346] inception_3b/relu_5x5_reduce -> inception_3b/5x5_reduce/bn (in-place)
I0312 19:26:54.021026 17161 net.cpp:97] Setting up inception_3b/relu_5x5_reduce
I0312 19:26:54.021042 17161 net.cpp:104] Top shape: 96 32 11 11 (371712)
I0312 19:26:54.021055 17161 layer_factory.hpp:78] Creating layer inception_3b/5x5
I0312 19:26:54.021072 17161 net.cpp:68] Creating Layer inception_3b/5x5
I0312 19:26:54.021085 17161 net.cpp:395] inception_3b/5x5 <- inception_3b/5x5_reduce/bn
I0312 19:26:54.021100 17161 net.cpp:357] inception_3b/5x5 -> inception_3b/5x5
I0312 19:26:54.021116 17161 net.cpp:97] Setting up inception_3b/5x5
I0312 19:26:54.022027 17161 net.cpp:104] Top shape: 96 96 11 11 (1115136)
I0312 19:26:54.022054 17161 layer_factory.hpp:78] Creating layer inception_3b/5x5/bn
I0312 19:26:54.022074 17161 net.cpp:68] Creating Layer inception_3b/5x5/bn
I0312 19:26:54.022088 17161 net.cpp:395] inception_3b/5x5/bn <- inception_3b/5x5
I0312 19:26:54.022102 17161 net.cpp:357] inception_3b/5x5/bn -> inception_3b/5x5/bn
I0312 19:26:54.022119 17161 net.cpp:97] Setting up inception_3b/5x5/bn
I0312 19:26:54.022142 17161 net.cpp:104] Top shape: 96 96 11 11 (1115136)
I0312 19:26:54.022158 17161 layer_factory.hpp:78] Creating layer inception_3b/relu_5x5
I0312 19:26:54.022172 17161 net.cpp:68] Creating Layer inception_3b/relu_5x5
I0312 19:26:54.022184 17161 net.cpp:395] inception_3b/relu_5x5 <- inception_3b/5x5/bn
I0312 19:26:54.022200 17161 net.cpp:346] inception_3b/relu_5x5 -> inception_3b/5x5/bn (in-place)
I0312 19:26:54.022214 17161 net.cpp:97] Setting up inception_3b/relu_5x5
I0312 19:26:54.022229 17161 net.cpp:104] Top shape: 96 96 11 11 (1115136)
I0312 19:26:54.022241 17161 layer_factory.hpp:78] Creating layer inception_3b/pool
I0312 19:26:54.022253 17161 layer_factory.cpp:51] CUDNN does not support padding or multiple tops. Using Caffe's own pooling layer.
I0312 19:26:54.022266 17161 net.cpp:68] Creating Layer inception_3b/pool
I0312 19:26:54.022279 17161 net.cpp:395] inception_3b/pool <- inception_3a/output_inception_3a/output_0_split_3
I0312 19:26:54.022295 17161 net.cpp:357] inception_3b/pool -> inception_3b/pool
I0312 19:26:54.022311 17161 net.cpp:97] Setting up inception_3b/pool
I0312 19:26:54.022330 17161 net.cpp:104] Top shape: 96 256 11 11 (2973696)
I0312 19:26:54.022342 17161 layer_factory.hpp:78] Creating layer inception_3b/pool_proj
I0312 19:26:54.022357 17161 net.cpp:68] Creating Layer inception_3b/pool_proj
I0312 19:26:54.022369 17161 net.cpp:395] inception_3b/pool_proj <- inception_3b/pool
I0312 19:26:54.022389 17161 net.cpp:357] inception_3b/pool_proj -> inception_3b/pool_proj
I0312 19:26:54.022406 17161 net.cpp:97] Setting up inception_3b/pool_proj
I0312 19:26:54.022840 17161 net.cpp:104] Top shape: 96 64 11 11 (743424)
I0312 19:26:54.022866 17161 layer_factory.hpp:78] Creating layer inception_3b/pool_proj/bn
I0312 19:26:54.022888 17161 net.cpp:68] Creating Layer inception_3b/pool_proj/bn
I0312 19:26:54.022902 17161 net.cpp:395] inception_3b/pool_proj/bn <- inception_3b/pool_proj
I0312 19:26:54.022917 17161 net.cpp:357] inception_3b/pool_proj/bn -> inception_3b/pool_proj/bn
I0312 19:26:54.022935 17161 net.cpp:97] Setting up inception_3b/pool_proj/bn
I0312 19:26:54.022972 17161 net.cpp:104] Top shape: 96 64 11 11 (743424)
I0312 19:26:54.022991 17161 layer_factory.hpp:78] Creating layer inception_3b/relu_pool_proj
I0312 19:26:54.023005 17161 net.cpp:68] Creating Layer inception_3b/relu_pool_proj
I0312 19:26:54.023018 17161 net.cpp:395] inception_3b/relu_pool_proj <- inception_3b/pool_proj/bn
I0312 19:26:54.023035 17161 net.cpp:346] inception_3b/relu_pool_proj -> inception_3b/pool_proj/bn (in-place)
I0312 19:26:54.023051 17161 net.cpp:97] Setting up inception_3b/relu_pool_proj
I0312 19:26:54.023066 17161 net.cpp:104] Top shape: 96 64 11 11 (743424)
I0312 19:26:54.023078 17161 layer_factory.hpp:78] Creating layer inception_3b/output
I0312 19:26:54.023114 17161 net.cpp:68] Creating Layer inception_3b/output
I0312 19:26:54.023128 17161 net.cpp:395] inception_3b/output <- inception_3b/1x1/bn
I0312 19:26:54.023143 17161 net.cpp:395] inception_3b/output <- inception_3b/3x3/bn
I0312 19:26:54.023155 17161 net.cpp:395] inception_3b/output <- inception_3b/5x5/bn
I0312 19:26:54.023169 17161 net.cpp:395] inception_3b/output <- inception_3b/pool_proj/bn
I0312 19:26:54.023183 17161 net.cpp:357] inception_3b/output -> inception_3b/output
I0312 19:26:54.023198 17161 net.cpp:97] Setting up inception_3b/output
I0312 19:26:54.023211 17161 net.cpp:104] Top shape: 96 480 11 11 (5575680)
I0312 19:26:54.023222 17161 layer_factory.hpp:78] Creating layer pool3/3x3_s2
I0312 19:26:54.023239 17161 net.cpp:68] Creating Layer pool3/3x3_s2
I0312 19:26:54.023252 17161 net.cpp:395] pool3/3x3_s2 <- inception_3b/output
I0312 19:26:54.023267 17161 net.cpp:357] pool3/3x3_s2 -> pool3/3x3_s2
I0312 19:26:54.023282 17161 net.cpp:97] Setting up pool3/3x3_s2
I0312 19:26:54.023298 17161 net.cpp:104] Top shape: 96 480 5 5 (1152000)
I0312 19:26:54.023310 17161 layer_factory.hpp:78] Creating layer pool3/3x3_s2_pool3/3x3_s2_0_split
I0312 19:26:54.023324 17161 net.cpp:68] Creating Layer pool3/3x3_s2_pool3/3x3_s2_0_split
I0312 19:26:54.023339 17161 net.cpp:395] pool3/3x3_s2_pool3/3x3_s2_0_split <- pool3/3x3_s2
I0312 19:26:54.023354 17161 net.cpp:357] pool3/3x3_s2_pool3/3x3_s2_0_split -> pool3/3x3_s2_pool3/3x3_s2_0_split_0
I0312 19:26:54.023370 17161 net.cpp:357] pool3/3x3_s2_pool3/3x3_s2_0_split -> pool3/3x3_s2_pool3/3x3_s2_0_split_1
I0312 19:26:54.023386 17161 net.cpp:357] pool3/3x3_s2_pool3/3x3_s2_0_split -> pool3/3x3_s2_pool3/3x3_s2_0_split_2
I0312 19:26:54.023402 17161 net.cpp:357] pool3/3x3_s2_pool3/3x3_s2_0_split -> pool3/3x3_s2_pool3/3x3_s2_0_split_3
I0312 19:26:54.023416 17161 net.cpp:97] Setting up pool3/3x3_s2_pool3/3x3_s2_0_split
I0312 19:26:54.023429 17161 net.cpp:104] Top shape: 96 480 5 5 (1152000)
I0312 19:26:54.023442 17161 net.cpp:104] Top shape: 96 480 5 5 (1152000)
I0312 19:26:54.023452 17161 net.cpp:104] Top shape: 96 480 5 5 (1152000)
I0312 19:26:54.023464 17161 net.cpp:104] Top shape: 96 480 5 5 (1152000)
I0312 19:26:54.023475 17161 layer_factory.hpp:78] Creating layer inception_4a/1x1
I0312 19:26:54.023493 17161 net.cpp:68] Creating Layer inception_4a/1x1
I0312 19:26:54.023505 17161 net.cpp:395] inception_4a/1x1 <- pool3/3x3_s2_pool3/3x3_s2_0_split_0
I0312 19:26:54.023522 17161 net.cpp:357] inception_4a/1x1 -> inception_4a/1x1
I0312 19:26:54.023538 17161 net.cpp:97] Setting up inception_4a/1x1
I0312 19:26:54.024546 17161 net.cpp:104] Top shape: 96 192 5 5 (460800)
I0312 19:26:54.024582 17161 layer_factory.hpp:78] Creating layer inception_4a/1x1/bn
I0312 19:26:54.024601 17161 net.cpp:68] Creating Layer inception_4a/1x1/bn
I0312 19:26:54.024616 17161 net.cpp:395] inception_4a/1x1/bn <- inception_4a/1x1
I0312 19:26:54.024631 17161 net.cpp:357] inception_4a/1x1/bn -> inception_4a/1x1/bn
I0312 19:26:54.024646 17161 net.cpp:97] Setting up inception_4a/1x1/bn
I0312 19:26:54.024669 17161 net.cpp:104] Top shape: 96 192 5 5 (460800)
I0312 19:26:54.024688 17161 layer_factory.hpp:78] Creating layer inception_4a/relu_1x1
I0312 19:26:54.024703 17161 net.cpp:68] Creating Layer inception_4a/relu_1x1
I0312 19:26:54.024715 17161 net.cpp:395] inception_4a/relu_1x1 <- inception_4a/1x1/bn
I0312 19:26:54.024730 17161 net.cpp:346] inception_4a/relu_1x1 -> inception_4a/1x1/bn (in-place)
I0312 19:26:54.024744 17161 net.cpp:97] Setting up inception_4a/relu_1x1
I0312 19:26:54.024760 17161 net.cpp:104] Top shape: 96 192 5 5 (460800)
I0312 19:26:54.024771 17161 layer_factory.hpp:78] Creating layer inception_4a/3x3_reduce
I0312 19:26:54.024791 17161 net.cpp:68] Creating Layer inception_4a/3x3_reduce
I0312 19:26:54.024802 17161 net.cpp:395] inception_4a/3x3_reduce <- pool3/3x3_s2_pool3/3x3_s2_0_split_1
I0312 19:26:54.024821 17161 net.cpp:357] inception_4a/3x3_reduce -> inception_4a/3x3_reduce
I0312 19:26:54.024837 17161 net.cpp:97] Setting up inception_4a/3x3_reduce
I0312 19:26:54.025466 17161 net.cpp:104] Top shape: 96 96 5 5 (230400)
I0312 19:26:54.025492 17161 layer_factory.hpp:78] Creating layer inception_4a/3x3_reduce/bn
I0312 19:26:54.025518 17161 net.cpp:68] Creating Layer inception_4a/3x3_reduce/bn
I0312 19:26:54.025532 17161 net.cpp:395] inception_4a/3x3_reduce/bn <- inception_4a/3x3_reduce
I0312 19:26:54.025547 17161 net.cpp:357] inception_4a/3x3_reduce/bn -> inception_4a/3x3_reduce/bn
I0312 19:26:54.025563 17161 net.cpp:97] Setting up inception_4a/3x3_reduce/bn
I0312 19:26:54.025585 17161 net.cpp:104] Top shape: 96 96 5 5 (230400)
I0312 19:26:54.025602 17161 layer_factory.hpp:78] Creating layer inception_4a/relu_3x3_reduce
I0312 19:26:54.025617 17161 net.cpp:68] Creating Layer inception_4a/relu_3x3_reduce
I0312 19:26:54.025629 17161 net.cpp:395] inception_4a/relu_3x3_reduce <- inception_4a/3x3_reduce/bn
I0312 19:26:54.025643 17161 net.cpp:346] inception_4a/relu_3x3_reduce -> inception_4a/3x3_reduce/bn (in-place)
I0312 19:26:54.025657 17161 net.cpp:97] Setting up inception_4a/relu_3x3_reduce
I0312 19:26:54.025673 17161 net.cpp:104] Top shape: 96 96 5 5 (230400)
I0312 19:26:54.025686 17161 layer_factory.hpp:78] Creating layer inception_4a/3x3
I0312 19:26:54.025703 17161 net.cpp:68] Creating Layer inception_4a/3x3
I0312 19:26:54.025717 17161 net.cpp:395] inception_4a/3x3 <- inception_4a/3x3_reduce/bn
I0312 19:26:54.025732 17161 net.cpp:357] inception_4a/3x3 -> inception_4a/3x3
I0312 19:26:54.025748 17161 net.cpp:97] Setting up inception_4a/3x3
I0312 19:26:54.027618 17161 net.cpp:104] Top shape: 96 208 5 5 (499200)
I0312 19:26:54.027643 17161 layer_factory.hpp:78] Creating layer inception_4a/3x3/bn
I0312 19:26:54.027662 17161 net.cpp:68] Creating Layer inception_4a/3x3/bn
I0312 19:26:54.027675 17161 net.cpp:395] inception_4a/3x3/bn <- inception_4a/3x3
I0312 19:26:54.027689 17161 net.cpp:357] inception_4a/3x3/bn -> inception_4a/3x3/bn
I0312 19:26:54.027705 17161 net.cpp:97] Setting up inception_4a/3x3/bn
I0312 19:26:54.027729 17161 net.cpp:104] Top shape: 96 208 5 5 (499200)
I0312 19:26:54.027745 17161 layer_factory.hpp:78] Creating layer inception_4a/relu_3x3
I0312 19:26:54.027760 17161 net.cpp:68] Creating Layer inception_4a/relu_3x3
I0312 19:26:54.027771 17161 net.cpp:395] inception_4a/relu_3x3 <- inception_4a/3x3/bn
I0312 19:26:54.027787 17161 net.cpp:346] inception_4a/relu_3x3 -> inception_4a/3x3/bn (in-place)
I0312 19:26:54.027802 17161 net.cpp:97] Setting up inception_4a/relu_3x3
I0312 19:26:54.027817 17161 net.cpp:104] Top shape: 96 208 5 5 (499200)
I0312 19:26:54.027829 17161 layer_factory.hpp:78] Creating layer inception_4a/5x5_reduce
I0312 19:26:54.027844 17161 net.cpp:68] Creating Layer inception_4a/5x5_reduce
I0312 19:26:54.027856 17161 net.cpp:395] inception_4a/5x5_reduce <- pool3/3x3_s2_pool3/3x3_s2_0_split_2
I0312 19:26:54.027874 17161 net.cpp:357] inception_4a/5x5_reduce -> inception_4a/5x5_reduce
I0312 19:26:54.027890 17161 net.cpp:97] Setting up inception_4a/5x5_reduce
I0312 19:26:54.028045 17161 net.cpp:104] Top shape: 96 16 5 5 (38400)
I0312 19:26:54.028067 17161 layer_factory.hpp:78] Creating layer inception_4a/5x5_reduce/bn
I0312 19:26:54.028084 17161 net.cpp:68] Creating Layer inception_4a/5x5_reduce/bn
I0312 19:26:54.028096 17161 net.cpp:395] inception_4a/5x5_reduce/bn <- inception_4a/5x5_reduce
I0312 19:26:54.028113 17161 net.cpp:357] inception_4a/5x5_reduce/bn -> inception_4a/5x5_reduce/bn
I0312 19:26:54.028131 17161 net.cpp:97] Setting up inception_4a/5x5_reduce/bn
I0312 19:26:54.028151 17161 net.cpp:104] Top shape: 96 16 5 5 (38400)
I0312 19:26:54.028165 17161 layer_factory.hpp:78] Creating layer inception_4a/relu_5x5_reduce
I0312 19:26:54.028182 17161 net.cpp:68] Creating Layer inception_4a/relu_5x5_reduce
I0312 19:26:54.028192 17161 net.cpp:395] inception_4a/relu_5x5_reduce <- inception_4a/5x5_reduce/bn
I0312 19:26:54.028208 17161 net.cpp:346] inception_4a/relu_5x5_reduce -> inception_4a/5x5_reduce/bn (in-place)
I0312 19:26:54.028223 17161 net.cpp:97] Setting up inception_4a/relu_5x5_reduce
I0312 19:26:54.028239 17161 net.cpp:104] Top shape: 96 16 5 5 (38400)
I0312 19:26:54.028269 17161 layer_factory.hpp:78] Creating layer inception_4a/5x5
I0312 19:26:54.028285 17161 net.cpp:68] Creating Layer inception_4a/5x5
I0312 19:26:54.028297 17161 net.cpp:395] inception_4a/5x5 <- inception_4a/5x5_reduce/bn
I0312 19:26:54.028314 17161 net.cpp:357] inception_4a/5x5 -> inception_4a/5x5
I0312 19:26:54.028338 17161 net.cpp:97] Setting up inception_4a/5x5
I0312 19:26:54.028735 17161 net.cpp:104] Top shape: 96 48 5 5 (115200)
I0312 19:26:54.028761 17161 layer_factory.hpp:78] Creating layer inception_4a/5x5/bn
I0312 19:26:54.028780 17161 net.cpp:68] Creating Layer inception_4a/5x5/bn
I0312 19:26:54.028794 17161 net.cpp:395] inception_4a/5x5/bn <- inception_4a/5x5
I0312 19:26:54.028808 17161 net.cpp:357] inception_4a/5x5/bn -> inception_4a/5x5/bn
I0312 19:26:54.028825 17161 net.cpp:97] Setting up inception_4a/5x5/bn
I0312 19:26:54.028847 17161 net.cpp:104] Top shape: 96 48 5 5 (115200)
I0312 19:26:54.028875 17161 layer_factory.hpp:78] Creating layer inception_4a/relu_5x5
I0312 19:26:54.028892 17161 net.cpp:68] Creating Layer inception_4a/relu_5x5
I0312 19:26:54.028905 17161 net.cpp:395] inception_4a/relu_5x5 <- inception_4a/5x5/bn
I0312 19:26:54.028924 17161 net.cpp:346] inception_4a/relu_5x5 -> inception_4a/5x5/bn (in-place)
I0312 19:26:54.028939 17161 net.cpp:97] Setting up inception_4a/relu_5x5
I0312 19:26:54.028954 17161 net.cpp:104] Top shape: 96 48 5 5 (115200)
I0312 19:26:54.028966 17161 layer_factory.hpp:78] Creating layer inception_4a/pool
I0312 19:26:54.028978 17161 layer_factory.cpp:51] CUDNN does not support padding or multiple tops. Using Caffe's own pooling layer.
I0312 19:26:54.028995 17161 net.cpp:68] Creating Layer inception_4a/pool
I0312 19:26:54.029007 17161 net.cpp:395] inception_4a/pool <- pool3/3x3_s2_pool3/3x3_s2_0_split_3
I0312 19:26:54.029021 17161 net.cpp:357] inception_4a/pool -> inception_4a/pool
I0312 19:26:54.029036 17161 net.cpp:97] Setting up inception_4a/pool
I0312 19:26:54.029050 17161 net.cpp:104] Top shape: 96 480 5 5 (1152000)
I0312 19:26:54.029062 17161 layer_factory.hpp:78] Creating layer inception_4a/pool_proj
I0312 19:26:54.029079 17161 net.cpp:68] Creating Layer inception_4a/pool_proj
I0312 19:26:54.029093 17161 net.cpp:395] inception_4a/pool_proj <- inception_4a/pool
I0312 19:26:54.029108 17161 net.cpp:357] inception_4a/pool_proj -> inception_4a/pool_proj
I0312 19:26:54.029122 17161 net.cpp:97] Setting up inception_4a/pool_proj
I0312 19:26:54.029508 17161 net.cpp:104] Top shape: 96 64 5 5 (153600)
I0312 19:26:54.029531 17161 layer_factory.hpp:78] Creating layer inception_4a/pool_proj/bn
I0312 19:26:54.029551 17161 net.cpp:68] Creating Layer inception_4a/pool_proj/bn
I0312 19:26:54.029563 17161 net.cpp:395] inception_4a/pool_proj/bn <- inception_4a/pool_proj
I0312 19:26:54.029578 17161 net.cpp:357] inception_4a/pool_proj/bn -> inception_4a/pool_proj/bn
I0312 19:26:54.029594 17161 net.cpp:97] Setting up inception_4a/pool_proj/bn
I0312 19:26:54.029615 17161 net.cpp:104] Top shape: 96 64 5 5 (153600)
I0312 19:26:54.029634 17161 layer_factory.hpp:78] Creating layer inception_4a/relu_pool_proj
I0312 19:26:54.029649 17161 net.cpp:68] Creating Layer inception_4a/relu_pool_proj
I0312 19:26:54.029661 17161 net.cpp:395] inception_4a/relu_pool_proj <- inception_4a/pool_proj/bn
I0312 19:26:54.029675 17161 net.cpp:346] inception_4a/relu_pool_proj -> inception_4a/pool_proj/bn (in-place)
I0312 19:26:54.029690 17161 net.cpp:97] Setting up inception_4a/relu_pool_proj
I0312 19:26:54.029705 17161 net.cpp:104] Top shape: 96 64 5 5 (153600)
I0312 19:26:54.029717 17161 layer_factory.hpp:78] Creating layer inception_4a/output
I0312 19:26:54.029731 17161 net.cpp:68] Creating Layer inception_4a/output
I0312 19:26:54.029743 17161 net.cpp:395] inception_4a/output <- inception_4a/1x1/bn
I0312 19:26:54.029757 17161 net.cpp:395] inception_4a/output <- inception_4a/3x3/bn
I0312 19:26:54.029769 17161 net.cpp:395] inception_4a/output <- inception_4a/5x5/bn
I0312 19:26:54.029783 17161 net.cpp:395] inception_4a/output <- inception_4a/pool_proj/bn
I0312 19:26:54.029817 17161 net.cpp:357] inception_4a/output -> inception_4a/output
I0312 19:26:54.029834 17161 net.cpp:97] Setting up inception_4a/output
I0312 19:26:54.029847 17161 net.cpp:104] Top shape: 96 512 5 5 (1228800)
I0312 19:26:54.029860 17161 layer_factory.hpp:78] Creating layer inception_4a/output_inception_4a/output_0_split
I0312 19:26:54.029873 17161 net.cpp:68] Creating Layer inception_4a/output_inception_4a/output_0_split
I0312 19:26:54.029886 17161 net.cpp:395] inception_4a/output_inception_4a/output_0_split <- inception_4a/output
I0312 19:26:54.029903 17161 net.cpp:357] inception_4a/output_inception_4a/output_0_split -> inception_4a/output_inception_4a/output_0_split_0
I0312 19:26:54.029919 17161 net.cpp:357] inception_4a/output_inception_4a/output_0_split -> inception_4a/output_inception_4a/output_0_split_1
I0312 19:26:54.029937 17161 net.cpp:357] inception_4a/output_inception_4a/output_0_split -> inception_4a/output_inception_4a/output_0_split_2
I0312 19:26:54.029953 17161 net.cpp:357] inception_4a/output_inception_4a/output_0_split -> inception_4a/output_inception_4a/output_0_split_3
I0312 19:26:54.029969 17161 net.cpp:357] inception_4a/output_inception_4a/output_0_split -> inception_4a/output_inception_4a/output_0_split_4
I0312 19:26:54.029985 17161 net.cpp:97] Setting up inception_4a/output_inception_4a/output_0_split
I0312 19:26:54.029999 17161 net.cpp:104] Top shape: 96 512 5 5 (1228800)
I0312 19:26:54.030010 17161 net.cpp:104] Top shape: 96 512 5 5 (1228800)
I0312 19:26:54.030021 17161 net.cpp:104] Top shape: 96 512 5 5 (1228800)
I0312 19:26:54.030032 17161 net.cpp:104] Top shape: 96 512 5 5 (1228800)
I0312 19:26:54.030045 17161 net.cpp:104] Top shape: 96 512 5 5 (1228800)
I0312 19:26:54.030055 17161 layer_factory.hpp:78] Creating layer loss1/ave_pool
I0312 19:26:54.030072 17161 net.cpp:68] Creating Layer loss1/ave_pool
I0312 19:26:54.030086 17161 net.cpp:395] loss1/ave_pool <- inception_4a/output_inception_4a/output_0_split_0
I0312 19:26:54.030099 17161 net.cpp:357] loss1/ave_pool -> loss1/ave_pool
I0312 19:26:54.030113 17161 net.cpp:97] Setting up loss1/ave_pool
I0312 19:26:54.030130 17161 net.cpp:104] Top shape: 96 512 1 1 (49152)
I0312 19:26:54.030143 17161 layer_factory.hpp:78] Creating layer loss1/conv
I0312 19:26:54.030160 17161 net.cpp:68] Creating Layer loss1/conv
I0312 19:26:54.030174 17161 net.cpp:395] loss1/conv <- loss1/ave_pool
I0312 19:26:54.030187 17161 net.cpp:357] loss1/conv -> loss1/conv
I0312 19:26:54.030202 17161 net.cpp:97] Setting up loss1/conv
I0312 19:26:54.030935 17161 net.cpp:104] Top shape: 96 128 1 1 (12288)
I0312 19:26:54.030958 17161 layer_factory.hpp:78] Creating layer loss1/conv/bn
I0312 19:26:54.030977 17161 net.cpp:68] Creating Layer loss1/conv/bn
I0312 19:26:54.030990 17161 net.cpp:395] loss1/conv/bn <- loss1/conv
I0312 19:26:54.031005 17161 net.cpp:357] loss1/conv/bn -> loss1/conv/bn
I0312 19:26:54.031020 17161 net.cpp:97] Setting up loss1/conv/bn
I0312 19:26:54.031047 17161 net.cpp:104] Top shape: 96 128 1 1 (12288)
I0312 19:26:54.031064 17161 layer_factory.hpp:78] Creating layer loss1/relu_conv
I0312 19:26:54.031077 17161 net.cpp:68] Creating Layer loss1/relu_conv
I0312 19:26:54.031090 17161 net.cpp:395] loss1/relu_conv <- loss1/conv/bn
I0312 19:26:54.031105 17161 net.cpp:346] loss1/relu_conv -> loss1/conv/bn (in-place)
I0312 19:26:54.031121 17161 net.cpp:97] Setting up loss1/relu_conv
I0312 19:26:54.031136 17161 net.cpp:104] Top shape: 96 128 1 1 (12288)
I0312 19:26:54.031147 17161 layer_factory.hpp:78] Creating layer loss1/fc
I0312 19:26:54.031167 17161 net.cpp:68] Creating Layer loss1/fc
I0312 19:26:54.031178 17161 net.cpp:395] loss1/fc <- loss1/conv/bn
I0312 19:26:54.031193 17161 net.cpp:357] loss1/fc -> loss1/fc
I0312 19:26:54.031208 17161 net.cpp:97] Setting up loss1/fc
I0312 19:26:54.032542 17161 net.cpp:104] Top shape: 96 1024 1 1 (98304)
I0312 19:26:54.032564 17161 layer_factory.hpp:78] Creating layer loss1/fc/bn
I0312 19:26:54.032582 17161 net.cpp:68] Creating Layer loss1/fc/bn
I0312 19:26:54.032594 17161 net.cpp:395] loss1/fc/bn <- loss1/fc
I0312 19:26:54.032626 17161 net.cpp:357] loss1/fc/bn -> loss1/fc/bn
I0312 19:26:54.032644 17161 net.cpp:97] Setting up loss1/fc/bn
I0312 19:26:54.032668 17161 net.cpp:104] Top shape: 96 1024 1 1 (98304)
I0312 19:26:54.032687 17161 layer_factory.hpp:78] Creating layer loss1/relu_fc
I0312 19:26:54.032701 17161 net.cpp:68] Creating Layer loss1/relu_fc
I0312 19:26:54.032713 17161 net.cpp:395] loss1/relu_fc <- loss1/fc/bn
I0312 19:26:54.032727 17161 net.cpp:346] loss1/relu_fc -> loss1/fc/bn (in-place)
I0312 19:26:54.032740 17161 net.cpp:97] Setting up loss1/relu_fc
I0312 19:26:54.032757 17161 net.cpp:104] Top shape: 96 1024 1 1 (98304)
I0312 19:26:54.032768 17161 layer_factory.hpp:78] Creating layer loss1/drop_fc
I0312 19:26:54.032785 17161 net.cpp:68] Creating Layer loss1/drop_fc
I0312 19:26:54.032798 17161 net.cpp:395] loss1/drop_fc <- loss1/fc/bn
I0312 19:26:54.032814 17161 net.cpp:346] loss1/drop_fc -> loss1/fc/bn (in-place)
I0312 19:26:54.032829 17161 net.cpp:97] Setting up loss1/drop_fc
I0312 19:26:54.032843 17161 net.cpp:104] Top shape: 96 1024 1 1 (98304)
I0312 19:26:54.032856 17161 layer_factory.hpp:78] Creating layer loss1/classifier
I0312 19:26:54.032886 17161 net.cpp:68] Creating Layer loss1/classifier
I0312 19:26:54.032898 17161 net.cpp:395] loss1/classifier <- loss1/fc/bn
I0312 19:26:54.032917 17161 net.cpp:357] loss1/classifier -> loss1/classifier
I0312 19:26:54.032932 17161 net.cpp:97] Setting up loss1/classifier
I0312 19:26:54.034189 17161 net.cpp:104] Top shape: 96 121 1 1 (11616)
I0312 19:26:54.034212 17161 layer_factory.hpp:78] Creating layer loss1/loss
I0312 19:26:54.034231 17161 net.cpp:68] Creating Layer loss1/loss
I0312 19:26:54.034245 17161 net.cpp:395] loss1/loss <- loss1/classifier
I0312 19:26:54.034258 17161 net.cpp:395] loss1/loss <- label_data_1_split_0
I0312 19:26:54.034272 17161 net.cpp:357] loss1/loss -> loss1/loss
I0312 19:26:54.034288 17161 net.cpp:97] Setting up loss1/loss
I0312 19:26:54.034304 17161 layer_factory.hpp:78] Creating layer loss1/loss
I0312 19:26:54.034361 17161 net.cpp:104] Top shape: 1 1 1 1 (1)
I0312 19:26:54.034380 17161 net.cpp:110]     with loss weight 0.05
I0312 19:26:54.034430 17161 layer_factory.hpp:78] Creating layer inception_4b/1x1
I0312 19:26:54.034446 17161 net.cpp:68] Creating Layer inception_4b/1x1
I0312 19:26:54.034462 17161 net.cpp:395] inception_4b/1x1 <- inception_4a/output_inception_4a/output_0_split_1
I0312 19:26:54.034478 17161 net.cpp:357] inception_4b/1x1 -> inception_4b/1x1
I0312 19:26:54.034493 17161 net.cpp:97] Setting up inception_4b/1x1
I0312 19:26:54.035399 17161 net.cpp:104] Top shape: 96 160 5 5 (384000)
I0312 19:26:54.035424 17161 layer_factory.hpp:78] Creating layer inception_4b/1x1/bn
I0312 19:26:54.035444 17161 net.cpp:68] Creating Layer inception_4b/1x1/bn
I0312 19:26:54.035457 17161 net.cpp:395] inception_4b/1x1/bn <- inception_4b/1x1
I0312 19:26:54.035475 17161 net.cpp:357] inception_4b/1x1/bn -> inception_4b/1x1/bn
I0312 19:26:54.035490 17161 net.cpp:97] Setting up inception_4b/1x1/bn
I0312 19:26:54.035513 17161 net.cpp:104] Top shape: 96 160 5 5 (384000)
I0312 19:26:54.035529 17161 layer_factory.hpp:78] Creating layer inception_4b/relu_1x1
I0312 19:26:54.035544 17161 net.cpp:68] Creating Layer inception_4b/relu_1x1
I0312 19:26:54.035557 17161 net.cpp:395] inception_4b/relu_1x1 <- inception_4b/1x1/bn
I0312 19:26:54.035569 17161 net.cpp:346] inception_4b/relu_1x1 -> inception_4b/1x1/bn (in-place)
I0312 19:26:54.035586 17161 net.cpp:97] Setting up inception_4b/relu_1x1
I0312 19:26:54.035603 17161 net.cpp:104] Top shape: 96 160 5 5 (384000)
I0312 19:26:54.035614 17161 layer_factory.hpp:78] Creating layer inception_4b/3x3_reduce
I0312 19:26:54.035631 17161 net.cpp:68] Creating Layer inception_4b/3x3_reduce
I0312 19:26:54.035645 17161 net.cpp:395] inception_4b/3x3_reduce <- inception_4a/output_inception_4a/output_0_split_2
I0312 19:26:54.035660 17161 net.cpp:357] inception_4b/3x3_reduce -> inception_4b/3x3_reduce
I0312 19:26:54.035676 17161 net.cpp:97] Setting up inception_4b/3x3_reduce
I0312 19:26:54.036358 17161 net.cpp:104] Top shape: 96 112 5 5 (268800)
I0312 19:26:54.036399 17161 layer_factory.hpp:78] Creating layer inception_4b/3x3_reduce/bn
I0312 19:26:54.036419 17161 net.cpp:68] Creating Layer inception_4b/3x3_reduce/bn
I0312 19:26:54.036432 17161 net.cpp:395] inception_4b/3x3_reduce/bn <- inception_4b/3x3_reduce
I0312 19:26:54.036448 17161 net.cpp:357] inception_4b/3x3_reduce/bn -> inception_4b/3x3_reduce/bn
I0312 19:26:54.036463 17161 net.cpp:97] Setting up inception_4b/3x3_reduce/bn
I0312 19:26:54.036485 17161 net.cpp:104] Top shape: 96 112 5 5 (268800)
I0312 19:26:54.036501 17161 layer_factory.hpp:78] Creating layer inception_4b/relu_3x3_reduce
I0312 19:26:54.036516 17161 net.cpp:68] Creating Layer inception_4b/relu_3x3_reduce
I0312 19:26:54.036528 17161 net.cpp:395] inception_4b/relu_3x3_reduce <- inception_4b/3x3_reduce/bn
I0312 19:26:54.036545 17161 net.cpp:346] inception_4b/relu_3x3_reduce -> inception_4b/3x3_reduce/bn (in-place)
I0312 19:26:54.036558 17161 net.cpp:97] Setting up inception_4b/relu_3x3_reduce
I0312 19:26:54.036574 17161 net.cpp:104] Top shape: 96 112 5 5 (268800)
I0312 19:26:54.036586 17161 layer_factory.hpp:78] Creating layer inception_4b/3x3
I0312 19:26:54.036600 17161 net.cpp:68] Creating Layer inception_4b/3x3
I0312 19:26:54.036612 17161 net.cpp:395] inception_4b/3x3 <- inception_4b/3x3_reduce/bn
I0312 19:26:54.036629 17161 net.cpp:357] inception_4b/3x3 -> inception_4b/3x3
I0312 19:26:54.036645 17161 net.cpp:97] Setting up inception_4b/3x3
I0312 19:26:54.039417 17161 net.cpp:104] Top shape: 96 224 5 5 (537600)
I0312 19:26:54.039443 17161 layer_factory.hpp:78] Creating layer inception_4b/3x3/bn
I0312 19:26:54.039463 17161 net.cpp:68] Creating Layer inception_4b/3x3/bn
I0312 19:26:54.039477 17161 net.cpp:395] inception_4b/3x3/bn <- inception_4b/3x3
I0312 19:26:54.039492 17161 net.cpp:357] inception_4b/3x3/bn -> inception_4b/3x3/bn
I0312 19:26:54.039510 17161 net.cpp:97] Setting up inception_4b/3x3/bn
I0312 19:26:54.039532 17161 net.cpp:104] Top shape: 96 224 5 5 (537600)
I0312 19:26:54.039551 17161 layer_factory.hpp:78] Creating layer inception_4b/relu_3x3
I0312 19:26:54.039564 17161 net.cpp:68] Creating Layer inception_4b/relu_3x3
I0312 19:26:54.039577 17161 net.cpp:395] inception_4b/relu_3x3 <- inception_4b/3x3/bn
I0312 19:26:54.039590 17161 net.cpp:346] inception_4b/relu_3x3 -> inception_4b/3x3/bn (in-place)
I0312 19:26:54.039604 17161 net.cpp:97] Setting up inception_4b/relu_3x3
I0312 19:26:54.039619 17161 net.cpp:104] Top shape: 96 224 5 5 (537600)
I0312 19:26:54.039631 17161 layer_factory.hpp:78] Creating layer inception_4b/5x5_reduce
I0312 19:26:54.039650 17161 net.cpp:68] Creating Layer inception_4b/5x5_reduce
I0312 19:26:54.039662 17161 net.cpp:395] inception_4b/5x5_reduce <- inception_4a/output_inception_4a/output_0_split_3
I0312 19:26:54.039677 17161 net.cpp:357] inception_4b/5x5_reduce -> inception_4b/5x5_reduce
I0312 19:26:54.039692 17161 net.cpp:97] Setting up inception_4b/5x5_reduce
I0312 19:26:54.039887 17161 net.cpp:104] Top shape: 96 24 5 5 (57600)
I0312 19:26:54.039913 17161 layer_factory.hpp:78] Creating layer inception_4b/5x5_reduce/bn
I0312 19:26:54.039930 17161 net.cpp:68] Creating Layer inception_4b/5x5_reduce/bn
I0312 19:26:54.039943 17161 net.cpp:395] inception_4b/5x5_reduce/bn <- inception_4b/5x5_reduce
I0312 19:26:54.039962 17161 net.cpp:357] inception_4b/5x5_reduce/bn -> inception_4b/5x5_reduce/bn
I0312 19:26:54.039978 17161 net.cpp:97] Setting up inception_4b/5x5_reduce/bn
I0312 19:26:54.039999 17161 net.cpp:104] Top shape: 96 24 5 5 (57600)
I0312 19:26:54.040014 17161 layer_factory.hpp:78] Creating layer inception_4b/relu_5x5_reduce
I0312 19:26:54.040030 17161 net.cpp:68] Creating Layer inception_4b/relu_5x5_reduce
I0312 19:26:54.040041 17161 net.cpp:395] inception_4b/relu_5x5_reduce <- inception_4b/5x5_reduce/bn
I0312 19:26:54.040057 17161 net.cpp:346] inception_4b/relu_5x5_reduce -> inception_4b/5x5_reduce/bn (in-place)
I0312 19:26:54.040071 17161 net.cpp:97] Setting up inception_4b/relu_5x5_reduce
I0312 19:26:54.040086 17161 net.cpp:104] Top shape: 96 24 5 5 (57600)
I0312 19:26:54.040099 17161 layer_factory.hpp:78] Creating layer inception_4b/5x5
I0312 19:26:54.040134 17161 net.cpp:68] Creating Layer inception_4b/5x5
I0312 19:26:54.040148 17161 net.cpp:395] inception_4b/5x5 <- inception_4b/5x5_reduce/bn
I0312 19:26:54.040166 17161 net.cpp:357] inception_4b/5x5 -> inception_4b/5x5
I0312 19:26:54.040182 17161 net.cpp:97] Setting up inception_4b/5x5
I0312 19:26:54.040647 17161 net.cpp:104] Top shape: 96 64 5 5 (153600)
I0312 19:26:54.040670 17161 layer_factory.hpp:78] Creating layer inception_4b/5x5/bn
I0312 19:26:54.040690 17161 net.cpp:68] Creating Layer inception_4b/5x5/bn
I0312 19:26:54.040704 17161 net.cpp:395] inception_4b/5x5/bn <- inception_4b/5x5
I0312 19:26:54.040721 17161 net.cpp:357] inception_4b/5x5/bn -> inception_4b/5x5/bn
I0312 19:26:54.040736 17161 net.cpp:97] Setting up inception_4b/5x5/bn
I0312 19:26:54.040757 17161 net.cpp:104] Top shape: 96 64 5 5 (153600)
I0312 19:26:54.040772 17161 layer_factory.hpp:78] Creating layer inception_4b/relu_5x5
I0312 19:26:54.040788 17161 net.cpp:68] Creating Layer inception_4b/relu_5x5
I0312 19:26:54.040802 17161 net.cpp:395] inception_4b/relu_5x5 <- inception_4b/5x5/bn
I0312 19:26:54.040814 17161 net.cpp:346] inception_4b/relu_5x5 -> inception_4b/5x5/bn (in-place)
I0312 19:26:54.040828 17161 net.cpp:97] Setting up inception_4b/relu_5x5
I0312 19:26:54.040843 17161 net.cpp:104] Top shape: 96 64 5 5 (153600)
I0312 19:26:54.040855 17161 layer_factory.hpp:78] Creating layer inception_4b/pool
I0312 19:26:54.040875 17161 layer_factory.cpp:51] CUDNN does not support padding or multiple tops. Using Caffe's own pooling layer.
I0312 19:26:54.040890 17161 net.cpp:68] Creating Layer inception_4b/pool
I0312 19:26:54.040902 17161 net.cpp:395] inception_4b/pool <- inception_4a/output_inception_4a/output_0_split_4
I0312 19:26:54.040920 17161 net.cpp:357] inception_4b/pool -> inception_4b/pool
I0312 19:26:54.040938 17161 net.cpp:97] Setting up inception_4b/pool
I0312 19:26:54.040952 17161 net.cpp:104] Top shape: 96 512 5 5 (1228800)
I0312 19:26:54.040964 17161 layer_factory.hpp:78] Creating layer inception_4b/pool_proj
I0312 19:26:54.040979 17161 net.cpp:68] Creating Layer inception_4b/pool_proj
I0312 19:26:54.040992 17161 net.cpp:395] inception_4b/pool_proj <- inception_4b/pool
I0312 19:26:54.041008 17161 net.cpp:357] inception_4b/pool_proj -> inception_4b/pool_proj
I0312 19:26:54.041023 17161 net.cpp:97] Setting up inception_4b/pool_proj
I0312 19:26:54.041427 17161 net.cpp:104] Top shape: 96 64 5 5 (153600)
I0312 19:26:54.041451 17161 layer_factory.hpp:78] Creating layer inception_4b/pool_proj/bn
I0312 19:26:54.041470 17161 net.cpp:68] Creating Layer inception_4b/pool_proj/bn
I0312 19:26:54.041482 17161 net.cpp:395] inception_4b/pool_proj/bn <- inception_4b/pool_proj
I0312 19:26:54.041501 17161 net.cpp:357] inception_4b/pool_proj/bn -> inception_4b/pool_proj/bn
I0312 19:26:54.041517 17161 net.cpp:97] Setting up inception_4b/pool_proj/bn
I0312 19:26:54.041538 17161 net.cpp:104] Top shape: 96 64 5 5 (153600)
I0312 19:26:54.041553 17161 layer_factory.hpp:78] Creating layer inception_4b/relu_pool_proj
I0312 19:26:54.041568 17161 net.cpp:68] Creating Layer inception_4b/relu_pool_proj
I0312 19:26:54.041579 17161 net.cpp:395] inception_4b/relu_pool_proj <- inception_4b/pool_proj/bn
I0312 19:26:54.041594 17161 net.cpp:346] inception_4b/relu_pool_proj -> inception_4b/pool_proj/bn (in-place)
I0312 19:26:54.041610 17161 net.cpp:97] Setting up inception_4b/relu_pool_proj
I0312 19:26:54.041625 17161 net.cpp:104] Top shape: 96 64 5 5 (153600)
I0312 19:26:54.041636 17161 layer_factory.hpp:78] Creating layer inception_4b/output
I0312 19:26:54.041651 17161 net.cpp:68] Creating Layer inception_4b/output
I0312 19:26:54.041662 17161 net.cpp:395] inception_4b/output <- inception_4b/1x1/bn
I0312 19:26:54.041676 17161 net.cpp:395] inception_4b/output <- inception_4b/3x3/bn
I0312 19:26:54.041689 17161 net.cpp:395] inception_4b/output <- inception_4b/5x5/bn
I0312 19:26:54.041702 17161 net.cpp:395] inception_4b/output <- inception_4b/pool_proj/bn
I0312 19:26:54.041715 17161 net.cpp:357] inception_4b/output -> inception_4b/output
I0312 19:26:54.041749 17161 net.cpp:97] Setting up inception_4b/output
I0312 19:26:54.041762 17161 net.cpp:104] Top shape: 96 512 5 5 (1228800)
I0312 19:26:54.041774 17161 layer_factory.hpp:78] Creating layer inception_4b/output_inception_4b/output_0_split
I0312 19:26:54.041790 17161 net.cpp:68] Creating Layer inception_4b/output_inception_4b/output_0_split
I0312 19:26:54.041801 17161 net.cpp:395] inception_4b/output_inception_4b/output_0_split <- inception_4b/output
I0312 19:26:54.041820 17161 net.cpp:357] inception_4b/output_inception_4b/output_0_split -> inception_4b/output_inception_4b/output_0_split_0
I0312 19:26:54.041836 17161 net.cpp:357] inception_4b/output_inception_4b/output_0_split -> inception_4b/output_inception_4b/output_0_split_1
I0312 19:26:54.041853 17161 net.cpp:357] inception_4b/output_inception_4b/output_0_split -> inception_4b/output_inception_4b/output_0_split_2
I0312 19:26:54.041870 17161 net.cpp:357] inception_4b/output_inception_4b/output_0_split -> inception_4b/output_inception_4b/output_0_split_3
I0312 19:26:54.041885 17161 net.cpp:97] Setting up inception_4b/output_inception_4b/output_0_split
I0312 19:26:54.041898 17161 net.cpp:104] Top shape: 96 512 5 5 (1228800)
I0312 19:26:54.041910 17161 net.cpp:104] Top shape: 96 512 5 5 (1228800)
I0312 19:26:54.041921 17161 net.cpp:104] Top shape: 96 512 5 5 (1228800)
I0312 19:26:54.041932 17161 net.cpp:104] Top shape: 96 512 5 5 (1228800)
I0312 19:26:54.041944 17161 layer_factory.hpp:78] Creating layer inception_4c/1x1
I0312 19:26:54.041960 17161 net.cpp:68] Creating Layer inception_4c/1x1
I0312 19:26:54.041973 17161 net.cpp:395] inception_4c/1x1 <- inception_4b/output_inception_4b/output_0_split_0
I0312 19:26:54.041987 17161 net.cpp:357] inception_4c/1x1 -> inception_4c/1x1
I0312 19:26:54.042003 17161 net.cpp:97] Setting up inception_4c/1x1
I0312 19:26:54.042738 17161 net.cpp:104] Top shape: 96 128 5 5 (307200)
I0312 19:26:54.042762 17161 layer_factory.hpp:78] Creating layer inception_4c/1x1/bn
I0312 19:26:54.042780 17161 net.cpp:68] Creating Layer inception_4c/1x1/bn
I0312 19:26:54.042793 17161 net.cpp:395] inception_4c/1x1/bn <- inception_4c/1x1
I0312 19:26:54.042809 17161 net.cpp:357] inception_4c/1x1/bn -> inception_4c/1x1/bn
I0312 19:26:54.042824 17161 net.cpp:97] Setting up inception_4c/1x1/bn
I0312 19:26:54.042847 17161 net.cpp:104] Top shape: 96 128 5 5 (307200)
I0312 19:26:54.042862 17161 layer_factory.hpp:78] Creating layer inception_4c/relu_1x1
I0312 19:26:54.042876 17161 net.cpp:68] Creating Layer inception_4c/relu_1x1
I0312 19:26:54.042889 17161 net.cpp:395] inception_4c/relu_1x1 <- inception_4c/1x1/bn
I0312 19:26:54.042904 17161 net.cpp:346] inception_4c/relu_1x1 -> inception_4c/1x1/bn (in-place)
I0312 19:26:54.042919 17161 net.cpp:97] Setting up inception_4c/relu_1x1
I0312 19:26:54.042934 17161 net.cpp:104] Top shape: 96 128 5 5 (307200)
I0312 19:26:54.042947 17161 layer_factory.hpp:78] Creating layer inception_4c/3x3_reduce
I0312 19:26:54.042959 17161 net.cpp:68] Creating Layer inception_4c/3x3_reduce
I0312 19:26:54.042973 17161 net.cpp:395] inception_4c/3x3_reduce <- inception_4b/output_inception_4b/output_0_split_1
I0312 19:26:54.042991 17161 net.cpp:357] inception_4c/3x3_reduce -> inception_4c/3x3_reduce
I0312 19:26:54.043007 17161 net.cpp:97] Setting up inception_4c/3x3_reduce
I0312 19:26:54.043876 17161 net.cpp:104] Top shape: 96 128 5 5 (307200)
I0312 19:26:54.043902 17161 layer_factory.hpp:78] Creating layer inception_4c/3x3_reduce/bn
I0312 19:26:54.043921 17161 net.cpp:68] Creating Layer inception_4c/3x3_reduce/bn
I0312 19:26:54.043936 17161 net.cpp:395] inception_4c/3x3_reduce/bn <- inception_4c/3x3_reduce
I0312 19:26:54.043953 17161 net.cpp:357] inception_4c/3x3_reduce/bn -> inception_4c/3x3_reduce/bn
I0312 19:26:54.043970 17161 net.cpp:97] Setting up inception_4c/3x3_reduce/bn
I0312 19:26:54.043992 17161 net.cpp:104] Top shape: 96 128 5 5 (307200)
I0312 19:26:54.044025 17161 layer_factory.hpp:78] Creating layer inception_4c/relu_3x3_reduce
I0312 19:26:54.044126 17161 net.cpp:68] Creating Layer inception_4c/relu_3x3_reduce
I0312 19:26:54.044162 17161 net.cpp:395] inception_4c/relu_3x3_reduce <- inception_4c/3x3_reduce/bn
I0312 19:26:54.044179 17161 net.cpp:346] inception_4c/relu_3x3_reduce -> inception_4c/3x3_reduce/bn (in-place)
I0312 19:26:54.044195 17161 net.cpp:97] Setting up inception_4c/relu_3x3_reduce
I0312 19:26:54.044212 17161 net.cpp:104] Top shape: 96 128 5 5 (307200)
I0312 19:26:54.044225 17161 layer_factory.hpp:78] Creating layer inception_4c/3x3
I0312 19:26:54.044245 17161 net.cpp:68] Creating Layer inception_4c/3x3
I0312 19:26:54.044258 17161 net.cpp:395] inception_4c/3x3 <- inception_4c/3x3_reduce/bn
I0312 19:26:54.044273 17161 net.cpp:357] inception_4c/3x3 -> inception_4c/3x3
I0312 19:26:54.044288 17161 net.cpp:97] Setting up inception_4c/3x3
I0312 19:26:54.047358 17161 net.cpp:104] Top shape: 96 256 5 5 (614400)
I0312 19:26:54.047382 17161 layer_factory.hpp:78] Creating layer inception_4c/3x3/bn
I0312 19:26:54.047401 17161 net.cpp:68] Creating Layer inception_4c/3x3/bn
I0312 19:26:54.047415 17161 net.cpp:395] inception_4c/3x3/bn <- inception_4c/3x3
I0312 19:26:54.047430 17161 net.cpp:357] inception_4c/3x3/bn -> inception_4c/3x3/bn
I0312 19:26:54.047446 17161 net.cpp:97] Setting up inception_4c/3x3/bn
I0312 19:26:54.047466 17161 net.cpp:104] Top shape: 96 256 5 5 (614400)
I0312 19:26:54.047482 17161 layer_factory.hpp:78] Creating layer inception_4c/relu_3x3
I0312 19:26:54.047497 17161 net.cpp:68] Creating Layer inception_4c/relu_3x3
I0312 19:26:54.047509 17161 net.cpp:395] inception_4c/relu_3x3 <- inception_4c/3x3/bn
I0312 19:26:54.047523 17161 net.cpp:346] inception_4c/relu_3x3 -> inception_4c/3x3/bn (in-place)
I0312 19:26:54.047536 17161 net.cpp:97] Setting up inception_4c/relu_3x3
I0312 19:26:54.047551 17161 net.cpp:104] Top shape: 96 256 5 5 (614400)
I0312 19:26:54.047564 17161 layer_factory.hpp:78] Creating layer inception_4c/5x5_reduce
I0312 19:26:54.047579 17161 net.cpp:68] Creating Layer inception_4c/5x5_reduce
I0312 19:26:54.047590 17161 net.cpp:395] inception_4c/5x5_reduce <- inception_4b/output_inception_4b/output_0_split_2
I0312 19:26:54.047608 17161 net.cpp:357] inception_4c/5x5_reduce -> inception_4c/5x5_reduce
I0312 19:26:54.047624 17161 net.cpp:97] Setting up inception_4c/5x5_reduce
I0312 19:26:54.047823 17161 net.cpp:104] Top shape: 96 24 5 5 (57600)
I0312 19:26:54.047845 17161 layer_factory.hpp:78] Creating layer inception_4c/5x5_reduce/bn
I0312 19:26:54.047863 17161 net.cpp:68] Creating Layer inception_4c/5x5_reduce/bn
I0312 19:26:54.047878 17161 net.cpp:395] inception_4c/5x5_reduce/bn <- inception_4c/5x5_reduce
I0312 19:26:54.047893 17161 net.cpp:357] inception_4c/5x5_reduce/bn -> inception_4c/5x5_reduce/bn
I0312 19:26:54.047909 17161 net.cpp:97] Setting up inception_4c/5x5_reduce/bn
I0312 19:26:54.047929 17161 net.cpp:104] Top shape: 96 24 5 5 (57600)
I0312 19:26:54.047945 17161 layer_factory.hpp:78] Creating layer inception_4c/relu_5x5_reduce
I0312 19:26:54.047960 17161 net.cpp:68] Creating Layer inception_4c/relu_5x5_reduce
I0312 19:26:54.047972 17161 net.cpp:395] inception_4c/relu_5x5_reduce <- inception_4c/5x5_reduce/bn
I0312 19:26:54.047986 17161 net.cpp:346] inception_4c/relu_5x5_reduce -> inception_4c/5x5_reduce/bn (in-place)
I0312 19:26:54.047999 17161 net.cpp:97] Setting up inception_4c/relu_5x5_reduce
I0312 19:26:54.048015 17161 net.cpp:104] Top shape: 96 24 5 5 (57600)
I0312 19:26:54.048027 17161 layer_factory.hpp:78] Creating layer inception_4c/5x5
I0312 19:26:54.048041 17161 net.cpp:68] Creating Layer inception_4c/5x5
I0312 19:26:54.048054 17161 net.cpp:395] inception_4c/5x5 <- inception_4c/5x5_reduce/bn
I0312 19:26:54.048071 17161 net.cpp:357] inception_4c/5x5 -> inception_4c/5x5
I0312 19:26:54.048086 17161 net.cpp:97] Setting up inception_4c/5x5
I0312 19:26:54.048547 17161 net.cpp:104] Top shape: 96 64 5 5 (153600)
I0312 19:26:54.048571 17161 layer_factory.hpp:78] Creating layer inception_4c/5x5/bn
I0312 19:26:54.048590 17161 net.cpp:68] Creating Layer inception_4c/5x5/bn
I0312 19:26:54.048604 17161 net.cpp:395] inception_4c/5x5/bn <- inception_4c/5x5
I0312 19:26:54.048621 17161 net.cpp:357] inception_4c/5x5/bn -> inception_4c/5x5/bn
I0312 19:26:54.048655 17161 net.cpp:97] Setting up inception_4c/5x5/bn
I0312 19:26:54.048678 17161 net.cpp:104] Top shape: 96 64 5 5 (153600)
I0312 19:26:54.048694 17161 layer_factory.hpp:78] Creating layer inception_4c/relu_5x5
I0312 19:26:54.048712 17161 net.cpp:68] Creating Layer inception_4c/relu_5x5
I0312 19:26:54.048723 17161 net.cpp:395] inception_4c/relu_5x5 <- inception_4c/5x5/bn
I0312 19:26:54.048738 17161 net.cpp:346] inception_4c/relu_5x5 -> inception_4c/5x5/bn (in-place)
I0312 19:26:54.048751 17161 net.cpp:97] Setting up inception_4c/relu_5x5
I0312 19:26:54.048766 17161 net.cpp:104] Top shape: 96 64 5 5 (153600)
I0312 19:26:54.048779 17161 layer_factory.hpp:78] Creating layer inception_4c/pool
I0312 19:26:54.048791 17161 layer_factory.cpp:51] CUDNN does not support padding or multiple tops. Using Caffe's own pooling layer.
I0312 19:26:54.048805 17161 net.cpp:68] Creating Layer inception_4c/pool
I0312 19:26:54.048817 17161 net.cpp:395] inception_4c/pool <- inception_4b/output_inception_4b/output_0_split_3
I0312 19:26:54.048832 17161 net.cpp:357] inception_4c/pool -> inception_4c/pool
I0312 19:26:54.048847 17161 net.cpp:97] Setting up inception_4c/pool
I0312 19:26:54.048871 17161 net.cpp:104] Top shape: 96 512 5 5 (1228800)
I0312 19:26:54.048884 17161 layer_factory.hpp:78] Creating layer inception_4c/pool_proj
I0312 19:26:54.048915 17161 net.cpp:68] Creating Layer inception_4c/pool_proj
I0312 19:26:54.048929 17161 net.cpp:395] inception_4c/pool_proj <- inception_4c/pool
I0312 19:26:54.048944 17161 net.cpp:357] inception_4c/pool_proj -> inception_4c/pool_proj
I0312 19:26:54.048960 17161 net.cpp:97] Setting up inception_4c/pool_proj
I0312 19:26:54.049363 17161 net.cpp:104] Top shape: 96 64 5 5 (153600)
I0312 19:26:54.049389 17161 layer_factory.hpp:78] Creating layer inception_4c/pool_proj/bn
I0312 19:26:54.049407 17161 net.cpp:68] Creating Layer inception_4c/pool_proj/bn
I0312 19:26:54.049420 17161 net.cpp:395] inception_4c/pool_proj/bn <- inception_4c/pool_proj
I0312 19:26:54.049437 17161 net.cpp:357] inception_4c/pool_proj/bn -> inception_4c/pool_proj/bn
I0312 19:26:54.049454 17161 net.cpp:97] Setting up inception_4c/pool_proj/bn
I0312 19:26:54.049474 17161 net.cpp:104] Top shape: 96 64 5 5 (153600)
I0312 19:26:54.049490 17161 layer_factory.hpp:78] Creating layer inception_4c/relu_pool_proj
I0312 19:26:54.049504 17161 net.cpp:68] Creating Layer inception_4c/relu_pool_proj
I0312 19:26:54.049516 17161 net.cpp:395] inception_4c/relu_pool_proj <- inception_4c/pool_proj/bn
I0312 19:26:54.049532 17161 net.cpp:346] inception_4c/relu_pool_proj -> inception_4c/pool_proj/bn (in-place)
I0312 19:26:54.049547 17161 net.cpp:97] Setting up inception_4c/relu_pool_proj
I0312 19:26:54.049562 17161 net.cpp:104] Top shape: 96 64 5 5 (153600)
I0312 19:26:54.049576 17161 layer_factory.hpp:78] Creating layer inception_4c/output
I0312 19:26:54.049589 17161 net.cpp:68] Creating Layer inception_4c/output
I0312 19:26:54.049600 17161 net.cpp:395] inception_4c/output <- inception_4c/1x1/bn
I0312 19:26:54.049613 17161 net.cpp:395] inception_4c/output <- inception_4c/3x3/bn
I0312 19:26:54.049628 17161 net.cpp:395] inception_4c/output <- inception_4c/5x5/bn
I0312 19:26:54.049640 17161 net.cpp:395] inception_4c/output <- inception_4c/pool_proj/bn
I0312 19:26:54.049657 17161 net.cpp:357] inception_4c/output -> inception_4c/output
I0312 19:26:54.049674 17161 net.cpp:97] Setting up inception_4c/output
I0312 19:26:54.049685 17161 net.cpp:104] Top shape: 96 512 5 5 (1228800)
I0312 19:26:54.049697 17161 layer_factory.hpp:78] Creating layer inception_4c/output_inception_4c/output_0_split
I0312 19:26:54.049711 17161 net.cpp:68] Creating Layer inception_4c/output_inception_4c/output_0_split
I0312 19:26:54.049723 17161 net.cpp:395] inception_4c/output_inception_4c/output_0_split <- inception_4c/output
I0312 19:26:54.049738 17161 net.cpp:357] inception_4c/output_inception_4c/output_0_split -> inception_4c/output_inception_4c/output_0_split_0
I0312 19:26:54.049754 17161 net.cpp:357] inception_4c/output_inception_4c/output_0_split -> inception_4c/output_inception_4c/output_0_split_1
I0312 19:26:54.049788 17161 net.cpp:357] inception_4c/output_inception_4c/output_0_split -> inception_4c/output_inception_4c/output_0_split_2
I0312 19:26:54.049813 17161 net.cpp:357] inception_4c/output_inception_4c/output_0_split -> inception_4c/output_inception_4c/output_0_split_3
I0312 19:26:54.049829 17161 net.cpp:97] Setting up inception_4c/output_inception_4c/output_0_split
I0312 19:26:54.049841 17161 net.cpp:104] Top shape: 96 512 5 5 (1228800)
I0312 19:26:54.049854 17161 net.cpp:104] Top shape: 96 512 5 5 (1228800)
I0312 19:26:54.049865 17161 net.cpp:104] Top shape: 96 512 5 5 (1228800)
I0312 19:26:54.049875 17161 net.cpp:104] Top shape: 96 512 5 5 (1228800)
I0312 19:26:54.049887 17161 layer_factory.hpp:78] Creating layer inception_4d/1x1
I0312 19:26:54.049902 17161 net.cpp:68] Creating Layer inception_4d/1x1
I0312 19:26:54.049914 17161 net.cpp:395] inception_4d/1x1 <- inception_4c/output_inception_4c/output_0_split_0
I0312 19:26:54.049932 17161 net.cpp:357] inception_4d/1x1 -> inception_4d/1x1
I0312 19:26:54.049947 17161 net.cpp:97] Setting up inception_4d/1x1
I0312 19:26:54.050729 17161 net.cpp:104] Top shape: 96 112 5 5 (268800)
I0312 19:26:54.050755 17161 layer_factory.hpp:78] Creating layer inception_4d/1x1/bn
I0312 19:26:54.050775 17161 net.cpp:68] Creating Layer inception_4d/1x1/bn
I0312 19:26:54.050787 17161 net.cpp:395] inception_4d/1x1/bn <- inception_4d/1x1
I0312 19:26:54.050804 17161 net.cpp:357] inception_4d/1x1/bn -> inception_4d/1x1/bn
I0312 19:26:54.050822 17161 net.cpp:97] Setting up inception_4d/1x1/bn
I0312 19:26:54.050843 17161 net.cpp:104] Top shape: 96 112 5 5 (268800)
I0312 19:26:54.050860 17161 layer_factory.hpp:78] Creating layer inception_4d/relu_1x1
I0312 19:26:54.050875 17161 net.cpp:68] Creating Layer inception_4d/relu_1x1
I0312 19:26:54.050887 17161 net.cpp:395] inception_4d/relu_1x1 <- inception_4d/1x1/bn
I0312 19:26:54.050901 17161 net.cpp:346] inception_4d/relu_1x1 -> inception_4d/1x1/bn (in-place)
I0312 19:26:54.050915 17161 net.cpp:97] Setting up inception_4d/relu_1x1
I0312 19:26:54.050930 17161 net.cpp:104] Top shape: 96 112 5 5 (268800)
I0312 19:26:54.050942 17161 layer_factory.hpp:78] Creating layer inception_4d/3x3_reduce
I0312 19:26:54.050957 17161 net.cpp:68] Creating Layer inception_4d/3x3_reduce
I0312 19:26:54.050971 17161 net.cpp:395] inception_4d/3x3_reduce <- inception_4c/output_inception_4c/output_0_split_1
I0312 19:26:54.050990 17161 net.cpp:357] inception_4d/3x3_reduce -> inception_4d/3x3_reduce
I0312 19:26:54.051007 17161 net.cpp:97] Setting up inception_4d/3x3_reduce
I0312 19:26:54.051823 17161 net.cpp:104] Top shape: 96 144 5 5 (345600)
I0312 19:26:54.051846 17161 layer_factory.hpp:78] Creating layer inception_4d/3x3_reduce/bn
I0312 19:26:54.051862 17161 net.cpp:68] Creating Layer inception_4d/3x3_reduce/bn
I0312 19:26:54.051877 17161 net.cpp:395] inception_4d/3x3_reduce/bn <- inception_4d/3x3_reduce
I0312 19:26:54.051893 17161 net.cpp:357] inception_4d/3x3_reduce/bn -> inception_4d/3x3_reduce/bn
I0312 19:26:54.051910 17161 net.cpp:97] Setting up inception_4d/3x3_reduce/bn
I0312 19:26:54.051930 17161 net.cpp:104] Top shape: 96 144 5 5 (345600)
I0312 19:26:54.051946 17161 layer_factory.hpp:78] Creating layer inception_4d/relu_3x3_reduce
I0312 19:26:54.051962 17161 net.cpp:68] Creating Layer inception_4d/relu_3x3_reduce
I0312 19:26:54.051975 17161 net.cpp:395] inception_4d/relu_3x3_reduce <- inception_4d/3x3_reduce/bn
I0312 19:26:54.051990 17161 net.cpp:346] inception_4d/relu_3x3_reduce -> inception_4d/3x3_reduce/bn (in-place)
I0312 19:26:54.052003 17161 net.cpp:97] Setting up inception_4d/relu_3x3_reduce
I0312 19:26:54.052018 17161 net.cpp:104] Top shape: 96 144 5 5 (345600)
I0312 19:26:54.052031 17161 layer_factory.hpp:78] Creating layer inception_4d/3x3
I0312 19:26:54.052049 17161 net.cpp:68] Creating Layer inception_4d/3x3
I0312 19:26:54.052062 17161 net.cpp:395] inception_4d/3x3 <- inception_4d/3x3_reduce/bn
I0312 19:26:54.052076 17161 net.cpp:357] inception_4d/3x3 -> inception_4d/3x3
I0312 19:26:54.052110 17161 net.cpp:97] Setting up inception_4d/3x3
I0312 19:26:54.055953 17161 net.cpp:104] Top shape: 96 288 5 5 (691200)
I0312 19:26:54.055979 17161 layer_factory.hpp:78] Creating layer inception_4d/3x3/bn
I0312 19:26:54.055999 17161 net.cpp:68] Creating Layer inception_4d/3x3/bn
I0312 19:26:54.056012 17161 net.cpp:395] inception_4d/3x3/bn <- inception_4d/3x3
I0312 19:26:54.056027 17161 net.cpp:357] inception_4d/3x3/bn -> inception_4d/3x3/bn
I0312 19:26:54.056043 17161 net.cpp:97] Setting up inception_4d/3x3/bn
I0312 19:26:54.056068 17161 net.cpp:104] Top shape: 96 288 5 5 (691200)
I0312 19:26:54.056084 17161 layer_factory.hpp:78] Creating layer inception_4d/relu_3x3
I0312 19:26:54.056098 17161 net.cpp:68] Creating Layer inception_4d/relu_3x3
I0312 19:26:54.056110 17161 net.cpp:395] inception_4d/relu_3x3 <- inception_4d/3x3/bn
I0312 19:26:54.056123 17161 net.cpp:346] inception_4d/relu_3x3 -> inception_4d/3x3/bn (in-place)
I0312 19:26:54.056138 17161 net.cpp:97] Setting up inception_4d/relu_3x3
I0312 19:26:54.056152 17161 net.cpp:104] Top shape: 96 288 5 5 (691200)
I0312 19:26:54.056165 17161 layer_factory.hpp:78] Creating layer inception_4d/5x5_reduce
I0312 19:26:54.056180 17161 net.cpp:68] Creating Layer inception_4d/5x5_reduce
I0312 19:26:54.056192 17161 net.cpp:395] inception_4d/5x5_reduce <- inception_4c/output_inception_4c/output_0_split_2
I0312 19:26:54.056206 17161 net.cpp:357] inception_4d/5x5_reduce -> inception_4d/5x5_reduce
I0312 19:26:54.056222 17161 net.cpp:97] Setting up inception_4d/5x5_reduce
I0312 19:26:54.056460 17161 net.cpp:104] Top shape: 96 32 5 5 (76800)
I0312 19:26:54.056483 17161 layer_factory.hpp:78] Creating layer inception_4d/5x5_reduce/bn
I0312 19:26:54.056504 17161 net.cpp:68] Creating Layer inception_4d/5x5_reduce/bn
I0312 19:26:54.056517 17161 net.cpp:395] inception_4d/5x5_reduce/bn <- inception_4d/5x5_reduce
I0312 19:26:54.056535 17161 net.cpp:357] inception_4d/5x5_reduce/bn -> inception_4d/5x5_reduce/bn
I0312 19:26:54.056550 17161 net.cpp:97] Setting up inception_4d/5x5_reduce/bn
I0312 19:26:54.056571 17161 net.cpp:104] Top shape: 96 32 5 5 (76800)
I0312 19:26:54.056586 17161 layer_factory.hpp:78] Creating layer inception_4d/relu_5x5_reduce
I0312 19:26:54.056601 17161 net.cpp:68] Creating Layer inception_4d/relu_5x5_reduce
I0312 19:26:54.056612 17161 net.cpp:395] inception_4d/relu_5x5_reduce <- inception_4d/5x5_reduce/bn
I0312 19:26:54.056629 17161 net.cpp:346] inception_4d/relu_5x5_reduce -> inception_4d/5x5_reduce/bn (in-place)
I0312 19:26:54.056644 17161 net.cpp:97] Setting up inception_4d/relu_5x5_reduce
I0312 19:26:54.056659 17161 net.cpp:104] Top shape: 96 32 5 5 (76800)
I0312 19:26:54.056673 17161 layer_factory.hpp:78] Creating layer inception_4d/5x5
I0312 19:26:54.056687 17161 net.cpp:68] Creating Layer inception_4d/5x5
I0312 19:26:54.056699 17161 net.cpp:395] inception_4d/5x5 <- inception_4d/5x5_reduce/bn
I0312 19:26:54.056713 17161 net.cpp:357] inception_4d/5x5 -> inception_4d/5x5
I0312 19:26:54.056728 17161 net.cpp:97] Setting up inception_4d/5x5
I0312 19:26:54.057332 17161 net.cpp:104] Top shape: 96 64 5 5 (153600)
I0312 19:26:54.057354 17161 layer_factory.hpp:78] Creating layer inception_4d/5x5/bn
I0312 19:26:54.057374 17161 net.cpp:68] Creating Layer inception_4d/5x5/bn
I0312 19:26:54.057386 17161 net.cpp:395] inception_4d/5x5/bn <- inception_4d/5x5
I0312 19:26:54.057400 17161 net.cpp:357] inception_4d/5x5/bn -> inception_4d/5x5/bn
I0312 19:26:54.057416 17161 net.cpp:97] Setting up inception_4d/5x5/bn
I0312 19:26:54.057438 17161 net.cpp:104] Top shape: 96 64 5 5 (153600)
I0312 19:26:54.057454 17161 layer_factory.hpp:78] Creating layer inception_4d/relu_5x5
I0312 19:26:54.057469 17161 net.cpp:68] Creating Layer inception_4d/relu_5x5
I0312 19:26:54.057482 17161 net.cpp:395] inception_4d/relu_5x5 <- inception_4d/5x5/bn
I0312 19:26:54.057494 17161 net.cpp:346] inception_4d/relu_5x5 -> inception_4d/5x5/bn (in-place)
I0312 19:26:54.057508 17161 net.cpp:97] Setting up inception_4d/relu_5x5
I0312 19:26:54.057523 17161 net.cpp:104] Top shape: 96 64 5 5 (153600)
I0312 19:26:54.057556 17161 layer_factory.hpp:78] Creating layer inception_4d/pool
I0312 19:26:54.057571 17161 layer_factory.cpp:51] CUDNN does not support padding or multiple tops. Using Caffe's own pooling layer.
I0312 19:26:54.057585 17161 net.cpp:68] Creating Layer inception_4d/pool
I0312 19:26:54.057597 17161 net.cpp:395] inception_4d/pool <- inception_4c/output_inception_4c/output_0_split_3
I0312 19:26:54.057616 17161 net.cpp:357] inception_4d/pool -> inception_4d/pool
I0312 19:26:54.057649 17161 net.cpp:97] Setting up inception_4d/pool
I0312 19:26:54.057665 17161 net.cpp:104] Top shape: 96 512 5 5 (1228800)
I0312 19:26:54.057683 17161 layer_factory.hpp:78] Creating layer inception_4d/pool_proj
I0312 19:26:54.057699 17161 net.cpp:68] Creating Layer inception_4d/pool_proj
I0312 19:26:54.057711 17161 net.cpp:395] inception_4d/pool_proj <- inception_4d/pool
I0312 19:26:54.057728 17161 net.cpp:357] inception_4d/pool_proj -> inception_4d/pool_proj
I0312 19:26:54.057742 17161 net.cpp:97] Setting up inception_4d/pool_proj
I0312 19:26:54.058285 17161 net.cpp:104] Top shape: 96 64 5 5 (153600)
I0312 19:26:54.058311 17161 layer_factory.hpp:78] Creating layer inception_4d/pool_proj/bn
I0312 19:26:54.058328 17161 net.cpp:68] Creating Layer inception_4d/pool_proj/bn
I0312 19:26:54.058341 17161 net.cpp:395] inception_4d/pool_proj/bn <- inception_4d/pool_proj
I0312 19:26:54.058357 17161 net.cpp:357] inception_4d/pool_proj/bn -> inception_4d/pool_proj/bn
I0312 19:26:54.058374 17161 net.cpp:97] Setting up inception_4d/pool_proj/bn
I0312 19:26:54.058395 17161 net.cpp:104] Top shape: 96 64 5 5 (153600)
I0312 19:26:54.058410 17161 layer_factory.hpp:78] Creating layer inception_4d/relu_pool_proj
I0312 19:26:54.058425 17161 net.cpp:68] Creating Layer inception_4d/relu_pool_proj
I0312 19:26:54.058437 17161 net.cpp:395] inception_4d/relu_pool_proj <- inception_4d/pool_proj/bn
I0312 19:26:54.058454 17161 net.cpp:346] inception_4d/relu_pool_proj -> inception_4d/pool_proj/bn (in-place)
I0312 19:26:54.058468 17161 net.cpp:97] Setting up inception_4d/relu_pool_proj
I0312 19:26:54.058483 17161 net.cpp:104] Top shape: 96 64 5 5 (153600)
I0312 19:26:54.058496 17161 layer_factory.hpp:78] Creating layer inception_4d/output
I0312 19:26:54.058511 17161 net.cpp:68] Creating Layer inception_4d/output
I0312 19:26:54.058522 17161 net.cpp:395] inception_4d/output <- inception_4d/1x1/bn
I0312 19:26:54.058536 17161 net.cpp:395] inception_4d/output <- inception_4d/3x3/bn
I0312 19:26:54.058548 17161 net.cpp:395] inception_4d/output <- inception_4d/5x5/bn
I0312 19:26:54.058562 17161 net.cpp:395] inception_4d/output <- inception_4d/pool_proj/bn
I0312 19:26:54.058576 17161 net.cpp:357] inception_4d/output -> inception_4d/output
I0312 19:26:54.058591 17161 net.cpp:97] Setting up inception_4d/output
I0312 19:26:54.058604 17161 net.cpp:104] Top shape: 96 528 5 5 (1267200)
I0312 19:26:54.058615 17161 layer_factory.hpp:78] Creating layer inception_4d/output_inception_4d/output_0_split
I0312 19:26:54.058632 17161 net.cpp:68] Creating Layer inception_4d/output_inception_4d/output_0_split
I0312 19:26:54.058645 17161 net.cpp:395] inception_4d/output_inception_4d/output_0_split <- inception_4d/output
I0312 19:26:54.058660 17161 net.cpp:357] inception_4d/output_inception_4d/output_0_split -> inception_4d/output_inception_4d/output_0_split_0
I0312 19:26:54.058676 17161 net.cpp:357] inception_4d/output_inception_4d/output_0_split -> inception_4d/output_inception_4d/output_0_split_1
I0312 19:26:54.058692 17161 net.cpp:357] inception_4d/output_inception_4d/output_0_split -> inception_4d/output_inception_4d/output_0_split_2
I0312 19:26:54.058709 17161 net.cpp:357] inception_4d/output_inception_4d/output_0_split -> inception_4d/output_inception_4d/output_0_split_3
I0312 19:26:54.058727 17161 net.cpp:357] inception_4d/output_inception_4d/output_0_split -> inception_4d/output_inception_4d/output_0_split_4
I0312 19:26:54.058743 17161 net.cpp:97] Setting up inception_4d/output_inception_4d/output_0_split
I0312 19:26:54.058758 17161 net.cpp:104] Top shape: 96 528 5 5 (1267200)
I0312 19:26:54.058785 17161 net.cpp:104] Top shape: 96 528 5 5 (1267200)
I0312 19:26:54.058799 17161 net.cpp:104] Top shape: 96 528 5 5 (1267200)
I0312 19:26:54.058810 17161 net.cpp:104] Top shape: 96 528 5 5 (1267200)
I0312 19:26:54.058821 17161 net.cpp:104] Top shape: 96 528 5 5 (1267200)
I0312 19:26:54.058832 17161 layer_factory.hpp:78] Creating layer loss2/ave_pool
I0312 19:26:54.058846 17161 net.cpp:68] Creating Layer loss2/ave_pool
I0312 19:26:54.058859 17161 net.cpp:395] loss2/ave_pool <- inception_4d/output_inception_4d/output_0_split_0
I0312 19:26:54.058873 17161 net.cpp:357] loss2/ave_pool -> loss2/ave_pool
I0312 19:26:54.058888 17161 net.cpp:97] Setting up loss2/ave_pool
I0312 19:26:54.058905 17161 net.cpp:104] Top shape: 96 528 1 1 (50688)
I0312 19:26:54.058918 17161 layer_factory.hpp:78] Creating layer loss2/conv
I0312 19:26:54.058938 17161 net.cpp:68] Creating Layer loss2/conv
I0312 19:26:54.058950 17161 net.cpp:395] loss2/conv <- loss2/ave_pool
I0312 19:26:54.058967 17161 net.cpp:357] loss2/conv -> loss2/conv
I0312 19:26:54.058982 17161 net.cpp:97] Setting up loss2/conv
I0312 19:26:54.059741 17161 net.cpp:104] Top shape: 96 128 1 1 (12288)
I0312 19:26:54.059764 17161 layer_factory.hpp:78] Creating layer loss2/conv/bn
I0312 19:26:54.059784 17161 net.cpp:68] Creating Layer loss2/conv/bn
I0312 19:26:54.059798 17161 net.cpp:395] loss2/conv/bn <- loss2/conv
I0312 19:26:54.059814 17161 net.cpp:357] loss2/conv/bn -> loss2/conv/bn
I0312 19:26:54.059830 17161 net.cpp:97] Setting up loss2/conv/bn
I0312 19:26:54.059851 17161 net.cpp:104] Top shape: 96 128 1 1 (12288)
I0312 19:26:54.059866 17161 layer_factory.hpp:78] Creating layer loss2/relu_conv
I0312 19:26:54.059880 17161 net.cpp:68] Creating Layer loss2/relu_conv
I0312 19:26:54.059896 17161 net.cpp:395] loss2/relu_conv <- loss2/conv/bn
I0312 19:26:54.059911 17161 net.cpp:346] loss2/relu_conv -> loss2/conv/bn (in-place)
I0312 19:26:54.059924 17161 net.cpp:97] Setting up loss2/relu_conv
I0312 19:26:54.059939 17161 net.cpp:104] Top shape: 96 128 1 1 (12288)
I0312 19:26:54.059952 17161 layer_factory.hpp:78] Creating layer loss2/fc
I0312 19:26:54.059967 17161 net.cpp:68] Creating Layer loss2/fc
I0312 19:26:54.059979 17161 net.cpp:395] loss2/fc <- loss2/conv/bn
I0312 19:26:54.059996 17161 net.cpp:357] loss2/fc -> loss2/fc
I0312 19:26:54.060012 17161 net.cpp:97] Setting up loss2/fc
I0312 19:26:54.061352 17161 net.cpp:104] Top shape: 96 1024 1 1 (98304)
I0312 19:26:54.061375 17161 layer_factory.hpp:78] Creating layer loss2/fc/bn
I0312 19:26:54.061393 17161 net.cpp:68] Creating Layer loss2/fc/bn
I0312 19:26:54.061406 17161 net.cpp:395] loss2/fc/bn <- loss2/fc
I0312 19:26:54.061420 17161 net.cpp:357] loss2/fc/bn -> loss2/fc/bn
I0312 19:26:54.061435 17161 net.cpp:97] Setting up loss2/fc/bn
I0312 19:26:54.061460 17161 net.cpp:104] Top shape: 96 1024 1 1 (98304)
I0312 19:26:54.061477 17161 layer_factory.hpp:78] Creating layer loss2/relu_fc
I0312 19:26:54.061492 17161 net.cpp:68] Creating Layer loss2/relu_fc
I0312 19:26:54.061504 17161 net.cpp:395] loss2/relu_fc <- loss2/fc/bn
I0312 19:26:54.061518 17161 net.cpp:346] loss2/relu_fc -> loss2/fc/bn (in-place)
I0312 19:26:54.061532 17161 net.cpp:97] Setting up loss2/relu_fc
I0312 19:26:54.061547 17161 net.cpp:104] Top shape: 96 1024 1 1 (98304)
I0312 19:26:54.061559 17161 layer_factory.hpp:78] Creating layer loss2/drop_fc
I0312 19:26:54.061573 17161 net.cpp:68] Creating Layer loss2/drop_fc
I0312 19:26:54.061585 17161 net.cpp:395] loss2/drop_fc <- loss2/fc/bn
I0312 19:26:54.061602 17161 net.cpp:346] loss2/drop_fc -> loss2/fc/bn (in-place)
I0312 19:26:54.061617 17161 net.cpp:97] Setting up loss2/drop_fc
I0312 19:26:54.061630 17161 net.cpp:104] Top shape: 96 1024 1 1 (98304)
I0312 19:26:54.061642 17161 layer_factory.hpp:78] Creating layer loss2/classifier
I0312 19:26:54.061657 17161 net.cpp:68] Creating Layer loss2/classifier
I0312 19:26:54.061669 17161 net.cpp:395] loss2/classifier <- loss2/fc/bn
I0312 19:26:54.061686 17161 net.cpp:357] loss2/classifier -> loss2/classifier
I0312 19:26:54.061702 17161 net.cpp:97] Setting up loss2/classifier
I0312 19:26:54.062979 17161 net.cpp:104] Top shape: 96 121 1 1 (11616)
I0312 19:26:54.063004 17161 layer_factory.hpp:78] Creating layer loss2/loss
I0312 19:26:54.063030 17161 net.cpp:68] Creating Layer loss2/loss
I0312 19:26:54.063043 17161 net.cpp:395] loss2/loss <- loss2/classifier
I0312 19:26:54.063057 17161 net.cpp:395] loss2/loss <- label_data_1_split_1
I0312 19:26:54.063071 17161 net.cpp:357] loss2/loss -> loss2/loss
I0312 19:26:54.063086 17161 net.cpp:97] Setting up loss2/loss
I0312 19:26:54.063099 17161 layer_factory.hpp:78] Creating layer loss2/loss
I0312 19:26:54.063153 17161 net.cpp:104] Top shape: 1 1 1 1 (1)
I0312 19:26:54.063169 17161 net.cpp:110]     with loss weight 0.05
I0312 19:26:54.063194 17161 layer_factory.hpp:78] Creating layer inception_4e/1x1
I0312 19:26:54.063211 17161 net.cpp:68] Creating Layer inception_4e/1x1
I0312 19:26:54.063223 17161 net.cpp:395] inception_4e/1x1 <- inception_4d/output_inception_4d/output_0_split_1
I0312 19:26:54.063240 17161 net.cpp:357] inception_4e/1x1 -> inception_4e/1x1
I0312 19:26:54.063256 17161 net.cpp:97] Setting up inception_4e/1x1
I0312 19:26:54.064698 17161 net.cpp:104] Top shape: 96 256 5 5 (614400)
I0312 19:26:54.064723 17161 layer_factory.hpp:78] Creating layer inception_4e/1x1/bn
I0312 19:26:54.064741 17161 net.cpp:68] Creating Layer inception_4e/1x1/bn
I0312 19:26:54.064755 17161 net.cpp:395] inception_4e/1x1/bn <- inception_4e/1x1
I0312 19:26:54.064769 17161 net.cpp:357] inception_4e/1x1/bn -> inception_4e/1x1/bn
I0312 19:26:54.064785 17161 net.cpp:97] Setting up inception_4e/1x1/bn
I0312 19:26:54.064808 17161 net.cpp:104] Top shape: 96 256 5 5 (614400)
I0312 19:26:54.064824 17161 layer_factory.hpp:78] Creating layer inception_4e/relu_1x1
I0312 19:26:54.064838 17161 net.cpp:68] Creating Layer inception_4e/relu_1x1
I0312 19:26:54.064851 17161 net.cpp:395] inception_4e/relu_1x1 <- inception_4e/1x1/bn
I0312 19:26:54.064875 17161 net.cpp:346] inception_4e/relu_1x1 -> inception_4e/1x1/bn (in-place)
I0312 19:26:54.064893 17161 net.cpp:97] Setting up inception_4e/relu_1x1
I0312 19:26:54.064908 17161 net.cpp:104] Top shape: 96 256 5 5 (614400)
I0312 19:26:54.064919 17161 layer_factory.hpp:78] Creating layer inception_4e/3x3_reduce
I0312 19:26:54.064937 17161 net.cpp:68] Creating Layer inception_4e/3x3_reduce
I0312 19:26:54.064950 17161 net.cpp:395] inception_4e/3x3_reduce <- inception_4d/output_inception_4d/output_0_split_2
I0312 19:26:54.064965 17161 net.cpp:357] inception_4e/3x3_reduce -> inception_4e/3x3_reduce
I0312 19:26:54.064980 17161 net.cpp:97] Setting up inception_4e/3x3_reduce
I0312 19:26:54.065907 17161 net.cpp:104] Top shape: 96 160 5 5 (384000)
I0312 19:26:54.065932 17161 layer_factory.hpp:78] Creating layer inception_4e/3x3_reduce/bn
I0312 19:26:54.065951 17161 net.cpp:68] Creating Layer inception_4e/3x3_reduce/bn
I0312 19:26:54.065965 17161 net.cpp:395] inception_4e/3x3_reduce/bn <- inception_4e/3x3_reduce
I0312 19:26:54.065980 17161 net.cpp:357] inception_4e/3x3_reduce/bn -> inception_4e/3x3_reduce/bn
I0312 19:26:54.065996 17161 net.cpp:97] Setting up inception_4e/3x3_reduce/bn
I0312 19:26:54.066018 17161 net.cpp:104] Top shape: 96 160 5 5 (384000)
I0312 19:26:54.066035 17161 layer_factory.hpp:78] Creating layer inception_4e/relu_3x3_reduce
I0312 19:26:54.066048 17161 net.cpp:68] Creating Layer inception_4e/relu_3x3_reduce
I0312 19:26:54.066061 17161 net.cpp:395] inception_4e/relu_3x3_reduce <- inception_4e/3x3_reduce/bn
I0312 19:26:54.066077 17161 net.cpp:346] inception_4e/relu_3x3_reduce -> inception_4e/3x3_reduce/bn (in-place)
I0312 19:26:54.066092 17161 net.cpp:97] Setting up inception_4e/relu_3x3_reduce
I0312 19:26:54.066108 17161 net.cpp:104] Top shape: 96 160 5 5 (384000)
I0312 19:26:54.066120 17161 layer_factory.hpp:78] Creating layer inception_4e/3x3
I0312 19:26:54.066134 17161 net.cpp:68] Creating Layer inception_4e/3x3
I0312 19:26:54.066146 17161 net.cpp:395] inception_4e/3x3 <- inception_4e/3x3_reduce/bn
I0312 19:26:54.066164 17161 net.cpp:357] inception_4e/3x3 -> inception_4e/3x3
I0312 19:26:54.066179 17161 net.cpp:97] Setting up inception_4e/3x3
I0312 19:26:54.070929 17161 net.cpp:104] Top shape: 96 320 5 5 (768000)
I0312 19:26:54.070955 17161 layer_factory.hpp:78] Creating layer inception_4e/3x3/bn
I0312 19:26:54.070974 17161 net.cpp:68] Creating Layer inception_4e/3x3/bn
I0312 19:26:54.070987 17161 net.cpp:395] inception_4e/3x3/bn <- inception_4e/3x3
I0312 19:26:54.071005 17161 net.cpp:357] inception_4e/3x3/bn -> inception_4e/3x3/bn
I0312 19:26:54.071022 17161 net.cpp:97] Setting up inception_4e/3x3/bn
I0312 19:26:54.071107 17161 net.cpp:104] Top shape: 96 320 5 5 (768000)
I0312 19:26:54.071128 17161 layer_factory.hpp:78] Creating layer inception_4e/relu_3x3
I0312 19:26:54.071146 17161 net.cpp:68] Creating Layer inception_4e/relu_3x3
I0312 19:26:54.071159 17161 net.cpp:395] inception_4e/relu_3x3 <- inception_4e/3x3/bn
I0312 19:26:54.071173 17161 net.cpp:346] inception_4e/relu_3x3 -> inception_4e/3x3/bn (in-place)
I0312 19:26:54.071188 17161 net.cpp:97] Setting up inception_4e/relu_3x3
I0312 19:26:54.071204 17161 net.cpp:104] Top shape: 96 320 5 5 (768000)
I0312 19:26:54.071216 17161 layer_factory.hpp:78] Creating layer inception_4e/5x5_reduce
I0312 19:26:54.071231 17161 net.cpp:68] Creating Layer inception_4e/5x5_reduce
I0312 19:26:54.071244 17161 net.cpp:395] inception_4e/5x5_reduce <- inception_4d/output_inception_4d/output_0_split_3
I0312 19:26:54.071259 17161 net.cpp:357] inception_4e/5x5_reduce -> inception_4e/5x5_reduce
I0312 19:26:54.071274 17161 net.cpp:97] Setting up inception_4e/5x5_reduce
I0312 19:26:54.071656 17161 net.cpp:104] Top shape: 96 32 5 5 (76800)
I0312 19:26:54.071681 17161 layer_factory.hpp:78] Creating layer inception_4e/5x5_reduce/bn
I0312 19:26:54.071701 17161 net.cpp:68] Creating Layer inception_4e/5x5_reduce/bn
I0312 19:26:54.071714 17161 net.cpp:395] inception_4e/5x5_reduce/bn <- inception_4e/5x5_reduce
I0312 19:26:54.071729 17161 net.cpp:357] inception_4e/5x5_reduce/bn -> inception_4e/5x5_reduce/bn
I0312 19:26:54.071745 17161 net.cpp:97] Setting up inception_4e/5x5_reduce/bn
I0312 19:26:54.071766 17161 net.cpp:104] Top shape: 96 32 5 5 (76800)
I0312 19:26:54.071782 17161 layer_factory.hpp:78] Creating layer inception_4e/relu_5x5_reduce
I0312 19:26:54.071799 17161 net.cpp:68] Creating Layer inception_4e/relu_5x5_reduce
I0312 19:26:54.071811 17161 net.cpp:395] inception_4e/relu_5x5_reduce <- inception_4e/5x5_reduce/bn
I0312 19:26:54.071825 17161 net.cpp:346] inception_4e/relu_5x5_reduce -> inception_4e/5x5_reduce/bn (in-place)
I0312 19:26:54.071840 17161 net.cpp:97] Setting up inception_4e/relu_5x5_reduce
I0312 19:26:54.071854 17161 net.cpp:104] Top shape: 96 32 5 5 (76800)
I0312 19:26:54.071867 17161 layer_factory.hpp:78] Creating layer inception_4e/5x5
I0312 19:26:54.071884 17161 net.cpp:68] Creating Layer inception_4e/5x5
I0312 19:26:54.071897 17161 net.cpp:395] inception_4e/5x5 <- inception_4e/5x5_reduce/bn
I0312 19:26:54.071912 17161 net.cpp:357] inception_4e/5x5 -> inception_4e/5x5
I0312 19:26:54.071928 17161 net.cpp:97] Setting up inception_4e/5x5
I0312 19:26:54.073041 17161 net.cpp:104] Top shape: 96 128 5 5 (307200)
I0312 19:26:54.073065 17161 layer_factory.hpp:78] Creating layer inception_4e/5x5/bn
I0312 19:26:54.073084 17161 net.cpp:68] Creating Layer inception_4e/5x5/bn
I0312 19:26:54.073097 17161 net.cpp:395] inception_4e/5x5/bn <- inception_4e/5x5
I0312 19:26:54.073114 17161 net.cpp:357] inception_4e/5x5/bn -> inception_4e/5x5/bn
I0312 19:26:54.073130 17161 net.cpp:97] Setting up inception_4e/5x5/bn
I0312 19:26:54.073150 17161 net.cpp:104] Top shape: 96 128 5 5 (307200)
I0312 19:26:54.073166 17161 layer_factory.hpp:78] Creating layer inception_4e/relu_5x5
I0312 19:26:54.073184 17161 net.cpp:68] Creating Layer inception_4e/relu_5x5
I0312 19:26:54.073195 17161 net.cpp:395] inception_4e/relu_5x5 <- inception_4e/5x5/bn
I0312 19:26:54.073210 17161 net.cpp:346] inception_4e/relu_5x5 -> inception_4e/5x5/bn (in-place)
I0312 19:26:54.073223 17161 net.cpp:97] Setting up inception_4e/relu_5x5
I0312 19:26:54.073237 17161 net.cpp:104] Top shape: 96 128 5 5 (307200)
I0312 19:26:54.073249 17161 layer_factory.hpp:78] Creating layer inception_4e/pool
I0312 19:26:54.073285 17161 layer_factory.cpp:51] CUDNN does not support padding or multiple tops. Using Caffe's own pooling layer.
I0312 19:26:54.073302 17161 net.cpp:68] Creating Layer inception_4e/pool
I0312 19:26:54.073314 17161 net.cpp:395] inception_4e/pool <- inception_4d/output_inception_4d/output_0_split_4
I0312 19:26:54.073329 17161 net.cpp:357] inception_4e/pool -> inception_4e/pool
I0312 19:26:54.073348 17161 net.cpp:97] Setting up inception_4e/pool
I0312 19:26:54.073364 17161 net.cpp:104] Top shape: 96 528 5 5 (1267200)
I0312 19:26:54.073375 17161 layer_factory.hpp:78] Creating layer inception_4e/pool_proj
I0312 19:26:54.073390 17161 net.cpp:68] Creating Layer inception_4e/pool_proj
I0312 19:26:54.073402 17161 net.cpp:395] inception_4e/pool_proj <- inception_4e/pool
I0312 19:26:54.073420 17161 net.cpp:357] inception_4e/pool_proj -> inception_4e/pool_proj
I0312 19:26:54.073436 17161 net.cpp:97] Setting up inception_4e/pool_proj
I0312 19:26:54.074189 17161 net.cpp:104] Top shape: 96 128 5 5 (307200)
I0312 19:26:54.074213 17161 layer_factory.hpp:78] Creating layer inception_4e/pool_proj/bn
I0312 19:26:54.074232 17161 net.cpp:68] Creating Layer inception_4e/pool_proj/bn
I0312 19:26:54.074245 17161 net.cpp:395] inception_4e/pool_proj/bn <- inception_4e/pool_proj
I0312 19:26:54.074262 17161 net.cpp:357] inception_4e/pool_proj/bn -> inception_4e/pool_proj/bn
I0312 19:26:54.074278 17161 net.cpp:97] Setting up inception_4e/pool_proj/bn
I0312 19:26:54.074301 17161 net.cpp:104] Top shape: 96 128 5 5 (307200)
I0312 19:26:54.074316 17161 layer_factory.hpp:78] Creating layer inception_4e/relu_pool_proj
I0312 19:26:54.074333 17161 net.cpp:68] Creating Layer inception_4e/relu_pool_proj
I0312 19:26:54.074347 17161 net.cpp:395] inception_4e/relu_pool_proj <- inception_4e/pool_proj/bn
I0312 19:26:54.074359 17161 net.cpp:346] inception_4e/relu_pool_proj -> inception_4e/pool_proj/bn (in-place)
I0312 19:26:54.074373 17161 net.cpp:97] Setting up inception_4e/relu_pool_proj
I0312 19:26:54.074388 17161 net.cpp:104] Top shape: 96 128 5 5 (307200)
I0312 19:26:54.074401 17161 layer_factory.hpp:78] Creating layer inception_4e/output
I0312 19:26:54.074415 17161 net.cpp:68] Creating Layer inception_4e/output
I0312 19:26:54.074426 17161 net.cpp:395] inception_4e/output <- inception_4e/1x1/bn
I0312 19:26:54.074440 17161 net.cpp:395] inception_4e/output <- inception_4e/3x3/bn
I0312 19:26:54.074453 17161 net.cpp:395] inception_4e/output <- inception_4e/5x5/bn
I0312 19:26:54.074466 17161 net.cpp:395] inception_4e/output <- inception_4e/pool_proj/bn
I0312 19:26:54.074481 17161 net.cpp:357] inception_4e/output -> inception_4e/output
I0312 19:26:54.074496 17161 net.cpp:97] Setting up inception_4e/output
I0312 19:26:54.074507 17161 net.cpp:104] Top shape: 96 832 5 5 (1996800)
I0312 19:26:54.074520 17161 layer_factory.hpp:78] Creating layer pool4/3x3_s2
I0312 19:26:54.074537 17161 net.cpp:68] Creating Layer pool4/3x3_s2
I0312 19:26:54.074549 17161 net.cpp:395] pool4/3x3_s2 <- inception_4e/output
I0312 19:26:54.074563 17161 net.cpp:357] pool4/3x3_s2 -> pool4/3x3_s2
I0312 19:26:54.074579 17161 net.cpp:97] Setting up pool4/3x3_s2
I0312 19:26:54.074594 17161 net.cpp:104] Top shape: 96 832 2 2 (319488)
I0312 19:26:54.074607 17161 layer_factory.hpp:78] Creating layer pool4/3x3_s2_pool4/3x3_s2_0_split
I0312 19:26:54.074623 17161 net.cpp:68] Creating Layer pool4/3x3_s2_pool4/3x3_s2_0_split
I0312 19:26:54.074636 17161 net.cpp:395] pool4/3x3_s2_pool4/3x3_s2_0_split <- pool4/3x3_s2
I0312 19:26:54.074651 17161 net.cpp:357] pool4/3x3_s2_pool4/3x3_s2_0_split -> pool4/3x3_s2_pool4/3x3_s2_0_split_0
I0312 19:26:54.074666 17161 net.cpp:357] pool4/3x3_s2_pool4/3x3_s2_0_split -> pool4/3x3_s2_pool4/3x3_s2_0_split_1
I0312 19:26:54.074682 17161 net.cpp:357] pool4/3x3_s2_pool4/3x3_s2_0_split -> pool4/3x3_s2_pool4/3x3_s2_0_split_2
I0312 19:26:54.074698 17161 net.cpp:357] pool4/3x3_s2_pool4/3x3_s2_0_split -> pool4/3x3_s2_pool4/3x3_s2_0_split_3
I0312 19:26:54.074712 17161 net.cpp:97] Setting up pool4/3x3_s2_pool4/3x3_s2_0_split
I0312 19:26:54.074741 17161 net.cpp:104] Top shape: 96 832 2 2 (319488)
I0312 19:26:54.074754 17161 net.cpp:104] Top shape: 96 832 2 2 (319488)
I0312 19:26:54.074766 17161 net.cpp:104] Top shape: 96 832 2 2 (319488)
I0312 19:26:54.074777 17161 net.cpp:104] Top shape: 96 832 2 2 (319488)
I0312 19:26:54.074789 17161 layer_factory.hpp:78] Creating layer inception_5a/1x1
I0312 19:26:54.074806 17161 net.cpp:68] Creating Layer inception_5a/1x1
I0312 19:26:54.074820 17161 net.cpp:395] inception_5a/1x1 <- pool4/3x3_s2_pool4/3x3_s2_0_split_0
I0312 19:26:54.074836 17161 net.cpp:357] inception_5a/1x1 -> inception_5a/1x1
I0312 19:26:54.074852 17161 net.cpp:97] Setting up inception_5a/1x1
I0312 19:26:54.077183 17161 net.cpp:104] Top shape: 96 256 2 2 (98304)
I0312 19:26:54.077209 17161 layer_factory.hpp:78] Creating layer inception_5a/1x1/bn
I0312 19:26:54.077227 17161 net.cpp:68] Creating Layer inception_5a/1x1/bn
I0312 19:26:54.077241 17161 net.cpp:395] inception_5a/1x1/bn <- inception_5a/1x1
I0312 19:26:54.077255 17161 net.cpp:357] inception_5a/1x1/bn -> inception_5a/1x1/bn
I0312 19:26:54.077271 17161 net.cpp:97] Setting up inception_5a/1x1/bn
I0312 19:26:54.077293 17161 net.cpp:104] Top shape: 96 256 2 2 (98304)
I0312 19:26:54.077309 17161 layer_factory.hpp:78] Creating layer inception_5a/relu_1x1
I0312 19:26:54.077327 17161 net.cpp:68] Creating Layer inception_5a/relu_1x1
I0312 19:26:54.099968 17161 net.cpp:395] inception_5a/relu_1x1 <- inception_5a/1x1/bn
I0312 19:26:54.099982 17161 net.cpp:346] inception_5a/relu_1x1 -> inception_5a/1x1/bn (in-place)
I0312 19:26:54.100003 17161 net.cpp:97] Setting up inception_5a/relu_1x1
I0312 19:26:54.100018 17161 net.cpp:104] Top shape: 96 256 2 2 (98304)
I0312 19:26:54.100030 17161 layer_factory.hpp:78] Creating layer inception_5a/3x3_reduce
I0312 19:26:54.100046 17161 net.cpp:68] Creating Layer inception_5a/3x3_reduce
I0312 19:26:54.100059 17161 net.cpp:395] inception_5a/3x3_reduce <- pool4/3x3_s2_pool4/3x3_s2_0_split_1
I0312 19:26:54.100076 17161 net.cpp:357] inception_5a/3x3_reduce -> inception_5a/3x3_reduce
I0312 19:26:54.100093 17161 net.cpp:97] Setting up inception_5a/3x3_reduce
I0312 19:26:54.102224 17161 net.cpp:104] Top shape: 96 160 2 2 (61440)
I0312 19:26:54.102277 17161 layer_factory.hpp:78] Creating layer inception_5a/3x3_reduce/bn
I0312 19:26:54.102309 17161 net.cpp:68] Creating Layer inception_5a/3x3_reduce/bn
I0312 19:26:54.102335 17161 net.cpp:395] inception_5a/3x3_reduce/bn <- inception_5a/3x3_reduce
I0312 19:26:54.102370 17161 net.cpp:357] inception_5a/3x3_reduce/bn -> inception_5a/3x3_reduce/bn
I0312 19:26:54.102403 17161 net.cpp:97] Setting up inception_5a/3x3_reduce/bn
I0312 19:26:54.102445 17161 net.cpp:104] Top shape: 96 160 2 2 (61440)
I0312 19:26:54.102476 17161 layer_factory.hpp:78] Creating layer inception_5a/relu_3x3_reduce
I0312 19:26:54.102509 17161 net.cpp:68] Creating Layer inception_5a/relu_3x3_reduce
I0312 19:26:54.102533 17161 net.cpp:395] inception_5a/relu_3x3_reduce <- inception_5a/3x3_reduce/bn
I0312 19:26:54.102561 17161 net.cpp:346] inception_5a/relu_3x3_reduce -> inception_5a/3x3_reduce/bn (in-place)
I0312 19:26:54.102589 17161 net.cpp:97] Setting up inception_5a/relu_3x3_reduce
I0312 19:26:54.102620 17161 net.cpp:104] Top shape: 96 160 2 2 (61440)
I0312 19:26:54.102644 17161 layer_factory.hpp:78] Creating layer inception_5a/3x3
I0312 19:26:54.102676 17161 net.cpp:68] Creating Layer inception_5a/3x3
I0312 19:26:54.102701 17161 net.cpp:395] inception_5a/3x3 <- inception_5a/3x3_reduce/bn
I0312 19:26:54.102730 17161 net.cpp:357] inception_5a/3x3 -> inception_5a/3x3
I0312 19:26:54.102761 17161 net.cpp:97] Setting up inception_5a/3x3
I0312 19:26:54.108683 17161 net.cpp:104] Top shape: 96 320 2 2 (122880)
I0312 19:26:54.108712 17161 layer_factory.hpp:78] Creating layer inception_5a/3x3/bn
I0312 19:26:54.108729 17161 net.cpp:68] Creating Layer inception_5a/3x3/bn
I0312 19:26:54.108742 17161 net.cpp:395] inception_5a/3x3/bn <- inception_5a/3x3
I0312 19:26:54.108760 17161 net.cpp:357] inception_5a/3x3/bn -> inception_5a/3x3/bn
I0312 19:26:54.108785 17161 net.cpp:97] Setting up inception_5a/3x3/bn
I0312 19:26:54.108832 17161 net.cpp:104] Top shape: 96 320 2 2 (122880)
I0312 19:26:54.108851 17161 layer_factory.hpp:78] Creating layer inception_5a/relu_3x3
I0312 19:26:54.108883 17161 net.cpp:68] Creating Layer inception_5a/relu_3x3
I0312 19:26:54.108897 17161 net.cpp:395] inception_5a/relu_3x3 <- inception_5a/3x3/bn
I0312 19:26:54.108911 17161 net.cpp:346] inception_5a/relu_3x3 -> inception_5a/3x3/bn (in-place)
I0312 19:26:54.108927 17161 net.cpp:97] Setting up inception_5a/relu_3x3
I0312 19:26:54.108947 17161 net.cpp:104] Top shape: 96 320 2 2 (122880)
I0312 19:26:54.108958 17161 layer_factory.hpp:78] Creating layer inception_5a/5x5_reduce
I0312 19:26:54.108978 17161 net.cpp:68] Creating Layer inception_5a/5x5_reduce
I0312 19:26:54.108991 17161 net.cpp:395] inception_5a/5x5_reduce <- pool4/3x3_s2_pool4/3x3_s2_0_split_2
I0312 19:26:54.109006 17161 net.cpp:357] inception_5a/5x5_reduce -> inception_5a/5x5_reduce
I0312 19:26:54.109021 17161 net.cpp:97] Setting up inception_5a/5x5_reduce
I0312 19:26:54.109367 17161 net.cpp:104] Top shape: 96 32 2 2 (12288)
I0312 19:26:54.109391 17161 layer_factory.hpp:78] Creating layer inception_5a/5x5_reduce/bn
I0312 19:26:54.109411 17161 net.cpp:68] Creating Layer inception_5a/5x5_reduce/bn
I0312 19:26:54.109424 17161 net.cpp:395] inception_5a/5x5_reduce/bn <- inception_5a/5x5_reduce
I0312 19:26:54.109439 17161 net.cpp:357] inception_5a/5x5_reduce/bn -> inception_5a/5x5_reduce/bn
I0312 19:26:54.109457 17161 net.cpp:97] Setting up inception_5a/5x5_reduce/bn
I0312 19:26:54.109477 17161 net.cpp:104] Top shape: 96 32 2 2 (12288)
I0312 19:26:54.109495 17161 layer_factory.hpp:78] Creating layer inception_5a/relu_5x5_reduce
I0312 19:26:54.109510 17161 net.cpp:68] Creating Layer inception_5a/relu_5x5_reduce
I0312 19:26:54.109522 17161 net.cpp:395] inception_5a/relu_5x5_reduce <- inception_5a/5x5_reduce/bn
I0312 19:26:54.109536 17161 net.cpp:346] inception_5a/relu_5x5_reduce -> inception_5a/5x5_reduce/bn (in-place)
I0312 19:26:54.109550 17161 net.cpp:97] Setting up inception_5a/relu_5x5_reduce
I0312 19:26:54.109565 17161 net.cpp:104] Top shape: 96 32 2 2 (12288)
I0312 19:26:54.109577 17161 layer_factory.hpp:78] Creating layer inception_5a/5x5
I0312 19:26:54.109594 17161 net.cpp:68] Creating Layer inception_5a/5x5
I0312 19:26:54.109606 17161 net.cpp:395] inception_5a/5x5 <- inception_5a/5x5_reduce/bn
I0312 19:26:54.109622 17161 net.cpp:357] inception_5a/5x5 -> inception_5a/5x5
I0312 19:26:54.109637 17161 net.cpp:97] Setting up inception_5a/5x5
I0312 19:26:54.110741 17161 net.cpp:104] Top shape: 96 128 2 2 (49152)
I0312 19:26:54.110769 17161 layer_factory.hpp:78] Creating layer inception_5a/5x5/bn
I0312 19:26:54.110785 17161 net.cpp:68] Creating Layer inception_5a/5x5/bn
I0312 19:26:54.110798 17161 net.cpp:395] inception_5a/5x5/bn <- inception_5a/5x5
I0312 19:26:54.110816 17161 net.cpp:357] inception_5a/5x5/bn -> inception_5a/5x5/bn
I0312 19:26:54.110832 17161 net.cpp:97] Setting up inception_5a/5x5/bn
I0312 19:26:54.110853 17161 net.cpp:104] Top shape: 96 128 2 2 (49152)
I0312 19:26:54.110869 17161 layer_factory.hpp:78] Creating layer inception_5a/relu_5x5
I0312 19:26:54.110887 17161 net.cpp:68] Creating Layer inception_5a/relu_5x5
I0312 19:26:54.110901 17161 net.cpp:395] inception_5a/relu_5x5 <- inception_5a/5x5/bn
I0312 19:26:54.110914 17161 net.cpp:346] inception_5a/relu_5x5 -> inception_5a/5x5/bn (in-place)
I0312 19:26:54.110929 17161 net.cpp:97] Setting up inception_5a/relu_5x5
I0312 19:26:54.110944 17161 net.cpp:104] Top shape: 96 128 2 2 (49152)
I0312 19:26:54.110956 17161 layer_factory.hpp:78] Creating layer inception_5a/pool
I0312 19:26:54.110970 17161 layer_factory.cpp:51] CUDNN does not support padding or multiple tops. Using Caffe's own pooling layer.
I0312 19:26:54.110985 17161 net.cpp:68] Creating Layer inception_5a/pool
I0312 19:26:54.110998 17161 net.cpp:395] inception_5a/pool <- pool4/3x3_s2_pool4/3x3_s2_0_split_3
I0312 19:26:54.111012 17161 net.cpp:357] inception_5a/pool -> inception_5a/pool
I0312 19:26:54.111027 17161 net.cpp:97] Setting up inception_5a/pool
I0312 19:26:54.111059 17161 net.cpp:104] Top shape: 96 832 2 2 (319488)
I0312 19:26:54.111073 17161 layer_factory.hpp:78] Creating layer inception_5a/pool_proj
I0312 19:26:54.111088 17161 net.cpp:68] Creating Layer inception_5a/pool_proj
I0312 19:26:54.111100 17161 net.cpp:395] inception_5a/pool_proj <- inception_5a/pool
I0312 19:26:54.111117 17161 net.cpp:357] inception_5a/pool_proj -> inception_5a/pool_proj
I0312 19:26:54.111135 17161 net.cpp:97] Setting up inception_5a/pool_proj
I0312 19:26:54.112280 17161 net.cpp:104] Top shape: 96 128 2 2 (49152)
I0312 19:26:54.112308 17161 layer_factory.hpp:78] Creating layer inception_5a/pool_proj/bn
I0312 19:26:54.112325 17161 net.cpp:68] Creating Layer inception_5a/pool_proj/bn
I0312 19:26:54.112339 17161 net.cpp:395] inception_5a/pool_proj/bn <- inception_5a/pool_proj
I0312 19:26:54.112355 17161 net.cpp:357] inception_5a/pool_proj/bn -> inception_5a/pool_proj/bn
I0312 19:26:54.112372 17161 net.cpp:97] Setting up inception_5a/pool_proj/bn
I0312 19:26:54.112393 17161 net.cpp:104] Top shape: 96 128 2 2 (49152)
I0312 19:26:54.112409 17161 layer_factory.hpp:78] Creating layer inception_5a/relu_pool_proj
I0312 19:26:54.112426 17161 net.cpp:68] Creating Layer inception_5a/relu_pool_proj
I0312 19:26:54.112438 17161 net.cpp:395] inception_5a/relu_pool_proj <- inception_5a/pool_proj/bn
I0312 19:26:54.112452 17161 net.cpp:346] inception_5a/relu_pool_proj -> inception_5a/pool_proj/bn (in-place)
I0312 19:26:54.112467 17161 net.cpp:97] Setting up inception_5a/relu_pool_proj
I0312 19:26:54.112481 17161 net.cpp:104] Top shape: 96 128 2 2 (49152)
I0312 19:26:54.112494 17161 layer_factory.hpp:78] Creating layer inception_5a/output
I0312 19:26:54.112507 17161 net.cpp:68] Creating Layer inception_5a/output
I0312 19:26:54.112524 17161 net.cpp:395] inception_5a/output <- inception_5a/1x1/bn
I0312 19:26:54.112536 17161 net.cpp:395] inception_5a/output <- inception_5a/3x3/bn
I0312 19:26:54.112550 17161 net.cpp:395] inception_5a/output <- inception_5a/5x5/bn
I0312 19:26:54.112563 17161 net.cpp:395] inception_5a/output <- inception_5a/pool_proj/bn
I0312 19:26:54.112577 17161 net.cpp:357] inception_5a/output -> inception_5a/output
I0312 19:26:54.112593 17161 net.cpp:97] Setting up inception_5a/output
I0312 19:26:54.112607 17161 net.cpp:104] Top shape: 96 832 2 2 (319488)
I0312 19:26:54.112617 17161 layer_factory.hpp:78] Creating layer inception_5a/output_inception_5a/output_0_split
I0312 19:26:54.112632 17161 net.cpp:68] Creating Layer inception_5a/output_inception_5a/output_0_split
I0312 19:26:54.112644 17161 net.cpp:395] inception_5a/output_inception_5a/output_0_split <- inception_5a/output
I0312 19:26:54.112659 17161 net.cpp:357] inception_5a/output_inception_5a/output_0_split -> inception_5a/output_inception_5a/output_0_split_0
I0312 19:26:54.112674 17161 net.cpp:357] inception_5a/output_inception_5a/output_0_split -> inception_5a/output_inception_5a/output_0_split_1
I0312 19:26:54.112694 17161 net.cpp:357] inception_5a/output_inception_5a/output_0_split -> inception_5a/output_inception_5a/output_0_split_2
I0312 19:26:54.112711 17161 net.cpp:357] inception_5a/output_inception_5a/output_0_split -> inception_5a/output_inception_5a/output_0_split_3
I0312 19:26:54.112726 17161 net.cpp:97] Setting up inception_5a/output_inception_5a/output_0_split
I0312 19:26:54.112740 17161 net.cpp:104] Top shape: 96 832 2 2 (319488)
I0312 19:26:54.112751 17161 net.cpp:104] Top shape: 96 832 2 2 (319488)
I0312 19:26:54.112763 17161 net.cpp:104] Top shape: 96 832 2 2 (319488)
I0312 19:26:54.112774 17161 net.cpp:104] Top shape: 96 832 2 2 (319488)
I0312 19:26:54.112787 17161 layer_factory.hpp:78] Creating layer inception_5b/1x1
I0312 19:26:54.112803 17161 net.cpp:68] Creating Layer inception_5b/1x1
I0312 19:26:54.112819 17161 net.cpp:395] inception_5b/1x1 <- inception_5a/output_inception_5a/output_0_split_0
I0312 19:26:54.112834 17161 net.cpp:357] inception_5b/1x1 -> inception_5b/1x1
I0312 19:26:54.112849 17161 net.cpp:97] Setting up inception_5b/1x1
I0312 19:26:54.116165 17161 net.cpp:104] Top shape: 96 384 2 2 (147456)
I0312 19:26:54.116210 17161 layer_factory.hpp:78] Creating layer inception_5b/1x1/bn
I0312 19:26:54.116231 17161 net.cpp:68] Creating Layer inception_5b/1x1/bn
I0312 19:26:54.116245 17161 net.cpp:395] inception_5b/1x1/bn <- inception_5b/1x1
I0312 19:26:54.116260 17161 net.cpp:357] inception_5b/1x1/bn -> inception_5b/1x1/bn
I0312 19:26:54.116276 17161 net.cpp:97] Setting up inception_5b/1x1/bn
I0312 19:26:54.116297 17161 net.cpp:104] Top shape: 96 384 2 2 (147456)
I0312 19:26:54.116313 17161 layer_factory.hpp:78] Creating layer inception_5b/relu_1x1
I0312 19:26:54.116332 17161 net.cpp:68] Creating Layer inception_5b/relu_1x1
I0312 19:26:54.116344 17161 net.cpp:395] inception_5b/relu_1x1 <- inception_5b/1x1/bn
I0312 19:26:54.116358 17161 net.cpp:346] inception_5b/relu_1x1 -> inception_5b/1x1/bn (in-place)
I0312 19:26:54.116372 17161 net.cpp:97] Setting up inception_5b/relu_1x1
I0312 19:26:54.116387 17161 net.cpp:104] Top shape: 96 384 2 2 (147456)
I0312 19:26:54.116399 17161 layer_factory.hpp:78] Creating layer inception_5b/3x3_reduce
I0312 19:26:54.143991 17161 net.cpp:68] Creating Layer inception_5b/3x3_reduce
I0312 19:26:54.144094 17161 net.cpp:395] inception_5b/3x3_reduce <- inception_5a/output_inception_5a/output_0_split_1
I0312 19:26:54.144125 17161 net.cpp:357] inception_5b/3x3_reduce -> inception_5b/3x3_reduce
I0312 19:26:54.144152 17161 net.cpp:97] Setting up inception_5b/3x3_reduce
I0312 19:26:54.147987 17161 net.cpp:104] Top shape: 96 192 2 2 (73728)
I0312 19:26:54.148030 17161 layer_factory.hpp:78] Creating layer inception_5b/3x3_reduce/bn
I0312 19:26:54.148057 17161 net.cpp:68] Creating Layer inception_5b/3x3_reduce/bn
I0312 19:26:54.148077 17161 net.cpp:395] inception_5b/3x3_reduce/bn <- inception_5b/3x3_reduce
I0312 19:26:54.148098 17161 net.cpp:357] inception_5b/3x3_reduce/bn -> inception_5b/3x3_reduce/bn
I0312 19:26:54.148123 17161 net.cpp:97] Setting up inception_5b/3x3_reduce/bn
I0312 19:26:54.148157 17161 net.cpp:104] Top shape: 96 192 2 2 (73728)
I0312 19:26:54.148179 17161 layer_factory.hpp:78] Creating layer inception_5b/relu_3x3_reduce
I0312 19:26:54.148201 17161 net.cpp:68] Creating Layer inception_5b/relu_3x3_reduce
I0312 19:26:54.148216 17161 net.cpp:395] inception_5b/relu_3x3_reduce <- inception_5b/3x3_reduce/bn
I0312 19:26:54.148234 17161 net.cpp:346] inception_5b/relu_3x3_reduce -> inception_5b/3x3_reduce/bn (in-place)
I0312 19:26:54.148253 17161 net.cpp:97] Setting up inception_5b/relu_3x3_reduce
I0312 19:26:54.148274 17161 net.cpp:104] Top shape: 96 192 2 2 (73728)
I0312 19:26:54.148289 17161 layer_factory.hpp:78] Creating layer inception_5b/3x3
I0312 19:26:54.148313 17161 net.cpp:68] Creating Layer inception_5b/3x3
I0312 19:26:54.148329 17161 net.cpp:395] inception_5b/3x3 <- inception_5b/3x3_reduce/bn
I0312 19:26:54.148347 17161 net.cpp:357] inception_5b/3x3 -> inception_5b/3x3
I0312 19:26:54.148368 17161 net.cpp:97] Setting up inception_5b/3x3
I0312 19:26:54.158845 17161 net.cpp:104] Top shape: 96 384 2 2 (147456)
I0312 19:26:54.158884 17161 layer_factory.hpp:78] Creating layer inception_5b/3x3/bn
I0312 19:26:54.158910 17161 net.cpp:68] Creating Layer inception_5b/3x3/bn
I0312 19:26:54.158928 17161 net.cpp:395] inception_5b/3x3/bn <- inception_5b/3x3
I0312 19:26:54.158951 17161 net.cpp:357] inception_5b/3x3/bn -> inception_5b/3x3/bn
I0312 19:26:54.158975 17161 net.cpp:97] Setting up inception_5b/3x3/bn
I0312 19:26:54.159004 17161 net.cpp:104] Top shape: 96 384 2 2 (147456)
I0312 19:26:54.159025 17161 layer_factory.hpp:78] Creating layer inception_5b/relu_3x3
I0312 19:26:54.159047 17161 net.cpp:68] Creating Layer inception_5b/relu_3x3
I0312 19:26:54.159065 17161 net.cpp:395] inception_5b/relu_3x3 <- inception_5b/3x3/bn
I0312 19:26:54.159082 17161 net.cpp:346] inception_5b/relu_3x3 -> inception_5b/3x3/bn (in-place)
I0312 19:26:54.159102 17161 net.cpp:97] Setting up inception_5b/relu_3x3
I0312 19:26:54.159122 17161 net.cpp:104] Top shape: 96 384 2 2 (147456)
I0312 19:26:54.159138 17161 layer_factory.hpp:78] Creating layer inception_5b/5x5_reduce
I0312 19:26:54.159158 17161 net.cpp:68] Creating Layer inception_5b/5x5_reduce
I0312 19:26:54.159224 17161 net.cpp:395] inception_5b/5x5_reduce <- inception_5a/output_inception_5a/output_0_split_2
I0312 19:26:54.159248 17161 net.cpp:357] inception_5b/5x5_reduce -> inception_5b/5x5_reduce
I0312 19:26:54.159271 17161 net.cpp:97] Setting up inception_5b/5x5_reduce
I0312 19:26:54.159951 17161 net.cpp:104] Top shape: 96 48 2 2 (18432)
I0312 19:26:54.159982 17161 layer_factory.hpp:78] Creating layer inception_5b/5x5_reduce/bn
I0312 19:26:54.160007 17161 net.cpp:68] Creating Layer inception_5b/5x5_reduce/bn
I0312 19:26:54.160027 17161 net.cpp:395] inception_5b/5x5_reduce/bn <- inception_5b/5x5_reduce
I0312 19:26:54.160050 17161 net.cpp:357] inception_5b/5x5_reduce/bn -> inception_5b/5x5_reduce/bn
I0312 19:26:54.160073 17161 net.cpp:97] Setting up inception_5b/5x5_reduce/bn
I0312 19:26:54.160100 17161 net.cpp:104] Top shape: 96 48 2 2 (18432)
I0312 19:26:54.160121 17161 layer_factory.hpp:78] Creating layer inception_5b/relu_5x5_reduce
I0312 19:26:54.160140 17161 net.cpp:68] Creating Layer inception_5b/relu_5x5_reduce
I0312 19:26:54.160156 17161 net.cpp:395] inception_5b/relu_5x5_reduce <- inception_5b/5x5_reduce/bn
I0312 19:26:54.160178 17161 net.cpp:346] inception_5b/relu_5x5_reduce -> inception_5b/5x5_reduce/bn (in-place)
I0312 19:26:54.160197 17161 net.cpp:97] Setting up inception_5b/relu_5x5_reduce
I0312 19:26:54.160218 17161 net.cpp:104] Top shape: 96 48 2 2 (18432)
I0312 19:26:54.160234 17161 layer_factory.hpp:78] Creating layer inception_5b/5x5
I0312 19:26:54.160254 17161 net.cpp:68] Creating Layer inception_5b/5x5
I0312 19:26:54.160269 17161 net.cpp:395] inception_5b/5x5 <- inception_5b/5x5_reduce/bn
I0312 19:26:54.160293 17161 net.cpp:357] inception_5b/5x5 -> inception_5b/5x5
I0312 19:26:54.160315 17161 net.cpp:97] Setting up inception_5b/5x5
I0312 19:26:54.162474 17161 net.cpp:104] Top shape: 96 128 2 2 (49152)
I0312 19:26:54.162508 17161 layer_factory.hpp:78] Creating layer inception_5b/5x5/bn
I0312 19:26:54.162533 17161 net.cpp:68] Creating Layer inception_5b/5x5/bn
I0312 19:26:54.162552 17161 net.cpp:395] inception_5b/5x5/bn <- inception_5b/5x5
I0312 19:26:54.162572 17161 net.cpp:357] inception_5b/5x5/bn -> inception_5b/5x5/bn
I0312 19:26:54.162593 17161 net.cpp:97] Setting up inception_5b/5x5/bn
I0312 19:26:54.162623 17161 net.cpp:104] Top shape: 96 128 2 2 (49152)
I0312 19:26:54.162644 17161 layer_factory.hpp:78] Creating layer inception_5b/relu_5x5
I0312 19:26:54.162662 17161 net.cpp:68] Creating Layer inception_5b/relu_5x5
I0312 19:26:54.162678 17161 net.cpp:395] inception_5b/relu_5x5 <- inception_5b/5x5/bn
I0312 19:26:54.162699 17161 net.cpp:346] inception_5b/relu_5x5 -> inception_5b/5x5/bn (in-place)
I0312 19:26:54.162719 17161 net.cpp:97] Setting up inception_5b/relu_5x5
I0312 19:26:54.162740 17161 net.cpp:104] Top shape: 96 128 2 2 (49152)
I0312 19:26:54.162756 17161 layer_factory.hpp:78] Creating layer inception_5b/pool
I0312 19:26:54.162773 17161 layer_factory.cpp:51] CUDNN does not support padding or multiple tops. Using Caffe's own pooling layer.
I0312 19:26:54.162792 17161 net.cpp:68] Creating Layer inception_5b/pool
I0312 19:26:54.162809 17161 net.cpp:395] inception_5b/pool <- inception_5a/output_inception_5a/output_0_split_3
I0312 19:26:54.162832 17161 net.cpp:357] inception_5b/pool -> inception_5b/pool
I0312 19:26:54.162858 17161 net.cpp:97] Setting up inception_5b/pool
I0312 19:26:54.162879 17161 net.cpp:104] Top shape: 96 832 2 2 (319488)
I0312 19:26:54.162895 17161 layer_factory.hpp:78] Creating layer inception_5b/pool_proj
I0312 19:26:54.162915 17161 net.cpp:68] Creating Layer inception_5b/pool_proj
I0312 19:26:54.162932 17161 net.cpp:395] inception_5b/pool_proj <- inception_5b/pool
I0312 19:26:54.162955 17161 net.cpp:357] inception_5b/pool_proj -> inception_5b/pool_proj
…
I0312 19:26:54.574761 17161 net.cpp:68] Creating Layer inception_4d/5x5_reduce/bn
I0312 19:26:54.574774 17161 net.cpp:395] inception_4d/5x5_reduce/bn <- inception_4d/5x5_reduce
I0312 19:26:54.574792 17161 net.cpp:357] inception_4d/5x5_reduce/bn -> inception_4d/5x5_reduce/bn
I0312 19:26:54.574808 17161 net.cpp:97] Setting up inception_4d/5x5_reduce/bn
I0312 19:26:54.574828 17161 net.cpp:104] Top shape: 32 32 5 5 (25600)
I0312 19:26:54.574844 17161 layer_factory.hpp:78] Creating layer inception_4d/relu_5x5_reduce
I0312 19:26:54.574858 17161 net.cpp:68] Creating Layer inception_4d/relu_5x5_reduce
I0312 19:26:54.574870 17161 net.cpp:395] inception_4d/relu_5x5_reduce <- inception_4d/5x5_reduce/bn
I0312 19:26:54.574884 17161 net.cpp:346] inception_4d/relu_5x5_reduce -> inception_4d/5x5_reduce/bn (in-place)
I0312 19:26:54.574898 17161 net.cpp:97] Setting up inception_4d/relu_5x5_reduce
I0312 19:26:54.574913 17161 net.cpp:104] Top shape: 32 32 5 5 (25600)
I0312 19:26:54.574925 17161 layer_factory.hpp:78] Creating layer inception_4d/5x5
I0312 19:26:54.574964 17161 net.cpp:68] Creating Layer inception_4d/5x5
I0312 19:26:54.574977 17161 net.cpp:395] inception_4d/5x5 <- inception_4d/5x5_reduce/bn
I0312 19:26:54.574995 17161 net.cpp:357] inception_4d/5x5 -> inception_4d/5x5
I0312 19:26:54.575011 17161 net.cpp:97] Setting up inception_4d/5x5
I0312 19:26:54.575604 17161 net.cpp:104] Top shape: 32 64 5 5 (51200)
I0312 19:26:54.575630 17161 layer_factory.hpp:78] Creating layer inception_4d/5x5/bn
I0312 19:26:54.575649 17161 net.cpp:68] Creating Layer inception_4d/5x5/bn
I0312 19:26:54.575661 17161 net.cpp:395] inception_4d/5x5/bn <- inception_4d/5x5
I0312 19:26:54.575678 17161 net.cpp:357] inception_4d/5x5/bn -> inception_4d/5x5/bn
I0312 19:26:54.575695 17161 net.cpp:97] Setting up inception_4d/5x5/bn
I0312 19:26:54.575716 17161 net.cpp:104] Top shape: 32 64 5 5 (51200)
I0312 19:26:54.575731 17161 layer_factory.hpp:78] Creating layer inception_4d/relu_5x5
I0312 19:26:54.575745 17161 net.cpp:68] Creating Layer inception_4d/relu_5x5
I0312 19:26:54.575757 17161 net.cpp:395] inception_4d/relu_5x5 <- inception_4d/5x5/bn
I0312 19:26:54.575773 17161 net.cpp:346] inception_4d/relu_5x5 -> inception_4d/5x5/bn (in-place)
I0312 19:26:54.575786 17161 net.cpp:97] Setting up inception_4d/relu_5x5
I0312 19:26:54.575803 17161 net.cpp:104] Top shape: 32 64 5 5 (51200)
I0312 19:26:54.575814 17161 layer_factory.hpp:78] Creating layer inception_4d/pool
I0312 19:26:54.575826 17161 layer_factory.cpp:51] CUDNN does not support padding or multiple tops. Using Caffe's own pooling layer.
I0312 19:26:54.575840 17161 net.cpp:68] Creating Layer inception_4d/pool
I0312 19:26:54.575852 17161 net.cpp:395] inception_4d/pool <- inception_4c/output_inception_4c/output_0_split_3
I0312 19:26:54.575866 17161 net.cpp:357] inception_4d/pool -> inception_4d/pool
I0312 19:26:54.575881 17161 net.cpp:97] Setting up inception_4d/pool
I0312 19:26:54.575896 17161 net.cpp:104] Top shape: 32 512 5 5 (409600)
I0312 19:26:54.575907 17161 layer_factory.hpp:78] Creating layer inception_4d/pool_proj
I0312 19:26:54.575927 17161 net.cpp:68] Creating Layer inception_4d/pool_proj
I0312 19:26:54.575938 17161 net.cpp:395] inception_4d/pool_proj <- inception_4d/pool
I0312 19:26:54.575953 17161 net.cpp:357] inception_4d/pool_proj -> inception_4d/pool_proj
I0312 19:26:54.575968 17161 net.cpp:97] Setting up inception_4d/pool_proj
I0312 19:26:54.576511 17161 net.cpp:104] Top shape: 32 64 5 5 (51200)
I0312 19:26:54.576539 17161 layer_factory.hpp:78] Creating layer inception_4d/pool_proj/bn
I0312 19:26:54.576555 17161 net.cpp:68] Creating Layer inception_4d/pool_proj/bn
I0312 19:26:54.576568 17161 net.cpp:395] inception_4d/pool_proj/bn <- inception_4d/pool_proj
I0312 19:26:54.576588 17161 net.cpp:357] inception_4d/pool_proj/bn -> inception_4d/pool_proj/bn
I0312 19:26:54.576604 17161 net.cpp:97] Setting up inception_4d/pool_proj/bn
I0312 19:26:54.576625 17161 net.cpp:104] Top shape: 32 64 5 5 (51200)
I0312 19:26:54.576642 17161 layer_factory.hpp:78] Creating layer inception_4d/relu_pool_proj
I0312 19:26:54.576655 17161 net.cpp:68] Creating Layer inception_4d/relu_pool_proj
I0312 19:26:54.576668 17161 net.cpp:395] inception_4d/relu_pool_proj <- inception_4d/pool_proj/bn
I0312 19:26:54.576684 17161 net.cpp:346] inception_4d/relu_pool_proj -> inception_4d/pool_proj/bn (in-place)
I0312 19:26:54.576700 17161 net.cpp:97] Setting up inception_4d/relu_pool_proj
I0312 19:26:54.576715 17161 net.cpp:104] Top shape: 32 64 5 5 (51200)
I0312 19:26:54.576728 17161 layer_factory.hpp:78] Creating layer inception_4d/output
I0312 19:26:54.576742 17161 net.cpp:68] Creating Layer inception_4d/output
I0312 19:26:54.576755 17161 net.cpp:395] inception_4d/output <- inception_4d/1x1/bn
I0312 19:26:54.576767 17161 net.cpp:395] inception_4d/output <- inception_4d/3x3/bn
I0312 19:26:54.576781 17161 net.cpp:395] inception_4d/output <- inception_4d/5x5/bn
I0312 19:26:54.576793 17161 net.cpp:395] inception_4d/output <- inception_4d/pool_proj/bn
I0312 19:26:54.576810 17161 net.cpp:357] inception_4d/output -> inception_4d/output
I0312 19:26:54.576844 17161 net.cpp:97] Setting up inception_4d/output
I0312 19:26:54.576866 17161 net.cpp:104] Top shape: 32 528 5 5 (422400)
I0312 19:26:54.576879 17161 layer_factory.hpp:78] Creating layer inception_4d/output_inception_4d/output_0_split
I0312 19:26:54.576894 17161 net.cpp:68] Creating Layer inception_4d/output_inception_4d/output_0_split
I0312 19:26:54.576906 17161 net.cpp:395] inception_4d/output_inception_4d/output_0_split <- inception_4d/output
I0312 19:26:54.576921 17161 net.cpp:357] inception_4d/output_inception_4d/output_0_split -> inception_4d/output_inception_4d/output_0_split_0
I0312 19:26:54.576937 17161 net.cpp:357] inception_4d/output_inception_4d/output_0_split -> inception_4d/output_inception_4d/output_0_split_1
I0312 19:26:54.576954 17161 net.cpp:357] inception_4d/output_inception_4d/output_0_split -> inception_4d/output_inception_4d/output_0_split_2
I0312 19:26:54.576971 17161 net.cpp:357] inception_4d/output_inception_4d/output_0_split -> inception_4d/output_inception_4d/output_0_split_3
I0312 19:26:54.576989 17161 net.cpp:357] inception_4d/output_inception_4d/output_0_split -> inception_4d/output_inception_4d/output_0_split_4
I0312 19:26:54.577005 17161 net.cpp:97] Setting up inception_4d/output_inception_4d/output_0_split
I0312 19:26:54.577019 17161 net.cpp:104] Top shape: 32 528 5 5 (422400)
I0312 19:26:54.577031 17161 net.cpp:104] Top shape: 32 528 5 5 (422400)
I0312 19:26:54.577042 17161 net.cpp:104] Top shape: 32 528 5 5 (422400)
I0312 19:26:54.577054 17161 net.cpp:104] Top shape: 32 528 5 5 (422400)
I0312 19:26:54.584260 17161 net.cpp:104] Top shape: 32 528 5 5 (422400)
I0312 19:26:54.584282 17161 layer_factory.hpp:78] Creating layer loss2/ave_pool
I0312 19:26:54.584300 17161 net.cpp:68] Creating Layer loss2/ave_pool
I0312 19:26:54.584313 17161 net.cpp:395] loss2/ave_pool <- inception_4d/output_inception_4d/output_0_split_0
I0312 19:26:54.584336 17161 net.cpp:357] loss2/ave_pool -> loss2/ave_pool
I0312 19:26:54.584353 17161 net.cpp:97] Setting up loss2/ave_pool
I0312 19:26:54.584373 17161 net.cpp:104] Top shape: 32 528 1 1 (16896)
I0312 19:26:54.584388 17161 layer_factory.hpp:78] Creating layer loss2/conv
I0312 19:26:54.584403 17161 net.cpp:68] Creating Layer loss2/conv
I0312 19:26:54.584415 17161 net.cpp:395] loss2/conv <- loss2/ave_pool
I0312 19:26:54.584434 17161 net.cpp:357] loss2/conv -> loss2/conv
I0312 19:26:54.584450 17161 net.cpp:97] Setting up loss2/conv
I0312 19:26:54.585631 17161 net.cpp:104] Top shape: 32 128 1 1 (4096)
I0312 19:26:54.585681 17161 layer_factory.hpp:78] Creating layer loss2/conv/bn
I0312 19:26:54.585718 17161 net.cpp:68] Creating Layer loss2/conv/bn
I0312 19:26:54.585746 17161 net.cpp:395] loss2/conv/bn <- loss2/conv
I0312 19:26:54.585774 17161 net.cpp:357] loss2/conv/bn -> loss2/conv/bn
I0312 19:26:54.585806 17161 net.cpp:97] Setting up loss2/conv/bn
I0312 19:26:54.585850 17161 net.cpp:104] Top shape: 32 128 1 1 (4096)
I0312 19:26:54.585881 17161 layer_factory.hpp:78] Creating layer loss2/relu_conv
I0312 19:26:54.585911 17161 net.cpp:68] Creating Layer loss2/relu_conv
I0312 19:26:54.585934 17161 net.cpp:395] loss2/relu_conv <- loss2/conv/bn
I0312 19:26:54.585964 17161 net.cpp:346] loss2/relu_conv -> loss2/conv/bn (in-place)
I0312 19:26:54.585994 17161 net.cpp:97] Setting up loss2/relu_conv
I0312 19:26:54.586024 17161 net.cpp:104] Top shape: 32 128 1 1 (4096)
I0312 19:26:54.586048 17161 layer_factory.hpp:78] Creating layer loss2/fc
I0312 19:26:54.586077 17161 net.cpp:68] Creating Layer loss2/fc
I0312 19:26:54.586100 17161 net.cpp:395] loss2/fc <- loss2/conv/bn
I0312 19:26:54.586133 17161 net.cpp:357] loss2/fc -> loss2/fc
I0312 19:26:54.586165 17161 net.cpp:97] Setting up loss2/fc
I0312 19:26:54.588788 17161 net.cpp:104] Top shape: 32 1024 1 1 (32768)
I0312 19:26:54.588832 17161 layer_factory.hpp:78] Creating layer loss2/fc/bn
I0312 19:26:54.588881 17161 net.cpp:68] Creating Layer loss2/fc/bn
I0312 19:26:54.588909 17161 net.cpp:395] loss2/fc/bn <- loss2/fc
I0312 19:26:54.588938 17161 net.cpp:357] loss2/fc/bn -> loss2/fc/bn
I0312 19:26:54.589015 17161 net.cpp:97] Setting up loss2/fc/bn
I0312 19:26:54.589072 17161 net.cpp:104] Top shape: 32 1024 1 1 (32768)
I0312 19:26:54.589105 17161 layer_factory.hpp:78] Creating layer loss2/relu_fc
I0312 19:26:54.589133 17161 net.cpp:68] Creating Layer loss2/relu_fc
I0312 19:26:54.589157 17161 net.cpp:395] loss2/relu_fc <- loss2/fc/bn
I0312 19:26:54.589189 17161 net.cpp:346] loss2/relu_fc -> loss2/fc/bn (in-place)
I0312 19:26:54.589217 17161 net.cpp:97] Setting up loss2/relu_fc
I0312 19:26:54.589248 17161 net.cpp:104] Top shape: 32 1024 1 1 (32768)
I0312 19:26:54.589272 17161 layer_factory.hpp:78] Creating layer loss2/drop_fc
I0312 19:26:54.589300 17161 net.cpp:68] Creating Layer loss2/drop_fc
I0312 19:26:54.589323 17161 net.cpp:395] loss2/drop_fc <- loss2/fc/bn
I0312 19:26:54.589355 17161 net.cpp:346] loss2/drop_fc -> loss2/fc/bn (in-place)
I0312 19:26:54.589383 17161 net.cpp:97] Setting up loss2/drop_fc
I0312 19:26:54.589408 17161 net.cpp:104] Top shape: 32 1024 1 1 (32768)
I0312 19:26:54.589432 17161 layer_factory.hpp:78] Creating layer loss2/classifier
I0312 19:26:54.589459 17161 net.cpp:68] Creating Layer loss2/classifier
I0312 19:26:54.589483 17161 net.cpp:395] loss2/classifier <- loss2/fc/bn
I0312 19:26:54.589510 17161 net.cpp:357] loss2/classifier -> loss2/classifier
I0312 19:26:54.589540 17161 net.cpp:97] Setting up loss2/classifier
I0312 19:26:54.592007 17161 net.cpp:104] Top shape: 32 121 1 1 (3872)
I0312 19:26:54.592052 17161 layer_factory.hpp:78] Creating layer loss2/classifier_loss2/classifier_0_split
I0312 19:26:54.592082 17161 net.cpp:68] Creating Layer loss2/classifier_loss2/classifier_0_split
I0312 19:26:54.592105 17161 net.cpp:395] loss2/classifier_loss2/classifier_0_split <- loss2/classifier
I0312 19:26:54.592139 17161 net.cpp:357] loss2/classifier_loss2/classifier_0_split -> loss2/classifier_loss2/classifier_0_split_0
I0312 19:26:54.592174 17161 net.cpp:357] loss2/classifier_loss2/classifier_0_split -> loss2/classifier_loss2/classifier_0_split_1
I0312 19:26:54.592205 17161 net.cpp:97] Setting up loss2/classifier_loss2/classifier_0_split
I0312 19:26:54.592231 17161 net.cpp:104] Top shape: 32 121 1 1 (3872)
I0312 19:26:54.592254 17161 net.cpp:104] Top shape: 32 121 1 1 (3872)
I0312 19:26:54.592278 17161 layer_factory.hpp:78] Creating layer loss2/loss
I0312 19:26:54.592304 17161 net.cpp:68] Creating Layer loss2/loss
I0312 19:26:54.592329 17161 net.cpp:395] loss2/loss <- loss2/classifier_loss2/classifier_0_split_0
I0312 19:26:54.592355 17161 net.cpp:395] loss2/loss <- label_data_1_split_2
I0312 19:26:54.592385 17161 net.cpp:357] loss2/loss -> loss2/loss
I0312 19:26:54.592414 17161 net.cpp:97] Setting up loss2/loss
I0312 19:26:54.592440 17161 layer_factory.hpp:78] Creating layer loss2/loss
I0312 19:26:54.592507 17161 net.cpp:104] Top shape: 1 1 1 1 (1)
I0312 19:26:54.592537 17161 net.cpp:110]     with loss weight 0.05
I0312 19:26:54.592578 17161 layer_factory.hpp:78] Creating layer loss2/top-1
I0312 19:26:54.592612 17161 net.cpp:68] Creating Layer loss2/top-1
I0312 19:26:54.592638 17161 net.cpp:395] loss2/top-1 <- loss2/classifier_loss2/classifier_0_split_1
I0312 19:26:54.592664 17161 net.cpp:395] loss2/top-1 <- label_data_1_split_3
I0312 19:26:54.592691 17161 net.cpp:357] loss2/top-1 -> loss2/top-1
I0312 19:26:54.592721 17161 net.cpp:97] Setting up loss2/top-1
I0312 19:26:54.592747 17161 net.cpp:104] Top shape: 1 1 1 1 (1)
I0312 19:26:54.592771 17161 layer_factory.hpp:78] Creating layer inception_4e/1x1
I0312 19:26:54.592798 17161 net.cpp:68] Creating Layer inception_4e/1x1
I0312 19:26:54.592823 17161 net.cpp:395] inception_4e/1x1 <- inception_4d/output_inception_4d/output_0_split_1
I0312 19:26:54.592857 17161 net.cpp:357] inception_4e/1x1 -> inception_4e/1x1
I0312 19:26:54.592903 17161 net.cpp:97] Setting up inception_4e/1x1
I0312 19:26:54.595744 17161 net.cpp:104] Top shape: 32 256 5 5 (204800)
I0312 19:26:54.595793 17161 layer_factory.hpp:78] Creating layer inception_4e/1x1/bn
I0312 19:26:54.595829 17161 net.cpp:68] Creating Layer inception_4e/1x1/bn
I0312 19:26:54.595855 17161 net.cpp:395] inception_4e/1x1/bn <- inception_4e/1x1
I0312 19:26:54.595927 17161 net.cpp:357] inception_4e/1x1/bn -> inception_4e/1x1/bn
I0312 19:26:54.595963 17161 net.cpp:97] Setting up inception_4e/1x1/bn
I0312 19:26:54.596009 17161 net.cpp:104] Top shape: 32 256 5 5 (204800)
I0312 19:26:54.596040 17161 layer_factory.hpp:78] Creating layer inception_4e/relu_1x1
I0312 19:26:54.596072 17161 net.cpp:68] Creating Layer inception_4e/relu_1x1
I0312 19:26:54.596098 17161 net.cpp:395] inception_4e/relu_1x1 <- inception_4e/1x1/bn
I0312 19:26:54.596124 17161 net.cpp:346] inception_4e/relu_1x1 -> inception_4e/1x1/bn (in-place)
I0312 19:26:54.596153 17161 net.cpp:97] Setting up inception_4e/relu_1x1
I0312 19:26:54.596182 17161 net.cpp:104] Top shape: 32 256 5 5 (204800)
I0312 19:26:54.596207 17161 layer_factory.hpp:78] Creating layer inception_4e/3x3_reduce
I0312 19:26:54.596240 17161 net.cpp:68] Creating Layer inception_4e/3x3_reduce
I0312 19:26:54.596266 17161 net.cpp:395] inception_4e/3x3_reduce <- inception_4d/output_inception_4d/output_0_split_2
I0312 19:26:54.596295 17161 net.cpp:357] inception_4e/3x3_reduce -> inception_4e/3x3_reduce
I0312 19:26:54.596326 17161 net.cpp:97] Setting up inception_4e/3x3_reduce
I0312 19:26:54.597570 17161 net.cpp:104] Top shape: 32 160 5 5 (128000)
I0312 19:26:54.597594 17161 layer_factory.hpp:78] Creating layer inception_4e/3x3_reduce/bn
I0312 19:26:54.597614 17161 net.cpp:68] Creating Layer inception_4e/3x3_reduce/bn
I0312 19:26:54.620584 17161 net.cpp:395] inception_4e/3x3_reduce/bn <- inception_4e/3x3_reduce
I0312 19:26:54.620615 17161 net.cpp:357] inception_4e/3x3_reduce/bn -> inception_4e/3x3_reduce/bn
I0312 19:26:54.620636 17161 net.cpp:97] Setting up inception_4e/3x3_reduce/bn
I0312 19:26:54.620663 17161 net.cpp:104] Top shape: 32 160 5 5 (128000)
I0312 19:26:54.620682 17161 layer_factory.hpp:78] Creating layer inception_4e/relu_3x3_reduce
I0312 19:26:54.620698 17161 net.cpp:68] Creating Layer inception_4e/relu_3x3_reduce
I0312 19:26:54.620712 17161 net.cpp:395] inception_4e/relu_3x3_reduce <- inception_4e/3x3_reduce/bn
I0312 19:26:54.620728 17161 net.cpp:346] inception_4e/relu_3x3_reduce -> inception_4e/3x3_reduce/bn (in-place)
I0312 19:26:54.620743 17161 net.cpp:97] Setting up inception_4e/relu_3x3_reduce
I0312 19:26:54.620761 17161 net.cpp:104] Top shape: 32 160 5 5 (128000)
I0312 19:26:54.620774 17161 layer_factory.hpp:78] Creating layer inception_4e/3x3
I0312 19:26:54.620790 17161 net.cpp:68] Creating Layer inception_4e/3x3
I0312 19:26:54.620803 17161 net.cpp:395] inception_4e/3x3 <- inception_4e/3x3_reduce/bn
I0312 19:26:54.620817 17161 net.cpp:357] inception_4e/3x3 -> inception_4e/3x3
I0312 19:26:54.620832 17161 net.cpp:97] Setting up inception_4e/3x3
I0312 19:26:54.630883 17161 net.cpp:104] Top shape: 32 320 5 5 (256000)
I0312 19:26:54.630939 17161 layer_factory.hpp:78] Creating layer inception_4e/3x3/bn
I0312 19:26:54.630978 17161 net.cpp:68] Creating Layer inception_4e/3x3/bn
I0312 19:26:54.631007 17161 net.cpp:395] inception_4e/3x3/bn <- inception_4e/3x3
I0312 19:26:54.631038 17161 net.cpp:357] inception_4e/3x3/bn -> inception_4e/3x3/bn
I0312 19:26:54.631072 17161 net.cpp:97] Setting up inception_4e/3x3/bn
I0312 19:26:54.631114 17161 net.cpp:104] Top shape: 32 320 5 5 (256000)
I0312 19:26:54.631146 17161 layer_factory.hpp:78] Creating layer inception_4e/relu_3x3
I0312 19:26:54.631178 17161 net.cpp:68] Creating Layer inception_4e/relu_3x3
I0312 19:26:54.631204 17161 net.cpp:395] inception_4e/relu_3x3 <- inception_4e/3x3/bn
I0312 19:26:54.631232 17161 net.cpp:346] inception_4e/relu_3x3 -> inception_4e/3x3/bn (in-place)
I0312 19:26:54.631259 17161 net.cpp:97] Setting up inception_4e/relu_3x3
I0312 19:26:54.631289 17161 net.cpp:104] Top shape: 32 320 5 5 (256000)
I0312 19:26:54.631314 17161 layer_factory.hpp:78] Creating layer inception_4e/5x5_reduce
I0312 19:26:54.631343 17161 net.cpp:68] Creating Layer inception_4e/5x5_reduce
I0312 19:26:54.631368 17161 net.cpp:395] inception_4e/5x5_reduce <- inception_4d/output_inception_4d/output_0_split_3
I0312 19:26:54.631399 17161 net.cpp:357] inception_4e/5x5_reduce -> inception_4e/5x5_reduce
I0312 19:26:54.631476 17161 net.cpp:97] Setting up inception_4e/5x5_reduce
I0312 19:26:54.632336 17161 net.cpp:104] Top shape: 32 32 5 5 (25600)
I0312 19:26:54.632387 17161 layer_factory.hpp:78] Creating layer inception_4e/5x5_reduce/bn
I0312 19:26:54.632426 17161 net.cpp:68] Creating Layer inception_4e/5x5_reduce/bn
I0312 19:26:54.632453 17161 net.cpp:395] inception_4e/5x5_reduce/bn <- inception_4e/5x5_reduce
I0312 19:26:54.632483 17161 net.cpp:357] inception_4e/5x5_reduce/bn -> inception_4e/5x5_reduce/bn
I0312 19:26:54.632516 17161 net.cpp:97] Setting up inception_4e/5x5_reduce/bn
I0312 19:26:54.632558 17161 net.cpp:104] Top shape: 32 32 5 5 (25600)
I0312 19:26:54.632591 17161 layer_factory.hpp:78] Creating layer inception_4e/relu_5x5_reduce
I0312 19:26:54.632623 17161 net.cpp:68] Creating Layer inception_4e/relu_5x5_reduce
I0312 19:26:54.632648 17161 net.cpp:395] inception_4e/relu_5x5_reduce <- inception_4e/5x5_reduce/bn
I0312 19:26:54.632675 17161 net.cpp:346] inception_4e/relu_5x5_reduce -> inception_4e/5x5_reduce/bn (in-place)
I0312 19:26:54.632704 17161 net.cpp:97] Setting up inception_4e/relu_5x5_reduce
I0312 19:26:54.632735 17161 net.cpp:104] Top shape: 32 32 5 5 (25600)
I0312 19:26:54.632761 17161 layer_factory.hpp:78] Creating layer inception_4e/5x5
I0312 19:26:54.632796 17161 net.cpp:68] Creating Layer inception_4e/5x5
I0312 19:26:54.632820 17161 net.cpp:395] inception_4e/5x5 <- inception_4e/5x5_reduce/bn
I0312 19:26:54.632849 17161 net.cpp:357] inception_4e/5x5 -> inception_4e/5x5
I0312 19:26:54.632904 17161 net.cpp:97] Setting up inception_4e/5x5
I0312 19:26:54.634037 17161 net.cpp:104] Top shape: 32 128 5 5 (102400)
I0312 19:26:54.634060 17161 layer_factory.hpp:78] Creating layer inception_4e/5x5/bn
I0312 19:26:54.634081 17161 net.cpp:68] Creating Layer inception_4e/5x5/bn
I0312 19:26:54.634094 17161 net.cpp:395] inception_4e/5x5/bn <- inception_4e/5x5
I0312 19:26:54.634109 17161 net.cpp:357] inception_4e/5x5/bn -> inception_4e/5x5/bn
I0312 19:26:54.634125 17161 net.cpp:97] Setting up inception_4e/5x5/bn
I0312 19:26:54.634147 17161 net.cpp:104] Top shape: 32 128 5 5 (102400)
I0312 19:26:54.634163 17161 layer_factory.hpp:78] Creating layer inception_4e/relu_5x5
I0312 19:26:54.634178 17161 net.cpp:68] Creating Layer inception_4e/relu_5x5
I0312 19:26:54.634191 17161 net.cpp:395] inception_4e/relu_5x5 <- inception_4e/5x5/bn
I0312 19:26:54.634204 17161 net.cpp:346] inception_4e/relu_5x5 -> inception_4e/5x5/bn (in-place)
I0312 19:26:54.634218 17161 net.cpp:97] Setting up inception_4e/relu_5x5
I0312 19:26:54.634233 17161 net.cpp:104] Top shape: 32 128 5 5 (102400)
I0312 19:26:54.634245 17161 layer_factory.hpp:78] Creating layer inception_4e/pool
I0312 19:26:54.634258 17161 layer_factory.cpp:51] CUDNN does not support padding or multiple tops. Using Caffe's own pooling layer.
I0312 19:26:54.634276 17161 net.cpp:68] Creating Layer inception_4e/pool
I0312 19:26:54.634289 17161 net.cpp:395] inception_4e/pool <- inception_4d/output_inception_4d/output_0_split_4
I0312 19:26:54.634305 17161 net.cpp:357] inception_4e/pool -> inception_4e/pool
I0312 19:26:54.634320 17161 net.cpp:97] Setting up inception_4e/pool
I0312 19:26:54.634335 17161 net.cpp:104] Top shape: 32 528 5 5 (422400)
I0312 19:26:54.634347 17161 layer_factory.hpp:78] Creating layer inception_4e/pool_proj
I0312 19:26:54.634366 17161 net.cpp:68] Creating Layer inception_4e/pool_proj
I0312 19:26:54.634378 17161 net.cpp:395] inception_4e/pool_proj <- inception_4e/pool
I0312 19:26:54.634393 17161 net.cpp:357] inception_4e/pool_proj -> inception_4e/pool_proj
I0312 19:26:54.634407 17161 net.cpp:97] Setting up inception_4e/pool_proj
I0312 19:26:54.635201 17161 net.cpp:104] Top shape: 32 128 5 5 (102400)
I0312 19:26:54.635224 17161 layer_factory.hpp:78] Creating layer inception_4e/pool_proj/bn
I0312 19:26:54.635243 17161 net.cpp:68] Creating Layer inception_4e/pool_proj/bn
I0312 19:26:54.635257 17161 net.cpp:395] inception_4e/pool_proj/bn <- inception_4e/pool_proj
I0312 19:26:54.635272 17161 net.cpp:357] inception_4e/pool_proj/bn -> inception_4e/pool_proj/bn
I0312 19:26:54.635308 17161 net.cpp:97] Setting up inception_4e/pool_proj/bn
I0312 19:26:54.635332 17161 net.cpp:104] Top shape: 32 128 5 5 (102400)
I0312 19:26:54.635349 17161 layer_factory.hpp:78] Creating layer inception_4e/relu_pool_proj
I0312 19:26:54.635365 17161 net.cpp:68] Creating Layer inception_4e/relu_pool_proj
I0312 19:26:54.635376 17161 net.cpp:395] inception_4e/relu_pool_proj <- inception_4e/pool_proj/bn
I0312 19:26:54.635392 17161 net.cpp:346] inception_4e/relu_pool_proj -> inception_4e/pool_proj/bn (in-place)
I0312 19:26:54.635407 17161 net.cpp:97] Setting up inception_4e/relu_pool_proj
I0312 19:26:54.635423 17161 net.cpp:104] Top shape: 32 128 5 5 (102400)
I0312 19:26:54.635435 17161 layer_factory.hpp:78] Creating layer inception_4e/output
I0312 19:26:54.635450 17161 net.cpp:68] Creating Layer inception_4e/output
I0312 19:26:54.635462 17161 net.cpp:395] inception_4e/output <- inception_4e/1x1/bn
I0312 19:26:54.635476 17161 net.cpp:395] inception_4e/output <- inception_4e/3x3/bn
I0312 19:26:54.635490 17161 net.cpp:395] inception_4e/output <- inception_4e/5x5/bn
I0312 19:26:54.635504 17161 net.cpp:395] inception_4e/output <- inception_4e/pool_proj/bn
I0312 19:26:54.635517 17161 net.cpp:357] inception_4e/output -> inception_4e/output
I0312 19:26:54.635532 17161 net.cpp:97] Setting up inception_4e/output
I0312 19:26:54.635546 17161 net.cpp:104] Top shape: 32 832 5 5 (665600)
I0312 19:26:54.635558 17161 layer_factory.hpp:78] Creating layer pool4/3x3_s2
I0312 19:26:54.635576 17161 net.cpp:68] Creating Layer pool4/3x3_s2
I0312 19:26:54.635589 17161 net.cpp:395] pool4/3x3_s2 <- inception_4e/output
I0312 19:26:54.635606 17161 net.cpp:357] pool4/3x3_s2 -> pool4/3x3_s2
I0312 19:26:54.635620 17161 net.cpp:97] Setting up pool4/3x3_s2
I0312 19:26:54.635638 17161 net.cpp:104] Top shape: 32 832 2 2 (106496)
I0312 19:26:54.635651 17161 layer_factory.hpp:78] Creating layer pool4/3x3_s2_pool4/3x3_s2_0_split
I0312 19:26:54.635666 17161 net.cpp:68] Creating Layer pool4/3x3_s2_pool4/3x3_s2_0_split
I0312 19:26:54.635681 17161 net.cpp:395] pool4/3x3_s2_pool4/3x3_s2_0_split <- pool4/3x3_s2
I0312 19:26:54.635696 17161 net.cpp:357] pool4/3x3_s2_pool4/3x3_s2_0_split -> pool4/3x3_s2_pool4/3x3_s2_0_split_0
I0312 19:26:54.635712 17161 net.cpp:357] pool4/3x3_s2_pool4/3x3_s2_0_split -> pool4/3x3_s2_pool4/3x3_s2_0_split_1
I0312 19:26:54.635730 17161 net.cpp:357] pool4/3x3_s2_pool4/3x3_s2_0_split -> pool4/3x3_s2_pool4/3x3_s2_0_split_2
I0312 19:26:54.635746 17161 net.cpp:357] pool4/3x3_s2_pool4/3x3_s2_0_split -> pool4/3x3_s2_pool4/3x3_s2_0_split_3
I0312 19:26:54.635761 17161 net.cpp:97] Setting up pool4/3x3_s2_pool4/3x3_s2_0_split
I0312 19:26:54.635776 17161 net.cpp:104] Top shape: 32 832 2 2 (106496)
I0312 19:26:54.635787 17161 net.cpp:104] Top shape: 32 832 2 2 (106496)
I0312 19:26:54.635798 17161 net.cpp:104] Top shape: 32 832 2 2 (106496)
I0312 19:26:54.635810 17161 net.cpp:104] Top shape: 32 832 2 2 (106496)
I0312 19:26:54.635821 17161 layer_factory.hpp:78] Creating layer inception_5a/1x1
I0312 19:26:54.635839 17161 net.cpp:68] Creating Layer inception_5a/1x1
I0312 19:26:54.635853 17161 net.cpp:395] inception_5a/1x1 <- pool4/3x3_s2_pool4/3x3_s2_0_split_0
I0312 19:26:54.635872 17161 net.cpp:357] inception_5a/1x1 -> inception_5a/1x1
I0312 19:26:54.635889 17161 net.cpp:97] Setting up inception_5a/1x1
I0312 19:26:54.638290 17161 net.cpp:104] Top shape: 32 256 2 2 (32768)
I0312 19:26:54.638314 17161 layer_factory.hpp:78] Creating layer inception_5a/1x1/bn
I0312 19:26:54.638334 17161 net.cpp:68] Creating Layer inception_5a/1x1/bn
I0312 19:26:54.638347 17161 net.cpp:395] inception_5a/1x1/bn <- inception_5a/1x1
I0312 19:26:54.638362 17161 net.cpp:357] inception_5a/1x1/bn -> inception_5a/1x1/bn
I0312 19:26:54.638381 17161 net.cpp:97] Setting up inception_5a/1x1/bn
I0312 19:26:54.638403 17161 net.cpp:104] Top shape: 32 256 2 2 (32768)
I0312 19:26:54.638422 17161 layer_factory.hpp:78] Creating layer inception_5a/relu_1x1
I0312 19:26:54.638437 17161 net.cpp:68] Creating Layer inception_5a/relu_1x1
I0312 19:26:54.638469 17161 net.cpp:395] inception_5a/relu_1x1 <- inception_5a/1x1/bn
I0312 19:26:54.638484 17161 net.cpp:346] inception_5a/relu_1x1 -> inception_5a/1x1/bn (in-place)
I0312 19:26:54.638499 17161 net.cpp:97] Setting up inception_5a/relu_1x1
I0312 19:26:54.638515 17161 net.cpp:104] Top shape: 32 256 2 2 (32768)
I0312 19:26:54.638527 17161 layer_factory.hpp:78] Creating layer inception_5a/3x3_reduce
I0312 19:26:54.638546 17161 net.cpp:68] Creating Layer inception_5a/3x3_reduce
I0312 19:26:54.638561 17161 net.cpp:395] inception_5a/3x3_reduce <- pool4/3x3_s2_pool4/3x3_s2_0_split_1
I0312 19:26:54.638576 17161 net.cpp:357] inception_5a/3x3_reduce -> inception_5a/3x3_reduce
I0312 19:26:54.638592 17161 net.cpp:97] Setting up inception_5a/3x3_reduce
I0312 19:26:54.640084 17161 net.cpp:104] Top shape: 32 160 2 2 (20480)
I0312 19:26:54.640107 17161 layer_factory.hpp:78] Creating layer inception_5a/3x3_reduce/bn
I0312 19:26:54.640125 17161 net.cpp:68] Creating Layer inception_5a/3x3_reduce/bn
I0312 19:26:54.640137 17161 net.cpp:395] inception_5a/3x3_reduce/bn <- inception_5a/3x3_reduce
I0312 19:26:54.640156 17161 net.cpp:357] inception_5a/3x3_reduce/bn -> inception_5a/3x3_reduce/bn
I0312 19:26:54.640172 17161 net.cpp:97] Setting up inception_5a/3x3_reduce/bn
I0312 19:26:54.640193 17161 net.cpp:104] Top shape: 32 160 2 2 (20480)
I0312 19:26:54.640209 17161 layer_factory.hpp:78] Creating layer inception_5a/relu_3x3_reduce
I0312 19:26:54.644915 17161 net.cpp:68] Creating Layer inception_5a/relu_3x3_reduce
I0312 19:26:54.644956 17161 net.cpp:395] inception_5a/relu_3x3_reduce <- inception_5a/3x3_reduce/bn
I0312 19:26:54.644989 17161 net.cpp:346] inception_5a/relu_3x3_reduce -> inception_5a/3x3_reduce/bn (in-place)
I0312 19:26:54.645020 17161 net.cpp:97] Setting up inception_5a/relu_3x3_reduce
I0312 19:26:54.645038 17161 net.cpp:104] Top shape: 32 160 2 2 (20480)
I0312 19:26:54.645051 17161 layer_factory.hpp:78] Creating layer inception_5a/3x3
I0312 19:26:54.645093 17161 net.cpp:68] Creating Layer inception_5a/3x3
I0312 19:26:54.645119 17161 net.cpp:395] inception_5a/3x3 <- inception_5a/3x3_reduce/bn
I0312 19:26:54.645150 17161 net.cpp:357] inception_5a/3x3 -> inception_5a/3x3
I0312 19:26:54.645182 17161 net.cpp:97] Setting up inception_5a/3x3
I0312 19:26:54.654680 17161 net.cpp:104] Top shape: 32 320 2 2 (40960)
I0312 19:26:54.654757 17161 layer_factory.hpp:78] Creating layer inception_5a/3x3/bn
I0312 19:26:54.654801 17161 net.cpp:68] Creating Layer inception_5a/3x3/bn
I0312 19:26:54.654831 17161 net.cpp:395] inception_5a/3x3/bn <- inception_5a/3x3
I0312 19:26:54.654863 17161 net.cpp:357] inception_5a/3x3/bn -> inception_5a/3x3/bn
I0312 19:26:54.654898 17161 net.cpp:97] Setting up inception_5a/3x3/bn
I0312 19:26:54.654945 17161 net.cpp:104] Top shape: 32 320 2 2 (40960)
I0312 19:26:54.654978 17161 layer_factory.hpp:78] Creating layer inception_5a/relu_3x3
I0312 19:26:54.655007 17161 net.cpp:68] Creating Layer inception_5a/relu_3x3
I0312 19:26:54.655032 17161 net.cpp:395] inception_5a/relu_3x3 <- inception_5a/3x3/bn
I0312 19:26:54.655060 17161 net.cpp:346] inception_5a/relu_3x3 -> inception_5a/3x3/bn (in-place)
I0312 19:26:54.655087 17161 net.cpp:97] Setting up inception_5a/relu_3x3
I0312 19:26:54.655117 17161 net.cpp:104] Top shape: 32 320 2 2 (40960)
I0312 19:26:54.655143 17161 layer_factory.hpp:78] Creating layer inception_5a/5x5_reduce
I0312 19:26:54.655171 17161 net.cpp:68] Creating Layer inception_5a/5x5_reduce
I0312 19:26:54.655197 17161 net.cpp:395] inception_5a/5x5_reduce <- pool4/3x3_s2_pool4/3x3_s2_0_split_2
I0312 19:26:54.655226 17161 net.cpp:357] inception_5a/5x5_reduce -> inception_5a/5x5_reduce
I0312 19:26:54.655257 17161 net.cpp:97] Setting up inception_5a/5x5_reduce
I0312 19:26:54.655978 17161 net.cpp:104] Top shape: 32 32 2 2 (4096)
I0312 19:26:54.656025 17161 layer_factory.hpp:78] Creating layer inception_5a/5x5_reduce/bn
I0312 19:26:54.656061 17161 net.cpp:68] Creating Layer inception_5a/5x5_reduce/bn
I0312 19:26:54.656087 17161 net.cpp:395] inception_5a/5x5_reduce/bn <- inception_5a/5x5_reduce
I0312 19:26:54.656117 17161 net.cpp:357] inception_5a/5x5_reduce/bn -> inception_5a/5x5_reduce/bn
I0312 19:26:54.656195 17161 net.cpp:97] Setting up inception_5a/5x5_reduce/bn
I0312 19:26:54.656240 17161 net.cpp:104] Top shape: 32 32 2 2 (4096)
I0312 19:26:54.656271 17161 layer_factory.hpp:78] Creating layer inception_5a/relu_5x5_reduce
I0312 19:26:54.656306 17161 net.cpp:68] Creating Layer inception_5a/relu_5x5_reduce
I0312 19:26:54.656332 17161 net.cpp:395] inception_5a/relu_5x5_reduce <- inception_5a/5x5_reduce/bn
I0312 19:26:54.656359 17161 net.cpp:346] inception_5a/relu_5x5_reduce -> inception_5a/5x5_reduce/bn (in-place)
I0312 19:26:54.656388 17161 net.cpp:97] Setting up inception_5a/relu_5x5_reduce
I0312 19:26:54.656419 17161 net.cpp:104] Top shape: 32 32 2 2 (4096)
I0312 19:26:54.656443 17161 layer_factory.hpp:78] Creating layer inception_5a/5x5
I0312 19:26:54.656472 17161 net.cpp:68] Creating Layer inception_5a/5x5
I0312 19:26:54.656497 17161 net.cpp:395] inception_5a/5x5 <- inception_5a/5x5_reduce/bn
I0312 19:26:54.656530 17161 net.cpp:357] inception_5a/5x5 -> inception_5a/5x5
I0312 19:26:54.656563 17161 net.cpp:97] Setting up inception_5a/5x5
I0312 19:26:54.657863 17161 net.cpp:104] Top shape: 32 128 2 2 (16384)
I0312 19:26:54.657886 17161 layer_factory.hpp:78] Creating layer inception_5a/5x5/bn
I0312 19:26:54.657907 17161 net.cpp:68] Creating Layer inception_5a/5x5/bn
I0312 19:26:54.657919 17161 net.cpp:395] inception_5a/5x5/bn <- inception_5a/5x5
I0312 19:26:54.657934 17161 net.cpp:357] inception_5a/5x5/bn -> inception_5a/5x5/bn
I0312 19:26:54.657950 17161 net.cpp:97] Setting up inception_5a/5x5/bn
I0312 19:26:54.657973 17161 net.cpp:104] Top shape: 32 128 2 2 (16384)
I0312 19:26:54.657987 17161 layer_factory.hpp:78] Creating layer inception_5a/relu_5x5
I0312 19:26:54.658001 17161 net.cpp:68] Creating Layer inception_5a/relu_5x5
I0312 19:26:54.658015 17161 net.cpp:395] inception_5a/relu_5x5 <- inception_5a/5x5/bn
I0312 19:26:54.658027 17161 net.cpp:346] inception_5a/relu_5x5 -> inception_5a/5x5/bn (in-place)
I0312 19:26:54.658041 17161 net.cpp:97] Setting up inception_5a/relu_5x5
I0312 19:26:54.658056 17161 net.cpp:104] Top shape: 32 128 2 2 (16384)
I0312 19:26:54.658068 17161 layer_factory.hpp:78] Creating layer inception_5a/pool
I0312 19:26:54.658082 17161 layer_factory.cpp:51] CUDNN does not support padding or multiple tops. Using Caffe's own pooling layer.
I0312 19:26:54.658095 17161 net.cpp:68] Creating Layer inception_5a/pool
I0312 19:26:54.658108 17161 net.cpp:395] inception_5a/pool <- pool4/3x3_s2_pool4/3x3_s2_0_split_3
I0312 19:26:54.658126 17161 net.cpp:357] inception_5a/pool -> inception_5a/pool
I0312 19:26:54.658141 17161 net.cpp:97] Setting up inception_5a/pool
I0312 19:26:54.658157 17161 net.cpp:104] Top shape: 32 832 2 2 (106496)
I0312 19:26:54.658169 17161 layer_factory.hpp:78] Creating layer inception_5a/pool_proj
I0312 19:26:54.658187 17161 net.cpp:68] Creating Layer inception_5a/pool_proj
I0312 19:26:54.658200 17161 net.cpp:395] inception_5a/pool_proj <- inception_5a/pool
I0312 19:26:54.658215 17161 net.cpp:357] inception_5a/pool_proj -> inception_5a/pool_proj
I0312 19:26:54.658231 17161 net.cpp:97] Setting up inception_5a/pool_proj
I0312 19:26:54.659380 17161 net.cpp:104] Top shape: 32 128 2 2 (16384)
I0312 19:26:54.659404 17161 layer_factory.hpp:78] Creating layer inception_5a/pool_proj/bn
I0312 19:26:54.659425 17161 net.cpp:68] Creating Layer inception_5a/pool_proj/bn
I0312 19:26:54.659438 17161 net.cpp:395] inception_5a/pool_proj/bn <- inception_5a/pool_proj
I0312 19:26:54.659456 17161 net.cpp:357] inception_5a/pool_proj/bn -> inception_5a/pool_proj/bn
I0312 19:26:54.659472 17161 net.cpp:97] Setting up inception_5a/pool_proj/bn
I0312 19:26:54.659492 17161 net.cpp:104] Top shape: 32 128 2 2 (16384)
I0312 19:26:54.659508 17161 layer_factory.hpp:78] Creating layer inception_5a/relu_pool_proj
I0312 19:26:54.659525 17161 net.cpp:68] Creating Layer inception_5a/relu_pool_proj
I0312 19:26:54.659538 17161 net.cpp:395] inception_5a/relu_pool_proj <- inception_5a/pool_proj/bn
I0312 19:26:54.659553 17161 net.cpp:346] inception_5a/relu_pool_proj -> inception_5a/pool_proj/bn (in-place)
I0312 19:26:54.659589 17161 net.cpp:97] Setting up inception_5a/relu_pool_proj
I0312 19:26:54.659606 17161 net.cpp:104] Top shape: 32 128 2 2 (16384)
I0312 19:26:54.659618 17161 layer_factory.hpp:78] Creating layer inception_5a/output
I0312 19:26:54.659633 17161 net.cpp:68] Creating Layer inception_5a/output
I0312 19:26:54.659646 17161 net.cpp:395] inception_5a/output <- inception_5a/1x1/bn
I0312 19:26:54.659661 17161 net.cpp:395] inception_5a/output <- inception_5a/3x3/bn
I0312 19:26:54.659674 17161 net.cpp:395] inception_5a/output <- inception_5a/5x5/bn
I0312 19:26:54.659687 17161 net.cpp:395] inception_5a/output <- inception_5a/pool_proj/bn
I0312 19:26:54.659705 17161 net.cpp:357] inception_5a/output -> inception_5a/output
I0312 19:26:54.659721 17161 net.cpp:97] Setting up inception_5a/output
I0312 19:26:54.659735 17161 net.cpp:104] Top shape: 32 832 2 2 (106496)
I0312 19:26:54.659747 17161 layer_factory.hpp:78] Creating layer inception_5a/output_inception_5a/output_0_split
I0312 19:26:54.659762 17161 net.cpp:68] Creating Layer inception_5a/output_inception_5a/output_0_split
I0312 19:26:54.659773 17161 net.cpp:395] inception_5a/output_inception_5a/output_0_split <- inception_5a/output
I0312 19:26:54.659788 17161 net.cpp:357] inception_5a/output_inception_5a/output_0_split -> inception_5a/output_inception_5a/output_0_split_0
I0312 19:26:54.659808 17161 net.cpp:357] inception_5a/output_inception_5a/output_0_split -> inception_5a/output_inception_5a/output_0_split_1
I0312 19:26:54.659826 17161 net.cpp:357] inception_5a/output_inception_5a/output_0_split -> inception_5a/output_inception_5a/output_0_split_2
I0312 19:26:54.675490 17161 net.cpp:357] inception_5a/output_inception_5a/output_0_split -> inception_5a/output_inception_5a/output_0_split_3
I0312 19:26:54.675516 17161 net.cpp:97] Setting up inception_5a/output_inception_5a/output_0_split
I0312 19:26:54.675532 17161 net.cpp:104] Top shape: 32 832 2 2 (106496)
I0312 19:26:54.675544 17161 net.cpp:104] Top shape: 32 832 2 2 (106496)
I0312 19:26:54.675555 17161 net.cpp:104] Top shape: 32 832 2 2 (106496)
I0312 19:26:54.675567 17161 net.cpp:104] Top shape: 32 832 2 2 (106496)
I0312 19:26:54.675578 17161 layer_factory.hpp:78] Creating layer inception_5b/1x1
I0312 19:26:54.675595 17161 net.cpp:68] Creating Layer inception_5b/1x1
I0312 19:26:54.675607 17161 net.cpp:395] inception_5b/1x1 <- inception_5a/output_inception_5a/output_0_split_0
I0312 19:26:54.675628 17161 net.cpp:357] inception_5b/1x1 -> inception_5b/1x1
I0312 19:26:54.675645 17161 net.cpp:97] Setting up inception_5b/1x1
I0312 19:26:54.681090 17161 net.cpp:104] Top shape: 32 384 2 2 (49152)
I0312 19:26:54.681118 17161 layer_factory.hpp:78] Creating layer inception_5b/1x1/bn
I0312 19:26:54.681138 17161 net.cpp:68] Creating Layer inception_5b/1x1/bn
I0312 19:26:54.681151 17161 net.cpp:395] inception_5b/1x1/bn <- inception_5b/1x1
I0312 19:26:54.681166 17161 net.cpp:357] inception_5b/1x1/bn -> inception_5b/1x1/bn
I0312 19:26:54.681182 17161 net.cpp:97] Setting up inception_5b/1x1/bn
I0312 19:26:54.681205 17161 net.cpp:104] Top shape: 32 384 2 2 (49152)
I0312 19:26:54.681221 17161 layer_factory.hpp:78] Creating layer inception_5b/relu_1x1
I0312 19:26:54.681236 17161 net.cpp:68] Creating Layer inception_5b/relu_1x1
I0312 19:26:54.681247 17161 net.cpp:395] inception_5b/relu_1x1 <- inception_5b/1x1/bn
I0312 19:26:54.681260 17161 net.cpp:346] inception_5b/relu_1x1 -> inception_5b/1x1/bn (in-place)
I0312 19:26:54.681274 17161 net.cpp:97] Setting up inception_5b/relu_1x1
I0312 19:26:54.681289 17161 net.cpp:104] Top shape: 32 384 2 2 (49152)
I0312 19:26:54.681301 17161 layer_factory.hpp:78] Creating layer inception_5b/3x3_reduce
I0312 19:26:54.681320 17161 net.cpp:68] Creating Layer inception_5b/3x3_reduce
I0312 19:26:54.681334 17161 net.cpp:395] inception_5b/3x3_reduce <- inception_5a/output_inception_5a/output_0_split_1
I0312 19:26:54.681349 17161 net.cpp:357] inception_5b/3x3_reduce -> inception_5b/3x3_reduce
I0312 19:26:54.681365 17161 net.cpp:97] Setting up inception_5b/3x3_reduce
I0312 19:26:54.683382 17161 net.cpp:104] Top shape: 32 192 2 2 (24576)
I0312 19:26:54.683409 17161 layer_factory.hpp:78] Creating layer inception_5b/3x3_reduce/bn
I0312 19:26:54.683430 17161 net.cpp:68] Creating Layer inception_5b/3x3_reduce/bn
I0312 19:26:54.683444 17161 net.cpp:395] inception_5b/3x3_reduce/bn <- inception_5b/3x3_reduce
I0312 19:26:54.683460 17161 net.cpp:357] inception_5b/3x3_reduce/bn -> inception_5b/3x3_reduce/bn
I0312 19:26:54.683476 17161 net.cpp:97] Setting up inception_5b/3x3_reduce/bn
I0312 19:26:54.683501 17161 net.cpp:104] Top shape: 32 192 2 2 (24576)
I0312 19:26:54.683516 17161 layer_factory.hpp:78] Creating layer inception_5b/relu_3x3_reduce
I0312 19:26:54.683533 17161 net.cpp:68] Creating Layer inception_5b/relu_3x3_reduce
I0312 19:26:54.683547 17161 net.cpp:395] inception_5b/relu_3x3_reduce <- inception_5b/3x3_reduce/bn
I0312 19:26:54.683560 17161 net.cpp:346] inception_5b/relu_3x3_reduce -> inception_5b/3x3_reduce/bn (in-place)
I0312 19:26:54.683575 17161 net.cpp:97] Setting up inception_5b/relu_3x3_reduce
I0312 19:26:54.683590 17161 net.cpp:104] Top shape: 32 192 2 2 (24576)
I0312 19:26:54.683603 17161 layer_factory.hpp:78] Creating layer inception_5b/3x3
I0312 19:26:54.683617 17161 net.cpp:68] Creating Layer inception_5b/3x3
I0312 19:26:54.683629 17161 net.cpp:395] inception_5b/3x3 <- inception_5b/3x3_reduce/bn
I0312 19:26:54.683647 17161 net.cpp:357] inception_5b/3x3 -> inception_5b/3x3
I0312 19:26:54.683663 17161 net.cpp:97] Setting up inception_5b/3x3
I0312 19:26:54.691020 17161 net.cpp:104] Top shape: 32 384 2 2 (49152)
I0312 19:26:54.691050 17161 layer_factory.hpp:78] Creating layer inception_5b/3x3/bn
I0312 19:26:54.691067 17161 net.cpp:68] Creating Layer inception_5b/3x3/bn
I0312 19:26:54.691082 17161 net.cpp:395] inception_5b/3x3/bn <- inception_5b/3x3
I0312 19:26:54.691098 17161 net.cpp:357] inception_5b/3x3/bn -> inception_5b/3x3/bn
I0312 19:26:54.691115 17161 net.cpp:97] Setting up inception_5b/3x3/bn
I0312 19:26:54.691138 17161 net.cpp:104] Top shape: 32 384 2 2 (49152)
I0312 19:26:54.691154 17161 layer_factory.hpp:78] Creating layer inception_5b/relu_3x3
I0312 19:26:54.691169 17161 net.cpp:68] Creating Layer inception_5b/relu_3x3
I0312 19:26:54.691181 17161 net.cpp:395] inception_5b/relu_3x3 <- inception_5b/3x3/bn
I0312 19:26:54.691195 17161 net.cpp:346] inception_5b/relu_3x3 -> inception_5b/3x3/bn (in-place)
I0312 19:26:54.691208 17161 net.cpp:97] Setting up inception_5b/relu_3x3
I0312 19:26:54.691223 17161 net.cpp:104] Top shape: 32 384 2 2 (49152)
I0312 19:26:54.691236 17161 layer_factory.hpp:78] Creating layer inception_5b/5x5_reduce
I0312 19:26:54.691252 17161 net.cpp:68] Creating Layer inception_5b/5x5_reduce
I0312 19:26:54.691267 17161 net.cpp:395] inception_5b/5x5_reduce <- inception_5a/output_inception_5a/output_0_split_2
I0312 19:26:54.691282 17161 net.cpp:357] inception_5b/5x5_reduce -> inception_5b/5x5_reduce
I0312 19:26:54.691297 17161 net.cpp:97] Setting up inception_5b/5x5_reduce
I0312 19:26:54.691808 17161 net.cpp:104] Top shape: 32 48 2 2 (6144)
I0312 19:26:54.691831 17161 layer_factory.hpp:78] Creating layer inception_5b/5x5_reduce/bn
I0312 19:26:54.691848 17161 net.cpp:68] Creating Layer inception_5b/5x5_reduce/bn
I0312 19:26:54.691861 17161 net.cpp:395] inception_5b/5x5_reduce/bn <- inception_5b/5x5_reduce
I0312 19:26:54.691879 17161 net.cpp:357] inception_5b/5x5_reduce/bn -> inception_5b/5x5_reduce/bn
I0312 19:26:54.691895 17161 net.cpp:97] Setting up inception_5b/5x5_reduce/bn
I0312 19:26:54.691915 17161 net.cpp:104] Top shape: 32 48 2 2 (6144)
I0312 19:26:54.691931 17161 layer_factory.hpp:78] Creating layer inception_5b/relu_5x5_reduce
I0312 19:26:54.691946 17161 net.cpp:68] Creating Layer inception_5b/relu_5x5_reduce
I0312 19:26:54.691958 17161 net.cpp:395] inception_5b/relu_5x5_reduce <- inception_5b/5x5_reduce/bn
I0312 19:26:54.691977 17161 net.cpp:346] inception_5b/relu_5x5_reduce -> inception_5b/5x5_reduce/bn (in-place)
I0312 19:26:54.691992 17161 net.cpp:97] Setting up inception_5b/relu_5x5_reduce
I0312 19:26:54.692006 17161 net.cpp:104] Top shape: 32 48 2 2 (6144)
I0312 19:26:54.692044 17161 layer_factory.hpp:78] Creating layer inception_5b/5x5
I0312 19:26:54.692060 17161 net.cpp:68] Creating Layer inception_5b/5x5
I0312 19:26:54.692073 17161 net.cpp:395] inception_5b/5x5 <- inception_5b/5x5_reduce/bn
I0312 19:26:54.692091 17161 net.cpp:357] inception_5b/5x5 -> inception_5b/5x5
I0312 19:26:54.692107 17161 net.cpp:97] Setting up inception_5b/5x5
I0312 19:26:54.693747 17161 net.cpp:104] Top shape: 32 128 2 2 (16384)
I0312 19:26:54.693770 17161 layer_factory.hpp:78] Creating layer inception_5b/5x5/bn
I0312 19:26:54.693789 17161 net.cpp:68] Creating Layer inception_5b/5x5/bn
I0312 19:26:54.693801 17161 net.cpp:395] inception_5b/5x5/bn <- inception_5b/5x5
I0312 19:26:54.693819 17161 net.cpp:357] inception_5b/5x5/bn -> inception_5b/5x5/bn
I0312 19:26:54.693835 17161 net.cpp:97] Setting up inception_5b/5x5/bn
I0312 19:26:54.693858 17161 net.cpp:104] Top shape: 32 128 2 2 (16384)
I0312 19:26:54.693874 17161 layer_factory.hpp:78] Creating layer inception_5b/relu_5x5
I0312 19:26:54.693892 17161 net.cpp:68] Creating Layer inception_5b/relu_5x5
I0312 19:26:54.693904 17161 net.cpp:395] inception_5b/relu_5x5 <- inception_5b/5x5/bn
I0312 19:26:54.693919 17161 net.cpp:346] inception_5b/relu_5x5 -> inception_5b/5x5/bn (in-place)
I0312 19:26:54.693934 17161 net.cpp:97] Setting up inception_5b/relu_5x5
I0312 19:26:54.693949 17161 net.cpp:104] Top shape: 32 128 2 2 (16384)
I0312 19:26:54.693961 17161 layer_factory.hpp:78] Creating layer inception_5b/pool
I0312 19:26:54.707221 17161 layer_factory.cpp:51] CUDNN does not support padding or multiple tops. Using Caffe's own pooling layer.
I0312 19:26:54.707253 17161 net.cpp:68] Creating Layer inception_5b/pool
I0312 19:26:54.707269 17161 net.cpp:395] inception_5b/pool <- inception_5a/output_inception_5a/output_0_split_3
I0312 19:26:54.707286 17161 net.cpp:357] inception_5b/pool -> inception_5b/pool
I0312 19:26:54.707304 17161 net.cpp:97] Setting up inception_5b/pool
I0312 19:26:54.707319 17161 net.cpp:104] Top shape: 32 832 2 2 (106496)
I0312 19:26:54.707332 17161 layer_factory.hpp:78] Creating layer inception_5b/pool_proj
I0312 19:26:54.707348 17161 net.cpp:68] Creating Layer inception_5b/pool_proj
I0312 19:26:54.707361 17161 net.cpp:395] inception_5b/pool_proj <- inception_5b/pool
I0312 19:26:54.707379 17161 net.cpp:357] inception_5b/pool_proj -> inception_5b/pool_proj
I0312 19:26:54.707396 17161 net.cpp:97] Setting up inception_5b/pool_proj
I0312 19:26:54.708650 17161 net.cpp:104] Top shape: 32 128 2 2 (16384)
I0312 19:26:54.708678 17161 layer_factory.hpp:78] Creating layer inception_5b/pool_proj/bn
I0312 19:26:54.708698 17161 net.cpp:68] Creating Layer inception_5b/pool_proj/bn
I0312 19:26:54.708710 17161 net.cpp:395] inception_5b/pool_proj/bn <- inception_5b/pool_proj
I0312 19:26:54.708729 17161 net.cpp:357] inception_5b/pool_proj/bn -> inception_5b/pool_proj/bn
I0312 19:26:54.708745 17161 net.cpp:97] Setting up inception_5b/pool_proj/bn
I0312 19:26:54.708767 17161 net.cpp:104] Top shape: 32 128 2 2 (16384)
I0312 19:26:54.708782 17161 layer_factory.hpp:78] Creating layer inception_5b/relu_pool_proj
I0312 19:26:54.708798 17161 net.cpp:68] Creating Layer inception_5b/relu_pool_proj
I0312 19:26:54.708811 17161 net.cpp:395] inception_5b/relu_pool_proj <- inception_5b/pool_proj/bn
I0312 19:26:54.708827 17161 net.cpp:346] inception_5b/relu_pool_proj -> inception_5b/pool_proj/bn (in-place)
I0312 19:26:54.708842 17161 net.cpp:97] Setting up inception_5b/relu_pool_proj
I0312 19:26:54.708856 17161 net.cpp:104] Top shape: 32 128 2 2 (16384)
I0312 19:26:54.708884 17161 layer_factory.hpp:78] Creating layer inception_5b/output
I0312 19:26:54.708915 17161 net.cpp:68] Creating Layer inception_5b/output
I0312 19:26:54.708940 17161 net.cpp:395] inception_5b/output <- inception_5b/1x1/bn
I0312 19:26:54.708967 17161 net.cpp:395] inception_5b/output <- inception_5b/3x3/bn
I0312 19:26:54.708994 17161 net.cpp:395] inception_5b/output <- inception_5b/5x5/bn
I0312 19:26:54.709020 17161 net.cpp:395] inception_5b/output <- inception_5b/pool_proj/bn
I0312 19:26:54.709099 17161 net.cpp:357] inception_5b/output -> inception_5b/output
I0312 19:26:54.709134 17161 net.cpp:97] Setting up inception_5b/output
I0312 19:26:54.709161 17161 net.cpp:104] Top shape: 32 1024 2 2 (131072)
I0312 19:26:54.709185 17161 layer_factory.hpp:78] Creating layer pool5/7x7_s1
I0312 19:26:54.709214 17161 net.cpp:68] Creating Layer pool5/7x7_s1
I0312 19:26:54.709238 17161 net.cpp:395] pool5/7x7_s1 <- inception_5b/output
I0312 19:26:54.709267 17161 net.cpp:357] pool5/7x7_s1 -> pool5/7x7_s1
I0312 19:26:54.709295 17161 net.cpp:97] Setting up pool5/7x7_s1
I0312 19:26:54.709329 17161 net.cpp:104] Top shape: 32 1024 1 1 (32768)
I0312 19:26:54.709355 17161 layer_factory.hpp:78] Creating layer pool5/drop_7x7_s1
I0312 19:26:54.709388 17161 net.cpp:68] Creating Layer pool5/drop_7x7_s1
I0312 19:26:54.709413 17161 net.cpp:395] pool5/drop_7x7_s1 <- pool5/7x7_s1
I0312 19:26:54.709439 17161 net.cpp:346] pool5/drop_7x7_s1 -> pool5/7x7_s1 (in-place)
I0312 19:26:54.709468 17161 net.cpp:97] Setting up pool5/drop_7x7_s1
I0312 19:26:54.709496 17161 net.cpp:104] Top shape: 32 1024 1 1 (32768)
I0312 19:26:54.709518 17161 layer_factory.hpp:78] Creating layer loss3/classifier
I0312 19:26:54.709554 17161 net.cpp:68] Creating Layer loss3/classifier
I0312 19:26:54.709579 17161 net.cpp:395] loss3/classifier <- pool5/7x7_s1
I0312 19:26:54.709609 17161 net.cpp:357] loss3/classifier -> loss3/classifier
I0312 19:26:54.709641 17161 net.cpp:97] Setting up loss3/classifier
I0312 19:26:54.712318 17161 net.cpp:104] Top shape: 32 121 1 1 (3872)
I0312 19:26:54.712364 17161 layer_factory.hpp:78] Creating layer loss3/classifier_loss3/classifier_0_split
I0312 19:26:54.712398 17161 net.cpp:68] Creating Layer loss3/classifier_loss3/classifier_0_split
I0312 19:26:54.712422 17161 net.cpp:395] loss3/classifier_loss3/classifier_0_split <- loss3/classifier
I0312 19:26:54.712451 17161 net.cpp:357] loss3/classifier_loss3/classifier_0_split -> loss3/classifier_loss3/classifier_0_split_0
I0312 19:26:54.712482 17161 net.cpp:357] loss3/classifier_loss3/classifier_0_split -> loss3/classifier_loss3/classifier_0_split_1
I0312 19:26:54.712519 17161 net.cpp:97] Setting up loss3/classifier_loss3/classifier_0_split
I0312 19:26:54.712546 17161 net.cpp:104] Top shape: 32 121 1 1 (3872)
I0312 19:26:54.712569 17161 net.cpp:104] Top shape: 32 121 1 1 (3872)
I0312 19:26:54.712592 17161 layer_factory.hpp:78] Creating layer loss3/loss
I0312 19:26:54.712620 17161 net.cpp:68] Creating Layer loss3/loss
I0312 19:26:54.712645 17161 net.cpp:395] loss3/loss <- loss3/classifier_loss3/classifier_0_split_0
I0312 19:26:54.712671 17161 net.cpp:395] loss3/loss <- label_data_1_split_4
I0312 19:26:54.712697 17161 net.cpp:357] loss3/loss -> loss3/loss
I0312 19:26:54.712726 17161 net.cpp:97] Setting up loss3/loss
I0312 19:26:54.712754 17161 layer_factory.hpp:78] Creating layer loss3/loss
I0312 19:26:54.712821 17161 net.cpp:104] Top shape: 1 1 1 1 (1)
I0312 19:26:54.712851 17161 net.cpp:110]     with loss weight 1
I0312 19:26:54.712904 17161 layer_factory.hpp:78] Creating layer loss3/top-1
I0312 19:26:54.712934 17161 net.cpp:68] Creating Layer loss3/top-1
I0312 19:26:54.712960 17161 net.cpp:395] loss3/top-1 <- loss3/classifier_loss3/classifier_0_split_1
I0312 19:26:54.712986 17161 net.cpp:395] loss3/top-1 <- label_data_1_split_5
I0312 19:26:54.713018 17161 net.cpp:357] loss3/top-1 -> loss3/top-1
I0312 19:26:54.713052 17161 net.cpp:97] Setting up loss3/top-1
I0312 19:26:54.713078 17161 net.cpp:104] Top shape: 1 1 1 1 (1)
I0312 19:26:54.713100 17161 net.cpp:173] loss3/top-1 does not need backward computation.
I0312 19:26:54.713122 17161 net.cpp:171] loss3/loss needs backward computation.
I0312 19:26:54.713145 17161 net.cpp:171] loss3/classifier_loss3/classifier_0_split needs backward computation.
I0312 19:26:54.713170 17161 net.cpp:171] loss3/classifier needs backward computation.
I0312 19:26:54.713191 17161 net.cpp:171] pool5/drop_7x7_s1 needs backward computation.
…
