…
  transform_param {
    mirror: true
    mean_file: "/media/data/kaggle/nationalDataScienceBowl/data/typeF/train_mean.binaryproto"
    affine_param {
      x_stretch_unirnd_range: 0.01
      y_stretch_unirnd_range: 0.01
      rotation_unirnd_range: 180
      max_translation: 5
      background_color: 255
    }
  }
  image_data_affine_param {
    source: "/media/data/kaggle/nationalDataScienceBowl/data/typeF/train.txt"
    scale: 0.00390625
    batch_size: 96
    shuffle: true
    new_size: 96
    is_color: false
    root_folder: "/media/data/kaggle/nationalDataScienceBowl/data/typeF/"
  }
}
layers {
  bottom: "data"
  top: "conv1/7x7_s2"
  name: "conv1/7x7_s2"
  type: CONVOLUTION
  blobs_lr: 1
  blobs_lr: 2
  weight_decay: 1
  weight_decay: 0
  convolution_param {
    num_output: 256
    kernel_size: 4
    stride: 2
    weight_filler {
      type: "xavier"
    }
    bias_filler {
      type: "constant"
    }
  }
}
layers {
  bottom: "conv1/7x7_s2"
  top: "conv1/7x7_s2/bn"
  name: "conv1/7x7_s2/bn"
  type: BN
  blobs_lr: 1
  blobs_lr: 1
  weight_decay: 0
  weight_decay: 0
  bn_param {
    scale_filler {
      type: "constant"
      value: 1
    }
    shift_filler {
      type: "constant"
      value: 0
    }
  }
}
layers {
  bottom: "conv1/7x7_s2/bn"
  top: "conv1/7x7_s2/bn"
  name: "conv1/relu_7x7"
  type: RELU
  relu_param {
    negative_slope: 0.1
  }
}
layers {
  bottom: "conv1/7x7_s2/bn"
  top: "cccp1/7x7_s2"
  name: "cccp1/7x7_s2"
  type: CONVOLUTION
  blobs_lr: 1
  blobs_lr: 2
  weight_decay: 1
  weight_decay: 0
  convolution_param {
    num_output: 256
    kernel_size: 1
    group: 1
    stride: 1
    weight_filler {
      type: "xavier"
    }
    bias_filler {
      type: "constant"
    }
  }
}
layers {
  bottom: "cccp1/7x7_s2"
  top: "cccp1/7x7_s2/bn"
  name: "cccp1/7x7_s2/bn"
  type: BN
  blobs_lr: 1
  blobs_lr: 1
  weight_decay: 0
  weight_decay: 0
  bn_param {
    scale_filler {
      type: "constant"
      value: 1
    }
    shift_filler {
      type: "constant"
      value: 0
    }
  }
}
layers {
  bottom: "cccp1/7x7_s2/bn"
  top: "cccp1/7x7_s2/bn"
  name: "cccp1/7x7_s2/bn/relu"
  type: RELU
  relu_param {
    negative_slope: 0.1
  }
}
layers {
  bottom: "cccp1/7x7_s2/bn"
  top: "pool1/3x3_s2"
  name: "pool1/3x3_s2"
  type: POOLING
  pooling_param {
    pool: MAX
    kernel_size: 3
    stride: 2
  }
}
layers {
  bottom: "pool1/3x3_s2"
  top: "conv2/3x3_reduce"
  name: "conv2/3x3_reduce"
  type: CONVOLUTION
  blobs_lr: 1
  blobs_lr: 2
  weight_decay: 1
  weight_decay: 0
  convolution_param {
    num_output: 64
    kernel_size: 1
    weight_filler {
      type: "xavier"
    }
    bias_filler {
      type: "constant"
    }
  }
}
layers {
  bottom: "conv2/3x3_reduce"
  top: "conv2/3x3_reduce/bn"
  name: "conv2/3x3_reduce/bn"
  type: BN
  blobs_lr: 1
  blobs_lr: 1
  weight_decay: 0
  weight_decay: 0
  bn_param {
    scale_filler {
      type: "constant"
      value: 1
    }
    shift_filler {
      type: "constant"
      value: 0
    }
  }
}
layers {
  bottom: "conv2/3x3_reduce/bn"
  top: "conv2/3x3_reduce/bn"
  name: "conv2/relu_3x3_reduce"
  type: RELU
  relu_param {
    negative_slope: 0.1
  }
}
layers {
  bottom: "conv2/3x3_reduce/bn"
  top: "conv2/3x3"
  name: "conv2/3x3"
  type: CONVOLUTION
  blobs_lr: 1
  blobs_lr: 2
  weight_decay: 1
  weight_decay: 0
  convolution_param {
    num_output: 192
    pad: 1
    kernel_size: 3
    weight_filler {
      type: "xavier"
    }
    bias_filler {
      type: "constant"
    }
  }
}
layers {
  bottom: "conv2/3x3"
  top: "conv2/3x3/bn"
  name: "conv2/3x3/bn"
  type: BN
  blobs_lr: 1
  blobs_lr: 1
  weight_decay: 0
  weight_decay: 0
  bn_param {
    scale_filler {
      type: "constant"
      value: 1
    }
    shift_filler {
      type: "constant"
      value: 0
    }
  }
}
layers {
  bottom: "conv2/3x3/bn"
  top: "conv2/3x3/bn"
  name: "conv2/relu_3x3"
  type: RELU
  relu_param {
    negative_slope: 0.1
  }
}
layers {
  bottom: "conv2/3x3/bn"
  top: "pool2/3x3_s2"
  name: "pool2/3x3_s2"
  type: POOLING
  pooling_param {
    pool: MAX
    kernel_size: 3
    stride: 2
  }
}
layers {
  bottom: "pool2/3x3_s2"
  top: "inception_3a/1x1"
  name: "inception_3a/1x1"
  type: CONVOLUTION
  blobs_lr: 1
  blobs_lr: 2
  weight_decay: 1
  weight_decay: 0
  convolution_param {
    num_output: 64
    kernel_size: 1
    weight_filler {
      type: "xavier"
    }
    bias_filler {
      type: "constant"
    }
  }
}
layers {
  bottom: "inception_3a/1x1"
  top: "inception_3a/1x1/bn"
  name: "inception_3a/1x1/bn"
  type: BN
  blobs_lr: 1
  blobs_lr: 1
  weight_decay: 0
  weight_decay: 0
  bn_param {
    scale_filler {
      type: "constant"
      value: 1
    }
    shift_filler {
      type: "constant"
      value: 0
    }
  }
}
layers {
  bottom: "inception_3a/1x1/bn"
  top: "inception_3a/1x1/bn"
  name: "inception_3a/relu_1x1"
  type: RELU
  relu_param {
    negative_slope: 0.1
  }
}
layers {
  bottom: "pool2/3x3_s2"
  top: "inception_3a/3x3_reduce"
  name: "inception_3a/3x3_reduce"
  type: CONVOLUTION
  blobs_lr: 1
  blobs_lr: 2
  weight_decay: 1
  weight_decay: 0
  convolution_param {
    num_output: 96
    kernel_size: 1
    weight_filler {
      type: "xavier"
    }
    bias_filler {
      type: "constant"
    }
  }
}
layers {
  bottom: "inception_3a/3x3_reduce"
  top: "inception_3a/3x3_reduce/bn"
  name: "inception_3a/3x3_reduce/bn"
  type: BN
  blobs_lr: 1
  blobs_lr: 1
  weight_decay: 0
  weight_decay: 0
  bn_param {
    scale_filler {
      type: "constant"
      value: 1
    }
    shift_filler {
      type: "constant"
      value: 0
    }
  }
}
layers {
  bottom: "inception_3a/3x3_reduce/bn"
  top: "inception_3a/3x3_reduce/bn"
  name: "inception_3a/relu_3x3_reduce"
  type: RELU
  relu_param {
    negative_slope: 0.1
  }
}
layers {
  bottom: "inception_3a/3x3_reduce/bn"
  top: "inception_3a/3x3"
  name: "inception_3a/3x3"
  type: CONVOLUTION
  blobs_lr: 1
  blobs_lr: 2
  weight_decay: 1
  weight_decay: 0
  convolution_param {
    num_output: 128
    pad: 1
    kernel_size: 3
    weight_filler {
      type: "xavier"
    }
    bias_filler {
      type: "constant"
    }
  }
}
layers {
  bottom: "inception_3a/3x3"
  top: "inception_3a/3x3/bn"
  name: "inception_3a/3x3/bn"
  type: BN
  blobs_lr: 1
  blobs_lr: 1
  weight_decay: 0
  weight_decay: 0
  bn_param {
    scale_filler {
      type: "constant"
      value: 1
    }
    shift_filler {
      type: "constant"
      value: 0
    }
  }
}
layers {
  bottom: "inception_3a/3x3/bn"
  top: "inception_3a/3x3/bn"
  name: "inception_3a/relu_3x3"
  type: RELU
  relu_param {
    negative_slope: 0.1
  }
}
layers {
  bottom: "pool2/3x3_s2"
  top: "inception_3a/5x5_reduce"
  name: "inception_3a/5x5_reduce"
  type: CONVOLUTION
  blobs_lr: 1
  blobs_lr: 2
  weight_decay: 1
  weight_decay: 0
  convolution_param {
    num_output: 16
    kernel_size: 1
    weight_filler {
      type: "xavier"
    }
    bias_filler {
      type: "constant"
    }
  }
}
layers {
  bottom: "inception_3a/5x5_reduce"
  top: "inception_3a/5x5_reduce/bn"
  name: "inception_3a/5x5_reduce/bn"
  type: BN
  blobs_lr: 1
  blobs_lr: 1
  weight_decay: 0
  weight_decay: 0
  bn_param {
    scale_filler {
      type: "constant"
      value: 1
    }
    shift_filler {
      type: "constant"
      value: 0
    }
  }
}
layers {
  bottom: "inception_3a/5x5_reduce/bn"
  top: "inception_3a/5x5_reduce/bn"
  name: "inception_3a/relu_5x5_reduce"
  type: RELU
  relu_param {
    negative_slope: 0.1
  }
}
layers {
  bottom: "inception_3a/5x5_reduce/bn"
  top: "inception_3a/5x5"
  name: "inception_3a/5x5"
  type: CONVOLUTION
  blobs_lr: 1
  blobs_lr: 2
  weight_decay: 1
  weight_decay: 0
  convolution_param {
    num_output: 32
    pad: 2
    kernel_size: 5
    weight_filler {
      type: "xavier"
    }
    bias_filler {
      type: "constant"
    }
  }
}
layers {
  bottom: "inception_3a/5x5"
  top: "inception_3a/5x5/bn"
  name: "inception_3a/5x5/bn"
  type: BN
  blobs_lr: 1
  blobs_lr: 1
  weight_decay: 0
  weight_decay: 0
  bn_param {
    scale_filler {
      type: "constant"
      value: 1
    }
    shift_filler {
      type: "constant"
      value: 0
    }
  }
}
layers {
  bottom: "inception_3a/5x5/bn"
  top: "inception_3a/5x5/bn"
  name: "inception_3a/relu_5x5"
  type: RELU
  relu_param {
    negative_slope: 0.1
  }
}
layers {
  bottom: "pool2/3x3_s2"
  top: "inception_3a/pool"
  name: "inception_3a/pool"
  type: POOLING
  pooling_param {
    pool: MAX
    kernel_size: 3
    stride: 1
    pad: 1
  }
}
layers {
  bottom: "inception_3a/pool"
  top: "inception_3a/pool_proj"
  name: "inception_3a/pool_proj"
  type: CONVOLUTION
  blobs_lr: 1
  blobs_lr: 2
  weight_decay: 1
  weight_decay: 0
  convolution_param {
    num_output: 32
    kernel_size: 1
    weight_filler {
      type: "xavier"
    }
    bias_filler {
      type: "constant"
    }
  }
}
layers {
  bottom: "inception_3a/pool_proj"
  top: "inception_3a/pool_proj/bn"
  name: "inception_3a/pool_proj/bn"
  type: BN
  blobs_lr: 1
  blobs_lr: 1
  weight_decay: 0
  weight_decay: 0
  bn_param {
    scale_filler {
      type: "constant"
      value: 1
    }
    shift_filler {
      type: "constant"
      value: 0
    }
  }
}
layers {
  bottom: "inception_3a/pool_proj/bn"
  top: "inception_3a/pool_proj/bn"
  name: "inception_3a/relu_pool_proj"
  type: RELU
  relu_param {
    negative_slope: 0.1
  }
}
layers {
  bottom: "inception_3a/1x1/bn"
  bottom: "inception_3a/3x3/bn"
  bottom: "inception_3a/5x5/bn"
  bottom: "inception_3a/pool_proj/bn"
  top: "inception_3a/output"
  name: "inception_3a/output"
  type: CONCAT
}
layers {
  bottom: "inception_3a/output"
  top: "inception_3b/1x1"
  name: "inception_3b/1x1"
  type: CONVOLUTION
  blobs_lr: 1
  blobs_lr: 2
  weight_decay: 1
  weight_decay: 0
  convolution_param {
    num_output: 128
    kernel_size: 1
    weight_filler {
      type: "xavier"
    }
    bias_filler {
      type: "constant"
    }
  }
}
layers {
  bottom: "inception_3b/1x1"
  top: "inception_3b/1x1/bn"
  name: "inception_3b/1x1/bn"
  type: BN
  blobs_lr: 1
  blobs_lr: 1
  weight_decay: 0
  weight_decay: 0
  bn_param {
    scale_filler {
      type: "constant"
      value: 1
    }
    shift_filler {
      type: "constant"
      value: 0
    }
  }
}
layers {
  bottom: "inception_3b/1x1/bn"
  top: "inception_3b/1x1/bn"
  name: "inception_3b/relu_1x1"
  type: RELU
  relu_param {
    negative_slope: 0.1
  }
}
layers {
  bottom: "inception_3a/output"
  top: "inception_3b/3x3_reduce"
  name: "inception_3b/3x3_reduce"
  type: CONVOLUTION
  blobs_lr: 1
  blobs_lr: 2
  weight_decay: 1
  weight_decay: 0
  convolution_param {
    num_output: 128
    kernel_size: 1
    weight_filler {
      type: "xavier"
    }
    bias_filler {
      type: "constant"
    }
  }
}
layers {
  bottom: "inception_3b/3x3_reduce"
  top: "inception_3b/3x3_reduce/bn"
  name: "inception_3b/3x3_reduce/bn"
  type: BN
  blobs_lr: 1
  blobs_lr: 1
  weight_decay: 0
  weight_decay: 0
  bn_param {
    scale_filler {
      type: "constant"
      value: 1
    }
    shift_filler {
      type: "constant"
      value: 0
    }
  }
}
layers {
  bottom: "inception_3b/3x3_reduce/bn"
  top: "inception_3b/3x3_reduce/bn"
  name: "inception_3b/relu_3x3_reduce"
  type: RELU
  relu_param {
    negative_slope: 0.1
  }
}
layers {
  bottom: "inception_3b/3x3_reduce/bn"
  top: "inception_3b/3x3"
  name: "inception_3b/3x3"
  type: CONVOLUTION
  blobs_lr: 1
  blobs_lr: 2
  weight_decay: 1
  weight_decay: 0
  convolution_param {
    num_output: 192
    pad: 1
    kernel_size: 3
    weight_filler {
      type: "xavier"
    }
    bias_filler {
      type: "constant"
    }
  }
}
layers {
  bottom: "inception_3b/3x3"
  top: "inception_3b/3x3/bn"
  name: "inception_3b/3x3/bn"
  type: BN
  blobs_lr: 1
  blobs_lr: 1
  weight_decay: 0
  weight_decay: 0
  bn_param {
    scale_filler {
      type: "constant"
      value: 1
    }
    shift_filler {
      type: "constant"
      value: 0
    }
  }
}
layers {
  bottom: "inception_3b/3x3/bn"
  top: "inception_3b/3x3/bn"
  name: "inception_3b/relu_3x3"
  type: RELU
  relu_param {
    negative_slope: 0.1
  }
}
layers {
  bottom: "inception_3a/output"
  top: "inception_3b/5x5_reduce"
  name: "inception_3b/5x5_reduce"
  type: CONVOLUTION
  blobs_lr: 1
  blobs_lr: 2
  weight_decay: 1
  weight_decay: 0
  convolution_param {
    num_output: 32
    kernel_size: 1
    weight_filler {
      type: "xavier"
    }
    bias_filler {
      type: "constant"
    }
  }
}
layers {
  bottom: "inception_3b/5x5_reduce"
  top: "inception_3b/5x5_reduce/bn"
  name: "inception_3b/5x5_reduce/bn"
  type: BN
  blobs_lr: 1
  blobs_lr: 1
  weight_decay: 0
  weight_decay: 0
  bn_param {
    scale_filler {
      type: "constant"
      value: 1
    }
    shift_filler {
      type: "constant"
      value: 0
    }
  }
}
layers {
  bottom: "inception_3b/5x5_reduce/bn"
  top: "inception_3b/5x5_reduce/bn"
  name: "inception_3b/relu_5x5_reduce"
  type: RELU
  relu_param {
    negative_slope: 0.1
  }
}
layers {
  bottom: "inception_3b/5x5_reduce/bn"
  top: "inception_3b/5x5"
  name: "inception_3b/5x5"
  type: CONVOLUTION
  blobs_lr: 1
  blobs_lr: 2
  weight_decay: 1
  weight_decay: 0
  convolution_param {
    num_output: 96
    pad: 2
    kernel_size: 5
    weight_filler {
      type: "xavier"
    }
    bias_filler {
      type: "constant"
    }
  }
}
layers {
  bottom: "inception_3b/5x5"
  top: "inception_3b/5x5/bn"
  name: "inception_3b/5x5/bn"
  type: BN
  blobs_lr: 1
  blobs_lr: 1
  weight_decay: 0
  weight_decay: 0
  bn_param {
    scale_filler {
      type: "constant"
      value: 1
    }
    shift_filler {
      type: "constant"
      value: 0
    }
  }
}
layers {
  bottom: "inception_3b/5x5/bn"
  top: "inception_3b/5x5/bn"
  name: "inception_3b/relu_5x5"
  type: RELU
  relu_param {
    negative_slope: 0.1
  }
}
layers {
  bottom: "inception_3a/output"
  top: "inception_3b/pool"
  name: "inception_3b/pool"
  type: POOLING
  pooling_param {
    pool: MAX
    kernel_size: 3
    stride: 1
    pad: 1
  }
}
layers {
  bottom: "inception_3b/pool"
  top: "inception_3b/pool_proj"
  name: "inception_3b/pool_proj"
  type: CONVOLUTION
  blobs_lr: 1
  blobs_lr: 2
  weight_decay: 1
  weight_decay: 0
  convolution_param {
    num_output: 64
    kernel_size: 1
    weight_filler {
      type: "xavier"
    }
    bias_filler {
      type: "constant"
    }
  }
}
layers {
  bottom: "inception_3b/pool_proj"
  top: "inception_3b/pool_proj/bn"
  name: "inception_3b/pool_proj/bn"
  type: BN
  blobs_lr: 1
  blobs_lr: 1
  weight_decay: 0
  weight_decay: 0
  bn_param {
    scale_filler {
      type: "constant"
      value: 1
    }
    shift_filler {
      type: "constant"
      value: 0
    }
  }
}
layers {
  bottom: "inception_3b/pool_proj/bn"
  top: "inception_3b/pool_proj/bn"
  name: "inception_3b/relu_pool_proj"
  type: RELU
  relu_param {
    negative_slope: 0.1
  }
}
layers {
  bottom: "inception_3b/1x1/bn"
  bottom: "inception_3b/3x3/bn"
  bottom: "inception_3b/5x5/bn"
  bottom: "inception_3b/pool_proj/bn"
  top: "inception_3b/output"
  name: "inception_3b/output"
  type: CONCAT
}
layers {
  bottom: "inception_3b/output"
  top: "pool3/3x3_s2"
  name: "pool3/3x3_s2"
  type: POOLING
  pooling_param {
    pool: MAX
    kernel_size: 3
    stride: 2
  }
}
layers {
  bottom: "pool3/3x3_s2"
  top: "inception_4a/1x1"
  name: "inception_4a/1x1"
  type: CONVOLUTION
  blobs_lr: 1
  blobs_lr: 2
  weight_decay: 1
  weight_decay: 0
  convolution_param {
    num_output: 192
    kernel_size: 1
    weight_filler {
      type: "xavier"
    }
    bias_filler {
      type: "constant"
    }
  }
}
layers {
  bottom: "inception_4a/1x1"
  top: "inception_4a/1x1/bn"
  name: "inception_4a/1x1/bn"
  type: BN
  blobs_lr: 1
  blobs_lr: 1
  weight_decay: 0
  weight_decay: 0
  bn_param {
    scale_filler {
      type: "constant"
      value: 1
    }
    shift_filler {
      type: "constant"
      value: 0
    }
  }
}
layers {
  bottom: "inception_4a/1x1/bn"
  top: "inception_4a/1x1/bn"
  name: "inception_4a/relu_1x1"
  type: RELU
  relu_param {
    negative_slope: 0.1
  }
}
layers {
  bottom: "pool3/3x3_s2"
  top: "inception_4a/3x3_reduce"
  name: "inception_4a/3x3_reduce"
  type: CONVOLUTION
  blobs_lr: 1
  blobs_lr: 2
  weight_decay: 1
  weight_decay: 0
  convolution_param {
    num_output: 96
    kernel_size: 1
    weight_filler {
      type: "xavier"
    }
    bias_filler {
      type: "constant"
    }
  }
}
layers {
  bottom: "inception_4a/3x3_reduce"
  top: "inception_4a/3x3_reduce/bn"
  name: "inception_4a/3x3_reduce/bn"
  type: BN
  blobs_lr: 1
  blobs_lr: 1
  weight_decay: 0
  weight_decay: 0
  bn_param {
    scale_filler {
      type: "constant"
      value: 1
    }
    shift_filler {
      type: "constant"
      value: 0
    }
  }
}
layers {
  bottom: "inception_4a/3x3_reduce/bn"
  top: "inception_4a/3x3_reduce/bn"
  name: "inception_4a/relu_3x3_reduce"
  type: RELU
  relu_param {
    negative_slope: 0.1
  }
}
layers {
  bottom: "inception_4a/3x3_reduce/bn"
  top: "inception_4a/3x3"
  name: "inception_4a/3x3"
  type: CONVOLUTION
  blobs_lr: 1
  blobs_lr: 2
  weight_decay: 1
  weight_decay: 0
  convolution_param {
    num_output: 208
    pad: 1
    kernel_size: 3
    weight_filler {
      type: "xavier"
    }
    bias_filler {
      type: "constant"
    }
  }
}
layers {
  bottom: "inception_4a/3x3"
  top: "inception_4a/3x3/bn"
  name: "inception_4a/3x3/bn"
  type: BN
  blobs_lr: 1
  blobs_lr: 1
  weight_decay: 0
  weight_decay: 0
  bn_param {
    scale_filler {
      type: "constant"
      value: 1
    }
    shift_filler {
      type: "constant"
      value: 0
    }
  }
}
layers {
  bottom: "inception_4a/3x3/bn"
  top: "inception_4a/3x3/bn"
  name: "inception_4a/relu_3x3"
  type: RELU
  relu_param {
    negative_slope: 0.1
  }
}
layers {
  bottom: "pool3/3x3_s2"
  top: "inception_4a/5x5_reduce"
  name: "inception_4a/5x5_reduce"
  type: CONVOLUTION
  blobs_lr: 1
  blobs_lr: 2
  weight_decay: 1
  weight_decay: 0
  convolution_param {
    num_output: 16
    kernel_size: 1
    weight_filler {
      type: "xavier"
    }
    bias_filler {
      type: "constant"
    }
  }
}
layers {
  bottom: "inception_4a/5x5_reduce"
  top: "inception_4a/5x5_reduce/bn"
  name: "inception_4a/5x5_reduce/bn"
  type: BN
  blobs_lr: 1
  blobs_lr: 1
  weight_decay: 0
  weight_decay: 0
  bn_param {
    scale_filler {
      type: "constant"
      value: 1
    }
    shift_filler {
      type: "constant"
      value: 0
    }
  }
}
layers {
  bottom: "inception_4a/5x5_reduce/bn"
  top: "inception_4a/5x5_reduce/bn"
  name: "inception_4a/relu_5x5_reduce"
  type: RELU
  relu_param {
    negative_slope: 0.1
  }
}
layers {
  bottom: "inception_4a/5x5_reduce/bn"
  top: "inception_4a/5x5"
  name: "inception_4a/5x5"
  type: CONVOLUTION
  blobs_lr: 1
  blobs_lr: 2
  weight_decay: 1
  weight_decay: 0
  convolution_param {
    num_output: 48
    pad: 2
    kernel_size: 5
    weight_filler {
      type: "xavier"
    }
    bias_filler {
      type: "constant"
    }
  }
}
layers {
  bottom: "inception_4a/5x5"
  top: "inception_4a/5x5/bn"
  name: "inception_4a/5x5/bn"
  type: BN
  blobs_lr: 1
  blobs_lr: 1
  weight_decay: 0
  weight_decay: 0
  bn_param {
    scale_filler {
      type: "constant"
      value: 1
    }
    shift_filler {
      type: "constant"
      value: 0
    }
  }
}
layers {
  bottom: "inception_4a/5x5/bn"
  top: "inception_4a/5x5/bn"
  name: "inception_4a/relu_5x5"
  type: RELU
  relu_param {
    negative_slope: 0.1
  }
}
layers {
  bottom: "pool3/3x3_s2"
  top: "inception_4a/pool"
  name: "inception_4a/pool"
  type: POOLING
  pooling_param {
    pool: MAX
    kernel_size: 3
    stride: 1
    pad: 1
  }
}
layers {
  bottom: "inception_4a/pool"
  top: "inception_4a/pool_proj"
  name: "inception_4a/pool_proj"
  type: CONVOLUTION
  blobs_lr: 1
  blobs_lr: 2
  weight_decay: 1
  weight_decay: 0
  convolution_param {
    num_output: 64
    kernel_size: 1
    weight_filler {
      type: "xavier"
    }
    bias_filler {
      type: "constant"
    }
  }
}
layers {
  bottom: "inception_4a/pool_proj"
  top: "inception_4a/pool_proj/bn"
  name: "inception_4a/pool_proj/bn"
  type: BN
  blobs_lr: 1
  blobs_lr: 1
  weight_decay: 0
  weight_decay: 0
  bn_param {
    scale_filler {
      type: "constant"
      value: 1
    }
    shift_filler {
      type: "constant"
      value: 0
    }
  }
}
layers {
  bottom: "inception_4a/pool_proj/bn"
  top: "inception_4a/pool_proj/bn"
  name: "inception_4a/relu_pool_proj"
  type: RELU
  relu_param {
    negative_slope: 0.1
  }
}
layers {
  bottom: "inception_4a/1x1/bn"
  bottom: "inception_4a/3x3/bn"
  bottom: "inception_4a/5x5/bn"
  bottom: "inception_4a/pool_proj/bn"
  top: "inception_4a/output"
  name: "inception_4a/output"
  type: CONCAT
}
layers {
  bottom: "inception_4a/output"
  top: "loss1/ave_pool"
  name: "loss1/ave_pool"
  type: POOLING
  pooling_param {
    pool: AVE
    kernel_size: 5
    stride: 3
  }
}
layers {
  bottom: "loss1/ave_pool"
  top: "loss1/conv"
  name: "loss1/conv"
  type: CONVOLUTION
  blobs_lr: 1
  blobs_lr: 2
  weight_decay: 1
  weight_decay: 0
  convolution_param {
    num_output: 128
    kernel_size: 1
    weight_filler {
      type: "xavier"
    }
    bias_filler {
      type: "constant"
    }
  }
}
layers {
  bottom: "loss1/conv"
  top: "loss1/conv/bn"
  name: "loss1/conv/bn"
  type: BN
  blobs_lr: 1
  blobs_lr: 1
  weight_decay: 0
  weight_decay: 0
  bn_param {
    scale_filler {
      type: "constant"
      value: 1
    }
    shift_filler {
      type: "constant"
      value: 0
    }
  }
}
layers {
  bottom: "loss1/conv/bn"
  top: "loss1/conv/bn"
  name: "loss1/relu_conv"
  type: RELU
  relu_param {
    negative_slope: 0.1
  }
}
layers {
  bottom: "loss1/conv/bn"
  top: "loss1/fc"
  name: "loss1/fc"
  type: INNER_PRODUCT
  blobs_lr: 1
  blobs_lr: 2
  weight_decay: 1
  weight_decay: 0
  inner_product_param {
    num_output: 1024
    weight_filler {
      type: "xavier"
    }
    bias_filler {
      type: "constant"
    }
  }
}
layers {
  bottom: "loss1/fc"
  top: "loss1/fc/bn"
  name: "loss1/fc/bn"
  type: BN
  blobs_lr: 1
  blobs_lr: 1
  weight_decay: 0
  weight_decay: 0
  bn_param {
    scale_filler {
      type: "constant"
      value: 1
    }
    shift_filler {
      type: "constant"
      value: 0
    }
  }
}
layers {
  bottom: "loss1/fc/bn"
  top: "loss1/fc/bn"
  name: "loss1/relu_fc"
  type: RELU
  relu_param {
    negative_slope: 0.1
  }
}
layers {
  bottom: "loss1/fc/bn"
  top: "loss1/fc/bn"
  name: "loss1/drop_fc"
  type: DROPOUT
  dropout_param {
    dropout_ratio: 0.7
  }
}
layers {
  bottom: "loss1/fc/bn"
  top: "loss1/classifier"
  name: "loss1/classifier"
  type: INNER_PRODUCT
  blobs_lr: 1
  blobs_lr: 2
  weight_decay: 1
  weight_decay: 0
  inner_product_param {
    num_output: 121
    weight_filler {
      type: "xavier"
    }
    bias_filler {
      type: "constant"
    }
  }
}
layers {
  bottom: "loss1/classifier"
  bottom: "label"
  top: "loss1/loss1"
  name: "loss1/loss"
  type: SOFTMAX_LOSS
  loss_weight: 0.05
}
layers {
  bottom: "inception_4a/output"
  top: "inception_4b/1x1"
  name: "inception_4b/1x1"
  type: CONVOLUTION
  blobs_lr: 1
  blobs_lr: 2
  weight_decay: 1
  weight_decay: 0
  convolution_param {
    num_output: 160
    kernel_size: 1
    weight_filler {
      type: "xavier"
    }
    bias_filler {
      type: "constant"
    }
  }
}
layers {
  bottom: "inception_4b/1x1"
  top: "inception_4b/1x1/bn"
  name: "inception_4b/1x1/bn"
  type: BN
  blobs_lr: 1
  blobs_lr: 1
  weight_decay: 0
  weight_decay: 0
  bn_param {
    scale_filler {
      type: "constant"
      value: 1
    }
    shift_filler {
      type: "constant"
      value: 0
    }
  }
}
layers {
  bottom: "inception_4b/1x1/bn"
  top: "inception_4b/1x1/bn"
  name: "inception_4b/relu_1x1"
  type: RELU
  relu_param {
    negative_slope: 0.1
  }
}
layers {
  bottom: "inception_4a/output"
  top: "inception_4b/3x3_reduce"
  name: "inception_4b/3x3_reduce"
  type: CONVOLUTION
  blobs_lr: 1
  blobs_lr: 2
  weight_decay: 1
  weight_decay: 0
  convolution_param {
    num_output: 112
    kernel_size: 1
    weight_filler {
      type: "xavier"
    }
    bias_filler {
      type: "constant"
    }
  }
}
layers {
  bottom: "inception_4b/3x3_reduce"
  top: "inception_4b/3x3_reduce/bn"
  name: "inception_4b/3x3_reduce/bn"
  type: BN
  blobs_lr: 1
  blobs_lr: 1
  weight_decay: 0
  weight_decay: 0
  bn_param {
    scale_filler {
      type: "constant"
      value: 1
    }
    shift_filler {
      type: "constant"
      value: 0
    }
  }
}
layers {
  bottom: "inception_4b/3x3_reduce/bn"
  top: "inception_4b/3x3_reduce/bn"
  name: "inception_4b/relu_3x3_reduce"
  type: RELU
  relu_param {
    negative_slope: 0.1
  }
}
layers {
  bottom: "inception_4b/3x3_reduce/bn"
  top: "inception_4b/3x3"
  name: "inception_4b/3x3"
  type: CONVOLUTION
  blobs_lr: 1
  blobs_lr: 2
  weight_decay: 1
  weight_decay: 0
  convolution_param {
    num_output: 224
    pad: 1
    kernel_size: 3
    weight_filler {
      type: "xavier"
    }
    bias_filler {
      type: "constant"
    }
  }
}
layers {
  bottom: "inception_4b/3x3"
  top: "inception_4b/3x3/bn"
  name: "inception_4b/3x3/bn"
  type: BN
  blobs_lr: 1
  blobs_lr: 1
  weight_decay: 0
  weight_decay: 0
  bn_param {
    scale_filler {
      type: "constant"
      value: 1
    }
    shift_filler {
      type: "constant"
      value: 0
    }
  }
}
layers {
  bottom: "inception_4b/3x3/bn"
  top: "inception_4b/3x3/bn"
  name: "inception_4b/relu_3x3"
  type: RELU
  relu_param {
    negative_slope: 0.1
  }
}
layers {
  bottom: "inception_4a/output"
  top: "inception_4b/5x5_reduce"
  name: "inception_4b/5x5_reduce"
  type: CONVOLUTION
  blobs_lr: 1
  blobs_lr: 2
  weight_decay: 1
  weight_decay: 0
  convolution_param {
    num_output: 24
    kernel_size: 1
    weight_filler {
      type: "xavier"
    }
    bias_filler {
      type: "constant"
    }
  }
}
layers {
  bottom: "inception_4b/5x5_reduce"
  top: "inception_4b/5x5_reduce/bn"
  name: "inception_4b/5x5_reduce/bn"
  type: BN
  blobs_lr: 1
  blobs_lr: 1
  weight_decay: 0
  weight_decay: 0
  bn_param {
    scale_filler {
      type: "constant"
      value: 1
    }
    shift_filler {
      type: "constant"
      value: 0
    }
  }
}
layers {
  bottom: "inception_4b/5x5_reduce/bn"
  top: "inception_4b/5x5_reduce/bn"
  name: "inception_4b/relu_5x5_reduce"
  type: RELU
  relu_param {
    negative_slope: 0.1
  }
}
layers {
  bottom: "inception_4b/5x5_reduce/bn"
  top: "inception_4b/5x5"
  name: "inception_4b/5x5"
  type: CONVOLUTION
  blobs_lr: 1
  blobs_lr: 2
  weight_decay: 1
  weight_decay: 0
  convolution_param {
    num_output: 64
    pad: 2
    kernel_size: 5
    weight_filler {
      type: "xavier"
    }
    bias_filler {
      type: "constant"
    }
  }
}
layers {
  bottom: "inception_4b/5x5"
  top: "inception_4b/5x5/bn"
  name: "inception_4b/5x5/bn"
  type: BN
  blobs_lr: 1
  blobs_lr: 1
  weight_decay: 0
  weight_decay: 0
  bn_param {
    scale_filler {
      type: "constant"
      value: 1
    }
    shift_filler {
      type: "constant"
      value: 0
    }
  }
}
layers {
  bottom: "inception_4b/5x5/bn"
  top: "inception_4b/5x5/bn"
  name: "inception_4b/relu_5x5"
  type: RELU
  relu_param {
    negative_slope: 0.1
  }
}
layers {
  bottom: "inception_4a/output"
  top: "inception_4b/pool"
  name: "inception_4b/pool"
  type: POOLING
  pooling_param {
    pool: MAX
    kernel_size: 3
    stride: 1
    pad: 1
  }
}
layers {
  bottom: "inception_4b/pool"
  top: "inception_4b/pool_proj"
  name: "inception_4b/pool_proj"
  type: CONVOLUTION
  blobs_lr: 1
  blobs_lr: 2
  weight_decay: 1
  weight_decay: 0
  convolution_param {
    num_output: 64
    kernel_size: 1
    weight_filler {
      type: "xavier"
    }
    bias_filler {
      type: "constant"
    }
  }
}
layers {
  bottom: "inception_4b/pool_proj"
  top: "inception_4b/pool_proj/bn"
  name: "inception_4b/pool_proj/bn"
  type: BN
  blobs_lr: 1
  blobs_lr: 1
  weight_decay: 0
  weight_decay: 0
  bn_param {
    scale_filler {
      type: "constant"
      value: 1
    }
    shift_filler {
      type: "constant"
      value: 0
    }
  }
}
layers {
  bottom: "inception_4b/pool_proj/bn"
  top: "inception_4b/pool_proj/bn"
  name: "inception_4b/relu_pool_proj"
  type: RELU
  relu_param {
    negative_slope: 0.1
  }
}
layers {
  bottom: "inception_4b/1x1/bn"
  bottom: "inception_4b/3x3/bn"
  bottom: "inception_4b/5x5/bn"
  bottom: "inception_4b/pool_proj/bn"
  top: "inception_4b/output"
  name: "inception_4b/output"
  type: CONCAT
}
layers {
  bottom: "inception_4b/output"
  top: "inception_4c/1x1"
  name: "inception_4c/1x1"
  type: CONVOLUTION
  blobs_lr: 1
  blobs_lr: 2
  weight_decay: 1
  weight_decay: 0
  convolution_param {
    num_output: 128
    kernel_size: 1
    weight_filler {
      type: "xavier"
    }
    bias_filler {
      type: "constant"
    }
  }
}
layers {
  bottom: "inception_4c/1x1"
  top: "inception_4c/1x1/bn"
  name: "inception_4c/1x1/bn"
  type: BN
  blobs_lr: 1
  blobs_lr: 1
  weight_decay: 0
  weight_decay: 0
  bn_param {
    scale_filler {
      type: "constant"
      value: 1
    }
    shift_filler {
      type: "constant"
      value: 0
    }
  }
}
layers {
  bottom: "inception_4c/1x1/bn"
  top: "inception_4c/1x1/bn"
  name: "inception_4c/relu_1x1"
  type: RELU
  relu_param {
    negative_slope: 0.1
  }
}
layers {
  bottom: "inception_4b/output"
  top: "inception_4c/3x3_reduce"
  name: "inception_4c/3x3_reduce"
  type: CONVOLUTION
  blobs_lr: 1
  blobs_lr: 2
  weight_decay: 1
  weight_decay: 0
  convolution_param {
    num_output: 128
    kernel_size: 1
    weight_filler {
      type: "xavier"
    }
    bias_filler {
      type: "constant"
    }
  }
}
layers {
  bottom: "inception_4c/3x3_reduce"
  top: "inception_4c/3x3_reduce/bn"
  name: "inception_4c/3x3_reduce/bn"
  type: BN
 
I0312 14:38:46.323848 10732 layer_factory.hpp:78] Creating layer data
I0312 14:38:46.323884 10732 data_transformer.cpp:24] Loading mean file from/media/data/kaggle/nationalDataScienceBowl/data/typeF/train_mean.binaryproto
I0312 14:38:46.324090 10732 net.cpp:68] Creating Layer data
I0312 14:38:46.324115 10732 net.cpp:357] data -> data
I0312 14:38:46.324147 10732 net.cpp:357] data -> label
I0312 14:38:46.324167 10732 net.cpp:97] Setting up data
I0312 14:38:46.324179 10732 image_data_affine_layer.cpp:37] Opening file /media/data/kaggle/nationalDataScienceBowl/data/typeF/train.txt
I0312 14:38:46.338083 10732 image_data_affine_layer.cpp:47] Shuffling data
I0312 14:38:46.340714 10732 image_data_affine_layer.cpp:52] A total of 27302 images.
I0312 14:38:46.342751 10732 image_data_affine_layer.cpp:81] output data size: 96,1,96,96
I0312 14:38:46.344113 10732 net.cpp:104] Top shape: 96 1 96 96 (884736)
I0312 14:38:46.344142 10732 net.cpp:104] Top shape: 96 1 1 1 (96)
I0312 14:38:46.344158 10732 layer_factory.hpp:78] Creating layer label_data_1_split
I0312 14:38:46.344183 10732 net.cpp:68] Creating Layer label_data_1_split
I0312 14:38:46.344197 10732 net.cpp:395] label_data_1_split <- label
I0312 14:38:46.344220 10732 net.cpp:357] label_data_1_split -> label_data_1_split_0
I0312 14:38:46.344244 10732 net.cpp:357] label_data_1_split -> label_data_1_split_1
I0312 14:38:46.344259 10732 net.cpp:357] label_data_1_split -> label_data_1_split_2
I0312 14:38:46.344274 10732 net.cpp:97] Setting up label_data_1_split
I0312 14:38:46.344421 10732 net.cpp:104] Top shape: 96 1 1 1 (96)
I0312 14:38:46.344494 10732 net.cpp:104] Top shape: 96 1 1 1 (96)
I0312 14:38:46.344581 10732 net.cpp:104] Top shape: 96 1 1 1 (96)
I0312 14:38:46.344595 10732 layer_factory.hpp:78] Creating layer conv1/7x7_s2
I0312 14:38:46.344630 10732 net.cpp:68] Creating Layer conv1/7x7_s2
I0312 14:38:46.344645 10732 net.cpp:395] conv1/7x7_s2 <- data
I0312 14:38:46.344666 10732 net.cpp:357] conv1/7x7_s2 -> conv1/7x7_s2
I0312 14:38:46.344689 10732 net.cpp:97] Setting up conv1/7x7_s2
I0312 14:38:46.375272 10732 net.cpp:104] Top shape: 96 256 47 47 (54288384)
I0312 14:38:46.375356 10732 layer_factory.hpp:78] Creating layer conv1/7x7_s2/bn
I0312 14:38:46.375388 10732 net.cpp:68] Creating Layer conv1/7x7_s2/bn
I0312 14:38:46.375406 10732 net.cpp:395] conv1/7x7_s2/bn <- conv1/7x7_s2
I0312 14:38:46.375426 10732 net.cpp:357] conv1/7x7_s2/bn -> conv1/7x7_s2/bn
I0312 14:38:46.375449 10732 net.cpp:97] Setting up conv1/7x7_s2/bn
I0312 14:38:46.375488 10732 net.cpp:104] Top shape: 96 256 47 47 (54288384)
I0312 14:38:46.375506 10732 layer_factory.hpp:78] Creating layer conv1/relu_7x7
I0312 14:38:46.375527 10732 net.cpp:68] Creating Layer conv1/relu_7x7
I0312 14:38:46.375541 10732 net.cpp:395] conv1/relu_7x7 <- conv1/7x7_s2/bn
I0312 14:38:46.375558 10732 net.cpp:346] conv1/relu_7x7 -> conv1/7x7_s2/bn (in-place)
I0312 14:38:46.375574 10732 net.cpp:97] Setting up conv1/relu_7x7
I0312 14:38:46.375602 10732 net.cpp:104] Top shape: 96 256 47 47 (54288384)
I0312 14:38:46.375617 10732 layer_factory.hpp:78] Creating layer cccp1/7x7_s2
I0312 14:38:46.375633 10732 net.cpp:68] Creating Layer cccp1/7x7_s2
I0312 14:38:46.375645 10732 net.cpp:395] cccp1/7x7_s2 <- conv1/7x7_s2/bn
I0312 14:38:46.375663 10732 net.cpp:357] cccp1/7x7_s2 -> cccp1/7x7_s2
I0312 14:38:46.375682 10732 net.cpp:97] Setting up cccp1/7x7_s2
I0312 14:38:46.376493 10732 net.cpp:104] Top shape: 96 256 47 47 (54288384)
I0312 14:38:46.376523 10732 layer_factory.hpp:78] Creating layer cccp1/7x7_s2/bn
I0312 14:38:46.376540 10732 net.cpp:68] Creating Layer cccp1/7x7_s2/bn
I0312 14:38:46.376552 10732 net.cpp:395] cccp1/7x7_s2/bn <- cccp1/7x7_s2
I0312 14:38:46.376569 10732 net.cpp:357] cccp1/7x7_s2/bn -> cccp1/7x7_s2/bn
I0312 14:38:46.376587 10732 net.cpp:97] Setting up cccp1/7x7_s2/bn
I0312 14:38:46.376617 10732 net.cpp:104] Top shape: 96 256 47 47 (54288384)
I0312 14:38:46.376636 10732 layer_factory.hpp:78] Creating layer cccp1/7x7_s2/bn/relu
I0312 14:38:46.376651 10732 net.cpp:68] Creating Layer cccp1/7x7_s2/bn/relu
I0312 14:38:46.376662 10732 net.cpp:395] cccp1/7x7_s2/bn/relu <- cccp1/7x7_s2/bn
I0312 14:38:46.376675 10732 net.cpp:346] cccp1/7x7_s2/bn/relu -> cccp1/7x7_s2/bn (in-place)
I0312 14:38:46.376688 10732 net.cpp:97] Setting up cccp1/7x7_s2/bn/relu
I0312 14:38:46.376703 10732 net.cpp:104] Top shape: 96 256 47 47 (54288384)
I0312 14:38:46.376716 10732 layer_factory.hpp:78] Creating layer pool1/3x3_s2
I0312 14:38:46.376739 10732 net.cpp:68] Creating Layer pool1/3x3_s2
I0312 14:38:46.376751 10732 net.cpp:395] pool1/3x3_s2 <- cccp1/7x7_s2/bn
I0312 14:38:46.376765 10732 net.cpp:357] pool1/3x3_s2 -> pool1/3x3_s2
I0312 14:38:46.376781 10732 net.cpp:97] Setting up pool1/3x3_s2
I0312 14:38:46.376821 10732 net.cpp:104] Top shape: 96 256 23 23 (13000704)
I0312 14:38:46.376837 10732 layer_factory.hpp:78] Creating layer conv2/3x3_reduce
I0312 14:38:46.376876 10732 net.cpp:68] Creating Layer conv2/3x3_reduce
I0312 14:38:46.376890 10732 net.cpp:395] conv2/3x3_reduce <- pool1/3x3_s2
I0312 14:38:46.376904 10732 net.cpp:357] conv2/3x3_reduce -> conv2/3x3_reduce
I0312 14:38:46.376921 10732 net.cpp:97] Setting up conv2/3x3_reduce
I0312 14:38:46.377181 10732 net.cpp:104] Top shape: 96 64 23 23 (3250176)
I0312 14:38:46.377205 10732 layer_factory.hpp:78] Creating layer conv2/3x3_reduce/bn
I0312 14:38:46.377223 10732 net.cpp:68] Creating Layer conv2/3x3_reduce/bn
I0312 14:38:46.377235 10732 net.cpp:395] conv2/3x3_reduce/bn <- conv2/3x3_reduce
I0312 14:38:46.377252 10732 net.cpp:357] conv2/3x3_reduce/bn -> conv2/3x3_reduce/bn
I0312 14:38:46.377269 10732 net.cpp:97] Setting up conv2/3x3_reduce/bn
I0312 14:38:46.377292 10732 net.cpp:104] Top shape: 96 64 23 23 (3250176)
I0312 14:38:46.377311 10732 layer_factory.hpp:78] Creating layer conv2/relu_3x3_reduce
I0312 14:38:46.377388 10732 net.cpp:68] Creating Layer conv2/relu_3x3_reduce
I0312 14:38:46.377401 10732 net.cpp:395] conv2/relu_3x3_reduce <- conv2/3x3_reduce/bn
I0312 14:38:46.377414 10732 net.cpp:346] conv2/relu_3x3_reduce -> conv2/3x3_reduce/bn (in-place)
I0312 14:38:46.377429 10732 net.cpp:97] Setting up conv2/relu_3x3_reduce
I0312 14:38:46.377444 10732 net.cpp:104] Top shape: 96 64 23 23 (3250176)
I0312 14:38:46.377456 10732 layer_factory.hpp:78] Creating layer conv2/3x3
I0312 14:38:46.377477 10732 net.cpp:68] Creating Layer conv2/3x3
I0312 14:38:46.377490 10732 net.cpp:395] conv2/3x3 <- conv2/3x3_reduce/bn
I0312 14:38:46.377504 10732 net.cpp:357] conv2/3x3 -> conv2/3x3
I0312 14:38:46.377519 10732 net.cpp:97] Setting up conv2/3x3
I0312 14:38:46.378819 10732 net.cpp:104] Top shape: 96 192 23 23 (9750528)
I0312 14:38:46.378845 10732 layer_factory.hpp:78] Creating layer conv2/3x3/bn
I0312 14:38:46.378865 10732 net.cpp:68] Creating Layer conv2/3x3/bn
I0312 14:38:46.378878 10732 net.cpp:395] conv2/3x3/bn <- conv2/3x3
I0312 14:38:46.378895 10732 net.cpp:357] conv2/3x3/bn -> conv2/3x3/bn
I0312 14:38:46.378911 10732 net.cpp:97] Setting up conv2/3x3/bn
I0312 14:38:46.378934 10732 net.cpp:104] Top shape: 96 192 23 23 (9750528)
I0312 14:38:46.378949 10732 layer_factory.hpp:78] Creating layer conv2/relu_3x3
I0312 14:38:46.378968 10732 net.cpp:68] Creating Layer conv2/relu_3x3
I0312 14:38:46.378981 10732 net.cpp:395] conv2/relu_3x3 <- conv2/3x3/bn
I0312 14:38:46.378995 10732 net.cpp:346] conv2/relu_3x3 -> conv2/3x3/bn (in-place)
I0312 14:38:46.379009 10732 net.cpp:97] Setting up conv2/relu_3x3
I0312 14:38:46.379024 10732 net.cpp:104] Top shape: 96 192 23 23 (9750528)
I0312 14:38:46.379035 10732 layer_factory.hpp:78] Creating layer pool2/3x3_s2
I0312 14:38:46.379055 10732 net.cpp:68] Creating Layer pool2/3x3_s2
I0312 14:38:46.379068 10732 net.cpp:395] pool2/3x3_s2 <- conv2/3x3/bn
I0312 14:38:46.379082 10732 net.cpp:357] pool2/3x3_s2 -> pool2/3x3_s2
I0312 14:38:46.379096 10732 net.cpp:97] Setting up pool2/3x3_s2
I0312 14:38:46.379112 10732 net.cpp:104] Top shape: 96 192 11 11 (2230272)
I0312 14:38:46.379124 10732 layer_factory.hpp:78] Creating layer pool2/3x3_s2_pool2/3x3_s2_0_split
I0312 14:38:46.379142 10732 net.cpp:68] Creating Layer pool2/3x3_s2_pool2/3x3_s2_0_split
I0312 14:38:46.379153 10732 net.cpp:395] pool2/3x3_s2_pool2/3x3_s2_0_split <- pool2/3x3_s2
I0312 14:38:46.379169 10732 net.cpp:357] pool2/3x3_s2_pool2/3x3_s2_0_split -> pool2/3x3_s2_pool2/3x3_s2_0_split_0
I0312 14:38:46.379185 10732 net.cpp:357] pool2/3x3_s2_pool2/3x3_s2_0_split -> pool2/3x3_s2_pool2/3x3_s2_0_split_1
I0312 14:38:46.379202 10732 net.cpp:357] pool2/3x3_s2_pool2/3x3_s2_0_split -> pool2/3x3_s2_pool2/3x3_s2_0_split_2
I0312 14:38:46.379218 10732 net.cpp:357] pool2/3x3_s2_pool2/3x3_s2_0_split -> pool2/3x3_s2_pool2/3x3_s2_0_split_3
I0312 14:38:46.379235 10732 net.cpp:97] Setting up pool2/3x3_s2_pool2/3x3_s2_0_split
I0312 14:38:46.379250 10732 net.cpp:104] Top shape: 96 192 11 11 (2230272)
I0312 14:38:46.379261 10732 net.cpp:104] Top shape: 96 192 11 11 (2230272)
I0312 14:38:46.379271 10732 net.cpp:104] Top shape: 96 192 11 11 (2230272)
I0312 14:38:46.379284 10732 net.cpp:104] Top shape: 96 192 11 11 (2230272)
I0312 14:38:46.379295 10732 layer_factory.hpp:78] Creating layer inception_3a/1x1
I0312 14:38:46.379309 10732 net.cpp:68] Creating Layer inception_3a/1x1
I0312 14:38:46.379322 10732 net.cpp:395] inception_3a/1x1 <- pool2/3x3_s2_pool2/3x3_s2_0_split_0
I0312 14:38:46.379338 10732 net.cpp:357] inception_3a/1x1 -> inception_3a/1x1
I0312 14:38:46.379354 10732 net.cpp:97] Setting up inception_3a/1x1
I0312 14:38:46.379569 10732 net.cpp:104] Top shape: 96 64 11 11 (743424)
I0312 14:38:46.379597 10732 layer_factory.hpp:78] Creating layer inception_3a/1x1/bn
I0312 14:38:46.379616 10732 net.cpp:68] Creating Layer inception_3a/1x1/bn
I0312 14:38:46.379627 10732 net.cpp:395] inception_3a/1x1/bn <- inception_3a/1x1
I0312 14:38:46.379644 10732 net.cpp:357] inception_3a/1x1/bn -> inception_3a/1x1/bn
I0312 14:38:46.379678 10732 net.cpp:97] Setting up inception_3a/1x1/bn
I0312 14:38:46.379700 10732 net.cpp:104] Top shape: 96 64 11 11 (743424)
I0312 14:38:46.379716 10732 layer_factory.hpp:78] Creating layer inception_3a/relu_1x1
I0312 14:38:46.379734 10732 net.cpp:68] Creating Layer inception_3a/relu_1x1
I0312 14:38:46.379745 10732 net.cpp:395] inception_3a/relu_1x1 <- inception_3a/1x1/bn
I0312 14:38:46.379760 10732 net.cpp:346] inception_3a/relu_1x1 -> inception_3a/1x1/bn (in-place)
I0312 14:38:46.379773 10732 net.cpp:97] Setting up inception_3a/relu_1x1
I0312 14:38:46.379787 10732 net.cpp:104] Top shape: 96 64 11 11 (743424)
I0312 14:38:46.379801 10732 layer_factory.hpp:78] Creating layer inception_3a/3x3_reduce
I0312 14:38:46.379820 10732 net.cpp:68] Creating Layer inception_3a/3x3_reduce
I0312 14:38:46.379833 10732 net.cpp:395] inception_3a/3x3_reduce <- pool2/3x3_s2_pool2/3x3_s2_0_split_1
I0312 14:38:46.379848 10732 net.cpp:357] inception_3a/3x3_reduce -> inception_3a/3x3_reduce
I0312 14:38:46.379863 10732 net.cpp:97] Setting up inception_3a/3x3_reduce
I0312 14:38:46.380345 10732 net.cpp:104] Top shape: 96 96 11 11 (1115136)
I0312 14:38:46.380375 10732 layer_factory.hpp:78] Creating layer inception_3a/3x3_reduce/bn
I0312 14:38:46.380393 10732 net.cpp:68] Creating Layer inception_3a/3x3_reduce/bn
I0312 14:38:46.380408 10732 net.cpp:395] inception_3a/3x3_reduce/bn <- inception_3a/3x3_reduce
I0312 14:38:46.380424 10732 net.cpp:357] inception_3a/3x3_reduce/bn -> inception_3a/3x3_reduce/bn
I0312 14:38:46.380440 10732 net.cpp:97] Setting up inception_3a/3x3_reduce/bn
I0312 14:38:46.380461 10732 net.cpp:104] Top shape: 96 96 11 11 (1115136)
I0312 14:38:46.380477 10732 layer_factory.hpp:78] Creating layer inception_3a/relu_3x3_reduce
I0312 14:38:46.380497 10732 net.cpp:68] Creating Layer inception_3a/relu_3x3_reduce
I0312 14:38:46.380511 10732 net.cpp:395] inception_3a/relu_3x3_reduce <- inception_3a/3x3_reduce/bn
I0312 14:38:46.380524 10732 net.cpp:346] inception_3a/relu_3x3_reduce -> inception_3a/3x3_reduce/bn (in-place)
I0312 14:38:46.380539 10732 net.cpp:97] Setting up inception_3a/relu_3x3_reduce
I0312 14:38:46.380554 10732 net.cpp:104] Top shape: 96 96 11 11 (1115136)
I0312 14:38:46.380568 10732 layer_factory.hpp:78] Creating layer inception_3a/3x3
I0312 14:38:46.380585 10732 net.cpp:68] Creating Layer inception_3a/3x3
I0312 14:38:46.380599 10732 net.cpp:395] inception_3a/3x3 <- inception_3a/3x3_reduce/bn
I0312 14:38:46.380612 10732 net.cpp:357] inception_3a/3x3 -> inception_3a/3x3
I0312 14:38:46.380628 10732 net.cpp:97] Setting up inception_3a/3x3
I0312 14:38:46.381853 10732 net.cpp:104] Top shape: 96 128 11 11 (1486848)
I0312 14:38:46.381880 10732 layer_factory.hpp:78] Creating layer inception_3a/3x3/bn
I0312 14:38:46.381899 10732 net.cpp:68] Creating Layer inception_3a/3x3/bn
I0312 14:38:46.381913 10732 net.cpp:395] inception_3a/3x3/bn <- inception_3a/3x3
I0312 14:38:46.381932 10732 net.cpp:357] inception_3a/3x3/bn -> inception_3a/3x3/bn
I0312 14:38:46.381948 10732 net.cpp:97] Setting up inception_3a/3x3/bn
I0312 14:38:46.381970 10732 net.cpp:104] Top shape: 96 128 11 11 (1486848)
I0312 14:38:46.381989 10732 layer_factory.hpp:78] Creating layer inception_3a/relu_3x3
I0312 14:38:46.382004 10732 net.cpp:68] Creating Layer inception_3a/relu_3x3
I0312 14:38:46.382015 10732 net.cpp:395] inception_3a/relu_3x3 <- inception_3a/3x3/bn
I0312 14:38:46.382030 10732 net.cpp:346] inception_3a/relu_3x3 -> inception_3a/3x3/bn (in-place)
I0312 14:38:46.382043 10732 net.cpp:97] Setting up inception_3a/relu_3x3
I0312 14:38:46.382057 10732 net.cpp:104] Top shape: 96 128 11 11 (1486848)
I0312 14:38:46.382071 10732 layer_factory.hpp:78] Creating layer inception_3a/5x5_reduce
I0312 14:38:46.382087 10732 net.cpp:68] Creating Layer inception_3a/5x5_reduce
I0312 14:38:46.382099 10732 net.cpp:395] inception_3a/5x5_reduce <- pool2/3x3_s2_pool2/3x3_s2_0_split_2
I0312 14:38:46.382114 10732 net.cpp:357] inception_3a/5x5_reduce -> inception_3a/5x5_reduce
I0312 14:38:46.382129 10732 net.cpp:97] Setting up inception_3a/5x5_reduce
I0312 14:38:46.382236 10732 net.cpp:104] Top shape: 96 16 11 11 (185856)
I0312 14:38:46.382273 10732 layer_factory.hpp:78] Creating layer inception_3a/5x5_reduce/bn
I0312 14:38:46.382292 10732 net.cpp:68] Creating Layer inception_3a/5x5_reduce/bn
I0312 14:38:46.382303 10732 net.cpp:395] inception_3a/5x5_reduce/bn <- inception_3a/5x5_reduce
I0312 14:38:46.382320 10732 net.cpp:357] inception_3a/5x5_reduce/bn -> inception_3a/5x5_reduce/bn
I0312 14:38:46.382336 10732 net.cpp:97] Setting up inception_3a/5x5_reduce/bn
I0312 14:38:46.382355 10732 net.cpp:104] Top shape: 96 16 11 11 (185856)
I0312 14:38:46.382369 10732 layer_factory.hpp:78] Creating layer inception_3a/relu_5x5_reduce
I0312 14:38:46.382386 10732 net.cpp:68] Creating Layer inception_3a/relu_5x5_reduce
I0312 14:38:46.382400 10732 net.cpp:395] inception_3a/relu_5x5_reduce <- inception_3a/5x5_reduce/bn
I0312 14:38:46.382412 10732 net.cpp:346] inception_3a/relu_5x5_reduce -> inception_3a/5x5_reduce/bn (in-place)
I0312 14:38:46.382426 10732 net.cpp:97] Setting up inception_3a/relu_5x5_reduce
I0312 14:38:46.382441 10732 net.cpp:104] Top shape: 96 16 11 11 (185856)
I0312 14:38:46.382454 10732 layer_factory.hpp:78] Creating layer inception_3a/5x5
I0312 14:38:46.382469 10732 net.cpp:68] Creating Layer inception_3a/5x5
I0312 14:38:46.382482 10732 net.cpp:395] inception_3a/5x5 <- inception_3a/5x5_reduce/bn
I0312 14:38:46.382495 10732 net.cpp:357] inception_3a/5x5 -> inception_3a/5x5
I0312 14:38:46.382509 10732 net.cpp:97] Setting up inception_3a/5x5
I0312 14:38:46.382758 10732 net.cpp:104] Top shape: 96 32 11 11 (371712)
I0312 14:38:46.382788 10732 layer_factory.hpp:78] Creating layer inception_3a/5x5/bn
I0312 14:38:46.382808 10732 net.cpp:68] Creating Layer inception_3a/5x5/bn
I0312 14:38:46.382822 10732 net.cpp:395] inception_3a/5x5/bn <- inception_3a/5x5
I0312 14:38:46.382836 10732 net.cpp:357] inception_3a/5x5/bn -> inception_3a/5x5/bn
I0312 14:38:46.382853 10732 net.cpp:97] Setting up inception_3a/5x5/bn
I0312 14:38:46.382874 10732 net.cpp:104] Top shape: 96 32 11 11 (371712)
I0312 14:38:46.382890 10732 layer_factory.hpp:78] Creating layer inception_3a/relu_5x5
I0312 14:38:46.382905 10732 net.cpp:68] Creating Layer inception_3a/relu_5x5
I0312 14:38:46.382915 10732 net.cpp:395] inception_3a/relu_5x5 <- inception_3a/5x5/bn
I0312 14:38:46.382944 10732 net.cpp:346] inception_3a/relu_5x5 -> inception_3a/5x5/bn (in-place)
I0312 14:38:46.382962 10732 net.cpp:97] Setting up inception_3a/relu_5x5
I0312 14:38:46.382977 10732 net.cpp:104] Top shape: 96 32 11 11 (371712)
I0312 14:38:46.382990 10732 layer_factory.hpp:78] Creating layer inception_3a/pool
I0312 14:38:46.383002 10732 layer_factory.cpp:51] CUDNN does not support padding or multiple tops. Using Caffe's own pooling layer.
I0312 14:38:46.383021 10732 net.cpp:68] Creating Layer inception_3a/pool
I0312 14:38:46.383034 10732 net.cpp:395] inception_3a/pool <- pool2/3x3_s2_pool2/3x3_s2_0_split_3
I0312 14:38:46.383051 10732 net.cpp:357] inception_3a/pool -> inception_3a/pool
I0312 14:38:46.383067 10732 net.cpp:97] Setting up inception_3a/pool
I0312 14:38:46.383081 10732 net.cpp:104] Top shape: 96 192 11 11 (2230272)
I0312 14:38:46.383092 10732 layer_factory.hpp:78] Creating layer inception_3a/pool_proj
I0312 14:38:46.383107 10732 net.cpp:68] Creating Layer inception_3a/pool_proj
I0312 14:38:46.383118 10732 net.cpp:395] inception_3a/pool_proj <- inception_3a/pool
I0312 14:38:46.383136 10732 net.cpp:357] inception_3a/pool_proj -> inception_3a/pool_proj
I0312 14:38:46.383152 10732 net.cpp:97] Setting up inception_3a/pool_proj
I0312 14:38:46.383285 10732 net.cpp:104] Top shape: 96 32 11 11 (371712)
I0312 14:38:46.383306 10732 layer_factory.hpp:78] Creating layer inception_3a/pool_proj/bn
I0312 14:38:46.383324 10732 net.cpp:68] Creating Layer inception_3a/pool_proj/bn
I0312 14:38:46.383337 10732 net.cpp:395] inception_3a/pool_proj/bn <- inception_3a/pool_proj
I0312 14:38:46.383358 10732 net.cpp:357] inception_3a/pool_proj/bn -> inception_3a/pool_proj/bn
I0312 14:38:46.383375 10732 net.cpp:97] Setting up inception_3a/pool_proj/bn
I0312 14:38:46.383396 10732 net.cpp:104] Top shape: 96 32 11 11 (371712)
I0312 14:38:46.383427 10732 layer_factory.hpp:78] Creating layer inception_3a/relu_pool_proj
I0312 14:38:46.383442 10732 net.cpp:68] Creating Layer inception_3a/relu_pool_proj
I0312 14:38:46.383455 10732 net.cpp:395] inception_3a/relu_pool_proj <- inception_3a/pool_proj/bn
I0312 14:38:46.383471 10732 net.cpp:346] inception_3a/relu_pool_proj -> inception_3a/pool_proj/bn (in-place)
I0312 14:38:46.383486 10732 net.cpp:97] Setting up inception_3a/relu_pool_proj
I0312 14:38:46.383502 10732 net.cpp:104] Top shape: 96 32 11 11 (371712)
I0312 14:38:46.383514 10732 layer_factory.hpp:78] Creating layer inception_3a/output
I0312 14:38:46.383530 10732 net.cpp:68] Creating Layer inception_3a/output
I0312 14:38:46.383543 10732 net.cpp:395] inception_3a/output <- inception_3a/1x1/bn
I0312 14:38:46.383556 10732 net.cpp:395] inception_3a/output <- inception_3a/3x3/bn
I0312 14:38:46.383569 10732 net.cpp:395] inception_3a/output <- inception_3a/5x5/bn
I0312 14:38:46.383581 10732 net.cpp:395] inception_3a/output <- inception_3a/pool_proj/bn
I0312 14:38:46.383595 10732 net.cpp:357] inception_3a/output -> inception_3a/output
I0312 14:38:46.383615 10732 net.cpp:97] Setting up inception_3a/output
I0312 14:38:46.383630 10732 net.cpp:104] Top shape: 96 256 11 11 (2973696)
I0312 14:38:46.383644 10732 layer_factory.hpp:78] Creating layer inception_3a/output_inception_3a/output_0_split
I0312 14:38:46.383658 10732 net.cpp:68] Creating Layer inception_3a/output_inception_3a/output_0_split
I0312 14:38:46.383671 10732 net.cpp:395] inception_3a/output_inception_3a/output_0_split <- inception_3a/output
I0312 14:38:46.383694 10732 net.cpp:357] inception_3a/output_inception_3a/output_0_split -> inception_3a/output_inception_3a/output_0_split_0
I0312 14:38:46.383713 10732 net.cpp:357] inception_3a/output_inception_3a/output_0_split -> inception_3a/output_inception_3a/output_0_split_1
I0312 14:38:46.383728 10732 net.cpp:357] inception_3a/output_inception_3a/output_0_split -> inception_3a/output_inception_3a/output_0_split_2
I0312 14:38:46.383744 10732 net.cpp:357] inception_3a/output_inception_3a/output_0_split -> inception_3a/output_inception_3a/output_0_split_3
I0312 14:38:46.383759 10732 net.cpp:97] Setting up inception_3a/output_inception_3a/output_0_split
I0312 14:38:46.383772 10732 net.cpp:104] Top shape: 96 256 11 11 (2973696)
I0312 14:38:46.383783 10732 net.cpp:104] Top shape: 96 256 11 11 (2973696)
I0312 14:38:46.383795 10732 net.cpp:104] Top shape: 96 256 11 11 (2973696)
I0312 14:38:46.383805 10732 net.cpp:104] Top shape: 96 256 11 11 (2973696)
I0312 14:38:46.383816 10732 layer_factory.hpp:78] Creating layer inception_3b/1x1
I0312 14:38:46.383831 10732 net.cpp:68] Creating Layer inception_3b/1x1
I0312 14:38:46.383842 10732 net.cpp:395] inception_3b/1x1 <- inception_3a/output_inception_3a/output_0_split_0
I0312 14:38:46.383860 10732 net.cpp:357] inception_3b/1x1 -> inception_3b/1x1
I0312 14:38:46.383875 10732 net.cpp:97] Setting up inception_3b/1x1
I0312 14:38:46.384452 10732 net.cpp:104] Top shape: 96 128 11 11 (1486848)
I0312 14:38:46.384479 10732 layer_factory.hpp:78] Creating layer inception_3b/1x1/bn
I0312 14:38:46.384498 10732 net.cpp:68] Creating Layer inception_3b/1x1/bn
I0312 14:38:46.384512 10732 net.cpp:395] inception_3b/1x1/bn <- inception_3b/1x1
I0312 14:38:46.384529 10732 net.cpp:357] inception_3b/1x1/bn -> inception_3b/1x1/bn
I0312 14:38:46.384546 10732 net.cpp:97] Setting up inception_3b/1x1/bn
I0312 14:38:46.384569 10732 net.cpp:104] Top shape: 96 128 11 11 (1486848)
I0312 14:38:46.384584 10732 layer_factory.hpp:78] Creating layer inception_3b/relu_1x1
I0312 14:38:46.384599 10732 net.cpp:68] Creating Layer inception_3b/relu_1x1
I0312 14:38:46.384610 10732 net.cpp:395] inception_3b/relu_1x1 <- inception_3b/1x1/bn
I0312 14:38:46.384624 10732 net.cpp:346] inception_3b/relu_1x1 -> inception_3b/1x1/bn (in-place)
I0312 14:38:46.384639 10732 net.cpp:97] Setting up inception_3b/relu_1x1
I0312 14:38:46.384652 10732 net.cpp:104] Top shape: 96 128 11 11 (1486848)
I0312 14:38:46.384665 10732 layer_factory.hpp:78] Creating layer inception_3b/3x3_reduce
I0312 14:38:46.384698 10732 net.cpp:68] Creating Layer inception_3b/3x3_reduce
I0312 14:38:46.384712 10732 net.cpp:395] inception_3b/3x3_reduce <- inception_3a/output_inception_3a/output_0_split_1
I0312 14:38:46.384727 10732 net.cpp:357] inception_3b/3x3_reduce -> inception_3b/3x3_reduce
I0312 14:38:46.384743 10732 net.cpp:97] Setting up inception_3b/3x3_reduce
I0312 14:38:46.385177 10732 net.cpp:104] Top shape: 96 128 11 11 (1486848)
I0312 14:38:46.385206 10732 layer_factory.hpp:78] Creating layer inception_3b/3x3_reduce/bn
I0312 14:38:46.385223 10732 net.cpp:68] Creating Layer inception_3b/3x3_reduce/bn
I0312 14:38:46.385236 10732 net.cpp:395] inception_3b/3x3_reduce/bn <- inception_3b/3x3_reduce
I0312 14:38:46.385254 10732 net.cpp:357] inception_3b/3x3_reduce/bn -> inception_3b/3x3_reduce/bn
I0312 14:38:46.385270 10732 net.cpp:97] Setting up inception_3b/3x3_reduce/bn
I0312 14:38:46.385292 10732 net.cpp:104] Top shape: 96 128 11 11 (1486848)
I0312 14:38:46.385308 10732 layer_factory.hpp:78] Creating layer inception_3b/relu_3x3_reduce
I0312 14:38:46.385324 10732 net.cpp:68] Creating Layer inception_3b/relu_3x3_reduce
I0312 14:38:46.385336 10732 net.cpp:395] inception_3b/relu_3x3_reduce <- inception_3b/3x3_reduce/bn
I0312 14:38:46.385350 10732 net.cpp:346] inception_3b/relu_3x3_reduce -> inception_3b/3x3_reduce/bn (in-place)
I0312 14:38:46.385363 10732 net.cpp:97] Setting up inception_3b/relu_3x3_reduce
I0312 14:38:46.385380 10732 net.cpp:104] Top shape: 96 128 11 11 (1486848)
I0312 14:38:46.385392 10732 layer_factory.hpp:78] Creating layer inception_3b/3x3
I0312 14:38:46.385411 10732 net.cpp:68] Creating Layer inception_3b/3x3
I0312 14:38:46.385423 10732 net.cpp:395] inception_3b/3x3 <- inception_3b/3x3_reduce/bn
I0312 14:38:46.385437 10732 net.cpp:357] inception_3b/3x3 -> inception_3b/3x3
I0312 14:38:46.385453 10732 net.cpp:97] Setting up inception_3b/3x3
I0312 14:38:46.387822 10732 net.cpp:104] Top shape: 96 192 11 11 (2230272)
I0312 14:38:46.387850 10732 layer_factory.hpp:78] Creating layer inception_3b/3x3/bn
I0312 14:38:46.387869 10732 net.cpp:68] Creating Layer inception_3b/3x3/bn
I0312 14:38:46.387883 10732 net.cpp:395] inception_3b/3x3/bn <- inception_3b/3x3
I0312 14:38:46.387897 10732 net.cpp:357] inception_3b/3x3/bn -> inception_3b/3x3/bn
I0312 14:38:46.387913 10732 net.cpp:97] Setting up inception_3b/3x3/bn
I0312 14:38:46.387936 10732 net.cpp:104] Top shape: 96 192 11 11 (2230272)
I0312 14:38:46.387953 10732 layer_factory.hpp:78] Creating layer inception_3b/relu_3x3
I0312 14:38:46.387969 10732 net.cpp:68] Creating Layer inception_3b/relu_3x3
I0312 14:38:46.387984 10732 net.cpp:395] inception_3b/relu_3x3 <- inception_3b/3x3/bn
I0312 14:38:46.387997 10732 net.cpp:346] inception_3b/relu_3x3 -> inception_3b/3x3/bn (in-place)
I0312 14:38:46.388011 10732 net.cpp:97] Setting up inception_3b/relu_3x3
I0312 14:38:46.388027 10732 net.cpp:104] Top shape: 96 192 11 11 (2230272)
I0312 14:38:46.388039 10732 layer_factory.hpp:78] Creating layer inception_3b/5x5_reduce
I0312 14:38:46.388057 10732 net.cpp:68] Creating Layer inception_3b/5x5_reduce
I0312 14:38:46.388070 10732 net.cpp:395] inception_3b/5x5_reduce <- inception_3a/output_inception_3a/output_0_split_2
I0312 14:38:46.388085 10732 net.cpp:357] inception_3b/5x5_reduce -> inception_3b/5x5_reduce
I0312 14:38:46.388100 10732 net.cpp:97] Setting up inception_3b/5x5_reduce
I0312 14:38:46.388253 10732 net.cpp:104] Top shape: 96 32 11 11 (371712)
I0312 14:38:46.388274 10732 layer_factory.hpp:78] Creating layer inception_3b/5x5_reduce/bn
I0312 14:38:46.388303 10732 net.cpp:68] Creating Layer inception_3b/5x5_reduce/bn
I0312 14:38:46.388321 10732 net.cpp:395] inception_3b/5x5_reduce/bn <- inception_3b/5x5_reduce
I0312 14:38:46.388336 10732 net.cpp:357] inception_3b/5x5_reduce/bn -> inception_3b/5x5_reduce/bn
I0312 14:38:46.388361 10732 net.cpp:97] Setting up inception_3b/5x5_reduce/bn
I0312 14:38:46.388383 10732 net.cpp:104] Top shape: 96 32 11 11 (371712)
I0312 14:38:46.388402 10732 layer_factory.hpp:78] Creating layer inception_3b/relu_5x5_reduce
I0312 14:38:46.388437 10732 net.cpp:68] Creating Layer inception_3b/relu_5x5_reduce
I0312 14:38:46.388450 10732 net.cpp:395] inception_3b/relu_5x5_reduce <- inception_3b/5x5_reduce/bn
I0312 14:38:46.388464 10732 net.cpp:346] inception_3b/relu_5x5_reduce -> inception_3b/5x5_reduce/bn (in-place)
I0312 14:38:46.388478 10732 net.cpp:97] Setting up inception_3b/relu_5x5_reduce
I0312 14:38:46.388494 10732 net.cpp:104] Top shape: 96 32 11 11 (371712)
I0312 14:38:46.388506 10732 layer_factory.hpp:78] Creating layer inception_3b/5x5
I0312 14:38:46.388526 10732 net.cpp:68] Creating Layer inception_3b/5x5
I0312 14:38:46.388540 10732 net.cpp:395] inception_3b/5x5 <- inception_3b/5x5_reduce/bn
I0312 14:38:46.388553 10732 net.cpp:357] inception_3b/5x5 -> inception_3b/5x5
I0312 14:38:46.388569 10732 net.cpp:97] Setting up inception_3b/5x5
I0312 14:38:46.389469 10732 net.cpp:104] Top shape: 96 96 11 11 (1115136)
I0312 14:38:46.389497 10732 layer_factory.hpp:78] Creating layer inception_3b/5x5/bn
I0312 14:38:46.389516 10732 net.cpp:68] Creating Layer inception_3b/5x5/bn
I0312 14:38:46.389529 10732 net.cpp:395] inception_3b/5x5/bn <- inception_3b/5x5
I0312 14:38:46.389544 10732 net.cpp:357] inception_3b/5x5/bn -> inception_3b/5x5/bn
I0312 14:38:46.389559 10732 net.cpp:97] Setting up inception_3b/5x5/bn
I0312 14:38:46.389581 10732 net.cpp:104] Top shape: 96 96 11 11 (1115136)
I0312 14:38:46.389597 10732 layer_factory.hpp:78] Creating layer inception_3b/relu_5x5
I0312 14:38:46.389611 10732 net.cpp:68] Creating Layer inception_3b/relu_5x5
I0312 14:38:46.389623 10732 net.cpp:395] inception_3b/relu_5x5 <- inception_3b/5x5/bn
I0312 14:38:46.389639 10732 net.cpp:346] inception_3b/relu_5x5 -> inception_3b/5x5/bn (in-place)
I0312 14:38:46.389654 10732 net.cpp:97] Setting up inception_3b/relu_5x5
I0312 14:38:46.389670 10732 net.cpp:104] Top shape: 96 96 11 11 (1115136)
I0312 14:38:46.389683 10732 layer_factory.hpp:78] Creating layer inception_3b/pool
I0312 14:38:46.389694 10732 layer_factory.cpp:51] CUDNN does not support padding or multiple tops. Using Caffe's own pooling layer.
I0312 14:38:46.389708 10732 net.cpp:68] Creating Layer inception_3b/pool
I0312 14:38:46.389719 10732 net.cpp:395] inception_3b/pool <- inception_3a/output_inception_3a/output_0_split_3
I0312 14:38:46.389737 10732 net.cpp:357] inception_3b/pool -> inception_3b/pool
I0312 14:38:46.389753 10732 net.cpp:97] Setting up inception_3b/pool
I0312 14:38:46.389767 10732 net.cpp:104] Top shape: 96 256 11 11 (2973696)
I0312 14:38:46.389778 10732 layer_factory.hpp:78] Creating layer inception_3b/pool_proj
I0312 14:38:46.389794 10732 net.cpp:68] Creating Layer inception_3b/pool_proj
I0312 14:38:46.389806 10732 net.cpp:395] inception_3b/pool_proj <- inception_3b/pool
I0312 14:38:46.389822 10732 net.cpp:357] inception_3b/pool_proj -> inception_3b/pool_proj
I0312 14:38:46.389838 10732 net.cpp:97] Setting up inception_3b/pool_proj
I0312 14:38:46.390218 10732 net.cpp:104] Top shape: 96 64 11 11 (743424)
I0312 14:38:46.390244 10732 layer_factory.hpp:78] Creating layer inception_3b/pool_proj/bn
I0312 14:38:46.390266 10732 net.cpp:68] Creating Layer inception_3b/pool_proj/bn
I0312 14:38:46.390280 10732 net.cpp:395] inception_3b/pool_proj/bn <- inception_3b/pool_proj
I0312 14:38:46.390295 10732 net.cpp:357] inception_3b/pool_proj/bn -> inception_3b/pool_proj/bn
I0312 14:38:46.390311 10732 net.cpp:97] Setting up inception_3b/pool_proj/bn
I0312 14:38:46.390334 10732 net.cpp:104] Top shape: 96 64 11 11 (743424)
I0312 14:38:46.390349 10732 layer_factory.hpp:78] Creating layer inception_3b/relu_pool_proj
I0312 14:38:46.390364 10732 net.cpp:68] Creating Layer inception_3b/relu_pool_proj
I0312 14:38:46.390377 10732 net.cpp:395] inception_3b/relu_pool_proj <- inception_3b/pool_proj/bn
I0312 14:38:46.390393 10732 net.cpp:346] inception_3b/relu_pool_proj -> inception_3b/pool_proj/bn (in-place)
I0312 14:38:46.390408 10732 net.cpp:97] Setting up inception_3b/relu_pool_proj
I0312 14:38:46.390422 10732 net.cpp:104] Top shape: 96 64 11 11 (743424)
I0312 14:38:46.390435 10732 layer_factory.hpp:78] Creating layer inception_3b/output
I0312 14:38:46.390468 10732 net.cpp:68] Creating Layer inception_3b/output
I0312 14:38:46.390481 10732 net.cpp:395] inception_3b/output <- inception_3b/1x1/bn
I0312 14:38:46.390494 10732 net.cpp:395] inception_3b/output <- inception_3b/3x3/bn
I0312 14:38:46.390507 10732 net.cpp:395] inception_3b/output <- inception_3b/5x5/bn
I0312 14:38:46.390519 10732 net.cpp:395] inception_3b/output <- inception_3b/pool_proj/bn
I0312 14:38:46.390533 10732 net.cpp:357] inception_3b/output -> inception_3b/output
I0312 14:38:46.390547 10732 net.cpp:97] Setting up inception_3b/output
I0312 14:38:46.390561 10732 net.cpp:104] Top shape: 96 480 11 11 (5575680)
I0312 14:38:46.390573 10732 layer_factory.hpp:78] Creating layer pool3/3x3_s2
I0312 14:38:46.390589 10732 net.cpp:68] Creating Layer pool3/3x3_s2
I0312 14:38:46.390601 10732 net.cpp:395] pool3/3x3_s2 <- inception_3b/output
I0312 14:38:46.390615 10732 net.cpp:357] pool3/3x3_s2 -> pool3/3x3_s2
I0312 14:38:46.390630 10732 net.cpp:97] Setting up pool3/3x3_s2
I0312 14:38:46.390646 10732 net.cpp:104] Top shape: 96 480 5 5 (1152000)
I0312 14:38:46.390660 10732 layer_factory.hpp:78] Creating layer pool3/3x3_s2_pool3/3x3_s2_0_split
I0312 14:38:46.390673 10732 net.cpp:68] Creating Layer pool3/3x3_s2_pool3/3x3_s2_0_split
I0312 14:38:46.390686 10732 net.cpp:395] pool3/3x3_s2_pool3/3x3_s2_0_split <- pool3/3x3_s2
I0312 14:38:46.390702 10732 net.cpp:357] pool3/3x3_s2_pool3/3x3_s2_0_split -> pool3/3x3_s2_pool3/3x3_s2_0_split_0
I0312 14:38:46.390718 10732 net.cpp:357] pool3/3x3_s2_pool3/3x3_s2_0_split -> pool3/3x3_s2_pool3/3x3_s2_0_split_1
I0312 14:38:46.390733 10732 net.cpp:357] pool3/3x3_s2_pool3/3x3_s2_0_split -> pool3/3x3_s2_pool3/3x3_s2_0_split_2
I0312 14:38:46.390750 10732 net.cpp:357] pool3/3x3_s2_pool3/3x3_s2_0_split -> pool3/3x3_s2_pool3/3x3_s2_0_split_3
I0312 14:38:46.390764 10732 net.cpp:97] Setting up pool3/3x3_s2_pool3/3x3_s2_0_split
I0312 14:38:46.390776 10732 net.cpp:104] Top shape: 96 480 5 5 (1152000)
I0312 14:38:46.390787 10732 net.cpp:104] Top shape: 96 480 5 5 (1152000)
I0312 14:38:46.390799 10732 net.cpp:104] Top shape: 96 480 5 5 (1152000)
I0312 14:38:46.390810 10732 net.cpp:104] Top shape: 96 480 5 5 (1152000)
I0312 14:38:46.390820 10732 layer_factory.hpp:78] Creating layer inception_4a/1x1
I0312 14:38:46.390837 10732 net.cpp:68] Creating Layer inception_4a/1x1
I0312 14:38:46.390851 10732 net.cpp:395] inception_4a/1x1 <- pool3/3x3_s2_pool3/3x3_s2_0_split_0
I0312 14:38:46.390866 10732 net.cpp:357] inception_4a/1x1 -> inception_4a/1x1
I0312 14:38:46.390882 10732 net.cpp:97] Setting up inception_4a/1x1
I0312 14:38:46.391934 10732 net.cpp:104] Top shape: 96 192 5 5 (460800)
I0312 14:38:46.391971 10732 layer_factory.hpp:78] Creating layer inception_4a/1x1/bn
I0312 14:38:46.391993 10732 net.cpp:68] Creating Layer inception_4a/1x1/bn
I0312 14:38:46.392006 10732 net.cpp:395] inception_4a/1x1/bn <- inception_4a/1x1
I0312 14:38:46.392020 10732 net.cpp:357] inception_4a/1x1/bn -> inception_4a/1x1/bn
I0312 14:38:46.392036 10732 net.cpp:97] Setting up inception_4a/1x1/bn
I0312 14:38:46.392060 10732 net.cpp:104] Top shape: 96 192 5 5 (460800)
I0312 14:38:46.392076 10732 layer_factory.hpp:78] Creating layer inception_4a/relu_1x1
I0312 14:38:46.392091 10732 net.cpp:68] Creating Layer inception_4a/relu_1x1
I0312 14:38:46.392102 10732 net.cpp:395] inception_4a/relu_1x1 <- inception_4a/1x1/bn
I0312 14:38:46.392114 10732 net.cpp:346] inception_4a/relu_1x1 -> inception_4a/1x1/bn (in-place)
I0312 14:38:46.392129 10732 net.cpp:97] Setting up inception_4a/relu_1x1
I0312 14:38:46.392143 10732 net.cpp:104] Top shape: 96 192 5 5 (460800)
I0312 14:38:46.392155 10732 layer_factory.hpp:78] Creating layer inception_4a/3x3_reduce
I0312 14:38:46.392174 10732 net.cpp:68] Creating Layer inception_4a/3x3_reduce
I0312 14:38:46.392186 10732 net.cpp:395] inception_4a/3x3_reduce <- pool3/3x3_s2_pool3/3x3_s2_0_split_1
I0312 14:38:46.392204 10732 net.cpp:357] inception_4a/3x3_reduce -> inception_4a/3x3_reduce
I0312 14:38:46.392220 10732 net.cpp:97] Setting up inception_4a/3x3_reduce
I0312 14:38:46.392820 10732 net.cpp:104] Top shape: 96 96 5 5 (230400)
I0312 14:38:46.392846 10732 layer_factory.hpp:78] Creating layer inception_4a/3x3_reduce/bn
I0312 14:38:46.392882 10732 net.cpp:68] Creating Layer inception_4a/3x3_reduce/bn
I0312 14:38:46.392897 10732 net.cpp:395] inception_4a/3x3_reduce/bn <- inception_4a/3x3_reduce
I0312 14:38:46.392913 10732 net.cpp:357] inception_4a/3x3_reduce/bn -> inception_4a/3x3_reduce/bn
I0312 14:38:46.392930 10732 net.cpp:97] Setting up inception_4a/3x3_reduce/bn
I0312 14:38:46.392954 10732 net.cpp:104] Top shape: 96 96 5 5 (230400)
I0312 14:38:46.392971 10732 layer_factory.hpp:78] Creating layer inception_4a/relu_3x3_reduce
I0312 14:38:46.392987 10732 net.cpp:68] Creating Layer inception_4a/relu_3x3_reduce
I0312 14:38:46.392998 10732 net.cpp:395] inception_4a/relu_3x3_reduce <- inception_4a/3x3_reduce/bn
I0312 14:38:46.393012 10732 net.cpp:346] inception_4a/relu_3x3_reduce -> inception_4a/3x3_reduce/bn (in-place)
I0312 14:38:46.393025 10732 net.cpp:97] Setting up inception_4a/relu_3x3_reduce
I0312 14:38:46.393040 10732 net.cpp:104] Top shape: 96 96 5 5 (230400)
I0312 14:38:46.393052 10732 layer_factory.hpp:78] Creating layer inception_4a/3x3
I0312 14:38:46.393070 10732 net.cpp:68] Creating Layer inception_4a/3x3
I0312 14:38:46.393084 10732 net.cpp:395] inception_4a/3x3 <- inception_4a/3x3_reduce/bn
I0312 14:38:46.393098 10732 net.cpp:357] inception_4a/3x3 -> inception_4a/3x3
I0312 14:38:46.393113 10732 net.cpp:97] Setting up inception_4a/3x3
I0312 14:38:46.395048 10732 net.cpp:104] Top shape: 96 208 5 5 (499200)
I0312 14:38:46.395076 10732 layer_factory.hpp:78] Creating layer inception_4a/3x3/bn
I0312 14:38:46.395097 10732 net.cpp:68] Creating Layer inception_4a/3x3/bn
I0312 14:38:46.395110 10732 net.cpp:395] inception_4a/3x3/bn <- inception_4a/3x3
I0312 14:38:46.395125 10732 net.cpp:357] inception_4a/3x3/bn -> inception_4a/3x3/bn
I0312 14:38:46.395141 10732 net.cpp:97] Setting up inception_4a/3x3/bn
I0312 14:38:46.395164 10732 net.cpp:104] Top shape: 96 208 5 5 (499200)
I0312 14:38:46.395179 10732 layer_factory.hpp:78] Creating layer inception_4a/relu_3x3
I0312 14:38:46.395195 10732 net.cpp:68] Creating Layer inception_4a/relu_3x3
I0312 14:38:46.395206 10732 net.cpp:395] inception_4a/relu_3x3 <- inception_4a/3x3/bn
I0312 14:38:46.395222 10732 net.cpp:346] inception_4a/relu_3x3 -> inception_4a/3x3/bn (in-place)
I0312 14:38:46.395237 10732 net.cpp:97] Setting up inception_4a/relu_3x3
I0312 14:38:46.395252 10732 net.cpp:104] Top shape: 96 208 5 5 (499200)
I0312 14:38:46.395264 10732 layer_factory.hpp:78] Creating layer inception_4a/5x5_reduce
I0312 14:38:46.395279 10732 net.cpp:68] Creating Layer inception_4a/5x5_reduce
I0312 14:38:46.395292 10732 net.cpp:395] inception_4a/5x5_reduce <- pool3/3x3_s2_pool3/3x3_s2_0_split_2
I0312 14:38:46.395308 10732 net.cpp:357] inception_4a/5x5_reduce -> inception_4a/5x5_reduce
I0312 14:38:46.395324 10732 net.cpp:97] Setting up inception_4a/5x5_reduce
I0312 14:38:46.395483 10732 net.cpp:104] Top shape: 96 16 5 5 (38400)
I0312 14:38:46.395505 10732 layer_factory.hpp:78] Creating layer inception_4a/5x5_reduce/bn
I0312 14:38:46.395524 10732 net.cpp:68] Creating Layer inception_4a/5x5_reduce/bn
I0312 14:38:46.395535 10732 net.cpp:395] inception_4a/5x5_reduce/bn <- inception_4a/5x5_reduce
I0312 14:38:46.395552 10732 net.cpp:357] inception_4a/5x5_reduce/bn -> inception_4a/5x5_reduce/bn
I0312 14:38:46.395570 10732 net.cpp:97] Setting up inception_4a/5x5_reduce/bn
I0312 14:38:46.395591 10732 net.cpp:104] Top shape: 96 16 5 5 (38400)
I0312 14:38:46.395606 10732 layer_factory.hpp:78] Creating layer inception_4a/relu_5x5_reduce
I0312 14:38:46.395622 10732 net.cpp:68] Creating Layer inception_4a/relu_5x5_reduce
I0312 14:38:46.395633 10732 net.cpp:395] inception_4a/relu_5x5_reduce <- inception_4a/5x5_reduce/bn
I0312 14:38:46.395648 10732 net.cpp:346] inception_4a/relu_5x5_reduce -> inception_4a/5x5_reduce/bn (in-place)
I0312 14:38:46.395663 10732 net.cpp:97] Setting up inception_4a/relu_5x5_reduce
I0312 14:38:46.395678 10732 net.cpp:104] Top shape: 96 16 5 5 (38400)
I0312 14:38:46.395709 10732 layer_factory.hpp:78] Creating layer inception_4a/5x5
I0312 14:38:46.395726 10732 net.cpp:68] Creating Layer inception_4a/5x5
I0312 14:38:46.395738 10732 net.cpp:395] inception_4a/5x5 <- inception_4a/5x5_reduce/bn
I0312 14:38:46.395756 10732 net.cpp:357] inception_4a/5x5 -> inception_4a/5x5
I0312 14:38:46.395781 10732 net.cpp:97] Setting up inception_4a/5x5
I0312 14:38:46.396183 10732 net.cpp:104] Top shape: 96 48 5 5 (115200)
I0312 14:38:46.396209 10732 layer_factory.hpp:78] Creating layer inception_4a/5x5/bn
I0312 14:38:46.396231 10732 net.cpp:68] Creating Layer inception_4a/5x5/bn
I0312 14:38:46.396245 10732 net.cpp:395] inception_4a/5x5/bn <- inception_4a/5x5
I0312 14:38:46.396260 10732 net.cpp:357] inception_4a/5x5/bn -> inception_4a/5x5/bn
I0312 14:38:46.396276 10732 net.cpp:97] Setting up inception_4a/5x5/bn
I0312 14:38:46.396299 10732 net.cpp:104] Top shape: 96 48 5 5 (115200)
I0312 14:38:46.396316 10732 layer_factory.hpp:78] Creating layer inception_4a/relu_5x5
I0312 14:38:46.396329 10732 net.cpp:68] Creating Layer inception_4a/relu_5x5
I0312 14:38:46.396342 10732 net.cpp:395] inception_4a/relu_5x5 <- inception_4a/5x5/bn
I0312 14:38:46.396354 10732 net.cpp:346] inception_4a/relu_5x5 -> inception_4a/5x5/bn (in-place)
I0312 14:38:46.396369 10732 net.cpp:97] Setting up inception_4a/relu_5x5
I0312 14:38:46.396384 10732 net.cpp:104] Top shape: 96 48 5 5 (115200)
I0312 14:38:46.396395 10732 layer_factory.hpp:78] Creating layer inception_4a/pool
I0312 14:38:46.396409 10732 layer_factory.cpp:51] CUDNN does not support padding or multiple tops. Using Caffe's own pooling layer.
I0312 14:38:46.396425 10732 net.cpp:68] Creating Layer inception_4a/pool
I0312 14:38:46.396437 10732 net.cpp:395] inception_4a/pool <- pool3/3x3_s2_pool3/3x3_s2_0_split_3
I0312 14:38:46.396451 10732 net.cpp:357] inception_4a/pool -> inception_4a/pool
I0312 14:38:46.396466 10732 net.cpp:97] Setting up inception_4a/pool
I0312 14:38:46.396481 10732 net.cpp:104] Top shape: 96 480 5 5 (1152000)
I0312 14:38:46.396492 10732 layer_factory.hpp:78] Creating layer inception_4a/pool_proj
I0312 14:38:46.396510 10732 net.cpp:68] Creating Layer inception_4a/pool_proj
I0312 14:38:46.396524 10732 net.cpp:395] inception_4a/pool_proj <- inception_4a/pool
I0312 14:38:46.396538 10732 net.cpp:357] inception_4a/pool_proj -> inception_4a/pool_proj
I0312 14:38:46.396553 10732 net.cpp:97] Setting up inception_4a/pool_proj
I0312 14:38:46.396951 10732 net.cpp:104] Top shape: 96 64 5 5 (153600)
I0312 14:38:46.396975 10732 layer_factory.hpp:78] Creating layer inception_4a/pool_proj/bn
I0312 14:38:46.396993 10732 net.cpp:68] Creating Layer inception_4a/pool_proj/bn
I0312 14:38:46.397006 10732 net.cpp:395] inception_4a/pool_proj/bn <- inception_4a/pool_proj
I0312 14:38:46.397022 10732 net.cpp:357] inception_4a/pool_proj/bn -> inception_4a/pool_proj/bn
I0312 14:38:46.397037 10732 net.cpp:97] Setting up inception_4a/pool_proj/bn
I0312 14:38:46.397059 10732 net.cpp:104] Top shape: 96 64 5 5 (153600)
I0312 14:38:46.397078 10732 layer_factory.hpp:78] Creating layer inception_4a/relu_pool_proj
I0312 14:38:46.397094 10732 net.cpp:68] Creating Layer inception_4a/relu_pool_proj
I0312 14:38:46.397105 10732 net.cpp:395] inception_4a/relu_pool_proj <- inception_4a/pool_proj/bn
I0312 14:38:46.397119 10732 net.cpp:346] inception_4a/relu_pool_proj -> inception_4a/pool_proj/bn (in-place)
I0312 14:38:46.397132 10732 net.cpp:97] Setting up inception_4a/relu_pool_proj
I0312 14:38:46.397147 10732 net.cpp:104] Top shape: 96 64 5 5 (153600)
I0312 14:38:46.397161 10732 layer_factory.hpp:78] Creating layer inception_4a/output
I0312 14:38:46.397176 10732 net.cpp:68] Creating Layer inception_4a/output
I0312 14:38:46.397187 10732 net.cpp:395] inception_4a/output <- inception_4a/1x1/bn
I0312 14:38:46.397200 10732 net.cpp:395] inception_4a/output <- inception_4a/3x3/bn
I0312 14:38:46.397212 10732 net.cpp:395] inception_4a/output <- inception_4a/5x5/bn
I0312 14:38:46.397225 10732 net.cpp:395] inception_4a/output <- inception_4a/pool_proj/bn
I0312 14:38:46.397259 10732 net.cpp:357] inception_4a/output -> inception_4a/output
I0312 14:38:46.397277 10732 net.cpp:97] Setting up inception_4a/output
I0312 14:38:46.397289 10732 net.cpp:104] Top shape: 96 512 5 5 (1228800)
I0312 14:38:46.397301 10732 layer_factory.hpp:78] Creating layer inception_4a/output_inception_4a/output_0_split
I0312 14:38:46.397315 10732 net.cpp:68] Creating Layer inception_4a/output_inception_4a/output_0_split
I0312 14:38:46.397326 10732 net.cpp:395] inception_4a/output_inception_4a/output_0_split <- inception_4a/output
I0312 14:38:46.397344 10732 net.cpp:357] inception_4a/output_inception_4a/output_0_split -> inception_4a/output_inception_4a/output_0_split_0
I0312 14:38:46.397361 10732 net.cpp:357] inception_4a/output_inception_4a/output_0_split -> inception_4a/output_inception_4a/output_0_split_1
I0312 14:38:46.397378 10732 net.cpp:357] inception_4a/output_inception_4a/output_0_split -> inception_4a/output_inception_4a/output_0_split_2
I0312 14:38:46.397394 10732 net.cpp:357] inception_4a/output_inception_4a/output_0_split -> inception_4a/output_inception_4a/output_0_split_3
I0312 14:38:46.397410 10732 net.cpp:357] inception_4a/output_inception_4a/output_0_split -> inception_4a/output_inception_4a/output_0_split_4
I0312 14:38:46.397425 10732 net.cpp:97] Setting up inception_4a/output_inception_4a/output_0_split
I0312 14:38:46.397439 10732 net.cpp:104] Top shape: 96 512 5 5 (1228800)
I0312 14:38:46.397449 10732 net.cpp:104] Top shape: 96 512 5 5 (1228800)
I0312 14:38:46.397460 10732 net.cpp:104] Top shape: 96 512 5 5 (1228800)
I0312 14:38:46.397471 10732 net.cpp:104] Top shape: 96 512 5 5 (1228800)
I0312 14:38:46.397482 10732 net.cpp:104] Top shape: 96 512 5 5 (1228800)
I0312 14:38:46.397493 10732 layer_factory.hpp:78] Creating layer loss1/ave_pool
I0312 14:38:46.397507 10732 net.cpp:68] Creating Layer loss1/ave_pool
I0312 14:38:46.397518 10732 net.cpp:395] loss1/ave_pool <- inception_4a/output_inception_4a/output_0_split_0
I0312 14:38:46.397536 10732 net.cpp:357] loss1/ave_pool -> loss1/ave_pool
I0312 14:38:46.397550 10732 net.cpp:97] Setting up loss1/ave_pool
I0312 14:38:46.397567 10732 net.cpp:104] Top shape: 96 512 1 1 (49152)
I0312 14:38:46.397580 10732 layer_factory.hpp:78] Creating layer loss1/conv
I0312 14:38:46.397598 10732 net.cpp:68] Creating Layer loss1/conv
I0312 14:38:46.397610 10732 net.cpp:395] loss1/conv <- loss1/ave_pool
I0312 14:38:46.397624 10732 net.cpp:357] loss1/conv -> loss1/conv
I0312 14:38:46.397640 10732 net.cpp:97] Setting up loss1/conv
I0312 14:38:46.398386 10732 net.cpp:104] Top shape: 96 128 1 1 (12288)
I0312 14:38:46.398409 10732 layer_factory.hpp:78] Creating layer loss1/conv/bn
I0312 14:38:46.398429 10732 net.cpp:68] Creating Layer loss1/conv/bn
I0312 14:38:46.398443 10732 net.cpp:395] loss1/conv/bn <- loss1/conv
I0312 14:38:46.398458 10732 net.cpp:357] loss1/conv/bn -> loss1/conv/bn
I0312 14:38:46.398473 10732 net.cpp:97] Setting up loss1/conv/bn
I0312 14:38:46.398496 10732 net.cpp:104] Top shape: 96 128 1 1 (12288)
I0312 14:38:46.398511 10732 layer_factory.hpp:78] Creating layer loss1/relu_conv
I0312 14:38:46.398525 10732 net.cpp:68] Creating Layer loss1/relu_conv
I0312 14:38:46.398537 10732 net.cpp:395] loss1/relu_conv <- loss1/conv/bn
I0312 14:38:46.398553 10732 net.cpp:346] loss1/relu_conv -> loss1/conv/bn (in-place)
I0312 14:38:46.398568 10732 net.cpp:97] Setting up loss1/relu_conv
I0312 14:38:46.398583 10732 net.cpp:104] Top shape: 96 128 1 1 (12288)
I0312 14:38:46.398596 10732 layer_factory.hpp:78] Creating layer loss1/fc
I0312 14:38:46.398614 10732 net.cpp:68] Creating Layer loss1/fc
I0312 14:38:46.398627 10732 net.cpp:395] loss1/fc <- loss1/conv/bn
I0312 14:38:46.398640 10732 net.cpp:357] loss1/fc -> loss1/fc
I0312 14:38:46.398663 10732 net.cpp:97] Setting up loss1/fc
I0312 14:38:46.400012 10732 net.cpp:104] Top shape: 96 1024 1 1 (98304)
I0312 14:38:46.400039 10732 layer_factory.hpp:78] Creating layer loss1/fc/bn
I0312 14:38:46.400058 10732 net.cpp:68] Creating Layer loss1/fc/bn
I0312 14:38:46.400071 10732 net.cpp:395] loss1/fc/bn <- loss1/fc
I0312 14:38:46.400105 10732 net.cpp:357] loss1/fc/bn -> loss1/fc/bn
I0312 14:38:46.400123 10732 net.cpp:97] Setting up loss1/fc/bn
I0312 14:38:46.400149 10732 net.cpp:104] Top shape: 96 1024 1 1 (98304)
I0312 14:38:46.400167 10732 layer_factory.hpp:78] Creating layer loss1/relu_fc
I0312 14:38:46.400182 10732 net.cpp:68] Creating Layer loss1/relu_fc
I0312 14:38:46.400194 10732 net.cpp:395] loss1/relu_fc <- loss1/fc/bn
I0312 14:38:46.400207 10732 net.cpp:346] loss1/relu_fc -> loss1/fc/bn (in-place)
I0312 14:38:46.400221 10732 net.cpp:97] Setting up loss1/relu_fc
I0312 14:38:46.400236 10732 net.cpp:104] Top shape: 96 1024 1 1 (98304)
I0312 14:38:46.400249 10732 layer_factory.hpp:78] Creating layer loss1/drop_fc
I0312 14:38:46.400266 10732 net.cpp:68] Creating Layer loss1/drop_fc
I0312 14:38:46.400279 10732 net.cpp:395] loss1/drop_fc <- loss1/fc/bn
I0312 14:38:46.400293 10732 net.cpp:346] loss1/drop_fc -> loss1/fc/bn (in-place)
I0312 14:38:46.400308 10732 net.cpp:97] Setting up loss1/drop_fc
I0312 14:38:46.400323 10732 net.cpp:104] Top shape: 96 1024 1 1 (98304)
I0312 14:38:46.400336 10732 layer_factory.hpp:78] Creating layer loss1/classifier
I0312 14:38:46.400352 10732 net.cpp:68] Creating Layer loss1/classifier
I0312 14:38:46.400362 10732 net.cpp:395] loss1/classifier <- loss1/fc/bn
I0312 14:38:46.400379 10732 net.cpp:357] loss1/classifier -> loss1/classifier
I0312 14:38:46.400396 10732 net.cpp:97] Setting up loss1/classifier
I0312 14:38:46.401679 10732 net.cpp:104] Top shape: 96 121 1 1 (11616)
I0312 14:38:46.401705 10732 layer_factory.hpp:78] Creating layer loss1/loss
I0312 14:38:46.401726 10732 net.cpp:68] Creating Layer loss1/loss
I0312 14:38:46.401738 10732 net.cpp:395] loss1/loss <- loss1/classifier
I0312 14:38:46.401759 10732 net.cpp:395] loss1/loss <- label_data_1_split_0
I0312 14:38:46.401774 10732 net.cpp:357] loss1/loss -> loss1/loss1
I0312 14:38:46.401792 10732 net.cpp:97] Setting up loss1/loss
I0312 14:38:46.401808 10732 layer_factory.hpp:78] Creating layer loss1/loss
I0312 14:38:46.401868 10732 net.cpp:104] Top shape: 1 1 1 1 (1)
I0312 14:38:46.401885 10732 net.cpp:110]     with loss weight 0.05
I0312 14:38:46.401934 10732 layer_factory.hpp:78] Creating layer inception_4b/1x1
I0312 14:38:46.401952 10732 net.cpp:68] Creating Layer inception_4b/1x1
I0312 14:38:46.401968 10732 net.cpp:395] inception_4b/1x1 <- inception_4a/output_inception_4a/output_0_split_1
I0312 14:38:46.401983 10732 net.cpp:357] inception_4b/1x1 -> inception_4b/1x1
I0312 14:38:46.401999 10732 net.cpp:97] Setting up inception_4b/1x1
I0312 14:38:46.402914 10732 net.cpp:104] Top shape: 96 160 5 5 (384000)
I0312 14:38:46.402940 10732 layer_factory.hpp:78] Creating layer inception_4b/1x1/bn
I0312 14:38:46.402961 10732 net.cpp:68] Creating Layer inception_4b/1x1/bn
I0312 14:38:46.402973 10732 net.cpp:395] inception_4b/1x1/bn <- inception_4b/1x1
I0312 14:38:46.402999 10732 net.cpp:357] inception_4b/1x1/bn -> inception_4b/1x1/bn
I0312 14:38:46.403022 10732 net.cpp:97] Setting up inception_4b/1x1/bn
I0312 14:38:46.403044 10732 net.cpp:104] Top shape: 96 160 5 5 (384000)
I0312 14:38:46.403059 10732 layer_factory.hpp:78] Creating layer inception_4b/relu_1x1
I0312 14:38:46.403074 10732 net.cpp:68] Creating Layer inception_4b/relu_1x1
I0312 14:38:46.403086 10732 net.cpp:395] inception_4b/relu_1x1 <- inception_4b/1x1/bn
I0312 14:38:46.403100 10732 net.cpp:346] inception_4b/relu_1x1 -> inception_4b/1x1/bn (in-place)
I0312 14:38:46.403113 10732 net.cpp:97] Setting up inception_4b/relu_1x1
I0312 14:38:46.403128 10732 net.cpp:104] Top shape: 96 160 5 5 (384000)
I0312 14:38:46.403141 10732 layer_factory.hpp:78] Creating layer inception_4b/3x3_reduce
I0312 14:38:46.403158 10732 net.cpp:68] Creating Layer inception_4b/3x3_reduce
I0312 14:38:46.403170 10732 net.cpp:395] inception_4b/3x3_reduce <- inception_4a/output_inception_4a/output_0_split_2
I0312 14:38:46.403187 10732 net.cpp:357] inception_4b/3x3_reduce -> inception_4b/3x3_reduce
I0312 14:38:46.403201 10732 net.cpp:97] Setting up inception_4b/3x3_reduce
I0312 14:38:46.403889 10732 net.cpp:104] Top shape: 96 112 5 5 (268800)
I0312 14:38:46.403934 10732 layer_factory.hpp:78] Creating layer inception_4b/3x3_reduce/bn
I0312 14:38:46.403954 10732 net.cpp:68] Creating Layer inception_4b/3x3_reduce/bn
I0312 14:38:46.403969 10732 net.cpp:395] inception_4b/3x3_reduce/bn <- inception_4b/3x3_reduce
I0312 14:38:46.403992 10732 net.cpp:357] inception_4b/3x3_reduce/bn -> inception_4b/3x3_reduce/bn
I0312 14:38:46.404014 10732 net.cpp:97] Setting up inception_4b/3x3_reduce/bn
I0312 14:38:46.404037 10732 net.cpp:104] Top shape: 96 112 5 5 (268800)
I0312 14:38:46.404052 10732 layer_factory.hpp:78] Creating layer inception_4b/relu_3x3_reduce
I0312 14:38:46.404067 10732 net.cpp:68] Creating Layer inception_4b/relu_3x3_reduce
I0312 14:38:46.404078 10732 net.cpp:395] inception_4b/relu_3x3_reduce <- inception_4b/3x3_reduce/bn
I0312 14:38:46.404094 10732 net.cpp:346] inception_4b/relu_3x3_reduce -> inception_4b/3x3_reduce/bn (in-place)
I0312 14:38:46.404109 10732 net.cpp:97] Setting up inception_4b/relu_3x3_reduce
I0312 14:38:46.404124 10732 net.cpp:104] Top shape: 96 112 5 5 (268800)
I0312 14:38:46.404136 10732 layer_factory.hpp:78] Creating layer inception_4b/3x3
I0312 14:38:46.404151 10732 net.cpp:68] Creating Layer inception_4b/3x3
I0312 14:38:46.404163 10732 net.cpp:395] inception_4b/3x3 <- inception_4b/3x3_reduce/bn
I0312 14:38:46.404181 10732 net.cpp:357] inception_4b/3x3 -> inception_4b/3x3
I0312 14:38:46.404196 10732 net.cpp:97] Setting up inception_4b/3x3
I0312 14:38:46.406903 10732 net.cpp:104] Top shape: 96 224 5 5 (537600)
I0312 14:38:46.406932 10732 layer_factory.hpp:78] Creating layer inception_4b/3x3/bn
I0312 14:38:46.406952 10732 net.cpp:68] Creating Layer inception_4b/3x3/bn
I0312 14:38:46.406966 10732 net.cpp:395] inception_4b/3x3/bn <- inception_4b/3x3
I0312 14:38:46.406982 10732 net.cpp:357] inception_4b/3x3/bn -> inception_4b/3x3/bn
I0312 14:38:46.407009 10732 net.cpp:97] Setting up inception_4b/3x3/bn
I0312 14:38:46.407030 10732 net.cpp:104] Top shape: 96 224 5 5 (537600)
I0312 14:38:46.407057 10732 layer_factory.hpp:78] Creating layer inception_4b/relu_3x3
I0312 14:38:46.407073 10732 net.cpp:68] Creating Layer inception_4b/relu_3x3
I0312 14:38:46.407085 10732 net.cpp:395] inception_4b/relu_3x3 <- inception_4b/3x3/bn
I0312 14:38:46.407099 10732 net.cpp:346] inception_4b/relu_3x3 -> inception_4b/3x3/bn (in-place)
I0312 14:38:46.407114 10732 net.cpp:97] Setting up inception_4b/relu_3x3
I0312 14:38:46.407127 10732 net.cpp:104] Top shape: 96 224 5 5 (537600)
I0312 14:38:46.407140 10732 layer_factory.hpp:78] Creating layer inception_4b/5x5_reduce
I0312 14:38:46.407157 10732 net.cpp:68] Creating Layer inception_4b/5x5_reduce
I0312 14:38:46.407171 10732 net.cpp:395] inception_4b/5x5_reduce <- inception_4a/output_inception_4a/output_0_split_3
I0312 14:38:46.407186 10732 net.cpp:357] inception_4b/5x5_reduce -> inception_4b/5x5_reduce
I0312 14:38:46.407201 10732 net.cpp:97] Setting up inception_4b/5x5_reduce
I0312 14:38:46.407395 10732 net.cpp:104] Top shape: 96 24 5 5 (57600)
I0312 14:38:46.407420 10732 layer_factory.hpp:78] Creating layer inception_4b/5x5_reduce/bn
I0312 14:38:46.407438 10732 net.cpp:68] Creating Layer inception_4b/5x5_reduce/bn
I0312 14:38:46.407450 10732 net.cpp:395] inception_4b/5x5_reduce/bn <- inception_4b/5x5_reduce
I0312 14:38:46.407469 10732 net.cpp:357] inception_4b/5x5_reduce/bn -> inception_4b/5x5_reduce/bn
I0312 14:38:46.407485 10732 net.cpp:97] Setting up inception_4b/5x5_reduce/bn
I0312 14:38:46.407505 10732 net.cpp:104] Top shape: 96 24 5 5 (57600)
I0312 14:38:46.407521 10732 layer_factory.hpp:78] Creating layer inception_4b/relu_5x5_reduce
I0312 14:38:46.407536 10732 net.cpp:68] Creating Layer inception_4b/relu_5x5_reduce
I0312 14:38:46.407547 10732 net.cpp:395] inception_4b/relu_5x5_reduce <- inception_4b/5x5_reduce/bn
I0312 14:38:46.407563 10732 net.cpp:346] inception_4b/relu_5x5_reduce -> inception_4b/5x5_reduce/bn (in-place)
I0312 14:38:46.407578 10732 net.cpp:97] Setting up inception_4b/relu_5x5_reduce
I0312 14:38:46.407593 10732 net.cpp:104] Top shape: 96 24 5 5 (57600)
I0312 14:38:46.407605 10732 layer_factory.hpp:78] Creating layer inception_4b/5x5
I0312 14:38:46.407639 10732 net.cpp:68] Creating Layer inception_4b/5x5
I0312 14:38:46.407654 10732 net.cpp:395] inception_4b/5x5 <- inception_4b/5x5_reduce/bn
I0312 14:38:46.407671 10732 net.cpp:357] inception_4b/5x5 -> inception_4b/5x5
I0312 14:38:46.407687 10732 net.cpp:97] Setting up inception_4b/5x5
I0312 14:38:46.408157 10732 net.cpp:104] Top shape: 96 64 5 5 (153600)
I0312 14:38:46.408181 10732 layer_factory.hpp:78] Creating layer inception_4b/5x5/bn
I0312 14:38:46.408200 10732 net.cpp:68] Creating Layer inception_4b/5x5/bn
I0312 14:38:46.408213 10732 net.cpp:395] inception_4b/5x5/bn <- inception_4b/5x5
I0312 14:38:46.408231 10732 net.cpp:357] inception_4b/5x5/bn -> inception_4b/5x5/bn
I0312 14:38:46.408246 10732 net.cpp:97] Setting up inception_4b/5x5/bn
I0312 14:38:46.408267 10732 net.cpp:104] Top shape: 96 64 5 5 (153600)
I0312 14:38:46.408283 10732 layer_factory.hpp:78] Creating layer inception_4b/relu_5x5
I0312 14:38:46.408300 10732 net.cpp:68] Creating Layer inception_4b/relu_5x5
I0312 14:38:46.408313 10732 net.cpp:395] inception_4b/relu_5x5 <- inception_4b/5x5/bn
I0312 14:38:46.408326 10732 net.cpp:346] inception_4b/relu_5x5 -> inception_4b/5x5/bn (in-place)
I0312 14:38:46.408340 10732 net.cpp:97] Setting up inception_4b/relu_5x5
I0312 14:38:46.408355 10732 net.cpp:104] Top shape: 96 64 5 5 (153600)
I0312 14:38:46.408370 10732 layer_factory.hpp:78] Creating layer inception_4b/pool
I0312 14:38:46.408381 10732 layer_factory.cpp:51] CUDNN does not support padding or multiple tops. Using Caffe's own pooling layer.
I0312 14:38:46.408396 10732 net.cpp:68] Creating Layer inception_4b/pool
I0312 14:38:46.408406 10732 net.cpp:395] inception_4b/pool <- inception_4a/output_inception_4a/output_0_split_4
I0312 14:38:46.408424 10732 net.cpp:357] inception_4b/pool -> inception_4b/pool
I0312 14:38:46.408439 10732 net.cpp:97] Setting up inception_4b/pool
I0312 14:38:46.408453 10732 net.cpp:104] Top shape: 96 512 5 5 (1228800)
I0312 14:38:46.408465 10732 layer_factory.hpp:78] Creating layer inception_4b/pool_proj
I0312 14:38:46.408480 10732 net.cpp:68] Creating Layer inception_4b/pool_proj
I0312 14:38:46.408493 10732 net.cpp:395] inception_4b/pool_proj <- inception_4b/pool
I0312 14:38:46.408509 10732 net.cpp:357] inception_4b/pool_proj -> inception_4b/pool_proj
I0312 14:38:46.408524 10732 net.cpp:97] Setting up inception_4b/pool_proj
I0312 14:38:46.408938 10732 net.cpp:104] Top shape: 96 64 5 5 (153600)
I0312 14:38:46.408962 10732 layer_factory.hpp:78] Creating layer inception_4b/pool_proj/bn
I0312 14:38:46.408982 10732 net.cpp:68] Creating Layer inception_4b/pool_proj/bn
I0312 14:38:46.408994 10732 net.cpp:395] inception_4b/pool_proj/bn <- inception_4b/pool_proj
I0312 14:38:46.409011 10732 net.cpp:357] inception_4b/pool_proj/bn -> inception_4b/pool_proj/bn
I0312 14:38:46.409028 10732 net.cpp:97] Setting up inception_4b/pool_proj/bn
I0312 14:38:46.409049 10732 net.cpp:104] Top shape: 96 64 5 5 (153600)
I0312 14:38:46.409064 10732 layer_factory.hpp:78] Creating layer inception_4b/relu_pool_proj
I0312 14:38:46.409078 10732 net.cpp:68] Creating Layer inception_4b/relu_pool_proj
I0312 14:38:46.409090 10732 net.cpp:395] inception_4b/relu_pool_proj <- inception_4b/pool_proj/bn
I0312 14:38:46.409106 10732 net.cpp:346] inception_4b/relu_pool_proj -> inception_4b/pool_proj/bn (in-place)
I0312 14:38:46.409121 10732 net.cpp:97] Setting up inception_4b/relu_pool_proj
I0312 14:38:46.409135 10732 net.cpp:104] Top shape: 96 64 5 5 (153600)
I0312 14:38:46.409149 10732 layer_factory.hpp:78] Creating layer inception_4b/output
I0312 14:38:46.409163 10732 net.cpp:68] Creating Layer inception_4b/output
I0312 14:38:46.409175 10732 net.cpp:395] inception_4b/output <- inception_4b/1x1/bn
I0312 14:38:46.409188 10732 net.cpp:395] inception_4b/output <- inception_4b/3x3/bn
I0312 14:38:46.409201 10732 net.cpp:395] inception_4b/output <- inception_4b/5x5/bn
I0312 14:38:46.409214 10732 net.cpp:395] inception_4b/output <- inception_4b/pool_proj/bn
I0312 14:38:46.409229 10732 net.cpp:357] inception_4b/output -> inception_4b/output
I0312 14:38:46.409265 10732 net.cpp:97] Setting up inception_4b/output
I0312 14:38:46.409278 10732 net.cpp:104] Top shape: 96 512 5 5 (1228800)
I0312 14:38:46.409291 10732 layer_factory.hpp:78] Creating layer inception_4b/output_inception_4b/output_0_split
I0312 14:38:46.409304 10732 net.cpp:68] Creating Layer inception_4b/output_inception_4b/output_0_split
I0312 14:38:46.409317 10732 net.cpp:395] inception_4b/output_inception_4b/output_0_split <- inception_4b/output
I0312 14:38:46.409333 10732 net.cpp:357] inception_4b/output_inception_4b/output_0_split -> inception_4b/output_inception_4b/output_0_split_0
I0312 14:38:46.409350 10732 net.cpp:357] inception_4b/output_inception_4b/output_0_split -> inception_4b/output_inception_4b/output_0_split_1
I0312 14:38:46.409368 10732 net.cpp:357] inception_4b/output_inception_4b/output_0_split -> inception_4b/output_inception_4b/output_0_split_2
I0312 14:38:46.409384 10732 net.cpp:357] inception_4b/output_inception_4b/output_0_split -> inception_4b/output_inception_4b/output_0_split_3
I0312 14:38:46.409397 10732 net.cpp:97] Setting up inception_4b/output_inception_4b/output_0_split
I0312 14:38:46.409410 10732 net.cpp:104] Top shape: 96 512 5 5 (1228800)
I0312 14:38:46.409421 10732 net.cpp:104] Top shape: 96 512 5 5 (1228800)
I0312 14:38:46.409432 10732 net.cpp:104] Top shape: 96 512 5 5 (1228800)
I0312 14:38:46.409442 10732 net.cpp:104] Top shape: 96 512 5 5 (1228800)
I0312 14:38:46.409453 10732 layer_factory.hpp:78] Creating layer inception_4c/1x1
I0312 14:38:46.409471 10732 net.cpp:68] Creating Layer inception_4c/1x1
I0312 14:38:46.409483 10732 net.cpp:395] inception_4c/1x1 <- inception_4b/output_inception_4b/output_0_split_0
I0312 14:38:46.409498 10732 net.cpp:357] inception_4c/1x1 -> inception_4c/1x1
I0312 14:38:46.409513 10732 net.cpp:97] Setting up inception_4c/1x1
I0312 14:38:46.410305 10732 net.cpp:104] Top shape: 96 128 5 5 (307200)
I0312 14:38:46.410328 10732 layer_factory.hpp:78] Creating layer inception_4c/1x1/bn
I0312 14:38:46.410347 10732 net.cpp:68] Creating Layer inception_4c/1x1/bn
I0312 14:38:46.410362 10732 net.cpp:395] inception_4c/1x1/bn <- inception_4c/1x1
I0312 14:38:46.410375 10732 net.cpp:357] inception_4c/1x1/bn -> inception_4c/1x1/bn
I0312 14:38:46.410392 10732 net.cpp:97] Setting up inception_4c/1x1/bn
I0312 14:38:46.410413 10732 net.cpp:104] Top shape: 96 128 5 5 (307200)
I0312 14:38:46.410429 10732 layer_factory.hpp:78] Creating layer inception_4c/relu_1x1
I0312 14:38:46.410444 10732 net.cpp:68] Creating Layer inception_4c/relu_1x1
I0312 14:38:46.410457 10732 net.cpp:395] inception_4c/relu_1x1 <- inception_4c/1x1/bn
I0312 14:38:46.410473 10732 net.cpp:346] inception_4c/relu_1x1 -> inception_4c/1x1/bn (in-place)
I0312 14:38:46.410488 10732 net.cpp:97] Setting up inception_4c/relu_1x1
I0312 14:38:46.410502 10732 net.cpp:104] Top shape: 96 128 5 5 (307200)
I0312 14:38:46.410516 10732 layer_factory.hpp:78] Creating layer inception_4c/3x3_reduce
I0312 14:38:46.410529 10732 net.cpp:68] Creating Layer inception_4c/3x3_reduce
I0312 14:38:46.410542 10732 net.cpp:395] inception_4c/3x3_reduce <- inception_4b/output_inception_4b/output_0_split_1
I0312 14:38:46.410559 10732 net.cpp:357] inception_4c/3x3_reduce -> inception_4c/3x3_reduce
I0312 14:38:46.410575 10732 net.cpp:97] Setting up inception_4c/3x3_reduce
I0312 14:38:46.411442 10732 net.cpp:104] Top shape: 96 128 5 5 (307200)
I0312 14:38:46.411471 10732 layer_factory.hpp:78] Creating layer inception_4c/3x3_reduce/bn
I0312 14:38:46.411492 10732 net.cpp:68] Creating Layer inception_4c/3x3_reduce/bn
I0312 14:38:46.411516 10732 net.cpp:395] inception_4c/3x3_reduce/bn <- inception_4c/3x3_reduce
I0312 14:38:46.411535 10732 net.cpp:357] inception_4c/3x3_reduce/bn -> inception_4c/3x3_reduce/bn
I0312 14:38:46.411551 10732 net.cpp:97] Setting up inception_4c/3x3_reduce/bn
I0312 14:38:46.411572 10732 net.cpp:104] Top shape: 96 128 5 5 (307200)
I0312 14:38:46.411607 10732 layer_factory.hpp:78] Creating layer inception_4c/relu_3x3_reduce
I0312 14:38:46.411624 10732 net.cpp:68] Creating Layer inception_4c/relu_3x3_reduce
I0312 14:38:46.411656 10732 net.cpp:395] inception_4c/relu_3x3_reduce <- inception_4c/3x3_reduce/bn
I0312 14:38:46.411672 10732 net.cpp:346] inception_4c/relu_3x3_reduce -> inception_4c/3x3_reduce/bn (in-place)
I0312 14:38:46.411687 10732 net.cpp:97] Setting up inception_4c/relu_3x3_reduce
I0312 14:38:46.411703 10732 net.cpp:104] Top shape: 96 128 5 5 (307200)
I0312 14:38:46.411715 10732 layer_factory.hpp:78] Creating layer inception_4c/3x3
I0312 14:38:46.411737 10732 net.cpp:68] Creating Layer inception_4c/3x3
I0312 14:38:46.411751 10732 net.cpp:395] inception_4c/3x3 <- inception_4c/3x3_reduce/bn
I0312 14:38:46.411767 10732 net.cpp:357] inception_4c/3x3 -> inception_4c/3x3
I0312 14:38:46.411782 10732 net.cpp:97] Setting up inception_4c/3x3
I0312 14:38:46.414919 10732 net.cpp:104] Top shape: 96 256 5 5 (614400)
I0312 14:38:46.414948 10732 layer_factory.hpp:78] Creating layer inception_4c/3x3/bn
I0312 14:38:46.414969 10732 net.cpp:68] Creating Layer inception_4c/3x3/bn
I0312 14:38:46.414983 10732 net.cpp:395] inception_4c/3x3/bn <- inception_4c/3x3
I0312 14:38:46.415005 10732 net.cpp:357] inception_4c/3x3/bn -> inception_4c/3x3/bn
I0312 14:38:46.415027 10732 net.cpp:97] Setting up inception_4c/3x3/bn
I0312 14:38:46.415048 10732 net.cpp:104] Top shape: 96 256 5 5 (614400)
I0312 14:38:46.415065 10732 layer_factory.hpp:78] Creating layer inception_4c/relu_3x3
I0312 14:38:46.415079 10732 net.cpp:68] Creating Layer inception_4c/relu_3x3
I0312 14:38:46.415091 10732 net.cpp:395] inception_4c/relu_3x3 <- inception_4c/3x3/bn
I0312 14:38:46.415105 10732 net.cpp:346] inception_4c/relu_3x3 -> inception_4c/3x3/bn (in-place)
I0312 14:38:46.415119 10732 net.cpp:97] Setting up inception_4c/relu_3x3
I0312 14:38:46.415134 10732 net.cpp:104] Top shape: 96 256 5 5 (614400)
I0312 14:38:46.415146 10732 layer_factory.hpp:78] Creating layer inception_4c/5x5_reduce
I0312 14:38:46.415161 10732 net.cpp:68] Creating Layer inception_4c/5x5_reduce
I0312 14:38:46.415173 10732 net.cpp:395] inception_4c/5x5_reduce <- inception_4b/output_inception_4b/output_0_split_2
I0312 14:38:46.415190 10732 net.cpp:357] inception_4c/5x5_reduce -> inception_4c/5x5_reduce
I0312 14:38:46.415206 10732 net.cpp:97] Setting up inception_4c/5x5_reduce
I0312 14:38:46.415412 10732 net.cpp:104] Top shape: 96 24 5 5 (57600)
I0312 14:38:46.415436 10732 layer_factory.hpp:78] Creating layer inception_4c/5x5_reduce/bn
I0312 14:38:46.415454 10732 net.cpp:68] Creating Layer inception_4c/5x5_reduce/bn
I0312 14:38:46.415467 10732 net.cpp:395] inception_4c/5x5_reduce/bn <- inception_4c/5x5_reduce
I0312 14:38:46.415482 10732 net.cpp:357] inception_4c/5x5_reduce/bn -> inception_4c/5x5_reduce/bn
I0312 14:38:46.415498 10732 net.cpp:97] Setting up inception_4c/5x5_reduce/bn
I0312 14:38:46.415518 10732 net.cpp:104] Top shape: 96 24 5 5 (57600)
I0312 14:38:46.415536 10732 layer_factory.hpp:78] Creating layer inception_4c/relu_5x5_reduce
I0312 14:38:46.415551 10732 net.cpp:68] Creating Layer inception_4c/relu_5x5_reduce
I0312 14:38:46.415563 10732 net.cpp:395] inception_4c/relu_5x5_reduce <- inception_4c/5x5_reduce/bn
I0312 14:38:46.415577 10732 net.cpp:346] inception_4c/relu_5x5_reduce -> inception_4c/5x5_reduce/bn (in-place)
I0312 14:38:46.415591 10732 net.cpp:97] Setting up inception_4c/relu_5x5_reduce
I0312 14:38:46.415606 10732 net.cpp:104] Top shape: 96 24 5 5 (57600)
I0312 14:38:46.415618 10732 layer_factory.hpp:78] Creating layer inception_4c/5x5
I0312 14:38:46.415632 10732 net.cpp:68] Creating Layer inception_4c/5x5
I0312 14:38:46.415644 10732 net.cpp:395] inception_4c/5x5 <- inception_4c/5x5_reduce/bn
I0312 14:38:46.415664 10732 net.cpp:357] inception_4c/5x5 -> inception_4c/5x5
I0312 14:38:46.415681 10732 net.cpp:97] Setting up inception_4c/5x5
I0312 14:38:46.416144 10732 net.cpp:104] Top shape: 96 64 5 5 (153600)
I0312 14:38:46.416168 10732 layer_factory.hpp:78] Creating layer inception_4c/5x5/bn
I0312 14:38:46.416188 10732 net.cpp:68] Creating Layer inception_4c/5x5/bn
I0312 14:38:46.416200 10732 net.cpp:395] inception_4c/5x5/bn <- inception_4c/5x5
I0312 14:38:46.416218 10732 net.cpp:357] inception_4c/5x5/bn -> inception_4c/5x5/bn
I0312 14:38:46.416250 10732 net.cpp:97] Setting up inception_4c/5x5/bn
I0312 14:38:46.416273 10732 net.cpp:104] Top shape: 96 64 5 5 (153600)
I0312 14:38:46.416290 10732 layer_factory.hpp:78] Creating layer inception_4c/relu_5x5
I0312 14:38:46.416307 10732 net.cpp:68] Creating Layer inception_4c/relu_5x5
I0312 14:38:46.416321 10732 net.cpp:395] inception_4c/relu_5x5 <- inception_4c/5x5/bn
I0312 14:38:46.416335 10732 net.cpp:346] inception_4c/relu_5x5 -> inception_4c/5x5/bn (in-place)
I0312 14:38:46.416349 10732 net.cpp:97] Setting up inception_4c/relu_5x5
I0312 14:38:46.416364 10732 net.cpp:104] Top shape: 96 64 5 5 (153600)
I0312 14:38:46.416376 10732 layer_factory.hpp:78] Creating layer inception_4c/pool
I0312 14:38:46.416388 10732 layer_factory.cpp:51] CUDNN does not support padding or multiple tops. Using Caffe's own pooling layer.
I0312 14:38:46.416401 10732 net.cpp:68] Creating Layer inception_4c/pool
I0312 14:38:46.416414 10732 net.cpp:395] inception_4c/pool <- inception_4b/output_inception_4b/output_0_split_3
I0312 14:38:46.416427 10732 net.cpp:357] inception_4c/pool -> inception_4c/pool
I0312 14:38:46.416442 10732 net.cpp:97] Setting up inception_4c/pool
I0312 14:38:46.416456 10732 net.cpp:104] Top shape: 96 512 5 5 (1228800)
I0312 14:38:46.416467 10732 layer_factory.hpp:78] Creating layer inception_4c/pool_proj
I0312 14:38:46.416501 10732 net.cpp:68] Creating Layer inception_4c/pool_proj
I0312 14:38:46.416514 10732 net.cpp:395] inception_4c/pool_proj <- inception_4c/pool
I0312 14:38:46.416529 10732 net.cpp:357] inception_4c/pool_proj -> inception_4c/pool_proj
I0312 14:38:46.416544 10732 net.cpp:97] Setting up inception_4c/pool_proj
I0312 14:38:46.416956 10732 net.cpp:104] Top shape: 96 64 5 5 (153600)
I0312 14:38:46.416983 10732 layer_factory.hpp:78] Creating layer inception_4c/pool_proj/bn
I0312 14:38:46.417001 10732 net.cpp:68] Creating Layer inception_4c/pool_proj/bn
I0312 14:38:46.417013 10732 net.cpp:395] inception_4c/pool_proj/bn <- inception_4c/pool_proj
I0312 14:38:46.417031 10732 net.cpp:357] inception_4c/pool_proj/bn -> inception_4c/pool_proj/bn
I0312 14:38:46.417047 10732 net.cpp:97] Setting up inception_4c/pool_proj/bn
I0312 14:38:46.417068 10732 net.cpp:104] Top shape: 96 64 5 5 (153600)
I0312 14:38:46.417083 10732 layer_factory.hpp:78] Creating layer inception_4c/relu_pool_proj
I0312 14:38:46.417098 10732 net.cpp:68] Creating Layer inception_4c/relu_pool_proj
I0312 14:38:46.417109 10732 net.cpp:395] inception_4c/relu_pool_proj <- inception_4c/pool_proj/bn
I0312 14:38:46.417126 10732 net.cpp:346] inception_4c/relu_pool_proj -> inception_4c/pool_proj/bn (in-place)
I0312 14:38:46.417141 10732 net.cpp:97] Setting up inception_4c/relu_pool_proj
I0312 14:38:46.417157 10732 net.cpp:104] Top shape: 96 64 5 5 (153600)
I0312 14:38:46.417176 10732 layer_factory.hpp:78] Creating layer inception_4c/output
I0312 14:38:46.417191 10732 net.cpp:68] Creating Layer inception_4c/output
I0312 14:38:46.417202 10732 net.cpp:395] inception_4c/output <- inception_4c/1x1/bn
I0312 14:38:46.417215 10732 net.cpp:395] inception_4c/output <- inception_4c/3x3/bn
I0312 14:38:46.417228 10732 net.cpp:395] inception_4c/output <- inception_4c/5x5/bn
I0312 14:38:46.417242 10732 net.cpp:395] inception_4c/output <- inception_4c/pool_proj/bn
I0312 14:38:46.417258 10732 net.cpp:357] inception_4c/output -> inception_4c/output
I0312 14:38:46.417273 10732 net.cpp:97] Setting up inception_4c/output
I0312 14:38:46.417285 10732 net.cpp:104] Top shape: 96 512 5 5 (1228800)
I0312 14:38:46.417296 10732 layer_factory.hpp:78] Creating layer inception_4c/output_inception_4c/output_0_split
I0312 14:38:46.417310 10732 net.cpp:68] Creating Layer inception_4c/output_inception_4c/output_0_split
I0312 14:38:46.417322 10732 net.cpp:395] inception_4c/output_inception_4c/output_0_split <- inception_4c/output
I0312 14:38:46.417336 10732 net.cpp:357] inception_4c/output_inception_4c/output_0_split -> inception_4c/output_inception_4c/output_0_split_0
I0312 14:38:46.417352 10732 net.cpp:357] inception_4c/output_inception_4c/output_0_split -> inception_4c/output_inception_4c/output_0_split_1
I0312 14:38:46.417385 10732 net.cpp:357] inception_4c/output_inception_4c/output_0_split -> inception_4c/output_inception_4c/output_0_split_2
I0312 14:38:46.417405 10732 net.cpp:357] inception_4c/output_inception_4c/output_0_split -> inception_4c/output_inception_4c/output_0_split_3
I0312 14:38:46.417421 10732 net.cpp:97] Setting up inception_4c/output_inception_4c/output_0_split
I0312 14:38:46.417434 10732 net.cpp:104] Top shape: 96 512 5 5 (1228800)
I0312 14:38:46.417445 10732 net.cpp:104] Top shape: 96 512 5 5 (1228800)
I0312 14:38:46.417456 10732 net.cpp:104] Top shape: 96 512 5 5 (1228800)
I0312 14:38:46.417467 10732 net.cpp:104] Top shape: 96 512 5 5 (1228800)
I0312 14:38:46.417479 10732 layer_factory.hpp:78] Creating layer inception_4d/1x1
I0312 14:38:46.417493 10732 net.cpp:68] Creating Layer inception_4d/1x1
I0312 14:38:46.417505 10732 net.cpp:395] inception_4d/1x1 <- inception_4c/output_inception_4c/output_0_split_0
I0312 14:38:46.417522 10732 net.cpp:357] inception_4d/1x1 -> inception_4d/1x1
I0312 14:38:46.417538 10732 net.cpp:97] Setting up inception_4d/1x1
I0312 14:38:46.418375 10732 net.cpp:104] Top shape: 96 112 5 5 (268800)
I0312 14:38:46.418403 10732 layer_factory.hpp:78] Creating layer inception_4d/1x1/bn
I0312 14:38:46.418424 10732 net.cpp:68] Creating Layer inception_4d/1x1/bn
I0312 14:38:46.418438 10732 net.cpp:395] inception_4d/1x1/bn <- inception_4d/1x1
I0312 14:38:46.418457 10732 net.cpp:357] inception_4d/1x1/bn -> inception_4d/1x1/bn
I0312 14:38:46.418473 10732 net.cpp:97] Setting up inception_4d/1x1/bn
I0312 14:38:46.418493 10732 net.cpp:104] Top shape: 96 112 5 5 (268800)
I0312 14:38:46.418511 10732 layer_factory.hpp:78] Creating layer inception_4d/relu_1x1
I0312 14:38:46.418526 10732 net.cpp:68] Creating Layer inception_4d/relu_1x1
I0312 14:38:46.418539 10732 net.cpp:395] inception_4d/relu_1x1 <- inception_4d/1x1/bn
I0312 14:38:46.418552 10732 net.cpp:346] inception_4d/relu_1x1 -> inception_4d/1x1/bn (in-place)
I0312 14:38:46.418567 10732 net.cpp:97] Setting up inception_4d/relu_1x1
I0312 14:38:46.418581 10732 net.cpp:104] Top shape: 96 112 5 5 (268800)
I0312 14:38:46.418596 10732 layer_factory.hpp:78] Creating layer inception_4d/3x3_reduce
I0312 14:38:46.418611 10732 net.cpp:68] Creating Layer inception_4d/3x3_reduce
I0312 14:38:46.418622 10732 net.cpp:395] inception_4d/3x3_reduce <- inception_4c/output_inception_4c/output_0_split_1
I0312 14:38:46.418639 10732 net.cpp:357] inception_4d/3x3_reduce -> inception_4d/3x3_reduce
I0312 14:38:46.418655 10732 net.cpp:97] Setting up inception_4d/3x3_reduce
I0312 14:38:46.419478 10732 net.cpp:104] Top shape: 96 144 5 5 (345600)
I0312 14:38:46.419505 10732 layer_factory.hpp:78] Creating layer inception_4d/3x3_reduce/bn
I0312 14:38:46.419523 10732 net.cpp:68] Creating Layer inception_4d/3x3_reduce/bn
I0312 14:38:46.419535 10732 net.cpp:395] inception_4d/3x3_reduce/bn <- inception_4d/3x3_reduce
I0312 14:38:46.419565 10732 net.cpp:357] inception_4d/3x3_reduce/bn -> inception_4d/3x3_reduce/bn
I0312 14:38:46.419584 10732 net.cpp:97] Setting up inception_4d/3x3_reduce/bn
I0312 14:38:46.419603 10732 net.cpp:104] Top shape: 96 144 5 5 (345600)
I0312 14:38:46.419620 10732 layer_factory.hpp:78] Creating layer inception_4d/relu_3x3_reduce
I0312 14:38:46.419637 10732 net.cpp:68] Creating Layer inception_4d/relu_3x3_reduce
I0312 14:38:46.419651 10732 net.cpp:395] inception_4d/relu_3x3_reduce <- inception_4d/3x3_reduce/bn
I0312 14:38:46.419664 10732 net.cpp:346] inception_4d/relu_3x3_reduce -> inception_4d/3x3_reduce/bn (in-place)
I0312 14:38:46.419678 10732 net.cpp:97] Setting up inception_4d/relu_3x3_reduce
I0312 14:38:46.419693 10732 net.cpp:104] Top shape: 96 144 5 5 (345600)
I0312 14:38:46.419705 10732 layer_factory.hpp:78] Creating layer inception_4d/3x3
I0312 14:38:46.419723 10732 net.cpp:68] Creating Layer inception_4d/3x3
I0312 14:38:46.419735 10732 net.cpp:395] inception_4d/3x3 <- inception_4d/3x3_reduce/bn
I0312 14:38:46.419749 10732 net.cpp:357] inception_4d/3x3 -> inception_4d/3x3
I0312 14:38:46.419782 10732 net.cpp:97] Setting up inception_4d/3x3
I0312 14:38:46.423980 10732 net.cpp:104] Top shape: 96 288 5 5 (691200)
I0312 14:38:46.424010 10732 layer_factory.hpp:78] Creating layer inception_4d/3x3/bn
I0312 14:38:46.424029 10732 net.cpp:68] Creating Layer inception_4d/3x3/bn
I0312 14:38:46.424042 10732 net.cpp:395] inception_4d/3x3/bn <- inception_4d/3x3
I0312 14:38:46.424058 10732 net.cpp:357] inception_4d/3x3/bn -> inception_4d/3x3/bn
I0312 14:38:46.424082 10732 net.cpp:97] Setting up inception_4d/3x3/bn
I0312 14:38:46.424108 10732 net.cpp:104] Top shape: 96 288 5 5 (691200)
I0312 14:38:46.424124 10732 layer_factory.hpp:78] Creating layer inception_4d/relu_3x3
I0312 14:38:46.424139 10732 net.cpp:68] Creating Layer inception_4d/relu_3x3
I0312 14:38:46.424150 10732 net.cpp:395] inception_4d/relu_3x3 <- inception_4d/3x3/bn
I0312 14:38:46.424163 10732 net.cpp:346] inception_4d/relu_3x3 -> inception_4d/3x3/bn (in-place)
I0312 14:38:46.424176 10732 net.cpp:97] Setting up inception_4d/relu_3x3
I0312 14:38:46.424191 10732 net.cpp:104] Top shape: 96 288 5 5 (691200)
I0312 14:38:46.424203 10732 layer_factory.hpp:78] Creating layer inception_4d/5x5_reduce
I0312 14:38:46.424219 10732 net.cpp:68] Creating Layer inception_4d/5x5_reduce
I0312 14:38:46.424231 10732 net.cpp:395] inception_4d/5x5_reduce <- inception_4c/output_inception_4c/output_0_split_2
I0312 14:38:46.424245 10732 net.cpp:357] inception_4d/5x5_reduce -> inception_4d/5x5_reduce
I0312 14:38:46.424262 10732 net.cpp:97] Setting up inception_4d/5x5_reduce
I0312 14:38:46.424501 10732 net.cpp:104] Top shape: 96 32 5 5 (76800)
I0312 14:38:46.424525 10732 layer_factory.hpp:78] Creating layer inception_4d/5x5_reduce/bn
I0312 14:38:46.424541 10732 net.cpp:68] Creating Layer inception_4d/5x5_reduce/bn
I0312 14:38:46.424556 10732 net.cpp:395] inception_4d/5x5_reduce/bn <- inception_4d/5x5_reduce
I0312 14:38:46.424573 10732 net.cpp:357] inception_4d/5x5_reduce/bn -> inception_4d/5x5_reduce/bn
I0312 14:38:46.424589 10732 net.cpp:97] Setting up inception_4d/5x5_reduce/bn
I0312 14:38:46.424612 10732 net.cpp:104] Top shape: 96 32 5 5 (76800)
I0312 14:38:46.424626 10732 layer_factory.hpp:78] Creating layer inception_4d/relu_5x5_reduce
I0312 14:38:46.424641 10732 net.cpp:68] Creating Layer inception_4d/relu_5x5_reduce
I0312 14:38:46.424654 10732 net.cpp:395] inception_4d/relu_5x5_reduce <- inception_4d/5x5_reduce/bn
I0312 14:38:46.424669 10732 net.cpp:346] inception_4d/relu_5x5_reduce -> inception_4d/5x5_reduce/bn (in-place)
I0312 14:38:46.424685 10732 net.cpp:97] Setting up inception_4d/relu_5x5_reduce
I0312 14:38:46.424700 10732 net.cpp:104] Top shape: 96 32 5 5 (76800)
I0312 14:38:46.424711 10732 layer_factory.hpp:78] Creating layer inception_4d/5x5
I0312 14:38:46.424727 10732 net.cpp:68] Creating Layer inception_4d/5x5
I0312 14:38:46.424739 10732 net.cpp:395] inception_4d/5x5 <- inception_4d/5x5_reduce/bn
I0312 14:38:46.424753 10732 net.cpp:357] inception_4d/5x5 -> inception_4d/5x5
I0312 14:38:46.424768 10732 net.cpp:97] Setting up inception_4d/5x5
I0312 14:38:46.425375 10732 net.cpp:104] Top shape: 96 64 5 5 (153600)
I0312 14:38:46.425405 10732 layer_factory.hpp:78] Creating layer inception_4d/5x5/bn
I0312 14:38:46.425425 10732 net.cpp:68] Creating Layer inception_4d/5x5/bn
I0312 14:38:46.425438 10732 net.cpp:395] inception_4d/5x5/bn <- inception_4d/5x5
I0312 14:38:46.425453 10732 net.cpp:357] inception_4d/5x5/bn -> inception_4d/5x5/bn
I0312 14:38:46.425468 10732 net.cpp:97] Setting up inception_4d/5x5/bn
I0312 14:38:46.425490 10732 net.cpp:104] Top shape: 96 64 5 5 (153600)
I0312 14:38:46.425506 10732 layer_factory.hpp:78] Creating layer inception_4d/relu_5x5
I0312 14:38:46.425520 10732 net.cpp:68] Creating Layer inception_4d/relu_5x5
I0312 14:38:46.425532 10732 net.cpp:395] inception_4d/relu_5x5 <- inception_4d/5x5/bn
I0312 14:38:46.425546 10732 net.cpp:346] inception_4d/relu_5x5 -> inception_4d/5x5/bn (in-place)
I0312 14:38:46.425560 10732 net.cpp:97] Setting up inception_4d/relu_5x5
I0312 14:38:46.425575 10732 net.cpp:104] Top shape: 96 64 5 5 (153600)
I0312 14:38:46.425611 10732 layer_factory.hpp:78] Creating layer inception_4d/pool
I0312 14:38:46.425626 10732 layer_factory.cpp:51] CUDNN does not support padding or multiple tops. Using Caffe's own pooling layer.
I0312 14:38:46.425639 10732 net.cpp:68] Creating Layer inception_4d/pool
I0312 14:38:46.425652 10732 net.cpp:395] inception_4d/pool <- inception_4c/output_inception_4c/output_0_split_3
I0312 14:38:46.425669 10732 net.cpp:357] inception_4d/pool -> inception_4d/pool
I0312 14:38:46.425704 10732 net.cpp:97] Setting up inception_4d/pool
I0312 14:38:46.425720 10732 net.cpp:104] Top shape: 96 512 5 5 (1228800)
I0312 14:38:46.425732 10732 layer_factory.hpp:78] Creating layer inception_4d/pool_proj
I0312 14:38:46.425751 10732 net.cpp:68] Creating Layer inception_4d/pool_proj
I0312 14:38:46.425763 10732 net.cpp:395] inception_4d/pool_proj <- inception_4d/pool
I0312 14:38:46.425778 10732 net.cpp:357] inception_4d/pool_proj -> inception_4d/pool_proj
I0312 14:38:46.425793 10732 net.cpp:97] Setting up inception_4d/pool_proj
I0312 14:38:46.426339 10732 net.cpp:104] Top shape: 96 64 5 5 (153600)
I0312 14:38:46.426367 10732 layer_factory.hpp:78] Creating layer inception_4d/pool_proj/bn
I0312 14:38:46.426383 10732 net.cpp:68] Creating Layer inception_4d/pool_proj/bn
I0312 14:38:46.426396 10732 net.cpp:395] inception_4d/pool_proj/bn <- inception_4d/pool_proj
I0312 14:38:46.426411 10732 net.cpp:357] inception_4d/pool_proj/bn -> inception_4d/pool_proj/bn
I0312 14:38:46.426427 10732 net.cpp:97] Setting up inception_4d/pool_proj/bn
I0312 14:38:46.426448 10732 net.cpp:104] Top shape: 96 64 5 5 (153600)
I0312 14:38:46.426465 10732 layer_factory.hpp:78] Creating layer inception_4d/relu_pool_proj
I0312 14:38:46.426478 10732 net.cpp:68] Creating Layer inception_4d/relu_pool_proj
I0312 14:38:46.426491 10732 net.cpp:395] inception_4d/relu_pool_proj <- inception_4d/pool_proj/bn
I0312 14:38:46.426506 10732 net.cpp:346] inception_4d/relu_pool_proj -> inception_4d/pool_proj/bn (in-place)
I0312 14:38:46.426522 10732 net.cpp:97] Setting up inception_4d/relu_pool_proj
I0312 14:38:46.426537 10732 net.cpp:104] Top shape: 96 64 5 5 (153600)
I0312 14:38:46.426549 10732 layer_factory.hpp:78] Creating layer inception_4d/output
I0312 14:38:46.426563 10732 net.cpp:68] Creating Layer inception_4d/output
I0312 14:38:46.426575 10732 net.cpp:395] inception_4d/output <- inception_4d/1x1/bn
I0312 14:38:46.426589 10732 net.cpp:395] inception_4d/output <- inception_4d/3x3/bn
I0312 14:38:46.426601 10732 net.cpp:395] inception_4d/output <- inception_4d/5x5/bn
I0312 14:38:46.426614 10732 net.cpp:395] inception_4d/output <- inception_4d/pool_proj/bn
I0312 14:38:46.426635 10732 net.cpp:357] inception_4d/output -> inception_4d/output
I0312 14:38:46.426648 10732 net.cpp:97] Setting up inception_4d/output
I0312 14:38:46.426661 10732 net.cpp:104] Top shape: 96 528 5 5 (1267200)
I0312 14:38:46.426672 10732 layer_factory.hpp:78] Creating layer inception_4d/output_inception_4d/output_0_split
I0312 14:38:46.426690 10732 net.cpp:68] Creating Layer inception_4d/output_inception_4d/output_0_split
I0312 14:38:46.426702 10732 net.cpp:395] inception_4d/output_inception_4d/output_0_split <- inception_4d/output
I0312 14:38:46.426717 10732 net.cpp:357] inception_4d/output_inception_4d/output_0_split -> inception_4d/output_inception_4d/output_0_split_0
I0312 14:38:46.426733 10732 net.cpp:357] inception_4d/output_inception_4d/output_0_split -> inception_4d/output_inception_4d/output_0_split_1
I0312 14:38:46.426749 10732 net.cpp:357] inception_4d/output_inception_4d/output_0_split -> inception_4d/output_inception_4d/output_0_split_2
I0312 14:38:46.426766 10732 net.cpp:357] inception_4d/output_inception_4d/output_0_split -> inception_4d/output_inception_4d/output_0_split_3
I0312 14:38:46.426784 10732 net.cpp:357] inception_4d/output_inception_4d/output_0_split -> inception_4d/output_inception_4d/output_0_split_4
I0312 14:38:46.426800 10732 net.cpp:97] Setting up inception_4d/output_inception_4d/output_0_split
I0312 14:38:46.426813 10732 net.cpp:104] Top shape: 96 528 5 5 (1267200)
I0312 14:38:46.426842 10732 net.cpp:104] Top shape: 96 528 5 5 (1267200)
I0312 14:38:46.426854 10732 net.cpp:104] Top shape: 96 528 5 5 (1267200)
I0312 14:38:46.426866 10732 net.cpp:104] Top shape: 96 528 5 5 (1267200)
I0312 14:38:46.426877 10732 net.cpp:104] Top shape: 96 528 5 5 (1267200)
I0312 14:38:46.426887 10732 layer_factory.hpp:78] Creating layer loss2/ave_pool
I0312 14:38:46.426901 10732 net.cpp:68] Creating Layer loss2/ave_pool
I0312 14:38:46.426913 10732 net.cpp:395] loss2/ave_pool <- inception_4d/output_inception_4d/output_0_split_0
I0312 14:38:46.426928 10732 net.cpp:357] loss2/ave_pool -> loss2/ave_pool
I0312 14:38:46.426942 10732 net.cpp:97] Setting up loss2/ave_pool
I0312 14:38:46.426959 10732 net.cpp:104] Top shape: 96 528 1 1 (50688)
I0312 14:38:46.426972 10732 layer_factory.hpp:78] Creating layer loss2/conv
I0312 14:38:46.426990 10732 net.cpp:68] Creating Layer loss2/conv
I0312 14:38:46.427003 10732 net.cpp:395] loss2/conv <- loss2/ave_pool
I0312 14:38:46.427021 10732 net.cpp:357] loss2/conv -> loss2/conv
I0312 14:38:46.427037 10732 net.cpp:97] Setting up loss2/conv
I0312 14:38:46.427803 10732 net.cpp:104] Top shape: 96 128 1 1 (12288)
I0312 14:38:46.427826 10732 layer_factory.hpp:78] Creating layer loss2/conv/bn
I0312 14:38:46.427845 10732 net.cpp:68] Creating Layer loss2/conv/bn
I0312 14:38:46.427858 10732 net.cpp:395] loss2/conv/bn <- loss2/conv
I0312 14:38:46.427875 10732 net.cpp:357] loss2/conv/bn -> loss2/conv/bn
I0312 14:38:46.427892 10732 net.cpp:97] Setting up loss2/conv/bn
I0312 14:38:46.427914 10732 net.cpp:104] Top shape: 96 128 1 1 (12288)
I0312 14:38:46.427929 10732 layer_factory.hpp:78] Creating layer loss2/relu_conv
I0312 14:38:46.427944 10732 net.cpp:68] Creating Layer loss2/relu_conv
I0312 14:38:46.427956 10732 net.cpp:395] loss2/relu_conv <- loss2/conv/bn
I0312 14:38:46.427971 10732 net.cpp:346] loss2/relu_conv -> loss2/conv/bn (in-place)
I0312 14:38:46.427986 10732 net.cpp:97] Setting up loss2/relu_conv
I0312 14:38:46.428001 10732 net.cpp:104] Top shape: 96 128 1 1 (12288)
I0312 14:38:46.428014 10732 layer_factory.hpp:78] Creating layer loss2/fc
I0312 14:38:46.428030 10732 net.cpp:68] Creating Layer loss2/fc
I0312 14:38:46.428042 10732 net.cpp:395] loss2/fc <- loss2/conv/bn
I0312 14:38:46.428058 10732 net.cpp:357] loss2/fc -> loss2/fc
I0312 14:38:46.428076 10732 net.cpp:97] Setting up loss2/fc
I0312 14:38:46.429429 10732 net.cpp:104] Top shape: 96 1024 1 1 (98304)
I0312 14:38:46.429453 10732 layer_factory.hpp:78] Creating layer loss2/fc/bn
I0312 14:38:46.429472 10732 net.cpp:68] Creating Layer loss2/fc/bn
I0312 14:38:46.429486 10732 net.cpp:395] loss2/fc/bn <- loss2/fc
I0312 14:38:46.429502 10732 net.cpp:357] loss2/fc/bn -> loss2/fc/bn
I0312 14:38:46.429517 10732 net.cpp:97] Setting up loss2/fc/bn
I0312 14:38:46.429543 10732 net.cpp:104] Top shape: 96 1024 1 1 (98304)
I0312 14:38:46.429560 10732 layer_factory.hpp:78] Creating layer loss2/relu_fc
I0312 14:38:46.429576 10732 net.cpp:68] Creating Layer loss2/relu_fc
I0312 14:38:46.429587 10732 net.cpp:395] loss2/relu_fc <- loss2/fc/bn
I0312 14:38:46.429601 10732 net.cpp:346] loss2/relu_fc -> loss2/fc/bn (in-place)
I0312 14:38:46.429615 10732 net.cpp:97] Setting up loss2/relu_fc
I0312 14:38:46.429630 10732 net.cpp:104] Top shape: 96 1024 1 1 (98304)
I0312 14:38:46.429642 10732 layer_factory.hpp:78] Creating layer loss2/drop_fc
I0312 14:38:46.429656 10732 net.cpp:68] Creating Layer loss2/drop_fc
I0312 14:38:46.429668 10732 net.cpp:395] loss2/drop_fc <- loss2/fc/bn
I0312 14:38:46.429684 10732 net.cpp:346] loss2/drop_fc -> loss2/fc/bn (in-place)
I0312 14:38:46.429698 10732 net.cpp:97] Setting up loss2/drop_fc
I0312 14:38:46.429711 10732 net.cpp:104] Top shape: 96 1024 1 1 (98304)
I0312 14:38:46.429723 10732 layer_factory.hpp:78] Creating layer loss2/classifier
I0312 14:38:46.429738 10732 net.cpp:68] Creating Layer loss2/classifier
I0312 14:38:46.429749 10732 net.cpp:395] loss2/classifier <- loss2/fc/bn
I0312 14:38:46.429765 10732 net.cpp:357] loss2/classifier -> loss2/classifier
I0312 14:38:46.429781 10732 net.cpp:97] Setting up loss2/classifier
I0312 14:38:46.431071 10732 net.cpp:104] Top shape: 96 121 1 1 (11616)
I0312 14:38:46.431097 10732 layer_factory.hpp:78] Creating layer loss2/loss
I0312 14:38:46.431115 10732 net.cpp:68] Creating Layer loss2/loss
I0312 14:38:46.431128 10732 net.cpp:395] loss2/loss <- loss2/classifier
I0312 14:38:46.431143 10732 net.cpp:395] loss2/loss <- label_data_1_split_1
I0312 14:38:46.431157 10732 net.cpp:357] loss2/loss -> loss2/loss1
I0312 14:38:46.431174 10732 net.cpp:97] Setting up loss2/loss
I0312 14:38:46.431186 10732 layer_factory.hpp:78] Creating layer loss2/loss
I0312 14:38:46.431238 10732 net.cpp:104] Top shape: 1 1 1 1 (1)
I0312 14:38:46.431253 10732 net.cpp:110]     with loss weight 0.05
I0312 14:38:46.431277 10732 layer_factory.hpp:78] Creating layer inception_4e/1x1
I0312 14:38:46.431295 10732 net.cpp:68] Creating Layer inception_4e/1x1
I0312 14:38:46.431308 10732 net.cpp:395] inception_4e/1x1 <- inception_4d/output_inception_4d/output_0_split_1
I0312 14:38:46.431324 10732 net.cpp:357] inception_4e/1x1 -> inception_4e/1x1
I0312 14:38:46.431339 10732 net.cpp:97] Setting up inception_4e/1x1
I0312 14:38:46.432793 10732 net.cpp:104] Top shape: 96 256 5 5 (614400)
I0312 14:38:46.432821 10732 layer_factory.hpp:78] Creating layer inception_4e/1x1/bn
I0312 14:38:46.432840 10732 net.cpp:68] Creating Layer inception_4e/1x1/bn
I0312 14:38:46.432854 10732 net.cpp:395] inception_4e/1x1/bn <- inception_4e/1x1
I0312 14:38:46.432876 10732 net.cpp:357] inception_4e/1x1/bn -> inception_4e/1x1/bn
I0312 14:38:46.432893 10732 net.cpp:97] Setting up inception_4e/1x1/bn
I0312 14:38:46.432919 10732 net.cpp:104] Top shape: 96 256 5 5 (614400)
I0312 14:38:46.432934 10732 layer_factory.hpp:78] Creating layer inception_4e/relu_1x1
I0312 14:38:46.432950 10732 net.cpp:68] Creating Layer inception_4e/relu_1x1
I0312 14:38:46.432962 10732 net.cpp:395] inception_4e/relu_1x1 <- inception_4e/1x1/bn
I0312 14:38:46.432978 10732 net.cpp:346] inception_4e/relu_1x1 -> inception_4e/1x1/bn (in-place)
I0312 14:38:46.432993 10732 net.cpp:97] Setting up inception_4e/relu_1x1
I0312 14:38:46.433008 10732 net.cpp:104] Top shape: 96 256 5 5 (614400)
I0312 14:38:46.433020 10732 layer_factory.hpp:78] Creating layer inception_4e/3x3_reduce
I0312 14:38:46.433038 10732 net.cpp:68] Creating Layer inception_4e/3x3_reduce
I0312 14:38:46.433051 10732 net.cpp:395] inception_4e/3x3_reduce <- inception_4d/output_inception_4d/output_0_split_2
I0312 14:38:46.433066 10732 net.cpp:357] inception_4e/3x3_reduce -> inception_4e/3x3_reduce
I0312 14:38:46.433082 10732 net.cpp:97] Setting up inception_4e/3x3_reduce
I0312 14:38:46.434012 10732 net.cpp:104] Top shape: 96 160 5 5 (384000)
I0312 14:38:46.434039 10732 layer_factory.hpp:78] Creating layer inception_4e/3x3_reduce/bn
I0312 14:38:46.434059 10732 net.cpp:68] Creating Layer inception_4e/3x3_reduce/bn
I0312 14:38:46.434073 10732 net.cpp:395] inception_4e/3x3_reduce/bn <- inception_4e/3x3_reduce
I0312 14:38:46.434089 10732 net.cpp:357] inception_4e/3x3_reduce/bn -> inception_4e/3x3_reduce/bn
I0312 14:38:46.434113 10732 net.cpp:97] Setting up inception_4e/3x3_reduce/bn
I0312 14:38:46.434139 10732 net.cpp:104] Top shape: 96 160 5 5 (384000)
I0312 14:38:46.434154 10732 layer_factory.hpp:78] Creating layer inception_4e/relu_3x3_reduce
I0312 14:38:46.434170 10732 net.cpp:68] Creating Layer inception_4e/relu_3x3_reduce
I0312 14:38:46.434182 10732 net.cpp:395] inception_4e/relu_3x3_reduce <- inception_4e/3x3_reduce/bn
I0312 14:38:46.434197 10732 net.cpp:346] inception_4e/relu_3x3_reduce -> inception_4e/3x3_reduce/bn (in-place)
I0312 14:38:46.434213 10732 net.cpp:97] Setting up inception_4e/relu_3x3_reduce
I0312 14:38:46.434228 10732 net.cpp:104] Top shape: 96 160 5 5 (384000)
I0312 14:38:46.434240 10732 layer_factory.hpp:78] Creating layer inception_4e/3x3
I0312 14:38:46.434255 10732 net.cpp:68] Creating Layer inception_4e/3x3
I0312 14:38:46.434267 10732 net.cpp:395] inception_4e/3x3 <- inception_4e/3x3_reduce/bn
I0312 14:38:46.434283 10732 net.cpp:357] inception_4e/3x3 -> inception_4e/3x3
I0312 14:38:46.434299 10732 net.cpp:97] Setting up inception_4e/3x3
I0312 14:38:46.439092 10732 net.cpp:104] Top shape: 96 320 5 5 (768000)
I0312 14:38:46.439123 10732 layer_factory.hpp:78] Creating layer inception_4e/3x3/bn
I0312 14:38:46.439144 10732 net.cpp:68] Creating Layer inception_4e/3x3/bn
I0312 14:38:46.439157 10732 net.cpp:395] inception_4e/3x3/bn <- inception_4e/3x3
I0312 14:38:46.439177 10732 net.cpp:357] inception_4e/3x3/bn -> inception_4e/3x3/bn
I0312 14:38:46.439200 10732 net.cpp:97] Setting up inception_4e/3x3/bn
I0312 14:38:46.439224 10732 net.cpp:104] Top shape: 96 320 5 5 (768000)
I0312 14:38:46.439239 10732 layer_factory.hpp:78] Creating layer inception_4e/relu_3x3
I0312 14:38:46.439256 10732 net.cpp:68] Creating Layer inception_4e/relu_3x3
I0312 14:38:46.439270 10732 net.cpp:395] inception_4e/relu_3x3 <- inception_4e/3x3/bn
I0312 14:38:46.439283 10732 net.cpp:346] inception_4e/relu_3x3 -> inception_4e/3x3/bn (in-place)
I0312 14:38:46.439297 10732 net.cpp:97] Setting up inception_4e/relu_3x3
I0312 14:38:46.439312 10732 net.cpp:104] Top shape: 96 320 5 5 (768000)
I0312 14:38:46.439324 10732 layer_factory.hpp:78] Creating layer inception_4e/5x5_reduce
I0312 14:38:46.439339 10732 net.cpp:68] Creating Layer inception_4e/5x5_reduce
I0312 14:38:46.439352 10732 net.cpp:395] inception_4e/5x5_reduce <- inception_4d/output_inception_4d/output_0_split_3
I0312 14:38:46.439366 10732 net.cpp:357] inception_4e/5x5_reduce -> inception_4e/5x5_reduce
I0312 14:38:46.439381 10732 net.cpp:97] Setting up inception_4e/5x5_reduce
I0312 14:38:46.439777 10732 net.cpp:104] Top shape: 96 32 5 5 (76800)
I0312 14:38:46.439803 10732 layer_factory.hpp:78] Creating layer inception_4e/5x5_reduce/bn
I0312 14:38:46.439823 10732 net.cpp:68] Creating Layer inception_4e/5x5_reduce/bn
I0312 14:38:46.439836 10732 net.cpp:395] inception_4e/5x5_reduce/bn <- inception_4e/5x5_reduce
I0312 14:38:46.439851 10732 net.cpp:357] inception_4e/5x5_reduce/bn -> inception_4e/5x5_reduce/bn
I0312 14:38:46.439867 10732 net.cpp:97] Setting up inception_4e/5x5_reduce/bn
I0312 14:38:46.439888 10732 net.cpp:104] Top shape: 96 32 5 5 (76800)
I0312 14:38:46.439903 10732 layer_factory.hpp:78] Creating layer inception_4e/relu_5x5_reduce
I0312 14:38:46.439920 10732 net.cpp:68] Creating Layer inception_4e/relu_5x5_reduce
I0312 14:38:46.439934 10732 net.cpp:395] inception_4e/relu_5x5_reduce <- inception_4e/5x5_reduce/bn
I0312 14:38:46.439947 10732 net.cpp:346] inception_4e/relu_5x5_reduce -> inception_4e/5x5_reduce/bn (in-place)
I0312 14:38:46.439961 10732 net.cpp:97] Setting up inception_4e/relu_5x5_reduce
I0312 14:38:46.439977 10732 net.cpp:104] Top shape: 96 32 5 5 (76800)
I0312 14:38:46.439990 10732 layer_factory.hpp:78] Creating layer inception_4e/5x5
I0312 14:38:46.440007 10732 net.cpp:68] Creating Layer inception_4e/5x5
I0312 14:38:46.440019 10732 net.cpp:395] inception_4e/5x5 <- inception_4e/5x5_reduce/bn
I0312 14:38:46.440034 10732 net.cpp:357] inception_4e/5x5 -> inception_4e/5x5
I0312 14:38:46.440049 10732 net.cpp:97] Setting up inception_4e/5x5
I0312 14:38:46.441172 10732 net.cpp:104] Top shape: 96 128 5 5 (307200)
I0312 14:38:46.441200 10732 layer_factory.hpp:78] Creating layer inception_4e/5x5/bn
I0312 14:38:46.441220 10732 net.cpp:68] Creating Layer inception_4e/5x5/bn
I0312 14:38:46.441233 10732 net.cpp:395] inception_4e/5x5/bn <- inception_4e/5x5
I0312 14:38:46.441256 10732 net.cpp:357] inception_4e/5x5/bn -> inception_4e/5x5/bn
I0312 14:38:46.441274 10732 net.cpp:97] Setting up inception_4e/5x5/bn
I0312 14:38:46.441295 10732 net.cpp:104] Top shape: 96 128 5 5 (307200)
I0312 14:38:46.441310 10732 layer_factory.hpp:78] Creating layer inception_4e/relu_5x5
I0312 14:38:46.441329 10732 net.cpp:68] Creating Layer inception_4e/relu_5x5
I0312 14:38:46.441341 10732 net.cpp:395] inception_4e/relu_5x5 <- inception_4e/5x5/bn
I0312 14:38:46.441355 10732 net.cpp:346] inception_4e/relu_5x5 -> inception_4e/5x5/bn (in-place)
I0312 14:38:46.441368 10732 net.cpp:97] Setting up inception_4e/relu_5x5
I0312 14:38:46.441385 10732 net.cpp:104] Top shape: 96 128 5 5 (307200)
I0312 14:38:46.441396 10732 layer_factory.hpp:78] Creating layer inception_4e/pool
I0312 14:38:46.441431 10732 layer_factory.cpp:51] CUDNN does not support padding or multiple tops. Using Caffe's own pooling layer.
I0312 14:38:46.441447 10732 net.cpp:68] Creating Layer inception_4e/pool
I0312 14:38:46.441459 10732 net.cpp:395] inception_4e/pool <- inception_4d/output_inception_4d/output_0_split_4
I0312 14:38:46.441473 10732 net.cpp:357] inception_4e/pool -> inception_4e/pool
I0312 14:38:46.441493 10732 net.cpp:97] Setting up inception_4e/pool
I0312 14:38:46.441507 10732 net.cpp:104] Top shape: 96 528 5 5 (1267200)
I0312 14:38:46.441519 10732 layer_factory.hpp:78] Creating layer inception_4e/pool_proj
I0312 14:38:46.441534 10732 net.cpp:68] Creating Layer inception_4e/pool_proj
I0312 14:38:46.441546 10732 net.cpp:395] inception_4e/pool_proj <- inception_4e/pool
I0312 14:38:46.441567 10732 net.cpp:357] inception_4e/pool_proj -> inception_4e/pool_proj
I0312 14:38:46.441583 10732 net.cpp:97] Setting up inception_4e/pool_proj
I0312 14:38:46.442340 10732 net.cpp:104] Top shape: 96 128 5 5 (307200)
I0312 14:38:46.442368 10732 layer_factory.hpp:78] Creating layer inception_4e/pool_proj/bn
I0312 14:38:46.442386 10732 net.cpp:68] Creating Layer inception_4e/pool_proj/bn
I0312 14:38:46.442400 10732 net.cpp:395] inception_4e/pool_proj/bn <- inception_4e/pool_proj
I0312 14:38:46.442428 10732 net.cpp:357] inception_4e/pool_proj/bn -> inception_4e/pool_proj/bn
I0312 14:38:46.442451 10732 net.cpp:97] Setting up inception_4e/pool_proj/bn
I0312 14:38:46.442471 10732 net.cpp:104] Top shape: 96 128 5 5 (307200)
I0312 14:38:46.442487 10732 layer_factory.hpp:78] Creating layer inception_4e/relu_pool_proj
I0312 14:38:46.442502 10732 net.cpp:68] Creating Layer inception_4e/relu_pool_proj
I0312 14:38:46.442515 10732 net.cpp:395] inception_4e/relu_pool_proj <- inception_4e/pool_proj/bn
I0312 14:38:46.442529 10732 net.cpp:346] inception_4e/relu_pool_proj -> inception_4e/pool_proj/bn (in-place)
I0312 14:38:46.442543 10732 net.cpp:97] Setting up inception_4e/relu_pool_proj
I0312 14:38:46.442559 10732 net.cpp:104] Top shape: 96 128 5 5 (307200)
I0312 14:38:46.442570 10732 layer_factory.hpp:78] Creating layer inception_4e/output
I0312 14:38:46.442584 10732 net.cpp:68] Creating Layer inception_4e/output
I0312 14:38:46.442595 10732 net.cpp:395] inception_4e/output <- inception_4e/1x1/bn
I0312 14:38:46.442610 10732 net.cpp:395] inception_4e/output <- inception_4e/3x3/bn
I0312 14:38:46.442622 10732 net.cpp:395] inception_4e/output <- inception_4e/5x5/bn
I0312 14:38:46.442634 10732 net.cpp:395] inception_4e/output <- inception_4e/pool_proj/bn
I0312 14:38:46.442648 10732 net.cpp:357] inception_4e/output -> inception_4e/output
I0312 14:38:46.442663 10732 net.cpp:97] Setting up inception_4e/output
I0312 14:38:46.442677 10732 net.cpp:104] Top shape: 96 832 5 5 (1996800)
I0312 14:38:46.442687 10732 layer_factory.hpp:78] Creating layer pool4/3x3_s2
I0312 14:38:46.442704 10732 net.cpp:68] Creating Layer pool4/3x3_s2
I0312 14:38:46.442716 10732 net.cpp:395] pool4/3x3_s2 <- inception_4e/output
I0312 14:38:46.442733 10732 net.cpp:357] pool4/3x3_s2 -> pool4/3x3_s2
I0312 14:38:46.442749 10732 net.cpp:97] Setting up pool4/3x3_s2
I0312 14:38:46.442764 10732 net.cpp:104] Top shape: 96 832 2 2 (319488)
I0312 14:38:46.442776 10732 layer_factory.hpp:78] Creating layer pool4/3x3_s2_pool4/3x3_s2_0_split
I0312 14:38:46.442793 10732 net.cpp:68] Creating Layer pool4/3x3_s2_pool4/3x3_s2_0_split
I0312 14:38:46.442806 10732 net.cpp:395] pool4/3x3_s2_pool4/3x3_s2_0_split <- pool4/3x3_s2
I0312 14:38:46.442819 10732 net.cpp:357] pool4/3x3_s2_pool4/3x3_s2_0_split -> pool4/3x3_s2_pool4/3x3_s2_0_split_0
I0312 14:38:46.442836 10732 net.cpp:357] pool4/3x3_s2_pool4/3x3_s2_0_split -> pool4/3x3_s2_pool4/3x3_s2_0_split_1
I0312 14:38:46.442850 10732 net.cpp:357] pool4/3x3_s2_pool4/3x3_s2_0_split -> pool4/3x3_s2_pool4/3x3_s2_0_split_2
I0312 14:38:46.442867 10732 net.cpp:357] pool4/3x3_s2_pool4/3x3_s2_0_split -> pool4/3x3_s2_pool4/3x3_s2_0_split_3
I0312 14:38:46.442879 10732 net.cpp:97] Setting up pool4/3x3_s2_pool4/3x3_s2_0_split
I0312 14:38:46.442909 10732 net.cpp:104] Top shape: 96 832 2 2 (319488)
I0312 14:38:46.442920 10732 net.cpp:104] Top shape: 96 832 2 2 (319488)
I0312 14:38:46.442931 10732 net.cpp:104] Top shape: 96 832 2 2 (319488)
I0312 14:38:46.442942 10732 net.cpp:104] Top shape: 96 832 2 2 (319488)
I0312 14:38:46.442955 10732 layer_factory.hpp:78] Creating layer inception_5a/1x1
I0312 14:38:46.442971 10732 net.cpp:68] Creating Layer inception_5a/1x1
I0312 14:38:46.442984 10732 net.cpp:395] inception_5a/1x1 <- pool4/3x3_s2_pool4/3x3_s2_0_split_0
I0312 14:38:46.443001 10732 net.cpp:357] inception_5a/1x1 -> inception_5a/1x1
I0312 14:38:46.443017 10732 net.cpp:97] Setting up inception_5a/1x1
I0312 14:38:46.445252 10732 net.cpp:104] Top shape: 96 256 2 2 (98304)
I0312 14:38:46.445281 10732 layer_factory.hpp:78] Creating layer inception_5a/1x1/bn
I0312 14:38:46.445299 10732 net.cpp:68] Creating Layer inception_5a/1x1/bn
I0312 14:38:46.445312 10732 net.cpp:395] inception_5a/1x1/bn <- inception_5a/1x1
I0312 14:38:46.445328 10732 net.cpp:357] inception_5a/1x1/bn -> inception_5a/1x1/bn
I0312 14:38:46.445346 10732 net.cpp:97] Setting up inception_5a/1x1/bn
I0312 14:38:46.445370 10732 net.cpp:104] Top shape: 96 256 2 2 (98304)
I0312 14:38:46.445385 10732 layer_factory.hpp:78] Creating layer inception_5a/relu_1x1
I0312 14:38:46.445402 10732 net.cpp:68] Creating Layer inception_5a/relu_1x1
I0312 14:38:46.445415 10732 net.cpp:395] inception_5a/relu_1x1 <- inception_5a/1x1/bn
I0312 14:38:46.445428 10732 net.cpp:346] inception_5a/relu_1x1 -> inception_5a/1x1/bn (in-place)
I0312 14:38:46.445442 10732 net.cpp:97] Setting up inception_5a/relu_1x1
I0312 14:38:46.445457 10732 net.cpp:104] Top shape: 96 256 2 2 (98304)
I0312 14:38:46.445469 10732 layer_factory.hpp:78] Creating layer inception_5a/3x3_reduce
I0312 14:38:46.445484 10732 net.cpp:68] Creating Layer inception_5a/3x3_reduce
I0312 14:38:46.445497 10732 net.cpp:395] inception_5a/3x3_reduce <- pool4/3x3_s2_pool4/3x3_s2_0_split_1
I0312 14:38:46.445513 10732 net.cpp:357] inception_5a/3x3_reduce -> inception_5a/3x3_reduce
I0312 14:38:46.445529 10732 net.cpp:97] Setting up inception_5a/3x3_reduce
I0312 14:38:46.446944 10732 net.cpp:104] Top shape: 96 160 2 2 (61440)
I0312 14:38:46.446974 10732 layer_factory.hpp:78] Creating layer inception_5a/3x3_reduce/bn
I0312 14:38:46.446991 10732 net.cpp:68] Creating Layer inception_5a/3x3_reduce/bn
I0312 14:38:46.447005 10732 net.cpp:395] inception_5a/3x3_reduce/bn <- inception_5a/3x3_reduce
I0312 14:38:46.447032 10732 net.cpp:357] inception_5a/3x3_reduce/bn -> inception_5a/3x3_reduce/bn
I0312 14:38:46.447055 10732 net.cpp:97] Setting up inception_5a/3x3_reduce/bn
I0312 14:38:46.447077 10732 net.cpp:104] Top shape: 96 160 2 2 (61440)
I0312 14:38:46.447093 10732 layer_factory.hpp:78] Creating layer inception_5a/relu_3x3_reduce
I0312 14:38:46.447109 10732 net.cpp:68] Creating Layer inception_5a/relu_3x3_reduce
I0312 14:38:46.447121 10732 net.cpp:395] inception_5a/relu_3x3_reduce <- inception_5a/3x3_reduce/bn
I0312 14:38:46.447135 10732 net.cpp:346] inception_5a/relu_3x3_reduce -> inception_5a/3x3_reduce/bn (in-place)
I0312 14:38:46.447150 10732 net.cpp:97] Setting up inception_5a/relu_3x3_reduce
I0312 14:38:46.447165 10732 net.cpp:104] Top shape: 96 160 2 2 (61440)
I0312 14:38:46.447177 10732 layer_factory.hpp:78] Creating layer inception_5a/3x3
I0312 14:38:46.447195 10732 net.cpp:68] Creating Layer inception_5a/3x3
I0312 14:38:46.447207 10732 net.cpp:395] inception_5a/3x3 <- inception_5a/3x3_reduce/bn
I0312 14:38:46.447221 10732 net.cpp:357] inception_5a/3x3 -> inception_5a/3x3
I0312 14:38:46.447237 10732 net.cpp:97] Setting up inception_5a/3x3
I0312 14:38:46.452149 10732 net.cpp:104] Top shape: 96 320 2 2 (122880)
I0312 14:38:46.452180 10732 layer_factory.hpp:78] Creating layer inception_5a/3x3/bn
I0312 14:38:46.452198 10732 net.cpp:68] Creating Layer inception_5a/3x3/bn
I0312 14:38:46.452213 10732 net.cpp:395] inception_5a/3x3/bn <- inception_5a/3x3
I0312 14:38:46.452235 10732 net.cpp:357] inception_5a/3x3/bn -> inception_5a/3x3/bn
I0312 14:38:46.452255 10732 net.cpp:97] Setting up inception_5a/3x3/bn
I0312 14:38:46.452304 10732 net.cpp:104] Top shape: 96 320 2 2 (122880)
I0312 14:38:46.452322 10732 layer_factory.hpp:78] Creating layer inception_5a/relu_3x3
I0312 14:38:46.452337 10732 net.cpp:68] Creating Layer inception_5a/relu_3x3
I0312 14:38:46.452350 10732 net.cpp:395] inception_5a/relu_3x3 <- inception_5a/3x3/bn
I0312 14:38:46.452363 10732 net.cpp:346] inception_5a/relu_3x3 -> inception_5a/3x3/bn (in-place)
I0312 14:38:46.452378 10732 net.cpp:97] Setting up inception_5a/relu_3x3
I0312 14:38:46.452392 10732 net.cpp:104] Top shape: 96 320 2 2 (122880)
I0312 14:38:46.452404 10732 layer_factory.hpp:78] Creating layer inception_5a/5x5_reduce
I0312 14:38:46.452422 10732 net.cpp:68] Creating Layer inception_5a/5x5_reduce
I0312 14:38:46.452435 10732 net.cpp:395] inception_5a/5x5_reduce <- pool4/3x3_s2_pool4/3x3_s2_0_split_2
I0312 14:38:46.452450 10732 net.cpp:357] inception_5a/5x5_reduce -> inception_5a/5x5_reduce
I0312 14:38:46.452464 10732 net.cpp:97] Setting up inception_5a/5x5_reduce
I0312 14:38:46.452811 10732 net.cpp:104] Top shape: 96 32 2 2 (12288)
I0312 14:38:46.452836 10732 layer_factory.hpp:78] Creating layer inception_5a/5x5_reduce/bn
I0312 14:38:46.452854 10732 net.cpp:68] Creating Layer inception_5a/5x5_reduce/bn
I0312 14:38:46.452874 10732 net.cpp:395] inception_5a/5x5_reduce/bn <- inception_5a/5x5_reduce
I0312 14:38:46.452890 10732 net.cpp:357] inception_5a/5x5_reduce/bn -> inception_5a/5x5_reduce/bn
I0312 14:38:46.452906 10732 net.cpp:97] Setting up inception_5a/5x5_reduce/bn
I0312 14:38:46.452929 10732 net.cpp:104] Top shape: 96 32 2 2 (12288)
I0312 14:38:46.452949 10732 layer_factory.hpp:78] Creating layer inception_5a/relu_5x5_reduce
I0312 14:38:46.452963 10732 net.cpp:68] Creating Layer inception_5a/relu_5x5_reduce
I0312 14:38:46.452975 10732 net.cpp:395] inception_5a/relu_5x5_reduce <- inception_5a/5x5_reduce/bn
I0312 14:38:46.452989 10732 net.cpp:346] inception_5a/relu_5x5_reduce -> inception_5a/5x5_reduce/bn (in-place)
I0312 14:38:46.453003 10732 net.cpp:97] Setting up inception_5a/relu_5x5_reduce
I0312 14:38:46.453018 10732 net.cpp:104] Top shape: 96 32 2 2 (12288)
I0312 14:38:46.453030 10732 layer_factory.hpp:78] Creating layer inception_5a/5x5
I0312 14:38:46.453054 10732 net.cpp:68] Creating Layer inception_5a/5x5
I0312 14:38:46.453068 10732 net.cpp:395] inception_5a/5x5 <- inception_5a/5x5_reduce/bn
I0312 14:38:46.453081 10732 net.cpp:357] inception_5a/5x5 -> inception_5a/5x5
I0312 14:38:46.453096 10732 net.cpp:97] Setting up inception_5a/5x5
I0312 14:38:46.454290 10732 net.cpp:104] Top shape: 96 128 2 2 (49152)
I0312 14:38:46.454316 10732 layer_factory.hpp:78] Creating layer inception_5a/5x5/bn
I0312 14:38:46.454334 10732 net.cpp:68] Creating Layer inception_5a/5x5/bn
I0312 14:38:46.454346 10732 net.cpp:395] inception_5a/5x5/bn <- inception_5a/5x5
I0312 14:38:46.454366 10732 net.cpp:357] inception_5a/5x5/bn -> inception_5a/5x5/bn
I0312 14:38:46.454383 10732 net.cpp:97] Setting up inception_5a/5x5/bn
I0312 14:38:46.454404 10732 net.cpp:104] Top shape: 96 128 2 2 (49152)
I0312 14:38:46.454419 10732 layer_factory.hpp:78] Creating layer inception_5a/relu_5x5
I0312 14:38:46.454437 10732 net.cpp:68] Creating Layer inception_5a/relu_5x5
I0312 14:38:46.454449 10732 net.cpp:395] inception_5a/relu_5x5 <- inception_5a/5x5/bn
I0312 14:38:46.454463 10732 net.cpp:346] inception_5a/relu_5x5 -> inception_5a/5x5/bn (in-place)
I0312 14:38:46.454476 10732 net.cpp:97] Setting up inception_5a/relu_5x5
I0312 14:38:46.454491 10732 net.cpp:104] Top shape: 96 128 2 2 (49152)
I0312 14:38:46.454504 10732 layer_factory.hpp:78] Creating layer inception_5a/pool
I0312 14:38:46.454515 10732 layer_factory.cpp:51] CUDNN does not support padding or multiple tops. Using Caffe's own pooling layer.
I0312 14:38:46.454531 10732 net.cpp:68] Creating Layer inception_5a/pool
I0312 14:38:46.454545 10732 net.cpp:395] inception_5a/pool <- pool4/3x3_s2_pool4/3x3_s2_0_split_3
I0312 14:38:46.454558 10732 net.cpp:357] inception_5a/pool -> inception_5a/pool
I0312 14:38:46.454573 10732 net.cpp:97] Setting up inception_5a/pool
I0312 14:38:46.454604 10732 net.cpp:104] Top shape: 96 832 2 2 (319488)
I0312 14:38:46.454618 10732 layer_factory.hpp:78] Creating layer inception_5a/pool_proj
I0312 14:38:46.454633 10732 net.cpp:68] Creating Layer inception_5a/pool_proj
I0312 14:38:46.454646 10732 net.cpp:395] inception_5a/pool_proj <- inception_5a/pool
I0312 14:38:46.454663 10732 net.cpp:357] inception_5a/pool_proj -> inception_5a/pool_proj
I0312 14:38:46.454679 10732 net.cpp:97] Setting up inception_5a/pool_proj
I0312 14:38:46.455835 10732 net.cpp:104] Top shape: 96 128 2 2 (49152)
I0312 14:38:46.455864 10732 layer_factory.hpp:78] Creating layer inception_5a/pool_proj/bn
I0312 14:38:46.455883 10732 net.cpp:68] Creating Layer inception_5a/pool_proj/bn
I0312 14:38:46.455898 10732 net.cpp:395] inception_5a/pool_proj/bn <- inception_5a/pool_proj
I0312 14:38:46.455914 10732 net.cpp:357] inception_5a/pool_proj/bn -> inception_5a/pool_proj/bn
I0312 14:38:46.455931 10732 net.cpp:97] Setting up inception_5a/pool_proj/bn
I0312 14:38:46.455952 10732 net.cpp:104] Top shape: 96 128 2 2 (49152)
I0312 14:38:46.455967 10732 layer_factory.hpp:78] Creating layer inception_5a/relu_pool_proj
I0312 14:38:46.455984 10732 net.cpp:68] Creating Layer inception_5a/relu_pool_proj
I0312 14:38:46.455996 10732 net.cpp:395] inception_5a/relu_pool_proj <- inception_5a/pool_proj/bn
I0312 14:38:46.456010 10732 net.cpp:346] inception_5a/relu_pool_proj -> inception_5a/pool_proj/bn (in-place)
I0312 14:38:46.456024 10732 net.cpp:97] Setting up inception_5a/relu_pool_proj
I0312 14:38:46.456039 10732 net.cpp:104] Top shape: 96 128 2 2 (49152)
I0312 14:38:46.456053 10732 layer_factory.hpp:78] Creating layer inception_5a/output
I0312 14:38:46.456066 10732 net.cpp:68] Creating Layer inception_5a/output
I0312 14:38:46.456079 10732 net.cpp:395] inception_5a/output <- inception_5a/1x1/bn
I0312 14:38:46.456094 10732 net.cpp:395] inception_5a/output <- inception_5a/3x3/bn
I0312 14:38:46.456110 10732 net.cpp:395] inception_5a/output <- inception_5a/5x5/bn
I0312 14:38:46.456123 10732 net.cpp:395] inception_5a/output <- inception_5a/pool_proj/bn
I0312 14:38:46.456137 10732 net.cpp:357] inception_5a/output -> inception_5a/output
I0312 14:38:46.456152 10732 net.cpp:97] Setting up inception_5a/output
I0312 14:38:46.456164 10732 net.cpp:104] Top shape: 96 832 2 2 (319488)
I0312 14:38:46.456176 10732 layer_factory.hpp:78] Creating layer inception_5a/output_inception_5a/output_0_split
I0312 14:38:46.456190 10732 net.cpp:68] Creating Layer inception_5a/output_inception_5a/output_0_split
I0312 14:38:46.456202 10732 net.cpp:395] inception_5a/output_inception_5a/output_0_split <- inception_5a/output
I0312 14:38:46.456217 10732 net.cpp:357] inception_5a/output_inception_5a/output_0_split -> inception_5a/output_inception_5a/output_0_split_0
I0312 14:38:46.456233 10732 net.cpp:357] inception_5a/output_inception_5a/output_0_split -> inception_5a/output_inception_5a/output_0_split_1
I0312 14:38:46.456251 10732 net.cpp:357] inception_5a/output_inception_5a/output_0_split -> inception_5a/output_inception_5a/output_0_split_2
I0312 14:38:46.456269 10732 net.cpp:357] inception_5a/output_inception_5a/output_0_split -> inception_5a/output_inception_5a/output_0_split_3
I0312 14:38:46.456284 10732 net.cpp:97] Setting up inception_5a/output_inception_5a/output_0_split
I0312 14:38:46.456296 10732 net.cpp:104] Top shape: 96 832 2 2 (319488)
I0312 14:38:46.456307 10732 net.cpp:104] Top shape: 96 832 2 2 (319488)
I0312 14:38:46.456318 10732 net.cpp:104] Top shape: 96 832 2 2 (319488)
I0312 14:38:46.456329 10732 net.cpp:104] Top shape: 96 832 2 2 (319488)
I0312 14:38:46.456341 10732 layer_factory.hpp:78] Creating layer inception_5b/1x1
I0312 14:38:46.456358 10732 net.cpp:68] Creating Layer inception_5b/1x1
I0312 14:38:46.456372 10732 net.cpp:395] inception_5b/1x1 <- inception_5a/output_inception_5a/output_0_split_0
I0312 14:38:46.456385 10732 net.cpp:357] inception_5b/1x1 -> inception_5b/1x1
I0312 14:38:46.456400 10732 net.cpp:97] Setting up inception_5b/1x1
I0312 14:38:46.459998 10732 net.cpp:104] Top shape: 96 384 2 2 (147456)
I0312 14:38:46.460046 10732 layer_factory.hpp:78] Creating layer inception_5b/1x1/bn
I0312 14:38:46.460067 10732 net.cpp:68] Creating Layer inception_5b/1x1/bn
I0312 14:38:46.460080 10732 net.cpp:395] inception_5b/1x1/bn <- inception_5b/1x1
I0312 14:38:46.460098 10732 net.cpp:357] inception_5b/1x1/bn -> inception_5b/1x1/bn
I0312 14:38:46.460114 10732 net.cpp:97] Setting up inception_5b/1x1/bn
I0312 14:38:46.460135 10732 net.cpp:104] Top shape: 96 384 2 2 (147456)
I0312 14:38:46.460151 10732 layer_factory.hpp:78] Creating layer inception_5b/relu_1x1
I0312 14:38:46.460167 10732 net.cpp:68] Creating Layer inception_5b/relu_1x1
I0312 14:38:46.460180 10732 net.cpp:395] inception_5b/relu_1x1 <- inception_5b/1x1/bn
I0312 14:38:46.460193 10732 net.cpp:346] inception_5b/relu_1x1 -> inception_5b/1x1/bn (in-place)
I0312 14:38:46.460208 10732 net.cpp:97] Setting up inception_5b/relu_1x1
I0312 14:38:46.460223 10732 net.cpp:104] Top shape: 96 384 2 2 (147456)
I0312 14:38:46.460235 10732 layer_factory.hpp:78] Creating layer inception_5b/3x3_reduce
I0312 14:38:46.460250 10732 net.cpp:68] Creating Layer inception_5b/3x3_reduce
I0312 14:38:46.460263 10732 net.cpp:395] inception_5b/3x3_reduce <- inception_5a/output_inception_5a/output_0_split_1
I0312 14:38:46.460276 10732 net.cpp:357] inception_5b/3x3_reduce -> inception_5b/3x3_reduce
I0312 14:38:46.460293 10732 net.cpp:97] Setting up inception_5b/3x3_reduce
I0312 14:38:46.462127 10732 net.cpp:104] Top shape: 96 192 2 2 (73728)
I0312 14:38:46.462157 10732 layer_factory.hpp:78] Creating layer inception_5b/3x3_reduce/bn
I0312 14:38:46.462193 10732 net.cpp:68] Creating Layer inception_5b/3x3_reduce/bn
I0312 14:38:46.462206 10732 net.cpp:395] inception_5b/3x3_reduce/bn <- inception_5b/3x3_reduce
I0312 14:38:46.462221 10732 net.cpp:357] inception_5b/3x3_reduce/bn -> inception_5b/3x3_reduce/bn
I0312 14:38:46.462239 10732 net.cpp:97] Setting up inception_5b/3x3_reduce/bn
I0312 14:38:46.462261 10732 net.cpp:104] Top shape: 96 192 2 2 (73728)
I0312 14:38:46.462277 10732 layer_factory.hpp:78] Creating layer inception_5b/relu_3x3_reduce
I0312 14:38:46.462294 10732 net.cpp:68] Creating Layer inception_5b/relu_3x3_reduce
I0312 14:38:46.462307 10732 net.cpp:395] inception_5b/relu_3x3_reduce <- inception_5b/3x3_reduce/bn
I0312 14:38:46.462321 10732 net.cpp:346] inception_5b/relu_3x3_reduce -> inception_5b/3x3_reduce/bn (in-place)
I0312 14:38:46.462337 10732 net.cpp:97] Setting up inception_5b/relu_3x3_reduce
I0312 14:38:46.462353 10732 net.cpp:104] Top shape: 96 192 2 2 (73728)
I0312 14:38:46.462366 10732 layer_factory.hpp:78] Creating layer inception_5b/3x3
I0312 14:38:46.462384 10732 net.cpp:68] Creating Layer inception_5b/3x3
I0312 14:38:46.462398 10732 net.cpp:395] inception_5b/3x3 <- inception_5b/3x3_reduce/bn
I0312 14:38:46.462411 10732 net.cpp:357] inception_5b/3x3 -> inception_5b/3x3
I0312 14:38:46.462426 10732 net.cpp:97] Setting up inception_5b/3x3
I0312 14:38:46.469826 10732 net.cpp:104] Top shape: 96 384 2 2 (147456)
I0312 14:38:46.469866 10732 layer_factory.hpp:78] Creating layer inception_5b/3x3/bn
I0312 14:38:46.469890 10732 net.cpp:68] Creating Layer inception_5b/3x3/bn
I0312 14:38:46.469904 10732 net.cpp:395] inception_5b/3x3/bn <- inception_5b/3x3
I0312 14:38:46.469923 10732 net.cpp:357] inception_5b/3x3/bn -> inception_5b/3x3/bn
I0312 14:38:46.469939 10732 net.cpp:97] Setting up inception_5b/3x3/bn
I0312 14:38:46.469960 10732 net.cpp:104] Top shape: 96 384 2 2 (147456)
I0312 14:38:46.469975 10732 layer_factory.hpp:78] Creating layer inception_5b/relu_3x3
I0312 14:38:46.469992 10732 net.cpp:68] Creating Layer inception_5b/relu_3x3
I0312 14:38:46.470006 10732 net.cpp:395] inception_5b/relu_3x3 <- inception_5b/3x3/bn
I0312 14:38:46.470019 10732 net.cpp:346] inception_5b/relu_3x3 -> inception_5b/3x3/bn (in-place)
I0312 14:38:46.470034 10732 net.cpp:97] Setting up inception_5b/relu_3x3
I0312 14:38:46.470049 10732 net.cpp:104] Top shape: 96 384 2 2 (147456)
I0312 14:38:46.470062 10732 layer_factory.hpp:78] Creating layer inception_5b/5x5_reduce
I0312 14:38:46.470077 10732 net.cpp:68] Creating Layer inception_5b/5x5_reduce
I0312 14:38:46.470119 10732 net.cpp:395] inception_5b/5x5_reduce <- inception_5a/output_inception_5a/output_0_split_2
I0312 14:38:46.470136 10732 net.cpp:357] inception_5b/5x5_reduce -> inception_5b/5x5_reduce
I0312 14:38:46.470154 10732 net.cpp:97] Setting up inception_5b/5x5_reduce
I0312 14:38:46.470662 10732 net.cpp:104] Top shape: 96 48 2 2 (18432)
I0312 14:38:46.470692 10732 layer_factory.hpp:78] Creating layer inception_5b/5x5_reduce/bn
I0312 14:38:46.470721 10732 net.cpp:68] Creating Layer inception_5b/5x5_reduce/bn
I0312 14:38:46.470741 10732 net.cpp:395] inception_5b/5x5_reduce/bn <- inception_5b/5x5_reduce
I0312 14:38:46.470758 10732 net.cpp:357] inception_5b/5x5_reduce/bn -> inception_5b/5x5_reduce/bn
I0312 14:38:46.470774 10732 net.cpp:97] Setting up inception_5b/5x5_reduce/bn
I0312 14:38:46.470795 10732 net.cpp:104] Top shape: 96 48 2 2 (18432)
I0312 14:38:46.470810 10732 layer_factory.hpp:78] Creating layer inception_5b/relu_5x5_reduce
I0312 14:38:46.470825 10732 net.cpp:68] Creating Layer inception_5b/relu_5x5_reduce
I0312 14:38:46.470837 10732 net.cpp:395] inception_5b/relu_5x5_reduce <- inception_5b/5x5_reduce/bn
I0312 14:38:46.470854 10732 net.cpp:346] inception_5b/relu_5x5_reduce -> inception_5b/5x5_reduce/bn (in-place)
I0312 14:38:46.470868 10732 net.cpp:97] Setting up inception_5b/relu_5x5_reduce
I0312 14:38:46.470885 10732 net.cpp:104] Top shape: 96 48 2 2 (18432)
I0312 14:38:46.470896 10732 layer_factory.hpp:78] Creating layer inception_5b/5x5
I0312 14:38:46.470912 10732 net.cpp:68] Creating Layer inception_5b/5x5
I0312 14:38:46.470924 10732 net.cpp:395] inception_5b/5x5 <- inception_5b/5x5_reduce/bn
I0312 14:38:46.470942 10732 net.cpp:357] inception_5b/5x5 -> inception_5b/5x5
I0312 14:38:46.470962 10732 net.cpp:97] Setting up inception_5b/5x5
I0312 14:38:46.472708 10732 net.cpp:104] Top shape: 96 128 2 2 (49152)
I0312 14:38:46.472735 10732 layer_factory.hpp:78] Creating layer inception_5b/5x5/bn
I0312 14:38:46.472755 10732 net.cpp:68] Creating Layer inception_5b/5x5/bn
I0312 14:38:46.472769 10732 net.cpp:395] inception_5b/5x5/bn <- inception_5b/5x5
I0312 14:38:46.472784 10732 net.cpp:357] inception_5b/5x5/bn -> inception_5b/5x5/bn
I0312 14:38:46.472807 10732 net.cpp:97] Setting up inception_5b/5x5/bn
I0312 14:38:46.472829 10732 net.cpp:104] Top shape: 96 128 2 2 (49152)
I0312 14:38:46.472847 10732 layer_factory.hpp:78] Creating layer inception_5b/relu_5x5
I0312 14:38:46.472873 10732 net.cpp:68] Creating Layer inception_5b/relu_5x5
I0312 14:38:46.472887 10732 net.cpp:395] inception_5b/relu_5x5 <- inception_5b/5x5/bn
I0312 14:38:46.472903 10732 net.cpp:346] inception_5b/relu_5x5 -> inception_5b/5x5/bn (in-place)
I0312 14:38:46.472918 10732 net.cpp:97] Setting up inception_5b/relu_5x5
I0312 14:38:46.472939 10732 net.cpp:104] Top shape: 96 128 2 2 (49152)
I0312 14:38:46.472950 10732 layer_factory.hpp:78] Creating layer inception_5b/pool
I0312 14:38:46.472964 10732 layer_factory.cpp:51] CUDNN does not support padding or multiple tops. Using Caffe's own pooling layer.
I0312 14:38:46.472976 10732 net.cpp:68] Creating Layer inception_5b/pool
I0312 14:38:46.472988 10732 net.cpp:395] inception_5b/pool <- inception_5a/output_inception_5a/output_0_split_3
I0312 14:38:46.473006 10732 net.cpp:357] inception_5b/pool -> inception_5b/pool
I0312 14:38:46.473021 10732 net.cpp:97] Setting up inception_5b/pool
I0312 14:38:46.473037 10732 net.cpp:104] Top shape: 96 832 2 2 (319488)
I0312 14:38:46.473048 10732 layer_factory.hpp:78] Creating layer inception_5b/pool_proj
I0312 14:38:46.473063 10732 net.cpp:68] Creating Layer inception_5b/pool_proj
I0312 14:38:46.473075 10732 net.cpp:395] inception_5b/pool_proj <- inception_5b/pool
I0312 14:38:46.473093 10732 net.cpp:357] inception_5b/pool_proj -> inception_5b/pool_proj
…
I0312 14:38:46.549255 10732 net.cpp:68] Creating Layer inception_4d/5x5_reduce/bn
I0312 14:38:46.549268 10732 net.cpp:395] inception_4d/5x5_reduce/bn <- inception_4d/5x5_reduce
I0312 14:38:46.549288 10732 net.cpp:357] inception_4d/5x5_reduce/bn -> inception_4d/5x5_reduce/bn
I0312 14:38:46.549304 10732 net.cpp:97] Setting up inception_4d/5x5_reduce/bn
I0312 14:38:46.549325 10732 net.cpp:104] Top shape: 32 32 5 5 (25600)
I0312 14:38:46.549340 10732 layer_factory.hpp:78] Creating layer inception_4d/relu_5x5_reduce
I0312 14:38:46.549355 10732 net.cpp:68] Creating Layer inception_4d/relu_5x5_reduce
I0312 14:38:46.549368 10732 net.cpp:395] inception_4d/relu_5x5_reduce <- inception_4d/5x5_reduce/bn
I0312 14:38:46.549382 10732 net.cpp:346] inception_4d/relu_5x5_reduce -> inception_4d/5x5_reduce/bn (in-place)
I0312 14:38:46.549396 10732 net.cpp:97] Setting up inception_4d/relu_5x5_reduce
I0312 14:38:46.549412 10732 net.cpp:104] Top shape: 32 32 5 5 (25600)
I0312 14:38:46.549443 10732 layer_factory.hpp:78] Creating layer inception_4d/5x5
I0312 14:38:46.549465 10732 net.cpp:68] Creating Layer inception_4d/5x5
I0312 14:38:46.549479 10732 net.cpp:395] inception_4d/5x5 <- inception_4d/5x5_reduce/bn
I0312 14:38:46.549495 10732 net.cpp:357] inception_4d/5x5 -> inception_4d/5x5
I0312 14:38:46.549511 10732 net.cpp:97] Setting up inception_4d/5x5
I0312 14:38:46.550110 10732 net.cpp:104] Top shape: 32 64 5 5 (51200)
I0312 14:38:46.550137 10732 layer_factory.hpp:78] Creating layer inception_4d/5x5/bn
I0312 14:38:46.550155 10732 net.cpp:68] Creating Layer inception_4d/5x5/bn
I0312 14:38:46.550168 10732 net.cpp:395] inception_4d/5x5/bn <- inception_4d/5x5
I0312 14:38:46.550182 10732 net.cpp:357] inception_4d/5x5/bn -> inception_4d/5x5/bn
I0312 14:38:46.550199 10732 net.cpp:97] Setting up inception_4d/5x5/bn
I0312 14:38:46.550220 10732 net.cpp:104] Top shape: 32 64 5 5 (51200)
I0312 14:38:46.550235 10732 layer_factory.hpp:78] Creating layer inception_4d/relu_5x5
I0312 14:38:46.550250 10732 net.cpp:68] Creating Layer inception_4d/relu_5x5
I0312 14:38:46.550261 10732 net.cpp:395] inception_4d/relu_5x5 <- inception_4d/5x5/bn
I0312 14:38:46.550274 10732 net.cpp:346] inception_4d/relu_5x5 -> inception_4d/5x5/bn (in-place)
I0312 14:38:46.550287 10732 net.cpp:97] Setting up inception_4d/relu_5x5
I0312 14:38:46.550302 10732 net.cpp:104] Top shape: 32 64 5 5 (51200)
I0312 14:38:46.550317 10732 layer_factory.hpp:78] Creating layer inception_4d/pool
I0312 14:38:46.550329 10732 layer_factory.cpp:51] CUDNN does not support padding or multiple tops. Using Caffe's own pooling layer.
I0312 14:38:46.550344 10732 net.cpp:68] Creating Layer inception_4d/pool
I0312 14:38:46.550357 10732 net.cpp:395] inception_4d/pool <- inception_4c/output_inception_4c/output_0_split_3
I0312 14:38:46.550374 10732 net.cpp:357] inception_4d/pool -> inception_4d/pool
I0312 14:38:46.550390 10732 net.cpp:97] Setting up inception_4d/pool
I0312 14:38:46.550403 10732 net.cpp:104] Top shape: 32 512 5 5 (409600)
I0312 14:38:46.550415 10732 layer_factory.hpp:78] Creating layer inception_4d/pool_proj
I0312 14:38:46.550431 10732 net.cpp:68] Creating Layer inception_4d/pool_proj
I0312 14:38:46.550444 10732 net.cpp:395] inception_4d/pool_proj <- inception_4d/pool
I0312 14:38:46.550458 10732 net.cpp:357] inception_4d/pool_proj -> inception_4d/pool_proj
I0312 14:38:46.550473 10732 net.cpp:97] Setting up inception_4d/pool_proj
I0312 14:38:46.551033 10732 net.cpp:104] Top shape: 32 64 5 5 (51200)
I0312 14:38:46.551062 10732 layer_factory.hpp:78] Creating layer inception_4d/pool_proj/bn
I0312 14:38:46.551079 10732 net.cpp:68] Creating Layer inception_4d/pool_proj/bn
I0312 14:38:46.551091 10732 net.cpp:395] inception_4d/pool_proj/bn <- inception_4d/pool_proj
I0312 14:38:46.551108 10732 net.cpp:357] inception_4d/pool_proj/bn -> inception_4d/pool_proj/bn
I0312 14:38:46.551126 10732 net.cpp:97] Setting up inception_4d/pool_proj/bn
I0312 14:38:46.551146 10732 net.cpp:104] Top shape: 32 64 5 5 (51200)
I0312 14:38:46.551162 10732 layer_factory.hpp:78] Creating layer inception_4d/relu_pool_proj
I0312 14:38:46.551174 10732 net.cpp:68] Creating Layer inception_4d/relu_pool_proj
I0312 14:38:46.551187 10732 net.cpp:395] inception_4d/relu_pool_proj <- inception_4d/pool_proj/bn
I0312 14:38:46.551201 10732 net.cpp:346] inception_4d/relu_pool_proj -> inception_4d/pool_proj/bn (in-place)
I0312 14:38:46.551218 10732 net.cpp:97] Setting up inception_4d/relu_pool_proj
I0312 14:38:46.551233 10732 net.cpp:104] Top shape: 32 64 5 5 (51200)
I0312 14:38:46.551244 10732 layer_factory.hpp:78] Creating layer inception_4d/output
I0312 14:38:46.551257 10732 net.cpp:68] Creating Layer inception_4d/output
I0312 14:38:46.551270 10732 net.cpp:395] inception_4d/output <- inception_4d/1x1/bn
I0312 14:38:46.551281 10732 net.cpp:395] inception_4d/output <- inception_4d/3x3/bn
I0312 14:38:46.551295 10732 net.cpp:395] inception_4d/output <- inception_4d/5x5/bn
I0312 14:38:46.551306 10732 net.cpp:395] inception_4d/output <- inception_4d/pool_proj/bn
I0312 14:38:46.551319 10732 net.cpp:357] inception_4d/output -> inception_4d/output
I0312 14:38:46.551355 10732 net.cpp:97] Setting up inception_4d/output
I0312 14:38:46.551369 10732 net.cpp:104] Top shape: 32 528 5 5 (422400)
I0312 14:38:46.551381 10732 layer_factory.hpp:78] Creating layer inception_4d/output_inception_4d/output_0_split
I0312 14:38:46.551398 10732 net.cpp:68] Creating Layer inception_4d/output_inception_4d/output_0_split
I0312 14:38:46.551410 10732 net.cpp:395] inception_4d/output_inception_4d/output_0_split <- inception_4d/output
I0312 14:38:46.551424 10732 net.cpp:357] inception_4d/output_inception_4d/output_0_split -> inception_4d/output_inception_4d/output_0_split_0
I0312 14:38:46.551440 10732 net.cpp:357] inception_4d/output_inception_4d/output_0_split -> inception_4d/output_inception_4d/output_0_split_1
I0312 14:38:46.551457 10732 net.cpp:357] inception_4d/output_inception_4d/output_0_split -> inception_4d/output_inception_4d/output_0_split_2
I0312 14:38:46.551473 10732 net.cpp:357] inception_4d/output_inception_4d/output_0_split -> inception_4d/output_inception_4d/output_0_split_3
I0312 14:38:46.551488 10732 net.cpp:357] inception_4d/output_inception_4d/output_0_split -> inception_4d/output_inception_4d/output_0_split_4
I0312 14:38:46.551503 10732 net.cpp:97] Setting up inception_4d/output_inception_4d/output_0_split
I0312 14:38:46.551518 10732 net.cpp:104] Top shape: 32 528 5 5 (422400)
I0312 14:38:46.551530 10732 net.cpp:104] Top shape: 32 528 5 5 (422400)
I0312 14:38:46.551542 10732 net.cpp:104] Top shape: 32 528 5 5 (422400)
I0312 14:38:46.551553 10732 net.cpp:104] Top shape: 32 528 5 5 (422400)
I0312 14:38:46.551563 10732 net.cpp:104] Top shape: 32 528 5 5 (422400)
I0312 14:38:46.551574 10732 layer_factory.hpp:78] Creating layer loss2/ave_pool
I0312 14:38:46.551589 10732 net.cpp:68] Creating Layer loss2/ave_pool
I0312 14:38:46.551600 10732 net.cpp:395] loss2/ave_pool <- inception_4d/output_inception_4d/output_0_split_0
I0312 14:38:46.551617 10732 net.cpp:357] loss2/ave_pool -> loss2/ave_pool
I0312 14:38:46.551633 10732 net.cpp:97] Setting up loss2/ave_pool
I0312 14:38:46.551650 10732 net.cpp:104] Top shape: 32 528 1 1 (16896)
I0312 14:38:46.551662 10732 layer_factory.hpp:78] Creating layer loss2/conv
I0312 14:38:46.551676 10732 net.cpp:68] Creating Layer loss2/conv
I0312 14:38:46.551688 10732 net.cpp:395] loss2/conv <- loss2/ave_pool
I0312 14:38:46.551705 10732 net.cpp:357] loss2/conv -> loss2/conv
I0312 14:38:46.551722 10732 net.cpp:97] Setting up loss2/conv
I0312 14:38:46.552522 10732 net.cpp:104] Top shape: 32 128 1 1 (4096)
I0312 14:38:46.552548 10732 layer_factory.hpp:78] Creating layer loss2/conv/bn
I0312 14:38:46.552567 10732 net.cpp:68] Creating Layer loss2/conv/bn
I0312 14:38:46.552579 10732 net.cpp:395] loss2/conv/bn <- loss2/conv
I0312 14:38:46.552594 10732 net.cpp:357] loss2/conv/bn -> loss2/conv/bn
I0312 14:38:46.552609 10732 net.cpp:97] Setting up loss2/conv/bn
I0312 14:38:46.552633 10732 net.cpp:104] Top shape: 32 128 1 1 (4096)
I0312 14:38:46.552649 10732 layer_factory.hpp:78] Creating layer loss2/relu_conv
I0312 14:38:46.552662 10732 net.cpp:68] Creating Layer loss2/relu_conv
I0312 14:38:46.552677 10732 net.cpp:395] loss2/relu_conv <- loss2/conv/bn
I0312 14:38:46.552693 10732 net.cpp:346] loss2/relu_conv -> loss2/conv/bn (in-place)
I0312 14:38:46.552708 10732 net.cpp:97] Setting up loss2/relu_conv
I0312 14:38:46.552724 10732 net.cpp:104] Top shape: 32 128 1 1 (4096)
I0312 14:38:46.552736 10732 layer_factory.hpp:78] Creating layer loss2/fc
I0312 14:38:46.552750 10732 net.cpp:68] Creating Layer loss2/fc
I0312 14:38:46.552762 10732 net.cpp:395] loss2/fc <- loss2/conv/bn
I0312 14:38:46.552778 10732 net.cpp:357] loss2/fc -> loss2/fc
I0312 14:38:46.552794 10732 net.cpp:97] Setting up loss2/fc
I0312 14:38:46.554146 10732 net.cpp:104] Top shape: 32 1024 1 1 (32768)
I0312 14:38:46.554169 10732 layer_factory.hpp:78] Creating layer loss2/fc/bn
I0312 14:38:46.554185 10732 net.cpp:68] Creating Layer loss2/fc/bn
I0312 14:38:46.554196 10732 net.cpp:395] loss2/fc/bn <- loss2/fc
I0312 14:38:46.554214 10732 net.cpp:357] loss2/fc/bn -> loss2/fc/bn
I0312 14:38:46.554247 10732 net.cpp:97] Setting up loss2/fc/bn
I0312 14:38:46.554278 10732 net.cpp:104] Top shape: 32 1024 1 1 (32768)
I0312 14:38:46.554296 10732 layer_factory.hpp:78] Creating layer loss2/relu_fc
I0312 14:38:46.554308 10732 net.cpp:68] Creating Layer loss2/relu_fc
I0312 14:38:46.554322 10732 net.cpp:395] loss2/relu_fc <- loss2/fc/bn
I0312 14:38:46.554339 10732 net.cpp:346] loss2/relu_fc -> loss2/fc/bn (in-place)
I0312 14:38:46.554353 10732 net.cpp:97] Setting up loss2/relu_fc
I0312 14:38:46.554371 10732 net.cpp:104] Top shape: 32 1024 1 1 (32768)
I0312 14:38:46.554384 10732 layer_factory.hpp:78] Creating layer loss2/drop_fc
I0312 14:38:46.554399 10732 net.cpp:68] Creating Layer loss2/drop_fc
I0312 14:38:46.554410 10732 net.cpp:395] loss2/drop_fc <- loss2/fc/bn
I0312 14:38:46.554426 10732 net.cpp:346] loss2/drop_fc -> loss2/fc/bn (in-place)
I0312 14:38:46.554445 10732 net.cpp:97] Setting up loss2/drop_fc
I0312 14:38:46.554458 10732 net.cpp:104] Top shape: 32 1024 1 1 (32768)
I0312 14:38:46.554469 10732 layer_factory.hpp:78] Creating layer loss2/classifier
I0312 14:38:46.554483 10732 net.cpp:68] Creating Layer loss2/classifier
I0312 14:38:46.554494 10732 net.cpp:395] loss2/classifier <- loss2/fc/bn
I0312 14:38:46.554507 10732 net.cpp:357] loss2/classifier -> loss2/classifier
I0312 14:38:46.554522 10732 net.cpp:97] Setting up loss2/classifier
I0312 14:38:46.555794 10732 net.cpp:104] Top shape: 32 121 1 1 (3872)
I0312 14:38:46.555816 10732 layer_factory.hpp:78] Creating layer loss2/classifier_loss2/classifier_0_split
I0312 14:38:46.555831 10732 net.cpp:68] Creating Layer loss2/classifier_loss2/classifier_0_split
I0312 14:38:46.555843 10732 net.cpp:395] loss2/classifier_loss2/classifier_0_split <- loss2/classifier
I0312 14:38:46.555860 10732 net.cpp:357] loss2/classifier_loss2/classifier_0_split -> loss2/classifier_loss2/classifier_0_split_0
I0312 14:38:46.555876 10732 net.cpp:357] loss2/classifier_loss2/classifier_0_split -> loss2/classifier_loss2/classifier_0_split_1
I0312 14:38:46.555892 10732 net.cpp:97] Setting up loss2/classifier_loss2/classifier_0_split
I0312 14:38:46.555905 10732 net.cpp:104] Top shape: 32 121 1 1 (3872)
I0312 14:38:46.555917 10732 net.cpp:104] Top shape: 32 121 1 1 (3872)
I0312 14:38:46.555930 10732 layer_factory.hpp:78] Creating layer loss2/loss
I0312 14:38:46.555945 10732 net.cpp:68] Creating Layer loss2/loss
I0312 14:38:46.555956 10732 net.cpp:395] loss2/loss <- loss2/classifier_loss2/classifier_0_split_0
I0312 14:38:46.555969 10732 net.cpp:395] loss2/loss <- label_data_1_split_2
I0312 14:38:46.555985 10732 net.cpp:357] loss2/loss -> loss2/loss1
I0312 14:38:46.556000 10732 net.cpp:97] Setting up loss2/loss
I0312 14:38:46.556015 10732 layer_factory.hpp:78] Creating layer loss2/loss
I0312 14:38:46.556051 10732 net.cpp:104] Top shape: 1 1 1 1 (1)
I0312 14:38:46.556066 10732 net.cpp:110]     with loss weight 0.05
I0312 14:38:46.556087 10732 layer_factory.hpp:78] Creating layer loss2/top-1
I0312 14:38:46.556104 10732 net.cpp:68] Creating Layer loss2/top-1
I0312 14:38:46.556118 10732 net.cpp:395] loss2/top-1 <- loss2/classifier_loss2/classifier_0_split_1
I0312 14:38:46.556133 10732 net.cpp:395] loss2/top-1 <- label_data_1_split_3
I0312 14:38:46.556148 10732 net.cpp:357] loss2/top-1 -> loss2/top-1
I0312 14:38:46.556162 10732 net.cpp:97] Setting up loss2/top-1
I0312 14:38:46.556179 10732 net.cpp:104] Top shape: 1 1 1 1 (1)
I0312 14:38:46.556190 10732 layer_factory.hpp:78] Creating layer inception_4e/1x1
I0312 14:38:46.556205 10732 net.cpp:68] Creating Layer inception_4e/1x1
I0312 14:38:46.556216 10732 net.cpp:395] inception_4e/1x1 <- inception_4d/output_inception_4d/output_0_split_1
I0312 14:38:46.556232 10732 net.cpp:357] inception_4e/1x1 -> inception_4e/1x1
I0312 14:38:46.556249 10732 net.cpp:97] Setting up inception_4e/1x1
I0312 14:38:46.557736 10732 net.cpp:104] Top shape: 32 256 5 5 (204800)
I0312 14:38:46.557762 10732 layer_factory.hpp:78] Creating layer inception_4e/1x1/bn
I0312 14:38:46.557781 10732 net.cpp:68] Creating Layer inception_4e/1x1/bn
I0312 14:38:46.557795 10732 net.cpp:395] inception_4e/1x1/bn <- inception_4e/1x1
I0312 14:38:46.557826 10732 net.cpp:357] inception_4e/1x1/bn -> inception_4e/1x1/bn
I0312 14:38:46.557843 10732 net.cpp:97] Setting up inception_4e/1x1/bn
I0312 14:38:46.557868 10732 net.cpp:104] Top shape: 32 256 5 5 (204800)
I0312 14:38:46.557883 10732 layer_factory.hpp:78] Creating layer inception_4e/relu_1x1
I0312 14:38:46.557899 10732 net.cpp:68] Creating Layer inception_4e/relu_1x1
I0312 14:38:46.557912 10732 net.cpp:395] inception_4e/relu_1x1 <- inception_4e/1x1/bn
I0312 14:38:46.557925 10732 net.cpp:346] inception_4e/relu_1x1 -> inception_4e/1x1/bn (in-place)
I0312 14:38:46.557940 10732 net.cpp:97] Setting up inception_4e/relu_1x1
I0312 14:38:46.557955 10732 net.cpp:104] Top shape: 32 256 5 5 (204800)
I0312 14:38:46.557966 10732 layer_factory.hpp:78] Creating layer inception_4e/3x3_reduce
I0312 14:38:46.557983 10732 net.cpp:68] Creating Layer inception_4e/3x3_reduce
I0312 14:38:46.557996 10732 net.cpp:395] inception_4e/3x3_reduce <- inception_4d/output_inception_4d/output_0_split_2
I0312 14:38:46.558010 10732 net.cpp:357] inception_4e/3x3_reduce -> inception_4e/3x3_reduce
I0312 14:38:46.558025 10732 net.cpp:97] Setting up inception_4e/3x3_reduce
I0312 14:38:46.559029 10732 net.cpp:104] Top shape: 32 160 5 5 (128000)
I0312 14:38:46.559054 10732 layer_factory.hpp:78] Creating layer inception_4e/3x3_reduce/bn
I0312 14:38:46.559070 10732 net.cpp:68] Creating Layer inception_4e/3x3_reduce/bn
I0312 14:38:46.559083 10732 net.cpp:395] inception_4e/3x3_reduce/bn <- inception_4e/3x3_reduce
I0312 14:38:46.559100 10732 net.cpp:357] inception_4e/3x3_reduce/bn -> inception_4e/3x3_reduce/bn
I0312 14:38:46.559118 10732 net.cpp:97] Setting up inception_4e/3x3_reduce/bn
I0312 14:38:46.559140 10732 net.cpp:104] Top shape: 32 160 5 5 (128000)
I0312 14:38:46.559155 10732 layer_factory.hpp:78] Creating layer inception_4e/relu_3x3_reduce
I0312 14:38:46.559170 10732 net.cpp:68] Creating Layer inception_4e/relu_3x3_reduce
I0312 14:38:46.559181 10732 net.cpp:395] inception_4e/relu_3x3_reduce <- inception_4e/3x3_reduce/bn
I0312 14:38:46.559195 10732 net.cpp:346] inception_4e/relu_3x3_reduce -> inception_4e/3x3_reduce/bn (in-place)
I0312 14:38:46.559212 10732 net.cpp:97] Setting up inception_4e/relu_3x3_reduce
I0312 14:38:46.559228 10732 net.cpp:104] Top shape: 32 160 5 5 (128000)
I0312 14:38:46.559240 10732 layer_factory.hpp:78] Creating layer inception_4e/3x3
I0312 14:38:46.559254 10732 net.cpp:68] Creating Layer inception_4e/3x3
I0312 14:38:46.559265 10732 net.cpp:395] inception_4e/3x3 <- inception_4e/3x3_reduce/bn
I0312 14:38:46.559279 10732 net.cpp:357] inception_4e/3x3 -> inception_4e/3x3
I0312 14:38:46.559294 10732 net.cpp:97] Setting up inception_4e/3x3
I0312 14:38:46.564436 10732 net.cpp:104] Top shape: 32 320 5 5 (256000)
I0312 14:38:46.564463 10732 layer_factory.hpp:78] Creating layer inception_4e/3x3/bn
I0312 14:38:46.564483 10732 net.cpp:68] Creating Layer inception_4e/3x3/bn
I0312 14:38:46.564496 10732 net.cpp:395] inception_4e/3x3/bn <- inception_4e/3x3
I0312 14:38:46.564512 10732 net.cpp:357] inception_4e/3x3/bn -> inception_4e/3x3/bn
I0312 14:38:46.564527 10732 net.cpp:97] Setting up inception_4e/3x3/bn
I0312 14:38:46.564548 10732 net.cpp:104] Top shape: 32 320 5 5 (256000)
I0312 14:38:46.564563 10732 layer_factory.hpp:78] Creating layer inception_4e/relu_3x3
I0312 14:38:46.564579 10732 net.cpp:68] Creating Layer inception_4e/relu_3x3
I0312 14:38:46.564592 10732 net.cpp:395] inception_4e/relu_3x3 <- inception_4e/3x3/bn
I0312 14:38:46.564605 10732 net.cpp:346] inception_4e/relu_3x3 -> inception_4e/3x3/bn (in-place)
I0312 14:38:46.564618 10732 net.cpp:97] Setting up inception_4e/relu_3x3
I0312 14:38:46.564633 10732 net.cpp:104] Top shape: 32 320 5 5 (256000)
I0312 14:38:46.564648 10732 layer_factory.hpp:78] Creating layer inception_4e/5x5_reduce
I0312 14:38:46.564663 10732 net.cpp:68] Creating Layer inception_4e/5x5_reduce
I0312 14:38:46.564674 10732 net.cpp:395] inception_4e/5x5_reduce <- inception_4d/output_inception_4d/output_0_split_3
I0312 14:38:46.564692 10732 net.cpp:357] inception_4e/5x5_reduce -> inception_4e/5x5_reduce
I0312 14:38:46.564728 10732 net.cpp:97] Setting up inception_4e/5x5_reduce
I0312 14:38:46.565135 10732 net.cpp:104] Top shape: 32 32 5 5 (25600)
I0312 14:38:46.565162 10732 layer_factory.hpp:78] Creating layer inception_4e/5x5_reduce/bn
I0312 14:38:46.565182 10732 net.cpp:68] Creating Layer inception_4e/5x5_reduce/bn
I0312 14:38:46.565197 10732 net.cpp:395] inception_4e/5x5_reduce/bn <- inception_4e/5x5_reduce
I0312 14:38:46.565212 10732 net.cpp:357] inception_4e/5x5_reduce/bn -> inception_4e/5x5_reduce/bn
I0312 14:38:46.565228 10732 net.cpp:97] Setting up inception_4e/5x5_reduce/bn
I0312 14:38:46.565249 10732 net.cpp:104] Top shape: 32 32 5 5 (25600)
I0312 14:38:46.565264 10732 layer_factory.hpp:78] Creating layer inception_4e/relu_5x5_reduce
I0312 14:38:46.565280 10732 net.cpp:68] Creating Layer inception_4e/relu_5x5_reduce
I0312 14:38:46.565292 10732 net.cpp:395] inception_4e/relu_5x5_reduce <- inception_4e/5x5_reduce/bn
I0312 14:38:46.565306 10732 net.cpp:346] inception_4e/relu_5x5_reduce -> inception_4e/5x5_reduce/bn (in-place)
I0312 14:38:46.565325 10732 net.cpp:97] Setting up inception_4e/relu_5x5_reduce
I0312 14:38:46.565340 10732 net.cpp:104] Top shape: 32 32 5 5 (25600)
I0312 14:38:46.565351 10732 layer_factory.hpp:78] Creating layer inception_4e/5x5
I0312 14:38:46.565371 10732 net.cpp:68] Creating Layer inception_4e/5x5
I0312 14:38:46.565384 10732 net.cpp:395] inception_4e/5x5 <- inception_4e/5x5_reduce/bn
I0312 14:38:46.565398 10732 net.cpp:357] inception_4e/5x5 -> inception_4e/5x5
I0312 14:38:46.565414 10732 net.cpp:97] Setting up inception_4e/5x5
I0312 14:38:46.566536 10732 net.cpp:104] Top shape: 32 128 5 5 (102400)
I0312 14:38:46.566561 10732 layer_factory.hpp:78] Creating layer inception_4e/5x5/bn
I0312 14:38:46.566579 10732 net.cpp:68] Creating Layer inception_4e/5x5/bn
I0312 14:38:46.566596 10732 net.cpp:395] inception_4e/5x5/bn <- inception_4e/5x5
I0312 14:38:46.566611 10732 net.cpp:357] inception_4e/5x5/bn -> inception_4e/5x5/bn
I0312 14:38:46.566625 10732 net.cpp:97] Setting up inception_4e/5x5/bn
I0312 14:38:46.566647 10732 net.cpp:104] Top shape: 32 128 5 5 (102400)
I0312 14:38:46.566664 10732 layer_factory.hpp:78] Creating layer inception_4e/relu_5x5
I0312 14:38:46.566679 10732 net.cpp:68] Creating Layer inception_4e/relu_5x5
I0312 14:38:46.566691 10732 net.cpp:395] inception_4e/relu_5x5 <- inception_4e/5x5/bn
I0312 14:38:46.566704 10732 net.cpp:346] inception_4e/relu_5x5 -> inception_4e/5x5/bn (in-place)
I0312 14:38:46.566722 10732 net.cpp:97] Setting up inception_4e/relu_5x5
I0312 14:38:46.566737 10732 net.cpp:104] Top shape: 32 128 5 5 (102400)
I0312 14:38:46.566750 10732 layer_factory.hpp:78] Creating layer inception_4e/pool
I0312 14:38:46.566761 10732 layer_factory.cpp:51] CUDNN does not support padding or multiple tops. Using Caffe's own pooling layer.
I0312 14:38:46.566774 10732 net.cpp:68] Creating Layer inception_4e/pool
I0312 14:38:46.566787 10732 net.cpp:395] inception_4e/pool <- inception_4d/output_inception_4d/output_0_split_4
I0312 14:38:46.566803 10732 net.cpp:357] inception_4e/pool -> inception_4e/pool
I0312 14:38:46.566818 10732 net.cpp:97] Setting up inception_4e/pool
I0312 14:38:46.566833 10732 net.cpp:104] Top shape: 32 528 5 5 (422400)
I0312 14:38:46.566844 10732 layer_factory.hpp:78] Creating layer inception_4e/pool_proj
I0312 14:38:46.566861 10732 net.cpp:68] Creating Layer inception_4e/pool_proj
I0312 14:38:46.566874 10732 net.cpp:395] inception_4e/pool_proj <- inception_4e/pool
I0312 14:38:46.566889 10732 net.cpp:357] inception_4e/pool_proj -> inception_4e/pool_proj
I0312 14:38:46.566903 10732 net.cpp:97] Setting up inception_4e/pool_proj
I0312 14:38:46.567666 10732 net.cpp:104] Top shape: 32 128 5 5 (102400)
I0312 14:38:46.567690 10732 layer_factory.hpp:78] Creating layer inception_4e/pool_proj/bn
I0312 14:38:46.567709 10732 net.cpp:68] Creating Layer inception_4e/pool_proj/bn
I0312 14:38:46.567723 10732 net.cpp:395] inception_4e/pool_proj/bn <- inception_4e/pool_proj
I0312 14:38:46.567737 10732 net.cpp:357] inception_4e/pool_proj/bn -> inception_4e/pool_proj/bn
I0312 14:38:46.567772 10732 net.cpp:97] Setting up inception_4e/pool_proj/bn
I0312 14:38:46.567797 10732 net.cpp:104] Top shape: 32 128 5 5 (102400)
I0312 14:38:46.567812 10732 layer_factory.hpp:78] Creating layer inception_4e/relu_pool_proj
I0312 14:38:46.567827 10732 net.cpp:68] Creating Layer inception_4e/relu_pool_proj
I0312 14:38:46.567839 10732 net.cpp:395] inception_4e/relu_pool_proj <- inception_4e/pool_proj/bn
I0312 14:38:46.567854 10732 net.cpp:346] inception_4e/relu_pool_proj -> inception_4e/pool_proj/bn (in-place)
I0312 14:38:46.567869 10732 net.cpp:97] Setting up inception_4e/relu_pool_proj
I0312 14:38:46.567884 10732 net.cpp:104] Top shape: 32 128 5 5 (102400)
I0312 14:38:46.567896 10732 layer_factory.hpp:78] Creating layer inception_4e/output
I0312 14:38:46.567910 10732 net.cpp:68] Creating Layer inception_4e/output
I0312 14:38:46.567924 10732 net.cpp:395] inception_4e/output <- inception_4e/1x1/bn
I0312 14:38:46.567936 10732 net.cpp:395] inception_4e/output <- inception_4e/3x3/bn
I0312 14:38:46.567948 10732 net.cpp:395] inception_4e/output <- inception_4e/5x5/bn
I0312 14:38:46.567961 10732 net.cpp:395] inception_4e/output <- inception_4e/pool_proj/bn
I0312 14:38:46.567975 10732 net.cpp:357] inception_4e/output -> inception_4e/output
I0312 14:38:46.567989 10732 net.cpp:97] Setting up inception_4e/output
I0312 14:38:46.568002 10732 net.cpp:104] Top shape: 32 832 5 5 (665600)
I0312 14:38:46.568013 10732 layer_factory.hpp:78] Creating layer pool4/3x3_s2
I0312 14:38:46.568027 10732 net.cpp:68] Creating Layer pool4/3x3_s2
I0312 14:38:46.568038 10732 net.cpp:395] pool4/3x3_s2 <- inception_4e/output
I0312 14:38:46.568055 10732 net.cpp:357] pool4/3x3_s2 -> pool4/3x3_s2
I0312 14:38:46.568070 10732 net.cpp:97] Setting up pool4/3x3_s2
I0312 14:38:46.568088 10732 net.cpp:104] Top shape: 32 832 2 2 (106496)
I0312 14:38:46.568099 10732 layer_factory.hpp:78] Creating layer pool4/3x3_s2_pool4/3x3_s2_0_split
I0312 14:38:46.568112 10732 net.cpp:68] Creating Layer pool4/3x3_s2_pool4/3x3_s2_0_split
I0312 14:38:46.568125 10732 net.cpp:395] pool4/3x3_s2_pool4/3x3_s2_0_split <- pool4/3x3_s2
I0312 14:38:46.568141 10732 net.cpp:357] pool4/3x3_s2_pool4/3x3_s2_0_split -> pool4/3x3_s2_pool4/3x3_s2_0_split_0
I0312 14:38:46.568158 10732 net.cpp:357] pool4/3x3_s2_pool4/3x3_s2_0_split -> pool4/3x3_s2_pool4/3x3_s2_0_split_1
I0312 14:38:46.568174 10732 net.cpp:357] pool4/3x3_s2_pool4/3x3_s2_0_split -> pool4/3x3_s2_pool4/3x3_s2_0_split_2
I0312 14:38:46.568189 10732 net.cpp:357] pool4/3x3_s2_pool4/3x3_s2_0_split -> pool4/3x3_s2_pool4/3x3_s2_0_split_3
I0312 14:38:46.568202 10732 net.cpp:97] Setting up pool4/3x3_s2_pool4/3x3_s2_0_split
I0312 14:38:46.568215 10732 net.cpp:104] Top shape: 32 832 2 2 (106496)
I0312 14:38:46.568227 10732 net.cpp:104] Top shape: 32 832 2 2 (106496)
I0312 14:38:46.568238 10732 net.cpp:104] Top shape: 32 832 2 2 (106496)
I0312 14:38:46.568248 10732 net.cpp:104] Top shape: 32 832 2 2 (106496)
I0312 14:38:46.568259 10732 layer_factory.hpp:78] Creating layer inception_5a/1x1
I0312 14:38:46.568275 10732 net.cpp:68] Creating Layer inception_5a/1x1
I0312 14:38:46.568289 10732 net.cpp:395] inception_5a/1x1 <- pool4/3x3_s2_pool4/3x3_s2_0_split_0
I0312 14:38:46.568303 10732 net.cpp:357] inception_5a/1x1 -> inception_5a/1x1
I0312 14:38:46.568318 10732 net.cpp:97] Setting up inception_5a/1x1
I0312 14:38:46.570574 10732 net.cpp:104] Top shape: 32 256 2 2 (32768)
I0312 14:38:46.570600 10732 layer_factory.hpp:78] Creating layer inception_5a/1x1/bn
I0312 14:38:46.570618 10732 net.cpp:68] Creating Layer inception_5a/1x1/bn
I0312 14:38:46.570631 10732 net.cpp:395] inception_5a/1x1/bn <- inception_5a/1x1
I0312 14:38:46.570647 10732 net.cpp:357] inception_5a/1x1/bn -> inception_5a/1x1/bn
I0312 14:38:46.570662 10732 net.cpp:97] Setting up inception_5a/1x1/bn
I0312 14:38:46.570684 10732 net.cpp:104] Top shape: 32 256 2 2 (32768)
I0312 14:38:46.570703 10732 layer_factory.hpp:78] Creating layer inception_5a/relu_1x1
I0312 14:38:46.570718 10732 net.cpp:68] Creating Layer inception_5a/relu_1x1
I0312 14:38:46.570749 10732 net.cpp:395] inception_5a/relu_1x1 <- inception_5a/1x1/bn
I0312 14:38:46.570765 10732 net.cpp:346] inception_5a/relu_1x1 -> inception_5a/1x1/bn (in-place)
I0312 14:38:46.570781 10732 net.cpp:97] Setting up inception_5a/relu_1x1
I0312 14:38:46.570796 10732 net.cpp:104] Top shape: 32 256 2 2 (32768)
I0312 14:38:46.570808 10732 layer_factory.hpp:78] Creating layer inception_5a/3x3_reduce
I0312 14:38:46.570822 10732 net.cpp:68] Creating Layer inception_5a/3x3_reduce
I0312 14:38:46.570835 10732 net.cpp:395] inception_5a/3x3_reduce <- pool4/3x3_s2_pool4/3x3_s2_0_split_1
I0312 14:38:46.570852 10732 net.cpp:357] inception_5a/3x3_reduce -> inception_5a/3x3_reduce
I0312 14:38:46.570868 10732 net.cpp:97] Setting up inception_5a/3x3_reduce
I0312 14:38:46.572407 10732 net.cpp:104] Top shape: 32 160 2 2 (20480)
I0312 14:38:46.572433 10732 layer_factory.hpp:78] Creating layer inception_5a/3x3_reduce/bn
I0312 14:38:46.572449 10732 net.cpp:68] Creating Layer inception_5a/3x3_reduce/bn
I0312 14:38:46.572461 10732 net.cpp:395] inception_5a/3x3_reduce/bn <- inception_5a/3x3_reduce
I0312 14:38:46.572479 10732 net.cpp:357] inception_5a/3x3_reduce/bn -> inception_5a/3x3_reduce/bn
I0312 14:38:46.572495 10732 net.cpp:97] Setting up inception_5a/3x3_reduce/bn
I0312 14:38:46.572516 10732 net.cpp:104] Top shape: 32 160 2 2 (20480)
I0312 14:38:46.572531 10732 layer_factory.hpp:78] Creating layer inception_5a/relu_3x3_reduce
I0312 14:38:46.572547 10732 net.cpp:68] Creating Layer inception_5a/relu_3x3_reduce
I0312 14:38:46.572559 10732 net.cpp:395] inception_5a/relu_3x3_reduce <- inception_5a/3x3_reduce/bn
I0312 14:38:46.572573 10732 net.cpp:346] inception_5a/relu_3x3_reduce -> inception_5a/3x3_reduce/bn (in-place)
I0312 14:38:46.572587 10732 net.cpp:97] Setting up inception_5a/relu_3x3_reduce
I0312 14:38:46.572602 10732 net.cpp:104] Top shape: 32 160 2 2 (20480)
I0312 14:38:46.572614 10732 layer_factory.hpp:78] Creating layer inception_5a/3x3
I0312 14:38:46.572630 10732 net.cpp:68] Creating Layer inception_5a/3x3
I0312 14:38:46.572643 10732 net.cpp:395] inception_5a/3x3 <- inception_5a/3x3_reduce/bn
I0312 14:38:46.572657 10732 net.cpp:357] inception_5a/3x3 -> inception_5a/3x3
I0312 14:38:46.572672 10732 net.cpp:97] Setting up inception_5a/3x3
I0312 14:38:46.577538 10732 net.cpp:104] Top shape: 32 320 2 2 (40960)
I0312 14:38:46.577568 10732 layer_factory.hpp:78] Creating layer inception_5a/3x3/bn
I0312 14:38:46.577589 10732 net.cpp:68] Creating Layer inception_5a/3x3/bn
I0312 14:38:46.577602 10732 net.cpp:395] inception_5a/3x3/bn <- inception_5a/3x3
I0312 14:38:46.577617 10732 net.cpp:357] inception_5a/3x3/bn -> inception_5a/3x3/bn
I0312 14:38:46.577633 10732 net.cpp:97] Setting up inception_5a/3x3/bn
I0312 14:38:46.577654 10732 net.cpp:104] Top shape: 32 320 2 2 (40960)
I0312 14:38:46.577671 10732 layer_factory.hpp:78] Creating layer inception_5a/relu_3x3
I0312 14:38:46.577687 10732 net.cpp:68] Creating Layer inception_5a/relu_3x3
I0312 14:38:46.577699 10732 net.cpp:395] inception_5a/relu_3x3 <- inception_5a/3x3/bn
I0312 14:38:46.577716 10732 net.cpp:346] inception_5a/relu_3x3 -> inception_5a/3x3/bn (in-place)
I0312 14:38:46.577731 10732 net.cpp:97] Setting up inception_5a/relu_3x3
I0312 14:38:46.577746 10732 net.cpp:104] Top shape: 32 320 2 2 (40960)
I0312 14:38:46.577759 10732 layer_factory.hpp:78] Creating layer inception_5a/5x5_reduce
I0312 14:38:46.577772 10732 net.cpp:68] Creating Layer inception_5a/5x5_reduce
I0312 14:38:46.577785 10732 net.cpp:395] inception_5a/5x5_reduce <- pool4/3x3_s2_pool4/3x3_s2_0_split_2
I0312 14:38:46.577801 10732 net.cpp:357] inception_5a/5x5_reduce -> inception_5a/5x5_reduce
I0312 14:38:46.577817 10732 net.cpp:97] Setting up inception_5a/5x5_reduce
I0312 14:38:46.578167 10732 net.cpp:104] Top shape: 32 32 2 2 (4096)
I0312 14:38:46.578191 10732 layer_factory.hpp:78] Creating layer inception_5a/5x5_reduce/bn
I0312 14:38:46.578213 10732 net.cpp:68] Creating Layer inception_5a/5x5_reduce/bn
I0312 14:38:46.578229 10732 net.cpp:395] inception_5a/5x5_reduce/bn <- inception_5a/5x5_reduce
I0312 14:38:46.578265 10732 net.cpp:357] inception_5a/5x5_reduce/bn -> inception_5a/5x5_reduce/bn
I0312 14:38:46.578282 10732 net.cpp:97] Setting up inception_5a/5x5_reduce/bn
I0312 14:38:46.578306 10732 net.cpp:104] Top shape: 32 32 2 2 (4096)
I0312 14:38:46.578322 10732 layer_factory.hpp:78] Creating layer inception_5a/relu_5x5_reduce
I0312 14:38:46.578336 10732 net.cpp:68] Creating Layer inception_5a/relu_5x5_reduce
I0312 14:38:46.578348 10732 net.cpp:395] inception_5a/relu_5x5_reduce <- inception_5a/5x5_reduce/bn
I0312 14:38:46.578364 10732 net.cpp:346] inception_5a/relu_5x5_reduce -> inception_5a/5x5_reduce/bn (in-place)
I0312 14:38:46.578382 10732 net.cpp:97] Setting up inception_5a/relu_5x5_reduce
I0312 14:38:46.578397 10732 net.cpp:104] Top shape: 32 32 2 2 (4096)
I0312 14:38:46.578409 10732 layer_factory.hpp:78] Creating layer inception_5a/5x5
I0312 14:38:46.578423 10732 net.cpp:68] Creating Layer inception_5a/5x5
I0312 14:38:46.578435 10732 net.cpp:395] inception_5a/5x5 <- inception_5a/5x5_reduce/bn
I0312 14:38:46.578454 10732 net.cpp:357] inception_5a/5x5 -> inception_5a/5x5
I0312 14:38:46.578470 10732 net.cpp:97] Setting up inception_5a/5x5
I0312 14:38:46.579591 10732 net.cpp:104] Top shape: 32 128 2 2 (16384)
I0312 14:38:46.579619 10732 layer_factory.hpp:78] Creating layer inception_5a/5x5/bn
I0312 14:38:46.579638 10732 net.cpp:68] Creating Layer inception_5a/5x5/bn
I0312 14:38:46.579651 10732 net.cpp:395] inception_5a/5x5/bn <- inception_5a/5x5
I0312 14:38:46.579666 10732 net.cpp:357] inception_5a/5x5/bn -> inception_5a/5x5/bn
I0312 14:38:46.579681 10732 net.cpp:97] Setting up inception_5a/5x5/bn
I0312 14:38:46.579701 10732 net.cpp:104] Top shape: 32 128 2 2 (16384)
I0312 14:38:46.579720 10732 layer_factory.hpp:78] Creating layer inception_5a/relu_5x5
I0312 14:38:46.579733 10732 net.cpp:68] Creating Layer inception_5a/relu_5x5
I0312 14:38:46.579749 10732 net.cpp:395] inception_5a/relu_5x5 <- inception_5a/5x5/bn
I0312 14:38:46.579763 10732 net.cpp:346] inception_5a/relu_5x5 -> inception_5a/5x5/bn (in-place)
I0312 14:38:46.579777 10732 net.cpp:97] Setting up inception_5a/relu_5x5
I0312 14:38:46.579792 10732 net.cpp:104] Top shape: 32 128 2 2 (16384)
I0312 14:38:46.579803 10732 layer_factory.hpp:78] Creating layer inception_5a/pool
I0312 14:38:46.579815 10732 layer_factory.cpp:51] CUDNN does not support padding or multiple tops. Using Caffe's own pooling layer.
I0312 14:38:46.579828 10732 net.cpp:68] Creating Layer inception_5a/pool
I0312 14:38:46.579840 10732 net.cpp:395] inception_5a/pool <- pool4/3x3_s2_pool4/3x3_s2_0_split_3
I0312 14:38:46.579857 10732 net.cpp:357] inception_5a/pool -> inception_5a/pool
I0312 14:38:46.579872 10732 net.cpp:97] Setting up inception_5a/pool
I0312 14:38:46.579886 10732 net.cpp:104] Top shape: 32 832 2 2 (106496)
I0312 14:38:46.579898 10732 layer_factory.hpp:78] Creating layer inception_5a/pool_proj
I0312 14:38:46.579916 10732 net.cpp:68] Creating Layer inception_5a/pool_proj
I0312 14:38:46.579928 10732 net.cpp:395] inception_5a/pool_proj <- inception_5a/pool
I0312 14:38:46.579942 10732 net.cpp:357] inception_5a/pool_proj -> inception_5a/pool_proj
I0312 14:38:46.579957 10732 net.cpp:97] Setting up inception_5a/pool_proj
I0312 14:38:46.581116 10732 net.cpp:104] Top shape: 32 128 2 2 (16384)
I0312 14:38:46.581141 10732 layer_factory.hpp:78] Creating layer inception_5a/pool_proj/bn
I0312 14:38:46.581161 10732 net.cpp:68] Creating Layer inception_5a/pool_proj/bn
I0312 14:38:46.581173 10732 net.cpp:395] inception_5a/pool_proj/bn <- inception_5a/pool_proj
I0312 14:38:46.581190 10732 net.cpp:357] inception_5a/pool_proj/bn -> inception_5a/pool_proj/bn
I0312 14:38:46.581207 10732 net.cpp:97] Setting up inception_5a/pool_proj/bn
I0312 14:38:46.581228 10732 net.cpp:104] Top shape: 32 128 2 2 (16384)
I0312 14:38:46.581243 10732 layer_factory.hpp:78] Creating layer inception_5a/relu_pool_proj
I0312 14:38:46.581260 10732 net.cpp:68] Creating Layer inception_5a/relu_pool_proj
I0312 14:38:46.581272 10732 net.cpp:395] inception_5a/relu_pool_proj <- inception_5a/pool_proj/bn
I0312 14:38:46.581285 10732 net.cpp:346] inception_5a/relu_pool_proj -> inception_5a/pool_proj/bn (in-place)
I0312 14:38:46.581321 10732 net.cpp:97] Setting up inception_5a/relu_pool_proj
I0312 14:38:46.581337 10732 net.cpp:104] Top shape: 32 128 2 2 (16384)
I0312 14:38:46.581349 10732 layer_factory.hpp:78] Creating layer inception_5a/output
I0312 14:38:46.581363 10732 net.cpp:68] Creating Layer inception_5a/output
I0312 14:38:46.581375 10732 net.cpp:395] inception_5a/output <- inception_5a/1x1/bn
I0312 14:38:46.581387 10732 net.cpp:395] inception_5a/output <- inception_5a/3x3/bn
I0312 14:38:46.581400 10732 net.cpp:395] inception_5a/output <- inception_5a/5x5/bn
I0312 14:38:46.581413 10732 net.cpp:395] inception_5a/output <- inception_5a/pool_proj/bn
I0312 14:38:46.581430 10732 net.cpp:357] inception_5a/output -> inception_5a/output
I0312 14:38:46.581446 10732 net.cpp:97] Setting up inception_5a/output
I0312 14:38:46.581459 10732 net.cpp:104] Top shape: 32 832 2 2 (106496)
I0312 14:38:46.581470 10732 layer_factory.hpp:78] Creating layer inception_5a/output_inception_5a/output_0_split
I0312 14:38:46.581483 10732 net.cpp:68] Creating Layer inception_5a/output_inception_5a/output_0_split
I0312 14:38:46.581496 10732 net.cpp:395] inception_5a/output_inception_5a/output_0_split <- inception_5a/output
I0312 14:38:46.581509 10732 net.cpp:357] inception_5a/output_inception_5a/output_0_split -> inception_5a/output_inception_5a/output_0_split_0
I0312 14:38:46.581526 10732 net.cpp:357] inception_5a/output_inception_5a/output_0_split -> inception_5a/output_inception_5a/output_0_split_1
I0312 14:38:46.581548 10732 net.cpp:357] inception_5a/output_inception_5a/output_0_split -> inception_5a/output_inception_5a/output_0_split_2
I0312 14:38:46.581565 10732 net.cpp:357] inception_5a/output_inception_5a/output_0_split -> inception_5a/output_inception_5a/output_0_split_3
I0312 14:38:46.581580 10732 net.cpp:97] Setting up inception_5a/output_inception_5a/output_0_split
I0312 14:38:46.581593 10732 net.cpp:104] Top shape: 32 832 2 2 (106496)
I0312 14:38:46.581604 10732 net.cpp:104] Top shape: 32 832 2 2 (106496)
I0312 14:38:46.581614 10732 net.cpp:104] Top shape: 32 832 2 2 (106496)
I0312 14:38:46.581625 10732 net.cpp:104] Top shape: 32 832 2 2 (106496)
I0312 14:38:46.581636 10732 layer_factory.hpp:78] Creating layer inception_5b/1x1
I0312 14:38:46.581650 10732 net.cpp:68] Creating Layer inception_5b/1x1
I0312 14:38:46.581662 10732 net.cpp:395] inception_5b/1x1 <- inception_5a/output_inception_5a/output_0_split_0
I0312 14:38:46.581679 10732 net.cpp:357] inception_5b/1x1 -> inception_5b/1x1
I0312 14:38:46.581694 10732 net.cpp:97] Setting up inception_5b/1x1
I0312 14:38:46.585283 10732 net.cpp:104] Top shape: 32 384 2 2 (49152)
I0312 14:38:46.585309 10732 layer_factory.hpp:78] Creating layer inception_5b/1x1/bn
I0312 14:38:46.585328 10732 net.cpp:68] Creating Layer inception_5b/1x1/bn
I0312 14:38:46.585342 10732 net.cpp:395] inception_5b/1x1/bn <- inception_5b/1x1
I0312 14:38:46.585356 10732 net.cpp:357] inception_5b/1x1/bn -> inception_5b/1x1/bn
I0312 14:38:46.585372 10732 net.cpp:97] Setting up inception_5b/1x1/bn
I0312 14:38:46.585393 10732 net.cpp:104] Top shape: 32 384 2 2 (49152)
I0312 14:38:46.585409 10732 layer_factory.hpp:78] Creating layer inception_5b/relu_1x1
I0312 14:38:46.585423 10732 net.cpp:68] Creating Layer inception_5b/relu_1x1
I0312 14:38:46.585435 10732 net.cpp:395] inception_5b/relu_1x1 <- inception_5b/1x1/bn
I0312 14:38:46.585448 10732 net.cpp:346] inception_5b/relu_1x1 -> inception_5b/1x1/bn (in-place)
I0312 14:38:46.585463 10732 net.cpp:97] Setting up inception_5b/relu_1x1
I0312 14:38:46.585476 10732 net.cpp:104] Top shape: 32 384 2 2 (49152)
I0312 14:38:46.585492 10732 layer_factory.hpp:78] Creating layer inception_5b/3x3_reduce
I0312 14:38:46.585511 10732 net.cpp:68] Creating Layer inception_5b/3x3_reduce
I0312 14:38:46.585523 10732 net.cpp:395] inception_5b/3x3_reduce <- inception_5a/output_inception_5a/output_0_split_1
I0312 14:38:46.585541 10732 net.cpp:357] inception_5b/3x3_reduce -> inception_5b/3x3_reduce
I0312 14:38:46.585556 10732 net.cpp:97] Setting up inception_5b/3x3_reduce
I0312 14:38:46.587394 10732 net.cpp:104] Top shape: 32 192 2 2 (24576)
I0312 14:38:46.587424 10732 layer_factory.hpp:78] Creating layer inception_5b/3x3_reduce/bn
I0312 14:38:46.587443 10732 net.cpp:68] Creating Layer inception_5b/3x3_reduce/bn
I0312 14:38:46.587456 10732 net.cpp:395] inception_5b/3x3_reduce/bn <- inception_5b/3x3_reduce
I0312 14:38:46.587471 10732 net.cpp:357] inception_5b/3x3_reduce/bn -> inception_5b/3x3_reduce/bn
I0312 14:38:46.587488 10732 net.cpp:97] Setting up inception_5b/3x3_reduce/bn
I0312 14:38:46.587512 10732 net.cpp:104] Top shape: 32 192 2 2 (24576)
I0312 14:38:46.587527 10732 layer_factory.hpp:78] Creating layer inception_5b/relu_3x3_reduce
I0312 14:38:46.587543 10732 net.cpp:68] Creating Layer inception_5b/relu_3x3_reduce
I0312 14:38:46.587554 10732 net.cpp:395] inception_5b/relu_3x3_reduce <- inception_5b/3x3_reduce/bn
I0312 14:38:46.587570 10732 net.cpp:346] inception_5b/relu_3x3_reduce -> inception_5b/3x3_reduce/bn (in-place)
I0312 14:38:46.587585 10732 net.cpp:97] Setting up inception_5b/relu_3x3_reduce
I0312 14:38:46.587600 10732 net.cpp:104] Top shape: 32 192 2 2 (24576)
I0312 14:38:46.587612 10732 layer_factory.hpp:78] Creating layer inception_5b/3x3
I0312 14:38:46.587626 10732 net.cpp:68] Creating Layer inception_5b/3x3
I0312 14:38:46.587638 10732 net.cpp:395] inception_5b/3x3 <- inception_5b/3x3_reduce/bn
I0312 14:38:46.587656 10732 net.cpp:357] inception_5b/3x3 -> inception_5b/3x3
I0312 14:38:46.587671 10732 net.cpp:97] Setting up inception_5b/3x3
I0312 14:38:46.594094 10732 net.cpp:104] Top shape: 32 384 2 2 (49152)
I0312 14:38:46.594121 10732 layer_factory.hpp:78] Creating layer inception_5b/3x3/bn
I0312 14:38:46.594138 10732 net.cpp:68] Creating Layer inception_5b/3x3/bn
I0312 14:38:46.594151 10732 net.cpp:395] inception_5b/3x3/bn <- inception_5b/3x3
I0312 14:38:46.594168 10732 net.cpp:357] inception_5b/3x3/bn -> inception_5b/3x3/bn
I0312 14:38:46.594185 10732 net.cpp:97] Setting up inception_5b/3x3/bn
I0312 14:38:46.594208 10732 net.cpp:104] Top shape: 32 384 2 2 (49152)
I0312 14:38:46.594224 10732 layer_factory.hpp:78] Creating layer inception_5b/relu_3x3
I0312 14:38:46.594238 10732 net.cpp:68] Creating Layer inception_5b/relu_3x3
I0312 14:38:46.594254 10732 net.cpp:395] inception_5b/relu_3x3 <- inception_5b/3x3/bn
I0312 14:38:46.594269 10732 net.cpp:346] inception_5b/relu_3x3 -> inception_5b/3x3/bn (in-place)
I0312 14:38:46.594282 10732 net.cpp:97] Setting up inception_5b/relu_3x3
I0312 14:38:46.594297 10732 net.cpp:104] Top shape: 32 384 2 2 (49152)
I0312 14:38:46.594310 10732 layer_factory.hpp:78] Creating layer inception_5b/5x5_reduce
I0312 14:38:46.594328 10732 net.cpp:68] Creating Layer inception_5b/5x5_reduce
I0312 14:38:46.594341 10732 net.cpp:395] inception_5b/5x5_reduce <- inception_5a/output_inception_5a/output_0_split_2
I0312 14:38:46.594357 10732 net.cpp:357] inception_5b/5x5_reduce -> inception_5b/5x5_reduce
I0312 14:38:46.594372 10732 net.cpp:97] Setting up inception_5b/5x5_reduce
I0312 14:38:46.594854 10732 net.cpp:104] Top shape: 32 48 2 2 (6144)
I0312 14:38:46.594882 10732 layer_factory.hpp:78] Creating layer inception_5b/5x5_reduce/bn
I0312 14:38:46.594897 10732 net.cpp:68] Creating Layer inception_5b/5x5_reduce/bn
I0312 14:38:46.594909 10732 net.cpp:395] inception_5b/5x5_reduce/bn <- inception_5b/5x5_reduce
I0312 14:38:46.594928 10732 net.cpp:357] inception_5b/5x5_reduce/bn -> inception_5b/5x5_reduce/bn
I0312 14:38:46.594944 10732 net.cpp:97] Setting up inception_5b/5x5_reduce/bn
I0312 14:38:46.594964 10732 net.cpp:104] Top shape: 32 48 2 2 (6144)
I0312 14:38:46.594980 10732 layer_factory.hpp:78] Creating layer inception_5b/relu_5x5_reduce
I0312 14:38:46.594995 10732 net.cpp:68] Creating Layer inception_5b/relu_5x5_reduce
I0312 14:38:46.595005 10732 net.cpp:395] inception_5b/relu_5x5_reduce <- inception_5b/5x5_reduce/bn
I0312 14:38:46.595022 10732 net.cpp:346] inception_5b/relu_5x5_reduce -> inception_5b/5x5_reduce/bn (in-place)
I0312 14:38:46.595037 10732 net.cpp:97] Setting up inception_5b/relu_5x5_reduce
I0312 14:38:46.595079 10732 net.cpp:104] Top shape: 32 48 2 2 (6144)
I0312 14:38:46.595093 10732 layer_factory.hpp:78] Creating layer inception_5b/5x5
I0312 14:38:46.595109 10732 net.cpp:68] Creating Layer inception_5b/5x5
I0312 14:38:46.595121 10732 net.cpp:395] inception_5b/5x5 <- inception_5b/5x5_reduce/bn
I0312 14:38:46.595139 10732 net.cpp:357] inception_5b/5x5 -> inception_5b/5x5
I0312 14:38:46.595156 10732 net.cpp:97] Setting up inception_5b/5x5
I0312 14:38:46.596791 10732 net.cpp:104] Top shape: 32 128 2 2 (16384)
I0312 14:38:46.596817 10732 layer_factory.hpp:78] Creating layer inception_5b/5x5/bn
I0312 14:38:46.596832 10732 net.cpp:68] Creating Layer inception_5b/5x5/bn
I0312 14:38:46.596845 10732 net.cpp:395] inception_5b/5x5/bn <- inception_5b/5x5
I0312 14:38:46.596868 10732 net.cpp:357] inception_5b/5x5/bn -> inception_5b/5x5/bn
I0312 14:38:46.596885 10732 net.cpp:97] Setting up inception_5b/5x5/bn
I0312 14:38:46.596906 10732 net.cpp:104] Top shape: 32 128 2 2 (16384)
I0312 14:38:46.596922 10732 layer_factory.hpp:78] Creating layer inception_5b/relu_5x5
I0312 14:38:46.596938 10732 net.cpp:68] Creating Layer inception_5b/relu_5x5
I0312 14:38:46.596951 10732 net.cpp:395] inception_5b/relu_5x5 <- inception_5b/5x5/bn
I0312 14:38:46.596964 10732 net.cpp:346] inception_5b/relu_5x5 -> inception_5b/5x5/bn (in-place)
I0312 14:38:46.596978 10732 net.cpp:97] Setting up inception_5b/relu_5x5
I0312 14:38:46.596993 10732 net.cpp:104] Top shape: 32 128 2 2 (16384)
I0312 14:38:46.597008 10732 layer_factory.hpp:78] Creating layer inception_5b/pool
I0312 14:38:46.597020 10732 layer_factory.cpp:51] CUDNN does not support padding or multiple tops. Using Caffe's own pooling layer.
I0312 14:38:46.597038 10732 net.cpp:68] Creating Layer inception_5b/pool
I0312 14:38:46.597054 10732 net.cpp:395] inception_5b/pool <- inception_5a/output_inception_5a/output_0_split_3
I0312 14:38:46.597069 10732 net.cpp:357] inception_5b/pool -> inception_5b/pool
I0312 14:38:46.597084 10732 net.cpp:97] Setting up inception_5b/pool
I0312 14:38:46.597097 10732 net.cpp:104] Top shape: 32 832 2 2 (106496)
I0312 14:38:46.597110 10732 layer_factory.hpp:78] Creating layer inception_5b/pool_proj
I0312 14:38:46.597123 10732 net.cpp:68] Creating Layer inception_5b/pool_proj
I0312 14:38:46.597136 10732 net.cpp:395] inception_5b/pool_proj <- inception_5b/pool
I0312 14:38:46.597152 10732 net.cpp:357] inception_5b/pool_proj -> inception_5b/pool_proj
I0312 14:38:46.597167 10732 net.cpp:97] Setting up inception_5b/pool_proj
I0312 14:38:46.598332 10732 net.cpp:104] Top shape: 32 128 2 2 (16384)
I0312 14:38:46.598359 10732 layer_factory.hpp:78] Creating layer inception_5b/pool_proj/bn
I0312 14:38:46.598376 10732 net.cpp:68] Creating Layer inception_5b/pool_proj/bn
I0312 14:38:46.598389 10732 net.cpp:395] inception_5b/pool_proj/bn <- inception_5b/pool_proj
I0312 14:38:46.598407 10732 net.cpp:357] inception_5b/pool_proj/bn -> inception_5b/pool_proj/bn
I0312 14:38:46.598423 10732 net.cpp:97] Setting up inception_5b/pool_proj/bn
I0312 14:38:46.598443 10732 net.cpp:104] Top shape: 32 128 2 2 (16384)
I0312 14:38:46.598459 10732 layer_factory.hpp:78] Creating layer inception_5b/relu_pool_proj
I0312 14:38:46.598474 10732 net.cpp:68] Creating Layer inception_5b/relu_pool_proj
I0312 14:38:46.598489 10732 net.cpp:395] inception_5b/relu_pool_proj <- inception_5b/pool_proj/bn
I0312 14:38:46.598505 10732 net.cpp:346] inception_5b/relu_pool_proj -> inception_5b/pool_proj/bn (in-place)
I0312 14:38:46.598520 10732 net.cpp:97] Setting up inception_5b/relu_pool_proj
I0312 14:38:46.598536 10732 net.cpp:104] Top shape: 32 128 2 2 (16384)
I0312 14:38:46.598549 10732 layer_factory.hpp:78] Creating layer inception_5b/output
I0312 14:38:46.598564 10732 net.cpp:68] Creating Layer inception_5b/output
I0312 14:38:46.598575 10732 net.cpp:395] inception_5b/output <- inception_5b/1x1/bn
I0312 14:38:46.598589 10732 net.cpp:395] inception_5b/output <- inception_5b/3x3/bn
I0312 14:38:46.598603 10732 net.cpp:395] inception_5b/output <- inception_5b/5x5/bn
I0312 14:38:46.598614 10732 net.cpp:395] inception_5b/output <- inception_5b/pool_proj/bn
I0312 14:38:46.598650 10732 net.cpp:357] inception_5b/output -> inception_5b/output
I0312 14:38:46.598670 10732 net.cpp:97] Setting up inception_5b/output
I0312 14:38:46.598683 10732 net.cpp:104] Top shape: 32 1024 2 2 (131072)
I0312 14:38:46.598695 10732 layer_factory.hpp:78] Creating layer pool5/7x7_s1
I0312 14:38:46.598709 10732 net.cpp:68] Creating Layer pool5/7x7_s1
I0312 14:38:46.598723 10732 net.cpp:395] pool5/7x7_s1 <- inception_5b/output
I0312 14:38:46.598738 10732 net.cpp:357] pool5/7x7_s1 -> pool5/7x7_s1
I0312 14:38:46.598752 10732 net.cpp:97] Setting up pool5/7x7_s1
I0312 14:38:46.598769 10732 net.cpp:104] Top shape: 32 1024 1 1 (32768)
I0312 14:38:46.598783 10732 layer_factory.hpp:78] Creating layer pool5/drop_7x7_s1
I0312 14:38:46.598798 10732 net.cpp:68] Creating Layer pool5/drop_7x7_s1
I0312 14:38:46.598810 10732 net.cpp:395] pool5/drop_7x7_s1 <- pool5/7x7_s1
I0312 14:38:46.598827 10732 net.cpp:346] pool5/drop_7x7_s1 -> pool5/7x7_s1 (in-place)
I0312 14:38:46.598842 10732 net.cpp:97] Setting up pool5/drop_7x7_s1
I0312 14:38:46.598856 10732 net.cpp:104] Top shape: 32 1024 1 1 (32768)
I0312 14:38:46.598867 10732 layer_factory.hpp:78] Creating layer loss3/classifier
I0312 14:38:46.598886 10732 net.cpp:68] Creating Layer loss3/classifier
I0312 14:38:46.598898 10732 net.cpp:395] loss3/classifier <- pool5/7x7_s1
I0312 14:38:46.598913 10732 net.cpp:357] loss3/classifier -> loss3/classifier
I0312 14:38:46.598933 10732 net.cpp:97] Setting up loss3/classifier
I0312 14:38:46.600306 10732 net.cpp:104] Top shape: 32 121 1 1 (3872)
I0312 14:38:46.600330 10732 layer_factory.hpp:78] Creating layer loss3/classifier_loss3/classifier_0_split
I0312 14:38:46.600348 10732 net.cpp:68] Creating Layer loss3/classifier_loss3/classifier_0_split
I0312 14:38:46.600361 10732 net.cpp:395] loss3/classifier_loss3/classifier_0_split <- loss3/classifier
I0312 14:38:46.600375 10732 net.cpp:357] loss3/classifier_loss3/classifier_0_split -> loss3/classifier_loss3/classifier_0_split_0
I0312 14:38:46.600391 10732 net.cpp:357] loss3/classifier_loss3/classifier_0_split -> loss3/classifier_loss3/classifier_0_split_1
I0312 14:38:46.600406 10732 net.cpp:97] Setting up loss3/classifier_loss3/classifier_0_split
I0312 14:38:46.600419 10732 net.cpp:104] Top shape: 32 121 1 1 (3872)
I0312 14:38:46.600431 10732 net.cpp:104] Top shape: 32 121 1 1 (3872)
I0312 14:38:46.600445 10732 layer_factory.hpp:78] Creating layer loss3/loss3
I0312 14:38:46.600463 10732 net.cpp:68] Creating Layer loss3/loss3
I0312 14:38:46.600476 10732 net.cpp:395] loss3/loss3 <- loss3/classifier_loss3/classifier_0_split_0
I0312 14:38:46.600492 10732 net.cpp:395] loss3/loss3 <- label_data_1_split_4
I0312 14:38:46.600505 10732 net.cpp:357] loss3/loss3 -> loss3/loss3
I0312 14:38:46.600520 10732 net.cpp:97] Setting up loss3/loss3
I0312 14:38:46.600535 10732 layer_factory.hpp:78] Creating layer loss3/loss3
I0312 14:38:46.600582 10732 net.cpp:104] Top shape: 1 1 1 1 (1)
I0312 14:38:46.600597 10732 net.cpp:110]     with loss weight 1
I0312 14:38:46.600620 10732 layer_factory.hpp:78] Creating layer loss3/top-1
I0312 14:38:46.600636 10732 net.cpp:68] Creating Layer loss3/top-1
I0312 14:38:46.600649 10732 net.cpp:395] loss3/top-1 <- loss3/classifier_loss3/classifier_0_split_1
I0312 14:38:46.600662 10732 net.cpp:395] loss3/top-1 <- label_data_1_split_5
I0312 14:38:46.600679 10732 net.cpp:357] loss3/top-1 -> loss3/top-1
I0312 14:38:46.600695 10732 net.cpp:97] Setting up loss3/top-1
I0312 14:38:46.600708 10732 net.cpp:104] Top shape: 1 1 1 1 (1)
I0312 14:38:46.600719 10732 net.cpp:173] loss3/top-1 does not need backward computation.
I0312 14:38:46.600730 10732 net.cpp:171] loss3/loss3 needs backward computation.
I0312 14:38:46.600741 10732 net.cpp:171] loss3/classifier_loss3/classifier_0_split needs backward computation.
I0312 14:38:46.600754 10732 net.cpp:171] loss3/classifier needs backward computation.
I0312 14:38:46.600765 10732 net.cpp:171] pool5/drop_7x7_s1 needs backward computation.
…
