…
  transform_param {
    mirror: true
    mean_file: "/media/data/kaggle/nationalDataScienceBowl/data/typeF/train_mean.binaryproto"
    affine_param {
      x_stretch_unirnd_range: 0.01
      y_stretch_unirnd_range: 0.01
      rotation_unirnd_range: 180
      max_translation: 5
      background_color: 255
    }
  }
  image_data_affine_param {
    source: "/media/data/kaggle/nationalDataScienceBowl/data/typeF/train.txt"
    scale: 0.00390625
    batch_size: 128
    shuffle: true
    new_size: 96
    is_color: false
    root_folder: "/media/data/kaggle/nationalDataScienceBowl/data/typeF/"
  }
}
layers {
  bottom: "data"
  top: "conv1/7x7_s2"
  name: "conv1/7x7_s2"
  type: CONVOLUTION
  blobs_lr: 1
  blobs_lr: 2
  weight_decay: 1
  weight_decay: 0
  convolution_param {
    num_output: 246
    pad: 0
    kernel_size: 4
    stride: 2
    weight_filler {
      type: "xavier"
      std: 0.1
    }
    bias_filler {
      type: "constant"
      value: 0.2
    }
  }
}
layers {
  bottom: "conv1/7x7_s2"
  top: "conv1/7x7_s2"
  name: "conv1/relu_7x7"
  type: RELU
}
layers {
  bottom: "conv1/7x7_s2"
  top: "pool1/3x3_s2"
  name: "pool1/3x3_s2"
  type: POOLING
  pooling_param {
    pool: MAX
    kernel_size: 3
    stride: 2
  }
}
layers {
  bottom: "pool1/3x3_s2"
  top: "pool1/norm1"
  name: "pool1/norm1"
  type: LRN
  lrn_param {
    local_size: 5
    alpha: 0.0001
    beta: 0.75
  }
}
layers {
  bottom: "pool1/norm1"
  top: "conv2/3x3_reduce"
  name: "conv2/3x3_reduce"
  type: CONVOLUTION
  blobs_lr: 1
  blobs_lr: 2
  weight_decay: 1
  weight_decay: 0
  convolution_param {
    num_output: 64
    kernel_size: 1
    weight_filler {
      type: "xavier"
      std: 0.1
    }
    bias_filler {
      type: "constant"
      value: 0.2
    }
  }
}
layers {
  bottom: "conv2/3x3_reduce"
  top: "conv2/3x3_reduce"
  name: "conv2/relu_3x3_reduce"
  type: RELU
}
layers {
  bottom: "conv2/3x3_reduce"
  top: "conv2/3x3"
  name: "conv2/3x3"
  type: CONVOLUTION
  blobs_lr: 1
  blobs_lr: 2
  weight_decay: 1
  weight_decay: 0
  convolution_param {
    num_output: 192
    pad: 1
    kernel_size: 3
    weight_filler {
      type: "xavier"
      std: 0.03
    }
    bias_filler {
      type: "constant"
      value: 0.2
    }
  }
}
layers {
  bottom: "conv2/3x3"
  top: "conv2/3x3"
  name: "conv2/relu_3x3"
  type: RELU
}
layers {
  bottom: "conv2/3x3"
  top: "conv2/norm2"
  name: "conv2/norm2"
  type: LRN
  lrn_param {
    local_size: 5
    alpha: 0.0001
    beta: 0.75
  }
}
layers {
  bottom: "conv2/norm2"
  top: "pool2/3x3_s2"
  name: "pool2/3x3_s2"
  type: POOLING
  pooling_param {
    pool: MAX
    kernel_size: 3
    stride: 2
  }
}
layers {
  bottom: "pool2/3x3_s2"
  top: "inception_3a/1x1"
  name: "inception_3a/1x1"
  type: CONVOLUTION
  blobs_lr: 1
  blobs_lr: 2
  weight_decay: 1
  weight_decay: 0
  convolution_param {
    num_output: 64
    kernel_size: 1
    weight_filler {
      type: "xavier"
      std: 0.03
    }
    bias_filler {
      type: "constant"
      value: 0.2
    }
  }
}
layers {
  bottom: "inception_3a/1x1"
  top: "inception_3a/1x1"
  name: "inception_3a/relu_1x1"
  type: RELU
}
layers {
  bottom: "pool2/3x3_s2"
  top: "inception_3a/3x3_reduce"
  name: "inception_3a/3x3_reduce"
  type: CONVOLUTION
  blobs_lr: 1
  blobs_lr: 2
  weight_decay: 1
  weight_decay: 0
  convolution_param {
    num_output: 96
    kernel_size: 1
    weight_filler {
      type: "xavier"
      std: 0.09
    }
    bias_filler {
      type: "constant"
      value: 0.2
    }
  }
}
layers {
  bottom: "inception_3a/3x3_reduce"
  top: "inception_3a/3x3_reduce"
  name: "inception_3a/relu_3x3_reduce"
  type: RELU
}
layers {
  bottom: "inception_3a/3x3_reduce"
  top: "inception_3a/3x3"
  name: "inception_3a/3x3"
  type: CONVOLUTION
  blobs_lr: 1
  blobs_lr: 2
  weight_decay: 1
  weight_decay: 0
  convolution_param {
    num_output: 128
    pad: 1
    kernel_size: 3
    weight_filler {
      type: "xavier"
      std: 0.03
    }
    bias_filler {
      type: "constant"
      value: 0.2
    }
  }
}
layers {
  bottom: "inception_3a/3x3"
  top: "inception_3a/3x3"
  name: "inception_3a/relu_3x3"
  type: RELU
}
layers {
  bottom: "pool2/3x3_s2"
  top: "inception_3a/5x5_reduce"
  name: "inception_3a/5x5_reduce"
  type: CONVOLUTION
  blobs_lr: 1
  blobs_lr: 2
  weight_decay: 1
  weight_decay: 0
  convolution_param {
    num_output: 16
    kernel_size: 1
    weight_filler {
      type: "xavier"
      std: 0.2
    }
    bias_filler {
      type: "constant"
      value: 0.2
    }
  }
}
layers {
  bottom: "inception_3a/5x5_reduce"
  top: "inception_3a/5x5_reduce"
  name: "inception_3a/relu_5x5_reduce"
  type: RELU
}
layers {
  bottom: "inception_3a/5x5_reduce"
  top: "inception_3a/5x5"
  name: "inception_3a/5x5"
  type: CONVOLUTION
  blobs_lr: 1
  blobs_lr: 2
  weight_decay: 1
  weight_decay: 0
  convolution_param {
    num_output: 32
    pad: 2
    kernel_size: 5
    weight_filler {
      type: "xavier"
      std: 0.03
    }
    bias_filler {
      type: "constant"
      value: 0.2
    }
  }
}
layers {
  bottom: "inception_3a/5x5"
  top: "inception_3a/5x5"
  name: "inception_3a/relu_5x5"
  type: RELU
}
layers {
  bottom: "pool2/3x3_s2"
  top: "inception_3a/pool"
  name: "inception_3a/pool"
  type: POOLING
  pooling_param {
    pool: MAX
    kernel_size: 3
    stride: 1
    pad: 1
  }
}
layers {
  bottom: "inception_3a/pool"
  top: "inception_3a/pool_proj"
  name: "inception_3a/pool_proj"
  type: CONVOLUTION
  blobs_lr: 1
  blobs_lr: 2
  weight_decay: 1
  weight_decay: 0
  convolution_param {
    num_output: 32
    kernel_size: 1
    weight_filler {
      type: "xavier"
      std: 0.1
    }
    bias_filler {
      type: "constant"
      value: 0.2
    }
  }
}
layers {
  bottom: "inception_3a/pool_proj"
  top: "inception_3a/pool_proj"
  name: "inception_3a/relu_pool_proj"
  type: RELU
}
layers {
  bottom: "inception_3a/1x1"
  bottom: "inception_3a/3x3"
  bottom: "inception_3a/5x5"
  bottom: "inception_3a/pool_proj"
  top: "inception_3a/output"
  name: "inception_3a/output"
  type: CONCAT
}
layers {
  bottom: "inception_3a/output"
  top: "inception_3b/1x1"
  name: "inception_3b/1x1"
  type: CONVOLUTION
  blobs_lr: 1
  blobs_lr: 2
  weight_decay: 1
  weight_decay: 0
  convolution_param {
    num_output: 128
    kernel_size: 1
    weight_filler {
      type: "xavier"
      std: 0.03
    }
    bias_filler {
      type: "constant"
      value: 0.2
    }
  }
}
layers {
  bottom: "inception_3b/1x1"
  top: "inception_3b/1x1"
  name: "inception_3b/relu_1x1"
  type: RELU
}
layers {
  bottom: "inception_3a/output"
  top: "inception_3b/3x3_reduce"
  name: "inception_3b/3x3_reduce"
  type: CONVOLUTION
  blobs_lr: 1
  blobs_lr: 2
  weight_decay: 1
  weight_decay: 0
  convolution_param {
    num_output: 128
    kernel_size: 1
    weight_filler {
      type: "xavier"
      std: 0.09
    }
    bias_filler {
      type: "constant"
      value: 0.2
    }
  }
}
layers {
  bottom: "inception_3b/3x3_reduce"
  top: "inception_3b/3x3_reduce"
  name: "inception_3b/relu_3x3_reduce"
  type: RELU
}
layers {
  bottom: "inception_3b/3x3_reduce"
  top: "inception_3b/3x3"
  name: "inception_3b/3x3"
  type: CONVOLUTION
  blobs_lr: 1
  blobs_lr: 2
  weight_decay: 1
  weight_decay: 0
  convolution_param {
    num_output: 192
    pad: 1
    kernel_size: 3
    weight_filler {
      type: "xavier"
      std: 0.03
    }
    bias_filler {
      type: "constant"
      value: 0.2
    }
  }
}
layers {
  bottom: "inception_3b/3x3"
  top: "inception_3b/3x3"
  name: "inception_3b/relu_3x3"
  type: RELU
}
layers {
  bottom: "inception_3a/output"
  top: "inception_3b/5x5_reduce"
  name: "inception_3b/5x5_reduce"
  type: CONVOLUTION
  blobs_lr: 1
  blobs_lr: 2
  weight_decay: 1
  weight_decay: 0
  convolution_param {
    num_output: 32
    kernel_size: 1
    weight_filler {
      type: "xavier"
      std: 0.2
    }
    bias_filler {
      type: "constant"
      value: 0.2
    }
  }
}
layers {
  bottom: "inception_3b/5x5_reduce"
  top: "inception_3b/5x5_reduce"
  name: "inception_3b/relu_5x5_reduce"
  type: RELU
}
layers {
  bottom: "inception_3b/5x5_reduce"
  top: "inception_3b/5x5"
  name: "inception_3b/5x5"
  type: CONVOLUTION
  blobs_lr: 1
  blobs_lr: 2
  weight_decay: 1
  weight_decay: 0
  convolution_param {
    num_output: 96
    pad: 2
    kernel_size: 5
    weight_filler {
      type: "xavier"
      std: 0.03
    }
    bias_filler {
      type: "constant"
      value: 0.2
    }
  }
}
layers {
  bottom: "inception_3b/5x5"
  top: "inception_3b/5x5"
  name: "inception_3b/relu_5x5"
  type: RELU
}
layers {
  bottom: "inception_3a/output"
  top: "inception_3b/pool"
  name: "inception_3b/pool"
  type: POOLING
  pooling_param {
    pool: MAX
    kernel_size: 3
    stride: 1
    pad: 1
  }
}
layers {
  bottom: "inception_3b/pool"
  top: "inception_3b/pool_proj"
  name: "inception_3b/pool_proj"
  type: CONVOLUTION
  blobs_lr: 1
  blobs_lr: 2
  weight_decay: 1
  weight_decay: 0
  convolution_param {
    num_output: 64
    kernel_size: 1
    weight_filler {
      type: "xavier"
      std: 0.1
    }
    bias_filler {
      type: "constant"
      value: 0.2
    }
  }
}
layers {
  bottom: "inception_3b/pool_proj"
  top: "inception_3b/pool_proj"
  name: "inception_3b/relu_pool_proj"
  type: RELU
}
layers {
  bottom: "inception_3b/1x1"
  bottom: "inception_3b/3x3"
  bottom: "inception_3b/5x5"
  bottom: "inception_3b/pool_proj"
  top: "inception_3b/output"
  name: "inception_3b/output"
  type: CONCAT
}
layers {
  bottom: "inception_3b/output"
  top: "pool3/3x3_s2"
  name: "pool3/3x3_s2"
  type: POOLING
  pooling_param {
    pool: MAX
    kernel_size: 3
    stride: 2
  }
}
layers {
  bottom: "pool3/3x3_s2"
  top: "inception_4a/1x1"
  name: "inception_4a/1x1"
  type: CONVOLUTION
  blobs_lr: 1
  blobs_lr: 2
  weight_decay: 1
  weight_decay: 0
  convolution_param {
    num_output: 192
    kernel_size: 1
    weight_filler {
      type: "xavier"
      std: 0.03
    }
    bias_filler {
      type: "constant"
      value: 0.2
    }
  }
}
layers {
  bottom: "inception_4a/1x1"
  top: "inception_4a/1x1"
  name: "inception_4a/relu_1x1"
  type: RELU
}
layers {
  bottom: "pool3/3x3_s2"
  top: "inception_4a/3x3_reduce"
  name: "inception_4a/3x3_reduce"
  type: CONVOLUTION
  blobs_lr: 1
  blobs_lr: 2
  weight_decay: 1
  weight_decay: 0
  convolution_param {
    num_output: 96
    kernel_size: 1
    weight_filler {
      type: "xavier"
      std: 0.09
    }
    bias_filler {
      type: "constant"
      value: 0.2
    }
  }
}
layers {
  bottom: "inception_4a/3x3_reduce"
  top: "inception_4a/3x3_reduce"
  name: "inception_4a/relu_3x3_reduce"
  type: RELU
}
layers {
  bottom: "inception_4a/3x3_reduce"
  top: "inception_4a/3x3"
  name: "inception_4a/3x3"
  type: CONVOLUTION
  blobs_lr: 1
  blobs_lr: 2
  weight_decay: 1
  weight_decay: 0
  convolution_param {
    num_output: 208
    pad: 1
    kernel_size: 3
    weight_filler {
      type: "xavier"
      std: 0.03
    }
    bias_filler {
      type: "constant"
      value: 0.2
    }
  }
}
layers {
  bottom: "inception_4a/3x3"
  top: "inception_4a/3x3"
  name: "inception_4a/relu_3x3"
  type: RELU
}
layers {
  bottom: "pool3/3x3_s2"
  top: "inception_4a/5x5_reduce"
  name: "inception_4a/5x5_reduce"
  type: CONVOLUTION
  blobs_lr: 1
  blobs_lr: 2
  weight_decay: 1
  weight_decay: 0
  convolution_param {
    num_output: 16
    kernel_size: 1
    weight_filler {
      type: "xavier"
      std: 0.2
    }
    bias_filler {
      type: "constant"
      value: 0.2
    }
  }
}
layers {
  bottom: "inception_4a/5x5_reduce"
  top: "inception_4a/5x5_reduce"
  name: "inception_4a/relu_5x5_reduce"
  type: RELU
}
layers {
  bottom: "inception_4a/5x5_reduce"
  top: "inception_4a/5x5"
  name: "inception_4a/5x5"
  type: CONVOLUTION
  blobs_lr: 1
  blobs_lr: 2
  weight_decay: 1
  weight_decay: 0
  convolution_param {
    num_output: 48
    pad: 2
    kernel_size: 5
    weight_filler {
      type: "xavier"
      std: 0.03
    }
    bias_filler {
      type: "constant"
      value: 0.2
    }
  }
}
layers {
  bottom: "inception_4a/5x5"
  top: "inception_4a/5x5"
  name: "inception_4a/relu_5x5"
  type: RELU
}
layers {
  bottom: "pool3/3x3_s2"
  top: "inception_4a/pool"
  name: "inception_4a/pool"
  type: POOLING
  pooling_param {
    pool: MAX
    kernel_size: 3
    stride: 1
    pad: 1
  }
}
layers {
  bottom: "inception_4a/pool"
  top: "inception_4a/pool_proj"
  name: "inception_4a/pool_proj"
  type: CONVOLUTION
  blobs_lr: 1
  blobs_lr: 2
  weight_decay: 1
  weight_decay: 0
  convolution_param {
    num_output: 64
    kernel_size: 1
    weight_filler {
      type: "xavier"
      std: 0.1
    }
    bias_filler {
      type: "constant"
      value: 0.2
    }
  }
}
layers {
  bottom: "inception_4a/pool_proj"
  top: "inception_4a/pool_proj"
  name: "inception_4a/relu_pool_proj"
  type: RELU
}
layers {
  bottom: "inception_4a/1x1"
  bottom: "inception_4a/3x3"
  bottom: "inception_4a/5x5"
  bottom: "inception_4a/pool_proj"
  top: "inception_4a/output"
  name: "inception_4a/output"
  type: CONCAT
}
layers {
  bottom: "inception_4a/output"
  top: "loss1/ave_pool"
  name: "loss1/ave_pool"
  type: POOLING
  pooling_param {
    pool: AVE
    kernel_size: 5
    stride: 3
  }
}
layers {
  bottom: "loss1/ave_pool"
  top: "loss1/conv"
  name: "loss1/conv"
  type: CONVOLUTION
  blobs_lr: 1
  blobs_lr: 2
  weight_decay: 1
  weight_decay: 0
  convolution_param {
    num_output: 128
    kernel_size: 1
    weight_filler {
      type: "xavier"
      std: 0.08
    }
    bias_filler {
      type: "constant"
      value: 0.2
    }
  }
}
layers {
  bottom: "loss1/conv"
  top: "loss1/conv"
  name: "loss1/relu_conv"
  type: RELU
}
layers {
  bottom: "loss1/conv"
  top: "loss1/fc"
  name: "loss1/fc"
  type: INNER_PRODUCT
  blobs_lr: 1
  blobs_lr: 2
  weight_decay: 1
  weight_decay: 0
  inner_product_param {
    num_output: 1024
    weight_filler {
      type: "xavier"
      std: 0.02
    }
    bias_filler {
      type: "constant"
      value: 0.2
    }
  }
}
layers {
  bottom: "loss1/fc"
  top: "loss1/fc"
  name: "loss1/relu_fc"
  type: RELU
}
layers {
  bottom: "loss1/fc"
  top: "loss1/fc"
  name: "loss1/drop_fc"
  type: DROPOUT
  dropout_param {
    dropout_ratio: 0.7
  }
}
layers {
  bottom: "loss1/fc"
  top: "loss1/classifier"
  name: "loss1/classifier"
  type: INNER_PRODUCT
  blobs_lr: 1
  blobs_lr: 2
  weight_decay: 1
  weight_decay: 0
  inner_product_param {
    num_output: 121
    weight_filler {
      type: "xavier"
      std: 0.0009765625
    }
    bias_filler {
      type: "constant"
      value: 0
    }
  }
}
layers {
  bottom: "loss1/classifier"
  bottom: "label"
  top: "loss1/loss1"
  name: "loss1/loss"
  type: SOFTMAX_LOSS
  loss_weight: 0.3
}
layers {
  bottom: "inception_4a/output"
  top: "inception_4b/1x1"
  name: "inception_4b/1x1"
  type: CONVOLUTION
  blobs_lr: 1
  blobs_lr: 2
  weight_decay: 1
  weight_decay: 0
  convolution_param {
    num_output: 160
    kernel_size: 1
    weight_filler {
      type: "xavier"
      std: 0.03
    }
    bias_filler {
      type: "constant"
      value: 0.2
    }
  }
}
layers {
  bottom: "inception_4b/1x1"
  top: "inception_4b/1x1"
  name: "inception_4b/relu_1x1"
  type: RELU
}
layers {
  bottom: "inception_4a/output"
  top: "inception_4b/3x3_reduce"
  name: "inception_4b/3x3_reduce"
  type: CONVOLUTION
  blobs_lr: 1
  blobs_lr: 2
  weight_decay: 1
  weight_decay: 0
  convolution_param {
    num_output: 112
    kernel_size: 1
    weight_filler {
      type: "xavier"
      std: 0.09
    }
    bias_filler {
      type: "constant"
      value: 0.2
    }
  }
}
layers {
  bottom: "inception_4b/3x3_reduce"
  top: "inception_4b/3x3_reduce"
  name: "inception_4b/relu_3x3_reduce"
  type: RELU
}
layers {
  bottom: "inception_4b/3x3_reduce"
  top: "inception_4b/3x3"
  name: "inception_4b/3x3"
  type: CONVOLUTION
  blobs_lr: 1
  blobs_lr: 2
  weight_decay: 1
  weight_decay: 0
  convolution_param {
    num_output: 224
    pad: 1
    kernel_size: 3
    weight_filler {
      type: "xavier"
      std: 0.03
    }
    bias_filler {
      type: "constant"
      value: 0.2
    }
  }
}
layers {
  bottom: "inception_4b/3x3"
  top: "inception_4b/3x3"
  name: "inception_4b/relu_3x3"
  type: RELU
}
layers {
  bottom: "inception_4a/output"
  top: "inception_4b/5x5_reduce"
  name: "inception_4b/5x5_reduce"
  type: CONVOLUTION
  blobs_lr: 1
  blobs_lr: 2
  weight_decay: 1
  weight_decay: 0
  convolution_param {
    num_output: 24
    kernel_size: 1
    weight_filler {
      type: "xavier"
      std: 0.2
    }
    bias_filler {
      type: "constant"
      value: 0.2
    }
  }
}
layers {
  bottom: "inception_4b/5x5_reduce"
  top: "inception_4b/5x5_reduce"
  name: "inception_4b/relu_5x5_reduce"
  type: RELU
}
layers {
  bottom: "inception_4b/5x5_reduce"
  top: "inception_4b/5x5"
  name: "inception_4b/5x5"
  type: CONVOLUTION
  blobs_lr: 1
  blobs_lr: 2
  weight_decay: 1
  weight_decay: 0
  convolution_param {
    num_output: 64
    pad: 2
    kernel_size: 5
    weight_filler {
      type: "xavier"
      std: 0.03
    }
    bias_filler {
      type: "constant"
      value: 0.2
    }
  }
}
layers {
  bottom: "inception_4b/5x5"
  top: "inception_4b/5x5"
  name: "inception_4b/relu_5x5"
  type: RELU
}
layers {
  bottom: "inception_4a/output"
  top: "inception_4b/pool"
  name: "inception_4b/pool"
  type: POOLING
  pooling_param {
    pool: MAX
    kernel_size: 3
    stride: 1
    pad: 1
  }
}
layers {
  bottom: "inception_4b/pool"
  top: "inception_4b/pool_proj"
  name: "inception_4b/pool_proj"
  type: CONVOLUTION
  blobs_lr: 1
  blobs_lr: 2
  weight_decay: 1
  weight_decay: 0
  convolution_param {
    num_output: 64
    kernel_size: 1
    weight_filler {
      type: "xavier"
      std: 0.1
    }
    bias_filler {
      type: "constant"
      value: 0.2
    }
  }
}
layers {
  bottom: "inception_4b/pool_proj"
  top: "inception_4b/pool_proj"
  name: "inception_4b/relu_pool_proj"
  type: RELU
}
layers {
  bottom: "inception_4b/1x1"
  bottom: "inception_4b/3x3"
  bottom: "inception_4b/5x5"
  bottom: "inception_4b/pool_proj"
  top: "inception_4b/output"
  name: "inception_4b/output"
  type: CONCAT
}
layers {
  bottom: "inception_4b/output"
  top: "inception_4c/1x1"
  name: "inception_4c/1x1"
  type: CONVOLUTION
  blobs_lr: 1
  blobs_lr: 2
  weight_decay: 1
  weight_decay: 0
  convolution_param {
    num_output: 128
    kernel_size: 1
    weight_filler {
      type: "xavier"
      std: 0.03
    }
    bias_filler {
      type: "constant"
      value: 0.2
    }
  }
}
layers {
  bottom: "inception_4c/1x1"
  top: "inception_4c/1x1"
  name: "inception_4c/relu_1x1"
  type: RELU
}
layers {
  bottom: "inception_4b/output"
  top: "inception_4c/3x3_reduce"
  name: "inception_4c/3x3_reduce"
  type: CONVOLUTION
  blobs_lr: 1
  blobs_lr: 2
  weight_decay: 1
  weight_decay: 0
  convolution_param {
    num_output: 128
    kernel_size: 1
    weight_filler {
      type: "xavier"
      std: 0.09
    }
    bias_filler {
      type: "constant"
      value: 0.2
    }
  }
}
layers {
  bottom: "inception_4c/3x3_reduce"
  top: "inception_4c/3x3_reduce"
  name: "inception_4c/relu_3x3_reduce"
  type: RELU
}
layers {
  bottom: "inception_4c/3x3_reduce"
  top: "inception_4c/3x3"
  name: "inception_4c/3x3"
  type: CONVOLUTION
  blobs_lr: 1
  blobs_lr: 2
  weight_decay: 1
  weight_decay: 0
  convolution_param {
    num_output: 256
    pad: 1
    kernel_size: 3
    weight_filler {
      type: "xavier"
      std: 0.03
    }
    bias_filler {
      type: "constant"
      value: 0.2
    }
  }
}
layers {
  bottom: "inception_4c/3x3"
  top: "inception_4c/3x3"
  name: "inception_4c/relu_3x3"
  type: RELU
}
layers {
  bottom: "inception_4b/output"
  top: "inception_4c/5x5_reduce"
  name: "inception_4c/5x5_reduce"
  type: CONVOLUTION
  blobs_lr: 1
  blobs_lr: 2
  weight_decay: 1
  weight_decay: 0
  convolution_param {
    num_output: 24
    kernel_size: 1
    weight_filler {
      type: "xavier"
      std: 0.2
    }
    bias_filler {
      type: "constant"
      value: 0.2
    }
  }
}
layers {
  bottom: "inception_4c/5x5_reduce"
  top: "inception_4c/5x5_reduce"
  name: "inception_4c/relu_5x5_reduce"
  type: RELU
}
layers {
  bottom: "inception_4c/5x5_reduce"
  top: "inception_4c/5x5"
  name: "inception_4c/5x5"
  type: CONVOLUTION
  blobs_lr: 1
  blobs_lr: 2
  weight_decay: 1
  weight_decay: 0
  convolution_param {
    num_output: 64
    pad: 2
    kernel_size: 5
    weight_filler {
      type: "xavier"
      std: 0.03
    }
    bias_filler {
      type: "constant"
      value: 0.2
    }
  }
}
layers {
  bottom: "inception_4c/5x5"
  top: "inception_4c/5x5"
  name: "inception_4c/relu_5x5"
  type: RELU
}
layers {
  bottom: "inception_4b/output"
  top: "inception_4c/pool"
  name: "inception_4c/pool"
  type: POOLING
  pooling_param {
    pool: MAX
    kernel_size: 3
    stride: 1
    pad: 1
  }
}
layers {
  bottom: "inception_4c/pool"
  top: "inception_4c/pool_proj"
  name: "inception_4c/pool_proj"
  type: CONVOLUTION
  blobs_lr: 1
  blobs_lr: 2
  weight_decay: 1
  weight_decay: 0
  convolution_param {
    num_output: 64
    kernel_size: 1
    weight_filler {
      type: "xavier"
      std: 0.1
    }
    bias_filler {
      type: "constant"
      value: 0.2
    }
  }
}
layers {
  bottom: "inception_4c/pool_proj"
  top: "inception_4c/pool_proj"
  name: "inception_4c/relu_pool_proj"
  type: RELU
}
layers {
  bottom: "inception_4c/1x1"
  bottom: "inception_4c/3x3"
  bottom: "inception_4c/5x5"
  bottom: "inception_4c/pool_proj"
  top: "inception_4c/output"
  name: "inception_4c/output"
  type: CONCAT
}
layers {
  bottom: "inception_4c/output"
  top: "inception_4d/1x1"
  name: "inception_4d/1x1"
  type: CONVOLUTION
  blobs_lr: 1
  blobs_lr: 2
  weight_decay: 1
  weight_decay: 0
  convolution_param {
    num_output: 112
    kernel_size: 1
    weight_filler {
      type: "xavier"
      std: 0.03
    }
    bias_filler {
      type: "constant"
      value: 0.2
    }
  }
}
layers {
  bottom: "inception_4d/1x1"
  top: "inception_4d/1x1"
  name: "inception_4d/relu_1x1"
  type: RELU
}
layers {
  bottom: "inception_4c/output"
  top: "inception_4d/3x3_reduce"
  name: "inception_4d/3x3_reduce"
  type: CONVOLUTION
  blobs_lr: 1
  blobs_lr: 2
  weight_decay: 1
  weight_decay: 0
  convolution_param {
    num_output: 144
    kernel_size: 1
    weight_filler {
      type: "xavier"
      std: 0.09
    }
    bias_filler {
      type: "constant"
      value: 0.2
    }
  }
}
layers {
  bottom: "inception_4d/3x3_reduce"
  top: "inception_4d/3x3_reduce"
  name: "inception_4d/relu_3x3_reduce"
  type: RELU
}
layers {
  bottom: "inception_4d/3x3_reduce"
  top: "inception_4d/3x3"
  name: "inception_4d/3x3"
  type: CONVOLUTION
  blobs_lr: 1
  blobs_lr: 2
  weight_decay: 1
  weight_decay: 0
  convolution_param {
    num_output: 288
    pad: 1
    kernel_size: 3
    weight_filler {
      type: "xavier"
      std: 0.03
    }
    bias_filler {
      type: "constant"
      value: 0.2
    }
  }
}
layers {
  bottom: "inception_4d/3x3"
  top: "inception_4d/3x3"
  name: "inception_4d/relu_3x3"
  type: RELU
}
layers {
  bottom: "inception_4c/output"
  top: "inception_4d/5x5_reduce"
  name: "inception_4d/5x5_reduce"
  type: CONVOLUTION
  blobs_lr: 1
  blobs_lr: 2
  weight_decay: 1
  weight_decay: 0
  convolution_param {
    num_output: 32
    kernel_size: 1
    weight_filler {
      type: "xavier"
      std: 0.2
    }
    bias_filler {
      type: "constant"
      value: 0.2
    }
  }
}
layers {
  bottom: "inception_4d/5x5_reduce"
  top: "inception_4d/5x5_reduce"
  name: "inception_4d/relu_5x5_reduce"
  type: RELU
}
layers {
  bottom: "inception_4d/5x5_reduce"
  top: "inception_4d/5x5"
  name: "inception_4d/5x5"
  type: CONVOLUTION
  blobs_lr: 1
  blobs_lr: 2
  weight_decay: 1
  weight_decay: 0
  convolution_param {
    num_output: 64
    pad: 2
    kernel_size: 5
    weight_filler {
      type: "xavier"
      std: 0.03
    }
    bias_filler {
      type: "constant"
      value: 0.2
    }
  }
}
layers {
  bottom: "inception_4d/5x5"
  top: "inception_4d/5x5"
  name: "inception_4d/relu_5x5"
  type: RELU
}
layers {
  bottom: "inception_4c/output"
  top: "inception_4d/pool"
  name: "inception_4d/pool"
  type: POOLING
  pooling_param {
    pool: MAX
    kernel_size: 3
    stride: 1
    pad: 1
  }
}
layers {
  bottom: "inception_4d/pool"
  top: "inception_4d/pool_proj"
  name: "inception_4d/pool_proj"
  type: CONVOLUTION
  blobs_lr: 1
  blobs_lr: 2
  weight_decay: 1
  weight_decay: 0
  convolution_param {
    num_output: 64
    kernel_size: 1
    weight_filler {
      type: "xavier"
      std: 0.1
    }
    bias_filler {
      type: "constant"
      value: 0.2
    }
  }
}
layers {
  bottom: "inception_4d/pool_proj"
  top: "inception_4d/pool_proj"
  name: "inception_4d/relu_pool_proj"
  type: RELU
}
layers {
  bottom: "inception_4d/1x1"
  bottom: "inception_4d/3x3"
  bottom: "inception_4d/5x5"
  bottom: "inception_4d/pool_proj"
  top: "inception_4d/output"
  name: "inception_4d/output"
  type: CONCAT
}
layers {
  bottom: "inception_4d/output"
  top: "loss2/ave_pool"
  name: "loss2/ave_pool"
  type: POOLING
  pooling_param {
    pool: AVE
    kernel_size: 5
    stride: 3
  }
}
layers {
  bottom: "loss2/ave_pool"
  top: "loss2/conv"
  name: "loss2/conv"
  type: CONVOLUTION
  blobs_lr: 1
  blobs_lr: 2
  weight_decay: 1
  weight_decay: 0
  convolution_param {
    num_output: 128
    kernel_size: 1
    weight_filler {
      type: "xavier"
      std: 0.08
    }
    bias_filler {
      type: "constant"
      value: 0.2
    }
  }
}
layers {
  bottom: "loss2/conv"
  top: "loss2/conv"
  name: "loss2/relu_conv"
  type: RELU
}
layers {
  bottom: "loss2/conv"
  top: "loss2/fc"
  name: "loss2/fc"
  type: INNER_PRODUCT
  blobs_lr: 1
  blobs_lr: 2
  weight_decay: 1
  weight_decay: 0
  inner_product_param {
    num_output: 1024
    weight_filler {
      type: "xavier"
      std: 0.02
    }
    bias_filler {
      type: "constant"
      value: 0.2
    }
  }
}
layers {
  bottom: "loss2/fc"
  top: "loss2/fc"
  name: "loss2/relu_fc"
  type: RELU
}
layers {
  bottom: "loss2/fc"
  top: "loss2/fc"
  name: "loss2/drop_fc"
  type: DROPOUT
  dropout_param {
    dropout_ratio: 0.7
  }
}
layers {
  bottom: "loss2/fc"
  top: "loss2/classifier"
  name: "loss2/classifier"
  type: INNER_PRODUCT
  blobs_lr: 1
  blobs_lr: 2
  weight_decay: 1
  weight_decay: 0
  inner_product_param {
    num_output: 121
    weight_filler {
      type: "xavier"
      std: 0.0009765625
    }
    bias_filler {
      type: "constant"
      value: 0
    }
  }
}
layers {
  bottom: "loss2/classifier"
  bottom: "label"
  top: "loss2/loss1"
  name: "loss2/loss"
  type: SOFTMAX_LOSS
  loss_weight: 0.3
}
layers {
  bottom: "inception_4d/output"
  top: "inception_4e/1x1"
  name: "inception_4e/1x1"
  type: CONVOLUTION
  blobs_lr: 1
  blobs_lr: 2
  weight_decay: 1
  weight_decay: 0
  convolution_param {
    num_output: 256
    kernel_size: 1
    weight_filler {
      type: "xavier"
      std: 0.03
    }
    bias_filler {
      type: "constant"
      value: 0.2
    }
  }
}
layers {
  bottom: "inception_4e/1x1"
  top: "inception_4e/1x1"
  name: "inception_4e/relu_1x1"
  type: RELU
}
layers {
  bottom: "inception_4d/output"
  top: "inception_4e/3x3_reduce"
  name: "inception_4e/3x3_reduce"
  type: CONVOLUTION
  blobs_lr: 1
  blobs_lr: 2
  weight_decay: 1
  weight_decay: 0
  convolution_param {
    num_output: 160
    kernel_size: 1
    weight_filler {
      type: "xavier"
      std: 0.09
    }
    bias_filler {
      type: "constant"
      value: 0.2
    }
  }
}
layers {
  bottom: "inception_4e/3x3_reduce"
  top: "inception_4e/3x3_reduce"
  name: "inception_4e/relu_3x3_reduce"
  type: RELU
}
layers {
  bottom: "inception_4e/3x3_reduce"
  top: "inception_4e/3x3"
  name: "inception_4e/3x3"
  type: CONVOLUTION
  blobs_lr: 1
  blobs_lr: 2
  weight_decay: 1
  weight_decay: 0
  convolution_param {
    num_output: 320
    pad: 1
    kernel_size: 3
    weight_filler {
      type: "xavier"
      std: 0.03
    }
    bias_filler {
      type: "constant"
      value: 0.2
    }
  }
}
layers {
  bottom: "inception_4e/3x3"
  top: "inception_4e/3x3"
  name: "inception_4e/relu_3x3"
  type: RELU
}
layers {
  bottom: "inception_4d/output"
  top: "inception_4e/5x5_reduce"
  name: "inception_4e/5x5_reduce"
  type: CONVOLUTION
  blobs_lr: 1
  blobs_lr: 2
  weight_decay: 1
  weight_decay: 0
  convolution_param {
    num_output: 32
    kernel_size: 1
    weight_filler {
      type: "xavier"
      std: 0.2
    }
    bias_filler {
      type: "constant"
      value: 0.2
    }
  }
}
layers {
  bottom: "inception_4e/5x5_reduce"
  top: "inception_4e/5x5_reduce"
  name: "inception_4e/relu_5x5_reduce"
  type: RELU
}
layers {
  bottom: "inception_4e/5x5_reduce"
  top: "inception_4e/5x5"
  name: "inception_4e/5x5"
  type: CONVOLUTION
  blobs_lr: 1
  blobs_lr: 2
  weight_decay: 1
  weight_decay: 0
  convolution_param {
    num_output: 128
    pad: 2
    kernel_size: 5
    weight_filler {
      type: "xavier"
      std: 0.03
    }
    bias_filler {
      type: "constant"
      value: 0.2
    }
  }
}
layers {
  bottom: "inception_4e/5x5"
  top: "inception_4e/5x5"
  name: "inception_4e/relu_5x5"
  type: RELU
}
layers {
  bottom: "inception_4d/output"
  top: "inception_4e/pool"
  name: "inception_4e/pool"
  type: POOLING
  pooling_param {
    pool: MAX
    kernel_size: 3
    stride: 1
    pad: 1
  }
}
layers {
  bottom: "inception_4e/pool"
  top: "inception_4e/pool_proj"
  name: "inception_4e/pool_proj"
  type: CONVOLUTION
  blobs_lr: 1
  blobs_lr: 2
  weight_decay: 1
  weight_decay: 0
  convolution_param {
    num_output: 128
    kernel_size: 1
    weight_filler {
      type: "xavier"
      std: 0.1
    }
    bias_filler {
      type: "constant"
      value: 0.2
    }
  }
}
layers {
  bottom: "inception_4e/pool_proj"
  top: "inception_4e/pool_
I0311 16:53:00.826769 19766 layer_factory.hpp:78] Creating layer data
I0311 16:53:00.826807 19766 data_transformer.cpp:24] Loading mean file from/media/data/kaggle/nationalDataScienceBowl/data/typeF/train_mean.binaryproto
I0311 16:53:00.826987 19766 net.cpp:68] Creating Layer data
I0311 16:53:00.827013 19766 net.cpp:357] data -> data
I0311 16:53:00.827044 19766 net.cpp:357] data -> label
I0311 16:53:00.827064 19766 net.cpp:97] Setting up data
I0311 16:53:00.827081 19766 image_data_affine_layer.cpp:37] Opening file /media/data/kaggle/nationalDataScienceBowl/data/typeF/train.txt
I0311 16:53:00.840688 19766 image_data_affine_layer.cpp:47] Shuffling data
I0311 16:53:00.843335 19766 image_data_affine_layer.cpp:52] A total of 27302 images.
I0311 16:53:00.845540 19766 image_data_affine_layer.cpp:81] output data size: 128,1,96,96
I0311 16:53:00.847385 19766 net.cpp:104] Top shape: 128 1 96 96 (1179648)
I0311 16:53:00.847415 19766 net.cpp:104] Top shape: 128 1 1 1 (128)
I0311 16:53:00.847431 19766 layer_factory.hpp:78] Creating layer label_data_1_split
I0311 16:53:00.847476 19766 net.cpp:68] Creating Layer label_data_1_split
I0311 16:53:00.847492 19766 net.cpp:395] label_data_1_split <- label
I0311 16:53:00.847517 19766 net.cpp:357] label_data_1_split -> label_data_1_split_0
I0311 16:53:00.847540 19766 net.cpp:357] label_data_1_split -> label_data_1_split_1
I0311 16:53:00.847558 19766 net.cpp:357] label_data_1_split -> label_data_1_split_2
I0311 16:53:00.847573 19766 net.cpp:97] Setting up label_data_1_split
I0311 16:53:00.847589 19766 net.cpp:104] Top shape: 128 1 1 1 (128)
I0311 16:53:00.847600 19766 net.cpp:104] Top shape: 128 1 1 1 (128)
I0311 16:53:00.847654 19766 net.cpp:104] Top shape: 128 1 1 1 (128)
I0311 16:53:00.847668 19766 layer_factory.hpp:78] Creating layer conv1/7x7_s2
I0311 16:53:00.847689 19766 net.cpp:68] Creating Layer conv1/7x7_s2
I0311 16:53:00.847702 19766 net.cpp:395] conv1/7x7_s2 <- data
I0311 16:53:00.847718 19766 net.cpp:357] conv1/7x7_s2 -> conv1/7x7_s2
I0311 16:53:00.847735 19766 net.cpp:97] Setting up conv1/7x7_s2
I0311 16:53:00.912641 19766 net.cpp:104] Top shape: 128 246 47 47 (69556992)
I0311 16:53:00.912706 19766 layer_factory.hpp:78] Creating layer conv1/relu_7x7
I0311 16:53:00.912734 19766 net.cpp:68] Creating Layer conv1/relu_7x7
I0311 16:53:00.912750 19766 net.cpp:395] conv1/relu_7x7 <- conv1/7x7_s2
I0311 16:53:00.912768 19766 net.cpp:346] conv1/relu_7x7 -> conv1/7x7_s2 (in-place)
I0311 16:53:00.912787 19766 net.cpp:97] Setting up conv1/relu_7x7
I0311 16:53:00.912807 19766 net.cpp:104] Top shape: 128 246 47 47 (69556992)
I0311 16:53:00.912822 19766 layer_factory.hpp:78] Creating layer pool1/3x3_s2
I0311 16:53:00.912842 19766 net.cpp:68] Creating Layer pool1/3x3_s2
I0311 16:53:00.912853 19766 net.cpp:395] pool1/3x3_s2 <- conv1/7x7_s2
I0311 16:53:00.912876 19766 net.cpp:357] pool1/3x3_s2 -> pool1/3x3_s2
I0311 16:53:00.912894 19766 net.cpp:97] Setting up pool1/3x3_s2
I0311 16:53:00.912930 19766 net.cpp:104] Top shape: 128 246 23 23 (16657152)
I0311 16:53:00.912945 19766 layer_factory.hpp:78] Creating layer pool1/norm1
I0311 16:53:00.912963 19766 net.cpp:68] Creating Layer pool1/norm1
I0311 16:53:00.912976 19766 net.cpp:395] pool1/norm1 <- pool1/3x3_s2
I0311 16:53:00.912992 19766 net.cpp:357] pool1/norm1 -> pool1/norm1
I0311 16:53:00.913008 19766 net.cpp:97] Setting up pool1/norm1
I0311 16:53:00.913024 19766 net.cpp:104] Top shape: 128 246 23 23 (16657152)
I0311 16:53:00.913036 19766 layer_factory.hpp:78] Creating layer conv2/3x3_reduce
I0311 16:53:00.913055 19766 net.cpp:68] Creating Layer conv2/3x3_reduce
I0311 16:53:00.913069 19766 net.cpp:395] conv2/3x3_reduce <- pool1/norm1
I0311 16:53:00.913082 19766 net.cpp:357] conv2/3x3_reduce -> conv2/3x3_reduce
I0311 16:53:00.913100 19766 net.cpp:97] Setting up conv2/3x3_reduce
I0311 16:53:00.913362 19766 net.cpp:104] Top shape: 128 64 23 23 (4333568)
I0311 16:53:00.913388 19766 layer_factory.hpp:78] Creating layer conv2/relu_3x3_reduce
I0311 16:53:00.913404 19766 net.cpp:68] Creating Layer conv2/relu_3x3_reduce
I0311 16:53:00.913418 19766 net.cpp:395] conv2/relu_3x3_reduce <- conv2/3x3_reduce
I0311 16:53:00.913431 19766 net.cpp:346] conv2/relu_3x3_reduce -> conv2/3x3_reduce (in-place)
I0311 16:53:00.913445 19766 net.cpp:97] Setting up conv2/relu_3x3_reduce
I0311 16:53:00.913461 19766 net.cpp:104] Top shape: 128 64 23 23 (4333568)
I0311 16:53:00.913475 19766 layer_factory.hpp:78] Creating layer conv2/3x3
I0311 16:53:00.913493 19766 net.cpp:68] Creating Layer conv2/3x3
I0311 16:53:00.913506 19766 net.cpp:395] conv2/3x3 <- conv2/3x3_reduce
I0311 16:53:00.913527 19766 net.cpp:357] conv2/3x3 -> conv2/3x3
I0311 16:53:00.913543 19766 net.cpp:97] Setting up conv2/3x3
I0311 16:53:00.914816 19766 net.cpp:104] Top shape: 128 192 23 23 (13000704)
I0311 16:53:00.914844 19766 layer_factory.hpp:78] Creating layer conv2/relu_3x3
I0311 16:53:00.914858 19766 net.cpp:68] Creating Layer conv2/relu_3x3
I0311 16:53:00.914871 19766 net.cpp:395] conv2/relu_3x3 <- conv2/3x3
I0311 16:53:00.914887 19766 net.cpp:346] conv2/relu_3x3 -> conv2/3x3 (in-place)
I0311 16:53:00.914902 19766 net.cpp:97] Setting up conv2/relu_3x3
I0311 16:53:00.914917 19766 net.cpp:104] Top shape: 128 192 23 23 (13000704)
I0311 16:53:00.914930 19766 layer_factory.hpp:78] Creating layer conv2/norm2
I0311 16:53:00.914944 19766 net.cpp:68] Creating Layer conv2/norm2
I0311 16:53:00.914995 19766 net.cpp:395] conv2/norm2 <- conv2/3x3
I0311 16:53:00.915019 19766 net.cpp:357] conv2/norm2 -> conv2/norm2
I0311 16:53:00.915036 19766 net.cpp:97] Setting up conv2/norm2
I0311 16:53:00.915050 19766 net.cpp:104] Top shape: 128 192 23 23 (13000704)
I0311 16:53:00.915065 19766 layer_factory.hpp:78] Creating layer pool2/3x3_s2
I0311 16:53:00.915079 19766 net.cpp:68] Creating Layer pool2/3x3_s2
I0311 16:53:00.915138 19766 net.cpp:395] pool2/3x3_s2 <- conv2/norm2
I0311 16:53:00.915153 19766 net.cpp:357] pool2/3x3_s2 -> pool2/3x3_s2
I0311 16:53:00.915169 19766 net.cpp:97] Setting up pool2/3x3_s2
I0311 16:53:00.915187 19766 net.cpp:104] Top shape: 128 192 11 11 (2973696)
I0311 16:53:00.915199 19766 layer_factory.hpp:78] Creating layer pool2/3x3_s2_pool2/3x3_s2_0_split
I0311 16:53:00.915218 19766 net.cpp:68] Creating Layer pool2/3x3_s2_pool2/3x3_s2_0_split
I0311 16:53:00.915230 19766 net.cpp:395] pool2/3x3_s2_pool2/3x3_s2_0_split <- pool2/3x3_s2
I0311 16:53:00.915243 19766 net.cpp:357] pool2/3x3_s2_pool2/3x3_s2_0_split -> pool2/3x3_s2_pool2/3x3_s2_0_split_0
I0311 16:53:00.915259 19766 net.cpp:357] pool2/3x3_s2_pool2/3x3_s2_0_split -> pool2/3x3_s2_pool2/3x3_s2_0_split_1
I0311 16:53:00.915277 19766 net.cpp:357] pool2/3x3_s2_pool2/3x3_s2_0_split -> pool2/3x3_s2_pool2/3x3_s2_0_split_2
I0311 16:53:00.915293 19766 net.cpp:357] pool2/3x3_s2_pool2/3x3_s2_0_split -> pool2/3x3_s2_pool2/3x3_s2_0_split_3
I0311 16:53:00.915308 19766 net.cpp:97] Setting up pool2/3x3_s2_pool2/3x3_s2_0_split
I0311 16:53:00.915323 19766 net.cpp:104] Top shape: 128 192 11 11 (2973696)
I0311 16:53:00.915334 19766 net.cpp:104] Top shape: 128 192 11 11 (2973696)
I0311 16:53:00.915359 19766 net.cpp:104] Top shape: 128 192 11 11 (2973696)
I0311 16:53:00.915372 19766 net.cpp:104] Top shape: 128 192 11 11 (2973696)
I0311 16:53:00.915385 19766 layer_factory.hpp:78] Creating layer inception_3a/1x1
I0311 16:53:00.915410 19766 net.cpp:68] Creating Layer inception_3a/1x1
I0311 16:53:00.915426 19766 net.cpp:395] inception_3a/1x1 <- pool2/3x3_s2_pool2/3x3_s2_0_split_0
I0311 16:53:00.915444 19766 net.cpp:357] inception_3a/1x1 -> inception_3a/1x1
I0311 16:53:00.915470 19766 net.cpp:97] Setting up inception_3a/1x1
I0311 16:53:00.915693 19766 net.cpp:104] Top shape: 128 64 11 11 (991232)
I0311 16:53:00.915716 19766 layer_factory.hpp:78] Creating layer inception_3a/relu_1x1
I0311 16:53:00.915735 19766 net.cpp:68] Creating Layer inception_3a/relu_1x1
I0311 16:53:00.915746 19766 net.cpp:395] inception_3a/relu_1x1 <- inception_3a/1x1
I0311 16:53:00.915760 19766 net.cpp:346] inception_3a/relu_1x1 -> inception_3a/1x1 (in-place)
I0311 16:53:00.915776 19766 net.cpp:97] Setting up inception_3a/relu_1x1
I0311 16:53:00.915789 19766 net.cpp:104] Top shape: 128 64 11 11 (991232)
I0311 16:53:00.915802 19766 layer_factory.hpp:78] Creating layer inception_3a/3x3_reduce
I0311 16:53:00.915815 19766 net.cpp:68] Creating Layer inception_3a/3x3_reduce
I0311 16:53:00.915827 19766 net.cpp:395] inception_3a/3x3_reduce <- pool2/3x3_s2_pool2/3x3_s2_0_split_1
I0311 16:53:00.915844 19766 net.cpp:357] inception_3a/3x3_reduce -> inception_3a/3x3_reduce
I0311 16:53:00.915861 19766 net.cpp:97] Setting up inception_3a/3x3_reduce
I0311 16:53:00.916122 19766 net.cpp:104] Top shape: 128 96 11 11 (1486848)
I0311 16:53:00.916149 19766 layer_factory.hpp:78] Creating layer inception_3a/relu_3x3_reduce
I0311 16:53:00.916165 19766 net.cpp:68] Creating Layer inception_3a/relu_3x3_reduce
I0311 16:53:00.916178 19766 net.cpp:395] inception_3a/relu_3x3_reduce <- inception_3a/3x3_reduce
I0311 16:53:00.916193 19766 net.cpp:346] inception_3a/relu_3x3_reduce -> inception_3a/3x3_reduce (in-place)
I0311 16:53:00.916208 19766 net.cpp:97] Setting up inception_3a/relu_3x3_reduce
I0311 16:53:00.916224 19766 net.cpp:104] Top shape: 128 96 11 11 (1486848)
I0311 16:53:00.916235 19766 layer_factory.hpp:78] Creating layer inception_3a/3x3
I0311 16:53:00.916249 19766 net.cpp:68] Creating Layer inception_3a/3x3
I0311 16:53:00.916261 19766 net.cpp:395] inception_3a/3x3 <- inception_3a/3x3_reduce
I0311 16:53:00.916277 19766 net.cpp:357] inception_3a/3x3 -> inception_3a/3x3
I0311 16:53:00.916293 19766 net.cpp:97] Setting up inception_3a/3x3
I0311 16:53:00.917729 19766 net.cpp:104] Top shape: 128 128 11 11 (1982464)
I0311 16:53:00.917758 19766 layer_factory.hpp:78] Creating layer inception_3a/relu_3x3
I0311 16:53:00.917773 19766 net.cpp:68] Creating Layer inception_3a/relu_3x3
I0311 16:53:00.917786 19766 net.cpp:395] inception_3a/relu_3x3 <- inception_3a/3x3
I0311 16:53:00.917824 19766 net.cpp:346] inception_3a/relu_3x3 -> inception_3a/3x3 (in-place)
I0311 16:53:00.917842 19766 net.cpp:97] Setting up inception_3a/relu_3x3
I0311 16:53:00.917857 19766 net.cpp:104] Top shape: 128 128 11 11 (1982464)
I0311 16:53:00.917870 19766 layer_factory.hpp:78] Creating layer inception_3a/5x5_reduce
I0311 16:53:00.917884 19766 net.cpp:68] Creating Layer inception_3a/5x5_reduce
I0311 16:53:00.917896 19766 net.cpp:395] inception_3a/5x5_reduce <- pool2/3x3_s2_pool2/3x3_s2_0_split_2
I0311 16:53:00.917913 19766 net.cpp:357] inception_3a/5x5_reduce -> inception_3a/5x5_reduce
I0311 16:53:00.917929 19766 net.cpp:97] Setting up inception_3a/5x5_reduce
I0311 16:53:00.918041 19766 net.cpp:104] Top shape: 128 16 11 11 (247808)
I0311 16:53:00.918062 19766 layer_factory.hpp:78] Creating layer inception_3a/relu_5x5_reduce
I0311 16:53:00.918079 19766 net.cpp:68] Creating Layer inception_3a/relu_5x5_reduce
I0311 16:53:00.918092 19766 net.cpp:395] inception_3a/relu_5x5_reduce <- inception_3a/5x5_reduce
I0311 16:53:00.918105 19766 net.cpp:346] inception_3a/relu_5x5_reduce -> inception_3a/5x5_reduce (in-place)
I0311 16:53:00.918120 19766 net.cpp:97] Setting up inception_3a/relu_5x5_reduce
I0311 16:53:00.918134 19766 net.cpp:104] Top shape: 128 16 11 11 (247808)
I0311 16:53:00.918146 19766 layer_factory.hpp:78] Creating layer inception_3a/5x5
I0311 16:53:00.918160 19766 net.cpp:68] Creating Layer inception_3a/5x5
I0311 16:53:00.918172 19766 net.cpp:395] inception_3a/5x5 <- inception_3a/5x5_reduce
I0311 16:53:00.918186 19766 net.cpp:357] inception_3a/5x5 -> inception_3a/5x5
I0311 16:53:00.918200 19766 net.cpp:97] Setting up inception_3a/5x5
I0311 16:53:00.918431 19766 net.cpp:104] Top shape: 128 32 11 11 (495616)
I0311 16:53:00.918453 19766 layer_factory.hpp:78] Creating layer inception_3a/relu_5x5
I0311 16:53:00.918467 19766 net.cpp:68] Creating Layer inception_3a/relu_5x5
I0311 16:53:00.918479 19766 net.cpp:395] inception_3a/relu_5x5 <- inception_3a/5x5
I0311 16:53:00.918498 19766 net.cpp:346] inception_3a/relu_5x5 -> inception_3a/5x5 (in-place)
I0311 16:53:00.918514 19766 net.cpp:97] Setting up inception_3a/relu_5x5
I0311 16:53:00.918544 19766 net.cpp:104] Top shape: 128 32 11 11 (495616)
I0311 16:53:00.918558 19766 layer_factory.hpp:78] Creating layer inception_3a/pool
I0311 16:53:00.918570 19766 layer_factory.cpp:51] CUDNN does not support padding or multiple tops. Using Caffe's own pooling layer.
I0311 16:53:00.918583 19766 net.cpp:68] Creating Layer inception_3a/pool
I0311 16:53:00.918596 19766 net.cpp:395] inception_3a/pool <- pool2/3x3_s2_pool2/3x3_s2_0_split_3
I0311 16:53:00.918609 19766 net.cpp:357] inception_3a/pool -> inception_3a/pool
I0311 16:53:00.918625 19766 net.cpp:97] Setting up inception_3a/pool
I0311 16:53:00.918638 19766 net.cpp:104] Top shape: 128 192 11 11 (2973696)
I0311 16:53:00.918649 19766 layer_factory.hpp:78] Creating layer inception_3a/pool_proj
I0311 16:53:00.918668 19766 net.cpp:68] Creating Layer inception_3a/pool_proj
I0311 16:53:00.918679 19766 net.cpp:395] inception_3a/pool_proj <- inception_3a/pool
I0311 16:53:00.918694 19766 net.cpp:357] inception_3a/pool_proj -> inception_3a/pool_proj
I0311 16:53:00.918709 19766 net.cpp:97] Setting up inception_3a/pool_proj
I0311 16:53:00.918859 19766 net.cpp:104] Top shape: 128 32 11 11 (495616)
I0311 16:53:00.918891 19766 layer_factory.hpp:78] Creating layer inception_3a/relu_pool_proj
I0311 16:53:00.918910 19766 net.cpp:68] Creating Layer inception_3a/relu_pool_proj
I0311 16:53:00.918922 19766 net.cpp:395] inception_3a/relu_pool_proj <- inception_3a/pool_proj
I0311 16:53:00.918936 19766 net.cpp:346] inception_3a/relu_pool_proj -> inception_3a/pool_proj (in-place)
I0311 16:53:00.918949 19766 net.cpp:97] Setting up inception_3a/relu_pool_proj
I0311 16:53:00.918964 19766 net.cpp:104] Top shape: 128 32 11 11 (495616)
I0311 16:53:00.918977 19766 layer_factory.hpp:78] Creating layer inception_3a/output
I0311 16:53:00.918993 19766 net.cpp:68] Creating Layer inception_3a/output
I0311 16:53:00.919023 19766 net.cpp:395] inception_3a/output <- inception_3a/1x1
I0311 16:53:00.919037 19766 net.cpp:395] inception_3a/output <- inception_3a/3x3
I0311 16:53:00.919050 19766 net.cpp:395] inception_3a/output <- inception_3a/5x5
I0311 16:53:00.919062 19766 net.cpp:395] inception_3a/output <- inception_3a/pool_proj
I0311 16:53:00.919077 19766 net.cpp:357] inception_3a/output -> inception_3a/output
I0311 16:53:00.919092 19766 net.cpp:97] Setting up inception_3a/output
I0311 16:53:00.919112 19766 net.cpp:104] Top shape: 128 256 11 11 (3964928)
I0311 16:53:00.919124 19766 layer_factory.hpp:78] Creating layer inception_3a/output_inception_3a/output_0_split
I0311 16:53:00.919142 19766 net.cpp:68] Creating Layer inception_3a/output_inception_3a/output_0_split
I0311 16:53:00.919153 19766 net.cpp:395] inception_3a/output_inception_3a/output_0_split <- inception_3a/output
I0311 16:53:00.919168 19766 net.cpp:357] inception_3a/output_inception_3a/output_0_split -> inception_3a/output_inception_3a/output_0_split_0
I0311 16:53:00.919183 19766 net.cpp:357] inception_3a/output_inception_3a/output_0_split -> inception_3a/output_inception_3a/output_0_split_1
I0311 16:53:00.919203 19766 net.cpp:357] inception_3a/output_inception_3a/output_0_split -> inception_3a/output_inception_3a/output_0_split_2
I0311 16:53:00.919219 19766 net.cpp:357] inception_3a/output_inception_3a/output_0_split -> inception_3a/output_inception_3a/output_0_split_3
I0311 16:53:00.919234 19766 net.cpp:97] Setting up inception_3a/output_inception_3a/output_0_split
I0311 16:53:00.919245 19766 net.cpp:104] Top shape: 128 256 11 11 (3964928)
I0311 16:53:00.919256 19766 net.cpp:104] Top shape: 128 256 11 11 (3964928)
I0311 16:53:00.919268 19766 net.cpp:104] Top shape: 128 256 11 11 (3964928)
I0311 16:53:00.919280 19766 net.cpp:104] Top shape: 128 256 11 11 (3964928)
I0311 16:53:00.919291 19766 layer_factory.hpp:78] Creating layer inception_3b/1x1
I0311 16:53:00.919304 19766 net.cpp:68] Creating Layer inception_3b/1x1
I0311 16:53:00.919317 19766 net.cpp:395] inception_3b/1x1 <- inception_3a/output_inception_3a/output_0_split_0
I0311 16:53:00.919340 19766 net.cpp:357] inception_3b/1x1 -> inception_3b/1x1
I0311 16:53:00.919358 19766 net.cpp:97] Setting up inception_3b/1x1
I0311 16:53:00.919777 19766 net.cpp:104] Top shape: 128 128 11 11 (1982464)
I0311 16:53:00.919809 19766 layer_factory.hpp:78] Creating layer inception_3b/relu_1x1
I0311 16:53:00.919824 19766 net.cpp:68] Creating Layer inception_3b/relu_1x1
I0311 16:53:00.919836 19766 net.cpp:395] inception_3b/relu_1x1 <- inception_3b/1x1
I0311 16:53:00.919849 19766 net.cpp:346] inception_3b/relu_1x1 -> inception_3b/1x1 (in-place)
I0311 16:53:00.919864 19766 net.cpp:97] Setting up inception_3b/relu_1x1
I0311 16:53:00.919879 19766 net.cpp:104] Top shape: 128 128 11 11 (1982464)
I0311 16:53:00.919891 19766 layer_factory.hpp:78] Creating layer inception_3b/3x3_reduce
I0311 16:53:00.919909 19766 net.cpp:68] Creating Layer inception_3b/3x3_reduce
I0311 16:53:00.919920 19766 net.cpp:395] inception_3b/3x3_reduce <- inception_3a/output_inception_3a/output_0_split_1
I0311 16:53:00.919948 19766 net.cpp:357] inception_3b/3x3_reduce -> inception_3b/3x3_reduce
I0311 16:53:00.919967 19766 net.cpp:97] Setting up inception_3b/3x3_reduce
I0311 16:53:00.920554 19766 net.cpp:104] Top shape: 128 128 11 11 (1982464)
I0311 16:53:00.920580 19766 layer_factory.hpp:78] Creating layer inception_3b/relu_3x3_reduce
I0311 16:53:00.920598 19766 net.cpp:68] Creating Layer inception_3b/relu_3x3_reduce
I0311 16:53:00.920611 19766 net.cpp:395] inception_3b/relu_3x3_reduce <- inception_3b/3x3_reduce
I0311 16:53:00.920627 19766 net.cpp:346] inception_3b/relu_3x3_reduce -> inception_3b/3x3_reduce (in-place)
I0311 16:53:00.920645 19766 net.cpp:97] Setting up inception_3b/relu_3x3_reduce
I0311 16:53:00.920662 19766 net.cpp:104] Top shape: 128 128 11 11 (1982464)
I0311 16:53:00.920675 19766 layer_factory.hpp:78] Creating layer inception_3b/3x3
I0311 16:53:00.920691 19766 net.cpp:68] Creating Layer inception_3b/3x3
I0311 16:53:00.920704 19766 net.cpp:395] inception_3b/3x3 <- inception_3b/3x3_reduce
I0311 16:53:00.920740 19766 net.cpp:357] inception_3b/3x3 -> inception_3b/3x3
I0311 16:53:00.920759 19766 net.cpp:97] Setting up inception_3b/3x3
I0311 16:53:00.923110 19766 net.cpp:104] Top shape: 128 192 11 11 (2973696)
I0311 16:53:00.923136 19766 layer_factory.hpp:78] Creating layer inception_3b/relu_3x3
I0311 16:53:00.923153 19766 net.cpp:68] Creating Layer inception_3b/relu_3x3
I0311 16:53:00.923167 19766 net.cpp:395] inception_3b/relu_3x3 <- inception_3b/3x3
I0311 16:53:00.923182 19766 net.cpp:346] inception_3b/relu_3x3 -> inception_3b/3x3 (in-place)
I0311 16:53:00.923197 19766 net.cpp:97] Setting up inception_3b/relu_3x3
I0311 16:53:00.923215 19766 net.cpp:104] Top shape: 128 192 11 11 (2973696)
I0311 16:53:00.923228 19766 layer_factory.hpp:78] Creating layer inception_3b/5x5_reduce
I0311 16:53:00.923243 19766 net.cpp:68] Creating Layer inception_3b/5x5_reduce
I0311 16:53:00.923254 19766 net.cpp:395] inception_3b/5x5_reduce <- inception_3a/output_inception_3a/output_0_split_2
I0311 16:53:00.923272 19766 net.cpp:357] inception_3b/5x5_reduce -> inception_3b/5x5_reduce
I0311 16:53:00.923290 19766 net.cpp:97] Setting up inception_3b/5x5_reduce
I0311 16:53:00.923470 19766 net.cpp:104] Top shape: 128 32 11 11 (495616)
I0311 16:53:00.923492 19766 layer_factory.hpp:78] Creating layer inception_3b/relu_5x5_reduce
I0311 16:53:00.923509 19766 net.cpp:68] Creating Layer inception_3b/relu_5x5_reduce
I0311 16:53:00.923521 19766 net.cpp:395] inception_3b/relu_5x5_reduce <- inception_3b/5x5_reduce
I0311 16:53:00.923534 19766 net.cpp:346] inception_3b/relu_5x5_reduce -> inception_3b/5x5_reduce (in-place)
I0311 16:53:00.923549 19766 net.cpp:97] Setting up inception_3b/relu_5x5_reduce
I0311 16:53:00.923563 19766 net.cpp:104] Top shape: 128 32 11 11 (495616)
I0311 16:53:00.923575 19766 layer_factory.hpp:78] Creating layer inception_3b/5x5
I0311 16:53:00.923589 19766 net.cpp:68] Creating Layer inception_3b/5x5
I0311 16:53:00.923601 19766 net.cpp:395] inception_3b/5x5 <- inception_3b/5x5_reduce
I0311 16:53:00.923619 19766 net.cpp:357] inception_3b/5x5 -> inception_3b/5x5
I0311 16:53:00.923640 19766 net.cpp:97] Setting up inception_3b/5x5
I0311 16:53:00.924532 19766 net.cpp:104] Top shape: 128 96 11 11 (1486848)
I0311 16:53:00.924557 19766 layer_factory.hpp:78] Creating layer inception_3b/relu_5x5
I0311 16:53:00.924571 19766 net.cpp:68] Creating Layer inception_3b/relu_5x5
I0311 16:53:00.924583 19766 net.cpp:395] inception_3b/relu_5x5 <- inception_3b/5x5
I0311 16:53:00.924599 19766 net.cpp:346] inception_3b/relu_5x5 -> inception_3b/5x5 (in-place)
I0311 16:53:00.924615 19766 net.cpp:97] Setting up inception_3b/relu_5x5
I0311 16:53:00.924630 19766 net.cpp:104] Top shape: 128 96 11 11 (1486848)
I0311 16:53:00.924643 19766 layer_factory.hpp:78] Creating layer inception_3b/pool
I0311 16:53:00.924654 19766 layer_factory.cpp:51] CUDNN does not support padding or multiple tops. Using Caffe's own pooling layer.
I0311 16:53:00.924666 19766 net.cpp:68] Creating Layer inception_3b/pool
I0311 16:53:00.924679 19766 net.cpp:395] inception_3b/pool <- inception_3a/output_inception_3a/output_0_split_3
I0311 16:53:00.924695 19766 net.cpp:357] inception_3b/pool -> inception_3b/pool
I0311 16:53:00.924711 19766 net.cpp:97] Setting up inception_3b/pool
I0311 16:53:00.924726 19766 net.cpp:104] Top shape: 128 256 11 11 (3964928)
I0311 16:53:00.924737 19766 layer_factory.hpp:78] Creating layer inception_3b/pool_proj
I0311 16:53:00.924753 19766 net.cpp:68] Creating Layer inception_3b/pool_proj
I0311 16:53:00.924764 19766 net.cpp:395] inception_3b/pool_proj <- inception_3b/pool
I0311 16:53:00.924783 19766 net.cpp:357] inception_3b/pool_proj -> inception_3b/pool_proj
I0311 16:53:00.924799 19766 net.cpp:97] Setting up inception_3b/pool_proj
I0311 16:53:00.925047 19766 net.cpp:104] Top shape: 128 64 11 11 (991232)
I0311 16:53:00.925071 19766 layer_factory.hpp:78] Creating layer inception_3b/relu_pool_proj
I0311 16:53:00.925086 19766 net.cpp:68] Creating Layer inception_3b/relu_pool_proj
I0311 16:53:00.925098 19766 net.cpp:395] inception_3b/relu_pool_proj <- inception_3b/pool_proj
I0311 16:53:00.925133 19766 net.cpp:346] inception_3b/relu_pool_proj -> inception_3b/pool_proj (in-place)
I0311 16:53:00.925150 19766 net.cpp:97] Setting up inception_3b/relu_pool_proj
I0311 16:53:00.925166 19766 net.cpp:104] Top shape: 128 64 11 11 (991232)
I0311 16:53:00.925179 19766 layer_factory.hpp:78] Creating layer inception_3b/output
I0311 16:53:00.925191 19766 net.cpp:68] Creating Layer inception_3b/output
I0311 16:53:00.925204 19766 net.cpp:395] inception_3b/output <- inception_3b/1x1
I0311 16:53:00.925215 19766 net.cpp:395] inception_3b/output <- inception_3b/3x3
I0311 16:53:00.925227 19766 net.cpp:395] inception_3b/output <- inception_3b/5x5
I0311 16:53:00.925240 19766 net.cpp:395] inception_3b/output <- inception_3b/pool_proj
I0311 16:53:00.925253 19766 net.cpp:357] inception_3b/output -> inception_3b/output
I0311 16:53:00.925267 19766 net.cpp:97] Setting up inception_3b/output
I0311 16:53:00.925281 19766 net.cpp:104] Top shape: 128 480 11 11 (7434240)
I0311 16:53:00.925292 19766 layer_factory.hpp:78] Creating layer pool3/3x3_s2
I0311 16:53:00.925305 19766 net.cpp:68] Creating Layer pool3/3x3_s2
I0311 16:53:00.925371 19766 net.cpp:395] pool3/3x3_s2 <- inception_3b/output
I0311 16:53:00.925395 19766 net.cpp:357] pool3/3x3_s2 -> pool3/3x3_s2
I0311 16:53:00.925410 19766 net.cpp:97] Setting up pool3/3x3_s2
I0311 16:53:00.925428 19766 net.cpp:104] Top shape: 128 480 5 5 (1536000)
I0311 16:53:00.925441 19766 layer_factory.hpp:78] Creating layer pool3/3x3_s2_pool3/3x3_s2_0_split
I0311 16:53:00.925456 19766 net.cpp:68] Creating Layer pool3/3x3_s2_pool3/3x3_s2_0_split
I0311 16:53:00.925467 19766 net.cpp:395] pool3/3x3_s2_pool3/3x3_s2_0_split <- pool3/3x3_s2
I0311 16:53:00.925482 19766 net.cpp:357] pool3/3x3_s2_pool3/3x3_s2_0_split -> pool3/3x3_s2_pool3/3x3_s2_0_split_0
I0311 16:53:00.925498 19766 net.cpp:357] pool3/3x3_s2_pool3/3x3_s2_0_split -> pool3/3x3_s2_pool3/3x3_s2_0_split_1
I0311 16:53:00.925513 19766 net.cpp:357] pool3/3x3_s2_pool3/3x3_s2_0_split -> pool3/3x3_s2_pool3/3x3_s2_0_split_2
I0311 16:53:00.925529 19766 net.cpp:357] pool3/3x3_s2_pool3/3x3_s2_0_split -> pool3/3x3_s2_pool3/3x3_s2_0_split_3
I0311 16:53:00.925542 19766 net.cpp:97] Setting up pool3/3x3_s2_pool3/3x3_s2_0_split
I0311 16:53:00.925555 19766 net.cpp:104] Top shape: 128 480 5 5 (1536000)
I0311 16:53:00.925566 19766 net.cpp:104] Top shape: 128 480 5 5 (1536000)
I0311 16:53:00.925577 19766 net.cpp:104] Top shape: 128 480 5 5 (1536000)
I0311 16:53:00.925587 19766 net.cpp:104] Top shape: 128 480 5 5 (1536000)
I0311 16:53:00.925598 19766 layer_factory.hpp:78] Creating layer inception_4a/1x1
I0311 16:53:00.925614 19766 net.cpp:68] Creating Layer inception_4a/1x1
I0311 16:53:00.925627 19766 net.cpp:395] inception_4a/1x1 <- pool3/3x3_s2_pool3/3x3_s2_0_split_0
I0311 16:53:00.925653 19766 net.cpp:357] inception_4a/1x1 -> inception_4a/1x1
I0311 16:53:00.925669 19766 net.cpp:97] Setting up inception_4a/1x1
I0311 16:53:00.926831 19766 net.cpp:104] Top shape: 128 192 5 5 (614400)
I0311 16:53:00.926861 19766 layer_factory.hpp:78] Creating layer inception_4a/relu_1x1
I0311 16:53:00.926882 19766 net.cpp:68] Creating Layer inception_4a/relu_1x1
I0311 16:53:00.926898 19766 net.cpp:395] inception_4a/relu_1x1 <- inception_4a/1x1
I0311 16:53:00.926911 19766 net.cpp:346] inception_4a/relu_1x1 -> inception_4a/1x1 (in-place)
I0311 16:53:00.926930 19766 net.cpp:97] Setting up inception_4a/relu_1x1
I0311 16:53:00.926945 19766 net.cpp:104] Top shape: 128 192 5 5 (614400)
I0311 16:53:00.926957 19766 layer_factory.hpp:78] Creating layer inception_4a/3x3_reduce
I0311 16:53:00.926972 19766 net.cpp:68] Creating Layer inception_4a/3x3_reduce
I0311 16:53:00.926985 19766 net.cpp:395] inception_4a/3x3_reduce <- pool3/3x3_s2_pool3/3x3_s2_0_split_1
I0311 16:53:00.927000 19766 net.cpp:357] inception_4a/3x3_reduce -> inception_4a/3x3_reduce
I0311 16:53:00.927014 19766 net.cpp:97] Setting up inception_4a/3x3_reduce
I0311 16:53:00.927618 19766 net.cpp:104] Top shape: 128 96 5 5 (307200)
I0311 16:53:00.927649 19766 layer_factory.hpp:78] Creating layer inception_4a/relu_3x3_reduce
I0311 16:53:00.927682 19766 net.cpp:68] Creating Layer inception_4a/relu_3x3_reduce
I0311 16:53:00.927700 19766 net.cpp:395] inception_4a/relu_3x3_reduce <- inception_4a/3x3_reduce
I0311 16:53:00.927714 19766 net.cpp:346] inception_4a/relu_3x3_reduce -> inception_4a/3x3_reduce (in-place)
I0311 16:53:00.927728 19766 net.cpp:97] Setting up inception_4a/relu_3x3_reduce
I0311 16:53:00.927744 19766 net.cpp:104] Top shape: 128 96 5 5 (307200)
I0311 16:53:00.927757 19766 layer_factory.hpp:78] Creating layer inception_4a/3x3
I0311 16:53:00.927770 19766 net.cpp:68] Creating Layer inception_4a/3x3
I0311 16:53:00.927783 19766 net.cpp:395] inception_4a/3x3 <- inception_4a/3x3_reduce
I0311 16:53:00.927798 19766 net.cpp:357] inception_4a/3x3 -> inception_4a/3x3
I0311 16:53:00.927814 19766 net.cpp:97] Setting up inception_4a/3x3
I0311 16:53:00.929796 19766 net.cpp:104] Top shape: 128 208 5 5 (665600)
I0311 16:53:00.929823 19766 layer_factory.hpp:78] Creating layer inception_4a/relu_3x3
I0311 16:53:00.929841 19766 net.cpp:68] Creating Layer inception_4a/relu_3x3
I0311 16:53:00.929854 19766 net.cpp:395] inception_4a/relu_3x3 <- inception_4a/3x3
I0311 16:53:00.929868 19766 net.cpp:346] inception_4a/relu_3x3 -> inception_4a/3x3 (in-place)
I0311 16:53:00.929883 19766 net.cpp:97] Setting up inception_4a/relu_3x3
I0311 16:53:00.929898 19766 net.cpp:104] Top shape: 128 208 5 5 (665600)
I0311 16:53:00.929910 19766 layer_factory.hpp:78] Creating layer inception_4a/5x5_reduce
I0311 16:53:00.929927 19766 net.cpp:68] Creating Layer inception_4a/5x5_reduce
I0311 16:53:00.929939 19766 net.cpp:395] inception_4a/5x5_reduce <- pool3/3x3_s2_pool3/3x3_s2_0_split_2
I0311 16:53:00.929955 19766 net.cpp:357] inception_4a/5x5_reduce -> inception_4a/5x5_reduce
I0311 16:53:00.929970 19766 net.cpp:97] Setting up inception_4a/5x5_reduce
I0311 16:53:00.930122 19766 net.cpp:104] Top shape: 128 16 5 5 (51200)
I0311 16:53:00.930143 19766 layer_factory.hpp:78] Creating layer inception_4a/relu_5x5_reduce
I0311 16:53:00.930160 19766 net.cpp:68] Creating Layer inception_4a/relu_5x5_reduce
I0311 16:53:00.930172 19766 net.cpp:395] inception_4a/relu_5x5_reduce <- inception_4a/5x5_reduce
I0311 16:53:00.930186 19766 net.cpp:346] inception_4a/relu_5x5_reduce -> inception_4a/5x5_reduce (in-place)
I0311 16:53:00.930202 19766 net.cpp:97] Setting up inception_4a/relu_5x5_reduce
I0311 16:53:00.930217 19766 net.cpp:104] Top shape: 128 16 5 5 (51200)
I0311 16:53:00.930227 19766 layer_factory.hpp:78] Creating layer inception_4a/5x5
I0311 16:53:00.930241 19766 net.cpp:68] Creating Layer inception_4a/5x5
I0311 16:53:00.930253 19766 net.cpp:395] inception_4a/5x5 <- inception_4a/5x5_reduce
I0311 16:53:00.930282 19766 net.cpp:357] inception_4a/5x5 -> inception_4a/5x5
I0311 16:53:00.930301 19766 net.cpp:97] Setting up inception_4a/5x5
I0311 16:53:00.930578 19766 net.cpp:104] Top shape: 128 48 5 5 (153600)
I0311 16:53:00.930603 19766 layer_factory.hpp:78] Creating layer inception_4a/relu_5x5
I0311 16:53:00.930619 19766 net.cpp:68] Creating Layer inception_4a/relu_5x5
I0311 16:53:00.930632 19766 net.cpp:395] inception_4a/relu_5x5 <- inception_4a/5x5
I0311 16:53:00.930646 19766 net.cpp:346] inception_4a/relu_5x5 -> inception_4a/5x5 (in-place)
I0311 16:53:00.930660 19766 net.cpp:97] Setting up inception_4a/relu_5x5
I0311 16:53:00.930675 19766 net.cpp:104] Top shape: 128 48 5 5 (153600)
I0311 16:53:00.930686 19766 layer_factory.hpp:78] Creating layer inception_4a/pool
I0311 16:53:00.930698 19766 layer_factory.cpp:51] CUDNN does not support padding or multiple tops. Using Caffe's own pooling layer.
I0311 16:53:00.930711 19766 net.cpp:68] Creating Layer inception_4a/pool
I0311 16:53:00.930723 19766 net.cpp:395] inception_4a/pool <- pool3/3x3_s2_pool3/3x3_s2_0_split_3
I0311 16:53:00.930739 19766 net.cpp:357] inception_4a/pool -> inception_4a/pool
I0311 16:53:00.930755 19766 net.cpp:97] Setting up inception_4a/pool
I0311 16:53:00.930769 19766 net.cpp:104] Top shape: 128 480 5 5 (1536000)
I0311 16:53:00.930781 19766 layer_factory.hpp:78] Creating layer inception_4a/pool_proj
I0311 16:53:00.930816 19766 net.cpp:68] Creating Layer inception_4a/pool_proj
I0311 16:53:00.930833 19766 net.cpp:395] inception_4a/pool_proj <- inception_4a/pool
I0311 16:53:00.930850 19766 net.cpp:357] inception_4a/pool_proj -> inception_4a/pool_proj
I0311 16:53:00.930865 19766 net.cpp:97] Setting up inception_4a/pool_proj
I0311 16:53:00.931396 19766 net.cpp:104] Top shape: 128 64 5 5 (204800)
I0311 16:53:00.931422 19766 layer_factory.hpp:78] Creating layer inception_4a/relu_pool_proj
I0311 16:53:00.931437 19766 net.cpp:68] Creating Layer inception_4a/relu_pool_proj
I0311 16:53:00.931449 19766 net.cpp:395] inception_4a/relu_pool_proj <- inception_4a/pool_proj
I0311 16:53:00.931468 19766 net.cpp:346] inception_4a/relu_pool_proj -> inception_4a/pool_proj (in-place)
I0311 16:53:00.931483 19766 net.cpp:97] Setting up inception_4a/relu_pool_proj
I0311 16:53:00.931499 19766 net.cpp:104] Top shape: 128 64 5 5 (204800)
I0311 16:53:00.931511 19766 layer_factory.hpp:78] Creating layer inception_4a/output
I0311 16:53:00.931524 19766 net.cpp:68] Creating Layer inception_4a/output
I0311 16:53:00.931535 19766 net.cpp:395] inception_4a/output <- inception_4a/1x1
I0311 16:53:00.931548 19766 net.cpp:395] inception_4a/output <- inception_4a/3x3
I0311 16:53:00.931561 19766 net.cpp:395] inception_4a/output <- inception_4a/5x5
I0311 16:53:00.931576 19766 net.cpp:395] inception_4a/output <- inception_4a/pool_proj
I0311 16:53:00.931589 19766 net.cpp:357] inception_4a/output -> inception_4a/output
I0311 16:53:00.931603 19766 net.cpp:97] Setting up inception_4a/output
I0311 16:53:00.931629 19766 net.cpp:104] Top shape: 128 512 5 5 (1638400)
I0311 16:53:00.931643 19766 layer_factory.hpp:78] Creating layer inception_4a/output_inception_4a/output_0_split
I0311 16:53:00.931659 19766 net.cpp:68] Creating Layer inception_4a/output_inception_4a/output_0_split
I0311 16:53:00.931673 19766 net.cpp:395] inception_4a/output_inception_4a/output_0_split <- inception_4a/output
I0311 16:53:00.931687 19766 net.cpp:357] inception_4a/output_inception_4a/output_0_split -> inception_4a/output_inception_4a/output_0_split_0
I0311 16:53:00.931704 19766 net.cpp:357] inception_4a/output_inception_4a/output_0_split -> inception_4a/output_inception_4a/output_0_split_1
I0311 16:53:00.931720 19766 net.cpp:357] inception_4a/output_inception_4a/output_0_split -> inception_4a/output_inception_4a/output_0_split_2
I0311 16:53:00.931736 19766 net.cpp:357] inception_4a/output_inception_4a/output_0_split -> inception_4a/output_inception_4a/output_0_split_3
I0311 16:53:00.931754 19766 net.cpp:357] inception_4a/output_inception_4a/output_0_split -> inception_4a/output_inception_4a/output_0_split_4
I0311 16:53:00.931769 19766 net.cpp:97] Setting up inception_4a/output_inception_4a/output_0_split
I0311 16:53:00.931782 19766 net.cpp:104] Top shape: 128 512 5 5 (1638400)
I0311 16:53:00.931793 19766 net.cpp:104] Top shape: 128 512 5 5 (1638400)
I0311 16:53:00.931804 19766 net.cpp:104] Top shape: 128 512 5 5 (1638400)
I0311 16:53:00.931814 19766 net.cpp:104] Top shape: 128 512 5 5 (1638400)
I0311 16:53:00.931825 19766 net.cpp:104] Top shape: 128 512 5 5 (1638400)
I0311 16:53:00.931836 19766 layer_factory.hpp:78] Creating layer loss1/ave_pool
I0311 16:53:00.931852 19766 net.cpp:68] Creating Layer loss1/ave_pool
I0311 16:53:00.931865 19766 net.cpp:395] loss1/ave_pool <- inception_4a/output_inception_4a/output_0_split_0
I0311 16:53:00.931879 19766 net.cpp:357] loss1/ave_pool -> loss1/ave_pool
I0311 16:53:00.931895 19766 net.cpp:97] Setting up loss1/ave_pool
I0311 16:53:00.931910 19766 net.cpp:104] Top shape: 128 512 1 1 (65536)
I0311 16:53:00.931922 19766 layer_factory.hpp:78] Creating layer loss1/conv
I0311 16:53:00.931941 19766 net.cpp:68] Creating Layer loss1/conv
I0311 16:53:00.931952 19766 net.cpp:395] loss1/conv <- loss1/ave_pool
I0311 16:53:00.931969 19766 net.cpp:357] loss1/conv -> loss1/conv
I0311 16:53:00.931985 19766 net.cpp:97] Setting up loss1/conv
I0311 16:53:00.932741 19766 net.cpp:104] Top shape: 128 128 1 1 (16384)
I0311 16:53:00.932765 19766 layer_factory.hpp:78] Creating layer loss1/relu_conv
I0311 16:53:00.932800 19766 net.cpp:68] Creating Layer loss1/relu_conv
I0311 16:53:00.932814 19766 net.cpp:395] loss1/relu_conv <- loss1/conv
I0311 16:53:00.932828 19766 net.cpp:346] loss1/relu_conv -> loss1/conv (in-place)
I0311 16:53:00.932857 19766 net.cpp:97] Setting up loss1/relu_conv
I0311 16:53:00.932885 19766 net.cpp:104] Top shape: 128 128 1 1 (16384)
I0311 16:53:00.932898 19766 layer_factory.hpp:78] Creating layer loss1/fc
I0311 16:53:00.932924 19766 net.cpp:68] Creating Layer loss1/fc
I0311 16:53:00.932940 19766 net.cpp:395] loss1/fc <- loss1/conv
I0311 16:53:00.932957 19766 net.cpp:357] loss1/fc -> loss1/fc
I0311 16:53:00.932975 19766 net.cpp:97] Setting up loss1/fc
I0311 16:53:00.934320 19766 net.cpp:104] Top shape: 128 1024 1 1 (131072)
I0311 16:53:00.934345 19766 layer_factory.hpp:78] Creating layer loss1/relu_fc
I0311 16:53:00.934361 19766 net.cpp:68] Creating Layer loss1/relu_fc
I0311 16:53:00.934375 19766 net.cpp:395] loss1/relu_fc <- loss1/fc
I0311 16:53:00.934388 19766 net.cpp:346] loss1/relu_fc -> loss1/fc (in-place)
I0311 16:53:00.934402 19766 net.cpp:97] Setting up loss1/relu_fc
I0311 16:53:00.934417 19766 net.cpp:104] Top shape: 128 1024 1 1 (131072)
I0311 16:53:00.934429 19766 layer_factory.hpp:78] Creating layer loss1/drop_fc
I0311 16:53:00.934454 19766 net.cpp:68] Creating Layer loss1/drop_fc
I0311 16:53:00.934468 19766 net.cpp:395] loss1/drop_fc <- loss1/fc
I0311 16:53:00.934481 19766 net.cpp:346] loss1/drop_fc -> loss1/fc (in-place)
I0311 16:53:00.934495 19766 net.cpp:97] Setting up loss1/drop_fc
I0311 16:53:00.934509 19766 net.cpp:104] Top shape: 128 1024 1 1 (131072)
I0311 16:53:00.934522 19766 layer_factory.hpp:78] Creating layer loss1/classifier
I0311 16:53:00.934540 19766 net.cpp:68] Creating Layer loss1/classifier
I0311 16:53:00.934551 19766 net.cpp:395] loss1/classifier <- loss1/fc
I0311 16:53:00.934566 19766 net.cpp:357] loss1/classifier -> loss1/classifier
I0311 16:53:00.934582 19766 net.cpp:97] Setting up loss1/classifier
I0311 16:53:00.935888 19766 net.cpp:104] Top shape: 128 121 1 1 (15488)
I0311 16:53:00.935914 19766 layer_factory.hpp:78] Creating layer loss1/loss
I0311 16:53:00.935931 19766 net.cpp:68] Creating Layer loss1/loss
I0311 16:53:00.935945 19766 net.cpp:395] loss1/loss <- loss1/classifier
I0311 16:53:00.935958 19766 net.cpp:395] loss1/loss <- label_data_1_split_0
I0311 16:53:00.935974 19766 net.cpp:357] loss1/loss -> loss1/loss1
I0311 16:53:00.935992 19766 net.cpp:97] Setting up loss1/loss
I0311 16:53:00.936007 19766 layer_factory.hpp:78] Creating layer loss1/loss
I0311 16:53:00.936071 19766 net.cpp:104] Top shape: 1 1 1 1 (1)
I0311 16:53:00.936087 19766 net.cpp:110]     with loss weight 0.3
I0311 16:53:00.936128 19766 layer_factory.hpp:78] Creating layer inception_4b/1x1
I0311 16:53:00.936147 19766 net.cpp:68] Creating Layer inception_4b/1x1
I0311 16:53:00.936161 19766 net.cpp:395] inception_4b/1x1 <- inception_4a/output_inception_4a/output_0_split_1
I0311 16:53:00.936175 19766 net.cpp:357] inception_4b/1x1 -> inception_4b/1x1
I0311 16:53:00.936192 19766 net.cpp:97] Setting up inception_4b/1x1
I0311 16:53:00.937124 19766 net.cpp:104] Top shape: 128 160 5 5 (512000)
I0311 16:53:00.937147 19766 layer_factory.hpp:78] Creating layer inception_4b/relu_1x1
I0311 16:53:00.937165 19766 net.cpp:68] Creating Layer inception_4b/relu_1x1
I0311 16:53:00.937186 19766 net.cpp:395] inception_4b/relu_1x1 <- inception_4b/1x1
I0311 16:53:00.937201 19766 net.cpp:346] inception_4b/relu_1x1 -> inception_4b/1x1 (in-place)
I0311 16:53:00.937216 19766 net.cpp:97] Setting up inception_4b/relu_1x1
I0311 16:53:00.937230 19766 net.cpp:104] Top shape: 128 160 5 5 (512000)
I0311 16:53:00.937242 19766 layer_factory.hpp:78] Creating layer inception_4b/3x3_reduce
I0311 16:53:00.937257 19766 net.cpp:68] Creating Layer inception_4b/3x3_reduce
I0311 16:53:00.937268 19766 net.cpp:395] inception_4b/3x3_reduce <- inception_4a/output_inception_4a/output_0_split_2
I0311 16:53:00.937285 19766 net.cpp:357] inception_4b/3x3_reduce -> inception_4b/3x3_reduce
I0311 16:53:00.937322 19766 net.cpp:97] Setting up inception_4b/3x3_reduce
I0311 16:53:00.937979 19766 net.cpp:104] Top shape: 128 112 5 5 (358400)
I0311 16:53:00.938005 19766 layer_factory.hpp:78] Creating layer inception_4b/relu_3x3_reduce
I0311 16:53:00.938020 19766 net.cpp:68] Creating Layer inception_4b/relu_3x3_reduce
I0311 16:53:00.938032 19766 net.cpp:395] inception_4b/relu_3x3_reduce <- inception_4b/3x3_reduce
I0311 16:53:00.938046 19766 net.cpp:346] inception_4b/relu_3x3_reduce -> inception_4b/3x3_reduce (in-place)
I0311 16:53:00.938060 19766 net.cpp:97] Setting up inception_4b/relu_3x3_reduce
I0311 16:53:00.938076 19766 net.cpp:104] Top shape: 128 112 5 5 (358400)
I0311 16:53:00.938087 19766 layer_factory.hpp:78] Creating layer inception_4b/3x3
I0311 16:53:00.938103 19766 net.cpp:68] Creating Layer inception_4b/3x3
I0311 16:53:00.938115 19766 net.cpp:395] inception_4b/3x3 <- inception_4b/3x3_reduce
I0311 16:53:00.938130 19766 net.cpp:357] inception_4b/3x3 -> inception_4b/3x3
I0311 16:53:00.938145 19766 net.cpp:97] Setting up inception_4b/3x3
I0311 16:53:00.940518 19766 net.cpp:104] Top shape: 128 224 5 5 (716800)
I0311 16:53:00.940546 19766 layer_factory.hpp:78] Creating layer inception_4b/relu_3x3
I0311 16:53:00.940562 19766 net.cpp:68] Creating Layer inception_4b/relu_3x3
I0311 16:53:00.940577 19766 net.cpp:395] inception_4b/relu_3x3 <- inception_4b/3x3
I0311 16:53:00.940590 19766 net.cpp:346] inception_4b/relu_3x3 -> inception_4b/3x3 (in-place)
I0311 16:53:00.940604 19766 net.cpp:97] Setting up inception_4b/relu_3x3
I0311 16:53:00.940619 19766 net.cpp:104] Top shape: 128 224 5 5 (716800)
I0311 16:53:00.940631 19766 layer_factory.hpp:78] Creating layer inception_4b/5x5_reduce
I0311 16:53:00.940647 19766 net.cpp:68] Creating Layer inception_4b/5x5_reduce
I0311 16:53:00.940660 19766 net.cpp:395] inception_4b/5x5_reduce <- inception_4a/output_inception_4a/output_0_split_3
I0311 16:53:00.940675 19766 net.cpp:357] inception_4b/5x5_reduce -> inception_4b/5x5_reduce
I0311 16:53:00.940690 19766 net.cpp:97] Setting up inception_4b/5x5_reduce
I0311 16:53:00.941040 19766 net.cpp:104] Top shape: 128 24 5 5 (76800)
I0311 16:53:00.941066 19766 layer_factory.hpp:78] Creating layer inception_4b/relu_5x5_reduce
I0311 16:53:00.941083 19766 net.cpp:68] Creating Layer inception_4b/relu_5x5_reduce
I0311 16:53:00.941097 19766 net.cpp:395] inception_4b/relu_5x5_reduce <- inception_4b/5x5_reduce
I0311 16:53:00.941112 19766 net.cpp:346] inception_4b/relu_5x5_reduce -> inception_4b/5x5_reduce (in-place)
I0311 16:53:00.941125 19766 net.cpp:97] Setting up inception_4b/relu_5x5_reduce
I0311 16:53:00.941140 19766 net.cpp:104] Top shape: 128 24 5 5 (76800)
I0311 16:53:00.941153 19766 layer_factory.hpp:78] Creating layer inception_4b/5x5
I0311 16:53:00.941166 19766 net.cpp:68] Creating Layer inception_4b/5x5
I0311 16:53:00.941179 19766 net.cpp:395] inception_4b/5x5 <- inception_4b/5x5_reduce
I0311 16:53:00.941196 19766 net.cpp:357] inception_4b/5x5 -> inception_4b/5x5
I0311 16:53:00.941213 19766 net.cpp:97] Setting up inception_4b/5x5
I0311 16:53:00.941673 19766 net.cpp:104] Top shape: 128 64 5 5 (204800)
I0311 16:53:00.941694 19766 layer_factory.hpp:78] Creating layer inception_4b/relu_5x5
I0311 16:53:00.941711 19766 net.cpp:68] Creating Layer inception_4b/relu_5x5
I0311 16:53:00.941725 19766 net.cpp:395] inception_4b/relu_5x5 <- inception_4b/5x5
I0311 16:53:00.941738 19766 net.cpp:346] inception_4b/relu_5x5 -> inception_4b/5x5 (in-place)
I0311 16:53:00.941752 19766 net.cpp:97] Setting up inception_4b/relu_5x5
I0311 16:53:00.941766 19766 net.cpp:104] Top shape: 128 64 5 5 (204800)
I0311 16:53:00.941778 19766 layer_factory.hpp:78] Creating layer inception_4b/pool
I0311 16:53:00.941789 19766 layer_factory.cpp:51] CUDNN does not support padding or multiple tops. Using Caffe's own pooling layer.
I0311 16:53:00.941802 19766 net.cpp:68] Creating Layer inception_4b/pool
I0311 16:53:00.941814 19766 net.cpp:395] inception_4b/pool <- inception_4a/output_inception_4a/output_0_split_4
I0311 16:53:00.941831 19766 net.cpp:357] inception_4b/pool -> inception_4b/pool
I0311 16:53:00.941874 19766 net.cpp:97] Setting up inception_4b/pool
I0311 16:53:00.941895 19766 net.cpp:104] Top shape: 128 512 5 5 (1638400)
I0311 16:53:00.941908 19766 layer_factory.hpp:78] Creating layer inception_4b/pool_proj
I0311 16:53:00.941923 19766 net.cpp:68] Creating Layer inception_4b/pool_proj
I0311 16:53:00.941936 19766 net.cpp:395] inception_4b/pool_proj <- inception_4b/pool
I0311 16:53:00.941952 19766 net.cpp:357] inception_4b/pool_proj -> inception_4b/pool_proj
I0311 16:53:00.941968 19766 net.cpp:97] Setting up inception_4b/pool_proj
I0311 16:53:00.942386 19766 net.cpp:104] Top shape: 128 64 5 5 (204800)
I0311 16:53:00.942412 19766 layer_factory.hpp:78] Creating layer inception_4b/relu_pool_proj
I0311 16:53:00.942427 19766 net.cpp:68] Creating Layer inception_4b/relu_pool_proj
I0311 16:53:00.942440 19766 net.cpp:395] inception_4b/relu_pool_proj <- inception_4b/pool_proj
I0311 16:53:00.942453 19766 net.cpp:346] inception_4b/relu_pool_proj -> inception_4b/pool_proj (in-place)
I0311 16:53:00.942468 19766 net.cpp:97] Setting up inception_4b/relu_pool_proj
I0311 16:53:00.942483 19766 net.cpp:104] Top shape: 128 64 5 5 (204800)
I0311 16:53:00.942494 19766 layer_factory.hpp:78] Creating layer inception_4b/output
I0311 16:53:00.942507 19766 net.cpp:68] Creating Layer inception_4b/output
I0311 16:53:00.942519 19766 net.cpp:395] inception_4b/output <- inception_4b/1x1
I0311 16:53:00.942531 19766 net.cpp:395] inception_4b/output <- inception_4b/3x3
I0311 16:53:00.942544 19766 net.cpp:395] inception_4b/output <- inception_4b/5x5
I0311 16:53:00.942556 19766 net.cpp:395] inception_4b/output <- inception_4b/pool_proj
I0311 16:53:00.942572 19766 net.cpp:357] inception_4b/output -> inception_4b/output
I0311 16:53:00.942589 19766 net.cpp:97] Setting up inception_4b/output
I0311 16:53:00.942600 19766 net.cpp:104] Top shape: 128 512 5 5 (1638400)
I0311 16:53:00.942611 19766 layer_factory.hpp:78] Creating layer inception_4b/output_inception_4b/output_0_split
I0311 16:53:00.942625 19766 net.cpp:68] Creating Layer inception_4b/output_inception_4b/output_0_split
I0311 16:53:00.942651 19766 net.cpp:395] inception_4b/output_inception_4b/output_0_split <- inception_4b/output
I0311 16:53:00.942668 19766 net.cpp:357] inception_4b/output_inception_4b/output_0_split -> inception_4b/output_inception_4b/output_0_split_0
I0311 16:53:00.942685 19766 net.cpp:357] inception_4b/output_inception_4b/output_0_split -> inception_4b/output_inception_4b/output_0_split_1
I0311 16:53:00.942701 19766 net.cpp:357] inception_4b/output_inception_4b/output_0_split -> inception_4b/output_inception_4b/output_0_split_2
I0311 16:53:00.942718 19766 net.cpp:357] inception_4b/output_inception_4b/output_0_split -> inception_4b/output_inception_4b/output_0_split_3
I0311 16:53:00.942733 19766 net.cpp:97] Setting up inception_4b/output_inception_4b/output_0_split
I0311 16:53:00.942745 19766 net.cpp:104] Top shape: 128 512 5 5 (1638400)
I0311 16:53:00.942756 19766 net.cpp:104] Top shape: 128 512 5 5 (1638400)
I0311 16:53:00.942767 19766 net.cpp:104] Top shape: 128 512 5 5 (1638400)
I0311 16:53:00.942777 19766 net.cpp:104] Top shape: 128 512 5 5 (1638400)
I0311 16:53:00.942790 19766 layer_factory.hpp:78] Creating layer inception_4c/1x1
I0311 16:53:00.942806 19766 net.cpp:68] Creating Layer inception_4c/1x1
I0311 16:53:00.942819 19766 net.cpp:395] inception_4c/1x1 <- inception_4b/output_inception_4b/output_0_split_0
I0311 16:53:00.942834 19766 net.cpp:357] inception_4c/1x1 -> inception_4c/1x1
I0311 16:53:00.942849 19766 net.cpp:97] Setting up inception_4c/1x1
I0311 16:53:00.943601 19766 net.cpp:104] Top shape: 128 128 5 5 (409600)
I0311 16:53:00.943625 19766 layer_factory.hpp:78] Creating layer inception_4c/relu_1x1
I0311 16:53:00.943639 19766 net.cpp:68] Creating Layer inception_4c/relu_1x1
I0311 16:53:00.943651 19766 net.cpp:395] inception_4c/relu_1x1 <- inception_4c/1x1
I0311 16:53:00.943665 19766 net.cpp:346] inception_4c/relu_1x1 -> inception_4c/1x1 (in-place)
I0311 16:53:00.943680 19766 net.cpp:97] Setting up inception_4c/relu_1x1
I0311 16:53:00.943693 19766 net.cpp:104] Top shape: 128 128 5 5 (409600)
I0311 16:53:00.943722 19766 layer_factory.hpp:78] Creating layer inception_4c/3x3_reduce
I0311 16:53:00.943742 19766 net.cpp:68] Creating Layer inception_4c/3x3_reduce
I0311 16:53:00.943754 19766 net.cpp:395] inception_4c/3x3_reduce <- inception_4b/output_inception_4b/output_0_split_1
I0311 16:53:00.943773 19766 net.cpp:357] inception_4c/3x3_reduce -> inception_4c/3x3_reduce
I0311 16:53:00.943789 19766 net.cpp:97] Setting up inception_4c/3x3_reduce
I0311 16:53:00.944522 19766 net.cpp:104] Top shape: 128 128 5 5 (409600)
I0311 16:53:00.944545 19766 layer_factory.hpp:78] Creating layer inception_4c/relu_3x3_reduce
I0311 16:53:00.944560 19766 net.cpp:68] Creating Layer inception_4c/relu_3x3_reduce
I0311 16:53:00.944571 19766 net.cpp:395] inception_4c/relu_3x3_reduce <- inception_4c/3x3_reduce
I0311 16:53:00.944587 19766 net.cpp:346] inception_4c/relu_3x3_reduce -> inception_4c/3x3_reduce (in-place)
I0311 16:53:00.944617 19766 net.cpp:97] Setting up inception_4c/relu_3x3_reduce
I0311 16:53:00.944643 19766 net.cpp:104] Top shape: 128 128 5 5 (409600)
I0311 16:53:00.944658 19766 layer_factory.hpp:78] Creating layer inception_4c/3x3
I0311 16:53:00.944672 19766 net.cpp:68] Creating Layer inception_4c/3x3
I0311 16:53:00.944684 19766 net.cpp:395] inception_4c/3x3 <- inception_4c/3x3_reduce
I0311 16:53:00.944702 19766 net.cpp:357] inception_4c/3x3 -> inception_4c/3x3
I0311 16:53:00.944718 19766 net.cpp:97] Setting up inception_4c/3x3
I0311 16:53:00.947935 19766 net.cpp:104] Top shape: 128 256 5 5 (819200)
I0311 16:53:00.947976 19766 layer_factory.hpp:78] Creating layer inception_4c/relu_3x3
I0311 16:53:00.947993 19766 net.cpp:68] Creating Layer inception_4c/relu_3x3
I0311 16:53:00.948006 19766 net.cpp:395] inception_4c/relu_3x3 <- inception_4c/3x3
I0311 16:53:00.948020 19766 net.cpp:346] inception_4c/relu_3x3 -> inception_4c/3x3 (in-place)
I0311 16:53:00.948036 19766 net.cpp:97] Setting up inception_4c/relu_3x3
I0311 16:53:00.948051 19766 net.cpp:104] Top shape: 128 256 5 5 (819200)
I0311 16:53:00.948062 19766 layer_factory.hpp:78] Creating layer inception_4c/5x5_reduce
I0311 16:53:00.948079 19766 net.cpp:68] Creating Layer inception_4c/5x5_reduce
I0311 16:53:00.948092 19766 net.cpp:395] inception_4c/5x5_reduce <- inception_4b/output_inception_4b/output_0_split_2
I0311 16:53:00.948109 19766 net.cpp:357] inception_4c/5x5_reduce -> inception_4c/5x5_reduce
I0311 16:53:00.948127 19766 net.cpp:97] Setting up inception_4c/5x5_reduce
I0311 16:53:00.948323 19766 net.cpp:104] Top shape: 128 24 5 5 (76800)
I0311 16:53:00.948344 19766 layer_factory.hpp:78] Creating layer inception_4c/relu_5x5_reduce
I0311 16:53:00.948375 19766 net.cpp:68] Creating Layer inception_4c/relu_5x5_reduce
I0311 16:53:00.948397 19766 net.cpp:395] inception_4c/relu_5x5_reduce <- inception_4c/5x5_reduce
I0311 16:53:00.948415 19766 net.cpp:346] inception_4c/relu_5x5_reduce -> inception_4c/5x5_reduce (in-place)
I0311 16:53:00.948429 19766 net.cpp:97] Setting up inception_4c/relu_5x5_reduce
I0311 16:53:00.948446 19766 net.cpp:104] Top shape: 128 24 5 5 (76800)
I0311 16:53:00.948457 19766 layer_factory.hpp:78] Creating layer inception_4c/5x5
I0311 16:53:00.948475 19766 net.cpp:68] Creating Layer inception_4c/5x5
I0311 16:53:00.948488 19766 net.cpp:395] inception_4c/5x5 <- inception_4c/5x5_reduce
I0311 16:53:00.948505 19766 net.cpp:357] inception_4c/5x5 -> inception_4c/5x5
I0311 16:53:00.948521 19766 net.cpp:97] Setting up inception_4c/5x5
I0311 16:53:00.949025 19766 net.cpp:104] Top shape: 128 64 5 5 (204800)
I0311 16:53:00.949049 19766 layer_factory.hpp:78] Creating layer inception_4c/relu_5x5
I0311 16:53:00.949065 19766 net.cpp:68] Creating Layer inception_4c/relu_5x5
I0311 16:53:00.949079 19766 net.cpp:395] inception_4c/relu_5x5 <- inception_4c/5x5
I0311 16:53:00.949103 19766 net.cpp:346] inception_4c/relu_5x5 -> inception_4c/5x5 (in-place)
I0311 16:53:00.949121 19766 net.cpp:97] Setting up inception_4c/relu_5x5
I0311 16:53:00.949136 19766 net.cpp:104] Top shape: 128 64 5 5 (204800)
I0311 16:53:00.949148 19766 layer_factory.hpp:78] Creating layer inception_4c/pool
I0311 16:53:00.949179 19766 layer_factory.cpp:51] CUDNN does not support padding or multiple tops. Using Caffe's own pooling layer.
I0311 16:53:00.949194 19766 net.cpp:68] Creating Layer inception_4c/pool
I0311 16:53:00.949206 19766 net.cpp:395] inception_4c/pool <- inception_4b/output_inception_4b/output_0_split_3
I0311 16:53:00.949224 19766 net.cpp:357] inception_4c/pool -> inception_4c/pool
I0311 16:53:00.949240 19766 net.cpp:97] Setting up inception_4c/pool
I0311 16:53:00.949254 19766 net.cpp:104] Top shape: 128 512 5 5 (1638400)
I0311 16:53:00.949265 19766 layer_factory.hpp:78] Creating layer inception_4c/pool_proj
I0311 16:53:00.949280 19766 net.cpp:68] Creating Layer inception_4c/pool_proj
I0311 16:53:00.949291 19766 net.cpp:395] inception_4c/pool_proj <- inception_4c/pool
I0311 16:53:00.949308 19766 net.cpp:357] inception_4c/pool_proj -> inception_4c/pool_proj
I0311 16:53:00.949324 19766 net.cpp:97] Setting up inception_4c/pool_proj
I0311 16:53:00.949755 19766 net.cpp:104] Top shape: 128 64 5 5 (204800)
I0311 16:53:00.949779 19766 layer_factory.hpp:78] Creating layer inception_4c/relu_pool_proj
I0311 16:53:00.949795 19766 net.cpp:68] Creating Layer inception_4c/relu_pool_proj
I0311 16:53:00.949807 19766 net.cpp:395] inception_4c/relu_pool_proj <- inception_4c/pool_proj
I0311 16:53:00.949821 19766 net.cpp:346] inception_4c/relu_pool_proj -> inception_4c/pool_proj (in-place)
I0311 16:53:00.949836 19766 net.cpp:97] Setting up inception_4c/relu_pool_proj
I0311 16:53:00.949851 19766 net.cpp:104] Top shape: 128 64 5 5 (204800)
I0311 16:53:00.949862 19766 layer_factory.hpp:78] Creating layer inception_4c/output
I0311 16:53:00.949875 19766 net.cpp:68] Creating Layer inception_4c/output
I0311 16:53:00.949887 19766 net.cpp:395] inception_4c/output <- inception_4c/1x1
I0311 16:53:00.949900 19766 net.cpp:395] inception_4c/output <- inception_4c/3x3
I0311 16:53:00.949913 19766 net.cpp:395] inception_4c/output <- inception_4c/5x5
I0311 16:53:00.949924 19766 net.cpp:395] inception_4c/output <- inception_4c/pool_proj
I0311 16:53:00.949940 19766 net.cpp:357] inception_4c/output -> inception_4c/output
I0311 16:53:00.949956 19766 net.cpp:97] Setting up inception_4c/output
I0311 16:53:00.949969 19766 net.cpp:104] Top shape: 128 512 5 5 (1638400)
I0311 16:53:00.949980 19766 layer_factory.hpp:78] Creating layer inception_4c/output_inception_4c/output_0_split
I0311 16:53:00.949992 19766 net.cpp:68] Creating Layer inception_4c/output_inception_4c/output_0_split
I0311 16:53:00.950005 19766 net.cpp:395] inception_4c/output_inception_4c/output_0_split <- inception_4c/output
I0311 16:53:00.950018 19766 net.cpp:357] inception_4c/output_inception_4c/output_0_split -> inception_4c/output_inception_4c/output_0_split_0
I0311 16:53:00.950038 19766 net.cpp:357] inception_4c/output_inception_4c/output_0_split -> inception_4c/output_inception_4c/output_0_split_1
I0311 16:53:00.950055 19766 net.cpp:357] inception_4c/output_inception_4c/output_0_split -> inception_4c/output_inception_4c/output_0_split_2
I0311 16:53:00.950072 19766 net.cpp:357] inception_4c/output_inception_4c/output_0_split -> inception_4c/output_inception_4c/output_0_split_3
I0311 16:53:00.950085 19766 net.cpp:97] Setting up inception_4c/output_inception_4c/output_0_split
I0311 16:53:00.950098 19766 net.cpp:104] Top shape: 128 512 5 5 (1638400)
I0311 16:53:00.950109 19766 net.cpp:104] Top shape: 128 512 5 5 (1638400)
I0311 16:53:00.950120 19766 net.cpp:104] Top shape: 128 512 5 5 (1638400)
I0311 16:53:00.950130 19766 net.cpp:104] Top shape: 128 512 5 5 (1638400)
I0311 16:53:00.950141 19766 layer_factory.hpp:78] Creating layer inception_4d/1x1
I0311 16:53:00.950155 19766 net.cpp:68] Creating Layer inception_4d/1x1
I0311 16:53:00.950167 19766 net.cpp:395] inception_4d/1x1 <- inception_4c/output_inception_4c/output_0_split_0
I0311 16:53:00.950184 19766 net.cpp:357] inception_4d/1x1 -> inception_4d/1x1
I0311 16:53:00.950201 19766 net.cpp:97] Setting up inception_4d/1x1
I0311 16:53:00.950875 19766 net.cpp:104] Top shape: 128 112 5 5 (358400)
I0311 16:53:00.950917 19766 layer_factory.hpp:78] Creating layer inception_4d/relu_1x1
I0311 16:53:00.950934 19766 net.cpp:68] Creating Layer inception_4d/relu_1x1
I0311 16:53:00.950947 19766 net.cpp:395] inception_4d/relu_1x1 <- inception_4d/1x1
I0311 16:53:00.950961 19766 net.cpp:346] inception_4d/relu_1x1 -> inception_4d/1x1 (in-place)
I0311 16:53:00.950976 19766 net.cpp:97] Setting up inception_4d/relu_1x1
I0311 16:53:00.950990 19766 net.cpp:104] Top shape: 128 112 5 5 (358400)
I0311 16:53:00.951002 19766 layer_factory.hpp:78] Creating layer inception_4d/3x3_reduce
I0311 16:53:00.951019 19766 net.cpp:68] Creating Layer inception_4d/3x3_reduce
I0311 16:53:00.951031 19766 net.cpp:395] inception_4d/3x3_reduce <- inception_4c/output_inception_4c/output_0_split_1
I0311 16:53:00.951046 19766 net.cpp:357] inception_4d/3x3_reduce -> inception_4d/3x3_reduce
I0311 16:53:00.951061 19766 net.cpp:97] Setting up inception_4d/3x3_reduce
I0311 16:53:00.952025 19766 net.cpp:104] Top shape: 128 144 5 5 (460800)
I0311 16:53:00.952052 19766 layer_factory.hpp:78] Creating layer inception_4d/relu_3x3_reduce
I0311 16:53:00.952067 19766 net.cpp:68] Creating Layer inception_4d/relu_3x3_reduce
I0311 16:53:00.952080 19766 net.cpp:395] inception_4d/relu_3x3_reduce <- inception_4d/3x3_reduce
I0311 16:53:00.952093 19766 net.cpp:346] inception_4d/relu_3x3_reduce -> inception_4d/3x3_reduce (in-place)
I0311 16:53:00.952108 19766 net.cpp:97] Setting up inception_4d/relu_3x3_reduce
I0311 16:53:00.952123 19766 net.cpp:104] Top shape: 128 144 5 5 (460800)
I0311 16:53:00.952136 19766 layer_factory.hpp:78] Creating layer inception_4d/3x3
I0311 16:53:00.952152 19766 net.cpp:68] Creating Layer inception_4d/3x3
I0311 16:53:00.952165 19766 net.cpp:395] inception_4d/3x3 <- inception_4d/3x3_reduce
I0311 16:53:00.952183 19766 net.cpp:357] inception_4d/3x3 -> inception_4d/3x3
I0311 16:53:00.952198 19766 net.cpp:97] Setting up inception_4d/3x3
I0311 16:53:00.956068 19766 net.cpp:104] Top shape: 128 288 5 5 (921600)
I0311 16:53:00.956095 19766 layer_factory.hpp:78] Creating layer inception_4d/relu_3x3
I0311 16:53:00.956114 19766 net.cpp:68] Creating Layer inception_4d/relu_3x3
I0311 16:53:00.956126 19766 net.cpp:395] inception_4d/relu_3x3 <- inception_4d/3x3
I0311 16:53:00.956140 19766 net.cpp:346] inception_4d/relu_3x3 -> inception_4d/3x3 (in-place)
I0311 16:53:00.956156 19766 net.cpp:97] Setting up inception_4d/relu_3x3
I0311 16:53:00.956183 19766 net.cpp:104] Top shape: 128 288 5 5 (921600)
I0311 16:53:00.956197 19766 layer_factory.hpp:78] Creating layer inception_4d/5x5_reduce
I0311 16:53:00.956226 19766 net.cpp:68] Creating Layer inception_4d/5x5_reduce
I0311 16:53:00.956240 19766 net.cpp:395] inception_4d/5x5_reduce <- inception_4c/output_inception_4c/output_0_split_2
I0311 16:53:00.956255 19766 net.cpp:357] inception_4d/5x5_reduce -> inception_4d/5x5_reduce
I0311 16:53:00.956271 19766 net.cpp:97] Setting up inception_4d/5x5_reduce
I0311 16:53:00.956511 19766 net.cpp:104] Top shape: 128 32 5 5 (102400)
I0311 16:53:00.956532 19766 layer_factory.hpp:78] Creating layer inception_4d/relu_5x5_reduce
I0311 16:53:00.956549 19766 net.cpp:68] Creating Layer inception_4d/relu_5x5_reduce
I0311 16:53:00.956562 19766 net.cpp:395] inception_4d/relu_5x5_reduce <- inception_4d/5x5_reduce
I0311 16:53:00.956576 19766 net.cpp:346] inception_4d/relu_5x5_reduce -> inception_4d/5x5_reduce (in-place)
I0311 16:53:00.956591 19766 net.cpp:97] Setting up inception_4d/relu_5x5_reduce
I0311 16:53:00.956606 19766 net.cpp:104] Top shape: 128 32 5 5 (102400)
I0311 16:53:00.956619 19766 layer_factory.hpp:78] Creating layer inception_4d/5x5
I0311 16:53:00.956634 19766 net.cpp:68] Creating Layer inception_4d/5x5
I0311 16:53:00.956647 19766 net.cpp:395] inception_4d/5x5 <- inception_4d/5x5_reduce
I0311 16:53:00.956661 19766 net.cpp:357] inception_4d/5x5 -> inception_4d/5x5
I0311 16:53:00.956677 19766 net.cpp:97] Setting up inception_4d/5x5
I0311 16:53:00.957295 19766 net.cpp:104] Top shape: 128 64 5 5 (204800)
I0311 16:53:00.957319 19766 layer_factory.hpp:78] Creating layer inception_4d/relu_5x5
I0311 16:53:00.957353 19766 net.cpp:68] Creating Layer inception_4d/relu_5x5
I0311 16:53:00.957368 19766 net.cpp:395] inception_4d/relu_5x5 <- inception_4d/5x5
I0311 16:53:00.957386 19766 net.cpp:346] inception_4d/relu_5x5 -> inception_4d/5x5 (in-place)
I0311 16:53:00.957401 19766 net.cpp:97] Setting up inception_4d/relu_5x5
I0311 16:53:00.957415 19766 net.cpp:104] Top shape: 128 64 5 5 (204800)
I0311 16:53:00.957427 19766 layer_factory.hpp:78] Creating layer inception_4d/pool
I0311 16:53:00.957439 19766 layer_factory.cpp:51] CUDNN does not support padding or multiple tops. Using Caffe's own pooling layer.
I0311 16:53:00.957453 19766 net.cpp:68] Creating Layer inception_4d/pool
I0311 16:53:00.957463 19766 net.cpp:395] inception_4d/pool <- inception_4c/output_inception_4c/output_0_split_3
I0311 16:53:00.957481 19766 net.cpp:357] inception_4d/pool -> inception_4d/pool
I0311 16:53:00.957497 19766 net.cpp:97] Setting up inception_4d/pool
I0311 16:53:00.957510 19766 net.cpp:104] Top shape: 128 512 5 5 (1638400)
I0311 16:53:00.957522 19766 layer_factory.hpp:78] Creating layer inception_4d/pool_proj
I0311 16:53:00.957536 19766 net.cpp:68] Creating Layer inception_4d/pool_proj
I0311 16:53:00.957548 19766 net.cpp:395] inception_4d/pool_proj <- inception_4d/pool
I0311 16:53:00.957566 19766 net.cpp:357] inception_4d/pool_proj -> inception_4d/pool_proj
I0311 16:53:00.957581 19766 net.cpp:97] Setting up inception_4d/pool_proj
I0311 16:53:00.957984 19766 net.cpp:104] Top shape: 128 64 5 5 (204800)
I0311 16:53:00.958006 19766 layer_factory.hpp:78] Creating layer inception_4d/relu_pool_proj
I0311 16:53:00.958021 19766 net.cpp:68] Creating Layer inception_4d/relu_pool_proj
I0311 16:53:00.958036 19766 net.cpp:395] inception_4d/relu_pool_proj <- inception_4d/pool_proj
I0311 16:53:00.958050 19766 net.cpp:346] inception_4d/relu_pool_proj -> inception_4d/pool_proj (in-place)
I0311 16:53:00.958065 19766 net.cpp:97] Setting up inception_4d/relu_pool_proj
I0311 16:53:00.958080 19766 net.cpp:104] Top shape: 128 64 5 5 (204800)
I0311 16:53:00.958091 19766 layer_factory.hpp:78] Creating layer inception_4d/output
I0311 16:53:00.958104 19766 net.cpp:68] Creating Layer inception_4d/output
I0311 16:53:00.958116 19766 net.cpp:395] inception_4d/output <- inception_4d/1x1
I0311 16:53:00.958128 19766 net.cpp:395] inception_4d/output <- inception_4d/3x3
I0311 16:53:00.958140 19766 net.cpp:395] inception_4d/output <- inception_4d/5x5
I0311 16:53:00.958153 19766 net.cpp:395] inception_4d/output <- inception_4d/pool_proj
I0311 16:53:00.958166 19766 net.cpp:357] inception_4d/output -> inception_4d/output
I0311 16:53:00.958181 19766 net.cpp:97] Setting up inception_4d/output
I0311 16:53:00.958194 19766 net.cpp:104] Top shape: 128 528 5 5 (1689600)
I0311 16:53:00.958204 19766 layer_factory.hpp:78] Creating layer inception_4d/output_inception_4d/output_0_split
I0311 16:53:00.958221 19766 net.cpp:68] Creating Layer inception_4d/output_inception_4d/output_0_split
I0311 16:53:00.958233 19766 net.cpp:395] inception_4d/output_inception_4d/output_0_split <- inception_4d/output
I0311 16:53:00.958247 19766 net.cpp:357] inception_4d/output_inception_4d/output_0_split -> inception_4d/output_inception_4d/output_0_split_0
I0311 16:53:00.958264 19766 net.cpp:357] inception_4d/output_inception_4d/output_0_split -> inception_4d/output_inception_4d/output_0_split_1
I0311 16:53:00.958281 19766 net.cpp:357] inception_4d/output_inception_4d/output_0_split -> inception_4d/output_inception_4d/output_0_split_2
I0311 16:53:00.958297 19766 net.cpp:357] inception_4d/output_inception_4d/output_0_split -> inception_4d/output_inception_4d/output_0_split_3
I0311 16:53:00.958315 19766 net.cpp:357] inception_4d/output_inception_4d/output_0_split -> inception_4d/output_inception_4d/output_0_split_4
I0311 16:53:00.958330 19766 net.cpp:97] Setting up inception_4d/output_inception_4d/output_0_split
I0311 16:53:00.958343 19766 net.cpp:104] Top shape: 128 528 5 5 (1689600)
I0311 16:53:00.958354 19766 net.cpp:104] Top shape: 128 528 5 5 (1689600)
I0311 16:53:00.958365 19766 net.cpp:104] Top shape: 128 528 5 5 (1689600)
I0311 16:53:00.958394 19766 net.cpp:104] Top shape: 128 528 5 5 (1689600)
I0311 16:53:00.958406 19766 net.cpp:104] Top shape: 128 528 5 5 (1689600)
I0311 16:53:00.958416 19766 layer_factory.hpp:78] Creating layer loss2/ave_pool
I0311 16:53:00.958431 19766 net.cpp:68] Creating Layer loss2/ave_pool
I0311 16:53:00.958442 19766 net.cpp:395] loss2/ave_pool <- inception_4d/output_inception_4d/output_0_split_0
I0311 16:53:00.958456 19766 net.cpp:357] loss2/ave_pool -> loss2/ave_pool
I0311 16:53:00.958472 19766 net.cpp:97] Setting up loss2/ave_pool
I0311 16:53:00.958489 19766 net.cpp:104] Top shape: 128 528 1 1 (67584)
I0311 16:53:00.958502 19766 layer_factory.hpp:78] Creating layer loss2/conv
I0311 16:53:00.958518 19766 net.cpp:68] Creating Layer loss2/conv
I0311 16:53:00.958530 19766 net.cpp:395] loss2/conv <- loss2/ave_pool
I0311 16:53:00.958547 19766 net.cpp:357] loss2/conv -> loss2/conv
I0311 16:53:00.958564 19766 net.cpp:97] Setting up loss2/conv
I0311 16:53:00.959482 19766 net.cpp:104] Top shape: 128 128 1 1 (16384)
I0311 16:53:00.959509 19766 layer_factory.hpp:78] Creating layer loss2/relu_conv
I0311 16:53:00.959524 19766 net.cpp:68] Creating Layer loss2/relu_conv
I0311 16:53:00.959547 19766 net.cpp:395] loss2/relu_conv <- loss2/conv
I0311 16:53:00.959573 19766 net.cpp:346] loss2/relu_conv -> loss2/conv (in-place)
I0311 16:53:00.959596 19766 net.cpp:97] Setting up loss2/relu_conv
I0311 16:53:00.959614 19766 net.cpp:104] Top shape: 128 128 1 1 (16384)
I0311 16:53:00.959625 19766 layer_factory.hpp:78] Creating layer loss2/fc
I0311 16:53:00.959641 19766 net.cpp:68] Creating Layer loss2/fc
I0311 16:53:00.959652 19766 net.cpp:395] loss2/fc <- loss2/conv
I0311 16:53:00.959667 19766 net.cpp:357] loss2/fc -> loss2/fc
I0311 16:53:00.959683 19766 net.cpp:97] Setting up loss2/fc
I0311 16:53:00.961050 19766 net.cpp:104] Top shape: 128 1024 1 1 (131072)
I0311 16:53:00.961074 19766 layer_factory.hpp:78] Creating layer loss2/relu_fc
I0311 16:53:00.961091 19766 net.cpp:68] Creating Layer loss2/relu_fc
I0311 16:53:00.961104 19766 net.cpp:395] loss2/relu_fc <- loss2/fc
I0311 16:53:00.961117 19766 net.cpp:346] loss2/relu_fc -> loss2/fc (in-place)
I0311 16:53:00.961133 19766 net.cpp:97] Setting up loss2/relu_fc
I0311 16:53:00.961148 19766 net.cpp:104] Top shape: 128 1024 1 1 (131072)
I0311 16:53:00.961158 19766 layer_factory.hpp:78] Creating layer loss2/drop_fc
I0311 16:53:00.961172 19766 net.cpp:68] Creating Layer loss2/drop_fc
I0311 16:53:00.961187 19766 net.cpp:395] loss2/drop_fc <- loss2/fc
I0311 16:53:00.961200 19766 net.cpp:346] loss2/drop_fc -> loss2/fc (in-place)
I0311 16:53:00.961215 19766 net.cpp:97] Setting up loss2/drop_fc
I0311 16:53:00.961227 19766 net.cpp:104] Top shape: 128 1024 1 1 (131072)
I0311 16:53:00.961238 19766 layer_factory.hpp:78] Creating layer loss2/classifier
I0311 16:53:00.961252 19766 net.cpp:68] Creating Layer loss2/classifier
I0311 16:53:00.961263 19766 net.cpp:395] loss2/classifier <- loss2/fc
I0311 16:53:00.961280 19766 net.cpp:357] loss2/classifier -> loss2/classifier
I0311 16:53:00.961297 19766 net.cpp:97] Setting up loss2/classifier
I0311 16:53:00.962574 19766 net.cpp:104] Top shape: 128 121 1 1 (15488)
I0311 16:53:00.962605 19766 layer_factory.hpp:78] Creating layer loss2/loss
I0311 16:53:00.962620 19766 net.cpp:68] Creating Layer loss2/loss
I0311 16:53:00.962632 19766 net.cpp:395] loss2/loss <- loss2/classifier
I0311 16:53:00.962646 19766 net.cpp:395] loss2/loss <- label_data_1_split_1
I0311 16:53:00.962659 19766 net.cpp:357] loss2/loss -> loss2/loss1
I0311 16:53:00.962674 19766 net.cpp:97] Setting up loss2/loss
I0311 16:53:00.962688 19766 layer_factory.hpp:78] Creating layer loss2/loss
I0311 16:53:00.962746 19766 net.cpp:104] Top shape: 1 1 1 1 (1)
I0311 16:53:00.962762 19766 net.cpp:110]     with loss weight 0.3
I0311 16:53:00.962785 19766 layer_factory.hpp:78] Creating layer inception_4e/1x1
I0311 16:53:00.962802 19766 net.cpp:68] Creating Layer inception_4e/1x1
I0311 16:53:00.962815 19766 net.cpp:395] inception_4e/1x1 <- inception_4d/output_inception_4d/output_0_split_1
I0311 16:53:00.962852 19766 net.cpp:357] inception_4e/1x1 -> inception_4e/1x1
I0311 16:53:00.962869 19766 net.cpp:97] Setting up inception_4e/1x1
I0311 16:53:00.964326 19766 net.cpp:104] Top shape: 128 256 5 5 (819200)
I0311 16:53:00.964354 19766 layer_factory.hpp:78] Creating layer inception_4e/relu_1x1
I0311 16:53:00.964370 19766 net.cpp:68] Creating Layer inception_4e/relu_1x1
I0311 16:53:00.964382 19766 net.cpp:395] inception_4e/relu_1x1 <- inception_4e/1x1
I0311 16:53:00.964396 19766 net.cpp:346] inception_4e/relu_1x1 -> inception_4e/1x1 (in-place)
I0311 16:53:00.964411 19766 net.cpp:97] Setting up inception_4e/relu_1x1
I0311 16:53:00.964426 19766 net.cpp:104] Top shape: 128 256 5 5 (819200)
I0311 16:53:00.964437 19766 layer_factory.hpp:78] Creating layer inception_4e/3x3_reduce
I0311 16:53:00.964470 19766 net.cpp:68] Creating Layer inception_4e/3x3_reduce
I0311 16:53:00.964486 19766 net.cpp:395] inception_4e/3x3_reduce <- inception_4d/output_inception_4d/output_0_split_2
I0311 16:53:00.964501 19766 net.cpp:357] inception_4e/3x3_reduce -> inception_4e/3x3_reduce
I0311 16:53:00.964517 19766 net.cpp:97] Setting up inception_4e/3x3_reduce
I0311 16:53:00.965505 19766 net.cpp:104] Top shape: 128 160 5 5 (512000)
I0311 16:53:00.965533 19766 layer_factory.hpp:78] Creating layer inception_4e/relu_3x3_reduce
I0311 16:53:00.965562 19766 net.cpp:68] Creating Layer inception_4e/relu_3x3_reduce
I0311 16:53:00.965577 19766 net.cpp:395] inception_4e/relu_3x3_reduce <- inception_4e/3x3_reduce
I0311 16:53:00.965595 19766 net.cpp:346] inception_4e/relu_3x3_reduce -> inception_4e/3x3_reduce (in-place)
I0311 16:53:00.965610 19766 net.cpp:97] Setting up inception_4e/relu_3x3_reduce
I0311 16:53:00.965625 19766 net.cpp:104] Top shape: 128 160 5 5 (512000)
I0311 16:53:00.965636 19766 layer_factory.hpp:78] Creating layer inception_4e/3x3
I0311 16:53:00.965651 19766 net.cpp:68] Creating Layer inception_4e/3x3
I0311 16:53:00.965663 19766 net.cpp:395] inception_4e/3x3 <- inception_4e/3x3_reduce
I0311 16:53:00.965677 19766 net.cpp:357] inception_4e/3x3 -> inception_4e/3x3
I0311 16:53:00.965692 19766 net.cpp:97] Setting up inception_4e/3x3
I0311 16:53:00.970469 19766 net.cpp:104] Top shape: 128 320 5 5 (1024000)
I0311 16:53:00.970496 19766 layer_factory.hpp:78] Creating layer inception_4e/relu_3x3
I0311 16:53:00.970511 19766 net.cpp:68] Creating Layer inception_4e/relu_3x3
I0311 16:53:00.970525 19766 net.cpp:395] inception_4e/relu_3x3 <- inception_4e/3x3
I0311 16:53:00.970541 19766 net.cpp:346] inception_4e/relu_3x3 -> inception_4e/3x3 (in-place)
I0311 16:53:00.970557 19766 net.cpp:97] Setting up inception_4e/relu_3x3
I0311 16:53:00.970572 19766 net.cpp:104] Top shape: 128 320 5 5 (1024000)
I0311 16:53:00.970584 19766 layer_factory.hpp:78] Creating layer inception_4e/5x5_reduce
I0311 16:53:00.970598 19766 net.cpp:68] Creating Layer inception_4e/5x5_reduce
I0311 16:53:00.970610 19766 net.cpp:395] inception_4e/5x5_reduce <- inception_4d/output_inception_4d/output_0_split_3
I0311 16:53:00.970625 19766 net.cpp:357] inception_4e/5x5_reduce -> inception_4e/5x5_reduce
I0311 16:53:00.970640 19766 net.cpp:97] Setting up inception_4e/5x5_reduce
I0311 16:53:00.970902 19766 net.cpp:104] Top shape: 128 32 5 5 (102400)
I0311 16:53:00.970926 19766 layer_factory.hpp:78] Creating layer inception_4e/relu_5x5_reduce
I0311 16:53:00.970940 19766 net.cpp:68] Creating Layer inception_4e/relu_5x5_reduce
I0311 16:53:00.970953 19766 net.cpp:395] inception_4e/relu_5x5_reduce <- inception_4e/5x5_reduce
I0311 16:53:00.970967 19766 net.cpp:346] inception_4e/relu_5x5_reduce -> inception_4e/5x5_reduce (in-place)
I0311 16:53:00.970981 19766 net.cpp:97] Setting up inception_4e/relu_5x5_reduce
I0311 16:53:00.970995 19766 net.cpp:104] Top shape: 128 32 5 5 (102400)
I0311 16:53:00.971007 19766 layer_factory.hpp:78] Creating layer inception_4e/5x5
I0311 16:53:00.971042 19766 net.cpp:68] Creating Layer inception_4e/5x5
I0311 16:53:00.971056 19766 net.cpp:395] inception_4e/5x5 <- inception_4e/5x5_reduce
I0311 16:53:00.971071 19766 net.cpp:357] inception_4e/5x5 -> inception_4e/5x5
I0311 16:53:00.971112 19766 net.cpp:97] Setting up inception_4e/5x5
I0311 16:53:00.972384 19766 net.cpp:104] Top shape: 128 128 5 5 (409600)
I0311 16:53:00.972420 19766 layer_factory.hpp:78] Creating layer inception_4e/relu_5x5
I0311 16:53:00.972440 19766 net.cpp:68] Creating Layer inception_4e/relu_5x5
I0311 16:53:00.972455 19766 net.cpp:395] inception_4e/relu_5x5 <- inception_4e/5x5
I0311 16:53:00.972468 19766 net.cpp:346] inception_4e/relu_5x5 -> inception_4e/5x5 (in-place)
I0311 16:53:00.972482 19766 net.cpp:97] Setting up inception_4e/relu_5x5
I0311 16:53:00.972497 19766 net.cpp:104] Top shape: 128 128 5 5 (409600)
I0311 16:53:00.972509 19766 layer_factory.hpp:78] Creating layer inception_4e/pool
I0311 16:53:00.972522 19766 layer_factory.cpp:51] CUDNN does not support padding or multiple tops. Using Caffe's own pooling layer.
I0311 16:53:00.972534 19766 net.cpp:68] Creating Layer inception_4e/pool
I0311 16:53:00.972545 19766 net.cpp:395] inception_4e/pool <- inception_4d/output_inception_4d/output_0_split_4
I0311 16:53:00.972571 19766 net.cpp:357] inception_4e/pool -> inception_4e/pool
I0311 16:53:00.972590 19766 net.cpp:97] Setting up inception_4e/pool
I0311 16:53:00.972604 19766 net.cpp:104] Top shape: 128 528 5 5 (1689600)
I0311 16:53:00.972615 19766 layer_factory.hpp:78] Creating layer inception_4e/pool_proj
I0311 16:53:00.972630 19766 net.cpp:68] Creating Layer inception_4e/pool_proj
I0311 16:53:00.972642 19766 net.cpp:395] inception_4e/pool_proj <- inception_4e/pool
I0311 16:53:00.972659 19766 net.cpp:357] inception_4e/pool_proj -> inception_4e/pool_proj
I0311 16:53:00.972676 19766 net.cpp:97] Setting up inception_4e/pool_proj
I0311 16:53:00.973451 19766 net.cpp:104] Top shape: 128 128 5 5 (409600)
I0311 16:53:00.973474 19766 layer_factory.hpp:78] Creating layer inception_4e/relu_pool_proj
I0311 16:53:00.973489 19766 net.cpp:68] Creating Layer inception_4e/relu_pool_proj
I0311 16:53:00.973501 19766 net.cpp:395] inception_4e/relu_pool_proj <- inception_4e/pool_proj
I0311 16:53:00.973517 19766 net.cpp:346] inception_4e/relu_pool_proj -> inception_4e/pool_proj (in-place)
I0311 16:53:00.973533 19766 net.cpp:97] Setting up inception_4e/relu_pool_proj
I0311 16:53:00.973548 19766 net.cpp:104] Top shape: 128 128 5 5 (409600)
I0311 16:53:00.973559 19766 layer_factory.hpp:78] Creating layer inception_4e/output
I0311 16:53:00.973573 19766 net.cpp:68] Creating Layer inception_4e/output
I0311 16:53:00.973584 19766 net.cpp:395] inception_4e/output <- inception_4e/1x1
I0311 16:53:00.973598 19766 net.cpp:395] inception_4e/output <- inception_4e/3x3
I0311 16:53:00.973609 19766 net.cpp:395] inception_4e/output <- inception_4e/5x5
I0311 16:53:00.973621 19766 net.cpp:395] inception_4e/output <- inception_4e/pool_proj
I0311 16:53:00.973635 19766 net.cpp:357] inception_4e/output -> inception_4e/output
I0311 16:53:00.973649 19766 net.cpp:97] Setting up inception_4e/output
I0311 16:53:00.973662 19766 net.cpp:104] Top shape: 128 832 5 5 (2662400)
I0311 16:53:00.973673 19766 layer_factory.hpp:78] Creating layer pool4/3x3_s2
I0311 16:53:00.973687 19766 net.cpp:68] Creating Layer pool4/3x3_s2
I0311 16:53:00.973698 19766 net.cpp:395] pool4/3x3_s2 <- inception_4e/output
I0311 16:53:00.973716 19766 net.cpp:357] pool4/3x3_s2 -> pool4/3x3_s2
I0311 16:53:00.973731 19766 net.cpp:97] Setting up pool4/3x3_s2
I0311 16:53:00.973747 19766 net.cpp:104] Top shape: 128 832 2 2 (425984)
I0311 16:53:00.973759 19766 layer_factory.hpp:78] Creating layer pool4/3x3_s2_pool4/3x3_s2_0_split
I0311 16:53:00.973773 19766 net.cpp:68] Creating Layer pool4/3x3_s2_pool4/3x3_s2_0_split
I0311 16:53:00.973784 19766 net.cpp:395] pool4/3x3_s2_pool4/3x3_s2_0_split <- pool4/3x3_s2
I0311 16:53:00.973803 19766 net.cpp:357] pool4/3x3_s2_pool4/3x3_s2_0_split -> pool4/3x3_s2_pool4/3x3_s2_0_split_0
I0311 16:53:00.973819 19766 net.cpp:357] pool4/3x3_s2_pool4/3x3_s2_0_split -> pool4/3x3_s2_pool4/3x3_s2_0_split_1
I0311 16:53:00.973834 19766 net.cpp:357] pool4/3x3_s2_pool4/3x3_s2_0_split -> pool4/3x3_s2_pool4/3x3_s2_0_split_2
I0311 16:53:00.973850 19766 net.cpp:357] pool4/3x3_s2_pool4/3x3_s2_0_split -> pool4/3x3_s2_pool4/3x3_s2_0_split_3
I0311 16:53:00.973883 19766 net.cpp:97] Setting up pool4/3x3_s2_pool4/3x3_s2_0_split
I0311 16:53:00.973898 19766 net.cpp:104] Top shape: 128 832 2 2 (425984)
I0311 16:53:00.973909 19766 net.cpp:104] Top shape: 128 832 2 2 (425984)
I0311 16:53:00.973920 19766 net.cpp:104] Top shape: 128 832 2 2 (425984)
I0311 16:53:00.973932 19766 net.cpp:104] Top shape: 128 832 2 2 (425984)
I0311 16:53:00.973942 19766 layer_factory.hpp:78] Creating layer inception_5a/1x1
I0311 16:53:00.973959 19766 net.cpp:68] Creating Layer inception_5a/1x1
I0311 16:53:00.973971 19766 net.cpp:395] inception_5a/1x1 <- pool4/3x3_s2_pool4/3x3_s2_0_split_0
I0311 16:53:00.973986 19766 net.cpp:357] inception_5a/1x1 -> inception_5a/1x1
I0311 16:53:00.974004 19766 net.cpp:97] Setting up inception_5a/1x1
I0311 16:53:00.976251 19766 net.cpp:104] Top shape: 128 256 2 2 (131072)
I0311 16:53:00.976277 19766 layer_factory.hpp:78] Creating layer inception_5a/relu_1x1
I0311 16:53:00.976292 19766 net.cpp:68] Creating Layer inception_5a/relu_1x1
I0311 16:53:00.976305 19766 net.cpp:395] inception_5a/relu_1x1 <- inception_5a/1x1
I0311 16:53:00.976322 19766 net.cpp:346] inception_5a/relu_1x1 -> inception_5a/1x1 (in-place)
I0311 16:53:00.976338 19766 net.cpp:97] Setting up inception_5a/relu_1x1
I0311 16:53:00.976352 19766 net.cpp:104] Top shape: 128 256 2 2 (131072)
I0311 16:53:00.976364 19766 layer_factory.hpp:78] Creating layer inception_5a/3x3_reduce
I0311 16:53:00.976379 19766 net.cpp:68] Creating Layer inception_5a/3x3_reduce
I0311 16:53:00.976392 19766 net.cpp:395] inception_5a/3x3_reduce <- pool4/3x3_s2_pool4/3x3_s2_0_split_1
I0311 16:53:00.976409 19766 net.cpp:357] inception_5a/3x3_reduce -> inception_5a/3x3_reduce
I0311 16:53:00.976425 19766 net.cpp:97] Setting up inception_5a/3x3_reduce
I0311 16:53:00.977989 19766 net.cpp:104] Top shape: 128 160 2 2 (81920)
I0311 16:53:00.978015 19766 layer_factory.hpp:78] Creating layer inception_5a/relu_3x3_reduce
I0311 16:53:00.978029 19766 net.cpp:68] Creating Layer inception_5a/relu_3x3_reduce
I0311 16:53:00.978042 19766 net.cpp:395] inception_5a/relu_3x3_reduce <- inception_5a/3x3_reduce
I0311 16:53:00.978059 19766 net.cpp:346] inception_5a/relu_3x3_reduce -> inception_5a/3x3_reduce (in-place)
I0311 16:53:00.978075 19766 net.cpp:97] Setting up inception_5a/relu_3x3_reduce
I0311 16:53:00.978090 19766 net.cpp:104] Top shape: 128 160 2 2 (81920)
I0311 16:53:00.978101 19766 layer_factory.hpp:78] Creating layer inception_5a/3x3
I0311 16:53:00.978116 19766 net.cpp:68] Creating Layer inception_5a/3x3
I0311 16:53:00.978127 19766 net.cpp:395] inception_5a/3x3 <- inception_5a/3x3_reduce
I0311 16:53:00.978144 19766 net.cpp:357] inception_5a/3x3 -> inception_5a/3x3
I0311 16:53:00.978160 19766 net.cpp:97] Setting up inception_5a/3x3
I0311 16:53:00.983032 19766 net.cpp:104] Top shape: 128 320 2 2 (163840)
I0311 16:53:00.983065 19766 layer_factory.hpp:78] Creating layer inception_5a/relu_3x3
I0311 16:53:00.983084 19766 net.cpp:68] Creating Layer inception_5a/relu_3x3
I0311 16:53:00.983099 19766 net.cpp:395] inception_5a/relu_3x3 <- inception_5a/3x3
I0311 16:53:00.983113 19766 net.cpp:346] inception_5a/relu_3x3 -> inception_5a/3x3 (in-place)
I0311 16:53:00.983127 19766 net.cpp:97] Setting up inception_5a/relu_3x3
I0311 16:53:00.983142 19766 net.cpp:104] Top shape: 128 320 2 2 (163840)
I0311 16:53:00.983155 19766 layer_factory.hpp:78] Creating layer inception_5a/5x5_reduce
I0311 16:53:00.983172 19766 net.cpp:68] Creating Layer inception_5a/5x5_reduce
I0311 16:53:00.983186 19766 net.cpp:395] inception_5a/5x5_reduce <- pool4/3x3_s2_pool4/3x3_s2_0_split_2
I0311 16:53:00.983201 19766 net.cpp:357] inception_5a/5x5_reduce -> inception_5a/5x5_reduce
I0311 16:53:00.983216 19766 net.cpp:97] Setting up inception_5a/5x5_reduce
I0311 16:53:00.983726 19766 net.cpp:104] Top shape: 128 32 2 2 (16384)
I0311 16:53:00.983752 19766 layer_factory.hpp:78] Creating layer inception_5a/relu_5x5_reduce
I0311 16:53:00.983770 19766 net.cpp:68] Creating Layer inception_5a/relu_5x5_reduce
I0311 16:53:00.983783 19766 net.cpp:395] inception_5a/relu_5x5_reduce <- inception_5a/5x5_reduce
I0311 16:53:00.983822 19766 net.cpp:346] inception_5a/relu_5x5_reduce -> inception_5a/5x5_reduce (in-place)
I0311 16:53:00.983839 19766 net.cpp:97] Setting up inception_5a/relu_5x5_reduce
I0311 16:53:00.983855 19766 net.cpp:104] Top shape: 128 32 2 2 (16384)
I0311 16:53:00.983866 19766 layer_factory.hpp:78] Creating layer inception_5a/5x5
I0311 16:53:00.983881 19766 net.cpp:68] Creating Layer inception_5a/5x5
I0311 16:53:00.983893 19766 net.cpp:395] inception_5a/5x5 <- inception_5a/5x5_reduce
I0311 16:53:00.983911 19766 net.cpp:357] inception_5a/5x5 -> inception_5a/5x5
I0311 16:53:00.983928 19766 net.cpp:97] Setting up inception_5a/5x5
I0311 16:53:00.985141 19766 net.cpp:104] Top shape: 128 128 2 2 (65536)
I0311 16:53:00.985165 19766 layer_factory.hpp:78] Creating layer inception_5a/relu_5x5
I0311 16:53:00.985180 19766 net.cpp:68] Creating Layer inception_5a/relu_5x5
I0311 16:53:00.985193 19766 net.cpp:395] inception_5a/relu_5x5 <- inception_5a/5x5
I0311 16:53:00.985208 19766 net.cpp:346] inception_5a/relu_5x5 -> inception_5a/5x5 (in-place)
I0311 16:53:00.985224 19766 net.cpp:97] Setting up inception_5a/relu_5x5
I0311 16:53:00.985239 19766 net.cpp:104] Top shape: 128 128 2 2 (65536)
I0311 16:53:00.985250 19766 layer_factory.hpp:78] Creating layer inception_5a/pool
I0311 16:53:00.985262 19766 layer_factory.cpp:51] CUDNN does not support padding or multiple tops. Using Caffe's own pooling layer.
I0311 16:53:00.985275 19766 net.cpp:68] Creating Layer inception_5a/pool
I0311 16:53:00.985286 19766 net.cpp:395] inception_5a/pool <- pool4/3x3_s2_pool4/3x3_s2_0_split_3
I0311 16:53:00.985301 19766 net.cpp:357] inception_5a/pool -> inception_5a/pool
I0311 16:53:00.985316 19766 net.cpp:97] Setting up inception_5a/pool
I0311 16:53:00.985329 19766 net.cpp:104] Top shape: 128 832 2 2 (425984)
I0311 16:53:00.985340 19766 layer_factory.hpp:78] Creating layer inception_5a/pool_proj
I0311 16:53:00.985357 19766 net.cpp:68] Creating Layer inception_5a/pool_proj
I0311 16:53:00.985370 19766 net.cpp:395] inception_5a/pool_proj <- inception_5a/pool
I0311 16:53:00.985384 19766 net.cpp:357] inception_5a/pool_proj -> inception_5a/pool_proj
I0311 16:53:00.985404 19766 net.cpp:97] Setting up inception_5a/pool_proj
I0311 16:53:00.986580 19766 net.cpp:104] Top shape: 128 128 2 2 (65536)
I0311 16:53:00.986604 19766 layer_factory.hpp:78] Creating layer inception_5a/relu_pool_proj
I0311 16:53:00.986618 19766 net.cpp:68] Creating Layer inception_5a/relu_pool_proj
I0311 16:53:00.986630 19766 net.cpp:395] inception_5a/relu_pool_proj <- inception_5a/pool_proj
I0311 16:53:00.986644 19766 net.cpp:346] inception_5a/relu_pool_proj -> inception_5a/pool_proj (in-place)
I0311 16:53:00.986660 19766 net.cpp:97] Setting up inception_5a/relu_pool_proj
I0311 16:53:00.986673 19766 net.cpp:104] Top shape: 128 128 2 2 (65536)
I0311 16:53:00.986685 19766 layer_factory.hpp:78] Creating layer inception_5a/output
I0311 16:53:00.986701 19766 net.cpp:68] Creating Layer inception_5a/output
I0311 16:53:00.986713 19766 net.cpp:395] inception_5a/output <- inception_5a/1x1
I0311 16:53:00.986726 19766 net.cpp:395] inception_5a/output <- inception_5a/3x3
I0311 16:53:00.986738 19766 net.cpp:395] inception_5a/output <- inception_5a/5x5
I0311 16:53:00.986750 19766 net.cpp:395] inception_5a/output <- inception_5a/pool_proj
I0311 16:53:00.986764 19766 net.cpp:357] inception_5a/output -> inception_5a/output
I0311 16:53:00.986778 19766 net.cpp:97] Setting up inception_5a/output
I0311 16:53:00.986790 19766 net.cpp:104] Top shape: 128 832 2 2 (425984)
I0311 16:53:00.986801 19766 layer_factory.hpp:78] Creating layer inception_5a/output_inception_5a/output_0_split
I0311 16:53:00.986817 19766 net.cpp:68] Creating Layer inception_5a/output_inception_5a/output_0_split
I0311 16:53:00.986830 19766 net.cpp:395] inception_5a/output_inception_5a/output_0_split <- inception_5a/output
I0311 16:53:00.986845 19766 net.cpp:357] inception_5a/output_inception_5a/output_0_split -> inception_5a/output_inception_5a/output_0_split_0
I0311 16:53:00.986860 19766 net.cpp:357] inception_5a/output_inception_5a/output_0_split -> inception_5a/output_inception_5a/output_0_split_1
I0311 16:53:00.986896 19766 net.cpp:357] inception_5a/output_inception_5a/output_0_split -> inception_5a/output_inception_5a/output_0_split_2
I0311 16:53:00.986914 19766 net.cpp:357] inception_5a/output_inception_5a/output_0_split -> inception_5a/output_inception_5a/output_0_split_3
I0311 16:53:00.986929 19766 net.cpp:97] Setting up inception_5a/output_inception_5a/output_0_split
I0311 16:53:00.986942 19766 net.cpp:104] Top shape: 128 832 2 2 (425984)
I0311 16:53:00.986953 19766 net.cpp:104] Top shape: 128 832 2 2 (425984)
I0311 16:53:00.986963 19766 net.cpp:104] Top shape: 128 832 2 2 (425984)
I0311 16:53:00.986974 19766 net.cpp:104] Top shape: 128 832 2 2 (425984)
I0311 16:53:00.986985 19766 layer_factory.hpp:78] Creating layer inception_5b/1x1
I0311 16:53:00.987002 19766 net.cpp:68] Creating Layer inception_5b/1x1
I0311 16:53:00.987015 19766 net.cpp:395] inception_5b/1x1 <- inception_5a/output_inception_5a/output_0_split_0
I0311 16:53:00.987031 19766 net.cpp:357] inception_5b/1x1 -> inception_5b/1x1
I0311 16:53:00.987047 19766 net.cpp:97] Setting up inception_5b/1x1
I0311 16:53:00.990397 19766 net.cpp:104] Top shape: 128 384 2 2 (196608)
I0311 16:53:00.990423 19766 layer_factory.hpp:78] Creating layer inception_5b/relu_1x1
I0311 16:53:00.990458 19766 net.cpp:68] Creating Layer inception_5b/relu_1x1
I0311 16:53:00.990475 19766 net.cpp:395] inception_5b/relu_1x1 <- inception_5b/1x1
I0311 16:53:00.990489 19766 net.cpp:346] inception_5b/relu_1x1 -> inception_5b/1x1 (in-place)
I0311 16:53:00.990504 19766 net.cpp:97] Setting up inception_5b/relu_1x1
I0311 16:53:00.990520 19766 net.cpp:104] Top shape: 128 384 2 2 (196608)
I0311 16:53:00.990531 19766 layer_factory.hpp:78] Creating layer inception_5b/3x3_reduce
I0311 16:53:00.990550 19766 net.cpp:68] Creating Layer inception_5b/3x3_reduce
I0311 16:53:00.990562 19766 net.cpp:395] inception_5b/3x3_reduce <- inception_5a/output_inception_5a/output_0_split_1
I0311 16:53:00.990577 19766 net.cpp:357] inception_5b/3x3_reduce -> inception_5b/3x3_reduce
I0311 16:53:00.990593 19766 net.cpp:97] Setting up inception_5b/3x3_reduce
I0311 16:53:00.992410 19766 net.cpp:104] Top shape: 128 192 2 2 (98304)
I0311 16:53:00.992435 19766 layer_factory.hpp:78] Creating layer inception_5b/relu_3x3_reduce
I0311 16:53:00.992452 19766 net.cpp:68] Creating Layer inception_5b/relu_3x3_reduce
I0311 16:53:00.992465 19766 net.cpp:395] inception_5b/relu_3x3_reduce <- inception_5b/3x3_reduce
I0311 16:53:00.992480 19766 net.cpp:346] inception_5b/relu_3x3_reduce -> inception_5b/3x3_reduce (in-place)
I0311 16:53:00.992496 19766 net.cpp:97] Setting up inception_5b/relu_3x3_reduce
I0311 16:53:00.992509 19766 net.cpp:104] Top shape: 128 192 2 2 (98304)
I0311 16:53:00.992522 19766 layer_factory.hpp:78] Creating layer inception_5b/3x3
I0311 16:53:00.992537 19766 net.cpp:68] Creating Layer inception_5b/3x3
I0311 16:53:00.992550 19766 net.cpp:395] inception_5b/3x3 <- inception_5b/3x3_reduce
I0311 16:53:00.992564 19766 net.cpp:357] inception_5b/3x3 -> inception_5b/3x3
I0311 16:53:00.992600 19766 net.cpp:97] Setting up inception_5b/3x3
I0311 16:53:00.999969 19766 net.cpp:104] Top shape: 128 384 2 2 (196608)
I0311 16:53:01.000001 19766 layer_factory.hpp:78] Creating layer inception_5b/relu_3x3
I0311 16:53:01.000018 19766 net.cpp:68] Creating Layer inception_5b/relu_3x3
I0311 16:53:01.000031 19766 net.cpp:395] inception_5b/relu_3x3 <- inception_5b/3x3
I0311 16:53:01.000046 19766 net.cpp:346] inception_5b/relu_3x3 -> inception_5b/3x3 (in-place)
I0311 16:53:01.000061 19766 net.cpp:97] Setting up inception_5b/relu_3x3
I0311 16:53:01.000075 19766 net.cpp:104] Top shape: 128 384 2 2 (196608)
I0311 16:53:01.000087 19766 layer_factory.hpp:78] Creating layer inception_5b/5x5_reduce
I0311 16:53:01.000102 19766 net.cpp:68] Creating Layer inception_5b/5x5_reduce
I0311 16:53:01.000114 19766 net.cpp:395] inception_5b/5x5_reduce <- inception_5a/output_inception_5a/output_0_split_2
I0311 16:53:01.000131 19766 net.cpp:357] inception_5b/5x5_reduce -> inception_5b/5x5_reduce
I0311 16:53:01.000174 19766 net.cpp:97] Setting up inception_5b/5x5_reduce
I0311 16:53:01.000656 19766 net.cpp:104] Top shape: 128 48 2 2 (24576)
I0311 16:53:01.000679 19766 layer_factory.hpp:78] Creating layer inception_5b/relu_5x5_reduce
I0311 16:53:01.000694 19766 net.cpp:68] Creating Layer inception_5b/relu_5x5_reduce
I0311 16:53:01.000707 19766 net.cpp:395] inception_5b/relu_5x5_reduce <- inception_5b/5x5_reduce
I0311 16:53:01.000723 19766 net.cpp:346] inception_5b/relu_5x5_reduce -> inception_5b/5x5_reduce (in-place)
I0311 16:53:01.000740 19766 net.cpp:97] Setting up inception_5b/relu_5x5_reduce
I0311 16:53:01.000754 19766 net.cpp:104] Top shape: 128 48 2 2 (24576)
I0311 16:53:01.000766 19766 layer_factory.hpp:78] Creating layer inception_5b/5x5
I0311 16:53:01.000782 19766 net.cpp:68] Creating Layer inception_5b/5x5
I0311 16:53:01.000793 19766 net.cpp:395] inception_5b/5x5 <- inception_5b/5x5_reduce
I0311 16:53:01.000810 19766 net.cpp:357] inception_5b/5x5 -> inception_5b/5x5
I0311 16:53:01.000826 19766 net.cpp:97] Setting up inception_5b/5x5
I0311 16:53:01.002629 19766 net.cpp:104] Top shape: 128 128 2 2 (65536)
I0311 16:53:01.002655 19766 layer_factory.hpp:78] Creating layer inception_5b/relu_5x5
I0311 16:53:01.002672 19766 net.cpp:68] Creating Layer inception_5b/relu_5x5
I0311 16:53:01.002686 19766 net.cpp:395] inception_5b/relu_5x5 <- inception_5b/5x5
I0311 16:53:01.002701 19766 net.cpp:346] inception_5b/relu_5x5 -> inception_5b/5x5 (in-place)
I0311 16:53:01.002715 19766 net.cpp:97] Setting up inception_5b/relu_5x5
I0311 16:53:01.002730 19766 net.cpp:104] Top shape: 128 128 2 2 (65536)
I0311 16:53:01.002743 19766 layer_factory.hpp:78] Creating layer inception_5b/pool
I0311 16:53:01.002754 19766 layer_factory.cpp:51] CUDNN does not support padding or multiple tops. Using Caffe's own pooling layer.
I0311 16:53:01.002768 19766 net.cpp:68] Creating Layer inception_5b/pool
I0311 16:53:01.002779 19766 net.cpp:395] inception_5b/pool <- inception_5a/output_inception_5a/output_0_split_3
I0311 16:53:01.002794 19766 net.cpp:357] inception_5b/pool -> inception_5b/pool
I0311 16:53:01.002810 19766 net.cpp:97] Setting up inception_5b/pool
I0311 16:53:01.002823 19766 net.cpp:104] Top shape: 128 832 2 2 (425984)
I0311 16:53:01.002835 19766 layer_factory.hpp:78] Creating layer inception_5b/pool_proj
I0311 16:53:01.002853 19766 net.cpp:68] Creating Layer inception_5b/pool_proj
I0311 16:53:01.002866 19766 net.cpp:395] inception_5b/pool_proj <- inception_5b/pool
I0311 16:53:01.002883 19766 net.cpp:357] inception_5b/pool_proj -> inception_5b/pool_proj
I0311 16:53:01.002899 19766 net.cpp:97] Setting up inception_5b/pool_proj
I0311 16:53:01.004149 19766 net.cpp:104] Top shape: 128 128 2 2 (65536)
I0311 16:53:01.004174 19766 layer_factory.hpp:78] Creating layer inception_5b/relu_pool_proj
I0311 16:53:01.004189 19766 net.cpp:68] Creating Layer inception_5b/relu_pool_proj
I0311 16:53:01.004201 19766 net.cpp:395] inception_5b/relu_pool_proj <- inception_5b/pool_proj
I0311 16:53:01.004218 19766 net.cpp:346] inception_5b/relu_pool_proj -> inception_5b/pool_proj (in-place)
I0311 16:53:01.004235 19766 net.cpp:97] Setting up inception_5b/relu_pool_proj
I0311 16:53:01.004250 19766 net.cpp:104] Top shape: 128 128 2 2 (65536)
I0311 16:53:01.004261 19766 layer_factory.hpp:78] Creating layer inception_5b/output
I0311 16:53:01.004276 19766 net.cpp:68] Creating Layer inception_5b/output
I0311 16:53:01.004287 19766 net.cpp:395] inception_5b/output <- inception_5b/1x1
I0311 16:53:01.004300 19766 net.cpp:395] inception_5b/output <- inception_5b/3x3
I0311 16:53:01.004312 19766 net.cpp:395] inception_5b/output <- inception_5b/5x5
I0311 16:53:01.004324 19766 net.cpp:395] inception_5b/output <- inception_5b/pool_proj
I0311 16:53:01.004341 19766 net.cpp:357] inception_5b/output -> inception_5b/output
I0311 16:53:01.004356 19766 net.cpp:97] Setting up inception_5b/output
I0311 16:53:01.004369 19766 net.cpp:104] Top shape: 128 1024 2 2 (524288)
I0311 16:53:01.004380 19766 layer_factory.hpp:78] Creating layer pool5/7x7_s1
I0311 16:53:01.004412 19766 net.cpp:68] Creating Layer pool5/7x7_s1
I0311 16:53:01.004426 19766 net.cpp:395] pool5/7x7_s1 <- inception_5b/output
I0311 16:53:01.004441 19766 net.cpp:357] pool5/7x7_s1 -> pool5/7x7_s1
I0311 16:53:01.004456 19766 net.cpp:97] Setting up pool5/7x7_s1
I0311 16:53:01.004473 19766 net.cpp:104] Top shape: 128 1024 1 1 (131072)
I0311 16:53:01.004487 19766 layer_factory.hpp:78] Creating layer pool5/drop_7x7_s1
I0311 16:53:01.004503 19766 net.cpp:68] Creating Layer pool5/drop_7x7_s1
I0311 16:53:01.004514 19766 net.cpp:395] pool5/drop_7x7_s1 <- pool5/7x7_s1
I0311 16:53:01.004528 19766 net.cpp:346] pool5/drop_7x7_s1 -> pool5/7x7_s1 (in-place)
I0311 16:53:01.004542 19766 net.cpp:97] Setting up pool5/drop_7x7_s1
I0311 16:53:01.004555 19766 net.cpp:104] Top shape: 128 1024 1 1 (131072)
I0311 16:53:01.004566 19766 layer_factory.hpp:78] Creating layer loss3/classifier
I0311 16:53:01.004585 19766 net.cpp:68] Creating Layer loss3/classifier
I0311 16:53:01.004597 19766 net.cpp:395] loss3/classifier <- pool5/7x7_s1
I0311 16:53:01.004632 19766 net.cpp:357] loss3/classifier -> loss3/classifier
I0311 16:53:01.004652 19766 net.cpp:97] Setting up loss3/classifier
I0311 16:53:01.005939 19766 net.cpp:104] Top shape: 128 121 1 1 (15488)
I0311 16:53:01.005964 19766 layer_factory.hpp:78] Creating layer loss3/loss3
I0311 16:53:01.005981 19766 net.cpp:68] Creating Layer loss3/loss3
I0311 16:53:01.005995 19766 net.cpp:395] loss3/loss3 <- loss3/classifier
I0311 16:53:01.006008 19766 net.cpp:395] loss3/loss3 <- label_data_1_split_2
I0311 16:53:01.006022 19766 net.cpp:357] loss3/loss3 -> loss3/loss3
I0311 16:53:01.006042 19766 net.cpp:97] Setting up loss3/loss3
I0311 16:53:01.006055 19766 layer_factory.hpp:78] Creating layer loss3/loss3
I0311 16:53:01.006114 19766 net.cpp:104] Top shape: 1 1 1 1 (1)
I0311 16:53:01.006129 19766 net.cpp:110]     with loss weight 1
I0311 16:53:01.006152 19766 net.cpp:171] loss3/loss3 needs backward computation.
I0311 16:53:01.006163 19766 net.cpp:171] loss3/classifier needs backward computation.
I0311 16:53:01.006175 19766 net.cpp:171] pool5/drop_7x7_s1 needs backward computation.
I0311 16:53:01.006186 19766 net.cpp:171] pool5/7x7_s1 needs backward computation.
…
  transform_param {
    mirror: true
    mean_file: "/media/data/kaggle/nationalDataScienceBowl/data/typeF/train_mean.binaryproto"
    affine_param {
      x_stretch_unirnd_range: 0.01
      y_stretch_unirnd_range: 0.01
      rotation_unirnd_range: 180
      max_translation: 5
      background_color: 255
    }
  }
  image_data_affine_param {
    source: "/media/data/kaggle/nationalDataScienceBowl/data/typeF/val.txt"
    scale: 0.00390625
    batch_size: 128
    shuffle: true
    new_size: 96
    is_color: false
    root_folder: "/media/data/kaggle/nationalDataScienceBowl/data/typeF/"
  }
}
layers {
  bottom: "data"
  top: "conv1/7x7_s2"
  name: "conv1/7x7_s2"
  type: CONVOLUTION
  blobs_lr: 1
  blobs_lr: 2
  weight_decay: 1
  weight_decay: 0
  convolution_param {
    num_output: 246
    pad: 0
    kernel_size: 4
    stride: 2
    weight_filler {
      type: "xavier"
      std: 0.1
    }
    bias_filler {
      type: "constant"
      value: 0.2
    }
  }
}
layers {
  bottom: "conv1/7x7_s2"
  top: "conv1/7x7_s2"
  name: "conv1/relu_7x7"
  type: RELU
}
layers {
  bottom: "conv1/7x7_s2"
  top: "pool1/3x3_s2"
  name: "pool1/3x3_s2"
  type: POOLING
  pooling_param {
    pool: MAX
    kernel_size: 3
    stride: 2
  }
}
layers {
  bottom: "pool1/3x3_s2"
  top: "pool1/norm1"
  name: "pool1/norm1"
  type: LRN
  lrn_param {
    local_size: 5
    alpha: 0.0001
    beta: 0.75
  }
}
layers {
  bottom: "pool1/norm1"
  top: "conv2/3x3_reduce"
  name: "conv2/3x3_reduce"
  type: CONVOLUTION
  blobs_lr: 1
  blobs_lr: 2
  weight_decay: 1
  weight_decay: 0
  convolution_param {
    num_output: 64
    kernel_size: 1
    weight_filler {
      type: "xavier"
      std: 0.1
    }
    bias_filler {
      type: "constant"
      value: 0.2
    }
  }
}
layers {
  bottom: "conv2/3x3_reduce"
  top: "conv2/3x3_reduce"
  name: "conv2/relu_3x3_reduce"
  type: RELU
}
layers {
  bottom: "conv2/3x3_reduce"
  top: "conv2/3x3"
  name: "conv2/3x3"
  type: CONVOLUTION
  blobs_lr: 1
  blobs_lr: 2
  weight_decay: 1
  weight_decay: 0
  convolution_param {
    num_output: 192
    pad: 1
    kernel_size: 3
    weight_filler {
      type: "xavier"
      std: 0.03
    }
    bias_filler {
      type: "constant"
      value: 0.2
    }
  }
}
layers {
  bottom: "conv2/3x3"
  top: "conv2/3x3"
  name: "conv2/relu_3x3"
  type: RELU
}
layers {
  bottom: "conv2/3x3"
  top: "conv2/norm2"
  name: "conv2/norm2"
  type: LRN
  lrn_param {
    local_size: 5
    alpha: 0.0001
    beta: 0.75
  }
}
layers {
  bottom: "conv2/norm2"
  top: "pool2/3x3_s2"
  name: "pool2/3x3_s2"
  type: POOLING
  pooling_param {
    pool: MAX
    kernel_size: 3
    stride: 2
  }
}
layers {
  bottom: "pool2/3x3_s2"
  top: "inception_3a/1x1"
  name: "inception_3a/1x1"
  type: CONVOLUTION
  blobs_lr: 1
  blobs_lr: 2
  weight_decay: 1
  weight_decay: 0
  convolution_param {
    num_output: 64
    kernel_size: 1
    weight_filler {
      type: "xavier"
      std: 0.03
    }
    bias_filler {
      type: "constant"
      value: 0.2
    }
  }
}
layers {
  bottom: "inception_3a/1x1"
  top: "inception_3a/1x1"
  name: "inception_3a/relu_1x1"
  type: RELU
}
layers {
  bottom: "pool2/3x3_s2"
  top: "inception_3a/3x3_reduce"
  name: "inception_3a/3x3_reduce"
  type: CONVOLUTION
  blobs_lr: 1
  blobs_lr: 2
  weight_decay: 1
  weight_decay: 0
  convolution_param {
    num_output: 96
    kernel_size: 1
    weight_filler {
      type: "xavier"
      std: 0.09
    }
    bias_filler {
      type: "constant"
      value: 0.2
    }
  }
}
layers {
  bottom: "inception_3a/3x3_reduce"
  top: "inception_3a/3x3_reduce"
  name: "inception_3a/relu_3x3_reduce"
  type: RELU
}
layers {
  bottom: "inception_3a/3x3_reduce"
  top: "inception_3a/3x3"
  name: "inception_3a/3x3"
  type: CONVOLUTION
  blobs_lr: 1
  blobs_lr: 2
  weight_decay: 1
  weight_decay: 0
  convolution_param {
    num_output: 128
    pad: 1
    kernel_size: 3
    weight_filler {
      type: "xavier"
      std: 0.03
    }
    bias_filler {
      type: "constant"
      value: 0.2
    }
  }
}
layers {
  bottom: "inception_3a/3x3"
  top: "inception_3a/3x3"
  name: "inception_3a/relu_3x3"
  type: RELU
}
layers {
  bottom: "pool2/3x3_s2"
  top: "inception_3a/5x5_reduce"
  name: "inception_3a/5x5_reduce"
  type: CONVOLUTION
  blobs_lr: 1
  blobs_lr: 2
  weight_decay: 1
  weight_decay: 0
  convolution_param {
    num_output: 16
    kernel_size: 1
    weight_filler {
      type: "xavier"
      std: 0.2
    }
    bias_filler {
      type: "constant"
      value: 0.2
    }
  }
}
layers {
  bottom: "inception_3a/5x5_reduce"
  top: "inception_3a/5x5_reduce"
  name: "inception_3a/relu_5x5_reduce"
  type: RELU
}
layers {
  bottom: "inception_3a/5x5_reduce"
  top: "inception_3a/5x5"
  name: "inception_3a/5x5"
  type: CONVOLUTION
  blobs_lr: 1
  blobs_lr: 2
  weight_decay: 1
  weight_decay: 0
  convolution_param {
    num_output: 32
    pad: 2
    kernel_size: 5
    weight_filler {
      type: "xavier"
      std: 0.03
    }
    bias_filler {
      type: "constant"
      value: 0.2
    }
  }
}
layers {
  bottom: "inception_3a/5x5"
  top: "inception_3a/5x5"
  name: "inception_3a/relu_5x5"
  type: RELU
}
layers {
  bottom: "pool2/3x3_s2"
  top: "inception_3a/pool"
  name: "inception_3a/pool"
  type: POOLING
  pooling_param {
    pool: MAX
    kernel_size: 3
    stride: 1
    pad: 1
  }
}
layers {
  bottom: "inception_3a/pool"
  top: "inception_3a/pool_proj"
  name: "inception_3a/pool_proj"
  type: CONVOLUTION
  blobs_lr: 1
  blobs_lr: 2
  weight_decay: 1
  weight_decay: 0
  convolution_param {
    num_output: 32
    kernel_size: 1
    weight_filler {
      type: "xavier"
      std: 0.1
    }
    bias_filler {
      type: "constant"
      value: 0.2
    }
  }
}
layers {
  bottom: "inception_3a/pool_proj"
  top: "inception_3a/pool_proj"
  name: "inception_3a/relu_pool_proj"
  type: RELU
}
layers {
  bottom: "inception_3a/1x1"
  bottom: "inception_3a/3x3"
  bottom: "inception_3a/5x5"
  bottom: "inception_3a/pool_proj"
  top: "inception_3a/output"
  name: "inception_3a/output"
  type: CONCAT
}
layers {
  bottom: "inception_3a/output"
  top: "inception_3b/1x1"
  name: "inception_3b/1x1"
  type: CONVOLUTION
  blobs_lr: 1
  blobs_lr: 2
  weight_decay: 1
  weight_decay: 0
  convolution_param {
    num_output: 128
    kernel_size: 1
    weight_filler {
      type: "xavier"
      std: 0.03
    }
    bias_filler {
      type: "constant"
      value: 0.2
    }
  }
}
layers {
  bottom: "inception_3b/1x1"
  top: "inception_3b/1x1"
  name: "inception_3b/relu_1x1"
  type: RELU
}
layers {
  bottom: "inception_3a/output"
  top: "inception_3b/3x3_reduce"
  name: "inception_3b/3x3_reduce"
  type: CONVOLUTION
  blobs_lr: 1
  blobs_lr: 2
  weight_decay: 1
  weight_decay: 0
  convolution_param {
    num_output: 128
    kernel_size: 1
    weight_filler {
      type: "xavier"
      std: 0.09
    }
    bias_filler {
      type: "constant"
      value: 0.2
    }
  }
}
layers {
  bottom: "inception_3b/3x3_reduce"
  top: "inception_3b/3x3_reduce"
  name: "inception_3b/relu_3x3_reduce"
  type: RELU
}
layers {
  bottom: "inception_3b/3x3_reduce"
  top: "inception_3b/3x3"
  name: "inception_3b/3x3"
  type: CONVOLUTION
  blobs_lr: 1
  blobs_lr: 2
  weight_decay: 1
  weight_decay: 0
  convolution_param {
    num_output: 192
    pad: 1
    kernel_size: 3
    weight_filler {
      type: "xavier"
      std: 0.03
    }
    bias_filler {
      type: "constant"
      value: 0.2
    }
  }
}
layers {
  bottom: "inception_3b/3x3"
  top: "inception_3b/3x3"
  name: "inception_3b/relu_3x3"
  type: RELU
}
layers {
  bottom: "inception_3a/output"
  top: "inception_3b/5x5_reduce"
  name: "inception_3b/5x5_reduce"
  type: CONVOLUTION
  blobs_lr: 1
  blobs_lr: 2
  weight_decay: 1
  weight_decay: 0
  convolution_param {
    num_output: 32
    kernel_size: 1
    weight_filler {
      type: "xavier"
      std: 0.2
    }
    bias_filler {
      type: "constant"
      value: 0.2
    }
  }
}
layers {
  bottom: "inception_3b/5x5_reduce"
  top: "inception_3b/5x5_reduce"
  name: "inception_3b/relu_5x5_reduce"
  type: RELU
}
layers {
  bottom: "inception_3b/5x5_reduce"
  top: "inception_3b/5x5"
  name: "inception_3b/5x5"
  type: CONVOLUTION
  blobs_lr: 1
  blobs_lr: 2
  weight_decay: 1
  weight_decay: 0
  convolution_param {
    num_output: 96
    pad: 2
    kernel_size: 5
    weight_filler {
      type: "xavier"
      std: 0.03
    }
    bias_filler {
      type: "constant"
      value: 0.2
    }
  }
}
layers {
  bottom: "inception_3b/5x5"
  top: "inception_3b/5x5"
  name: "inception_3b/relu_5x5"
  type: RELU
}
layers {
  bottom: "inception_3a/output"
  top: "inception_3b/pool"
  name: "inception_3b/pool"
  type: POOLING
  pooling_param {
    pool: MAX
    kernel_size: 3
    stride: 1
    pad: 1
  }
}
layers {
  bottom: "inception_3b/pool"
  top: "inception_3b/pool_proj"
  name: "inception_3b/pool_proj"
  type: CONVOLUTION
  blobs_lr: 1
  blobs_lr: 2
  weight_decay: 1
  weight_decay: 0
  convolution_param {
    num_output: 64
    kernel_size: 1
    weight_filler {
      type: "xavier"
      std: 0.1
    }
    bias_filler {
      type: "constant"
      value: 0.2
    }
  }
}
layers {
  bottom: "inception_3b/pool_proj"
  top: "inception_3b/pool_proj"
  name: "inception_3b/relu_pool_proj"
  type: RELU
}
layers {
  bottom: "inception_3b/1x1"
  bottom: "inception_3b/3x3"
  bottom: "inception_3b/5x5"
  bottom: "inception_3b/pool_proj"
  top: "inception_3b/output"
  name: "inception_3b/output"
  type: CONCAT
}
layers {
  bottom: "inception_3b/output"
  top: "pool3/3x3_s2"
  name: "pool3/3x3_s2"
  type: POOLING
  pooling_param {
    pool: MAX
    kernel_size: 3
    stride: 2
  }
}
layers {
  bottom: "pool3/3x3_s2"
  top: "inception_4a/1x1"
  name: "inception_4a/1x1"
  type: CONVOLUTION
  blobs_lr: 1
  blobs_lr: 2
  weight_decay: 1
  weight_decay: 0
  convolution_param {
    num_output: 192
    kernel_size: 1
    weight_filler {
      type: "xavier"
      std: 0.03
    }
    bias_filler {
      type: "constant"
      value: 0.2
    }
  }
}
layers {
  bottom: "inception_4a/1x1"
  top: "inception_4a/1x1"
  name: "inception_4a/relu_1x1"
  type: RELU
}
layers {
  bottom: "pool3/3x3_s2"
  top: "inception_4a/3x3_reduce"
  name: "inception_4a/3x3_reduce"
  type: CONVOLUTION
  blobs_lr: 1
  blobs_lr: 2
  weight_decay: 1
  weight_decay: 0
  convolution_param {
    num_output: 96
    kernel_size: 1
    weight_filler {
      type: "xavier"
      std: 0.09
    }
    bias_filler {
      type: "constant"
      value: 0.2
    }
  }
}
layers {
  bottom: "inception_4a/3x3_reduce"
  top: "inception_4a/3x3_reduce"
  name: "inception_4a/relu_3x3_reduce"
  type: RELU
}
layers {
  bottom: "inception_4a/3x3_reduce"
  top: "inception_4a/3x3"
  name: "inception_4a/3x3"
  type: CONVOLUTION
  blobs_lr: 1
  blobs_lr: 2
  weight_decay: 1
  weight_decay: 0
  convolution_param {
    num_output: 208
    pad: 1
    kernel_size: 3
    weight_filler {
      type: "xavier"
      std: 0.03
    }
    bias_filler {
      type: "constant"
      value: 0.2
    }
  }
}
layers {
  bottom: "inception_4a/3x3"
  top: "inception_4a/3x3"
  name: "inception_4a/relu_3x3"
  type: RELU
}
layers {
  bottom: "pool3/3x3_s2"
  top: "inception_4a/5x5_reduce"
  name: "inception_4a/5x5_reduce"
  type: CONVOLUTION
  blobs_lr: 1
  blobs_lr: 2
  weight_decay: 1
  weight_decay: 0
  convolution_param {
    num_output: 16
    kernel_size: 1
    weight_filler {
      type: "xavier"
      std: 0.2
    }
    bias_filler {
      type: "constant"
      value: 0.2
    }
  }
}
layers {
  bottom: "inception_4a/5x5_reduce"
  top: "inception_4a/5x5_reduce"
  name: "inception_4a/relu_5x5_reduce"
  type: RELU
}
layers {
  bottom: "inception_4a/5x5_reduce"
  top: "inception_4a/5x5"
  name: "inception_4a/5x5"
  type: CONVOLUTION
  blobs_lr: 1
  blobs_lr: 2
  weight_decay: 1
  weight_decay: 0
  convolution_param {
    num_output: 48
    pad: 2
    kernel_size: 5
    weight_filler {
      type: "xavier"
      std: 0.03
    }
    bias_filler {
      type: "constant"
      value: 0.2
    }
  }
}
layers {
  bottom: "inception_4a/5x5"
  top: "inception_4a/5x5"
  name: "inception_4a/relu_5x5"
  type: RELU
}
layers {
  bottom: "pool3/3x3_s2"
  top: "inception_4a/pool"
  name: "inception_4a/pool"
  type: POOLING
  pooling_param {
    pool: MAX
    kernel_size: 3
    stride: 1
    pad: 1
  }
}
layers {
  bottom: "inception_4a/pool"
  top: "inception_4a/pool_proj"
  name: "inception_4a/pool_proj"
  type: CONVOLUTION
  blobs_lr: 1
  blobs_lr: 2
  weight_decay: 1
  weight_decay: 0
  convolution_param {
    num_output: 64
    kernel_size: 1
    weight_filler {
      type: "xavier"
      std: 0.1
    }
    bias_filler {
      type: "constant"
      value: 0.2
    }
  }
}
layers {
  bottom: "inception_4a/pool_proj"
  top: "inception_4a/pool_proj"
  name: "inception_4a/relu_pool_proj"
  type: RELU
}
layers {
  bottom: "inception_4a/1x1"
  bottom: "inception_4a/3x3"
  bottom: "inception_4a/5x5"
  bottom: "inception_4a/pool_proj"
  top: "inception_4a/output"
  name: "inception_4a/output"
  type: CONCAT
}
layers {
  bottom: "inception_4a/output"
  top: "loss1/ave_pool"
  name: "loss1/ave_pool"
  type: POOLING
  pooling_param {
    pool: AVE
    kernel_size: 5
    stride: 3
  }
}
layers {
  bottom: "loss1/ave_pool"
  top: "loss1/conv"
  name: "loss1/conv"
  type: CONVOLUTION
  blobs_lr: 1
  blobs_lr: 2
  weight_decay: 1
  weight_decay: 0
  convolution_param {
    num_output: 128
    kernel_size: 1
    weight_filler {
      type: "xavier"
      std: 0.08
    }
    bias_filler {
      type: "constant"
      value: 0.2
    }
  }
}
layers {
  bottom: "loss1/conv"
  top: "loss1/conv"
  name: "loss1/relu_conv"
  type: RELU
}
layers {
  bottom: "loss1/conv"
  top: "loss1/fc"
  name: "loss1/fc"
  type: INNER_PRODUCT
  blobs_lr: 1
  blobs_lr: 2
  weight_decay: 1
  weight_decay: 0
  inner_product_param {
    num_output: 1024
    weight_filler {
      type: "xavier"
      std: 0.02
    }
    bias_filler {
      type: "constant"
      value: 0.2
    }
  }
}
layers {
  bottom: "loss1/fc"
  top: "loss1/fc"
  name: "loss1/relu_fc"
  type: RELU
}
layers {
  bottom: "loss1/fc"
  top: "loss1/fc"
  name: "loss1/drop_fc"
  type: DROPOUT
  dropout_param {
    dropout_ratio: 0.7
  }
}
layers {
  bottom: "loss1/fc"
  top: "loss1/classifier"
  name: "loss1/classifier"
  type: INNER_PRODUCT
  blobs_lr: 1
  blobs_lr: 2
  weight_decay: 1
  weight_decay: 0
  inner_product_param {
    num_output: 121
    weight_filler {
      type: "xavier"
      std: 0.0009765625
    }
    bias_filler {
      type: "constant"
      value: 0
    }
  }
}
layers {
  bottom: "loss1/classifier"
  bottom: "label"
  top: "loss1/loss1"
  name: "loss1/loss"
  type: SOFTMAX_LOSS
  loss_weight: 0.3
}
layers {
  bottom: "loss1/classifier"
  bottom: "label"
  top: "loss1/top-1"
  name: "loss1/top-1"
  type: ACCURACY
  include {
    phase: TEST
  }
}
layers {
  bottom: "inception_4a/output"
  top: "inception_4b/1x1"
  name: "inception_4b/1x1"
  type: CONVOLUTION
  blobs_lr: 1
  blobs_lr: 2
  weight_decay: 1
  weight_decay: 0
  convolution_param {
    num_output: 160
    kernel_size: 1
    weight_filler {
      type: "xavier"
      std: 0.03
    }
    bias_filler {
      type: "constant"
      value: 0.2
    }
  }
}
layers {
  bottom: "inception_4b/1x1"
  top: "inception_4b/1x1"
  name: "inception_4b/relu_1x1"
  type: RELU
}
layers {
  bottom: "inception_4a/output"
  top: "inception_4b/3x3_reduce"
  name: "inception_4b/3x3_reduce"
  type: CONVOLUTION
  blobs_lr: 1
  blobs_lr: 2
  weight_decay: 1
  weight_decay: 0
  convolution_param {
    num_output: 112
    kernel_size: 1
    weight_filler {
      type: "xavier"
      std: 0.09
    }
    bias_filler {
      type: "constant"
      value: 0.2
    }
  }
}
layers {
  bottom: "inception_4b/3x3_reduce"
  top: "inception_4b/3x3_reduce"
  name: "inception_4b/relu_3x3_reduce"
  type: RELU
}
layers {
  bottom: "inception_4b/3x3_reduce"
  top: "inception_4b/3x3"
  name: "inception_4b/3x3"
  type: CONVOLUTION
  blobs_lr: 1
  blobs_lr: 2
  weight_decay: 1
  weight_decay: 0
  convolution_param {
    num_output: 224
    pad: 1
    kernel_size: 3
    weight_filler {
      type: "xavier"
      std: 0.03
    }
    bias_filler {
      type: "constant"
      value: 0.2
    }
  }
}
layers {
  bottom: "inception_4b/3x3"
  top: "inception_4b/3x3"
  name: "inception_4b/relu_3x3"
  type: RELU
}
layers {
  bottom: "inception_4a/output"
  top: "inception_4b/5x5_reduce"
  name: "inception_4b/5x5_reduce"
  type: CONVOLUTION
  blobs_lr: 1
  blobs_lr: 2
  weight_decay: 1
  weight_decay: 0
  convolution_param {
    num_output: 24
    kernel_size: 1
    weight_filler {
      type: "xavier"
      std: 0.2
    }
    bias_filler {
      type: "constant"
      value: 0.2
    }
  }
}
layers {
  bottom: "inception_4b/5x5_reduce"
  top: "inception_4b/5x5_reduce"
  name: "inception_4b/relu_5x5_reduce"
  type: RELU
}
layers {
  bottom: "inception_4b/5x5_reduce"
  top: "inception_4b/5x5"
  name: "inception_4b/5x5"
  type: CONVOLUTION
  blobs_lr: 1
  blobs_lr: 2
  weight_decay: 1
  weight_decay: 0
  convolution_param {
    num_output: 64
    pad: 2
    kernel_size: 5
    weight_filler {
      type: "xavier"
      std: 0.03
    }
    bias_filler {
      type: "constant"
      value: 0.2
    }
  }
}
layers {
  bottom: "inception_4b/5x5"
  top: "inception_4b/5x5"
  name: "inception_4b/relu_5x5"
  type: RELU
}
layers {
  bottom: "inception_4a/output"
  top: "inception_4b/pool"
  name: "inception_4b/pool"
  type: POOLING
  pooling_param {
    pool: MAX
    kernel_size: 3
    stride: 1
    pad: 1
  }
}
layers {
  bottom: "inception_4b/pool"
  top: "inception_4b/pool_proj"
  name: "inception_4b/pool_proj"
  type: CONVOLUTION
  blobs_lr: 1
  blobs_lr: 2
  weight_decay: 1
  weight_decay: 0
  convolution_param {
    num_output: 64
    kernel_size: 1
    weight_filler {
      type: "xavier"
      std: 0.1
    }
    bias_filler {
      type: "constant"
      value: 0.2
    }
  }
}
layers {
  bottom: "inception_4b/pool_proj"
  top: "inception_4b/pool_proj"
  name: "inception_4b/relu_pool_proj"
  type: RELU
}
layers {
  bottom: "inception_4b/1x1"
  bottom: "inception_4b/3x3"
  bottom: "inception_4b/5x5"
  bottom: "inception_4b/pool_proj"
  top: "inception_4b/output"
  name: "inception_4b/output"
  type: CONCAT
}
layers {
  bottom: "inception_4b/output"
  top: "inception_4c/1x1"
  name: "inception_4c/1x1"
  type: CONVOLUTION
  blobs_lr: 1
  blobs_lr: 2
  weight_decay: 1
  weight_decay: 0
  convolution_param {
    num_output: 128
    kernel_size: 1
    weight_filler {
      type: "xavier"
      std: 0.03
    }
    bias_filler {
      type: "constant"
      value: 0.2
    }
  }
}
layers {
  bottom: "inception_4c/1x1"
  top: "inception_4c/1x1"
  name: "inception_4c/relu_1x1"
  type: RELU
}
layers {
  bottom: "inception_4b/output"
  top: "inception_4c/3x3_reduce"
  name: "inception_4c/3x3_reduce"
  type: CONVOLUTION
  blobs_lr: 1
  blobs_lr: 2
  weight_decay: 1
  weight_decay: 0
  convolution_param {
    num_output: 128
    kernel_size: 1
    weight_filler {
      type: "xavier"
      std: 0.09
    }
    bias_filler {
      type: "constant"
      value: 0.2
    }
  }
}
layers {
  bottom: "inception_4c/3x3_reduce"
  top: "inception_4c/3x3_reduce"
  name: "inception_4c/relu_3x3_reduce"
  type: RELU
}
layers {
  bottom: "inception_4c/3x3_reduce"
  top: "inception_4c/3x3"
  name: "inception_4c/3x3"
  type: CONVOLUTION
  blobs_lr: 1
  blobs_lr: 2
  weight_decay: 1
  weight_decay: 0
  convolution_param {
    num_output: 256
    pad: 1
    kernel_size: 3
    weight_filler {
      type: "xavier"
      std: 0.03
    }
    bias_filler {
      type: "constant"
      value: 0.2
    }
  }
}
layers {
  bottom: "inception_4c/3x3"
  top: "inception_4c/3x3"
  name: "inception_4c/relu_3x3"
  type: RELU
}
layers {
  bottom: "inception_4b/output"
  top: "inception_4c/5x5_reduce"
  name: "inception_4c/5x5_reduce"
  type: CONVOLUTION
  blobs_lr: 1
  blobs_lr: 2
  weight_decay: 1
  weight_decay: 0
  convolution_param {
    num_output: 24
    kernel_size: 1
    weight_filler {
      type: "xavier"
      std: 0.2
    }
    bias_filler {
      type: "constant"
      value: 0.2
    }
  }
}
layers {
  bottom: "inception_4c/5x5_reduce"
  top: "inception_4c/5x5_reduce"
  name: "inception_4c/relu_5x5_reduce"
  type: RELU
}
layers {
  bottom: "inception_4c/5x5_reduce"
  top: "inception_4c/5x5"
  name: "inception_4c/5x5"
  type: CONVOLUTION
  blobs_lr: 1
  blobs_lr: 2
  weight_decay: 1
  weight_decay: 0
  convolution_param {
    num_output: 64
    pad: 2
    kernel_size: 5
    weight_filler {
      type: "xavier"
      std: 0.03
    }
    bias_filler {
      type: "constant"
      value: 0.2
    }
  }
}
layers {
  bottom: "inception_4c/5x5"
  top: "inception_4c/5x5"
  name: "inception_4c/relu_5x5"
  type: RELU
}
layers {
  bottom: "inception_4b/output"
  top: "inception_4c/pool"
  name: "inception_4c/pool"
  type: POOLING
  pooling_param {
    pool: MAX
    kernel_size: 3
    stride: 1
    pad: 1
  }
}
layers {
  bottom: "inception_4c/pool"
  top: "inception_4c/pool_proj"
  name: "inception_4c/pool_proj"
  type: CONVOLUTION
  blobs_lr: 1
  blobs_lr: 2
  weight_decay: 1
  weight_decay: 0
  convolution_param {
    num_output: 64
    kernel_size: 1
    weight_filler {
      type: "xavier"
      std: 0.1
    }
    bias_filler {
      type: "constant"
      value: 0.2
    }
  }
}
layers {
  bottom: "inception_4c/pool_proj"
  top: "inception_4c/pool_proj"
  name: "inception_4c/relu_pool_proj"
  type: RELU
}
layers {
  bottom: "inception_4c/1x1"
  bottom: "inception_4c/3x3"
  bottom: "inception_4c/5x5"
  bottom: "inception_4c/pool_proj"
  top: "inception_4c/output"
  name: "inception_4c/output"
  type: CONCAT
}
layers {
  bottom: "inception_4c/output"
  top: "inception_4d/1x1"
  name: "inception_4d/1x1"
  type: CONVOLUTION
  blobs_lr: 1
  blobs_lr: 2
  weight_decay: 1
  weight_decay: 0
  convolution_param {
    num_output: 112
    kernel_size: 1
    weight_filler {
      type: "xavier"
      std: 0.03
    }
    bias_filler {
      type: "constant"
      value: 0.2
    }
  }
}
layers {
  bottom: "inception_4d/1x1"
  top: "inception_4d/1x1"
  name: "inception_4d/relu_1x1"
  type: RELU
}
layers {
  bottom: "inception_4c/output"
  top: "inception_4d/3x3_reduce"
  name: "inception_4d/3x3_reduce"
  type: CONVOLUTION
  blobs_lr: 1
  blobs_lr: 2
  weight_decay: 1
  weight_decay: 0
  convolution_param {
    num_output: 144
    kernel_size: 1
    weight_filler {
      type: "xavier"
      std: 0.09
    }
    bias_filler {
      type: "constant"
      value: 0.2
    }
  }
}
layers {
  bottom: "inception_4d/3x3_reduce"
  top: "inception_4d/3x3_reduce"
  name: "inception_4d/relu_3x3_reduce"
  type: RELU
}
layers {
  bottom: "inception_4d/3x3_reduce"
  top: "inception_4d/3x3"
  name: "inception_4d/3x3"
  type: CONVOLUTION
  blobs_lr: 1
  blobs_lr: 2
  weight_decay: 1
  weight_decay: 0
  convolution_param {
    num_output: 288
    pad: 1
    kernel_size: 3
    weight_filler {
      type: "xavier"
      std: 0.03
    }
    bias_filler {
      type: "constant"
      value: 0.2
    }
  }
}
layers {
  bottom: "inception_4d/3x3"
  top: "inception_4d/3x3"
  name: "inception_4d/relu_3x3"
  type: RELU
}
layers {
  bottom: "inception_4c/output"
  top: "inception_4d/5x5_reduce"
  name: "inception_4d/5x5_reduce"
  type: CONVOLUTION
  blobs_lr: 1
  blobs_lr: 2
  weight_decay: 1
  weight_decay: 0
  convolution_param {
    num_output: 32
    kernel_size: 1
    weight_filler {
      type: "xavier"
      std: 0.2
    }
    bias_filler {
      type: "constant"
      value: 0.2
    }
  }
}
layers {
  bottom: "inception_4d/5x5_reduce"
  top: "inception_4d/5x5_reduce"
  name: "inception_4d/relu_5x5_reduce"
  type: RELU
}
layers {
  bottom: "inception_4d/5x5_reduce"
  top: "inception_4d/5x5"
  name: "inception_4d/5x5"
  type: CONVOLUTION
  blobs_lr: 1
  blobs_lr: 2
  weight_decay: 1
  weight_decay: 0
  convolution_param {
    num_output: 64
    pad: 2
    kernel_size: 5
    weight_filler {
      type: "xavier"
      std: 0.03
    }
    bias_filler {
      type: "constant"
      value: 0.2
    }
  }
}
layers {
  bottom: "inception_4d/5x5"
  top: "inception_4d/5x5"
  name: "inception_4d/relu_5x5"
  type: RELU
}
layers {
  bottom: "inception_4c/output"
  top: "inception_4d/pool"
  name: "inception_4d/pool"
  type: POOLING
  pooling_param {
    pool: MAX
    kernel_size: 3
    stride: 1
    pad: 1
  }
}
layers {
  bottom: "inception_4d/pool"
  top: "inception_4d/pool_proj"
  name: "inception_4d/pool_proj"
  type: CONVOLUTION
  blobs_lr: 1
  blobs_lr: 2
  weight_decay: 1
  weight_decay: 0
  convolution_param {
    num_output: 64
    kernel_size: 1
    weight_filler {
      type: "xavier"
      std: 0.1
    }
    bias_filler {
      type: "constant"
      value: 0.2
    }
  }
}
layers {
  bottom: "inception_4d/pool_proj"
  top: "inception_4d/pool_proj"
  name: "inception_4d/relu_pool_proj"
  type: RELU
}
layers {
  bottom: "inception_4d/1x1"
  bottom: "inception_4d/3x3"
  bottom: "inception_4d/5x5"
  bottom: "inception_4d/pool_proj"
  top: "inception_4d/output"
  name: "inception_4d/output"
  type: CONCAT
}
layers {
  bottom: "inception_4d/output"
  top: "loss2/ave_pool"
  name: "loss2/ave_pool"
  type: POOLING
  pooling_param {
    pool: AVE
    kernel_size: 5
    stride: 3
  }
}
layers {
  bottom: "loss2/ave_pool"
  top: "loss2/conv"
  name: "loss2/conv"
  type: CONVOLUTION
  blobs_lr: 1
  blobs_lr: 2
  weight_decay: 1
  weight_decay: 0
  convolution_param {
    num_output: 128
    kernel_size: 1
    weight_filler {
      type: "xavier"
      std: 0.08
    }
    bias_filler {
      type: "constant"
      value: 0.2
    }
  }
}
layers {
  bottom: "loss2/conv"
  top: "loss2/conv"
  name: "loss2/relu_conv"
  type: RELU
}
layers {
  bottom: "loss2/conv"
  top: "loss2/fc"
  name: "loss2/fc"
  type: INNER_PRODUCT
  blobs_lr: 1
  blobs_lr: 2
  weight_decay: 1
  weight_decay: 0
  inner_product_param {
    num_output: 1024
    weight_filler {
      type: "xavier"
      std: 0.02
    }
    bias_filler {
      type: "constant"
      value: 0.2
    }
  }
}
layers {
  bottom: "loss2/fc"
  top: "loss2/fc"
  name: "loss2/relu_fc"
  type: RELU
}
layers {
  bottom: "loss2/fc"
…
I0311 16:53:01.055313 19766 layer_factory.hpp:78] Creating layer inception_4c/3x3_reduce
I0311 16:53:01.055341 19766 net.cpp:68] Creating Layer inception_4c/3x3_reduce
I0311 16:53:01.055356 19766 net.cpp:395] inception_4c/3x3_reduce <- inception_4b/output_inception_4b/output_0_split_1
I0311 16:53:01.055389 19766 net.cpp:357] inception_4c/3x3_reduce -> inception_4c/3x3_reduce
I0311 16:53:01.055408 19766 net.cpp:97] Setting up inception_4c/3x3_reduce
I0311 16:53:01.056193 19766 net.cpp:104] Top shape: 128 128 5 5 (409600)
I0311 16:53:01.056227 19766 layer_factory.hpp:78] Creating layer inception_4c/relu_3x3_reduce
I0311 16:53:01.056242 19766 net.cpp:68] Creating Layer inception_4c/relu_3x3_reduce
I0311 16:53:01.056255 19766 net.cpp:395] inception_4c/relu_3x3_reduce <- inception_4c/3x3_reduce
I0311 16:53:01.056272 19766 net.cpp:346] inception_4c/relu_3x3_reduce -> inception_4c/3x3_reduce (in-place)
I0311 16:53:01.056288 19766 net.cpp:97] Setting up inception_4c/relu_3x3_reduce
I0311 16:53:01.056303 19766 net.cpp:104] Top shape: 128 128 5 5 (409600)
I0311 16:53:01.056316 19766 layer_factory.hpp:78] Creating layer inception_4c/3x3
I0311 16:53:01.056330 19766 net.cpp:68] Creating Layer inception_4c/3x3
I0311 16:53:01.056342 19766 net.cpp:395] inception_4c/3x3 <- inception_4c/3x3_reduce
I0311 16:53:01.056362 19766 net.cpp:357] inception_4c/3x3 -> inception_4c/3x3
I0311 16:53:01.056378 19766 net.cpp:97] Setting up inception_4c/3x3
I0311 16:53:01.059509 19766 net.cpp:104] Top shape: 128 256 5 5 (819200)
I0311 16:53:01.059550 19766 layer_factory.hpp:78] Creating layer inception_4c/relu_3x3
I0311 16:53:01.059581 19766 net.cpp:68] Creating Layer inception_4c/relu_3x3
I0311 16:53:01.059594 19766 net.cpp:395] inception_4c/relu_3x3 <- inception_4c/3x3
I0311 16:53:01.059628 19766 net.cpp:346] inception_4c/relu_3x3 -> inception_4c/3x3 (in-place)
I0311 16:53:01.059648 19766 net.cpp:97] Setting up inception_4c/relu_3x3
I0311 16:53:01.059664 19766 net.cpp:104] Top shape: 128 256 5 5 (819200)
I0311 16:53:01.059689 19766 layer_factory.hpp:78] Creating layer inception_4c/5x5_reduce
I0311 16:53:01.059728 19766 net.cpp:68] Creating Layer inception_4c/5x5_reduce
I0311 16:53:01.059743 19766 net.cpp:395] inception_4c/5x5_reduce <- inception_4b/output_inception_4b/output_0_split_2
I0311 16:53:01.059759 19766 net.cpp:357] inception_4c/5x5_reduce -> inception_4c/5x5_reduce
I0311 16:53:01.059782 19766 net.cpp:97] Setting up inception_4c/5x5_reduce
I0311 16:53:01.060111 19766 net.cpp:104] Top shape: 128 24 5 5 (76800)
I0311 16:53:01.060137 19766 layer_factory.hpp:78] Creating layer inception_4c/relu_5x5_reduce
I0311 16:53:01.060154 19766 net.cpp:68] Creating Layer inception_4c/relu_5x5_reduce
I0311 16:53:01.060168 19766 net.cpp:395] inception_4c/relu_5x5_reduce <- inception_4c/5x5_reduce
I0311 16:53:01.060181 19766 net.cpp:346] inception_4c/relu_5x5_reduce -> inception_4c/5x5_reduce (in-place)
I0311 16:53:01.060196 19766 net.cpp:97] Setting up inception_4c/relu_5x5_reduce
I0311 16:53:01.060212 19766 net.cpp:104] Top shape: 128 24 5 5 (76800)
I0311 16:53:01.060225 19766 layer_factory.hpp:78] Creating layer inception_4c/5x5
I0311 16:53:01.060240 19766 net.cpp:68] Creating Layer inception_4c/5x5
I0311 16:53:01.060252 19766 net.cpp:395] inception_4c/5x5 <- inception_4c/5x5_reduce
I0311 16:53:01.060269 19766 net.cpp:357] inception_4c/5x5 -> inception_4c/5x5
I0311 16:53:01.060286 19766 net.cpp:97] Setting up inception_4c/5x5
I0311 16:53:01.060757 19766 net.cpp:104] Top shape: 128 64 5 5 (204800)
I0311 16:53:01.060782 19766 layer_factory.hpp:78] Creating layer inception_4c/relu_5x5
I0311 16:53:01.060798 19766 net.cpp:68] Creating Layer inception_4c/relu_5x5
I0311 16:53:01.060811 19766 net.cpp:395] inception_4c/relu_5x5 <- inception_4c/5x5
I0311 16:53:01.060825 19766 net.cpp:346] inception_4c/relu_5x5 -> inception_4c/5x5 (in-place)
I0311 16:53:01.060839 19766 net.cpp:97] Setting up inception_4c/relu_5x5
I0311 16:53:01.060854 19766 net.cpp:104] Top shape: 128 64 5 5 (204800)
I0311 16:53:01.060874 19766 layer_factory.hpp:78] Creating layer inception_4c/pool
I0311 16:53:01.060886 19766 layer_factory.cpp:51] CUDNN does not support padding or multiple tops. Using Caffe's own pooling layer.
I0311 16:53:01.060902 19766 net.cpp:68] Creating Layer inception_4c/pool
I0311 16:53:01.060915 19766 net.cpp:395] inception_4c/pool <- inception_4b/output_inception_4b/output_0_split_3
I0311 16:53:01.060930 19766 net.cpp:357] inception_4c/pool -> inception_4c/pool
I0311 16:53:01.060945 19766 net.cpp:97] Setting up inception_4c/pool
I0311 16:53:01.060958 19766 net.cpp:104] Top shape: 128 512 5 5 (1638400)
I0311 16:53:01.060971 19766 layer_factory.hpp:78] Creating layer inception_4c/pool_proj
I0311 16:53:01.060987 19766 net.cpp:68] Creating Layer inception_4c/pool_proj
I0311 16:53:01.061000 19766 net.cpp:395] inception_4c/pool_proj <- inception_4c/pool
I0311 16:53:01.061014 19766 net.cpp:357] inception_4c/pool_proj -> inception_4c/pool_proj
I0311 16:53:01.061029 19766 net.cpp:97] Setting up inception_4c/pool_proj
I0311 16:53:01.061439 19766 net.cpp:104] Top shape: 128 64 5 5 (204800)
I0311 16:53:01.061462 19766 layer_factory.hpp:78] Creating layer inception_4c/relu_pool_proj
I0311 16:53:01.061476 19766 net.cpp:68] Creating Layer inception_4c/relu_pool_proj
I0311 16:53:01.061489 19766 net.cpp:395] inception_4c/relu_pool_proj <- inception_4c/pool_proj
I0311 16:53:01.061506 19766 net.cpp:346] inception_4c/relu_pool_proj -> inception_4c/pool_proj (in-place)
I0311 16:53:01.061521 19766 net.cpp:97] Setting up inception_4c/relu_pool_proj
I0311 16:53:01.061535 19766 net.cpp:104] Top shape: 128 64 5 5 (204800)
I0311 16:53:01.061547 19766 layer_factory.hpp:78] Creating layer inception_4c/output
I0311 16:53:01.061561 19766 net.cpp:68] Creating Layer inception_4c/output
I0311 16:53:01.061573 19766 net.cpp:395] inception_4c/output <- inception_4c/1x1
I0311 16:53:01.061606 19766 net.cpp:395] inception_4c/output <- inception_4c/3x3
I0311 16:53:01.061622 19766 net.cpp:395] inception_4c/output <- inception_4c/5x5
I0311 16:53:01.061635 19766 net.cpp:395] inception_4c/output <- inception_4c/pool_proj
I0311 16:53:01.061650 19766 net.cpp:357] inception_4c/output -> inception_4c/output
I0311 16:53:01.061664 19766 net.cpp:97] Setting up inception_4c/output
I0311 16:53:01.061676 19766 net.cpp:104] Top shape: 128 512 5 5 (1638400)
I0311 16:53:01.061688 19766 layer_factory.hpp:78] Creating layer inception_4c/output_inception_4c/output_0_split
I0311 16:53:01.061702 19766 net.cpp:68] Creating Layer inception_4c/output_inception_4c/output_0_split
I0311 16:53:01.061713 19766 net.cpp:395] inception_4c/output_inception_4c/output_0_split <- inception_4c/output
I0311 16:53:01.061730 19766 net.cpp:357] inception_4c/output_inception_4c/output_0_split -> inception_4c/output_inception_4c/output_0_split_0
I0311 16:53:01.061748 19766 net.cpp:357] inception_4c/output_inception_4c/output_0_split -> inception_4c/output_inception_4c/output_0_split_1
I0311 16:53:01.061764 19766 net.cpp:357] inception_4c/output_inception_4c/output_0_split -> inception_4c/output_inception_4c/output_0_split_2
I0311 16:53:01.061780 19766 net.cpp:357] inception_4c/output_inception_4c/output_0_split -> inception_4c/output_inception_4c/output_0_split_3
I0311 16:53:01.061794 19766 net.cpp:97] Setting up inception_4c/output_inception_4c/output_0_split
I0311 16:53:01.061807 19766 net.cpp:104] Top shape: 128 512 5 5 (1638400)
I0311 16:53:01.061818 19766 net.cpp:104] Top shape: 128 512 5 5 (1638400)
I0311 16:53:01.061830 19766 net.cpp:104] Top shape: 128 512 5 5 (1638400)
I0311 16:53:01.061839 19766 net.cpp:104] Top shape: 128 512 5 5 (1638400)
I0311 16:53:01.061851 19766 layer_factory.hpp:78] Creating layer inception_4d/1x1
I0311 16:53:01.061867 19766 net.cpp:68] Creating Layer inception_4d/1x1
I0311 16:53:01.061879 19766 net.cpp:395] inception_4d/1x1 <- inception_4c/output_inception_4c/output_0_split_0
I0311 16:53:01.061893 19766 net.cpp:357] inception_4d/1x1 -> inception_4d/1x1
I0311 16:53:01.061924 19766 net.cpp:97] Setting up inception_4d/1x1
I0311 16:53:01.062625 19766 net.cpp:104] Top shape: 128 112 5 5 (358400)
I0311 16:53:01.062665 19766 layer_factory.hpp:78] Creating layer inception_4d/relu_1x1
I0311 16:53:01.062682 19766 net.cpp:68] Creating Layer inception_4d/relu_1x1
I0311 16:53:01.062695 19766 net.cpp:395] inception_4d/relu_1x1 <- inception_4d/1x1
I0311 16:53:01.062712 19766 net.cpp:346] inception_4d/relu_1x1 -> inception_4d/1x1 (in-place)
I0311 16:53:01.062727 19766 net.cpp:97] Setting up inception_4d/relu_1x1
I0311 16:53:01.062742 19766 net.cpp:104] Top shape: 128 112 5 5 (358400)
I0311 16:53:01.062754 19766 layer_factory.hpp:78] Creating layer inception_4d/3x3_reduce
I0311 16:53:01.062783 19766 net.cpp:68] Creating Layer inception_4d/3x3_reduce
I0311 16:53:01.062806 19766 net.cpp:395] inception_4d/3x3_reduce <- inception_4c/output_inception_4c/output_0_split_1
I0311 16:53:01.062826 19766 net.cpp:357] inception_4d/3x3_reduce -> inception_4d/3x3_reduce
I0311 16:53:01.062844 19766 net.cpp:97] Setting up inception_4d/3x3_reduce
I0311 16:53:01.063719 19766 net.cpp:104] Top shape: 128 144 5 5 (460800)
I0311 16:53:01.063742 19766 layer_factory.hpp:78] Creating layer inception_4d/relu_3x3_reduce
I0311 16:53:01.063761 19766 net.cpp:68] Creating Layer inception_4d/relu_3x3_reduce
I0311 16:53:01.063774 19766 net.cpp:395] inception_4d/relu_3x3_reduce <- inception_4d/3x3_reduce
I0311 16:53:01.063788 19766 net.cpp:346] inception_4d/relu_3x3_reduce -> inception_4d/3x3_reduce (in-place)
I0311 16:53:01.063807 19766 net.cpp:97] Setting up inception_4d/relu_3x3_reduce
I0311 16:53:01.063822 19766 net.cpp:104] Top shape: 128 144 5 5 (460800)
I0311 16:53:01.063833 19766 layer_factory.hpp:78] Creating layer inception_4d/3x3
I0311 16:53:01.063848 19766 net.cpp:68] Creating Layer inception_4d/3x3
I0311 16:53:01.063858 19766 net.cpp:395] inception_4d/3x3 <- inception_4d/3x3_reduce
I0311 16:53:01.063874 19766 net.cpp:357] inception_4d/3x3 -> inception_4d/3x3
I0311 16:53:01.063906 19766 net.cpp:97] Setting up inception_4d/3x3
I0311 16:53:01.068032 19766 net.cpp:104] Top shape: 128 288 5 5 (921600)
I0311 16:53:01.068061 19766 layer_factory.hpp:78] Creating layer inception_4d/relu_3x3
I0311 16:53:01.068078 19766 net.cpp:68] Creating Layer inception_4d/relu_3x3
I0311 16:53:01.068094 19766 net.cpp:395] inception_4d/relu_3x3 <- inception_4d/3x3
I0311 16:53:01.068111 19766 net.cpp:346] inception_4d/relu_3x3 -> inception_4d/3x3 (in-place)
I0311 16:53:01.068127 19766 net.cpp:97] Setting up inception_4d/relu_3x3
I0311 16:53:01.068142 19766 net.cpp:104] Top shape: 128 288 5 5 (921600)
I0311 16:53:01.068155 19766 layer_factory.hpp:78] Creating layer inception_4d/5x5_reduce
I0311 16:53:01.068169 19766 net.cpp:68] Creating Layer inception_4d/5x5_reduce
I0311 16:53:01.068181 19766 net.cpp:395] inception_4d/5x5_reduce <- inception_4c/output_inception_4c/output_0_split_2
I0311 16:53:01.068198 19766 net.cpp:357] inception_4d/5x5_reduce -> inception_4d/5x5_reduce
I0311 16:53:01.068214 19766 net.cpp:97] Setting up inception_4d/5x5_reduce
I0311 16:53:01.068462 19766 net.cpp:104] Top shape: 128 32 5 5 (102400)
I0311 16:53:01.068487 19766 layer_factory.hpp:78] Creating layer inception_4d/relu_5x5_reduce
I0311 16:53:01.068502 19766 net.cpp:68] Creating Layer inception_4d/relu_5x5_reduce
I0311 16:53:01.068516 19766 net.cpp:395] inception_4d/relu_5x5_reduce <- inception_4d/5x5_reduce
I0311 16:53:01.068528 19766 net.cpp:346] inception_4d/relu_5x5_reduce -> inception_4d/5x5_reduce (in-place)
I0311 16:53:01.068543 19766 net.cpp:97] Setting up inception_4d/relu_5x5_reduce
I0311 16:53:01.068558 19766 net.cpp:104] Top shape: 128 32 5 5 (102400)
I0311 16:53:01.068569 19766 layer_factory.hpp:78] Creating layer inception_4d/5x5
I0311 16:53:01.068586 19766 net.cpp:68] Creating Layer inception_4d/5x5
I0311 16:53:01.068598 19766 net.cpp:395] inception_4d/5x5 <- inception_4d/5x5_reduce
I0311 16:53:01.068614 19766 net.cpp:357] inception_4d/5x5 -> inception_4d/5x5
I0311 16:53:01.068629 19766 net.cpp:97] Setting up inception_4d/5x5
I0311 16:53:01.069314 19766 net.cpp:104] Top shape: 128 64 5 5 (204800)
I0311 16:53:01.069342 19766 layer_factory.hpp:78] Creating layer inception_4d/relu_5x5
I0311 16:53:01.069358 19766 net.cpp:68] Creating Layer inception_4d/relu_5x5
I0311 16:53:01.069372 19766 net.cpp:395] inception_4d/relu_5x5 <- inception_4d/5x5
I0311 16:53:01.069386 19766 net.cpp:346] inception_4d/relu_5x5 -> inception_4d/5x5 (in-place)
I0311 16:53:01.069401 19766 net.cpp:97] Setting up inception_4d/relu_5x5
I0311 16:53:01.069416 19766 net.cpp:104] Top shape: 128 64 5 5 (204800)
I0311 16:53:01.069427 19766 layer_factory.hpp:78] Creating layer inception_4d/pool
I0311 16:53:01.069438 19766 layer_factory.cpp:51] CUDNN does not support padding or multiple tops. Using Caffe's own pooling layer.
I0311 16:53:01.069453 19766 net.cpp:68] Creating Layer inception_4d/pool
I0311 16:53:01.069463 19766 net.cpp:395] inception_4d/pool <- inception_4c/output_inception_4c/output_0_split_3
I0311 16:53:01.069480 19766 net.cpp:357] inception_4d/pool -> inception_4d/pool
I0311 16:53:01.069496 19766 net.cpp:97] Setting up inception_4d/pool
I0311 16:53:01.069510 19766 net.cpp:104] Top shape: 128 512 5 5 (1638400)
I0311 16:53:01.069522 19766 layer_factory.hpp:78] Creating layer inception_4d/pool_proj
I0311 16:53:01.069540 19766 net.cpp:68] Creating Layer inception_4d/pool_proj
I0311 16:53:01.069552 19766 net.cpp:395] inception_4d/pool_proj <- inception_4d/pool
I0311 16:53:01.069566 19766 net.cpp:357] inception_4d/pool_proj -> inception_4d/pool_proj
I0311 16:53:01.069581 19766 net.cpp:97] Setting up inception_4d/pool_proj
I0311 16:53:01.070024 19766 net.cpp:104] Top shape: 128 64 5 5 (204800)
I0311 16:53:01.070047 19766 layer_factory.hpp:78] Creating layer inception_4d/relu_pool_proj
I0311 16:53:01.070065 19766 net.cpp:68] Creating Layer inception_4d/relu_pool_proj
I0311 16:53:01.070077 19766 net.cpp:395] inception_4d/relu_pool_proj <- inception_4d/pool_proj
I0311 16:53:01.070091 19766 net.cpp:346] inception_4d/relu_pool_proj -> inception_4d/pool_proj (in-place)
I0311 16:53:01.070124 19766 net.cpp:97] Setting up inception_4d/relu_pool_proj
I0311 16:53:01.070142 19766 net.cpp:104] Top shape: 128 64 5 5 (204800)
I0311 16:53:01.070154 19766 layer_factory.hpp:78] Creating layer inception_4d/output
I0311 16:53:01.070170 19766 net.cpp:68] Creating Layer inception_4d/output
I0311 16:53:01.070183 19766 net.cpp:395] inception_4d/output <- inception_4d/1x1
I0311 16:53:01.070195 19766 net.cpp:395] inception_4d/output <- inception_4d/3x3
I0311 16:53:01.070209 19766 net.cpp:395] inception_4d/output <- inception_4d/5x5
I0311 16:53:01.070220 19766 net.cpp:395] inception_4d/output <- inception_4d/pool_proj
I0311 16:53:01.070235 19766 net.cpp:357] inception_4d/output -> inception_4d/output
I0311 16:53:01.070248 19766 net.cpp:97] Setting up inception_4d/output
I0311 16:53:01.070261 19766 net.cpp:104] Top shape: 128 528 5 5 (1689600)
I0311 16:53:01.070276 19766 layer_factory.hpp:78] Creating layer inception_4d/output_inception_4d/output_0_split
I0311 16:53:01.070291 19766 net.cpp:68] Creating Layer inception_4d/output_inception_4d/output_0_split
I0311 16:53:01.070304 19766 net.cpp:395] inception_4d/output_inception_4d/output_0_split <- inception_4d/output
I0311 16:53:01.070318 19766 net.cpp:357] inception_4d/output_inception_4d/output_0_split -> inception_4d/output_inception_4d/output_0_split_0
I0311 16:53:01.070338 19766 net.cpp:357] inception_4d/output_inception_4d/output_0_split -> inception_4d/output_inception_4d/output_0_split_1
I0311 16:53:01.070354 19766 net.cpp:357] inception_4d/output_inception_4d/output_0_split -> inception_4d/output_inception_4d/output_0_split_2
I0311 16:53:01.070371 19766 net.cpp:357] inception_4d/output_inception_4d/output_0_split -> inception_4d/output_inception_4d/output_0_split_3
I0311 16:53:01.070387 19766 net.cpp:357] inception_4d/output_inception_4d/output_0_split -> inception_4d/output_inception_4d/output_0_split_4
I0311 16:53:01.070401 19766 net.cpp:97] Setting up inception_4d/output_inception_4d/output_0_split
I0311 16:53:01.070415 19766 net.cpp:104] Top shape: 128 528 5 5 (1689600)
I0311 16:53:01.070426 19766 net.cpp:104] Top shape: 128 528 5 5 (1689600)
I0311 16:53:01.070436 19766 net.cpp:104] Top shape: 128 528 5 5 (1689600)
I0311 16:53:01.070447 19766 net.cpp:104] Top shape: 128 528 5 5 (1689600)
I0311 16:53:01.070458 19766 net.cpp:104] Top shape: 128 528 5 5 (1689600)
I0311 16:53:01.070468 19766 layer_factory.hpp:78] Creating layer loss2/ave_pool
I0311 16:53:01.070485 19766 net.cpp:68] Creating Layer loss2/ave_pool
I0311 16:53:01.070497 19766 net.cpp:395] loss2/ave_pool <- inception_4d/output_inception_4d/output_0_split_0
I0311 16:53:01.070513 19766 net.cpp:357] loss2/ave_pool -> loss2/ave_pool
I0311 16:53:01.070528 19766 net.cpp:97] Setting up loss2/ave_pool
I0311 16:53:01.070544 19766 net.cpp:104] Top shape: 128 528 1 1 (67584)
I0311 16:53:01.070556 19766 layer_factory.hpp:78] Creating layer loss2/conv
I0311 16:53:01.070574 19766 net.cpp:68] Creating Layer loss2/conv
I0311 16:53:01.070593 19766 net.cpp:395] loss2/conv <- loss2/ave_pool
I0311 16:53:01.070612 19766 net.cpp:357] loss2/conv -> loss2/conv
I0311 16:53:01.070628 19766 net.cpp:97] Setting up loss2/conv
I0311 16:53:01.071432 19766 net.cpp:104] Top shape: 128 128 1 1 (16384)
I0311 16:53:01.071467 19766 layer_factory.hpp:78] Creating layer loss2/relu_conv
I0311 16:53:01.071497 19766 net.cpp:68] Creating Layer loss2/relu_conv
I0311 16:53:01.071513 19766 net.cpp:395] loss2/relu_conv <- loss2/conv
I0311 16:53:01.071543 19766 net.cpp:346] loss2/relu_conv -> loss2/conv (in-place)
I0311 16:53:01.071560 19766 net.cpp:97] Setting up loss2/relu_conv
I0311 16:53:01.071576 19766 net.cpp:104] Top shape: 128 128 1 1 (16384)
I0311 16:53:01.071588 19766 layer_factory.hpp:78] Creating layer loss2/fc
I0311 16:53:01.071614 19766 net.cpp:68] Creating Layer loss2/fc
I0311 16:53:01.071629 19766 net.cpp:395] loss2/fc <- loss2/conv
I0311 16:53:01.071645 19766 net.cpp:357] loss2/fc -> loss2/fc
I0311 16:53:01.071662 19766 net.cpp:97] Setting up loss2/fc
I0311 16:53:01.073091 19766 net.cpp:104] Top shape: 128 1024 1 1 (131072)
I0311 16:53:01.073117 19766 layer_factory.hpp:78] Creating layer loss2/relu_fc
I0311 16:53:01.073133 19766 net.cpp:68] Creating Layer loss2/relu_fc
I0311 16:53:01.073148 19766 net.cpp:395] loss2/relu_fc <- loss2/fc
I0311 16:53:01.073161 19766 net.cpp:346] loss2/relu_fc -> loss2/fc (in-place)
I0311 16:53:01.073175 19766 net.cpp:97] Setting up loss2/relu_fc
I0311 16:53:01.073190 19766 net.cpp:104] Top shape: 128 1024 1 1 (131072)
I0311 16:53:01.073202 19766 layer_factory.hpp:78] Creating layer loss2/drop_fc
I0311 16:53:01.073216 19766 net.cpp:68] Creating Layer loss2/drop_fc
I0311 16:53:01.073228 19766 net.cpp:395] loss2/drop_fc <- loss2/fc
I0311 16:53:01.073241 19766 net.cpp:346] loss2/drop_fc -> loss2/fc (in-place)
I0311 16:53:01.073256 19766 net.cpp:97] Setting up loss2/drop_fc
I0311 16:53:01.073268 19766 net.cpp:104] Top shape: 128 1024 1 1 (131072)
I0311 16:53:01.073279 19766 layer_factory.hpp:78] Creating layer loss2/classifier
I0311 16:53:01.073297 19766 net.cpp:68] Creating Layer loss2/classifier
I0311 16:53:01.073308 19766 net.cpp:395] loss2/classifier <- loss2/fc
I0311 16:53:01.073325 19766 net.cpp:357] loss2/classifier -> loss2/classifier
I0311 16:53:01.073341 19766 net.cpp:97] Setting up loss2/classifier
I0311 16:53:01.074623 19766 net.cpp:104] Top shape: 128 121 1 1 (15488)
I0311 16:53:01.074646 19766 layer_factory.hpp:78] Creating layer loss2/classifier_loss2/classifier_0_split
I0311 16:53:01.074661 19766 net.cpp:68] Creating Layer loss2/classifier_loss2/classifier_0_split
I0311 16:53:01.074673 19766 net.cpp:395] loss2/classifier_loss2/classifier_0_split <- loss2/classifier
I0311 16:53:01.074690 19766 net.cpp:357] loss2/classifier_loss2/classifier_0_split -> loss2/classifier_loss2/classifier_0_split_0
I0311 16:53:01.074707 19766 net.cpp:357] loss2/classifier_loss2/classifier_0_split -> loss2/classifier_loss2/classifier_0_split_1
I0311 16:53:01.074723 19766 net.cpp:97] Setting up loss2/classifier_loss2/classifier_0_split
I0311 16:53:01.074736 19766 net.cpp:104] Top shape: 128 121 1 1 (15488)
I0311 16:53:01.074748 19766 net.cpp:104] Top shape: 128 121 1 1 (15488)
I0311 16:53:01.074759 19766 layer_factory.hpp:78] Creating layer loss2/loss
I0311 16:53:01.074772 19766 net.cpp:68] Creating Layer loss2/loss
I0311 16:53:01.074787 19766 net.cpp:395] loss2/loss <- loss2/classifier_loss2/classifier_0_split_0
I0311 16:53:01.074800 19766 net.cpp:395] loss2/loss <- label_data_1_split_2
I0311 16:53:01.074815 19766 net.cpp:357] loss2/loss -> loss2/loss1
I0311 16:53:01.074829 19766 net.cpp:97] Setting up loss2/loss
I0311 16:53:01.074843 19766 layer_factory.hpp:78] Creating layer loss2/loss
I0311 16:53:01.074900 19766 net.cpp:104] Top shape: 1 1 1 1 (1)
I0311 16:53:01.074916 19766 net.cpp:110]     with loss weight 0.3
I0311 16:53:01.074939 19766 layer_factory.hpp:78] Creating layer loss2/top-1
I0311 16:53:01.074956 19766 net.cpp:68] Creating Layer loss2/top-1
I0311 16:53:01.074970 19766 net.cpp:395] loss2/top-1 <- loss2/classifier_loss2/classifier_0_split_1
I0311 16:53:01.074983 19766 net.cpp:395] loss2/top-1 <- label_data_1_split_3
I0311 16:53:01.074997 19766 net.cpp:357] loss2/top-1 -> loss2/top-1
I0311 16:53:01.075012 19766 net.cpp:97] Setting up loss2/top-1
I0311 16:53:01.075026 19766 net.cpp:104] Top shape: 1 1 1 1 (1)
I0311 16:53:01.075037 19766 layer_factory.hpp:78] Creating layer inception_4e/1x1
I0311 16:53:01.075052 19766 net.cpp:68] Creating Layer inception_4e/1x1
I0311 16:53:01.075063 19766 net.cpp:395] inception_4e/1x1 <- inception_4d/output_inception_4d/output_0_split_1
I0311 16:53:01.075081 19766 net.cpp:357] inception_4e/1x1 -> inception_4e/1x1
I0311 16:53:01.075098 19766 net.cpp:97] Setting up inception_4e/1x1
I0311 16:53:01.076730 19766 net.cpp:104] Top shape: 128 256 5 5 (819200)
I0311 16:53:01.076757 19766 layer_factory.hpp:78] Creating layer inception_4e/relu_1x1
I0311 16:53:01.076776 19766 net.cpp:68] Creating Layer inception_4e/relu_1x1
I0311 16:53:01.076791 19766 net.cpp:395] inception_4e/relu_1x1 <- inception_4e/1x1
I0311 16:53:01.076824 19766 net.cpp:346] inception_4e/relu_1x1 -> inception_4e/1x1 (in-place)
I0311 16:53:01.076841 19766 net.cpp:97] Setting up inception_4e/relu_1x1
I0311 16:53:01.076858 19766 net.cpp:104] Top shape: 128 256 5 5 (819200)
I0311 16:53:01.076880 19766 layer_factory.hpp:78] Creating layer inception_4e/3x3_reduce
I0311 16:53:01.076899 19766 net.cpp:68] Creating Layer inception_4e/3x3_reduce
I0311 16:53:01.076911 19766 net.cpp:395] inception_4e/3x3_reduce <- inception_4d/output_inception_4d/output_0_split_2
I0311 16:53:01.076927 19766 net.cpp:357] inception_4e/3x3_reduce -> inception_4e/3x3_reduce
I0311 16:53:01.076942 19766 net.cpp:97] Setting up inception_4e/3x3_reduce
I0311 16:53:01.077941 19766 net.cpp:104] Top shape: 128 160 5 5 (512000)
I0311 16:53:01.077965 19766 layer_factory.hpp:78] Creating layer inception_4e/relu_3x3_reduce
I0311 16:53:01.077980 19766 net.cpp:68] Creating Layer inception_4e/relu_3x3_reduce
I0311 16:53:01.077991 19766 net.cpp:395] inception_4e/relu_3x3_reduce <- inception_4e/3x3_reduce
I0311 16:53:01.078006 19766 net.cpp:346] inception_4e/relu_3x3_reduce -> inception_4e/3x3_reduce (in-place)
I0311 16:53:01.078021 19766 net.cpp:97] Setting up inception_4e/relu_3x3_reduce
I0311 16:53:01.078035 19766 net.cpp:104] Top shape: 128 160 5 5 (512000)
I0311 16:53:01.078047 19766 layer_factory.hpp:78] Creating layer inception_4e/3x3
I0311 16:53:01.078084 19766 net.cpp:68] Creating Layer inception_4e/3x3
I0311 16:53:01.078099 19766 net.cpp:395] inception_4e/3x3 <- inception_4e/3x3_reduce
I0311 16:53:01.078114 19766 net.cpp:357] inception_4e/3x3 -> inception_4e/3x3
I0311 16:53:01.078129 19766 net.cpp:97] Setting up inception_4e/3x3
I0311 16:53:01.082906 19766 net.cpp:104] Top shape: 128 320 5 5 (1024000)
I0311 16:53:01.082933 19766 layer_factory.hpp:78] Creating layer inception_4e/relu_3x3
I0311 16:53:01.082952 19766 net.cpp:68] Creating Layer inception_4e/relu_3x3
I0311 16:53:01.082965 19766 net.cpp:395] inception_4e/relu_3x3 <- inception_4e/3x3
I0311 16:53:01.082979 19766 net.cpp:346] inception_4e/relu_3x3 -> inception_4e/3x3 (in-place)
I0311 16:53:01.082994 19766 net.cpp:97] Setting up inception_4e/relu_3x3
I0311 16:53:01.083009 19766 net.cpp:104] Top shape: 128 320 5 5 (1024000)
I0311 16:53:01.083021 19766 layer_factory.hpp:78] Creating layer inception_4e/5x5_reduce
I0311 16:53:01.083035 19766 net.cpp:68] Creating Layer inception_4e/5x5_reduce
I0311 16:53:01.083047 19766 net.cpp:395] inception_4e/5x5_reduce <- inception_4d/output_inception_4d/output_0_split_3
I0311 16:53:01.083065 19766 net.cpp:357] inception_4e/5x5_reduce -> inception_4e/5x5_reduce
I0311 16:53:01.083081 19766 net.cpp:97] Setting up inception_4e/5x5_reduce
I0311 16:53:01.083328 19766 net.cpp:104] Top shape: 128 32 5 5 (102400)
I0311 16:53:01.083350 19766 layer_factory.hpp:78] Creating layer inception_4e/relu_5x5_reduce
I0311 16:53:01.083367 19766 net.cpp:68] Creating Layer inception_4e/relu_5x5_reduce
I0311 16:53:01.083380 19766 net.cpp:395] inception_4e/relu_5x5_reduce <- inception_4e/5x5_reduce
I0311 16:53:01.083395 19766 net.cpp:346] inception_4e/relu_5x5_reduce -> inception_4e/5x5_reduce (in-place)
I0311 16:53:01.083408 19766 net.cpp:97] Setting up inception_4e/relu_5x5_reduce
I0311 16:53:01.083423 19766 net.cpp:104] Top shape: 128 32 5 5 (102400)
I0311 16:53:01.083436 19766 layer_factory.hpp:78] Creating layer inception_4e/5x5
I0311 16:53:01.083452 19766 net.cpp:68] Creating Layer inception_4e/5x5
I0311 16:53:01.083464 19766 net.cpp:395] inception_4e/5x5 <- inception_4e/5x5_reduce
I0311 16:53:01.083479 19766 net.cpp:357] inception_4e/5x5 -> inception_4e/5x5
I0311 16:53:01.083494 19766 net.cpp:97] Setting up inception_4e/5x5
I0311 16:53:01.084612 19766 net.cpp:104] Top shape: 128 128 5 5 (409600)
I0311 16:53:01.084637 19766 layer_factory.hpp:78] Creating layer inception_4e/relu_5x5
I0311 16:53:01.084651 19766 net.cpp:68] Creating Layer inception_4e/relu_5x5
I0311 16:53:01.084664 19766 net.cpp:395] inception_4e/relu_5x5 <- inception_4e/5x5
I0311 16:53:01.084681 19766 net.cpp:346] inception_4e/relu_5x5 -> inception_4e/5x5 (in-place)
I0311 16:53:01.084713 19766 net.cpp:97] Setting up inception_4e/relu_5x5
I0311 16:53:01.084730 19766 net.cpp:104] Top shape: 128 128 5 5 (409600)
I0311 16:53:01.084743 19766 layer_factory.hpp:78] Creating layer inception_4e/pool
I0311 16:53:01.084755 19766 layer_factory.cpp:51] CUDNN does not support padding or multiple tops. Using Caffe's own pooling layer.
I0311 16:53:01.084769 19766 net.cpp:68] Creating Layer inception_4e/pool
I0311 16:53:01.084780 19766 net.cpp:395] inception_4e/pool <- inception_4d/output_inception_4d/output_0_split_4
I0311 16:53:01.084799 19766 net.cpp:357] inception_4e/pool -> inception_4e/pool
I0311 16:53:01.084815 19766 net.cpp:97] Setting up inception_4e/pool
I0311 16:53:01.084830 19766 net.cpp:104] Top shape: 128 528 5 5 (1689600)
I0311 16:53:01.084841 19766 layer_factory.hpp:78] Creating layer inception_4e/pool_proj
I0311 16:53:01.084856 19766 net.cpp:68] Creating Layer inception_4e/pool_proj
I0311 16:53:01.084872 19766 net.cpp:395] inception_4e/pool_proj <- inception_4e/pool
I0311 16:53:01.084890 19766 net.cpp:357] inception_4e/pool_proj -> inception_4e/pool_proj
I0311 16:53:01.084906 19766 net.cpp:97] Setting up inception_4e/pool_proj
I0311 16:53:01.085800 19766 net.cpp:104] Top shape: 128 128 5 5 (409600)
I0311 16:53:01.085825 19766 layer_factory.hpp:78] Creating layer inception_4e/relu_pool_proj
I0311 16:53:01.085840 19766 net.cpp:68] Creating Layer inception_4e/relu_pool_proj
I0311 16:53:01.085852 19766 net.cpp:395] inception_4e/relu_pool_proj <- inception_4e/pool_proj
I0311 16:53:01.085887 19766 net.cpp:346] inception_4e/relu_pool_proj -> inception_4e/pool_proj (in-place)
I0311 16:53:01.085904 19766 net.cpp:97] Setting up inception_4e/relu_pool_proj
I0311 16:53:01.085919 19766 net.cpp:104] Top shape: 128 128 5 5 (409600)
I0311 16:53:01.085932 19766 layer_factory.hpp:78] Creating layer inception_4e/output
I0311 16:53:01.085948 19766 net.cpp:68] Creating Layer inception_4e/output
I0311 16:53:01.085960 19766 net.cpp:395] inception_4e/output <- inception_4e/1x1
I0311 16:53:01.085973 19766 net.cpp:395] inception_4e/output <- inception_4e/3x3
I0311 16:53:01.085986 19766 net.cpp:395] inception_4e/output <- inception_4e/5x5
I0311 16:53:01.085999 19766 net.cpp:395] inception_4e/output <- inception_4e/pool_proj
I0311 16:53:01.086012 19766 net.cpp:357] inception_4e/output -> inception_4e/output
I0311 16:53:01.086027 19766 net.cpp:97] Setting up inception_4e/output
I0311 16:53:01.086040 19766 net.cpp:104] Top shape: 128 832 5 5 (2662400)
I0311 16:53:01.086051 19766 layer_factory.hpp:78] Creating layer pool4/3x3_s2
I0311 16:53:01.086068 19766 net.cpp:68] Creating Layer pool4/3x3_s2
I0311 16:53:01.086081 19766 net.cpp:395] pool4/3x3_s2 <- inception_4e/output
I0311 16:53:01.086097 19766 net.cpp:357] pool4/3x3_s2 -> pool4/3x3_s2
I0311 16:53:01.086110 19766 net.cpp:97] Setting up pool4/3x3_s2
I0311 16:53:01.086127 19766 net.cpp:104] Top shape: 128 832 2 2 (425984)
I0311 16:53:01.086139 19766 layer_factory.hpp:78] Creating layer pool4/3x3_s2_pool4/3x3_s2_0_split
I0311 16:53:01.086153 19766 net.cpp:68] Creating Layer pool4/3x3_s2_pool4/3x3_s2_0_split
I0311 16:53:01.086164 19766 net.cpp:395] pool4/3x3_s2_pool4/3x3_s2_0_split <- pool4/3x3_s2
I0311 16:53:01.086180 19766 net.cpp:357] pool4/3x3_s2_pool4/3x3_s2_0_split -> pool4/3x3_s2_pool4/3x3_s2_0_split_0
I0311 16:53:01.086196 19766 net.cpp:357] pool4/3x3_s2_pool4/3x3_s2_0_split -> pool4/3x3_s2_pool4/3x3_s2_0_split_1
I0311 16:53:01.086212 19766 net.cpp:357] pool4/3x3_s2_pool4/3x3_s2_0_split -> pool4/3x3_s2_pool4/3x3_s2_0_split_2
I0311 16:53:01.086228 19766 net.cpp:357] pool4/3x3_s2_pool4/3x3_s2_0_split -> pool4/3x3_s2_pool4/3x3_s2_0_split_3
I0311 16:53:01.086241 19766 net.cpp:97] Setting up pool4/3x3_s2_pool4/3x3_s2_0_split
I0311 16:53:01.086256 19766 net.cpp:104] Top shape: 128 832 2 2 (425984)
I0311 16:53:01.086266 19766 net.cpp:104] Top shape: 128 832 2 2 (425984)
I0311 16:53:01.086277 19766 net.cpp:104] Top shape: 128 832 2 2 (425984)
I0311 16:53:01.086287 19766 net.cpp:104] Top shape: 128 832 2 2 (425984)
I0311 16:53:01.086298 19766 layer_factory.hpp:78] Creating layer inception_5a/1x1
I0311 16:53:01.086333 19766 net.cpp:68] Creating Layer inception_5a/1x1
I0311 16:53:01.086347 19766 net.cpp:395] inception_5a/1x1 <- pool4/3x3_s2_pool4/3x3_s2_0_split_0
I0311 16:53:01.086362 19766 net.cpp:357] inception_5a/1x1 -> inception_5a/1x1
I0311 16:53:01.086379 19766 net.cpp:97] Setting up inception_5a/1x1
I0311 16:53:01.088618 19766 net.cpp:104] Top shape: 128 256 2 2 (131072)
I0311 16:53:01.088645 19766 layer_factory.hpp:78] Creating layer inception_5a/relu_1x1
I0311 16:53:01.088665 19766 net.cpp:68] Creating Layer inception_5a/relu_1x1
I0311 16:53:01.088678 19766 net.cpp:395] inception_5a/relu_1x1 <- inception_5a/1x1
I0311 16:53:01.088691 19766 net.cpp:346] inception_5a/relu_1x1 -> inception_5a/1x1 (in-place)
I0311 16:53:01.088706 19766 net.cpp:97] Setting up inception_5a/relu_1x1
I0311 16:53:01.088722 19766 net.cpp:104] Top shape: 128 256 2 2 (131072)
I0311 16:53:01.088733 19766 layer_factory.hpp:78] Creating layer inception_5a/3x3_reduce
I0311 16:53:01.088748 19766 net.cpp:68] Creating Layer inception_5a/3x3_reduce
I0311 16:53:01.088760 19766 net.cpp:395] inception_5a/3x3_reduce <- pool4/3x3_s2_pool4/3x3_s2_0_split_1
I0311 16:53:01.088778 19766 net.cpp:357] inception_5a/3x3_reduce -> inception_5a/3x3_reduce
I0311 16:53:01.088794 19766 net.cpp:97] Setting up inception_5a/3x3_reduce
I0311 16:53:01.090236 19766 net.cpp:104] Top shape: 128 160 2 2 (81920)
I0311 16:53:01.090263 19766 layer_factory.hpp:78] Creating layer inception_5a/relu_3x3_reduce
I0311 16:53:01.090278 19766 net.cpp:68] Creating Layer inception_5a/relu_3x3_reduce
I0311 16:53:01.090291 19766 net.cpp:395] inception_5a/relu_3x3_reduce <- inception_5a/3x3_reduce
I0311 16:53:01.090307 19766 net.cpp:346] inception_5a/relu_3x3_reduce -> inception_5a/3x3_reduce (in-place)
I0311 16:53:01.090322 19766 net.cpp:97] Setting up inception_5a/relu_3x3_reduce
I0311 16:53:01.090337 19766 net.cpp:104] Top shape: 128 160 2 2 (81920)
I0311 16:53:01.090350 19766 layer_factory.hpp:78] Creating layer inception_5a/3x3
I0311 16:53:01.090364 19766 net.cpp:68] Creating Layer inception_5a/3x3
I0311 16:53:01.090376 19766 net.cpp:395] inception_5a/3x3 <- inception_5a/3x3_reduce
I0311 16:53:01.090394 19766 net.cpp:357] inception_5a/3x3 -> inception_5a/3x3
I0311 16:53:01.090409 19766 net.cpp:97] Setting up inception_5a/3x3
I0311 16:53:01.095165 19766 net.cpp:104] Top shape: 128 320 2 2 (163840)
I0311 16:53:01.095194 19766 layer_factory.hpp:78] Creating layer inception_5a/relu_3x3
I0311 16:53:01.095211 19766 net.cpp:68] Creating Layer inception_5a/relu_3x3
I0311 16:53:01.095223 19766 net.cpp:395] inception_5a/relu_3x3 <- inception_5a/3x3
I0311 16:53:01.095237 19766 net.cpp:346] inception_5a/relu_3x3 -> inception_5a/3x3 (in-place)
I0311 16:53:01.095252 19766 net.cpp:97] Setting up inception_5a/relu_3x3
I0311 16:53:01.095268 19766 net.cpp:104] Top shape: 128 320 2 2 (163840)
I0311 16:53:01.095279 19766 layer_factory.hpp:78] Creating layer inception_5a/5x5_reduce
I0311 16:53:01.095299 19766 net.cpp:68] Creating Layer inception_5a/5x5_reduce
I0311 16:53:01.095314 19766 net.cpp:395] inception_5a/5x5_reduce <- pool4/3x3_s2_pool4/3x3_s2_0_split_2
I0311 16:53:01.095329 19766 net.cpp:357] inception_5a/5x5_reduce -> inception_5a/5x5_reduce
I0311 16:53:01.095345 19766 net.cpp:97] Setting up inception_5a/5x5_reduce
I0311 16:53:01.095706 19766 net.cpp:104] Top shape: 128 32 2 2 (16384)
I0311 16:53:01.095731 19766 layer_factory.hpp:78] Creating layer inception_5a/relu_5x5_reduce
I0311 16:53:01.095747 19766 net.cpp:68] Creating Layer inception_5a/relu_5x5_reduce
I0311 16:53:01.095759 19766 net.cpp:395] inception_5a/relu_5x5_reduce <- inception_5a/5x5_reduce
I0311 16:53:01.095773 19766 net.cpp:346] inception_5a/relu_5x5_reduce -> inception_5a/5x5_reduce (in-place)
I0311 16:53:01.095788 19766 net.cpp:97] Setting up inception_5a/relu_5x5_reduce
I0311 16:53:01.095803 19766 net.cpp:104] Top shape: 128 32 2 2 (16384)
I0311 16:53:01.095814 19766 layer_factory.hpp:78] Creating layer inception_5a/5x5
I0311 16:53:01.095831 19766 net.cpp:68] Creating Layer inception_5a/5x5
I0311 16:53:01.095865 19766 net.cpp:395] inception_5a/5x5 <- inception_5a/5x5_reduce
I0311 16:53:01.095881 19766 net.cpp:357] inception_5a/5x5 -> inception_5a/5x5
I0311 16:53:01.095897 19766 net.cpp:97] Setting up inception_5a/5x5
I0311 16:53:01.097163 19766 net.cpp:104] Top shape: 128 128 2 2 (65536)
I0311 16:53:01.097192 19766 layer_factory.hpp:78] Creating layer inception_5a/relu_5x5
I0311 16:53:01.097206 19766 net.cpp:68] Creating Layer inception_5a/relu_5x5
I0311 16:53:01.097218 19766 net.cpp:395] inception_5a/relu_5x5 <- inception_5a/5x5
I0311 16:53:01.097232 19766 net.cpp:346] inception_5a/relu_5x5 -> inception_5a/5x5 (in-place)
I0311 16:53:01.097247 19766 net.cpp:97] Setting up inception_5a/relu_5x5
I0311 16:53:01.097262 19766 net.cpp:104] Top shape: 128 128 2 2 (65536)
I0311 16:53:01.097275 19766 layer_factory.hpp:78] Creating layer inception_5a/pool
I0311 16:53:01.097286 19766 layer_factory.cpp:51] CUDNN does not support padding or multiple tops. Using Caffe's own pooling layer.
I0311 16:53:01.097302 19766 net.cpp:68] Creating Layer inception_5a/pool
I0311 16:53:01.097316 19766 net.cpp:395] inception_5a/pool <- pool4/3x3_s2_pool4/3x3_s2_0_split_3
I0311 16:53:01.097329 19766 net.cpp:357] inception_5a/pool -> inception_5a/pool
I0311 16:53:01.097365 19766 net.cpp:97] Setting up inception_5a/pool
I0311 16:53:01.097385 19766 net.cpp:104] Top shape: 128 832 2 2 (425984)
I0311 16:53:01.097398 19766 layer_factory.hpp:78] Creating layer inception_5a/pool_proj
I0311 16:53:01.097414 19766 net.cpp:68] Creating Layer inception_5a/pool_proj
I0311 16:53:01.097425 19766 net.cpp:395] inception_5a/pool_proj <- inception_5a/pool
I0311 16:53:01.097440 19766 net.cpp:357] inception_5a/pool_proj -> inception_5a/pool_proj
I0311 16:53:01.097456 19766 net.cpp:97] Setting up inception_5a/pool_proj
I0311 16:53:01.098691 19766 net.cpp:104] Top shape: 128 128 2 2 (65536)
I0311 16:53:01.098716 19766 layer_factory.hpp:78] Creating layer inception_5a/relu_pool_proj
I0311 16:53:01.098733 19766 net.cpp:68] Creating Layer inception_5a/relu_pool_proj
I0311 16:53:01.098747 19766 net.cpp:395] inception_5a/relu_pool_proj <- inception_5a/pool_proj
I0311 16:53:01.098760 19766 net.cpp:346] inception_5a/relu_pool_proj -> inception_5a/pool_proj (in-place)
I0311 16:53:01.098778 19766 net.cpp:97] Setting up inception_5a/relu_pool_proj
I0311 16:53:01.098793 19766 net.cpp:104] Top shape: 128 128 2 2 (65536)
I0311 16:53:01.098806 19766 layer_factory.hpp:78] Creating layer inception_5a/output
I0311 16:53:01.098819 19766 net.cpp:68] Creating Layer inception_5a/output
I0311 16:53:01.098831 19766 net.cpp:395] inception_5a/output <- inception_5a/1x1
I0311 16:53:01.098845 19766 net.cpp:395] inception_5a/output <- inception_5a/3x3
I0311 16:53:01.098857 19766 net.cpp:395] inception_5a/output <- inception_5a/5x5
I0311 16:53:01.098870 19766 net.cpp:395] inception_5a/output <- inception_5a/pool_proj
I0311 16:53:01.098884 19766 net.cpp:357] inception_5a/output -> inception_5a/output
I0311 16:53:01.098898 19766 net.cpp:97] Setting up inception_5a/output
I0311 16:53:01.098912 19766 net.cpp:104] Top shape: 128 832 2 2 (425984)
I0311 16:53:01.098922 19766 layer_factory.hpp:78] Creating layer inception_5a/output_inception_5a/output_0_split
I0311 16:53:01.098937 19766 net.cpp:68] Creating Layer inception_5a/output_inception_5a/output_0_split
I0311 16:53:01.098948 19766 net.cpp:395] inception_5a/output_inception_5a/output_0_split <- inception_5a/output
I0311 16:53:01.098965 19766 net.cpp:357] inception_5a/output_inception_5a/output_0_split -> inception_5a/output_inception_5a/output_0_split_0
I0311 16:53:01.098983 19766 net.cpp:357] inception_5a/output_inception_5a/output_0_split -> inception_5a/output_inception_5a/output_0_split_1
I0311 16:53:01.098999 19766 net.cpp:357] inception_5a/output_inception_5a/output_0_split -> inception_5a/output_inception_5a/output_0_split_2
I0311 16:53:01.099015 19766 net.cpp:357] inception_5a/output_inception_5a/output_0_split -> inception_5a/output_inception_5a/output_0_split_3
I0311 16:53:01.099030 19766 net.cpp:97] Setting up inception_5a/output_inception_5a/output_0_split
I0311 16:53:01.099061 19766 net.cpp:104] Top shape: 128 832 2 2 (425984)
I0311 16:53:01.099074 19766 net.cpp:104] Top shape: 128 832 2 2 (425984)
I0311 16:53:01.099086 19766 net.cpp:104] Top shape: 128 832 2 2 (425984)
I0311 16:53:01.099095 19766 net.cpp:104] Top shape: 128 832 2 2 (425984)
I0311 16:53:01.099107 19766 layer_factory.hpp:78] Creating layer inception_5b/1x1
I0311 16:53:01.099123 19766 net.cpp:68] Creating Layer inception_5b/1x1
I0311 16:53:01.099136 19766 net.cpp:395] inception_5b/1x1 <- inception_5a/output_inception_5a/output_0_split_0
I0311 16:53:01.099151 19766 net.cpp:357] inception_5b/1x1 -> inception_5b/1x1
I0311 16:53:01.099167 19766 net.cpp:97] Setting up inception_5b/1x1
I0311 16:53:01.102509 19766 net.cpp:104] Top shape: 128 384 2 2 (196608)
I0311 16:53:01.102538 19766 layer_factory.hpp:78] Creating layer inception_5b/relu_1x1
I0311 16:53:01.102555 19766 net.cpp:68] Creating Layer inception_5b/relu_1x1
I0311 16:53:01.102567 19766 net.cpp:395] inception_5b/relu_1x1 <- inception_5b/1x1
I0311 16:53:01.102584 19766 net.cpp:346] inception_5b/relu_1x1 -> inception_5b/1x1 (in-place)
I0311 16:53:01.102599 19766 net.cpp:97] Setting up inception_5b/relu_1x1
I0311 16:53:01.102614 19766 net.cpp:104] Top shape: 128 384 2 2 (196608)
I0311 16:53:01.102627 19766 layer_factory.hpp:78] Creating layer inception_5b/3x3_reduce
I0311 16:53:01.102640 19766 net.cpp:68] Creating Layer inception_5b/3x3_reduce
I0311 16:53:01.102674 19766 net.cpp:395] inception_5b/3x3_reduce <- inception_5a/output_inception_5a/output_0_split_1
I0311 16:53:01.102689 19766 net.cpp:357] inception_5b/3x3_reduce -> inception_5b/3x3_reduce
I0311 16:53:01.102705 19766 net.cpp:97] Setting up inception_5b/3x3_reduce
I0311 16:53:01.104395 19766 net.cpp:104] Top shape: 128 192 2 2 (98304)
I0311 16:53:01.104420 19766 layer_factory.hpp:78] Creating layer inception_5b/relu_3x3_reduce
I0311 16:53:01.104439 19766 net.cpp:68] Creating Layer inception_5b/relu_3x3_reduce
I0311 16:53:01.104451 19766 net.cpp:395] inception_5b/relu_3x3_reduce <- inception_5b/3x3_reduce
I0311 16:53:01.104465 19766 net.cpp:346] inception_5b/relu_3x3_reduce -> inception_5b/3x3_reduce (in-place)
I0311 16:53:01.104480 19766 net.cpp:97] Setting up inception_5b/relu_3x3_reduce
I0311 16:53:01.104496 19766 net.cpp:104] Top shape: 128 192 2 2 (98304)
I0311 16:53:01.104507 19766 layer_factory.hpp:78] Creating layer inception_5b/3x3
I0311 16:53:01.104521 19766 net.cpp:68] Creating Layer inception_5b/3x3
I0311 16:53:01.104533 19766 net.cpp:395] inception_5b/3x3 <- inception_5b/3x3_reduce
I0311 16:53:01.104550 19766 net.cpp:357] inception_5b/3x3 -> inception_5b/3x3
I0311 16:53:01.104567 19766 net.cpp:97] Setting up inception_5b/3x3
I0311 16:53:01.110991 19766 net.cpp:104] Top shape: 128 384 2 2 (196608)
I0311 16:53:01.111018 19766 layer_factory.hpp:78] Creating layer inception_5b/relu_3x3
I0311 16:53:01.111033 19766 net.cpp:68] Creating Layer inception_5b/relu_3x3
I0311 16:53:01.111047 19766 net.cpp:395] inception_5b/relu_3x3 <- inception_5b/3x3
I0311 16:53:01.111062 19766 net.cpp:346] inception_5b/relu_3x3 -> inception_5b/3x3 (in-place)
I0311 16:53:01.111076 19766 net.cpp:97] Setting up inception_5b/relu_3x3
I0311 16:53:01.111090 19766 net.cpp:104] Top shape: 128 384 2 2 (196608)
I0311 16:53:01.111102 19766 layer_factory.hpp:78] Creating layer inception_5b/5x5_reduce
I0311 16:53:01.111121 19766 net.cpp:68] Creating Layer inception_5b/5x5_reduce
I0311 16:53:01.111135 19766 net.cpp:395] inception_5b/5x5_reduce <- inception_5a/output_inception_5a/output_0_split_2
I0311 16:53:01.111153 19766 net.cpp:357] inception_5b/5x5_reduce -> inception_5b/5x5_reduce
I0311 16:53:01.111170 19766 net.cpp:97] Setting up inception_5b/5x5_reduce
I0311 16:53:01.111793 19766 net.cpp:104] Top shape: 128 48 2 2 (24576)
I0311 16:53:01.111819 19766 layer_factory.hpp:78] Creating layer inception_5b/relu_5x5_reduce
I0311 16:53:01.111835 19766 net.cpp:68] Creating Layer inception_5b/relu_5x5_reduce
I0311 16:53:01.111846 19766 net.cpp:395] inception_5b/relu_5x5_reduce <- inception_5b/5x5_reduce
I0311 16:53:01.111886 19766 net.cpp:346] inception_5b/relu_5x5_reduce -> inception_5b/5x5_reduce (in-place)
I0311 16:53:01.111904 19766 net.cpp:97] Setting up inception_5b/relu_5x5_reduce
I0311 16:53:01.111919 19766 net.cpp:104] Top shape: 128 48 2 2 (24576)
I0311 16:53:01.111932 19766 layer_factory.hpp:78] Creating layer inception_5b/5x5
I0311 16:53:01.111945 19766 net.cpp:68] Creating Layer inception_5b/5x5
I0311 16:53:01.111958 19766 net.cpp:395] inception_5b/5x5 <- inception_5b/5x5_reduce
I0311 16:53:01.111976 19766 net.cpp:357] inception_5b/5x5 -> inception_5b/5x5
I0311 16:53:01.111992 19766 net.cpp:97] Setting up inception_5b/5x5
I0311 16:53:01.113677 19766 net.cpp:104] Top shape: 128 128 2 2 (65536)
I0311 16:53:01.113710 19766 layer_factory.hpp:78] Creating layer inception_5b/relu_5x5
I0311 16:53:01.113729 19766 net.cpp:68] Creating Layer inception_5b/relu_5x5
I0311 16:53:01.113741 19766 net.cpp:395] inception_5b/relu_5x5 <- inception_5b/5x5
I0311 16:53:01.113759 19766 net.cpp:346] inception_5b/relu_5x5 -> inception_5b/5x5 (in-place)
I0311 16:53:01.113775 19766 net.cpp:97] Setting up inception_5b/relu_5x5
I0311 16:53:01.113790 19766 net.cpp:104] Top shape: 128 128 2 2 (65536)
I0311 16:53:01.113801 19766 layer_factory.hpp:78] Creating layer inception_5b/pool
I0311 16:53:01.113813 19766 layer_factory.cpp:51] CUDNN does not support padding or multiple tops. Using Caffe's own pooling layer.
I0311 16:53:01.113826 19766 net.cpp:68] Creating Layer inception_5b/pool
I0311 16:53:01.113838 19766 net.cpp:395] inception_5b/pool <- inception_5a/output_inception_5a/output_0_split_3
I0311 16:53:01.113855 19766 net.cpp:357] inception_5b/pool -> inception_5b/pool
I0311 16:53:01.113872 19766 net.cpp:97] Setting up inception_5b/pool
I0311 16:53:01.113886 19766 net.cpp:104] Top shape: 128 832 2 2 (425984)
I0311 16:53:01.113898 19766 layer_factory.hpp:78] Creating layer inception_5b/pool_proj
I0311 16:53:01.113912 19766 net.cpp:68] Creating Layer inception_5b/pool_proj
I0311 16:53:01.113924 19766 net.cpp:395] inception_5b/pool_proj <- inception_5b/pool
I0311 16:53:01.113942 19766 net.cpp:357] inception_5b/pool_proj -> inception_5b/pool_proj
I0311 16:53:01.113960 19766 net.cpp:97] Setting up inception_5b/pool_proj
I0311 16:53:01.115102 19766 net.cpp:104] Top shape: 128 128 2 2 (65536)
I0311 16:53:01.115124 19766 layer_factory.hpp:78] Creating layer inception_5b/relu_pool_proj
I0311 16:53:01.115157 19766 net.cpp:68] Creating Layer inception_5b/relu_pool_proj
I0311 16:53:01.115173 19766 net.cpp:395] inception_5b/relu_pool_proj <- inception_5b/pool_proj
I0311 16:53:01.115187 19766 net.cpp:346] inception_5b/relu_pool_proj -> inception_5b/pool_proj (in-place)
I0311 16:53:01.115216 19766 net.cpp:97] Setting up inception_5b/relu_pool_proj
I0311 16:53:01.115233 19766 net.cpp:104] Top shape: 128 128 2 2 (65536)
I0311 16:53:01.115245 19766 layer_factory.hpp:78] Creating layer inception_5b/output
I0311 16:53:01.115267 19766 net.cpp:68] Creating Layer inception_5b/output
I0311 16:53:01.115279 19766 net.cpp:395] inception_5b/output <- inception_5b/1x1
I0311 16:53:01.115293 19766 net.cpp:395] inception_5b/output <- inception_5b/3x3
I0311 16:53:01.115306 19766 net.cpp:395] inception_5b/output <- inception_5b/5x5
I0311 16:53:01.115319 19766 net.cpp:395] inception_5b/output <- inception_5b/pool_proj
I0311 16:53:01.115334 19766 net.cpp:357] inception_5b/output -> inception_5b/output
I0311 16:53:01.115347 19766 net.cpp:97] Setting up inception_5b/output
I0311 16:53:01.115361 19766 net.cpp:104] Top shape: 128 1024 2 2 (524288)
I0311 16:53:01.115372 19766 layer_factory.hpp:78] Creating layer pool5/7x7_s1
I0311 16:53:01.115389 19766 net.cpp:68] Creating Layer pool5/7x7_s1
I0311 16:53:01.115401 19766 net.cpp:395] pool5/7x7_s1 <- inception_5b/output
I0311 16:53:01.115417 19766 net.cpp:357] pool5/7x7_s1 -> pool5/7x7_s1
I0311 16:53:01.115430 19766 net.cpp:97] Setting up pool5/7x7_s1
I0311 16:53:01.115448 19766 net.cpp:104] Top shape: 128 1024 1 1 (131072)
I0311 16:53:01.115460 19766 layer_factory.hpp:78] Creating layer pool5/drop_7x7_s1
I0311 16:53:01.115496 19766 net.cpp:68] Creating Layer pool5/drop_7x7_s1
I0311 16:53:01.115511 19766 net.cpp:395] pool5/drop_7x7_s1 <- pool5/7x7_s1
I0311 16:53:01.115525 19766 net.cpp:346] pool5/drop_7x7_s1 -> pool5/7x7_s1 (in-place)
I0311 16:53:01.115540 19766 net.cpp:97] Setting up pool5/drop_7x7_s1
I0311 16:53:01.115553 19766 net.cpp:104] Top shape: 128 1024 1 1 (131072)
I0311 16:53:01.115564 19766 layer_factory.hpp:78] Creating layer loss3/classifier
I0311 16:53:01.115581 19766 net.cpp:68] Creating Layer loss3/classifier
I0311 16:53:01.115592 19766 net.cpp:395] loss3/classifier <- pool5/7x7_s1
I0311 16:53:01.115608 19766 net.cpp:357] loss3/classifier -> loss3/classifier
I0311 16:53:01.115625 19766 net.cpp:97] Setting up loss3/classifier
I0311 16:53:01.116956 19766 net.cpp:104] Top shape: 128 121 1 1 (15488)
I0311 16:53:01.116981 19766 layer_factory.hpp:78] Creating layer loss3/classifier_loss3/classifier_0_split
I0311 16:53:01.116997 19766 net.cpp:68] Creating Layer loss3/classifier_loss3/classifier_0_split
I0311 16:53:01.117009 19766 net.cpp:395] loss3/classifier_loss3/classifier_0_split <- loss3/classifier
I0311 16:53:01.117024 19766 net.cpp:357] loss3/classifier_loss3/classifier_0_split -> loss3/classifier_loss3/classifier_0_split_0
I0311 16:53:01.117040 19766 net.cpp:357] loss3/classifier_loss3/classifier_0_split -> loss3/classifier_loss3/classifier_0_split_1
I0311 16:53:01.117055 19766 net.cpp:97] Setting up loss3/classifier_loss3/classifier_0_split
I0311 16:53:01.117069 19766 net.cpp:104] Top shape: 128 121 1 1 (15488)
I0311 16:53:01.117080 19766 net.cpp:104] Top shape: 128 121 1 1 (15488)
I0311 16:53:01.117090 19766 layer_factory.hpp:78] Creating layer loss3/loss3
I0311 16:53:01.117107 19766 net.cpp:68] Creating Layer loss3/loss3
I0311 16:53:01.117120 19766 net.cpp:395] loss3/loss3 <- loss3/classifier_loss3/classifier_0_split_0
I0311 16:53:01.117132 19766 net.cpp:395] loss3/loss3 <- label_data_1_split_4
I0311 16:53:01.117147 19766 net.cpp:357] loss3/loss3 -> loss3/loss3
I0311 16:53:01.117161 19766 net.cpp:97] Setting up loss3/loss3
I0311 16:53:01.117175 19766 layer_factory.hpp:78] Creating layer loss3/loss3
I0311 16:53:01.117234 19766 net.cpp:104] Top shape: 1 1 1 1 (1)
I0311 16:53:01.117249 19766 net.cpp:110]     with loss weight 1
I0311 16:53:01.117272 19766 layer_factory.hpp:78] Creating layer loss3/top-1
I0311 16:53:01.117290 19766 net.cpp:68] Creating Layer loss3/top-1
I0311 16:53:01.117303 19766 net.cpp:395] loss3/top-1 <- loss3/classifier_loss3/classifier_0_split_1
I0311 16:53:01.117316 19766 net.cpp:395] loss3/top-1 <- label_data_1_split_5
I0311 16:53:01.117332 19766 net.cpp:357] loss3/top-1 -> loss3/top-1
I0311 16:53:01.117348 19766 net.cpp:97] Setting up loss3/top-1
I0311 16:53:01.117362 19766 net.cpp:104] Top shape: 1 1 1 1 (1)
I0311 16:53:01.117373 19766 net.cpp:173] loss3/top-1 does not need backward computation.
I0311 16:53:01.117384 19766 net.cpp:171] loss3/loss3 needs backward computation.
I0311 16:53:01.117396 19766 net.cpp:171] loss3/classifier_loss3/classifier_0_split needs backward computation.
I0311 16:53:01.117408 19766 net.cpp:171] loss3/classifier needs backward computation.
I0311 16:53:01.117419 19766 net.cpp:171] pool5/drop_7x7_s1 needs backward computation.
…
