…
I0301 23:00:28.967501 31437 net.cpp:276] The NetState phase (0) differed from the phase (1) specified by a rule in layer accuracy
I0301 23:00:28.967757 31437 net.cpp:39] Initializing net from parameters: 
name: "model4_bn"
layers {
  top: "data"
  top: "label"
  name: "data"
  type: DATA
  data_param {
    source: "/home/jaehyun/kaggle/nationalDataScienceBowl/data/typeE/train_lmdb"
    batch_size: 100
    backend: LMDB
    shuffle: true
  }
  include {
    phase: TRAIN
  }
  transform_param {
    scale: 0.00390625
    mirror: true
    mean_file: "/home/jaehyun/kaggle/nationalDataScienceBowl/data/typeE/train_mean.binaryproto"
  }
}
layers {
  bottom: "data"
  top: "conv1"
  name: "conv1"
  type: CONVOLUTION
  blobs_lr: 1
  blobs_lr: 2
  weight_decay: 1
  weight_decay: 0
  convolution_param {
    num_output: 256
    kernel_size: 4
    stride: 2
    weight_filler {
      type: "xavier"
    }
    bias_filler {
      type: "constant"
    }
  }
}
layers {
  bottom: "conv1"
  top: "conv1_bn"
  name: "conv1_bn"
  type: BN
  blobs_lr: 1
  blobs_lr: 1
  weight_decay: 0
  weight_decay: 0
  bn_param {
    scale_filler {
      type: "constant"
      value: 1
    }
    shift_filler {
      type: "constant"
      value: 0
    }
  }
}
layers {
  bottom: "conv1_bn"
  top: "conv1_bn"
  name: "relu1"
  type: RELU
  relu_param {
    negative_slope: 0.1
  }
}
layers {
  bottom: "conv1_bn"
  top: "cccp1"
  name: "cccp1"
  type: CONVOLUTION
  blobs_lr: 1
  blobs_lr: 2
  weight_decay: 1
  weight_decay: 0
  convolution_param {
    num_output: 256
    kernel_size: 1
    group: 1
    stride: 1
    weight_filler {
      type: "xavier"
    }
    bias_filler {
      type: "constant"
    }
  }
}
layers {
  bottom: "cccp1"
  top: "cccp1_bn"
  name: "cccp1_bn"
  type: BN
  blobs_lr: 1
  blobs_lr: 1
  weight_decay: 0
  weight_decay: 0
  bn_param {
    scale_filler {
      type: "constant"
      value: 1
    }
    shift_filler {
      type: "constant"
      value: 0
    }
  }
}
layers {
  bottom: "cccp1_bn"
  top: "cccp1_bn"
  name: "relu_cccp1"
  type: RELU
  relu_param {
    negative_slope: 0.1
  }
}
layers {
  bottom: "cccp1_bn"
  top: "pool1"
  name: "pool1"
  type: POOLING
  pooling_param {
    pool: MAX
    kernel_size: 3
    stride: 2
  }
}
layers {
  bottom: "pool1"
  top: "conv2"
  name: "conv2"
  type: CONVOLUTION
  blobs_lr: 1
  blobs_lr: 2
  weight_decay: 1
  weight_decay: 0
  convolution_param {
    num_output: 128
    kernel_size: 3
    weight_filler {
      type: "xavier"
    }
    bias_filler {
      type: "constant"
    }
  }
}
layers {
  bottom: "conv2"
  top: "conv2_bn"
  name: "conv2_bn"
  type: BN
  blobs_lr: 1
  blobs_lr: 1
  weight_decay: 0
  weight_decay: 0
  bn_param {
    scale_filler {
      type: "constant"
      value: 1
    }
    shift_filler {
      type: "constant"
      value: 0
    }
  }
}
layers {
  bottom: "conv2_bn"
  top: "conv2_bn"
  name: "relu2"
  type: RELU
  relu_param {
    negative_slope: 0.1
  }
}
layers {
  bottom: "conv2_bn"
  top: "cccp2"
  name: "cccp2"
  type: CONVOLUTION
  blobs_lr: 1
  blobs_lr: 2
  weight_decay: 1
  weight_decay: 0
  convolution_param {
    num_output: 128
    kernel_size: 1
    group: 1
    stride: 1
    weight_filler {
      type: "xavier"
    }
    bias_filler {
      type: "constant"
    }
  }
}
layers {
  bottom: "cccp2"
  top: "cccp2_bn"
  name: "cccp2_bn"
  type: BN
  blobs_lr: 1
  blobs_lr: 1
  weight_decay: 0
  weight_decay: 0
  bn_param {
    scale_filler {
      type: "constant"
      value: 1
    }
    shift_filler {
      type: "constant"
      value: 0
    }
  }
}
layers {
  bottom: "cccp2_bn"
  top: "cccp2_bn"
  name: "relu_cccp2"
  type: RELU
  relu_param {
    negative_slope: 0.1
  }
}
layers {
  bottom: "cccp2_bn"
  top: "conv3"
  name: "conv3"
  type: CONVOLUTION
  blobs_lr: 1
  blobs_lr: 2
  weight_decay: 1
  weight_decay: 0
  convolution_param {
    num_output: 128
    kernel_size: 3
    weight_filler {
      type: "xavier"
    }
    bias_filler {
      type: "constant"
    }
  }
}
layers {
  bottom: "conv3"
  top: "conv3_bn"
  name: "conv3_bn"
  type: BN
  blobs_lr: 1
  blobs_lr: 1
  weight_decay: 0
  weight_decay: 0
  bn_param {
    scale_filler {
      type: "constant"
      value: 1
    }
    shift_filler {
      type: "constant"
      value: 0
    }
  }
}
layers {
  bottom: "conv3_bn"
  top: "conv3_bn"
  name: "relu3"
  type: RELU
  relu_param {
    negative_slope: 0.1
  }
}
layers {
  bottom: "conv3_bn"
  top: "cccp3"
  name: "cccp3"
  type: CONVOLUTION
  blobs_lr: 1
  blobs_lr: 2
  weight_decay: 1
  weight_decay: 0
  convolution_param {
    num_output: 128
    kernel_size: 1
    group: 1
    stride: 1
    weight_filler {
      type: "xavier"
    }
    bias_filler {
      type: "constant"
    }
  }
}
layers {
  bottom: "cccp3"
  top: "cccp3_bn"
  name: "cccp3_bn"
  type: BN
  blobs_lr: 1
  blobs_lr: 1
  weight_decay: 0
  weight_decay: 0
  bn_param {
    scale_filler {
      type: "constant"
      value: 1
    }
    shift_filler {
      type: "constant"
      value: 0
    }
  }
}
layers {
  bottom: "cccp3_bn"
  top: "cccp3_bn"
  name: "relu_cccp3"
  type: RELU
  relu_param {
    negative_slope: 0.1
  }
}
layers {
  bottom: "cccp3_bn"
  top: "pool3"
  name: "pool3"
  type: POOLING
  pooling_param {
    pool: MAX
    kernel_size: 3
    stride: 2
  }
}
layers {
  bottom: "pool3"
  top: "fc4"
  name: "fc4"
  type: INNER_PRODUCT
  blobs_lr: 1
  blobs_lr: 2
  weight_decay: 1
  weight_decay: 0
  inner_product_param {
    num_output: 512
    weight_filler {
      type: "xavier"
    }
    bias_filler {
      type: "constant"
    }
  }
}
layers {
  bottom: "fc4"
  top: "fc4"
  name: "relu4"
  type: RELU
  relu_param {
    negative_slope: 0.1
  }
}
layers {
  bottom: "fc4"
  top: "fc4"
  name: "drop4"
  type: DROPOUT
  dropout_param {
    dropout_ratio: 0.5
  }
}
layers {
  bottom: "fc4"
  top: "fc5"
  name: "fc5"
  type: INNER_PRODUCT
  blobs_lr: 1
  blobs_lr: 2
  weight_decay: 1
  weight_decay: 0
  inner_product_param {
    num_output: 512
    weight_filler {
      type: "xavier"
    }
    bias_filler {
      type: "constant"
    }
  }
}
layers {
  bottom: "fc5"
  top: "fc5"
  name: "relu5"
  type: RELU
  relu_param {
    negative_slope: 0.1
  }
}
layers {
  bottom: "fc5"
  top: "fc5"
  name: "drop5"
  type: DROPOUT
  dropout_param {
    dropout_ratio: 0.5
  }
}
layers {
  bottom: "fc5"
  top: "fc6"
  name: "fc6"
  type: INNER_PRODUCT
  blobs_lr: 1
  blobs_lr: 2
  weight_decay: 1
  weight_decay: 0
  inner_product_param {
    num_output: 121
    weight_filler {
      type: "xavier"
    }
    bias_filler {
      type: "constant"
    }
  }
}
layers {
  bottom: "fc6"
  bottom: "label"
  top: "loss"
  name: "loss"
  type: SOFTMAX_LOSS
}
state {
  phase: TRAIN
}
I0301 23:00:28.969209 31437 layer_factory.hpp:78] Creating layer data
I0301 23:00:28.969241 31437 data_transformer.cpp:24] Loading mean file from/home/jaehyun/kaggle/nationalDataScienceBowl/data/typeE/train_mean.binaryproto
I0301 23:00:28.969450 31437 net.cpp:68] Creating Layer data
I0301 23:00:28.969475 31437 net.cpp:357] data -> data
I0301 23:00:28.969501 31437 net.cpp:357] data -> label
I0301 23:00:28.969526 31437 net.cpp:97] Setting up data
I0301 23:00:28.969545 31437 data_layer.cpp:34] Opening dataset /home/jaehyun/kaggle/nationalDataScienceBowl/data/typeE/train_lmdb
I0301 23:00:28.969784 31437 data_layer.cpp:73] output data size: 100,1,96,96
I0301 23:00:28.972025 31437 net.cpp:104] Top shape: 100 1 96 96 (921600)
I0301 23:00:28.972069 31437 net.cpp:104] Top shape: 100 1 1 1 (100)
I0301 23:00:28.972095 31437 layer_factory.hpp:78] Creating layer conv1
I0301 23:00:28.972120 31437 net.cpp:68] Creating Layer conv1
I0301 23:00:28.972134 31437 net.cpp:395] conv1 <- data
I0301 23:00:28.972161 31437 net.cpp:357] conv1 -> conv1
I0301 23:00:28.972182 31437 net.cpp:97] Setting up conv1
I0301 23:00:29.001482 31437 net.cpp:104] Top shape: 100 256 47 47 (56550400)
I0301 23:00:29.001569 31437 layer_factory.hpp:78] Creating layer conv1_bn
I0301 23:00:29.001606 31437 net.cpp:68] Creating Layer conv1_bn
I0301 23:00:29.001623 31437 net.cpp:395] conv1_bn <- conv1
I0301 23:00:29.001641 31437 net.cpp:357] conv1_bn -> conv1_bn
I0301 23:00:29.001664 31437 net.cpp:97] Setting up conv1_bn
I0301 23:00:29.001703 31437 net.cpp:104] Top shape: 100 256 47 47 (56550400)
I0301 23:00:29.001723 31437 layer_factory.hpp:78] Creating layer relu1
I0301 23:00:29.001742 31437 net.cpp:68] Creating Layer relu1
I0301 23:00:29.001754 31437 net.cpp:395] relu1 <- conv1_bn
I0301 23:00:29.001771 31437 net.cpp:346] relu1 -> conv1_bn (in-place)
I0301 23:00:29.001787 31437 net.cpp:97] Setting up relu1
I0301 23:00:29.001809 31437 net.cpp:104] Top shape: 100 256 47 47 (56550400)
I0301 23:00:29.001823 31437 layer_factory.hpp:78] Creating layer cccp1
I0301 23:00:29.001842 31437 net.cpp:68] Creating Layer cccp1
I0301 23:00:29.001853 31437 net.cpp:395] cccp1 <- conv1_bn
I0301 23:00:29.001874 31437 net.cpp:357] cccp1 -> cccp1
I0301 23:00:29.001893 31437 net.cpp:97] Setting up cccp1
I0301 23:00:29.002712 31437 net.cpp:104] Top shape: 100 256 47 47 (56550400)
I0301 23:00:29.002739 31437 layer_factory.hpp:78] Creating layer cccp1_bn
I0301 23:00:29.002758 31437 net.cpp:68] Creating Layer cccp1_bn
I0301 23:00:29.002770 31437 net.cpp:395] cccp1_bn <- cccp1
I0301 23:00:29.002787 31437 net.cpp:357] cccp1_bn -> cccp1_bn
I0301 23:00:29.002804 31437 net.cpp:97] Setting up cccp1_bn
I0301 23:00:29.002833 31437 net.cpp:104] Top shape: 100 256 47 47 (56550400)
I0301 23:00:29.002853 31437 layer_factory.hpp:78] Creating layer relu_cccp1
I0301 23:00:29.002868 31437 net.cpp:68] Creating Layer relu_cccp1
I0301 23:00:29.002882 31437 net.cpp:395] relu_cccp1 <- cccp1_bn
I0301 23:00:29.002894 31437 net.cpp:346] relu_cccp1 -> cccp1_bn (in-place)
I0301 23:00:29.002908 31437 net.cpp:97] Setting up relu_cccp1
I0301 23:00:29.002924 31437 net.cpp:104] Top shape: 100 256 47 47 (56550400)
I0301 23:00:29.002938 31437 layer_factory.hpp:78] Creating layer pool1
I0301 23:00:29.002955 31437 net.cpp:68] Creating Layer pool1
I0301 23:00:29.002969 31437 net.cpp:395] pool1 <- cccp1_bn
I0301 23:00:29.002985 31437 net.cpp:357] pool1 -> pool1
I0301 23:00:29.003001 31437 net.cpp:97] Setting up pool1
I0301 23:00:29.003041 31437 net.cpp:104] Top shape: 100 256 23 23 (13542400)
I0301 23:00:29.003056 31437 layer_factory.hpp:78] Creating layer conv2
I0301 23:00:29.003077 31437 net.cpp:68] Creating Layer conv2
I0301 23:00:29.003089 31437 net.cpp:395] conv2 <- pool1
I0301 23:00:29.003104 31437 net.cpp:357] conv2 -> conv2
I0301 23:00:29.003119 31437 net.cpp:97] Setting up conv2
I0301 23:00:29.006268 31437 net.cpp:104] Top shape: 100 128 21 21 (5644800)
I0301 23:00:29.006299 31437 layer_factory.hpp:78] Creating layer conv2_bn
I0301 23:00:29.006316 31437 net.cpp:68] Creating Layer conv2_bn
I0301 23:00:29.006330 31437 net.cpp:395] conv2_bn <- conv2
I0301 23:00:29.006347 31437 net.cpp:357] conv2_bn -> conv2_bn
I0301 23:00:29.006366 31437 net.cpp:97] Setting up conv2_bn
I0301 23:00:29.006389 31437 net.cpp:104] Top shape: 100 128 21 21 (5644800)
I0301 23:00:29.006459 31437 layer_factory.hpp:78] Creating layer relu2
I0301 23:00:29.006479 31437 net.cpp:68] Creating Layer relu2
I0301 23:00:29.006491 31437 net.cpp:395] relu2 <- conv2_bn
I0301 23:00:29.006506 31437 net.cpp:346] relu2 -> conv2_bn (in-place)
I0301 23:00:29.006521 31437 net.cpp:97] Setting up relu2
I0301 23:00:29.006536 31437 net.cpp:104] Top shape: 100 128 21 21 (5644800)
I0301 23:00:29.006549 31437 layer_factory.hpp:78] Creating layer cccp2
I0301 23:00:29.006566 31437 net.cpp:68] Creating Layer cccp2
I0301 23:00:29.006577 31437 net.cpp:395] cccp2 <- conv2_bn
I0301 23:00:29.006597 31437 net.cpp:357] cccp2 -> cccp2
I0301 23:00:29.006613 31437 net.cpp:97] Setting up cccp2
I0301 23:00:29.006856 31437 net.cpp:104] Top shape: 100 128 21 21 (5644800)
I0301 23:00:29.006880 31437 layer_factory.hpp:78] Creating layer cccp2_bn
I0301 23:00:29.006896 31437 net.cpp:68] Creating Layer cccp2_bn
I0301 23:00:29.006908 31437 net.cpp:395] cccp2_bn <- cccp2
I0301 23:00:29.006925 31437 net.cpp:357] cccp2_bn -> cccp2_bn
I0301 23:00:29.006942 31437 net.cpp:97] Setting up cccp2_bn
I0301 23:00:29.006964 31437 net.cpp:104] Top shape: 100 128 21 21 (5644800)
I0301 23:00:29.006983 31437 layer_factory.hpp:78] Creating layer relu_cccp2
I0301 23:00:29.006997 31437 net.cpp:68] Creating Layer relu_cccp2
I0301 23:00:29.007009 31437 net.cpp:395] relu_cccp2 <- cccp2_bn
I0301 23:00:29.007024 31437 net.cpp:346] relu_cccp2 -> cccp2_bn (in-place)
I0301 23:00:29.007037 31437 net.cpp:97] Setting up relu_cccp2
I0301 23:00:29.007052 31437 net.cpp:104] Top shape: 100 128 21 21 (5644800)
I0301 23:00:29.007064 31437 layer_factory.hpp:78] Creating layer conv3
I0301 23:00:29.007079 31437 net.cpp:68] Creating Layer conv3
I0301 23:00:29.007091 31437 net.cpp:395] conv3 <- cccp2_bn
I0301 23:00:29.007107 31437 net.cpp:357] conv3 -> conv3
I0301 23:00:29.007122 31437 net.cpp:97] Setting up conv3
I0301 23:00:29.008712 31437 net.cpp:104] Top shape: 100 128 19 19 (4620800)
I0301 23:00:29.008739 31437 layer_factory.hpp:78] Creating layer conv3_bn
I0301 23:00:29.008759 31437 net.cpp:68] Creating Layer conv3_bn
I0301 23:00:29.008774 31437 net.cpp:395] conv3_bn <- conv3
I0301 23:00:29.008790 31437 net.cpp:357] conv3_bn -> conv3_bn
I0301 23:00:29.008806 31437 net.cpp:97] Setting up conv3_bn
I0301 23:00:29.008828 31437 net.cpp:104] Top shape: 100 128 19 19 (4620800)
I0301 23:00:29.008844 31437 layer_factory.hpp:78] Creating layer relu3
I0301 23:00:29.008860 31437 net.cpp:68] Creating Layer relu3
I0301 23:00:29.008872 31437 net.cpp:395] relu3 <- conv3_bn
I0301 23:00:29.008888 31437 net.cpp:346] relu3 -> conv3_bn (in-place)
I0301 23:00:29.008903 31437 net.cpp:97] Setting up relu3
I0301 23:00:29.008919 31437 net.cpp:104] Top shape: 100 128 19 19 (4620800)
I0301 23:00:29.008931 31437 layer_factory.hpp:78] Creating layer cccp3
I0301 23:00:29.008946 31437 net.cpp:68] Creating Layer cccp3
I0301 23:00:29.008958 31437 net.cpp:395] cccp3 <- conv3_bn
I0301 23:00:29.008975 31437 net.cpp:357] cccp3 -> cccp3
I0301 23:00:29.008991 31437 net.cpp:97] Setting up cccp3
I0301 23:00:29.009732 31437 net.cpp:104] Top shape: 100 128 19 19 (4620800)
I0301 23:00:29.009810 31437 layer_factory.hpp:78] Creating layer cccp3_bn
I0301 23:00:29.009848 31437 net.cpp:68] Creating Layer cccp3_bn
I0301 23:00:29.009876 31437 net.cpp:395] cccp3_bn <- cccp3
I0301 23:00:29.009923 31437 net.cpp:357] cccp3_bn -> cccp3_bn
I0301 23:00:29.009963 31437 net.cpp:97] Setting up cccp3_bn
I0301 23:00:29.010013 31437 net.cpp:104] Top shape: 100 128 19 19 (4620800)
I0301 23:00:29.010046 31437 layer_factory.hpp:78] Creating layer relu_cccp3
I0301 23:00:29.010074 31437 net.cpp:68] Creating Layer relu_cccp3
I0301 23:00:29.010105 31437 net.cpp:395] relu_cccp3 <- cccp3_bn
I0301 23:00:29.010133 31437 net.cpp:346] relu_cccp3 -> cccp3_bn (in-place)
I0301 23:00:29.010164 31437 net.cpp:97] Setting up relu_cccp3
I0301 23:00:29.010196 31437 net.cpp:104] Top shape: 100 128 19 19 (4620800)
I0301 23:00:29.010221 31437 layer_factory.hpp:78] Creating layer pool3
I0301 23:00:29.010249 31437 net.cpp:68] Creating Layer pool3
I0301 23:00:29.010320 31437 net.cpp:395] pool3 <- cccp3_bn
I0301 23:00:29.010354 31437 net.cpp:357] pool3 -> pool3
I0301 23:00:29.010383 31437 net.cpp:97] Setting up pool3
I0301 23:00:29.010421 31437 net.cpp:104] Top shape: 100 128 9 9 (1036800)
I0301 23:00:29.010447 31437 layer_factory.hpp:78] Creating layer fc4
I0301 23:00:29.010486 31437 net.cpp:68] Creating Layer fc4
I0301 23:00:29.010512 31437 net.cpp:395] fc4 <- pool3
I0301 23:00:29.010545 31437 net.cpp:357] fc4 -> fc4
I0301 23:00:29.010582 31437 net.cpp:97] Setting up fc4
I0301 23:00:29.069413 31437 net.cpp:104] Top shape: 100 512 1 1 (51200)
I0301 23:00:29.069475 31437 layer_factory.hpp:78] Creating layer relu4
I0301 23:00:29.069499 31437 net.cpp:68] Creating Layer relu4
I0301 23:00:29.069514 31437 net.cpp:395] relu4 <- fc4
I0301 23:00:29.069541 31437 net.cpp:346] relu4 -> fc4 (in-place)
I0301 23:00:29.069560 31437 net.cpp:97] Setting up relu4
I0301 23:00:29.069586 31437 net.cpp:104] Top shape: 100 512 1 1 (51200)
I0301 23:00:29.069598 31437 layer_factory.hpp:78] Creating layer drop4
I0301 23:00:29.069617 31437 net.cpp:68] Creating Layer drop4
I0301 23:00:29.069629 31437 net.cpp:395] drop4 <- fc4
I0301 23:00:29.069646 31437 net.cpp:346] drop4 -> fc4 (in-place)
I0301 23:00:29.069661 31437 net.cpp:97] Setting up drop4
I0301 23:00:29.069676 31437 net.cpp:104] Top shape: 100 512 1 1 (51200)
I0301 23:00:29.069689 31437 layer_factory.hpp:78] Creating layer fc5
I0301 23:00:29.069703 31437 net.cpp:68] Creating Layer fc5
I0301 23:00:29.069715 31437 net.cpp:395] fc5 <- fc4
I0301 23:00:29.069731 31437 net.cpp:357] fc5 -> fc5
I0301 23:00:29.069748 31437 net.cpp:97] Setting up fc5
I0301 23:00:29.072439 31437 net.cpp:104] Top shape: 100 512 1 1 (51200)
I0301 23:00:29.072465 31437 layer_factory.hpp:78] Creating layer relu5
I0301 23:00:29.072481 31437 net.cpp:68] Creating Layer relu5
I0301 23:00:29.072494 31437 net.cpp:395] relu5 <- fc5
I0301 23:00:29.072512 31437 net.cpp:346] relu5 -> fc5 (in-place)
I0301 23:00:29.072535 31437 net.cpp:97] Setting up relu5
I0301 23:00:29.072551 31437 net.cpp:104] Top shape: 100 512 1 1 (51200)
I0301 23:00:29.072563 31437 layer_factory.hpp:78] Creating layer drop5
I0301 23:00:29.072576 31437 net.cpp:68] Creating Layer drop5
I0301 23:00:29.072588 31437 net.cpp:395] drop5 <- fc5
I0301 23:00:29.072602 31437 net.cpp:346] drop5 -> fc5 (in-place)
I0301 23:00:29.072617 31437 net.cpp:97] Setting up drop5
I0301 23:00:29.072628 31437 net.cpp:104] Top shape: 100 512 1 1 (51200)
I0301 23:00:29.072640 31437 layer_factory.hpp:78] Creating layer fc6
I0301 23:00:29.072654 31437 net.cpp:68] Creating Layer fc6
I0301 23:00:29.072665 31437 net.cpp:395] fc6 <- fc5
I0301 23:00:29.072682 31437 net.cpp:357] fc6 -> fc6
I0301 23:00:29.072697 31437 net.cpp:97] Setting up fc6
I0301 23:00:29.073334 31437 net.cpp:104] Top shape: 100 121 1 1 (12100)
I0301 23:00:29.073356 31437 layer_factory.hpp:78] Creating layer loss
I0301 23:00:29.073374 31437 net.cpp:68] Creating Layer loss
I0301 23:00:29.073385 31437 net.cpp:395] loss <- fc6
I0301 23:00:29.073398 31437 net.cpp:395] loss <- label
I0301 23:00:29.073416 31437 net.cpp:357] loss -> loss
I0301 23:00:29.073433 31437 net.cpp:97] Setting up loss
I0301 23:00:29.073449 31437 layer_factory.hpp:78] Creating layer loss
I0301 23:00:29.073503 31437 net.cpp:104] Top shape: 1 1 1 1 (1)
I0301 23:00:29.073518 31437 net.cpp:110]     with loss weight 1
I0301 23:00:29.073565 31437 net.cpp:171] loss needs backward computation.
I0301 23:00:29.073578 31437 net.cpp:171] fc6 needs backward computation.
I0301 23:00:29.073590 31437 net.cpp:171] drop5 needs backward computation.
I0301 23:00:29.073601 31437 net.cpp:171] relu5 needs backward computation.
I0301 23:00:29.073611 31437 net.cpp:171] fc5 needs backward computation.
…
I0301 23:00:29.075040 31437 net.cpp:276] The NetState phase (1) differed from the phase (0) specified by a rule in layer data
I0301 23:00:29.075312 31437 net.cpp:39] Initializing net from parameters: 
name: "model4_bn"
layers {
  top: "data"
  top: "label"
  name: "data"
  type: DATA
  data_param {
    source: "/home/jaehyun/kaggle/nationalDataScienceBowl/data/typeE/val_lmdb"
    batch_size: 100
    backend: LMDB
  }
  include {
    phase: TEST
  }
  transform_param {
    scale: 0.00390625
    mirror: false
    mean_file: "/home/jaehyun/kaggle/nationalDataScienceBowl/data/typeE/train_mean.binaryproto"
  }
}
layers {
  bottom: "data"
  top: "conv1"
  name: "conv1"
  type: CONVOLUTION
  blobs_lr: 1
  blobs_lr: 2
  weight_decay: 1
  weight_decay: 0
  convolution_param {
    num_output: 256
    kernel_size: 4
    stride: 2
    weight_filler {
      type: "xavier"
    }
    bias_filler {
      type: "constant"
    }
  }
}
layers {
  bottom: "conv1"
  top: "conv1_bn"
  name: "conv1_bn"
  type: BN
  blobs_lr: 1
  blobs_lr: 1
  weight_decay: 0
  weight_decay: 0
  bn_param {
    scale_filler {
      type: "constant"
      value: 1
    }
    shift_filler {
      type: "constant"
      value: 0
    }
  }
}
layers {
  bottom: "conv1_bn"
  top: "conv1_bn"
  name: "relu1"
  type: RELU
  relu_param {
    negative_slope: 0.1
  }
}
layers {
  bottom: "conv1_bn"
  top: "cccp1"
  name: "cccp1"
  type: CONVOLUTION
  blobs_lr: 1
  blobs_lr: 2
  weight_decay: 1
  weight_decay: 0
  convolution_param {
    num_output: 256
    kernel_size: 1
    group: 1
    stride: 1
    weight_filler {
      type: "xavier"
    }
    bias_filler {
      type: "constant"
    }
  }
}
layers {
  bottom: "cccp1"
  top: "cccp1_bn"
  name: "cccp1_bn"
  type: BN
  blobs_lr: 1
  blobs_lr: 1
  weight_decay: 0
  weight_decay: 0
  bn_param {
    scale_filler {
      type: "constant"
      value: 1
    }
    shift_filler {
      type: "constant"
      value: 0
    }
  }
}
layers {
  bottom: "cccp1_bn"
  top: "cccp1_bn"
  name: "relu_cccp1"
  type: RELU
  relu_param {
    negative_slope: 0.1
  }
}
layers {
  bottom: "cccp1_bn"
  top: "pool1"
  name: "pool1"
  type: POOLING
  pooling_param {
    pool: MAX
    kernel_size: 3
    stride: 2
  }
}
layers {
  bottom: "pool1"
  top: "conv2"
  name: "conv2"
  type: CONVOLUTION
  blobs_lr: 1
  blobs_lr: 2
  weight_decay: 1
  weight_decay: 0
  convolution_param {
    num_output: 128
    kernel_size: 3
    weight_filler {
      type: "xavier"
    }
    bias_filler {
      type: "constant"
    }
  }
}
layers {
  bottom: "conv2"
  top: "conv2_bn"
  name: "conv2_bn"
  type: BN
  blobs_lr: 1
  blobs_lr: 1
  weight_decay: 0
  weight_decay: 0
  bn_param {
    scale_filler {
      type: "constant"
      value: 1
    }
    shift_filler {
      type: "constant"
      value: 0
    }
  }
}
layers {
  bottom: "conv2_bn"
  top: "conv2_bn"
  name: "relu2"
  type: RELU
  relu_param {
    negative_slope: 0.1
  }
}
layers {
  bottom: "conv2_bn"
  top: "cccp2"
  name: "cccp2"
  type: CONVOLUTION
  blobs_lr: 1
  blobs_lr: 2
  weight_decay: 1
  weight_decay: 0
  convolution_param {
    num_output: 128
    kernel_size: 1
    group: 1
    stride: 1
    weight_filler {
      type: "xavier"
    }
    bias_filler {
      type: "constant"
    }
  }
}
layers {
  bottom: "cccp2"
  top: "cccp2_bn"
  name: "cccp2_bn"
  type: BN
  blobs_lr: 1
  blobs_lr: 1
  weight_decay: 0
  weight_decay: 0
  bn_param {
    scale_filler {
      type: "constant"
      value: 1
    }
    shift_filler {
      type: "constant"
      value: 0
    }
  }
}
layers {
  bottom: "cccp2_bn"
  top: "cccp2_bn"
  name: "relu_cccp2"
  type: RELU
  relu_param {
    negative_slope: 0.1
  }
}
layers {
  bottom: "cccp2_bn"
  top: "conv3"
  name: "conv3"
  type: CONVOLUTION
  blobs_lr: 1
  blobs_lr: 2
  weight_decay: 1
  weight_decay: 0
  convolution_param {
    num_output: 128
    kernel_size: 3
    weight_filler {
      type: "xavier"
    }
    bias_filler {
      type: "constant"
    }
  }
}
layers {
  bottom: "conv3"
  top: "conv3_bn"
  name: "conv3_bn"
  type: BN
  blobs_lr: 1
  blobs_lr: 1
  weight_decay: 0
  weight_decay: 0
  bn_param {
    scale_filler {
      type: "constant"
      value: 1
    }
    shift_filler {
      type: "constant"
      value: 0
    }
  }
}
layers {
  bottom: "conv3_bn"
  top: "conv3_bn"
  name: "relu3"
  type: RELU
  relu_param {
    negative_slope: 0.1
  }
}
layers {
  bottom: "conv3_bn"
  top: "cccp3"
  name: "cccp3"
  type: CONVOLUTION
  blobs_lr: 1
  blobs_lr: 2
  weight_decay: 1
  weight_decay: 0
  convolution_param {
    num_output: 128
    kernel_size: 1
    group: 1
    stride: 1
    weight_filler {
      type: "xavier"
    }
    bias_filler {
      type: "constant"
    }
  }
}
layers {
  bottom: "cccp3"
  top: "cccp3_bn"
  name: "cccp3_bn"
  type: BN
  blobs_lr: 1
  blobs_lr: 1
  weight_decay: 0
  weight_decay: 0
  bn_param {
    scale_filler {
      type: "constant"
      value: 1
    }
    shift_filler {
      type: "constant"
      value: 0
    }
  }
}
layers {
  bottom: "cccp3_bn"
  top: "cccp3_bn"
  name: "relu_cccp3"
  type: RELU
  relu_param {
    negative_slope: 0.1
  }
}
layers {
  bottom: "cccp3_bn"
  top: "pool3"
  name: "pool3"
  type: POOLING
  pooling_param {
    pool: MAX
    kernel_size: 3
    stride: 2
  }
}
layers {
  bottom: "pool3"
  top: "fc4"
  name: "fc4"
  type: INNER_PRODUCT
  blobs_lr: 1
  blobs_lr: 2
  weight_decay: 1
  weight_decay: 0
  inner_product_param {
    num_output: 512
    weight_filler {
      type: "xavier"
    }
    bias_filler {
      type: "constant"
    }
  }
}
layers {
  bottom: "fc4"
  top: "fc4"
  name: "relu4"
  type: RELU
  relu_param {
    negative_slope: 0.1
  }
}
layers {
  bottom: "fc4"
  top: "fc4"
  name: "drop4"
  type: DROPOUT
  dropout_param {
    dropout_ratio: 0.5
  }
}
layers {
  bottom: "fc4"
  top: "fc5"
  name: "fc5"
  type: INNER_PRODUCT
  blobs_lr: 1
  blobs_lr: 2
  weight_decay: 1
  weight_decay: 0
  inner_product_param {
    num_output: 512
    weight_filler {
      type: "xavier"
    }
    bias_filler {
      type: "constant"
    }
  }
}
layers {
  bottom: "fc5"
  top: "fc5"
  name: "relu5"
  type: RELU
  relu_param {
    negative_slope: 0.1
  }
}
layers {
  bottom: "fc5"
  top: "fc5"
  name: "drop5"
  type: DROPOUT
  dropout_param {
    dropout_ratio: 0.5
  }
}
layers {
  bottom: "fc5"
  top: "fc6"
  name: "fc6"
  type: INNER_PRODUCT
  blobs_lr: 1
  blobs_lr: 2
  weight_decay: 1
  weight_decay: 0
  inner_product_param {
    num_output: 121
    weight_filler {
      type: "xavier"
    }
    bias_filler {
      type: "constant"
    }
  }
}
layers {
  bottom: "fc6"
  top: "prob"
  name: "prob"
  type: SOFTMAX
  include {
    phase: TEST
  }
}
layers {
  bottom: "prob"
  bottom: "label"
  top: "accuracy"
  name: "accuracy"
  type: ACCURACY
  accuracy_param {
    top_k: 1
  }
  include {
    phase: TEST
  }
}
layers {
  bottom: "fc6"
  bottom: "label"
  top: "loss"
  name: "loss"
  type: SOFTMAX_LOSS
}
state {
  phase: TEST
}
I0301 23:00:29.076902 31437 layer_factory.hpp:78] Creating layer data
I0301 23:00:29.076925 31437 data_transformer.cpp:24] Loading mean file from/home/jaehyun/kaggle/nationalDataScienceBowl/data/typeE/train_mean.binaryproto
I0301 23:00:29.077092 31437 net.cpp:68] Creating Layer data
I0301 23:00:29.077107 31437 net.cpp:357] data -> data
I0301 23:00:29.077131 31437 net.cpp:357] data -> label
I0301 23:00:29.077149 31437 net.cpp:97] Setting up data
I0301 23:00:29.077162 31437 data_layer.cpp:34] Opening dataset /home/jaehyun/kaggle/nationalDataScienceBowl/data/typeE/val_lmdb
I0301 23:00:29.077260 31437 data_layer.cpp:73] output data size: 100,1,96,96
I0301 23:00:29.078865 31437 net.cpp:104] Top shape: 100 1 96 96 (921600)
I0301 23:00:29.078888 31437 net.cpp:104] Top shape: 100 1 1 1 (100)
I0301 23:00:29.078902 31437 layer_factory.hpp:78] Creating layer label_data_1_split
I0301 23:00:29.078919 31437 net.cpp:68] Creating Layer label_data_1_split
I0301 23:00:29.078933 31437 net.cpp:395] label_data_1_split <- label
I0301 23:00:29.078949 31437 net.cpp:357] label_data_1_split -> label_data_1_split_0
I0301 23:00:29.078966 31437 net.cpp:357] label_data_1_split -> label_data_1_split_1
I0301 23:00:29.079133 31437 net.cpp:97] Setting up label_data_1_split
I0301 23:00:29.079169 31437 net.cpp:104] Top shape: 100 1 1 1 (100)
I0301 23:00:29.079200 31437 net.cpp:104] Top shape: 100 1 1 1 (100)
I0301 23:00:29.079215 31437 layer_factory.hpp:78] Creating layer conv1
I0301 23:00:29.079242 31437 net.cpp:68] Creating Layer conv1
I0301 23:00:29.079257 31437 net.cpp:395] conv1 <- data
I0301 23:00:29.079279 31437 net.cpp:357] conv1 -> conv1
I0301 23:00:29.079303 31437 net.cpp:97] Setting up conv1
I0301 23:00:29.079594 31437 net.cpp:104] Top shape: 100 256 47 47 (56550400)
I0301 23:00:29.079632 31437 layer_factory.hpp:78] Creating layer conv1_bn
I0301 23:00:29.079661 31437 net.cpp:68] Creating Layer conv1_bn
I0301 23:00:29.079676 31437 net.cpp:395] conv1_bn <- conv1
I0301 23:00:29.079696 31437 net.cpp:357] conv1_bn -> conv1_bn
I0301 23:00:29.079718 31437 net.cpp:97] Setting up conv1_bn
I0301 23:00:29.079764 31437 net.cpp:104] Top shape: 100 256 47 47 (56550400)
I0301 23:00:29.079789 31437 layer_factory.hpp:78] Creating layer relu1
I0301 23:00:29.079813 31437 net.cpp:68] Creating Layer relu1
I0301 23:00:29.079826 31437 net.cpp:395] relu1 <- conv1_bn
I0301 23:00:29.079843 31437 net.cpp:346] relu1 -> conv1_bn (in-place)
I0301 23:00:29.079862 31437 net.cpp:97] Setting up relu1
I0301 23:00:29.079884 31437 net.cpp:104] Top shape: 100 256 47 47 (56550400)
I0301 23:00:29.079898 31437 layer_factory.hpp:78] Creating layer cccp1
I0301 23:00:29.079926 31437 net.cpp:68] Creating Layer cccp1
I0301 23:00:29.079939 31437 net.cpp:395] cccp1 <- conv1_bn
I0301 23:00:29.079958 31437 net.cpp:357] cccp1 -> cccp1
I0301 23:00:29.079977 31437 net.cpp:97] Setting up cccp1
I0301 23:00:29.081392 31437 net.cpp:104] Top shape: 100 256 47 47 (56550400)
I0301 23:00:29.081490 31437 layer_factory.hpp:78] Creating layer cccp1_bn
I0301 23:00:29.081519 31437 net.cpp:68] Creating Layer cccp1_bn
I0301 23:00:29.081533 31437 net.cpp:395] cccp1_bn <- cccp1
I0301 23:00:29.081554 31437 net.cpp:357] cccp1_bn -> cccp1_bn
I0301 23:00:29.081574 31437 net.cpp:97] Setting up cccp1_bn
I0301 23:00:29.081614 31437 net.cpp:104] Top shape: 100 256 47 47 (56550400)
I0301 23:00:29.081632 31437 layer_factory.hpp:78] Creating layer relu_cccp1
I0301 23:00:29.081648 31437 net.cpp:68] Creating Layer relu_cccp1
I0301 23:00:29.081660 31437 net.cpp:395] relu_cccp1 <- cccp1_bn
I0301 23:00:29.081681 31437 net.cpp:346] relu_cccp1 -> cccp1_bn (in-place)
I0301 23:00:29.081696 31437 net.cpp:97] Setting up relu_cccp1
I0301 23:00:29.081717 31437 net.cpp:104] Top shape: 100 256 47 47 (56550400)
I0301 23:00:29.081732 31437 layer_factory.hpp:78] Creating layer pool1
I0301 23:00:29.081751 31437 net.cpp:68] Creating Layer pool1
I0301 23:00:29.081764 31437 net.cpp:395] pool1 <- cccp1_bn
I0301 23:00:29.081785 31437 net.cpp:357] pool1 -> pool1
I0301 23:00:29.081804 31437 net.cpp:97] Setting up pool1
I0301 23:00:29.081850 31437 net.cpp:104] Top shape: 100 256 23 23 (13542400)
I0301 23:00:29.081863 31437 layer_factory.hpp:78] Creating layer conv2
I0301 23:00:29.081881 31437 net.cpp:68] Creating Layer conv2
I0301 23:00:29.081894 31437 net.cpp:395] conv2 <- pool1
I0301 23:00:29.081915 31437 net.cpp:357] conv2 -> conv2
I0301 23:00:29.081934 31437 net.cpp:97] Setting up conv2
I0301 23:00:29.087579 31437 net.cpp:104] Top shape: 100 128 21 21 (5644800)
I0301 23:00:29.087636 31437 layer_factory.hpp:78] Creating layer conv2_bn
I0301 23:00:29.087672 31437 net.cpp:68] Creating Layer conv2_bn
I0301 23:00:29.087698 31437 net.cpp:395] conv2_bn <- conv2
I0301 23:00:29.087730 31437 net.cpp:357] conv2_bn -> conv2_bn
I0301 23:00:29.087761 31437 net.cpp:97] Setting up conv2_bn
I0301 23:00:29.087800 31437 net.cpp:104] Top shape: 100 128 21 21 (5644800)
I0301 23:00:29.087836 31437 layer_factory.hpp:78] Creating layer relu2
I0301 23:00:29.087863 31437 net.cpp:68] Creating Layer relu2
I0301 23:00:29.087885 31437 net.cpp:395] relu2 <- conv2_bn
I0301 23:00:29.087909 31437 net.cpp:346] relu2 -> conv2_bn (in-place)
I0301 23:00:29.087935 31437 net.cpp:97] Setting up relu2
I0301 23:00:29.087965 31437 net.cpp:104] Top shape: 100 128 21 21 (5644800)
I0301 23:00:29.087986 31437 layer_factory.hpp:78] Creating layer cccp2
I0301 23:00:29.088019 31437 net.cpp:68] Creating Layer cccp2
I0301 23:00:29.088047 31437 net.cpp:395] cccp2 <- conv2_bn
I0301 23:00:29.088101 31437 net.cpp:357] cccp2 -> cccp2
I0301 23:00:29.088131 31437 net.cpp:97] Setting up cccp2
I0301 23:00:29.088403 31437 net.cpp:104] Top shape: 100 128 21 21 (5644800)
I0301 23:00:29.088425 31437 layer_factory.hpp:78] Creating layer cccp2_bn
I0301 23:00:29.088446 31437 net.cpp:68] Creating Layer cccp2_bn
I0301 23:00:29.088460 31437 net.cpp:395] cccp2_bn <- cccp2
I0301 23:00:29.088474 31437 net.cpp:357] cccp2_bn -> cccp2_bn
I0301 23:00:29.088490 31437 net.cpp:97] Setting up cccp2_bn
I0301 23:00:29.088512 31437 net.cpp:104] Top shape: 100 128 21 21 (5644800)
I0301 23:00:29.088528 31437 layer_factory.hpp:78] Creating layer relu_cccp2
I0301 23:00:29.088546 31437 net.cpp:68] Creating Layer relu_cccp2
I0301 23:00:29.088557 31437 net.cpp:395] relu_cccp2 <- cccp2_bn
I0301 23:00:29.088572 31437 net.cpp:346] relu_cccp2 -> cccp2_bn (in-place)
I0301 23:00:29.088587 31437 net.cpp:97] Setting up relu_cccp2
I0301 23:00:29.088601 31437 net.cpp:104] Top shape: 100 128 21 21 (5644800)
I0301 23:00:29.088613 31437 layer_factory.hpp:78] Creating layer conv3
I0301 23:00:29.088632 31437 net.cpp:68] Creating Layer conv3
I0301 23:00:29.088646 31437 net.cpp:395] conv3 <- cccp2_bn
I0301 23:00:29.088660 31437 net.cpp:357] conv3 -> conv3
I0301 23:00:29.088675 31437 net.cpp:97] Setting up conv3
I0301 23:00:29.090512 31437 net.cpp:104] Top shape: 100 128 19 19 (4620800)
I0301 23:00:29.090541 31437 layer_factory.hpp:78] Creating layer conv3_bn
I0301 23:00:29.090565 31437 net.cpp:68] Creating Layer conv3_bn
I0301 23:00:29.090607 31437 net.cpp:395] conv3_bn <- conv3
I0301 23:00:29.090627 31437 net.cpp:357] conv3_bn -> conv3_bn
I0301 23:00:29.090646 31437 net.cpp:97] Setting up conv3_bn
I0301 23:00:29.090668 31437 net.cpp:104] Top shape: 100 128 19 19 (4620800)
I0301 23:00:29.090685 31437 layer_factory.hpp:78] Creating layer relu3
I0301 23:00:29.090700 31437 net.cpp:68] Creating Layer relu3
I0301 23:00:29.090713 31437 net.cpp:395] relu3 <- conv3_bn
I0301 23:00:29.090730 31437 net.cpp:346] relu3 -> conv3_bn (in-place)
I0301 23:00:29.090745 31437 net.cpp:97] Setting up relu3
I0301 23:00:29.090761 31437 net.cpp:104] Top shape: 100 128 19 19 (4620800)
I0301 23:00:29.090775 31437 layer_factory.hpp:78] Creating layer cccp3
I0301 23:00:29.090790 31437 net.cpp:68] Creating Layer cccp3
I0301 23:00:29.090802 31437 net.cpp:395] cccp3 <- conv3_bn
I0301 23:00:29.090819 31437 net.cpp:357] cccp3 -> cccp3
I0301 23:00:29.090834 31437 net.cpp:97] Setting up cccp3
I0301 23:00:29.091094 31437 net.cpp:104] Top shape: 100 128 19 19 (4620800)
I0301 23:00:29.091115 31437 layer_factory.hpp:78] Creating layer cccp3_bn
I0301 23:00:29.091138 31437 net.cpp:68] Creating Layer cccp3_bn
I0301 23:00:29.091152 31437 net.cpp:395] cccp3_bn <- cccp3
I0301 23:00:29.091167 31437 net.cpp:357] cccp3_bn -> cccp3_bn
I0301 23:00:29.091188 31437 net.cpp:97] Setting up cccp3_bn
I0301 23:00:29.091212 31437 net.cpp:104] Top shape: 100 128 19 19 (4620800)
I0301 23:00:29.091228 31437 layer_factory.hpp:78] Creating layer relu_cccp3
I0301 23:00:29.091243 31437 net.cpp:68] Creating Layer relu_cccp3
I0301 23:00:29.091255 31437 net.cpp:395] relu_cccp3 <- cccp3_bn
I0301 23:00:29.091269 31437 net.cpp:346] relu_cccp3 -> cccp3_bn (in-place)
I0301 23:00:29.091284 31437 net.cpp:97] Setting up relu_cccp3
I0301 23:00:29.091298 31437 net.cpp:104] Top shape: 100 128 19 19 (4620800)
I0301 23:00:29.091312 31437 layer_factory.hpp:78] Creating layer pool3
I0301 23:00:29.091330 31437 net.cpp:68] Creating Layer pool3
I0301 23:00:29.091342 31437 net.cpp:395] pool3 <- cccp3_bn
I0301 23:00:29.091356 31437 net.cpp:357] pool3 -> pool3
I0301 23:00:29.091372 31437 net.cpp:97] Setting up pool3
I0301 23:00:29.091387 31437 net.cpp:104] Top shape: 100 128 9 9 (1036800)
I0301 23:00:29.091400 31437 layer_factory.hpp:78] Creating layer fc4
I0301 23:00:29.091420 31437 net.cpp:68] Creating Layer fc4
I0301 23:00:29.091434 31437 net.cpp:395] fc4 <- pool3
I0301 23:00:29.091449 31437 net.cpp:357] fc4 -> fc4
I0301 23:00:29.091464 31437 net.cpp:97] Setting up fc4
I0301 23:00:29.142446 31437 net.cpp:104] Top shape: 100 512 1 1 (51200)
I0301 23:00:29.142524 31437 layer_factory.hpp:78] Creating layer relu4
I0301 23:00:29.142545 31437 net.cpp:68] Creating Layer relu4
I0301 23:00:29.142561 31437 net.cpp:395] relu4 <- fc4
I0301 23:00:29.142580 31437 net.cpp:346] relu4 -> fc4 (in-place)
I0301 23:00:29.142597 31437 net.cpp:97] Setting up relu4
I0301 23:00:29.142628 31437 net.cpp:104] Top shape: 100 512 1 1 (51200)
I0301 23:00:29.142642 31437 layer_factory.hpp:78] Creating layer drop4
I0301 23:00:29.142660 31437 net.cpp:68] Creating Layer drop4
I0301 23:00:29.142673 31437 net.cpp:395] drop4 <- fc4
I0301 23:00:29.142688 31437 net.cpp:346] drop4 -> fc4 (in-place)
I0301 23:00:29.142701 31437 net.cpp:97] Setting up drop4
I0301 23:00:29.142714 31437 net.cpp:104] Top shape: 100 512 1 1 (51200)
I0301 23:00:29.142726 31437 layer_factory.hpp:78] Creating layer fc5
I0301 23:00:29.142747 31437 net.cpp:68] Creating Layer fc5
I0301 23:00:29.142760 31437 net.cpp:395] fc5 <- fc4
I0301 23:00:29.142774 31437 net.cpp:357] fc5 -> fc5
I0301 23:00:29.142791 31437 net.cpp:97] Setting up fc5
I0301 23:00:29.145527 31437 net.cpp:104] Top shape: 100 512 1 1 (51200)
I0301 23:00:29.145556 31437 layer_factory.hpp:78] Creating layer relu5
I0301 23:00:29.145573 31437 net.cpp:68] Creating Layer relu5
I0301 23:00:29.145586 31437 net.cpp:395] relu5 <- fc5
I0301 23:00:29.145599 31437 net.cpp:346] relu5 -> fc5 (in-place)
I0301 23:00:29.145614 31437 net.cpp:97] Setting up relu5
I0301 23:00:29.145630 31437 net.cpp:104] Top shape: 100 512 1 1 (51200)
I0301 23:00:29.145700 31437 layer_factory.hpp:78] Creating layer drop5
I0301 23:00:29.145716 31437 net.cpp:68] Creating Layer drop5
I0301 23:00:29.145728 31437 net.cpp:395] drop5 <- fc5
I0301 23:00:29.145746 31437 net.cpp:346] drop5 -> fc5 (in-place)
I0301 23:00:29.145761 31437 net.cpp:97] Setting up drop5
I0301 23:00:29.145773 31437 net.cpp:104] Top shape: 100 512 1 1 (51200)
I0301 23:00:29.145786 31437 layer_factory.hpp:78] Creating layer fc6
I0301 23:00:29.145802 31437 net.cpp:68] Creating Layer fc6
I0301 23:00:29.145813 31437 net.cpp:395] fc6 <- fc5
I0301 23:00:29.145828 31437 net.cpp:357] fc6 -> fc6
I0301 23:00:29.145843 31437 net.cpp:97] Setting up fc6
I0301 23:00:29.146489 31437 net.cpp:104] Top shape: 100 121 1 1 (12100)
I0301 23:00:29.146514 31437 layer_factory.hpp:78] Creating layer fc6_fc6_0_split
I0301 23:00:29.146530 31437 net.cpp:68] Creating Layer fc6_fc6_0_split
I0301 23:00:29.146543 31437 net.cpp:395] fc6_fc6_0_split <- fc6
I0301 23:00:29.146555 31437 net.cpp:357] fc6_fc6_0_split -> fc6_fc6_0_split_0
I0301 23:00:29.146571 31437 net.cpp:357] fc6_fc6_0_split -> fc6_fc6_0_split_1
I0301 23:00:29.146589 31437 net.cpp:97] Setting up fc6_fc6_0_split
I0301 23:00:29.146602 31437 net.cpp:104] Top shape: 100 121 1 1 (12100)
I0301 23:00:29.146613 31437 net.cpp:104] Top shape: 100 121 1 1 (12100)
I0301 23:00:29.146625 31437 layer_factory.hpp:78] Creating layer prob
I0301 23:00:29.146644 31437 net.cpp:68] Creating Layer prob
I0301 23:00:29.146656 31437 net.cpp:395] prob <- fc6_fc6_0_split_0
I0301 23:00:29.146672 31437 net.cpp:357] prob -> prob
I0301 23:00:29.146687 31437 net.cpp:97] Setting up prob
I0301 23:00:29.146703 31437 net.cpp:104] Top shape: 100 121 1 1 (12100)
I0301 23:00:29.146716 31437 layer_factory.hpp:78] Creating layer accuracy
I0301 23:00:29.146740 31437 net.cpp:68] Creating Layer accuracy
I0301 23:00:29.146754 31437 net.cpp:395] accuracy <- prob
I0301 23:00:29.146767 31437 net.cpp:395] accuracy <- label_data_1_split_0
I0301 23:00:29.146781 31437 net.cpp:357] accuracy -> accuracy
I0301 23:00:29.146797 31437 net.cpp:97] Setting up accuracy
I0301 23:00:29.146813 31437 net.cpp:104] Top shape: 1 1 1 1 (1)
I0301 23:00:29.146826 31437 layer_factory.hpp:78] Creating layer loss
I0301 23:00:29.146848 31437 net.cpp:68] Creating Layer loss
I0301 23:00:29.146862 31437 net.cpp:395] loss <- fc6_fc6_0_split_1
I0301 23:00:29.146874 31437 net.cpp:395] loss <- label_data_1_split_1
I0301 23:00:29.146888 31437 net.cpp:357] loss -> loss
I0301 23:00:29.146904 31437 net.cpp:97] Setting up loss
I0301 23:00:29.146919 31437 layer_factory.hpp:78] Creating layer loss
I0301 23:00:29.146971 31437 net.cpp:104] Top shape: 1 1 1 1 (1)
I0301 23:00:29.146987 31437 net.cpp:110]     with loss weight 1
I0301 23:00:29.147013 31437 net.cpp:171] loss needs backward computation.
I0301 23:00:29.147025 31437 net.cpp:173] accuracy does not need backward computation.
I0301 23:00:29.147038 31437 net.cpp:173] prob does not need backward computation.
I0301 23:00:29.147049 31437 net.cpp:171] fc6_fc6_0_split needs backward computation.
…
