…
  transform_param {
    mirror: true
    mean_file: "/media/data/kaggle/nationalDataScienceBowl/data/typeF/train_mean.binaryproto"
    affine_param {
      x_stretch_unirnd_range: 0.01
      y_stretch_unirnd_range: 0.01
      rotation_unirnd_range: 180
      max_translation: 5
      background_color: 255
    }
  }
  image_data_affine_param {
    source: "/media/data/kaggle/nationalDataScienceBowl/data/typeF/train.txt"
    scale: 0.00390625
    batch_size: 128
    shuffle: true
    new_size: 96
    is_color: false
    root_folder: "/media/data/kaggle/nationalDataScienceBowl/data/typeF/"
  }
}
layers {
  bottom: "data"
  top: "conv1"
  name: "conv1"
  type: CONVOLUTION
  blobs_lr: 1
  blobs_lr: 2
  weight_decay: 1
  weight_decay: 0
  convolution_param {
    num_output: 256
    kernel_size: 4
    stride: 2
    weight_filler {
      type: "xavier"
    }
    bias_filler {
      type: "constant"
    }
  }
}
layers {
  bottom: "conv1"
  top: "conv1_bn"
  name: "conv1_bn"
  type: BN
  blobs_lr: 1
  blobs_lr: 1
  weight_decay: 0
  weight_decay: 0
  bn_param {
    scale_filler {
      type: "constant"
      value: 1
    }
    shift_filler {
      type: "constant"
      value: 0
    }
  }
}
layers {
  bottom: "conv1_bn"
  top: "conv1_bn"
  name: "relu1"
  type: RELU
  relu_param {
    negative_slope: 0.1
  }
}
layers {
  bottom: "conv1_bn"
  top: "cccp1"
  name: "cccp1"
  type: CONVOLUTION
  blobs_lr: 1
  blobs_lr: 2
  weight_decay: 1
  weight_decay: 0
  convolution_param {
    num_output: 256
    kernel_size: 1
    group: 1
    stride: 1
    weight_filler {
      type: "xavier"
    }
    bias_filler {
      type: "constant"
    }
  }
}
layers {
  bottom: "cccp1"
  top: "cccp1_bn"
  name: "cccp1_bn"
  type: BN
  blobs_lr: 1
  blobs_lr: 1
  weight_decay: 0
  weight_decay: 0
  bn_param {
    scale_filler {
      type: "constant"
      value: 1
    }
    shift_filler {
      type: "constant"
      value: 0
    }
  }
}
layers {
  bottom: "cccp1_bn"
  top: "cccp1_bn"
  name: "relu_cccp1"
  type: RELU
  relu_param {
    negative_slope: 0.1
  }
}
layers {
  bottom: "cccp1_bn"
  top: "pool1"
  name: "pool1"
  type: POOLING
  pooling_param {
    pool: MAX
    kernel_size: 3
    stride: 2
  }
}
layers {
  bottom: "pool1"
  top: "conv2"
  name: "conv2"
  type: CONVOLUTION
  blobs_lr: 1
  blobs_lr: 2
  weight_decay: 1
  weight_decay: 0
  convolution_param {
    num_output: 256
    kernel_size: 3
    weight_filler {
      type: "xavier"
    }
    bias_filler {
      type: "constant"
    }
  }
}
layers {
  bottom: "conv2"
  top: "conv2_bn"
  name: "conv2_bn"
  type: BN
  blobs_lr: 1
  blobs_lr: 1
  weight_decay: 0
  weight_decay: 0
  bn_param {
    scale_filler {
      type: "constant"
      value: 1
    }
    shift_filler {
      type: "constant"
      value: 0
    }
  }
}
layers {
  bottom: "conv2_bn"
  top: "conv2_bn"
  name: "relu2"
  type: RELU
  relu_param {
    negative_slope: 0.1
  }
}
layers {
  bottom: "conv2_bn"
  top: "cccp2"
  name: "cccp2"
  type: CONVOLUTION
  blobs_lr: 1
  blobs_lr: 2
  weight_decay: 1
  weight_decay: 0
  convolution_param {
    num_output: 256
    kernel_size: 1
    group: 1
    stride: 1
    weight_filler {
      type: "xavier"
    }
    bias_filler {
      type: "constant"
    }
  }
}
layers {
  bottom: "cccp2"
  top: "cccp2_bn"
  name: "cccp2_bn"
  type: BN
  blobs_lr: 1
  blobs_lr: 1
  weight_decay: 0
  weight_decay: 0
  bn_param {
    scale_filler {
      type: "constant"
      value: 1
    }
    shift_filler {
      type: "constant"
      value: 0
    }
  }
}
layers {
  bottom: "cccp2_bn"
  top: "cccp2_bn"
  name: "relu_cccp2"
  type: RELU
  relu_param {
    negative_slope: 0.1
  }
}
layers {
  bottom: "cccp2_bn"
  top: "conv3"
  name: "conv3"
  type: CONVOLUTION
  blobs_lr: 1
  blobs_lr: 2
  weight_decay: 1
  weight_decay: 0
  convolution_param {
    num_output: 256
    kernel_size: 3
    weight_filler {
      type: "xavier"
    }
    bias_filler {
      type: "constant"
    }
  }
}
layers {
  bottom: "conv3"
  top: "conv3_bn"
  name: "conv3_bn"
  type: BN
  blobs_lr: 1
  blobs_lr: 1
  weight_decay: 0
  weight_decay: 0
  bn_param {
    scale_filler {
      type: "constant"
      value: 1
    }
    shift_filler {
      type: "constant"
      value: 0
    }
  }
}
layers {
  bottom: "conv3_bn"
  top: "conv3_bn"
  name: "relu3"
  type: RELU
  relu_param {
    negative_slope: 0.1
  }
}
layers {
  bottom: "conv3_bn"
  top: "cccp3"
  name: "cccp3"
  type: CONVOLUTION
  blobs_lr: 1
  blobs_lr: 2
  weight_decay: 1
  weight_decay: 0
  convolution_param {
    num_output: 256
    kernel_size: 1
    group: 1
    stride: 1
    weight_filler {
      type: "xavier"
    }
    bias_filler {
      type: "constant"
    }
  }
}
layers {
  bottom: "cccp3"
  top: "cccp3_bn"
  name: "cccp3_bn"
  type: BN
  blobs_lr: 1
  blobs_lr: 1
  weight_decay: 0
  weight_decay: 0
  bn_param {
    scale_filler {
      type: "constant"
      value: 1
    }
    shift_filler {
      type: "constant"
      value: 0
    }
  }
}
layers {
  bottom: "cccp3_bn"
  top: "cccp3_bn"
  name: "relu_cccp3"
  type: RELU
  relu_param {
    negative_slope: 0.1
  }
}
layers {
  bottom: "cccp3_bn"
  top: "pool3"
  name: "pool3"
  type: POOLING
  pooling_param {
    pool: MAX
    kernel_size: 3
    stride: 2
  }
}
layers {
  bottom: "pool3"
  top: "fc4"
  name: "fc4"
  type: INNER_PRODUCT
  blobs_lr: 1
  blobs_lr: 2
  weight_decay: 1
  weight_decay: 0
  inner_product_param {
    num_output: 512
    weight_filler {
      type: "xavier"
    }
    bias_filler {
      type: "constant"
    }
  }
}
layers {
  bottom: "fc4"
  top: "fc4"
  name: "relu4"
  type: RELU
  relu_param {
    negative_slope: 0.1
  }
}
layers {
  bottom: "fc4"
  top: "fc4"
  name: "drop4"
  type: DROPOUT
  dropout_param {
    dropout_ratio: 0.5
  }
}
layers {
  bottom: "fc4"
  top: "fc5"
  name: "fc5"
  type: INNER_PRODUCT
  blobs_lr: 1
  blobs_lr: 2
  weight_decay: 1
  weight_decay: 0
  inner_product_param {
    num_output: 512
    weight_filler {
      type: "xavier"
    }
    bias_filler {
      type: "constant"
    }
  }
}
layers {
  bottom: "fc5"
  top: "fc5"
  name: "relu5"
  type: RELU
  relu_param {
    negative_slope: 0.1
  }
}
layers {
  bottom: "fc5"
  top: "fc5"
  name: "drop5"
  type: DROPOUT
  dropout_param {
    dropout_ratio: 0.5
  }
}
layers {
  bottom: "fc5"
  top: "fc6"
  name: "fc6"
  type: INNER_PRODUCT
  blobs_lr: 1
  blobs_lr: 2
  weight_decay: 1
  weight_decay: 0
  inner_product_param {
    num_output: 121
    weight_filler {
      type: "xavier"
    }
    bias_filler {
      type: "constant"
    }
  }
}
layers {
  bottom: "fc6"
  bottom: "label"
  top: "loss"
  name: "loss"
  type: SOFTMAX_LOSS
}
state {
  phase: TRAIN
}
I0306 17:56:03.217561 18334 layer_factory.hpp:78] Creating layer data
I0306 17:56:03.217592 18334 data_transformer.cpp:24] Loading mean file from/media/data/kaggle/nationalDataScienceBowl/data/typeF/train_mean.binaryproto
I0306 17:56:03.218107 18334 net.cpp:68] Creating Layer data
I0306 17:56:03.218137 18334 net.cpp:357] data -> data
I0306 17:56:03.218169 18334 net.cpp:357] data -> label
I0306 17:56:03.218191 18334 net.cpp:97] Setting up data
I0306 17:56:03.218209 18334 image_data_affine_layer.cpp:37] Opening file /media/data/kaggle/nationalDataScienceBowl/data/typeF/train.txt
I0306 17:56:03.232126 18334 image_data_affine_layer.cpp:47] Shuffling data
I0306 17:56:03.235297 18334 image_data_affine_layer.cpp:52] A total of 27302 images.
I0306 17:56:03.246876 18334 image_data_affine_layer.cpp:81] output data size: 128,1,96,96
I0306 17:56:03.255951 18334 net.cpp:104] Top shape: 128 1 96 96 (1179648)
I0306 17:56:03.256042 18334 net.cpp:104] Top shape: 128 1 1 1 (128)
I0306 17:56:03.256081 18334 layer_factory.hpp:78] Creating layer conv1
I0306 17:56:03.256134 18334 net.cpp:68] Creating Layer conv1
I0306 17:56:03.256156 18334 net.cpp:395] conv1 <- data
I0306 17:56:03.256199 18334 net.cpp:357] conv1 -> conv1
I0306 17:56:03.256235 18334 net.cpp:97] Setting up conv1
I0306 17:56:03.283094 18334 net.cpp:104] Top shape: 128 256 47 47 (72384512)
I0306 17:56:03.283167 18334 layer_factory.hpp:78] Creating layer conv1_bn
I0306 17:56:03.283203 18334 net.cpp:68] Creating Layer conv1_bn
I0306 17:56:03.283218 18334 net.cpp:395] conv1_bn <- conv1
I0306 17:56:03.283239 18334 net.cpp:357] conv1_bn -> conv1_bn
I0306 17:56:03.283262 18334 net.cpp:97] Setting up conv1_bn
I0306 17:56:03.283299 18334 net.cpp:104] Top shape: 128 256 47 47 (72384512)
I0306 17:56:03.283318 18334 layer_factory.hpp:78] Creating layer relu1
I0306 17:56:03.283339 18334 net.cpp:68] Creating Layer relu1
I0306 17:56:03.283352 18334 net.cpp:395] relu1 <- conv1_bn
I0306 17:56:03.283366 18334 net.cpp:346] relu1 -> conv1_bn (in-place)
I0306 17:56:03.283380 18334 net.cpp:97] Setting up relu1
I0306 17:56:03.283401 18334 net.cpp:104] Top shape: 128 256 47 47 (72384512)
I0306 17:56:03.283413 18334 layer_factory.hpp:78] Creating layer cccp1
I0306 17:56:03.283432 18334 net.cpp:68] Creating Layer cccp1
I0306 17:56:03.283443 18334 net.cpp:395] cccp1 <- conv1_bn
I0306 17:56:03.283460 18334 net.cpp:357] cccp1 -> cccp1
I0306 17:56:03.283478 18334 net.cpp:97] Setting up cccp1
I0306 17:56:03.284293 18334 net.cpp:104] Top shape: 128 256 47 47 (72384512)
I0306 17:56:03.284322 18334 layer_factory.hpp:78] Creating layer cccp1_bn
I0306 17:56:03.284348 18334 net.cpp:68] Creating Layer cccp1_bn
I0306 17:56:03.284364 18334 net.cpp:395] cccp1_bn <- cccp1
I0306 17:56:03.284380 18334 net.cpp:357] cccp1_bn -> cccp1_bn
I0306 17:56:03.284399 18334 net.cpp:97] Setting up cccp1_bn
I0306 17:56:03.284433 18334 net.cpp:104] Top shape: 128 256 47 47 (72384512)
I0306 17:56:03.284451 18334 layer_factory.hpp:78] Creating layer relu_cccp1
I0306 17:56:03.284466 18334 net.cpp:68] Creating Layer relu_cccp1
I0306 17:56:03.284477 18334 net.cpp:395] relu_cccp1 <- cccp1_bn
I0306 17:56:03.284490 18334 net.cpp:346] relu_cccp1 -> cccp1_bn (in-place)
I0306 17:56:03.284505 18334 net.cpp:97] Setting up relu_cccp1
I0306 17:56:03.284521 18334 net.cpp:104] Top shape: 128 256 47 47 (72384512)
I0306 17:56:03.284533 18334 layer_factory.hpp:78] Creating layer pool1
I0306 17:56:03.284554 18334 net.cpp:68] Creating Layer pool1
I0306 17:56:03.284566 18334 net.cpp:395] pool1 <- cccp1_bn
I0306 17:56:03.284580 18334 net.cpp:357] pool1 -> pool1
I0306 17:56:03.284595 18334 net.cpp:97] Setting up pool1
I0306 17:56:03.284632 18334 net.cpp:104] Top shape: 128 256 23 23 (17334272)
I0306 17:56:03.284647 18334 layer_factory.hpp:78] Creating layer conv2
I0306 17:56:03.284668 18334 net.cpp:68] Creating Layer conv2
I0306 17:56:03.284683 18334 net.cpp:395] conv2 <- pool1
I0306 17:56:03.284703 18334 net.cpp:357] conv2 -> conv2
I0306 17:56:03.284718 18334 net.cpp:97] Setting up conv2
I0306 17:56:03.291303 18334 net.cpp:104] Top shape: 128 256 21 21 (14450688)
I0306 17:56:03.291344 18334 layer_factory.hpp:78] Creating layer conv2_bn
I0306 17:56:03.291365 18334 net.cpp:68] Creating Layer conv2_bn
I0306 17:56:03.291379 18334 net.cpp:395] conv2_bn <- conv2
I0306 17:56:03.291398 18334 net.cpp:357] conv2_bn -> conv2_bn
I0306 17:56:03.291416 18334 net.cpp:97] Setting up conv2_bn
I0306 17:56:03.291445 18334 net.cpp:104] Top shape: 128 256 21 21 (14450688)
I0306 17:56:03.291461 18334 layer_factory.hpp:78] Creating layer relu2
I0306 17:56:03.291477 18334 net.cpp:68] Creating Layer relu2
I0306 17:56:03.291488 18334 net.cpp:395] relu2 <- conv2_bn
I0306 17:56:03.291502 18334 net.cpp:346] relu2 -> conv2_bn (in-place)
I0306 17:56:03.291517 18334 net.cpp:97] Setting up relu2
I0306 17:56:03.291532 18334 net.cpp:104] Top shape: 128 256 21 21 (14450688)
I0306 17:56:03.291574 18334 layer_factory.hpp:78] Creating layer cccp2
I0306 17:56:03.291594 18334 net.cpp:68] Creating Layer cccp2
I0306 17:56:03.291605 18334 net.cpp:395] cccp2 <- conv2_bn
I0306 17:56:03.291620 18334 net.cpp:357] cccp2 -> cccp2
I0306 17:56:03.291635 18334 net.cpp:97] Setting up cccp2
I0306 17:56:03.292413 18334 net.cpp:104] Top shape: 128 256 21 21 (14450688)
I0306 17:56:03.292443 18334 layer_factory.hpp:78] Creating layer cccp2_bn
I0306 17:56:03.292459 18334 net.cpp:68] Creating Layer cccp2_bn
I0306 17:56:03.292472 18334 net.cpp:395] cccp2_bn <- cccp2
I0306 17:56:03.292489 18334 net.cpp:357] cccp2_bn -> cccp2_bn
I0306 17:56:03.292505 18334 net.cpp:97] Setting up cccp2_bn
I0306 17:56:03.292531 18334 net.cpp:104] Top shape: 128 256 21 21 (14450688)
I0306 17:56:03.292548 18334 layer_factory.hpp:78] Creating layer relu_cccp2
I0306 17:56:03.292563 18334 net.cpp:68] Creating Layer relu_cccp2
I0306 17:56:03.292575 18334 net.cpp:395] relu_cccp2 <- cccp2_bn
I0306 17:56:03.292603 18334 net.cpp:346] relu_cccp2 -> cccp2_bn (in-place)
I0306 17:56:03.292616 18334 net.cpp:97] Setting up relu_cccp2
I0306 17:56:03.292632 18334 net.cpp:104] Top shape: 128 256 21 21 (14450688)
I0306 17:56:03.292644 18334 layer_factory.hpp:78] Creating layer conv3
I0306 17:56:03.292662 18334 net.cpp:68] Creating Layer conv3
I0306 17:56:03.292675 18334 net.cpp:395] conv3 <- cccp2_bn
I0306 17:56:03.292690 18334 net.cpp:357] conv3 -> conv3
I0306 17:56:03.292706 18334 net.cpp:97] Setting up conv3
I0306 17:56:03.311857 18334 net.cpp:104] Top shape: 128 256 19 19 (11829248)
I0306 17:56:03.311923 18334 layer_factory.hpp:78] Creating layer conv3_bn
I0306 17:56:03.311951 18334 net.cpp:68] Creating Layer conv3_bn
I0306 17:56:03.311967 18334 net.cpp:395] conv3_bn <- conv3
I0306 17:56:03.311985 18334 net.cpp:357] conv3_bn -> conv3_bn
I0306 17:56:03.312013 18334 net.cpp:97] Setting up conv3_bn
I0306 17:56:03.312042 18334 net.cpp:104] Top shape: 128 256 19 19 (11829248)
I0306 17:56:03.312058 18334 layer_factory.hpp:78] Creating layer relu3
I0306 17:56:03.312078 18334 net.cpp:68] Creating Layer relu3
I0306 17:56:03.312090 18334 net.cpp:395] relu3 <- conv3_bn
I0306 17:56:03.312104 18334 net.cpp:346] relu3 -> conv3_bn (in-place)
I0306 17:56:03.312119 18334 net.cpp:97] Setting up relu3
I0306 17:56:03.312135 18334 net.cpp:104] Top shape: 128 256 19 19 (11829248)
I0306 17:56:03.312149 18334 layer_factory.hpp:78] Creating layer cccp3
I0306 17:56:03.312168 18334 net.cpp:68] Creating Layer cccp3
I0306 17:56:03.312181 18334 net.cpp:395] cccp3 <- conv3_bn
I0306 17:56:03.312196 18334 net.cpp:357] cccp3 -> cccp3
I0306 17:56:03.312211 18334 net.cpp:97] Setting up cccp3
I0306 17:56:03.313292 18334 net.cpp:104] Top shape: 128 256 19 19 (11829248)
I0306 17:56:03.313321 18334 layer_factory.hpp:78] Creating layer cccp3_bn
I0306 17:56:03.313341 18334 net.cpp:68] Creating Layer cccp3_bn
I0306 17:56:03.313354 18334 net.cpp:395] cccp3_bn <- cccp3
I0306 17:56:03.313369 18334 net.cpp:357] cccp3_bn -> cccp3_bn
I0306 17:56:03.313385 18334 net.cpp:97] Setting up cccp3_bn
I0306 17:56:03.313407 18334 net.cpp:104] Top shape: 128 256 19 19 (11829248)
I0306 17:56:03.313426 18334 layer_factory.hpp:78] Creating layer relu_cccp3
I0306 17:56:03.313441 18334 net.cpp:68] Creating Layer relu_cccp3
I0306 17:56:03.313452 18334 net.cpp:395] relu_cccp3 <- cccp3_bn
I0306 17:56:03.313467 18334 net.cpp:346] relu_cccp3 -> cccp3_bn (in-place)
I0306 17:56:03.313480 18334 net.cpp:97] Setting up relu_cccp3
I0306 17:56:03.313496 18334 net.cpp:104] Top shape: 128 256 19 19 (11829248)
I0306 17:56:03.313508 18334 layer_factory.hpp:78] Creating layer pool3
I0306 17:56:03.313524 18334 net.cpp:68] Creating Layer pool3
I0306 17:56:03.313536 18334 net.cpp:395] pool3 <- cccp3_bn
I0306 17:56:03.313554 18334 net.cpp:357] pool3 -> pool3
I0306 17:56:03.313570 18334 net.cpp:97] Setting up pool3
I0306 17:56:03.313588 18334 net.cpp:104] Top shape: 128 256 9 9 (2654208)
I0306 17:56:03.313601 18334 layer_factory.hpp:78] Creating layer fc4
I0306 17:56:03.313626 18334 net.cpp:68] Creating Layer fc4
I0306 17:56:03.313662 18334 net.cpp:395] fc4 <- pool3
I0306 17:56:03.313678 18334 net.cpp:357] fc4 -> fc4
I0306 17:56:03.313695 18334 net.cpp:97] Setting up fc4
I0306 17:56:03.472203 18334 net.cpp:104] Top shape: 128 512 1 1 (65536)
I0306 17:56:03.472262 18334 layer_factory.hpp:78] Creating layer relu4
I0306 17:56:03.472285 18334 net.cpp:68] Creating Layer relu4
I0306 17:56:03.472300 18334 net.cpp:395] relu4 <- fc4
I0306 17:56:03.472317 18334 net.cpp:346] relu4 -> fc4 (in-place)
I0306 17:56:03.472337 18334 net.cpp:97] Setting up relu4
I0306 17:56:03.472368 18334 net.cpp:104] Top shape: 128 512 1 1 (65536)
I0306 17:56:03.472380 18334 layer_factory.hpp:78] Creating layer drop4
I0306 17:56:03.472404 18334 net.cpp:68] Creating Layer drop4
I0306 17:56:03.472417 18334 net.cpp:395] drop4 <- fc4
I0306 17:56:03.472431 18334 net.cpp:346] drop4 -> fc4 (in-place)
I0306 17:56:03.472445 18334 net.cpp:97] Setting up drop4
I0306 17:56:03.472460 18334 net.cpp:104] Top shape: 128 512 1 1 (65536)
I0306 17:56:03.472472 18334 layer_factory.hpp:78] Creating layer fc5
I0306 17:56:03.472493 18334 net.cpp:68] Creating Layer fc5
I0306 17:56:03.472506 18334 net.cpp:395] fc5 <- fc4
I0306 17:56:03.472522 18334 net.cpp:357] fc5 -> fc5
I0306 17:56:03.472538 18334 net.cpp:97] Setting up fc5
I0306 17:56:03.475216 18334 net.cpp:104] Top shape: 128 512 1 1 (65536)
I0306 17:56:03.475244 18334 layer_factory.hpp:78] Creating layer relu5
I0306 17:56:03.475260 18334 net.cpp:68] Creating Layer relu5
I0306 17:56:03.475273 18334 net.cpp:395] relu5 <- fc5
I0306 17:56:03.475287 18334 net.cpp:346] relu5 -> fc5 (in-place)
I0306 17:56:03.475301 18334 net.cpp:97] Setting up relu5
I0306 17:56:03.475317 18334 net.cpp:104] Top shape: 128 512 1 1 (65536)
I0306 17:56:03.475329 18334 layer_factory.hpp:78] Creating layer drop5
I0306 17:56:03.475343 18334 net.cpp:68] Creating Layer drop5
I0306 17:56:03.475355 18334 net.cpp:395] drop5 <- fc5
I0306 17:56:03.475371 18334 net.cpp:346] drop5 -> fc5 (in-place)
I0306 17:56:03.475385 18334 net.cpp:97] Setting up drop5
I0306 17:56:03.475397 18334 net.cpp:104] Top shape: 128 512 1 1 (65536)
I0306 17:56:03.475409 18334 layer_factory.hpp:78] Creating layer fc6
I0306 17:56:03.475424 18334 net.cpp:68] Creating Layer fc6
I0306 17:56:03.475435 18334 net.cpp:395] fc6 <- fc5
I0306 17:56:03.475450 18334 net.cpp:357] fc6 -> fc6
I0306 17:56:03.475464 18334 net.cpp:97] Setting up fc6
I0306 17:56:03.476114 18334 net.cpp:104] Top shape: 128 121 1 1 (15488)
I0306 17:56:03.476140 18334 layer_factory.hpp:78] Creating layer loss
I0306 17:56:03.476157 18334 net.cpp:68] Creating Layer loss
I0306 17:56:03.476171 18334 net.cpp:395] loss <- fc6
I0306 17:56:03.476183 18334 net.cpp:395] loss <- label
I0306 17:56:03.476197 18334 net.cpp:357] loss -> loss
I0306 17:56:03.476214 18334 net.cpp:97] Setting up loss
I0306 17:56:03.476230 18334 layer_factory.hpp:78] Creating layer loss
I0306 17:56:03.476297 18334 net.cpp:104] Top shape: 1 1 1 1 (1)
I0306 17:56:03.476313 18334 net.cpp:110]     with loss weight 1
I0306 17:56:03.476366 18334 net.cpp:171] loss needs backward computation.
I0306 17:56:03.476378 18334 net.cpp:171] fc6 needs backward computation.
I0306 17:56:03.476389 18334 net.cpp:171] drop5 needs backward computation.
I0306 17:56:03.476400 18334 net.cpp:171] relu5 needs backward computation.
I0306 17:56:03.476410 18334 net.cpp:171] fc5 needs backward computation.
…
