…
  transform_param {
    mirror: true
    mean_file: "/media/data/kaggle/nationalDataScienceBowl/data/typeF/train_mean.binaryproto"
    affine_param {
      x_stretch_unirnd_range: 0.01
      y_stretch_unirnd_range: 0.01
      rotation_unirnd_range: 180
      max_translation: 5
      background_color: 255
    }
  }
  image_data_affine_param {
    source: "/media/data/kaggle/nationalDataScienceBowl/data/typeF/train.txt"
    scale: 0.00390625
    batch_size: 128
    shuffle: true
    new_size: 96
    is_color: false
    root_folder: "/media/data/kaggle/nationalDataScienceBowl/data/typeF/"
  }
}
layers {
  bottom: "data"
  top: "conv1"
  name: "conv1"
  type: CONVOLUTION
  blobs_lr: 1
  blobs_lr: 2
  weight_decay: 1
  weight_decay: 0
  convolution_param {
    num_output: 256
    kernel_size: 4
    stride: 2
    weight_filler {
      type: "xavier"
    }
    bias_filler {
      type: "constant"
    }
  }
}
layers {
  bottom: "conv1"
  top: "conv1_bn"
  name: "conv1_bn"
  type: BN
  blobs_lr: 1
  blobs_lr: 1
  weight_decay: 0
  weight_decay: 0
  bn_param {
    scale_filler {
      type: "constant"
      value: 1
    }
    shift_filler {
      type: "constant"
      value: 0
    }
  }
}
layers {
  bottom: "conv1_bn"
  top: "conv1_bn"
  name: "relu1"
  type: RELU
  relu_param {
    negative_slope: 0.1
  }
}
layers {
  bottom: "conv1_bn"
  top: "cccp1"
  name: "cccp1"
  type: CONVOLUTION
  blobs_lr: 1
  blobs_lr: 2
  weight_decay: 1
  weight_decay: 0
  convolution_param {
    num_output: 256
    kernel_size: 1
    group: 1
    stride: 1
    weight_filler {
      type: "xavier"
    }
    bias_filler {
      type: "constant"
    }
  }
}
layers {
  bottom: "cccp1"
  top: "cccp1_bn"
  name: "cccp1_bn"
  type: BN
  blobs_lr: 1
  blobs_lr: 1
  weight_decay: 0
  weight_decay: 0
  bn_param {
    scale_filler {
      type: "constant"
      value: 1
    }
    shift_filler {
      type: "constant"
      value: 0
    }
  }
}
layers {
  bottom: "cccp1_bn"
  top: "cccp1_bn"
  name: "relu_cccp1"
  type: RELU
  relu_param {
    negative_slope: 0.1
  }
}
layers {
  bottom: "cccp1_bn"
  top: "pool1"
  name: "pool1"
  type: POOLING
  pooling_param {
    pool: MAX
    kernel_size: 3
    stride: 2
  }
}
layers {
  bottom: "pool1"
  top: "conv2"
  name: "conv2"
  type: CONVOLUTION
  blobs_lr: 1
  blobs_lr: 2
  weight_decay: 1
  weight_decay: 0
  convolution_param {
    num_output: 256
    kernel_size: 3
    weight_filler {
      type: "xavier"
    }
    bias_filler {
      type: "constant"
    }
  }
}
layers {
  bottom: "conv2"
  top: "conv2_bn"
  name: "conv2_bn"
  type: BN
  blobs_lr: 1
  blobs_lr: 1
  weight_decay: 0
  weight_decay: 0
  bn_param {
    scale_filler {
      type: "constant"
      value: 1
    }
    shift_filler {
      type: "constant"
      value: 0
    }
  }
}
layers {
  bottom: "conv2_bn"
  top: "conv2_bn"
  name: "relu2"
  type: RELU
  relu_param {
    negative_slope: 0.1
  }
}
layers {
  bottom: "conv2_bn"
  top: "cccp2"
  name: "cccp2"
  type: CONVOLUTION
  blobs_lr: 1
  blobs_lr: 2
  weight_decay: 1
  weight_decay: 0
  convolution_param {
    num_output: 256
    kernel_size: 1
    group: 1
    stride: 1
    weight_filler {
      type: "xavier"
    }
    bias_filler {
      type: "constant"
    }
  }
}
layers {
  bottom: "cccp2"
  top: "cccp2_bn"
  name: "cccp2_bn"
  type: BN
  blobs_lr: 1
  blobs_lr: 1
  weight_decay: 0
  weight_decay: 0
  bn_param {
    scale_filler {
      type: "constant"
      value: 1
    }
    shift_filler {
      type: "constant"
      value: 0
    }
  }
}
layers {
  bottom: "cccp2_bn"
  top: "cccp2_bn"
  name: "relu_cccp2"
  type: RELU
  relu_param {
    negative_slope: 0.1
  }
}
layers {
  bottom: "cccp2_bn"
  top: "conv3"
  name: "conv3"
  type: CONVOLUTION
  blobs_lr: 1
  blobs_lr: 2
  weight_decay: 1
  weight_decay: 0
  convolution_param {
    num_output: 256
    kernel_size: 3
    weight_filler {
      type: "xavier"
    }
    bias_filler {
      type: "constant"
    }
  }
}
layers {
  bottom: "conv3"
  top: "conv3_bn"
  name: "conv3_bn"
  type: BN
  blobs_lr: 1
  blobs_lr: 1
  weight_decay: 0
  weight_decay: 0
  bn_param {
    scale_filler {
      type: "constant"
      value: 1
    }
    shift_filler {
      type: "constant"
      value: 0
    }
  }
}
layers {
  bottom: "conv3_bn"
  top: "conv3_bn"
  name: "relu3"
  type: RELU
  relu_param {
    negative_slope: 0.1
  }
}
layers {
  bottom: "conv3_bn"
  top: "cccp3"
  name: "cccp3"
  type: CONVOLUTION
  blobs_lr: 1
  blobs_lr: 2
  weight_decay: 1
  weight_decay: 0
  convolution_param {
    num_output: 256
    kernel_size: 1
    group: 1
    stride: 1
    weight_filler {
      type: "xavier"
    }
    bias_filler {
      type: "constant"
    }
  }
}
layers {
  bottom: "cccp3"
  top: "cccp3_bn"
  name: "cccp3_bn"
  type: BN
  blobs_lr: 1
  blobs_lr: 1
  weight_decay: 0
  weight_decay: 0
  bn_param {
    scale_filler {
      type: "constant"
      value: 1
    }
    shift_filler {
      type: "constant"
      value: 0
    }
  }
}
layers {
  bottom: "cccp3_bn"
  top: "cccp3_bn"
  name: "relu_cccp3"
  type: RELU
  relu_param {
    negative_slope: 0.1
  }
}
layers {
  bottom: "cccp3_bn"
  top: "pool3"
  name: "pool3"
  type: POOLING
  pooling_param {
    pool: MAX
    kernel_size: 3
    stride: 2
  }
}
layers {
  bottom: "pool3"
  top: "fc4"
  name: "fc4"
  type: INNER_PRODUCT
  blobs_lr: 1
  blobs_lr: 2
  weight_decay: 1
  weight_decay: 0
  inner_product_param {
    num_output: 512
    weight_filler {
      type: "xavier"
    }
    bias_filler {
      type: "constant"
    }
  }
}
layers {
  bottom: "fc4"
  top: "fc4"
  name: "relu4"
  type: RELU
  relu_param {
    negative_slope: 0.1
  }
}
layers {
  bottom: "fc4"
  top: "fc4"
  name: "drop4"
  type: DROPOUT
  dropout_param {
    dropout_ratio: 0.5
  }
}
layers {
  bottom: "fc4"
  top: "fc5"
  name: "fc5"
  type: INNER_PRODUCT
  blobs_lr: 1
  blobs_lr: 2
  weight_decay: 1
  weight_decay: 0
  inner_product_param {
    num_output: 512
    weight_filler {
      type: "xavier"
    }
    bias_filler {
      type: "constant"
    }
  }
}
layers {
  bottom: "fc5"
  top: "fc5"
  name: "relu5"
  type: RELU
  relu_param {
    negative_slope: 0.1
  }
}
layers {
  bottom: "fc5"
  top: "fc5"
  name: "drop5"
  type: DROPOUT
  dropout_param {
    dropout_ratio: 0.5
  }
}
layers {
  bottom: "fc5"
  top: "fc6"
  name: "fc6"
  type: INNER_PRODUCT
  blobs_lr: 1
  blobs_lr: 2
  weight_decay: 1
  weight_decay: 0
  inner_product_param {
    num_output: 121
    weight_filler {
      type: "xavier"
    }
    bias_filler {
      type: "constant"
    }
  }
}
layers {
  bottom: "fc6"
  bottom: "label"
  top: "loss"
  name: "loss"
  type: SOFTMAX_LOSS
}
state {
  phase: TRAIN
}
I0308 18:26:27.632190 15529 layer_factory.hpp:78] Creating layer data
I0308 18:26:27.632238 15529 data_transformer.cpp:24] Loading mean file from/media/data/kaggle/nationalDataScienceBowl/data/typeF/train_mean.binaryproto
I0308 18:26:27.632616 15529 net.cpp:68] Creating Layer data
I0308 18:26:27.632648 15529 net.cpp:357] data -> data
I0308 18:26:27.632689 15529 net.cpp:357] data -> label
I0308 18:26:27.632717 15529 net.cpp:97] Setting up data
I0308 18:26:27.632740 15529 image_data_affine_layer.cpp:37] Opening file /media/data/kaggle/nationalDataScienceBowl/data/typeF/train.txt
I0308 18:26:27.652209 15529 image_data_affine_layer.cpp:47] Shuffling data
I0308 18:26:27.654834 15529 image_data_affine_layer.cpp:52] A total of 27302 images.
I0308 18:26:27.656991 15529 image_data_affine_layer.cpp:81] output data size: 128,1,96,96
I0308 18:26:27.658948 15529 net.cpp:104] Top shape: 128 1 96 96 (1179648)
I0308 18:26:27.659003 15529 net.cpp:104] Top shape: 128 1 1 1 (128)
I0308 18:26:27.659019 15529 layer_factory.hpp:78] Creating layer conv1
I0308 18:26:27.659047 15529 net.cpp:68] Creating Layer conv1
I0308 18:26:27.659064 15529 net.cpp:395] conv1 <- data
I0308 18:26:27.659159 15529 net.cpp:357] conv1 -> conv1
I0308 18:26:27.659250 15529 net.cpp:97] Setting up conv1
I0308 18:26:27.694227 15529 net.cpp:104] Top shape: 128 256 47 47 (72384512)
I0308 18:26:27.694299 15529 layer_factory.hpp:78] Creating layer conv1_bn
I0308 18:26:27.694334 15529 net.cpp:68] Creating Layer conv1_bn
I0308 18:26:27.694351 15529 net.cpp:395] conv1_bn <- conv1
I0308 18:26:27.694370 15529 net.cpp:357] conv1_bn -> conv1_bn
I0308 18:26:27.694392 15529 net.cpp:97] Setting up conv1_bn
I0308 18:26:27.694440 15529 net.cpp:104] Top shape: 128 256 47 47 (72384512)
I0308 18:26:27.694463 15529 layer_factory.hpp:78] Creating layer relu1
I0308 18:26:27.694485 15529 net.cpp:68] Creating Layer relu1
I0308 18:26:27.694499 15529 net.cpp:395] relu1 <- conv1_bn
I0308 18:26:27.694514 15529 net.cpp:346] relu1 -> conv1_bn (in-place)
I0308 18:26:27.694530 15529 net.cpp:97] Setting up relu1
I0308 18:26:27.694550 15529 net.cpp:104] Top shape: 128 256 47 47 (72384512)
I0308 18:26:27.694563 15529 layer_factory.hpp:78] Creating layer cccp1
I0308 18:26:27.694582 15529 net.cpp:68] Creating Layer cccp1
I0308 18:26:27.694594 15529 net.cpp:395] cccp1 <- conv1_bn
I0308 18:26:27.694612 15529 net.cpp:357] cccp1 -> cccp1
I0308 18:26:27.694628 15529 net.cpp:97] Setting up cccp1
I0308 18:26:27.695452 15529 net.cpp:104] Top shape: 128 256 47 47 (72384512)
I0308 18:26:27.695480 15529 layer_factory.hpp:78] Creating layer cccp1_bn
I0308 18:26:27.695500 15529 net.cpp:68] Creating Layer cccp1_bn
I0308 18:26:27.695514 15529 net.cpp:395] cccp1_bn <- cccp1
I0308 18:26:27.695529 15529 net.cpp:357] cccp1_bn -> cccp1_bn
I0308 18:26:27.695550 15529 net.cpp:97] Setting up cccp1_bn
I0308 18:26:27.695585 15529 net.cpp:104] Top shape: 128 256 47 47 (72384512)
I0308 18:26:27.695601 15529 layer_factory.hpp:78] Creating layer relu_cccp1
I0308 18:26:27.695616 15529 net.cpp:68] Creating Layer relu_cccp1
I0308 18:26:27.695628 15529 net.cpp:395] relu_cccp1 <- cccp1_bn
I0308 18:26:27.695651 15529 net.cpp:346] relu_cccp1 -> cccp1_bn (in-place)
I0308 18:26:27.695665 15529 net.cpp:97] Setting up relu_cccp1
I0308 18:26:27.695680 15529 net.cpp:104] Top shape: 128 256 47 47 (72384512)
I0308 18:26:27.695693 15529 layer_factory.hpp:78] Creating layer pool1
I0308 18:26:27.695710 15529 net.cpp:68] Creating Layer pool1
I0308 18:26:27.695724 15529 net.cpp:395] pool1 <- cccp1_bn
I0308 18:26:27.695737 15529 net.cpp:357] pool1 -> pool1
I0308 18:26:27.695752 15529 net.cpp:97] Setting up pool1
I0308 18:26:27.695791 15529 net.cpp:104] Top shape: 128 256 23 23 (17334272)
I0308 18:26:27.695806 15529 layer_factory.hpp:78] Creating layer conv2
I0308 18:26:27.695827 15529 net.cpp:68] Creating Layer conv2
I0308 18:26:27.695839 15529 net.cpp:395] conv2 <- pool1
I0308 18:26:27.695857 15529 net.cpp:357] conv2 -> conv2
I0308 18:26:27.695873 15529 net.cpp:97] Setting up conv2
I0308 18:26:27.702461 15529 net.cpp:104] Top shape: 128 256 21 21 (14450688)
I0308 18:26:27.702493 15529 layer_factory.hpp:78] Creating layer conv2_bn
I0308 18:26:27.702514 15529 net.cpp:68] Creating Layer conv2_bn
I0308 18:26:27.702529 15529 net.cpp:395] conv2_bn <- conv2
I0308 18:26:27.702549 15529 net.cpp:357] conv2_bn -> conv2_bn
I0308 18:26:27.702568 15529 net.cpp:97] Setting up conv2_bn
I0308 18:26:27.702600 15529 net.cpp:104] Top shape: 128 256 21 21 (14450688)
I0308 18:26:27.702623 15529 layer_factory.hpp:78] Creating layer relu2
I0308 18:26:27.702641 15529 net.cpp:68] Creating Layer relu2
I0308 18:26:27.702652 15529 net.cpp:395] relu2 <- conv2_bn
I0308 18:26:27.702666 15529 net.cpp:346] relu2 -> conv2_bn (in-place)
I0308 18:26:27.702680 15529 net.cpp:97] Setting up relu2
I0308 18:26:27.702697 15529 net.cpp:104] Top shape: 128 256 21 21 (14450688)
I0308 18:26:27.702757 15529 layer_factory.hpp:78] Creating layer cccp2
I0308 18:26:27.702781 15529 net.cpp:68] Creating Layer cccp2
I0308 18:26:27.702793 15529 net.cpp:395] cccp2 <- conv2_bn
I0308 18:26:27.702807 15529 net.cpp:357] cccp2 -> cccp2
I0308 18:26:27.702823 15529 net.cpp:97] Setting up cccp2
I0308 18:26:27.703697 15529 net.cpp:104] Top shape: 128 256 21 21 (14450688)
I0308 18:26:27.703728 15529 layer_factory.hpp:78] Creating layer cccp2_bn
I0308 18:26:27.703745 15529 net.cpp:68] Creating Layer cccp2_bn
I0308 18:26:27.703758 15529 net.cpp:395] cccp2_bn <- cccp2
I0308 18:26:27.703778 15529 net.cpp:357] cccp2_bn -> cccp2_bn
I0308 18:26:27.703794 15529 net.cpp:97] Setting up cccp2_bn
I0308 18:26:27.703821 15529 net.cpp:104] Top shape: 128 256 21 21 (14450688)
I0308 18:26:27.703836 15529 layer_factory.hpp:78] Creating layer relu_cccp2
I0308 18:26:27.703851 15529 net.cpp:68] Creating Layer relu_cccp2
I0308 18:26:27.703862 15529 net.cpp:395] relu_cccp2 <- cccp2_bn
I0308 18:26:27.703876 15529 net.cpp:346] relu_cccp2 -> cccp2_bn (in-place)
I0308 18:26:27.703889 15529 net.cpp:97] Setting up relu_cccp2
I0308 18:26:27.703904 15529 net.cpp:104] Top shape: 128 256 21 21 (14450688)
I0308 18:26:27.703917 15529 layer_factory.hpp:78] Creating layer conv3
I0308 18:26:27.703935 15529 net.cpp:68] Creating Layer conv3
I0308 18:26:27.703948 15529 net.cpp:395] conv3 <- cccp2_bn
I0308 18:26:27.704141 15529 net.cpp:357] conv3 -> conv3
I0308 18:26:27.704164 15529 net.cpp:97] Setting up conv3
I0308 18:26:27.710907 15529 net.cpp:104] Top shape: 128 256 19 19 (11829248)
I0308 18:26:27.710942 15529 layer_factory.hpp:78] Creating layer conv3_bn
I0308 18:26:27.710963 15529 net.cpp:68] Creating Layer conv3_bn
I0308 18:26:27.710978 15529 net.cpp:395] conv3_bn <- conv3
I0308 18:26:27.710994 15529 net.cpp:357] conv3_bn -> conv3_bn
I0308 18:26:27.711014 15529 net.cpp:97] Setting up conv3_bn
I0308 18:26:27.711035 15529 net.cpp:104] Top shape: 128 256 19 19 (11829248)
I0308 18:26:27.711051 15529 layer_factory.hpp:78] Creating layer relu3
I0308 18:26:27.711067 15529 net.cpp:68] Creating Layer relu3
I0308 18:26:27.711079 15529 net.cpp:395] relu3 <- conv3_bn
I0308 18:26:27.711093 15529 net.cpp:346] relu3 -> conv3_bn (in-place)
I0308 18:26:27.711107 15529 net.cpp:97] Setting up relu3
I0308 18:26:27.711122 15529 net.cpp:104] Top shape: 128 256 19 19 (11829248)
I0308 18:26:27.711135 15529 layer_factory.hpp:78] Creating layer cccp3
I0308 18:26:27.711154 15529 net.cpp:68] Creating Layer cccp3
I0308 18:26:27.711168 15529 net.cpp:395] cccp3 <- conv3_bn
I0308 18:26:27.711182 15529 net.cpp:357] cccp3 -> cccp3
I0308 18:26:27.711197 15529 net.cpp:97] Setting up cccp3
I0308 18:26:27.712270 15529 net.cpp:104] Top shape: 128 256 19 19 (11829248)
I0308 18:26:27.712302 15529 layer_factory.hpp:78] Creating layer cccp3_bn
I0308 18:26:27.712319 15529 net.cpp:68] Creating Layer cccp3_bn
I0308 18:26:27.712333 15529 net.cpp:395] cccp3_bn <- cccp3
I0308 18:26:27.712352 15529 net.cpp:357] cccp3_bn -> cccp3_bn
I0308 18:26:27.712369 15529 net.cpp:97] Setting up cccp3_bn
I0308 18:26:27.712398 15529 net.cpp:104] Top shape: 128 256 19 19 (11829248)
I0308 18:26:27.712414 15529 layer_factory.hpp:78] Creating layer relu_cccp3
I0308 18:26:27.712429 15529 net.cpp:68] Creating Layer relu_cccp3
I0308 18:26:27.712440 15529 net.cpp:395] relu_cccp3 <- cccp3_bn
I0308 18:26:27.712453 15529 net.cpp:346] relu_cccp3 -> cccp3_bn (in-place)
I0308 18:26:27.712467 15529 net.cpp:97] Setting up relu_cccp3
I0308 18:26:27.712483 15529 net.cpp:104] Top shape: 128 256 19 19 (11829248)
I0308 18:26:27.712496 15529 layer_factory.hpp:78] Creating layer pool3
I0308 18:26:27.712512 15529 net.cpp:68] Creating Layer pool3
I0308 18:26:27.712525 15529 net.cpp:395] pool3 <- cccp3_bn
I0308 18:26:27.712543 15529 net.cpp:357] pool3 -> pool3
I0308 18:26:27.712558 15529 net.cpp:97] Setting up pool3
I0308 18:26:27.712575 15529 net.cpp:104] Top shape: 128 256 9 9 (2654208)
I0308 18:26:27.712592 15529 layer_factory.hpp:78] Creating layer fc4
I0308 18:26:27.712617 15529 net.cpp:68] Creating Layer fc4
I0308 18:26:27.712653 15529 net.cpp:395] fc4 <- pool3
I0308 18:26:27.712669 15529 net.cpp:357] fc4 -> fc4
I0308 18:26:27.712687 15529 net.cpp:97] Setting up fc4
I0308 18:26:27.819006 15529 net.cpp:104] Top shape: 128 512 1 1 (65536)
I0308 18:26:27.819085 15529 layer_factory.hpp:78] Creating layer relu4
I0308 18:26:27.819106 15529 net.cpp:68] Creating Layer relu4
I0308 18:26:27.819123 15529 net.cpp:395] relu4 <- fc4
I0308 18:26:27.819141 15529 net.cpp:346] relu4 -> fc4 (in-place)
I0308 18:26:27.819160 15529 net.cpp:97] Setting up relu4
I0308 18:26:27.819195 15529 net.cpp:104] Top shape: 128 512 1 1 (65536)
I0308 18:26:27.819207 15529 layer_factory.hpp:78] Creating layer drop4
I0308 18:26:27.819231 15529 net.cpp:68] Creating Layer drop4
I0308 18:26:27.819244 15529 net.cpp:395] drop4 <- fc4
I0308 18:26:27.819258 15529 net.cpp:346] drop4 -> fc4 (in-place)
I0308 18:26:27.819272 15529 net.cpp:97] Setting up drop4
I0308 18:26:27.819288 15529 net.cpp:104] Top shape: 128 512 1 1 (65536)
I0308 18:26:27.819300 15529 layer_factory.hpp:78] Creating layer fc5
I0308 18:26:27.819319 15529 net.cpp:68] Creating Layer fc5
I0308 18:26:27.819332 15529 net.cpp:395] fc5 <- fc4
I0308 18:26:27.819346 15529 net.cpp:357] fc5 -> fc5
I0308 18:26:27.819363 15529 net.cpp:97] Setting up fc5
I0308 18:26:27.822222 15529 net.cpp:104] Top shape: 128 512 1 1 (65536)
I0308 18:26:27.822252 15529 layer_factory.hpp:78] Creating layer relu5
I0308 18:26:27.822266 15529 net.cpp:68] Creating Layer relu5
I0308 18:26:27.822278 15529 net.cpp:395] relu5 <- fc5
I0308 18:26:27.822293 15529 net.cpp:346] relu5 -> fc5 (in-place)
I0308 18:26:27.822309 15529 net.cpp:97] Setting up relu5
I0308 18:26:27.822330 15529 net.cpp:104] Top shape: 128 512 1 1 (65536)
I0308 18:26:27.822342 15529 layer_factory.hpp:78] Creating layer drop5
I0308 18:26:27.822357 15529 net.cpp:68] Creating Layer drop5
I0308 18:26:27.822368 15529 net.cpp:395] drop5 <- fc5
I0308 18:26:27.822386 15529 net.cpp:346] drop5 -> fc5 (in-place)
I0308 18:26:27.822399 15529 net.cpp:97] Setting up drop5
I0308 18:26:27.822412 15529 net.cpp:104] Top shape: 128 512 1 1 (65536)
I0308 18:26:27.822423 15529 layer_factory.hpp:78] Creating layer fc6
I0308 18:26:27.822438 15529 net.cpp:68] Creating Layer fc6
I0308 18:26:27.822450 15529 net.cpp:395] fc6 <- fc5
I0308 18:26:27.822464 15529 net.cpp:357] fc6 -> fc6
I0308 18:26:27.822479 15529 net.cpp:97] Setting up fc6
I0308 18:26:27.823200 15529 net.cpp:104] Top shape: 128 121 1 1 (15488)
I0308 18:26:27.823227 15529 layer_factory.hpp:78] Creating layer loss
I0308 18:26:27.823246 15529 net.cpp:68] Creating Layer loss
I0308 18:26:27.823257 15529 net.cpp:395] loss <- fc6
I0308 18:26:27.823271 15529 net.cpp:395] loss <- label
I0308 18:26:27.823287 15529 net.cpp:357] loss -> loss
I0308 18:26:27.823305 15529 net.cpp:97] Setting up loss
I0308 18:26:27.823321 15529 layer_factory.hpp:78] Creating layer loss
I0308 18:26:27.823402 15529 net.cpp:104] Top shape: 1 1 1 1 (1)
I0308 18:26:27.823420 15529 net.cpp:110]     with loss weight 1
I0308 18:26:27.823472 15529 net.cpp:171] loss needs backward computation.
I0308 18:26:27.823485 15529 net.cpp:171] fc6 needs backward computation.
I0308 18:26:27.823498 15529 net.cpp:171] drop5 needs backward computation.
I0308 18:26:27.823508 15529 net.cpp:171] relu5 needs backward computation.
I0308 18:26:27.823519 15529 net.cpp:171] fc5 needs backward computation.
…
