…
  top: "label"
  name: "data"
  type: IMAGE_DATA_AFFINE
  transform_param {
    mirror: true
    mean_file: "/media/data/jhlim/kaggle_data/typeF/train_mean.binaryproto"
    affine_param {
      x_stretch_unirnd_range: 0.01
      y_stretch_unirnd_range: 0.01
      rotation_unirnd_range: 180
      max_translation: 5
      background_color: 255
    }
  }
  image_data_affine_param {
    source: "/media/data/jhlim/kaggle_data/typeF/train.txt"
    scale: 0.00390625
    batch_size: 128
    shuffle: true
    new_size: 96
    is_color: false
    root_folder: "/media/data/jhlim/kaggle_data/typeF/"
  }
}
layers {
  bottom: "data"
  top: "conv1"
  name: "conv1"
  type: CONVOLUTION
  blobs_lr: 1
  blobs_lr: 2
  weight_decay: 1
  weight_decay: 0
  convolution_param {
    num_output: 256
    kernel_size: 4
    stride: 2
    weight_filler {
      type: "xavier"
    }
    bias_filler {
      type: "constant"
    }
  }
}
layers {
  bottom: "conv1"
  top: "conv1_bn"
  name: "conv1_bn"
  type: BN
  blobs_lr: 1
  blobs_lr: 1
  weight_decay: 0
  weight_decay: 0
  bn_param {
    scale_filler {
      type: "constant"
      value: 1
    }
    shift_filler {
      type: "constant"
      value: 0
    }
  }
}
layers {
  bottom: "conv1_bn"
  top: "conv1_bn"
  name: "relu1"
  type: RELU
  relu_param {
    negative_slope: 0.1
  }
}
layers {
  bottom: "conv1_bn"
  top: "cccp1"
  name: "cccp1"
  type: CONVOLUTION
  blobs_lr: 1
  blobs_lr: 2
  weight_decay: 1
  weight_decay: 0
  convolution_param {
    num_output: 256
    kernel_size: 1
    group: 1
    stride: 1
    weight_filler {
      type: "xavier"
    }
    bias_filler {
      type: "constant"
    }
  }
}
layers {
  bottom: "cccp1"
  top: "cccp1_bn"
  name: "cccp1_bn"
  type: BN
  blobs_lr: 1
  blobs_lr: 1
  weight_decay: 0
  weight_decay: 0
  bn_param {
    scale_filler {
      type: "constant"
      value: 1
    }
    shift_filler {
      type: "constant"
      value: 0
    }
  }
}
layers {
  bottom: "cccp1_bn"
  top: "cccp1_bn"
  name: "relu_cccp1"
  type: RELU
  relu_param {
    negative_slope: 0.1
  }
}
layers {
  bottom: "cccp1_bn"
  top: "pool1"
  name: "pool1"
  type: POOLING
  pooling_param {
    pool: MAX
    kernel_size: 3
    stride: 2
  }
}
layers {
  bottom: "pool1"
  top: "conv2"
  name: "conv2"
  type: CONVOLUTION
  blobs_lr: 1
  blobs_lr: 2
  weight_decay: 1
  weight_decay: 0
  convolution_param {
    num_output: 256
    kernel_size: 3
    weight_filler {
      type: "xavier"
    }
    bias_filler {
      type: "constant"
    }
  }
}
layers {
  bottom: "conv2"
  top: "conv2_bn"
  name: "conv2_bn"
  type: BN
  blobs_lr: 1
  blobs_lr: 1
  weight_decay: 0
  weight_decay: 0
  bn_param {
    scale_filler {
      type: "constant"
      value: 1
    }
    shift_filler {
      type: "constant"
      value: 0
    }
  }
}
layers {
  bottom: "conv2_bn"
  top: "conv2_bn"
  name: "relu2"
  type: RELU
  relu_param {
    negative_slope: 0.1
  }
}
layers {
  bottom: "conv2_bn"
  top: "cccp2"
  name: "cccp2"
  type: CONVOLUTION
  blobs_lr: 1
  blobs_lr: 2
  weight_decay: 1
  weight_decay: 0
  convolution_param {
    num_output: 256
    kernel_size: 1
    group: 1
    stride: 1
    weight_filler {
      type: "xavier"
    }
    bias_filler {
      type: "constant"
    }
  }
}
layers {
  bottom: "cccp2"
  top: "cccp2_bn"
  name: "cccp2_bn"
  type: BN
  blobs_lr: 1
  blobs_lr: 1
  weight_decay: 0
  weight_decay: 0
  bn_param {
    scale_filler {
      type: "constant"
      value: 1
    }
    shift_filler {
      type: "constant"
      value: 0
    }
  }
}
layers {
  bottom: "cccp2_bn"
  top: "cccp2_bn"
  name: "relu_cccp2"
  type: RELU
  relu_param {
    negative_slope: 0.1
  }
}
layers {
  bottom: "cccp2_bn"
  top: "conv3"
  name: "conv3"
  type: CONVOLUTION
  blobs_lr: 1
  blobs_lr: 2
  weight_decay: 1
  weight_decay: 0
  convolution_param {
    num_output: 256
    kernel_size: 3
    weight_filler {
      type: "xavier"
    }
    bias_filler {
      type: "constant"
    }
  }
}
layers {
  bottom: "conv3"
  top: "conv3_bn"
  name: "conv3_bn"
  type: BN
  blobs_lr: 1
  blobs_lr: 1
  weight_decay: 0
  weight_decay: 0
  bn_param {
    scale_filler {
      type: "constant"
      value: 1
    }
    shift_filler {
      type: "constant"
      value: 0
    }
  }
}
layers {
  bottom: "conv3_bn"
  top: "conv3_bn"
  name: "relu3"
  type: RELU
  relu_param {
    negative_slope: 0.1
  }
}
layers {
  bottom: "conv3_bn"
  top: "cccp3"
  name: "cccp3"
  type: CONVOLUTION
  blobs_lr: 1
  blobs_lr: 2
  weight_decay: 1
  weight_decay: 0
  convolution_param {
    num_output: 256
    kernel_size: 1
    group: 1
    stride: 1
    weight_filler {
      type: "xavier"
    }
    bias_filler {
      type: "constant"
    }
  }
}
layers {
  bottom: "cccp3"
  top: "cccp3_bn"
  name: "cccp3_bn"
  type: BN
  blobs_lr: 1
  blobs_lr: 1
  weight_decay: 0
  weight_decay: 0
  bn_param {
    scale_filler {
      type: "constant"
      value: 1
    }
    shift_filler {
      type: "constant"
      value: 0
    }
  }
}
layers {
  bottom: "cccp3_bn"
  top: "cccp3_bn"
  name: "relu_cccp3"
  type: RELU
  relu_param {
    negative_slope: 0.1
  }
}
layers {
  bottom: "cccp3_bn"
  top: "pool3"
  name: "pool3"
  type: POOLING
  pooling_param {
    pool: MAX
    kernel_size: 3
    stride: 2
  }
}
layers {
  bottom: "pool3"
  top: "fc4"
  name: "fc4"
  type: INNER_PRODUCT
  blobs_lr: 1
  blobs_lr: 2
  weight_decay: 1
  weight_decay: 0
  inner_product_param {
    num_output: 512
    weight_filler {
      type: "xavier"
    }
    bias_filler {
      type: "constant"
    }
  }
}
layers {
  bottom: "fc4"
  top: "fc4"
  name: "relu4"
  type: RELU
  relu_param {
    negative_slope: 0.1
  }
}
layers {
  bottom: "fc4"
  top: "fc4"
  name: "drop4"
  type: DROPOUT
  dropout_param {
    dropout_ratio: 0.5
  }
}
layers {
  bottom: "fc4"
  top: "fc5"
  name: "fc5"
  type: INNER_PRODUCT
  blobs_lr: 1
  blobs_lr: 2
  weight_decay: 1
  weight_decay: 0
  inner_product_param {
    num_output: 512
    weight_filler {
      type: "xavier"
    }
    bias_filler {
      type: "constant"
    }
  }
}
layers {
  bottom: "fc5"
  top: "fc5"
  name: "relu5"
  type: RELU
  relu_param {
    negative_slope: 0.1
  }
}
layers {
  bottom: "fc5"
  top: "fc5"
  name: "drop5"
  type: DROPOUT
  dropout_param {
    dropout_ratio: 0.5
  }
}
layers {
  bottom: "fc5"
  top: "fc6"
  name: "fc6"
  type: INNER_PRODUCT
  blobs_lr: 1
  blobs_lr: 2
  weight_decay: 1
  weight_decay: 0
  inner_product_param {
    num_output: 121
    weight_filler {
      type: "xavier"
    }
    bias_filler {
      type: "constant"
    }
  }
}
layers {
  bottom: "fc6"
  bottom: "label"
  top: "loss"
  name: "loss"
  type: SOFTMAX_LOSS
}
state {
  phase: TRAIN
}
I0308 13:41:41.962863 18135 layer_factory.hpp:78] Creating layer data
I0308 13:41:41.962887 18135 data_transformer.cpp:24] Loading mean file from/media/data/jhlim/kaggle_data/typeF/train_mean.binaryproto
I0308 13:41:41.963026 18135 net.cpp:68] Creating Layer data
I0308 13:41:41.963057 18135 net.cpp:357] data -> data
I0308 13:41:41.963080 18135 net.cpp:357] data -> label
I0308 13:41:41.963096 18135 net.cpp:97] Setting up data
I0308 13:41:41.963110 18135 image_data_affine_layer.cpp:37] Opening file /media/data/jhlim/kaggle_data/typeF/train.txt
I0308 13:41:41.971851 18135 image_data_affine_layer.cpp:47] Shuffling data
I0308 13:41:41.973593 18135 image_data_affine_layer.cpp:52] A total of 27302 images.
I0308 13:41:41.973903 18135 image_data_affine_layer.cpp:81] output data size: 128,1,96,96
I0308 13:41:41.975172 18135 net.cpp:104] Top shape: 128 1 96 96 (1179648)
I0308 13:41:41.975216 18135 net.cpp:104] Top shape: 128 1 1 1 (128)
I0308 13:41:41.975229 18135 layer_factory.hpp:78] Creating layer conv1
I0308 13:41:41.975246 18135 net.cpp:68] Creating Layer conv1
I0308 13:41:41.975256 18135 net.cpp:395] conv1 <- data
I0308 13:41:41.975275 18135 net.cpp:357] conv1 -> conv1
I0308 13:41:41.975292 18135 net.cpp:97] Setting up conv1
I0308 13:41:42.026171 18135 net.cpp:104] Top shape: 128 256 47 47 (72384512)
I0308 13:41:42.026240 18135 layer_factory.hpp:78] Creating layer conv1_bn
I0308 13:41:42.026265 18135 net.cpp:68] Creating Layer conv1_bn
I0308 13:41:42.026278 18135 net.cpp:395] conv1_bn <- conv1
I0308 13:41:42.026290 18135 net.cpp:357] conv1_bn -> conv1_bn
I0308 13:41:42.026307 18135 net.cpp:97] Setting up conv1_bn
I0308 13:41:42.026335 18135 net.cpp:104] Top shape: 128 256 47 47 (72384512)
I0308 13:41:42.026350 18135 layer_factory.hpp:78] Creating layer relu1
I0308 13:41:42.026365 18135 net.cpp:68] Creating Layer relu1
I0308 13:41:42.026374 18135 net.cpp:395] relu1 <- conv1_bn
I0308 13:41:42.026387 18135 net.cpp:346] relu1 -> conv1_bn (in-place)
I0308 13:41:42.026401 18135 net.cpp:97] Setting up relu1
I0308 13:41:42.026415 18135 net.cpp:104] Top shape: 128 256 47 47 (72384512)
I0308 13:41:42.026425 18135 layer_factory.hpp:78] Creating layer cccp1
I0308 13:41:42.026438 18135 net.cpp:68] Creating Layer cccp1
I0308 13:41:42.026448 18135 net.cpp:395] cccp1 <- conv1_bn
I0308 13:41:42.026461 18135 net.cpp:357] cccp1 -> cccp1
I0308 13:41:42.026474 18135 net.cpp:97] Setting up cccp1
I0308 13:41:42.027014 18135 net.cpp:104] Top shape: 128 256 47 47 (72384512)
I0308 13:41:42.027046 18135 layer_factory.hpp:78] Creating layer cccp1_bn
I0308 13:41:42.027060 18135 net.cpp:68] Creating Layer cccp1_bn
I0308 13:41:42.027070 18135 net.cpp:395] cccp1_bn <- cccp1
I0308 13:41:42.027083 18135 net.cpp:357] cccp1_bn -> cccp1_bn
I0308 13:41:42.027096 18135 net.cpp:97] Setting up cccp1_bn
I0308 13:41:42.027117 18135 net.cpp:104] Top shape: 128 256 47 47 (72384512)
I0308 13:41:42.027130 18135 layer_factory.hpp:78] Creating layer relu_cccp1
I0308 13:41:42.027142 18135 net.cpp:68] Creating Layer relu_cccp1
I0308 13:41:42.027151 18135 net.cpp:395] relu_cccp1 <- cccp1_bn
I0308 13:41:42.027161 18135 net.cpp:346] relu_cccp1 -> cccp1_bn (in-place)
I0308 13:41:42.027171 18135 net.cpp:97] Setting up relu_cccp1
I0308 13:41:42.027184 18135 net.cpp:104] Top shape: 128 256 47 47 (72384512)
I0308 13:41:42.027194 18135 layer_factory.hpp:78] Creating layer pool1
I0308 13:41:42.027207 18135 net.cpp:68] Creating Layer pool1
I0308 13:41:42.027216 18135 net.cpp:395] pool1 <- cccp1_bn
I0308 13:41:42.027230 18135 net.cpp:357] pool1 -> pool1
I0308 13:41:42.027241 18135 net.cpp:97] Setting up pool1
I0308 13:41:42.027267 18135 net.cpp:104] Top shape: 128 256 23 23 (17334272)
I0308 13:41:42.027279 18135 layer_factory.hpp:78] Creating layer conv2
I0308 13:41:42.027293 18135 net.cpp:68] Creating Layer conv2
I0308 13:41:42.027303 18135 net.cpp:395] conv2 <- pool1
I0308 13:41:42.027315 18135 net.cpp:357] conv2 -> conv2
I0308 13:41:42.027328 18135 net.cpp:97] Setting up conv2
I0308 13:41:42.036344 18135 net.cpp:104] Top shape: 128 256 21 21 (14450688)
I0308 13:41:42.036416 18135 layer_factory.hpp:78] Creating layer conv2_bn
I0308 13:41:42.036437 18135 net.cpp:68] Creating Layer conv2_bn
I0308 13:41:42.036448 18135 net.cpp:395] conv2_bn <- conv2
I0308 13:41:42.036463 18135 net.cpp:357] conv2_bn -> conv2_bn
I0308 13:41:42.036478 18135 net.cpp:97] Setting up conv2_bn
I0308 13:41:42.036538 18135 net.cpp:104] Top shape: 128 256 21 21 (14450688)
I0308 13:41:42.036564 18135 layer_factory.hpp:78] Creating layer relu2
I0308 13:41:42.036581 18135 net.cpp:68] Creating Layer relu2
I0308 13:41:42.036592 18135 net.cpp:395] relu2 <- conv2_bn
I0308 13:41:42.036603 18135 net.cpp:346] relu2 -> conv2_bn (in-place)
I0308 13:41:42.036615 18135 net.cpp:97] Setting up relu2
I0308 13:41:42.036628 18135 net.cpp:104] Top shape: 128 256 21 21 (14450688)
I0308 13:41:42.036639 18135 layer_factory.hpp:78] Creating layer cccp2
I0308 13:41:42.036681 18135 net.cpp:68] Creating Layer cccp2
I0308 13:41:42.036692 18135 net.cpp:395] cccp2 <- conv2_bn
I0308 13:41:42.036705 18135 net.cpp:357] cccp2 -> cccp2
I0308 13:41:42.036716 18135 net.cpp:97] Setting up cccp2
I0308 13:41:42.037262 18135 net.cpp:104] Top shape: 128 256 21 21 (14450688)
I0308 13:41:42.037293 18135 layer_factory.hpp:78] Creating layer cccp2_bn
I0308 13:41:42.037308 18135 net.cpp:68] Creating Layer cccp2_bn
I0308 13:41:42.037319 18135 net.cpp:395] cccp2_bn <- cccp2
I0308 13:41:42.037331 18135 net.cpp:357] cccp2_bn -> cccp2_bn
I0308 13:41:42.037343 18135 net.cpp:97] Setting up cccp2_bn
I0308 13:41:42.037360 18135 net.cpp:104] Top shape: 128 256 21 21 (14450688)
I0308 13:41:42.037374 18135 layer_factory.hpp:78] Creating layer relu_cccp2
I0308 13:41:42.037385 18135 net.cpp:68] Creating Layer relu_cccp2
I0308 13:41:42.037395 18135 net.cpp:395] relu_cccp2 <- cccp2_bn
I0308 13:41:42.037405 18135 net.cpp:346] relu_cccp2 -> cccp2_bn (in-place)
I0308 13:41:42.037415 18135 net.cpp:97] Setting up relu_cccp2
I0308 13:41:42.037426 18135 net.cpp:104] Top shape: 128 256 21 21 (14450688)
I0308 13:41:42.037436 18135 layer_factory.hpp:78] Creating layer conv3
I0308 13:41:42.037451 18135 net.cpp:68] Creating Layer conv3
I0308 13:41:42.037459 18135 net.cpp:395] conv3 <- cccp2_bn
I0308 13:41:42.037470 18135 net.cpp:357] conv3 -> conv3
I0308 13:41:42.037482 18135 net.cpp:97] Setting up conv3
I0308 13:41:42.043905 18135 net.cpp:104] Top shape: 128 256 19 19 (11829248)
I0308 13:41:42.043972 18135 layer_factory.hpp:78] Creating layer conv3_bn
I0308 13:41:42.043992 18135 net.cpp:68] Creating Layer conv3_bn
I0308 13:41:42.044004 18135 net.cpp:395] conv3_bn <- conv3
I0308 13:41:42.044018 18135 net.cpp:357] conv3_bn -> conv3_bn
I0308 13:41:42.045176 18135 net.cpp:97] Setting up conv3_bn
I0308 13:41:42.045219 18135 net.cpp:104] Top shape: 128 256 19 19 (11829248)
I0308 13:41:42.045236 18135 layer_factory.hpp:78] Creating layer relu3
I0308 13:41:42.045253 18135 net.cpp:68] Creating Layer relu3
I0308 13:41:42.045264 18135 net.cpp:395] relu3 <- conv3_bn
I0308 13:41:42.045275 18135 net.cpp:346] relu3 -> conv3_bn (in-place)
I0308 13:41:42.045286 18135 net.cpp:97] Setting up relu3
I0308 13:41:42.045306 18135 net.cpp:104] Top shape: 128 256 19 19 (11829248)
I0308 13:41:42.045316 18135 layer_factory.hpp:78] Creating layer cccp3
I0308 13:41:42.045330 18135 net.cpp:68] Creating Layer cccp3
I0308 13:41:42.045338 18135 net.cpp:395] cccp3 <- conv3_bn
I0308 13:41:42.045351 18135 net.cpp:357] cccp3 -> cccp3
I0308 13:41:42.045364 18135 net.cpp:97] Setting up cccp3
I0308 13:41:42.047267 18135 net.cpp:104] Top shape: 128 256 19 19 (11829248)
I0308 13:41:42.047333 18135 layer_factory.hpp:78] Creating layer cccp3_bn
I0308 13:41:42.047353 18135 net.cpp:68] Creating Layer cccp3_bn
I0308 13:41:42.047364 18135 net.cpp:395] cccp3_bn <- cccp3
I0308 13:41:42.047379 18135 net.cpp:357] cccp3_bn -> cccp3_bn
I0308 13:41:42.047394 18135 net.cpp:97] Setting up cccp3_bn
I0308 13:41:42.047413 18135 net.cpp:104] Top shape: 128 256 19 19 (11829248)
I0308 13:41:42.047426 18135 layer_factory.hpp:78] Creating layer relu_cccp3
I0308 13:41:42.047437 18135 net.cpp:68] Creating Layer relu_cccp3
I0308 13:41:42.047543 18135 net.cpp:395] relu_cccp3 <- cccp3_bn
I0308 13:41:42.047559 18135 net.cpp:346] relu_cccp3 -> cccp3_bn (in-place)
I0308 13:41:42.047571 18135 net.cpp:97] Setting up relu_cccp3
I0308 13:41:42.047586 18135 net.cpp:104] Top shape: 128 256 19 19 (11829248)
I0308 13:41:42.047596 18135 layer_factory.hpp:78] Creating layer pool3
I0308 13:41:42.047608 18135 net.cpp:68] Creating Layer pool3
I0308 13:41:42.047618 18135 net.cpp:395] pool3 <- cccp3_bn
I0308 13:41:42.047629 18135 net.cpp:357] pool3 -> pool3
I0308 13:41:42.047641 18135 net.cpp:97] Setting up pool3
I0308 13:41:42.047655 18135 net.cpp:104] Top shape: 128 256 9 9 (2654208)
I0308 13:41:42.047665 18135 layer_factory.hpp:78] Creating layer fc4
I0308 13:41:42.047683 18135 net.cpp:68] Creating Layer fc4
I0308 13:41:42.047694 18135 net.cpp:395] fc4 <- pool3
I0308 13:41:42.047751 18135 net.cpp:357] fc4 -> fc4
I0308 13:41:42.047807 18135 net.cpp:97] Setting up fc4
I0308 13:41:42.113564 18135 net.cpp:104] Top shape: 128 512 1 1 (65536)
I0308 13:41:42.113631 18135 layer_factory.hpp:78] Creating layer relu4
I0308 13:41:42.113648 18135 net.cpp:68] Creating Layer relu4
I0308 13:41:42.113659 18135 net.cpp:395] relu4 <- fc4
I0308 13:41:42.113673 18135 net.cpp:346] relu4 -> fc4 (in-place)
I0308 13:41:42.113687 18135 net.cpp:97] Setting up relu4
I0308 13:41:42.113708 18135 net.cpp:104] Top shape: 128 512 1 1 (65536)
I0308 13:41:42.113718 18135 layer_factory.hpp:78] Creating layer drop4
I0308 13:41:42.113733 18135 net.cpp:68] Creating Layer drop4
I0308 13:41:42.113742 18135 net.cpp:395] drop4 <- fc4
I0308 13:41:42.113754 18135 net.cpp:346] drop4 -> fc4 (in-place)
I0308 13:41:42.113767 18135 net.cpp:97] Setting up drop4
I0308 13:41:42.113780 18135 net.cpp:104] Top shape: 128 512 1 1 (65536)
I0308 13:41:42.113788 18135 layer_factory.hpp:78] Creating layer fc5
I0308 13:41:42.113801 18135 net.cpp:68] Creating Layer fc5
I0308 13:41:42.113811 18135 net.cpp:395] fc5 <- fc4
I0308 13:41:42.113823 18135 net.cpp:357] fc5 -> fc5
I0308 13:41:42.113837 18135 net.cpp:97] Setting up fc5
I0308 13:41:42.115608 18135 net.cpp:104] Top shape: 128 512 1 1 (65536)
I0308 13:41:42.115639 18135 layer_factory.hpp:78] Creating layer relu5
I0308 13:41:42.115651 18135 net.cpp:68] Creating Layer relu5
I0308 13:41:42.115664 18135 net.cpp:395] relu5 <- fc5
I0308 13:41:42.115674 18135 net.cpp:346] relu5 -> fc5 (in-place)
I0308 13:41:42.115685 18135 net.cpp:97] Setting up relu5
I0308 13:41:42.115697 18135 net.cpp:104] Top shape: 128 512 1 1 (65536)
I0308 13:41:42.115707 18135 layer_factory.hpp:78] Creating layer drop5
I0308 13:41:42.115717 18135 net.cpp:68] Creating Layer drop5
I0308 13:41:42.115727 18135 net.cpp:395] drop5 <- fc5
I0308 13:41:42.115737 18135 net.cpp:346] drop5 -> fc5 (in-place)
I0308 13:41:42.115747 18135 net.cpp:97] Setting up drop5
I0308 13:41:42.115756 18135 net.cpp:104] Top shape: 128 512 1 1 (65536)
I0308 13:41:42.115766 18135 layer_factory.hpp:78] Creating layer fc6
I0308 13:41:42.115780 18135 net.cpp:68] Creating Layer fc6
I0308 13:41:42.115790 18135 net.cpp:395] fc6 <- fc5
I0308 13:41:42.115802 18135 net.cpp:357] fc6 -> fc6
I0308 13:41:42.115813 18135 net.cpp:97] Setting up fc6
I0308 13:41:42.116257 18135 net.cpp:104] Top shape: 128 121 1 1 (15488)
I0308 13:41:42.116286 18135 layer_factory.hpp:78] Creating layer loss
I0308 13:41:42.116302 18135 net.cpp:68] Creating Layer loss
I0308 13:41:42.116312 18135 net.cpp:395] loss <- fc6
I0308 13:41:42.116333 18135 net.cpp:395] loss <- label
I0308 13:41:42.116345 18135 net.cpp:357] loss -> loss
I0308 13:41:42.116356 18135 net.cpp:97] Setting up loss
I0308 13:41:42.116369 18135 layer_factory.hpp:78] Creating layer loss
I0308 13:41:42.116415 18135 net.cpp:104] Top shape: 1 1 1 1 (1)
I0308 13:41:42.116427 18135 net.cpp:110]     with loss weight 1
I0308 13:41:42.116462 18135 net.cpp:171] loss needs backward computation.
I0308 13:41:42.116473 18135 net.cpp:171] fc6 needs backward computation.
I0308 13:41:42.116482 18135 net.cpp:171] drop5 needs backward computation.
I0308 13:41:42.116490 18135 net.cpp:171] relu5 needs backward computation.
I0308 13:41:42.116499 18135 net.cpp:171] fc5 needs backward computation.
…
