…
I0301 17:03:46.465006 29329 net.cpp:276] The NetState phase (0) differed from the phase (1) specified by a rule in layer accuracy
I0301 17:03:46.465204 29329 net.cpp:39] Initializing net from parameters: 
name: "model1_part1_bn"
layers {
  top: "data"
  top: "label"
  name: "data"
  type: DATA
  data_param {
    source: "/home/jaehyun/kaggle/nationalDataScienceBowl/data/typeD/train_lmdb"
    batch_size: 256
    backend: LMDB
    shuffle: true
  }
  include {
    phase: TRAIN
  }
  transform_param {
    scale: 0.00390625
    mirror: true
    mean_file: "/home/jaehyun/kaggle/nationalDataScienceBowl/data/typeD/train_mean.binaryproto"
  }
}
layers {
  bottom: "data"
  top: "conv1"
  name: "conv1"
  type: CONVOLUTION
  blobs_lr: 1
  blobs_lr: 2
  weight_decay: 1
  weight_decay: 0
  convolution_param {
    num_output: 128
    kernel_size: 4
    stride: 2
    weight_filler {
      type: "xavier"
    }
    bias_filler {
      type: "constant"
    }
  }
}
layers {
  bottom: "conv1"
  top: "conv1"
  name: "relu1"
  type: RELU
  relu_param {
    negative_slope: 0.1
  }
}
layers {
  bottom: "conv1"
  top: "cccp1"
  name: "cccp1"
  type: CONVOLUTION
  blobs_lr: 1
  blobs_lr: 2
  weight_decay: 1
  weight_decay: 0
  convolution_param {
    num_output: 128
    kernel_size: 1
    group: 1
    stride: 1
    weight_filler {
      type: "xavier"
    }
    bias_filler {
      type: "constant"
    }
  }
}
layers {
  bottom: "cccp1"
  top: "cccp1_bn"
  name: "cccp1_bn"
  type: BN
  blobs_lr: 1
  blobs_lr: 1
  weight_decay: 0
  weight_decay: 0
  bn_param {
    scale_filler {
      type: "constant"
      value: 1
    }
    shift_filler {
      type: "constant"
      value: 0
    }
  }
}
layers {
  bottom: "cccp1_bn"
  top: "cccp1_bn"
  name: "relu_cccp1"
  type: RELU
  relu_param {
    negative_slope: 0.1
  }
}
layers {
  bottom: "cccp1_bn"
  top: "pool1"
  name: "pool1"
  type: POOLING
  pooling_param {
    pool: MAX
    kernel_size: 3
    stride: 2
  }
}
layers {
  bottom: "pool1"
  top: "conv2"
  name: "conv2"
  type: CONVOLUTION
  blobs_lr: 1
  blobs_lr: 2
  weight_decay: 1
  weight_decay: 0
  convolution_param {
    num_output: 128
    kernel_size: 3
    weight_filler {
      type: "xavier"
    }
    bias_filler {
      type: "constant"
    }
  }
}
layers {
  bottom: "conv2"
  top: "conv2_bn"
  name: "conv2_bn"
  type: BN
  blobs_lr: 1
  blobs_lr: 1
  weight_decay: 0
  weight_decay: 0
  bn_param {
    scale_filler {
      type: "constant"
      value: 1
    }
    shift_filler {
      type: "constant"
      value: 0
    }
  }
}
layers {
  bottom: "conv2_bn"
  top: "conv2_bn"
  name: "relu2"
  type: RELU
  relu_param {
    negative_slope: 0.1
  }
}
layers {
  bottom: "conv2_bn"
  top: "conv3"
  name: "conv3"
  type: CONVOLUTION
  blobs_lr: 1
  blobs_lr: 2
  weight_decay: 1
  weight_decay: 0
  convolution_param {
    num_output: 128
    kernel_size: 3
    weight_filler {
      type: "xavier"
    }
    bias_filler {
      type: "constant"
    }
  }
}
layers {
  bottom: "conv3"
  top: "conv3_bn"
  name: "conv3_bn"
  type: BN
  blobs_lr: 1
  blobs_lr: 1
  weight_decay: 0
  weight_decay: 0
  bn_param {
    scale_filler {
      type: "constant"
      value: 1
    }
    shift_filler {
      type: "constant"
      value: 0
    }
  }
}
layers {
  bottom: "conv3_bn"
  top: "conv3_bn"
  name: "relu3"
  type: RELU
  relu_param {
    negative_slope: 0.1
  }
}
layers {
  bottom: "conv3_bn"
  top: "pool3"
  name: "pool3"
  type: POOLING
  pooling_param {
    pool: MAX
    kernel_size: 3
    stride: 2
  }
}
layers {
  bottom: "pool3"
  top: "fc4"
  name: "fc4"
  type: INNER_PRODUCT
  blobs_lr: 1
  blobs_lr: 2
  weight_decay: 1
  weight_decay: 0
  inner_product_param {
    num_output: 512
    weight_filler {
      type: "xavier"
    }
    bias_filler {
      type: "constant"
    }
  }
}
layers {
  bottom: "fc4"
  top: "fc4"
  name: "relu4"
  type: RELU
  relu_param {
    negative_slope: 0.1
  }
}
layers {
  bottom: "fc4"
  top: "fc4"
  name: "drop4"
  type: DROPOUT
  dropout_param {
    dropout_ratio: 0.5
  }
}
layers {
  bottom: "fc4"
  top: "fc5"
  name: "fc5"
  type: INNER_PRODUCT
  blobs_lr: 1
  blobs_lr: 2
  weight_decay: 1
  weight_decay: 0
  inner_product_param {
    num_output: 512
    weight_filler {
      type: "xavier"
    }
    bias_filler {
      type: "constant"
    }
  }
}
layers {
  bottom: "fc5"
  top: "fc5"
  name: "relu5"
  type: RELU
  relu_param {
    negative_slope: 0.1
  }
}
layers {
  bottom: "fc5"
  top: "fc5"
  name: "drop5"
  type: DROPOUT
  dropout_param {
    dropout_ratio: 0.5
  }
}
layers {
  bottom: "fc5"
  top: "fc6"
  name: "fc6"
  type: INNER_PRODUCT
  blobs_lr: 1
  blobs_lr: 2
  weight_decay: 1
  weight_decay: 0
  inner_product_param {
    num_output: 121
    weight_filler {
      type: "xavier"
    }
    bias_filler {
      type: "constant"
    }
  }
}
layers {
  bottom: "fc6"
  bottom: "label"
  top: "loss"
  name: "loss"
  type: SOFTMAX_LOSS
}
state {
  phase: TRAIN
}
I0301 17:03:46.466341 29329 layer_factory.hpp:78] Creating layer data
I0301 17:03:46.466368 29329 data_transformer.cpp:24] Loading mean file from/home/jaehyun/kaggle/nationalDataScienceBowl/data/typeD/train_mean.binaryproto
I0301 17:03:46.466472 29329 net.cpp:68] Creating Layer data
I0301 17:03:46.466496 29329 net.cpp:357] data -> data
I0301 17:03:46.466522 29329 net.cpp:357] data -> label
I0301 17:03:46.466545 29329 net.cpp:97] Setting up data
I0301 17:03:46.466565 29329 data_layer.cpp:34] Opening dataset /home/jaehyun/kaggle/nationalDataScienceBowl/data/typeD/train_lmdb
I0301 17:03:46.466732 29329 data_layer.cpp:73] output data size: 256,1,48,48
I0301 17:03:46.468437 29329 net.cpp:104] Top shape: 256 1 48 48 (589824)
I0301 17:03:46.468466 29329 net.cpp:104] Top shape: 256 1 1 1 (256)
I0301 17:03:46.468480 29329 layer_factory.hpp:78] Creating layer conv1
I0301 17:03:46.468502 29329 net.cpp:68] Creating Layer conv1
I0301 17:03:46.468516 29329 net.cpp:395] conv1 <- data
I0301 17:03:46.468544 29329 net.cpp:357] conv1 -> conv1
I0301 17:03:46.468564 29329 net.cpp:97] Setting up conv1
I0301 17:03:46.505991 29329 net.cpp:104] Top shape: 256 128 23 23 (17334272)
I0301 17:03:46.506078 29329 layer_factory.hpp:78] Creating layer relu1
I0301 17:03:46.506106 29329 net.cpp:68] Creating Layer relu1
I0301 17:03:46.506129 29329 net.cpp:395] relu1 <- conv1
I0301 17:03:46.506145 29329 net.cpp:346] relu1 -> conv1 (in-place)
I0301 17:03:46.506165 29329 net.cpp:97] Setting up relu1
I0301 17:03:46.506187 29329 net.cpp:104] Top shape: 256 128 23 23 (17334272)
I0301 17:03:46.506201 29329 layer_factory.hpp:78] Creating layer cccp1
I0301 17:03:46.506219 29329 net.cpp:68] Creating Layer cccp1
I0301 17:03:46.506232 29329 net.cpp:395] cccp1 <- conv1
I0301 17:03:46.506247 29329 net.cpp:357] cccp1 -> cccp1
I0301 17:03:46.506264 29329 net.cpp:97] Setting up cccp1
I0301 17:03:46.506537 29329 net.cpp:104] Top shape: 256 128 23 23 (17334272)
I0301 17:03:46.506564 29329 layer_factory.hpp:78] Creating layer cccp1_bn
I0301 17:03:46.506636 29329 net.cpp:68] Creating Layer cccp1_bn
I0301 17:03:46.506651 29329 net.cpp:395] cccp1_bn <- cccp1
I0301 17:03:46.506666 29329 net.cpp:357] cccp1_bn -> cccp1_bn
I0301 17:03:46.506685 29329 net.cpp:97] Setting up cccp1_bn
I0301 17:03:46.506714 29329 net.cpp:104] Top shape: 256 128 23 23 (17334272)
I0301 17:03:46.506734 29329 layer_factory.hpp:78] Creating layer relu_cccp1
I0301 17:03:46.506749 29329 net.cpp:68] Creating Layer relu_cccp1
I0301 17:03:46.506764 29329 net.cpp:395] relu_cccp1 <- cccp1_bn
I0301 17:03:46.506779 29329 net.cpp:346] relu_cccp1 -> cccp1_bn (in-place)
I0301 17:03:46.506799 29329 net.cpp:97] Setting up relu_cccp1
I0301 17:03:46.506815 29329 net.cpp:104] Top shape: 256 128 23 23 (17334272)
I0301 17:03:46.506829 29329 layer_factory.hpp:78] Creating layer pool1
I0301 17:03:46.506847 29329 net.cpp:68] Creating Layer pool1
I0301 17:03:46.506860 29329 net.cpp:395] pool1 <- cccp1_bn
I0301 17:03:46.506875 29329 net.cpp:357] pool1 -> pool1
I0301 17:03:46.506889 29329 net.cpp:97] Setting up pool1
I0301 17:03:46.506925 29329 net.cpp:104] Top shape: 256 128 11 11 (3964928)
I0301 17:03:46.506940 29329 layer_factory.hpp:78] Creating layer conv2
I0301 17:03:46.506958 29329 net.cpp:68] Creating Layer conv2
I0301 17:03:46.506971 29329 net.cpp:395] conv2 <- pool1
I0301 17:03:46.506989 29329 net.cpp:357] conv2 -> conv2
I0301 17:03:46.507004 29329 net.cpp:97] Setting up conv2
I0301 17:03:46.508615 29329 net.cpp:104] Top shape: 256 128 9 9 (2654208)
I0301 17:03:46.508643 29329 layer_factory.hpp:78] Creating layer conv2_bn
I0301 17:03:46.508663 29329 net.cpp:68] Creating Layer conv2_bn
I0301 17:03:46.508677 29329 net.cpp:395] conv2_bn <- conv2
I0301 17:03:46.508697 29329 net.cpp:357] conv2_bn -> conv2_bn
I0301 17:03:46.508719 29329 net.cpp:97] Setting up conv2_bn
I0301 17:03:46.508745 29329 net.cpp:104] Top shape: 256 128 9 9 (2654208)
I0301 17:03:46.508769 29329 layer_factory.hpp:78] Creating layer relu2
I0301 17:03:46.508785 29329 net.cpp:68] Creating Layer relu2
I0301 17:03:46.508797 29329 net.cpp:395] relu2 <- conv2_bn
I0301 17:03:46.508811 29329 net.cpp:346] relu2 -> conv2_bn (in-place)
I0301 17:03:46.508826 29329 net.cpp:97] Setting up relu2
I0301 17:03:46.508841 29329 net.cpp:104] Top shape: 256 128 9 9 (2654208)
I0301 17:03:46.508853 29329 layer_factory.hpp:78] Creating layer conv3
I0301 17:03:46.508872 29329 net.cpp:68] Creating Layer conv3
I0301 17:03:46.508883 29329 net.cpp:395] conv3 <- conv2_bn
I0301 17:03:46.508900 29329 net.cpp:357] conv3 -> conv3
I0301 17:03:46.508919 29329 net.cpp:97] Setting up conv3
I0301 17:03:46.510525 29329 net.cpp:104] Top shape: 256 128 7 7 (1605632)
I0301 17:03:46.510552 29329 layer_factory.hpp:78] Creating layer conv3_bn
I0301 17:03:46.510571 29329 net.cpp:68] Creating Layer conv3_bn
I0301 17:03:46.510582 29329 net.cpp:395] conv3_bn <- conv3
I0301 17:03:46.510601 29329 net.cpp:357] conv3_bn -> conv3_bn
I0301 17:03:46.510623 29329 net.cpp:97] Setting up conv3_bn
I0301 17:03:46.510648 29329 net.cpp:104] Top shape: 256 128 7 7 (1605632)
I0301 17:03:46.510663 29329 layer_factory.hpp:78] Creating layer relu3
I0301 17:03:46.510679 29329 net.cpp:68] Creating Layer relu3
I0301 17:03:46.510690 29329 net.cpp:395] relu3 <- conv3_bn
I0301 17:03:46.510710 29329 net.cpp:346] relu3 -> conv3_bn (in-place)
I0301 17:03:46.510727 29329 net.cpp:97] Setting up relu3
I0301 17:03:46.510743 29329 net.cpp:104] Top shape: 256 128 7 7 (1605632)
I0301 17:03:46.510756 29329 layer_factory.hpp:78] Creating layer pool3
I0301 17:03:46.510771 29329 net.cpp:68] Creating Layer pool3
I0301 17:03:46.510782 29329 net.cpp:395] pool3 <- conv3_bn
I0301 17:03:46.510797 29329 net.cpp:357] pool3 -> pool3
I0301 17:03:46.510812 29329 net.cpp:97] Setting up pool3
I0301 17:03:46.510829 29329 net.cpp:104] Top shape: 256 128 3 3 (294912)
I0301 17:03:46.510844 29329 layer_factory.hpp:78] Creating layer fc4
I0301 17:03:46.510864 29329 net.cpp:68] Creating Layer fc4
I0301 17:03:46.510885 29329 net.cpp:395] fc4 <- pool3
I0301 17:03:46.510900 29329 net.cpp:357] fc4 -> fc4
I0301 17:03:46.510933 29329 net.cpp:97] Setting up fc4
I0301 17:03:46.517099 29329 net.cpp:104] Top shape: 256 512 1 1 (131072)
I0301 17:03:46.517137 29329 layer_factory.hpp:78] Creating layer relu4
I0301 17:03:46.517153 29329 net.cpp:68] Creating Layer relu4
I0301 17:03:46.517168 29329 net.cpp:395] relu4 <- fc4
I0301 17:03:46.517186 29329 net.cpp:346] relu4 -> fc4 (in-place)
I0301 17:03:46.517204 29329 net.cpp:97] Setting up relu4
I0301 17:03:46.517227 29329 net.cpp:104] Top shape: 256 512 1 1 (131072)
I0301 17:03:46.517241 29329 layer_factory.hpp:78] Creating layer drop4
I0301 17:03:46.517261 29329 net.cpp:68] Creating Layer drop4
I0301 17:03:46.517273 29329 net.cpp:395] drop4 <- fc4
I0301 17:03:46.517287 29329 net.cpp:346] drop4 -> fc4 (in-place)
I0301 17:03:46.517302 29329 net.cpp:97] Setting up drop4
I0301 17:03:46.517316 29329 net.cpp:104] Top shape: 256 512 1 1 (131072)
I0301 17:03:46.517329 29329 layer_factory.hpp:78] Creating layer fc5
I0301 17:03:46.517346 29329 net.cpp:68] Creating Layer fc5
I0301 17:03:46.517359 29329 net.cpp:395] fc5 <- fc4
I0301 17:03:46.517374 29329 net.cpp:357] fc5 -> fc5
I0301 17:03:46.517390 29329 net.cpp:97] Setting up fc5
I0301 17:03:46.520138 29329 net.cpp:104] Top shape: 256 512 1 1 (131072)
I0301 17:03:46.520174 29329 layer_factory.hpp:78] Creating layer relu5
I0301 17:03:46.520191 29329 net.cpp:68] Creating Layer relu5
I0301 17:03:46.520205 29329 net.cpp:395] relu5 <- fc5
I0301 17:03:46.520220 29329 net.cpp:346] relu5 -> fc5 (in-place)
I0301 17:03:46.520241 29329 net.cpp:97] Setting up relu5
I0301 17:03:46.520257 29329 net.cpp:104] Top shape: 256 512 1 1 (131072)
I0301 17:03:46.520270 29329 layer_factory.hpp:78] Creating layer drop5
I0301 17:03:46.520284 29329 net.cpp:68] Creating Layer drop5
I0301 17:03:46.520297 29329 net.cpp:395] drop5 <- fc5
I0301 17:03:46.520313 29329 net.cpp:346] drop5 -> fc5 (in-place)
I0301 17:03:46.520328 29329 net.cpp:97] Setting up drop5
I0301 17:03:46.520341 29329 net.cpp:104] Top shape: 256 512 1 1 (131072)
I0301 17:03:46.520354 29329 layer_factory.hpp:78] Creating layer fc6
I0301 17:03:46.520369 29329 net.cpp:68] Creating Layer fc6
I0301 17:03:46.520380 29329 net.cpp:395] fc6 <- fc5
I0301 17:03:46.520395 29329 net.cpp:357] fc6 -> fc6
I0301 17:03:46.520409 29329 net.cpp:97] Setting up fc6
I0301 17:03:46.521062 29329 net.cpp:104] Top shape: 256 121 1 1 (30976)
I0301 17:03:46.521088 29329 layer_factory.hpp:78] Creating layer loss
I0301 17:03:46.521106 29329 net.cpp:68] Creating Layer loss
I0301 17:03:46.521119 29329 net.cpp:395] loss <- fc6
I0301 17:03:46.521133 29329 net.cpp:395] loss <- label
I0301 17:03:46.521148 29329 net.cpp:357] loss -> loss
I0301 17:03:46.521167 29329 net.cpp:97] Setting up loss
I0301 17:03:46.521183 29329 layer_factory.hpp:78] Creating layer loss
I0301 17:03:46.521293 29329 net.cpp:104] Top shape: 1 1 1 1 (1)
I0301 17:03:46.521312 29329 net.cpp:110]     with loss weight 1
I0301 17:03:46.521359 29329 net.cpp:171] loss needs backward computation.
I0301 17:03:46.521373 29329 net.cpp:171] fc6 needs backward computation.
I0301 17:03:46.521384 29329 net.cpp:171] drop5 needs backward computation.
I0301 17:03:46.521396 29329 net.cpp:171] relu5 needs backward computation.
I0301 17:03:46.521409 29329 net.cpp:171] fc5 needs backward computation.
…
I0301 17:03:46.522564 29329 net.cpp:276] The NetState phase (1) differed from the phase (0) specified by a rule in layer data
I0301 17:03:46.522788 29329 net.cpp:39] Initializing net from parameters: 
name: "model1_part1_bn"
layers {
  top: "data"
  top: "label"
  name: "data"
  type: DATA
  data_param {
    source: "/home/jaehyun/kaggle/nationalDataScienceBowl/data/typeD/val_lmdb"
    batch_size: 256
    backend: LMDB
  }
  include {
    phase: TEST
  }
  transform_param {
    scale: 0.00390625
    mirror: false
    mean_file: "/home/jaehyun/kaggle/nationalDataScienceBowl/data/typeD/train_mean.binaryproto"
  }
}
layers {
  bottom: "data"
  top: "conv1"
  name: "conv1"
  type: CONVOLUTION
  blobs_lr: 1
  blobs_lr: 2
  weight_decay: 1
  weight_decay: 0
  convolution_param {
    num_output: 128
    kernel_size: 4
    stride: 2
    weight_filler {
      type: "xavier"
    }
    bias_filler {
      type: "constant"
    }
  }
}
layers {
  bottom: "conv1"
  top: "conv1"
  name: "relu1"
  type: RELU
  relu_param {
    negative_slope: 0.1
  }
}
layers {
  bottom: "conv1"
  top: "cccp1"
  name: "cccp1"
  type: CONVOLUTION
  blobs_lr: 1
  blobs_lr: 2
  weight_decay: 1
  weight_decay: 0
  convolution_param {
    num_output: 128
    kernel_size: 1
    group: 1
    stride: 1
    weight_filler {
      type: "xavier"
    }
    bias_filler {
      type: "constant"
    }
  }
}
layers {
  bottom: "cccp1"
  top: "cccp1_bn"
  name: "cccp1_bn"
  type: BN
  blobs_lr: 1
  blobs_lr: 1
  weight_decay: 0
  weight_decay: 0
  bn_param {
    scale_filler {
      type: "constant"
      value: 1
    }
    shift_filler {
      type: "constant"
      value: 0
    }
  }
}
layers {
  bottom: "cccp1_bn"
  top: "cccp1_bn"
  name: "relu_cccp1"
  type: RELU
  relu_param {
    negative_slope: 0.1
  }
}
layers {
  bottom: "cccp1_bn"
  top: "pool1"
  name: "pool1"
  type: POOLING
  pooling_param {
    pool: MAX
    kernel_size: 3
    stride: 2
  }
}
layers {
  bottom: "pool1"
  top: "conv2"
  name: "conv2"
  type: CONVOLUTION
  blobs_lr: 1
  blobs_lr: 2
  weight_decay: 1
  weight_decay: 0
  convolution_param {
    num_output: 128
    kernel_size: 3
    weight_filler {
      type: "xavier"
    }
    bias_filler {
      type: "constant"
    }
  }
}
layers {
  bottom: "conv2"
  top: "conv2_bn"
  name: "conv2_bn"
  type: BN
  blobs_lr: 1
  blobs_lr: 1
  weight_decay: 0
  weight_decay: 0
  bn_param {
    scale_filler {
      type: "constant"
      value: 1
    }
    shift_filler {
      type: "constant"
      value: 0
    }
  }
}
layers {
  bottom: "conv2_bn"
  top: "conv2_bn"
  name: "relu2"
  type: RELU
  relu_param {
    negative_slope: 0.1
  }
}
layers {
  bottom: "conv2_bn"
  top: "conv3"
  name: "conv3"
  type: CONVOLUTION
  blobs_lr: 1
  blobs_lr: 2
  weight_decay: 1
  weight_decay: 0
  convolution_param {
    num_output: 128
    kernel_size: 3
    weight_filler {
      type: "xavier"
    }
    bias_filler {
      type: "constant"
    }
  }
}
layers {
  bottom: "conv3"
  top: "conv3_bn"
  name: "conv3_bn"
  type: BN
  blobs_lr: 1
  blobs_lr: 1
  weight_decay: 0
  weight_decay: 0
  bn_param {
    scale_filler {
      type: "constant"
      value: 1
    }
    shift_filler {
      type: "constant"
      value: 0
    }
  }
}
layers {
  bottom: "conv3_bn"
  top: "conv3_bn"
  name: "relu3"
  type: RELU
  relu_param {
    negative_slope: 0.1
  }
}
layers {
  bottom: "conv3_bn"
  top: "pool3"
  name: "pool3"
  type: POOLING
  pooling_param {
    pool: MAX
    kernel_size: 3
    stride: 2
  }
}
layers {
  bottom: "pool3"
  top: "fc4"
  name: "fc4"
  type: INNER_PRODUCT
  blobs_lr: 1
  blobs_lr: 2
  weight_decay: 1
  weight_decay: 0
  inner_product_param {
    num_output: 512
    weight_filler {
      type: "xavier"
    }
    bias_filler {
      type: "constant"
    }
  }
}
layers {
  bottom: "fc4"
  top: "fc4"
  name: "relu4"
  type: RELU
  relu_param {
    negative_slope: 0.1
  }
}
layers {
  bottom: "fc4"
  top: "fc4"
  name: "drop4"
  type: DROPOUT
  dropout_param {
    dropout_ratio: 0.5
  }
}
layers {
  bottom: "fc4"
  top: "fc5"
  name: "fc5"
  type: INNER_PRODUCT
  blobs_lr: 1
  blobs_lr: 2
  weight_decay: 1
  weight_decay: 0
  inner_product_param {
    num_output: 512
    weight_filler {
      type: "xavier"
    }
    bias_filler {
      type: "constant"
    }
  }
}
layers {
  bottom: "fc5"
  top: "fc5"
  name: "relu5"
  type: RELU
  relu_param {
    negative_slope: 0.1
  }
}
layers {
  bottom: "fc5"
  top: "fc5"
  name: "drop5"
  type: DROPOUT
  dropout_param {
    dropout_ratio: 0.5
  }
}
layers {
  bottom: "fc5"
  top: "fc6"
  name: "fc6"
  type: INNER_PRODUCT
  blobs_lr: 1
  blobs_lr: 2
  weight_decay: 1
  weight_decay: 0
  inner_product_param {
    num_output: 121
    weight_filler {
      type: "xavier"
    }
    bias_filler {
      type: "constant"
    }
  }
}
layers {
  bottom: "fc6"
  top: "prob"
  name: "prob"
  type: SOFTMAX
  include {
    phase: TEST
  }
}
layers {
  bottom: "prob"
  bottom: "label"
  top: "accuracy"
  name: "accuracy"
  type: ACCURACY
  accuracy_param {
    top_k: 1
  }
  include {
    phase: TEST
  }
}
layers {
  bottom: "fc6"
  bottom: "label"
  top: "loss"
  name: "loss"
  type: SOFTMAX_LOSS
}
state {
  phase: TEST
}
I0301 17:03:46.523998 29329 layer_factory.hpp:78] Creating layer data
I0301 17:03:46.524024 29329 data_transformer.cpp:24] Loading mean file from/home/jaehyun/kaggle/nationalDataScienceBowl/data/typeD/train_mean.binaryproto
I0301 17:03:46.524113 29329 net.cpp:68] Creating Layer data
I0301 17:03:46.524133 29329 net.cpp:357] data -> data
I0301 17:03:46.524152 29329 net.cpp:357] data -> label
I0301 17:03:46.524169 29329 net.cpp:97] Setting up data
I0301 17:03:46.524183 29329 data_layer.cpp:34] Opening dataset /home/jaehyun/kaggle/nationalDataScienceBowl/data/typeD/val_lmdb
I0301 17:03:46.524289 29329 data_layer.cpp:73] output data size: 256,1,48,48
I0301 17:03:46.525576 29329 net.cpp:104] Top shape: 256 1 48 48 (589824)
I0301 17:03:46.525599 29329 net.cpp:104] Top shape: 256 1 1 1 (256)
I0301 17:03:46.525614 29329 layer_factory.hpp:78] Creating layer label_data_1_split
I0301 17:03:46.525631 29329 net.cpp:68] Creating Layer label_data_1_split
I0301 17:03:46.525645 29329 net.cpp:395] label_data_1_split <- label
I0301 17:03:46.525660 29329 net.cpp:357] label_data_1_split -> label_data_1_split_0
I0301 17:03:46.525678 29329 net.cpp:357] label_data_1_split -> label_data_1_split_1
I0301 17:03:46.525698 29329 net.cpp:97] Setting up label_data_1_split
I0301 17:03:46.525985 29329 net.cpp:104] Top shape: 256 1 1 1 (256)
I0301 17:03:46.526038 29329 net.cpp:104] Top shape: 256 1 1 1 (256)
I0301 17:03:46.526058 29329 layer_factory.hpp:78] Creating layer conv1
I0301 17:03:46.526092 29329 net.cpp:68] Creating Layer conv1
I0301 17:03:46.526111 29329 net.cpp:395] conv1 <- data
I0301 17:03:46.526178 29329 net.cpp:357] conv1 -> conv1
I0301 17:03:46.526222 29329 net.cpp:97] Setting up conv1
I0301 17:03:46.526440 29329 net.cpp:104] Top shape: 256 128 23 23 (17334272)
I0301 17:03:46.526484 29329 layer_factory.hpp:78] Creating layer relu1
I0301 17:03:46.526511 29329 net.cpp:68] Creating Layer relu1
I0301 17:03:46.526530 29329 net.cpp:395] relu1 <- conv1
I0301 17:03:46.526550 29329 net.cpp:346] relu1 -> conv1 (in-place)
I0301 17:03:46.526569 29329 net.cpp:97] Setting up relu1
I0301 17:03:46.526592 29329 net.cpp:104] Top shape: 256 128 23 23 (17334272)
I0301 17:03:46.526608 29329 layer_factory.hpp:78] Creating layer cccp1
I0301 17:03:46.526634 29329 net.cpp:68] Creating Layer cccp1
I0301 17:03:46.526654 29329 net.cpp:395] cccp1 <- conv1
I0301 17:03:46.526674 29329 net.cpp:357] cccp1 -> cccp1
I0301 17:03:46.526695 29329 net.cpp:97] Setting up cccp1
I0301 17:03:46.527250 29329 net.cpp:104] Top shape: 256 128 23 23 (17334272)
I0301 17:03:46.527290 29329 layer_factory.hpp:78] Creating layer cccp1_bn
I0301 17:03:46.527323 29329 net.cpp:68] Creating Layer cccp1_bn
I0301 17:03:46.527345 29329 net.cpp:395] cccp1_bn <- cccp1
I0301 17:03:46.527370 29329 net.cpp:357] cccp1_bn -> cccp1_bn
I0301 17:03:46.527395 29329 net.cpp:97] Setting up cccp1_bn
I0301 17:03:46.527428 29329 net.cpp:104] Top shape: 256 128 23 23 (17334272)
I0301 17:03:46.527453 29329 layer_factory.hpp:78] Creating layer relu_cccp1
I0301 17:03:46.527477 29329 net.cpp:68] Creating Layer relu_cccp1
I0301 17:03:46.527494 29329 net.cpp:395] relu_cccp1 <- cccp1_bn
I0301 17:03:46.527513 29329 net.cpp:346] relu_cccp1 -> cccp1_bn (in-place)
I0301 17:03:46.527533 29329 net.cpp:97] Setting up relu_cccp1
I0301 17:03:46.527554 29329 net.cpp:104] Top shape: 256 128 23 23 (17334272)
I0301 17:03:46.527571 29329 layer_factory.hpp:78] Creating layer pool1
I0301 17:03:46.527613 29329 net.cpp:68] Creating Layer pool1
I0301 17:03:46.527632 29329 net.cpp:395] pool1 <- cccp1_bn
I0301 17:03:46.527652 29329 net.cpp:357] pool1 -> pool1
I0301 17:03:46.527673 29329 net.cpp:97] Setting up pool1
I0301 17:03:46.527699 29329 net.cpp:104] Top shape: 256 128 11 11 (3964928)
I0301 17:03:46.527717 29329 layer_factory.hpp:78] Creating layer conv2
I0301 17:03:46.527745 29329 net.cpp:68] Creating Layer conv2
I0301 17:03:46.527761 29329 net.cpp:395] conv2 <- pool1
I0301 17:03:46.527781 29329 net.cpp:357] conv2 -> conv2
I0301 17:03:46.527803 29329 net.cpp:97] Setting up conv2
I0301 17:03:46.531142 29329 net.cpp:104] Top shape: 256 128 9 9 (2654208)
I0301 17:03:46.531219 29329 layer_factory.hpp:78] Creating layer conv2_bn
I0301 17:03:46.531255 29329 net.cpp:68] Creating Layer conv2_bn
I0301 17:03:46.531311 29329 net.cpp:395] conv2_bn <- conv2
I0301 17:03:46.531347 29329 net.cpp:357] conv2_bn -> conv2_bn
I0301 17:03:46.531383 29329 net.cpp:97] Setting up conv2_bn
I0301 17:03:46.531431 29329 net.cpp:104] Top shape: 256 128 9 9 (2654208)
I0301 17:03:46.531478 29329 layer_factory.hpp:78] Creating layer relu2
I0301 17:03:46.531517 29329 net.cpp:68] Creating Layer relu2
I0301 17:03:46.531545 29329 net.cpp:395] relu2 <- conv2_bn
I0301 17:03:46.532008 29329 net.cpp:346] relu2 -> conv2_bn (in-place)
I0301 17:03:46.532047 29329 net.cpp:97] Setting up relu2
I0301 17:03:46.532106 29329 net.cpp:104] Top shape: 256 128 9 9 (2654208)
I0301 17:03:46.532140 29329 layer_factory.hpp:78] Creating layer conv3
I0301 17:03:46.532172 29329 net.cpp:68] Creating Layer conv3
I0301 17:03:46.532197 29329 net.cpp:395] conv3 <- conv2_bn
I0301 17:03:46.532228 29329 net.cpp:357] conv3 -> conv3
I0301 17:03:46.532260 29329 net.cpp:97] Setting up conv3
I0301 17:03:46.535663 29329 net.cpp:104] Top shape: 256 128 7 7 (1605632)
I0301 17:03:46.535719 29329 layer_factory.hpp:78] Creating layer conv3_bn
I0301 17:03:46.535769 29329 net.cpp:68] Creating Layer conv3_bn
I0301 17:03:46.535797 29329 net.cpp:395] conv3_bn <- conv3
I0301 17:03:46.535828 29329 net.cpp:357] conv3_bn -> conv3_bn
I0301 17:03:46.535862 29329 net.cpp:97] Setting up conv3_bn
I0301 17:03:46.535909 29329 net.cpp:104] Top shape: 256 128 7 7 (1605632)
I0301 17:03:46.535997 29329 layer_factory.hpp:78] Creating layer relu3
I0301 17:03:46.536031 29329 net.cpp:68] Creating Layer relu3
I0301 17:03:46.536088 29329 net.cpp:395] relu3 <- conv3_bn
I0301 17:03:46.536141 29329 net.cpp:346] relu3 -> conv3_bn (in-place)
I0301 17:03:46.536157 29329 net.cpp:97] Setting up relu3
I0301 17:03:46.536175 29329 net.cpp:104] Top shape: 256 128 7 7 (1605632)
I0301 17:03:46.536188 29329 layer_factory.hpp:78] Creating layer pool3
I0301 17:03:46.536207 29329 net.cpp:68] Creating Layer pool3
I0301 17:03:46.536221 29329 net.cpp:395] pool3 <- conv3_bn
I0301 17:03:46.536237 29329 net.cpp:357] pool3 -> pool3
I0301 17:03:46.536254 29329 net.cpp:97] Setting up pool3
I0301 17:03:46.536274 29329 net.cpp:104] Top shape: 256 128 3 3 (294912)
I0301 17:03:46.536288 29329 layer_factory.hpp:78] Creating layer fc4
I0301 17:03:46.536305 29329 net.cpp:68] Creating Layer fc4
I0301 17:03:46.536320 29329 net.cpp:395] fc4 <- pool3
I0301 17:03:46.536339 29329 net.cpp:357] fc4 -> fc4
I0301 17:03:46.536355 29329 net.cpp:97] Setting up fc4
I0301 17:03:46.542095 29329 net.cpp:104] Top shape: 256 512 1 1 (131072)
I0301 17:03:46.542155 29329 layer_factory.hpp:78] Creating layer relu4
I0301 17:03:46.542186 29329 net.cpp:68] Creating Layer relu4
I0301 17:03:46.542201 29329 net.cpp:395] relu4 <- fc4
I0301 17:03:46.542227 29329 net.cpp:346] relu4 -> fc4 (in-place)
I0301 17:03:46.542245 29329 net.cpp:97] Setting up relu4
I0301 17:03:46.542273 29329 net.cpp:104] Top shape: 256 512 1 1 (131072)
I0301 17:03:46.542286 29329 layer_factory.hpp:78] Creating layer drop4
I0301 17:03:46.542306 29329 net.cpp:68] Creating Layer drop4
I0301 17:03:46.542320 29329 net.cpp:395] drop4 <- fc4
I0301 17:03:46.542335 29329 net.cpp:346] drop4 -> fc4 (in-place)
I0301 17:03:46.542348 29329 net.cpp:97] Setting up drop4
I0301 17:03:46.542364 29329 net.cpp:104] Top shape: 256 512 1 1 (131072)
I0301 17:03:46.542377 29329 layer_factory.hpp:78] Creating layer fc5
I0301 17:03:46.542393 29329 net.cpp:68] Creating Layer fc5
I0301 17:03:46.542407 29329 net.cpp:395] fc5 <- fc4
I0301 17:03:46.542423 29329 net.cpp:357] fc5 -> fc5
I0301 17:03:46.542440 29329 net.cpp:97] Setting up fc5
I0301 17:03:46.545454 29329 net.cpp:104] Top shape: 256 512 1 1 (131072)
I0301 17:03:46.545503 29329 layer_factory.hpp:78] Creating layer relu5
I0301 17:03:46.545522 29329 net.cpp:68] Creating Layer relu5
I0301 17:03:46.545536 29329 net.cpp:395] relu5 <- fc5
I0301 17:03:46.545552 29329 net.cpp:346] relu5 -> fc5 (in-place)
I0301 17:03:46.545567 29329 net.cpp:97] Setting up relu5
I0301 17:03:46.545586 29329 net.cpp:104] Top shape: 256 512 1 1 (131072)
I0301 17:03:46.545599 29329 layer_factory.hpp:78] Creating layer drop5
I0301 17:03:46.545614 29329 net.cpp:68] Creating Layer drop5
I0301 17:03:46.545626 29329 net.cpp:395] drop5 <- fc5
I0301 17:03:46.545642 29329 net.cpp:346] drop5 -> fc5 (in-place)
I0301 17:03:46.545656 29329 net.cpp:97] Setting up drop5
I0301 17:03:46.545670 29329 net.cpp:104] Top shape: 256 512 1 1 (131072)
I0301 17:03:46.545681 29329 layer_factory.hpp:78] Creating layer fc6
I0301 17:03:46.545696 29329 net.cpp:68] Creating Layer fc6
I0301 17:03:46.545708 29329 net.cpp:395] fc6 <- fc5
I0301 17:03:46.545727 29329 net.cpp:357] fc6 -> fc6
I0301 17:03:46.545742 29329 net.cpp:97] Setting up fc6
I0301 17:03:46.546450 29329 net.cpp:104] Top shape: 256 121 1 1 (30976)
I0301 17:03:46.546474 29329 layer_factory.hpp:78] Creating layer fc6_fc6_0_split
I0301 17:03:46.546490 29329 net.cpp:68] Creating Layer fc6_fc6_0_split
I0301 17:03:46.546504 29329 net.cpp:395] fc6_fc6_0_split <- fc6
I0301 17:03:46.546519 29329 net.cpp:357] fc6_fc6_0_split -> fc6_fc6_0_split_0
I0301 17:03:46.546538 29329 net.cpp:357] fc6_fc6_0_split -> fc6_fc6_0_split_1
I0301 17:03:46.546556 29329 net.cpp:97] Setting up fc6_fc6_0_split
I0301 17:03:46.546571 29329 net.cpp:104] Top shape: 256 121 1 1 (30976)
I0301 17:03:46.546583 29329 net.cpp:104] Top shape: 256 121 1 1 (30976)
I0301 17:03:46.546596 29329 layer_factory.hpp:78] Creating layer prob
I0301 17:03:46.546615 29329 net.cpp:68] Creating Layer prob
I0301 17:03:46.546628 29329 net.cpp:395] prob <- fc6_fc6_0_split_0
I0301 17:03:46.546696 29329 net.cpp:357] prob -> prob
I0301 17:03:46.546715 29329 net.cpp:97] Setting up prob
I0301 17:03:46.546732 29329 net.cpp:104] Top shape: 256 121 1 1 (30976)
I0301 17:03:46.546747 29329 layer_factory.hpp:78] Creating layer accuracy
I0301 17:03:46.546767 29329 net.cpp:68] Creating Layer accuracy
I0301 17:03:46.546782 29329 net.cpp:395] accuracy <- prob
I0301 17:03:46.546797 29329 net.cpp:395] accuracy <- label_data_1_split_0
I0301 17:03:46.546816 29329 net.cpp:357] accuracy -> accuracy
I0301 17:03:46.546833 29329 net.cpp:97] Setting up accuracy
I0301 17:03:46.546849 29329 net.cpp:104] Top shape: 1 1 1 1 (1)
I0301 17:03:46.546862 29329 layer_factory.hpp:78] Creating layer loss
I0301 17:03:46.546877 29329 net.cpp:68] Creating Layer loss
I0301 17:03:46.546888 29329 net.cpp:395] loss <- fc6_fc6_0_split_1
I0301 17:03:46.546901 29329 net.cpp:395] loss <- label_data_1_split_1
I0301 17:03:46.546916 29329 net.cpp:357] loss -> loss
I0301 17:03:46.546931 29329 net.cpp:97] Setting up loss
I0301 17:03:46.546944 29329 layer_factory.hpp:78] Creating layer loss
I0301 17:03:46.547050 29329 net.cpp:104] Top shape: 1 1 1 1 (1)
I0301 17:03:46.547067 29329 net.cpp:110]     with loss weight 1
I0301 17:03:46.547096 29329 net.cpp:171] loss needs backward computation.
I0301 17:03:46.547109 29329 net.cpp:173] accuracy does not need backward computation.
I0301 17:03:46.547122 29329 net.cpp:173] prob does not need backward computation.
I0301 17:03:46.547133 29329 net.cpp:171] fc6_fc6_0_split needs backward computation.
…
