…
I0301 15:53:04.137598 22389 net.cpp:276] The NetState phase (0) differed from the phase (1) specified by a rule in layer accuracy
I0301 15:53:04.137789 22389 net.cpp:39] Initializing net from parameters: 
name: "model3_scaled"
layers {
  top: "data"
  top: "label"
  name: "data"
  type: DATA
  data_param {
    source: "/home/jaehyun/kaggle/nationalDataScienceBowl/data/typeE/train_lmdb"
    batch_size: 128
    backend: LMDB
    shuffle: true
  }
  include {
    phase: TRAIN
  }
  transform_param {
    scale: 0.00390625
    mirror: true
    mean_file: "/home/jaehyun/kaggle/nationalDataScienceBowl/data/typeE/train_mean.binaryproto"
  }
}
layers {
  bottom: "data"
  top: "conv1"
  name: "conv1"
  type: CONVOLUTION
  blobs_lr: 1
  blobs_lr: 2
  weight_decay: 1
  weight_decay: 0
  convolution_param {
    num_output: 256
    kernel_size: 4
    stride: 2
    weight_filler {
      type: "gaussian"
      std: 0.01
    }
    bias_filler {
      type: "constant"
      value: 0
    }
  }
}
layers {
  bottom: "conv1"
  top: "conv1"
  name: "relu1"
  type: RELU
  relu_param {
    negative_slope: 0.1
  }
}
layers {
  bottom: "conv1"
  top: "cccp1"
  name: "cccp1"
  type: CONVOLUTION
  blobs_lr: 1
  blobs_lr: 2
  weight_decay: 1
  weight_decay: 0
  convolution_param {
    num_output: 256
    kernel_size: 1
    group: 1
    stride: 1
    weight_filler {
      type: "gaussian"
      std: 0.01
    }
    bias_filler {
      type: "constant"
      value: 0
    }
  }
}
layers {
  bottom: "cccp1"
  top: "cccp1"
  name: "relu_cccp1"
  type: RELU
  relu_param {
    negative_slope: 0.1
  }
}
layers {
  bottom: "cccp1"
  top: "pool1"
  name: "pool1"
  type: POOLING
  pooling_param {
    pool: MAX
    kernel_size: 3
    stride: 2
  }
}
layers {
  bottom: "pool1"
  top: "conv2"
  name: "conv2"
  type: CONVOLUTION
  blobs_lr: 1
  blobs_lr: 2
  weight_decay: 1
  weight_decay: 0
  convolution_param {
    num_output: 128
    kernel_size: 3
    weight_filler {
      type: "gaussian"
      std: 0.01
    }
    bias_filler {
      type: "constant"
      value: 1
    }
  }
}
layers {
  bottom: "conv2"
  top: "conv2"
  name: "relu2"
  type: RELU
  relu_param {
    negative_slope: 0.1
  }
}
layers {
  bottom: "conv2"
  top: "conv3"
  name: "conv3"
  type: CONVOLUTION
  blobs_lr: 1
  blobs_lr: 2
  weight_decay: 1
  weight_decay: 0
  convolution_param {
    num_output: 128
    kernel_size: 3
    weight_filler {
      type: "gaussian"
      std: 0.01
    }
    bias_filler {
      type: "constant"
      value: 0
    }
  }
}
layers {
  bottom: "conv3"
  top: "conv3"
  name: "relu3"
  type: RELU
  relu_param {
    negative_slope: 0.1
  }
}
layers {
  bottom: "conv3"
  top: "pool3"
  name: "pool3"
  type: POOLING
  pooling_param {
    pool: MAX
    kernel_size: 3
    stride: 2
  }
}
layers {
  bottom: "pool3"
  top: "fc4"
  name: "fc4"
  type: INNER_PRODUCT
  blobs_lr: 1
  blobs_lr: 2
  weight_decay: 1
  weight_decay: 0
  inner_product_param {
    num_output: 512
    weight_filler {
      type: "gaussian"
      std: 0.005
    }
    bias_filler {
      type: "constant"
      value: 1
    }
  }
}
layers {
  bottom: "fc4"
  top: "fc4"
  name: "relu4"
  type: RELU
  relu_param {
    negative_slope: 0.1
  }
}
layers {
  bottom: "fc4"
  top: "fc4"
  name: "drop4"
  type: DROPOUT
  dropout_param {
    dropout_ratio: 0.5
  }
}
layers {
  bottom: "fc4"
  top: "fc5"
  name: "fc5"
  type: INNER_PRODUCT
  blobs_lr: 1
  blobs_lr: 2
  weight_decay: 1
  weight_decay: 0
  inner_product_param {
    num_output: 512
    weight_filler {
      type: "gaussian"
      std: 0.005
    }
    bias_filler {
      type: "constant"
      value: 1
    }
  }
}
layers {
  bottom: "fc5"
  top: "fc5"
  name: "relu5"
  type: RELU
  relu_param {
    negative_slope: 0.1
  }
}
layers {
  bottom: "fc5"
  top: "fc5"
  name: "drop5"
  type: DROPOUT
  dropout_param {
    dropout_ratio: 0.5
  }
}
layers {
  bottom: "fc5"
  top: "fc6"
  name: "fc6"
  type: INNER_PRODUCT
  blobs_lr: 1
  blobs_lr: 2
  weight_decay: 1
  weight_decay: 0
  inner_product_param {
    num_output: 121
    weight_filler {
      type: "gaussian"
      std: 0.01
    }
    bias_filler {
      type: "constant"
      value: 0
    }
  }
}
layers {
  bottom: "fc6"
  bottom: "label"
  top: "loss"
  name: "loss"
  type: SOFTMAX_LOSS
}
state {
  phase: TRAIN
}
I0301 15:53:04.138741 22389 layer_factory.hpp:78] Creating layer data
I0301 15:53:04.138769 22389 data_transformer.cpp:24] Loading mean file from/home/jaehyun/kaggle/nationalDataScienceBowl/data/typeE/train_mean.binaryproto
I0301 15:53:04.138963 22389 net.cpp:68] Creating Layer data
I0301 15:53:04.138988 22389 net.cpp:357] data -> data
I0301 15:53:04.139021 22389 net.cpp:357] data -> label
I0301 15:53:04.139045 22389 net.cpp:97] Setting up data
I0301 15:53:04.139062 22389 data_layer.cpp:34] Opening dataset /home/jaehyun/kaggle/nationalDataScienceBowl/data/typeE/train_lmdb
I0301 15:53:04.139236 22389 data_layer.cpp:73] output data size: 128,1,96,96
I0301 15:53:04.141752 22389 net.cpp:104] Top shape: 128 1 96 96 (1179648)
I0301 15:53:04.141780 22389 net.cpp:104] Top shape: 128 1 1 1 (128)
I0301 15:53:04.141793 22389 layer_factory.hpp:78] Creating layer conv1
I0301 15:53:04.141819 22389 net.cpp:68] Creating Layer conv1
I0301 15:53:04.141831 22389 net.cpp:395] conv1 <- data
I0301 15:53:04.141856 22389 net.cpp:357] conv1 -> conv1
I0301 15:53:04.141876 22389 net.cpp:97] Setting up conv1
I0301 15:53:04.174098 22389 net.cpp:104] Top shape: 128 256 47 47 (72384512)
I0301 15:53:04.174190 22389 layer_factory.hpp:78] Creating layer relu1
I0301 15:53:04.174218 22389 net.cpp:68] Creating Layer relu1
I0301 15:53:04.174234 22389 net.cpp:395] relu1 <- conv1
I0301 15:53:04.174252 22389 net.cpp:346] relu1 -> conv1 (in-place)
I0301 15:53:04.174270 22389 net.cpp:97] Setting up relu1
I0301 15:53:04.174293 22389 net.cpp:104] Top shape: 128 256 47 47 (72384512)
I0301 15:53:04.174305 22389 layer_factory.hpp:78] Creating layer cccp1
I0301 15:53:04.174326 22389 net.cpp:68] Creating Layer cccp1
I0301 15:53:04.174338 22389 net.cpp:395] cccp1 <- conv1
I0301 15:53:04.174353 22389 net.cpp:357] cccp1 -> cccp1
I0301 15:53:04.174370 22389 net.cpp:97] Setting up cccp1
I0301 15:53:04.177183 22389 net.cpp:104] Top shape: 128 256 47 47 (72384512)
I0301 15:53:04.177213 22389 layer_factory.hpp:78] Creating layer relu_cccp1
I0301 15:53:04.177233 22389 net.cpp:68] Creating Layer relu_cccp1
I0301 15:53:04.177247 22389 net.cpp:395] relu_cccp1 <- cccp1
I0301 15:53:04.177261 22389 net.cpp:346] relu_cccp1 -> cccp1 (in-place)
I0301 15:53:04.177280 22389 net.cpp:97] Setting up relu_cccp1
I0301 15:53:04.177295 22389 net.cpp:104] Top shape: 128 256 47 47 (72384512)
I0301 15:53:04.177309 22389 layer_factory.hpp:78] Creating layer pool1
I0301 15:53:04.177325 22389 net.cpp:68] Creating Layer pool1
I0301 15:53:04.177336 22389 net.cpp:395] pool1 <- cccp1
I0301 15:53:04.177352 22389 net.cpp:357] pool1 -> pool1
I0301 15:53:04.177369 22389 net.cpp:97] Setting up pool1
I0301 15:53:04.177453 22389 net.cpp:104] Top shape: 128 256 23 23 (17334272)
I0301 15:53:04.177469 22389 layer_factory.hpp:78] Creating layer conv2
I0301 15:53:04.177491 22389 net.cpp:68] Creating Layer conv2
I0301 15:53:04.177505 22389 net.cpp:395] conv2 <- pool1
I0301 15:53:04.177521 22389 net.cpp:357] conv2 -> conv2
I0301 15:53:04.177537 22389 net.cpp:97] Setting up conv2
I0301 15:53:04.189822 22389 net.cpp:104] Top shape: 128 128 21 21 (7225344)
I0301 15:53:04.189856 22389 layer_factory.hpp:78] Creating layer relu2
I0301 15:53:04.189873 22389 net.cpp:68] Creating Layer relu2
I0301 15:53:04.189888 22389 net.cpp:395] relu2 <- conv2
I0301 15:53:04.189903 22389 net.cpp:346] relu2 -> conv2 (in-place)
I0301 15:53:04.189918 22389 net.cpp:97] Setting up relu2
I0301 15:53:04.189934 22389 net.cpp:104] Top shape: 128 128 21 21 (7225344)
I0301 15:53:04.189945 22389 layer_factory.hpp:78] Creating layer conv3
I0301 15:53:04.189965 22389 net.cpp:68] Creating Layer conv3
I0301 15:53:04.189977 22389 net.cpp:395] conv3 <- conv2
I0301 15:53:04.189990 22389 net.cpp:357] conv3 -> conv3
I0301 15:53:04.190006 22389 net.cpp:97] Setting up conv3
I0301 15:53:04.196269 22389 net.cpp:104] Top shape: 128 128 19 19 (5914624)
I0301 15:53:04.196298 22389 layer_factory.hpp:78] Creating layer relu3
I0301 15:53:04.196313 22389 net.cpp:68] Creating Layer relu3
I0301 15:53:04.196326 22389 net.cpp:395] relu3 <- conv3
I0301 15:53:04.196342 22389 net.cpp:346] relu3 -> conv3 (in-place)
I0301 15:53:04.196359 22389 net.cpp:97] Setting up relu3
I0301 15:53:04.196377 22389 net.cpp:104] Top shape: 128 128 19 19 (5914624)
I0301 15:53:04.196388 22389 layer_factory.hpp:78] Creating layer pool3
I0301 15:53:04.196401 22389 net.cpp:68] Creating Layer pool3
I0301 15:53:04.196413 22389 net.cpp:395] pool3 <- conv3
I0301 15:53:04.196427 22389 net.cpp:357] pool3 -> pool3
I0301 15:53:04.196441 22389 net.cpp:97] Setting up pool3
I0301 15:53:04.196457 22389 net.cpp:104] Top shape: 128 128 9 9 (1327104)
I0301 15:53:04.196470 22389 layer_factory.hpp:78] Creating layer fc4
I0301 15:53:04.196490 22389 net.cpp:68] Creating Layer fc4
I0301 15:53:04.196501 22389 net.cpp:395] fc4 <- pool3
I0301 15:53:04.196516 22389 net.cpp:357] fc4 -> fc4
I0301 15:53:04.196535 22389 net.cpp:97] Setting up fc4
I0301 15:53:04.413099 22389 net.cpp:104] Top shape: 128 512 1 1 (65536)
I0301 15:53:04.413168 22389 layer_factory.hpp:78] Creating layer relu4
I0301 15:53:04.413188 22389 net.cpp:68] Creating Layer relu4
I0301 15:53:04.413203 22389 net.cpp:395] relu4 <- fc4
I0301 15:53:04.413220 22389 net.cpp:346] relu4 -> fc4 (in-place)
I0301 15:53:04.413239 22389 net.cpp:97] Setting up relu4
I0301 15:53:04.413264 22389 net.cpp:104] Top shape: 128 512 1 1 (65536)
I0301 15:53:04.413277 22389 layer_factory.hpp:78] Creating layer drop4
I0301 15:53:04.413295 22389 net.cpp:68] Creating Layer drop4
I0301 15:53:04.413306 22389 net.cpp:395] drop4 <- fc4
I0301 15:53:04.413319 22389 net.cpp:346] drop4 -> fc4 (in-place)
I0301 15:53:04.413333 22389 net.cpp:97] Setting up drop4
I0301 15:53:04.413347 22389 net.cpp:104] Top shape: 128 512 1 1 (65536)
I0301 15:53:04.413358 22389 layer_factory.hpp:78] Creating layer fc5
I0301 15:53:04.413377 22389 net.cpp:68] Creating Layer fc5
I0301 15:53:04.413389 22389 net.cpp:395] fc5 <- fc4
I0301 15:53:04.413403 22389 net.cpp:357] fc5 -> fc5
I0301 15:53:04.413419 22389 net.cpp:97] Setting up fc5
I0301 15:53:04.424286 22389 net.cpp:104] Top shape: 128 512 1 1 (65536)
I0301 15:53:04.424314 22389 layer_factory.hpp:78] Creating layer relu5
I0301 15:53:04.424329 22389 net.cpp:68] Creating Layer relu5
I0301 15:53:04.424342 22389 net.cpp:395] relu5 <- fc5
I0301 15:53:04.424362 22389 net.cpp:346] relu5 -> fc5 (in-place)
I0301 15:53:04.424381 22389 net.cpp:97] Setting up relu5
I0301 15:53:04.424397 22389 net.cpp:104] Top shape: 128 512 1 1 (65536)
I0301 15:53:04.424410 22389 layer_factory.hpp:78] Creating layer drop5
I0301 15:53:04.424427 22389 net.cpp:68] Creating Layer drop5
I0301 15:53:04.424438 22389 net.cpp:395] drop5 <- fc5
I0301 15:53:04.424451 22389 net.cpp:346] drop5 -> fc5 (in-place)
I0301 15:53:04.424510 22389 net.cpp:97] Setting up drop5
I0301 15:53:04.424523 22389 net.cpp:104] Top shape: 128 512 1 1 (65536)
I0301 15:53:04.424535 22389 layer_factory.hpp:78] Creating layer fc6
I0301 15:53:04.424551 22389 net.cpp:68] Creating Layer fc6
I0301 15:53:04.424564 22389 net.cpp:395] fc6 <- fc5
I0301 15:53:04.424578 22389 net.cpp:357] fc6 -> fc6
I0301 15:53:04.424593 22389 net.cpp:97] Setting up fc6
I0301 15:53:04.427142 22389 net.cpp:104] Top shape: 128 121 1 1 (15488)
I0301 15:53:04.427166 22389 layer_factory.hpp:78] Creating layer loss
I0301 15:53:04.427184 22389 net.cpp:68] Creating Layer loss
I0301 15:53:04.427196 22389 net.cpp:395] loss <- fc6
I0301 15:53:04.427211 22389 net.cpp:395] loss <- label
I0301 15:53:04.427228 22389 net.cpp:357] loss -> loss
I0301 15:53:04.427247 22389 net.cpp:97] Setting up loss
I0301 15:53:04.427263 22389 layer_factory.hpp:78] Creating layer loss
I0301 15:53:04.427325 22389 net.cpp:104] Top shape: 1 1 1 1 (1)
I0301 15:53:04.427341 22389 net.cpp:110]     with loss weight 1
I0301 15:53:04.427387 22389 net.cpp:171] loss needs backward computation.
I0301 15:53:04.427399 22389 net.cpp:171] fc6 needs backward computation.
I0301 15:53:04.427410 22389 net.cpp:171] drop5 needs backward computation.
I0301 15:53:04.427422 22389 net.cpp:171] relu5 needs backward computation.
I0301 15:53:04.427431 22389 net.cpp:171] fc5 needs backward computation.
…
I0301 15:53:04.428437 22389 net.cpp:276] The NetState phase (1) differed from the phase (0) specified by a rule in layer data
I0301 15:53:04.428653 22389 net.cpp:39] Initializing net from parameters: 
name: "model3_scaled"
layers {
  top: "data"
  top: "label"
  name: "data"
  type: DATA
  data_param {
    source: "/home/jaehyun/kaggle/nationalDataScienceBowl/data/typeE/val_lmdb"
    batch_size: 128
    backend: LMDB
  }
  include {
    phase: TEST
  }
  transform_param {
    scale: 0.00390625
    mirror: false
    mean_file: "/home/jaehyun/kaggle/nationalDataScienceBowl/data/typeE/train_mean.binaryproto"
  }
}
layers {
  bottom: "data"
  top: "conv1"
  name: "conv1"
  type: CONVOLUTION
  blobs_lr: 1
  blobs_lr: 2
  weight_decay: 1
  weight_decay: 0
  convolution_param {
    num_output: 256
    kernel_size: 4
    stride: 2
    weight_filler {
      type: "gaussian"
      std: 0.01
    }
    bias_filler {
      type: "constant"
      value: 0
    }
  }
}
layers {
  bottom: "conv1"
  top: "conv1"
  name: "relu1"
  type: RELU
  relu_param {
    negative_slope: 0.1
  }
}
layers {
  bottom: "conv1"
  top: "cccp1"
  name: "cccp1"
  type: CONVOLUTION
  blobs_lr: 1
  blobs_lr: 2
  weight_decay: 1
  weight_decay: 0
  convolution_param {
    num_output: 256
    kernel_size: 1
    group: 1
    stride: 1
    weight_filler {
      type: "gaussian"
      std: 0.01
    }
    bias_filler {
      type: "constant"
      value: 0
    }
  }
}
layers {
  bottom: "cccp1"
  top: "cccp1"
  name: "relu_cccp1"
  type: RELU
  relu_param {
    negative_slope: 0.1
  }
}
layers {
  bottom: "cccp1"
  top: "pool1"
  name: "pool1"
  type: POOLING
  pooling_param {
    pool: MAX
    kernel_size: 3
    stride: 2
  }
}
layers {
  bottom: "pool1"
  top: "conv2"
  name: "conv2"
  type: CONVOLUTION
  blobs_lr: 1
  blobs_lr: 2
  weight_decay: 1
  weight_decay: 0
  convolution_param {
    num_output: 128
    kernel_size: 3
    weight_filler {
      type: "gaussian"
      std: 0.01
    }
    bias_filler {
      type: "constant"
      value: 1
    }
  }
}
layers {
  bottom: "conv2"
  top: "conv2"
  name: "relu2"
  type: RELU
  relu_param {
    negative_slope: 0.1
  }
}
layers {
  bottom: "conv2"
  top: "conv3"
  name: "conv3"
  type: CONVOLUTION
  blobs_lr: 1
  blobs_lr: 2
  weight_decay: 1
  weight_decay: 0
  convolution_param {
    num_output: 128
    kernel_size: 3
    weight_filler {
      type: "gaussian"
      std: 0.01
    }
    bias_filler {
      type: "constant"
      value: 0
    }
  }
}
layers {
  bottom: "conv3"
  top: "conv3"
  name: "relu3"
  type: RELU
  relu_param {
    negative_slope: 0.1
  }
}
layers {
  bottom: "conv3"
  top: "pool3"
  name: "pool3"
  type: POOLING
  pooling_param {
    pool: MAX
    kernel_size: 3
    stride: 2
  }
}
layers {
  bottom: "pool3"
  top: "fc4"
  name: "fc4"
  type: INNER_PRODUCT
  blobs_lr: 1
  blobs_lr: 2
  weight_decay: 1
  weight_decay: 0
  inner_product_param {
    num_output: 512
    weight_filler {
      type: "gaussian"
      std: 0.005
    }
    bias_filler {
      type: "constant"
      value: 1
    }
  }
}
layers {
  bottom: "fc4"
  top: "fc4"
  name: "relu4"
  type: RELU
  relu_param {
    negative_slope: 0.1
  }
}
layers {
  bottom: "fc4"
  top: "fc4"
  name: "drop4"
  type: DROPOUT
  dropout_param {
    dropout_ratio: 0.5
  }
}
layers {
  bottom: "fc4"
  top: "fc5"
  name: "fc5"
  type: INNER_PRODUCT
  blobs_lr: 1
  blobs_lr: 2
  weight_decay: 1
  weight_decay: 0
  inner_product_param {
    num_output: 512
    weight_filler {
      type: "gaussian"
      std: 0.005
    }
    bias_filler {
      type: "constant"
      value: 1
    }
  }
}
layers {
  bottom: "fc5"
  top: "fc5"
  name: "relu5"
  type: RELU
  relu_param {
    negative_slope: 0.1
  }
}
layers {
  bottom: "fc5"
  top: "fc5"
  name: "drop5"
  type: DROPOUT
  dropout_param {
    dropout_ratio: 0.5
  }
}
layers {
  bottom: "fc5"
  top: "fc6"
  name: "fc6"
  type: INNER_PRODUCT
  blobs_lr: 1
  blobs_lr: 2
  weight_decay: 1
  weight_decay: 0
  inner_product_param {
    num_output: 121
    weight_filler {
      type: "gaussian"
      std: 0.01
    }
    bias_filler {
      type: "constant"
      value: 0
    }
  }
}
layers {
  bottom: "fc6"
  top: "prob"
  name: "prob"
  type: SOFTMAX
  include {
    phase: TEST
  }
}
layers {
  bottom: "prob"
  bottom: "label"
  top: "accuracy"
  name: "accuracy"
  type: ACCURACY
  accuracy_param {
    top_k: 1
  }
  include {
    phase: TEST
  }
}
layers {
  bottom: "fc6"
  bottom: "label"
  top: "loss"
  name: "loss"
  type: SOFTMAX_LOSS
}
state {
  phase: TEST
}
I0301 15:53:04.429704 22389 layer_factory.hpp:78] Creating layer data
I0301 15:53:04.429728 22389 data_transformer.cpp:24] Loading mean file from/home/jaehyun/kaggle/nationalDataScienceBowl/data/typeE/train_mean.binaryproto
I0301 15:53:04.429891 22389 net.cpp:68] Creating Layer data
I0301 15:53:04.429926 22389 net.cpp:357] data -> data
I0301 15:53:04.429946 22389 net.cpp:357] data -> label
I0301 15:53:04.429962 22389 net.cpp:97] Setting up data
I0301 15:53:04.429976 22389 data_layer.cpp:34] Opening dataset /home/jaehyun/kaggle/nationalDataScienceBowl/data/typeE/val_lmdb
I0301 15:53:04.430068 22389 data_layer.cpp:73] output data size: 128,1,96,96
I0301 15:53:04.432137 22389 net.cpp:104] Top shape: 128 1 96 96 (1179648)
I0301 15:53:04.432168 22389 net.cpp:104] Top shape: 128 1 1 1 (128)
I0301 15:53:04.432183 22389 layer_factory.hpp:78] Creating layer label_data_1_split
I0301 15:53:04.432201 22389 net.cpp:68] Creating Layer label_data_1_split
I0301 15:53:04.432214 22389 net.cpp:395] label_data_1_split <- label
I0301 15:53:04.432229 22389 net.cpp:357] label_data_1_split -> label_data_1_split_0
I0301 15:53:04.432447 22389 net.cpp:357] label_data_1_split -> label_data_1_split_1
I0301 15:53:04.432474 22389 net.cpp:97] Setting up label_data_1_split
I0301 15:53:04.432510 22389 net.cpp:104] Top shape: 128 1 1 1 (128)
I0301 15:53:04.432528 22389 net.cpp:104] Top shape: 128 1 1 1 (128)
I0301 15:53:04.432543 22389 layer_factory.hpp:78] Creating layer conv1
I0301 15:53:04.432572 22389 net.cpp:68] Creating Layer conv1
I0301 15:53:04.432587 22389 net.cpp:395] conv1 <- data
I0301 15:53:04.432611 22389 net.cpp:357] conv1 -> conv1
I0301 15:53:04.432633 22389 net.cpp:97] Setting up conv1
I0301 15:53:04.433217 22389 net.cpp:104] Top shape: 128 256 47 47 (72384512)
I0301 15:53:04.433259 22389 layer_factory.hpp:78] Creating layer relu1
I0301 15:53:04.433300 22389 net.cpp:68] Creating Layer relu1
I0301 15:53:04.433321 22389 net.cpp:395] relu1 <- conv1
I0301 15:53:04.433346 22389 net.cpp:346] relu1 -> conv1 (in-place)
I0301 15:53:04.433367 22389 net.cpp:97] Setting up relu1
I0301 15:53:04.433388 22389 net.cpp:104] Top shape: 128 256 47 47 (72384512)
I0301 15:53:04.433403 22389 layer_factory.hpp:78] Creating layer cccp1
I0301 15:53:04.433435 22389 net.cpp:68] Creating Layer cccp1
I0301 15:53:04.433456 22389 net.cpp:395] cccp1 <- conv1
I0301 15:53:04.433476 22389 net.cpp:357] cccp1 -> cccp1
I0301 15:53:04.433496 22389 net.cpp:97] Setting up cccp1
I0301 15:53:04.439389 22389 net.cpp:104] Top shape: 128 256 47 47 (72384512)
I0301 15:53:04.439465 22389 layer_factory.hpp:78] Creating layer relu_cccp1
I0301 15:53:04.439499 22389 net.cpp:68] Creating Layer relu_cccp1
I0301 15:53:04.439529 22389 net.cpp:395] relu_cccp1 <- cccp1
I0301 15:53:04.439558 22389 net.cpp:346] relu_cccp1 -> cccp1 (in-place)
I0301 15:53:04.439587 22389 net.cpp:97] Setting up relu_cccp1
I0301 15:53:04.439618 22389 net.cpp:104] Top shape: 128 256 47 47 (72384512)
I0301 15:53:04.439645 22389 layer_factory.hpp:78] Creating layer pool1
I0301 15:53:04.439672 22389 net.cpp:68] Creating Layer pool1
I0301 15:53:04.439697 22389 net.cpp:395] pool1 <- cccp1
I0301 15:53:04.439729 22389 net.cpp:357] pool1 -> pool1
I0301 15:53:04.439762 22389 net.cpp:97] Setting up pool1
I0301 15:53:04.439800 22389 net.cpp:104] Top shape: 128 256 23 23 (17334272)
I0301 15:53:04.439824 22389 layer_factory.hpp:78] Creating layer conv2
I0301 15:53:04.439862 22389 net.cpp:68] Creating Layer conv2
I0301 15:53:04.439887 22389 net.cpp:395] conv2 <- pool1
I0301 15:53:04.439914 22389 net.cpp:357] conv2 -> conv2
I0301 15:53:04.439945 22389 net.cpp:97] Setting up conv2
I0301 15:53:04.452347 22389 net.cpp:104] Top shape: 128 128 21 21 (7225344)
I0301 15:53:04.452396 22389 layer_factory.hpp:78] Creating layer relu2
I0301 15:53:04.452421 22389 net.cpp:68] Creating Layer relu2
I0301 15:53:04.452436 22389 net.cpp:395] relu2 <- conv2
I0301 15:53:04.452455 22389 net.cpp:346] relu2 -> conv2 (in-place)
I0301 15:53:04.452472 22389 net.cpp:97] Setting up relu2
I0301 15:53:04.452488 22389 net.cpp:104] Top shape: 128 128 21 21 (7225344)
I0301 15:53:04.452500 22389 layer_factory.hpp:78] Creating layer conv3
I0301 15:53:04.452519 22389 net.cpp:68] Creating Layer conv3
I0301 15:53:04.452532 22389 net.cpp:395] conv3 <- conv2
I0301 15:53:04.452548 22389 net.cpp:357] conv3 -> conv3
I0301 15:53:04.452623 22389 net.cpp:97] Setting up conv3
I0301 15:53:04.458781 22389 net.cpp:104] Top shape: 128 128 19 19 (5914624)
I0301 15:53:04.458809 22389 layer_factory.hpp:78] Creating layer relu3
I0301 15:53:04.458825 22389 net.cpp:68] Creating Layer relu3
I0301 15:53:04.458837 22389 net.cpp:395] relu3 <- conv3
I0301 15:53:04.458855 22389 net.cpp:346] relu3 -> conv3 (in-place)
I0301 15:53:04.458873 22389 net.cpp:97] Setting up relu3
I0301 15:53:04.458894 22389 net.cpp:104] Top shape: 128 128 19 19 (5914624)
I0301 15:53:04.458906 22389 layer_factory.hpp:78] Creating layer pool3
I0301 15:53:04.458921 22389 net.cpp:68] Creating Layer pool3
I0301 15:53:04.458933 22389 net.cpp:395] pool3 <- conv3
I0301 15:53:04.458950 22389 net.cpp:357] pool3 -> pool3
I0301 15:53:04.458964 22389 net.cpp:97] Setting up pool3
I0301 15:53:04.458983 22389 net.cpp:104] Top shape: 128 128 9 9 (1327104)
I0301 15:53:04.458995 22389 layer_factory.hpp:78] Creating layer fc4
I0301 15:53:04.459013 22389 net.cpp:68] Creating Layer fc4
I0301 15:53:04.459024 22389 net.cpp:395] fc4 <- pool3
I0301 15:53:04.459041 22389 net.cpp:357] fc4 -> fc4
I0301 15:53:04.459058 22389 net.cpp:97] Setting up fc4
I0301 15:53:04.679786 22389 net.cpp:104] Top shape: 128 512 1 1 (65536)
I0301 15:53:04.679860 22389 layer_factory.hpp:78] Creating layer relu4
I0301 15:53:04.679885 22389 net.cpp:68] Creating Layer relu4
I0301 15:53:04.679901 22389 net.cpp:395] relu4 <- fc4
I0301 15:53:04.679919 22389 net.cpp:346] relu4 -> fc4 (in-place)
I0301 15:53:04.679936 22389 net.cpp:97] Setting up relu4
I0301 15:53:04.679965 22389 net.cpp:104] Top shape: 128 512 1 1 (65536)
I0301 15:53:04.679976 22389 layer_factory.hpp:78] Creating layer drop4
I0301 15:53:04.679991 22389 net.cpp:68] Creating Layer drop4
I0301 15:53:04.680003 22389 net.cpp:395] drop4 <- fc4
I0301 15:53:04.680019 22389 net.cpp:346] drop4 -> fc4 (in-place)
I0301 15:53:04.680034 22389 net.cpp:97] Setting up drop4
I0301 15:53:04.680047 22389 net.cpp:104] Top shape: 128 512 1 1 (65536)
I0301 15:53:04.680066 22389 layer_factory.hpp:78] Creating layer fc5
I0301 15:53:04.680083 22389 net.cpp:68] Creating Layer fc5
I0301 15:53:04.680095 22389 net.cpp:395] fc5 <- fc4
I0301 15:53:04.680109 22389 net.cpp:357] fc5 -> fc5
I0301 15:53:04.680125 22389 net.cpp:97] Setting up fc5
I0301 15:53:04.690906 22389 net.cpp:104] Top shape: 128 512 1 1 (65536)
I0301 15:53:04.690932 22389 layer_factory.hpp:78] Creating layer relu5
I0301 15:53:04.690949 22389 net.cpp:68] Creating Layer relu5
I0301 15:53:04.690963 22389 net.cpp:395] relu5 <- fc5
I0301 15:53:04.690979 22389 net.cpp:346] relu5 -> fc5 (in-place)
I0301 15:53:04.690994 22389 net.cpp:97] Setting up relu5
I0301 15:53:04.691009 22389 net.cpp:104] Top shape: 128 512 1 1 (65536)
I0301 15:53:04.691022 22389 layer_factory.hpp:78] Creating layer drop5
I0301 15:53:04.691035 22389 net.cpp:68] Creating Layer drop5
I0301 15:53:04.691046 22389 net.cpp:395] drop5 <- fc5
I0301 15:53:04.691062 22389 net.cpp:346] drop5 -> fc5 (in-place)
I0301 15:53:04.691076 22389 net.cpp:97] Setting up drop5
I0301 15:53:04.691087 22389 net.cpp:104] Top shape: 128 512 1 1 (65536)
I0301 15:53:04.691098 22389 layer_factory.hpp:78] Creating layer fc6
I0301 15:53:04.691113 22389 net.cpp:68] Creating Layer fc6
I0301 15:53:04.691124 22389 net.cpp:395] fc6 <- fc5
I0301 15:53:04.691138 22389 net.cpp:357] fc6 -> fc6
I0301 15:53:04.691153 22389 net.cpp:97] Setting up fc6
I0301 15:53:04.693717 22389 net.cpp:104] Top shape: 128 121 1 1 (15488)
I0301 15:53:04.693740 22389 layer_factory.hpp:78] Creating layer fc6_fc6_0_split
I0301 15:53:04.693755 22389 net.cpp:68] Creating Layer fc6_fc6_0_split
I0301 15:53:04.693768 22389 net.cpp:395] fc6_fc6_0_split <- fc6
I0301 15:53:04.693789 22389 net.cpp:357] fc6_fc6_0_split -> fc6_fc6_0_split_0
I0301 15:53:04.693805 22389 net.cpp:357] fc6_fc6_0_split -> fc6_fc6_0_split_1
I0301 15:53:04.693820 22389 net.cpp:97] Setting up fc6_fc6_0_split
I0301 15:53:04.693833 22389 net.cpp:104] Top shape: 128 121 1 1 (15488)
I0301 15:53:04.693845 22389 net.cpp:104] Top shape: 128 121 1 1 (15488)
I0301 15:53:04.693861 22389 layer_factory.hpp:78] Creating layer prob
I0301 15:53:04.693930 22389 net.cpp:68] Creating Layer prob
I0301 15:53:04.693943 22389 net.cpp:395] prob <- fc6_fc6_0_split_0
I0301 15:53:04.693963 22389 net.cpp:357] prob -> prob
I0301 15:53:04.693979 22389 net.cpp:97] Setting up prob
I0301 15:53:04.693999 22389 net.cpp:104] Top shape: 128 121 1 1 (15488)
I0301 15:53:04.694011 22389 layer_factory.hpp:78] Creating layer accuracy
I0301 15:53:04.694030 22389 net.cpp:68] Creating Layer accuracy
I0301 15:53:04.694041 22389 net.cpp:395] accuracy <- prob
I0301 15:53:04.694058 22389 net.cpp:395] accuracy <- label_data_1_split_0
I0301 15:53:04.694082 22389 net.cpp:357] accuracy -> accuracy
I0301 15:53:04.694100 22389 net.cpp:97] Setting up accuracy
I0301 15:53:04.694118 22389 net.cpp:104] Top shape: 1 1 1 1 (1)
I0301 15:53:04.694129 22389 layer_factory.hpp:78] Creating layer loss
I0301 15:53:04.694145 22389 net.cpp:68] Creating Layer loss
I0301 15:53:04.694157 22389 net.cpp:395] loss <- fc6_fc6_0_split_1
I0301 15:53:04.694170 22389 net.cpp:395] loss <- label_data_1_split_1
I0301 15:53:04.694183 22389 net.cpp:357] loss -> loss
I0301 15:53:04.694198 22389 net.cpp:97] Setting up loss
I0301 15:53:04.694211 22389 layer_factory.hpp:78] Creating layer loss
I0301 15:53:04.694270 22389 net.cpp:104] Top shape: 1 1 1 1 (1)
I0301 15:53:04.694288 22389 net.cpp:110]     with loss weight 1
I0301 15:53:04.694310 22389 net.cpp:171] loss needs backward computation.
I0301 15:53:04.694322 22389 net.cpp:173] accuracy does not need backward computation.
I0301 15:53:04.694334 22389 net.cpp:173] prob does not need backward computation.
I0301 15:53:04.694344 22389 net.cpp:171] fc6_fc6_0_split needs backward computation.
…
