…
I0301 20:39:03.966578   628 net.cpp:276] The NetState phase (0) differed from the phase (1) specified by a rule in layer accuracy
I0301 20:39:03.966775   628 net.cpp:39] Initializing net from parameters: 
name: "model1_part1_bn"
layers {
  top: "data"
  top: "label"
  name: "data"
  type: DATA
  data_param {
    source: "/home/jaehyun/kaggle/nationalDataScienceBowl/data/typeD/train_lmdb"
    batch_size: 256
    backend: LMDB
    shuffle: true
  }
  include {
    phase: TRAIN
  }
  transform_param {
    scale: 0.00390625
    mirror: true
    mean_file: "/home/jaehyun/kaggle/nationalDataScienceBowl/data/typeD/train_mean.binaryproto"
  }
}
layers {
  bottom: "data"
  top: "conv1"
  name: "conv1"
  type: CONVOLUTION
  blobs_lr: 1
  blobs_lr: 2
  weight_decay: 1
  weight_decay: 0
  convolution_param {
    num_output: 128
    kernel_size: 4
    stride: 2
    weight_filler {
      type: "xavier"
    }
    bias_filler {
      type: "constant"
    }
  }
}
layers {
  bottom: "conv1"
  top: "conv1"
  name: "relu1"
  type: RELU
  relu_param {
    negative_slope: 0.1
  }
}
layers {
  bottom: "conv1"
  top: "cccp1"
  name: "cccp1"
  type: CONVOLUTION
  blobs_lr: 1
  blobs_lr: 2
  weight_decay: 1
  weight_decay: 0
  convolution_param {
    num_output: 128
    kernel_size: 1
    group: 1
    stride: 1
    weight_filler {
      type: "xavier"
    }
    bias_filler {
      type: "constant"
    }
  }
}
layers {
  bottom: "cccp1"
  top: "cccp1_bn"
  name: "cccp1_bn"
  type: BN
  blobs_lr: 1
  blobs_lr: 1
  weight_decay: 0
  weight_decay: 0
  bn_param {
    scale_filler {
      type: "constant"
      value: 1
    }
    shift_filler {
      type: "constant"
      value: 0
    }
  }
}
layers {
  bottom: "cccp1_bn"
  top: "cccp1_bn"
  name: "relu_cccp1"
  type: RELU
  relu_param {
    negative_slope: 0.1
  }
}
layers {
  bottom: "cccp1_bn"
  top: "pool1"
  name: "pool1"
  type: POOLING
  pooling_param {
    pool: MAX
    kernel_size: 3
    stride: 2
  }
}
layers {
  bottom: "pool1"
  top: "conv2"
  name: "conv2"
  type: CONVOLUTION
  blobs_lr: 1
  blobs_lr: 2
  weight_decay: 1
  weight_decay: 0
  convolution_param {
    num_output: 128
    kernel_size: 3
    weight_filler {
      type: "xavier"
    }
    bias_filler {
      type: "constant"
    }
  }
}
layers {
  bottom: "conv2"
  top: "conv2_bn"
  name: "conv2_bn"
  type: BN
  blobs_lr: 1
  blobs_lr: 1
  weight_decay: 0
  weight_decay: 0
  bn_param {
    scale_filler {
      type: "constant"
      value: 1
    }
    shift_filler {
      type: "constant"
      value: 0
    }
  }
}
layers {
  bottom: "conv2_bn"
  top: "conv2_bn"
  name: "relu2"
  type: RELU
  relu_param {
    negative_slope: 0.1
  }
}
layers {
  bottom: "conv2_bn"
  top: "conv3"
  name: "conv3"
  type: CONVOLUTION
  blobs_lr: 1
  blobs_lr: 2
  weight_decay: 1
  weight_decay: 0
  convolution_param {
    num_output: 128
    kernel_size: 3
    weight_filler {
      type: "xavier"
    }
    bias_filler {
      type: "constant"
    }
  }
}
layers {
  bottom: "conv3"
  top: "conv3_bn"
  name: "conv3_bn"
  type: BN
  blobs_lr: 1
  blobs_lr: 1
  weight_decay: 0
  weight_decay: 0
  bn_param {
    scale_filler {
      type: "constant"
      value: 1
    }
    shift_filler {
      type: "constant"
      value: 0
    }
  }
}
layers {
  bottom: "conv3_bn"
  top: "conv3_bn"
  name: "relu3"
  type: RELU
  relu_param {
    negative_slope: 0.1
  }
}
layers {
  bottom: "conv3_bn"
  top: "pool3"
  name: "pool3"
  type: POOLING
  pooling_param {
    pool: MAX
    kernel_size: 3
    stride: 2
  }
}
layers {
  bottom: "pool3"
  top: "fc4"
  name: "fc4"
  type: INNER_PRODUCT
  blobs_lr: 1
  blobs_lr: 2
  weight_decay: 1
  weight_decay: 0
  inner_product_param {
    num_output: 512
    weight_filler {
      type: "xavier"
    }
    bias_filler {
      type: "constant"
    }
  }
}
layers {
  bottom: "fc4"
  top: "fc4"
  name: "relu4"
  type: RELU
  relu_param {
    negative_slope: 0.1
  }
}
layers {
  bottom: "fc4"
  top: "fc4"
  name: "drop4"
  type: DROPOUT
  dropout_param {
    dropout_ratio: 0.5
  }
}
layers {
  bottom: "fc4"
  top: "fc5"
  name: "fc5"
  type: INNER_PRODUCT
  blobs_lr: 1
  blobs_lr: 2
  weight_decay: 1
  weight_decay: 0
  inner_product_param {
    num_output: 512
    weight_filler {
      type: "xavier"
    }
    bias_filler {
      type: "constant"
    }
  }
}
layers {
  bottom: "fc5"
  top: "fc5"
  name: "relu5"
  type: RELU
  relu_param {
    negative_slope: 0.1
  }
}
layers {
  bottom: "fc5"
  top: "fc5"
  name: "drop5"
  type: DROPOUT
  dropout_param {
    dropout_ratio: 0.5
  }
}
layers {
  bottom: "fc5"
  top: "fc6"
  name: "fc6"
  type: INNER_PRODUCT
  blobs_lr: 1
  blobs_lr: 2
  weight_decay: 1
  weight_decay: 0
  inner_product_param {
    num_output: 121
    weight_filler {
      type: "xavier"
    }
    bias_filler {
      type: "constant"
    }
  }
}
layers {
  bottom: "fc6"
  bottom: "label"
  top: "loss"
  name: "loss"
  type: SOFTMAX_LOSS
}
state {
  phase: TRAIN
}
I0301 20:39:03.967875   628 layer_factory.hpp:78] Creating layer data
I0301 20:39:03.967903   628 data_transformer.cpp:24] Loading mean file from/home/jaehyun/kaggle/nationalDataScienceBowl/data/typeD/train_mean.binaryproto
I0301 20:39:03.968001   628 net.cpp:68] Creating Layer data
I0301 20:39:03.968024   628 net.cpp:357] data -> data
I0301 20:39:03.968050   628 net.cpp:357] data -> label
I0301 20:39:03.968085   628 net.cpp:97] Setting up data
I0301 20:39:03.968106   628 data_layer.cpp:34] Opening dataset /home/jaehyun/kaggle/nationalDataScienceBowl/data/typeD/train_lmdb
I0301 20:39:03.968263   628 data_layer.cpp:73] output data size: 256,1,48,48
I0301 20:39:03.969849   628 net.cpp:104] Top shape: 256 1 48 48 (589824)
I0301 20:39:03.969876   628 net.cpp:104] Top shape: 256 1 1 1 (256)
I0301 20:39:03.969890   628 layer_factory.hpp:78] Creating layer conv1
I0301 20:39:03.969909   628 net.cpp:68] Creating Layer conv1
I0301 20:39:03.969923   628 net.cpp:395] conv1 <- data
I0301 20:39:03.969960   628 net.cpp:357] conv1 -> conv1
I0301 20:39:03.969980   628 net.cpp:97] Setting up conv1
I0301 20:39:04.034375   628 net.cpp:104] Top shape: 256 128 23 23 (17334272)
I0301 20:39:04.034456   628 layer_factory.hpp:78] Creating layer relu1
I0301 20:39:04.034482   628 net.cpp:68] Creating Layer relu1
I0301 20:39:04.034497   628 net.cpp:395] relu1 <- conv1
I0301 20:39:04.034515   628 net.cpp:346] relu1 -> conv1 (in-place)
I0301 20:39:04.034535   628 net.cpp:97] Setting up relu1
I0301 20:39:04.034556   628 net.cpp:104] Top shape: 256 128 23 23 (17334272)
I0301 20:39:04.034570   628 layer_factory.hpp:78] Creating layer cccp1
I0301 20:39:04.034591   628 net.cpp:68] Creating Layer cccp1
I0301 20:39:04.034605   628 net.cpp:395] cccp1 <- conv1
I0301 20:39:04.034620   628 net.cpp:357] cccp1 -> cccp1
I0301 20:39:04.034636   628 net.cpp:97] Setting up cccp1
I0301 20:39:04.034914   628 net.cpp:104] Top shape: 256 128 23 23 (17334272)
I0301 20:39:04.034939   628 layer_factory.hpp:78] Creating layer cccp1_bn
I0301 20:39:04.035009   628 net.cpp:68] Creating Layer cccp1_bn
I0301 20:39:04.035024   628 net.cpp:395] cccp1_bn <- cccp1
I0301 20:39:04.035043   628 net.cpp:357] cccp1_bn -> cccp1_bn
I0301 20:39:04.035064   628 net.cpp:97] Setting up cccp1_bn
I0301 20:39:04.035094   628 net.cpp:104] Top shape: 256 128 23 23 (17334272)
I0301 20:39:04.035114   628 layer_factory.hpp:78] Creating layer relu_cccp1
I0301 20:39:04.035127   628 net.cpp:68] Creating Layer relu_cccp1
I0301 20:39:04.035140   628 net.cpp:395] relu_cccp1 <- cccp1_bn
I0301 20:39:04.035156   628 net.cpp:346] relu_cccp1 -> cccp1_bn (in-place)
I0301 20:39:04.035171   628 net.cpp:97] Setting up relu_cccp1
I0301 20:39:04.035187   628 net.cpp:104] Top shape: 256 128 23 23 (17334272)
I0301 20:39:04.035199   628 layer_factory.hpp:78] Creating layer pool1
I0301 20:39:04.035218   628 net.cpp:68] Creating Layer pool1
I0301 20:39:04.035230   628 net.cpp:395] pool1 <- cccp1_bn
I0301 20:39:04.035243   628 net.cpp:357] pool1 -> pool1
I0301 20:39:04.035262   628 net.cpp:97] Setting up pool1
I0301 20:39:04.035300   628 net.cpp:104] Top shape: 256 128 11 11 (3964928)
I0301 20:39:04.035316   628 layer_factory.hpp:78] Creating layer conv2
I0301 20:39:04.035331   628 net.cpp:68] Creating Layer conv2
I0301 20:39:04.035343   628 net.cpp:395] conv2 <- pool1
I0301 20:39:04.035362   628 net.cpp:357] conv2 -> conv2
I0301 20:39:04.035382   628 net.cpp:97] Setting up conv2
I0301 20:39:04.037174   628 net.cpp:104] Top shape: 256 128 9 9 (2654208)
I0301 20:39:04.037204   628 layer_factory.hpp:78] Creating layer conv2_bn
I0301 20:39:04.037225   628 net.cpp:68] Creating Layer conv2_bn
I0301 20:39:04.037240   628 net.cpp:395] conv2_bn <- conv2
I0301 20:39:04.037255   628 net.cpp:357] conv2_bn -> conv2_bn
I0301 20:39:04.037271   628 net.cpp:97] Setting up conv2_bn
I0301 20:39:04.037294   628 net.cpp:104] Top shape: 256 128 9 9 (2654208)
I0301 20:39:04.037314   628 layer_factory.hpp:78] Creating layer relu2
I0301 20:39:04.037330   628 net.cpp:68] Creating Layer relu2
I0301 20:39:04.037343   628 net.cpp:395] relu2 <- conv2_bn
I0301 20:39:04.037355   628 net.cpp:346] relu2 -> conv2_bn (in-place)
I0301 20:39:04.037374   628 net.cpp:97] Setting up relu2
I0301 20:39:04.037389   628 net.cpp:104] Top shape: 256 128 9 9 (2654208)
I0301 20:39:04.037401   628 layer_factory.hpp:78] Creating layer conv3
I0301 20:39:04.037416   628 net.cpp:68] Creating Layer conv3
I0301 20:39:04.037427   628 net.cpp:395] conv3 <- conv2_bn
I0301 20:39:04.037442   628 net.cpp:357] conv3 -> conv3
I0301 20:39:04.037458   628 net.cpp:97] Setting up conv3
I0301 20:39:04.039069   628 net.cpp:104] Top shape: 256 128 7 7 (1605632)
I0301 20:39:04.039096   628 layer_factory.hpp:78] Creating layer conv3_bn
I0301 20:39:04.039118   628 net.cpp:68] Creating Layer conv3_bn
I0301 20:39:04.039130   628 net.cpp:395] conv3_bn <- conv3
I0301 20:39:04.039149   628 net.cpp:357] conv3_bn -> conv3_bn
I0301 20:39:04.039165   628 net.cpp:97] Setting up conv3_bn
I0301 20:39:04.039187   628 net.cpp:104] Top shape: 256 128 7 7 (1605632)
I0301 20:39:04.039203   628 layer_factory.hpp:78] Creating layer relu3
I0301 20:39:04.039217   628 net.cpp:68] Creating Layer relu3
I0301 20:39:04.039229   628 net.cpp:395] relu3 <- conv3_bn
I0301 20:39:04.039243   628 net.cpp:346] relu3 -> conv3_bn (in-place)
I0301 20:39:04.039258   628 net.cpp:97] Setting up relu3
I0301 20:39:04.039273   628 net.cpp:104] Top shape: 256 128 7 7 (1605632)
I0301 20:39:04.039284   628 layer_factory.hpp:78] Creating layer pool3
I0301 20:39:04.039301   628 net.cpp:68] Creating Layer pool3
I0301 20:39:04.039314   628 net.cpp:395] pool3 <- conv3_bn
I0301 20:39:04.039329   628 net.cpp:357] pool3 -> pool3
I0301 20:39:04.039345   628 net.cpp:97] Setting up pool3
I0301 20:39:04.039363   628 net.cpp:104] Top shape: 256 128 3 3 (294912)
I0301 20:39:04.039376   628 layer_factory.hpp:78] Creating layer fc4
I0301 20:39:04.039397   628 net.cpp:68] Creating Layer fc4
I0301 20:39:04.039409   628 net.cpp:395] fc4 <- pool3
I0301 20:39:04.039424   628 net.cpp:357] fc4 -> fc4
I0301 20:39:04.039460   628 net.cpp:97] Setting up fc4
I0301 20:39:04.045727   628 net.cpp:104] Top shape: 256 512 1 1 (131072)
I0301 20:39:04.045763   628 layer_factory.hpp:78] Creating layer relu4
I0301 20:39:04.045780   628 net.cpp:68] Creating Layer relu4
I0301 20:39:04.045794   628 net.cpp:395] relu4 <- fc4
I0301 20:39:04.045812   628 net.cpp:346] relu4 -> fc4 (in-place)
I0301 20:39:04.045830   628 net.cpp:97] Setting up relu4
I0301 20:39:04.045850   628 net.cpp:104] Top shape: 256 512 1 1 (131072)
I0301 20:39:04.045862   628 layer_factory.hpp:78] Creating layer drop4
I0301 20:39:04.045881   628 net.cpp:68] Creating Layer drop4
I0301 20:39:04.045894   628 net.cpp:395] drop4 <- fc4
I0301 20:39:04.045908   628 net.cpp:346] drop4 -> fc4 (in-place)
I0301 20:39:04.045925   628 net.cpp:97] Setting up drop4
I0301 20:39:04.045941   628 net.cpp:104] Top shape: 256 512 1 1 (131072)
I0301 20:39:04.045953   628 layer_factory.hpp:78] Creating layer fc5
I0301 20:39:04.045969   628 net.cpp:68] Creating Layer fc5
I0301 20:39:04.045979   628 net.cpp:395] fc5 <- fc4
I0301 20:39:04.045994   628 net.cpp:357] fc5 -> fc5
I0301 20:39:04.046010   628 net.cpp:97] Setting up fc5
I0301 20:39:04.048764   628 net.cpp:104] Top shape: 256 512 1 1 (131072)
I0301 20:39:04.048794   628 layer_factory.hpp:78] Creating layer relu5
I0301 20:39:04.048812   628 net.cpp:68] Creating Layer relu5
I0301 20:39:04.048825   628 net.cpp:395] relu5 <- fc5
I0301 20:39:04.048840   628 net.cpp:346] relu5 -> fc5 (in-place)
I0301 20:39:04.048854   628 net.cpp:97] Setting up relu5
I0301 20:39:04.048871   628 net.cpp:104] Top shape: 256 512 1 1 (131072)
I0301 20:39:04.048883   628 layer_factory.hpp:78] Creating layer drop5
I0301 20:39:04.048897   628 net.cpp:68] Creating Layer drop5
I0301 20:39:04.048908   628 net.cpp:395] drop5 <- fc5
I0301 20:39:04.048923   628 net.cpp:346] drop5 -> fc5 (in-place)
I0301 20:39:04.048936   628 net.cpp:97] Setting up drop5
I0301 20:39:04.048949   628 net.cpp:104] Top shape: 256 512 1 1 (131072)
I0301 20:39:04.048960   628 layer_factory.hpp:78] Creating layer fc6
I0301 20:39:04.048975   628 net.cpp:68] Creating Layer fc6
I0301 20:39:04.048987   628 net.cpp:395] fc6 <- fc5
I0301 20:39:04.049001   628 net.cpp:357] fc6 -> fc6
I0301 20:39:04.049017   628 net.cpp:97] Setting up fc6
I0301 20:39:04.049667   628 net.cpp:104] Top shape: 256 121 1 1 (30976)
I0301 20:39:04.049696   628 layer_factory.hpp:78] Creating layer loss
I0301 20:39:04.049716   628 net.cpp:68] Creating Layer loss
I0301 20:39:04.049731   628 net.cpp:395] loss <- fc6
I0301 20:39:04.049743   628 net.cpp:395] loss <- label
I0301 20:39:04.049758   628 net.cpp:357] loss -> loss
I0301 20:39:04.049774   628 net.cpp:97] Setting up loss
I0301 20:39:04.049790   628 layer_factory.hpp:78] Creating layer loss
I0301 20:39:04.049899   628 net.cpp:104] Top shape: 1 1 1 1 (1)
I0301 20:39:04.049917   628 net.cpp:110]     with loss weight 1
I0301 20:39:04.049963   628 net.cpp:171] loss needs backward computation.
I0301 20:39:04.049978   628 net.cpp:171] fc6 needs backward computation.
I0301 20:39:04.049989   628 net.cpp:171] drop5 needs backward computation.
I0301 20:39:04.050000   628 net.cpp:171] relu5 needs backward computation.
I0301 20:39:04.050012   628 net.cpp:171] fc5 needs backward computation.
…
I0301 20:39:04.051139   628 net.cpp:276] The NetState phase (1) differed from the phase (0) specified by a rule in layer data
I0301 20:39:04.051362   628 net.cpp:39] Initializing net from parameters: 
name: "model1_part1_bn"
layers {
  top: "data"
  top: "label"
  name: "data"
  type: DATA
  data_param {
    source: "/home/jaehyun/kaggle/nationalDataScienceBowl/data/typeD/val_lmdb"
    batch_size: 256
    backend: LMDB
  }
  include {
    phase: TEST
  }
  transform_param {
    scale: 0.00390625
    mirror: false
    mean_file: "/home/jaehyun/kaggle/nationalDataScienceBowl/data/typeD/train_mean.binaryproto"
  }
}
layers {
  bottom: "data"
  top: "conv1"
  name: "conv1"
  type: CONVOLUTION
  blobs_lr: 1
  blobs_lr: 2
  weight_decay: 1
  weight_decay: 0
  convolution_param {
    num_output: 128
    kernel_size: 4
    stride: 2
    weight_filler {
      type: "xavier"
    }
    bias_filler {
      type: "constant"
    }
  }
}
layers {
  bottom: "conv1"
  top: "conv1"
  name: "relu1"
  type: RELU
  relu_param {
    negative_slope: 0.1
  }
}
layers {
  bottom: "conv1"
  top: "cccp1"
  name: "cccp1"
  type: CONVOLUTION
  blobs_lr: 1
  blobs_lr: 2
  weight_decay: 1
  weight_decay: 0
  convolution_param {
    num_output: 128
    kernel_size: 1
    group: 1
    stride: 1
    weight_filler {
      type: "xavier"
    }
    bias_filler {
      type: "constant"
    }
  }
}
layers {
  bottom: "cccp1"
  top: "cccp1_bn"
  name: "cccp1_bn"
  type: BN
  blobs_lr: 1
  blobs_lr: 1
  weight_decay: 0
  weight_decay: 0
  bn_param {
    scale_filler {
      type: "constant"
      value: 1
    }
    shift_filler {
      type: "constant"
      value: 0
    }
  }
}
layers {
  bottom: "cccp1_bn"
  top: "cccp1_bn"
  name: "relu_cccp1"
  type: RELU
  relu_param {
    negative_slope: 0.1
  }
}
layers {
  bottom: "cccp1_bn"
  top: "pool1"
  name: "pool1"
  type: POOLING
  pooling_param {
    pool: MAX
    kernel_size: 3
    stride: 2
  }
}
layers {
  bottom: "pool1"
  top: "conv2"
  name: "conv2"
  type: CONVOLUTION
  blobs_lr: 1
  blobs_lr: 2
  weight_decay: 1
  weight_decay: 0
  convolution_param {
    num_output: 128
    kernel_size: 3
    weight_filler {
      type: "xavier"
    }
    bias_filler {
      type: "constant"
    }
  }
}
layers {
  bottom: "conv2"
  top: "conv2_bn"
  name: "conv2_bn"
  type: BN
  blobs_lr: 1
  blobs_lr: 1
  weight_decay: 0
  weight_decay: 0
  bn_param {
    scale_filler {
      type: "constant"
      value: 1
    }
    shift_filler {
      type: "constant"
      value: 0
    }
  }
}
layers {
  bottom: "conv2_bn"
  top: "conv2_bn"
  name: "relu2"
  type: RELU
  relu_param {
    negative_slope: 0.1
  }
}
layers {
  bottom: "conv2_bn"
  top: "conv3"
  name: "conv3"
  type: CONVOLUTION
  blobs_lr: 1
  blobs_lr: 2
  weight_decay: 1
  weight_decay: 0
  convolution_param {
    num_output: 128
    kernel_size: 3
    weight_filler {
      type: "xavier"
    }
    bias_filler {
      type: "constant"
    }
  }
}
layers {
  bottom: "conv3"
  top: "conv3_bn"
  name: "conv3_bn"
  type: BN
  blobs_lr: 1
  blobs_lr: 1
  weight_decay: 0
  weight_decay: 0
  bn_param {
    scale_filler {
      type: "constant"
      value: 1
    }
    shift_filler {
      type: "constant"
      value: 0
    }
  }
}
layers {
  bottom: "conv3_bn"
  top: "conv3_bn"
  name: "relu3"
  type: RELU
  relu_param {
    negative_slope: 0.1
  }
}
layers {
  bottom: "conv3_bn"
  top: "pool3"
  name: "pool3"
  type: POOLING
  pooling_param {
    pool: MAX
    kernel_size: 3
    stride: 2
  }
}
layers {
  bottom: "pool3"
  top: "fc4"
  name: "fc4"
  type: INNER_PRODUCT
  blobs_lr: 1
  blobs_lr: 2
  weight_decay: 1
  weight_decay: 0
  inner_product_param {
    num_output: 512
    weight_filler {
      type: "xavier"
    }
    bias_filler {
      type: "constant"
    }
  }
}
layers {
  bottom: "fc4"
  top: "fc4"
  name: "relu4"
  type: RELU
  relu_param {
    negative_slope: 0.1
  }
}
layers {
  bottom: "fc4"
  top: "fc4"
  name: "drop4"
  type: DROPOUT
  dropout_param {
    dropout_ratio: 0.5
  }
}
layers {
  bottom: "fc4"
  top: "fc5"
  name: "fc5"
  type: INNER_PRODUCT
  blobs_lr: 1
  blobs_lr: 2
  weight_decay: 1
  weight_decay: 0
  inner_product_param {
    num_output: 512
    weight_filler {
      type: "xavier"
    }
    bias_filler {
      type: "constant"
    }
  }
}
layers {
  bottom: "fc5"
  top: "fc5"
  name: "relu5"
  type: RELU
  relu_param {
    negative_slope: 0.1
  }
}
layers {
  bottom: "fc5"
  top: "fc5"
  name: "drop5"
  type: DROPOUT
  dropout_param {
    dropout_ratio: 0.5
  }
}
layers {
  bottom: "fc5"
  top: "fc6"
  name: "fc6"
  type: INNER_PRODUCT
  blobs_lr: 1
  blobs_lr: 2
  weight_decay: 1
  weight_decay: 0
  inner_product_param {
    num_output: 121
    weight_filler {
      type: "xavier"
    }
    bias_filler {
      type: "constant"
    }
  }
}
layers {
  bottom: "fc6"
  top: "prob"
  name: "prob"
  type: SOFTMAX
  include {
    phase: TEST
  }
}
layers {
  bottom: "prob"
  bottom: "label"
  top: "accuracy"
  name: "accuracy"
  type: ACCURACY
  accuracy_param {
    top_k: 1
  }
  include {
    phase: TEST
  }
}
layers {
  bottom: "fc6"
  bottom: "label"
  top: "loss"
  name: "loss"
  type: SOFTMAX_LOSS
}
state {
  phase: TEST
}
I0301 20:39:04.052592   628 layer_factory.hpp:78] Creating layer data
I0301 20:39:04.052615   628 data_transformer.cpp:24] Loading mean file from/home/jaehyun/kaggle/nationalDataScienceBowl/data/typeD/train_mean.binaryproto
I0301 20:39:04.052690   628 net.cpp:68] Creating Layer data
I0301 20:39:04.052708   628 net.cpp:357] data -> data
I0301 20:39:04.052727   628 net.cpp:357] data -> label
I0301 20:39:04.052744   628 net.cpp:97] Setting up data
I0301 20:39:04.052758   628 data_layer.cpp:34] Opening dataset /home/jaehyun/kaggle/nationalDataScienceBowl/data/typeD/val_lmdb
I0301 20:39:04.052858   628 data_layer.cpp:73] output data size: 256,1,48,48
I0301 20:39:04.054083   628 net.cpp:104] Top shape: 256 1 48 48 (589824)
I0301 20:39:04.054106   628 net.cpp:104] Top shape: 256 1 1 1 (256)
I0301 20:39:04.054119   628 layer_factory.hpp:78] Creating layer label_data_1_split
I0301 20:39:04.054137   628 net.cpp:68] Creating Layer label_data_1_split
I0301 20:39:04.054150   628 net.cpp:395] label_data_1_split <- label
I0301 20:39:04.054169   628 net.cpp:357] label_data_1_split -> label_data_1_split_0
I0301 20:39:04.054186   628 net.cpp:357] label_data_1_split -> label_data_1_split_1
I0301 20:39:04.054201   628 net.cpp:97] Setting up label_data_1_split
I0301 20:39:04.054219   628 net.cpp:104] Top shape: 256 1 1 1 (256)
I0301 20:39:04.054232   628 net.cpp:104] Top shape: 256 1 1 1 (256)
I0301 20:39:04.054332   628 layer_factory.hpp:78] Creating layer conv1
I0301 20:39:04.054360   628 net.cpp:68] Creating Layer conv1
I0301 20:39:04.054371   628 net.cpp:395] conv1 <- data
I0301 20:39:04.054435   628 net.cpp:357] conv1 -> conv1
I0301 20:39:04.054456   628 net.cpp:97] Setting up conv1
I0301 20:39:04.054632   628 net.cpp:104] Top shape: 256 128 23 23 (17334272)
I0301 20:39:04.054654   628 layer_factory.hpp:78] Creating layer relu1
I0301 20:39:04.054667   628 net.cpp:68] Creating Layer relu1
I0301 20:39:04.054674   628 net.cpp:395] relu1 <- conv1
I0301 20:39:04.054683   628 net.cpp:346] relu1 -> conv1 (in-place)
I0301 20:39:04.054703   628 net.cpp:97] Setting up relu1
I0301 20:39:04.054715   628 net.cpp:104] Top shape: 256 128 23 23 (17334272)
I0301 20:39:04.054723   628 layer_factory.hpp:78] Creating layer cccp1
I0301 20:39:04.054736   628 net.cpp:68] Creating Layer cccp1
I0301 20:39:04.054744   628 net.cpp:395] cccp1 <- conv1
I0301 20:39:04.054757   628 net.cpp:357] cccp1 -> cccp1
I0301 20:39:04.054767   628 net.cpp:97] Setting up cccp1
I0301 20:39:04.055361   628 net.cpp:104] Top shape: 256 128 23 23 (17334272)
I0301 20:39:04.055390   628 layer_factory.hpp:78] Creating layer cccp1_bn
I0301 20:39:04.055409   628 net.cpp:68] Creating Layer cccp1_bn
I0301 20:39:04.055416   628 net.cpp:395] cccp1_bn <- cccp1
I0301 20:39:04.055426   628 net.cpp:357] cccp1_bn -> cccp1_bn
I0301 20:39:04.055441   628 net.cpp:97] Setting up cccp1_bn
I0301 20:39:04.055461   628 net.cpp:104] Top shape: 256 128 23 23 (17334272)
I0301 20:39:04.055480   628 layer_factory.hpp:78] Creating layer relu_cccp1
I0301 20:39:04.055491   628 net.cpp:68] Creating Layer relu_cccp1
I0301 20:39:04.055497   628 net.cpp:395] relu_cccp1 <- cccp1_bn
I0301 20:39:04.055506   628 net.cpp:346] relu_cccp1 -> cccp1_bn (in-place)
I0301 20:39:04.055517   628 net.cpp:97] Setting up relu_cccp1
I0301 20:39:04.055528   628 net.cpp:104] Top shape: 256 128 23 23 (17334272)
I0301 20:39:04.055593   628 layer_factory.hpp:78] Creating layer pool1
I0301 20:39:04.055608   628 net.cpp:68] Creating Layer pool1
I0301 20:39:04.055619   628 net.cpp:395] pool1 <- cccp1_bn
I0301 20:39:04.055636   628 net.cpp:357] pool1 -> pool1
I0301 20:39:04.055650   628 net.cpp:97] Setting up pool1
I0301 20:39:04.055670   628 net.cpp:104] Top shape: 256 128 11 11 (3964928)
I0301 20:39:04.055677   628 layer_factory.hpp:78] Creating layer conv2
I0301 20:39:04.055750   628 net.cpp:68] Creating Layer conv2
I0301 20:39:04.055814   628 net.cpp:395] conv2 <- pool1
I0301 20:39:04.055830   628 net.cpp:357] conv2 -> conv2
I0301 20:39:04.055845   628 net.cpp:97] Setting up conv2
I0301 20:39:04.057600   628 net.cpp:104] Top shape: 256 128 9 9 (2654208)
I0301 20:39:04.057622   628 layer_factory.hpp:78] Creating layer conv2_bn
I0301 20:39:04.057637   628 net.cpp:68] Creating Layer conv2_bn
I0301 20:39:04.057646   628 net.cpp:395] conv2_bn <- conv2
I0301 20:39:04.057657   628 net.cpp:357] conv2_bn -> conv2_bn
I0301 20:39:04.057667   628 net.cpp:97] Setting up conv2_bn
I0301 20:39:04.057689   628 net.cpp:104] Top shape: 256 128 9 9 (2654208)
I0301 20:39:04.057703   628 layer_factory.hpp:78] Creating layer relu2
I0301 20:39:04.057713   628 net.cpp:68] Creating Layer relu2
I0301 20:39:04.057723   628 net.cpp:395] relu2 <- conv2_bn
I0301 20:39:04.057735   628 net.cpp:346] relu2 -> conv2_bn (in-place)
I0301 20:39:04.057745   628 net.cpp:97] Setting up relu2
I0301 20:39:04.057755   628 net.cpp:104] Top shape: 256 128 9 9 (2654208)
I0301 20:39:04.057762   628 layer_factory.hpp:78] Creating layer conv3
I0301 20:39:04.057773   628 net.cpp:68] Creating Layer conv3
I0301 20:39:04.057783   628 net.cpp:395] conv3 <- conv2_bn
I0301 20:39:04.057796   628 net.cpp:357] conv3 -> conv3
I0301 20:39:04.057806   628 net.cpp:97] Setting up conv3
I0301 20:39:04.059417   628 net.cpp:104] Top shape: 256 128 7 7 (1605632)
I0301 20:39:04.059437   628 layer_factory.hpp:78] Creating layer conv3_bn
I0301 20:39:04.059450   628 net.cpp:68] Creating Layer conv3_bn
I0301 20:39:04.059458   628 net.cpp:395] conv3_bn <- conv3
I0301 20:39:04.059470   628 net.cpp:357] conv3_bn -> conv3_bn
I0301 20:39:04.059483   628 net.cpp:97] Setting up conv3_bn
I0301 20:39:04.059500   628 net.cpp:104] Top shape: 256 128 7 7 (1605632)
I0301 20:39:04.059547   628 layer_factory.hpp:78] Creating layer relu3
I0301 20:39:04.059559   628 net.cpp:68] Creating Layer relu3
I0301 20:39:04.059566   628 net.cpp:395] relu3 <- conv3_bn
I0301 20:39:04.059574   628 net.cpp:346] relu3 -> conv3_bn (in-place)
I0301 20:39:04.059583   628 net.cpp:97] Setting up relu3
I0301 20:39:04.059593   628 net.cpp:104] Top shape: 256 128 7 7 (1605632)
I0301 20:39:04.059600   628 layer_factory.hpp:78] Creating layer pool3
I0301 20:39:04.059613   628 net.cpp:68] Creating Layer pool3
I0301 20:39:04.059620   628 net.cpp:395] pool3 <- conv3_bn
I0301 20:39:04.059629   628 net.cpp:357] pool3 -> pool3
I0301 20:39:04.059638   628 net.cpp:97] Setting up pool3
I0301 20:39:04.059651   628 net.cpp:104] Top shape: 256 128 3 3 (294912)
I0301 20:39:04.059659   628 layer_factory.hpp:78] Creating layer fc4
I0301 20:39:04.059672   628 net.cpp:68] Creating Layer fc4
I0301 20:39:04.059680   628 net.cpp:395] fc4 <- pool3
I0301 20:39:04.059689   628 net.cpp:357] fc4 -> fc4
I0301 20:39:04.059698   628 net.cpp:97] Setting up fc4
I0301 20:39:04.065373   628 net.cpp:104] Top shape: 256 512 1 1 (131072)
I0301 20:39:04.065407   628 layer_factory.hpp:78] Creating layer relu4
I0301 20:39:04.065430   628 net.cpp:68] Creating Layer relu4
I0301 20:39:04.065443   628 net.cpp:395] relu4 <- fc4
I0301 20:39:04.065462   628 net.cpp:346] relu4 -> fc4 (in-place)
I0301 20:39:04.065479   628 net.cpp:97] Setting up relu4
I0301 20:39:04.065498   628 net.cpp:104] Top shape: 256 512 1 1 (131072)
I0301 20:39:04.065511   628 layer_factory.hpp:78] Creating layer drop4
I0301 20:39:04.065527   628 net.cpp:68] Creating Layer drop4
I0301 20:39:04.065538   628 net.cpp:395] drop4 <- fc4
I0301 20:39:04.065552   628 net.cpp:346] drop4 -> fc4 (in-place)
I0301 20:39:04.065565   628 net.cpp:97] Setting up drop4
I0301 20:39:04.065579   628 net.cpp:104] Top shape: 256 512 1 1 (131072)
I0301 20:39:04.065598   628 layer_factory.hpp:78] Creating layer fc5
I0301 20:39:04.065616   628 net.cpp:68] Creating Layer fc5
I0301 20:39:04.065629   628 net.cpp:395] fc5 <- fc4
I0301 20:39:04.065644   628 net.cpp:357] fc5 -> fc5
I0301 20:39:04.065659   628 net.cpp:97] Setting up fc5
I0301 20:39:04.068586   628 net.cpp:104] Top shape: 256 512 1 1 (131072)
I0301 20:39:04.068615   628 layer_factory.hpp:78] Creating layer relu5
I0301 20:39:04.068634   628 net.cpp:68] Creating Layer relu5
I0301 20:39:04.068647   628 net.cpp:395] relu5 <- fc5
I0301 20:39:04.068661   628 net.cpp:346] relu5 -> fc5 (in-place)
I0301 20:39:04.068675   628 net.cpp:97] Setting up relu5
I0301 20:39:04.068691   628 net.cpp:104] Top shape: 256 512 1 1 (131072)
I0301 20:39:04.068704   628 layer_factory.hpp:78] Creating layer drop5
I0301 20:39:04.068717   628 net.cpp:68] Creating Layer drop5
I0301 20:39:04.068729   628 net.cpp:395] drop5 <- fc5
I0301 20:39:04.068742   628 net.cpp:346] drop5 -> fc5 (in-place)
I0301 20:39:04.068756   628 net.cpp:97] Setting up drop5
I0301 20:39:04.068768   628 net.cpp:104] Top shape: 256 512 1 1 (131072)
I0301 20:39:04.068780   628 layer_factory.hpp:78] Creating layer fc6
I0301 20:39:04.068796   628 net.cpp:68] Creating Layer fc6
I0301 20:39:04.068807   628 net.cpp:395] fc6 <- fc5
I0301 20:39:04.068821   628 net.cpp:357] fc6 -> fc6
I0301 20:39:04.068836   628 net.cpp:97] Setting up fc6
I0301 20:39:04.069489   628 net.cpp:104] Top shape: 256 121 1 1 (30976)
I0301 20:39:04.069509   628 layer_factory.hpp:78] Creating layer fc6_fc6_0_split
I0301 20:39:04.069527   628 net.cpp:68] Creating Layer fc6_fc6_0_split
I0301 20:39:04.069540   628 net.cpp:395] fc6_fc6_0_split <- fc6
I0301 20:39:04.069553   628 net.cpp:357] fc6_fc6_0_split -> fc6_fc6_0_split_0
I0301 20:39:04.069574   628 net.cpp:357] fc6_fc6_0_split -> fc6_fc6_0_split_1
I0301 20:39:04.069591   628 net.cpp:97] Setting up fc6_fc6_0_split
I0301 20:39:04.069605   628 net.cpp:104] Top shape: 256 121 1 1 (30976)
I0301 20:39:04.069617   628 net.cpp:104] Top shape: 256 121 1 1 (30976)
I0301 20:39:04.069629   628 layer_factory.hpp:78] Creating layer prob
I0301 20:39:04.069645   628 net.cpp:68] Creating Layer prob
I0301 20:39:04.069695   628 net.cpp:395] prob <- fc6_fc6_0_split_0
I0301 20:39:04.069711   628 net.cpp:357] prob -> prob
I0301 20:39:04.069726   628 net.cpp:97] Setting up prob
I0301 20:39:04.069747   628 net.cpp:104] Top shape: 256 121 1 1 (30976)
I0301 20:39:04.069761   628 layer_factory.hpp:78] Creating layer accuracy
I0301 20:39:04.069780   628 net.cpp:68] Creating Layer accuracy
I0301 20:39:04.069793   628 net.cpp:395] accuracy <- prob
I0301 20:39:04.069807   628 net.cpp:395] accuracy <- label_data_1_split_0
I0301 20:39:04.069824   628 net.cpp:357] accuracy -> accuracy
I0301 20:39:04.069840   628 net.cpp:97] Setting up accuracy
I0301 20:39:04.069855   628 net.cpp:104] Top shape: 1 1 1 1 (1)
I0301 20:39:04.069869   628 layer_factory.hpp:78] Creating layer loss
I0301 20:39:04.069882   628 net.cpp:68] Creating Layer loss
I0301 20:39:04.069901   628 net.cpp:395] loss <- fc6_fc6_0_split_1
I0301 20:39:04.069913   628 net.cpp:395] loss <- label_data_1_split_1
I0301 20:39:04.069926   628 net.cpp:357] loss -> loss
I0301 20:39:04.069941   628 net.cpp:97] Setting up loss
I0301 20:39:04.069955   628 layer_factory.hpp:78] Creating layer loss
I0301 20:39:04.070055   628 net.cpp:104] Top shape: 1 1 1 1 (1)
I0301 20:39:04.070071   628 net.cpp:110]     with loss weight 1
I0301 20:39:04.070096   628 net.cpp:171] loss needs backward computation.
I0301 20:39:04.070108   628 net.cpp:173] accuracy does not need backward computation.
I0301 20:39:04.070119   628 net.cpp:173] prob does not need backward computation.
I0301 20:39:04.070130   628 net.cpp:171] fc6_fc6_0_split needs backward computation.
…
