…
  transform_param {
    mirror: true
    mean_file: "/media/data/kaggle/nationalDataScienceBowl/data/typeF/train_mean.binaryproto"
    affine_param {
      x_stretch_unirnd_range: 0.2
      y_stretch_unirnd_range: 0.2
      rotation_unirnd_range: 180
      max_translation: 16
      background_color: 255
    }
  }
  image_data_affine_param {
    source: "/media/data/kaggle/nationalDataScienceBowl/data/typeF/train.txt"
    scale: 0.00390625
    batch_size: 128
    shuffle: true
    new_size: 96
    is_color: false
    root_folder: "/media/data/kaggle/nationalDataScienceBowl/data/typeF/"
  }
}
layers {
  bottom: "data"
  top: "conv1"
  name: "conv1"
  type: CONVOLUTION
  blobs_lr: 1
  blobs_lr: 2
  weight_decay: 1
  weight_decay: 0
  convolution_param {
    num_output: 256
    kernel_size: 4
    stride: 2
    weight_filler {
      type: "xavier"
    }
    bias_filler {
      type: "constant"
    }
  }
}
layers {
  bottom: "conv1"
  top: "conv1_bn"
  name: "conv1_bn"
  type: BN
  blobs_lr: 1
  blobs_lr: 1
  weight_decay: 0
  weight_decay: 0
  bn_param {
    scale_filler {
      type: "constant"
      value: 1
    }
    shift_filler {
      type: "constant"
      value: 0
    }
  }
}
layers {
  bottom: "conv1_bn"
  top: "conv1_bn"
  name: "relu1"
  type: RELU
  relu_param {
    negative_slope: 0.1
  }
}
layers {
  bottom: "conv1_bn"
  top: "cccp1"
  name: "cccp1"
  type: CONVOLUTION
  blobs_lr: 1
  blobs_lr: 2
  weight_decay: 1
  weight_decay: 0
  convolution_param {
    num_output: 256
    kernel_size: 1
    group: 1
    stride: 1
    weight_filler {
      type: "xavier"
    }
    bias_filler {
      type: "constant"
    }
  }
}
layers {
  bottom: "cccp1"
  top: "cccp1_bn"
  name: "cccp1_bn"
  type: BN
  blobs_lr: 1
  blobs_lr: 1
  weight_decay: 0
  weight_decay: 0
  bn_param {
    scale_filler {
      type: "constant"
      value: 1
    }
    shift_filler {
      type: "constant"
      value: 0
    }
  }
}
layers {
  bottom: "cccp1_bn"
  top: "cccp1_bn"
  name: "relu_cccp1"
  type: RELU
  relu_param {
    negative_slope: 0.1
  }
}
layers {
  bottom: "cccp1_bn"
  top: "pool1"
  name: "pool1"
  type: POOLING
  pooling_param {
    pool: MAX
    kernel_size: 3
    stride: 2
  }
}
layers {
  bottom: "pool1"
  top: "conv2"
  name: "conv2"
  type: CONVOLUTION
  blobs_lr: 1
  blobs_lr: 2
  weight_decay: 1
  weight_decay: 0
  convolution_param {
    num_output: 256
    kernel_size: 3
    weight_filler {
      type: "xavier"
    }
    bias_filler {
      type: "constant"
    }
  }
}
layers {
  bottom: "conv2"
  top: "conv2_bn"
  name: "conv2_bn"
  type: BN
  blobs_lr: 1
  blobs_lr: 1
  weight_decay: 0
  weight_decay: 0
  bn_param {
    scale_filler {
      type: "constant"
      value: 1
    }
    shift_filler {
      type: "constant"
      value: 0
    }
  }
}
layers {
  bottom: "conv2_bn"
  top: "conv2_bn"
  name: "relu2"
  type: RELU
  relu_param {
    negative_slope: 0.1
  }
}
layers {
  bottom: "conv2_bn"
  top: "cccp2"
  name: "cccp2"
  type: CONVOLUTION
  blobs_lr: 1
  blobs_lr: 2
  weight_decay: 1
  weight_decay: 0
  convolution_param {
    num_output: 256
    kernel_size: 1
    group: 1
    stride: 1
    weight_filler {
      type: "xavier"
    }
    bias_filler {
      type: "constant"
    }
  }
}
layers {
  bottom: "cccp2"
  top: "cccp2_bn"
  name: "cccp2_bn"
  type: BN
  blobs_lr: 1
  blobs_lr: 1
  weight_decay: 0
  weight_decay: 0
  bn_param {
    scale_filler {
      type: "constant"
      value: 1
    }
    shift_filler {
      type: "constant"
      value: 0
    }
  }
}
layers {
  bottom: "cccp2_bn"
  top: "cccp2_bn"
  name: "relu_cccp2"
  type: RELU
  relu_param {
    negative_slope: 0.1
  }
}
layers {
  bottom: "cccp2_bn"
  top: "conv3"
  name: "conv3"
  type: CONVOLUTION
  blobs_lr: 1
  blobs_lr: 2
  weight_decay: 1
  weight_decay: 0
  convolution_param {
    num_output: 256
    kernel_size: 3
    weight_filler {
      type: "xavier"
    }
    bias_filler {
      type: "constant"
    }
  }
}
layers {
  bottom: "conv3"
  top: "conv3_bn"
  name: "conv3_bn"
  type: BN
  blobs_lr: 1
  blobs_lr: 1
  weight_decay: 0
  weight_decay: 0
  bn_param {
    scale_filler {
      type: "constant"
      value: 1
    }
    shift_filler {
      type: "constant"
      value: 0
    }
  }
}
layers {
  bottom: "conv3_bn"
  top: "conv3_bn"
  name: "relu3"
  type: RELU
  relu_param {
    negative_slope: 0.1
  }
}
layers {
  bottom: "conv3_bn"
  top: "cccp3"
  name: "cccp3"
  type: CONVOLUTION
  blobs_lr: 1
  blobs_lr: 2
  weight_decay: 1
  weight_decay: 0
  convolution_param {
    num_output: 256
    kernel_size: 1
    group: 1
    stride: 1
    weight_filler {
      type: "xavier"
    }
    bias_filler {
      type: "constant"
    }
  }
}
layers {
  bottom: "cccp3"
  top: "cccp3_bn"
  name: "cccp3_bn"
  type: BN
  blobs_lr: 1
  blobs_lr: 1
  weight_decay: 0
  weight_decay: 0
  bn_param {
    scale_filler {
      type: "constant"
      value: 1
    }
    shift_filler {
      type: "constant"
      value: 0
    }
  }
}
layers {
  bottom: "cccp3_bn"
  top: "cccp3_bn"
  name: "relu_cccp3"
  type: RELU
  relu_param {
    negative_slope: 0.1
  }
}
layers {
  bottom: "cccp3_bn"
  top: "pool3"
  name: "pool3"
  type: POOLING
  pooling_param {
    pool: MAX
    kernel_size: 3
    stride: 2
  }
}
layers {
  bottom: "pool3"
  top: "fc4"
  name: "fc4"
  type: INNER_PRODUCT
  blobs_lr: 1
  blobs_lr: 2
  weight_decay: 1
  weight_decay: 0
  inner_product_param {
    num_output: 512
    weight_filler {
      type: "xavier"
    }
    bias_filler {
      type: "constant"
    }
  }
}
layers {
  bottom: "fc4"
  top: "fc4"
  name: "relu4"
  type: RELU
  relu_param {
    negative_slope: 0.1
  }
}
layers {
  bottom: "fc4"
  top: "fc4"
  name: "drop4"
  type: DROPOUT
  dropout_param {
    dropout_ratio: 0.5
  }
}
layers {
  bottom: "fc4"
  top: "fc5"
  name: "fc5"
  type: INNER_PRODUCT
  blobs_lr: 1
  blobs_lr: 2
  weight_decay: 1
  weight_decay: 0
  inner_product_param {
    num_output: 512
    weight_filler {
      type: "xavier"
    }
    bias_filler {
      type: "constant"
    }
  }
}
layers {
  bottom: "fc5"
  top: "fc5"
  name: "relu5"
  type: RELU
  relu_param {
    negative_slope: 0.1
  }
}
layers {
  bottom: "fc5"
  top: "fc5"
  name: "drop5"
  type: DROPOUT
  dropout_param {
    dropout_ratio: 0.5
  }
}
layers {
  bottom: "fc5"
  top: "fc6"
  name: "fc6"
  type: INNER_PRODUCT
  blobs_lr: 1
  blobs_lr: 2
  weight_decay: 1
  weight_decay: 0
  inner_product_param {
    num_output: 121
    weight_filler {
      type: "xavier"
    }
    bias_filler {
      type: "constant"
    }
  }
}
layers {
  bottom: "fc6"
  bottom: "label"
  top: "loss"
  name: "loss"
  type: SOFTMAX_LOSS
}
state {
  phase: TRAIN
}
I0305 23:56:09.013129  5013 layer_factory.hpp:78] Creating layer data
I0305 23:56:09.036270  5013 data_transformer.cpp:24] Loading mean file from/media/data/kaggle/nationalDataScienceBowl/data/typeF/train_mean.binaryproto
I0305 23:56:09.036623  5013 net.cpp:68] Creating Layer data
I0305 23:56:09.036653  5013 net.cpp:357] data -> data
I0305 23:56:09.036710  5013 net.cpp:357] data -> label
I0305 23:56:09.036728  5013 net.cpp:97] Setting up data
I0305 23:56:09.036739  5013 image_data_affine_layer.cpp:36] Opening file /media/data/kaggle/nationalDataScienceBowl/data/typeF/train.txt
I0305 23:56:09.058039  5013 image_data_affine_layer.cpp:46] Shuffling data
I0305 23:56:09.060868  5013 image_data_affine_layer.cpp:51] A total of 27302 images.
I0305 23:56:09.064265  5013 image_data_affine_layer.cpp:80] output data size: 128,1,96,96
I0305 23:56:09.066313  5013 net.cpp:104] Top shape: 128 1 96 96 (1179648)
I0305 23:56:09.066351  5013 net.cpp:104] Top shape: 128 1 1 1 (128)
I0305 23:56:09.066368  5013 layer_factory.hpp:78] Creating layer conv1
I0305 23:56:09.066401  5013 net.cpp:68] Creating Layer conv1
I0305 23:56:09.066414  5013 net.cpp:395] conv1 <- data
I0305 23:56:09.066444  5013 net.cpp:357] conv1 -> conv1
I0305 23:56:09.066469  5013 net.cpp:97] Setting up conv1
I0305 23:56:09.099608  5013 net.cpp:104] Top shape: 128 256 47 47 (72384512)
I0305 23:56:09.099699  5013 layer_factory.hpp:78] Creating layer conv1_bn
I0305 23:56:09.099731  5013 net.cpp:68] Creating Layer conv1_bn
I0305 23:56:09.099748  5013 net.cpp:395] conv1_bn <- conv1
I0305 23:56:09.099767  5013 net.cpp:357] conv1_bn -> conv1_bn
I0305 23:56:09.099791  5013 net.cpp:97] Setting up conv1_bn
I0305 23:56:09.099828  5013 net.cpp:104] Top shape: 128 256 47 47 (72384512)
I0305 23:56:09.099848  5013 layer_factory.hpp:78] Creating layer relu1
I0305 23:56:09.099867  5013 net.cpp:68] Creating Layer relu1
I0305 23:56:09.099880  5013 net.cpp:395] relu1 <- conv1_bn
I0305 23:56:09.099895  5013 net.cpp:346] relu1 -> conv1_bn (in-place)
I0305 23:56:09.099911  5013 net.cpp:97] Setting up relu1
I0305 23:56:09.099931  5013 net.cpp:104] Top shape: 128 256 47 47 (72384512)
I0305 23:56:09.099943  5013 layer_factory.hpp:78] Creating layer cccp1
I0305 23:56:09.099961  5013 net.cpp:68] Creating Layer cccp1
I0305 23:56:09.099973  5013 net.cpp:395] cccp1 <- conv1_bn
I0305 23:56:09.100004  5013 net.cpp:357] cccp1 -> cccp1
I0305 23:56:09.100024  5013 net.cpp:97] Setting up cccp1
I0305 23:56:09.100792  5013 net.cpp:104] Top shape: 128 256 47 47 (72384512)
I0305 23:56:09.100821  5013 layer_factory.hpp:78] Creating layer cccp1_bn
I0305 23:56:09.100839  5013 net.cpp:68] Creating Layer cccp1_bn
I0305 23:56:09.100853  5013 net.cpp:395] cccp1_bn <- cccp1
I0305 23:56:09.100868  5013 net.cpp:357] cccp1_bn -> cccp1_bn
I0305 23:56:09.100884  5013 net.cpp:97] Setting up cccp1_bn
I0305 23:56:09.100913  5013 net.cpp:104] Top shape: 128 256 47 47 (72384512)
I0305 23:56:09.100929  5013 layer_factory.hpp:78] Creating layer relu_cccp1
I0305 23:56:09.100945  5013 net.cpp:68] Creating Layer relu_cccp1
I0305 23:56:09.100957  5013 net.cpp:395] relu_cccp1 <- cccp1_bn
I0305 23:56:09.100971  5013 net.cpp:346] relu_cccp1 -> cccp1_bn (in-place)
I0305 23:56:09.100986  5013 net.cpp:97] Setting up relu_cccp1
I0305 23:56:09.101001  5013 net.cpp:104] Top shape: 128 256 47 47 (72384512)
I0305 23:56:09.101013  5013 layer_factory.hpp:78] Creating layer pool1
I0305 23:56:09.101035  5013 net.cpp:68] Creating Layer pool1
I0305 23:56:09.101047  5013 net.cpp:395] pool1 <- cccp1_bn
I0305 23:56:09.101061  5013 net.cpp:357] pool1 -> pool1
I0305 23:56:09.101076  5013 net.cpp:97] Setting up pool1
I0305 23:56:09.101114  5013 net.cpp:104] Top shape: 128 256 23 23 (17334272)
I0305 23:56:09.101128  5013 layer_factory.hpp:78] Creating layer conv2
I0305 23:56:09.101147  5013 net.cpp:68] Creating Layer conv2
I0305 23:56:09.101161  5013 net.cpp:395] conv2 <- pool1
I0305 23:56:09.101178  5013 net.cpp:357] conv2 -> conv2
I0305 23:56:09.101194  5013 net.cpp:97] Setting up conv2
I0305 23:56:09.107301  5013 net.cpp:104] Top shape: 128 256 21 21 (14450688)
I0305 23:56:09.107338  5013 layer_factory.hpp:78] Creating layer conv2_bn
I0305 23:56:09.107358  5013 net.cpp:68] Creating Layer conv2_bn
I0305 23:56:09.107372  5013 net.cpp:395] conv2_bn <- conv2
I0305 23:56:09.107388  5013 net.cpp:357] conv2_bn -> conv2_bn
I0305 23:56:09.107405  5013 net.cpp:97] Setting up conv2_bn
I0305 23:56:09.107429  5013 net.cpp:104] Top shape: 128 256 21 21 (14450688)
I0305 23:56:09.107446  5013 layer_factory.hpp:78] Creating layer relu2
I0305 23:56:09.107461  5013 net.cpp:68] Creating Layer relu2
I0305 23:56:09.107475  5013 net.cpp:395] relu2 <- conv2_bn
I0305 23:56:09.107487  5013 net.cpp:346] relu2 -> conv2_bn (in-place)
I0305 23:56:09.107502  5013 net.cpp:97] Setting up relu2
I0305 23:56:09.107517  5013 net.cpp:104] Top shape: 128 256 21 21 (14450688)
I0305 23:56:09.107583  5013 layer_factory.hpp:78] Creating layer cccp2
I0305 23:56:09.107604  5013 net.cpp:68] Creating Layer cccp2
I0305 23:56:09.107616  5013 net.cpp:395] cccp2 <- conv2_bn
I0305 23:56:09.107631  5013 net.cpp:357] cccp2 -> cccp2
I0305 23:56:09.107646  5013 net.cpp:97] Setting up cccp2
I0305 23:56:09.108403  5013 net.cpp:104] Top shape: 128 256 21 21 (14450688)
I0305 23:56:09.108428  5013 layer_factory.hpp:78] Creating layer cccp2_bn
I0305 23:56:09.108449  5013 net.cpp:68] Creating Layer cccp2_bn
I0305 23:56:09.108463  5013 net.cpp:395] cccp2_bn <- cccp2
I0305 23:56:09.108479  5013 net.cpp:357] cccp2_bn -> cccp2_bn
I0305 23:56:09.108495  5013 net.cpp:97] Setting up cccp2_bn
I0305 23:56:09.108530  5013 net.cpp:104] Top shape: 128 256 21 21 (14450688)
I0305 23:56:09.108549  5013 layer_factory.hpp:78] Creating layer relu_cccp2
I0305 23:56:09.108567  5013 net.cpp:68] Creating Layer relu_cccp2
I0305 23:56:09.108579  5013 net.cpp:395] relu_cccp2 <- cccp2_bn
I0305 23:56:09.108593  5013 net.cpp:346] relu_cccp2 -> cccp2_bn (in-place)
I0305 23:56:09.108608  5013 net.cpp:97] Setting up relu_cccp2
I0305 23:56:09.108623  5013 net.cpp:104] Top shape: 128 256 21 21 (14450688)
I0305 23:56:09.108635  5013 layer_factory.hpp:78] Creating layer conv3
I0305 23:56:09.108652  5013 net.cpp:68] Creating Layer conv3
I0305 23:56:09.108664  5013 net.cpp:395] conv3 <- cccp2_bn
I0305 23:56:09.108680  5013 net.cpp:357] conv3 -> conv3
I0305 23:56:09.108695  5013 net.cpp:97] Setting up conv3
I0305 23:56:09.114815  5013 net.cpp:104] Top shape: 128 256 19 19 (11829248)
I0305 23:56:09.114850  5013 layer_factory.hpp:78] Creating layer conv3_bn
I0305 23:56:09.114872  5013 net.cpp:68] Creating Layer conv3_bn
I0305 23:56:09.114886  5013 net.cpp:395] conv3_bn <- conv3
I0305 23:56:09.114902  5013 net.cpp:357] conv3_bn -> conv3_bn
I0305 23:56:09.114917  5013 net.cpp:97] Setting up conv3_bn
I0305 23:56:09.114939  5013 net.cpp:104] Top shape: 128 256 19 19 (11829248)
I0305 23:56:09.114955  5013 layer_factory.hpp:78] Creating layer relu3
I0305 23:56:09.114972  5013 net.cpp:68] Creating Layer relu3
I0305 23:56:09.114984  5013 net.cpp:395] relu3 <- conv3_bn
I0305 23:56:09.115000  5013 net.cpp:346] relu3 -> conv3_bn (in-place)
I0305 23:56:09.115015  5013 net.cpp:97] Setting up relu3
I0305 23:56:09.115031  5013 net.cpp:104] Top shape: 128 256 19 19 (11829248)
I0305 23:56:09.115044  5013 layer_factory.hpp:78] Creating layer cccp3
I0305 23:56:09.115059  5013 net.cpp:68] Creating Layer cccp3
I0305 23:56:09.115072  5013 net.cpp:395] cccp3 <- conv3_bn
I0305 23:56:09.115085  5013 net.cpp:357] cccp3 -> cccp3
I0305 23:56:09.115100  5013 net.cpp:97] Setting up cccp3
I0305 23:56:09.116060  5013 net.cpp:104] Top shape: 128 256 19 19 (11829248)
I0305 23:56:09.116087  5013 layer_factory.hpp:78] Creating layer cccp3_bn
I0305 23:56:09.116106  5013 net.cpp:68] Creating Layer cccp3_bn
I0305 23:56:09.116119  5013 net.cpp:395] cccp3_bn <- cccp3
I0305 23:56:09.116134  5013 net.cpp:357] cccp3_bn -> cccp3_bn
I0305 23:56:09.116150  5013 net.cpp:97] Setting up cccp3_bn
I0305 23:56:09.116175  5013 net.cpp:104] Top shape: 128 256 19 19 (11829248)
I0305 23:56:09.116191  5013 layer_factory.hpp:78] Creating layer relu_cccp3
I0305 23:56:09.116205  5013 net.cpp:68] Creating Layer relu_cccp3
I0305 23:56:09.116217  5013 net.cpp:395] relu_cccp3 <- cccp3_bn
I0305 23:56:09.116237  5013 net.cpp:346] relu_cccp3 -> cccp3_bn (in-place)
I0305 23:56:09.116252  5013 net.cpp:97] Setting up relu_cccp3
I0305 23:56:09.116267  5013 net.cpp:104] Top shape: 128 256 19 19 (11829248)
I0305 23:56:09.116279  5013 layer_factory.hpp:78] Creating layer pool3
I0305 23:56:09.116294  5013 net.cpp:68] Creating Layer pool3
I0305 23:56:09.116307  5013 net.cpp:395] pool3 <- cccp3_bn
I0305 23:56:09.116324  5013 net.cpp:357] pool3 -> pool3
I0305 23:56:09.116338  5013 net.cpp:97] Setting up pool3
I0305 23:56:09.116356  5013 net.cpp:104] Top shape: 128 256 9 9 (2654208)
I0305 23:56:09.116369  5013 layer_factory.hpp:78] Creating layer fc4
I0305 23:56:09.116387  5013 net.cpp:68] Creating Layer fc4
I0305 23:56:09.116422  5013 net.cpp:395] fc4 <- pool3
I0305 23:56:09.116441  5013 net.cpp:357] fc4 -> fc4
I0305 23:56:09.116459  5013 net.cpp:97] Setting up fc4
I0305 23:56:09.217497  5013 net.cpp:104] Top shape: 128 512 1 1 (65536)
I0305 23:56:09.217584  5013 layer_factory.hpp:78] Creating layer relu4
I0305 23:56:09.217613  5013 net.cpp:68] Creating Layer relu4
I0305 23:56:09.217628  5013 net.cpp:395] relu4 <- fc4
I0305 23:56:09.217648  5013 net.cpp:346] relu4 -> fc4 (in-place)
I0305 23:56:09.217666  5013 net.cpp:97] Setting up relu4
I0305 23:56:09.217697  5013 net.cpp:104] Top shape: 128 512 1 1 (65536)
I0305 23:56:09.217710  5013 layer_factory.hpp:78] Creating layer drop4
I0305 23:56:09.217727  5013 net.cpp:68] Creating Layer drop4
I0305 23:56:09.217739  5013 net.cpp:395] drop4 <- fc4
I0305 23:56:09.217756  5013 net.cpp:346] drop4 -> fc4 (in-place)
I0305 23:56:09.217771  5013 net.cpp:97] Setting up drop4
I0305 23:56:09.217784  5013 net.cpp:104] Top shape: 128 512 1 1 (65536)
I0305 23:56:09.217797  5013 layer_factory.hpp:78] Creating layer fc5
I0305 23:56:09.217813  5013 net.cpp:68] Creating Layer fc5
I0305 23:56:09.217825  5013 net.cpp:395] fc5 <- fc4
I0305 23:56:09.217839  5013 net.cpp:357] fc5 -> fc5
I0305 23:56:09.217855  5013 net.cpp:97] Setting up fc5
I0305 23:56:09.220567  5013 net.cpp:104] Top shape: 128 512 1 1 (65536)
I0305 23:56:09.220593  5013 layer_factory.hpp:78] Creating layer relu5
I0305 23:56:09.220608  5013 net.cpp:68] Creating Layer relu5
I0305 23:56:09.220621  5013 net.cpp:395] relu5 <- fc5
I0305 23:56:09.220638  5013 net.cpp:346] relu5 -> fc5 (in-place)
I0305 23:56:09.220652  5013 net.cpp:97] Setting up relu5
I0305 23:56:09.220667  5013 net.cpp:104] Top shape: 128 512 1 1 (65536)
I0305 23:56:09.220680  5013 layer_factory.hpp:78] Creating layer drop5
I0305 23:56:09.220695  5013 net.cpp:68] Creating Layer drop5
I0305 23:56:09.220706  5013 net.cpp:395] drop5 <- fc5
I0305 23:56:09.220720  5013 net.cpp:346] drop5 -> fc5 (in-place)
I0305 23:56:09.220734  5013 net.cpp:97] Setting up drop5
I0305 23:56:09.220746  5013 net.cpp:104] Top shape: 128 512 1 1 (65536)
I0305 23:56:09.220758  5013 layer_factory.hpp:78] Creating layer fc6
I0305 23:56:09.220773  5013 net.cpp:68] Creating Layer fc6
I0305 23:56:09.220784  5013 net.cpp:395] fc6 <- fc5
I0305 23:56:09.220799  5013 net.cpp:357] fc6 -> fc6
I0305 23:56:09.220813  5013 net.cpp:97] Setting up fc6
I0305 23:56:09.221457  5013 net.cpp:104] Top shape: 128 121 1 1 (15488)
I0305 23:56:09.221480  5013 layer_factory.hpp:78] Creating layer loss
I0305 23:56:09.221498  5013 net.cpp:68] Creating Layer loss
I0305 23:56:09.221511  5013 net.cpp:395] loss <- fc6
I0305 23:56:09.221524  5013 net.cpp:395] loss <- label
I0305 23:56:09.221540  5013 net.cpp:357] loss -> loss
I0305 23:56:09.221557  5013 net.cpp:97] Setting up loss
I0305 23:56:09.221572  5013 layer_factory.hpp:78] Creating layer loss
I0305 23:56:09.221640  5013 net.cpp:104] Top shape: 1 1 1 1 (1)
I0305 23:56:09.221657  5013 net.cpp:110]     with loss weight 1
I0305 23:56:09.221716  5013 net.cpp:171] loss needs backward computation.
I0305 23:56:09.221730  5013 net.cpp:171] fc6 needs backward computation.
I0305 23:56:09.221741  5013 net.cpp:171] drop5 needs backward computation.
I0305 23:56:09.221752  5013 net.cpp:171] relu5 needs backward computation.
I0305 23:56:09.221763  5013 net.cpp:171] fc5 needs backward computation.
…
