…
E0302 17:17:58.198042 23133 upgrade_proto.cpp:624] Note that future Caffe releases will only support transform_param messages for transformation fields.
I0302 17:17:58.198400 23133 net.cpp:39] Initializing net from parameters: 
name: "model5_bn"
layers {
  top: "data"
  top: "label"
  name: "data"
  type: DATA
  data_param {
    source: "/home/jaehyun/kaggle/nationalDataScienceBowl/data/typeE/train_lmdb"
    batch_size: 128
    backend: LMDB
    shuffle: true
  }
  transform_param {
    scale: 0.00390625
    mirror: true
    mean_file: "/home/jaehyun/kaggle/nationalDataScienceBowl/data/typeE/train_mean.binaryproto"
  }
}
layers {
  bottom: "data"
  top: "conv1"
  name: "conv1"
  type: CONVOLUTION
  blobs_lr: 1
  blobs_lr: 2
  weight_decay: 1
  weight_decay: 0
  convolution_param {
    num_output: 256
    kernel_size: 4
    stride: 2
    weight_filler {
      type: "xavier"
    }
    bias_filler {
      type: "constant"
    }
  }
}
layers {
  bottom: "conv1"
  top: "conv1_bn"
  name: "conv1_bn"
  type: BN
  blobs_lr: 1
  blobs_lr: 1
  weight_decay: 0
  weight_decay: 0
  bn_param {
    scale_filler {
      type: "constant"
      value: 1
    }
    shift_filler {
      type: "constant"
      value: 0
    }
  }
}
layers {
  bottom: "conv1_bn"
  top: "conv1_bn"
  name: "relu1"
  type: RELU
  relu_param {
    negative_slope: 0.1
  }
}
layers {
  bottom: "conv1_bn"
  top: "cccp1"
  name: "cccp1"
  type: CONVOLUTION
  blobs_lr: 1
  blobs_lr: 2
  weight_decay: 1
  weight_decay: 0
  convolution_param {
    num_output: 256
    kernel_size: 1
    group: 1
    stride: 1
    weight_filler {
      type: "xavier"
    }
    bias_filler {
      type: "constant"
    }
  }
}
layers {
  bottom: "cccp1"
  top: "cccp1_bn"
  name: "cccp1_bn"
  type: BN
  blobs_lr: 1
  blobs_lr: 1
  weight_decay: 0
  weight_decay: 0
  bn_param {
    scale_filler {
      type: "constant"
      value: 1
    }
    shift_filler {
      type: "constant"
      value: 0
    }
  }
}
layers {
  bottom: "cccp1_bn"
  top: "cccp1_bn"
  name: "relu_cccp1"
  type: RELU
  relu_param {
    negative_slope: 0.1
  }
}
layers {
  bottom: "cccp1_bn"
  top: "pool1"
  name: "pool1"
  type: POOLING
  pooling_param {
    pool: MAX
    kernel_size: 3
    stride: 2
  }
}
layers {
  bottom: "pool1"
  top: "conv2"
  name: "conv2"
  type: CONVOLUTION
  blobs_lr: 1
  blobs_lr: 2
  weight_decay: 1
  weight_decay: 0
  convolution_param {
    num_output: 256
    kernel_size: 3
    weight_filler {
      type: "xavier"
    }
    bias_filler {
      type: "constant"
    }
  }
}
layers {
  bottom: "conv2"
  top: "conv2_bn"
  name: "conv2_bn"
  type: BN
  blobs_lr: 1
  blobs_lr: 1
  weight_decay: 0
  weight_decay: 0
  bn_param {
    scale_filler {
      type: "constant"
      value: 1
    }
    shift_filler {
      type: "constant"
      value: 0
    }
  }
}
layers {
  bottom: "conv2_bn"
  top: "conv2_bn"
  name: "relu2"
  type: RELU
  relu_param {
    negative_slope: 0.1
  }
}
layers {
  bottom: "conv2_bn"
  top: "cccp2"
  name: "cccp2"
  type: CONVOLUTION
  blobs_lr: 1
  blobs_lr: 2
  weight_decay: 1
  weight_decay: 0
  convolution_param {
    num_output: 256
    kernel_size: 1
    group: 1
    stride: 1
    weight_filler {
      type: "xavier"
    }
    bias_filler {
      type: "constant"
    }
  }
}
layers {
  bottom: "cccp2"
  top: "cccp2_bn"
  name: "cccp2_bn"
  type: BN
  blobs_lr: 1
  blobs_lr: 1
  weight_decay: 0
  weight_decay: 0
  bn_param {
    scale_filler {
      type: "constant"
      value: 1
    }
    shift_filler {
      type: "constant"
      value: 0
    }
  }
}
layers {
  bottom: "cccp2_bn"
  top: "cccp2_bn"
  name: "relu_cccp2"
  type: RELU
  relu_param {
    negative_slope: 0.1
  }
}
layers {
  bottom: "cccp2_bn"
  top: "conv3"
  name: "conv3"
  type: CONVOLUTION
  blobs_lr: 1
  blobs_lr: 2
  weight_decay: 1
  weight_decay: 0
  convolution_param {
    num_output: 256
    kernel_size: 3
    weight_filler {
      type: "xavier"
    }
    bias_filler {
      type: "constant"
    }
  }
}
layers {
  bottom: "conv3"
  top: "conv3_bn"
  name: "conv3_bn"
  type: BN
  blobs_lr: 1
  blobs_lr: 1
  weight_decay: 0
  weight_decay: 0
  bn_param {
    scale_filler {
      type: "constant"
      value: 1
    }
    shift_filler {
      type: "constant"
      value: 0
    }
  }
}
layers {
  bottom: "conv3_bn"
  top: "conv3_bn"
  name: "relu3"
  type: RELU
  relu_param {
    negative_slope: 0.1
  }
}
layers {
  bottom: "conv3_bn"
  top: "cccp3"
  name: "cccp3"
  type: CONVOLUTION
  blobs_lr: 1
  blobs_lr: 2
  weight_decay: 1
  weight_decay: 0
  convolution_param {
    num_output: 256
    kernel_size: 1
    group: 1
    stride: 1
    weight_filler {
      type: "xavier"
    }
    bias_filler {
      type: "constant"
    }
  }
}
layers {
  bottom: "cccp3"
  top: "cccp3_bn"
  name: "cccp3_bn"
  type: BN
  blobs_lr: 1
  blobs_lr: 1
  weight_decay: 0
  weight_decay: 0
  bn_param {
    scale_filler {
      type: "constant"
      value: 1
    }
    shift_filler {
      type: "constant"
      value: 0
    }
  }
}
layers {
  bottom: "cccp3_bn"
  top: "cccp3_bn"
  name: "relu_cccp3"
  type: RELU
  relu_param {
    negative_slope: 0.1
  }
}
layers {
  bottom: "cccp3_bn"
  top: "pool3"
  name: "pool3"
  type: POOLING
  pooling_param {
    pool: MAX
    kernel_size: 3
    stride: 2
  }
}
layers {
  bottom: "pool3"
  top: "fc4"
  name: "fc4"
  type: INNER_PRODUCT
  blobs_lr: 1
  blobs_lr: 2
  weight_decay: 1
  weight_decay: 0
  inner_product_param {
    num_output: 512
    weight_filler {
      type: "xavier"
    }
    bias_filler {
      type: "constant"
    }
  }
}
layers {
  bottom: "fc4"
  top: "fc4"
  name: "relu4"
  type: RELU
  relu_param {
    negative_slope: 0.1
  }
}
layers {
  bottom: "fc4"
  top: "fc4"
  name: "drop4"
  type: DROPOUT
  dropout_param {
    dropout_ratio: 0.5
  }
}
layers {
  bottom: "fc4"
  top: "fc5"
  name: "fc5"
  type: INNER_PRODUCT
  blobs_lr: 1
  blobs_lr: 2
  weight_decay: 1
  weight_decay: 0
  inner_product_param {
    num_output: 512
    weight_filler {
      type: "xavier"
    }
    bias_filler {
      type: "constant"
    }
  }
}
layers {
  bottom: "fc5"
  top: "fc5"
  name: "relu5"
  type: RELU
  relu_param {
    negative_slope: 0.1
  }
}
layers {
  bottom: "fc5"
  top: "fc5"
  name: "drop5"
  type: DROPOUT
  dropout_param {
    dropout_ratio: 0.5
  }
}
layers {
  bottom: "fc5"
  top: "fc6"
  name: "fc6"
  type: INNER_PRODUCT
  blobs_lr: 1
  blobs_lr: 2
  weight_decay: 1
  weight_decay: 0
  inner_product_param {
    num_output: 121
    weight_filler {
      type: "xavier"
    }
    bias_filler {
      type: "constant"
    }
  }
}
layers {
  bottom: "fc6"
  bottom: "label"
  top: "loss"
  name: "loss"
  type: SOFTMAX_LOSS
}
state {
  phase: TRAIN
}
I0302 17:17:58.199928 23133 layer_factory.hpp:78] Creating layer data
I0302 17:17:58.199959 23133 data_transformer.cpp:24] Loading mean file from/home/jaehyun/kaggle/nationalDataScienceBowl/data/typeE/train_mean.binaryproto
I0302 17:17:58.200184 23133 net.cpp:68] Creating Layer data
I0302 17:17:58.200208 23133 net.cpp:357] data -> data
I0302 17:17:58.200238 23133 net.cpp:357] data -> label
I0302 17:17:58.200261 23133 net.cpp:97] Setting up data
I0302 17:17:58.200283 23133 data_layer.cpp:34] Opening dataset /home/jaehyun/kaggle/nationalDataScienceBowl/data/typeE/train_lmdb
I0302 17:17:58.200476 23133 data_layer.cpp:73] output data size: 128,1,96,96
I0302 17:17:58.202468 23133 net.cpp:104] Top shape: 128 1 96 96 (1179648)
I0302 17:17:58.202504 23133 net.cpp:104] Top shape: 128 1 1 1 (128)
I0302 17:17:58.202518 23133 layer_factory.hpp:78] Creating layer conv1
I0302 17:17:58.202539 23133 net.cpp:68] Creating Layer conv1
I0302 17:17:58.202555 23133 net.cpp:395] conv1 <- data
I0302 17:17:58.202590 23133 net.cpp:357] conv1 -> conv1
I0302 17:17:58.202610 23133 net.cpp:97] Setting up conv1
I0302 17:17:58.233037 23133 net.cpp:104] Top shape: 128 256 47 47 (72384512)
I0302 17:17:58.233124 23133 layer_factory.hpp:78] Creating layer conv1_bn
I0302 17:17:58.233160 23133 net.cpp:68] Creating Layer conv1_bn
I0302 17:17:58.233176 23133 net.cpp:395] conv1_bn <- conv1
I0302 17:17:58.233193 23133 net.cpp:357] conv1_bn -> conv1_bn
I0302 17:17:58.233214 23133 net.cpp:97] Setting up conv1_bn
I0302 17:17:58.233252 23133 net.cpp:104] Top shape: 128 256 47 47 (72384512)
I0302 17:17:58.233269 23133 layer_factory.hpp:78] Creating layer relu1
I0302 17:17:58.233289 23133 net.cpp:68] Creating Layer relu1
I0302 17:17:58.233301 23133 net.cpp:395] relu1 <- conv1_bn
I0302 17:17:58.233314 23133 net.cpp:346] relu1 -> conv1_bn (in-place)
I0302 17:17:58.233330 23133 net.cpp:97] Setting up relu1
I0302 17:17:58.233350 23133 net.cpp:104] Top shape: 128 256 47 47 (72384512)
I0302 17:17:58.233364 23133 layer_factory.hpp:78] Creating layer cccp1
I0302 17:17:58.233386 23133 net.cpp:68] Creating Layer cccp1
I0302 17:17:58.233398 23133 net.cpp:395] cccp1 <- conv1_bn
I0302 17:17:58.233414 23133 net.cpp:357] cccp1 -> cccp1
I0302 17:17:58.233432 23133 net.cpp:97] Setting up cccp1
I0302 17:17:58.234246 23133 net.cpp:104] Top shape: 128 256 47 47 (72384512)
I0302 17:17:58.234275 23133 layer_factory.hpp:78] Creating layer cccp1_bn
I0302 17:17:58.234293 23133 net.cpp:68] Creating Layer cccp1_bn
I0302 17:17:58.234307 23133 net.cpp:395] cccp1_bn <- cccp1
I0302 17:17:58.234323 23133 net.cpp:357] cccp1_bn -> cccp1_bn
I0302 17:17:58.234349 23133 net.cpp:97] Setting up cccp1_bn
I0302 17:17:58.234381 23133 net.cpp:104] Top shape: 128 256 47 47 (72384512)
I0302 17:17:58.234397 23133 layer_factory.hpp:78] Creating layer relu_cccp1
I0302 17:17:58.234411 23133 net.cpp:68] Creating Layer relu_cccp1
I0302 17:17:58.234423 23133 net.cpp:395] relu_cccp1 <- cccp1_bn
I0302 17:17:58.234439 23133 net.cpp:346] relu_cccp1 -> cccp1_bn (in-place)
I0302 17:17:58.234453 23133 net.cpp:97] Setting up relu_cccp1
I0302 17:17:58.234469 23133 net.cpp:104] Top shape: 128 256 47 47 (72384512)
I0302 17:17:58.234483 23133 layer_factory.hpp:78] Creating layer pool1
I0302 17:17:58.234499 23133 net.cpp:68] Creating Layer pool1
I0302 17:17:58.234511 23133 net.cpp:395] pool1 <- cccp1_bn
I0302 17:17:58.234527 23133 net.cpp:357] pool1 -> pool1
I0302 17:17:58.234542 23133 net.cpp:97] Setting up pool1
I0302 17:17:58.234577 23133 net.cpp:104] Top shape: 128 256 23 23 (17334272)
I0302 17:17:58.234592 23133 layer_factory.hpp:78] Creating layer conv2
I0302 17:17:58.234608 23133 net.cpp:68] Creating Layer conv2
I0302 17:17:58.234622 23133 net.cpp:395] conv2 <- pool1
I0302 17:17:58.234638 23133 net.cpp:357] conv2 -> conv2
I0302 17:17:58.234654 23133 net.cpp:97] Setting up conv2
I0302 17:17:58.240881 23133 net.cpp:104] Top shape: 128 256 21 21 (14450688)
I0302 17:17:58.240921 23133 layer_factory.hpp:78] Creating layer conv2_bn
I0302 17:17:58.240942 23133 net.cpp:68] Creating Layer conv2_bn
I0302 17:17:58.240954 23133 net.cpp:395] conv2_bn <- conv2
I0302 17:17:58.240972 23133 net.cpp:357] conv2_bn -> conv2_bn
I0302 17:17:58.240991 23133 net.cpp:97] Setting up conv2_bn
I0302 17:17:58.241015 23133 net.cpp:104] Top shape: 128 256 21 21 (14450688)
I0302 17:17:58.241031 23133 layer_factory.hpp:78] Creating layer relu2
I0302 17:17:58.241045 23133 net.cpp:68] Creating Layer relu2
I0302 17:17:58.241056 23133 net.cpp:395] relu2 <- conv2_bn
I0302 17:17:58.241070 23133 net.cpp:346] relu2 -> conv2_bn (in-place)
I0302 17:17:58.241083 23133 net.cpp:97] Setting up relu2
I0302 17:17:58.241098 23133 net.cpp:104] Top shape: 128 256 21 21 (14450688)
I0302 17:17:58.241111 23133 layer_factory.hpp:78] Creating layer cccp2
I0302 17:17:58.241176 23133 net.cpp:68] Creating Layer cccp2
I0302 17:17:58.241190 23133 net.cpp:395] cccp2 <- conv2_bn
I0302 17:17:58.241207 23133 net.cpp:357] cccp2 -> cccp2
I0302 17:17:58.241224 23133 net.cpp:97] Setting up cccp2
I0302 17:17:58.241983 23133 net.cpp:104] Top shape: 128 256 21 21 (14450688)
I0302 17:17:58.242007 23133 layer_factory.hpp:78] Creating layer cccp2_bn
I0302 17:17:58.242022 23133 net.cpp:68] Creating Layer cccp2_bn
I0302 17:17:58.242034 23133 net.cpp:395] cccp2_bn <- cccp2
I0302 17:17:58.242051 23133 net.cpp:357] cccp2_bn -> cccp2_bn
I0302 17:17:58.242068 23133 net.cpp:97] Setting up cccp2_bn
I0302 17:17:58.242092 23133 net.cpp:104] Top shape: 128 256 21 21 (14450688)
I0302 17:17:58.242107 23133 layer_factory.hpp:78] Creating layer relu_cccp2
I0302 17:17:58.242121 23133 net.cpp:68] Creating Layer relu_cccp2
I0302 17:17:58.242133 23133 net.cpp:395] relu_cccp2 <- cccp2_bn
I0302 17:17:58.242146 23133 net.cpp:346] relu_cccp2 -> cccp2_bn (in-place)
I0302 17:17:58.242159 23133 net.cpp:97] Setting up relu_cccp2
I0302 17:17:58.242173 23133 net.cpp:104] Top shape: 128 256 21 21 (14450688)
I0302 17:17:58.242185 23133 layer_factory.hpp:78] Creating layer conv3
I0302 17:17:58.242203 23133 net.cpp:68] Creating Layer conv3
I0302 17:17:58.242215 23133 net.cpp:395] conv3 <- cccp2_bn
I0302 17:17:58.242231 23133 net.cpp:357] conv3 -> conv3
I0302 17:17:58.242246 23133 net.cpp:97] Setting up conv3
I0302 17:17:58.248152 23133 net.cpp:104] Top shape: 128 256 19 19 (11829248)
I0302 17:17:58.248183 23133 layer_factory.hpp:78] Creating layer conv3_bn
I0302 17:17:58.248203 23133 net.cpp:68] Creating Layer conv3_bn
I0302 17:17:58.248217 23133 net.cpp:395] conv3_bn <- conv3
I0302 17:17:58.248231 23133 net.cpp:357] conv3_bn -> conv3_bn
I0302 17:17:58.248247 23133 net.cpp:97] Setting up conv3_bn
I0302 17:17:58.248268 23133 net.cpp:104] Top shape: 128 256 19 19 (11829248)
I0302 17:17:58.248284 23133 layer_factory.hpp:78] Creating layer relu3
I0302 17:17:58.248301 23133 net.cpp:68] Creating Layer relu3
I0302 17:17:58.248312 23133 net.cpp:395] relu3 <- conv3_bn
I0302 17:17:58.248325 23133 net.cpp:346] relu3 -> conv3_bn (in-place)
I0302 17:17:58.248339 23133 net.cpp:97] Setting up relu3
I0302 17:17:58.248354 23133 net.cpp:104] Top shape: 128 256 19 19 (11829248)
I0302 17:17:58.248366 23133 layer_factory.hpp:78] Creating layer cccp3
I0302 17:17:58.248383 23133 net.cpp:68] Creating Layer cccp3
I0302 17:17:58.248394 23133 net.cpp:395] cccp3 <- conv3_bn
I0302 17:17:58.248410 23133 net.cpp:357] cccp3 -> cccp3
I0302 17:17:58.248425 23133 net.cpp:97] Setting up cccp3
I0302 17:17:58.249414 23133 net.cpp:104] Top shape: 128 256 19 19 (11829248)
I0302 17:17:58.249441 23133 layer_factory.hpp:78] Creating layer cccp3_bn
I0302 17:17:58.249461 23133 net.cpp:68] Creating Layer cccp3_bn
I0302 17:17:58.249475 23133 net.cpp:395] cccp3_bn <- cccp3
I0302 17:17:58.249488 23133 net.cpp:357] cccp3_bn -> cccp3_bn
I0302 17:17:58.249503 23133 net.cpp:97] Setting up cccp3_bn
I0302 17:17:58.249526 23133 net.cpp:104] Top shape: 128 256 19 19 (11829248)
I0302 17:17:58.249542 23133 layer_factory.hpp:78] Creating layer relu_cccp3
I0302 17:17:58.249558 23133 net.cpp:68] Creating Layer relu_cccp3
I0302 17:17:58.249570 23133 net.cpp:395] relu_cccp3 <- cccp3_bn
I0302 17:17:58.249583 23133 net.cpp:346] relu_cccp3 -> cccp3_bn (in-place)
I0302 17:17:58.249596 23133 net.cpp:97] Setting up relu_cccp3
I0302 17:17:58.249611 23133 net.cpp:104] Top shape: 128 256 19 19 (11829248)
I0302 17:17:58.249624 23133 layer_factory.hpp:78] Creating layer pool3
I0302 17:17:58.249639 23133 net.cpp:68] Creating Layer pool3
I0302 17:17:58.249650 23133 net.cpp:395] pool3 <- cccp3_bn
I0302 17:17:58.249665 23133 net.cpp:357] pool3 -> pool3
I0302 17:17:58.249682 23133 net.cpp:97] Setting up pool3
I0302 17:17:58.249701 23133 net.cpp:104] Top shape: 128 256 9 9 (2654208)
I0302 17:17:58.249714 23133 layer_factory.hpp:78] Creating layer fc4
I0302 17:17:58.249733 23133 net.cpp:68] Creating Layer fc4
I0302 17:17:58.249747 23133 net.cpp:395] fc4 <- pool3
I0302 17:17:58.249763 23133 net.cpp:357] fc4 -> fc4
I0302 17:17:58.249801 23133 net.cpp:97] Setting up fc4
I0302 17:17:58.355285 23133 net.cpp:104] Top shape: 128 512 1 1 (65536)
I0302 17:17:58.355355 23133 layer_factory.hpp:78] Creating layer relu4
I0302 17:17:58.355378 23133 net.cpp:68] Creating Layer relu4
I0302 17:17:58.355396 23133 net.cpp:395] relu4 <- fc4
I0302 17:17:58.355412 23133 net.cpp:346] relu4 -> fc4 (in-place)
I0302 17:17:58.355432 23133 net.cpp:97] Setting up relu4
I0302 17:17:58.355463 23133 net.cpp:104] Top shape: 128 512 1 1 (65536)
I0302 17:17:58.355474 23133 layer_factory.hpp:78] Creating layer drop4
I0302 17:17:58.355492 23133 net.cpp:68] Creating Layer drop4
I0302 17:17:58.355504 23133 net.cpp:395] drop4 <- fc4
I0302 17:17:58.355521 23133 net.cpp:346] drop4 -> fc4 (in-place)
I0302 17:17:58.355536 23133 net.cpp:97] Setting up drop4
I0302 17:17:58.355551 23133 net.cpp:104] Top shape: 128 512 1 1 (65536)
I0302 17:17:58.355563 23133 layer_factory.hpp:78] Creating layer fc5
I0302 17:17:58.355579 23133 net.cpp:68] Creating Layer fc5
I0302 17:17:58.355592 23133 net.cpp:395] fc5 <- fc4
I0302 17:17:58.355607 23133 net.cpp:357] fc5 -> fc5
I0302 17:17:58.355624 23133 net.cpp:97] Setting up fc5
I0302 17:17:58.358378 23133 net.cpp:104] Top shape: 128 512 1 1 (65536)
I0302 17:17:58.358402 23133 layer_factory.hpp:78] Creating layer relu5
I0302 17:17:58.358417 23133 net.cpp:68] Creating Layer relu5
I0302 17:17:58.358433 23133 net.cpp:395] relu5 <- fc5
I0302 17:17:58.358445 23133 net.cpp:346] relu5 -> fc5 (in-place)
I0302 17:17:58.358459 23133 net.cpp:97] Setting up relu5
I0302 17:17:58.358474 23133 net.cpp:104] Top shape: 128 512 1 1 (65536)
I0302 17:17:58.358486 23133 layer_factory.hpp:78] Creating layer drop5
I0302 17:17:58.358500 23133 net.cpp:68] Creating Layer drop5
I0302 17:17:58.358511 23133 net.cpp:395] drop5 <- fc5
I0302 17:17:58.358525 23133 net.cpp:346] drop5 -> fc5 (in-place)
I0302 17:17:58.358537 23133 net.cpp:97] Setting up drop5
I0302 17:17:58.358549 23133 net.cpp:104] Top shape: 128 512 1 1 (65536)
I0302 17:17:58.358561 23133 layer_factory.hpp:78] Creating layer fc6
I0302 17:17:58.358577 23133 net.cpp:68] Creating Layer fc6
I0302 17:17:58.358589 23133 net.cpp:395] fc6 <- fc5
I0302 17:17:58.358603 23133 net.cpp:357] fc6 -> fc6
I0302 17:17:58.358616 23133 net.cpp:97] Setting up fc6
I0302 17:17:58.359268 23133 net.cpp:104] Top shape: 128 121 1 1 (15488)
I0302 17:17:58.359290 23133 layer_factory.hpp:78] Creating layer loss
I0302 17:17:58.359308 23133 net.cpp:68] Creating Layer loss
I0302 17:17:58.359319 23133 net.cpp:395] loss <- fc6
I0302 17:17:58.359333 23133 net.cpp:395] loss <- label
I0302 17:17:58.359349 23133 net.cpp:357] loss -> loss
I0302 17:17:58.359366 23133 net.cpp:97] Setting up loss
I0302 17:17:58.359381 23133 layer_factory.hpp:78] Creating layer loss
I0302 17:17:58.359450 23133 net.cpp:104] Top shape: 1 1 1 1 (1)
I0302 17:17:58.359467 23133 net.cpp:110]     with loss weight 1
I0302 17:17:58.359518 23133 net.cpp:171] loss needs backward computation.
I0302 17:17:58.359531 23133 net.cpp:171] fc6 needs backward computation.
I0302 17:17:58.359542 23133 net.cpp:171] drop5 needs backward computation.
I0302 17:17:58.359552 23133 net.cpp:171] relu5 needs backward computation.
I0302 17:17:58.359563 23133 net.cpp:171] fc5 needs backward computation.
…
