…
I0301 16:13:25.399024 18546 net.cpp:276] The NetState phase (0) differed from the phase (1) specified by a rule in layer accuracy
I0301 16:13:25.399226 18546 net.cpp:39] Initializing net from parameters: 
name: "model3_bn"
layers {
  top: "data"
  top: "label"
  name: "data"
  type: DATA
  data_param {
    source: "/home/jaehyun/kaggle/nationalDataScienceBowl/data/typeE/train_lmdb"
    batch_size: 128
    backend: LMDB
    shuffle: true
  }
  include {
    phase: TRAIN
  }
  transform_param {
    scale: 0.00390625
    mirror: true
    mean_file: "/home/jaehyun/kaggle/nationalDataScienceBowl/data/typeE/train_mean.binaryproto"
  }
}
layers {
  bottom: "data"
  top: "conv1"
  name: "conv1"
  type: CONVOLUTION
  blobs_lr: 1
  blobs_lr: 2
  weight_decay: 1
  weight_decay: 0
  convolution_param {
    num_output: 256
    kernel_size: 4
    stride: 2
    weight_filler {
      type: "xavier"
    }
    bias_filler {
      type: "constant"
    }
  }
}
layers {
  bottom: "conv1"
  top: "conv1"
  name: "relu1"
  type: RELU
  relu_param {
    negative_slope: 0.1
  }
}
layers {
  bottom: "conv1"
  top: "cccp1"
  name: "cccp1"
  type: CONVOLUTION
  blobs_lr: 1
  blobs_lr: 2
  weight_decay: 1
  weight_decay: 0
  convolution_param {
    num_output: 256
    kernel_size: 1
    group: 1
    stride: 1
    weight_filler {
      type: "xavier"
    }
    bias_filler {
      type: "constant"
    }
  }
}
layers {
  bottom: "cccp1"
  top: "cccp1_bn"
  name: "cccp1_bn"
  type: BN
  blobs_lr: 1
  blobs_lr: 1
  weight_decay: 0
  weight_decay: 0
  bn_param {
    scale_filler {
      type: "constant"
      value: 1
    }
    shift_filler {
      type: "constant"
      value: 0
    }
  }
}
layers {
  bottom: "cccp1_bn"
  top: "cccp1_bn"
  name: "relu_cccp1"
  type: RELU
  relu_param {
    negative_slope: 0.1
  }
}
layers {
  bottom: "cccp1_bn"
  top: "pool1"
  name: "pool1"
  type: POOLING
  pooling_param {
    pool: MAX
    kernel_size: 3
    stride: 2
  }
}
layers {
  bottom: "pool1"
  top: "conv2"
  name: "conv2"
  type: CONVOLUTION
  blobs_lr: 1
  blobs_lr: 2
  weight_decay: 1
  weight_decay: 0
  convolution_param {
    num_output: 128
    kernel_size: 3
    weight_filler {
      type: "xavier"
    }
    bias_filler {
      type: "constant"
    }
  }
}
layers {
  bottom: "conv2"
  top: "conv2_bn"
  name: "conv2_bn"
  type: BN
  blobs_lr: 1
  blobs_lr: 1
  weight_decay: 0
  weight_decay: 0
  bn_param {
    scale_filler {
      type: "constant"
      value: 1
    }
    shift_filler {
      type: "constant"
      value: 0
    }
  }
}
layers {
  bottom: "conv2_bn"
  top: "conv2_bn"
  name: "relu2"
  type: RELU
  relu_param {
    negative_slope: 0.1
  }
}
layers {
  bottom: "conv2_bn"
  top: "conv3"
  name: "conv3"
  type: CONVOLUTION
  blobs_lr: 1
  blobs_lr: 2
  weight_decay: 1
  weight_decay: 0
  convolution_param {
    num_output: 128
    kernel_size: 3
    weight_filler {
      type: "xavier"
    }
    bias_filler {
      type: "constant"
    }
  }
}
layers {
  bottom: "conv3"
  top: "conv3_bn"
  name: "conv3_bn"
  type: BN
  blobs_lr: 1
  blobs_lr: 1
  weight_decay: 0
  weight_decay: 0
  bn_param {
    scale_filler {
      type: "constant"
      value: 1
    }
    shift_filler {
      type: "constant"
      value: 0
    }
  }
}
layers {
  bottom: "conv3_bn"
  top: "conv3_bn"
  name: "relu3"
  type: RELU
  relu_param {
    negative_slope: 0.1
  }
}
layers {
  bottom: "conv3_bn"
  top: "pool3"
  name: "pool3"
  type: POOLING
  pooling_param {
    pool: MAX
    kernel_size: 3
    stride: 2
  }
}
layers {
  bottom: "pool3"
  top: "fc4"
  name: "fc4"
  type: INNER_PRODUCT
  blobs_lr: 1
  blobs_lr: 2
  weight_decay: 1
  weight_decay: 0
  inner_product_param {
    num_output: 512
    weight_filler {
      type: "xavier"
    }
    bias_filler {
      type: "constant"
    }
  }
}
layers {
  bottom: "fc4"
  top: "fc4"
  name: "relu4"
  type: RELU
  relu_param {
    negative_slope: 0.1
  }
}
layers {
  bottom: "fc4"
  top: "fc4"
  name: "drop4"
  type: DROPOUT
  dropout_param {
    dropout_ratio: 0.5
  }
}
layers {
  bottom: "fc4"
  top: "fc5"
  name: "fc5"
  type: INNER_PRODUCT
  blobs_lr: 1
  blobs_lr: 2
  weight_decay: 1
  weight_decay: 0
  inner_product_param {
    num_output: 512
    weight_filler {
      type: "xavier"
    }
    bias_filler {
      type: "constant"
    }
  }
}
layers {
  bottom: "fc5"
  top: "fc5"
  name: "relu5"
  type: RELU
  relu_param {
    negative_slope: 0.1
  }
}
layers {
  bottom: "fc5"
  top: "fc5"
  name: "drop5"
  type: DROPOUT
  dropout_param {
    dropout_ratio: 0.5
  }
}
layers {
  bottom: "fc5"
  top: "fc6"
  name: "fc6"
  type: INNER_PRODUCT
  blobs_lr: 1
  blobs_lr: 2
  weight_decay: 1
  weight_decay: 0
  inner_product_param {
    num_output: 121
    weight_filler {
      type: "xavier"
    }
    bias_filler {
      type: "constant"
    }
  }
}
layers {
  bottom: "fc6"
  bottom: "label"
  top: "loss"
  name: "loss"
  type: SOFTMAX_LOSS
}
state {
  phase: TRAIN
}
I0301 16:13:25.400372 18546 layer_factory.hpp:78] Creating layer data
I0301 16:13:25.400404 18546 data_transformer.cpp:24] Loading mean file from/home/jaehyun/kaggle/nationalDataScienceBowl/data/typeE/train_mean.binaryproto
I0301 16:13:25.400607 18546 net.cpp:68] Creating Layer data
I0301 16:13:25.400632 18546 net.cpp:357] data -> data
I0301 16:13:25.400662 18546 net.cpp:357] data -> label
I0301 16:13:25.400686 18546 net.cpp:97] Setting up data
I0301 16:13:25.400707 18546 data_layer.cpp:34] Opening dataset /home/jaehyun/kaggle/nationalDataScienceBowl/data/typeE/train_lmdb
I0301 16:13:25.400898 18546 data_layer.cpp:73] output data size: 128,1,96,96
I0301 16:13:25.402914 18546 net.cpp:104] Top shape: 128 1 96 96 (1179648)
I0301 16:13:25.402950 18546 net.cpp:104] Top shape: 128 1 1 1 (128)
I0301 16:13:25.402963 18546 layer_factory.hpp:78] Creating layer conv1
I0301 16:13:25.402984 18546 net.cpp:68] Creating Layer conv1
I0301 16:13:25.402998 18546 net.cpp:395] conv1 <- data
I0301 16:13:25.403028 18546 net.cpp:357] conv1 -> conv1
I0301 16:13:25.403049 18546 net.cpp:97] Setting up conv1
I0301 16:13:25.435276 18546 net.cpp:104] Top shape: 128 256 47 47 (72384512)
I0301 16:13:25.435602 18546 layer_factory.hpp:78] Creating layer relu1
I0301 16:13:25.435636 18546 net.cpp:68] Creating Layer relu1
I0301 16:13:25.435652 18546 net.cpp:395] relu1 <- conv1
I0301 16:13:25.435668 18546 net.cpp:346] relu1 -> conv1 (in-place)
I0301 16:13:25.435688 18546 net.cpp:97] Setting up relu1
I0301 16:13:25.435710 18546 net.cpp:104] Top shape: 128 256 47 47 (72384512)
I0301 16:13:25.435724 18546 layer_factory.hpp:78] Creating layer cccp1
I0301 16:13:25.435742 18546 net.cpp:68] Creating Layer cccp1
I0301 16:13:25.435755 18546 net.cpp:395] cccp1 <- conv1
I0301 16:13:25.435773 18546 net.cpp:357] cccp1 -> cccp1
I0301 16:13:25.435791 18546 net.cpp:97] Setting up cccp1
I0301 16:13:25.436636 18546 net.cpp:104] Top shape: 128 256 47 47 (72384512)
I0301 16:13:25.436663 18546 layer_factory.hpp:78] Creating layer cccp1_bn
I0301 16:13:25.436738 18546 net.cpp:68] Creating Layer cccp1_bn
I0301 16:13:25.436753 18546 net.cpp:395] cccp1_bn <- cccp1
I0301 16:13:25.436779 18546 net.cpp:357] cccp1_bn -> cccp1_bn
I0301 16:13:25.436799 18546 net.cpp:97] Setting up cccp1_bn
I0301 16:13:25.436846 18546 net.cpp:104] Top shape: 128 256 47 47 (72384512)
I0301 16:13:25.436867 18546 layer_factory.hpp:78] Creating layer relu_cccp1
I0301 16:13:25.436882 18546 net.cpp:68] Creating Layer relu_cccp1
I0301 16:13:25.436895 18546 net.cpp:395] relu_cccp1 <- cccp1_bn
I0301 16:13:25.436908 18546 net.cpp:346] relu_cccp1 -> cccp1_bn (in-place)
I0301 16:13:25.436929 18546 net.cpp:97] Setting up relu_cccp1
I0301 16:13:25.436944 18546 net.cpp:104] Top shape: 128 256 47 47 (72384512)
I0301 16:13:25.436956 18546 layer_factory.hpp:78] Creating layer pool1
I0301 16:13:25.436974 18546 net.cpp:68] Creating Layer pool1
I0301 16:13:25.436985 18546 net.cpp:395] pool1 <- cccp1_bn
I0301 16:13:25.437003 18546 net.cpp:357] pool1 -> pool1
I0301 16:13:25.437018 18546 net.cpp:97] Setting up pool1
I0301 16:13:25.437052 18546 net.cpp:104] Top shape: 128 256 23 23 (17334272)
I0301 16:13:25.437067 18546 layer_factory.hpp:78] Creating layer conv2
I0301 16:13:25.437086 18546 net.cpp:68] Creating Layer conv2
I0301 16:13:25.437099 18546 net.cpp:395] conv2 <- pool1
I0301 16:13:25.437114 18546 net.cpp:357] conv2 -> conv2
I0301 16:13:25.437129 18546 net.cpp:97] Setting up conv2
I0301 16:13:25.440492 18546 net.cpp:104] Top shape: 128 128 21 21 (7225344)
I0301 16:13:25.440520 18546 layer_factory.hpp:78] Creating layer conv2_bn
I0301 16:13:25.440538 18546 net.cpp:68] Creating Layer conv2_bn
I0301 16:13:25.440552 18546 net.cpp:395] conv2_bn <- conv2
I0301 16:13:25.440569 18546 net.cpp:357] conv2_bn -> conv2_bn
I0301 16:13:25.440587 18546 net.cpp:97] Setting up conv2_bn
I0301 16:13:25.440610 18546 net.cpp:104] Top shape: 128 128 21 21 (7225344)
I0301 16:13:25.440629 18546 layer_factory.hpp:78] Creating layer relu2
I0301 16:13:25.440645 18546 net.cpp:68] Creating Layer relu2
I0301 16:13:25.440659 18546 net.cpp:395] relu2 <- conv2_bn
I0301 16:13:25.440671 18546 net.cpp:346] relu2 -> conv2_bn (in-place)
I0301 16:13:25.440685 18546 net.cpp:97] Setting up relu2
I0301 16:13:25.440700 18546 net.cpp:104] Top shape: 128 128 21 21 (7225344)
I0301 16:13:25.440711 18546 layer_factory.hpp:78] Creating layer conv3
I0301 16:13:25.440727 18546 net.cpp:68] Creating Layer conv3
I0301 16:13:25.440738 18546 net.cpp:395] conv3 <- conv2_bn
I0301 16:13:25.440755 18546 net.cpp:357] conv3 -> conv3
I0301 16:13:25.440771 18546 net.cpp:97] Setting up conv3
I0301 16:13:25.442440 18546 net.cpp:104] Top shape: 128 128 19 19 (5914624)
I0301 16:13:25.442466 18546 layer_factory.hpp:78] Creating layer conv3_bn
I0301 16:13:25.442482 18546 net.cpp:68] Creating Layer conv3_bn
I0301 16:13:25.442494 18546 net.cpp:395] conv3_bn <- conv3
I0301 16:13:25.442512 18546 net.cpp:357] conv3_bn -> conv3_bn
I0301 16:13:25.442528 18546 net.cpp:97] Setting up conv3_bn
I0301 16:13:25.442549 18546 net.cpp:104] Top shape: 128 128 19 19 (5914624)
I0301 16:13:25.442565 18546 layer_factory.hpp:78] Creating layer relu3
I0301 16:13:25.442586 18546 net.cpp:68] Creating Layer relu3
I0301 16:13:25.442598 18546 net.cpp:395] relu3 <- conv3_bn
I0301 16:13:25.442611 18546 net.cpp:346] relu3 -> conv3_bn (in-place)
I0301 16:13:25.442625 18546 net.cpp:97] Setting up relu3
I0301 16:13:25.442639 18546 net.cpp:104] Top shape: 128 128 19 19 (5914624)
I0301 16:13:25.442651 18546 layer_factory.hpp:78] Creating layer pool3
I0301 16:13:25.442666 18546 net.cpp:68] Creating Layer pool3
I0301 16:13:25.442677 18546 net.cpp:395] pool3 <- conv3_bn
I0301 16:13:25.442693 18546 net.cpp:357] pool3 -> pool3
I0301 16:13:25.442708 18546 net.cpp:97] Setting up pool3
I0301 16:13:25.442723 18546 net.cpp:104] Top shape: 128 128 9 9 (1327104)
I0301 16:13:25.442736 18546 layer_factory.hpp:78] Creating layer fc4
I0301 16:13:25.442755 18546 net.cpp:68] Creating Layer fc4
I0301 16:13:25.442767 18546 net.cpp:395] fc4 <- pool3
I0301 16:13:25.442785 18546 net.cpp:357] fc4 -> fc4
I0301 16:13:25.442800 18546 net.cpp:97] Setting up fc4
I0301 16:13:25.495631 18546 net.cpp:104] Top shape: 128 512 1 1 (65536)
I0301 16:13:25.495698 18546 layer_factory.hpp:78] Creating layer relu4
I0301 16:13:25.495724 18546 net.cpp:68] Creating Layer relu4
I0301 16:13:25.495739 18546 net.cpp:395] relu4 <- fc4
I0301 16:13:25.495757 18546 net.cpp:346] relu4 -> fc4 (in-place)
I0301 16:13:25.495776 18546 net.cpp:97] Setting up relu4
I0301 16:13:25.495806 18546 net.cpp:104] Top shape: 128 512 1 1 (65536)
I0301 16:13:25.495820 18546 layer_factory.hpp:78] Creating layer drop4
I0301 16:13:25.495841 18546 net.cpp:68] Creating Layer drop4
I0301 16:13:25.495853 18546 net.cpp:395] drop4 <- fc4
I0301 16:13:25.495873 18546 net.cpp:346] drop4 -> fc4 (in-place)
I0301 16:13:25.495889 18546 net.cpp:97] Setting up drop4
I0301 16:13:25.495904 18546 net.cpp:104] Top shape: 128 512 1 1 (65536)
I0301 16:13:25.495915 18546 layer_factory.hpp:78] Creating layer fc5
I0301 16:13:25.495932 18546 net.cpp:68] Creating Layer fc5
I0301 16:13:25.495944 18546 net.cpp:395] fc5 <- fc4
I0301 16:13:25.495960 18546 net.cpp:357] fc5 -> fc5
I0301 16:13:25.495977 18546 net.cpp:97] Setting up fc5
I0301 16:13:25.498726 18546 net.cpp:104] Top shape: 128 512 1 1 (65536)
I0301 16:13:25.498759 18546 layer_factory.hpp:78] Creating layer relu5
I0301 16:13:25.498775 18546 net.cpp:68] Creating Layer relu5
I0301 16:13:25.498787 18546 net.cpp:395] relu5 <- fc5
I0301 16:13:25.498801 18546 net.cpp:346] relu5 -> fc5 (in-place)
I0301 16:13:25.498816 18546 net.cpp:97] Setting up relu5
I0301 16:13:25.498831 18546 net.cpp:104] Top shape: 128 512 1 1 (65536)
I0301 16:13:25.498843 18546 layer_factory.hpp:78] Creating layer drop5
I0301 16:13:25.498857 18546 net.cpp:68] Creating Layer drop5
I0301 16:13:25.498869 18546 net.cpp:395] drop5 <- fc5
I0301 16:13:25.498885 18546 net.cpp:346] drop5 -> fc5 (in-place)
I0301 16:13:25.498899 18546 net.cpp:97] Setting up drop5
I0301 16:13:25.498911 18546 net.cpp:104] Top shape: 128 512 1 1 (65536)
I0301 16:13:25.498924 18546 layer_factory.hpp:78] Creating layer fc6
I0301 16:13:25.498939 18546 net.cpp:68] Creating Layer fc6
I0301 16:13:25.498950 18546 net.cpp:395] fc6 <- fc5
I0301 16:13:25.498965 18546 net.cpp:357] fc6 -> fc6
I0301 16:13:25.498980 18546 net.cpp:97] Setting up fc6
I0301 16:13:25.499631 18546 net.cpp:104] Top shape: 128 121 1 1 (15488)
I0301 16:13:25.499654 18546 layer_factory.hpp:78] Creating layer loss
I0301 16:13:25.499673 18546 net.cpp:68] Creating Layer loss
I0301 16:13:25.499686 18546 net.cpp:395] loss <- fc6
I0301 16:13:25.499699 18546 net.cpp:395] loss <- label
I0301 16:13:25.499713 18546 net.cpp:357] loss -> loss
I0301 16:13:25.499729 18546 net.cpp:97] Setting up loss
I0301 16:13:25.499747 18546 layer_factory.hpp:78] Creating layer loss
I0301 16:13:25.499811 18546 net.cpp:104] Top shape: 1 1 1 1 (1)
I0301 16:13:25.499827 18546 net.cpp:110]     with loss weight 1
I0301 16:13:25.499881 18546 net.cpp:171] loss needs backward computation.
I0301 16:13:25.499893 18546 net.cpp:171] fc6 needs backward computation.
I0301 16:13:25.499904 18546 net.cpp:171] drop5 needs backward computation.
I0301 16:13:25.499915 18546 net.cpp:171] relu5 needs backward computation.
I0301 16:13:25.499927 18546 net.cpp:171] fc5 needs backward computation.
…
I0301 16:13:25.501116 18546 net.cpp:276] The NetState phase (1) differed from the phase (0) specified by a rule in layer data
I0301 16:13:25.501335 18546 net.cpp:39] Initializing net from parameters: 
name: "model3_bn"
layers {
  top: "data"
  top: "label"
  name: "data"
  type: DATA
  data_param {
    source: "/home/jaehyun/kaggle/nationalDataScienceBowl/data/typeE/val_lmdb"
    batch_size: 128
    backend: LMDB
  }
  include {
    phase: TEST
  }
  transform_param {
    scale: 0.00390625
    mirror: false
    mean_file: "/home/jaehyun/kaggle/nationalDataScienceBowl/data/typeE/train_mean.binaryproto"
  }
}
layers {
  bottom: "data"
  top: "conv1"
  name: "conv1"
  type: CONVOLUTION
  blobs_lr: 1
  blobs_lr: 2
  weight_decay: 1
  weight_decay: 0
  convolution_param {
    num_output: 256
    kernel_size: 4
    stride: 2
    weight_filler {
      type: "xavier"
    }
    bias_filler {
      type: "constant"
    }
  }
}
layers {
  bottom: "conv1"
  top: "conv1"
  name: "relu1"
  type: RELU
  relu_param {
    negative_slope: 0.1
  }
}
layers {
  bottom: "conv1"
  top: "cccp1"
  name: "cccp1"
  type: CONVOLUTION
  blobs_lr: 1
  blobs_lr: 2
  weight_decay: 1
  weight_decay: 0
  convolution_param {
    num_output: 256
    kernel_size: 1
    group: 1
    stride: 1
    weight_filler {
      type: "xavier"
    }
    bias_filler {
      type: "constant"
    }
  }
}
layers {
  bottom: "cccp1"
  top: "cccp1_bn"
  name: "cccp1_bn"
  type: BN
  blobs_lr: 1
  blobs_lr: 1
  weight_decay: 0
  weight_decay: 0
  bn_param {
    scale_filler {
      type: "constant"
      value: 1
    }
    shift_filler {
      type: "constant"
      value: 0
    }
  }
}
layers {
  bottom: "cccp1_bn"
  top: "cccp1_bn"
  name: "relu_cccp1"
  type: RELU
  relu_param {
    negative_slope: 0.1
  }
}
layers {
  bottom: "cccp1_bn"
  top: "pool1"
  name: "pool1"
  type: POOLING
  pooling_param {
    pool: MAX
    kernel_size: 3
    stride: 2
  }
}
layers {
  bottom: "pool1"
  top: "conv2"
  name: "conv2"
  type: CONVOLUTION
  blobs_lr: 1
  blobs_lr: 2
  weight_decay: 1
  weight_decay: 0
  convolution_param {
    num_output: 128
    kernel_size: 3
    weight_filler {
      type: "xavier"
    }
    bias_filler {
      type: "constant"
    }
  }
}
layers {
  bottom: "conv2"
  top: "conv2_bn"
  name: "conv2_bn"
  type: BN
  blobs_lr: 1
  blobs_lr: 1
  weight_decay: 0
  weight_decay: 0
  bn_param {
    scale_filler {
      type: "constant"
      value: 1
    }
    shift_filler {
      type: "constant"
      value: 0
    }
  }
}
layers {
  bottom: "conv2_bn"
  top: "conv2_bn"
  name: "relu2"
  type: RELU
  relu_param {
    negative_slope: 0.1
  }
}
layers {
  bottom: "conv2_bn"
  top: "conv3"
  name: "conv3"
  type: CONVOLUTION
  blobs_lr: 1
  blobs_lr: 2
  weight_decay: 1
  weight_decay: 0
  convolution_param {
    num_output: 128
    kernel_size: 3
    weight_filler {
      type: "xavier"
    }
    bias_filler {
      type: "constant"
    }
  }
}
layers {
  bottom: "conv3"
  top: "conv3_bn"
  name: "conv3_bn"
  type: BN
  blobs_lr: 1
  blobs_lr: 1
  weight_decay: 0
  weight_decay: 0
  bn_param {
    scale_filler {
      type: "constant"
      value: 1
    }
    shift_filler {
      type: "constant"
      value: 0
    }
  }
}
layers {
  bottom: "conv3_bn"
  top: "conv3_bn"
  name: "relu3"
  type: RELU
  relu_param {
    negative_slope: 0.1
  }
}
layers {
  bottom: "conv3_bn"
  top: "pool3"
  name: "pool3"
  type: POOLING
  pooling_param {
    pool: MAX
    kernel_size: 3
    stride: 2
  }
}
layers {
  bottom: "pool3"
  top: "fc4"
  name: "fc4"
  type: INNER_PRODUCT
  blobs_lr: 1
  blobs_lr: 2
  weight_decay: 1
  weight_decay: 0
  inner_product_param {
    num_output: 512
    weight_filler {
      type: "xavier"
    }
    bias_filler {
      type: "constant"
    }
  }
}
layers {
  bottom: "fc4"
  top: "fc4"
  name: "relu4"
  type: RELU
  relu_param {
    negative_slope: 0.1
  }
}
layers {
  bottom: "fc4"
  top: "fc4"
  name: "drop4"
  type: DROPOUT
  dropout_param {
    dropout_ratio: 0.5
  }
}
layers {
  bottom: "fc4"
  top: "fc5"
  name: "fc5"
  type: INNER_PRODUCT
  blobs_lr: 1
  blobs_lr: 2
  weight_decay: 1
  weight_decay: 0
  inner_product_param {
    num_output: 512
    weight_filler {
      type: "xavier"
    }
    bias_filler {
      type: "constant"
    }
  }
}
layers {
  bottom: "fc5"
  top: "fc5"
  name: "relu5"
  type: RELU
  relu_param {
    negative_slope: 0.1
  }
}
layers {
  bottom: "fc5"
  top: "fc5"
  name: "drop5"
  type: DROPOUT
  dropout_param {
    dropout_ratio: 0.5
  }
}
layers {
  bottom: "fc5"
  top: "fc6"
  name: "fc6"
  type: INNER_PRODUCT
  blobs_lr: 1
  blobs_lr: 2
  weight_decay: 1
  weight_decay: 0
  inner_product_param {
    num_output: 121
    weight_filler {
      type: "xavier"
    }
    bias_filler {
      type: "constant"
    }
  }
}
layers {
  bottom: "fc6"
  top: "prob"
  name: "prob"
  type: SOFTMAX
  include {
    phase: TEST
  }
}
layers {
  bottom: "prob"
  bottom: "label"
  top: "accuracy"
  name: "accuracy"
  type: ACCURACY
  accuracy_param {
    top_k: 1
  }
  include {
    phase: TEST
  }
}
layers {
  bottom: "fc6"
  bottom: "label"
  top: "loss"
  name: "loss"
  type: SOFTMAX_LOSS
}
state {
  phase: TEST
}
I0301 16:13:25.502324 18546 layer_factory.hpp:78] Creating layer data
I0301 16:13:25.502348 18546 data_transformer.cpp:24] Loading mean file from/home/jaehyun/kaggle/nationalDataScienceBowl/data/typeE/train_mean.binaryproto
I0301 16:13:25.502513 18546 net.cpp:68] Creating Layer data
I0301 16:13:25.502534 18546 net.cpp:357] data -> data
I0301 16:13:25.502553 18546 net.cpp:357] data -> label
I0301 16:13:25.502570 18546 net.cpp:97] Setting up data
I0301 16:13:25.502584 18546 data_layer.cpp:34] Opening dataset /home/jaehyun/kaggle/nationalDataScienceBowl/data/typeE/val_lmdb
I0301 16:13:25.502676 18546 data_layer.cpp:73] output data size: 128,1,96,96
I0301 16:13:25.504825 18546 net.cpp:104] Top shape: 128 1 96 96 (1179648)
I0301 16:13:25.504859 18546 net.cpp:104] Top shape: 128 1 1 1 (128)
I0301 16:13:25.504873 18546 layer_factory.hpp:78] Creating layer label_data_1_split
I0301 16:13:25.504899 18546 net.cpp:68] Creating Layer label_data_1_split
I0301 16:13:25.504912 18546 net.cpp:395] label_data_1_split <- label
I0301 16:13:25.504928 18546 net.cpp:357] label_data_1_split -> label_data_1_split_0
I0301 16:13:25.504951 18546 net.cpp:357] label_data_1_split -> label_data_1_split_1
I0301 16:13:25.505050 18546 net.cpp:97] Setting up label_data_1_split
I0301 16:13:25.505070 18546 net.cpp:104] Top shape: 128 1 1 1 (128)
I0301 16:13:25.505079 18546 net.cpp:104] Top shape: 128 1 1 1 (128)
I0301 16:13:25.505089 18546 layer_factory.hpp:78] Creating layer conv1
I0301 16:13:25.505103 18546 net.cpp:68] Creating Layer conv1
I0301 16:13:25.505112 18546 net.cpp:395] conv1 <- data
I0301 16:13:25.505125 18546 net.cpp:357] conv1 -> conv1
I0301 16:13:25.505168 18546 net.cpp:97] Setting up conv1
I0301 16:13:25.505373 18546 net.cpp:104] Top shape: 128 256 47 47 (72384512)
I0301 16:13:25.505393 18546 layer_factory.hpp:78] Creating layer relu1
I0301 16:13:25.505406 18546 net.cpp:68] Creating Layer relu1
I0301 16:13:25.505414 18546 net.cpp:395] relu1 <- conv1
I0301 16:13:25.505424 18546 net.cpp:346] relu1 -> conv1 (in-place)
I0301 16:13:25.505435 18546 net.cpp:97] Setting up relu1
I0301 16:13:25.505446 18546 net.cpp:104] Top shape: 128 256 47 47 (72384512)
I0301 16:13:25.505455 18546 layer_factory.hpp:78] Creating layer cccp1
I0301 16:13:25.505470 18546 net.cpp:68] Creating Layer cccp1
I0301 16:13:25.505478 18546 net.cpp:395] cccp1 <- conv1
I0301 16:13:25.505491 18546 net.cpp:357] cccp1 -> cccp1
I0301 16:13:25.505501 18546 net.cpp:97] Setting up cccp1
I0301 16:13:25.506541 18546 net.cpp:104] Top shape: 128 256 47 47 (72384512)
I0301 16:13:25.506563 18546 layer_factory.hpp:78] Creating layer cccp1_bn
I0301 16:13:25.506587 18546 net.cpp:68] Creating Layer cccp1_bn
I0301 16:13:25.506595 18546 net.cpp:395] cccp1_bn <- cccp1
I0301 16:13:25.506605 18546 net.cpp:357] cccp1_bn -> cccp1_bn
I0301 16:13:25.506618 18546 net.cpp:97] Setting up cccp1_bn
I0301 16:13:25.506657 18546 net.cpp:104] Top shape: 128 256 47 47 (72384512)
I0301 16:13:25.506671 18546 layer_factory.hpp:78] Creating layer relu_cccp1
I0301 16:13:25.506685 18546 net.cpp:68] Creating Layer relu_cccp1
I0301 16:13:25.506695 18546 net.cpp:395] relu_cccp1 <- cccp1_bn
I0301 16:13:25.506764 18546 net.cpp:346] relu_cccp1 -> cccp1_bn (in-place)
I0301 16:13:25.506778 18546 net.cpp:97] Setting up relu_cccp1
I0301 16:13:25.506793 18546 net.cpp:104] Top shape: 128 256 47 47 (72384512)
I0301 16:13:25.506800 18546 layer_factory.hpp:78] Creating layer pool1
I0301 16:13:25.506819 18546 net.cpp:68] Creating Layer pool1
I0301 16:13:25.506829 18546 net.cpp:395] pool1 <- cccp1_bn
I0301 16:13:25.506839 18546 net.cpp:357] pool1 -> pool1
I0301 16:13:25.506849 18546 net.cpp:97] Setting up pool1
I0301 16:13:25.506865 18546 net.cpp:104] Top shape: 128 256 23 23 (17334272)
I0301 16:13:25.506873 18546 layer_factory.hpp:78] Creating layer conv2
I0301 16:13:25.506889 18546 net.cpp:68] Creating Layer conv2
I0301 16:13:25.506897 18546 net.cpp:395] conv2 <- pool1
I0301 16:13:25.506908 18546 net.cpp:357] conv2 -> conv2
I0301 16:13:25.506923 18546 net.cpp:97] Setting up conv2
I0301 16:13:25.512449 18546 net.cpp:104] Top shape: 128 128 21 21 (7225344)
I0301 16:13:25.512480 18546 layer_factory.hpp:78] Creating layer conv2_bn
I0301 16:13:25.512501 18546 net.cpp:68] Creating Layer conv2_bn
I0301 16:13:25.512514 18546 net.cpp:395] conv2_bn <- conv2
I0301 16:13:25.512533 18546 net.cpp:357] conv2_bn -> conv2_bn
I0301 16:13:25.512550 18546 net.cpp:97] Setting up conv2_bn
I0301 16:13:25.512573 18546 net.cpp:104] Top shape: 128 128 21 21 (7225344)
I0301 16:13:25.512591 18546 layer_factory.hpp:78] Creating layer relu2
I0301 16:13:25.512606 18546 net.cpp:68] Creating Layer relu2
I0301 16:13:25.512619 18546 net.cpp:395] relu2 <- conv2_bn
I0301 16:13:25.512635 18546 net.cpp:346] relu2 -> conv2_bn (in-place)
I0301 16:13:25.512650 18546 net.cpp:97] Setting up relu2
I0301 16:13:25.512665 18546 net.cpp:104] Top shape: 128 128 21 21 (7225344)
I0301 16:13:25.512686 18546 layer_factory.hpp:78] Creating layer conv3
I0301 16:13:25.512706 18546 net.cpp:68] Creating Layer conv3
I0301 16:13:25.512717 18546 net.cpp:395] conv3 <- conv2_bn
I0301 16:13:25.512730 18546 net.cpp:357] conv3 -> conv3
I0301 16:13:25.512745 18546 net.cpp:97] Setting up conv3
I0301 16:13:25.514631 18546 net.cpp:104] Top shape: 128 128 19 19 (5914624)
I0301 16:13:25.514679 18546 layer_factory.hpp:78] Creating layer conv3_bn
I0301 16:13:25.514715 18546 net.cpp:68] Creating Layer conv3_bn
I0301 16:13:25.514741 18546 net.cpp:395] conv3_bn <- conv3
I0301 16:13:25.514770 18546 net.cpp:357] conv3_bn -> conv3_bn
I0301 16:13:25.514801 18546 net.cpp:97] Setting up conv3_bn
I0301 16:13:25.514844 18546 net.cpp:104] Top shape: 128 128 19 19 (5914624)
I0301 16:13:25.514875 18546 layer_factory.hpp:78] Creating layer relu3
I0301 16:13:25.514973 18546 net.cpp:68] Creating Layer relu3
I0301 16:13:25.515000 18546 net.cpp:395] relu3 <- conv3_bn
I0301 16:13:25.515027 18546 net.cpp:346] relu3 -> conv3_bn (in-place)
I0301 16:13:25.515055 18546 net.cpp:97] Setting up relu3
I0301 16:13:25.515086 18546 net.cpp:104] Top shape: 128 128 19 19 (5914624)
I0301 16:13:25.515110 18546 layer_factory.hpp:78] Creating layer pool3
I0301 16:13:25.515146 18546 net.cpp:68] Creating Layer pool3
I0301 16:13:25.515172 18546 net.cpp:395] pool3 <- conv3_bn
I0301 16:13:25.515198 18546 net.cpp:357] pool3 -> pool3
I0301 16:13:25.515228 18546 net.cpp:97] Setting up pool3
I0301 16:13:25.515259 18546 net.cpp:104] Top shape: 128 128 9 9 (1327104)
I0301 16:13:25.515285 18546 layer_factory.hpp:78] Creating layer fc4
I0301 16:13:25.515316 18546 net.cpp:68] Creating Layer fc4
I0301 16:13:25.515338 18546 net.cpp:395] fc4 <- pool3
I0301 16:13:25.515372 18546 net.cpp:357] fc4 -> fc4
I0301 16:13:25.515403 18546 net.cpp:97] Setting up fc4
I0301 16:13:25.570760 18546 net.cpp:104] Top shape: 128 512 1 1 (65536)
I0301 16:13:25.570827 18546 layer_factory.hpp:78] Creating layer relu4
I0301 16:13:25.570860 18546 net.cpp:68] Creating Layer relu4
I0301 16:13:25.570878 18546 net.cpp:395] relu4 <- fc4
I0301 16:13:25.570899 18546 net.cpp:346] relu4 -> fc4 (in-place)
I0301 16:13:25.570920 18546 net.cpp:97] Setting up relu4
I0301 16:13:25.570955 18546 net.cpp:104] Top shape: 128 512 1 1 (65536)
I0301 16:13:25.570971 18546 layer_factory.hpp:78] Creating layer drop4
I0301 16:13:25.570993 18546 net.cpp:68] Creating Layer drop4
I0301 16:13:25.571008 18546 net.cpp:395] drop4 <- fc4
I0301 16:13:25.571025 18546 net.cpp:346] drop4 -> fc4 (in-place)
I0301 16:13:25.571043 18546 net.cpp:97] Setting up drop4
I0301 16:13:25.571058 18546 net.cpp:104] Top shape: 128 512 1 1 (65536)
I0301 16:13:25.571071 18546 layer_factory.hpp:78] Creating layer fc5
I0301 16:13:25.571091 18546 net.cpp:68] Creating Layer fc5
I0301 16:13:25.571105 18546 net.cpp:395] fc5 <- fc4
I0301 16:13:25.571127 18546 net.cpp:357] fc5 -> fc5
I0301 16:13:25.571149 18546 net.cpp:97] Setting up fc5
I0301 16:13:25.576911 18546 net.cpp:104] Top shape: 128 512 1 1 (65536)
I0301 16:13:25.576959 18546 layer_factory.hpp:78] Creating layer relu5
I0301 16:13:25.576979 18546 net.cpp:68] Creating Layer relu5
I0301 16:13:25.576993 18546 net.cpp:395] relu5 <- fc5
I0301 16:13:25.577013 18546 net.cpp:346] relu5 -> fc5 (in-place)
I0301 16:13:25.577029 18546 net.cpp:97] Setting up relu5
I0301 16:13:25.577051 18546 net.cpp:104] Top shape: 128 512 1 1 (65536)
I0301 16:13:25.577065 18546 layer_factory.hpp:78] Creating layer drop5
I0301 16:13:25.577085 18546 net.cpp:68] Creating Layer drop5
I0301 16:13:25.577097 18546 net.cpp:395] drop5 <- fc5
I0301 16:13:25.577116 18546 net.cpp:346] drop5 -> fc5 (in-place)
I0301 16:13:25.577132 18546 net.cpp:97] Setting up drop5
I0301 16:13:25.577147 18546 net.cpp:104] Top shape: 128 512 1 1 (65536)
I0301 16:13:25.577159 18546 layer_factory.hpp:78] Creating layer fc6
I0301 16:13:25.577178 18546 net.cpp:68] Creating Layer fc6
I0301 16:13:25.577193 18546 net.cpp:395] fc6 <- fc5
I0301 16:13:25.577215 18546 net.cpp:357] fc6 -> fc6
I0301 16:13:25.577235 18546 net.cpp:97] Setting up fc6
I0301 16:13:25.578486 18546 net.cpp:104] Top shape: 128 121 1 1 (15488)
I0301 16:13:25.578516 18546 layer_factory.hpp:78] Creating layer fc6_fc6_0_split
I0301 16:13:25.578539 18546 net.cpp:68] Creating Layer fc6_fc6_0_split
I0301 16:13:25.578553 18546 net.cpp:395] fc6_fc6_0_split <- fc6
I0301 16:13:25.578572 18546 net.cpp:357] fc6_fc6_0_split -> fc6_fc6_0_split_0
I0301 16:13:25.578603 18546 net.cpp:357] fc6_fc6_0_split -> fc6_fc6_0_split_1
I0301 16:13:25.578624 18546 net.cpp:97] Setting up fc6_fc6_0_split
I0301 16:13:25.578641 18546 net.cpp:104] Top shape: 128 121 1 1 (15488)
I0301 16:13:25.578655 18546 net.cpp:104] Top shape: 128 121 1 1 (15488)
I0301 16:13:25.578668 18546 layer_factory.hpp:78] Creating layer prob
I0301 16:13:25.578686 18546 net.cpp:68] Creating Layer prob
I0301 16:13:25.578701 18546 net.cpp:395] prob <- fc6_fc6_0_split_0
I0301 16:13:25.578785 18546 net.cpp:357] prob -> prob
I0301 16:13:25.578809 18546 net.cpp:97] Setting up prob
I0301 16:13:25.578837 18546 net.cpp:104] Top shape: 128 121 1 1 (15488)
I0301 16:13:25.578853 18546 layer_factory.hpp:78] Creating layer accuracy
I0301 16:13:25.578877 18546 net.cpp:68] Creating Layer accuracy
I0301 16:13:25.578892 18546 net.cpp:395] accuracy <- prob
I0301 16:13:25.578909 18546 net.cpp:395] accuracy <- label_data_1_split_0
I0301 16:13:25.578932 18546 net.cpp:357] accuracy -> accuracy
I0301 16:13:25.578953 18546 net.cpp:97] Setting up accuracy
I0301 16:13:25.578971 18546 net.cpp:104] Top shape: 1 1 1 1 (1)
I0301 16:13:25.578985 18546 layer_factory.hpp:78] Creating layer loss
I0301 16:13:25.579001 18546 net.cpp:68] Creating Layer loss
I0301 16:13:25.579015 18546 net.cpp:395] loss <- fc6_fc6_0_split_1
I0301 16:13:25.579030 18546 net.cpp:395] loss <- label_data_1_split_1
I0301 16:13:25.579046 18546 net.cpp:357] loss -> loss
I0301 16:13:25.579066 18546 net.cpp:97] Setting up loss
I0301 16:13:25.579082 18546 layer_factory.hpp:78] Creating layer loss
I0301 16:13:25.579182 18546 net.cpp:104] Top shape: 1 1 1 1 (1)
I0301 16:13:25.579202 18546 net.cpp:110]     with loss weight 1
I0301 16:13:25.579231 18546 net.cpp:171] loss needs backward computation.
I0301 16:13:25.579246 18546 net.cpp:173] accuracy does not need backward computation.
I0301 16:13:25.579257 18546 net.cpp:173] prob does not need backward computation.
I0301 16:13:25.579270 18546 net.cpp:171] fc6_fc6_0_split needs backward computation.
…
