…
I0302 06:27:54.596523 18773 net.cpp:276] The NetState phase (0) differed from the phase (1) specified by a rule in layer accuracy
I0302 06:27:54.596779 18773 net.cpp:39] Initializing net from parameters: 
name: "model4_bn"
layers {
  top: "data"
  top: "label"
  name: "data"
  type: DATA
  data_param {
    source: "/home/jaehyun/kaggle/nationalDataScienceBowl/data/typeE/train_lmdb"
    batch_size: 100
    backend: LMDB
    shuffle: true
  }
  include {
    phase: TRAIN
  }
  transform_param {
    scale: 0.00390625
    mirror: true
    mean_file: "/home/jaehyun/kaggle/nationalDataScienceBowl/data/typeE/train_mean.binaryproto"
  }
}
layers {
  bottom: "data"
  top: "conv1"
  name: "conv1"
  type: CONVOLUTION
  blobs_lr: 1
  blobs_lr: 2
  weight_decay: 1
  weight_decay: 0
  convolution_param {
    num_output: 256
    kernel_size: 4
    stride: 2
    weight_filler {
      type: "xavier"
    }
    bias_filler {
      type: "constant"
    }
  }
}
layers {
  bottom: "conv1"
  top: "conv1_bn"
  name: "conv1_bn"
  type: BN
  blobs_lr: 1
  blobs_lr: 1
  weight_decay: 0
  weight_decay: 0
  bn_param {
    scale_filler {
      type: "constant"
      value: 1
    }
    shift_filler {
      type: "constant"
      value: 0
    }
  }
}
layers {
  bottom: "conv1_bn"
  top: "conv1_bn"
  name: "relu1"
  type: RELU
  relu_param {
    negative_slope: 0.1
  }
}
layers {
  bottom: "conv1_bn"
  top: "cccp1"
  name: "cccp1"
  type: CONVOLUTION
  blobs_lr: 1
  blobs_lr: 2
  weight_decay: 1
  weight_decay: 0
  convolution_param {
    num_output: 256
    kernel_size: 1
    group: 1
    stride: 1
    weight_filler {
      type: "xavier"
    }
    bias_filler {
      type: "constant"
    }
  }
}
layers {
  bottom: "cccp1"
  top: "cccp1_bn"
  name: "cccp1_bn"
  type: BN
  blobs_lr: 1
  blobs_lr: 1
  weight_decay: 0
  weight_decay: 0
  bn_param {
    scale_filler {
      type: "constant"
      value: 1
    }
    shift_filler {
      type: "constant"
      value: 0
    }
  }
}
layers {
  bottom: "cccp1_bn"
  top: "cccp1_bn"
  name: "relu_cccp1"
  type: RELU
  relu_param {
    negative_slope: 0.1
  }
}
layers {
  bottom: "cccp1_bn"
  top: "pool1"
  name: "pool1"
  type: POOLING
  pooling_param {
    pool: MAX
    kernel_size: 3
    stride: 2
  }
}
layers {
  bottom: "pool1"
  top: "conv2"
  name: "conv2"
  type: CONVOLUTION
  blobs_lr: 1
  blobs_lr: 2
  weight_decay: 1
  weight_decay: 0
  convolution_param {
    num_output: 128
    kernel_size: 3
    weight_filler {
      type: "xavier"
    }
    bias_filler {
      type: "constant"
    }
  }
}
layers {
  bottom: "conv2"
  top: "conv2_bn"
  name: "conv2_bn"
  type: BN
  blobs_lr: 1
  blobs_lr: 1
  weight_decay: 0
  weight_decay: 0
  bn_param {
    scale_filler {
      type: "constant"
      value: 1
    }
    shift_filler {
      type: "constant"
      value: 0
    }
  }
}
layers {
  bottom: "conv2_bn"
  top: "conv2_bn"
  name: "relu2"
  type: RELU
  relu_param {
    negative_slope: 0.1
  }
}
layers {
  bottom: "conv2_bn"
  top: "cccp2"
  name: "cccp2"
  type: CONVOLUTION
  blobs_lr: 1
  blobs_lr: 2
  weight_decay: 1
  weight_decay: 0
  convolution_param {
    num_output: 128
    kernel_size: 1
    group: 1
    stride: 1
    weight_filler {
      type: "xavier"
    }
    bias_filler {
      type: "constant"
    }
  }
}
layers {
  bottom: "cccp2"
  top: "cccp2_bn"
  name: "cccp2_bn"
  type: BN
  blobs_lr: 1
  blobs_lr: 1
  weight_decay: 0
  weight_decay: 0
  bn_param {
    scale_filler {
      type: "constant"
      value: 1
    }
    shift_filler {
      type: "constant"
      value: 0
    }
  }
}
layers {
  bottom: "cccp2_bn"
  top: "cccp2_bn"
  name: "relu_cccp2"
  type: RELU
  relu_param {
    negative_slope: 0.1
  }
}
layers {
  bottom: "cccp2_bn"
  top: "conv3"
  name: "conv3"
  type: CONVOLUTION
  blobs_lr: 1
  blobs_lr: 2
  weight_decay: 1
  weight_decay: 0
  convolution_param {
    num_output: 128
    kernel_size: 3
    weight_filler {
      type: "xavier"
    }
    bias_filler {
      type: "constant"
    }
  }
}
layers {
  bottom: "conv3"
  top: "conv3_bn"
  name: "conv3_bn"
  type: BN
  blobs_lr: 1
  blobs_lr: 1
  weight_decay: 0
  weight_decay: 0
  bn_param {
    scale_filler {
      type: "constant"
      value: 1
    }
    shift_filler {
      type: "constant"
      value: 0
    }
  }
}
layers {
  bottom: "conv3_bn"
  top: "conv3_bn"
  name: "relu3"
  type: RELU
  relu_param {
    negative_slope: 0.1
  }
}
layers {
  bottom: "conv3_bn"
  top: "cccp3"
  name: "cccp3"
  type: CONVOLUTION
  blobs_lr: 1
  blobs_lr: 2
  weight_decay: 1
  weight_decay: 0
  convolution_param {
    num_output: 128
    kernel_size: 1
    group: 1
    stride: 1
    weight_filler {
      type: "xavier"
    }
    bias_filler {
      type: "constant"
    }
  }
}
layers {
  bottom: "cccp3"
  top: "cccp3_bn"
  name: "cccp3_bn"
  type: BN
  blobs_lr: 1
  blobs_lr: 1
  weight_decay: 0
  weight_decay: 0
  bn_param {
    scale_filler {
      type: "constant"
      value: 1
    }
    shift_filler {
      type: "constant"
      value: 0
    }
  }
}
layers {
  bottom: "cccp3_bn"
  top: "cccp3_bn"
  name: "relu_cccp3"
  type: RELU
  relu_param {
    negative_slope: 0.1
  }
}
layers {
  bottom: "cccp3_bn"
  top: "pool3"
  name: "pool3"
  type: POOLING
  pooling_param {
    pool: MAX
    kernel_size: 3
    stride: 2
  }
}
layers {
  bottom: "pool3"
  top: "fc4"
  name: "fc4"
  type: INNER_PRODUCT
  blobs_lr: 1
  blobs_lr: 2
  weight_decay: 1
  weight_decay: 0
  inner_product_param {
    num_output: 512
    weight_filler {
      type: "xavier"
    }
    bias_filler {
      type: "constant"
    }
  }
}
layers {
  bottom: "fc4"
  top: "fc4"
  name: "relu4"
  type: RELU
  relu_param {
    negative_slope: 0.1
  }
}
layers {
  bottom: "fc4"
  top: "fc4"
  name: "drop4"
  type: DROPOUT
  dropout_param {
    dropout_ratio: 0.5
  }
}
layers {
  bottom: "fc4"
  top: "fc5"
  name: "fc5"
  type: INNER_PRODUCT
  blobs_lr: 1
  blobs_lr: 2
  weight_decay: 1
  weight_decay: 0
  inner_product_param {
    num_output: 512
    weight_filler {
      type: "xavier"
    }
    bias_filler {
      type: "constant"
    }
  }
}
layers {
  bottom: "fc5"
  top: "fc5"
  name: "relu5"
  type: RELU
  relu_param {
    negative_slope: 0.1
  }
}
layers {
  bottom: "fc5"
  top: "fc5"
  name: "drop5"
  type: DROPOUT
  dropout_param {
    dropout_ratio: 0.5
  }
}
layers {
  bottom: "fc5"
  top: "fc6"
  name: "fc6"
  type: INNER_PRODUCT
  blobs_lr: 1
  blobs_lr: 2
  weight_decay: 1
  weight_decay: 0
  inner_product_param {
    num_output: 121
    weight_filler {
      type: "xavier"
    }
    bias_filler {
      type: "constant"
    }
  }
}
layers {
  bottom: "fc6"
  bottom: "label"
  top: "loss"
  name: "loss"
  type: SOFTMAX_LOSS
}
state {
  phase: TRAIN
}
I0302 06:27:54.598276 18773 layer_factory.hpp:78] Creating layer data
I0302 06:27:54.598307 18773 data_transformer.cpp:24] Loading mean file from/home/jaehyun/kaggle/nationalDataScienceBowl/data/typeE/train_mean.binaryproto
I0302 06:27:54.598518 18773 net.cpp:68] Creating Layer data
I0302 06:27:54.598543 18773 net.cpp:357] data -> data
I0302 06:27:54.598572 18773 net.cpp:357] data -> label
I0302 06:27:54.598595 18773 net.cpp:97] Setting up data
I0302 06:27:54.598616 18773 data_layer.cpp:34] Opening dataset /home/jaehyun/kaggle/nationalDataScienceBowl/data/typeE/train_lmdb
I0302 06:27:54.598812 18773 data_layer.cpp:73] output data size: 100,1,96,96
I0302 06:27:54.600683 18773 net.cpp:104] Top shape: 100 1 96 96 (921600)
I0302 06:27:54.600946 18773 net.cpp:104] Top shape: 100 1 1 1 (100)
I0302 06:27:54.600965 18773 layer_factory.hpp:78] Creating layer conv1
I0302 06:27:54.600987 18773 net.cpp:68] Creating Layer conv1
I0302 06:27:54.601006 18773 net.cpp:395] conv1 <- data
I0302 06:27:54.601109 18773 net.cpp:357] conv1 -> conv1
I0302 06:27:54.601130 18773 net.cpp:97] Setting up conv1
I0302 06:27:54.635710 18773 net.cpp:104] Top shape: 100 256 47 47 (56550400)
I0302 06:27:54.635829 18773 layer_factory.hpp:78] Creating layer conv1_bn
I0302 06:27:54.635866 18773 net.cpp:68] Creating Layer conv1_bn
I0302 06:27:54.635884 18773 net.cpp:395] conv1_bn <- conv1
I0302 06:27:54.635902 18773 net.cpp:357] conv1_bn -> conv1_bn
I0302 06:27:54.635926 18773 net.cpp:97] Setting up conv1_bn
I0302 06:27:54.635965 18773 net.cpp:104] Top shape: 100 256 47 47 (56550400)
I0302 06:27:54.635987 18773 layer_factory.hpp:78] Creating layer relu1
I0302 06:27:54.636008 18773 net.cpp:68] Creating Layer relu1
I0302 06:27:54.636021 18773 net.cpp:395] relu1 <- conv1_bn
I0302 06:27:54.636034 18773 net.cpp:346] relu1 -> conv1_bn (in-place)
I0302 06:27:54.636050 18773 net.cpp:97] Setting up relu1
I0302 06:27:54.636092 18773 net.cpp:104] Top shape: 100 256 47 47 (56550400)
I0302 06:27:54.636106 18773 layer_factory.hpp:78] Creating layer cccp1
I0302 06:27:54.636131 18773 net.cpp:68] Creating Layer cccp1
I0302 06:27:54.636143 18773 net.cpp:395] cccp1 <- conv1_bn
I0302 06:27:54.636157 18773 net.cpp:357] cccp1 -> cccp1
I0302 06:27:54.636174 18773 net.cpp:97] Setting up cccp1
I0302 06:27:54.636986 18773 net.cpp:104] Top shape: 100 256 47 47 (56550400)
I0302 06:27:54.637013 18773 layer_factory.hpp:78] Creating layer cccp1_bn
I0302 06:27:54.637032 18773 net.cpp:68] Creating Layer cccp1_bn
I0302 06:27:54.637045 18773 net.cpp:395] cccp1_bn <- cccp1
I0302 06:27:54.637063 18773 net.cpp:357] cccp1_bn -> cccp1_bn
I0302 06:27:54.637079 18773 net.cpp:97] Setting up cccp1_bn
I0302 06:27:54.637104 18773 net.cpp:104] Top shape: 100 256 47 47 (56550400)
I0302 06:27:54.637121 18773 layer_factory.hpp:78] Creating layer relu_cccp1
I0302 06:27:54.637135 18773 net.cpp:68] Creating Layer relu_cccp1
I0302 06:27:54.637146 18773 net.cpp:395] relu_cccp1 <- cccp1_bn
I0302 06:27:54.637164 18773 net.cpp:346] relu_cccp1 -> cccp1_bn (in-place)
I0302 06:27:54.637178 18773 net.cpp:97] Setting up relu_cccp1
I0302 06:27:54.637194 18773 net.cpp:104] Top shape: 100 256 47 47 (56550400)
I0302 06:27:54.637207 18773 layer_factory.hpp:78] Creating layer pool1
I0302 06:27:54.637224 18773 net.cpp:68] Creating Layer pool1
I0302 06:27:54.637236 18773 net.cpp:395] pool1 <- cccp1_bn
I0302 06:27:54.637250 18773 net.cpp:357] pool1 -> pool1
I0302 06:27:54.637264 18773 net.cpp:97] Setting up pool1
I0302 06:27:54.637303 18773 net.cpp:104] Top shape: 100 256 23 23 (13542400)
I0302 06:27:54.637318 18773 layer_factory.hpp:78] Creating layer conv2
I0302 06:27:54.637337 18773 net.cpp:68] Creating Layer conv2
I0302 06:27:54.637349 18773 net.cpp:395] conv2 <- pool1
I0302 06:27:54.637367 18773 net.cpp:357] conv2 -> conv2
I0302 06:27:54.637382 18773 net.cpp:97] Setting up conv2
I0302 06:27:54.640676 18773 net.cpp:104] Top shape: 100 128 21 21 (5644800)
I0302 06:27:54.640705 18773 layer_factory.hpp:78] Creating layer conv2_bn
I0302 06:27:54.640725 18773 net.cpp:68] Creating Layer conv2_bn
I0302 06:27:54.640739 18773 net.cpp:395] conv2_bn <- conv2
I0302 06:27:54.640754 18773 net.cpp:357] conv2_bn -> conv2_bn
I0302 06:27:54.640774 18773 net.cpp:97] Setting up conv2_bn
I0302 06:27:54.640799 18773 net.cpp:104] Top shape: 100 128 21 21 (5644800)
I0302 06:27:54.640879 18773 layer_factory.hpp:78] Creating layer relu2
I0302 06:27:54.640897 18773 net.cpp:68] Creating Layer relu2
I0302 06:27:54.640908 18773 net.cpp:395] relu2 <- conv2_bn
I0302 06:27:54.640920 18773 net.cpp:346] relu2 -> conv2_bn (in-place)
I0302 06:27:54.640934 18773 net.cpp:97] Setting up relu2
I0302 06:27:54.640949 18773 net.cpp:104] Top shape: 100 128 21 21 (5644800)
I0302 06:27:54.640961 18773 layer_factory.hpp:78] Creating layer cccp2
I0302 06:27:54.640979 18773 net.cpp:68] Creating Layer cccp2
I0302 06:27:54.640991 18773 net.cpp:395] cccp2 <- conv2_bn
I0302 06:27:54.641005 18773 net.cpp:357] cccp2 -> cccp2
I0302 06:27:54.641021 18773 net.cpp:97] Setting up cccp2
I0302 06:27:54.641274 18773 net.cpp:104] Top shape: 100 128 21 21 (5644800)
I0302 06:27:54.641297 18773 layer_factory.hpp:78] Creating layer cccp2_bn
I0302 06:27:54.641315 18773 net.cpp:68] Creating Layer cccp2_bn
I0302 06:27:54.641329 18773 net.cpp:395] cccp2_bn <- cccp2
I0302 06:27:54.641345 18773 net.cpp:357] cccp2_bn -> cccp2_bn
I0302 06:27:54.641360 18773 net.cpp:97] Setting up cccp2_bn
I0302 06:27:54.641383 18773 net.cpp:104] Top shape: 100 128 21 21 (5644800)
I0302 06:27:54.641398 18773 layer_factory.hpp:78] Creating layer relu_cccp2
I0302 06:27:54.641412 18773 net.cpp:68] Creating Layer relu_cccp2
I0302 06:27:54.641423 18773 net.cpp:395] relu_cccp2 <- cccp2_bn
I0302 06:27:54.641437 18773 net.cpp:346] relu_cccp2 -> cccp2_bn (in-place)
I0302 06:27:54.641450 18773 net.cpp:97] Setting up relu_cccp2
I0302 06:27:54.641464 18773 net.cpp:104] Top shape: 100 128 21 21 (5644800)
I0302 06:27:54.641477 18773 layer_factory.hpp:78] Creating layer conv3
I0302 06:27:54.641494 18773 net.cpp:68] Creating Layer conv3
I0302 06:27:54.641506 18773 net.cpp:395] conv3 <- cccp2_bn
I0302 06:27:54.641522 18773 net.cpp:357] conv3 -> conv3
I0302 06:27:54.641537 18773 net.cpp:97] Setting up conv3
I0302 06:27:54.643105 18773 net.cpp:104] Top shape: 100 128 19 19 (4620800)
I0302 06:27:54.643132 18773 layer_factory.hpp:78] Creating layer conv3_bn
I0302 06:27:54.643151 18773 net.cpp:68] Creating Layer conv3_bn
I0302 06:27:54.643163 18773 net.cpp:395] conv3_bn <- conv3
I0302 06:27:54.643177 18773 net.cpp:357] conv3_bn -> conv3_bn
I0302 06:27:54.643193 18773 net.cpp:97] Setting up conv3_bn
I0302 06:27:54.643214 18773 net.cpp:104] Top shape: 100 128 19 19 (4620800)
I0302 06:27:54.643230 18773 layer_factory.hpp:78] Creating layer relu3
I0302 06:27:54.643247 18773 net.cpp:68] Creating Layer relu3
I0302 06:27:54.643260 18773 net.cpp:395] relu3 <- conv3_bn
I0302 06:27:54.643272 18773 net.cpp:346] relu3 -> conv3_bn (in-place)
I0302 06:27:54.643285 18773 net.cpp:97] Setting up relu3
I0302 06:27:54.643301 18773 net.cpp:104] Top shape: 100 128 19 19 (4620800)
I0302 06:27:54.643312 18773 layer_factory.hpp:78] Creating layer cccp3
I0302 06:27:54.643329 18773 net.cpp:68] Creating Layer cccp3
I0302 06:27:54.643342 18773 net.cpp:395] cccp3 <- conv3_bn
I0302 06:27:54.643355 18773 net.cpp:357] cccp3 -> cccp3
I0302 06:27:54.643376 18773 net.cpp:97] Setting up cccp3
I0302 06:27:54.643815 18773 net.cpp:104] Top shape: 100 128 19 19 (4620800)
I0302 06:27:54.643839 18773 layer_factory.hpp:78] Creating layer cccp3_bn
I0302 06:27:54.643858 18773 net.cpp:68] Creating Layer cccp3_bn
I0302 06:27:54.643872 18773 net.cpp:395] cccp3_bn <- cccp3
I0302 06:27:54.643885 18773 net.cpp:357] cccp3_bn -> cccp3_bn
I0302 06:27:54.643903 18773 net.cpp:97] Setting up cccp3_bn
I0302 06:27:54.643929 18773 net.cpp:104] Top shape: 100 128 19 19 (4620800)
I0302 06:27:54.643945 18773 layer_factory.hpp:78] Creating layer relu_cccp3
I0302 06:27:54.643959 18773 net.cpp:68] Creating Layer relu_cccp3
I0302 06:27:54.643972 18773 net.cpp:395] relu_cccp3 <- cccp3_bn
I0302 06:27:54.643987 18773 net.cpp:346] relu_cccp3 -> cccp3_bn (in-place)
I0302 06:27:54.644001 18773 net.cpp:97] Setting up relu_cccp3
I0302 06:27:54.644016 18773 net.cpp:104] Top shape: 100 128 19 19 (4620800)
I0302 06:27:54.644028 18773 layer_factory.hpp:78] Creating layer pool3
I0302 06:27:54.644045 18773 net.cpp:68] Creating Layer pool3
I0302 06:27:54.644084 18773 net.cpp:395] pool3 <- cccp3_bn
I0302 06:27:54.644100 18773 net.cpp:357] pool3 -> pool3
I0302 06:27:54.644114 18773 net.cpp:97] Setting up pool3
I0302 06:27:54.644131 18773 net.cpp:104] Top shape: 100 128 9 9 (1036800)
I0302 06:27:54.644145 18773 layer_factory.hpp:78] Creating layer fc4
I0302 06:27:54.644166 18773 net.cpp:68] Creating Layer fc4
I0302 06:27:54.644179 18773 net.cpp:395] fc4 <- pool3
I0302 06:27:54.644193 18773 net.cpp:357] fc4 -> fc4
I0302 06:27:54.644209 18773 net.cpp:97] Setting up fc4
I0302 06:27:54.696246 18773 net.cpp:104] Top shape: 100 512 1 1 (51200)
I0302 06:27:54.696323 18773 layer_factory.hpp:78] Creating layer relu4
I0302 06:27:54.696346 18773 net.cpp:68] Creating Layer relu4
I0302 06:27:54.696362 18773 net.cpp:395] relu4 <- fc4
I0302 06:27:54.696382 18773 net.cpp:346] relu4 -> fc4 (in-place)
I0302 06:27:54.696403 18773 net.cpp:97] Setting up relu4
I0302 06:27:54.696437 18773 net.cpp:104] Top shape: 100 512 1 1 (51200)
I0302 06:27:54.696450 18773 layer_factory.hpp:78] Creating layer drop4
I0302 06:27:54.696471 18773 net.cpp:68] Creating Layer drop4
I0302 06:27:54.696485 18773 net.cpp:395] drop4 <- fc4
I0302 06:27:54.696497 18773 net.cpp:346] drop4 -> fc4 (in-place)
I0302 06:27:54.696511 18773 net.cpp:97] Setting up drop4
I0302 06:27:54.696527 18773 net.cpp:104] Top shape: 100 512 1 1 (51200)
I0302 06:27:54.696538 18773 layer_factory.hpp:78] Creating layer fc5
I0302 06:27:54.696557 18773 net.cpp:68] Creating Layer fc5
I0302 06:27:54.696570 18773 net.cpp:395] fc5 <- fc4
I0302 06:27:54.696584 18773 net.cpp:357] fc5 -> fc5
I0302 06:27:54.696601 18773 net.cpp:97] Setting up fc5
I0302 06:27:54.699312 18773 net.cpp:104] Top shape: 100 512 1 1 (51200)
I0302 06:27:54.699338 18773 layer_factory.hpp:78] Creating layer relu5
I0302 06:27:54.699353 18773 net.cpp:68] Creating Layer relu5
I0302 06:27:54.699365 18773 net.cpp:395] relu5 <- fc5
I0302 06:27:54.699378 18773 net.cpp:346] relu5 -> fc5 (in-place)
I0302 06:27:54.699393 18773 net.cpp:97] Setting up relu5
I0302 06:27:54.699406 18773 net.cpp:104] Top shape: 100 512 1 1 (51200)
I0302 06:27:54.699419 18773 layer_factory.hpp:78] Creating layer drop5
I0302 06:27:54.699432 18773 net.cpp:68] Creating Layer drop5
I0302 06:27:54.699443 18773 net.cpp:395] drop5 <- fc5
I0302 06:27:54.699458 18773 net.cpp:346] drop5 -> fc5 (in-place)
I0302 06:27:54.699472 18773 net.cpp:97] Setting up drop5
I0302 06:27:54.699484 18773 net.cpp:104] Top shape: 100 512 1 1 (51200)
I0302 06:27:54.699496 18773 layer_factory.hpp:78] Creating layer fc6
I0302 06:27:54.699509 18773 net.cpp:68] Creating Layer fc6
I0302 06:27:54.699520 18773 net.cpp:395] fc6 <- fc5
I0302 06:27:54.699535 18773 net.cpp:357] fc6 -> fc6
I0302 06:27:54.699550 18773 net.cpp:97] Setting up fc6
I0302 06:27:54.700202 18773 net.cpp:104] Top shape: 100 121 1 1 (12100)
I0302 06:27:54.700224 18773 layer_factory.hpp:78] Creating layer loss
I0302 06:27:54.700244 18773 net.cpp:68] Creating Layer loss
I0302 06:27:54.700256 18773 net.cpp:395] loss <- fc6
I0302 06:27:54.700269 18773 net.cpp:395] loss <- label
I0302 06:27:54.700284 18773 net.cpp:357] loss -> loss
I0302 06:27:54.700299 18773 net.cpp:97] Setting up loss
I0302 06:27:54.700315 18773 layer_factory.hpp:78] Creating layer loss
I0302 06:27:54.700374 18773 net.cpp:104] Top shape: 1 1 1 1 (1)
I0302 06:27:54.700391 18773 net.cpp:110]     with loss weight 1
I0302 06:27:54.700451 18773 net.cpp:171] loss needs backward computation.
I0302 06:27:54.700464 18773 net.cpp:171] fc6 needs backward computation.
I0302 06:27:54.700475 18773 net.cpp:171] drop5 needs backward computation.
I0302 06:27:54.700486 18773 net.cpp:171] relu5 needs backward computation.
I0302 06:27:54.700497 18773 net.cpp:171] fc5 needs backward computation.
…
I0302 06:27:54.701992 18773 net.cpp:276] The NetState phase (1) differed from the phase (0) specified by a rule in layer data
I0302 06:27:54.702281 18773 net.cpp:39] Initializing net from parameters: 
name: "model4_bn"
layers {
  top: "data"
  top: "label"
  name: "data"
  type: DATA
  data_param {
    source: "/home/jaehyun/kaggle/nationalDataScienceBowl/data/typeE/val_lmdb"
    batch_size: 100
    backend: LMDB
  }
  include {
    phase: TEST
  }
  transform_param {
    scale: 0.00390625
    mirror: false
    mean_file: "/home/jaehyun/kaggle/nationalDataScienceBowl/data/typeE/train_mean.binaryproto"
  }
}
layers {
  bottom: "data"
  top: "conv1"
  name: "conv1"
  type: CONVOLUTION
  blobs_lr: 1
  blobs_lr: 2
  weight_decay: 1
  weight_decay: 0
  convolution_param {
    num_output: 256
    kernel_size: 4
    stride: 2
    weight_filler {
      type: "xavier"
    }
    bias_filler {
      type: "constant"
    }
  }
}
layers {
  bottom: "conv1"
  top: "conv1_bn"
  name: "conv1_bn"
  type: BN
  blobs_lr: 1
  blobs_lr: 1
  weight_decay: 0
  weight_decay: 0
  bn_param {
    scale_filler {
      type: "constant"
      value: 1
    }
    shift_filler {
      type: "constant"
      value: 0
    }
  }
}
layers {
  bottom: "conv1_bn"
  top: "conv1_bn"
  name: "relu1"
  type: RELU
  relu_param {
    negative_slope: 0.1
  }
}
layers {
  bottom: "conv1_bn"
  top: "cccp1"
  name: "cccp1"
  type: CONVOLUTION
  blobs_lr: 1
  blobs_lr: 2
  weight_decay: 1
  weight_decay: 0
  convolution_param {
    num_output: 256
    kernel_size: 1
    group: 1
    stride: 1
    weight_filler {
      type: "xavier"
    }
    bias_filler {
      type: "constant"
    }
  }
}
layers {
  bottom: "cccp1"
  top: "cccp1_bn"
  name: "cccp1_bn"
  type: BN
  blobs_lr: 1
  blobs_lr: 1
  weight_decay: 0
  weight_decay: 0
  bn_param {
    scale_filler {
      type: "constant"
      value: 1
    }
    shift_filler {
      type: "constant"
      value: 0
    }
  }
}
layers {
  bottom: "cccp1_bn"
  top: "cccp1_bn"
  name: "relu_cccp1"
  type: RELU
  relu_param {
    negative_slope: 0.1
  }
}
layers {
  bottom: "cccp1_bn"
  top: "pool1"
  name: "pool1"
  type: POOLING
  pooling_param {
    pool: MAX
    kernel_size: 3
    stride: 2
  }
}
layers {
  bottom: "pool1"
  top: "conv2"
  name: "conv2"
  type: CONVOLUTION
  blobs_lr: 1
  blobs_lr: 2
  weight_decay: 1
  weight_decay: 0
  convolution_param {
    num_output: 128
    kernel_size: 3
    weight_filler {
      type: "xavier"
    }
    bias_filler {
      type: "constant"
    }
  }
}
layers {
  bottom: "conv2"
  top: "conv2_bn"
  name: "conv2_bn"
  type: BN
  blobs_lr: 1
  blobs_lr: 1
  weight_decay: 0
  weight_decay: 0
  bn_param {
    scale_filler {
      type: "constant"
      value: 1
    }
    shift_filler {
      type: "constant"
      value: 0
    }
  }
}
layers {
  bottom: "conv2_bn"
  top: "conv2_bn"
  name: "relu2"
  type: RELU
  relu_param {
    negative_slope: 0.1
  }
}
layers {
  bottom: "conv2_bn"
  top: "cccp2"
  name: "cccp2"
  type: CONVOLUTION
  blobs_lr: 1
  blobs_lr: 2
  weight_decay: 1
  weight_decay: 0
  convolution_param {
    num_output: 128
    kernel_size: 1
    group: 1
    stride: 1
    weight_filler {
      type: "xavier"
    }
    bias_filler {
      type: "constant"
    }
  }
}
layers {
  bottom: "cccp2"
  top: "cccp2_bn"
  name: "cccp2_bn"
  type: BN
  blobs_lr: 1
  blobs_lr: 1
  weight_decay: 0
  weight_decay: 0
  bn_param {
    scale_filler {
      type: "constant"
      value: 1
    }
    shift_filler {
      type: "constant"
      value: 0
    }
  }
}
layers {
  bottom: "cccp2_bn"
  top: "cccp2_bn"
  name: "relu_cccp2"
  type: RELU
  relu_param {
    negative_slope: 0.1
  }
}
layers {
  bottom: "cccp2_bn"
  top: "conv3"
  name: "conv3"
  type: CONVOLUTION
  blobs_lr: 1
  blobs_lr: 2
  weight_decay: 1
  weight_decay: 0
  convolution_param {
    num_output: 128
    kernel_size: 3
    weight_filler {
      type: "xavier"
    }
    bias_filler {
      type: "constant"
    }
  }
}
layers {
  bottom: "conv3"
  top: "conv3_bn"
  name: "conv3_bn"
  type: BN
  blobs_lr: 1
  blobs_lr: 1
  weight_decay: 0
  weight_decay: 0
  bn_param {
    scale_filler {
      type: "constant"
      value: 1
    }
    shift_filler {
      type: "constant"
      value: 0
    }
  }
}
layers {
  bottom: "conv3_bn"
  top: "conv3_bn"
  name: "relu3"
  type: RELU
  relu_param {
    negative_slope: 0.1
  }
}
layers {
  bottom: "conv3_bn"
  top: "cccp3"
  name: "cccp3"
  type: CONVOLUTION
  blobs_lr: 1
  blobs_lr: 2
  weight_decay: 1
  weight_decay: 0
  convolution_param {
    num_output: 128
    kernel_size: 1
    group: 1
    stride: 1
    weight_filler {
      type: "xavier"
    }
    bias_filler {
      type: "constant"
    }
  }
}
layers {
  bottom: "cccp3"
  top: "cccp3_bn"
  name: "cccp3_bn"
  type: BN
  blobs_lr: 1
  blobs_lr: 1
  weight_decay: 0
  weight_decay: 0
  bn_param {
    scale_filler {
      type: "constant"
      value: 1
    }
    shift_filler {
      type: "constant"
      value: 0
    }
  }
}
layers {
  bottom: "cccp3_bn"
  top: "cccp3_bn"
  name: "relu_cccp3"
  type: RELU
  relu_param {
    negative_slope: 0.1
  }
}
layers {
  bottom: "cccp3_bn"
  top: "pool3"
  name: "pool3"
  type: POOLING
  pooling_param {
    pool: MAX
    kernel_size: 3
    stride: 2
  }
}
layers {
  bottom: "pool3"
  top: "fc4"
  name: "fc4"
  type: INNER_PRODUCT
  blobs_lr: 1
  blobs_lr: 2
  weight_decay: 1
  weight_decay: 0
  inner_product_param {
    num_output: 512
    weight_filler {
      type: "xavier"
    }
    bias_filler {
      type: "constant"
    }
  }
}
layers {
  bottom: "fc4"
  top: "fc4"
  name: "relu4"
  type: RELU
  relu_param {
    negative_slope: 0.1
  }
}
layers {
  bottom: "fc4"
  top: "fc4"
  name: "drop4"
  type: DROPOUT
  dropout_param {
    dropout_ratio: 0.5
  }
}
layers {
  bottom: "fc4"
  top: "fc5"
  name: "fc5"
  type: INNER_PRODUCT
  blobs_lr: 1
  blobs_lr: 2
  weight_decay: 1
  weight_decay: 0
  inner_product_param {
    num_output: 512
    weight_filler {
      type: "xavier"
    }
    bias_filler {
      type: "constant"
    }
  }
}
layers {
  bottom: "fc5"
  top: "fc5"
  name: "relu5"
  type: RELU
  relu_param {
    negative_slope: 0.1
  }
}
layers {
  bottom: "fc5"
  top: "fc5"
  name: "drop5"
  type: DROPOUT
  dropout_param {
    dropout_ratio: 0.5
  }
}
layers {
  bottom: "fc5"
  top: "fc6"
  name: "fc6"
  type: INNER_PRODUCT
  blobs_lr: 1
  blobs_lr: 2
  weight_decay: 1
  weight_decay: 0
  inner_product_param {
    num_output: 121
    weight_filler {
      type: "xavier"
    }
    bias_filler {
      type: "constant"
    }
  }
}
layers {
  bottom: "fc6"
  top: "prob"
  name: "prob"
  type: SOFTMAX
  include {
    phase: TEST
  }
}
layers {
  bottom: "prob"
  bottom: "label"
  top: "accuracy"
  name: "accuracy"
  type: ACCURACY
  accuracy_param {
    top_k: 1
  }
  include {
    phase: TEST
  }
}
layers {
  bottom: "fc6"
  bottom: "label"
  top: "loss"
  name: "loss"
  type: SOFTMAX_LOSS
}
state {
  phase: TEST
}
I0302 06:27:54.703527 18773 layer_factory.hpp:78] Creating layer data
I0302 06:27:54.703552 18773 data_transformer.cpp:24] Loading mean file from/home/jaehyun/kaggle/nationalDataScienceBowl/data/typeE/train_mean.binaryproto
I0302 06:27:54.703718 18773 net.cpp:68] Creating Layer data
I0302 06:27:54.703737 18773 net.cpp:357] data -> data
I0302 06:27:54.703758 18773 net.cpp:357] data -> label
I0302 06:27:54.703773 18773 net.cpp:97] Setting up data
I0302 06:27:54.703788 18773 data_layer.cpp:34] Opening dataset /home/jaehyun/kaggle/nationalDataScienceBowl/data/typeE/val_lmdb
I0302 06:27:54.703896 18773 data_layer.cpp:73] output data size: 100,1,96,96
I0302 06:27:54.705333 18773 net.cpp:104] Top shape: 100 1 96 96 (921600)
I0302 06:27:54.705466 18773 net.cpp:104] Top shape: 100 1 1 1 (100)
I0302 06:27:54.705484 18773 layer_factory.hpp:78] Creating layer label_data_1_split
I0302 06:27:54.705507 18773 net.cpp:68] Creating Layer label_data_1_split
I0302 06:27:54.705521 18773 net.cpp:395] label_data_1_split <- label
I0302 06:27:54.705538 18773 net.cpp:357] label_data_1_split -> label_data_1_split_0
I0302 06:27:54.705556 18773 net.cpp:357] label_data_1_split -> label_data_1_split_1
I0302 06:27:54.705574 18773 net.cpp:97] Setting up label_data_1_split
I0302 06:27:54.705590 18773 net.cpp:104] Top shape: 100 1 1 1 (100)
I0302 06:27:54.705602 18773 net.cpp:104] Top shape: 100 1 1 1 (100)
I0302 06:27:54.705615 18773 layer_factory.hpp:78] Creating layer conv1
I0302 06:27:54.705631 18773 net.cpp:68] Creating Layer conv1
I0302 06:27:54.705643 18773 net.cpp:395] conv1 <- data
I0302 06:27:54.705658 18773 net.cpp:357] conv1 -> conv1
I0302 06:27:54.705678 18773 net.cpp:97] Setting up conv1
I0302 06:27:54.705864 18773 net.cpp:104] Top shape: 100 256 47 47 (56550400)
I0302 06:27:54.705894 18773 layer_factory.hpp:78] Creating layer conv1_bn
I0302 06:27:54.705912 18773 net.cpp:68] Creating Layer conv1_bn
I0302 06:27:54.705948 18773 net.cpp:395] conv1_bn <- conv1
I0302 06:27:54.705963 18773 net.cpp:357] conv1_bn -> conv1_bn
I0302 06:27:54.705981 18773 net.cpp:97] Setting up conv1_bn
I0302 06:27:54.706001 18773 net.cpp:104] Top shape: 100 256 47 47 (56550400)
I0302 06:27:54.706019 18773 layer_factory.hpp:78] Creating layer relu1
I0302 06:27:54.706048 18773 net.cpp:68] Creating Layer relu1
I0302 06:27:54.706066 18773 net.cpp:395] relu1 <- conv1_bn
I0302 06:27:54.706089 18773 net.cpp:346] relu1 -> conv1_bn (in-place)
I0302 06:27:54.706104 18773 net.cpp:97] Setting up relu1
I0302 06:27:54.706121 18773 net.cpp:104] Top shape: 100 256 47 47 (56550400)
I0302 06:27:54.706135 18773 layer_factory.hpp:78] Creating layer cccp1
I0302 06:27:54.706148 18773 net.cpp:68] Creating Layer cccp1
I0302 06:27:54.706161 18773 net.cpp:395] cccp1 <- conv1_bn
I0302 06:27:54.706177 18773 net.cpp:357] cccp1 -> cccp1
I0302 06:27:54.706193 18773 net.cpp:97] Setting up cccp1
I0302 06:27:54.706944 18773 net.cpp:104] Top shape: 100 256 47 47 (56550400)
I0302 06:27:54.707003 18773 layer_factory.hpp:78] Creating layer cccp1_bn
I0302 06:27:54.707023 18773 net.cpp:68] Creating Layer cccp1_bn
I0302 06:27:54.707037 18773 net.cpp:395] cccp1_bn <- cccp1
I0302 06:27:54.707052 18773 net.cpp:357] cccp1_bn -> cccp1_bn
I0302 06:27:54.707067 18773 net.cpp:97] Setting up cccp1_bn
I0302 06:27:54.707094 18773 net.cpp:104] Top shape: 100 256 47 47 (56550400)
I0302 06:27:54.707111 18773 layer_factory.hpp:78] Creating layer relu_cccp1
I0302 06:27:54.707129 18773 net.cpp:68] Creating Layer relu_cccp1
I0302 06:27:54.707149 18773 net.cpp:395] relu_cccp1 <- cccp1_bn
I0302 06:27:54.707168 18773 net.cpp:346] relu_cccp1 -> cccp1_bn (in-place)
I0302 06:27:54.707182 18773 net.cpp:97] Setting up relu_cccp1
I0302 06:27:54.707197 18773 net.cpp:104] Top shape: 100 256 47 47 (56550400)
I0302 06:27:54.707209 18773 layer_factory.hpp:78] Creating layer pool1
I0302 06:27:54.707231 18773 net.cpp:68] Creating Layer pool1
I0302 06:27:54.707247 18773 net.cpp:395] pool1 <- cccp1_bn
I0302 06:27:54.707260 18773 net.cpp:357] pool1 -> pool1
I0302 06:27:54.707275 18773 net.cpp:97] Setting up pool1
I0302 06:27:54.707298 18773 net.cpp:104] Top shape: 100 256 23 23 (13542400)
I0302 06:27:54.707311 18773 layer_factory.hpp:78] Creating layer conv2
I0302 06:27:54.707329 18773 net.cpp:68] Creating Layer conv2
I0302 06:27:54.707340 18773 net.cpp:395] conv2 <- pool1
I0302 06:27:54.707358 18773 net.cpp:357] conv2 -> conv2
I0302 06:27:54.707394 18773 net.cpp:97] Setting up conv2
I0302 06:27:54.710501 18773 net.cpp:104] Top shape: 100 128 21 21 (5644800)
I0302 06:27:54.710538 18773 layer_factory.hpp:78] Creating layer conv2_bn
I0302 06:27:54.710561 18773 net.cpp:68] Creating Layer conv2_bn
I0302 06:27:54.710575 18773 net.cpp:395] conv2_bn <- conv2
I0302 06:27:54.710590 18773 net.cpp:357] conv2_bn -> conv2_bn
I0302 06:27:54.710605 18773 net.cpp:97] Setting up conv2_bn
I0302 06:27:54.710626 18773 net.cpp:104] Top shape: 100 128 21 21 (5644800)
I0302 06:27:54.710644 18773 layer_factory.hpp:78] Creating layer relu2
I0302 06:27:54.710669 18773 net.cpp:68] Creating Layer relu2
I0302 06:27:54.710681 18773 net.cpp:395] relu2 <- conv2_bn
I0302 06:27:54.710695 18773 net.cpp:346] relu2 -> conv2_bn (in-place)
I0302 06:27:54.710708 18773 net.cpp:97] Setting up relu2
I0302 06:27:54.710723 18773 net.cpp:104] Top shape: 100 128 21 21 (5644800)
I0302 06:27:54.710736 18773 layer_factory.hpp:78] Creating layer cccp2
I0302 06:27:54.710750 18773 net.cpp:68] Creating Layer cccp2
I0302 06:27:54.710762 18773 net.cpp:395] cccp2 <- conv2_bn
I0302 06:27:54.710775 18773 net.cpp:357] cccp2 -> cccp2
I0302 06:27:54.710789 18773 net.cpp:97] Setting up cccp2
I0302 06:27:54.711030 18773 net.cpp:104] Top shape: 100 128 21 21 (5644800)
I0302 06:27:54.711062 18773 layer_factory.hpp:78] Creating layer cccp2_bn
I0302 06:27:54.711078 18773 net.cpp:68] Creating Layer cccp2_bn
I0302 06:27:54.711091 18773 net.cpp:395] cccp2_bn <- cccp2
I0302 06:27:54.711107 18773 net.cpp:357] cccp2_bn -> cccp2_bn
I0302 06:27:54.711122 18773 net.cpp:97] Setting up cccp2_bn
I0302 06:27:54.711148 18773 net.cpp:104] Top shape: 100 128 21 21 (5644800)
I0302 06:27:54.711165 18773 layer_factory.hpp:78] Creating layer relu_cccp2
I0302 06:27:54.711179 18773 net.cpp:68] Creating Layer relu_cccp2
I0302 06:27:54.711190 18773 net.cpp:395] relu_cccp2 <- cccp2_bn
I0302 06:27:54.711205 18773 net.cpp:346] relu_cccp2 -> cccp2_bn (in-place)
I0302 06:27:54.711220 18773 net.cpp:97] Setting up relu_cccp2
I0302 06:27:54.711235 18773 net.cpp:104] Top shape: 100 128 21 21 (5644800)
I0302 06:27:54.711246 18773 layer_factory.hpp:78] Creating layer conv3
I0302 06:27:54.711267 18773 net.cpp:68] Creating Layer conv3
I0302 06:27:54.711279 18773 net.cpp:395] conv3 <- cccp2_bn
I0302 06:27:54.711302 18773 net.cpp:357] conv3 -> conv3
I0302 06:27:54.711318 18773 net.cpp:97] Setting up conv3
I0302 06:27:54.713146 18773 net.cpp:104] Top shape: 100 128 19 19 (4620800)
I0302 06:27:54.713179 18773 layer_factory.hpp:78] Creating layer conv3_bn
I0302 06:27:54.713201 18773 net.cpp:68] Creating Layer conv3_bn
I0302 06:27:54.713233 18773 net.cpp:395] conv3_bn <- conv3
I0302 06:27:54.713249 18773 net.cpp:357] conv3_bn -> conv3_bn
I0302 06:27:54.713266 18773 net.cpp:97] Setting up conv3_bn
I0302 06:27:54.713290 18773 net.cpp:104] Top shape: 100 128 19 19 (4620800)
I0302 06:27:54.713306 18773 layer_factory.hpp:78] Creating layer relu3
I0302 06:27:54.713322 18773 net.cpp:68] Creating Layer relu3
I0302 06:27:54.713335 18773 net.cpp:395] relu3 <- conv3_bn
I0302 06:27:54.713347 18773 net.cpp:346] relu3 -> conv3_bn (in-place)
I0302 06:27:54.713361 18773 net.cpp:97] Setting up relu3
I0302 06:27:54.713376 18773 net.cpp:104] Top shape: 100 128 19 19 (4620800)
I0302 06:27:54.713388 18773 layer_factory.hpp:78] Creating layer cccp3
I0302 06:27:54.713404 18773 net.cpp:68] Creating Layer cccp3
I0302 06:27:54.713417 18773 net.cpp:395] cccp3 <- conv3_bn
I0302 06:27:54.713430 18773 net.cpp:357] cccp3 -> cccp3
I0302 06:27:54.713445 18773 net.cpp:97] Setting up cccp3
I0302 06:27:54.713693 18773 net.cpp:104] Top shape: 100 128 19 19 (4620800)
I0302 06:27:54.713716 18773 layer_factory.hpp:78] Creating layer cccp3_bn
I0302 06:27:54.713733 18773 net.cpp:68] Creating Layer cccp3_bn
I0302 06:27:54.713745 18773 net.cpp:395] cccp3_bn <- cccp3
I0302 06:27:54.713759 18773 net.cpp:357] cccp3_bn -> cccp3_bn
I0302 06:27:54.713776 18773 net.cpp:97] Setting up cccp3_bn
I0302 06:27:54.713799 18773 net.cpp:104] Top shape: 100 128 19 19 (4620800)
I0302 06:27:54.713815 18773 layer_factory.hpp:78] Creating layer relu_cccp3
I0302 06:27:54.713831 18773 net.cpp:68] Creating Layer relu_cccp3
I0302 06:27:54.713843 18773 net.cpp:395] relu_cccp3 <- cccp3_bn
I0302 06:27:54.713855 18773 net.cpp:346] relu_cccp3 -> cccp3_bn (in-place)
I0302 06:27:54.713870 18773 net.cpp:97] Setting up relu_cccp3
I0302 06:27:54.713883 18773 net.cpp:104] Top shape: 100 128 19 19 (4620800)
I0302 06:27:54.713896 18773 layer_factory.hpp:78] Creating layer pool3
I0302 06:27:54.713912 18773 net.cpp:68] Creating Layer pool3
I0302 06:27:54.713922 18773 net.cpp:395] pool3 <- cccp3_bn
I0302 06:27:54.713935 18773 net.cpp:357] pool3 -> pool3
I0302 06:27:54.713949 18773 net.cpp:97] Setting up pool3
I0302 06:27:54.713965 18773 net.cpp:104] Top shape: 100 128 9 9 (1036800)
I0302 06:27:54.713978 18773 layer_factory.hpp:78] Creating layer fc4
I0302 06:27:54.713992 18773 net.cpp:68] Creating Layer fc4
I0302 06:27:54.714004 18773 net.cpp:395] fc4 <- pool3
I0302 06:27:54.714020 18773 net.cpp:357] fc4 -> fc4
I0302 06:27:54.714036 18773 net.cpp:97] Setting up fc4
I0302 06:27:54.765086 18773 net.cpp:104] Top shape: 100 512 1 1 (51200)
I0302 06:27:54.765164 18773 layer_factory.hpp:78] Creating layer relu4
I0302 06:27:54.765192 18773 net.cpp:68] Creating Layer relu4
I0302 06:27:54.765208 18773 net.cpp:395] relu4 <- fc4
I0302 06:27:54.765229 18773 net.cpp:346] relu4 -> fc4 (in-place)
I0302 06:27:54.765249 18773 net.cpp:97] Setting up relu4
I0302 06:27:54.765285 18773 net.cpp:104] Top shape: 100 512 1 1 (51200)
I0302 06:27:54.765297 18773 layer_factory.hpp:78] Creating layer drop4
I0302 06:27:54.765313 18773 net.cpp:68] Creating Layer drop4
I0302 06:27:54.765326 18773 net.cpp:395] drop4 <- fc4
I0302 06:27:54.765341 18773 net.cpp:346] drop4 -> fc4 (in-place)
I0302 06:27:54.765357 18773 net.cpp:97] Setting up drop4
I0302 06:27:54.765369 18773 net.cpp:104] Top shape: 100 512 1 1 (51200)
I0302 06:27:54.765382 18773 layer_factory.hpp:78] Creating layer fc5
I0302 06:27:54.765398 18773 net.cpp:68] Creating Layer fc5
I0302 06:27:54.765409 18773 net.cpp:395] fc5 <- fc4
I0302 06:27:54.765424 18773 net.cpp:357] fc5 -> fc5
I0302 06:27:54.765440 18773 net.cpp:97] Setting up fc5
I0302 06:27:54.768316 18773 net.cpp:104] Top shape: 100 512 1 1 (51200)
I0302 06:27:54.768342 18773 layer_factory.hpp:78] Creating layer relu5
I0302 06:27:54.768358 18773 net.cpp:68] Creating Layer relu5
I0302 06:27:54.768370 18773 net.cpp:395] relu5 <- fc5
I0302 06:27:54.768388 18773 net.cpp:346] relu5 -> fc5 (in-place)
I0302 06:27:54.768405 18773 net.cpp:97] Setting up relu5
I0302 06:27:54.768421 18773 net.cpp:104] Top shape: 100 512 1 1 (51200)
I0302 06:27:54.768496 18773 layer_factory.hpp:78] Creating layer drop5
I0302 06:27:54.768512 18773 net.cpp:68] Creating Layer drop5
I0302 06:27:54.768522 18773 net.cpp:395] drop5 <- fc5
I0302 06:27:54.768535 18773 net.cpp:346] drop5 -> fc5 (in-place)
I0302 06:27:54.768549 18773 net.cpp:97] Setting up drop5
I0302 06:27:54.768561 18773 net.cpp:104] Top shape: 100 512 1 1 (51200)
I0302 06:27:54.768573 18773 layer_factory.hpp:78] Creating layer fc6
I0302 06:27:54.768587 18773 net.cpp:68] Creating Layer fc6
I0302 06:27:54.768599 18773 net.cpp:395] fc6 <- fc5
I0302 06:27:54.768614 18773 net.cpp:357] fc6 -> fc6
I0302 06:27:54.768627 18773 net.cpp:97] Setting up fc6
I0302 06:27:54.769325 18773 net.cpp:104] Top shape: 100 121 1 1 (12100)
I0302 06:27:54.769347 18773 layer_factory.hpp:78] Creating layer fc6_fc6_0_split
I0302 06:27:54.769362 18773 net.cpp:68] Creating Layer fc6_fc6_0_split
I0302 06:27:54.769374 18773 net.cpp:395] fc6_fc6_0_split <- fc6
I0302 06:27:54.769387 18773 net.cpp:357] fc6_fc6_0_split -> fc6_fc6_0_split_0
I0302 06:27:54.769407 18773 net.cpp:357] fc6_fc6_0_split -> fc6_fc6_0_split_1
I0302 06:27:54.769423 18773 net.cpp:97] Setting up fc6_fc6_0_split
I0302 06:27:54.769436 18773 net.cpp:104] Top shape: 100 121 1 1 (12100)
I0302 06:27:54.769448 18773 net.cpp:104] Top shape: 100 121 1 1 (12100)
I0302 06:27:54.769459 18773 layer_factory.hpp:78] Creating layer prob
I0302 06:27:54.769474 18773 net.cpp:68] Creating Layer prob
I0302 06:27:54.769486 18773 net.cpp:395] prob <- fc6_fc6_0_split_0
I0302 06:27:54.769502 18773 net.cpp:357] prob -> prob
I0302 06:27:54.769517 18773 net.cpp:97] Setting up prob
I0302 06:27:54.769536 18773 net.cpp:104] Top shape: 100 121 1 1 (12100)
I0302 06:27:54.769548 18773 layer_factory.hpp:78] Creating layer accuracy
I0302 06:27:54.769569 18773 net.cpp:68] Creating Layer accuracy
I0302 06:27:54.769582 18773 net.cpp:395] accuracy <- prob
I0302 06:27:54.769595 18773 net.cpp:395] accuracy <- label_data_1_split_0
I0302 06:27:54.769613 18773 net.cpp:357] accuracy -> accuracy
I0302 06:27:54.769629 18773 net.cpp:97] Setting up accuracy
I0302 06:27:54.769645 18773 net.cpp:104] Top shape: 1 1 1 1 (1)
I0302 06:27:54.769657 18773 layer_factory.hpp:78] Creating layer loss
I0302 06:27:54.769680 18773 net.cpp:68] Creating Layer loss
I0302 06:27:54.769692 18773 net.cpp:395] loss <- fc6_fc6_0_split_1
I0302 06:27:54.769704 18773 net.cpp:395] loss <- label_data_1_split_1
I0302 06:27:54.769717 18773 net.cpp:357] loss -> loss
I0302 06:27:54.769732 18773 net.cpp:97] Setting up loss
I0302 06:27:54.769747 18773 layer_factory.hpp:78] Creating layer loss
I0302 06:27:54.769795 18773 net.cpp:104] Top shape: 1 1 1 1 (1)
I0302 06:27:54.769811 18773 net.cpp:110]     with loss weight 1
I0302 06:27:54.769840 18773 net.cpp:171] loss needs backward computation.
I0302 06:27:54.769852 18773 net.cpp:173] accuracy does not need backward computation.
I0302 06:27:54.769865 18773 net.cpp:173] prob does not need backward computation.
I0302 06:27:54.769876 18773 net.cpp:171] fc6_fc6_0_split needs backward computation.
…
