…
  transform_param {
    mirror: true
    mean_file: "/media/data/kaggle/nationalDataScienceBowl/data/typeF/train_mean.binaryproto"
    affine_param {
      x_stretch_unirnd_range: 0.01
      y_stretch_unirnd_range: 0.01
      rotation_unirnd_range: 180
      max_translation: 5
      background_color: 255
    }
  }
  image_data_affine_param {
    source: "/media/data/kaggle/nationalDataScienceBowl/data/typeF/train.txt"
    scale: 0.00390625
    batch_size: 128
    shuffle: true
    new_size: 96
    is_color: false
    root_folder: "/media/data/kaggle/nationalDataScienceBowl/data/typeF/"
  }
}
layers {
  bottom: "data"
  top: "conv1"
  name: "conv1"
  type: CONVOLUTION
  blobs_lr: 1
  blobs_lr: 2
  weight_decay: 1
  weight_decay: 0
  convolution_param {
    num_output: 256
    kernel_size: 4
    stride: 2
    weight_filler {
      type: "xavier"
    }
    bias_filler {
      type: "constant"
    }
  }
}
layers {
  bottom: "conv1"
  top: "conv1_bn"
  name: "conv1_bn"
  type: BN
  blobs_lr: 1
  blobs_lr: 1
  weight_decay: 0
  weight_decay: 0
  bn_param {
    scale_filler {
      type: "constant"
      value: 1
    }
    shift_filler {
      type: "constant"
      value: 0
    }
  }
}
layers {
  bottom: "conv1_bn"
  top: "conv1_bn"
  name: "relu1"
  type: RELU
  relu_param {
    negative_slope: 0.1
  }
}
layers {
  bottom: "conv1_bn"
  top: "cccp1"
  name: "cccp1"
  type: CONVOLUTION
  blobs_lr: 1
  blobs_lr: 2
  weight_decay: 1
  weight_decay: 0
  convolution_param {
    num_output: 256
    kernel_size: 1
    group: 1
    stride: 1
    weight_filler {
      type: "xavier"
    }
    bias_filler {
      type: "constant"
    }
  }
}
layers {
  bottom: "cccp1"
  top: "cccp1_bn"
  name: "cccp1_bn"
  type: BN
  blobs_lr: 1
  blobs_lr: 1
  weight_decay: 0
  weight_decay: 0
  bn_param {
    scale_filler {
      type: "constant"
      value: 1
    }
    shift_filler {
      type: "constant"
      value: 0
    }
  }
}
layers {
  bottom: "cccp1_bn"
  top: "cccp1_bn"
  name: "relu_cccp1"
  type: RELU
  relu_param {
    negative_slope: 0.1
  }
}
layers {
  bottom: "cccp1_bn"
  top: "pool1"
  name: "pool1"
  type: POOLING
  pooling_param {
    pool: MAX
    kernel_size: 3
    stride: 2
  }
}
layers {
  bottom: "pool1"
  top: "conv2"
  name: "conv2"
  type: CONVOLUTION
  blobs_lr: 1
  blobs_lr: 2
  weight_decay: 1
  weight_decay: 0
  convolution_param {
    num_output: 256
    kernel_size: 3
    weight_filler {
      type: "xavier"
    }
    bias_filler {
      type: "constant"
    }
  }
}
layers {
  bottom: "conv2"
  top: "conv2_bn"
  name: "conv2_bn"
  type: BN
  blobs_lr: 1
  blobs_lr: 1
  weight_decay: 0
  weight_decay: 0
  bn_param {
    scale_filler {
      type: "constant"
      value: 1
    }
    shift_filler {
      type: "constant"
      value: 0
    }
  }
}
layers {
  bottom: "conv2_bn"
  top: "conv2_bn"
  name: "relu2"
  type: RELU
  relu_param {
    negative_slope: 0.1
  }
}
layers {
  bottom: "conv2_bn"
  top: "cccp2"
  name: "cccp2"
  type: CONVOLUTION
  blobs_lr: 1
  blobs_lr: 2
  weight_decay: 1
  weight_decay: 0
  convolution_param {
    num_output: 256
    kernel_size: 1
    group: 1
    stride: 1
    weight_filler {
      type: "xavier"
    }
    bias_filler {
      type: "constant"
    }
  }
}
layers {
  bottom: "cccp2"
  top: "cccp2_bn"
  name: "cccp2_bn"
  type: BN
  blobs_lr: 1
  blobs_lr: 1
  weight_decay: 0
  weight_decay: 0
  bn_param {
    scale_filler {
      type: "constant"
      value: 1
    }
    shift_filler {
      type: "constant"
      value: 0
    }
  }
}
layers {
  bottom: "cccp2_bn"
  top: "cccp2_bn"
  name: "relu_cccp2"
  type: RELU
  relu_param {
    negative_slope: 0.1
  }
}
layers {
  bottom: "cccp2_bn"
  top: "conv3"
  name: "conv3"
  type: CONVOLUTION
  blobs_lr: 1
  blobs_lr: 2
  weight_decay: 1
  weight_decay: 0
  convolution_param {
    num_output: 256
    kernel_size: 3
    weight_filler {
      type: "xavier"
    }
    bias_filler {
      type: "constant"
    }
  }
}
layers {
  bottom: "conv3"
  top: "conv3_bn"
  name: "conv3_bn"
  type: BN
  blobs_lr: 1
  blobs_lr: 1
  weight_decay: 0
  weight_decay: 0
  bn_param {
    scale_filler {
      type: "constant"
      value: 1
    }
    shift_filler {
      type: "constant"
      value: 0
    }
  }
}
layers {
  bottom: "conv3_bn"
  top: "conv3_bn"
  name: "relu3"
  type: RELU
  relu_param {
    negative_slope: 0.1
  }
}
layers {
  bottom: "conv3_bn"
  top: "cccp3"
  name: "cccp3"
  type: CONVOLUTION
  blobs_lr: 1
  blobs_lr: 2
  weight_decay: 1
  weight_decay: 0
  convolution_param {
    num_output: 256
    kernel_size: 1
    group: 1
    stride: 1
    weight_filler {
      type: "xavier"
    }
    bias_filler {
      type: "constant"
    }
  }
}
layers {
  bottom: "cccp3"
  top: "cccp3_bn"
  name: "cccp3_bn"
  type: BN
  blobs_lr: 1
  blobs_lr: 1
  weight_decay: 0
  weight_decay: 0
  bn_param {
    scale_filler {
      type: "constant"
      value: 1
    }
    shift_filler {
      type: "constant"
      value: 0
    }
  }
}
layers {
  bottom: "cccp3_bn"
  top: "cccp3_bn"
  name: "relu_cccp3"
  type: RELU
  relu_param {
    negative_slope: 0.1
  }
}
layers {
  bottom: "cccp3_bn"
  top: "pool3"
  name: "pool3"
  type: POOLING
  pooling_param {
    pool: MAX
    kernel_size: 3
    stride: 2
  }
}
layers {
  bottom: "pool3"
  top: "fc4"
  name: "fc4"
  type: INNER_PRODUCT
  blobs_lr: 1
  blobs_lr: 2
  weight_decay: 1
  weight_decay: 0
  inner_product_param {
    num_output: 512
    weight_filler {
      type: "xavier"
    }
    bias_filler {
      type: "constant"
    }
  }
}
layers {
  bottom: "fc4"
  top: "fc4"
  name: "relu4"
  type: RELU
  relu_param {
    negative_slope: 0.1
  }
}
layers {
  bottom: "fc4"
  top: "fc4"
  name: "drop4"
  type: DROPOUT
  dropout_param {
    dropout_ratio: 0.5
  }
}
layers {
  bottom: "fc4"
  top: "fc5"
  name: "fc5"
  type: INNER_PRODUCT
  blobs_lr: 1
  blobs_lr: 2
  weight_decay: 1
  weight_decay: 0
  inner_product_param {
    num_output: 512
    weight_filler {
      type: "xavier"
    }
    bias_filler {
      type: "constant"
    }
  }
}
layers {
  bottom: "fc5"
  top: "fc5"
  name: "relu5"
  type: RELU
  relu_param {
    negative_slope: 0.1
  }
}
layers {
  bottom: "fc5"
  top: "fc5"
  name: "drop5"
  type: DROPOUT
  dropout_param {
    dropout_ratio: 0.5
  }
}
layers {
  bottom: "fc5"
  top: "fc6"
  name: "fc6"
  type: INNER_PRODUCT
  blobs_lr: 1
  blobs_lr: 2
  weight_decay: 1
  weight_decay: 0
  inner_product_param {
    num_output: 121
    weight_filler {
      type: "xavier"
    }
    bias_filler {
      type: "constant"
    }
  }
}
layers {
  bottom: "fc6"
  bottom: "label"
  top: "loss"
  name: "loss"
  type: SOFTMAX_LOSS
}
state {
  phase: TRAIN
}
I0310 08:36:57.977630 27683 layer_factory.hpp:78] Creating layer data
I0310 08:36:57.977660 27683 data_transformer.cpp:24] Loading mean file from/media/data/kaggle/nationalDataScienceBowl/data/typeF/train_mean.binaryproto
I0310 08:36:57.977849 27683 net.cpp:68] Creating Layer data
I0310 08:36:57.977874 27683 net.cpp:357] data -> data
I0310 08:36:57.977902 27683 net.cpp:357] data -> label
I0310 08:36:57.977922 27683 net.cpp:97] Setting up data
I0310 08:36:57.977939 27683 image_data_affine_layer.cpp:37] Opening file /media/data/kaggle/nationalDataScienceBowl/data/typeF/train.txt
I0310 08:36:57.991526 27683 image_data_affine_layer.cpp:47] Shuffling data
I0310 08:36:57.994544 27683 image_data_affine_layer.cpp:52] A total of 27302 images.
I0310 08:36:57.996609 27683 image_data_affine_layer.cpp:81] output data size: 128,1,96,96
I0310 08:36:57.998462 27683 net.cpp:104] Top shape: 128 1 96 96 (1179648)
I0310 08:36:57.998492 27683 net.cpp:104] Top shape: 128 1 1 1 (128)
I0310 08:36:57.998507 27683 layer_factory.hpp:78] Creating layer conv1
I0310 08:36:57.998543 27683 net.cpp:68] Creating Layer conv1
I0310 08:36:57.998556 27683 net.cpp:395] conv1 <- data
I0310 08:36:57.998581 27683 net.cpp:357] conv1 -> conv1
I0310 08:36:57.998605 27683 net.cpp:97] Setting up conv1
I0310 08:36:58.041936 27683 net.cpp:104] Top shape: 128 256 47 47 (72384512)
I0310 08:36:58.042018 27683 layer_factory.hpp:78] Creating layer conv1_bn
I0310 08:36:58.042058 27683 net.cpp:68] Creating Layer conv1_bn
I0310 08:36:58.042075 27683 net.cpp:395] conv1_bn <- conv1
I0310 08:36:58.042094 27683 net.cpp:357] conv1_bn -> conv1_bn
I0310 08:36:58.042119 27683 net.cpp:97] Setting up conv1_bn
I0310 08:36:58.042160 27683 net.cpp:104] Top shape: 128 256 47 47 (72384512)
I0310 08:36:58.042178 27683 layer_factory.hpp:78] Creating layer relu1
I0310 08:36:58.042198 27683 net.cpp:68] Creating Layer relu1
I0310 08:36:58.042212 27683 net.cpp:395] relu1 <- conv1_bn
I0310 08:36:58.042225 27683 net.cpp:346] relu1 -> conv1_bn (in-place)
I0310 08:36:58.042242 27683 net.cpp:97] Setting up relu1
I0310 08:36:58.042263 27683 net.cpp:104] Top shape: 128 256 47 47 (72384512)
I0310 08:36:58.042281 27683 layer_factory.hpp:78] Creating layer cccp1
I0310 08:36:58.042304 27683 net.cpp:68] Creating Layer cccp1
I0310 08:36:58.042316 27683 net.cpp:395] cccp1 <- conv1_bn
I0310 08:36:58.042346 27683 net.cpp:357] cccp1 -> cccp1
I0310 08:36:58.042367 27683 net.cpp:97] Setting up cccp1
I0310 08:36:58.043190 27683 net.cpp:104] Top shape: 128 256 47 47 (72384512)
I0310 08:36:58.043222 27683 layer_factory.hpp:78] Creating layer cccp1_bn
I0310 08:36:58.043243 27683 net.cpp:68] Creating Layer cccp1_bn
I0310 08:36:58.043256 27683 net.cpp:395] cccp1_bn <- cccp1
I0310 08:36:58.043272 27683 net.cpp:357] cccp1_bn -> cccp1_bn
I0310 08:36:58.043295 27683 net.cpp:97] Setting up cccp1_bn
I0310 08:36:58.043323 27683 net.cpp:104] Top shape: 128 256 47 47 (72384512)
I0310 08:36:58.043349 27683 layer_factory.hpp:78] Creating layer relu_cccp1
I0310 08:36:58.043370 27683 net.cpp:68] Creating Layer relu_cccp1
I0310 08:36:58.043383 27683 net.cpp:395] relu_cccp1 <- cccp1_bn
I0310 08:36:58.043397 27683 net.cpp:346] relu_cccp1 -> cccp1_bn (in-place)
I0310 08:36:58.043412 27683 net.cpp:97] Setting up relu_cccp1
I0310 08:36:58.043428 27683 net.cpp:104] Top shape: 128 256 47 47 (72384512)
I0310 08:36:58.043440 27683 layer_factory.hpp:78] Creating layer pool1
I0310 08:36:58.043462 27683 net.cpp:68] Creating Layer pool1
I0310 08:36:58.043475 27683 net.cpp:395] pool1 <- cccp1_bn
I0310 08:36:58.043489 27683 net.cpp:357] pool1 -> pool1
I0310 08:36:58.043504 27683 net.cpp:97] Setting up pool1
I0310 08:36:58.043542 27683 net.cpp:104] Top shape: 128 256 23 23 (17334272)
I0310 08:36:58.043558 27683 layer_factory.hpp:78] Creating layer conv2
I0310 08:36:58.043578 27683 net.cpp:68] Creating Layer conv2
I0310 08:36:58.043591 27683 net.cpp:395] conv2 <- pool1
I0310 08:36:58.043608 27683 net.cpp:357] conv2 -> conv2
I0310 08:36:58.043623 27683 net.cpp:97] Setting up conv2
I0310 08:36:58.049734 27683 net.cpp:104] Top shape: 128 256 21 21 (14450688)
I0310 08:36:58.049767 27683 layer_factory.hpp:78] Creating layer conv2_bn
I0310 08:36:58.049788 27683 net.cpp:68] Creating Layer conv2_bn
I0310 08:36:58.049803 27683 net.cpp:395] conv2_bn <- conv2
I0310 08:36:58.049818 27683 net.cpp:357] conv2_bn -> conv2_bn
I0310 08:36:58.049844 27683 net.cpp:97] Setting up conv2_bn
I0310 08:36:58.049867 27683 net.cpp:104] Top shape: 128 256 21 21 (14450688)
I0310 08:36:58.049883 27683 layer_factory.hpp:78] Creating layer relu2
I0310 08:36:58.049898 27683 net.cpp:68] Creating Layer relu2
I0310 08:36:58.049911 27683 net.cpp:395] relu2 <- conv2_bn
I0310 08:36:58.049923 27683 net.cpp:346] relu2 -> conv2_bn (in-place)
I0310 08:36:58.049938 27683 net.cpp:97] Setting up relu2
I0310 08:36:58.049953 27683 net.cpp:104] Top shape: 128 256 21 21 (14450688)
I0310 08:36:58.050026 27683 layer_factory.hpp:78] Creating layer cccp2
I0310 08:36:58.050047 27683 net.cpp:68] Creating Layer cccp2
I0310 08:36:58.050060 27683 net.cpp:395] cccp2 <- conv2_bn
I0310 08:36:58.050077 27683 net.cpp:357] cccp2 -> cccp2
I0310 08:36:58.050094 27683 net.cpp:97] Setting up cccp2
I0310 08:36:58.050909 27683 net.cpp:104] Top shape: 128 256 21 21 (14450688)
I0310 08:36:58.050935 27683 layer_factory.hpp:78] Creating layer cccp2_bn
I0310 08:36:58.050956 27683 net.cpp:68] Creating Layer cccp2_bn
I0310 08:36:58.050969 27683 net.cpp:395] cccp2_bn <- cccp2
I0310 08:36:58.050987 27683 net.cpp:357] cccp2_bn -> cccp2_bn
I0310 08:36:58.051005 27683 net.cpp:97] Setting up cccp2_bn
I0310 08:36:58.051031 27683 net.cpp:104] Top shape: 128 256 21 21 (14450688)
I0310 08:36:58.051048 27683 layer_factory.hpp:78] Creating layer relu_cccp2
I0310 08:36:58.051064 27683 net.cpp:68] Creating Layer relu_cccp2
I0310 08:36:58.051076 27683 net.cpp:395] relu_cccp2 <- cccp2_bn
I0310 08:36:58.051090 27683 net.cpp:346] relu_cccp2 -> cccp2_bn (in-place)
I0310 08:36:58.051103 27683 net.cpp:97] Setting up relu_cccp2
I0310 08:36:58.051118 27683 net.cpp:104] Top shape: 128 256 21 21 (14450688)
I0310 08:36:58.051131 27683 layer_factory.hpp:78] Creating layer conv3
I0310 08:36:58.051149 27683 net.cpp:68] Creating Layer conv3
I0310 08:36:58.051162 27683 net.cpp:395] conv3 <- cccp2_bn
I0310 08:36:58.051175 27683 net.cpp:357] conv3 -> conv3
I0310 08:36:58.051190 27683 net.cpp:97] Setting up conv3
I0310 08:36:58.057482 27683 net.cpp:104] Top shape: 128 256 19 19 (11829248)
I0310 08:36:58.057525 27683 layer_factory.hpp:78] Creating layer conv3_bn
I0310 08:36:58.057544 27683 net.cpp:68] Creating Layer conv3_bn
I0310 08:36:58.057559 27683 net.cpp:395] conv3_bn <- conv3
I0310 08:36:58.057577 27683 net.cpp:357] conv3_bn -> conv3_bn
I0310 08:36:58.057595 27683 net.cpp:97] Setting up conv3_bn
I0310 08:36:58.057617 27683 net.cpp:104] Top shape: 128 256 19 19 (11829248)
I0310 08:36:58.057633 27683 layer_factory.hpp:78] Creating layer relu3
I0310 08:36:58.057651 27683 net.cpp:68] Creating Layer relu3
I0310 08:36:58.057662 27683 net.cpp:395] relu3 <- conv3_bn
I0310 08:36:58.057678 27683 net.cpp:346] relu3 -> conv3_bn (in-place)
I0310 08:36:58.057693 27683 net.cpp:97] Setting up relu3
I0310 08:36:58.057708 27683 net.cpp:104] Top shape: 128 256 19 19 (11829248)
I0310 08:36:58.057720 27683 layer_factory.hpp:78] Creating layer cccp3
I0310 08:36:58.057736 27683 net.cpp:68] Creating Layer cccp3
I0310 08:36:58.057749 27683 net.cpp:395] cccp3 <- conv3_bn
I0310 08:36:58.057764 27683 net.cpp:357] cccp3 -> cccp3
I0310 08:36:58.057778 27683 net.cpp:97] Setting up cccp3
I0310 08:36:58.058864 27683 net.cpp:104] Top shape: 128 256 19 19 (11829248)
I0310 08:36:58.058893 27683 layer_factory.hpp:78] Creating layer cccp3_bn
I0310 08:36:58.058913 27683 net.cpp:68] Creating Layer cccp3_bn
I0310 08:36:58.058928 27683 net.cpp:395] cccp3_bn <- cccp3
I0310 08:36:58.058943 27683 net.cpp:357] cccp3_bn -> cccp3_bn
I0310 08:36:58.058962 27683 net.cpp:97] Setting up cccp3_bn
I0310 08:36:58.058990 27683 net.cpp:104] Top shape: 128 256 19 19 (11829248)
I0310 08:36:58.059005 27683 layer_factory.hpp:78] Creating layer relu_cccp3
I0310 08:36:58.059020 27683 net.cpp:68] Creating Layer relu_cccp3
I0310 08:36:58.059031 27683 net.cpp:395] relu_cccp3 <- cccp3_bn
I0310 08:36:58.059047 27683 net.cpp:346] relu_cccp3 -> cccp3_bn (in-place)
I0310 08:36:58.059062 27683 net.cpp:97] Setting up relu_cccp3
I0310 08:36:58.059077 27683 net.cpp:104] Top shape: 128 256 19 19 (11829248)
I0310 08:36:58.059089 27683 layer_factory.hpp:78] Creating layer pool3
I0310 08:36:58.059105 27683 net.cpp:68] Creating Layer pool3
I0310 08:36:58.059118 27683 net.cpp:395] pool3 <- cccp3_bn
I0310 08:36:58.059135 27683 net.cpp:357] pool3 -> pool3
I0310 08:36:58.059150 27683 net.cpp:97] Setting up pool3
I0310 08:36:58.059170 27683 net.cpp:104] Top shape: 128 256 9 9 (2654208)
I0310 08:36:58.059181 27683 layer_factory.hpp:78] Creating layer fc4
I0310 08:36:58.059203 27683 net.cpp:68] Creating Layer fc4
I0310 08:36:58.059242 27683 net.cpp:395] fc4 <- pool3
I0310 08:36:58.059262 27683 net.cpp:357] fc4 -> fc4
I0310 08:36:58.059281 27683 net.cpp:97] Setting up fc4
I0310 08:36:58.169478 27683 net.cpp:104] Top shape: 128 512 1 1 (65536)
I0310 08:36:58.169544 27683 layer_factory.hpp:78] Creating layer relu4
I0310 08:36:58.169569 27683 net.cpp:68] Creating Layer relu4
I0310 08:36:58.169584 27683 net.cpp:395] relu4 <- fc4
I0310 08:36:58.169605 27683 net.cpp:346] relu4 -> fc4 (in-place)
I0310 08:36:58.169622 27683 net.cpp:97] Setting up relu4
I0310 08:36:58.169652 27683 net.cpp:104] Top shape: 128 512 1 1 (65536)
I0310 08:36:58.169664 27683 layer_factory.hpp:78] Creating layer drop4
I0310 08:36:58.169687 27683 net.cpp:68] Creating Layer drop4
I0310 08:36:58.169700 27683 net.cpp:395] drop4 <- fc4
I0310 08:36:58.169713 27683 net.cpp:346] drop4 -> fc4 (in-place)
I0310 08:36:58.169728 27683 net.cpp:97] Setting up drop4
I0310 08:36:58.169742 27683 net.cpp:104] Top shape: 128 512 1 1 (65536)
I0310 08:36:58.169754 27683 layer_factory.hpp:78] Creating layer fc5
I0310 08:36:58.169771 27683 net.cpp:68] Creating Layer fc5
I0310 08:36:58.169782 27683 net.cpp:395] fc5 <- fc4
I0310 08:36:58.169800 27683 net.cpp:357] fc5 -> fc5
I0310 08:36:58.169817 27683 net.cpp:97] Setting up fc5
I0310 08:36:58.172705 27683 net.cpp:104] Top shape: 128 512 1 1 (65536)
I0310 08:36:58.172731 27683 layer_factory.hpp:78] Creating layer relu5
I0310 08:36:58.172746 27683 net.cpp:68] Creating Layer relu5
I0310 08:36:58.172758 27683 net.cpp:395] relu5 <- fc5
I0310 08:36:58.172775 27683 net.cpp:346] relu5 -> fc5 (in-place)
I0310 08:36:58.172791 27683 net.cpp:97] Setting up relu5
I0310 08:36:58.172808 27683 net.cpp:104] Top shape: 128 512 1 1 (65536)
I0310 08:36:58.172821 27683 layer_factory.hpp:78] Creating layer drop5
I0310 08:36:58.172835 27683 net.cpp:68] Creating Layer drop5
I0310 08:36:58.172847 27683 net.cpp:395] drop5 <- fc5
I0310 08:36:58.172860 27683 net.cpp:346] drop5 -> fc5 (in-place)
I0310 08:36:58.172874 27683 net.cpp:97] Setting up drop5
I0310 08:36:58.172886 27683 net.cpp:104] Top shape: 128 512 1 1 (65536)
I0310 08:36:58.172898 27683 layer_factory.hpp:78] Creating layer fc6
I0310 08:36:58.172914 27683 net.cpp:68] Creating Layer fc6
I0310 08:36:58.172924 27683 net.cpp:395] fc6 <- fc5
I0310 08:36:58.172940 27683 net.cpp:357] fc6 -> fc6
I0310 08:36:58.172953 27683 net.cpp:97] Setting up fc6
I0310 08:36:58.173601 27683 net.cpp:104] Top shape: 128 121 1 1 (15488)
I0310 08:36:58.173626 27683 layer_factory.hpp:78] Creating layer loss
I0310 08:36:58.173645 27683 net.cpp:68] Creating Layer loss
I0310 08:36:58.173656 27683 net.cpp:395] loss <- fc6
I0310 08:36:58.173671 27683 net.cpp:395] loss <- label
I0310 08:36:58.173687 27683 net.cpp:357] loss -> loss
I0310 08:36:58.173705 27683 net.cpp:97] Setting up loss
I0310 08:36:58.173722 27683 layer_factory.hpp:78] Creating layer loss
I0310 08:36:58.173787 27683 net.cpp:104] Top shape: 1 1 1 1 (1)
I0310 08:36:58.173802 27683 net.cpp:110]     with loss weight 1
I0310 08:36:58.173847 27683 net.cpp:171] loss needs backward computation.
I0310 08:36:58.173861 27683 net.cpp:171] fc6 needs backward computation.
I0310 08:36:58.173872 27683 net.cpp:171] drop5 needs backward computation.
I0310 08:36:58.173883 27683 net.cpp:171] relu5 needs backward computation.
I0310 08:36:58.173894 27683 net.cpp:171] fc5 needs backward computation.
…
