…
I0301 00:14:30.060410 19505 net.cpp:276] The NetState phase (0) differed from the phase (1) specified by a rule in layer accuracy
I0301 00:14:30.060609 19505 net.cpp:39] Initializing net from parameters: 
name: "model3"
layers {
  top: "data"
  top: "label"
  name: "data"
  type: DATA
  data_param {
    source: "/home/jaehyun/kaggle/nationalDataScienceBowl/data/typeE/train_lmdb"
    batch_size: 128
    backend: LMDB
    shuffle: true
  }
  include {
    phase: TRAIN
  }
  transform_param {
    mirror: true
    mean_file: "/home/jaehyun/kaggle/nationalDataScienceBowl/data/typeE/train_mean.binaryproto"
  }
}
layers {
  bottom: "data"
  top: "conv1"
  name: "conv1"
  type: CONVOLUTION
  blobs_lr: 1
  blobs_lr: 2
  weight_decay: 1
  weight_decay: 0
  convolution_param {
    num_output: 256
    kernel_size: 4
    stride: 2
    weight_filler {
      type: "gaussian"
      std: 0.01
    }
    bias_filler {
      type: "constant"
      value: 0
    }
  }
}
layers {
  bottom: "conv1"
  top: "conv1"
  name: "relu1"
  type: RELU
  relu_param {
    negative_slope: 0.1
  }
}
layers {
  bottom: "conv1"
  top: "cccp1"
  name: "cccp1"
  type: CONVOLUTION
  blobs_lr: 1
  blobs_lr: 2
  weight_decay: 1
  weight_decay: 0
  convolution_param {
    num_output: 256
    kernel_size: 1
    group: 1
    stride: 1
    weight_filler {
      type: "gaussian"
      std: 0.01
    }
    bias_filler {
      type: "constant"
      value: 0
    }
  }
}
layers {
  bottom: "cccp1"
  top: "cccp1"
  name: "relu_cccp1"
  type: RELU
  relu_param {
    negative_slope: 0.1
  }
}
layers {
  bottom: "cccp1"
  top: "pool1"
  name: "pool1"
  type: POOLING
  pooling_param {
    pool: MAX
    kernel_size: 3
    stride: 2
  }
}
layers {
  bottom: "pool1"
  top: "conv2"
  name: "conv2"
  type: CONVOLUTION
  blobs_lr: 1
  blobs_lr: 2
  weight_decay: 1
  weight_decay: 0
  convolution_param {
    num_output: 128
    kernel_size: 3
    weight_filler {
      type: "gaussian"
      std: 0.01
    }
    bias_filler {
      type: "constant"
      value: 1
    }
  }
}
layers {
  bottom: "conv2"
  top: "conv2"
  name: "relu2"
  type: RELU
  relu_param {
    negative_slope: 0.1
  }
}
layers {
  bottom: "conv2"
  top: "conv3"
  name: "conv3"
  type: CONVOLUTION
  blobs_lr: 1
  blobs_lr: 2
  weight_decay: 1
  weight_decay: 0
  convolution_param {
    num_output: 128
    kernel_size: 3
    weight_filler {
      type: "gaussian"
      std: 0.01
    }
    bias_filler {
      type: "constant"
      value: 0
    }
  }
}
layers {
  bottom: "conv3"
  top: "conv3"
  name: "relu3"
  type: RELU
  relu_param {
    negative_slope: 0.1
  }
}
layers {
  bottom: "conv3"
  top: "pool3"
  name: "pool3"
  type: POOLING
  pooling_param {
    pool: MAX
    kernel_size: 3
    stride: 2
  }
}
layers {
  bottom: "pool3"
  top: "fc4"
  name: "fc4"
  type: INNER_PRODUCT
  blobs_lr: 1
  blobs_lr: 2
  weight_decay: 1
  weight_decay: 0
  inner_product_param {
    num_output: 512
    weight_filler {
      type: "gaussian"
      std: 0.005
    }
    bias_filler {
      type: "constant"
      value: 1
    }
  }
}
layers {
  bottom: "fc4"
  top: "fc4"
  name: "relu4"
  type: RELU
  relu_param {
    negative_slope: 0.1
  }
}
layers {
  bottom: "fc4"
  top: "fc4"
  name: "drop4"
  type: DROPOUT
  dropout_param {
    dropout_ratio: 0.5
  }
}
layers {
  bottom: "fc4"
  top: "fc5"
  name: "fc5"
  type: INNER_PRODUCT
  blobs_lr: 1
  blobs_lr: 2
  weight_decay: 1
  weight_decay: 0
  inner_product_param {
    num_output: 512
    weight_filler {
      type: "gaussian"
      std: 0.005
    }
    bias_filler {
      type: "constant"
      value: 1
    }
  }
}
layers {
  bottom: "fc5"
  top: "fc5"
  name: "relu5"
  type: RELU
  relu_param {
    negative_slope: 0.1
  }
}
layers {
  bottom: "fc5"
  top: "fc5"
  name: "drop5"
  type: DROPOUT
  dropout_param {
    dropout_ratio: 0.5
  }
}
layers {
  bottom: "fc5"
  top: "fc6"
  name: "fc6"
  type: INNER_PRODUCT
  blobs_lr: 1
  blobs_lr: 2
  weight_decay: 1
  weight_decay: 0
  inner_product_param {
    num_output: 121
    weight_filler {
      type: "gaussian"
      std: 0.01
    }
    bias_filler {
      type: "constant"
      value: 0
    }
  }
}
layers {
  bottom: "fc6"
  bottom: "label"
  top: "loss"
  name: "loss"
  type: SOFTMAX_LOSS
}
state {
  phase: TRAIN
}
I0301 00:14:30.061625 19505 layer_factory.hpp:78] Creating layer data
I0301 00:14:30.061653 19505 data_transformer.cpp:24] Loading mean file from/home/jaehyun/kaggle/nationalDataScienceBowl/data/typeE/train_mean.binaryproto
I0301 00:14:30.061854 19505 net.cpp:68] Creating Layer data
I0301 00:14:30.061878 19505 net.cpp:357] data -> data
I0301 00:14:30.061905 19505 net.cpp:357] data -> label
I0301 00:14:30.061928 19505 net.cpp:97] Setting up data
I0301 00:14:30.061949 19505 data_layer.cpp:34] Opening dataset /home/jaehyun/kaggle/nationalDataScienceBowl/data/typeE/train_lmdb
I0301 00:14:30.062119 19505 data_layer.cpp:73] output data size: 128,1,96,96
I0301 00:14:30.064892 19505 net.cpp:104] Top shape: 128 1 96 96 (1179648)
I0301 00:14:30.064920 19505 net.cpp:104] Top shape: 128 1 1 1 (128)
I0301 00:14:30.064935 19505 layer_factory.hpp:78] Creating layer conv1
I0301 00:14:30.064955 19505 net.cpp:68] Creating Layer conv1
I0301 00:14:30.064970 19505 net.cpp:395] conv1 <- data
I0301 00:14:30.064997 19505 net.cpp:357] conv1 -> conv1
I0301 00:14:30.065017 19505 net.cpp:97] Setting up conv1
I0301 00:14:30.095679 19505 net.cpp:104] Top shape: 128 256 47 47 (72384512)
I0301 00:14:30.095774 19505 layer_factory.hpp:78] Creating layer relu1
I0301 00:14:30.095805 19505 net.cpp:68] Creating Layer relu1
I0301 00:14:30.095823 19505 net.cpp:395] relu1 <- conv1
I0301 00:14:30.095840 19505 net.cpp:346] relu1 -> conv1 (in-place)
I0301 00:14:30.095861 19505 net.cpp:97] Setting up relu1
I0301 00:14:30.095885 19505 net.cpp:104] Top shape: 128 256 47 47 (72384512)
I0301 00:14:30.095899 19505 layer_factory.hpp:78] Creating layer cccp1
I0301 00:14:30.095921 19505 net.cpp:68] Creating Layer cccp1
I0301 00:14:30.095933 19505 net.cpp:395] cccp1 <- conv1
I0301 00:14:30.095948 19505 net.cpp:357] cccp1 -> cccp1
I0301 00:14:30.095967 19505 net.cpp:97] Setting up cccp1
I0301 00:14:30.098789 19505 net.cpp:104] Top shape: 128 256 47 47 (72384512)
I0301 00:14:30.098819 19505 layer_factory.hpp:78] Creating layer relu_cccp1
I0301 00:14:30.098840 19505 net.cpp:68] Creating Layer relu_cccp1
I0301 00:14:30.098855 19505 net.cpp:395] relu_cccp1 <- cccp1
I0301 00:14:30.098870 19505 net.cpp:346] relu_cccp1 -> cccp1 (in-place)
I0301 00:14:30.098886 19505 net.cpp:97] Setting up relu_cccp1
I0301 00:14:30.098901 19505 net.cpp:104] Top shape: 128 256 47 47 (72384512)
I0301 00:14:30.098914 19505 layer_factory.hpp:78] Creating layer pool1
I0301 00:14:30.098932 19505 net.cpp:68] Creating Layer pool1
I0301 00:14:30.098945 19505 net.cpp:395] pool1 <- cccp1
I0301 00:14:30.098960 19505 net.cpp:357] pool1 -> pool1
I0301 00:14:30.098975 19505 net.cpp:97] Setting up pool1
I0301 00:14:30.099015 19505 net.cpp:104] Top shape: 128 256 23 23 (17334272)
I0301 00:14:30.099030 19505 layer_factory.hpp:78] Creating layer conv2
I0301 00:14:30.099134 19505 net.cpp:68] Creating Layer conv2
I0301 00:14:30.099189 19505 net.cpp:395] conv2 <- pool1
I0301 00:14:30.099225 19505 net.cpp:357] conv2 -> conv2
I0301 00:14:30.099262 19505 net.cpp:97] Setting up conv2
I0301 00:14:30.117936 19505 net.cpp:104] Top shape: 128 128 21 21 (7225344)
I0301 00:14:30.117976 19505 layer_factory.hpp:78] Creating layer relu2
I0301 00:14:30.118021 19505 net.cpp:68] Creating Layer relu2
I0301 00:14:30.118036 19505 net.cpp:395] relu2 <- conv2
I0301 00:14:30.118055 19505 net.cpp:346] relu2 -> conv2 (in-place)
I0301 00:14:30.118072 19505 net.cpp:97] Setting up relu2
I0301 00:14:30.118088 19505 net.cpp:104] Top shape: 128 128 21 21 (7225344)
I0301 00:14:30.118100 19505 layer_factory.hpp:78] Creating layer conv3
I0301 00:14:30.118118 19505 net.cpp:68] Creating Layer conv3
I0301 00:14:30.118130 19505 net.cpp:395] conv3 <- conv2
I0301 00:14:30.118149 19505 net.cpp:357] conv3 -> conv3
I0301 00:14:30.118165 19505 net.cpp:97] Setting up conv3
I0301 00:14:30.124351 19505 net.cpp:104] Top shape: 128 128 19 19 (5914624)
I0301 00:14:30.124375 19505 layer_factory.hpp:78] Creating layer relu3
I0301 00:14:30.124394 19505 net.cpp:68] Creating Layer relu3
I0301 00:14:30.124408 19505 net.cpp:395] relu3 <- conv3
I0301 00:14:30.124421 19505 net.cpp:346] relu3 -> conv3 (in-place)
I0301 00:14:30.124436 19505 net.cpp:97] Setting up relu3
I0301 00:14:30.124451 19505 net.cpp:104] Top shape: 128 128 19 19 (5914624)
I0301 00:14:30.124464 19505 layer_factory.hpp:78] Creating layer pool3
I0301 00:14:30.124477 19505 net.cpp:68] Creating Layer pool3
I0301 00:14:30.124490 19505 net.cpp:395] pool3 <- conv3
I0301 00:14:30.124507 19505 net.cpp:357] pool3 -> pool3
I0301 00:14:30.124524 19505 net.cpp:97] Setting up pool3
I0301 00:14:30.124543 19505 net.cpp:104] Top shape: 128 128 9 9 (1327104)
I0301 00:14:30.124555 19505 layer_factory.hpp:78] Creating layer fc4
I0301 00:14:30.124573 19505 net.cpp:68] Creating Layer fc4
I0301 00:14:30.124586 19505 net.cpp:395] fc4 <- pool3
I0301 00:14:30.124604 19505 net.cpp:357] fc4 -> fc4
I0301 00:14:30.124622 19505 net.cpp:97] Setting up fc4
I0301 00:14:30.347875 19505 net.cpp:104] Top shape: 128 512 1 1 (65536)
I0301 00:14:30.347975 19505 layer_factory.hpp:78] Creating layer relu4
I0301 00:14:30.348001 19505 net.cpp:68] Creating Layer relu4
I0301 00:14:30.348017 19505 net.cpp:395] relu4 <- fc4
I0301 00:14:30.348037 19505 net.cpp:346] relu4 -> fc4 (in-place)
I0301 00:14:30.348065 19505 net.cpp:97] Setting up relu4
I0301 00:14:30.348104 19505 net.cpp:104] Top shape: 128 512 1 1 (65536)
I0301 00:14:30.348116 19505 layer_factory.hpp:78] Creating layer drop4
I0301 00:14:30.348136 19505 net.cpp:68] Creating Layer drop4
I0301 00:14:30.348156 19505 net.cpp:395] drop4 <- fc4
I0301 00:14:30.348173 19505 net.cpp:346] drop4 -> fc4 (in-place)
I0301 00:14:30.348188 19505 net.cpp:97] Setting up drop4
I0301 00:14:30.348212 19505 net.cpp:104] Top shape: 128 512 1 1 (65536)
I0301 00:14:30.348224 19505 layer_factory.hpp:78] Creating layer fc5
I0301 00:14:30.348242 19505 net.cpp:68] Creating Layer fc5
I0301 00:14:30.348253 19505 net.cpp:395] fc5 <- fc4
I0301 00:14:30.348271 19505 net.cpp:357] fc5 -> fc5
I0301 00:14:30.348290 19505 net.cpp:97] Setting up fc5
I0301 00:14:30.359040 19505 net.cpp:104] Top shape: 128 512 1 1 (65536)
I0301 00:14:30.359066 19505 layer_factory.hpp:78] Creating layer relu5
I0301 00:14:30.359083 19505 net.cpp:68] Creating Layer relu5
I0301 00:14:30.359097 19505 net.cpp:395] relu5 <- fc5
I0301 00:14:30.359112 19505 net.cpp:346] relu5 -> fc5 (in-place)
I0301 00:14:30.359127 19505 net.cpp:97] Setting up relu5
I0301 00:14:30.359143 19505 net.cpp:104] Top shape: 128 512 1 1 (65536)
I0301 00:14:30.359155 19505 layer_factory.hpp:78] Creating layer drop5
I0301 00:14:30.359172 19505 net.cpp:68] Creating Layer drop5
I0301 00:14:30.359185 19505 net.cpp:395] drop5 <- fc5
I0301 00:14:30.359201 19505 net.cpp:346] drop5 -> fc5 (in-place)
I0301 00:14:30.359217 19505 net.cpp:97] Setting up drop5
I0301 00:14:30.359230 19505 net.cpp:104] Top shape: 128 512 1 1 (65536)
I0301 00:14:30.359241 19505 layer_factory.hpp:78] Creating layer fc6
I0301 00:14:30.359257 19505 net.cpp:68] Creating Layer fc6
I0301 00:14:30.359269 19505 net.cpp:395] fc6 <- fc5
I0301 00:14:30.359287 19505 net.cpp:357] fc6 -> fc6
I0301 00:14:30.359302 19505 net.cpp:97] Setting up fc6
I0301 00:14:30.361857 19505 net.cpp:104] Top shape: 128 121 1 1 (15488)
I0301 00:14:30.361946 19505 layer_factory.hpp:78] Creating layer loss
I0301 00:14:30.361968 19505 net.cpp:68] Creating Layer loss
I0301 00:14:30.361982 19505 net.cpp:395] loss <- fc6
I0301 00:14:30.361996 19505 net.cpp:395] loss <- label
I0301 00:14:30.362011 19505 net.cpp:357] loss -> loss
I0301 00:14:30.362030 19505 net.cpp:97] Setting up loss
I0301 00:14:30.362046 19505 layer_factory.hpp:78] Creating layer loss
I0301 00:14:30.362113 19505 net.cpp:104] Top shape: 1 1 1 1 (1)
I0301 00:14:30.362130 19505 net.cpp:110]     with loss weight 1
I0301 00:14:30.362193 19505 net.cpp:171] loss needs backward computation.
I0301 00:14:30.362207 19505 net.cpp:171] fc6 needs backward computation.
I0301 00:14:30.362220 19505 net.cpp:171] drop5 needs backward computation.
I0301 00:14:30.362231 19505 net.cpp:171] relu5 needs backward computation.
I0301 00:14:30.362242 19505 net.cpp:171] fc5 needs backward computation.
…
I0301 00:14:30.363150 19505 solver.cpp:154] Creating test net (#0) specified by net file: model/train_val_model3.prototxt
I0301 00:14:30.363210 19505 net.cpp:276] The NetState phase (1) differed from the phase (0) specified by a rule in layer data
I0301 00:14:30.363435 19505 net.cpp:39] Initializing net from parameters: 
name: "model3"
layers {
  top: "data"
  top: "label"
  name: "data"
  type: DATA
  data_param {
    source: "/home/jaehyun/kaggle/nationalDataScienceBowl/data/typeE/val_lmdb"
    batch_size: 128
    backend: LMDB
  }
  include {
    phase: TEST
  }
  transform_param {
    mirror: false
    mean_file: "/home/jaehyun/kaggle/nationalDataScienceBowl/data/typeE/train_mean.binaryproto"
  }
}
layers {
  bottom: "data"
  top: "conv1"
  name: "conv1"
  type: CONVOLUTION
  blobs_lr: 1
  blobs_lr: 2
  weight_decay: 1
  weight_decay: 0
  convolution_param {
    num_output: 256
    kernel_size: 4
    stride: 2
    weight_filler {
      type: "gaussian"
      std: 0.01
    }
    bias_filler {
      type: "constant"
      value: 0
    }
  }
}
layers {
  bottom: "conv1"
  top: "conv1"
  name: "relu1"
  type: RELU
  relu_param {
    negative_slope: 0.1
  }
}
layers {
  bottom: "conv1"
  top: "cccp1"
  name: "cccp1"
  type: CONVOLUTION
  blobs_lr: 1
  blobs_lr: 2
  weight_decay: 1
  weight_decay: 0
  convolution_param {
    num_output: 256
    kernel_size: 1
    group: 1
    stride: 1
    weight_filler {
      type: "gaussian"
      std: 0.01
    }
    bias_filler {
      type: "constant"
      value: 0
    }
  }
}
layers {
  bottom: "cccp1"
  top: "cccp1"
  name: "relu_cccp1"
  type: RELU
  relu_param {
    negative_slope: 0.1
  }
}
layers {
  bottom: "cccp1"
  top: "pool1"
  name: "pool1"
  type: POOLING
  pooling_param {
    pool: MAX
    kernel_size: 3
    stride: 2
  }
}
layers {
  bottom: "pool1"
  top: "conv2"
  name: "conv2"
  type: CONVOLUTION
  blobs_lr: 1
  blobs_lr: 2
  weight_decay: 1
  weight_decay: 0
  convolution_param {
    num_output: 128
    kernel_size: 3
    weight_filler {
      type: "gaussian"
      std: 0.01
    }
    bias_filler {
      type: "constant"
      value: 1
    }
  }
}
layers {
  bottom: "conv2"
  top: "conv2"
  name: "relu2"
  type: RELU
  relu_param {
    negative_slope: 0.1
  }
}
layers {
  bottom: "conv2"
  top: "conv3"
  name: "conv3"
  type: CONVOLUTION
  blobs_lr: 1
  blobs_lr: 2
  weight_decay: 1
  weight_decay: 0
  convolution_param {
    num_output: 128
    kernel_size: 3
    weight_filler {
      type: "gaussian"
      std: 0.01
    }
    bias_filler {
      type: "constant"
      value: 0
    }
  }
}
layers {
  bottom: "conv3"
  top: "conv3"
  name: "relu3"
  type: RELU
  relu_param {
    negative_slope: 0.1
  }
}
layers {
  bottom: "conv3"
  top: "pool3"
  name: "pool3"
  type: POOLING
  pooling_param {
    pool: MAX
    kernel_size: 3
    stride: 2
  }
}
layers {
  bottom: "pool3"
  top: "fc4"
  name: "fc4"
  type: INNER_PRODUCT
  blobs_lr: 1
  blobs_lr: 2
  weight_decay: 1
  weight_decay: 0
  inner_product_param {
    num_output: 512
    weight_filler {
      type: "gaussian"
      std: 0.005
    }
    bias_filler {
      type: "constant"
      value: 1
    }
  }
}
layers {
  bottom: "fc4"
  top: "fc4"
  name: "relu4"
  type: RELU
  relu_param {
    negative_slope: 0.1
  }
}
layers {
  bottom: "fc4"
  top: "fc4"
  name: "drop4"
  type: DROPOUT
  dropout_param {
    dropout_ratio: 0.5
  }
}
layers {
  bottom: "fc4"
  top: "fc5"
  name: "fc5"
  type: INNER_PRODUCT
  blobs_lr: 1
  blobs_lr: 2
  weight_decay: 1
  weight_decay: 0
  inner_product_param {
    num_output: 512
    weight_filler {
      type: "gaussian"
      std: 0.005
    }
    bias_filler {
      type: "constant"
      value: 1
    }
  }
}
layers {
  bottom: "fc5"
  top: "fc5"
  name: "relu5"
  type: RELU
  relu_param {
    negative_slope: 0.1
  }
}
layers {
  bottom: "fc5"
  top: "fc5"
  name: "drop5"
  type: DROPOUT
  dropout_param {
    dropout_ratio: 0.5
  }
}
layers {
  bottom: "fc5"
  top: "fc6"
  name: "fc6"
  type: INNER_PRODUCT
  blobs_lr: 1
  blobs_lr: 2
  weight_decay: 1
  weight_decay: 0
  inner_product_param {
    num_output: 121
    weight_filler {
      type: "gaussian"
      std: 0.01
    }
    bias_filler {
      type: "constant"
      value: 0
    }
  }
}
layers {
  bottom: "fc6"
  top: "prob"
  name: "prob"
  type: SOFTMAX
  include {
    phase: TEST
  }
}
layers {
  bottom: "prob"
  bottom: "label"
  top: "accuracy"
  name: "accuracy"
  type: ACCURACY
  accuracy_param {
    top_k: 1
  }
  include {
    phase: TEST
  }
}
layers {
  bottom: "fc6"
  bottom: "label"
  top: "loss"
  name: "loss"
  type: SOFTMAX_LOSS
}
state {
  phase: TEST
}
I0301 00:14:30.364507 19505 layer_factory.hpp:78] Creating layer data
I0301 00:14:30.364532 19505 data_transformer.cpp:24] Loading mean file from/home/jaehyun/kaggle/nationalDataScienceBowl/data/typeE/train_mean.binaryproto
I0301 00:14:30.364691 19505 net.cpp:68] Creating Layer data
I0301 00:14:30.364711 19505 net.cpp:357] data -> data
I0301 00:14:30.364730 19505 net.cpp:357] data -> label
I0301 00:14:30.364748 19505 net.cpp:97] Setting up data
I0301 00:14:30.364761 19505 data_layer.cpp:34] Opening dataset /home/jaehyun/kaggle/nationalDataScienceBowl/data/typeE/val_lmdb
I0301 00:14:30.364872 19505 data_layer.cpp:73] output data size: 128,1,96,96
I0301 00:14:30.366760 19505 net.cpp:104] Top shape: 128 1 96 96 (1179648)
I0301 00:14:30.366799 19505 net.cpp:104] Top shape: 128 1 1 1 (128)
I0301 00:14:30.366813 19505 layer_factory.hpp:78] Creating layer label_data_1_split
I0301 00:14:30.366844 19505 net.cpp:68] Creating Layer label_data_1_split
I0301 00:14:30.366859 19505 net.cpp:395] label_data_1_split <- label
I0301 00:14:30.366876 19505 net.cpp:357] label_data_1_split -> label_data_1_split_0
I0301 00:14:30.367015 19505 net.cpp:357] label_data_1_split -> label_data_1_split_1
I0301 00:14:30.367030 19505 net.cpp:97] Setting up label_data_1_split
I0301 00:14:30.367102 19505 net.cpp:104] Top shape: 128 1 1 1 (128)
I0301 00:14:30.367125 19505 net.cpp:104] Top shape: 128 1 1 1 (128)
I0301 00:14:30.367133 19505 layer_factory.hpp:78] Creating layer conv1
I0301 00:14:30.367151 19505 net.cpp:68] Creating Layer conv1
I0301 00:14:30.367159 19505 net.cpp:395] conv1 <- data
I0301 00:14:30.367173 19505 net.cpp:357] conv1 -> conv1
I0301 00:14:30.367187 19505 net.cpp:97] Setting up conv1
I0301 00:14:30.367528 19505 net.cpp:104] Top shape: 128 256 47 47 (72384512)
I0301 00:14:30.367550 19505 layer_factory.hpp:78] Creating layer relu1
I0301 00:14:30.367568 19505 net.cpp:68] Creating Layer relu1
I0301 00:14:30.367575 19505 net.cpp:395] relu1 <- conv1
I0301 00:14:30.367586 19505 net.cpp:346] relu1 -> conv1 (in-place)
I0301 00:14:30.367597 19505 net.cpp:97] Setting up relu1
I0301 00:14:30.367609 19505 net.cpp:104] Top shape: 128 256 47 47 (72384512)
I0301 00:14:30.367617 19505 layer_factory.hpp:78] Creating layer cccp1
I0301 00:14:30.367632 19505 net.cpp:68] Creating Layer cccp1
I0301 00:14:30.367640 19505 net.cpp:395] cccp1 <- conv1
I0301 00:14:30.367650 19505 net.cpp:357] cccp1 -> cccp1
I0301 00:14:30.367661 19505 net.cpp:97] Setting up cccp1
I0301 00:14:30.372822 19505 net.cpp:104] Top shape: 128 256 47 47 (72384512)
I0301 00:14:30.372858 19505 layer_factory.hpp:78] Creating layer relu_cccp1
I0301 00:14:30.372875 19505 net.cpp:68] Creating Layer relu_cccp1
I0301 00:14:30.372889 19505 net.cpp:395] relu_cccp1 <- cccp1
I0301 00:14:30.372905 19505 net.cpp:346] relu_cccp1 -> cccp1 (in-place)
I0301 00:14:30.372920 19505 net.cpp:97] Setting up relu_cccp1
I0301 00:14:30.372938 19505 net.cpp:104] Top shape: 128 256 47 47 (72384512)
I0301 00:14:30.372951 19505 layer_factory.hpp:78] Creating layer pool1
I0301 00:14:30.372972 19505 net.cpp:68] Creating Layer pool1
I0301 00:14:30.372985 19505 net.cpp:395] pool1 <- cccp1
I0301 00:14:30.372999 19505 net.cpp:357] pool1 -> pool1
I0301 00:14:30.373015 19505 net.cpp:97] Setting up pool1
I0301 00:14:30.373034 19505 net.cpp:104] Top shape: 128 256 23 23 (17334272)
I0301 00:14:30.373047 19505 layer_factory.hpp:78] Creating layer conv2
I0301 00:14:30.373069 19505 net.cpp:68] Creating Layer conv2
I0301 00:14:30.373082 19505 net.cpp:395] conv2 <- pool1
I0301 00:14:30.373097 19505 net.cpp:357] conv2 -> conv2
I0301 00:14:30.373114 19505 net.cpp:97] Setting up conv2
I0301 00:14:30.389677 19505 net.cpp:104] Top shape: 128 128 21 21 (7225344)
I0301 00:14:30.389714 19505 layer_factory.hpp:78] Creating layer relu2
I0301 00:14:30.389732 19505 net.cpp:68] Creating Layer relu2
I0301 00:14:30.389746 19505 net.cpp:395] relu2 <- conv2
I0301 00:14:30.389763 19505 net.cpp:346] relu2 -> conv2 (in-place)
I0301 00:14:30.389780 19505 net.cpp:97] Setting up relu2
I0301 00:14:30.389796 19505 net.cpp:104] Top shape: 128 128 21 21 (7225344)
I0301 00:14:30.389807 19505 layer_factory.hpp:78] Creating layer conv3
I0301 00:14:30.389824 19505 net.cpp:68] Creating Layer conv3
I0301 00:14:30.389837 19505 net.cpp:395] conv3 <- conv2
I0301 00:14:30.389854 19505 net.cpp:357] conv3 -> conv3
I0301 00:14:30.389873 19505 net.cpp:97] Setting up conv3
I0301 00:14:30.396049 19505 net.cpp:104] Top shape: 128 128 19 19 (5914624)
I0301 00:14:30.396083 19505 layer_factory.hpp:78] Creating layer relu3
I0301 00:14:30.396105 19505 net.cpp:68] Creating Layer relu3
I0301 00:14:30.396118 19505 net.cpp:395] relu3 <- conv3
I0301 00:14:30.396134 19505 net.cpp:346] relu3 -> conv3 (in-place)
I0301 00:14:30.396152 19505 net.cpp:97] Setting up relu3
I0301 00:14:30.396168 19505 net.cpp:104] Top shape: 128 128 19 19 (5914624)
I0301 00:14:30.396181 19505 layer_factory.hpp:78] Creating layer pool3
I0301 00:14:30.396200 19505 net.cpp:68] Creating Layer pool3
I0301 00:14:30.396214 19505 net.cpp:395] pool3 <- conv3
I0301 00:14:30.396227 19505 net.cpp:357] pool3 -> pool3
I0301 00:14:30.396242 19505 net.cpp:97] Setting up pool3
I0301 00:14:30.396258 19505 net.cpp:104] Top shape: 128 128 9 9 (1327104)
I0301 00:14:30.396271 19505 layer_factory.hpp:78] Creating layer fc4
I0301 00:14:30.396288 19505 net.cpp:68] Creating Layer fc4
I0301 00:14:30.396335 19505 net.cpp:395] fc4 <- pool3
I0301 00:14:30.396355 19505 net.cpp:357] fc4 -> fc4
I0301 00:14:30.396373 19505 net.cpp:97] Setting up fc4
I0301 00:14:30.612972 19505 net.cpp:104] Top shape: 128 512 1 1 (65536)
I0301 00:14:30.613042 19505 layer_factory.hpp:78] Creating layer relu4
I0301 00:14:30.613067 19505 net.cpp:68] Creating Layer relu4
I0301 00:14:30.613085 19505 net.cpp:395] relu4 <- fc4
I0301 00:14:30.613103 19505 net.cpp:346] relu4 -> fc4 (in-place)
I0301 00:14:30.613121 19505 net.cpp:97] Setting up relu4
I0301 00:14:30.613148 19505 net.cpp:104] Top shape: 128 512 1 1 (65536)
I0301 00:14:30.613162 19505 layer_factory.hpp:78] Creating layer drop4
I0301 00:14:30.613180 19505 net.cpp:68] Creating Layer drop4
I0301 00:14:30.613193 19505 net.cpp:395] drop4 <- fc4
I0301 00:14:30.613207 19505 net.cpp:346] drop4 -> fc4 (in-place)
I0301 00:14:30.613222 19505 net.cpp:97] Setting up drop4
I0301 00:14:30.613235 19505 net.cpp:104] Top shape: 128 512 1 1 (65536)
I0301 00:14:30.613247 19505 layer_factory.hpp:78] Creating layer fc5
I0301 00:14:30.613265 19505 net.cpp:68] Creating Layer fc5
I0301 00:14:30.613276 19505 net.cpp:395] fc5 <- fc4
I0301 00:14:30.613294 19505 net.cpp:357] fc5 -> fc5
I0301 00:14:30.613312 19505 net.cpp:97] Setting up fc5
I0301 00:14:30.624227 19505 net.cpp:104] Top shape: 128 512 1 1 (65536)
I0301 00:14:30.624251 19505 layer_factory.hpp:78] Creating layer relu5
I0301 00:14:30.624274 19505 net.cpp:68] Creating Layer relu5
I0301 00:14:30.624289 19505 net.cpp:395] relu5 <- fc5
I0301 00:14:30.624305 19505 net.cpp:346] relu5 -> fc5 (in-place)
I0301 00:14:30.624321 19505 net.cpp:97] Setting up relu5
I0301 00:14:30.624337 19505 net.cpp:104] Top shape: 128 512 1 1 (65536)
I0301 00:14:30.624349 19505 layer_factory.hpp:78] Creating layer drop5
I0301 00:14:30.624364 19505 net.cpp:68] Creating Layer drop5
I0301 00:14:30.624379 19505 net.cpp:395] drop5 <- fc5
I0301 00:14:30.624394 19505 net.cpp:346] drop5 -> fc5 (in-place)
I0301 00:14:30.624409 19505 net.cpp:97] Setting up drop5
I0301 00:14:30.624421 19505 net.cpp:104] Top shape: 128 512 1 1 (65536)
I0301 00:14:30.624433 19505 layer_factory.hpp:78] Creating layer fc6
I0301 00:14:30.624449 19505 net.cpp:68] Creating Layer fc6
I0301 00:14:30.624461 19505 net.cpp:395] fc6 <- fc5
I0301 00:14:30.624480 19505 net.cpp:357] fc6 -> fc6
I0301 00:14:30.624496 19505 net.cpp:97] Setting up fc6
I0301 00:14:30.627073 19505 net.cpp:104] Top shape: 128 121 1 1 (15488)
I0301 00:14:30.627097 19505 layer_factory.hpp:78] Creating layer fc6_fc6_0_split
I0301 00:14:30.627117 19505 net.cpp:68] Creating Layer fc6_fc6_0_split
I0301 00:14:30.627131 19505 net.cpp:395] fc6_fc6_0_split <- fc6
I0301 00:14:30.627146 19505 net.cpp:357] fc6_fc6_0_split -> fc6_fc6_0_split_0
I0301 00:14:30.627168 19505 net.cpp:357] fc6_fc6_0_split -> fc6_fc6_0_split_1
I0301 00:14:30.627184 19505 net.cpp:97] Setting up fc6_fc6_0_split
I0301 00:14:30.627198 19505 net.cpp:104] Top shape: 128 121 1 1 (15488)
I0301 00:14:30.627210 19505 net.cpp:104] Top shape: 128 121 1 1 (15488)
I0301 00:14:30.627221 19505 layer_factory.hpp:78] Creating layer prob
I0301 00:14:30.627240 19505 net.cpp:68] Creating Layer prob
I0301 00:14:30.627254 19505 net.cpp:395] prob <- fc6_fc6_0_split_0
I0301 00:14:30.627267 19505 net.cpp:357] prob -> prob
I0301 00:14:30.627284 19505 net.cpp:97] Setting up prob
I0301 00:14:30.627300 19505 net.cpp:104] Top shape: 128 121 1 1 (15488)
I0301 00:14:30.627313 19505 layer_factory.hpp:78] Creating layer accuracy
I0301 00:14:30.627337 19505 net.cpp:68] Creating Layer accuracy
I0301 00:14:30.627351 19505 net.cpp:395] accuracy <- prob
I0301 00:14:30.627363 19505 net.cpp:395] accuracy <- label_data_1_split_0
I0301 00:14:30.627378 19505 net.cpp:357] accuracy -> accuracy
I0301 00:14:30.627398 19505 net.cpp:97] Setting up accuracy
I0301 00:14:30.627415 19505 net.cpp:104] Top shape: 1 1 1 1 (1)
I0301 00:14:30.627429 19505 layer_factory.hpp:78] Creating layer loss
I0301 00:14:30.627444 19505 net.cpp:68] Creating Layer loss
I0301 00:14:30.627455 19505 net.cpp:395] loss <- fc6_fc6_0_split_1
I0301 00:14:30.627516 19505 net.cpp:395] loss <- label_data_1_split_1
I0301 00:14:30.627532 19505 net.cpp:357] loss -> loss
I0301 00:14:30.627549 19505 net.cpp:97] Setting up loss
I0301 00:14:30.627563 19505 layer_factory.hpp:78] Creating layer loss
I0301 00:14:30.627627 19505 net.cpp:104] Top shape: 1 1 1 1 (1)
I0301 00:14:30.627643 19505 net.cpp:110]     with loss weight 1
I0301 00:14:30.627668 19505 net.cpp:171] loss needs backward computation.
I0301 00:14:30.627681 19505 net.cpp:173] accuracy does not need backward computation.
I0301 00:14:30.627692 19505 net.cpp:173] prob does not need backward computation.
I0301 00:14:30.627703 19505 net.cpp:171] fc6_fc6_0_split needs backward computation.
…
