…
E0303 08:49:14.133513 30962 upgrade_proto.cpp:624] Note that future Caffe releases will only support transform_param messages for transformation fields.
I0303 08:49:14.133862 30962 net.cpp:39] Initializing net from parameters: 
name: "model5_bn"
layers {
  top: "data"
  top: "label"
  name: "data"
  type: DATA
  data_param {
    source: "/home/jaehyun/kaggle/nationalDataScienceBowl/data/typeE/train_lmdb"
    batch_size: 128
    backend: LMDB
    shuffle: true
  }
  transform_param {
    scale: 0.00390625
    mirror: true
    mean_file: "/home/jaehyun/kaggle/nationalDataScienceBowl/data/typeE/train_mean.binaryproto"
  }
}
layers {
  bottom: "data"
  top: "conv1"
  name: "conv1"
  type: CONVOLUTION
  blobs_lr: 1
  blobs_lr: 2
  weight_decay: 1
  weight_decay: 0
  convolution_param {
    num_output: 256
    kernel_size: 4
    stride: 2
    weight_filler {
      type: "xavier"
    }
    bias_filler {
      type: "constant"
    }
  }
}
layers {
  bottom: "conv1"
  top: "conv1_bn"
  name: "conv1_bn"
  type: BN
  blobs_lr: 1
  blobs_lr: 1
  weight_decay: 0
  weight_decay: 0
  bn_param {
    scale_filler {
      type: "constant"
      value: 1
    }
    shift_filler {
      type: "constant"
      value: 0
    }
  }
}
layers {
  bottom: "conv1_bn"
  top: "conv1_bn"
  name: "relu1"
  type: RELU
  relu_param {
    negative_slope: 0.1
  }
}
layers {
  bottom: "conv1_bn"
  top: "cccp1"
  name: "cccp1"
  type: CONVOLUTION
  blobs_lr: 1
  blobs_lr: 2
  weight_decay: 1
  weight_decay: 0
  convolution_param {
    num_output: 256
    kernel_size: 1
    group: 1
    stride: 1
    weight_filler {
      type: "xavier"
    }
    bias_filler {
      type: "constant"
    }
  }
}
layers {
  bottom: "cccp1"
  top: "cccp1_bn"
  name: "cccp1_bn"
  type: BN
  blobs_lr: 1
  blobs_lr: 1
  weight_decay: 0
  weight_decay: 0
  bn_param {
    scale_filler {
      type: "constant"
      value: 1
    }
    shift_filler {
      type: "constant"
      value: 0
    }
  }
}
layers {
  bottom: "cccp1_bn"
  top: "cccp1_bn"
  name: "relu_cccp1"
  type: RELU
  relu_param {
    negative_slope: 0.1
  }
}
layers {
  bottom: "cccp1_bn"
  top: "pool1"
  name: "pool1"
  type: POOLING
  pooling_param {
    pool: MAX
    kernel_size: 3
    stride: 2
  }
}
layers {
  bottom: "pool1"
  top: "conv2"
  name: "conv2"
  type: CONVOLUTION
  blobs_lr: 1
  blobs_lr: 2
  weight_decay: 1
  weight_decay: 0
  convolution_param {
    num_output: 256
    kernel_size: 3
    weight_filler {
      type: "xavier"
    }
    bias_filler {
      type: "constant"
    }
  }
}
layers {
  bottom: "conv2"
  top: "conv2_bn"
  name: "conv2_bn"
  type: BN
  blobs_lr: 1
  blobs_lr: 1
  weight_decay: 0
  weight_decay: 0
  bn_param {
    scale_filler {
      type: "constant"
      value: 1
    }
    shift_filler {
      type: "constant"
      value: 0
    }
  }
}
layers {
  bottom: "conv2_bn"
  top: "conv2_bn"
  name: "relu2"
  type: RELU
  relu_param {
    negative_slope: 0.1
  }
}
layers {
  bottom: "conv2_bn"
  top: "cccp2"
  name: "cccp2"
  type: CONVOLUTION
  blobs_lr: 1
  blobs_lr: 2
  weight_decay: 1
  weight_decay: 0
  convolution_param {
    num_output: 256
    kernel_size: 1
    group: 1
    stride: 1
    weight_filler {
      type: "xavier"
    }
    bias_filler {
      type: "constant"
    }
  }
}
layers {
  bottom: "cccp2"
  top: "cccp2_bn"
  name: "cccp2_bn"
  type: BN
  blobs_lr: 1
  blobs_lr: 1
  weight_decay: 0
  weight_decay: 0
  bn_param {
    scale_filler {
      type: "constant"
      value: 1
    }
    shift_filler {
      type: "constant"
      value: 0
    }
  }
}
layers {
  bottom: "cccp2_bn"
  top: "cccp2_bn"
  name: "relu_cccp2"
  type: RELU
  relu_param {
    negative_slope: 0.1
  }
}
layers {
  bottom: "cccp2_bn"
  top: "conv3"
  name: "conv3"
  type: CONVOLUTION
  blobs_lr: 1
  blobs_lr: 2
  weight_decay: 1
  weight_decay: 0
  convolution_param {
    num_output: 256
    kernel_size: 3
    weight_filler {
      type: "xavier"
    }
    bias_filler {
      type: "constant"
    }
  }
}
layers {
  bottom: "conv3"
  top: "conv3_bn"
  name: "conv3_bn"
  type: BN
  blobs_lr: 1
  blobs_lr: 1
  weight_decay: 0
  weight_decay: 0
  bn_param {
    scale_filler {
      type: "constant"
      value: 1
    }
    shift_filler {
      type: "constant"
      value: 0
    }
  }
}
layers {
  bottom: "conv3_bn"
  top: "conv3_bn"
  name: "relu3"
  type: RELU
  relu_param {
    negative_slope: 0.1
  }
}
layers {
  bottom: "conv3_bn"
  top: "cccp3"
  name: "cccp3"
  type: CONVOLUTION
  blobs_lr: 1
  blobs_lr: 2
  weight_decay: 1
  weight_decay: 0
  convolution_param {
    num_output: 256
    kernel_size: 1
    group: 1
    stride: 1
    weight_filler {
      type: "xavier"
    }
    bias_filler {
      type: "constant"
    }
  }
}
layers {
  bottom: "cccp3"
  top: "cccp3_bn"
  name: "cccp3_bn"
  type: BN
  blobs_lr: 1
  blobs_lr: 1
  weight_decay: 0
  weight_decay: 0
  bn_param {
    scale_filler {
      type: "constant"
      value: 1
    }
    shift_filler {
      type: "constant"
      value: 0
    }
  }
}
layers {
  bottom: "cccp3_bn"
  top: "cccp3_bn"
  name: "relu_cccp3"
  type: RELU
  relu_param {
    negative_slope: 0.1
  }
}
layers {
  bottom: "cccp3_bn"
  top: "pool3"
  name: "pool3"
  type: POOLING
  pooling_param {
    pool: MAX
    kernel_size: 3
    stride: 2
  }
}
layers {
  bottom: "pool3"
  top: "fc4"
  name: "fc4"
  type: INNER_PRODUCT
  blobs_lr: 1
  blobs_lr: 2
  weight_decay: 1
  weight_decay: 0
  inner_product_param {
    num_output: 512
    weight_filler {
      type: "xavier"
    }
    bias_filler {
      type: "constant"
    }
  }
}
layers {
  bottom: "fc4"
  top: "fc4"
  name: "relu4"
  type: RELU
  relu_param {
    negative_slope: 0.1
  }
}
layers {
  bottom: "fc4"
  top: "fc4"
  name: "drop4"
  type: DROPOUT
  dropout_param {
    dropout_ratio: 0.5
  }
}
layers {
  bottom: "fc4"
  top: "fc5"
  name: "fc5"
  type: INNER_PRODUCT
  blobs_lr: 1
  blobs_lr: 2
  weight_decay: 1
  weight_decay: 0
  inner_product_param {
    num_output: 512
    weight_filler {
      type: "xavier"
    }
    bias_filler {
      type: "constant"
    }
  }
}
layers {
  bottom: "fc5"
  top: "fc5"
  name: "relu5"
  type: RELU
  relu_param {
    negative_slope: 0.1
  }
}
layers {
  bottom: "fc5"
  top: "fc5"
  name: "drop5"
  type: DROPOUT
  dropout_param {
    dropout_ratio: 0.5
  }
}
layers {
  bottom: "fc5"
  top: "fc6"
  name: "fc6"
  type: INNER_PRODUCT
  blobs_lr: 1
  blobs_lr: 2
  weight_decay: 1
  weight_decay: 0
  inner_product_param {
    num_output: 121
    weight_filler {
      type: "xavier"
    }
    bias_filler {
      type: "constant"
    }
  }
}
layers {
  bottom: "fc6"
  bottom: "label"
  top: "loss"
  name: "loss"
  type: SOFTMAX_LOSS
}
state {
  phase: TRAIN
}
I0303 08:49:14.135334 30962 layer_factory.hpp:78] Creating layer data
I0303 08:49:14.135363 30962 data_transformer.cpp:24] Loading mean file from/home/jaehyun/kaggle/nationalDataScienceBowl/data/typeE/train_mean.binaryproto
I0303 08:49:14.135571 30962 net.cpp:68] Creating Layer data
I0303 08:49:14.135594 30962 net.cpp:357] data -> data
I0303 08:49:14.135622 30962 net.cpp:357] data -> label
I0303 08:49:14.135643 30962 net.cpp:97] Setting up data
I0303 08:49:14.135663 30962 data_layer.cpp:34] Opening dataset /home/jaehyun/kaggle/nationalDataScienceBowl/data/typeE/train_lmdb
I0303 08:49:14.135835 30962 data_layer.cpp:73] output data size: 128,1,96,96
I0303 08:49:14.138711 30962 net.cpp:104] Top shape: 128 1 96 96 (1179648)
I0303 08:49:14.138738 30962 net.cpp:104] Top shape: 128 1 1 1 (128)
I0303 08:49:14.138751 30962 layer_factory.hpp:78] Creating layer conv1
I0303 08:49:14.138770 30962 net.cpp:68] Creating Layer conv1
I0303 08:49:14.138783 30962 net.cpp:395] conv1 <- data
I0303 08:49:14.138882 30962 net.cpp:357] conv1 -> conv1
I0303 08:49:14.138955 30962 net.cpp:97] Setting up conv1
I0303 08:49:14.172348 30962 net.cpp:104] Top shape: 128 256 47 47 (72384512)
I0303 08:49:14.172459 30962 layer_factory.hpp:78] Creating layer conv1_bn
I0303 08:49:14.172497 30962 net.cpp:68] Creating Layer conv1_bn
I0303 08:49:14.172515 30962 net.cpp:395] conv1_bn <- conv1
I0303 08:49:14.172534 30962 net.cpp:357] conv1_bn -> conv1_bn
I0303 08:49:14.172559 30962 net.cpp:97] Setting up conv1_bn
I0303 08:49:14.172597 30962 net.cpp:104] Top shape: 128 256 47 47 (72384512)
I0303 08:49:14.172616 30962 layer_factory.hpp:78] Creating layer relu1
I0303 08:49:14.172638 30962 net.cpp:68] Creating Layer relu1
I0303 08:49:14.172652 30962 net.cpp:395] relu1 <- conv1_bn
I0303 08:49:14.172664 30962 net.cpp:346] relu1 -> conv1_bn (in-place)
I0303 08:49:14.172679 30962 net.cpp:97] Setting up relu1
I0303 08:49:14.172701 30962 net.cpp:104] Top shape: 128 256 47 47 (72384512)
I0303 08:49:14.172714 30962 layer_factory.hpp:78] Creating layer cccp1
I0303 08:49:14.172734 30962 net.cpp:68] Creating Layer cccp1
I0303 08:49:14.172747 30962 net.cpp:395] cccp1 <- conv1_bn
I0303 08:49:14.172761 30962 net.cpp:357] cccp1 -> cccp1
I0303 08:49:14.172777 30962 net.cpp:97] Setting up cccp1
I0303 08:49:14.173588 30962 net.cpp:104] Top shape: 128 256 47 47 (72384512)
I0303 08:49:14.173617 30962 layer_factory.hpp:78] Creating layer cccp1_bn
I0303 08:49:14.173634 30962 net.cpp:68] Creating Layer cccp1_bn
I0303 08:49:14.173645 30962 net.cpp:395] cccp1_bn <- cccp1
I0303 08:49:14.173662 30962 net.cpp:357] cccp1_bn -> cccp1_bn
I0303 08:49:14.173678 30962 net.cpp:97] Setting up cccp1_bn
I0303 08:49:14.173710 30962 net.cpp:104] Top shape: 128 256 47 47 (72384512)
I0303 08:49:14.173727 30962 layer_factory.hpp:78] Creating layer relu_cccp1
I0303 08:49:14.173743 30962 net.cpp:68] Creating Layer relu_cccp1
I0303 08:49:14.173753 30962 net.cpp:395] relu_cccp1 <- cccp1_bn
I0303 08:49:14.173766 30962 net.cpp:346] relu_cccp1 -> cccp1_bn (in-place)
I0303 08:49:14.173780 30962 net.cpp:97] Setting up relu_cccp1
I0303 08:49:14.173795 30962 net.cpp:104] Top shape: 128 256 47 47 (72384512)
I0303 08:49:14.173807 30962 layer_factory.hpp:78] Creating layer pool1
I0303 08:49:14.173826 30962 net.cpp:68] Creating Layer pool1
I0303 08:49:14.173838 30962 net.cpp:395] pool1 <- cccp1_bn
I0303 08:49:14.173852 30962 net.cpp:357] pool1 -> pool1
I0303 08:49:14.173869 30962 net.cpp:97] Setting up pool1
I0303 08:49:14.173908 30962 net.cpp:104] Top shape: 128 256 23 23 (17334272)
I0303 08:49:14.173923 30962 layer_factory.hpp:78] Creating layer conv2
I0303 08:49:14.173943 30962 net.cpp:68] Creating Layer conv2
I0303 08:49:14.173954 30962 net.cpp:395] conv2 <- pool1
I0303 08:49:14.173969 30962 net.cpp:357] conv2 -> conv2
I0303 08:49:14.173984 30962 net.cpp:97] Setting up conv2
I0303 08:49:14.180100 30962 net.cpp:104] Top shape: 128 256 21 21 (14450688)
I0303 08:49:14.180137 30962 layer_factory.hpp:78] Creating layer conv2_bn
I0303 08:49:14.180155 30962 net.cpp:68] Creating Layer conv2_bn
I0303 08:49:14.180168 30962 net.cpp:395] conv2_bn <- conv2
I0303 08:49:14.180186 30962 net.cpp:357] conv2_bn -> conv2_bn
I0303 08:49:14.180207 30962 net.cpp:97] Setting up conv2_bn
I0303 08:49:14.180233 30962 net.cpp:104] Top shape: 128 256 21 21 (14450688)
I0303 08:49:14.180248 30962 layer_factory.hpp:78] Creating layer relu2
I0303 08:49:14.180263 30962 net.cpp:68] Creating Layer relu2
I0303 08:49:14.180274 30962 net.cpp:395] relu2 <- conv2_bn
I0303 08:49:14.180286 30962 net.cpp:346] relu2 -> conv2_bn (in-place)
I0303 08:49:14.180300 30962 net.cpp:97] Setting up relu2
I0303 08:49:14.180315 30962 net.cpp:104] Top shape: 128 256 21 21 (14450688)
I0303 08:49:14.180327 30962 layer_factory.hpp:78] Creating layer cccp2
I0303 08:49:14.180412 30962 net.cpp:68] Creating Layer cccp2
I0303 08:49:14.180425 30962 net.cpp:395] cccp2 <- conv2_bn
I0303 08:49:14.180439 30962 net.cpp:357] cccp2 -> cccp2
I0303 08:49:14.180455 30962 net.cpp:97] Setting up cccp2
I0303 08:49:14.181198 30962 net.cpp:104] Top shape: 128 256 21 21 (14450688)
I0303 08:49:14.181223 30962 layer_factory.hpp:78] Creating layer cccp2_bn
I0303 08:49:14.181241 30962 net.cpp:68] Creating Layer cccp2_bn
I0303 08:49:14.181254 30962 net.cpp:395] cccp2_bn <- cccp2
I0303 08:49:14.181270 30962 net.cpp:357] cccp2_bn -> cccp2_bn
I0303 08:49:14.181287 30962 net.cpp:97] Setting up cccp2_bn
I0303 08:49:14.181311 30962 net.cpp:104] Top shape: 128 256 21 21 (14450688)
I0303 08:49:14.181326 30962 layer_factory.hpp:78] Creating layer relu_cccp2
I0303 08:49:14.181340 30962 net.cpp:68] Creating Layer relu_cccp2
I0303 08:49:14.181351 30962 net.cpp:395] relu_cccp2 <- cccp2_bn
I0303 08:49:14.181366 30962 net.cpp:346] relu_cccp2 -> cccp2_bn (in-place)
I0303 08:49:14.181381 30962 net.cpp:97] Setting up relu_cccp2
I0303 08:49:14.181396 30962 net.cpp:104] Top shape: 128 256 21 21 (14450688)
I0303 08:49:14.181408 30962 layer_factory.hpp:78] Creating layer conv3
I0303 08:49:14.181422 30962 net.cpp:68] Creating Layer conv3
I0303 08:49:14.181433 30962 net.cpp:395] conv3 <- cccp2_bn
I0303 08:49:14.181447 30962 net.cpp:357] conv3 -> conv3
I0303 08:49:14.181462 30962 net.cpp:97] Setting up conv3
I0303 08:49:14.187170 30962 net.cpp:104] Top shape: 128 256 19 19 (11829248)
I0303 08:49:14.187207 30962 layer_factory.hpp:78] Creating layer conv3_bn
I0303 08:49:14.187227 30962 net.cpp:68] Creating Layer conv3_bn
I0303 08:49:14.187240 30962 net.cpp:395] conv3_bn <- conv3
I0303 08:49:14.187255 30962 net.cpp:357] conv3_bn -> conv3_bn
I0303 08:49:14.187273 30962 net.cpp:97] Setting up conv3_bn
I0303 08:49:14.187295 30962 net.cpp:104] Top shape: 128 256 19 19 (11829248)
I0303 08:49:14.187310 30962 layer_factory.hpp:78] Creating layer relu3
I0303 08:49:14.187330 30962 net.cpp:68] Creating Layer relu3
I0303 08:49:14.187342 30962 net.cpp:395] relu3 <- conv3_bn
I0303 08:49:14.187355 30962 net.cpp:346] relu3 -> conv3_bn (in-place)
I0303 08:49:14.187368 30962 net.cpp:97] Setting up relu3
I0303 08:49:14.187383 30962 net.cpp:104] Top shape: 128 256 19 19 (11829248)
I0303 08:49:14.187396 30962 layer_factory.hpp:78] Creating layer cccp3
I0303 08:49:14.187410 30962 net.cpp:68] Creating Layer cccp3
I0303 08:49:14.187422 30962 net.cpp:395] cccp3 <- conv3_bn
I0303 08:49:14.187435 30962 net.cpp:357] cccp3 -> cccp3
I0303 08:49:14.187449 30962 net.cpp:97] Setting up cccp3
I0303 08:49:14.188477 30962 net.cpp:104] Top shape: 128 256 19 19 (11829248)
I0303 08:49:14.188503 30962 layer_factory.hpp:78] Creating layer cccp3_bn
I0303 08:49:14.188523 30962 net.cpp:68] Creating Layer cccp3_bn
I0303 08:49:14.188534 30962 net.cpp:395] cccp3_bn <- cccp3
I0303 08:49:14.188549 30962 net.cpp:357] cccp3_bn -> cccp3_bn
I0303 08:49:14.188565 30962 net.cpp:97] Setting up cccp3_bn
I0303 08:49:14.188591 30962 net.cpp:104] Top shape: 128 256 19 19 (11829248)
I0303 08:49:14.188606 30962 layer_factory.hpp:78] Creating layer relu_cccp3
I0303 08:49:14.188619 30962 net.cpp:68] Creating Layer relu_cccp3
I0303 08:49:14.188630 30962 net.cpp:395] relu_cccp3 <- cccp3_bn
I0303 08:49:14.188645 30962 net.cpp:346] relu_cccp3 -> cccp3_bn (in-place)
I0303 08:49:14.188660 30962 net.cpp:97] Setting up relu_cccp3
I0303 08:49:14.188675 30962 net.cpp:104] Top shape: 128 256 19 19 (11829248)
I0303 08:49:14.188688 30962 layer_factory.hpp:78] Creating layer pool3
I0303 08:49:14.188702 30962 net.cpp:68] Creating Layer pool3
I0303 08:49:14.188714 30962 net.cpp:395] pool3 <- cccp3_bn
I0303 08:49:14.188730 30962 net.cpp:357] pool3 -> pool3
I0303 08:49:14.188745 30962 net.cpp:97] Setting up pool3
I0303 08:49:14.188766 30962 net.cpp:104] Top shape: 128 256 9 9 (2654208)
I0303 08:49:14.188777 30962 layer_factory.hpp:78] Creating layer fc4
I0303 08:49:14.188799 30962 net.cpp:68] Creating Layer fc4
I0303 08:49:14.188812 30962 net.cpp:395] fc4 <- pool3
I0303 08:49:14.188827 30962 net.cpp:357] fc4 -> fc4
I0303 08:49:14.188880 30962 net.cpp:97] Setting up fc4
I0303 08:49:14.289981 30962 net.cpp:104] Top shape: 128 512 1 1 (65536)
I0303 08:49:14.290055 30962 layer_factory.hpp:78] Creating layer relu4
I0303 08:49:14.290081 30962 net.cpp:68] Creating Layer relu4
I0303 08:49:14.290097 30962 net.cpp:395] relu4 <- fc4
I0303 08:49:14.290117 30962 net.cpp:346] relu4 -> fc4 (in-place)
I0303 08:49:14.290138 30962 net.cpp:97] Setting up relu4
I0303 08:49:14.290171 30962 net.cpp:104] Top shape: 128 512 1 1 (65536)
I0303 08:49:14.290184 30962 layer_factory.hpp:78] Creating layer drop4
I0303 08:49:14.290202 30962 net.cpp:68] Creating Layer drop4
I0303 08:49:14.290215 30962 net.cpp:395] drop4 <- fc4
I0303 08:49:14.290230 30962 net.cpp:346] drop4 -> fc4 (in-place)
I0303 08:49:14.290246 30962 net.cpp:97] Setting up drop4
I0303 08:49:14.290261 30962 net.cpp:104] Top shape: 128 512 1 1 (65536)
I0303 08:49:14.290273 30962 layer_factory.hpp:78] Creating layer fc5
I0303 08:49:14.290289 30962 net.cpp:68] Creating Layer fc5
I0303 08:49:14.290300 30962 net.cpp:395] fc5 <- fc4
I0303 08:49:14.290315 30962 net.cpp:357] fc5 -> fc5
I0303 08:49:14.290331 30962 net.cpp:97] Setting up fc5
I0303 08:49:14.293043 30962 net.cpp:104] Top shape: 128 512 1 1 (65536)
I0303 08:49:14.293069 30962 layer_factory.hpp:78] Creating layer relu5
I0303 08:49:14.293083 30962 net.cpp:68] Creating Layer relu5
I0303 08:49:14.293095 30962 net.cpp:395] relu5 <- fc5
I0303 08:49:14.293112 30962 net.cpp:346] relu5 -> fc5 (in-place)
I0303 08:49:14.293126 30962 net.cpp:97] Setting up relu5
I0303 08:49:14.293143 30962 net.cpp:104] Top shape: 128 512 1 1 (65536)
I0303 08:49:14.293155 30962 layer_factory.hpp:78] Creating layer drop5
I0303 08:49:14.293169 30962 net.cpp:68] Creating Layer drop5
I0303 08:49:14.293180 30962 net.cpp:395] drop5 <- fc5
I0303 08:49:14.293193 30962 net.cpp:346] drop5 -> fc5 (in-place)
I0303 08:49:14.293206 30962 net.cpp:97] Setting up drop5
I0303 08:49:14.293217 30962 net.cpp:104] Top shape: 128 512 1 1 (65536)
I0303 08:49:14.293229 30962 layer_factory.hpp:78] Creating layer fc6
I0303 08:49:14.293243 30962 net.cpp:68] Creating Layer fc6
I0303 08:49:14.293254 30962 net.cpp:395] fc6 <- fc5
I0303 08:49:14.293268 30962 net.cpp:357] fc6 -> fc6
I0303 08:49:14.293282 30962 net.cpp:97] Setting up fc6
I0303 08:49:14.293923 30962 net.cpp:104] Top shape: 128 121 1 1 (15488)
I0303 08:49:14.293944 30962 layer_factory.hpp:78] Creating layer loss
I0303 08:49:14.293962 30962 net.cpp:68] Creating Layer loss
I0303 08:49:14.293975 30962 net.cpp:395] loss <- fc6
I0303 08:49:14.293987 30962 net.cpp:395] loss <- label
I0303 08:49:14.294004 30962 net.cpp:357] loss -> loss
I0303 08:49:14.294021 30962 net.cpp:97] Setting up loss
I0303 08:49:14.294037 30962 layer_factory.hpp:78] Creating layer loss
I0303 08:49:14.294102 30962 net.cpp:104] Top shape: 1 1 1 1 (1)
I0303 08:49:14.294118 30962 net.cpp:110]     with loss weight 1
I0303 08:49:14.294180 30962 net.cpp:171] loss needs backward computation.
I0303 08:49:14.294194 30962 net.cpp:171] fc6 needs backward computation.
I0303 08:49:14.294205 30962 net.cpp:171] drop5 needs backward computation.
I0303 08:49:14.294215 30962 net.cpp:171] relu5 needs backward computation.
I0303 08:49:14.294226 30962 net.cpp:171] fc5 needs backward computation.
…
