…
  transform_param {
    mirror: true
    mean_file: "/media/data/kaggle/nationalDataScienceBowl/data/typeF/train_mean.binaryproto"
    affine_param {
      x_stretch_unirnd_range: 0.2
      y_stretch_unirnd_range: 0.2
      rotation_unirnd_range: 180
      max_translation: 16
      background_color: 255
    }
  }
  image_data_affine_param {
    source: "/media/data/kaggle/nationalDataScienceBowl/data/typeF/train.txt"
    scale: 0.00390625
    batch_size: 128
    shuffle: true
    new_size: 96
    is_color: false
    root_folder: "/media/data/kaggle/nationalDataScienceBowl/data/typeF/"
  }
}
layers {
  bottom: "data"
  top: "conv1"
  name: "conv1"
  type: CONVOLUTION
  blobs_lr: 1
  blobs_lr: 2
  weight_decay: 1
  weight_decay: 0
  convolution_param {
    num_output: 256
    kernel_size: 4
    stride: 2
    weight_filler {
      type: "xavier"
    }
    bias_filler {
      type: "constant"
    }
  }
}
layers {
  bottom: "conv1"
  top: "conv1_bn"
  name: "conv1_bn"
  type: BN
  blobs_lr: 1
  blobs_lr: 1
  weight_decay: 0
  weight_decay: 0
  bn_param {
    scale_filler {
      type: "constant"
      value: 1
    }
    shift_filler {
      type: "constant"
      value: 0
    }
  }
}
layers {
  bottom: "conv1_bn"
  top: "conv1_bn"
  name: "relu1"
  type: RELU
  relu_param {
    negative_slope: 0.1
  }
}
layers {
  bottom: "conv1_bn"
  top: "cccp1"
  name: "cccp1"
  type: CONVOLUTION
  blobs_lr: 1
  blobs_lr: 2
  weight_decay: 1
  weight_decay: 0
  convolution_param {
    num_output: 256
    kernel_size: 1
    group: 1
    stride: 1
    weight_filler {
      type: "xavier"
    }
    bias_filler {
      type: "constant"
    }
  }
}
layers {
  bottom: "cccp1"
  top: "cccp1_bn"
  name: "cccp1_bn"
  type: BN
  blobs_lr: 1
  blobs_lr: 1
  weight_decay: 0
  weight_decay: 0
  bn_param {
    scale_filler {
      type: "constant"
      value: 1
    }
    shift_filler {
      type: "constant"
      value: 0
    }
  }
}
layers {
  bottom: "cccp1_bn"
  top: "cccp1_bn"
  name: "relu_cccp1"
  type: RELU
  relu_param {
    negative_slope: 0.1
  }
}
layers {
  bottom: "cccp1_bn"
  top: "pool1"
  name: "pool1"
  type: POOLING
  pooling_param {
    pool: MAX
    kernel_size: 3
    stride: 2
  }
}
layers {
  bottom: "pool1"
  top: "conv2"
  name: "conv2"
  type: CONVOLUTION
  blobs_lr: 1
  blobs_lr: 2
  weight_decay: 1
  weight_decay: 0
  convolution_param {
    num_output: 256
    kernel_size: 3
    weight_filler {
      type: "xavier"
    }
    bias_filler {
      type: "constant"
    }
  }
}
layers {
  bottom: "conv2"
  top: "conv2_bn"
  name: "conv2_bn"
  type: BN
  blobs_lr: 1
  blobs_lr: 1
  weight_decay: 0
  weight_decay: 0
  bn_param {
    scale_filler {
      type: "constant"
      value: 1
    }
    shift_filler {
      type: "constant"
      value: 0
    }
  }
}
layers {
  bottom: "conv2_bn"
  top: "conv2_bn"
  name: "relu2"
  type: RELU
  relu_param {
    negative_slope: 0.1
  }
}
layers {
  bottom: "conv2_bn"
  top: "cccp2"
  name: "cccp2"
  type: CONVOLUTION
  blobs_lr: 1
  blobs_lr: 2
  weight_decay: 1
  weight_decay: 0
  convolution_param {
    num_output: 256
    kernel_size: 1
    group: 1
    stride: 1
    weight_filler {
      type: "xavier"
    }
    bias_filler {
      type: "constant"
    }
  }
}
layers {
  bottom: "cccp2"
  top: "cccp2_bn"
  name: "cccp2_bn"
  type: BN
  blobs_lr: 1
  blobs_lr: 1
  weight_decay: 0
  weight_decay: 0
  bn_param {
    scale_filler {
      type: "constant"
      value: 1
    }
    shift_filler {
      type: "constant"
      value: 0
    }
  }
}
layers {
  bottom: "cccp2_bn"
  top: "cccp2_bn"
  name: "relu_cccp2"
  type: RELU
  relu_param {
    negative_slope: 0.1
  }
}
layers {
  bottom: "cccp2_bn"
  top: "conv3"
  name: "conv3"
  type: CONVOLUTION
  blobs_lr: 1
  blobs_lr: 2
  weight_decay: 1
  weight_decay: 0
  convolution_param {
    num_output: 256
    kernel_size: 3
    weight_filler {
      type: "xavier"
    }
    bias_filler {
      type: "constant"
    }
  }
}
layers {
  bottom: "conv3"
  top: "conv3_bn"
  name: "conv3_bn"
  type: BN
  blobs_lr: 1
  blobs_lr: 1
  weight_decay: 0
  weight_decay: 0
  bn_param {
    scale_filler {
      type: "constant"
      value: 1
    }
    shift_filler {
      type: "constant"
      value: 0
    }
  }
}
layers {
  bottom: "conv3_bn"
  top: "conv3_bn"
  name: "relu3"
  type: RELU
  relu_param {
    negative_slope: 0.1
  }
}
layers {
  bottom: "conv3_bn"
  top: "cccp3"
  name: "cccp3"
  type: CONVOLUTION
  blobs_lr: 1
  blobs_lr: 2
  weight_decay: 1
  weight_decay: 0
  convolution_param {
    num_output: 256
    kernel_size: 1
    group: 1
    stride: 1
    weight_filler {
      type: "xavier"
    }
    bias_filler {
      type: "constant"
    }
  }
}
layers {
  bottom: "cccp3"
  top: "cccp3_bn"
  name: "cccp3_bn"
  type: BN
  blobs_lr: 1
  blobs_lr: 1
  weight_decay: 0
  weight_decay: 0
  bn_param {
    scale_filler {
      type: "constant"
      value: 1
    }
    shift_filler {
      type: "constant"
      value: 0
    }
  }
}
layers {
  bottom: "cccp3_bn"
  top: "cccp3_bn"
  name: "relu_cccp3"
  type: RELU
  relu_param {
    negative_slope: 0.1
  }
}
layers {
  bottom: "cccp3_bn"
  top: "pool3"
  name: "pool3"
  type: POOLING
  pooling_param {
    pool: MAX
    kernel_size: 3
    stride: 2
  }
}
layers {
  bottom: "pool3"
  top: "fc4"
  name: "fc4"
  type: INNER_PRODUCT
  blobs_lr: 1
  blobs_lr: 2
  weight_decay: 1
  weight_decay: 0
  inner_product_param {
    num_output: 512
    weight_filler {
      type: "xavier"
    }
    bias_filler {
      type: "constant"
    }
  }
}
layers {
  bottom: "fc4"
  top: "fc4"
  name: "relu4"
  type: RELU
  relu_param {
    negative_slope: 0.1
  }
}
layers {
  bottom: "fc4"
  top: "fc4"
  name: "drop4"
  type: DROPOUT
  dropout_param {
    dropout_ratio: 0.5
  }
}
layers {
  bottom: "fc4"
  top: "fc5"
  name: "fc5"
  type: INNER_PRODUCT
  blobs_lr: 1
  blobs_lr: 2
  weight_decay: 1
  weight_decay: 0
  inner_product_param {
    num_output: 512
    weight_filler {
      type: "xavier"
    }
    bias_filler {
      type: "constant"
    }
  }
}
layers {
  bottom: "fc5"
  top: "fc5"
  name: "relu5"
  type: RELU
  relu_param {
    negative_slope: 0.1
  }
}
layers {
  bottom: "fc5"
  top: "fc5"
  name: "drop5"
  type: DROPOUT
  dropout_param {
    dropout_ratio: 0.5
  }
}
layers {
  bottom: "fc5"
  top: "fc6"
  name: "fc6"
  type: INNER_PRODUCT
  blobs_lr: 1
  blobs_lr: 2
  weight_decay: 1
  weight_decay: 0
  inner_product_param {
    num_output: 121
    weight_filler {
      type: "xavier"
    }
    bias_filler {
      type: "constant"
    }
  }
}
layers {
  bottom: "fc6"
  bottom: "label"
  top: "loss"
  name: "loss"
  type: SOFTMAX_LOSS
}
state {
  phase: TRAIN
}
I0305 18:09:15.908031 11060 layer_factory.hpp:78] Creating layer data
I0305 18:09:15.908073 11060 data_transformer.cpp:24] Loading mean file from/media/data/kaggle/nationalDataScienceBowl/data/typeF/train_mean.binaryproto
I0305 18:09:15.908282 11060 net.cpp:68] Creating Layer data
I0305 18:09:15.908306 11060 net.cpp:357] data -> data
I0305 18:09:15.908340 11060 net.cpp:357] data -> label
I0305 18:09:15.908363 11060 net.cpp:97] Setting up data
I0305 18:09:15.908380 11060 image_data_affine_layer.cpp:36] Opening file /media/data/kaggle/nationalDataScienceBowl/data/typeF/train.txt
I0305 18:09:15.923254 11060 image_data_affine_layer.cpp:46] Shuffling data
I0305 18:09:15.929456 11060 image_data_affine_layer.cpp:51] A total of 27302 images.
I0305 18:09:15.931561 11060 image_data_affine_layer.cpp:80] output data size: 128,1,96,96
I0305 18:09:15.933226 11060 net.cpp:104] Top shape: 128 1 96 96 (1179648)
I0305 18:09:15.933269 11060 net.cpp:104] Top shape: 128 1 1 1 (128)
I0305 18:09:15.933286 11060 layer_factory.hpp:78] Creating layer conv1
I0305 18:09:15.933316 11060 net.cpp:68] Creating Layer conv1
I0305 18:09:15.933331 11060 net.cpp:395] conv1 <- data
I0305 18:09:15.933357 11060 net.cpp:357] conv1 -> conv1
I0305 18:09:15.933382 11060 net.cpp:97] Setting up conv1
I0305 18:09:15.971408 11060 net.cpp:104] Top shape: 128 256 47 47 (72384512)
I0305 18:09:15.971489 11060 layer_factory.hpp:78] Creating layer conv1_bn
I0305 18:09:15.971524 11060 net.cpp:68] Creating Layer conv1_bn
I0305 18:09:15.971539 11060 net.cpp:395] conv1_bn <- conv1
I0305 18:09:15.971555 11060 net.cpp:357] conv1_bn -> conv1_bn
I0305 18:09:15.971578 11060 net.cpp:97] Setting up conv1_bn
I0305 18:09:15.971613 11060 net.cpp:104] Top shape: 128 256 47 47 (72384512)
I0305 18:09:15.971633 11060 layer_factory.hpp:78] Creating layer relu1
I0305 18:09:15.971653 11060 net.cpp:68] Creating Layer relu1
I0305 18:09:15.971665 11060 net.cpp:395] relu1 <- conv1_bn
I0305 18:09:15.971681 11060 net.cpp:346] relu1 -> conv1_bn (in-place)
I0305 18:09:15.971696 11060 net.cpp:97] Setting up relu1
I0305 18:09:15.971716 11060 net.cpp:104] Top shape: 128 256 47 47 (72384512)
I0305 18:09:15.971729 11060 layer_factory.hpp:78] Creating layer cccp1
I0305 18:09:15.971750 11060 net.cpp:68] Creating Layer cccp1
I0305 18:09:15.971760 11060 net.cpp:395] cccp1 <- conv1_bn
I0305 18:09:15.971778 11060 net.cpp:357] cccp1 -> cccp1
I0305 18:09:15.971796 11060 net.cpp:97] Setting up cccp1
I0305 18:09:15.972586 11060 net.cpp:104] Top shape: 128 256 47 47 (72384512)
I0305 18:09:15.972615 11060 layer_factory.hpp:78] Creating layer cccp1_bn
I0305 18:09:15.972632 11060 net.cpp:68] Creating Layer cccp1_bn
I0305 18:09:15.972645 11060 net.cpp:395] cccp1_bn <- cccp1
I0305 18:09:15.972666 11060 net.cpp:357] cccp1_bn -> cccp1_bn
I0305 18:09:15.972683 11060 net.cpp:97] Setting up cccp1_bn
I0305 18:09:15.972738 11060 net.cpp:104] Top shape: 128 256 47 47 (72384512)
I0305 18:09:15.972759 11060 layer_factory.hpp:78] Creating layer relu_cccp1
I0305 18:09:15.972774 11060 net.cpp:68] Creating Layer relu_cccp1
I0305 18:09:15.972786 11060 net.cpp:395] relu_cccp1 <- cccp1_bn
I0305 18:09:15.972800 11060 net.cpp:346] relu_cccp1 -> cccp1_bn (in-place)
I0305 18:09:15.972815 11060 net.cpp:97] Setting up relu_cccp1
I0305 18:09:15.972831 11060 net.cpp:104] Top shape: 128 256 47 47 (72384512)
I0305 18:09:15.972843 11060 layer_factory.hpp:78] Creating layer pool1
I0305 18:09:15.972862 11060 net.cpp:68] Creating Layer pool1
I0305 18:09:15.972873 11060 net.cpp:395] pool1 <- cccp1_bn
I0305 18:09:15.972890 11060 net.cpp:357] pool1 -> pool1
I0305 18:09:15.972906 11060 net.cpp:97] Setting up pool1
I0305 18:09:15.972941 11060 net.cpp:104] Top shape: 128 256 23 23 (17334272)
I0305 18:09:15.972956 11060 layer_factory.hpp:78] Creating layer conv2
I0305 18:09:15.972977 11060 net.cpp:68] Creating Layer conv2
I0305 18:09:15.972990 11060 net.cpp:395] conv2 <- pool1
I0305 18:09:15.973006 11060 net.cpp:357] conv2 -> conv2
I0305 18:09:15.973021 11060 net.cpp:97] Setting up conv2
I0305 18:09:15.979413 11060 net.cpp:104] Top shape: 128 256 21 21 (14450688)
I0305 18:09:15.979446 11060 layer_factory.hpp:78] Creating layer conv2_bn
I0305 18:09:15.979466 11060 net.cpp:68] Creating Layer conv2_bn
I0305 18:09:15.979480 11060 net.cpp:395] conv2_bn <- conv2
I0305 18:09:15.979496 11060 net.cpp:357] conv2_bn -> conv2_bn
I0305 18:09:15.979516 11060 net.cpp:97] Setting up conv2_bn
I0305 18:09:15.979558 11060 net.cpp:104] Top shape: 128 256 21 21 (14450688)
I0305 18:09:15.979578 11060 layer_factory.hpp:78] Creating layer relu2
I0305 18:09:15.979596 11060 net.cpp:68] Creating Layer relu2
I0305 18:09:15.979609 11060 net.cpp:395] relu2 <- conv2_bn
I0305 18:09:15.979622 11060 net.cpp:346] relu2 -> conv2_bn (in-place)
I0305 18:09:15.979637 11060 net.cpp:97] Setting up relu2
I0305 18:09:15.979653 11060 net.cpp:104] Top shape: 128 256 21 21 (14450688)
I0305 18:09:15.979712 11060 layer_factory.hpp:78] Creating layer cccp2
I0305 18:09:15.979732 11060 net.cpp:68] Creating Layer cccp2
I0305 18:09:15.979745 11060 net.cpp:395] cccp2 <- conv2_bn
I0305 18:09:15.979759 11060 net.cpp:357] cccp2 -> cccp2
I0305 18:09:15.979774 11060 net.cpp:97] Setting up cccp2
I0305 18:09:15.980540 11060 net.cpp:104] Top shape: 128 256 21 21 (14450688)
I0305 18:09:15.980567 11060 layer_factory.hpp:78] Creating layer cccp2_bn
I0305 18:09:15.980587 11060 net.cpp:68] Creating Layer cccp2_bn
I0305 18:09:15.980599 11060 net.cpp:395] cccp2_bn <- cccp2
I0305 18:09:15.980619 11060 net.cpp:357] cccp2_bn -> cccp2_bn
I0305 18:09:15.980638 11060 net.cpp:97] Setting up cccp2_bn
I0305 18:09:15.980666 11060 net.cpp:104] Top shape: 128 256 21 21 (14450688)
I0305 18:09:15.980686 11060 layer_factory.hpp:78] Creating layer relu_cccp2
I0305 18:09:15.980701 11060 net.cpp:68] Creating Layer relu_cccp2
I0305 18:09:15.980712 11060 net.cpp:395] relu_cccp2 <- cccp2_bn
I0305 18:09:15.980726 11060 net.cpp:346] relu_cccp2 -> cccp2_bn (in-place)
I0305 18:09:15.980741 11060 net.cpp:97] Setting up relu_cccp2
I0305 18:09:15.980756 11060 net.cpp:104] Top shape: 128 256 21 21 (14450688)
I0305 18:09:15.980768 11060 layer_factory.hpp:78] Creating layer conv3
I0305 18:09:15.980783 11060 net.cpp:68] Creating Layer conv3
I0305 18:09:15.980795 11060 net.cpp:395] conv3 <- cccp2_bn
I0305 18:09:15.980811 11060 net.cpp:357] conv3 -> conv3
I0305 18:09:15.980826 11060 net.cpp:97] Setting up conv3
I0305 18:09:15.986547 11060 net.cpp:104] Top shape: 128 256 19 19 (11829248)
I0305 18:09:15.986584 11060 layer_factory.hpp:78] Creating layer conv3_bn
I0305 18:09:15.986605 11060 net.cpp:68] Creating Layer conv3_bn
I0305 18:09:15.986618 11060 net.cpp:395] conv3_bn <- conv3
I0305 18:09:15.986632 11060 net.cpp:357] conv3_bn -> conv3_bn
I0305 18:09:15.986649 11060 net.cpp:97] Setting up conv3_bn
I0305 18:09:15.986670 11060 net.cpp:104] Top shape: 128 256 19 19 (11829248)
I0305 18:09:15.986686 11060 layer_factory.hpp:78] Creating layer relu3
I0305 18:09:15.986704 11060 net.cpp:68] Creating Layer relu3
I0305 18:09:15.986716 11060 net.cpp:395] relu3 <- conv3_bn
I0305 18:09:15.986731 11060 net.cpp:346] relu3 -> conv3_bn (in-place)
I0305 18:09:15.986744 11060 net.cpp:97] Setting up relu3
I0305 18:09:15.986759 11060 net.cpp:104] Top shape: 128 256 19 19 (11829248)
I0305 18:09:15.986773 11060 layer_factory.hpp:78] Creating layer cccp3
I0305 18:09:15.986788 11060 net.cpp:68] Creating Layer cccp3
I0305 18:09:15.986799 11060 net.cpp:395] cccp3 <- conv3_bn
I0305 18:09:15.986814 11060 net.cpp:357] cccp3 -> cccp3
I0305 18:09:15.986829 11060 net.cpp:97] Setting up cccp3
I0305 18:09:15.987793 11060 net.cpp:104] Top shape: 128 256 19 19 (11829248)
I0305 18:09:15.987821 11060 layer_factory.hpp:78] Creating layer cccp3_bn
I0305 18:09:15.987843 11060 net.cpp:68] Creating Layer cccp3_bn
I0305 18:09:15.987854 11060 net.cpp:395] cccp3_bn <- cccp3
I0305 18:09:15.987869 11060 net.cpp:357] cccp3_bn -> cccp3_bn
I0305 18:09:15.987885 11060 net.cpp:97] Setting up cccp3_bn
I0305 18:09:15.987910 11060 net.cpp:104] Top shape: 128 256 19 19 (11829248)
I0305 18:09:15.987926 11060 layer_factory.hpp:78] Creating layer relu_cccp3
I0305 18:09:15.987947 11060 net.cpp:68] Creating Layer relu_cccp3
I0305 18:09:15.987961 11060 net.cpp:395] relu_cccp3 <- cccp3_bn
I0305 18:09:15.987982 11060 net.cpp:346] relu_cccp3 -> cccp3_bn (in-place)
I0305 18:09:15.987996 11060 net.cpp:97] Setting up relu_cccp3
I0305 18:09:15.988011 11060 net.cpp:104] Top shape: 128 256 19 19 (11829248)
I0305 18:09:15.988024 11060 layer_factory.hpp:78] Creating layer pool3
I0305 18:09:15.988039 11060 net.cpp:68] Creating Layer pool3
I0305 18:09:15.988050 11060 net.cpp:395] pool3 <- cccp3_bn
I0305 18:09:15.988064 11060 net.cpp:357] pool3 -> pool3
I0305 18:09:15.988078 11060 net.cpp:97] Setting up pool3
I0305 18:09:15.988095 11060 net.cpp:104] Top shape: 128 256 9 9 (2654208)
I0305 18:09:15.988108 11060 layer_factory.hpp:78] Creating layer fc4
I0305 18:09:15.988131 11060 net.cpp:68] Creating Layer fc4
I0305 18:09:15.988163 11060 net.cpp:395] fc4 <- pool3
I0305 18:09:15.988183 11060 net.cpp:357] fc4 -> fc4
I0305 18:09:15.988200 11060 net.cpp:97] Setting up fc4
I0305 18:09:16.089579 11060 net.cpp:104] Top shape: 128 512 1 1 (65536)
I0305 18:09:16.089648 11060 layer_factory.hpp:78] Creating layer relu4
I0305 18:09:16.089671 11060 net.cpp:68] Creating Layer relu4
I0305 18:09:16.089687 11060 net.cpp:395] relu4 <- fc4
I0305 18:09:16.089704 11060 net.cpp:346] relu4 -> fc4 (in-place)
I0305 18:09:16.089722 11060 net.cpp:97] Setting up relu4
I0305 18:09:16.089752 11060 net.cpp:104] Top shape: 128 512 1 1 (65536)
I0305 18:09:16.089766 11060 layer_factory.hpp:78] Creating layer drop4
I0305 18:09:16.089782 11060 net.cpp:68] Creating Layer drop4
I0305 18:09:16.089794 11060 net.cpp:395] drop4 <- fc4
I0305 18:09:16.089808 11060 net.cpp:346] drop4 -> fc4 (in-place)
I0305 18:09:16.089823 11060 net.cpp:97] Setting up drop4
I0305 18:09:16.089838 11060 net.cpp:104] Top shape: 128 512 1 1 (65536)
I0305 18:09:16.089849 11060 layer_factory.hpp:78] Creating layer fc5
I0305 18:09:16.089869 11060 net.cpp:68] Creating Layer fc5
I0305 18:09:16.089881 11060 net.cpp:395] fc5 <- fc4
I0305 18:09:16.089895 11060 net.cpp:357] fc5 -> fc5
I0305 18:09:16.089915 11060 net.cpp:97] Setting up fc5
I0305 18:09:16.092674 11060 net.cpp:104] Top shape: 128 512 1 1 (65536)
I0305 18:09:16.092700 11060 layer_factory.hpp:78] Creating layer relu5
I0305 18:09:16.092715 11060 net.cpp:68] Creating Layer relu5
I0305 18:09:16.092726 11060 net.cpp:395] relu5 <- fc5
I0305 18:09:16.092741 11060 net.cpp:346] relu5 -> fc5 (in-place)
I0305 18:09:16.092754 11060 net.cpp:97] Setting up relu5
I0305 18:09:16.092771 11060 net.cpp:104] Top shape: 128 512 1 1 (65536)
I0305 18:09:16.092783 11060 layer_factory.hpp:78] Creating layer drop5
I0305 18:09:16.092797 11060 net.cpp:68] Creating Layer drop5
I0305 18:09:16.092808 11060 net.cpp:395] drop5 <- fc5
I0305 18:09:16.092823 11060 net.cpp:346] drop5 -> fc5 (in-place)
I0305 18:09:16.092835 11060 net.cpp:97] Setting up drop5
I0305 18:09:16.092847 11060 net.cpp:104] Top shape: 128 512 1 1 (65536)
I0305 18:09:16.092859 11060 layer_factory.hpp:78] Creating layer fc6
I0305 18:09:16.092878 11060 net.cpp:68] Creating Layer fc6
I0305 18:09:16.092890 11060 net.cpp:395] fc6 <- fc5
I0305 18:09:16.092903 11060 net.cpp:357] fc6 -> fc6
I0305 18:09:16.092918 11060 net.cpp:97] Setting up fc6
I0305 18:09:16.093569 11060 net.cpp:104] Top shape: 128 121 1 1 (15488)
I0305 18:09:16.093592 11060 layer_factory.hpp:78] Creating layer loss
I0305 18:09:16.093611 11060 net.cpp:68] Creating Layer loss
I0305 18:09:16.093624 11060 net.cpp:395] loss <- fc6
I0305 18:09:16.093637 11060 net.cpp:395] loss <- label
I0305 18:09:16.093654 11060 net.cpp:357] loss -> loss
I0305 18:09:16.093672 11060 net.cpp:97] Setting up loss
I0305 18:09:16.093688 11060 layer_factory.hpp:78] Creating layer loss
I0305 18:09:16.093760 11060 net.cpp:104] Top shape: 1 1 1 1 (1)
I0305 18:09:16.093776 11060 net.cpp:110]     with loss weight 1
I0305 18:09:16.093829 11060 net.cpp:171] loss needs backward computation.
I0305 18:09:16.093842 11060 net.cpp:171] fc6 needs backward computation.
I0305 18:09:16.093854 11060 net.cpp:171] drop5 needs backward computation.
I0305 18:09:16.093865 11060 net.cpp:171] relu5 needs backward computation.
I0305 18:09:16.093876 11060 net.cpp:171] fc5 needs backward computation.
…
