…
E0302 08:53:03.671588 14781 upgrade_proto.cpp:624] Note that future Caffe releases will only support transform_param messages for transformation fields.
I0302 08:53:03.671947 14781 net.cpp:39] Initializing net from parameters: 
name: "model5_bn"
layers {
  top: "data"
  top: "label"
  name: "data"
  type: DATA
  data_param {
    source: "/home/jaehyun/kaggle/nationalDataScienceBowl/data/typeE/train_lmdb"
    batch_size: 128
    backend: LMDB
    shuffle: true
  }
  transform_param {
    scale: 0.00390625
    mirror: true
    mean_file: "/home/jaehyun/kaggle/nationalDataScienceBowl/data/typeE/train_mean.binaryproto"
  }
}
layers {
  bottom: "data"
  top: "conv1"
  name: "conv1"
  type: CONVOLUTION
  blobs_lr: 1
  blobs_lr: 2
  weight_decay: 1
  weight_decay: 0
  convolution_param {
    num_output: 256
    kernel_size: 4
    stride: 2
    weight_filler {
      type: "xavier"
    }
    bias_filler {
      type: "constant"
    }
  }
}
layers {
  bottom: "conv1"
  top: "conv1_bn"
  name: "conv1_bn"
  type: BN
  blobs_lr: 1
  blobs_lr: 1
  weight_decay: 0
  weight_decay: 0
  bn_param {
    scale_filler {
      type: "constant"
      value: 1
    }
    shift_filler {
      type: "constant"
      value: 0
    }
  }
}
layers {
  bottom: "conv1_bn"
  top: "conv1_bn"
  name: "relu1"
  type: RELU
  relu_param {
    negative_slope: 0.1
  }
}
layers {
  bottom: "conv1_bn"
  top: "cccp1"
  name: "cccp1"
  type: CONVOLUTION
  blobs_lr: 1
  blobs_lr: 2
  weight_decay: 1
  weight_decay: 0
  convolution_param {
    num_output: 256
    kernel_size: 1
    group: 1
    stride: 1
    weight_filler {
      type: "xavier"
    }
    bias_filler {
      type: "constant"
    }
  }
}
layers {
  bottom: "cccp1"
  top: "cccp1_bn"
  name: "cccp1_bn"
  type: BN
  blobs_lr: 1
  blobs_lr: 1
  weight_decay: 0
  weight_decay: 0
  bn_param {
    scale_filler {
      type: "constant"
      value: 1
    }
    shift_filler {
      type: "constant"
      value: 0
    }
  }
}
layers {
  bottom: "cccp1_bn"
  top: "cccp1_bn"
  name: "relu_cccp1"
  type: RELU
  relu_param {
    negative_slope: 0.1
  }
}
layers {
  bottom: "cccp1_bn"
  top: "pool1"
  name: "pool1"
  type: POOLING
  pooling_param {
    pool: MAX
    kernel_size: 3
    stride: 2
  }
}
layers {
  bottom: "pool1"
  top: "conv2"
  name: "conv2"
  type: CONVOLUTION
  blobs_lr: 1
  blobs_lr: 2
  weight_decay: 1
  weight_decay: 0
  convolution_param {
    num_output: 256
    kernel_size: 3
    weight_filler {
      type: "xavier"
    }
    bias_filler {
      type: "constant"
    }
  }
}
layers {
  bottom: "conv2"
  top: "conv2_bn"
  name: "conv2_bn"
  type: BN
  blobs_lr: 1
  blobs_lr: 1
  weight_decay: 0
  weight_decay: 0
  bn_param {
    scale_filler {
      type: "constant"
      value: 1
    }
    shift_filler {
      type: "constant"
      value: 0
    }
  }
}
layers {
  bottom: "conv2_bn"
  top: "conv2_bn"
  name: "relu2"
  type: RELU
  relu_param {
    negative_slope: 0.1
  }
}
layers {
  bottom: "conv2_bn"
  top: "cccp2"
  name: "cccp2"
  type: CONVOLUTION
  blobs_lr: 1
  blobs_lr: 2
  weight_decay: 1
  weight_decay: 0
  convolution_param {
    num_output: 256
    kernel_size: 1
    group: 1
    stride: 1
    weight_filler {
      type: "xavier"
    }
    bias_filler {
      type: "constant"
    }
  }
}
layers {
  bottom: "cccp2"
  top: "cccp2_bn"
  name: "cccp2_bn"
  type: BN
  blobs_lr: 1
  blobs_lr: 1
  weight_decay: 0
  weight_decay: 0
  bn_param {
    scale_filler {
      type: "constant"
      value: 1
    }
    shift_filler {
      type: "constant"
      value: 0
    }
  }
}
layers {
  bottom: "cccp2_bn"
  top: "cccp2_bn"
  name: "relu_cccp2"
  type: RELU
  relu_param {
    negative_slope: 0.1
  }
}
layers {
  bottom: "cccp2_bn"
  top: "conv3"
  name: "conv3"
  type: CONVOLUTION
  blobs_lr: 1
  blobs_lr: 2
  weight_decay: 1
  weight_decay: 0
  convolution_param {
    num_output: 256
    kernel_size: 3
    weight_filler {
      type: "xavier"
    }
    bias_filler {
      type: "constant"
    }
  }
}
layers {
  bottom: "conv3"
  top: "conv3_bn"
  name: "conv3_bn"
  type: BN
  blobs_lr: 1
  blobs_lr: 1
  weight_decay: 0
  weight_decay: 0
  bn_param {
    scale_filler {
      type: "constant"
      value: 1
    }
    shift_filler {
      type: "constant"
      value: 0
    }
  }
}
layers {
  bottom: "conv3_bn"
  top: "conv3_bn"
  name: "relu3"
  type: RELU
  relu_param {
    negative_slope: 0.1
  }
}
layers {
  bottom: "conv3_bn"
  top: "cccp3"
  name: "cccp3"
  type: CONVOLUTION
  blobs_lr: 1
  blobs_lr: 2
  weight_decay: 1
  weight_decay: 0
  convolution_param {
    num_output: 256
    kernel_size: 1
    group: 1
    stride: 1
    weight_filler {
      type: "xavier"
    }
    bias_filler {
      type: "constant"
    }
  }
}
layers {
  bottom: "cccp3"
  top: "cccp3_bn"
  name: "cccp3_bn"
  type: BN
  blobs_lr: 1
  blobs_lr: 1
  weight_decay: 0
  weight_decay: 0
  bn_param {
    scale_filler {
      type: "constant"
      value: 1
    }
    shift_filler {
      type: "constant"
      value: 0
    }
  }
}
layers {
  bottom: "cccp3_bn"
  top: "cccp3_bn"
  name: "relu_cccp3"
  type: RELU
  relu_param {
    negative_slope: 0.1
  }
}
layers {
  bottom: "cccp3_bn"
  top: "pool3"
  name: "pool3"
  type: POOLING
  pooling_param {
    pool: MAX
    kernel_size: 3
    stride: 2
  }
}
layers {
  bottom: "pool3"
  top: "fc4"
  name: "fc4"
  type: INNER_PRODUCT
  blobs_lr: 1
  blobs_lr: 2
  weight_decay: 1
  weight_decay: 0
  inner_product_param {
    num_output: 512
    weight_filler {
      type: "xavier"
    }
    bias_filler {
      type: "constant"
    }
  }
}
layers {
  bottom: "fc4"
  top: "fc4"
  name: "relu4"
  type: RELU
  relu_param {
    negative_slope: 0.1
  }
}
layers {
  bottom: "fc4"
  top: "fc4"
  name: "drop4"
  type: DROPOUT
  dropout_param {
    dropout_ratio: 0.5
  }
}
layers {
  bottom: "fc4"
  top: "fc5"
  name: "fc5"
  type: INNER_PRODUCT
  blobs_lr: 1
  blobs_lr: 2
  weight_decay: 1
  weight_decay: 0
  inner_product_param {
    num_output: 512
    weight_filler {
      type: "xavier"
    }
    bias_filler {
      type: "constant"
    }
  }
}
layers {
  bottom: "fc5"
  top: "fc5"
  name: "relu5"
  type: RELU
  relu_param {
    negative_slope: 0.1
  }
}
layers {
  bottom: "fc5"
  top: "fc5"
  name: "drop5"
  type: DROPOUT
  dropout_param {
    dropout_ratio: 0.5
  }
}
layers {
  bottom: "fc5"
  top: "fc6"
  name: "fc6"
  type: INNER_PRODUCT
  blobs_lr: 1
  blobs_lr: 2
  weight_decay: 1
  weight_decay: 0
  inner_product_param {
    num_output: 121
    weight_filler {
      type: "xavier"
    }
    bias_filler {
      type: "constant"
    }
  }
}
layers {
  bottom: "fc6"
  bottom: "label"
  top: "loss"
  name: "loss"
  type: SOFTMAX_LOSS
}
state {
  phase: TRAIN
}
I0302 08:53:03.673476 14781 layer_factory.hpp:78] Creating layer data
I0302 08:53:03.673508 14781 data_transformer.cpp:24] Loading mean file from/home/jaehyun/kaggle/nationalDataScienceBowl/data/typeE/train_mean.binaryproto
I0302 08:53:03.673714 14781 net.cpp:68] Creating Layer data
I0302 08:53:03.673738 14781 net.cpp:357] data -> data
I0302 08:53:03.673768 14781 net.cpp:357] data -> label
I0302 08:53:03.673792 14781 net.cpp:97] Setting up data
I0302 08:53:03.673813 14781 data_layer.cpp:34] Opening dataset /home/jaehyun/kaggle/nationalDataScienceBowl/data/typeE/train_lmdb
I0302 08:53:03.674007 14781 data_layer.cpp:73] output data size: 128,1,96,96
I0302 08:53:03.677407 14781 net.cpp:104] Top shape: 128 1 96 96 (1179648)
I0302 08:53:03.677690 14781 net.cpp:104] Top shape: 128 1 1 1 (128)
I0302 08:53:03.677721 14781 layer_factory.hpp:78] Creating layer conv1
I0302 08:53:03.677764 14781 net.cpp:68] Creating Layer conv1
I0302 08:53:03.677781 14781 net.cpp:395] conv1 <- data
I0302 08:53:03.677827 14781 net.cpp:357] conv1 -> conv1
I0302 08:53:03.677860 14781 net.cpp:97] Setting up conv1
I0302 08:53:03.709802 14781 net.cpp:104] Top shape: 128 256 47 47 (72384512)
I0302 08:53:03.709889 14781 layer_factory.hpp:78] Creating layer conv1_bn
I0302 08:53:03.709923 14781 net.cpp:68] Creating Layer conv1_bn
I0302 08:53:03.709938 14781 net.cpp:395] conv1_bn <- conv1
I0302 08:53:03.709955 14781 net.cpp:357] conv1_bn -> conv1_bn
I0302 08:53:03.709976 14781 net.cpp:97] Setting up conv1_bn
I0302 08:53:03.710013 14781 net.cpp:104] Top shape: 128 256 47 47 (72384512)
I0302 08:53:03.710032 14781 layer_factory.hpp:78] Creating layer relu1
I0302 08:53:03.710052 14781 net.cpp:68] Creating Layer relu1
I0302 08:53:03.710063 14781 net.cpp:395] relu1 <- conv1_bn
I0302 08:53:03.710082 14781 net.cpp:346] relu1 -> conv1_bn (in-place)
I0302 08:53:03.710098 14781 net.cpp:97] Setting up relu1
I0302 08:53:03.710119 14781 net.cpp:104] Top shape: 128 256 47 47 (72384512)
I0302 08:53:03.710132 14781 layer_factory.hpp:78] Creating layer cccp1
I0302 08:53:03.710151 14781 net.cpp:68] Creating Layer cccp1
I0302 08:53:03.710163 14781 net.cpp:395] cccp1 <- conv1_bn
I0302 08:53:03.710182 14781 net.cpp:357] cccp1 -> cccp1
I0302 08:53:03.710201 14781 net.cpp:97] Setting up cccp1
I0302 08:53:03.711019 14781 net.cpp:104] Top shape: 128 256 47 47 (72384512)
I0302 08:53:03.711045 14781 layer_factory.hpp:78] Creating layer cccp1_bn
I0302 08:53:03.711061 14781 net.cpp:68] Creating Layer cccp1_bn
I0302 08:53:03.711073 14781 net.cpp:395] cccp1_bn <- cccp1
I0302 08:53:03.711091 14781 net.cpp:357] cccp1_bn -> cccp1_bn
I0302 08:53:03.711107 14781 net.cpp:97] Setting up cccp1_bn
I0302 08:53:03.711135 14781 net.cpp:104] Top shape: 128 256 47 47 (72384512)
I0302 08:53:03.711154 14781 layer_factory.hpp:78] Creating layer relu_cccp1
I0302 08:53:03.711169 14781 net.cpp:68] Creating Layer relu_cccp1
I0302 08:53:03.711180 14781 net.cpp:395] relu_cccp1 <- cccp1_bn
I0302 08:53:03.711194 14781 net.cpp:346] relu_cccp1 -> cccp1_bn (in-place)
I0302 08:53:03.711208 14781 net.cpp:97] Setting up relu_cccp1
I0302 08:53:03.711223 14781 net.cpp:104] Top shape: 128 256 47 47 (72384512)
I0302 08:53:03.711236 14781 layer_factory.hpp:78] Creating layer pool1
I0302 08:53:03.711253 14781 net.cpp:68] Creating Layer pool1
I0302 08:53:03.711266 14781 net.cpp:395] pool1 <- cccp1_bn
I0302 08:53:03.711282 14781 net.cpp:357] pool1 -> pool1
I0302 08:53:03.711298 14781 net.cpp:97] Setting up pool1
I0302 08:53:03.711333 14781 net.cpp:104] Top shape: 128 256 23 23 (17334272)
I0302 08:53:03.711347 14781 layer_factory.hpp:78] Creating layer conv2
I0302 08:53:03.711367 14781 net.cpp:68] Creating Layer conv2
I0302 08:53:03.711380 14781 net.cpp:395] conv2 <- pool1
I0302 08:53:03.711395 14781 net.cpp:357] conv2 -> conv2
I0302 08:53:03.711410 14781 net.cpp:97] Setting up conv2
I0302 08:53:03.717576 14781 net.cpp:104] Top shape: 128 256 21 21 (14450688)
I0302 08:53:03.717607 14781 layer_factory.hpp:78] Creating layer conv2_bn
I0302 08:53:03.717625 14781 net.cpp:68] Creating Layer conv2_bn
I0302 08:53:03.717638 14781 net.cpp:395] conv2_bn <- conv2
I0302 08:53:03.717656 14781 net.cpp:357] conv2_bn -> conv2_bn
I0302 08:53:03.717674 14781 net.cpp:97] Setting up conv2_bn
I0302 08:53:03.717700 14781 net.cpp:104] Top shape: 128 256 21 21 (14450688)
I0302 08:53:03.717716 14781 layer_factory.hpp:78] Creating layer relu2
I0302 08:53:03.717730 14781 net.cpp:68] Creating Layer relu2
I0302 08:53:03.717742 14781 net.cpp:395] relu2 <- conv2_bn
I0302 08:53:03.717758 14781 net.cpp:346] relu2 -> conv2_bn (in-place)
I0302 08:53:03.717773 14781 net.cpp:97] Setting up relu2
I0302 08:53:03.717788 14781 net.cpp:104] Top shape: 128 256 21 21 (14450688)
I0302 08:53:03.717800 14781 layer_factory.hpp:78] Creating layer cccp2
I0302 08:53:03.717864 14781 net.cpp:68] Creating Layer cccp2
I0302 08:53:03.717877 14781 net.cpp:395] cccp2 <- conv2_bn
I0302 08:53:03.717892 14781 net.cpp:357] cccp2 -> cccp2
I0302 08:53:03.717908 14781 net.cpp:97] Setting up cccp2
I0302 08:53:03.718680 14781 net.cpp:104] Top shape: 128 256 21 21 (14450688)
I0302 08:53:03.718704 14781 layer_factory.hpp:78] Creating layer cccp2_bn
I0302 08:53:03.718724 14781 net.cpp:68] Creating Layer cccp2_bn
I0302 08:53:03.718736 14781 net.cpp:395] cccp2_bn <- cccp2
I0302 08:53:03.718750 14781 net.cpp:357] cccp2_bn -> cccp2_bn
I0302 08:53:03.718765 14781 net.cpp:97] Setting up cccp2_bn
I0302 08:53:03.718788 14781 net.cpp:104] Top shape: 128 256 21 21 (14450688)
I0302 08:53:03.718804 14781 layer_factory.hpp:78] Creating layer relu_cccp2
I0302 08:53:03.718818 14781 net.cpp:68] Creating Layer relu_cccp2
I0302 08:53:03.718830 14781 net.cpp:395] relu_cccp2 <- cccp2_bn
I0302 08:53:03.718847 14781 net.cpp:346] relu_cccp2 -> cccp2_bn (in-place)
I0302 08:53:03.718863 14781 net.cpp:97] Setting up relu_cccp2
I0302 08:53:03.718878 14781 net.cpp:104] Top shape: 128 256 21 21 (14450688)
I0302 08:53:03.718889 14781 layer_factory.hpp:78] Creating layer conv3
I0302 08:53:03.718904 14781 net.cpp:68] Creating Layer conv3
I0302 08:53:03.718915 14781 net.cpp:395] conv3 <- cccp2_bn
I0302 08:53:03.718932 14781 net.cpp:357] conv3 -> conv3
I0302 08:53:03.718947 14781 net.cpp:97] Setting up conv3
I0302 08:53:03.725124 14781 net.cpp:104] Top shape: 128 256 19 19 (11829248)
I0302 08:53:03.725155 14781 layer_factory.hpp:78] Creating layer conv3_bn
I0302 08:53:03.725174 14781 net.cpp:68] Creating Layer conv3_bn
I0302 08:53:03.725188 14781 net.cpp:395] conv3_bn <- conv3
I0302 08:53:03.725203 14781 net.cpp:357] conv3_bn -> conv3_bn
I0302 08:53:03.725217 14781 net.cpp:97] Setting up conv3_bn
I0302 08:53:03.725239 14781 net.cpp:104] Top shape: 128 256 19 19 (11829248)
I0302 08:53:03.725255 14781 layer_factory.hpp:78] Creating layer relu3
I0302 08:53:03.725272 14781 net.cpp:68] Creating Layer relu3
I0302 08:53:03.725285 14781 net.cpp:395] relu3 <- conv3_bn
I0302 08:53:03.725298 14781 net.cpp:346] relu3 -> conv3_bn (in-place)
I0302 08:53:03.725312 14781 net.cpp:97] Setting up relu3
I0302 08:53:03.725327 14781 net.cpp:104] Top shape: 128 256 19 19 (11829248)
I0302 08:53:03.725339 14781 layer_factory.hpp:78] Creating layer cccp3
I0302 08:53:03.725358 14781 net.cpp:68] Creating Layer cccp3
I0302 08:53:03.725369 14781 net.cpp:395] cccp3 <- conv3_bn
I0302 08:53:03.725383 14781 net.cpp:357] cccp3 -> cccp3
I0302 08:53:03.725399 14781 net.cpp:97] Setting up cccp3
I0302 08:53:03.726389 14781 net.cpp:104] Top shape: 128 256 19 19 (11829248)
I0302 08:53:03.726414 14781 layer_factory.hpp:78] Creating layer cccp3_bn
I0302 08:53:03.726434 14781 net.cpp:68] Creating Layer cccp3_bn
I0302 08:53:03.726447 14781 net.cpp:395] cccp3_bn <- cccp3
I0302 08:53:03.726464 14781 net.cpp:357] cccp3_bn -> cccp3_bn
I0302 08:53:03.726480 14781 net.cpp:97] Setting up cccp3_bn
I0302 08:53:03.726503 14781 net.cpp:104] Top shape: 128 256 19 19 (11829248)
I0302 08:53:03.726518 14781 layer_factory.hpp:78] Creating layer relu_cccp3
I0302 08:53:03.726533 14781 net.cpp:68] Creating Layer relu_cccp3
I0302 08:53:03.726544 14781 net.cpp:395] relu_cccp3 <- cccp3_bn
I0302 08:53:03.726560 14781 net.cpp:346] relu_cccp3 -> cccp3_bn (in-place)
I0302 08:53:03.726575 14781 net.cpp:97] Setting up relu_cccp3
I0302 08:53:03.726590 14781 net.cpp:104] Top shape: 128 256 19 19 (11829248)
I0302 08:53:03.726603 14781 layer_factory.hpp:78] Creating layer pool3
I0302 08:53:03.726616 14781 net.cpp:68] Creating Layer pool3
I0302 08:53:03.726627 14781 net.cpp:395] pool3 <- cccp3_bn
I0302 08:53:03.726644 14781 net.cpp:357] pool3 -> pool3
I0302 08:53:03.726660 14781 net.cpp:97] Setting up pool3
I0302 08:53:03.726676 14781 net.cpp:104] Top shape: 128 256 9 9 (2654208)
I0302 08:53:03.726690 14781 layer_factory.hpp:78] Creating layer fc4
I0302 08:53:03.726709 14781 net.cpp:68] Creating Layer fc4
I0302 08:53:03.726722 14781 net.cpp:395] fc4 <- pool3
I0302 08:53:03.726760 14781 net.cpp:357] fc4 -> fc4
I0302 08:53:03.726780 14781 net.cpp:97] Setting up fc4
I0302 08:53:03.832254 14781 net.cpp:104] Top shape: 128 512 1 1 (65536)
I0302 08:53:03.832322 14781 layer_factory.hpp:78] Creating layer relu4
I0302 08:53:03.832345 14781 net.cpp:68] Creating Layer relu4
I0302 08:53:03.832361 14781 net.cpp:395] relu4 <- fc4
I0302 08:53:03.832379 14781 net.cpp:346] relu4 -> fc4 (in-place)
I0302 08:53:03.832398 14781 net.cpp:97] Setting up relu4
I0302 08:53:03.832428 14781 net.cpp:104] Top shape: 128 512 1 1 (65536)
I0302 08:53:03.832442 14781 layer_factory.hpp:78] Creating layer drop4
I0302 08:53:03.832461 14781 net.cpp:68] Creating Layer drop4
I0302 08:53:03.832475 14781 net.cpp:395] drop4 <- fc4
I0302 08:53:03.832489 14781 net.cpp:346] drop4 -> fc4 (in-place)
I0302 08:53:03.832504 14781 net.cpp:97] Setting up drop4
I0302 08:53:03.832519 14781 net.cpp:104] Top shape: 128 512 1 1 (65536)
I0302 08:53:03.832530 14781 layer_factory.hpp:78] Creating layer fc5
I0302 08:53:03.832547 14781 net.cpp:68] Creating Layer fc5
I0302 08:53:03.832558 14781 net.cpp:395] fc5 <- fc4
I0302 08:53:03.832581 14781 net.cpp:357] fc5 -> fc5
I0302 08:53:03.832597 14781 net.cpp:97] Setting up fc5
I0302 08:53:03.835340 14781 net.cpp:104] Top shape: 128 512 1 1 (65536)
I0302 08:53:03.835367 14781 layer_factory.hpp:78] Creating layer relu5
I0302 08:53:03.835382 14781 net.cpp:68] Creating Layer relu5
I0302 08:53:03.835394 14781 net.cpp:395] relu5 <- fc5
I0302 08:53:03.835412 14781 net.cpp:346] relu5 -> fc5 (in-place)
I0302 08:53:03.835427 14781 net.cpp:97] Setting up relu5
I0302 08:53:03.835443 14781 net.cpp:104] Top shape: 128 512 1 1 (65536)
I0302 08:53:03.835455 14781 layer_factory.hpp:78] Creating layer drop5
I0302 08:53:03.835469 14781 net.cpp:68] Creating Layer drop5
I0302 08:53:03.835481 14781 net.cpp:395] drop5 <- fc5
I0302 08:53:03.835495 14781 net.cpp:346] drop5 -> fc5 (in-place)
I0302 08:53:03.835510 14781 net.cpp:97] Setting up drop5
I0302 08:53:03.835521 14781 net.cpp:104] Top shape: 128 512 1 1 (65536)
I0302 08:53:03.835532 14781 layer_factory.hpp:78] Creating layer fc6
I0302 08:53:03.835548 14781 net.cpp:68] Creating Layer fc6
I0302 08:53:03.835561 14781 net.cpp:395] fc6 <- fc5
I0302 08:53:03.835575 14781 net.cpp:357] fc6 -> fc6
I0302 08:53:03.835589 14781 net.cpp:97] Setting up fc6
I0302 08:53:03.836251 14781 net.cpp:104] Top shape: 128 121 1 1 (15488)
I0302 08:53:03.836272 14781 layer_factory.hpp:78] Creating layer loss
I0302 08:53:03.836290 14781 net.cpp:68] Creating Layer loss
I0302 08:53:03.836302 14781 net.cpp:395] loss <- fc6
I0302 08:53:03.836315 14781 net.cpp:395] loss <- label
I0302 08:53:03.836331 14781 net.cpp:357] loss -> loss
I0302 08:53:03.836349 14781 net.cpp:97] Setting up loss
I0302 08:53:03.836365 14781 layer_factory.hpp:78] Creating layer loss
I0302 08:53:03.836431 14781 net.cpp:104] Top shape: 1 1 1 1 (1)
I0302 08:53:03.836447 14781 net.cpp:110]     with loss weight 1
I0302 08:53:03.836499 14781 net.cpp:171] loss needs backward computation.
I0302 08:53:03.836513 14781 net.cpp:171] fc6 needs backward computation.
I0302 08:53:03.836524 14781 net.cpp:171] drop5 needs backward computation.
I0302 08:53:03.836534 14781 net.cpp:171] relu5 needs backward computation.
I0302 08:53:03.836545 14781 net.cpp:171] fc5 needs backward computation.
…
