…
  transform_param {
    mirror: true
    mean_file: "/media/data/kaggle/nationalDataScienceBowl/data/typeF/train_mean.binaryproto"
    affine_param {
      x_stretch_unirnd_range: 0.01
      y_stretch_unirnd_range: 0.01
      rotation_unirnd_range: 180
      max_translation: 5
      background_color: 255
    }
  }
  image_data_affine_param {
    source: "/media/data/kaggle/nationalDataScienceBowl/data/typeF/train.txt"
    scale: 0.00390625
    batch_size: 128
    shuffle: true
    new_size: 96
    is_color: false
    root_folder: "/media/data/kaggle/nationalDataScienceBowl/data/typeF/"
  }
}
layers {
  bottom: "data"
  top: "conv1"
  name: "conv1"
  type: CONVOLUTION
  blobs_lr: 1
  blobs_lr: 2
  weight_decay: 1
  weight_decay: 0
  convolution_param {
    num_output: 256
    kernel_size: 4
    stride: 2
    weight_filler {
      type: "xavier"
    }
    bias_filler {
      type: "constant"
    }
  }
}
layers {
  bottom: "conv1"
  top: "conv1_bn"
  name: "conv1_bn"
  type: BN
  blobs_lr: 1
  blobs_lr: 1
  weight_decay: 0
  weight_decay: 0
  bn_param {
    scale_filler {
      type: "constant"
      value: 1
    }
    shift_filler {
      type: "constant"
      value: 0
    }
  }
}
layers {
  bottom: "conv1_bn"
  top: "conv1_bn"
  name: "relu1"
  type: RELU
  relu_param {
    negative_slope: 0.1
  }
}
layers {
  bottom: "conv1_bn"
  top: "cccp1"
  name: "cccp1"
  type: CONVOLUTION
  blobs_lr: 1
  blobs_lr: 2
  weight_decay: 1
  weight_decay: 0
  convolution_param {
    num_output: 256
    kernel_size: 1
    group: 1
    stride: 1
    weight_filler {
      type: "xavier"
    }
    bias_filler {
      type: "constant"
    }
  }
}
layers {
  bottom: "cccp1"
  top: "cccp1_bn"
  name: "cccp1_bn"
  type: BN
  blobs_lr: 1
  blobs_lr: 1
  weight_decay: 0
  weight_decay: 0
  bn_param {
    scale_filler {
      type: "constant"
      value: 1
    }
    shift_filler {
      type: "constant"
      value: 0
    }
  }
}
layers {
  bottom: "cccp1_bn"
  top: "cccp1_bn"
  name: "relu_cccp1"
  type: RELU
  relu_param {
    negative_slope: 0.1
  }
}
layers {
  bottom: "cccp1_bn"
  top: "pool1"
  name: "pool1"
  type: POOLING
  pooling_param {
    pool: MAX
    kernel_size: 3
    stride: 2
  }
}
layers {
  bottom: "pool1"
  top: "conv2"
  name: "conv2"
  type: CONVOLUTION
  blobs_lr: 1
  blobs_lr: 2
  weight_decay: 1
  weight_decay: 0
  convolution_param {
    num_output: 256
    kernel_size: 3
    weight_filler {
      type: "xavier"
    }
    bias_filler {
      type: "constant"
    }
  }
}
layers {
  bottom: "conv2"
  top: "conv2_bn"
  name: "conv2_bn"
  type: BN
  blobs_lr: 1
  blobs_lr: 1
  weight_decay: 0
  weight_decay: 0
  bn_param {
    scale_filler {
      type: "constant"
      value: 1
    }
    shift_filler {
      type: "constant"
      value: 0
    }
  }
}
layers {
  bottom: "conv2_bn"
  top: "conv2_bn"
  name: "relu2"
  type: RELU
  relu_param {
    negative_slope: 0.1
  }
}
layers {
  bottom: "conv2_bn"
  top: "cccp2"
  name: "cccp2"
  type: CONVOLUTION
  blobs_lr: 1
  blobs_lr: 2
  weight_decay: 1
  weight_decay: 0
  convolution_param {
    num_output: 256
    kernel_size: 1
    group: 1
    stride: 1
    weight_filler {
      type: "xavier"
    }
    bias_filler {
      type: "constant"
    }
  }
}
layers {
  bottom: "cccp2"
  top: "cccp2_bn"
  name: "cccp2_bn"
  type: BN
  blobs_lr: 1
  blobs_lr: 1
  weight_decay: 0
  weight_decay: 0
  bn_param {
    scale_filler {
      type: "constant"
      value: 1
    }
    shift_filler {
      type: "constant"
      value: 0
    }
  }
}
layers {
  bottom: "cccp2_bn"
  top: "cccp2_bn"
  name: "relu_cccp2"
  type: RELU
  relu_param {
    negative_slope: 0.1
  }
}
layers {
  bottom: "cccp2_bn"
  top: "conv3"
  name: "conv3"
  type: CONVOLUTION
  blobs_lr: 1
  blobs_lr: 2
  weight_decay: 1
  weight_decay: 0
  convolution_param {
    num_output: 256
    kernel_size: 3
    weight_filler {
      type: "xavier"
    }
    bias_filler {
      type: "constant"
    }
  }
}
layers {
  bottom: "conv3"
  top: "conv3_bn"
  name: "conv3_bn"
  type: BN
  blobs_lr: 1
  blobs_lr: 1
  weight_decay: 0
  weight_decay: 0
  bn_param {
    scale_filler {
      type: "constant"
      value: 1
    }
    shift_filler {
      type: "constant"
      value: 0
    }
  }
}
layers {
  bottom: "conv3_bn"
  top: "conv3_bn"
  name: "relu3"
  type: RELU
  relu_param {
    negative_slope: 0.1
  }
}
layers {
  bottom: "conv3_bn"
  top: "cccp3"
  name: "cccp3"
  type: CONVOLUTION
  blobs_lr: 1
  blobs_lr: 2
  weight_decay: 1
  weight_decay: 0
  convolution_param {
    num_output: 256
    kernel_size: 1
    group: 1
    stride: 1
    weight_filler {
      type: "xavier"
    }
    bias_filler {
      type: "constant"
    }
  }
}
layers {
  bottom: "cccp3"
  top: "cccp3_bn"
  name: "cccp3_bn"
  type: BN
  blobs_lr: 1
  blobs_lr: 1
  weight_decay: 0
  weight_decay: 0
  bn_param {
    scale_filler {
      type: "constant"
      value: 1
    }
    shift_filler {
      type: "constant"
      value: 0
    }
  }
}
layers {
  bottom: "cccp3_bn"
  top: "cccp3_bn"
  name: "relu_cccp3"
  type: RELU
  relu_param {
    negative_slope: 0.1
  }
}
layers {
  bottom: "cccp3_bn"
  top: "pool3"
  name: "pool3"
  type: POOLING
  pooling_param {
    pool: MAX
    kernel_size: 3
    stride: 2
  }
}
layers {
  bottom: "pool3"
  top: "fc4"
  name: "fc4"
  type: INNER_PRODUCT
  blobs_lr: 1
  blobs_lr: 2
  weight_decay: 1
  weight_decay: 0
  inner_product_param {
    num_output: 512
    weight_filler {
      type: "xavier"
    }
    bias_filler {
      type: "constant"
    }
  }
}
layers {
  bottom: "fc4"
  top: "fc4"
  name: "relu4"
  type: RELU
  relu_param {
    negative_slope: 0.1
  }
}
layers {
  bottom: "fc4"
  top: "fc4"
  name: "drop4"
  type: DROPOUT
  dropout_param {
    dropout_ratio: 0.5
  }
}
layers {
  bottom: "fc4"
  top: "fc5"
  name: "fc5"
  type: INNER_PRODUCT
  blobs_lr: 1
  blobs_lr: 2
  weight_decay: 1
  weight_decay: 0
  inner_product_param {
    num_output: 512
    weight_filler {
      type: "xavier"
    }
    bias_filler {
      type: "constant"
    }
  }
}
layers {
  bottom: "fc5"
  top: "fc5"
  name: "relu5"
  type: RELU
  relu_param {
    negative_slope: 0.1
  }
}
layers {
  bottom: "fc5"
  top: "fc5"
  name: "drop5"
  type: DROPOUT
  dropout_param {
    dropout_ratio: 0.5
  }
}
layers {
  bottom: "fc5"
  top: "fc6"
  name: "fc6"
  type: INNER_PRODUCT
  blobs_lr: 1
  blobs_lr: 2
  weight_decay: 1
  weight_decay: 0
  inner_product_param {
    num_output: 121
    weight_filler {
      type: "xavier"
    }
    bias_filler {
      type: "constant"
    }
  }
}
layers {
  bottom: "fc6"
  bottom: "label"
  top: "loss"
  name: "loss"
  type: SOFTMAX_LOSS
}
state {
  phase: TRAIN
}
I0307 10:25:34.361541 31869 layer_factory.hpp:78] Creating layer data
I0307 10:25:34.361570 31869 data_transformer.cpp:24] Loading mean file from/media/data/kaggle/nationalDataScienceBowl/data/typeF/train_mean.binaryproto
I0307 10:25:34.361764 31869 net.cpp:68] Creating Layer data
I0307 10:25:34.361788 31869 net.cpp:357] data -> data
I0307 10:25:34.361815 31869 net.cpp:357] data -> label
I0307 10:25:34.361836 31869 net.cpp:97] Setting up data
I0307 10:25:34.361853 31869 image_data_affine_layer.cpp:37] Opening file /media/data/kaggle/nationalDataScienceBowl/data/typeF/train.txt
I0307 10:25:34.375635 31869 image_data_affine_layer.cpp:47] Shuffling data
I0307 10:25:34.378609 31869 image_data_affine_layer.cpp:52] A total of 27302 images.
I0307 10:25:34.380657 31869 image_data_affine_layer.cpp:81] output data size: 128,1,96,96
I0307 10:25:34.382508 31869 net.cpp:104] Top shape: 128 1 96 96 (1179648)
I0307 10:25:34.382539 31869 net.cpp:104] Top shape: 128 1 1 1 (128)
I0307 10:25:34.382555 31869 layer_factory.hpp:78] Creating layer conv1
I0307 10:25:34.382580 31869 net.cpp:68] Creating Layer conv1
I0307 10:25:34.382594 31869 net.cpp:395] conv1 <- data
I0307 10:25:34.382619 31869 net.cpp:357] conv1 -> conv1
I0307 10:25:34.382642 31869 net.cpp:97] Setting up conv1
I0307 10:25:34.423005 31869 net.cpp:104] Top shape: 128 256 47 47 (72384512)
I0307 10:25:34.423074 31869 layer_factory.hpp:78] Creating layer conv1_bn
I0307 10:25:34.423109 31869 net.cpp:68] Creating Layer conv1_bn
I0307 10:25:34.423125 31869 net.cpp:395] conv1_bn <- conv1
I0307 10:25:34.423143 31869 net.cpp:357] conv1_bn -> conv1_bn
I0307 10:25:34.423166 31869 net.cpp:97] Setting up conv1_bn
I0307 10:25:34.423204 31869 net.cpp:104] Top shape: 128 256 47 47 (72384512)
I0307 10:25:34.423224 31869 layer_factory.hpp:78] Creating layer relu1
I0307 10:25:34.423243 31869 net.cpp:68] Creating Layer relu1
I0307 10:25:34.423257 31869 net.cpp:395] relu1 <- conv1_bn
I0307 10:25:34.423274 31869 net.cpp:346] relu1 -> conv1_bn (in-place)
I0307 10:25:34.423291 31869 net.cpp:97] Setting up relu1
I0307 10:25:34.423311 31869 net.cpp:104] Top shape: 128 256 47 47 (72384512)
I0307 10:25:34.423326 31869 layer_factory.hpp:78] Creating layer cccp1
I0307 10:25:34.423344 31869 net.cpp:68] Creating Layer cccp1
I0307 10:25:34.423359 31869 net.cpp:395] cccp1 <- conv1_bn
I0307 10:25:34.423379 31869 net.cpp:357] cccp1 -> cccp1
I0307 10:25:34.423398 31869 net.cpp:97] Setting up cccp1
I0307 10:25:34.424269 31869 net.cpp:104] Top shape: 128 256 47 47 (72384512)
I0307 10:25:34.424299 31869 layer_factory.hpp:78] Creating layer cccp1_bn
I0307 10:25:34.424325 31869 net.cpp:68] Creating Layer cccp1_bn
I0307 10:25:34.424340 31869 net.cpp:395] cccp1_bn <- cccp1
I0307 10:25:34.424355 31869 net.cpp:357] cccp1_bn -> cccp1_bn
I0307 10:25:34.424371 31869 net.cpp:97] Setting up cccp1_bn
I0307 10:25:34.424399 31869 net.cpp:104] Top shape: 128 256 47 47 (72384512)
I0307 10:25:34.424414 31869 layer_factory.hpp:78] Creating layer relu_cccp1
I0307 10:25:34.424428 31869 net.cpp:68] Creating Layer relu_cccp1
I0307 10:25:34.424439 31869 net.cpp:395] relu_cccp1 <- cccp1_bn
I0307 10:25:34.424453 31869 net.cpp:346] relu_cccp1 -> cccp1_bn (in-place)
I0307 10:25:34.424466 31869 net.cpp:97] Setting up relu_cccp1
I0307 10:25:34.424482 31869 net.cpp:104] Top shape: 128 256 47 47 (72384512)
I0307 10:25:34.424494 31869 layer_factory.hpp:78] Creating layer pool1
I0307 10:25:34.424513 31869 net.cpp:68] Creating Layer pool1
I0307 10:25:34.424526 31869 net.cpp:395] pool1 <- cccp1_bn
I0307 10:25:34.424540 31869 net.cpp:357] pool1 -> pool1
I0307 10:25:34.424564 31869 net.cpp:97] Setting up pool1
I0307 10:25:34.424604 31869 net.cpp:104] Top shape: 128 256 23 23 (17334272)
I0307 10:25:34.424620 31869 layer_factory.hpp:78] Creating layer conv2
I0307 10:25:34.424639 31869 net.cpp:68] Creating Layer conv2
I0307 10:25:34.424653 31869 net.cpp:395] conv2 <- pool1
I0307 10:25:34.424666 31869 net.cpp:357] conv2 -> conv2
I0307 10:25:34.424682 31869 net.cpp:97] Setting up conv2
I0307 10:25:34.431466 31869 net.cpp:104] Top shape: 128 256 21 21 (14450688)
I0307 10:25:34.431505 31869 layer_factory.hpp:78] Creating layer conv2_bn
I0307 10:25:34.431527 31869 net.cpp:68] Creating Layer conv2_bn
I0307 10:25:34.431541 31869 net.cpp:395] conv2_bn <- conv2
I0307 10:25:34.431560 31869 net.cpp:357] conv2_bn -> conv2_bn
I0307 10:25:34.431577 31869 net.cpp:97] Setting up conv2_bn
I0307 10:25:34.431602 31869 net.cpp:104] Top shape: 128 256 21 21 (14450688)
I0307 10:25:34.431618 31869 layer_factory.hpp:78] Creating layer relu2
I0307 10:25:34.431635 31869 net.cpp:68] Creating Layer relu2
I0307 10:25:34.431648 31869 net.cpp:395] relu2 <- conv2_bn
I0307 10:25:34.431660 31869 net.cpp:346] relu2 -> conv2_bn (in-place)
I0307 10:25:34.431674 31869 net.cpp:97] Setting up relu2
I0307 10:25:34.431689 31869 net.cpp:104] Top shape: 128 256 21 21 (14450688)
I0307 10:25:34.431792 31869 layer_factory.hpp:78] Creating layer cccp2
I0307 10:25:34.431809 31869 net.cpp:68] Creating Layer cccp2
I0307 10:25:34.431823 31869 net.cpp:395] cccp2 <- conv2_bn
I0307 10:25:34.431838 31869 net.cpp:357] cccp2 -> cccp2
I0307 10:25:34.431852 31869 net.cpp:97] Setting up cccp2
I0307 10:25:34.432806 31869 net.cpp:104] Top shape: 128 256 21 21 (14450688)
I0307 10:25:34.432834 31869 layer_factory.hpp:78] Creating layer cccp2_bn
I0307 10:25:34.432853 31869 net.cpp:68] Creating Layer cccp2_bn
I0307 10:25:34.432867 31869 net.cpp:395] cccp2_bn <- cccp2
I0307 10:25:34.432879 31869 net.cpp:357] cccp2_bn -> cccp2_bn
I0307 10:25:34.432896 31869 net.cpp:97] Setting up cccp2_bn
I0307 10:25:34.432924 31869 net.cpp:104] Top shape: 128 256 21 21 (14450688)
I0307 10:25:34.432940 31869 layer_factory.hpp:78] Creating layer relu_cccp2
I0307 10:25:34.432953 31869 net.cpp:68] Creating Layer relu_cccp2
I0307 10:25:34.432965 31869 net.cpp:395] relu_cccp2 <- cccp2_bn
I0307 10:25:34.432978 31869 net.cpp:346] relu_cccp2 -> cccp2_bn (in-place)
I0307 10:25:34.432991 31869 net.cpp:97] Setting up relu_cccp2
I0307 10:25:34.433007 31869 net.cpp:104] Top shape: 128 256 21 21 (14450688)
I0307 10:25:34.433018 31869 layer_factory.hpp:78] Creating layer conv3
I0307 10:25:34.433037 31869 net.cpp:68] Creating Layer conv3
I0307 10:25:34.433048 31869 net.cpp:395] conv3 <- cccp2_bn
I0307 10:25:34.433061 31869 net.cpp:357] conv3 -> conv3
I0307 10:25:34.433076 31869 net.cpp:97] Setting up conv3
I0307 10:25:34.439023 31869 net.cpp:104] Top shape: 128 256 19 19 (11829248)
I0307 10:25:34.439054 31869 layer_factory.hpp:78] Creating layer conv3_bn
I0307 10:25:34.439075 31869 net.cpp:68] Creating Layer conv3_bn
I0307 10:25:34.439088 31869 net.cpp:395] conv3_bn <- conv3
I0307 10:25:34.439103 31869 net.cpp:357] conv3_bn -> conv3_bn
I0307 10:25:34.439118 31869 net.cpp:97] Setting up conv3_bn
I0307 10:25:34.439142 31869 net.cpp:104] Top shape: 128 256 19 19 (11829248)
I0307 10:25:34.439157 31869 layer_factory.hpp:78] Creating layer relu3
I0307 10:25:34.439177 31869 net.cpp:68] Creating Layer relu3
I0307 10:25:34.439188 31869 net.cpp:395] relu3 <- conv3_bn
I0307 10:25:34.439203 31869 net.cpp:346] relu3 -> conv3_bn (in-place)
I0307 10:25:34.439216 31869 net.cpp:97] Setting up relu3
I0307 10:25:34.439230 31869 net.cpp:104] Top shape: 128 256 19 19 (11829248)
I0307 10:25:34.439244 31869 layer_factory.hpp:78] Creating layer cccp3
I0307 10:25:34.439257 31869 net.cpp:68] Creating Layer cccp3
I0307 10:25:34.439270 31869 net.cpp:395] cccp3 <- conv3_bn
I0307 10:25:34.439285 31869 net.cpp:357] cccp3 -> cccp3
I0307 10:25:34.439301 31869 net.cpp:97] Setting up cccp3
I0307 10:25:34.440356 31869 net.cpp:104] Top shape: 128 256 19 19 (11829248)
I0307 10:25:34.440383 31869 layer_factory.hpp:78] Creating layer cccp3_bn
I0307 10:25:34.440402 31869 net.cpp:68] Creating Layer cccp3_bn
I0307 10:25:34.440415 31869 net.cpp:395] cccp3_bn <- cccp3
I0307 10:25:34.440429 31869 net.cpp:357] cccp3_bn -> cccp3_bn
I0307 10:25:34.440444 31869 net.cpp:97] Setting up cccp3_bn
I0307 10:25:34.440469 31869 net.cpp:104] Top shape: 128 256 19 19 (11829248)
I0307 10:25:34.440484 31869 layer_factory.hpp:78] Creating layer relu_cccp3
I0307 10:25:34.440500 31869 net.cpp:68] Creating Layer relu_cccp3
I0307 10:25:34.440511 31869 net.cpp:395] relu_cccp3 <- cccp3_bn
I0307 10:25:34.440524 31869 net.cpp:346] relu_cccp3 -> cccp3_bn (in-place)
I0307 10:25:34.440537 31869 net.cpp:97] Setting up relu_cccp3
I0307 10:25:34.440552 31869 net.cpp:104] Top shape: 128 256 19 19 (11829248)
I0307 10:25:34.440567 31869 layer_factory.hpp:78] Creating layer pool3
I0307 10:25:34.440582 31869 net.cpp:68] Creating Layer pool3
I0307 10:25:34.440594 31869 net.cpp:395] pool3 <- cccp3_bn
I0307 10:25:34.440611 31869 net.cpp:357] pool3 -> pool3
I0307 10:25:34.440626 31869 net.cpp:97] Setting up pool3
I0307 10:25:34.440645 31869 net.cpp:104] Top shape: 128 256 9 9 (2654208)
I0307 10:25:34.440657 31869 layer_factory.hpp:78] Creating layer fc4
I0307 10:25:34.440676 31869 net.cpp:68] Creating Layer fc4
I0307 10:25:34.440713 31869 net.cpp:395] fc4 <- pool3
I0307 10:25:34.440732 31869 net.cpp:357] fc4 -> fc4
I0307 10:25:34.440749 31869 net.cpp:97] Setting up fc4
I0307 10:25:34.546815 31869 net.cpp:104] Top shape: 128 512 1 1 (65536)
I0307 10:25:34.546880 31869 layer_factory.hpp:78] Creating layer relu4
I0307 10:25:34.546898 31869 net.cpp:68] Creating Layer relu4
I0307 10:25:34.546913 31869 net.cpp:395] relu4 <- fc4
I0307 10:25:34.546931 31869 net.cpp:346] relu4 -> fc4 (in-place)
I0307 10:25:34.546948 31869 net.cpp:97] Setting up relu4
I0307 10:25:34.546977 31869 net.cpp:104] Top shape: 128 512 1 1 (65536)
I0307 10:25:34.546989 31869 layer_factory.hpp:78] Creating layer drop4
I0307 10:25:34.547011 31869 net.cpp:68] Creating Layer drop4
I0307 10:25:34.547024 31869 net.cpp:395] drop4 <- fc4
I0307 10:25:34.547037 31869 net.cpp:346] drop4 -> fc4 (in-place)
I0307 10:25:34.547051 31869 net.cpp:97] Setting up drop4
I0307 10:25:34.547065 31869 net.cpp:104] Top shape: 128 512 1 1 (65536)
I0307 10:25:34.547077 31869 layer_factory.hpp:78] Creating layer fc5
I0307 10:25:34.547093 31869 net.cpp:68] Creating Layer fc5
I0307 10:25:34.547104 31869 net.cpp:395] fc5 <- fc4
I0307 10:25:34.547121 31869 net.cpp:357] fc5 -> fc5
I0307 10:25:34.547137 31869 net.cpp:97] Setting up fc5
I0307 10:25:34.550068 31869 net.cpp:104] Top shape: 128 512 1 1 (65536)
I0307 10:25:34.550092 31869 layer_factory.hpp:78] Creating layer relu5
I0307 10:25:34.550109 31869 net.cpp:68] Creating Layer relu5
I0307 10:25:34.550122 31869 net.cpp:395] relu5 <- fc5
I0307 10:25:34.550134 31869 net.cpp:346] relu5 -> fc5 (in-place)
I0307 10:25:34.550148 31869 net.cpp:97] Setting up relu5
I0307 10:25:34.550163 31869 net.cpp:104] Top shape: 128 512 1 1 (65536)
I0307 10:25:34.550175 31869 layer_factory.hpp:78] Creating layer drop5
I0307 10:25:34.550189 31869 net.cpp:68] Creating Layer drop5
I0307 10:25:34.550199 31869 net.cpp:395] drop5 <- fc5
I0307 10:25:34.550216 31869 net.cpp:346] drop5 -> fc5 (in-place)
I0307 10:25:34.550230 31869 net.cpp:97] Setting up drop5
I0307 10:25:34.550242 31869 net.cpp:104] Top shape: 128 512 1 1 (65536)
I0307 10:25:34.550253 31869 layer_factory.hpp:78] Creating layer fc6
I0307 10:25:34.550267 31869 net.cpp:68] Creating Layer fc6
I0307 10:25:34.550278 31869 net.cpp:395] fc6 <- fc5
I0307 10:25:34.550292 31869 net.cpp:357] fc6 -> fc6
I0307 10:25:34.550307 31869 net.cpp:97] Setting up fc6
I0307 10:25:34.550951 31869 net.cpp:104] Top shape: 128 121 1 1 (15488)
I0307 10:25:34.550973 31869 layer_factory.hpp:78] Creating layer loss
I0307 10:25:34.550993 31869 net.cpp:68] Creating Layer loss
I0307 10:25:34.551007 31869 net.cpp:395] loss <- fc6
I0307 10:25:34.551019 31869 net.cpp:395] loss <- label
I0307 10:25:34.551033 31869 net.cpp:357] loss -> loss
I0307 10:25:34.551049 31869 net.cpp:97] Setting up loss
I0307 10:25:34.551064 31869 layer_factory.hpp:78] Creating layer loss
I0307 10:25:34.551131 31869 net.cpp:104] Top shape: 1 1 1 1 (1)
I0307 10:25:34.551146 31869 net.cpp:110]     with loss weight 1
I0307 10:25:34.551192 31869 net.cpp:171] loss needs backward computation.
I0307 10:25:34.551205 31869 net.cpp:171] fc6 needs backward computation.
I0307 10:25:34.551216 31869 net.cpp:171] drop5 needs backward computation.
I0307 10:25:34.551228 31869 net.cpp:171] relu5 needs backward computation.
I0307 10:25:34.551237 31869 net.cpp:171] fc5 needs backward computation.
…
