…
  top: "label"
  name: "data"
  type: IMAGE_DATA_AFFINE
  transform_param {
    mirror: true
    mean_file: "/media/data/jhlim/kaggle_data/typeF/train_mean.binaryproto"
    affine_param {
      x_stretch_unirnd_range: 0.01
      y_stretch_unirnd_range: 0.01
      rotation_unirnd_range: 180
      max_translation: 5
      background_color: 255
    }
  }
  image_data_affine_param {
    source: "/media/data/jhlim/kaggle_data/typeF/train.txt"
    scale: 0.00390625
    batch_size: 128
    shuffle: true
    new_size: 96
    is_color: false
    root_folder: "/media/data/jhlim/kaggle_data/typeF/"
  }
}
layers {
  bottom: "data"
  top: "conv1"
  name: "conv1"
  type: CONVOLUTION
  blobs_lr: 1
  blobs_lr: 2
  weight_decay: 1
  weight_decay: 0
  convolution_param {
    num_output: 256
    kernel_size: 4
    stride: 2
    weight_filler {
      type: "xavier"
    }
    bias_filler {
      type: "constant"
    }
  }
}
layers {
  bottom: "conv1"
  top: "conv1_bn"
  name: "conv1_bn"
  type: BN
  blobs_lr: 1
  blobs_lr: 1
  weight_decay: 0
  weight_decay: 0
  bn_param {
    scale_filler {
      type: "constant"
      value: 1
    }
    shift_filler {
      type: "constant"
      value: 0
    }
  }
}
layers {
  bottom: "conv1_bn"
  top: "conv1_bn"
  name: "relu1"
  type: RELU
  relu_param {
    negative_slope: 0.1
  }
}
layers {
  bottom: "conv1_bn"
  top: "cccp1"
  name: "cccp1"
  type: CONVOLUTION
  blobs_lr: 1
  blobs_lr: 2
  weight_decay: 1
  weight_decay: 0
  convolution_param {
    num_output: 256
    kernel_size: 1
    group: 1
    stride: 1
    weight_filler {
      type: "xavier"
    }
    bias_filler {
      type: "constant"
    }
  }
}
layers {
  bottom: "cccp1"
  top: "cccp1_bn"
  name: "cccp1_bn"
  type: BN
  blobs_lr: 1
  blobs_lr: 1
  weight_decay: 0
  weight_decay: 0
  bn_param {
    scale_filler {
      type: "constant"
      value: 1
    }
    shift_filler {
      type: "constant"
      value: 0
    }
  }
}
layers {
  bottom: "cccp1_bn"
  top: "cccp1_bn"
  name: "relu_cccp1"
  type: RELU
  relu_param {
    negative_slope: 0.1
  }
}
layers {
  bottom: "cccp1_bn"
  top: "pool1"
  name: "pool1"
  type: POOLING
  pooling_param {
    pool: MAX
    kernel_size: 3
    stride: 2
  }
}
layers {
  bottom: "pool1"
  top: "conv2"
  name: "conv2"
  type: CONVOLUTION
  blobs_lr: 1
  blobs_lr: 2
  weight_decay: 1
  weight_decay: 0
  convolution_param {
    num_output: 256
    kernel_size: 3
    weight_filler {
      type: "xavier"
    }
    bias_filler {
      type: "constant"
    }
  }
}
layers {
  bottom: "conv2"
  top: "conv2_bn"
  name: "conv2_bn"
  type: BN
  blobs_lr: 1
  blobs_lr: 1
  weight_decay: 0
  weight_decay: 0
  bn_param {
    scale_filler {
      type: "constant"
      value: 1
    }
    shift_filler {
      type: "constant"
      value: 0
    }
  }
}
layers {
  bottom: "conv2_bn"
  top: "conv2_bn"
  name: "relu2"
  type: RELU
  relu_param {
    negative_slope: 0.1
  }
}
layers {
  bottom: "conv2_bn"
  top: "cccp2"
  name: "cccp2"
  type: CONVOLUTION
  blobs_lr: 1
  blobs_lr: 2
  weight_decay: 1
  weight_decay: 0
  convolution_param {
    num_output: 256
    kernel_size: 1
    group: 1
    stride: 1
    weight_filler {
      type: "xavier"
    }
    bias_filler {
      type: "constant"
    }
  }
}
layers {
  bottom: "cccp2"
  top: "cccp2_bn"
  name: "cccp2_bn"
  type: BN
  blobs_lr: 1
  blobs_lr: 1
  weight_decay: 0
  weight_decay: 0
  bn_param {
    scale_filler {
      type: "constant"
      value: 1
    }
    shift_filler {
      type: "constant"
      value: 0
    }
  }
}
layers {
  bottom: "cccp2_bn"
  top: "cccp2_bn"
  name: "relu_cccp2"
  type: RELU
  relu_param {
    negative_slope: 0.1
  }
}
layers {
  bottom: "cccp2_bn"
  top: "conv3"
  name: "conv3"
  type: CONVOLUTION
  blobs_lr: 1
  blobs_lr: 2
  weight_decay: 1
  weight_decay: 0
  convolution_param {
    num_output: 256
    kernel_size: 3
    weight_filler {
      type: "xavier"
    }
    bias_filler {
      type: "constant"
    }
  }
}
layers {
  bottom: "conv3"
  top: "conv3_bn"
  name: "conv3_bn"
  type: BN
  blobs_lr: 1
  blobs_lr: 1
  weight_decay: 0
  weight_decay: 0
  bn_param {
    scale_filler {
      type: "constant"
      value: 1
    }
    shift_filler {
      type: "constant"
      value: 0
    }
  }
}
layers {
  bottom: "conv3_bn"
  top: "conv3_bn"
  name: "relu3"
  type: RELU
  relu_param {
    negative_slope: 0.1
  }
}
layers {
  bottom: "conv3_bn"
  top: "cccp3"
  name: "cccp3"
  type: CONVOLUTION
  blobs_lr: 1
  blobs_lr: 2
  weight_decay: 1
  weight_decay: 0
  convolution_param {
    num_output: 256
    kernel_size: 1
    group: 1
    stride: 1
    weight_filler {
      type: "xavier"
    }
    bias_filler {
      type: "constant"
    }
  }
}
layers {
  bottom: "cccp3"
  top: "cccp3_bn"
  name: "cccp3_bn"
  type: BN
  blobs_lr: 1
  blobs_lr: 1
  weight_decay: 0
  weight_decay: 0
  bn_param {
    scale_filler {
      type: "constant"
      value: 1
    }
    shift_filler {
      type: "constant"
      value: 0
    }
  }
}
layers {
  bottom: "cccp3_bn"
  top: "cccp3_bn"
  name: "relu_cccp3"
  type: RELU
  relu_param {
    negative_slope: 0.1
  }
}
layers {
  bottom: "cccp3_bn"
  top: "pool3"
  name: "pool3"
  type: POOLING
  pooling_param {
    pool: MAX
    kernel_size: 3
    stride: 2
  }
}
layers {
  bottom: "pool3"
  top: "fc4"
  name: "fc4"
  type: INNER_PRODUCT
  blobs_lr: 1
  blobs_lr: 2
  weight_decay: 1
  weight_decay: 0
  inner_product_param {
    num_output: 512
    weight_filler {
      type: "xavier"
    }
    bias_filler {
      type: "constant"
    }
  }
}
layers {
  bottom: "fc4"
  top: "fc4"
  name: "relu4"
  type: RELU
  relu_param {
    negative_slope: 0.1
  }
}
layers {
  bottom: "fc4"
  top: "fc4"
  name: "drop4"
  type: DROPOUT
  dropout_param {
    dropout_ratio: 0.5
  }
}
layers {
  bottom: "fc4"
  top: "fc5"
  name: "fc5"
  type: INNER_PRODUCT
  blobs_lr: 1
  blobs_lr: 2
  weight_decay: 1
  weight_decay: 0
  inner_product_param {
    num_output: 512
    weight_filler {
      type: "xavier"
    }
    bias_filler {
      type: "constant"
    }
  }
}
layers {
  bottom: "fc5"
  top: "fc5"
  name: "relu5"
  type: RELU
  relu_param {
    negative_slope: 0.1
  }
}
layers {
  bottom: "fc5"
  top: "fc5"
  name: "drop5"
  type: DROPOUT
  dropout_param {
    dropout_ratio: 0.5
  }
}
layers {
  bottom: "fc5"
  top: "fc6"
  name: "fc6"
  type: INNER_PRODUCT
  blobs_lr: 1
  blobs_lr: 2
  weight_decay: 1
  weight_decay: 0
  inner_product_param {
    num_output: 121
    weight_filler {
      type: "xavier"
    }
    bias_filler {
      type: "constant"
    }
  }
}
layers {
  bottom: "fc6"
  bottom: "label"
  top: "loss"
  name: "loss"
  type: SOFTMAX_LOSS
}
state {
  phase: TRAIN
}
I0308 13:41:35.920442 18122 layer_factory.hpp:78] Creating layer data
I0308 13:41:35.920471 18122 data_transformer.cpp:24] Loading mean file from/media/data/jhlim/kaggle_data/typeF/train_mean.binaryproto
I0308 13:41:35.920610 18122 net.cpp:68] Creating Layer data
I0308 13:41:35.920631 18122 net.cpp:357] data -> data
I0308 13:41:35.920656 18122 net.cpp:357] data -> label
I0308 13:41:35.920675 18122 net.cpp:97] Setting up data
I0308 13:41:35.920687 18122 image_data_affine_layer.cpp:37] Opening file /media/data/jhlim/kaggle_data/typeF/train.txt
I0308 13:41:35.929468 18122 image_data_affine_layer.cpp:47] Shuffling data
I0308 13:41:35.931164 18122 image_data_affine_layer.cpp:52] A total of 27302 images.
I0308 13:41:35.931437 18122 image_data_affine_layer.cpp:81] output data size: 128,1,96,96
I0308 13:41:35.932183 18122 net.cpp:104] Top shape: 128 1 96 96 (1179648)
I0308 13:41:35.932240 18122 net.cpp:104] Top shape: 128 1 1 1 (128)
I0308 13:41:35.932251 18122 layer_factory.hpp:78] Creating layer conv1
I0308 13:41:35.932270 18122 net.cpp:68] Creating Layer conv1
I0308 13:41:35.932281 18122 net.cpp:395] conv1 <- data
I0308 13:41:35.932301 18122 net.cpp:357] conv1 -> conv1
I0308 13:41:35.932319 18122 net.cpp:97] Setting up conv1
I0308 13:41:35.951892 18122 net.cpp:104] Top shape: 128 256 47 47 (72384512)
I0308 13:41:35.951942 18122 layer_factory.hpp:78] Creating layer conv1_bn
I0308 13:41:35.951966 18122 net.cpp:68] Creating Layer conv1_bn
I0308 13:41:35.951977 18122 net.cpp:395] conv1_bn <- conv1
I0308 13:41:35.951989 18122 net.cpp:357] conv1_bn -> conv1_bn
I0308 13:41:35.952005 18122 net.cpp:97] Setting up conv1_bn
I0308 13:41:35.952033 18122 net.cpp:104] Top shape: 128 256 47 47 (72384512)
I0308 13:41:35.952047 18122 layer_factory.hpp:78] Creating layer relu1
I0308 13:41:35.952060 18122 net.cpp:68] Creating Layer relu1
I0308 13:41:35.952070 18122 net.cpp:395] relu1 <- conv1_bn
I0308 13:41:35.952083 18122 net.cpp:346] relu1 -> conv1_bn (in-place)
I0308 13:41:35.952095 18122 net.cpp:97] Setting up relu1
I0308 13:41:35.952110 18122 net.cpp:104] Top shape: 128 256 47 47 (72384512)
I0308 13:41:35.952119 18122 layer_factory.hpp:78] Creating layer cccp1
I0308 13:41:35.952134 18122 net.cpp:68] Creating Layer cccp1
I0308 13:41:35.952144 18122 net.cpp:395] cccp1 <- conv1_bn
I0308 13:41:35.952155 18122 net.cpp:357] cccp1 -> cccp1
I0308 13:41:35.952167 18122 net.cpp:97] Setting up cccp1
I0308 13:41:35.952656 18122 net.cpp:104] Top shape: 128 256 47 47 (72384512)
I0308 13:41:35.952673 18122 layer_factory.hpp:78] Creating layer cccp1_bn
I0308 13:41:35.952688 18122 net.cpp:68] Creating Layer cccp1_bn
I0308 13:41:35.952698 18122 net.cpp:395] cccp1_bn <- cccp1
I0308 13:41:35.952709 18122 net.cpp:357] cccp1_bn -> cccp1_bn
I0308 13:41:35.952721 18122 net.cpp:97] Setting up cccp1_bn
I0308 13:41:35.952741 18122 net.cpp:104] Top shape: 128 256 47 47 (72384512)
I0308 13:41:35.952754 18122 layer_factory.hpp:78] Creating layer relu_cccp1
I0308 13:41:35.952764 18122 net.cpp:68] Creating Layer relu_cccp1
I0308 13:41:35.952774 18122 net.cpp:395] relu_cccp1 <- cccp1_bn
I0308 13:41:35.952785 18122 net.cpp:346] relu_cccp1 -> cccp1_bn (in-place)
I0308 13:41:35.952795 18122 net.cpp:97] Setting up relu_cccp1
I0308 13:41:35.952807 18122 net.cpp:104] Top shape: 128 256 47 47 (72384512)
I0308 13:41:35.952816 18122 layer_factory.hpp:78] Creating layer pool1
I0308 13:41:35.952829 18122 net.cpp:68] Creating Layer pool1
I0308 13:41:35.952839 18122 net.cpp:395] pool1 <- cccp1_bn
I0308 13:41:35.952849 18122 net.cpp:357] pool1 -> pool1
I0308 13:41:35.952860 18122 net.cpp:97] Setting up pool1
I0308 13:41:35.952886 18122 net.cpp:104] Top shape: 128 256 23 23 (17334272)
I0308 13:41:35.952898 18122 layer_factory.hpp:78] Creating layer conv2
I0308 13:41:35.952913 18122 net.cpp:68] Creating Layer conv2
I0308 13:41:35.952924 18122 net.cpp:395] conv2 <- pool1
I0308 13:41:35.952939 18122 net.cpp:357] conv2 -> conv2
I0308 13:41:35.952951 18122 net.cpp:97] Setting up conv2
I0308 13:41:35.956953 18122 net.cpp:104] Top shape: 128 256 21 21 (14450688)
I0308 13:41:35.956975 18122 layer_factory.hpp:78] Creating layer conv2_bn
I0308 13:41:35.956990 18122 net.cpp:68] Creating Layer conv2_bn
I0308 13:41:35.957000 18122 net.cpp:395] conv2_bn <- conv2
I0308 13:41:35.957010 18122 net.cpp:357] conv2_bn -> conv2_bn
I0308 13:41:35.957022 18122 net.cpp:97] Setting up conv2_bn
I0308 13:41:35.957041 18122 net.cpp:104] Top shape: 128 256 21 21 (14450688)
I0308 13:41:35.957053 18122 layer_factory.hpp:78] Creating layer relu2
I0308 13:41:35.957063 18122 net.cpp:68] Creating Layer relu2
I0308 13:41:35.957072 18122 net.cpp:395] relu2 <- conv2_bn
I0308 13:41:35.957082 18122 net.cpp:346] relu2 -> conv2_bn (in-place)
I0308 13:41:35.957093 18122 net.cpp:97] Setting up relu2
I0308 13:41:35.957103 18122 net.cpp:104] Top shape: 128 256 21 21 (14450688)
I0308 13:41:35.957113 18122 layer_factory.hpp:78] Creating layer cccp2
I0308 13:41:35.957151 18122 net.cpp:68] Creating Layer cccp2
I0308 13:41:35.957162 18122 net.cpp:395] cccp2 <- conv2_bn
I0308 13:41:35.957173 18122 net.cpp:357] cccp2 -> cccp2
I0308 13:41:35.957185 18122 net.cpp:97] Setting up cccp2
I0308 13:41:35.957690 18122 net.cpp:104] Top shape: 128 256 21 21 (14450688)
I0308 13:41:35.957708 18122 layer_factory.hpp:78] Creating layer cccp2_bn
I0308 13:41:35.957722 18122 net.cpp:68] Creating Layer cccp2_bn
I0308 13:41:35.957736 18122 net.cpp:395] cccp2_bn <- cccp2
I0308 13:41:35.957747 18122 net.cpp:357] cccp2_bn -> cccp2_bn
I0308 13:41:35.957762 18122 net.cpp:97] Setting up cccp2_bn
I0308 13:41:35.957782 18122 net.cpp:104] Top shape: 128 256 21 21 (14450688)
I0308 13:41:35.957793 18122 layer_factory.hpp:78] Creating layer relu_cccp2
I0308 13:41:35.957814 18122 net.cpp:68] Creating Layer relu_cccp2
I0308 13:41:35.957823 18122 net.cpp:395] relu_cccp2 <- cccp2_bn
I0308 13:41:35.957835 18122 net.cpp:346] relu_cccp2 -> cccp2_bn (in-place)
I0308 13:41:35.957846 18122 net.cpp:97] Setting up relu_cccp2
I0308 13:41:35.957859 18122 net.cpp:104] Top shape: 128 256 21 21 (14450688)
I0308 13:41:35.957869 18122 layer_factory.hpp:78] Creating layer conv3
I0308 13:41:35.957880 18122 net.cpp:68] Creating Layer conv3
I0308 13:41:35.957887 18122 net.cpp:395] conv3 <- cccp2_bn
I0308 13:41:35.957898 18122 net.cpp:357] conv3 -> conv3
I0308 13:41:35.957909 18122 net.cpp:97] Setting up conv3
I0308 13:41:35.961871 18122 net.cpp:104] Top shape: 128 256 19 19 (11829248)
I0308 13:41:35.961894 18122 layer_factory.hpp:78] Creating layer conv3_bn
I0308 13:41:35.961910 18122 net.cpp:68] Creating Layer conv3_bn
I0308 13:41:35.961920 18122 net.cpp:395] conv3_bn <- conv3
I0308 13:41:35.961931 18122 net.cpp:357] conv3_bn -> conv3_bn
I0308 13:41:35.961943 18122 net.cpp:97] Setting up conv3_bn
I0308 13:41:35.961959 18122 net.cpp:104] Top shape: 128 256 19 19 (11829248)
I0308 13:41:35.961971 18122 layer_factory.hpp:78] Creating layer relu3
I0308 13:41:35.961984 18122 net.cpp:68] Creating Layer relu3
I0308 13:41:35.961994 18122 net.cpp:395] relu3 <- conv3_bn
I0308 13:41:35.962005 18122 net.cpp:346] relu3 -> conv3_bn (in-place)
I0308 13:41:35.962015 18122 net.cpp:97] Setting up relu3
I0308 13:41:35.962026 18122 net.cpp:104] Top shape: 128 256 19 19 (11829248)
I0308 13:41:35.962036 18122 layer_factory.hpp:78] Creating layer cccp3
I0308 13:41:35.962048 18122 net.cpp:68] Creating Layer cccp3
I0308 13:41:35.962056 18122 net.cpp:395] cccp3 <- conv3_bn
I0308 13:41:35.962067 18122 net.cpp:357] cccp3 -> cccp3
I0308 13:41:35.962079 18122 net.cpp:97] Setting up cccp3
I0308 13:41:35.962721 18122 net.cpp:104] Top shape: 128 256 19 19 (11829248)
I0308 13:41:35.962740 18122 layer_factory.hpp:78] Creating layer cccp3_bn
I0308 13:41:35.962756 18122 net.cpp:68] Creating Layer cccp3_bn
I0308 13:41:35.962766 18122 net.cpp:395] cccp3_bn <- cccp3
I0308 13:41:35.962779 18122 net.cpp:357] cccp3_bn -> cccp3_bn
I0308 13:41:35.962791 18122 net.cpp:97] Setting up cccp3_bn
I0308 13:41:35.962808 18122 net.cpp:104] Top shape: 128 256 19 19 (11829248)
I0308 13:41:35.962821 18122 layer_factory.hpp:78] Creating layer relu_cccp3
I0308 13:41:35.962832 18122 net.cpp:68] Creating Layer relu_cccp3
I0308 13:41:35.962841 18122 net.cpp:395] relu_cccp3 <- cccp3_bn
I0308 13:41:35.962852 18122 net.cpp:346] relu_cccp3 -> cccp3_bn (in-place)
I0308 13:41:35.962862 18122 net.cpp:97] Setting up relu_cccp3
I0308 13:41:35.962874 18122 net.cpp:104] Top shape: 128 256 19 19 (11829248)
I0308 13:41:35.962883 18122 layer_factory.hpp:78] Creating layer pool3
I0308 13:41:35.962896 18122 net.cpp:68] Creating Layer pool3
I0308 13:41:35.962906 18122 net.cpp:395] pool3 <- cccp3_bn
I0308 13:41:35.962916 18122 net.cpp:357] pool3 -> pool3
I0308 13:41:35.962927 18122 net.cpp:97] Setting up pool3
I0308 13:41:35.962939 18122 net.cpp:104] Top shape: 128 256 9 9 (2654208)
I0308 13:41:35.962949 18122 layer_factory.hpp:78] Creating layer fc4
I0308 13:41:35.962965 18122 net.cpp:68] Creating Layer fc4
I0308 13:41:35.962975 18122 net.cpp:395] fc4 <- pool3
I0308 13:41:35.962986 18122 net.cpp:357] fc4 -> fc4
I0308 13:41:35.963011 18122 net.cpp:97] Setting up fc4
I0308 13:41:36.023960 18122 net.cpp:104] Top shape: 128 512 1 1 (65536)
I0308 13:41:36.024022 18122 layer_factory.hpp:78] Creating layer relu4
I0308 13:41:36.024037 18122 net.cpp:68] Creating Layer relu4
I0308 13:41:36.024049 18122 net.cpp:395] relu4 <- fc4
I0308 13:41:36.024063 18122 net.cpp:346] relu4 -> fc4 (in-place)
I0308 13:41:36.024077 18122 net.cpp:97] Setting up relu4
I0308 13:41:36.024098 18122 net.cpp:104] Top shape: 128 512 1 1 (65536)
I0308 13:41:36.024108 18122 layer_factory.hpp:78] Creating layer drop4
I0308 13:41:36.024123 18122 net.cpp:68] Creating Layer drop4
I0308 13:41:36.024133 18122 net.cpp:395] drop4 <- fc4
I0308 13:41:36.024143 18122 net.cpp:346] drop4 -> fc4 (in-place)
I0308 13:41:36.024153 18122 net.cpp:97] Setting up drop4
I0308 13:41:36.024165 18122 net.cpp:104] Top shape: 128 512 1 1 (65536)
I0308 13:41:36.024174 18122 layer_factory.hpp:78] Creating layer fc5
I0308 13:41:36.024186 18122 net.cpp:68] Creating Layer fc5
I0308 13:41:36.024195 18122 net.cpp:395] fc5 <- fc4
I0308 13:41:36.024209 18122 net.cpp:357] fc5 -> fc5
I0308 13:41:36.024221 18122 net.cpp:97] Setting up fc5
I0308 13:41:36.025959 18122 net.cpp:104] Top shape: 128 512 1 1 (65536)
I0308 13:41:36.025987 18122 layer_factory.hpp:78] Creating layer relu5
I0308 13:41:36.026002 18122 net.cpp:68] Creating Layer relu5
I0308 13:41:36.026012 18122 net.cpp:395] relu5 <- fc5
I0308 13:41:36.026022 18122 net.cpp:346] relu5 -> fc5 (in-place)
I0308 13:41:36.026043 18122 net.cpp:97] Setting up relu5
I0308 13:41:36.026056 18122 net.cpp:104] Top shape: 128 512 1 1 (65536)
I0308 13:41:36.026065 18122 layer_factory.hpp:78] Creating layer drop5
I0308 13:41:36.026075 18122 net.cpp:68] Creating Layer drop5
I0308 13:41:36.026084 18122 net.cpp:395] drop5 <- fc5
I0308 13:41:36.026094 18122 net.cpp:346] drop5 -> fc5 (in-place)
I0308 13:41:36.026105 18122 net.cpp:97] Setting up drop5
I0308 13:41:36.026114 18122 net.cpp:104] Top shape: 128 512 1 1 (65536)
I0308 13:41:36.026124 18122 layer_factory.hpp:78] Creating layer fc6
I0308 13:41:36.026134 18122 net.cpp:68] Creating Layer fc6
I0308 13:41:36.026142 18122 net.cpp:395] fc6 <- fc5
I0308 13:41:36.026154 18122 net.cpp:357] fc6 -> fc6
I0308 13:41:36.026166 18122 net.cpp:97] Setting up fc6
I0308 13:41:36.026587 18122 net.cpp:104] Top shape: 128 121 1 1 (15488)
I0308 13:41:36.026614 18122 layer_factory.hpp:78] Creating layer loss
I0308 13:41:36.026630 18122 net.cpp:68] Creating Layer loss
I0308 13:41:36.026641 18122 net.cpp:395] loss <- fc6
I0308 13:41:36.026653 18122 net.cpp:395] loss <- label
I0308 13:41:36.026662 18122 net.cpp:357] loss -> loss
I0308 13:41:36.026674 18122 net.cpp:97] Setting up loss
I0308 13:41:36.026687 18122 layer_factory.hpp:78] Creating layer loss
I0308 13:41:36.026736 18122 net.cpp:104] Top shape: 1 1 1 1 (1)
I0308 13:41:36.026749 18122 net.cpp:110]     with loss weight 1
I0308 13:41:36.026787 18122 net.cpp:171] loss needs backward computation.
I0308 13:41:36.026796 18122 net.cpp:171] fc6 needs backward computation.
I0308 13:41:36.026805 18122 net.cpp:171] drop5 needs backward computation.
I0308 13:41:36.026813 18122 net.cpp:171] relu5 needs backward computation.
I0308 13:41:36.026823 18122 net.cpp:171] fc5 needs backward computation.
…
