…
I0301 17:35:28.533509 27261 net.cpp:276] The NetState phase (0) differed from the phase (1) specified by a rule in layer accuracy
I0301 17:35:28.533711 27261 net.cpp:39] Initializing net from parameters: 
name: "model1_part1_bn"
layers {
  top: "data"
  top: "label"
  name: "data"
  type: DATA
  data_param {
    source: "/home/jaehyun/kaggle/nationalDataScienceBowl/data/typeD/train_lmdb"
    batch_size: 256
    backend: LMDB
    shuffle: true
  }
  include {
    phase: TRAIN
  }
  transform_param {
    scale: 0.00390625
    mirror: true
    mean_file: "/home/jaehyun/kaggle/nationalDataScienceBowl/data/typeD/train_mean.binaryproto"
  }
}
layers {
  bottom: "data"
  top: "conv1"
  name: "conv1"
  type: CONVOLUTION
  blobs_lr: 1
  blobs_lr: 2
  weight_decay: 1
  weight_decay: 0
  convolution_param {
    num_output: 128
    kernel_size: 4
    stride: 2
    weight_filler {
      type: "xavier"
    }
    bias_filler {
      type: "constant"
    }
  }
}
layers {
  bottom: "conv1"
  top: "conv1"
  name: "relu1"
  type: RELU
  relu_param {
    negative_slope: 0.1
  }
}
layers {
  bottom: "conv1"
  top: "cccp1"
  name: "cccp1"
  type: CONVOLUTION
  blobs_lr: 1
  blobs_lr: 2
  weight_decay: 1
  weight_decay: 0
  convolution_param {
    num_output: 128
    kernel_size: 1
    group: 1
    stride: 1
    weight_filler {
      type: "xavier"
    }
    bias_filler {
      type: "constant"
    }
  }
}
layers {
  bottom: "cccp1"
  top: "cccp1_bn"
  name: "cccp1_bn"
  type: BN
  blobs_lr: 1
  blobs_lr: 1
  weight_decay: 0
  weight_decay: 0
  bn_param {
    scale_filler {
      type: "constant"
      value: 1
    }
    shift_filler {
      type: "constant"
      value: 0
    }
  }
}
layers {
  bottom: "cccp1_bn"
  top: "cccp1_bn"
  name: "relu_cccp1"
  type: RELU
  relu_param {
    negative_slope: 0.1
  }
}
layers {
  bottom: "cccp1_bn"
  top: "pool1"
  name: "pool1"
  type: POOLING
  pooling_param {
    pool: MAX
    kernel_size: 3
    stride: 2
  }
}
layers {
  bottom: "pool1"
  top: "conv2"
  name: "conv2"
  type: CONVOLUTION
  blobs_lr: 1
  blobs_lr: 2
  weight_decay: 1
  weight_decay: 0
  convolution_param {
    num_output: 128
    kernel_size: 3
    weight_filler {
      type: "xavier"
    }
    bias_filler {
      type: "constant"
    }
  }
}
layers {
  bottom: "conv2"
  top: "conv2_bn"
  name: "conv2_bn"
  type: BN
  blobs_lr: 1
  blobs_lr: 1
  weight_decay: 0
  weight_decay: 0
  bn_param {
    scale_filler {
      type: "constant"
      value: 1
    }
    shift_filler {
      type: "constant"
      value: 0
    }
  }
}
layers {
  bottom: "conv2_bn"
  top: "conv2_bn"
  name: "relu2"
  type: RELU
  relu_param {
    negative_slope: 0.1
  }
}
layers {
  bottom: "conv2_bn"
  top: "conv3"
  name: "conv3"
  type: CONVOLUTION
  blobs_lr: 1
  blobs_lr: 2
  weight_decay: 1
  weight_decay: 0
  convolution_param {
    num_output: 128
    kernel_size: 3
    weight_filler {
      type: "xavier"
    }
    bias_filler {
      type: "constant"
    }
  }
}
layers {
  bottom: "conv3"
  top: "conv3_bn"
  name: "conv3_bn"
  type: BN
  blobs_lr: 1
  blobs_lr: 1
  weight_decay: 0
  weight_decay: 0
  bn_param {
    scale_filler {
      type: "constant"
      value: 1
    }
    shift_filler {
      type: "constant"
      value: 0
    }
  }
}
layers {
  bottom: "conv3_bn"
  top: "conv3_bn"
  name: "relu3"
  type: RELU
  relu_param {
    negative_slope: 0.1
  }
}
layers {
  bottom: "conv3_bn"
  top: "pool3"
  name: "pool3"
  type: POOLING
  pooling_param {
    pool: MAX
    kernel_size: 3
    stride: 2
  }
}
layers {
  bottom: "pool3"
  top: "fc4"
  name: "fc4"
  type: INNER_PRODUCT
  blobs_lr: 1
  blobs_lr: 2
  weight_decay: 1
  weight_decay: 0
  inner_product_param {
    num_output: 512
    weight_filler {
      type: "xavier"
    }
    bias_filler {
      type: "constant"
    }
  }
}
layers {
  bottom: "fc4"
  top: "fc4"
  name: "relu4"
  type: RELU
  relu_param {
    negative_slope: 0.1
  }
}
layers {
  bottom: "fc4"
  top: "fc4"
  name: "drop4"
  type: DROPOUT
  dropout_param {
    dropout_ratio: 0.5
  }
}
layers {
  bottom: "fc4"
  top: "fc5"
  name: "fc5"
  type: INNER_PRODUCT
  blobs_lr: 1
  blobs_lr: 2
  weight_decay: 1
  weight_decay: 0
  inner_product_param {
    num_output: 512
    weight_filler {
      type: "xavier"
    }
    bias_filler {
      type: "constant"
    }
  }
}
layers {
  bottom: "fc5"
  top: "fc5"
  name: "relu5"
  type: RELU
  relu_param {
    negative_slope: 0.1
  }
}
layers {
  bottom: "fc5"
  top: "fc5"
  name: "drop5"
  type: DROPOUT
  dropout_param {
    dropout_ratio: 0.5
  }
}
layers {
  bottom: "fc5"
  top: "fc6"
  name: "fc6"
  type: INNER_PRODUCT
  blobs_lr: 1
  blobs_lr: 2
  weight_decay: 1
  weight_decay: 0
  inner_product_param {
    num_output: 121
    weight_filler {
      type: "xavier"
    }
    bias_filler {
      type: "constant"
    }
  }
}
layers {
  bottom: "fc6"
  bottom: "label"
  top: "loss"
  name: "loss"
  type: SOFTMAX_LOSS
}
state {
  phase: TRAIN
}
I0301 17:35:28.534838 27261 layer_factory.hpp:78] Creating layer data
I0301 17:35:28.534868 27261 data_transformer.cpp:24] Loading mean file from/home/jaehyun/kaggle/nationalDataScienceBowl/data/typeD/train_mean.binaryproto
I0301 17:35:28.534967 27261 net.cpp:68] Creating Layer data
I0301 17:35:28.534989 27261 net.cpp:357] data -> data
I0301 17:35:28.535017 27261 net.cpp:357] data -> label
I0301 17:35:28.535038 27261 net.cpp:97] Setting up data
I0301 17:35:28.535058 27261 data_layer.cpp:34] Opening dataset /home/jaehyun/kaggle/nationalDataScienceBowl/data/typeD/train_lmdb
I0301 17:35:28.535215 27261 data_layer.cpp:73] output data size: 256,1,48,48
I0301 17:35:28.536873 27261 net.cpp:104] Top shape: 256 1 48 48 (589824)
I0301 17:35:28.536900 27261 net.cpp:104] Top shape: 256 1 1 1 (256)
I0301 17:35:28.536913 27261 layer_factory.hpp:78] Creating layer conv1
I0301 17:35:28.536931 27261 net.cpp:68] Creating Layer conv1
I0301 17:35:28.536944 27261 net.cpp:395] conv1 <- data
I0301 17:35:28.537001 27261 net.cpp:357] conv1 -> conv1
I0301 17:35:28.537024 27261 net.cpp:97] Setting up conv1
I0301 17:35:28.590028 27261 net.cpp:104] Top shape: 256 128 23 23 (17334272)
I0301 17:35:28.590109 27261 layer_factory.hpp:78] Creating layer relu1
I0301 17:35:28.590137 27261 net.cpp:68] Creating Layer relu1
I0301 17:35:28.590153 27261 net.cpp:395] relu1 <- conv1
I0301 17:35:28.590170 27261 net.cpp:346] relu1 -> conv1 (in-place)
I0301 17:35:28.590189 27261 net.cpp:97] Setting up relu1
I0301 17:35:28.590211 27261 net.cpp:104] Top shape: 256 128 23 23 (17334272)
I0301 17:35:28.590224 27261 layer_factory.hpp:78] Creating layer cccp1
I0301 17:35:28.590242 27261 net.cpp:68] Creating Layer cccp1
I0301 17:35:28.590255 27261 net.cpp:395] cccp1 <- conv1
I0301 17:35:28.590270 27261 net.cpp:357] cccp1 -> cccp1
I0301 17:35:28.590286 27261 net.cpp:97] Setting up cccp1
I0301 17:35:28.590544 27261 net.cpp:104] Top shape: 256 128 23 23 (17334272)
I0301 17:35:28.590569 27261 layer_factory.hpp:78] Creating layer cccp1_bn
I0301 17:35:28.590639 27261 net.cpp:68] Creating Layer cccp1_bn
I0301 17:35:28.590653 27261 net.cpp:395] cccp1_bn <- cccp1
I0301 17:35:28.590672 27261 net.cpp:357] cccp1_bn -> cccp1_bn
I0301 17:35:28.590689 27261 net.cpp:97] Setting up cccp1_bn
I0301 17:35:28.590726 27261 net.cpp:104] Top shape: 256 128 23 23 (17334272)
I0301 17:35:28.590745 27261 layer_factory.hpp:78] Creating layer relu_cccp1
I0301 17:35:28.590759 27261 net.cpp:68] Creating Layer relu_cccp1
I0301 17:35:28.590771 27261 net.cpp:395] relu_cccp1 <- cccp1_bn
I0301 17:35:28.590787 27261 net.cpp:346] relu_cccp1 -> cccp1_bn (in-place)
I0301 17:35:28.590802 27261 net.cpp:97] Setting up relu_cccp1
I0301 17:35:28.590817 27261 net.cpp:104] Top shape: 256 128 23 23 (17334272)
I0301 17:35:28.590831 27261 layer_factory.hpp:78] Creating layer pool1
I0301 17:35:28.590847 27261 net.cpp:68] Creating Layer pool1
I0301 17:35:28.590859 27261 net.cpp:395] pool1 <- cccp1_bn
I0301 17:35:28.590875 27261 net.cpp:357] pool1 -> pool1
I0301 17:35:28.590891 27261 net.cpp:97] Setting up pool1
I0301 17:35:28.590926 27261 net.cpp:104] Top shape: 256 128 11 11 (3964928)
I0301 17:35:28.590940 27261 layer_factory.hpp:78] Creating layer conv2
I0301 17:35:28.590955 27261 net.cpp:68] Creating Layer conv2
I0301 17:35:28.590967 27261 net.cpp:395] conv2 <- pool1
I0301 17:35:28.590986 27261 net.cpp:357] conv2 -> conv2
I0301 17:35:28.591001 27261 net.cpp:97] Setting up conv2
I0301 17:35:28.592603 27261 net.cpp:104] Top shape: 256 128 9 9 (2654208)
I0301 17:35:28.592629 27261 layer_factory.hpp:78] Creating layer conv2_bn
I0301 17:35:28.592649 27261 net.cpp:68] Creating Layer conv2_bn
I0301 17:35:28.592663 27261 net.cpp:395] conv2_bn <- conv2
I0301 17:35:28.592680 27261 net.cpp:357] conv2_bn -> conv2_bn
I0301 17:35:28.592697 27261 net.cpp:97] Setting up conv2_bn
I0301 17:35:28.592718 27261 net.cpp:104] Top shape: 256 128 9 9 (2654208)
I0301 17:35:28.592738 27261 layer_factory.hpp:78] Creating layer relu2
I0301 17:35:28.592753 27261 net.cpp:68] Creating Layer relu2
I0301 17:35:28.592766 27261 net.cpp:395] relu2 <- conv2_bn
I0301 17:35:28.592780 27261 net.cpp:346] relu2 -> conv2_bn (in-place)
I0301 17:35:28.592795 27261 net.cpp:97] Setting up relu2
I0301 17:35:28.592810 27261 net.cpp:104] Top shape: 256 128 9 9 (2654208)
I0301 17:35:28.592823 27261 layer_factory.hpp:78] Creating layer conv3
I0301 17:35:28.592838 27261 net.cpp:68] Creating Layer conv3
I0301 17:35:28.592849 27261 net.cpp:395] conv3 <- conv2_bn
I0301 17:35:28.592862 27261 net.cpp:357] conv3 -> conv3
I0301 17:35:28.592878 27261 net.cpp:97] Setting up conv3
I0301 17:35:28.594476 27261 net.cpp:104] Top shape: 256 128 7 7 (1605632)
I0301 17:35:28.594502 27261 layer_factory.hpp:78] Creating layer conv3_bn
I0301 17:35:28.594521 27261 net.cpp:68] Creating Layer conv3_bn
I0301 17:35:28.594534 27261 net.cpp:395] conv3_bn <- conv3
I0301 17:35:28.594553 27261 net.cpp:357] conv3_bn -> conv3_bn
I0301 17:35:28.594569 27261 net.cpp:97] Setting up conv3_bn
I0301 17:35:28.594593 27261 net.cpp:104] Top shape: 256 128 7 7 (1605632)
I0301 17:35:28.594607 27261 layer_factory.hpp:78] Creating layer relu3
I0301 17:35:28.594621 27261 net.cpp:68] Creating Layer relu3
I0301 17:35:28.594633 27261 net.cpp:395] relu3 <- conv3_bn
I0301 17:35:28.594646 27261 net.cpp:346] relu3 -> conv3_bn (in-place)
I0301 17:35:28.594660 27261 net.cpp:97] Setting up relu3
I0301 17:35:28.594674 27261 net.cpp:104] Top shape: 256 128 7 7 (1605632)
I0301 17:35:28.594686 27261 layer_factory.hpp:78] Creating layer pool3
I0301 17:35:28.594703 27261 net.cpp:68] Creating Layer pool3
I0301 17:35:28.594715 27261 net.cpp:395] pool3 <- conv3_bn
I0301 17:35:28.594729 27261 net.cpp:357] pool3 -> pool3
I0301 17:35:28.594743 27261 net.cpp:97] Setting up pool3
I0301 17:35:28.594759 27261 net.cpp:104] Top shape: 256 128 3 3 (294912)
I0301 17:35:28.594774 27261 layer_factory.hpp:78] Creating layer fc4
I0301 17:35:28.594794 27261 net.cpp:68] Creating Layer fc4
I0301 17:35:28.594807 27261 net.cpp:395] fc4 <- pool3
I0301 17:35:28.594821 27261 net.cpp:357] fc4 -> fc4
I0301 17:35:28.594856 27261 net.cpp:97] Setting up fc4
I0301 17:35:28.600993 27261 net.cpp:104] Top shape: 256 512 1 1 (131072)
I0301 17:35:28.601029 27261 layer_factory.hpp:78] Creating layer relu4
I0301 17:35:28.601045 27261 net.cpp:68] Creating Layer relu4
I0301 17:35:28.601059 27261 net.cpp:395] relu4 <- fc4
I0301 17:35:28.601078 27261 net.cpp:346] relu4 -> fc4 (in-place)
I0301 17:35:28.601095 27261 net.cpp:97] Setting up relu4
I0301 17:35:28.601114 27261 net.cpp:104] Top shape: 256 512 1 1 (131072)
I0301 17:35:28.601127 27261 layer_factory.hpp:78] Creating layer drop4
I0301 17:35:28.601146 27261 net.cpp:68] Creating Layer drop4
I0301 17:35:28.601160 27261 net.cpp:395] drop4 <- fc4
I0301 17:35:28.601176 27261 net.cpp:346] drop4 -> fc4 (in-place)
I0301 17:35:28.601191 27261 net.cpp:97] Setting up drop4
I0301 17:35:28.601205 27261 net.cpp:104] Top shape: 256 512 1 1 (131072)
I0301 17:35:28.601217 27261 layer_factory.hpp:78] Creating layer fc5
I0301 17:35:28.601232 27261 net.cpp:68] Creating Layer fc5
I0301 17:35:28.601243 27261 net.cpp:395] fc5 <- fc4
I0301 17:35:28.601256 27261 net.cpp:357] fc5 -> fc5
I0301 17:35:28.601270 27261 net.cpp:97] Setting up fc5
I0301 17:35:28.604002 27261 net.cpp:104] Top shape: 256 512 1 1 (131072)
I0301 17:35:28.604033 27261 layer_factory.hpp:78] Creating layer relu5
I0301 17:35:28.604051 27261 net.cpp:68] Creating Layer relu5
I0301 17:35:28.604071 27261 net.cpp:395] relu5 <- fc5
I0301 17:35:28.604086 27261 net.cpp:346] relu5 -> fc5 (in-place)
I0301 17:35:28.604102 27261 net.cpp:97] Setting up relu5
I0301 17:35:28.604120 27261 net.cpp:104] Top shape: 256 512 1 1 (131072)
I0301 17:35:28.604132 27261 layer_factory.hpp:78] Creating layer drop5
I0301 17:35:28.604146 27261 net.cpp:68] Creating Layer drop5
I0301 17:35:28.604157 27261 net.cpp:395] drop5 <- fc5
I0301 17:35:28.604171 27261 net.cpp:346] drop5 -> fc5 (in-place)
I0301 17:35:28.604184 27261 net.cpp:97] Setting up drop5
I0301 17:35:28.604197 27261 net.cpp:104] Top shape: 256 512 1 1 (131072)
I0301 17:35:28.604207 27261 layer_factory.hpp:78] Creating layer fc6
I0301 17:35:28.604223 27261 net.cpp:68] Creating Layer fc6
I0301 17:35:28.604234 27261 net.cpp:395] fc6 <- fc5
I0301 17:35:28.604249 27261 net.cpp:357] fc6 -> fc6
I0301 17:35:28.604262 27261 net.cpp:97] Setting up fc6
I0301 17:35:28.605002 27261 net.cpp:104] Top shape: 256 121 1 1 (30976)
I0301 17:35:28.605028 27261 layer_factory.hpp:78] Creating layer loss
I0301 17:35:28.605048 27261 net.cpp:68] Creating Layer loss
I0301 17:35:28.605062 27261 net.cpp:395] loss <- fc6
I0301 17:35:28.605077 27261 net.cpp:395] loss <- label
I0301 17:35:28.605090 27261 net.cpp:357] loss -> loss
I0301 17:35:28.605108 27261 net.cpp:97] Setting up loss
I0301 17:35:28.605123 27261 layer_factory.hpp:78] Creating layer loss
I0301 17:35:28.605231 27261 net.cpp:104] Top shape: 1 1 1 1 (1)
I0301 17:35:28.605247 27261 net.cpp:110]     with loss weight 1
I0301 17:35:28.605298 27261 net.cpp:171] loss needs backward computation.
I0301 17:35:28.605311 27261 net.cpp:171] fc6 needs backward computation.
I0301 17:35:28.605322 27261 net.cpp:171] drop5 needs backward computation.
I0301 17:35:28.605334 27261 net.cpp:171] relu5 needs backward computation.
I0301 17:35:28.605345 27261 net.cpp:171] fc5 needs backward computation.
…
I0301 17:35:28.606498 27261 net.cpp:276] The NetState phase (1) differed from the phase (0) specified by a rule in layer data
I0301 17:35:28.606722 27261 net.cpp:39] Initializing net from parameters: 
name: "model1_part1_bn"
layers {
  top: "data"
  top: "label"
  name: "data"
  type: DATA
  data_param {
    source: "/home/jaehyun/kaggle/nationalDataScienceBowl/data/typeD/val_lmdb"
    batch_size: 256
    backend: LMDB
  }
  include {
    phase: TEST
  }
  transform_param {
    scale: 0.00390625
    mirror: false
    mean_file: "/home/jaehyun/kaggle/nationalDataScienceBowl/data/typeD/train_mean.binaryproto"
  }
}
layers {
  bottom: "data"
  top: "conv1"
  name: "conv1"
  type: CONVOLUTION
  blobs_lr: 1
  blobs_lr: 2
  weight_decay: 1
  weight_decay: 0
  convolution_param {
    num_output: 128
    kernel_size: 4
    stride: 2
    weight_filler {
      type: "xavier"
    }
    bias_filler {
      type: "constant"
    }
  }
}
layers {
  bottom: "conv1"
  top: "conv1"
  name: "relu1"
  type: RELU
  relu_param {
    negative_slope: 0.1
  }
}
layers {
  bottom: "conv1"
  top: "cccp1"
  name: "cccp1"
  type: CONVOLUTION
  blobs_lr: 1
  blobs_lr: 2
  weight_decay: 1
  weight_decay: 0
  convolution_param {
    num_output: 128
    kernel_size: 1
    group: 1
    stride: 1
    weight_filler {
      type: "xavier"
    }
    bias_filler {
      type: "constant"
    }
  }
}
layers {
  bottom: "cccp1"
  top: "cccp1_bn"
  name: "cccp1_bn"
  type: BN
  blobs_lr: 1
  blobs_lr: 1
  weight_decay: 0
  weight_decay: 0
  bn_param {
    scale_filler {
      type: "constant"
      value: 1
    }
    shift_filler {
      type: "constant"
      value: 0
    }
  }
}
layers {
  bottom: "cccp1_bn"
  top: "cccp1_bn"
  name: "relu_cccp1"
  type: RELU
  relu_param {
    negative_slope: 0.1
  }
}
layers {
  bottom: "cccp1_bn"
  top: "pool1"
  name: "pool1"
  type: POOLING
  pooling_param {
    pool: MAX
    kernel_size: 3
    stride: 2
  }
}
layers {
  bottom: "pool1"
  top: "conv2"
  name: "conv2"
  type: CONVOLUTION
  blobs_lr: 1
  blobs_lr: 2
  weight_decay: 1
  weight_decay: 0
  convolution_param {
    num_output: 128
    kernel_size: 3
    weight_filler {
      type: "xavier"
    }
    bias_filler {
      type: "constant"
    }
  }
}
layers {
  bottom: "conv2"
  top: "conv2_bn"
  name: "conv2_bn"
  type: BN
  blobs_lr: 1
  blobs_lr: 1
  weight_decay: 0
  weight_decay: 0
  bn_param {
    scale_filler {
      type: "constant"
      value: 1
    }
    shift_filler {
      type: "constant"
      value: 0
    }
  }
}
layers {
  bottom: "conv2_bn"
  top: "conv2_bn"
  name: "relu2"
  type: RELU
  relu_param {
    negative_slope: 0.1
  }
}
layers {
  bottom: "conv2_bn"
  top: "conv3"
  name: "conv3"
  type: CONVOLUTION
  blobs_lr: 1
  blobs_lr: 2
  weight_decay: 1
  weight_decay: 0
  convolution_param {
    num_output: 128
    kernel_size: 3
    weight_filler {
      type: "xavier"
    }
    bias_filler {
      type: "constant"
    }
  }
}
layers {
  bottom: "conv3"
  top: "conv3_bn"
  name: "conv3_bn"
  type: BN
  blobs_lr: 1
  blobs_lr: 1
  weight_decay: 0
  weight_decay: 0
  bn_param {
    scale_filler {
      type: "constant"
      value: 1
    }
    shift_filler {
      type: "constant"
      value: 0
    }
  }
}
layers {
  bottom: "conv3_bn"
  top: "conv3_bn"
  name: "relu3"
  type: RELU
  relu_param {
    negative_slope: 0.1
  }
}
layers {
  bottom: "conv3_bn"
  top: "pool3"
  name: "pool3"
  type: POOLING
  pooling_param {
    pool: MAX
    kernel_size: 3
    stride: 2
  }
}
layers {
  bottom: "pool3"
  top: "fc4"
  name: "fc4"
  type: INNER_PRODUCT
  blobs_lr: 1
  blobs_lr: 2
  weight_decay: 1
  weight_decay: 0
  inner_product_param {
    num_output: 512
    weight_filler {
      type: "xavier"
    }
    bias_filler {
      type: "constant"
    }
  }
}
layers {
  bottom: "fc4"
  top: "fc4"
  name: "relu4"
  type: RELU
  relu_param {
    negative_slope: 0.1
  }
}
layers {
  bottom: "fc4"
  top: "fc4"
  name: "drop4"
  type: DROPOUT
  dropout_param {
    dropout_ratio: 0.5
  }
}
layers {
  bottom: "fc4"
  top: "fc5"
  name: "fc5"
  type: INNER_PRODUCT
  blobs_lr: 1
  blobs_lr: 2
  weight_decay: 1
  weight_decay: 0
  inner_product_param {
    num_output: 512
    weight_filler {
      type: "xavier"
    }
    bias_filler {
      type: "constant"
    }
  }
}
layers {
  bottom: "fc5"
  top: "fc5"
  name: "relu5"
  type: RELU
  relu_param {
    negative_slope: 0.1
  }
}
layers {
  bottom: "fc5"
  top: "fc5"
  name: "drop5"
  type: DROPOUT
  dropout_param {
    dropout_ratio: 0.5
  }
}
layers {
  bottom: "fc5"
  top: "fc6"
  name: "fc6"
  type: INNER_PRODUCT
  blobs_lr: 1
  blobs_lr: 2
  weight_decay: 1
  weight_decay: 0
  inner_product_param {
    num_output: 121
    weight_filler {
      type: "xavier"
    }
    bias_filler {
      type: "constant"
    }
  }
}
layers {
  bottom: "fc6"
  top: "prob"
  name: "prob"
  type: SOFTMAX
  include {
    phase: TEST
  }
}
layers {
  bottom: "prob"
  bottom: "label"
  top: "accuracy"
  name: "accuracy"
  type: ACCURACY
  accuracy_param {
    top_k: 1
  }
  include {
    phase: TEST
  }
}
layers {
  bottom: "fc6"
  bottom: "label"
  top: "loss"
  name: "loss"
  type: SOFTMAX_LOSS
}
state {
  phase: TEST
}
I0301 17:35:28.607925 27261 layer_factory.hpp:78] Creating layer data
I0301 17:35:28.607949 27261 data_transformer.cpp:24] Loading mean file from/home/jaehyun/kaggle/nationalDataScienceBowl/data/typeD/train_mean.binaryproto
I0301 17:35:28.608026 27261 net.cpp:68] Creating Layer data
I0301 17:35:28.608043 27261 net.cpp:357] data -> data
I0301 17:35:28.608072 27261 net.cpp:357] data -> label
I0301 17:35:28.608090 27261 net.cpp:97] Setting up data
I0301 17:35:28.608104 27261 data_layer.cpp:34] Opening dataset /home/jaehyun/kaggle/nationalDataScienceBowl/data/typeD/val_lmdb
I0301 17:35:28.608222 27261 data_layer.cpp:73] output data size: 256,1,48,48
I0301 17:35:28.609540 27261 net.cpp:104] Top shape: 256 1 48 48 (589824)
I0301 17:35:28.609567 27261 net.cpp:104] Top shape: 256 1 1 1 (256)
I0301 17:35:28.609580 27261 layer_factory.hpp:78] Creating layer label_data_1_split
I0301 17:35:28.609598 27261 net.cpp:68] Creating Layer label_data_1_split
I0301 17:35:28.609612 27261 net.cpp:395] label_data_1_split <- label
I0301 17:35:28.609635 27261 net.cpp:357] label_data_1_split -> label_data_1_split_0
I0301 17:35:28.609817 27261 net.cpp:357] label_data_1_split -> label_data_1_split_1
I0301 17:35:28.609891 27261 net.cpp:97] Setting up label_data_1_split
I0301 17:35:28.610069 27261 net.cpp:104] Top shape: 256 1 1 1 (256)
I0301 17:35:28.610082 27261 net.cpp:104] Top shape: 256 1 1 1 (256)
I0301 17:35:28.610090 27261 layer_factory.hpp:78] Creating layer conv1
I0301 17:35:28.610108 27261 net.cpp:68] Creating Layer conv1
I0301 17:35:28.610116 27261 net.cpp:395] conv1 <- data
I0301 17:35:28.610535 27261 net.cpp:357] conv1 -> conv1
I0301 17:35:28.610551 27261 net.cpp:97] Setting up conv1
I0301 17:35:28.610716 27261 net.cpp:104] Top shape: 256 128 23 23 (17334272)
I0301 17:35:28.610749 27261 layer_factory.hpp:78] Creating layer relu1
I0301 17:35:28.610760 27261 net.cpp:68] Creating Layer relu1
I0301 17:35:28.610767 27261 net.cpp:395] relu1 <- conv1
I0301 17:35:28.610785 27261 net.cpp:346] relu1 -> conv1 (in-place)
I0301 17:35:28.610796 27261 net.cpp:97] Setting up relu1
I0301 17:35:28.610807 27261 net.cpp:104] Top shape: 256 128 23 23 (17334272)
I0301 17:35:28.610817 27261 layer_factory.hpp:78] Creating layer cccp1
I0301 17:35:28.610832 27261 net.cpp:68] Creating Layer cccp1
I0301 17:35:28.610839 27261 net.cpp:395] cccp1 <- conv1
I0301 17:35:28.610851 27261 net.cpp:357] cccp1 -> cccp1
I0301 17:35:28.610859 27261 net.cpp:97] Setting up cccp1
I0301 17:35:28.611441 27261 net.cpp:104] Top shape: 256 128 23 23 (17334272)
I0301 17:35:28.611469 27261 layer_factory.hpp:78] Creating layer cccp1_bn
I0301 17:35:28.611481 27261 net.cpp:68] Creating Layer cccp1_bn
I0301 17:35:28.611490 27261 net.cpp:395] cccp1_bn <- cccp1
I0301 17:35:28.611505 27261 net.cpp:357] cccp1_bn -> cccp1_bn
I0301 17:35:28.611517 27261 net.cpp:97] Setting up cccp1_bn
I0301 17:35:28.611562 27261 net.cpp:104] Top shape: 256 128 23 23 (17334272)
I0301 17:35:28.611592 27261 layer_factory.hpp:78] Creating layer relu_cccp1
I0301 17:35:28.611608 27261 net.cpp:68] Creating Layer relu_cccp1
I0301 17:35:28.611619 27261 net.cpp:395] relu_cccp1 <- cccp1_bn
I0301 17:35:28.611636 27261 net.cpp:346] relu_cccp1 -> cccp1_bn (in-place)
I0301 17:35:28.611651 27261 net.cpp:97] Setting up relu_cccp1
I0301 17:35:28.611668 27261 net.cpp:104] Top shape: 256 128 23 23 (17334272)
I0301 17:35:28.611681 27261 layer_factory.hpp:78] Creating layer pool1
I0301 17:35:28.611697 27261 net.cpp:68] Creating Layer pool1
I0301 17:35:28.611709 27261 net.cpp:395] pool1 <- cccp1_bn
I0301 17:35:28.611726 27261 net.cpp:357] pool1 -> pool1
I0301 17:35:28.611742 27261 net.cpp:97] Setting up pool1
I0301 17:35:28.611763 27261 net.cpp:104] Top shape: 256 128 11 11 (3964928)
I0301 17:35:28.611775 27261 layer_factory.hpp:78] Creating layer conv2
I0301 17:35:28.611793 27261 net.cpp:68] Creating Layer conv2
I0301 17:35:28.611804 27261 net.cpp:395] conv2 <- pool1
I0301 17:35:28.611822 27261 net.cpp:357] conv2 -> conv2
I0301 17:35:28.611840 27261 net.cpp:97] Setting up conv2
I0301 17:35:28.613488 27261 net.cpp:104] Top shape: 256 128 9 9 (2654208)
I0301 17:35:28.613520 27261 layer_factory.hpp:78] Creating layer conv2_bn
I0301 17:35:28.613554 27261 net.cpp:68] Creating Layer conv2_bn
I0301 17:35:28.613570 27261 net.cpp:395] conv2_bn <- conv2
I0301 17:35:28.613585 27261 net.cpp:357] conv2_bn -> conv2_bn
I0301 17:35:28.613602 27261 net.cpp:97] Setting up conv2_bn
I0301 17:35:28.613626 27261 net.cpp:104] Top shape: 256 128 9 9 (2654208)
I0301 17:35:28.613646 27261 layer_factory.hpp:78] Creating layer relu2
I0301 17:35:28.613664 27261 net.cpp:68] Creating Layer relu2
I0301 17:35:28.613679 27261 net.cpp:395] relu2 <- conv2_bn
I0301 17:35:28.613692 27261 net.cpp:346] relu2 -> conv2_bn (in-place)
I0301 17:35:28.613708 27261 net.cpp:97] Setting up relu2
I0301 17:35:28.613724 27261 net.cpp:104] Top shape: 256 128 9 9 (2654208)
I0301 17:35:28.613736 27261 layer_factory.hpp:78] Creating layer conv3
I0301 17:35:28.613767 27261 net.cpp:68] Creating Layer conv3
I0301 17:35:28.613780 27261 net.cpp:395] conv3 <- conv2_bn
I0301 17:35:28.613795 27261 net.cpp:357] conv3 -> conv3
I0301 17:35:28.613809 27261 net.cpp:97] Setting up conv3
I0301 17:35:28.615552 27261 net.cpp:104] Top shape: 256 128 7 7 (1605632)
I0301 17:35:28.615578 27261 layer_factory.hpp:78] Creating layer conv3_bn
I0301 17:35:28.615597 27261 net.cpp:68] Creating Layer conv3_bn
I0301 17:35:28.615612 27261 net.cpp:395] conv3_bn <- conv3
I0301 17:35:28.615628 27261 net.cpp:357] conv3_bn -> conv3_bn
I0301 17:35:28.615645 27261 net.cpp:97] Setting up conv3_bn
I0301 17:35:28.615669 27261 net.cpp:104] Top shape: 256 128 7 7 (1605632)
I0301 17:35:28.615720 27261 layer_factory.hpp:78] Creating layer relu3
I0301 17:35:28.615736 27261 net.cpp:68] Creating Layer relu3
I0301 17:35:28.615747 27261 net.cpp:395] relu3 <- conv3_bn
I0301 17:35:28.615761 27261 net.cpp:346] relu3 -> conv3_bn (in-place)
I0301 17:35:28.615775 27261 net.cpp:97] Setting up relu3
I0301 17:35:28.615792 27261 net.cpp:104] Top shape: 256 128 7 7 (1605632)
I0301 17:35:28.615803 27261 layer_factory.hpp:78] Creating layer pool3
I0301 17:35:28.615823 27261 net.cpp:68] Creating Layer pool3
I0301 17:35:28.615836 27261 net.cpp:395] pool3 <- conv3_bn
I0301 17:35:28.615850 27261 net.cpp:357] pool3 -> pool3
I0301 17:35:28.615865 27261 net.cpp:97] Setting up pool3
I0301 17:35:28.615883 27261 net.cpp:104] Top shape: 256 128 3 3 (294912)
I0301 17:35:28.615895 27261 layer_factory.hpp:78] Creating layer fc4
I0301 17:35:28.615916 27261 net.cpp:68] Creating Layer fc4
I0301 17:35:28.615928 27261 net.cpp:395] fc4 <- pool3
I0301 17:35:28.615942 27261 net.cpp:357] fc4 -> fc4
I0301 17:35:28.615957 27261 net.cpp:97] Setting up fc4
I0301 17:35:28.621985 27261 net.cpp:104] Top shape: 256 512 1 1 (131072)
I0301 17:35:28.622016 27261 layer_factory.hpp:78] Creating layer relu4
I0301 17:35:28.622038 27261 net.cpp:68] Creating Layer relu4
I0301 17:35:28.622053 27261 net.cpp:395] relu4 <- fc4
I0301 17:35:28.622076 27261 net.cpp:346] relu4 -> fc4 (in-place)
I0301 17:35:28.622095 27261 net.cpp:97] Setting up relu4
I0301 17:35:28.622117 27261 net.cpp:104] Top shape: 256 512 1 1 (131072)
I0301 17:35:28.622131 27261 layer_factory.hpp:78] Creating layer drop4
I0301 17:35:28.622149 27261 net.cpp:68] Creating Layer drop4
I0301 17:35:28.622164 27261 net.cpp:395] drop4 <- fc4
I0301 17:35:28.622184 27261 net.cpp:346] drop4 -> fc4 (in-place)
I0301 17:35:28.622200 27261 net.cpp:97] Setting up drop4
I0301 17:35:28.622216 27261 net.cpp:104] Top shape: 256 512 1 1 (131072)
I0301 17:35:28.622231 27261 layer_factory.hpp:78] Creating layer fc5
I0301 17:35:28.622248 27261 net.cpp:68] Creating Layer fc5
I0301 17:35:28.622262 27261 net.cpp:395] fc5 <- fc4
I0301 17:35:28.622278 27261 net.cpp:357] fc5 -> fc5
I0301 17:35:28.622295 27261 net.cpp:97] Setting up fc5
I0301 17:35:28.625557 27261 net.cpp:104] Top shape: 256 512 1 1 (131072)
I0301 17:35:28.625589 27261 layer_factory.hpp:78] Creating layer relu5
I0301 17:35:28.625610 27261 net.cpp:68] Creating Layer relu5
I0301 17:35:28.625625 27261 net.cpp:395] relu5 <- fc5
I0301 17:35:28.625643 27261 net.cpp:346] relu5 -> fc5 (in-place)
I0301 17:35:28.625659 27261 net.cpp:97] Setting up relu5
I0301 17:35:28.625677 27261 net.cpp:104] Top shape: 256 512 1 1 (131072)
I0301 17:35:28.625692 27261 layer_factory.hpp:78] Creating layer drop5
I0301 17:35:28.625708 27261 net.cpp:68] Creating Layer drop5
I0301 17:35:28.625722 27261 net.cpp:395] drop5 <- fc5
I0301 17:35:28.625737 27261 net.cpp:346] drop5 -> fc5 (in-place)
I0301 17:35:28.625753 27261 net.cpp:97] Setting up drop5
I0301 17:35:28.625768 27261 net.cpp:104] Top shape: 256 512 1 1 (131072)
I0301 17:35:28.625782 27261 layer_factory.hpp:78] Creating layer fc6
I0301 17:35:28.625799 27261 net.cpp:68] Creating Layer fc6
I0301 17:35:28.625813 27261 net.cpp:395] fc6 <- fc5
I0301 17:35:28.625829 27261 net.cpp:357] fc6 -> fc6
I0301 17:35:28.625846 27261 net.cpp:97] Setting up fc6
I0301 17:35:28.626621 27261 net.cpp:104] Top shape: 256 121 1 1 (30976)
I0301 17:35:28.626646 27261 layer_factory.hpp:78] Creating layer fc6_fc6_0_split
I0301 17:35:28.626667 27261 net.cpp:68] Creating Layer fc6_fc6_0_split
I0301 17:35:28.626682 27261 net.cpp:395] fc6_fc6_0_split <- fc6
I0301 17:35:28.626699 27261 net.cpp:357] fc6_fc6_0_split -> fc6_fc6_0_split_0
I0301 17:35:28.626724 27261 net.cpp:357] fc6_fc6_0_split -> fc6_fc6_0_split_1
I0301 17:35:28.626744 27261 net.cpp:97] Setting up fc6_fc6_0_split
I0301 17:35:28.626760 27261 net.cpp:104] Top shape: 256 121 1 1 (30976)
I0301 17:35:28.626775 27261 net.cpp:104] Top shape: 256 121 1 1 (30976)
I0301 17:35:28.626787 27261 layer_factory.hpp:78] Creating layer prob
I0301 17:35:28.626806 27261 net.cpp:68] Creating Layer prob
I0301 17:35:28.626849 27261 net.cpp:395] prob <- fc6_fc6_0_split_0
I0301 17:35:28.626868 27261 net.cpp:357] prob -> prob
I0301 17:35:28.626886 27261 net.cpp:97] Setting up prob
I0301 17:35:28.626911 27261 net.cpp:104] Top shape: 256 121 1 1 (30976)
I0301 17:35:28.626927 27261 layer_factory.hpp:78] Creating layer accuracy
I0301 17:35:28.626950 27261 net.cpp:68] Creating Layer accuracy
I0301 17:35:28.626965 27261 net.cpp:395] accuracy <- prob
I0301 17:35:28.626981 27261 net.cpp:395] accuracy <- label_data_1_split_0
I0301 17:35:28.627002 27261 net.cpp:357] accuracy -> accuracy
I0301 17:35:28.627020 27261 net.cpp:97] Setting up accuracy
I0301 17:35:28.627038 27261 net.cpp:104] Top shape: 1 1 1 1 (1)
I0301 17:35:28.627053 27261 layer_factory.hpp:78] Creating layer loss
I0301 17:35:28.627069 27261 net.cpp:68] Creating Layer loss
I0301 17:35:28.627082 27261 net.cpp:395] loss <- fc6_fc6_0_split_1
I0301 17:35:28.627097 27261 net.cpp:395] loss <- label_data_1_split_1
I0301 17:35:28.627113 27261 net.cpp:357] loss -> loss
I0301 17:35:28.627130 27261 net.cpp:97] Setting up loss
I0301 17:35:28.627146 27261 layer_factory.hpp:78] Creating layer loss
I0301 17:35:28.627267 27261 net.cpp:104] Top shape: 1 1 1 1 (1)
I0301 17:35:28.627288 27261 net.cpp:110]     with loss weight 1
I0301 17:35:28.627320 27261 net.cpp:171] loss needs backward computation.
I0301 17:35:28.627334 27261 net.cpp:173] accuracy does not need backward computation.
I0301 17:35:28.627348 27261 net.cpp:173] prob does not need backward computation.
I0301 17:35:28.627362 27261 net.cpp:171] fc6_fc6_0_split needs backward computation.
…
