…
I0301 17:06:01.322758  1450 net.cpp:276] The NetState phase (0) differed from the phase (1) specified by a rule in layer accuracy
I0301 17:06:01.322957  1450 net.cpp:39] Initializing net from parameters: 
name: "model1_part1_bn"
layers {
  top: "data"
  top: "label"
  name: "data"
  type: DATA
  data_param {
    source: "/home/jaehyun/kaggle/nationalDataScienceBowl/data/typeD/train_lmdb"
    batch_size: 256
    backend: LMDB
    shuffle: true
  }
  include {
    phase: TRAIN
  }
  transform_param {
    scale: 0.00390625
    mirror: true
    mean_file: "/home/jaehyun/kaggle/nationalDataScienceBowl/data/typeD/train_mean.binaryproto"
  }
}
layers {
  bottom: "data"
  top: "conv1"
  name: "conv1"
  type: CONVOLUTION
  blobs_lr: 1
  blobs_lr: 2
  weight_decay: 1
  weight_decay: 0
  convolution_param {
    num_output: 128
    kernel_size: 4
    stride: 2
    weight_filler {
      type: "xavier"
    }
    bias_filler {
      type: "constant"
    }
  }
}
layers {
  bottom: "conv1"
  top: "conv1"
  name: "relu1"
  type: RELU
  relu_param {
    negative_slope: 0.1
  }
}
layers {
  bottom: "conv1"
  top: "cccp1"
  name: "cccp1"
  type: CONVOLUTION
  blobs_lr: 1
  blobs_lr: 2
  weight_decay: 1
  weight_decay: 0
  convolution_param {
    num_output: 128
    kernel_size: 1
    group: 1
    stride: 1
    weight_filler {
      type: "xavier"
    }
    bias_filler {
      type: "constant"
    }
  }
}
layers {
  bottom: "cccp1"
  top: "cccp1_bn"
  name: "cccp1_bn"
  type: BN
  blobs_lr: 1
  blobs_lr: 1
  weight_decay: 0
  weight_decay: 0
  bn_param {
    scale_filler {
      type: "constant"
      value: 1
    }
    shift_filler {
      type: "constant"
      value: 0
    }
  }
}
layers {
  bottom: "cccp1_bn"
  top: "cccp1_bn"
  name: "relu_cccp1"
  type: RELU
  relu_param {
    negative_slope: 0.1
  }
}
layers {
  bottom: "cccp1_bn"
  top: "pool1"
  name: "pool1"
  type: POOLING
  pooling_param {
    pool: MAX
    kernel_size: 3
    stride: 2
  }
}
layers {
  bottom: "pool1"
  top: "conv2"
  name: "conv2"
  type: CONVOLUTION
  blobs_lr: 1
  blobs_lr: 2
  weight_decay: 1
  weight_decay: 0
  convolution_param {
    num_output: 128
    kernel_size: 3
    weight_filler {
      type: "xavier"
    }
    bias_filler {
      type: "constant"
    }
  }
}
layers {
  bottom: "conv2"
  top: "conv2_bn"
  name: "conv2_bn"
  type: BN
  blobs_lr: 1
  blobs_lr: 1
  weight_decay: 0
  weight_decay: 0
  bn_param {
    scale_filler {
      type: "constant"
      value: 1
    }
    shift_filler {
      type: "constant"
      value: 0
    }
  }
}
layers {
  bottom: "conv2_bn"
  top: "conv2_bn"
  name: "relu2"
  type: RELU
  relu_param {
    negative_slope: 0.1
  }
}
layers {
  bottom: "conv2_bn"
  top: "conv3"
  name: "conv3"
  type: CONVOLUTION
  blobs_lr: 1
  blobs_lr: 2
  weight_decay: 1
  weight_decay: 0
  convolution_param {
    num_output: 128
    kernel_size: 3
    weight_filler {
      type: "xavier"
    }
    bias_filler {
      type: "constant"
    }
  }
}
layers {
  bottom: "conv3"
  top: "conv3_bn"
  name: "conv3_bn"
  type: BN
  blobs_lr: 1
  blobs_lr: 1
  weight_decay: 0
  weight_decay: 0
  bn_param {
    scale_filler {
      type: "constant"
      value: 1
    }
    shift_filler {
      type: "constant"
      value: 0
    }
  }
}
layers {
  bottom: "conv3_bn"
  top: "conv3_bn"
  name: "relu3"
  type: RELU
  relu_param {
    negative_slope: 0.1
  }
}
layers {
  bottom: "conv3_bn"
  top: "pool3"
  name: "pool3"
  type: POOLING
  pooling_param {
    pool: MAX
    kernel_size: 3
    stride: 2
  }
}
layers {
  bottom: "pool3"
  top: "fc4"
  name: "fc4"
  type: INNER_PRODUCT
  blobs_lr: 1
  blobs_lr: 2
  weight_decay: 1
  weight_decay: 0
  inner_product_param {
    num_output: 512
    weight_filler {
      type: "xavier"
    }
    bias_filler {
      type: "constant"
    }
  }
}
layers {
  bottom: "fc4"
  top: "fc4"
  name: "relu4"
  type: RELU
  relu_param {
    negative_slope: 0.1
  }
}
layers {
  bottom: "fc4"
  top: "fc4"
  name: "drop4"
  type: DROPOUT
  dropout_param {
    dropout_ratio: 0.5
  }
}
layers {
  bottom: "fc4"
  top: "fc5"
  name: "fc5"
  type: INNER_PRODUCT
  blobs_lr: 1
  blobs_lr: 2
  weight_decay: 1
  weight_decay: 0
  inner_product_param {
    num_output: 512
    weight_filler {
      type: "xavier"
    }
    bias_filler {
      type: "constant"
    }
  }
}
layers {
  bottom: "fc5"
  top: "fc5"
  name: "relu5"
  type: RELU
  relu_param {
    negative_slope: 0.1
  }
}
layers {
  bottom: "fc5"
  top: "fc5"
  name: "drop5"
  type: DROPOUT
  dropout_param {
    dropout_ratio: 0.5
  }
}
layers {
  bottom: "fc5"
  top: "fc6"
  name: "fc6"
  type: INNER_PRODUCT
  blobs_lr: 1
  blobs_lr: 2
  weight_decay: 1
  weight_decay: 0
  inner_product_param {
    num_output: 121
    weight_filler {
      type: "xavier"
    }
    bias_filler {
      type: "constant"
    }
  }
}
layers {
  bottom: "fc6"
  bottom: "label"
  top: "loss"
  name: "loss"
  type: SOFTMAX_LOSS
}
state {
  phase: TRAIN
}
I0301 17:06:01.324077  1450 layer_factory.hpp:78] Creating layer data
I0301 17:06:01.324105  1450 data_transformer.cpp:24] Loading mean file from/home/jaehyun/kaggle/nationalDataScienceBowl/data/typeD/train_mean.binaryproto
I0301 17:06:01.324208  1450 net.cpp:68] Creating Layer data
I0301 17:06:01.324229  1450 net.cpp:357] data -> data
I0301 17:06:01.324254  1450 net.cpp:357] data -> label
I0301 17:06:01.324276  1450 net.cpp:97] Setting up data
I0301 17:06:01.324295  1450 data_layer.cpp:34] Opening dataset /home/jaehyun/kaggle/nationalDataScienceBowl/data/typeD/train_lmdb
I0301 17:06:01.324447  1450 data_layer.cpp:73] output data size: 256,1,48,48
I0301 17:06:01.326094  1450 net.cpp:104] Top shape: 256 1 48 48 (589824)
I0301 17:06:01.326122  1450 net.cpp:104] Top shape: 256 1 1 1 (256)
I0301 17:06:01.326136  1450 layer_factory.hpp:78] Creating layer conv1
I0301 17:06:01.326155  1450 net.cpp:68] Creating Layer conv1
I0301 17:06:01.326169  1450 net.cpp:395] conv1 <- data
I0301 17:06:01.326211  1450 net.cpp:357] conv1 -> conv1
I0301 17:06:01.326233  1450 net.cpp:97] Setting up conv1
I0301 17:06:01.387061  1450 net.cpp:104] Top shape: 256 128 23 23 (17334272)
I0301 17:06:01.387143  1450 layer_factory.hpp:78] Creating layer relu1
I0301 17:06:01.387171  1450 net.cpp:68] Creating Layer relu1
I0301 17:06:01.387186  1450 net.cpp:395] relu1 <- conv1
I0301 17:06:01.387202  1450 net.cpp:346] relu1 -> conv1 (in-place)
I0301 17:06:01.387220  1450 net.cpp:97] Setting up relu1
I0301 17:06:01.387240  1450 net.cpp:104] Top shape: 256 128 23 23 (17334272)
I0301 17:06:01.387253  1450 layer_factory.hpp:78] Creating layer cccp1
I0301 17:06:01.387271  1450 net.cpp:68] Creating Layer cccp1
I0301 17:06:01.387284  1450 net.cpp:395] cccp1 <- conv1
I0301 17:06:01.387298  1450 net.cpp:357] cccp1 -> cccp1
I0301 17:06:01.387315  1450 net.cpp:97] Setting up cccp1
I0301 17:06:01.387570  1450 net.cpp:104] Top shape: 256 128 23 23 (17334272)
I0301 17:06:01.387598  1450 layer_factory.hpp:78] Creating layer cccp1_bn
I0301 17:06:01.387667  1450 net.cpp:68] Creating Layer cccp1_bn
I0301 17:06:01.387682  1450 net.cpp:395] cccp1_bn <- cccp1
I0301 17:06:01.387697  1450 net.cpp:357] cccp1_bn -> cccp1_bn
I0301 17:06:01.387715  1450 net.cpp:97] Setting up cccp1_bn
I0301 17:06:01.387745  1450 net.cpp:104] Top shape: 256 128 23 23 (17334272)
I0301 17:06:01.387763  1450 layer_factory.hpp:78] Creating layer relu_cccp1
I0301 17:06:01.387778  1450 net.cpp:68] Creating Layer relu_cccp1
I0301 17:06:01.387789  1450 net.cpp:395] relu_cccp1 <- cccp1_bn
I0301 17:06:01.387804  1450 net.cpp:346] relu_cccp1 -> cccp1_bn (in-place)
I0301 17:06:01.387820  1450 net.cpp:97] Setting up relu_cccp1
I0301 17:06:01.387835  1450 net.cpp:104] Top shape: 256 128 23 23 (17334272)
I0301 17:06:01.387848  1450 layer_factory.hpp:78] Creating layer pool1
I0301 17:06:01.387864  1450 net.cpp:68] Creating Layer pool1
I0301 17:06:01.387876  1450 net.cpp:395] pool1 <- cccp1_bn
I0301 17:06:01.387892  1450 net.cpp:357] pool1 -> pool1
I0301 17:06:01.387907  1450 net.cpp:97] Setting up pool1
I0301 17:06:01.387941  1450 net.cpp:104] Top shape: 256 128 11 11 (3964928)
I0301 17:06:01.387955  1450 layer_factory.hpp:78] Creating layer conv2
I0301 17:06:01.387970  1450 net.cpp:68] Creating Layer conv2
I0301 17:06:01.387982  1450 net.cpp:395] conv2 <- pool1
I0301 17:06:01.388000  1450 net.cpp:357] conv2 -> conv2
I0301 17:06:01.388015  1450 net.cpp:97] Setting up conv2
I0301 17:06:01.389706  1450 net.cpp:104] Top shape: 256 128 9 9 (2654208)
I0301 17:06:01.389732  1450 layer_factory.hpp:78] Creating layer conv2_bn
I0301 17:06:01.389755  1450 net.cpp:68] Creating Layer conv2_bn
I0301 17:06:01.389767  1450 net.cpp:395] conv2_bn <- conv2
I0301 17:06:01.389785  1450 net.cpp:357] conv2_bn -> conv2_bn
I0301 17:06:01.389801  1450 net.cpp:97] Setting up conv2_bn
I0301 17:06:01.389822  1450 net.cpp:104] Top shape: 256 128 9 9 (2654208)
I0301 17:06:01.389842  1450 layer_factory.hpp:78] Creating layer relu2
I0301 17:06:01.389857  1450 net.cpp:68] Creating Layer relu2
I0301 17:06:01.389868  1450 net.cpp:395] relu2 <- conv2_bn
I0301 17:06:01.389884  1450 net.cpp:346] relu2 -> conv2_bn (in-place)
I0301 17:06:01.389899  1450 net.cpp:97] Setting up relu2
I0301 17:06:01.389914  1450 net.cpp:104] Top shape: 256 128 9 9 (2654208)
I0301 17:06:01.389926  1450 layer_factory.hpp:78] Creating layer conv3
I0301 17:06:01.389941  1450 net.cpp:68] Creating Layer conv3
I0301 17:06:01.389952  1450 net.cpp:395] conv3 <- conv2_bn
I0301 17:06:01.389966  1450 net.cpp:357] conv3 -> conv3
I0301 17:06:01.389983  1450 net.cpp:97] Setting up conv3
I0301 17:06:01.391576  1450 net.cpp:104] Top shape: 256 128 7 7 (1605632)
I0301 17:06:01.391602  1450 layer_factory.hpp:78] Creating layer conv3_bn
I0301 17:06:01.391621  1450 net.cpp:68] Creating Layer conv3_bn
I0301 17:06:01.391635  1450 net.cpp:395] conv3_bn <- conv3
I0301 17:06:01.391651  1450 net.cpp:357] conv3_bn -> conv3_bn
I0301 17:06:01.391674  1450 net.cpp:97] Setting up conv3_bn
I0301 17:06:01.391700  1450 net.cpp:104] Top shape: 256 128 7 7 (1605632)
I0301 17:06:01.391716  1450 layer_factory.hpp:78] Creating layer relu3
I0301 17:06:01.391738  1450 net.cpp:68] Creating Layer relu3
I0301 17:06:01.391751  1450 net.cpp:395] relu3 <- conv3_bn
I0301 17:06:01.391763  1450 net.cpp:346] relu3 -> conv3_bn (in-place)
I0301 17:06:01.391777  1450 net.cpp:97] Setting up relu3
I0301 17:06:01.391793  1450 net.cpp:104] Top shape: 256 128 7 7 (1605632)
I0301 17:06:01.391803  1450 layer_factory.hpp:78] Creating layer pool3
I0301 17:06:01.391821  1450 net.cpp:68] Creating Layer pool3
I0301 17:06:01.391834  1450 net.cpp:395] pool3 <- conv3_bn
I0301 17:06:01.391849  1450 net.cpp:357] pool3 -> pool3
I0301 17:06:01.391862  1450 net.cpp:97] Setting up pool3
I0301 17:06:01.391880  1450 net.cpp:104] Top shape: 256 128 3 3 (294912)
I0301 17:06:01.391891  1450 layer_factory.hpp:78] Creating layer fc4
I0301 17:06:01.391911  1450 net.cpp:68] Creating Layer fc4
I0301 17:06:01.391923  1450 net.cpp:395] fc4 <- pool3
I0301 17:06:01.391937  1450 net.cpp:357] fc4 -> fc4
I0301 17:06:01.391973  1450 net.cpp:97] Setting up fc4
I0301 17:06:01.398085  1450 net.cpp:104] Top shape: 256 512 1 1 (131072)
I0301 17:06:01.398128  1450 layer_factory.hpp:78] Creating layer relu4
I0301 17:06:01.398146  1450 net.cpp:68] Creating Layer relu4
I0301 17:06:01.398159  1450 net.cpp:395] relu4 <- fc4
I0301 17:06:01.398179  1450 net.cpp:346] relu4 -> fc4 (in-place)
I0301 17:06:01.398195  1450 net.cpp:97] Setting up relu4
I0301 17:06:01.398218  1450 net.cpp:104] Top shape: 256 512 1 1 (131072)
I0301 17:06:01.398231  1450 layer_factory.hpp:78] Creating layer drop4
I0301 17:06:01.398252  1450 net.cpp:68] Creating Layer drop4
I0301 17:06:01.398264  1450 net.cpp:395] drop4 <- fc4
I0301 17:06:01.398280  1450 net.cpp:346] drop4 -> fc4 (in-place)
I0301 17:06:01.398295  1450 net.cpp:97] Setting up drop4
I0301 17:06:01.398310  1450 net.cpp:104] Top shape: 256 512 1 1 (131072)
I0301 17:06:01.398321  1450 layer_factory.hpp:78] Creating layer fc5
I0301 17:06:01.398336  1450 net.cpp:68] Creating Layer fc5
I0301 17:06:01.398347  1450 net.cpp:395] fc5 <- fc4
I0301 17:06:01.398361  1450 net.cpp:357] fc5 -> fc5
I0301 17:06:01.398376  1450 net.cpp:97] Setting up fc5
I0301 17:06:01.401119  1450 net.cpp:104] Top shape: 256 512 1 1 (131072)
I0301 17:06:01.401149  1450 layer_factory.hpp:78] Creating layer relu5
I0301 17:06:01.401166  1450 net.cpp:68] Creating Layer relu5
I0301 17:06:01.401178  1450 net.cpp:395] relu5 <- fc5
I0301 17:06:01.401192  1450 net.cpp:346] relu5 -> fc5 (in-place)
I0301 17:06:01.401206  1450 net.cpp:97] Setting up relu5
I0301 17:06:01.401223  1450 net.cpp:104] Top shape: 256 512 1 1 (131072)
I0301 17:06:01.401235  1450 layer_factory.hpp:78] Creating layer drop5
I0301 17:06:01.401248  1450 net.cpp:68] Creating Layer drop5
I0301 17:06:01.401260  1450 net.cpp:395] drop5 <- fc5
I0301 17:06:01.401273  1450 net.cpp:346] drop5 -> fc5 (in-place)
I0301 17:06:01.401286  1450 net.cpp:97] Setting up drop5
I0301 17:06:01.401298  1450 net.cpp:104] Top shape: 256 512 1 1 (131072)
I0301 17:06:01.401315  1450 layer_factory.hpp:78] Creating layer fc6
I0301 17:06:01.401329  1450 net.cpp:68] Creating Layer fc6
I0301 17:06:01.401340  1450 net.cpp:395] fc6 <- fc5
I0301 17:06:01.401355  1450 net.cpp:357] fc6 -> fc6
I0301 17:06:01.401370  1450 net.cpp:97] Setting up fc6
I0301 17:06:01.402026  1450 net.cpp:104] Top shape: 256 121 1 1 (30976)
I0301 17:06:01.402050  1450 layer_factory.hpp:78] Creating layer loss
I0301 17:06:01.402068  1450 net.cpp:68] Creating Layer loss
I0301 17:06:01.402082  1450 net.cpp:395] loss <- fc6
I0301 17:06:01.402096  1450 net.cpp:395] loss <- label
I0301 17:06:01.402109  1450 net.cpp:357] loss -> loss
I0301 17:06:01.402125  1450 net.cpp:97] Setting up loss
I0301 17:06:01.402142  1450 layer_factory.hpp:78] Creating layer loss
I0301 17:06:01.402251  1450 net.cpp:104] Top shape: 1 1 1 1 (1)
I0301 17:06:01.402268  1450 net.cpp:110]     with loss weight 1
I0301 17:06:01.402313  1450 net.cpp:171] loss needs backward computation.
I0301 17:06:01.402326  1450 net.cpp:171] fc6 needs backward computation.
I0301 17:06:01.402338  1450 net.cpp:171] drop5 needs backward computation.
I0301 17:06:01.402349  1450 net.cpp:171] relu5 needs backward computation.
I0301 17:06:01.402360  1450 net.cpp:171] fc5 needs backward computation.
…
I0301 17:06:01.403501  1450 net.cpp:276] The NetState phase (1) differed from the phase (0) specified by a rule in layer data
I0301 17:06:01.403722  1450 net.cpp:39] Initializing net from parameters: 
name: "model1_part1_bn"
layers {
  top: "data"
  top: "label"
  name: "data"
  type: DATA
  data_param {
    source: "/home/jaehyun/kaggle/nationalDataScienceBowl/data/typeD/val_lmdb"
    batch_size: 256
    backend: LMDB
  }
  include {
    phase: TEST
  }
  transform_param {
    scale: 0.00390625
    mirror: false
    mean_file: "/home/jaehyun/kaggle/nationalDataScienceBowl/data/typeD/train_mean.binaryproto"
  }
}
layers {
  bottom: "data"
  top: "conv1"
  name: "conv1"
  type: CONVOLUTION
  blobs_lr: 1
  blobs_lr: 2
  weight_decay: 1
  weight_decay: 0
  convolution_param {
    num_output: 128
    kernel_size: 4
    stride: 2
    weight_filler {
      type: "xavier"
    }
    bias_filler {
      type: "constant"
    }
  }
}
layers {
  bottom: "conv1"
  top: "conv1"
  name: "relu1"
  type: RELU
  relu_param {
    negative_slope: 0.1
  }
}
layers {
  bottom: "conv1"
  top: "cccp1"
  name: "cccp1"
  type: CONVOLUTION
  blobs_lr: 1
  blobs_lr: 2
  weight_decay: 1
  weight_decay: 0
  convolution_param {
    num_output: 128
    kernel_size: 1
    group: 1
    stride: 1
    weight_filler {
      type: "xavier"
    }
    bias_filler {
      type: "constant"
    }
  }
}
layers {
  bottom: "cccp1"
  top: "cccp1_bn"
  name: "cccp1_bn"
  type: BN
  blobs_lr: 1
  blobs_lr: 1
  weight_decay: 0
  weight_decay: 0
  bn_param {
    scale_filler {
      type: "constant"
      value: 1
    }
    shift_filler {
      type: "constant"
      value: 0
    }
  }
}
layers {
  bottom: "cccp1_bn"
  top: "cccp1_bn"
  name: "relu_cccp1"
  type: RELU
  relu_param {
    negative_slope: 0.1
  }
}
layers {
  bottom: "cccp1_bn"
  top: "pool1"
  name: "pool1"
  type: POOLING
  pooling_param {
    pool: MAX
    kernel_size: 3
    stride: 2
  }
}
layers {
  bottom: "pool1"
  top: "conv2"
  name: "conv2"
  type: CONVOLUTION
  blobs_lr: 1
  blobs_lr: 2
  weight_decay: 1
  weight_decay: 0
  convolution_param {
    num_output: 128
    kernel_size: 3
    weight_filler {
      type: "xavier"
    }
    bias_filler {
      type: "constant"
    }
  }
}
layers {
  bottom: "conv2"
  top: "conv2_bn"
  name: "conv2_bn"
  type: BN
  blobs_lr: 1
  blobs_lr: 1
  weight_decay: 0
  weight_decay: 0
  bn_param {
    scale_filler {
      type: "constant"
      value: 1
    }
    shift_filler {
      type: "constant"
      value: 0
    }
  }
}
layers {
  bottom: "conv2_bn"
  top: "conv2_bn"
  name: "relu2"
  type: RELU
  relu_param {
    negative_slope: 0.1
  }
}
layers {
  bottom: "conv2_bn"
  top: "conv3"
  name: "conv3"
  type: CONVOLUTION
  blobs_lr: 1
  blobs_lr: 2
  weight_decay: 1
  weight_decay: 0
  convolution_param {
    num_output: 128
    kernel_size: 3
    weight_filler {
      type: "xavier"
    }
    bias_filler {
      type: "constant"
    }
  }
}
layers {
  bottom: "conv3"
  top: "conv3_bn"
  name: "conv3_bn"
  type: BN
  blobs_lr: 1
  blobs_lr: 1
  weight_decay: 0
  weight_decay: 0
  bn_param {
    scale_filler {
      type: "constant"
      value: 1
    }
    shift_filler {
      type: "constant"
      value: 0
    }
  }
}
layers {
  bottom: "conv3_bn"
  top: "conv3_bn"
  name: "relu3"
  type: RELU
  relu_param {
    negative_slope: 0.1
  }
}
layers {
  bottom: "conv3_bn"
  top: "pool3"
  name: "pool3"
  type: POOLING
  pooling_param {
    pool: MAX
    kernel_size: 3
    stride: 2
  }
}
layers {
  bottom: "pool3"
  top: "fc4"
  name: "fc4"
  type: INNER_PRODUCT
  blobs_lr: 1
  blobs_lr: 2
  weight_decay: 1
  weight_decay: 0
  inner_product_param {
    num_output: 512
    weight_filler {
      type: "xavier"
    }
    bias_filler {
      type: "constant"
    }
  }
}
layers {
  bottom: "fc4"
  top: "fc4"
  name: "relu4"
  type: RELU
  relu_param {
    negative_slope: 0.1
  }
}
layers {
  bottom: "fc4"
  top: "fc4"
  name: "drop4"
  type: DROPOUT
  dropout_param {
    dropout_ratio: 0.5
  }
}
layers {
  bottom: "fc4"
  top: "fc5"
  name: "fc5"
  type: INNER_PRODUCT
  blobs_lr: 1
  blobs_lr: 2
  weight_decay: 1
  weight_decay: 0
  inner_product_param {
    num_output: 512
    weight_filler {
      type: "xavier"
    }
    bias_filler {
      type: "constant"
    }
  }
}
layers {
  bottom: "fc5"
  top: "fc5"
  name: "relu5"
  type: RELU
  relu_param {
    negative_slope: 0.1
  }
}
layers {
  bottom: "fc5"
  top: "fc5"
  name: "drop5"
  type: DROPOUT
  dropout_param {
    dropout_ratio: 0.5
  }
}
layers {
  bottom: "fc5"
  top: "fc6"
  name: "fc6"
  type: INNER_PRODUCT
  blobs_lr: 1
  blobs_lr: 2
  weight_decay: 1
  weight_decay: 0
  inner_product_param {
    num_output: 121
    weight_filler {
      type: "xavier"
    }
    bias_filler {
      type: "constant"
    }
  }
}
layers {
  bottom: "fc6"
  top: "prob"
  name: "prob"
  type: SOFTMAX
  include {
    phase: TEST
  }
}
layers {
  bottom: "prob"
  bottom: "label"
  top: "accuracy"
  name: "accuracy"
  type: ACCURACY
  accuracy_param {
    top_k: 1
  }
  include {
    phase: TEST
  }
}
layers {
  bottom: "fc6"
  bottom: "label"
  top: "loss"
  name: "loss"
  type: SOFTMAX_LOSS
}
state {
  phase: TEST
}
I0301 17:06:01.404940  1450 layer_factory.hpp:78] Creating layer data
I0301 17:06:01.404963  1450 data_transformer.cpp:24] Loading mean file from/home/jaehyun/kaggle/nationalDataScienceBowl/data/typeD/train_mean.binaryproto
I0301 17:06:01.405037  1450 net.cpp:68] Creating Layer data
I0301 17:06:01.405056  1450 net.cpp:357] data -> data
I0301 17:06:01.405076  1450 net.cpp:357] data -> label
I0301 17:06:01.405092  1450 net.cpp:97] Setting up data
I0301 17:06:01.405105  1450 data_layer.cpp:34] Opening dataset /home/jaehyun/kaggle/nationalDataScienceBowl/data/typeD/val_lmdb
I0301 17:06:01.405194  1450 data_layer.cpp:73] output data size: 256,1,48,48
I0301 17:06:01.406366  1450 net.cpp:104] Top shape: 256 1 48 48 (589824)
I0301 17:06:01.406390  1450 net.cpp:104] Top shape: 256 1 1 1 (256)
I0301 17:06:01.406404  1450 layer_factory.hpp:78] Creating layer label_data_1_split
I0301 17:06:01.406442  1450 net.cpp:68] Creating Layer label_data_1_split
I0301 17:06:01.406457  1450 net.cpp:395] label_data_1_split <- label
I0301 17:06:01.406473  1450 net.cpp:357] label_data_1_split -> label_data_1_split_0
I0301 17:06:01.406502  1450 net.cpp:357] label_data_1_split -> label_data_1_split_1
I0301 17:06:01.406518  1450 net.cpp:97] Setting up label_data_1_split
I0301 17:06:01.406538  1450 net.cpp:104] Top shape: 256 1 1 1 (256)
I0301 17:06:01.406550  1450 net.cpp:104] Top shape: 256 1 1 1 (256)
I0301 17:06:01.406561  1450 layer_factory.hpp:78] Creating layer conv1
I0301 17:06:01.406585  1450 net.cpp:68] Creating Layer conv1
I0301 17:06:01.406599  1450 net.cpp:395] conv1 <- data
I0301 17:06:01.406646  1450 net.cpp:357] conv1 -> conv1
I0301 17:06:01.406666  1450 net.cpp:97] Setting up conv1
I0301 17:06:01.406823  1450 net.cpp:104] Top shape: 256 128 23 23 (17334272)
I0301 17:06:01.406852  1450 layer_factory.hpp:78] Creating layer relu1
I0301 17:06:01.406868  1450 net.cpp:68] Creating Layer relu1
I0301 17:06:01.406880  1450 net.cpp:395] relu1 <- conv1
I0301 17:06:01.406896  1450 net.cpp:346] relu1 -> conv1 (in-place)
I0301 17:06:01.406914  1450 net.cpp:97] Setting up relu1
I0301 17:06:01.406932  1450 net.cpp:104] Top shape: 256 128 23 23 (17334272)
I0301 17:06:01.406945  1450 layer_factory.hpp:78] Creating layer cccp1
I0301 17:06:01.406960  1450 net.cpp:68] Creating Layer cccp1
I0301 17:06:01.406972  1450 net.cpp:395] cccp1 <- conv1
I0301 17:06:01.406987  1450 net.cpp:357] cccp1 -> cccp1
I0301 17:06:01.407004  1450 net.cpp:97] Setting up cccp1
I0301 17:06:01.407495  1450 net.cpp:104] Top shape: 256 128 23 23 (17334272)
I0301 17:06:01.407529  1450 layer_factory.hpp:78] Creating layer cccp1_bn
I0301 17:06:01.407547  1450 net.cpp:68] Creating Layer cccp1_bn
I0301 17:06:01.407559  1450 net.cpp:395] cccp1_bn <- cccp1
I0301 17:06:01.407577  1450 net.cpp:357] cccp1_bn -> cccp1_bn
I0301 17:06:01.407600  1450 net.cpp:97] Setting up cccp1_bn
I0301 17:06:01.407637  1450 net.cpp:104] Top shape: 256 128 23 23 (17334272)
I0301 17:06:01.407655  1450 layer_factory.hpp:78] Creating layer relu_cccp1
I0301 17:06:01.407675  1450 net.cpp:68] Creating Layer relu_cccp1
I0301 17:06:01.407688  1450 net.cpp:395] relu_cccp1 <- cccp1_bn
I0301 17:06:01.407706  1450 net.cpp:346] relu_cccp1 -> cccp1_bn (in-place)
I0301 17:06:01.407719  1450 net.cpp:97] Setting up relu_cccp1
I0301 17:06:01.407735  1450 net.cpp:104] Top shape: 256 128 23 23 (17334272)
I0301 17:06:01.407748  1450 layer_factory.hpp:78] Creating layer pool1
I0301 17:06:01.407765  1450 net.cpp:68] Creating Layer pool1
I0301 17:06:01.407778  1450 net.cpp:395] pool1 <- cccp1_bn
I0301 17:06:01.407790  1450 net.cpp:357] pool1 -> pool1
I0301 17:06:01.407809  1450 net.cpp:97] Setting up pool1
I0301 17:06:01.407827  1450 net.cpp:104] Top shape: 256 128 11 11 (3964928)
I0301 17:06:01.407840  1450 layer_factory.hpp:78] Creating layer conv2
I0301 17:06:01.407855  1450 net.cpp:68] Creating Layer conv2
I0301 17:06:01.407867  1450 net.cpp:395] conv2 <- pool1
I0301 17:06:01.407884  1450 net.cpp:357] conv2 -> conv2
I0301 17:06:01.407902  1450 net.cpp:97] Setting up conv2
I0301 17:06:01.409608  1450 net.cpp:104] Top shape: 256 128 9 9 (2654208)
I0301 17:06:01.409637  1450 layer_factory.hpp:78] Creating layer conv2_bn
I0301 17:06:01.409657  1450 net.cpp:68] Creating Layer conv2_bn
I0301 17:06:01.409672  1450 net.cpp:395] conv2_bn <- conv2
I0301 17:06:01.409685  1450 net.cpp:357] conv2_bn -> conv2_bn
I0301 17:06:01.409701  1450 net.cpp:97] Setting up conv2_bn
I0301 17:06:01.409732  1450 net.cpp:104] Top shape: 256 128 9 9 (2654208)
I0301 17:06:01.409750  1450 layer_factory.hpp:78] Creating layer relu2
I0301 17:06:01.409767  1450 net.cpp:68] Creating Layer relu2
I0301 17:06:01.409780  1450 net.cpp:395] relu2 <- conv2_bn
I0301 17:06:01.409795  1450 net.cpp:346] relu2 -> conv2_bn (in-place)
I0301 17:06:01.409811  1450 net.cpp:97] Setting up relu2
I0301 17:06:01.409826  1450 net.cpp:104] Top shape: 256 128 9 9 (2654208)
I0301 17:06:01.409839  1450 layer_factory.hpp:78] Creating layer conv3
I0301 17:06:01.409858  1450 net.cpp:68] Creating Layer conv3
I0301 17:06:01.409873  1450 net.cpp:395] conv3 <- conv2_bn
I0301 17:06:01.409886  1450 net.cpp:357] conv3 -> conv3
I0301 17:06:01.409903  1450 net.cpp:97] Setting up conv3
I0301 17:06:01.411476  1450 net.cpp:104] Top shape: 256 128 7 7 (1605632)
I0301 17:06:01.411500  1450 layer_factory.hpp:78] Creating layer conv3_bn
I0301 17:06:01.411520  1450 net.cpp:68] Creating Layer conv3_bn
I0301 17:06:01.411531  1450 net.cpp:395] conv3_bn <- conv3
I0301 17:06:01.411548  1450 net.cpp:357] conv3_bn -> conv3_bn
I0301 17:06:01.411564  1450 net.cpp:97] Setting up conv3_bn
I0301 17:06:01.411588  1450 net.cpp:104] Top shape: 256 128 7 7 (1605632)
I0301 17:06:01.411629  1450 layer_factory.hpp:78] Creating layer relu3
I0301 17:06:01.411644  1450 net.cpp:68] Creating Layer relu3
I0301 17:06:01.411656  1450 net.cpp:395] relu3 <- conv3_bn
I0301 17:06:01.411669  1450 net.cpp:346] relu3 -> conv3_bn (in-place)
I0301 17:06:01.411684  1450 net.cpp:97] Setting up relu3
I0301 17:06:01.411700  1450 net.cpp:104] Top shape: 256 128 7 7 (1605632)
I0301 17:06:01.411711  1450 layer_factory.hpp:78] Creating layer pool3
I0301 17:06:01.411728  1450 net.cpp:68] Creating Layer pool3
I0301 17:06:01.411741  1450 net.cpp:395] pool3 <- conv3_bn
I0301 17:06:01.411754  1450 net.cpp:357] pool3 -> pool3
I0301 17:06:01.411768  1450 net.cpp:97] Setting up pool3
I0301 17:06:01.411787  1450 net.cpp:104] Top shape: 256 128 3 3 (294912)
I0301 17:06:01.411798  1450 layer_factory.hpp:78] Creating layer fc4
I0301 17:06:01.411816  1450 net.cpp:68] Creating Layer fc4
I0301 17:06:01.411828  1450 net.cpp:395] fc4 <- pool3
I0301 17:06:01.411844  1450 net.cpp:357] fc4 -> fc4
I0301 17:06:01.411857  1450 net.cpp:97] Setting up fc4
I0301 17:06:01.417914  1450 net.cpp:104] Top shape: 256 512 1 1 (131072)
I0301 17:06:01.417940  1450 layer_factory.hpp:78] Creating layer relu4
I0301 17:06:01.417956  1450 net.cpp:68] Creating Layer relu4
I0301 17:06:01.417968  1450 net.cpp:395] relu4 <- fc4
I0301 17:06:01.417986  1450 net.cpp:346] relu4 -> fc4 (in-place)
I0301 17:06:01.418001  1450 net.cpp:97] Setting up relu4
I0301 17:06:01.418017  1450 net.cpp:104] Top shape: 256 512 1 1 (131072)
I0301 17:06:01.418030  1450 layer_factory.hpp:78] Creating layer drop4
I0301 17:06:01.418043  1450 net.cpp:68] Creating Layer drop4
I0301 17:06:01.418054  1450 net.cpp:395] drop4 <- fc4
I0301 17:06:01.418071  1450 net.cpp:346] drop4 -> fc4 (in-place)
I0301 17:06:01.418084  1450 net.cpp:97] Setting up drop4
I0301 17:06:01.418097  1450 net.cpp:104] Top shape: 256 512 1 1 (131072)
I0301 17:06:01.418108  1450 layer_factory.hpp:78] Creating layer fc5
I0301 17:06:01.418123  1450 net.cpp:68] Creating Layer fc5
I0301 17:06:01.418133  1450 net.cpp:395] fc5 <- fc4
I0301 17:06:01.418148  1450 net.cpp:357] fc5 -> fc5
I0301 17:06:01.418161  1450 net.cpp:97] Setting up fc5
I0301 17:06:01.420877  1450 net.cpp:104] Top shape: 256 512 1 1 (131072)
I0301 17:06:01.420905  1450 layer_factory.hpp:78] Creating layer relu5
I0301 17:06:01.420923  1450 net.cpp:68] Creating Layer relu5
I0301 17:06:01.420936  1450 net.cpp:395] relu5 <- fc5
I0301 17:06:01.420950  1450 net.cpp:346] relu5 -> fc5 (in-place)
I0301 17:06:01.420964  1450 net.cpp:97] Setting up relu5
I0301 17:06:01.420979  1450 net.cpp:104] Top shape: 256 512 1 1 (131072)
I0301 17:06:01.420991  1450 layer_factory.hpp:78] Creating layer drop5
I0301 17:06:01.421005  1450 net.cpp:68] Creating Layer drop5
I0301 17:06:01.421016  1450 net.cpp:395] drop5 <- fc5
I0301 17:06:01.421030  1450 net.cpp:346] drop5 -> fc5 (in-place)
I0301 17:06:01.421042  1450 net.cpp:97] Setting up drop5
I0301 17:06:01.421053  1450 net.cpp:104] Top shape: 256 512 1 1 (131072)
I0301 17:06:01.421064  1450 layer_factory.hpp:78] Creating layer fc6
I0301 17:06:01.421077  1450 net.cpp:68] Creating Layer fc6
I0301 17:06:01.421089  1450 net.cpp:395] fc6 <- fc5
I0301 17:06:01.421103  1450 net.cpp:357] fc6 -> fc6
I0301 17:06:01.421118  1450 net.cpp:97] Setting up fc6
I0301 17:06:01.421766  1450 net.cpp:104] Top shape: 256 121 1 1 (30976)
I0301 17:06:01.421787  1450 layer_factory.hpp:78] Creating layer fc6_fc6_0_split
I0301 17:06:01.421804  1450 net.cpp:68] Creating Layer fc6_fc6_0_split
I0301 17:06:01.421816  1450 net.cpp:395] fc6_fc6_0_split <- fc6
I0301 17:06:01.421830  1450 net.cpp:357] fc6_fc6_0_split -> fc6_fc6_0_split_0
I0301 17:06:01.421850  1450 net.cpp:357] fc6_fc6_0_split -> fc6_fc6_0_split_1
I0301 17:06:01.421867  1450 net.cpp:97] Setting up fc6_fc6_0_split
I0301 17:06:01.421881  1450 net.cpp:104] Top shape: 256 121 1 1 (30976)
I0301 17:06:01.421892  1450 net.cpp:104] Top shape: 256 121 1 1 (30976)
I0301 17:06:01.421903  1450 layer_factory.hpp:78] Creating layer prob
I0301 17:06:01.421917  1450 net.cpp:68] Creating Layer prob
I0301 17:06:01.421931  1450 net.cpp:395] prob <- fc6_fc6_0_split_0
I0301 17:06:01.421965  1450 net.cpp:357] prob -> prob
I0301 17:06:01.421983  1450 net.cpp:97] Setting up prob
I0301 17:06:01.422003  1450 net.cpp:104] Top shape: 256 121 1 1 (30976)
I0301 17:06:01.422016  1450 layer_factory.hpp:78] Creating layer accuracy
I0301 17:06:01.422032  1450 net.cpp:68] Creating Layer accuracy
I0301 17:06:01.422045  1450 net.cpp:395] accuracy <- prob
I0301 17:06:01.422057  1450 net.cpp:395] accuracy <- label_data_1_split_0
I0301 17:06:01.422075  1450 net.cpp:357] accuracy -> accuracy
I0301 17:06:01.422091  1450 net.cpp:97] Setting up accuracy
I0301 17:06:01.422106  1450 net.cpp:104] Top shape: 1 1 1 1 (1)
I0301 17:06:01.422117  1450 layer_factory.hpp:78] Creating layer loss
I0301 17:06:01.422130  1450 net.cpp:68] Creating Layer loss
I0301 17:06:01.422142  1450 net.cpp:395] loss <- fc6_fc6_0_split_1
I0301 17:06:01.422154  1450 net.cpp:395] loss <- label_data_1_split_1
I0301 17:06:01.422168  1450 net.cpp:357] loss -> loss
I0301 17:06:01.422183  1450 net.cpp:97] Setting up loss
I0301 17:06:01.422196  1450 layer_factory.hpp:78] Creating layer loss
I0301 17:06:01.422294  1450 net.cpp:104] Top shape: 1 1 1 1 (1)
I0301 17:06:01.422312  1450 net.cpp:110]     with loss weight 1
I0301 17:06:01.422333  1450 net.cpp:171] loss needs backward computation.
I0301 17:06:01.422345  1450 net.cpp:173] accuracy does not need backward computation.
I0301 17:06:01.422358  1450 net.cpp:173] prob does not need backward computation.
I0301 17:06:01.422368  1450 net.cpp:171] fc6_fc6_0_split needs backward computation.
…
