…
  transform_param {
    mirror: true
    mean_file: "/media/data/kaggle/nationalDataScienceBowl/data/typeF/train_mean.binaryproto"
    affine_param {
      x_stretch_unirnd_range: 0.2
      y_stretch_unirnd_range: 0.2
      rotation_unirnd_range: 180
      max_translation: 16
      background_color: 255
    }
  }
  image_data_affine_param {
    source: "/media/data/kaggle/nationalDataScienceBowl/data/typeF/train.txt"
    scale: 0.00390625
    batch_size: 128
    shuffle: true
    new_size: 96
    is_color: false
    root_folder: "/media/data/kaggle/nationalDataScienceBowl/data/typeF/"
  }
}
layers {
  bottom: "data"
  top: "conv1"
  name: "conv1"
  type: CONVOLUTION
  blobs_lr: 1
  blobs_lr: 2
  weight_decay: 1
  weight_decay: 0
  convolution_param {
    num_output: 256
    kernel_size: 4
    stride: 2
    weight_filler {
      type: "xavier"
    }
    bias_filler {
      type: "constant"
    }
  }
}
layers {
  bottom: "conv1"
  top: "conv1_bn"
  name: "conv1_bn"
  type: BN
  blobs_lr: 1
  blobs_lr: 1
  weight_decay: 0
  weight_decay: 0
  bn_param {
    scale_filler {
      type: "constant"
      value: 1
    }
    shift_filler {
      type: "constant"
      value: 0
    }
  }
}
layers {
  bottom: "conv1_bn"
  top: "conv1_bn"
  name: "relu1"
  type: RELU
  relu_param {
    negative_slope: 0.1
  }
}
layers {
  bottom: "conv1_bn"
  top: "cccp1"
  name: "cccp1"
  type: CONVOLUTION
  blobs_lr: 1
  blobs_lr: 2
  weight_decay: 1
  weight_decay: 0
  convolution_param {
    num_output: 256
    kernel_size: 1
    group: 1
    stride: 1
    weight_filler {
      type: "xavier"
    }
    bias_filler {
      type: "constant"
    }
  }
}
layers {
  bottom: "cccp1"
  top: "cccp1_bn"
  name: "cccp1_bn"
  type: BN
  blobs_lr: 1
  blobs_lr: 1
  weight_decay: 0
  weight_decay: 0
  bn_param {
    scale_filler {
      type: "constant"
      value: 1
    }
    shift_filler {
      type: "constant"
      value: 0
    }
  }
}
layers {
  bottom: "cccp1_bn"
  top: "cccp1_bn"
  name: "relu_cccp1"
  type: RELU
  relu_param {
    negative_slope: 0.1
  }
}
layers {
  bottom: "cccp1_bn"
  top: "pool1"
  name: "pool1"
  type: POOLING
  pooling_param {
    pool: MAX
    kernel_size: 3
    stride: 2
  }
}
layers {
  bottom: "pool1"
  top: "conv2"
  name: "conv2"
  type: CONVOLUTION
  blobs_lr: 1
  blobs_lr: 2
  weight_decay: 1
  weight_decay: 0
  convolution_param {
    num_output: 256
    kernel_size: 3
    weight_filler {
      type: "xavier"
    }
    bias_filler {
      type: "constant"
    }
  }
}
layers {
  bottom: "conv2"
  top: "conv2_bn"
  name: "conv2_bn"
  type: BN
  blobs_lr: 1
  blobs_lr: 1
  weight_decay: 0
  weight_decay: 0
  bn_param {
    scale_filler {
      type: "constant"
      value: 1
    }
    shift_filler {
      type: "constant"
      value: 0
    }
  }
}
layers {
  bottom: "conv2_bn"
  top: "conv2_bn"
  name: "relu2"
  type: RELU
  relu_param {
    negative_slope: 0.1
  }
}
layers {
  bottom: "conv2_bn"
  top: "cccp2"
  name: "cccp2"
  type: CONVOLUTION
  blobs_lr: 1
  blobs_lr: 2
  weight_decay: 1
  weight_decay: 0
  convolution_param {
    num_output: 256
    kernel_size: 1
    group: 1
    stride: 1
    weight_filler {
      type: "xavier"
    }
    bias_filler {
      type: "constant"
    }
  }
}
layers {
  bottom: "cccp2"
  top: "cccp2_bn"
  name: "cccp2_bn"
  type: BN
  blobs_lr: 1
  blobs_lr: 1
  weight_decay: 0
  weight_decay: 0
  bn_param {
    scale_filler {
      type: "constant"
      value: 1
    }
    shift_filler {
      type: "constant"
      value: 0
    }
  }
}
layers {
  bottom: "cccp2_bn"
  top: "cccp2_bn"
  name: "relu_cccp2"
  type: RELU
  relu_param {
    negative_slope: 0.1
  }
}
layers {
  bottom: "cccp2_bn"
  top: "conv3"
  name: "conv3"
  type: CONVOLUTION
  blobs_lr: 1
  blobs_lr: 2
  weight_decay: 1
  weight_decay: 0
  convolution_param {
    num_output: 256
    kernel_size: 3
    weight_filler {
      type: "xavier"
    }
    bias_filler {
      type: "constant"
    }
  }
}
layers {
  bottom: "conv3"
  top: "conv3_bn"
  name: "conv3_bn"
  type: BN
  blobs_lr: 1
  blobs_lr: 1
  weight_decay: 0
  weight_decay: 0
  bn_param {
    scale_filler {
      type: "constant"
      value: 1
    }
    shift_filler {
      type: "constant"
      value: 0
    }
  }
}
layers {
  bottom: "conv3_bn"
  top: "conv3_bn"
  name: "relu3"
  type: RELU
  relu_param {
    negative_slope: 0.1
  }
}
layers {
  bottom: "conv3_bn"
  top: "cccp3"
  name: "cccp3"
  type: CONVOLUTION
  blobs_lr: 1
  blobs_lr: 2
  weight_decay: 1
  weight_decay: 0
  convolution_param {
    num_output: 256
    kernel_size: 1
    group: 1
    stride: 1
    weight_filler {
      type: "xavier"
    }
    bias_filler {
      type: "constant"
    }
  }
}
layers {
  bottom: "cccp3"
  top: "cccp3_bn"
  name: "cccp3_bn"
  type: BN
  blobs_lr: 1
  blobs_lr: 1
  weight_decay: 0
  weight_decay: 0
  bn_param {
    scale_filler {
      type: "constant"
      value: 1
    }
    shift_filler {
      type: "constant"
      value: 0
    }
  }
}
layers {
  bottom: "cccp3_bn"
  top: "cccp3_bn"
  name: "relu_cccp3"
  type: RELU
  relu_param {
    negative_slope: 0.1
  }
}
layers {
  bottom: "cccp3_bn"
  top: "pool3"
  name: "pool3"
  type: POOLING
  pooling_param {
    pool: MAX
    kernel_size: 3
    stride: 2
  }
}
layers {
  bottom: "pool3"
  top: "fc4"
  name: "fc4"
  type: INNER_PRODUCT
  blobs_lr: 1
  blobs_lr: 2
  weight_decay: 1
  weight_decay: 0
  inner_product_param {
    num_output: 512
    weight_filler {
      type: "xavier"
    }
    bias_filler {
      type: "constant"
    }
  }
}
layers {
  bottom: "fc4"
  top: "fc4"
  name: "relu4"
  type: RELU
  relu_param {
    negative_slope: 0.1
  }
}
layers {
  bottom: "fc4"
  top: "fc4"
  name: "drop4"
  type: DROPOUT
  dropout_param {
    dropout_ratio: 0.5
  }
}
layers {
  bottom: "fc4"
  top: "fc5"
  name: "fc5"
  type: INNER_PRODUCT
  blobs_lr: 1
  blobs_lr: 2
  weight_decay: 1
  weight_decay: 0
  inner_product_param {
    num_output: 512
    weight_filler {
      type: "xavier"
    }
    bias_filler {
      type: "constant"
    }
  }
}
layers {
  bottom: "fc5"
  top: "fc5"
  name: "relu5"
  type: RELU
  relu_param {
    negative_slope: 0.1
  }
}
layers {
  bottom: "fc5"
  top: "fc5"
  name: "drop5"
  type: DROPOUT
  dropout_param {
    dropout_ratio: 0.5
  }
}
layers {
  bottom: "fc5"
  top: "fc6"
  name: "fc6"
  type: INNER_PRODUCT
  blobs_lr: 1
  blobs_lr: 2
  weight_decay: 1
  weight_decay: 0
  inner_product_param {
    num_output: 121
    weight_filler {
      type: "xavier"
    }
    bias_filler {
      type: "constant"
    }
  }
}
layers {
  bottom: "fc6"
  bottom: "label"
  top: "loss"
  name: "loss"
  type: SOFTMAX_LOSS
}
state {
  phase: TRAIN
}
I0305 15:36:23.016942 28078 layer_factory.hpp:78] Creating layer data
I0305 15:36:23.016973 28078 data_transformer.cpp:24] Loading mean file from/media/data/kaggle/nationalDataScienceBowl/data/typeF/train_mean.binaryproto
I0305 15:36:23.017174 28078 net.cpp:68] Creating Layer data
I0305 15:36:23.017199 28078 net.cpp:357] data -> data
I0305 15:36:23.017230 28078 net.cpp:357] data -> label
I0305 15:36:23.017253 28078 net.cpp:97] Setting up data
I0305 15:36:23.017271 28078 image_data_affine_layer.cpp:36] Opening file /media/data/kaggle/nationalDataScienceBowl/data/typeF/train.txt
I0305 15:36:23.031047 28078 image_data_affine_layer.cpp:46] Shuffling data
I0305 15:36:23.034045 28078 image_data_affine_layer.cpp:51] A total of 27302 images.
I0305 15:36:23.036288 28078 image_data_affine_layer.cpp:80] output data size: 128,1,96,96
I0305 15:36:23.038441 28078 net.cpp:104] Top shape: 128 1 96 96 (1179648)
I0305 15:36:23.038480 28078 net.cpp:104] Top shape: 128 1 1 1 (128)
I0305 15:36:23.038504 28078 layer_factory.hpp:78] Creating layer conv1
I0305 15:36:23.038534 28078 net.cpp:68] Creating Layer conv1
I0305 15:36:23.038548 28078 net.cpp:395] conv1 <- data
I0305 15:36:23.038578 28078 net.cpp:357] conv1 -> conv1
I0305 15:36:23.038602 28078 net.cpp:97] Setting up conv1
I0305 15:36:23.078547 28078 net.cpp:104] Top shape: 128 256 47 47 (72384512)
I0305 15:36:23.078644 28078 layer_factory.hpp:78] Creating layer conv1_bn
I0305 15:36:23.078677 28078 net.cpp:68] Creating Layer conv1_bn
I0305 15:36:23.078698 28078 net.cpp:395] conv1_bn <- conv1
I0305 15:36:23.078717 28078 net.cpp:357] conv1_bn -> conv1_bn
I0305 15:36:23.078742 28078 net.cpp:97] Setting up conv1_bn
I0305 15:36:23.078775 28078 net.cpp:104] Top shape: 128 256 47 47 (72384512)
I0305 15:36:23.078794 28078 layer_factory.hpp:78] Creating layer relu1
I0305 15:36:23.078814 28078 net.cpp:68] Creating Layer relu1
I0305 15:36:23.078825 28078 net.cpp:395] relu1 <- conv1_bn
I0305 15:36:23.078842 28078 net.cpp:346] relu1 -> conv1_bn (in-place)
I0305 15:36:23.078858 28078 net.cpp:97] Setting up relu1
I0305 15:36:23.078884 28078 net.cpp:104] Top shape: 128 256 47 47 (72384512)
I0305 15:36:23.078903 28078 layer_factory.hpp:78] Creating layer cccp1
I0305 15:36:23.078922 28078 net.cpp:68] Creating Layer cccp1
I0305 15:36:23.078935 28078 net.cpp:395] cccp1 <- conv1_bn
I0305 15:36:23.078954 28078 net.cpp:357] cccp1 -> cccp1
I0305 15:36:23.078972 28078 net.cpp:97] Setting up cccp1
I0305 15:36:23.079751 28078 net.cpp:104] Top shape: 128 256 47 47 (72384512)
I0305 15:36:23.079780 28078 layer_factory.hpp:78] Creating layer cccp1_bn
I0305 15:36:23.079797 28078 net.cpp:68] Creating Layer cccp1_bn
I0305 15:36:23.079812 28078 net.cpp:395] cccp1_bn <- cccp1
I0305 15:36:23.079849 28078 net.cpp:357] cccp1_bn -> cccp1_bn
I0305 15:36:23.079867 28078 net.cpp:97] Setting up cccp1_bn
I0305 15:36:23.079903 28078 net.cpp:104] Top shape: 128 256 47 47 (72384512)
I0305 15:36:23.079921 28078 layer_factory.hpp:78] Creating layer relu_cccp1
I0305 15:36:23.079946 28078 net.cpp:68] Creating Layer relu_cccp1
I0305 15:36:23.079958 28078 net.cpp:395] relu_cccp1 <- cccp1_bn
I0305 15:36:23.079972 28078 net.cpp:346] relu_cccp1 -> cccp1_bn (in-place)
I0305 15:36:23.079988 28078 net.cpp:97] Setting up relu_cccp1
I0305 15:36:23.080004 28078 net.cpp:104] Top shape: 128 256 47 47 (72384512)
I0305 15:36:23.080018 28078 layer_factory.hpp:78] Creating layer pool1
I0305 15:36:23.080039 28078 net.cpp:68] Creating Layer pool1
I0305 15:36:23.080062 28078 net.cpp:395] pool1 <- cccp1_bn
I0305 15:36:23.080080 28078 net.cpp:357] pool1 -> pool1
I0305 15:36:23.080096 28078 net.cpp:97] Setting up pool1
I0305 15:36:23.080143 28078 net.cpp:104] Top shape: 128 256 23 23 (17334272)
I0305 15:36:23.080160 28078 layer_factory.hpp:78] Creating layer conv2
I0305 15:36:23.080180 28078 net.cpp:68] Creating Layer conv2
I0305 15:36:23.080193 28078 net.cpp:395] conv2 <- pool1
I0305 15:36:23.080209 28078 net.cpp:357] conv2 -> conv2
I0305 15:36:23.080224 28078 net.cpp:97] Setting up conv2
I0305 15:36:23.087198 28078 net.cpp:104] Top shape: 128 256 21 21 (14450688)
I0305 15:36:23.087236 28078 layer_factory.hpp:78] Creating layer conv2_bn
I0305 15:36:23.087257 28078 net.cpp:68] Creating Layer conv2_bn
I0305 15:36:23.087272 28078 net.cpp:395] conv2_bn <- conv2
I0305 15:36:23.087287 28078 net.cpp:357] conv2_bn -> conv2_bn
I0305 15:36:23.087309 28078 net.cpp:97] Setting up conv2_bn
I0305 15:36:23.087340 28078 net.cpp:104] Top shape: 128 256 21 21 (14450688)
I0305 15:36:23.087357 28078 layer_factory.hpp:78] Creating layer relu2
I0305 15:36:23.087375 28078 net.cpp:68] Creating Layer relu2
I0305 15:36:23.087389 28078 net.cpp:395] relu2 <- conv2_bn
I0305 15:36:23.087404 28078 net.cpp:346] relu2 -> conv2_bn (in-place)
I0305 15:36:23.087417 28078 net.cpp:97] Setting up relu2
I0305 15:36:23.087434 28078 net.cpp:104] Top shape: 128 256 21 21 (14450688)
I0305 15:36:23.087504 28078 layer_factory.hpp:78] Creating layer cccp2
I0305 15:36:23.087522 28078 net.cpp:68] Creating Layer cccp2
I0305 15:36:23.087534 28078 net.cpp:395] cccp2 <- conv2_bn
I0305 15:36:23.087549 28078 net.cpp:357] cccp2 -> cccp2
I0305 15:36:23.087568 28078 net.cpp:97] Setting up cccp2
I0305 15:36:23.088361 28078 net.cpp:104] Top shape: 128 256 21 21 (14450688)
I0305 15:36:23.088387 28078 layer_factory.hpp:78] Creating layer cccp2_bn
I0305 15:36:23.088407 28078 net.cpp:68] Creating Layer cccp2_bn
I0305 15:36:23.088420 28078 net.cpp:395] cccp2_bn <- cccp2
I0305 15:36:23.088435 28078 net.cpp:357] cccp2_bn -> cccp2_bn
I0305 15:36:23.088451 28078 net.cpp:97] Setting up cccp2_bn
I0305 15:36:23.088475 28078 net.cpp:104] Top shape: 128 256 21 21 (14450688)
I0305 15:36:23.088493 28078 layer_factory.hpp:78] Creating layer relu_cccp2
I0305 15:36:23.088508 28078 net.cpp:68] Creating Layer relu_cccp2
I0305 15:36:23.088521 28078 net.cpp:395] relu_cccp2 <- cccp2_bn
I0305 15:36:23.088533 28078 net.cpp:346] relu_cccp2 -> cccp2_bn (in-place)
I0305 15:36:23.088548 28078 net.cpp:97] Setting up relu_cccp2
I0305 15:36:23.088563 28078 net.cpp:104] Top shape: 128 256 21 21 (14450688)
I0305 15:36:23.088575 28078 layer_factory.hpp:78] Creating layer conv3
I0305 15:36:23.088593 28078 net.cpp:68] Creating Layer conv3
I0305 15:36:23.088605 28078 net.cpp:395] conv3 <- cccp2_bn
I0305 15:36:23.088620 28078 net.cpp:357] conv3 -> conv3
I0305 15:36:23.088635 28078 net.cpp:97] Setting up conv3
I0305 15:36:23.094805 28078 net.cpp:104] Top shape: 128 256 19 19 (11829248)
I0305 15:36:23.094846 28078 layer_factory.hpp:78] Creating layer conv3_bn
I0305 15:36:23.094866 28078 net.cpp:68] Creating Layer conv3_bn
I0305 15:36:23.094880 28078 net.cpp:395] conv3_bn <- conv3
I0305 15:36:23.094895 28078 net.cpp:357] conv3_bn -> conv3_bn
I0305 15:36:23.094912 28078 net.cpp:97] Setting up conv3_bn
I0305 15:36:23.094933 28078 net.cpp:104] Top shape: 128 256 19 19 (11829248)
I0305 15:36:23.094949 28078 layer_factory.hpp:78] Creating layer relu3
I0305 15:36:23.094969 28078 net.cpp:68] Creating Layer relu3
I0305 15:36:23.094984 28078 net.cpp:395] relu3 <- conv3_bn
I0305 15:36:23.094996 28078 net.cpp:346] relu3 -> conv3_bn (in-place)
I0305 15:36:23.095011 28078 net.cpp:97] Setting up relu3
I0305 15:36:23.095026 28078 net.cpp:104] Top shape: 128 256 19 19 (11829248)
I0305 15:36:23.095038 28078 layer_factory.hpp:78] Creating layer cccp3
I0305 15:36:23.095053 28078 net.cpp:68] Creating Layer cccp3
I0305 15:36:23.095067 28078 net.cpp:395] cccp3 <- conv3_bn
I0305 15:36:23.095083 28078 net.cpp:357] cccp3 -> cccp3
I0305 15:36:23.095099 28078 net.cpp:97] Setting up cccp3
I0305 15:36:23.096071 28078 net.cpp:104] Top shape: 128 256 19 19 (11829248)
I0305 15:36:23.096101 28078 layer_factory.hpp:78] Creating layer cccp3_bn
I0305 15:36:23.096120 28078 net.cpp:68] Creating Layer cccp3_bn
I0305 15:36:23.096134 28078 net.cpp:395] cccp3_bn <- cccp3
I0305 15:36:23.096149 28078 net.cpp:357] cccp3_bn -> cccp3_bn
I0305 15:36:23.096165 28078 net.cpp:97] Setting up cccp3_bn
I0305 15:36:23.096189 28078 net.cpp:104] Top shape: 128 256 19 19 (11829248)
I0305 15:36:23.096204 28078 layer_factory.hpp:78] Creating layer relu_cccp3
I0305 15:36:23.096218 28078 net.cpp:68] Creating Layer relu_cccp3
I0305 15:36:23.096230 28078 net.cpp:395] relu_cccp3 <- cccp3_bn
I0305 15:36:23.096246 28078 net.cpp:346] relu_cccp3 -> cccp3_bn (in-place)
I0305 15:36:23.096261 28078 net.cpp:97] Setting up relu_cccp3
I0305 15:36:23.096277 28078 net.cpp:104] Top shape: 128 256 19 19 (11829248)
I0305 15:36:23.096289 28078 layer_factory.hpp:78] Creating layer pool3
I0305 15:36:23.096305 28078 net.cpp:68] Creating Layer pool3
I0305 15:36:23.096317 28078 net.cpp:395] pool3 <- cccp3_bn
I0305 15:36:23.096330 28078 net.cpp:357] pool3 -> pool3
I0305 15:36:23.096345 28078 net.cpp:97] Setting up pool3
I0305 15:36:23.096364 28078 net.cpp:104] Top shape: 128 256 9 9 (2654208)
I0305 15:36:23.096376 28078 layer_factory.hpp:78] Creating layer fc4
I0305 15:36:23.096397 28078 net.cpp:68] Creating Layer fc4
I0305 15:36:23.096431 28078 net.cpp:395] fc4 <- pool3
I0305 15:36:23.096451 28078 net.cpp:357] fc4 -> fc4
I0305 15:36:23.096470 28078 net.cpp:97] Setting up fc4
I0305 15:36:23.197973 28078 net.cpp:104] Top shape: 128 512 1 1 (65536)
I0305 15:36:23.198067 28078 layer_factory.hpp:78] Creating layer relu4
I0305 15:36:23.198092 28078 net.cpp:68] Creating Layer relu4
I0305 15:36:23.198107 28078 net.cpp:395] relu4 <- fc4
I0305 15:36:23.198127 28078 net.cpp:346] relu4 -> fc4 (in-place)
I0305 15:36:23.198145 28078 net.cpp:97] Setting up relu4
I0305 15:36:23.198180 28078 net.cpp:104] Top shape: 128 512 1 1 (65536)
I0305 15:36:23.198194 28078 layer_factory.hpp:78] Creating layer drop4
I0305 15:36:23.198211 28078 net.cpp:68] Creating Layer drop4
I0305 15:36:23.198225 28078 net.cpp:395] drop4 <- fc4
I0305 15:36:23.198241 28078 net.cpp:346] drop4 -> fc4 (in-place)
I0305 15:36:23.198256 28078 net.cpp:97] Setting up drop4
I0305 15:36:23.198271 28078 net.cpp:104] Top shape: 128 512 1 1 (65536)
I0305 15:36:23.198284 28078 layer_factory.hpp:78] Creating layer fc5
I0305 15:36:23.198300 28078 net.cpp:68] Creating Layer fc5
I0305 15:36:23.198312 28078 net.cpp:395] fc5 <- fc4
I0305 15:36:23.198330 28078 net.cpp:357] fc5 -> fc5
I0305 15:36:23.198348 28078 net.cpp:97] Setting up fc5
I0305 15:36:23.201133 28078 net.cpp:104] Top shape: 128 512 1 1 (65536)
I0305 15:36:23.201159 28078 layer_factory.hpp:78] Creating layer relu5
I0305 15:36:23.201174 28078 net.cpp:68] Creating Layer relu5
I0305 15:36:23.201186 28078 net.cpp:395] relu5 <- fc5
I0305 15:36:23.201200 28078 net.cpp:346] relu5 -> fc5 (in-place)
I0305 15:36:23.201215 28078 net.cpp:97] Setting up relu5
I0305 15:36:23.201231 28078 net.cpp:104] Top shape: 128 512 1 1 (65536)
I0305 15:36:23.201244 28078 layer_factory.hpp:78] Creating layer drop5
I0305 15:36:23.201258 28078 net.cpp:68] Creating Layer drop5
I0305 15:36:23.201270 28078 net.cpp:395] drop5 <- fc5
I0305 15:36:23.201284 28078 net.cpp:346] drop5 -> fc5 (in-place)
I0305 15:36:23.201299 28078 net.cpp:97] Setting up drop5
I0305 15:36:23.201311 28078 net.cpp:104] Top shape: 128 512 1 1 (65536)
I0305 15:36:23.201323 28078 layer_factory.hpp:78] Creating layer fc6
I0305 15:36:23.201340 28078 net.cpp:68] Creating Layer fc6
I0305 15:36:23.201354 28078 net.cpp:395] fc6 <- fc5
I0305 15:36:23.201367 28078 net.cpp:357] fc6 -> fc6
I0305 15:36:23.201382 28078 net.cpp:97] Setting up fc6
I0305 15:36:23.202044 28078 net.cpp:104] Top shape: 128 121 1 1 (15488)
I0305 15:36:23.202067 28078 layer_factory.hpp:78] Creating layer loss
I0305 15:36:23.202086 28078 net.cpp:68] Creating Layer loss
I0305 15:36:23.202100 28078 net.cpp:395] loss <- fc6
I0305 15:36:23.202112 28078 net.cpp:395] loss <- label
I0305 15:36:23.202131 28078 net.cpp:357] loss -> loss
I0305 15:36:23.202148 28078 net.cpp:97] Setting up loss
I0305 15:36:23.202164 28078 layer_factory.hpp:78] Creating layer loss
I0305 15:36:23.202232 28078 net.cpp:104] Top shape: 1 1 1 1 (1)
I0305 15:36:23.202249 28078 net.cpp:110]     with loss weight 1
I0305 15:36:23.202307 28078 net.cpp:171] loss needs backward computation.
I0305 15:36:23.202322 28078 net.cpp:171] fc6 needs backward computation.
I0305 15:36:23.202333 28078 net.cpp:171] drop5 needs backward computation.
I0305 15:36:23.202344 28078 net.cpp:171] relu5 needs backward computation.
I0305 15:36:23.202355 28078 net.cpp:171] fc5 needs backward computation.
…
