…
E0304 00:22:12.043954 32523 upgrade_proto.cpp:624] Note that future Caffe releases will only support transform_param messages for transformation fields.
I0304 00:22:12.044374 32523 net.cpp:39] Initializing net from parameters: 
name: "model6_bn"
layers {
  top: "data"
  top: "label"
  name: "data"
  type: DATA
  data_param {
    source: "/home/jaehyun/kaggle/nationalDataScienceBowl/data/typeE/train_lmdb"
    batch_size: 128
    backend: LMDB
    shuffle: true
  }
  transform_param {
    scale: 0.00390625
    mirror: true
    mean_file: "/home/jaehyun/kaggle/nationalDataScienceBowl/data/typeE/train_mean.binaryproto"
  }
}
layers {
  bottom: "data"
  top: "conv1"
  name: "conv1"
  type: CONVOLUTION
  blobs_lr: 1
  blobs_lr: 2
  weight_decay: 1
  weight_decay: 0
  convolution_param {
    num_output: 256
    kernel_size: 4
    stride: 2
    weight_filler {
      type: "xavier"
    }
    bias_filler {
      type: "constant"
    }
  }
}
layers {
  bottom: "conv1"
  top: "conv1_bn"
  name: "conv1_bn"
  type: BN
  blobs_lr: 1
  blobs_lr: 1
  weight_decay: 0
  weight_decay: 0
  bn_param {
    scale_filler {
      type: "constant"
      value: 1
    }
    shift_filler {
      type: "constant"
      value: 0
    }
  }
}
layers {
  bottom: "conv1_bn"
  top: "conv1_bn"
  name: "relu1"
  type: RELU
  relu_param {
    negative_slope: 0.33
  }
}
layers {
  bottom: "conv1_bn"
  top: "cccp1"
  name: "cccp1"
  type: CONVOLUTION
  blobs_lr: 1
  blobs_lr: 2
  weight_decay: 1
  weight_decay: 0
  convolution_param {
    num_output: 256
    kernel_size: 1
    group: 1
    stride: 1
    weight_filler {
      type: "xavier"
    }
    bias_filler {
      type: "constant"
    }
  }
}
layers {
  bottom: "cccp1"
  top: "cccp1_bn"
  name: "cccp1_bn"
  type: BN
  blobs_lr: 1
  blobs_lr: 1
  weight_decay: 0
  weight_decay: 0
  bn_param {
    scale_filler {
      type: "constant"
      value: 1
    }
    shift_filler {
      type: "constant"
      value: 0
    }
  }
}
layers {
  bottom: "cccp1_bn"
  top: "cccp1_bn"
  name: "relu_cccp1"
  type: RELU
  relu_param {
    negative_slope: 0.33
  }
}
layers {
  bottom: "cccp1_bn"
  top: "pool1"
  name: "pool1"
  type: POOLING
  pooling_param {
    pool: MAX
    kernel_size: 2
    stride: 2
  }
}
layers {
  bottom: "pool1"
  top: "conv2"
  name: "conv2"
  type: CONVOLUTION
  blobs_lr: 1
  blobs_lr: 2
  weight_decay: 1
  weight_decay: 0
  convolution_param {
    num_output: 256
    kernel_size: 3
    weight_filler {
      type: "xavier"
    }
    bias_filler {
      type: "constant"
    }
  }
}
layers {
  bottom: "conv2"
  top: "conv2_bn"
  name: "conv2_bn"
  type: BN
  blobs_lr: 1
  blobs_lr: 1
  weight_decay: 0
  weight_decay: 0
  bn_param {
    scale_filler {
      type: "constant"
      value: 1
    }
    shift_filler {
      type: "constant"
      value: 0
    }
  }
}
layers {
  bottom: "conv2_bn"
  top: "conv2_bn"
  name: "relu2"
  type: RELU
  relu_param {
    negative_slope: 0.33
  }
}
layers {
  bottom: "conv2_bn"
  top: "cccp2"
  name: "cccp2"
  type: CONVOLUTION
  blobs_lr: 1
  blobs_lr: 2
  weight_decay: 1
  weight_decay: 0
  convolution_param {
    num_output: 256
    kernel_size: 1
    group: 1
    stride: 1
    weight_filler {
      type: "xavier"
    }
    bias_filler {
      type: "constant"
    }
  }
}
layers {
  bottom: "cccp2"
  top: "cccp2_bn"
  name: "cccp2_bn"
  type: BN
  blobs_lr: 1
  blobs_lr: 1
  weight_decay: 0
  weight_decay: 0
  bn_param {
    scale_filler {
      type: "constant"
      value: 1
    }
    shift_filler {
      type: "constant"
      value: 0
    }
  }
}
layers {
  bottom: "cccp2_bn"
  top: "cccp2_bn"
  name: "relu_cccp2"
  type: RELU
  relu_param {
    negative_slope: 0.33
  }
}
layers {
  bottom: "cccp2_bn"
  top: "conv3"
  name: "conv3"
  type: CONVOLUTION
  blobs_lr: 1
  blobs_lr: 2
  weight_decay: 1
  weight_decay: 0
  convolution_param {
    num_output: 256
    kernel_size: 3
    weight_filler {
      type: "xavier"
    }
    bias_filler {
      type: "constant"
    }
  }
}
layers {
  bottom: "conv3"
  top: "conv3_bn"
  name: "conv3_bn"
  type: BN
  blobs_lr: 1
  blobs_lr: 1
  weight_decay: 0
  weight_decay: 0
  bn_param {
    scale_filler {
      type: "constant"
      value: 1
    }
    shift_filler {
      type: "constant"
      value: 0
    }
  }
}
layers {
  bottom: "conv3_bn"
  top: "conv3_bn"
  name: "relu3"
  type: RELU
  relu_param {
    negative_slope: 0.33
  }
}
layers {
  bottom: "conv3_bn"
  top: "cccp3"
  name: "cccp3"
  type: CONVOLUTION
  blobs_lr: 1
  blobs_lr: 2
  weight_decay: 1
  weight_decay: 0
  convolution_param {
    num_output: 256
    kernel_size: 1
    group: 1
    stride: 1
    weight_filler {
      type: "xavier"
    }
    bias_filler {
      type: "constant"
    }
  }
}
layers {
  bottom: "cccp3"
  top: "cccp3_bn"
  name: "cccp3_bn"
  type: BN
  blobs_lr: 1
  blobs_lr: 1
  weight_decay: 0
  weight_decay: 0
  bn_param {
    scale_filler {
      type: "constant"
      value: 1
    }
    shift_filler {
      type: "constant"
      value: 0
    }
  }
}
layers {
  bottom: "cccp3_bn"
  top: "cccp3_bn"
  name: "relu_cccp3"
  type: RELU
  relu_param {
    negative_slope: 0.33
  }
}
layers {
  bottom: "cccp3_bn"
  top: "pool3"
  name: "pool3"
  type: POOLING
  pooling_param {
    pool: MAX
    kernel_size: 2
    stride: 2
  }
}
layers {
  bottom: "pool3"
  top: "conv4"
  name: "conv4"
  type: CONVOLUTION
  blobs_lr: 1
  blobs_lr: 2
  weight_decay: 1
  weight_decay: 0
  convolution_param {
    num_output: 256
    kernel_size: 3
    weight_filler {
      type: "xavier"
    }
    bias_filler {
      type: "constant"
    }
  }
}
layers {
  bottom: "conv4"
  top: "conv4_bn"
  name: "conv4_bn"
  type: BN
  blobs_lr: 1
  blobs_lr: 1
  weight_decay: 0
  weight_decay: 0
  bn_param {
    scale_filler {
      type: "constant"
      value: 1
    }
    shift_filler {
      type: "constant"
      value: 0
    }
  }
}
layers {
  bottom: "conv4_bn"
  top: "conv4_bn"
  name: "relu4"
  type: RELU
  relu_param {
    negative_slope: 0.33
  }
}
layers {
  bottom: "conv4_bn"
  top: "cccp4"
  name: "cccp4"
  type: CONVOLUTION
  blobs_lr: 1
  blobs_lr: 2
  weight_decay: 1
  weight_decay: 0
  convolution_param {
    num_output: 256
    kernel_size: 1
    group: 1
    stride: 1
    weight_filler {
      type: "xavier"
    }
    bias_filler {
      type: "constant"
    }
  }
}
layers {
  bottom: "cccp4"
  top: "cccp4_bn"
  name: "cccp4_bn"
  type: BN
  blobs_lr: 1
  blobs_lr: 1
  weight_decay: 0
  weight_decay: 0
  bn_param {
    scale_filler {
      type: "constant"
      value: 1
    }
    shift_filler {
      type: "constant"
      value: 0
    }
  }
}
layers {
  bottom: "cccp4_bn"
  top: "cccp4_bn"
  name: "relu_cccp4"
  type: RELU
  relu_param {
    negative_slope: 0.33
  }
}
layers {
  bottom: "cccp4_bn"
  top: "pool4"
  name: "pool4"
  type: POOLING
  pooling_param {
    pool: MAX
    kernel_size: 2
    stride: 2
  }
}
layers {
  bottom: "pool4"
  top: "fc5"
  name: "fc5"
  type: INNER_PRODUCT
  blobs_lr: 1
  blobs_lr: 2
  weight_decay: 1
  weight_decay: 0
  inner_product_param {
    num_output: 512
    weight_filler {
      type: "xavier"
    }
    bias_filler {
      type: "constant"
    }
  }
}
layers {
  bottom: "fc5"
  top: "fc5"
  name: "relu5"
  type: RELU
  relu_param {
    negative_slope: 0.33
  }
}
layers {
  bottom: "fc5"
  top: "fc5"
  name: "drop5"
  type: DROPOUT
  dropout_param {
    dropout_ratio: 0.5
  }
}
layers {
  bottom: "fc5"
  top: "fc6"
  name: "fc6"
  type: INNER_PRODUCT
  blobs_lr: 1
  blobs_lr: 2
  weight_decay: 1
  weight_decay: 0
  inner_product_param {
    num_output: 512
    weight_filler {
      type: "xavier"
    }
    bias_filler {
      type: "constant"
    }
  }
}
layers {
  bottom: "fc6"
  top: "fc6"
  name: "relu6"
  type: RELU
  relu_param {
    negative_slope: 0.33
  }
}
layers {
  bottom: "fc6"
  top: "fc6"
  name: "drop6"
  type: DROPOUT
  dropout_param {
    dropout_ratio: 0.5
  }
}
layers {
  bottom: "fc6"
  top: "fc7"
  name: "fc7"
  type: INNER_PRODUCT
  blobs_lr: 1
  blobs_lr: 2
  weight_decay: 1
  weight_decay: 0
  inner_product_param {
    num_output: 121
    weight_filler {
      type: "xavier"
    }
    bias_filler {
      type: "constant"
    }
  }
}
layers {
  bottom: "fc7"
  bottom: "label"
  top: "loss"
  name: "loss"
  type: SOFTMAX_LOSS
}
state {
  phase: TRAIN
}
I0304 00:22:12.045927 32523 layer_factory.hpp:78] Creating layer data
I0304 00:22:12.045958 32523 data_transformer.cpp:24] Loading mean file from/home/jaehyun/kaggle/nationalDataScienceBowl/data/typeE/train_mean.binaryproto
I0304 00:22:12.046159 32523 net.cpp:68] Creating Layer data
I0304 00:22:12.046181 32523 net.cpp:357] data -> data
I0304 00:22:12.046211 32523 net.cpp:357] data -> label
I0304 00:22:12.046234 32523 net.cpp:97] Setting up data
I0304 00:22:12.046254 32523 data_layer.cpp:34] Opening dataset /home/jaehyun/kaggle/nationalDataScienceBowl/data/typeE/train_lmdb
I0304 00:22:12.046448 32523 data_layer.cpp:73] output data size: 128,1,96,96
I0304 00:22:12.048445 32523 net.cpp:104] Top shape: 128 1 96 96 (1179648)
I0304 00:22:12.048480 32523 net.cpp:104] Top shape: 128 1 1 1 (128)
I0304 00:22:12.048493 32523 layer_factory.hpp:78] Creating layer conv1
I0304 00:22:12.048516 32523 net.cpp:68] Creating Layer conv1
I0304 00:22:12.048528 32523 net.cpp:395] conv1 <- data
I0304 00:22:12.048555 32523 net.cpp:357] conv1 -> conv1
I0304 00:22:12.048576 32523 net.cpp:97] Setting up conv1
I0304 00:22:12.079596 32523 net.cpp:104] Top shape: 128 256 47 47 (72384512)
I0304 00:22:12.079687 32523 layer_factory.hpp:78] Creating layer conv1_bn
I0304 00:22:12.079721 32523 net.cpp:68] Creating Layer conv1_bn
I0304 00:22:12.079737 32523 net.cpp:395] conv1_bn <- conv1
I0304 00:22:12.079756 32523 net.cpp:357] conv1_bn -> conv1_bn
I0304 00:22:12.079778 32523 net.cpp:97] Setting up conv1_bn
I0304 00:22:12.079819 32523 net.cpp:104] Top shape: 128 256 47 47 (72384512)
I0304 00:22:12.079838 32523 layer_factory.hpp:78] Creating layer relu1
I0304 00:22:12.079856 32523 net.cpp:68] Creating Layer relu1
I0304 00:22:12.079869 32523 net.cpp:395] relu1 <- conv1_bn
I0304 00:22:12.079885 32523 net.cpp:346] relu1 -> conv1_bn (in-place)
I0304 00:22:12.079900 32523 net.cpp:97] Setting up relu1
I0304 00:22:12.079921 32523 net.cpp:104] Top shape: 128 256 47 47 (72384512)
I0304 00:22:12.079936 32523 layer_factory.hpp:78] Creating layer cccp1
I0304 00:22:12.079954 32523 net.cpp:68] Creating Layer cccp1
I0304 00:22:12.079965 32523 net.cpp:395] cccp1 <- conv1_bn
I0304 00:22:12.079982 32523 net.cpp:357] cccp1 -> cccp1
I0304 00:22:12.080000 32523 net.cpp:97] Setting up cccp1
I0304 00:22:12.080781 32523 net.cpp:104] Top shape: 128 256 47 47 (72384512)
I0304 00:22:12.080809 32523 layer_factory.hpp:78] Creating layer cccp1_bn
I0304 00:22:12.080831 32523 net.cpp:68] Creating Layer cccp1_bn
I0304 00:22:12.080843 32523 net.cpp:395] cccp1_bn <- cccp1
I0304 00:22:12.080858 32523 net.cpp:357] cccp1_bn -> cccp1_bn
I0304 00:22:12.080873 32523 net.cpp:97] Setting up cccp1_bn
I0304 00:22:12.080906 32523 net.cpp:104] Top shape: 128 256 47 47 (72384512)
I0304 00:22:12.080922 32523 layer_factory.hpp:78] Creating layer relu_cccp1
I0304 00:22:12.080937 32523 net.cpp:68] Creating Layer relu_cccp1
I0304 00:22:12.080948 32523 net.cpp:395] relu_cccp1 <- cccp1_bn
I0304 00:22:12.080965 32523 net.cpp:346] relu_cccp1 -> cccp1_bn (in-place)
I0304 00:22:12.080979 32523 net.cpp:97] Setting up relu_cccp1
I0304 00:22:12.080994 32523 net.cpp:104] Top shape: 128 256 47 47 (72384512)
I0304 00:22:12.081055 32523 layer_factory.hpp:78] Creating layer pool1
I0304 00:22:12.081074 32523 net.cpp:68] Creating Layer pool1
I0304 00:22:12.081087 32523 net.cpp:395] pool1 <- cccp1_bn
I0304 00:22:12.081100 32523 net.cpp:357] pool1 -> pool1
I0304 00:22:12.081115 32523 net.cpp:97] Setting up pool1
I0304 00:22:12.081151 32523 net.cpp:104] Top shape: 128 256 24 24 (18874368)
I0304 00:22:12.081166 32523 layer_factory.hpp:78] Creating layer conv2
I0304 00:22:12.081185 32523 net.cpp:68] Creating Layer conv2
I0304 00:22:12.081198 32523 net.cpp:395] conv2 <- pool1
I0304 00:22:12.081215 32523 net.cpp:357] conv2 -> conv2
I0304 00:22:12.081231 32523 net.cpp:97] Setting up conv2
I0304 00:22:12.087404 32523 net.cpp:104] Top shape: 128 256 22 22 (15859712)
I0304 00:22:12.087441 32523 layer_factory.hpp:78] Creating layer conv2_bn
I0304 00:22:12.087460 32523 net.cpp:68] Creating Layer conv2_bn
I0304 00:22:12.087472 32523 net.cpp:395] conv2_bn <- conv2
I0304 00:22:12.087486 32523 net.cpp:357] conv2_bn -> conv2_bn
I0304 00:22:12.087503 32523 net.cpp:97] Setting up conv2_bn
I0304 00:22:12.087527 32523 net.cpp:104] Top shape: 128 256 22 22 (15859712)
I0304 00:22:12.087543 32523 layer_factory.hpp:78] Creating layer relu2
I0304 00:22:12.087558 32523 net.cpp:68] Creating Layer relu2
I0304 00:22:12.087570 32523 net.cpp:395] relu2 <- conv2_bn
I0304 00:22:12.087584 32523 net.cpp:346] relu2 -> conv2_bn (in-place)
I0304 00:22:12.087597 32523 net.cpp:97] Setting up relu2
I0304 00:22:12.087612 32523 net.cpp:104] Top shape: 128 256 22 22 (15859712)
I0304 00:22:12.087625 32523 layer_factory.hpp:78] Creating layer cccp2
I0304 00:22:12.087646 32523 net.cpp:68] Creating Layer cccp2
I0304 00:22:12.087658 32523 net.cpp:395] cccp2 <- conv2_bn
I0304 00:22:12.087672 32523 net.cpp:357] cccp2 -> cccp2
I0304 00:22:12.087687 32523 net.cpp:97] Setting up cccp2
I0304 00:22:12.088444 32523 net.cpp:104] Top shape: 128 256 22 22 (15859712)
I0304 00:22:12.088469 32523 layer_factory.hpp:78] Creating layer cccp2_bn
I0304 00:22:12.088490 32523 net.cpp:68] Creating Layer cccp2_bn
I0304 00:22:12.088503 32523 net.cpp:395] cccp2_bn <- cccp2
I0304 00:22:12.088521 32523 net.cpp:357] cccp2_bn -> cccp2_bn
I0304 00:22:12.088537 32523 net.cpp:97] Setting up cccp2_bn
I0304 00:22:12.088559 32523 net.cpp:104] Top shape: 128 256 22 22 (15859712)
I0304 00:22:12.088575 32523 layer_factory.hpp:78] Creating layer relu_cccp2
I0304 00:22:12.088589 32523 net.cpp:68] Creating Layer relu_cccp2
I0304 00:22:12.088601 32523 net.cpp:395] relu_cccp2 <- cccp2_bn
I0304 00:22:12.088616 32523 net.cpp:346] relu_cccp2 -> cccp2_bn (in-place)
I0304 00:22:12.088631 32523 net.cpp:97] Setting up relu_cccp2
I0304 00:22:12.088646 32523 net.cpp:104] Top shape: 128 256 22 22 (15859712)
I0304 00:22:12.088659 32523 layer_factory.hpp:78] Creating layer conv3
I0304 00:22:12.088675 32523 net.cpp:68] Creating Layer conv3
I0304 00:22:12.088685 32523 net.cpp:395] conv3 <- cccp2_bn
I0304 00:22:12.088699 32523 net.cpp:357] conv3 -> conv3
I0304 00:22:12.088713 32523 net.cpp:97] Setting up conv3
I0304 00:22:12.094877 32523 net.cpp:104] Top shape: 128 256 20 20 (13107200)
I0304 00:22:12.094912 32523 layer_factory.hpp:78] Creating layer conv3_bn
I0304 00:22:12.094931 32523 net.cpp:68] Creating Layer conv3_bn
I0304 00:22:12.094944 32523 net.cpp:395] conv3_bn <- conv3
I0304 00:22:12.094959 32523 net.cpp:357] conv3_bn -> conv3_bn
I0304 00:22:12.094974 32523 net.cpp:97] Setting up conv3_bn
I0304 00:22:12.094995 32523 net.cpp:104] Top shape: 128 256 20 20 (13107200)
I0304 00:22:12.095011 32523 layer_factory.hpp:78] Creating layer relu3
I0304 00:22:12.095031 32523 net.cpp:68] Creating Layer relu3
I0304 00:22:12.095044 32523 net.cpp:395] relu3 <- conv3_bn
I0304 00:22:12.095058 32523 net.cpp:346] relu3 -> conv3_bn (in-place)
I0304 00:22:12.095075 32523 net.cpp:97] Setting up relu3
I0304 00:22:12.095090 32523 net.cpp:104] Top shape: 128 256 20 20 (13107200)
I0304 00:22:12.095103 32523 layer_factory.hpp:78] Creating layer cccp3
I0304 00:22:12.095118 32523 net.cpp:68] Creating Layer cccp3
I0304 00:22:12.095129 32523 net.cpp:395] cccp3 <- conv3_bn
I0304 00:22:12.095173 32523 net.cpp:357] cccp3 -> cccp3
I0304 00:22:12.095191 32523 net.cpp:97] Setting up cccp3
I0304 00:22:12.096195 32523 net.cpp:104] Top shape: 128 256 20 20 (13107200)
I0304 00:22:12.096222 32523 layer_factory.hpp:78] Creating layer cccp3_bn
I0304 00:22:12.096243 32523 net.cpp:68] Creating Layer cccp3_bn
I0304 00:22:12.096256 32523 net.cpp:395] cccp3_bn <- cccp3
I0304 00:22:12.096273 32523 net.cpp:357] cccp3_bn -> cccp3_bn
I0304 00:22:12.096289 32523 net.cpp:97] Setting up cccp3_bn
I0304 00:22:12.096315 32523 net.cpp:104] Top shape: 128 256 20 20 (13107200)
I0304 00:22:12.096331 32523 layer_factory.hpp:78] Creating layer relu_cccp3
I0304 00:22:12.096346 32523 net.cpp:68] Creating Layer relu_cccp3
I0304 00:22:12.096357 32523 net.cpp:395] relu_cccp3 <- cccp3_bn
I0304 00:22:12.096374 32523 net.cpp:346] relu_cccp3 -> cccp3_bn (in-place)
I0304 00:22:12.096388 32523 net.cpp:97] Setting up relu_cccp3
I0304 00:22:12.096403 32523 net.cpp:104] Top shape: 128 256 20 20 (13107200)
I0304 00:22:12.096415 32523 layer_factory.hpp:78] Creating layer pool3
I0304 00:22:12.096431 32523 net.cpp:68] Creating Layer pool3
I0304 00:22:12.096441 32523 net.cpp:395] pool3 <- cccp3_bn
I0304 00:22:12.096454 32523 net.cpp:357] pool3 -> pool3
I0304 00:22:12.096469 32523 net.cpp:97] Setting up pool3
I0304 00:22:12.096487 32523 net.cpp:104] Top shape: 128 256 10 10 (3276800)
I0304 00:22:12.096499 32523 layer_factory.hpp:78] Creating layer conv4
I0304 00:22:12.096518 32523 net.cpp:68] Creating Layer conv4
I0304 00:22:12.096530 32523 net.cpp:395] conv4 <- pool3
I0304 00:22:12.096544 32523 net.cpp:357] conv4 -> conv4
I0304 00:22:12.096564 32523 net.cpp:97] Setting up conv4
I0304 00:22:12.102370 32523 net.cpp:104] Top shape: 128 256 8 8 (2097152)
I0304 00:22:12.102396 32523 layer_factory.hpp:78] Creating layer conv4_bn
I0304 00:22:12.102416 32523 net.cpp:68] Creating Layer conv4_bn
I0304 00:22:12.102430 32523 net.cpp:395] conv4_bn <- conv4
I0304 00:22:12.102445 32523 net.cpp:357] conv4_bn -> conv4_bn
I0304 00:22:12.102462 32523 net.cpp:97] Setting up conv4_bn
I0304 00:22:12.102481 32523 net.cpp:104] Top shape: 128 256 8 8 (2097152)
I0304 00:22:12.102496 32523 layer_factory.hpp:78] Creating layer relu4
I0304 00:22:12.102511 32523 net.cpp:68] Creating Layer relu4
I0304 00:22:12.102524 32523 net.cpp:395] relu4 <- conv4_bn
I0304 00:22:12.102537 32523 net.cpp:346] relu4 -> conv4_bn (in-place)
I0304 00:22:12.102551 32523 net.cpp:97] Setting up relu4
I0304 00:22:12.102566 32523 net.cpp:104] Top shape: 128 256 8 8 (2097152)
I0304 00:22:12.102577 32523 layer_factory.hpp:78] Creating layer cccp4
I0304 00:22:12.102596 32523 net.cpp:68] Creating Layer cccp4
I0304 00:22:12.102607 32523 net.cpp:395] cccp4 <- conv4_bn
I0304 00:22:12.102622 32523 net.cpp:357] cccp4 -> cccp4
I0304 00:22:12.102635 32523 net.cpp:97] Setting up cccp4
I0304 00:22:12.103377 32523 net.cpp:104] Top shape: 128 256 8 8 (2097152)
I0304 00:22:12.103401 32523 layer_factory.hpp:78] Creating layer cccp4_bn
I0304 00:22:12.103420 32523 net.cpp:68] Creating Layer cccp4_bn
I0304 00:22:12.103433 32523 net.cpp:395] cccp4_bn <- cccp4
I0304 00:22:12.103447 32523 net.cpp:357] cccp4_bn -> cccp4_bn
I0304 00:22:12.103462 32523 net.cpp:97] Setting up cccp4_bn
I0304 00:22:12.103485 32523 net.cpp:104] Top shape: 128 256 8 8 (2097152)
I0304 00:22:12.103502 32523 layer_factory.hpp:78] Creating layer relu_cccp4
I0304 00:22:12.103518 32523 net.cpp:68] Creating Layer relu_cccp4
I0304 00:22:12.103528 32523 net.cpp:395] relu_cccp4 <- cccp4_bn
I0304 00:22:12.103541 32523 net.cpp:346] relu_cccp4 -> cccp4_bn (in-place)
I0304 00:22:12.103554 32523 net.cpp:97] Setting up relu_cccp4
I0304 00:22:12.103569 32523 net.cpp:104] Top shape: 128 256 8 8 (2097152)
I0304 00:22:12.103581 32523 layer_factory.hpp:78] Creating layer pool4
I0304 00:22:12.103595 32523 net.cpp:68] Creating Layer pool4
I0304 00:22:12.103606 32523 net.cpp:395] pool4 <- cccp4_bn
I0304 00:22:12.103622 32523 net.cpp:357] pool4 -> pool4
I0304 00:22:12.103637 32523 net.cpp:97] Setting up pool4
I0304 00:22:12.103654 32523 net.cpp:104] Top shape: 128 256 4 4 (524288)
I0304 00:22:12.103693 32523 layer_factory.hpp:78] Creating layer fc5
I0304 00:22:12.103716 32523 net.cpp:68] Creating Layer fc5
I0304 00:22:12.103729 32523 net.cpp:395] fc5 <- pool4
I0304 00:22:12.103744 32523 net.cpp:357] fc5 -> fc5
I0304 00:22:12.103759 32523 net.cpp:97] Setting up fc5
I0304 00:22:12.124697 32523 net.cpp:104] Top shape: 128 512 1 1 (65536)
I0304 00:22:12.124773 32523 layer_factory.hpp:78] Creating layer relu5
I0304 00:22:12.124797 32523 net.cpp:68] Creating Layer relu5
I0304 00:22:12.124812 32523 net.cpp:395] relu5 <- fc5
I0304 00:22:12.124835 32523 net.cpp:346] relu5 -> fc5 (in-place)
I0304 00:22:12.124855 32523 net.cpp:97] Setting up relu5
I0304 00:22:12.124886 32523 net.cpp:104] Top shape: 128 512 1 1 (65536)
I0304 00:22:12.124898 32523 layer_factory.hpp:78] Creating layer drop5
I0304 00:22:12.124919 32523 net.cpp:68] Creating Layer drop5
I0304 00:22:12.124932 32523 net.cpp:395] drop5 <- fc5
I0304 00:22:12.124945 32523 net.cpp:346] drop5 -> fc5 (in-place)
I0304 00:22:12.124963 32523 net.cpp:97] Setting up drop5
I0304 00:22:12.124979 32523 net.cpp:104] Top shape: 128 512 1 1 (65536)
I0304 00:22:12.124991 32523 layer_factory.hpp:78] Creating layer fc6
I0304 00:22:12.125008 32523 net.cpp:68] Creating Layer fc6
I0304 00:22:12.125020 32523 net.cpp:395] fc6 <- fc5
I0304 00:22:12.125035 32523 net.cpp:357] fc6 -> fc6
I0304 00:22:12.125051 32523 net.cpp:97] Setting up fc6
I0304 00:22:12.127770 32523 net.cpp:104] Top shape: 128 512 1 1 (65536)
I0304 00:22:12.127794 32523 layer_factory.hpp:78] Creating layer relu6
I0304 00:22:12.127816 32523 net.cpp:68] Creating Layer relu6
I0304 00:22:12.127830 32523 net.cpp:395] relu6 <- fc6
I0304 00:22:12.127847 32523 net.cpp:346] relu6 -> fc6 (in-place)
I0304 00:22:12.127862 32523 net.cpp:97] Setting up relu6
I0304 00:22:12.127877 32523 net.cpp:104] Top shape: 128 512 1 1 (65536)
I0304 00:22:12.127890 32523 layer_factory.hpp:78] Creating layer drop6
I0304 00:22:12.127904 32523 net.cpp:68] Creating Layer drop6
I0304 00:22:12.127915 32523 net.cpp:395] drop6 <- fc6
I0304 00:22:12.127928 32523 net.cpp:346] drop6 -> fc6 (in-place)
I0304 00:22:12.127941 32523 net.cpp:97] Setting up drop6
I0304 00:22:12.127954 32523 net.cpp:104] Top shape: 128 512 1 1 (65536)
I0304 00:22:12.127965 32523 layer_factory.hpp:78] Creating layer fc7
I0304 00:22:12.127980 32523 net.cpp:68] Creating Layer fc7
I0304 00:22:12.127992 32523 net.cpp:395] fc7 <- fc6
I0304 00:22:12.128006 32523 net.cpp:357] fc7 -> fc7
I0304 00:22:12.128021 32523 net.cpp:97] Setting up fc7
I0304 00:22:12.128669 32523 net.cpp:104] Top shape: 128 121 1 1 (15488)
I0304 00:22:12.128693 32523 layer_factory.hpp:78] Creating layer loss
I0304 00:22:12.128712 32523 net.cpp:68] Creating Layer loss
I0304 00:22:12.128726 32523 net.cpp:395] loss <- fc7
I0304 00:22:12.128738 32523 net.cpp:395] loss <- label
I0304 00:22:12.128757 32523 net.cpp:357] loss -> loss
I0304 00:22:12.128777 32523 net.cpp:97] Setting up loss
I0304 00:22:12.128793 32523 layer_factory.hpp:78] Creating layer loss
I0304 00:22:12.128861 32523 net.cpp:104] Top shape: 1 1 1 1 (1)
I0304 00:22:12.128878 32523 net.cpp:110]     with loss weight 1
I0304 00:22:12.128931 32523 net.cpp:171] loss needs backward computation.
I0304 00:22:12.128945 32523 net.cpp:171] fc7 needs backward computation.
I0304 00:22:12.128957 32523 net.cpp:171] drop6 needs backward computation.
I0304 00:22:12.128968 32523 net.cpp:171] relu6 needs backward computation.
I0304 00:22:12.128978 32523 net.cpp:171] fc6 needs backward computation.
…
