…
I0226 16:35:56.412901 22032 net.cpp:276] The NetState phase (0) differed from the phase (1) specified by a rule in layer accuracy
I0226 16:35:56.413113 22032 net.cpp:39] Initializing net from parameters: 
name: "nin_full"
layers {
  top: "data"
  top: "label"
  name: "cifar"
  type: DATA
  data_param {
    source: "/home/jaehyun/kaggle/nationalDataScienceBowl/data/typeD/train_lmdb"
    batch_size: 128
    backend: LMDB
    shuffle: true
  }
  include {
    phase: TRAIN
  }
  transform_param {
    mirror: true
    mean_file: "/home/jaehyun/kaggle/nationalDataScienceBowl/data/typeD/train_mean.binaryproto"
  }
}
layers {
  bottom: "data"
  top: "conv1"
  name: "conv1"
  type: CONVOLUTION
  blobs_lr: 1
  blobs_lr: 2
  weight_decay: 1
  weight_decay: 0
  convolution_param {
    num_output: 192
    pad: 2
    kernel_size: 5
    weight_filler {
      type: "gaussian"
      std: 0.05
    }
    bias_filler {
      type: "constant"
    }
  }
}
layers {
  bottom: "conv1"
  top: "conv1"
  name: "relu1"
  type: RELU
}
layers {
  bottom: "conv1"
  top: "cccp1"
  name: "cccp1"
  type: CONVOLUTION
  blobs_lr: 1
  blobs_lr: 2
  weight_decay: 1
  weight_decay: 0
  convolution_param {
    num_output: 160
    kernel_size: 1
    group: 1
    weight_filler {
      type: "gaussian"
      std: 0.05
    }
    bias_filler {
      type: "constant"
      value: 0
    }
  }
}
layers {
  bottom: "cccp1"
  top: "cccp1"
  name: "relu_cccp1"
  type: RELU
}
layers {
  bottom: "cccp1"
  top: "cccp2"
  name: "cccp2"
  type: CONVOLUTION
  blobs_lr: 1
  blobs_lr: 2
  weight_decay: 1
  weight_decay: 0
  convolution_param {
    num_output: 96
    kernel_size: 1
    group: 1
    weight_filler {
      type: "gaussian"
      std: 0.05
    }
    bias_filler {
      type: "constant"
      value: 0
    }
  }
}
layers {
  bottom: "cccp2"
  top: "cccp2"
  name: "relu_cccp2"
  type: RELU
}
layers {
  bottom: "cccp2"
  top: "pool1"
  name: "pool1"
  type: POOLING
  pooling_param {
    pool: MAX
    kernel_size: 3
    stride: 2
  }
}
layers {
  bottom: "pool1"
  top: "pool1"
  name: "drop3"
  type: DROPOUT
  dropout_param {
    dropout_ratio: 0.5
  }
}
layers {
  bottom: "pool1"
  top: "conv2"
  name: "conv2"
  type: CONVOLUTION
  blobs_lr: 1
  blobs_lr: 2
  weight_decay: 1
  weight_decay: 0
  convolution_param {
    num_output: 192
    pad: 2
    kernel_size: 5
    weight_filler {
      type: "gaussian"
      std: 0.05
    }
    bias_filler {
      type: "constant"
    }
  }
}
layers {
  bottom: "conv2"
  top: "conv2"
  name: "relu2"
  type: RELU
}
layers {
  bottom: "conv2"
  top: "cccp3"
  name: "cccp3"
  type: CONVOLUTION
  blobs_lr: 1
  blobs_lr: 2
  weight_decay: 1
  weight_decay: 0
  convolution_param {
    num_output: 192
    kernel_size: 1
    group: 1
    weight_filler {
      type: "gaussian"
      std: 0.05
    }
    bias_filler {
      type: "constant"
      value: 0
    }
  }
}
layers {
  bottom: "cccp3"
  top: "cccp3"
  name: "relu_cccp3"
  type: RELU
}
layers {
  bottom: "cccp3"
  top: "cccp4"
  name: "cccp4"
  type: CONVOLUTION
  blobs_lr: 1
  blobs_lr: 2
  weight_decay: 1
  weight_decay: 0
  convolution_param {
    num_output: 192
    kernel_size: 1
    group: 1
    weight_filler {
      type: "gaussian"
      std: 0.05
    }
    bias_filler {
      type: "constant"
      value: 0
    }
  }
}
layers {
  bottom: "cccp4"
  top: "cccp4"
  name: "relu_cccp4"
  type: RELU
}
layers {
  bottom: "cccp4"
  top: "pool2"
  name: "pool2"
  type: POOLING
  pooling_param {
    pool: AVE
    kernel_size: 3
    stride: 2
  }
}
layers {
  bottom: "pool2"
  top: "pool2"
  name: "drop6"
  type: DROPOUT
  dropout_param {
    dropout_ratio: 0.5
  }
}
layers {
  bottom: "pool2"
  top: "conv3"
  name: "conv3"
  type: CONVOLUTION
  blobs_lr: 1
  blobs_lr: 2
  weight_decay: 1
  weight_decay: 0
  convolution_param {
    num_output: 192
    pad: 1
    kernel_size: 3
    weight_filler {
      type: "gaussian"
      std: 0.05
    }
    bias_filler {
      type: "constant"
    }
  }
}
layers {
  bottom: "conv3"
  top: "conv3"
  name: "relu3"
  type: RELU
}
layers {
  bottom: "conv3"
  top: "cccp5"
  name: "cccp5"
  type: CONVOLUTION
  blobs_lr: 1
  blobs_lr: 2
  weight_decay: 1
  weight_decay: 0
  convolution_param {
    num_output: 192
    kernel_size: 1
    group: 1
    weight_filler {
      type: "gaussian"
      std: 0.05
    }
    bias_filler {
      type: "constant"
      value: 0
    }
  }
}
layers {
  bottom: "cccp5"
  top: "cccp5"
  name: "relu_cccp5"
  type: RELU
}
layers {
  bottom: "cccp5"
  top: "cccp6"
  name: "cccp6"
  type: CONVOLUTION
  blobs_lr: 0.1
  blobs_lr: 0.1
  weight_decay: 1
  weight_decay: 0
  convolution_param {
    num_output: 121
    kernel_size: 1
    group: 1
    weight_filler {
      type: "gaussian"
      std: 0.05
    }
    bias_filler {
      type: "constant"
      value: 0
    }
  }
}
layers {
  bottom: "cccp6"
  top: "cccp6"
  name: "relu_cccp6"
  type: RELU
}
layers {
  bottom: "cccp6"
  top: "pool3"
  name: "pool3"
  type: POOLING
  pooling_param {
    pool: AVE
    kernel_size: 12
    stride: 1
  }
}
layers {
  bottom: "pool3"
  bottom: "label"
  top: "loss"
  name: "loss"
  type: SOFTMAX_LOSS
}
state {
  phase: TRAIN
}
I0226 16:35:56.414314 22032 layer_factory.hpp:78] Creating layer cifar
I0226 16:35:56.414343 22032 data_transformer.cpp:24] Loading mean file from/home/jaehyun/kaggle/nationalDataScienceBowl/data/typeD/train_mean.binaryproto
I0226 16:35:56.414505 22032 net.cpp:68] Creating Layer cifar
I0226 16:35:56.414528 22032 net.cpp:357] cifar -> data
I0226 16:35:56.414558 22032 net.cpp:357] cifar -> label
I0226 16:35:56.414582 22032 net.cpp:97] Setting up cifar
I0226 16:35:56.414602 22032 data_layer.cpp:34] Opening dataset /home/jaehyun/kaggle/nationalDataScienceBowl/data/typeD/train_lmdb
I0226 16:35:56.414711 22032 lmdb_dataset.cpp:73] what the fuck!!
I0226 16:35:56.414793 22032 data_layer.cpp:73] output data size: 128,3,48,48
I0226 16:35:56.416604 22032 net.cpp:104] Top shape: 128 3 48 48 (884736)
I0226 16:35:56.416635 22032 net.cpp:104] Top shape: 128 1 1 1 (128)
I0226 16:35:56.416647 22032 layer_factory.hpp:78] Creating layer conv1
I0226 16:35:56.416714 22032 net.cpp:68] Creating Layer conv1
I0226 16:35:56.416757 22032 net.cpp:395] conv1 <- data
I0226 16:35:56.416786 22032 net.cpp:357] conv1 -> conv1
I0226 16:35:56.416805 22032 net.cpp:97] Setting up conv1
I0226 16:35:56.469874 22032 net.cpp:104] Top shape: 128 192 48 48 (56623104)
I0226 16:35:56.469960 22032 layer_factory.hpp:78] Creating layer relu1
I0226 16:35:56.469986 22032 net.cpp:68] Creating Layer relu1
I0226 16:35:56.470002 22032 net.cpp:395] relu1 <- conv1
I0226 16:35:56.470019 22032 net.cpp:346] relu1 -> conv1 (in-place)
I0226 16:35:56.470037 22032 net.cpp:97] Setting up relu1
I0226 16:35:56.470057 22032 net.cpp:104] Top shape: 128 192 48 48 (56623104)
I0226 16:35:56.470072 22032 layer_factory.hpp:78] Creating layer cccp1
I0226 16:35:56.470089 22032 net.cpp:68] Creating Layer cccp1
I0226 16:35:56.470101 22032 net.cpp:395] cccp1 <- conv1
I0226 16:35:56.470119 22032 net.cpp:357] cccp1 -> cccp1
I0226 16:35:56.470137 22032 net.cpp:97] Setting up cccp1
I0226 16:35:56.471515 22032 net.cpp:104] Top shape: 128 160 48 48 (47185920)
I0226 16:35:56.471544 22032 layer_factory.hpp:78] Creating layer relu_cccp1
I0226 16:35:56.471561 22032 net.cpp:68] Creating Layer relu_cccp1
I0226 16:35:56.471575 22032 net.cpp:395] relu_cccp1 <- cccp1
I0226 16:35:56.471590 22032 net.cpp:346] relu_cccp1 -> cccp1 (in-place)
I0226 16:35:56.471606 22032 net.cpp:97] Setting up relu_cccp1
I0226 16:35:56.471621 22032 net.cpp:104] Top shape: 128 160 48 48 (47185920)
I0226 16:35:56.471685 22032 layer_factory.hpp:78] Creating layer cccp2
I0226 16:35:56.471704 22032 net.cpp:68] Creating Layer cccp2
I0226 16:35:56.471720 22032 net.cpp:395] cccp2 <- cccp1
I0226 16:35:56.471735 22032 net.cpp:357] cccp2 -> cccp2
I0226 16:35:56.471751 22032 net.cpp:97] Setting up cccp2
I0226 16:35:56.472470 22032 net.cpp:104] Top shape: 128 96 48 48 (28311552)
I0226 16:35:56.472494 22032 layer_factory.hpp:78] Creating layer relu_cccp2
I0226 16:35:56.472509 22032 net.cpp:68] Creating Layer relu_cccp2
I0226 16:35:56.472522 22032 net.cpp:395] relu_cccp2 <- cccp2
I0226 16:35:56.472538 22032 net.cpp:346] relu_cccp2 -> cccp2 (in-place)
I0226 16:35:56.472553 22032 net.cpp:97] Setting up relu_cccp2
I0226 16:35:56.472568 22032 net.cpp:104] Top shape: 128 96 48 48 (28311552)
I0226 16:35:56.472580 22032 layer_factory.hpp:78] Creating layer pool1
I0226 16:35:56.472597 22032 net.cpp:68] Creating Layer pool1
I0226 16:35:56.472610 22032 net.cpp:395] pool1 <- cccp2
I0226 16:35:56.472623 22032 net.cpp:357] pool1 -> pool1
I0226 16:35:56.472638 22032 net.cpp:97] Setting up pool1
I0226 16:35:56.472671 22032 net.cpp:104] Top shape: 128 96 24 24 (7077888)
I0226 16:35:56.472684 22032 layer_factory.hpp:78] Creating layer drop3
I0226 16:35:56.472707 22032 net.cpp:68] Creating Layer drop3
I0226 16:35:56.472720 22032 net.cpp:395] drop3 <- pool1
I0226 16:35:56.472734 22032 net.cpp:346] drop3 -> pool1 (in-place)
I0226 16:35:56.472748 22032 net.cpp:97] Setting up drop3
I0226 16:35:56.472762 22032 net.cpp:104] Top shape: 128 96 24 24 (7077888)
I0226 16:35:56.472774 22032 layer_factory.hpp:78] Creating layer conv2
I0226 16:35:56.472797 22032 net.cpp:68] Creating Layer conv2
I0226 16:35:56.472810 22032 net.cpp:395] conv2 <- pool1
I0226 16:35:56.472825 22032 net.cpp:357] conv2 -> conv2
I0226 16:35:56.472839 22032 net.cpp:97] Setting up conv2
I0226 16:35:56.491878 22032 net.cpp:104] Top shape: 128 192 24 24 (14155776)
I0226 16:35:56.491920 22032 layer_factory.hpp:78] Creating layer relu2
I0226 16:35:56.491938 22032 net.cpp:68] Creating Layer relu2
I0226 16:35:56.491952 22032 net.cpp:395] relu2 <- conv2
I0226 16:35:56.491966 22032 net.cpp:346] relu2 -> conv2 (in-place)
I0226 16:35:56.491981 22032 net.cpp:97] Setting up relu2
I0226 16:35:56.491997 22032 net.cpp:104] Top shape: 128 192 24 24 (14155776)
I0226 16:35:56.492008 22032 layer_factory.hpp:78] Creating layer cccp3
I0226 16:35:56.492027 22032 net.cpp:68] Creating Layer cccp3
I0226 16:35:56.492040 22032 net.cpp:395] cccp3 <- conv2
I0226 16:35:56.492054 22032 net.cpp:357] cccp3 -> cccp3
I0226 16:35:56.492070 22032 net.cpp:97] Setting up cccp3
I0226 16:35:56.493664 22032 net.cpp:104] Top shape: 128 192 24 24 (14155776)
I0226 16:35:56.493691 22032 layer_factory.hpp:78] Creating layer relu_cccp3
I0226 16:35:56.493707 22032 net.cpp:68] Creating Layer relu_cccp3
I0226 16:35:56.493720 22032 net.cpp:395] relu_cccp3 <- cccp3
I0226 16:35:56.493736 22032 net.cpp:346] relu_cccp3 -> cccp3 (in-place)
I0226 16:35:56.493752 22032 net.cpp:97] Setting up relu_cccp3
I0226 16:35:56.493767 22032 net.cpp:104] Top shape: 128 192 24 24 (14155776)
I0226 16:35:56.493779 22032 layer_factory.hpp:78] Creating layer cccp4
I0226 16:35:56.493794 22032 net.cpp:68] Creating Layer cccp4
I0226 16:35:56.493806 22032 net.cpp:395] cccp4 <- cccp3
I0226 16:35:56.493823 22032 net.cpp:357] cccp4 -> cccp4
I0226 16:35:56.493840 22032 net.cpp:97] Setting up cccp4
I0226 16:35:56.495659 22032 net.cpp:104] Top shape: 128 192 24 24 (14155776)
I0226 16:35:56.495688 22032 layer_factory.hpp:78] Creating layer relu_cccp4
I0226 16:35:56.495707 22032 net.cpp:68] Creating Layer relu_cccp4
I0226 16:35:56.495723 22032 net.cpp:395] relu_cccp4 <- cccp4
I0226 16:35:56.495736 22032 net.cpp:346] relu_cccp4 -> cccp4 (in-place)
I0226 16:35:56.495751 22032 net.cpp:97] Setting up relu_cccp4
I0226 16:35:56.495766 22032 net.cpp:104] Top shape: 128 192 24 24 (14155776)
I0226 16:35:56.495779 22032 layer_factory.hpp:78] Creating layer pool2
I0226 16:35:56.495795 22032 net.cpp:68] Creating Layer pool2
I0226 16:35:56.495841 22032 net.cpp:395] pool2 <- cccp4
I0226 16:35:56.495861 22032 net.cpp:357] pool2 -> pool2
I0226 16:35:56.495877 22032 net.cpp:97] Setting up pool2
I0226 16:35:56.495893 22032 net.cpp:104] Top shape: 128 192 12 12 (3538944)
I0226 16:35:56.495906 22032 layer_factory.hpp:78] Creating layer drop6
I0226 16:35:56.495923 22032 net.cpp:68] Creating Layer drop6
I0226 16:35:56.495935 22032 net.cpp:395] drop6 <- pool2
I0226 16:35:56.495951 22032 net.cpp:346] drop6 -> pool2 (in-place)
I0226 16:35:56.495967 22032 net.cpp:97] Setting up drop6
I0226 16:35:56.495980 22032 net.cpp:104] Top shape: 128 192 12 12 (3538944)
I0226 16:35:56.495991 22032 layer_factory.hpp:78] Creating layer conv3
I0226 16:35:56.496007 22032 net.cpp:68] Creating Layer conv3
I0226 16:35:56.496018 22032 net.cpp:395] conv3 <- pool2
I0226 16:35:56.496036 22032 net.cpp:357] conv3 -> conv3
I0226 16:35:56.496050 22032 net.cpp:97] Setting up conv3
I0226 16:35:56.509788 22032 net.cpp:104] Top shape: 128 192 12 12 (3538944)
I0226 16:35:56.509824 22032 layer_factory.hpp:78] Creating layer relu3
I0226 16:35:56.509840 22032 net.cpp:68] Creating Layer relu3
I0226 16:35:56.509855 22032 net.cpp:395] relu3 <- conv3
I0226 16:35:56.509878 22032 net.cpp:346] relu3 -> conv3 (in-place)
I0226 16:35:56.509896 22032 net.cpp:97] Setting up relu3
I0226 16:35:56.509912 22032 net.cpp:104] Top shape: 128 192 12 12 (3538944)
I0226 16:35:56.509924 22032 layer_factory.hpp:78] Creating layer cccp5
I0226 16:35:56.509941 22032 net.cpp:68] Creating Layer cccp5
I0226 16:35:56.509953 22032 net.cpp:395] cccp5 <- conv3
I0226 16:35:56.509970 22032 net.cpp:357] cccp5 -> cccp5
I0226 16:35:56.509987 22032 net.cpp:97] Setting up cccp5
I0226 16:35:56.511596 22032 net.cpp:104] Top shape: 128 192 12 12 (3538944)
I0226 16:35:56.511625 22032 layer_factory.hpp:78] Creating layer relu_cccp5
I0226 16:35:56.511641 22032 net.cpp:68] Creating Layer relu_cccp5
I0226 16:35:56.511652 22032 net.cpp:395] relu_cccp5 <- cccp5
I0226 16:35:56.511667 22032 net.cpp:346] relu_cccp5 -> cccp5 (in-place)
I0226 16:35:56.511682 22032 net.cpp:97] Setting up relu_cccp5
I0226 16:35:56.511695 22032 net.cpp:104] Top shape: 128 192 12 12 (3538944)
I0226 16:35:56.511708 22032 layer_factory.hpp:78] Creating layer cccp6
I0226 16:35:56.511726 22032 net.cpp:68] Creating Layer cccp6
I0226 16:35:56.511739 22032 net.cpp:395] cccp6 <- cccp5
I0226 16:35:56.511752 22032 net.cpp:357] cccp6 -> cccp6
I0226 16:35:56.511767 22032 net.cpp:97] Setting up cccp6
I0226 16:35:56.512804 22032 net.cpp:104] Top shape: 128 121 12 12 (2230272)
I0226 16:35:56.512833 22032 layer_factory.hpp:78] Creating layer relu_cccp6
I0226 16:35:56.512850 22032 net.cpp:68] Creating Layer relu_cccp6
I0226 16:35:56.512861 22032 net.cpp:395] relu_cccp6 <- cccp6
I0226 16:35:56.512876 22032 net.cpp:346] relu_cccp6 -> cccp6 (in-place)
I0226 16:35:56.512889 22032 net.cpp:97] Setting up relu_cccp6
I0226 16:35:56.512904 22032 net.cpp:104] Top shape: 128 121 12 12 (2230272)
I0226 16:35:56.512917 22032 layer_factory.hpp:78] Creating layer pool3
I0226 16:35:56.512931 22032 net.cpp:68] Creating Layer pool3
I0226 16:35:56.512943 22032 net.cpp:395] pool3 <- cccp6
I0226 16:35:56.512959 22032 net.cpp:357] pool3 -> pool3
I0226 16:35:56.512975 22032 net.cpp:97] Setting up pool3
I0226 16:35:56.512991 22032 net.cpp:104] Top shape: 128 121 1 1 (15488)
I0226 16:35:56.513005 22032 layer_factory.hpp:78] Creating layer loss
I0226 16:35:56.513022 22032 net.cpp:68] Creating Layer loss
I0226 16:35:56.513036 22032 net.cpp:395] loss <- pool3
I0226 16:35:56.513047 22032 net.cpp:395] loss <- label
I0226 16:35:56.513064 22032 net.cpp:357] loss -> loss
I0226 16:35:56.513082 22032 net.cpp:97] Setting up loss
I0226 16:35:56.513098 22032 layer_factory.hpp:78] Creating layer loss
I0226 16:35:56.513164 22032 net.cpp:104] Top shape: 1 1 1 1 (1)
I0226 16:35:56.513180 22032 net.cpp:110]     with loss weight 1
I0226 16:35:56.513231 22032 net.cpp:171] loss needs backward computation.
I0226 16:35:56.513244 22032 net.cpp:171] pool3 needs backward computation.
I0226 16:35:56.513255 22032 net.cpp:171] relu_cccp6 needs backward computation.
I0226 16:35:56.513298 22032 net.cpp:171] cccp6 needs backward computation.
I0226 16:35:56.513310 22032 net.cpp:171] relu_cccp5 needs backward computation.
…
I0226 16:35:56.514355 22032 net.cpp:276] The NetState phase (1) differed from the phase (0) specified by a rule in layer cifar
I0226 16:35:56.514575 22032 net.cpp:39] Initializing net from parameters: 
name: "nin_full"
layers {
  top: "data"
  top: "label"
  name: "cifar"
  type: DATA
  data_param {
    source: "/home/jaehyun/kaggle/nationalDataScienceBowl/data/typeD/val_lmdb"
    batch_size: 128
    backend: LMDB
  }
  include {
    phase: TEST
  }
  transform_param {
    mirror: false
    mean_file: "/home/jaehyun/kaggle/nationalDataScienceBowl/data/typeD/train_mean.binaryproto"
  }
}
layers {
  bottom: "data"
  top: "conv1"
  name: "conv1"
  type: CONVOLUTION
  blobs_lr: 1
  blobs_lr: 2
  weight_decay: 1
  weight_decay: 0
  convolution_param {
    num_output: 192
    pad: 2
    kernel_size: 5
    weight_filler {
      type: "gaussian"
      std: 0.05
    }
    bias_filler {
      type: "constant"
    }
  }
}
layers {
  bottom: "conv1"
  top: "conv1"
  name: "relu1"
  type: RELU
}
layers {
  bottom: "conv1"
  top: "cccp1"
  name: "cccp1"
  type: CONVOLUTION
  blobs_lr: 1
  blobs_lr: 2
  weight_decay: 1
  weight_decay: 0
  convolution_param {
    num_output: 160
    kernel_size: 1
    group: 1
    weight_filler {
      type: "gaussian"
      std: 0.05
    }
    bias_filler {
      type: "constant"
      value: 0
    }
  }
}
layers {
  bottom: "cccp1"
  top: "cccp1"
  name: "relu_cccp1"
  type: RELU
}
layers {
  bottom: "cccp1"
  top: "cccp2"
  name: "cccp2"
  type: CONVOLUTION
  blobs_lr: 1
  blobs_lr: 2
  weight_decay: 1
  weight_decay: 0
  convolution_param {
    num_output: 96
    kernel_size: 1
    group: 1
    weight_filler {
      type: "gaussian"
      std: 0.05
    }
    bias_filler {
      type: "constant"
      value: 0
    }
  }
}
layers {
  bottom: "cccp2"
  top: "cccp2"
  name: "relu_cccp2"
  type: RELU
}
layers {
  bottom: "cccp2"
  top: "pool1"
  name: "pool1"
  type: POOLING
  pooling_param {
    pool: MAX
    kernel_size: 3
    stride: 2
  }
}
layers {
  bottom: "pool1"
  top: "pool1"
  name: "drop3"
  type: DROPOUT
  dropout_param {
    dropout_ratio: 0.5
  }
}
layers {
  bottom: "pool1"
  top: "conv2"
  name: "conv2"
  type: CONVOLUTION
  blobs_lr: 1
  blobs_lr: 2
  weight_decay: 1
  weight_decay: 0
  convolution_param {
    num_output: 192
    pad: 2
    kernel_size: 5
    weight_filler {
      type: "gaussian"
      std: 0.05
    }
    bias_filler {
      type: "constant"
    }
  }
}
layers {
  bottom: "conv2"
  top: "conv2"
  name: "relu2"
  type: RELU
}
layers {
  bottom: "conv2"
  top: "cccp3"
  name: "cccp3"
  type: CONVOLUTION
  blobs_lr: 1
  blobs_lr: 2
  weight_decay: 1
  weight_decay: 0
  convolution_param {
    num_output: 192
    kernel_size: 1
    group: 1
    weight_filler {
      type: "gaussian"
      std: 0.05
    }
    bias_filler {
      type: "constant"
      value: 0
    }
  }
}
layers {
  bottom: "cccp3"
  top: "cccp3"
  name: "relu_cccp3"
  type: RELU
}
layers {
  bottom: "cccp3"
  top: "cccp4"
  name: "cccp4"
  type: CONVOLUTION
  blobs_lr: 1
  blobs_lr: 2
  weight_decay: 1
  weight_decay: 0
  convolution_param {
    num_output: 192
    kernel_size: 1
    group: 1
    weight_filler {
      type: "gaussian"
      std: 0.05
    }
    bias_filler {
      type: "constant"
      value: 0
    }
  }
}
layers {
  bottom: "cccp4"
  top: "cccp4"
  name: "relu_cccp4"
  type: RELU
}
layers {
  bottom: "cccp4"
  top: "pool2"
  name: "pool2"
  type: POOLING
  pooling_param {
    pool: AVE
    kernel_size: 3
    stride: 2
  }
}
layers {
  bottom: "pool2"
  top: "pool2"
  name: "drop6"
  type: DROPOUT
  dropout_param {
    dropout_ratio: 0.5
  }
}
layers {
  bottom: "pool2"
  top: "conv3"
  name: "conv3"
  type: CONVOLUTION
  blobs_lr: 1
  blobs_lr: 2
  weight_decay: 1
  weight_decay: 0
  convolution_param {
    num_output: 192
    pad: 1
    kernel_size: 3
    weight_filler {
      type: "gaussian"
      std: 0.05
    }
    bias_filler {
      type: "constant"
    }
  }
}
layers {
  bottom: "conv3"
  top: "conv3"
  name: "relu3"
  type: RELU
}
layers {
  bottom: "conv3"
  top: "cccp5"
  name: "cccp5"
  type: CONVOLUTION
  blobs_lr: 1
  blobs_lr: 2
  weight_decay: 1
  weight_decay: 0
  convolution_param {
    num_output: 192
    kernel_size: 1
    group: 1
    weight_filler {
      type: "gaussian"
      std: 0.05
    }
    bias_filler {
      type: "constant"
      value: 0
    }
  }
}
layers {
  bottom: "cccp5"
  top: "cccp5"
  name: "relu_cccp5"
  type: RELU
}
layers {
  bottom: "cccp5"
  top: "cccp6"
  name: "cccp6"
  type: CONVOLUTION
  blobs_lr: 0.1
  blobs_lr: 0.1
  weight_decay: 1
  weight_decay: 0
  convolution_param {
    num_output: 121
    kernel_size: 1
    group: 1
    weight_filler {
      type: "gaussian"
      std: 0.05
    }
    bias_filler {
      type: "constant"
      value: 0
    }
  }
}
layers {
  bottom: "cccp6"
  top: "cccp6"
  name: "relu_cccp6"
  type: RELU
}
layers {
  bottom: "cccp6"
  top: "pool3"
  name: "pool3"
  type: POOLING
  pooling_param {
    pool: AVE
    kernel_size: 12
    stride: 1
  }
}
layers {
  bottom: "pool3"
  bottom: "label"
  top: "accuracy"
  name: "accuracy"
  type: ACCURACY
  include {
    phase: TEST
  }
}
layers {
  bottom: "pool3"
  bottom: "label"
  top: "loss"
  name: "loss"
  type: SOFTMAX_LOSS
}
state {
  phase: TEST
}
I0226 16:35:56.515743 22032 layer_factory.hpp:78] Creating layer cifar
I0226 16:35:56.515769 22032 data_transformer.cpp:24] Loading mean file from/home/jaehyun/kaggle/nationalDataScienceBowl/data/typeD/train_mean.binaryproto
I0226 16:35:56.515894 22032 net.cpp:68] Creating Layer cifar
I0226 16:35:56.515913 22032 net.cpp:357] cifar -> data
I0226 16:35:56.515933 22032 net.cpp:357] cifar -> label
I0226 16:35:56.515949 22032 net.cpp:97] Setting up cifar
I0226 16:35:56.515961 22032 data_layer.cpp:34] Opening dataset /home/jaehyun/kaggle/nationalDataScienceBowl/data/typeD/val_lmdb
I0226 16:35:56.516031 22032 lmdb_dataset.cpp:73] what the fuck!!
I0226 16:35:56.516073 22032 data_layer.cpp:73] output data size: 128,3,48,48
I0226 16:35:56.518045 22032 net.cpp:104] Top shape: 128 3 48 48 (884736)
I0226 16:35:56.518108 22032 net.cpp:104] Top shape: 128 1 1 1 (128)
I0226 16:35:56.518201 22032 layer_factory.hpp:78] Creating layer label_cifar_1_split
I0226 16:35:56.518242 22032 net.cpp:68] Creating Layer label_cifar_1_split
I0226 16:35:56.518260 22032 net.cpp:395] label_cifar_1_split <- label
I0226 16:35:56.518282 22032 net.cpp:357] label_cifar_1_split -> label_cifar_1_split_0
I0226 16:35:56.518308 22032 net.cpp:357] label_cifar_1_split -> label_cifar_1_split_1
I0226 16:35:56.518327 22032 net.cpp:97] Setting up label_cifar_1_split
I0226 16:35:56.518349 22032 net.cpp:104] Top shape: 128 1 1 1 (128)
I0226 16:35:56.518364 22032 net.cpp:104] Top shape: 128 1 1 1 (128)
I0226 16:35:56.518378 22032 layer_factory.hpp:78] Creating layer conv1
I0226 16:35:56.518403 22032 net.cpp:68] Creating Layer conv1
I0226 16:35:56.518416 22032 net.cpp:395] conv1 <- data
I0226 16:35:56.518435 22032 net.cpp:357] conv1 -> conv1
I0226 16:35:56.518455 22032 net.cpp:97] Setting up conv1
I0226 16:35:56.519346 22032 net.cpp:104] Top shape: 128 192 48 48 (56623104)
I0226 16:35:56.519384 22032 layer_factory.hpp:78] Creating layer relu1
I0226 16:35:56.519404 22032 net.cpp:68] Creating Layer relu1
I0226 16:35:56.519419 22032 net.cpp:395] relu1 <- conv1
I0226 16:35:56.519435 22032 net.cpp:346] relu1 -> conv1 (in-place)
I0226 16:35:56.519454 22032 net.cpp:97] Setting up relu1
I0226 16:35:56.519480 22032 net.cpp:104] Top shape: 128 192 48 48 (56623104)
I0226 16:35:56.519496 22032 layer_factory.hpp:78] Creating layer cccp1
I0226 16:35:56.519520 22032 net.cpp:68] Creating Layer cccp1
I0226 16:35:56.519534 22032 net.cpp:395] cccp1 <- conv1
I0226 16:35:56.519552 22032 net.cpp:357] cccp1 -> cccp1
I0226 16:35:56.519570 22032 net.cpp:97] Setting up cccp1
I0226 16:35:56.521725 22032 net.cpp:104] Top shape: 128 160 48 48 (47185920)
I0226 16:35:56.521764 22032 layer_factory.hpp:78] Creating layer relu_cccp1
I0226 16:35:56.521782 22032 net.cpp:68] Creating Layer relu_cccp1
I0226 16:35:56.521797 22032 net.cpp:395] relu_cccp1 <- cccp1
I0226 16:35:56.521817 22032 net.cpp:346] relu_cccp1 -> cccp1 (in-place)
I0226 16:35:56.521836 22032 net.cpp:97] Setting up relu_cccp1
I0226 16:35:56.521855 22032 net.cpp:104] Top shape: 128 160 48 48 (47185920)
I0226 16:35:56.521872 22032 layer_factory.hpp:78] Creating layer cccp2
I0226 16:35:56.521890 22032 net.cpp:68] Creating Layer cccp2
I0226 16:35:56.521904 22032 net.cpp:395] cccp2 <- cccp1
I0226 16:35:56.521924 22032 net.cpp:357] cccp2 -> cccp2
I0226 16:35:56.521944 22032 net.cpp:97] Setting up cccp2
I0226 16:35:56.522810 22032 net.cpp:104] Top shape: 128 96 48 48 (28311552)
I0226 16:35:56.522840 22032 layer_factory.hpp:78] Creating layer relu_cccp2
I0226 16:35:56.522858 22032 net.cpp:68] Creating Layer relu_cccp2
I0226 16:35:56.522872 22032 net.cpp:395] relu_cccp2 <- cccp2
I0226 16:35:56.522912 22032 net.cpp:346] relu_cccp2 -> cccp2 (in-place)
I0226 16:35:56.522932 22032 net.cpp:97] Setting up relu_cccp2
I0226 16:35:56.522949 22032 net.cpp:104] Top shape: 128 96 48 48 (28311552)
I0226 16:35:56.522964 22032 layer_factory.hpp:78] Creating layer pool1
I0226 16:35:56.522984 22032 net.cpp:68] Creating Layer pool1
I0226 16:35:56.522997 22032 net.cpp:395] pool1 <- cccp2
I0226 16:35:56.523017 22032 net.cpp:357] pool1 -> pool1
I0226 16:35:56.523036 22032 net.cpp:97] Setting up pool1
I0226 16:35:56.523057 22032 net.cpp:104] Top shape: 128 96 24 24 (7077888)
I0226 16:35:56.523072 22032 layer_factory.hpp:78] Creating layer drop3
I0226 16:35:56.523089 22032 net.cpp:68] Creating Layer drop3
I0226 16:35:56.523103 22032 net.cpp:395] drop3 <- pool1
I0226 16:35:56.523119 22032 net.cpp:346] drop3 -> pool1 (in-place)
I0226 16:35:56.523136 22032 net.cpp:97] Setting up drop3
I0226 16:35:56.523151 22032 net.cpp:104] Top shape: 128 96 24 24 (7077888)
I0226 16:35:56.523165 22032 layer_factory.hpp:78] Creating layer conv2
I0226 16:35:56.523186 22032 net.cpp:68] Creating Layer conv2
I0226 16:35:56.523201 22032 net.cpp:395] conv2 <- pool1
I0226 16:35:56.523221 22032 net.cpp:357] conv2 -> conv2
I0226 16:35:56.523241 22032 net.cpp:97] Setting up conv2
I0226 16:35:56.542542 22032 net.cpp:104] Top shape: 128 192 24 24 (14155776)
I0226 16:35:56.542610 22032 layer_factory.hpp:78] Creating layer relu2
I0226 16:35:56.542632 22032 net.cpp:68] Creating Layer relu2
I0226 16:35:56.542647 22032 net.cpp:395] relu2 <- conv2
I0226 16:35:56.542665 22032 net.cpp:346] relu2 -> conv2 (in-place)
I0226 16:35:56.542685 22032 net.cpp:97] Setting up relu2
I0226 16:35:56.542701 22032 net.cpp:104] Top shape: 128 192 24 24 (14155776)
I0226 16:35:56.542712 22032 layer_factory.hpp:78] Creating layer cccp3
I0226 16:35:56.542731 22032 net.cpp:68] Creating Layer cccp3
I0226 16:35:56.542742 22032 net.cpp:395] cccp3 <- conv2
I0226 16:35:56.542759 22032 net.cpp:357] cccp3 -> cccp3
I0226 16:35:56.542776 22032 net.cpp:97] Setting up cccp3
I0226 16:35:56.544394 22032 net.cpp:104] Top shape: 128 192 24 24 (14155776)
I0226 16:35:56.544422 22032 layer_factory.hpp:78] Creating layer relu_cccp3
I0226 16:35:56.544437 22032 net.cpp:68] Creating Layer relu_cccp3
I0226 16:35:56.544450 22032 net.cpp:395] relu_cccp3 <- cccp3
I0226 16:35:56.544466 22032 net.cpp:346] relu_cccp3 -> cccp3 (in-place)
I0226 16:35:56.544481 22032 net.cpp:97] Setting up relu_cccp3
I0226 16:35:56.544497 22032 net.cpp:104] Top shape: 128 192 24 24 (14155776)
I0226 16:35:56.544508 22032 layer_factory.hpp:78] Creating layer cccp4
I0226 16:35:56.544524 22032 net.cpp:68] Creating Layer cccp4
I0226 16:35:56.544536 22032 net.cpp:395] cccp4 <- cccp3
I0226 16:35:56.544553 22032 net.cpp:357] cccp4 -> cccp4
I0226 16:35:56.544569 22032 net.cpp:97] Setting up cccp4
I0226 16:35:56.546169 22032 net.cpp:104] Top shape: 128 192 24 24 (14155776)
I0226 16:35:56.546195 22032 layer_factory.hpp:78] Creating layer relu_cccp4
I0226 16:35:56.546208 22032 net.cpp:68] Creating Layer relu_cccp4
I0226 16:35:56.546221 22032 net.cpp:395] relu_cccp4 <- cccp4
I0226 16:35:56.546234 22032 net.cpp:346] relu_cccp4 -> cccp4 (in-place)
I0226 16:35:56.546248 22032 net.cpp:97] Setting up relu_cccp4
I0226 16:35:56.546263 22032 net.cpp:104] Top shape: 128 192 24 24 (14155776)
I0226 16:35:56.546277 22032 layer_factory.hpp:78] Creating layer pool2
I0226 16:35:56.546298 22032 net.cpp:68] Creating Layer pool2
I0226 16:35:56.546311 22032 net.cpp:395] pool2 <- cccp4
I0226 16:35:56.546325 22032 net.cpp:357] pool2 -> pool2
I0226 16:35:56.546344 22032 net.cpp:97] Setting up pool2
I0226 16:35:56.546363 22032 net.cpp:104] Top shape: 128 192 12 12 (3538944)
I0226 16:35:56.546375 22032 layer_factory.hpp:78] Creating layer drop6
I0226 16:35:56.546389 22032 net.cpp:68] Creating Layer drop6
I0226 16:35:56.546401 22032 net.cpp:395] drop6 <- pool2
I0226 16:35:56.546416 22032 net.cpp:346] drop6 -> pool2 (in-place)
I0226 16:35:56.546429 22032 net.cpp:97] Setting up drop6
I0226 16:35:56.546442 22032 net.cpp:104] Top shape: 128 192 12 12 (3538944)
I0226 16:35:56.546454 22032 layer_factory.hpp:78] Creating layer conv3
I0226 16:35:56.546471 22032 net.cpp:68] Creating Layer conv3
I0226 16:35:56.546484 22032 net.cpp:395] conv3 <- pool2
I0226 16:35:56.546499 22032 net.cpp:357] conv3 -> conv3
I0226 16:35:56.546514 22032 net.cpp:97] Setting up conv3
I0226 16:35:56.560638 22032 net.cpp:104] Top shape: 128 192 12 12 (3538944)
I0226 16:35:56.560684 22032 layer_factory.hpp:78] Creating layer relu3
I0226 16:35:56.560704 22032 net.cpp:68] Creating Layer relu3
I0226 16:35:56.560719 22032 net.cpp:395] relu3 <- conv3
I0226 16:35:56.560736 22032 net.cpp:346] relu3 -> conv3 (in-place)
I0226 16:35:56.560756 22032 net.cpp:97] Setting up relu3
I0226 16:35:56.560773 22032 net.cpp:104] Top shape: 128 192 12 12 (3538944)
I0226 16:35:56.560786 22032 layer_factory.hpp:78] Creating layer cccp5
I0226 16:35:56.560803 22032 net.cpp:68] Creating Layer cccp5
I0226 16:35:56.560816 22032 net.cpp:395] cccp5 <- conv3
I0226 16:35:56.560830 22032 net.cpp:357] cccp5 -> cccp5
I0226 16:35:56.560847 22032 net.cpp:97] Setting up cccp5
I0226 16:35:56.562449 22032 net.cpp:104] Top shape: 128 192 12 12 (3538944)
I0226 16:35:56.562472 22032 layer_factory.hpp:78] Creating layer relu_cccp5
I0226 16:35:56.562487 22032 net.cpp:68] Creating Layer relu_cccp5
I0226 16:35:56.562556 22032 net.cpp:395] relu_cccp5 <- cccp5
I0226 16:35:56.562572 22032 net.cpp:346] relu_cccp5 -> cccp5 (in-place)
I0226 16:35:56.562587 22032 net.cpp:97] Setting up relu_cccp5
I0226 16:35:56.562602 22032 net.cpp:104] Top shape: 128 192 12 12 (3538944)
I0226 16:35:56.562614 22032 layer_factory.hpp:78] Creating layer cccp6
I0226 16:35:56.562633 22032 net.cpp:68] Creating Layer cccp6
I0226 16:35:56.562645 22032 net.cpp:395] cccp6 <- cccp5
I0226 16:35:56.562660 22032 net.cpp:357] cccp6 -> cccp6
I0226 16:35:56.562675 22032 net.cpp:97] Setting up cccp6
I0226 16:35:56.563719 22032 net.cpp:104] Top shape: 128 121 12 12 (2230272)
I0226 16:35:56.563750 22032 layer_factory.hpp:78] Creating layer relu_cccp6
I0226 16:35:56.563767 22032 net.cpp:68] Creating Layer relu_cccp6
I0226 16:35:56.563779 22032 net.cpp:395] relu_cccp6 <- cccp6
I0226 16:35:56.563796 22032 net.cpp:346] relu_cccp6 -> cccp6 (in-place)
I0226 16:35:56.563810 22032 net.cpp:97] Setting up relu_cccp6
I0226 16:35:56.563825 22032 net.cpp:104] Top shape: 128 121 12 12 (2230272)
I0226 16:35:56.563838 22032 layer_factory.hpp:78] Creating layer pool3
I0226 16:35:56.563853 22032 net.cpp:68] Creating Layer pool3
I0226 16:35:56.563865 22032 net.cpp:395] pool3 <- cccp6
I0226 16:35:56.563879 22032 net.cpp:357] pool3 -> pool3
I0226 16:35:56.563894 22032 net.cpp:97] Setting up pool3
I0226 16:35:56.563910 22032 net.cpp:104] Top shape: 128 121 1 1 (15488)
I0226 16:35:56.563923 22032 layer_factory.hpp:78] Creating layer pool3_pool3_0_split
I0226 16:35:56.563937 22032 net.cpp:68] Creating Layer pool3_pool3_0_split
I0226 16:35:56.563949 22032 net.cpp:395] pool3_pool3_0_split <- pool3
I0226 16:35:56.563966 22032 net.cpp:357] pool3_pool3_0_split -> pool3_pool3_0_split_0
I0226 16:35:56.563983 22032 net.cpp:357] pool3_pool3_0_split -> pool3_pool3_0_split_1
I0226 16:35:56.563998 22032 net.cpp:97] Setting up pool3_pool3_0_split
I0226 16:35:56.564013 22032 net.cpp:104] Top shape: 128 121 1 1 (15488)
I0226 16:35:56.564023 22032 net.cpp:104] Top shape: 128 121 1 1 (15488)
I0226 16:35:56.564035 22032 layer_factory.hpp:78] Creating layer accuracy
I0226 16:35:56.564059 22032 net.cpp:68] Creating Layer accuracy
I0226 16:35:56.564071 22032 net.cpp:395] accuracy <- pool3_pool3_0_split_0
I0226 16:35:56.564084 22032 net.cpp:395] accuracy <- label_cifar_1_split_0
I0226 16:35:56.564097 22032 net.cpp:357] accuracy -> accuracy
I0226 16:35:56.564113 22032 net.cpp:97] Setting up accuracy
I0226 16:35:56.564127 22032 net.cpp:104] Top shape: 1 1 1 1 (1)
I0226 16:35:56.564139 22032 layer_factory.hpp:78] Creating layer loss
I0226 16:35:56.564153 22032 net.cpp:68] Creating Layer loss
I0226 16:35:56.564165 22032 net.cpp:395] loss <- pool3_pool3_0_split_1
I0226 16:35:56.564177 22032 net.cpp:395] loss <- label_cifar_1_split_1
I0226 16:35:56.564193 22032 net.cpp:357] loss -> loss
I0226 16:35:56.564209 22032 net.cpp:97] Setting up loss
I0226 16:35:56.564223 22032 layer_factory.hpp:78] Creating layer loss
I0226 16:35:56.564280 22032 net.cpp:104] Top shape: 1 1 1 1 (1)
I0226 16:35:56.564296 22032 net.cpp:110]     with loss weight 1
I0226 16:35:56.564321 22032 net.cpp:171] loss needs backward computation.
I0226 16:35:56.564333 22032 net.cpp:173] accuracy does not need backward computation.
I0226 16:35:56.564344 22032 net.cpp:171] pool3_pool3_0_split needs backward computation.
I0226 16:35:56.564355 22032 net.cpp:171] pool3 needs backward computation.
I0226 16:35:56.564368 22032 net.cpp:171] relu_cccp6 needs backward computation.
…
