…
I0226 13:26:14.438223  9429 net.cpp:276] The NetState phase (0) differed from the phase (1) specified by a rule in layer accuracy
I0226 13:26:14.438433  9429 net.cpp:39] Initializing net from parameters: 
name: "nin_full"
layers {
  top: "data"
  top: "label"
  name: "cifar"
  type: DATA
  data_param {
    source: "/home/jaehyun/kaggle/nationalDataScienceBowl/data/typeD/train_lmdb"
    batch_size: 128
    backend: LMDB
    shuffle: true
  }
  include {
    phase: TRAIN
  }
  transform_param {
    mirror: true
    mean_file: "/home/jaehyun/kaggle/nationalDataScienceBowl/data/typeD/train_mean.binaryproto"
  }
}
layers {
  bottom: "data"
  top: "conv1"
  name: "conv1"
  type: CONVOLUTION
  blobs_lr: 1
  blobs_lr: 2
  weight_decay: 1
  weight_decay: 0
  convolution_param {
    num_output: 192
    pad: 2
    kernel_size: 5
    weight_filler {
      type: "gaussian"
      std: 0.05
    }
    bias_filler {
      type: "constant"
    }
  }
}
layers {
  bottom: "conv1"
  top: "conv1"
  name: "relu1"
  type: RELU
}
layers {
  bottom: "conv1"
  top: "cccp1"
  name: "cccp1"
  type: CONVOLUTION
  blobs_lr: 1
  blobs_lr: 2
  weight_decay: 1
  weight_decay: 0
  convolution_param {
    num_output: 160
    kernel_size: 1
    group: 1
    weight_filler {
      type: "gaussian"
      std: 0.05
    }
    bias_filler {
      type: "constant"
      value: 0
    }
  }
}
layers {
  bottom: "cccp1"
  top: "cccp1"
  name: "relu_cccp1"
  type: RELU
}
layers {
  bottom: "cccp1"
  top: "cccp2"
  name: "cccp2"
  type: CONVOLUTION
  blobs_lr: 1
  blobs_lr: 2
  weight_decay: 1
  weight_decay: 0
  convolution_param {
    num_output: 96
    kernel_size: 1
    group: 1
    weight_filler {
      type: "gaussian"
      std: 0.05
    }
    bias_filler {
      type: "constant"
      value: 0
    }
  }
}
layers {
  bottom: "cccp2"
  top: "cccp2"
  name: "relu_cccp2"
  type: RELU
}
layers {
  bottom: "cccp2"
  top: "pool1"
  name: "pool1"
  type: POOLING
  pooling_param {
    pool: MAX
    kernel_size: 3
    stride: 2
  }
}
layers {
  bottom: "pool1"
  top: "pool1"
  name: "drop3"
  type: DROPOUT
  dropout_param {
    dropout_ratio: 0.5
  }
}
layers {
  bottom: "pool1"
  top: "conv2"
  name: "conv2"
  type: CONVOLUTION
  blobs_lr: 1
  blobs_lr: 2
  weight_decay: 1
  weight_decay: 0
  convolution_param {
    num_output: 192
    pad: 2
    kernel_size: 5
    weight_filler {
      type: "gaussian"
      std: 0.05
    }
    bias_filler {
      type: "constant"
    }
  }
}
layers {
  bottom: "conv2"
  top: "conv2"
  name: "relu2"
  type: RELU
}
layers {
  bottom: "conv2"
  top: "cccp3"
  name: "cccp3"
  type: CONVOLUTION
  blobs_lr: 1
  blobs_lr: 2
  weight_decay: 1
  weight_decay: 0
  convolution_param {
    num_output: 192
    kernel_size: 1
    group: 1
    weight_filler {
      type: "gaussian"
      std: 0.05
    }
    bias_filler {
      type: "constant"
      value: 0
    }
  }
}
layers {
  bottom: "cccp3"
  top: "cccp3"
  name: "relu_cccp3"
  type: RELU
}
layers {
  bottom: "cccp3"
  top: "cccp4"
  name: "cccp4"
  type: CONVOLUTION
  blobs_lr: 1
  blobs_lr: 2
  weight_decay: 1
  weight_decay: 0
  convolution_param {
    num_output: 192
    kernel_size: 1
    group: 1
    weight_filler {
      type: "gaussian"
      std: 0.05
    }
    bias_filler {
      type: "constant"
      value: 0
    }
  }
}
layers {
  bottom: "cccp4"
  top: "cccp4"
  name: "relu_cccp4"
  type: RELU
}
layers {
  bottom: "cccp4"
  top: "pool2"
  name: "pool2"
  type: POOLING
  pooling_param {
    pool: AVE
    kernel_size: 3
    stride: 2
  }
}
layers {
  bottom: "pool2"
  top: "pool2"
  name: "drop6"
  type: DROPOUT
  dropout_param {
    dropout_ratio: 0.5
  }
}
layers {
  bottom: "pool2"
  top: "conv3"
  name: "conv3"
  type: CONVOLUTION
  blobs_lr: 1
  blobs_lr: 2
  weight_decay: 1
  weight_decay: 0
  convolution_param {
    num_output: 192
    pad: 1
    kernel_size: 3
    weight_filler {
      type: "gaussian"
      std: 0.05
    }
    bias_filler {
      type: "constant"
    }
  }
}
layers {
  bottom: "conv3"
  top: "conv3"
  name: "relu3"
  type: RELU
}
layers {
  bottom: "conv3"
  top: "cccp5"
  name: "cccp5"
  type: CONVOLUTION
  blobs_lr: 1
  blobs_lr: 2
  weight_decay: 1
  weight_decay: 0
  convolution_param {
    num_output: 192
    kernel_size: 1
    group: 1
    weight_filler {
      type: "gaussian"
      std: 0.05
    }
    bias_filler {
      type: "constant"
      value: 0
    }
  }
}
layers {
  bottom: "cccp5"
  top: "cccp5"
  name: "relu_cccp5"
  type: RELU
}
layers {
  bottom: "cccp5"
  top: "cccp6"
  name: "cccp6"
  type: CONVOLUTION
  blobs_lr: 0.1
  blobs_lr: 0.1
  weight_decay: 1
  weight_decay: 0
  convolution_param {
    num_output: 121
    kernel_size: 1
    group: 1
    weight_filler {
      type: "gaussian"
      std: 0.05
    }
    bias_filler {
      type: "constant"
      value: 0
    }
  }
}
layers {
  bottom: "cccp6"
  top: "cccp6"
  name: "relu_cccp6"
  type: RELU
}
layers {
  bottom: "cccp6"
  top: "pool3"
  name: "pool3"
  type: POOLING
  pooling_param {
    pool: AVE
    kernel_size: 12
    stride: 1
  }
}
layers {
  bottom: "pool3"
  bottom: "label"
  top: "loss"
  name: "loss"
  type: SOFTMAX_LOSS
}
state {
  phase: TRAIN
}
I0226 13:26:14.439647  9429 layer_factory.hpp:78] Creating layer cifar
I0226 13:26:14.439681  9429 data_transformer.cpp:24] Loading mean file from/home/jaehyun/kaggle/nationalDataScienceBowl/data/typeD/train_mean.binaryproto
I0226 13:26:14.439836  9429 net.cpp:68] Creating Layer cifar
I0226 13:26:14.439860  9429 net.cpp:357] cifar -> data
I0226 13:26:14.439889  9429 net.cpp:357] cifar -> label
I0226 13:26:14.439913  9429 net.cpp:97] Setting up cifar
I0226 13:26:14.439934  9429 data_layer.cpp:34] Opening dataset /home/jaehyun/kaggle/nationalDataScienceBowl/data/typeD/train_lmdb
I0226 13:26:14.440042  9429 lmdb_dataset.cpp:73] what the fuck!!
I0226 13:26:14.440124  9429 data_layer.cpp:73] output data size: 128,3,48,48
I0226 13:26:14.442390  9429 net.cpp:104] Top shape: 128 3 48 48 (884736)
I0226 13:26:14.442419  9429 net.cpp:104] Top shape: 128 1 1 1 (128)
I0226 13:26:14.442432  9429 layer_factory.hpp:78] Creating layer conv1
I0226 13:26:14.442455  9429 net.cpp:68] Creating Layer conv1
I0226 13:26:14.442469  9429 net.cpp:395] conv1 <- data
I0226 13:26:14.442636  9429 net.cpp:357] conv1 -> conv1
I0226 13:26:14.442692  9429 net.cpp:97] Setting up conv1
I0226 13:26:14.467828  9429 net.cpp:104] Top shape: 128 192 48 48 (56623104)
I0226 13:26:14.467931  9429 layer_factory.hpp:78] Creating layer relu1
I0226 13:26:14.467957  9429 net.cpp:68] Creating Layer relu1
I0226 13:26:14.467973  9429 net.cpp:395] relu1 <- conv1
I0226 13:26:14.467990  9429 net.cpp:346] relu1 -> conv1 (in-place)
I0226 13:26:14.468008  9429 net.cpp:97] Setting up relu1
I0226 13:26:14.468030  9429 net.cpp:104] Top shape: 128 192 48 48 (56623104)
I0226 13:26:14.468049  9429 layer_factory.hpp:78] Creating layer cccp1
I0226 13:26:14.468068  9429 net.cpp:68] Creating Layer cccp1
I0226 13:26:14.468081  9429 net.cpp:395] cccp1 <- conv1
I0226 13:26:14.468097  9429 net.cpp:357] cccp1 -> cccp1
I0226 13:26:14.468116  9429 net.cpp:97] Setting up cccp1
I0226 13:26:14.470221  9429 net.cpp:104] Top shape: 128 160 48 48 (47185920)
I0226 13:26:14.470976  9429 layer_factory.hpp:78] Creating layer relu_cccp1
I0226 13:26:14.471580  9429 net.cpp:68] Creating Layer relu_cccp1
I0226 13:26:14.471616  9429 net.cpp:395] relu_cccp1 <- cccp1
I0226 13:26:14.471635  9429 net.cpp:346] relu_cccp1 -> cccp1 (in-place)
I0226 13:26:14.471653  9429 net.cpp:97] Setting up relu_cccp1
I0226 13:26:14.471729  9429 net.cpp:104] Top shape: 128 160 48 48 (47185920)
I0226 13:26:14.471745  9429 layer_factory.hpp:78] Creating layer cccp2
I0226 13:26:14.471763  9429 net.cpp:68] Creating Layer cccp2
I0226 13:26:14.471776  9429 net.cpp:395] cccp2 <- cccp1
I0226 13:26:14.471796  9429 net.cpp:357] cccp2 -> cccp2
I0226 13:26:14.471819  9429 net.cpp:97] Setting up cccp2
I0226 13:26:14.472563  9429 net.cpp:104] Top shape: 128 96 48 48 (28311552)
I0226 13:26:14.472590  9429 layer_factory.hpp:78] Creating layer relu_cccp2
I0226 13:26:14.472606  9429 net.cpp:68] Creating Layer relu_cccp2
I0226 13:26:14.472618  9429 net.cpp:395] relu_cccp2 <- cccp2
I0226 13:26:14.472641  9429 net.cpp:346] relu_cccp2 -> cccp2 (in-place)
I0226 13:26:14.472657  9429 net.cpp:97] Setting up relu_cccp2
I0226 13:26:14.472673  9429 net.cpp:104] Top shape: 128 96 48 48 (28311552)
I0226 13:26:14.472687  9429 layer_factory.hpp:78] Creating layer pool1
I0226 13:26:14.472705  9429 net.cpp:68] Creating Layer pool1
I0226 13:26:14.472718  9429 net.cpp:395] pool1 <- cccp2
I0226 13:26:14.472739  9429 net.cpp:357] pool1 -> pool1
I0226 13:26:14.472755  9429 net.cpp:97] Setting up pool1
I0226 13:26:14.472797  9429 net.cpp:104] Top shape: 128 96 24 24 (7077888)
I0226 13:26:14.472812  9429 layer_factory.hpp:78] Creating layer drop3
I0226 13:26:14.472831  9429 net.cpp:68] Creating Layer drop3
I0226 13:26:14.472843  9429 net.cpp:395] drop3 <- pool1
I0226 13:26:14.472858  9429 net.cpp:346] drop3 -> pool1 (in-place)
I0226 13:26:14.472872  9429 net.cpp:97] Setting up drop3
I0226 13:26:14.472887  9429 net.cpp:104] Top shape: 128 96 24 24 (7077888)
I0226 13:26:14.472899  9429 layer_factory.hpp:78] Creating layer conv2
I0226 13:26:14.472919  9429 net.cpp:68] Creating Layer conv2
I0226 13:26:14.472933  9429 net.cpp:395] conv2 <- pool1
I0226 13:26:14.472951  9429 net.cpp:357] conv2 -> conv2
I0226 13:26:14.472967  9429 net.cpp:97] Setting up conv2
I0226 13:26:14.492137  9429 net.cpp:104] Top shape: 128 192 24 24 (14155776)
I0226 13:26:14.492187  9429 layer_factory.hpp:78] Creating layer relu2
I0226 13:26:14.492210  9429 net.cpp:68] Creating Layer relu2
I0226 13:26:14.492225  9429 net.cpp:395] relu2 <- conv2
I0226 13:26:14.492244  9429 net.cpp:346] relu2 -> conv2 (in-place)
I0226 13:26:14.492260  9429 net.cpp:97] Setting up relu2
I0226 13:26:14.492276  9429 net.cpp:104] Top shape: 128 192 24 24 (14155776)
I0226 13:26:14.492290  9429 layer_factory.hpp:78] Creating layer cccp3
I0226 13:26:14.492310  9429 net.cpp:68] Creating Layer cccp3
I0226 13:26:14.492321  9429 net.cpp:395] cccp3 <- conv2
I0226 13:26:14.492336  9429 net.cpp:357] cccp3 -> cccp3
I0226 13:26:14.492352  9429 net.cpp:97] Setting up cccp3
I0226 13:26:14.493954  9429 net.cpp:104] Top shape: 128 192 24 24 (14155776)
I0226 13:26:14.493981  9429 layer_factory.hpp:78] Creating layer relu_cccp3
I0226 13:26:14.493998  9429 net.cpp:68] Creating Layer relu_cccp3
I0226 13:26:14.494009  9429 net.cpp:395] relu_cccp3 <- cccp3
I0226 13:26:14.494026  9429 net.cpp:346] relu_cccp3 -> cccp3 (in-place)
I0226 13:26:14.494041  9429 net.cpp:97] Setting up relu_cccp3
I0226 13:26:14.494070  9429 net.cpp:104] Top shape: 128 192 24 24 (14155776)
I0226 13:26:14.494082  9429 layer_factory.hpp:78] Creating layer cccp4
I0226 13:26:14.494098  9429 net.cpp:68] Creating Layer cccp4
I0226 13:26:14.494110  9429 net.cpp:395] cccp4 <- cccp3
I0226 13:26:14.494132  9429 net.cpp:357] cccp4 -> cccp4
I0226 13:26:14.494150  9429 net.cpp:97] Setting up cccp4
I0226 13:26:14.495986  9429 net.cpp:104] Top shape: 128 192 24 24 (14155776)
I0226 13:26:14.496014  9429 layer_factory.hpp:78] Creating layer relu_cccp4
I0226 13:26:14.496032  9429 net.cpp:68] Creating Layer relu_cccp4
I0226 13:26:14.496047  9429 net.cpp:395] relu_cccp4 <- cccp4
I0226 13:26:14.496060  9429 net.cpp:346] relu_cccp4 -> cccp4 (in-place)
I0226 13:26:14.496075  9429 net.cpp:97] Setting up relu_cccp4
I0226 13:26:14.496091  9429 net.cpp:104] Top shape: 128 192 24 24 (14155776)
I0226 13:26:14.496104  9429 layer_factory.hpp:78] Creating layer pool2
I0226 13:26:14.496120  9429 net.cpp:68] Creating Layer pool2
I0226 13:26:14.496178  9429 net.cpp:395] pool2 <- cccp4
I0226 13:26:14.496199  9429 net.cpp:357] pool2 -> pool2
I0226 13:26:14.496215  9429 net.cpp:97] Setting up pool2
I0226 13:26:14.496233  9429 net.cpp:104] Top shape: 128 192 12 12 (3538944)
I0226 13:26:14.496247  9429 layer_factory.hpp:78] Creating layer drop6
I0226 13:26:14.496264  9429 net.cpp:68] Creating Layer drop6
I0226 13:26:14.496276  9429 net.cpp:395] drop6 <- pool2
I0226 13:26:14.496290  9429 net.cpp:346] drop6 -> pool2 (in-place)
I0226 13:26:14.496321  9429 net.cpp:97] Setting up drop6
I0226 13:26:14.496335  9429 net.cpp:104] Top shape: 128 192 12 12 (3538944)
I0226 13:26:14.496352  9429 layer_factory.hpp:78] Creating layer conv3
I0226 13:26:14.496371  9429 net.cpp:68] Creating Layer conv3
I0226 13:26:14.496384  9429 net.cpp:395] conv3 <- pool2
I0226 13:26:14.496402  9429 net.cpp:357] conv3 -> conv3
I0226 13:26:14.496417  9429 net.cpp:97] Setting up conv3
I0226 13:26:14.510128  9429 net.cpp:104] Top shape: 128 192 12 12 (3538944)
I0226 13:26:14.510159  9429 layer_factory.hpp:78] Creating layer relu3
I0226 13:26:14.510174  9429 net.cpp:68] Creating Layer relu3
I0226 13:26:14.510186  9429 net.cpp:395] relu3 <- conv3
I0226 13:26:14.510201  9429 net.cpp:346] relu3 -> conv3 (in-place)
I0226 13:26:14.510215  9429 net.cpp:97] Setting up relu3
I0226 13:26:14.510231  9429 net.cpp:104] Top shape: 128 192 12 12 (3538944)
I0226 13:26:14.510244  9429 layer_factory.hpp:78] Creating layer cccp5
I0226 13:26:14.510263  9429 net.cpp:68] Creating Layer cccp5
I0226 13:26:14.510277  9429 net.cpp:395] cccp5 <- conv3
I0226 13:26:14.510293  9429 net.cpp:357] cccp5 -> cccp5
I0226 13:26:14.510310  9429 net.cpp:97] Setting up cccp5
I0226 13:26:14.511912  9429 net.cpp:104] Top shape: 128 192 12 12 (3538944)
I0226 13:26:14.511936  9429 layer_factory.hpp:78] Creating layer relu_cccp5
I0226 13:26:14.511953  9429 net.cpp:68] Creating Layer relu_cccp5
I0226 13:26:14.511966  9429 net.cpp:395] relu_cccp5 <- cccp5
I0226 13:26:14.511981  9429 net.cpp:346] relu_cccp5 -> cccp5 (in-place)
I0226 13:26:14.511993  9429 net.cpp:97] Setting up relu_cccp5
I0226 13:26:14.512008  9429 net.cpp:104] Top shape: 128 192 12 12 (3538944)
I0226 13:26:14.512020  9429 layer_factory.hpp:78] Creating layer cccp6
I0226 13:26:14.512042  9429 net.cpp:68] Creating Layer cccp6
I0226 13:26:14.512054  9429 net.cpp:395] cccp6 <- cccp5
I0226 13:26:14.512068  9429 net.cpp:357] cccp6 -> cccp6
I0226 13:26:14.512084  9429 net.cpp:97] Setting up cccp6
I0226 13:26:14.513120  9429 net.cpp:104] Top shape: 128 121 12 12 (2230272)
I0226 13:26:14.513147  9429 layer_factory.hpp:78] Creating layer relu_cccp6
I0226 13:26:14.513165  9429 net.cpp:68] Creating Layer relu_cccp6
I0226 13:26:14.513178  9429 net.cpp:395] relu_cccp6 <- cccp6
I0226 13:26:14.513191  9429 net.cpp:346] relu_cccp6 -> cccp6 (in-place)
I0226 13:26:14.513206  9429 net.cpp:97] Setting up relu_cccp6
I0226 13:26:14.513221  9429 net.cpp:104] Top shape: 128 121 12 12 (2230272)
I0226 13:26:14.513233  9429 layer_factory.hpp:78] Creating layer pool3
I0226 13:26:14.513250  9429 net.cpp:68] Creating Layer pool3
I0226 13:26:14.513263  9429 net.cpp:395] pool3 <- cccp6
I0226 13:26:14.513278  9429 net.cpp:357] pool3 -> pool3
I0226 13:26:14.513291  9429 net.cpp:97] Setting up pool3
I0226 13:26:14.513308  9429 net.cpp:104] Top shape: 128 121 1 1 (15488)
I0226 13:26:14.513320  9429 layer_factory.hpp:78] Creating layer loss
I0226 13:26:14.513337  9429 net.cpp:68] Creating Layer loss
I0226 13:26:14.513350  9429 net.cpp:395] loss <- pool3
I0226 13:26:14.513362  9429 net.cpp:395] loss <- label
I0226 13:26:14.513380  9429 net.cpp:357] loss -> loss
I0226 13:26:14.513396  9429 net.cpp:97] Setting up loss
I0226 13:26:14.513412  9429 layer_factory.hpp:78] Creating layer loss
I0226 13:26:14.513474  9429 net.cpp:104] Top shape: 1 1 1 1 (1)
I0226 13:26:14.513491  9429 net.cpp:110]     with loss weight 1
I0226 13:26:14.513536  9429 net.cpp:171] loss needs backward computation.
I0226 13:26:14.513550  9429 net.cpp:171] pool3 needs backward computation.
I0226 13:26:14.513561  9429 net.cpp:171] relu_cccp6 needs backward computation.
I0226 13:26:14.513593  9429 net.cpp:171] cccp6 needs backward computation.
I0226 13:26:14.513605  9429 net.cpp:171] relu_cccp5 needs backward computation.
…
I0226 13:26:14.514659  9429 net.cpp:276] The NetState phase (1) differed from the phase (0) specified by a rule in layer cifar
I0226 13:26:14.514883  9429 net.cpp:39] Initializing net from parameters: 
name: "nin_full"
layers {
  top: "data"
  top: "label"
  name: "cifar"
  type: DATA
  data_param {
    source: "/home/jaehyun/kaggle/nationalDataScienceBowl/data/typeD/val_lmdb"
    batch_size: 128
    backend: LMDB
  }
  include {
    phase: TEST
  }
  transform_param {
    mirror: false
    mean_file: "/home/jaehyun/kaggle/nationalDataScienceBowl/data/typeD/train_mean.binaryproto"
  }
}
layers {
  bottom: "data"
  top: "conv1"
  name: "conv1"
  type: CONVOLUTION
  blobs_lr: 1
  blobs_lr: 2
  weight_decay: 1
  weight_decay: 0
  convolution_param {
    num_output: 192
    pad: 2
    kernel_size: 5
    weight_filler {
      type: "gaussian"
      std: 0.05
    }
    bias_filler {
      type: "constant"
    }
  }
}
layers {
  bottom: "conv1"
  top: "conv1"
  name: "relu1"
  type: RELU
}
layers {
  bottom: "conv1"
  top: "cccp1"
  name: "cccp1"
  type: CONVOLUTION
  blobs_lr: 1
  blobs_lr: 2
  weight_decay: 1
  weight_decay: 0
  convolution_param {
    num_output: 160
    kernel_size: 1
    group: 1
    weight_filler {
      type: "gaussian"
      std: 0.05
    }
    bias_filler {
      type: "constant"
      value: 0
    }
  }
}
layers {
  bottom: "cccp1"
  top: "cccp1"
  name: "relu_cccp1"
  type: RELU
}
layers {
  bottom: "cccp1"
  top: "cccp2"
  name: "cccp2"
  type: CONVOLUTION
  blobs_lr: 1
  blobs_lr: 2
  weight_decay: 1
  weight_decay: 0
  convolution_param {
    num_output: 96
    kernel_size: 1
    group: 1
    weight_filler {
      type: "gaussian"
      std: 0.05
    }
    bias_filler {
      type: "constant"
      value: 0
    }
  }
}
layers {
  bottom: "cccp2"
  top: "cccp2"
  name: "relu_cccp2"
  type: RELU
}
layers {
  bottom: "cccp2"
  top: "pool1"
  name: "pool1"
  type: POOLING
  pooling_param {
    pool: MAX
    kernel_size: 3
    stride: 2
  }
}
layers {
  bottom: "pool1"
  top: "pool1"
  name: "drop3"
  type: DROPOUT
  dropout_param {
    dropout_ratio: 0.5
  }
}
layers {
  bottom: "pool1"
  top: "conv2"
  name: "conv2"
  type: CONVOLUTION
  blobs_lr: 1
  blobs_lr: 2
  weight_decay: 1
  weight_decay: 0
  convolution_param {
    num_output: 192
    pad: 2
    kernel_size: 5
    weight_filler {
      type: "gaussian"
      std: 0.05
    }
    bias_filler {
      type: "constant"
    }
  }
}
layers {
  bottom: "conv2"
  top: "conv2"
  name: "relu2"
  type: RELU
}
layers {
  bottom: "conv2"
  top: "cccp3"
  name: "cccp3"
  type: CONVOLUTION
  blobs_lr: 1
  blobs_lr: 2
  weight_decay: 1
  weight_decay: 0
  convolution_param {
    num_output: 192
    kernel_size: 1
    group: 1
    weight_filler {
      type: "gaussian"
      std: 0.05
    }
    bias_filler {
      type: "constant"
      value: 0
    }
  }
}
layers {
  bottom: "cccp3"
  top: "cccp3"
  name: "relu_cccp3"
  type: RELU
}
layers {
  bottom: "cccp3"
  top: "cccp4"
  name: "cccp4"
  type: CONVOLUTION
  blobs_lr: 1
  blobs_lr: 2
  weight_decay: 1
  weight_decay: 0
  convolution_param {
    num_output: 192
    kernel_size: 1
    group: 1
    weight_filler {
      type: "gaussian"
      std: 0.05
    }
    bias_filler {
      type: "constant"
      value: 0
    }
  }
}
layers {
  bottom: "cccp4"
  top: "cccp4"
  name: "relu_cccp4"
  type: RELU
}
layers {
  bottom: "cccp4"
  top: "pool2"
  name: "pool2"
  type: POOLING
  pooling_param {
    pool: AVE
    kernel_size: 3
    stride: 2
  }
}
layers {
  bottom: "pool2"
  top: "pool2"
  name: "drop6"
  type: DROPOUT
  dropout_param {
    dropout_ratio: 0.5
  }
}
layers {
  bottom: "pool2"
  top: "conv3"
  name: "conv3"
  type: CONVOLUTION
  blobs_lr: 1
  blobs_lr: 2
  weight_decay: 1
  weight_decay: 0
  convolution_param {
    num_output: 192
    pad: 1
    kernel_size: 3
    weight_filler {
      type: "gaussian"
      std: 0.05
    }
    bias_filler {
      type: "constant"
    }
  }
}
layers {
  bottom: "conv3"
  top: "conv3"
  name: "relu3"
  type: RELU
}
layers {
  bottom: "conv3"
  top: "cccp5"
  name: "cccp5"
  type: CONVOLUTION
  blobs_lr: 1
  blobs_lr: 2
  weight_decay: 1
  weight_decay: 0
  convolution_param {
    num_output: 192
    kernel_size: 1
    group: 1
    weight_filler {
      type: "gaussian"
      std: 0.05
    }
    bias_filler {
      type: "constant"
      value: 0
    }
  }
}
layers {
  bottom: "cccp5"
  top: "cccp5"
  name: "relu_cccp5"
  type: RELU
}
layers {
  bottom: "cccp5"
  top: "cccp6"
  name: "cccp6"
  type: CONVOLUTION
  blobs_lr: 0.1
  blobs_lr: 0.1
  weight_decay: 1
  weight_decay: 0
  convolution_param {
    num_output: 121
    kernel_size: 1
    group: 1
    weight_filler {
      type: "gaussian"
      std: 0.05
    }
    bias_filler {
      type: "constant"
      value: 0
    }
  }
}
layers {
  bottom: "cccp6"
  top: "cccp6"
  name: "relu_cccp6"
  type: RELU
}
layers {
  bottom: "cccp6"
  top: "pool3"
  name: "pool3"
  type: POOLING
  pooling_param {
    pool: AVE
    kernel_size: 12
    stride: 1
  }
}
layers {
  bottom: "pool3"
  bottom: "label"
  top: "accuracy"
  name: "accuracy"
  type: ACCURACY
  include {
    phase: TEST
  }
}
layers {
  bottom: "pool3"
  bottom: "label"
  top: "loss"
  name: "loss"
  type: SOFTMAX_LOSS
}
state {
  phase: TEST
}
I0226 13:26:14.516046  9429 layer_factory.hpp:78] Creating layer cifar
I0226 13:26:14.516069  9429 data_transformer.cpp:24] Loading mean file from/home/jaehyun/kaggle/nationalDataScienceBowl/data/typeD/train_mean.binaryproto
I0226 13:26:14.516191  9429 net.cpp:68] Creating Layer cifar
I0226 13:26:14.516211  9429 net.cpp:357] cifar -> data
I0226 13:26:14.516230  9429 net.cpp:357] cifar -> label
I0226 13:26:14.516247  9429 net.cpp:97] Setting up cifar
I0226 13:26:14.516262  9429 data_layer.cpp:34] Opening dataset /home/jaehyun/kaggle/nationalDataScienceBowl/data/typeD/val_lmdb
I0226 13:26:14.516329  9429 lmdb_dataset.cpp:73] what the fuck!!
I0226 13:26:14.516373  9429 data_layer.cpp:73] output data size: 128,3,48,48
I0226 13:26:14.518275  9429 net.cpp:104] Top shape: 128 3 48 48 (884736)
I0226 13:26:14.518331  9429 net.cpp:104] Top shape: 128 1 1 1 (128)
I0226 13:26:14.518344  9429 layer_factory.hpp:78] Creating layer label_cifar_1_split
I0226 13:26:14.518365  9429 net.cpp:68] Creating Layer label_cifar_1_split
I0226 13:26:14.518379  9429 net.cpp:395] label_cifar_1_split <- label
I0226 13:26:14.518400  9429 net.cpp:357] label_cifar_1_split -> label_cifar_1_split_0
I0226 13:26:14.518429  9429 net.cpp:357] label_cifar_1_split -> label_cifar_1_split_1
I0226 13:26:14.518445  9429 net.cpp:97] Setting up label_cifar_1_split
I0226 13:26:14.518470  9429 net.cpp:104] Top shape: 128 1 1 1 (128)
I0226 13:26:14.518482  9429 net.cpp:104] Top shape: 128 1 1 1 (128)
I0226 13:26:14.518499  9429 layer_factory.hpp:78] Creating layer conv1
I0226 13:26:14.518517  9429 net.cpp:68] Creating Layer conv1
I0226 13:26:14.518530  9429 net.cpp:395] conv1 <- data
I0226 13:26:14.518545  9429 net.cpp:357] conv1 -> conv1
I0226 13:26:14.518561  9429 net.cpp:97] Setting up conv1
I0226 13:26:14.519265  9429 net.cpp:104] Top shape: 128 192 48 48 (56623104)
I0226 13:26:14.519295  9429 layer_factory.hpp:78] Creating layer relu1
I0226 13:26:14.519311  9429 net.cpp:68] Creating Layer relu1
I0226 13:26:14.519323  9429 net.cpp:395] relu1 <- conv1
I0226 13:26:14.519337  9429 net.cpp:346] relu1 -> conv1 (in-place)
I0226 13:26:14.519352  9429 net.cpp:97] Setting up relu1
I0226 13:26:14.519368  9429 net.cpp:104] Top shape: 128 192 48 48 (56623104)
I0226 13:26:14.519381  9429 layer_factory.hpp:78] Creating layer cccp1
I0226 13:26:14.519402  9429 net.cpp:68] Creating Layer cccp1
I0226 13:26:14.519415  9429 net.cpp:395] cccp1 <- conv1
I0226 13:26:14.519430  9429 net.cpp:357] cccp1 -> cccp1
I0226 13:26:14.519445  9429 net.cpp:97] Setting up cccp1
I0226 13:26:14.521028  9429 net.cpp:104] Top shape: 128 160 48 48 (47185920)
I0226 13:26:14.521056  9429 layer_factory.hpp:78] Creating layer relu_cccp1
I0226 13:26:14.521071  9429 net.cpp:68] Creating Layer relu_cccp1
I0226 13:26:14.521091  9429 net.cpp:395] relu_cccp1 <- cccp1
I0226 13:26:14.521106  9429 net.cpp:346] relu_cccp1 -> cccp1 (in-place)
I0226 13:26:14.521121  9429 net.cpp:97] Setting up relu_cccp1
I0226 13:26:14.521137  9429 net.cpp:104] Top shape: 128 160 48 48 (47185920)
I0226 13:26:14.521150  9429 layer_factory.hpp:78] Creating layer cccp2
I0226 13:26:14.521165  9429 net.cpp:68] Creating Layer cccp2
I0226 13:26:14.521178  9429 net.cpp:395] cccp2 <- cccp1
I0226 13:26:14.521194  9429 net.cpp:357] cccp2 -> cccp2
I0226 13:26:14.521210  9429 net.cpp:97] Setting up cccp2
I0226 13:26:14.521944  9429 net.cpp:104] Top shape: 128 96 48 48 (28311552)
I0226 13:26:14.521976  9429 layer_factory.hpp:78] Creating layer relu_cccp2
I0226 13:26:14.521992  9429 net.cpp:68] Creating Layer relu_cccp2
I0226 13:26:14.522004  9429 net.cpp:395] relu_cccp2 <- cccp2
I0226 13:26:14.522018  9429 net.cpp:346] relu_cccp2 -> cccp2 (in-place)
I0226 13:26:14.522037  9429 net.cpp:97] Setting up relu_cccp2
I0226 13:26:14.522053  9429 net.cpp:104] Top shape: 128 96 48 48 (28311552)
I0226 13:26:14.522064  9429 layer_factory.hpp:78] Creating layer pool1
I0226 13:26:14.522083  9429 net.cpp:68] Creating Layer pool1
I0226 13:26:14.522095  9429 net.cpp:395] pool1 <- cccp2
I0226 13:26:14.522111  9429 net.cpp:357] pool1 -> pool1
I0226 13:26:14.522128  9429 net.cpp:97] Setting up pool1
I0226 13:26:14.522147  9429 net.cpp:104] Top shape: 128 96 24 24 (7077888)
I0226 13:26:14.522160  9429 layer_factory.hpp:78] Creating layer drop3
I0226 13:26:14.522174  9429 net.cpp:68] Creating Layer drop3
I0226 13:26:14.522186  9429 net.cpp:395] drop3 <- pool1
I0226 13:26:14.522202  9429 net.cpp:346] drop3 -> pool1 (in-place)
I0226 13:26:14.522217  9429 net.cpp:97] Setting up drop3
I0226 13:26:14.522229  9429 net.cpp:104] Top shape: 128 96 24 24 (7077888)
I0226 13:26:14.522243  9429 layer_factory.hpp:78] Creating layer conv2
I0226 13:26:14.522258  9429 net.cpp:68] Creating Layer conv2
I0226 13:26:14.522270  9429 net.cpp:395] conv2 <- pool1
I0226 13:26:14.522284  9429 net.cpp:357] conv2 -> conv2
I0226 13:26:14.522320  9429 net.cpp:97] Setting up conv2
I0226 13:26:14.541324  9429 net.cpp:104] Top shape: 128 192 24 24 (14155776)
I0226 13:26:14.541352  9429 layer_factory.hpp:78] Creating layer relu2
I0226 13:26:14.541370  9429 net.cpp:68] Creating Layer relu2
I0226 13:26:14.541383  9429 net.cpp:395] relu2 <- conv2
I0226 13:26:14.541398  9429 net.cpp:346] relu2 -> conv2 (in-place)
I0226 13:26:14.541412  9429 net.cpp:97] Setting up relu2
I0226 13:26:14.541427  9429 net.cpp:104] Top shape: 128 192 24 24 (14155776)
I0226 13:26:14.541440  9429 layer_factory.hpp:78] Creating layer cccp3
I0226 13:26:14.541458  9429 net.cpp:68] Creating Layer cccp3
I0226 13:26:14.541471  9429 net.cpp:395] cccp3 <- conv2
I0226 13:26:14.541486  9429 net.cpp:357] cccp3 -> cccp3
I0226 13:26:14.541501  9429 net.cpp:97] Setting up cccp3
I0226 13:26:14.543093  9429 net.cpp:104] Top shape: 128 192 24 24 (14155776)
I0226 13:26:14.543118  9429 layer_factory.hpp:78] Creating layer relu_cccp3
I0226 13:26:14.543134  9429 net.cpp:68] Creating Layer relu_cccp3
I0226 13:26:14.543146  9429 net.cpp:395] relu_cccp3 <- cccp3
I0226 13:26:14.543159  9429 net.cpp:346] relu_cccp3 -> cccp3 (in-place)
I0226 13:26:14.543174  9429 net.cpp:97] Setting up relu_cccp3
I0226 13:26:14.543190  9429 net.cpp:104] Top shape: 128 192 24 24 (14155776)
I0226 13:26:14.543201  9429 layer_factory.hpp:78] Creating layer cccp4
I0226 13:26:14.543220  9429 net.cpp:68] Creating Layer cccp4
I0226 13:26:14.543232  9429 net.cpp:395] cccp4 <- cccp3
I0226 13:26:14.543248  9429 net.cpp:357] cccp4 -> cccp4
I0226 13:26:14.543264  9429 net.cpp:97] Setting up cccp4
I0226 13:26:14.544867  9429 net.cpp:104] Top shape: 128 192 24 24 (14155776)
I0226 13:26:14.544890  9429 layer_factory.hpp:78] Creating layer relu_cccp4
I0226 13:26:14.544905  9429 net.cpp:68] Creating Layer relu_cccp4
I0226 13:26:14.544917  9429 net.cpp:395] relu_cccp4 <- cccp4
I0226 13:26:14.544931  9429 net.cpp:346] relu_cccp4 -> cccp4 (in-place)
I0226 13:26:14.544947  9429 net.cpp:97] Setting up relu_cccp4
I0226 13:26:14.544962  9429 net.cpp:104] Top shape: 128 192 24 24 (14155776)
I0226 13:26:14.544975  9429 layer_factory.hpp:78] Creating layer pool2
I0226 13:26:14.544991  9429 net.cpp:68] Creating Layer pool2
I0226 13:26:14.545002  9429 net.cpp:395] pool2 <- cccp4
I0226 13:26:14.545017  9429 net.cpp:357] pool2 -> pool2
I0226 13:26:14.545032  9429 net.cpp:97] Setting up pool2
I0226 13:26:14.545047  9429 net.cpp:104] Top shape: 128 192 12 12 (3538944)
I0226 13:26:14.545059  9429 layer_factory.hpp:78] Creating layer drop6
I0226 13:26:14.545075  9429 net.cpp:68] Creating Layer drop6
I0226 13:26:14.545088  9429 net.cpp:395] drop6 <- pool2
I0226 13:26:14.545100  9429 net.cpp:346] drop6 -> pool2 (in-place)
I0226 13:26:14.545114  9429 net.cpp:97] Setting up drop6
I0226 13:26:14.545126  9429 net.cpp:104] Top shape: 128 192 12 12 (3538944)
I0226 13:26:14.545138  9429 layer_factory.hpp:78] Creating layer conv3
I0226 13:26:14.545156  9429 net.cpp:68] Creating Layer conv3
I0226 13:26:14.545168  9429 net.cpp:395] conv3 <- pool2
I0226 13:26:14.545182  9429 net.cpp:357] conv3 -> conv3
I0226 13:26:14.545197  9429 net.cpp:97] Setting up conv3
I0226 13:26:14.559180  9429 net.cpp:104] Top shape: 128 192 12 12 (3538944)
I0226 13:26:14.559234  9429 layer_factory.hpp:78] Creating layer relu3
I0226 13:26:14.559252  9429 net.cpp:68] Creating Layer relu3
I0226 13:26:14.559267  9429 net.cpp:395] relu3 <- conv3
I0226 13:26:14.559284  9429 net.cpp:346] relu3 -> conv3 (in-place)
I0226 13:26:14.559301  9429 net.cpp:97] Setting up relu3
I0226 13:26:14.559317  9429 net.cpp:104] Top shape: 128 192 12 12 (3538944)
I0226 13:26:14.559330  9429 layer_factory.hpp:78] Creating layer cccp5
I0226 13:26:14.559350  9429 net.cpp:68] Creating Layer cccp5
I0226 13:26:14.559362  9429 net.cpp:395] cccp5 <- conv3
I0226 13:26:14.559377  9429 net.cpp:357] cccp5 -> cccp5
I0226 13:26:14.559394  9429 net.cpp:97] Setting up cccp5
I0226 13:26:14.561008  9429 net.cpp:104] Top shape: 128 192 12 12 (3538944)
I0226 13:26:14.561033  9429 layer_factory.hpp:78] Creating layer relu_cccp5
I0226 13:26:14.561048  9429 net.cpp:68] Creating Layer relu_cccp5
I0226 13:26:14.561105  9429 net.cpp:395] relu_cccp5 <- cccp5
I0226 13:26:14.561120  9429 net.cpp:346] relu_cccp5 -> cccp5 (in-place)
I0226 13:26:14.561136  9429 net.cpp:97] Setting up relu_cccp5
I0226 13:26:14.561151  9429 net.cpp:104] Top shape: 128 192 12 12 (3538944)
I0226 13:26:14.561164  9429 layer_factory.hpp:78] Creating layer cccp6
I0226 13:26:14.561182  9429 net.cpp:68] Creating Layer cccp6
I0226 13:26:14.561197  9429 net.cpp:395] cccp6 <- cccp5
I0226 13:26:14.561210  9429 net.cpp:357] cccp6 -> cccp6
I0226 13:26:14.561228  9429 net.cpp:97] Setting up cccp6
I0226 13:26:14.562261  9429 net.cpp:104] Top shape: 128 121 12 12 (2230272)
I0226 13:26:14.562291  9429 layer_factory.hpp:78] Creating layer relu_cccp6
I0226 13:26:14.562306  9429 net.cpp:68] Creating Layer relu_cccp6
I0226 13:26:14.562319  9429 net.cpp:395] relu_cccp6 <- cccp6
I0226 13:26:14.562332  9429 net.cpp:346] relu_cccp6 -> cccp6 (in-place)
I0226 13:26:14.562346  9429 net.cpp:97] Setting up relu_cccp6
I0226 13:26:14.562362  9429 net.cpp:104] Top shape: 128 121 12 12 (2230272)
I0226 13:26:14.562376  9429 layer_factory.hpp:78] Creating layer pool3
I0226 13:26:14.562393  9429 net.cpp:68] Creating Layer pool3
I0226 13:26:14.562405  9429 net.cpp:395] pool3 <- cccp6
I0226 13:26:14.562419  9429 net.cpp:357] pool3 -> pool3
I0226 13:26:14.562434  9429 net.cpp:97] Setting up pool3
I0226 13:26:14.562453  9429 net.cpp:104] Top shape: 128 121 1 1 (15488)
I0226 13:26:14.562464  9429 layer_factory.hpp:78] Creating layer pool3_pool3_0_split
I0226 13:26:14.562481  9429 net.cpp:68] Creating Layer pool3_pool3_0_split
I0226 13:26:14.562494  9429 net.cpp:395] pool3_pool3_0_split <- pool3
I0226 13:26:14.562507  9429 net.cpp:357] pool3_pool3_0_split -> pool3_pool3_0_split_0
I0226 13:26:14.562525  9429 net.cpp:357] pool3_pool3_0_split -> pool3_pool3_0_split_1
I0226 13:26:14.562541  9429 net.cpp:97] Setting up pool3_pool3_0_split
I0226 13:26:14.562554  9429 net.cpp:104] Top shape: 128 121 1 1 (15488)
I0226 13:26:14.562566  9429 net.cpp:104] Top shape: 128 121 1 1 (15488)
I0226 13:26:14.562577  9429 layer_factory.hpp:78] Creating layer accuracy
I0226 13:26:14.562599  9429 net.cpp:68] Creating Layer accuracy
I0226 13:26:14.562613  9429 net.cpp:395] accuracy <- pool3_pool3_0_split_0
I0226 13:26:14.562625  9429 net.cpp:395] accuracy <- label_cifar_1_split_0
I0226 13:26:14.562639  9429 net.cpp:357] accuracy -> accuracy
I0226 13:26:14.562654  9429 net.cpp:97] Setting up accuracy
I0226 13:26:14.562670  9429 net.cpp:104] Top shape: 1 1 1 1 (1)
I0226 13:26:14.562682  9429 layer_factory.hpp:78] Creating layer loss
I0226 13:26:14.562696  9429 net.cpp:68] Creating Layer loss
I0226 13:26:14.562708  9429 net.cpp:395] loss <- pool3_pool3_0_split_1
I0226 13:26:14.562721  9429 net.cpp:395] loss <- label_cifar_1_split_1
I0226 13:26:14.562736  9429 net.cpp:357] loss -> loss
I0226 13:26:14.562752  9429 net.cpp:97] Setting up loss
I0226 13:26:14.562767  9429 layer_factory.hpp:78] Creating layer loss
I0226 13:26:14.562825  9429 net.cpp:104] Top shape: 1 1 1 1 (1)
I0226 13:26:14.562841  9429 net.cpp:110]     with loss weight 1
I0226 13:26:14.562868  9429 net.cpp:171] loss needs backward computation.
I0226 13:26:14.562881  9429 net.cpp:173] accuracy does not need backward computation.
I0226 13:26:14.562892  9429 net.cpp:171] pool3_pool3_0_split needs backward computation.
I0226 13:26:14.562904  9429 net.cpp:171] pool3 needs backward computation.
I0226 13:26:14.562916  9429 net.cpp:171] relu_cccp6 needs backward computation.
…
